dlpg/26/weights/dlpg_model_weights_200.pth (torch, 313083 bytes, 14 tensors)

cvae_parameters.dec_00_lin_b f4 [128]
-0.028776245 -0.02264101 -0.030111076 -0.01790422 -0.016745439 -0.03469989 -0.02167387 -0.023715856
-0.02122014 -0.023458788 -0.020841174 -0.016940199 -0.018110275 -0.020588566 -0.027596073 -0.019223088
-0.01601622 -0.030651728 -0.019425185 -0.02920717 -0.024306146 -0.021909988 -0.027547322 -0.027796825
-0.025071368 -0.025226 -0.015360407 -0.019662507 -0.026118396 -0.020541277 -0.025582243 -0.019735144
-0.026058227 -0.019598821 -0.019488098 -0.025377959 -0.032378733 -0.023738092 -0.021615768 -0.020211132
-0.015878659 -0.023234027 -0.027754286 -0.026512628 -0.02201878 -0.023781814 -0.016763696 -0.027758453
-0.023118434 -0.025966674 -0.019956917 -0.023363588 -0.024696913 -0.03474605 -0.01690253 -0.023345832
-0.03146951 -0.022446163 -0.020640552 -0.01784903 -0.025816776 -0.030641949 -0.016751828 -0.026174894
-0.02291728 -0.021266507 -0.027856786 -0.032688588 -0.019196406 -0.027892444 -0.010024349 -0.026945872
-0.024452459 -0.01971724 -0.02057389 -0.0340568 -0.023518985 -0.020644236 -0.028321305 -0.028621763
-0.019356294 -0.019574933 -0.023395414 -0.028735226 -0.02721363 -0.01922031 -0.036102284 -0.022624992
-0.03126282 -0.016647033 -0.023429954 -0.020762818 -0.023095127 -0.023991693 -0.02519672 -0.033900395
-0.03247127 -0.02281355 -0.02234263 -0.028997846 -0.031560794 -0.020468466 -0.027210219 -0.028798345
-0.024824902 -0.023692023 -0.021830766 -0.029015707 -0.033964586 -0.023366822 -0.0186675 -0.040974632
-0.025771866 -0.02821722 -0.018626472 -0.022485357 -0.020915167 -0.03439648 -0.020120097 -0.028242398
-0.023105482 -0.024693668 -0.024864733 -0.016043924 -0.014668241 -0.034670718 -0.01284419 -0.02297231
00000000: 29bc ebbc a479 b9bc 81ab f6bc dfab 92bc
00000010: bb2d 89bc 7921 0ebd 668d b1bc c147 c2bc
00000020: dcd5 adbc a52c c0bc 1cbb aabc 2cc6 8abc
00000030: 005c 94bc 5aa9 a8bc 2911 e2bc bd79 9dbc
00000040: 7334 83bc 5519 fbbc 9121 9fbc e043 efbc
00000050: af1d c7bc 937c b3bc ecaa e1bc 2bb6 e3bc
00000060: 7862 cdbc c2a6 cebc 37aa 7bbc 4413 a1bc
00000070: 3ff6 d5bc 2e46 a8bc da91 d1bc 99ab a1bc
00000080: 1078 d5bc b58d a0bc 81a5 9fbc 70e5 cfbc
00000090: 909f 04bd 6376 c2bc 8d13 b1bc d191 a5bc
000000a0: f613 82bc 4955 bebc f55c e3bc 0331 d9bc
000000b0: ba60 b4bc 14d2 c2bc 0554 89bc b265 e3bc
000000c0: df62 bdbc 10b8 d4bc b07c a3bc ff64 bfbc
000000d0: 2e51 cabc e051 0ebd 2d77 8abc c23f bfbc
000000e0: 2ce6 00bd 04e1 b7bc 6016 a9bc 2138 92bc
000000f0: b47d d3bc d304 fbbc 213b 89bc bb6c d6bc
00000100: 05bd bbbc 1937 aebc ea33 e4bc 78e4 05bd
00000110: c841 9dbc b27e e4bc 2b3d 24bc 97bd dcbc
00000120: 8650 c8bc 0d86 a1bc 938a a8bc 257f 0bbd
00000130: e3aa c0bc 1a1e a9bc 1502 e8bc 3078 eabc
00000140: 1791 9ebc 9c5b a0bc bda7 bfbc 2366 ebbc
00000150: 1eef debc e973 9dbc fddf 13bd 0c58 b9bc
00000160: 710d 00bd 5c5f 88bc 2df0 bfbc c916 aabc
00000170: fe31 bdbc 3a8a c4bc 5a69 cebc 24db 0abd
00000180: 9800 05bd 7be3 babc e407 b7bc e48c edbc
00000190: e445 01bd 7cad a7bc f7e7 debc 82ea ebbc
000001a0: 985d cbbc c615 c2bc 6fd6 b2bc 59b2 edbc
000001b0: 731e 0bbd c76b bfbc 96ec 98bc 04d5 27bd
000001c0: 851f d3bc cd27 e7bc 8b96 98bc 3633 b8bc
000001d0: 4956 abbc 53e3 0cbd e7d2 a4bc 9a5c e7bc
000001e0: b547 bdbc 604a cabc 20b1 cbbc 8c6e 83bc
000001f0: 1053 70bc e202 0ebd 7070 52bc 6d30 bcbc

cvae_parameters.dec_00_lin_w f4 [128, 35]
0.012036827 -0.009916904 -0.0018984954 -0.0030581679 -0.017008308 0.001593352 -0.0064403336 0.008005999
-0.00014421996 0.0038625961 -0.003026068 -0.011773417 0.004316062 -0.0051010465 -0.003180904 -0.006504241
-0.008593206 0.005541179 -0.012448189 -0.011324581 -0.0004960951 0.008218693 0.0014089274 -0.00047795073
0.007889563 -0.019572051 -0.005138413 -0.016378848 -0.00018050882 -0.001999203 -0.003167883 0.003812295
0.0024212277 -0.016702803 0.0038817045 -0.02102147 -0.023373289 -0.0002213019 0.020499801 0.0031769252
0.0055728834 0.014205681 0.008213432 -0.008725323 0.01675819 -0.008587987 0.004976877 0.006992028
0.018396828 -0.003979069 -0.016948717 -0.0032007506 0.009539546 -0.009996421 0.012512889 -0.00044300442
-0.0048800637 0.0040676286 0.009095768 0.007198837 0.0074315155 -0.0016539769 0.0013338552 0.008639482
0.01549062 0.01378392 -0.0072259586 0.014796896 -0.02285776 -0.005321757 -0.00048793468 0.007663074
-0.00648658 -0.008623972 0.0009795331 -0.0085950205 -0.008262046 -0.012370762 -0.00049272925 -0.007271986
-0.004969779 0.008811534 -0.0065066405 -0.0036633343 -0.0041497205 -0.006767533 0.0014719715 0.0002590544
0.0030783853 -0.003907012 0.006299633 -0.006417196 -0.009358867 0.008910616 -0.0006153422 -0.007902706
-0.007377783 -0.0037061132 -0.0045092413 -0.0037522675 0.011038238 -0.0057608914 0.026339151 -0.017237365
-0.005241731 0.0038990804 -0.0037309467 0.00083647226 -0.004779444 0.01763866 0.0142953 -0.0015309158
-0.013952607 -0.005245661 -0.0043389653 -0.0022022906 0.006140723 -0.0011738294 0.0040361932 0.006453688
-0.004976715 0.0026599902 0.0049708216 -0.00824662 -0.014566268 -0.0098844515 -0.009790832 -0.008213425
0.014652191 -0.01261156 0.0055696275 0.008005667 -0.0023173545 0.0047116163 -0.0066412333 0.0036782955
-0.00037961616 -0.004030642 -0.015148712 -0.003163791 -0.0015885585 -0.015676131 0.003982993 0.0051430804
-0.0047243345 0.0064736884 0.0034272834 0.0143081425 0.0018488873 0.006028819 0.0019311467 0.0011289769
0.008765932 -0.0059515075 -0.015990555 0.0028060195 0.0062924074 0.0011945451 -0.0005054603 0.0041435496
-0.0004291449 0.0027806717 0.009929696 0.00082824746 -0.0014042075 0.0047989446 -0.0034407857 -0.007915157
-0.0063171973 -0.01001686 -0.014760572 -0.0071749026 -0.004464576 -0.016262587 -0.0010892828 0.009770807
0.009061204 0.007154674 -0.003617088 -0.015916374 0.0062823906 -0.0035785153 0.005694333 -0.015727734
0.002189756 -0.006762082 -0.0037131952 0.0024372707 0.003066991 0.0016557694 0.0070681795 0.002944413
0.0050663315 -0.005658561 -0.01280218 0.0010642479 -0.020218885 -0.004153624 -0.0016710587 0.004362768
-0.0059056953 0.0051852586 0.014701818 -0.0022403763 -0.0022324559 -0.0030233462 -0.010107161 -0.010147929
-0.018111924 0.010107289 0.011886036 -0.009115115 -0.01128662 -0.01594191 0.0028290702 -0.0018729164
0.002084321 0.0067661647 -0.008910431 0.009354897 -0.013901032 0.013055065 0.00860661 -0.00844917
0.0063259955 0.016624622 -0.01833701 0.011388659 -0.0038942765 -0.0017493105 -0.009416609 -0.0055762553
0.00901475 0.010521419 -0.009026531 -0.0056343544 0.002978085 0.009720716 -0.004778181 0.008811368
-0.0023523895 0.014585097 0.0032742866 -0.031319074 -0.007932676 0.0014234682 -0.002985906 -0.01667666
0.005005071 -0.005522362 -0.0052496046 -0.00081051345 -0.001242975 0.006821798 -0.002933602 0.00033884327
00000000: 1d36 453c 837a 22bc efd6 f8ba 8b6b 48bb
00000010: 0255 8bbc 05d8 d03a 6f09 d3bb 982b 033c
00000020: c039 17b9 9c23 7d3b ff50 46bb 4ae5 40bc
00000030: c16d 8d3b ae26 a7bb b776 50bb 8721 d5bb
00000040: 85ca 0cbc c792 b53b 7df3 4bbc bc8a 39bc
00000050: 610c 02ba b2a7 063c c2ab b83a 7695 fab9
00000060: 3a43 013c 9155 a0bc 2260 a8bb ef2c 86bc
00000070: f846 3db9 1005 03bb 429c 4fbb b2d7 793b
00000080: 76ad 1e3b 51d4 88bc 3264 7e3b 3835 acbc
00000090: 5779 bfbc 470d 68b9 33ef a73c f633 503b
000000a0: bc9c b63b f2be 683c a191 063c a8f4 0ebc
000000b0: 7948 893c a1b4 0cbc 1215 a33b 621d e53b
000000c0: f2b4 963c da62 82bb 09d8 8abc afc3 51bb
000000d0: c24b 1c3c 07c8 23bc dc02 4d3c 0c43 e8b9
000000e0: f1e8 9fbb be49 853b 6b06 153c 39e4 eb3b
000000f0: 1284 f33b 41ca d8ba c1d4 ae3a 9d8c 0d3c
00000100: 5fcc 7d3c f3d5 613c bcc7 ecbb ae6e 723c
00000110: 3240 bbbc 2262 aebb 7cd1 ffb9 861a fb3b
00000120: 608d d4bb 8f4b 0dbc ad63 803a 21d2 0cbc
00000130: 885d 07bc bdae 4abc 802a 01ba d749 eebb
00000140: 87d9 a2bb 415e 103c a835 d5bb 8d14 70bb
00000150: 61fa 87bb 2ec2 ddbb 2bef c03a b1d1 8739
00000160: bcbe 493b 6406 80bb 276d ce3b 5747 d2bb
00000170: ef55 19bc d5fd 113c ea4e 21ba 5a7a 01bc
00000180: 54c1 f1bb 43e2 72bb 42c2 93bb 9ae8 75bb
00000190: bad9 343c dcc5 bcbb 34c5 d73c 6035 8dbc
000001a0: d4c2 abbb b787 7f3b e682 74bb b446 5b3a
000001b0: e29c 9cbb f37e 903c d536 6a3c 03a9 c8ba
000001c0: 7a99 64bc cbe3 abbb e12d 8ebb 4e54 10bb
000001d0: 1e38 c93b 2edb 99ba 0b42 843b 7579 d33b
000001e0: b613 a3bb 3b53 2e3b 46e2 a23b d51c 07bc
000001f0: 5ba7 6ebc 65f2 21bc ba69 20bc 9a91 06bc
00000200: be0f 703c b7a0 4ebc 6c81 b63b 332a 033c
00000210: c2de 17bb e763 9a3b b49e d9bb 8f0f 713b
00000220: 3807 c7b9 7a13 84bb 4e32 78bc 9b57 4fbb
00000230: 2e37 d0ba 3b6b 80bc c483 823b 4987 a83b
00000240: 97ce 9abb 3c21 d43b 469c 603b b36c 6a3c
00000250: 5d56 f23a 668d c53b 881e fd3a 2efa 933a
00000260: fc9e 0f3c dd04 c3bb a0fe 82bc 32e5 373b
00000270: 8a30 ce3b 4892 9c3a de80 04ba 9dc6 873b
00000280: dafe e0b9 ee3b 363b 2ab0 223c bf1e 593a
00000290: 630d b8ba 7740 9d3b ce7e 61bb 93ae 01bc
000002a0: 7e00 cfbb c21d 24bc 54d6 71bc 721b ebbb
000002b0: 944b 92bb 1e39 85bc 44c6 8eba bc15 203c
000002c0: 7275 143c c171 ea3b ab0c 6dbb 0e63 82bc
000002d0: 83dc cd3b 8685 6abb 8797 ba3b 73d7 80bc
000002e0: 0282 0f3b 7594 ddbb 1459 73bb 9eba 1f3b
000002f0: 92ff 483b 6706 d93a 309c e73b 0ef7 403b
00000300: 7803 a63b 736b b9bb 3cc0 51bc 3c7e 8b3a
00000310: 13a2 a5bc 201b 88bb 6d07 dbba 8df5 8e3b
00000320: 9084 c1bb 1ae9 a93b e5df 703c 47d3 12bb
00000330: 654e 12bb 5523 46bb 8198 25bc 8043 26bc
00000340: 755f 94bc 0b99 253c a6bd 423c 9057 15bc
00000350: 84eb 38bc 9c98 82bc ec67 393b a57c f5ba
00000360: 1b99 083b b4b6 dd3b 0efd 11bc 4845 193c
00000370: 27c1 63bc e9e4 553c bd02 0d3c 636e 0abc
00000380: 4c4a cf3b 5c30 883c 7f37 96bc 7f97 3a3c
00000390: 1e37 7fbb 1f49 e5ba 1f48 1abc 05b9 b6bb
000003a0: 9ab2 133c 0862 2c3c 04e4 13bc 64a0 b8bb
000003b0: fa2b 433b a343 1f3c 4a92 9cbb 8e5d 103c
000003c0: 8c2a 1abb 55f6 6e3c 6a95 563b 6e48 00bd
000003d0: 0ef8 01bc ab93 ba3a 31af 43bb 7e9d 88bc
000003e0: 9401 a43b eef4 b4bb e004 acbb a378 54ba
000003f0: 52eb a2ba 6489 df3b ad41 40bb c6a6 b139

cvae_parameters.dec_01_lin_b f4 [128]
0.11502206 0.07759801 -0.002437846 -0.0050130375 0.10613288 -0.003637527 0.093403056 0.10095543
-0.0046842587 -0.0028134075 -0.011685721 0.06363705 0.0749141 0.1161615 0.089388184 -0.009225974
0.10084188 0.122743934 0.11982951 -0.009371706 0.060053423 0.08201552 0.08361623 0.0971349
0.103473686 0.11525872 -0.010417525 0.11494846 0.094609044 0.11300147 0.04911608 0.09146754
-0.006416473 -0.009521366 0.11407074 -0.0042055384 0.08065184 0.07680736 0.08921102 0.11070723
0.124018036 -0.005068992 0.10068221 0.08950851 -0.011626484 -0.008624624 0.12914263 0.09118117
-0.010029111 -0.0074472907 0.086467214 0.114739664 0.10137547 0.06352791 -0.0062953527 0.11795746
-0.009787285 -0.008332634 -0.009254814 -0.0070541343 -0.008899983 -0.0092993835 0.10826645 0.105944805
0.077643044 -0.013940324 0.09341367 0.09302454 0.0952656 0.10961278 -0.011226275 0.051780373
0.112850115 0.08768685 0.10650166 0.102417655 -0.01243502 0.109181926 0.11967141 -0.007686556
0.09886914 -0.007983593 -0.009513964 0.10129961 0.11501321 -0.009157437 0.0454666 -0.007954951
-0.005886415 -0.010261576 0.11588798 0.10690372 -0.015174528 0.105407014 -0.010965413 0.098577045
-0.005642475 -0.00426628 -0.0016540221 0.11359558 0.11304599 0.09501236 -0.0023282461 0.013049962
0.054295387 -0.010115946 -0.0015350913 0.09775977 0.09504184 -0.0025445258 -0.008830454 -0.0051507573
0.09362557 -0.0079742195 0.080002025 0.102233514 0.09820892 0.06293155 0.11957292 -0.011747549
0.080759645 -0.011673431 -0.016426867 0.12612112 -0.013436839 0.10196555 -0.008523254 0.08802697
00000000: b090 eb3d b5eb 9e3d 45c4 1fbb 6844 a4bb
00000010: 325c d93d 9463 6ebb 1a4a bf3d b8c1 ce3d
00000020: 697e 99bb 2561 38bb 7775 3fbc 2454 823d
00000030: 906c 993d 15e6 ed3d 2711 b73d 8a28 17bc
00000040: 3086 ce3d 2c61 fb3d 2d69 f53d c98b 19bc
00000050: 94fa 753d c1f7 a73d fc3e ab3d aaee c63d
00000060: 03ea d33d c40c ec3d 44ae 2abc 196a eb3d
00000070: 63c2 c13d 516d e73d f12d 493d 5553 bb3d
00000080: 4741 d2bb 81ff 1bbc ec9d e93d 9dce 89bb
00000090: cb2c a53d 2d4d 9d3d 44b4 b63d 79ba e23d
000000a0: 2bfd fd3d c919 a6bb 7932 ce3d 3d50 b73d
000000b0: 027d 3ebc 4c4e 0dbc f73d 043e 31bd ba3d
000000c0: 2451 24bc 6708 f4bb b915 b13d a1fc ea3d
000000d0: f19d cf3d ec1a 823d 3f49 cebb ae93 f13d
000000e0: d95a 20bc 9a85 08bc 81a1 17bc 5e26 e7bb
000000f0: 3cd1 11bc 715c 18bc cdba dd3d 97f9 d83d
00000100: 5103 9f3d f565 64bc ab4f bf3d a683 be3d
00000110: 9c1a c33d aa7c e03d 69ee 37bc a817 543d
00000120: f61d e73d 2a95 b33d 8b1d da3d 59c0 d13d
00000130: 41bc 4bbc c69a df3d 4916 f53d 81df fbbb
00000140: e77b ca3d 9ecd 02bc 75e0 1bbc 2c76 cf3d
00000150: 0c8c eb3d 1309 16bc 303b 3a3d 7c55 02bc
00000160: d4e2 c0bb 2b20 28bc ad56 ed3d 56f0 da3d
00000170: 959e 78bc a2df d73d 47a8 33bc c3e2 c93d
00000180: 83e4 b8bb 27cc 8bbb c6cb d8ba cda4 e83d
00000190: a884 e73d d795 c23d 7d95 18bb 82cf 553c
000001a0: d764 5e3d 5abd 25bc 1e35 c9ba 4636 c83d
000001b0: 4ca5 c23d 0fc2 26bb 9cad 10bc afc7 a8bb
000001c0: c3be bf3d 4da6 02bc 1ad8 a33d ce5f d13d
000001d0: c221 c93d 42e2 803d a6e2 f43d cb78 40bc
000001e0: 5065 a53d eb41 3fbc a391 86bc e525 013e
000001f0: 3026 5cbc 50d3 d03d 1ea5 0bbc 7c47 b43d

cvae_parameters.dec_01_lin_w f4 [128, 128]
0.00091176754 0.016433908 -0.0072483756 -0.0018941502 0.005190488 0.0036384475 0.009521064 0.0072639203
0.0054687248 0.0045480784 -0.018649114 0.010027637 -0.0044499557 0.0076142773 0.012747027 0.0171362
0.00020380926 -0.0046026194 0.022808114 0.00022036265 -0.008939949 0.007315736 -0.0037502476 0.0031524242
0.009640621 0.0030011784 0.00200748 -0.012964372 0.0040776017 0.0072193723 0.005655317 -0.009221166
-0.015236916 0.022332098 0.002624366 -0.0036013706 0.0002832507 -0.0019893248 0.008644916 -0.0033545
0.02455187 -0.0070798015 -0.002067469 0.012668315 0.004851329 0.0016706975 0.021007998 -0.0013859712
0.0068149753 0.0058380216 0.010267157 0.010746914 0.0040440205 0.020177424 0.01448339 -0.008682007
0.014733393 0.010082431 -0.011993342 0.001444338 0.0010710763 0.008528865 -0.0033496583 0.0053205155
0.002204515 0.010065765 0.0075954846 0.0008312215 -0.009329143 -0.0054997243 0.015332548 -0.010177098
0.01525534 0.014189645 -0.010765724 -0.006555033 0.0045558154 -0.0072302925 0.01274604 0.025287246
-0.0090881875 0.010999527 -0.015529273 -0.0021822308 -0.001080306 0.020578025 -0.0032504278 0.0070474865
0.0009757501 0.01192162 0.010943904 -0.003797514 0.010175547 -0.004943374 0.004144885 0.007837454
0.0012549354 0.008739587 0.0050801835 0.004423506 -0.0024015247 0.017111458 -0.00518566 0.010730156
0.012166188 0.012267672 0.020382712 -0.0130026145 0.0038486463 -0.0061002625 -0.0034686807 0.009701536
0.0029334961 -0.0024003654 0.0049275397 -0.00026435338 0.008019387 0.009787531 -0.0059231897 -0.01490325
0.009531937 0.016268376 -0.0028320053 -0.0029799037 0.01418275 -0.0018663041 0.011858242 0.011960796
-0.011992307 0.005998668 -0.0029393649 -0.0029491428 -0.010237947 -0.012176397 -0.018318502 -0.011848926
0.0004175855 0.017426005 0.014931223 0.00030167392 -0.017382855 -0.0015356196 -0.010455399 0.0021151686
-0.009959439 -0.002047052 0.0025769684 -0.024567375 0.01891698 -0.0011663039 -0.0069348193 0.01222089
0.0035057787 -0.006354442 -0.0076784664 0.004641782 0.0045160144 9.52683e-05 -0.024338044 -0.019438857
-0.0011019682 -0.013327202 0.0012613656 -0.009074287 -0.010419278 -0.01545164 -0.0001425311 -0.009710011
-0.010000803 -0.0067585055 0.009032765 0.006909671 0.001248435 -0.01434004 -0.0032548867 -0.004539596
-0.015489299 -0.0007231217 0.0028358337 -0.014655753 0.01611481 0.0038560904 -0.003535091 -0.009551247
-0.009826391 -0.0009366742 -0.0018520348 0.011054299 0.0013941335 0.0193514 0.004989998 0.0020512154
-0.0011981654 -0.0045114993 0.009504846 -0.00043035802 -0.0063167303 0.005623667 -0.006949362 -0.0041925604
-0.012256389 0.015071961 0.0056110164 -0.009958588 -0.0030916766 0.0060690627 -0.0014998141 -0.0002485533
0.0046558855 0.0024889754 -0.008213667 -0.0128434375 -0.0044043255 -0.006256266 8.996012e-05 -0.004920969
0.007324838 -0.0046309656 -0.009221964 -0.011388959 0.0038446286 -0.010520026 0.0010845795 -0.0123742595
0.015326514 -0.018858254 -0.0020721913 -0.0096715465 -0.006619913 -0.0016309186 -0.010842441 -0.015144436
-0.002974587 -0.014805003 -0.008891438 -0.0036326959 0.012677545 -0.010289075 2.7381491e-05 -0.005322359
0.005245377 0.0025784182 -0.010374991 -0.0072891996 0.00024465582 -0.008938064 -0.0049929116 -0.0025776504
-0.015302536 -0.0066784993 -0.0071191294 -0.017038727 -0.0035818776 -0.008079531 -0.01326565 -0.0022287644
00000000: af03 6f3a 67a0 863c c883 edbb 2245 f8ba
00000010: f814 aa3b 0573 6e3b 3dfe 1b3c 2e06 ee3b
00000020: fd32 b33b 0c08 953b 07c6 98bc f54a 243c
00000030: efd0 91bb 3081 f93b e8d8 503c 3761 8c3c
00000040: a2b5 5539 92d1 96bb 15d8 ba3c 2611 6739
00000050: dd78 12bc d7b8 ef3b b7c6 75bb e798 4e3b
00000060: b2f3 1d3c 6baf 443b ed8f 033b 8468 54bc
00000070: 679d 853b 7c90 ec3b 3d50 b93b 6014 17bc
00000080: 42a4 79bc cef1 b63c 8efd 2b3b f904 6cbb
00000090: 4481 9439 555f 02bb 68a3 0d3c 2cd7 5bbb
000000a0: 0121 c93c aefd e7bb 607e 07bb c48e 4f3c
000000b0: e6f7 9e3b 4efb da3a f718 ac3c 7aa9 b5ba
000000c0: 2850 df3b e04c bf3b 9437 283c d313 303c
000000d0: b483 843b 204b a53c be4b 6d3c fa3e 0ebc
000000e0: 5464 713c c830 253c b97f 44bc f14f bd3a
000000f0: 5b63 8c3a a7bc 0b3c f185 5bbb b857 ae3b
00000100: a079 103b e1ea 243c 8be3 f83b 55e6 593a
00000110: 43d9 18bc 0837 b4bb 5e35 7b3c d8bd 26bc
00000120: 89f1 793c af7b 683c b862 30bc 9acb d6bb
00000130: f348 953b 17ec ecbb c4d4 503c 3327 cf3c
00000140: 9fe6 14bc 5c37 343c 7e6e 7ebc c203 0fbb
00000150: 0e99 8dba 3f93 a83c 2105 55bb 9aee e63b
00000160: 7bc9 7f3a e652 433c 0f4e 333c b6df 78bb
00000170: 56b7 263c 07fc a1bb d1d1 873b aa68 003c
00000180: a57c a43a 7c30 0f3c ab77 a63b 0ff3 903b
00000190: e662 1dbb 542d 8c3c 78ec a9bb 89cd 2f3c
000001a0: b154 473c 59fe 483c a5f9 a63c eb08 55bc
000001b0: 9239 7c3b b6e4 c7bb ce52 63bb 31f3 1e3c
000001c0: e63f 403b 734f 1dbb 3377 a13b e998 8ab9
000001d0: bf63 033c e15b 203c 5117 c2bb c32c 74bc
000001e0: d72b 1c3c 4245 853c 2a99 39bb 7d4a 43bb
000001f0: c45e 683c c69e f4ba 1249 423c 37f7 433c
00000200: 627b 44bc 7990 c43b 5ca2 40bb 6846 41bb
00000210: 10bd 27bc 837f 47bc af10 96bc ff21 42bc
00000220: 61ef da39 fbc0 8e3c 17a2 743c fd29 9e39
00000230: 7d66 8ebc d846 c9ba 1f4d 2bbc a49e 0a3b
00000240: ea2c 23bc d527 06bb 5be2 283b 8541 c9bc
00000250: c8f7 9a3c aade 98ba 7b3d e3bb 213a 483c
00000260: 35c1 653b ec38 d0bb a59b fbbb 171a 983b
00000270: 13fb 933b c7ca c738 9460 c7bc 3d3e 9fbc
00000280: eb6f 90ba 565a 5abc 6854 a53a 51ac 14bc
00000290: 9fb5 2abc e028 7dbc 6774 15b9 bd16 1fbc
000002a0: 68da 23bc 7476 ddbb 2afe 133c 856a e23b
000002b0: 87a2 a33a 7df2 6abc f04f 55bb e4c0 94bb
000002c0: d4c6 7dbc e08f 3dba 65d9 393b af1e 70bc
000002d0: 3503 843c 76b6 7c3b fcac 67bb d57c 1cbc
000002e0: dffe 20bc 248b 75ba fabf f2ba 171d 353c
000002f0: 5cbb b63a d486 9e3c 2383 a33b af6d 063b
00000300: c20b 9dba 33d5 93bb 37ba 1b3c ada1 e1b9
00000310: 93fc cebb bd46 b83b 79b7 e3bb bf61 89bb
00000320: 05cf 48bc 63f0 763c 9edc b73b 5829 23bc
00000330: ba9d 4abb fdde c63b 6995 c4ba 4250 82b9
00000340: 6690 983b 141e 233b 9e92 06bc 486d 52bc
00000350: 2952 90bb 5d01 cdbb f9a8 bc38 1440 a1bb
00000360: 3205 f03b 5bbf 97bb b817 17bc c298 3abc
00000370: 2af6 7b3b 305c 2cbc 7328 8e3a 68bd 4abc
00000380: 0f1c 7b3c a07c 9abc 9acd 07bb 6875 1ebc
00000390: dbeb d8bb 8cc4 d5ba 7ea4 31bc 5e20 78bc
000003a0: 4af1 42bb af90 72bc 65ad 11bc 8612 6ebb
000003b0: 7ab5 4f3c 8293 28bc 4eb1 e537 2f67 aebb
000003c0: 69e1 ab3b aefa 283b defb 29bc 3dda eebb
000003d0: 2645 8039 f570 12bc 949b a3bb cced 28bb
000003e0: 7db7 7abc 50d7 dabb 9647 e9bb cd94 8bbc
000003f0: efbd 6abb 0260 04bc 2b58 59bc 7610 12bb

cvae_parameters.enc_00_lin_b f4 [128]
0.008508862 -0.0040550944 -0.003356908 -0.0003652773 -0.00059355993 -0.0007519408 0.0019315892 -0.00020253065
-0.0015505217 0.00036556687 -0.0007150775 -0.0004153851 0.0061281114 -0.0021440566 -0.0030661037 -0.0061738878
0.00027336625 0.008044011 -0.0033126397 -0.0012318733 -0.001408101 0.00638287 -0.0014929184 6.6105866e-05
0.0025078794 -0.0039725443 -0.00046663446 -0.0039471528 0.010957837 -0.000650852 -0.0027473753 -0.00070698763
-0.00024028559 -0.002911085 -0.00044119166 -0.0024757811 -0.004990938 -0.0032140405 -0.00026539073 0.00030107063
-0.0016534795 0.010029662 -0.0043077017 1.998033e-05 -0.00076855853 0.007364341 -0.0021351224 0.0076365783
0.0064178696 -0.0023323451 -0.0015989331 0.0010642591 0.009547307 -3.6823425e-05 -0.00011949565 -0.00037990548
-0.0029946424 -0.00044746848 -0.0022453798 0.0037095265 -0.00064941467 0.00036705323 -0.0001428099 0.006275776
0.0070703914 0.005465316 -0.0018108555 -0.001384237 0.013032179 -0.004672512 0.0064518005 0.00023274735
-0.0024112624 -0.0054241833 -0.0004248264 -0.002527364 0.01141642 0.0066590686 -0.0001789299 -0.00011176258
-0.0032611187 0.0071365866 0.006922348 -7.927521e-05 -0.0031181027 0.0021097742 -0.005092633 0.005456935
-0.0036868851 -0.0045291167 -0.001339511 0.007978555 -0.003740064 -0.004812679 -0.00035355476 -0.00046716447
-0.00042892486 0.00017937386 -0.003022369 -0.0041149305 -0.0012957975 -0.0044745267 0.0025091507 -0.0031370262
0.00040190353 0.008279911 -0.0002718976 0.003883041 0.00053593935 0.00028262316 0.0019095269 -0.000552965
0.00015502708 0.009049174 -0.0027180605 0.0032380444 -0.002223495 0.00023333119 0.006668001 -0.0008230741
0.00041523203 -0.00015158408 0.0077178185 -0.0019675966 0.004134332 -0.00017793039 -0.00054922194 -0.002075326
00000000: c168 0b3c 99e0 84bb 92ff 5bbb b082 bfb9
00000010: 2299 1bba e51d 45ba 612d fd3a 685e 54b9
00000020: e03a cbba 8ea9 bf39 0a74 3bba 0bc8 d9b9
00000030: 53ce c83b 4d83 0cbb aff0 48bb 534e cabb
00000040: 9952 8f39 07cb 033c df18 59bb cf76 a1ba
00000050: 0790 b8ba 6527 d13b 07ae c3ba 51a2 8a38
00000060: 3c5b 243b 1e2c 82bb 9ea6 f4b9 1e57 81bb
00000070: 8088 333c f09d 2aba 4f0d 34bb 2355 39ba
00000080: 2cf5 7bb9 e7c7 3ebb be4f e7b9 b740 22bb
00000090: 068b a3bb a7a2 52bb 2424 8bb9 04d9 9d39
000000a0: 91b9 d8ba 7453 243c 9f27 8dbb 6f9b a737
000000b0: 1779 49ba 9250 f13b 69ed 0bbb 433c fa3b
000000c0: fe4c d23b 42da 18bb 4b93 d1ba 9c7e 8b3a
000000d0: 4f6c 1c3c da72 1ab8 bd99 fab8 0d2e c7b9
000000e0: c341 44bb 349a eab9 3927 13bb 871b 733b
000000f0: 7b3d 2aba 0d71 c039 3ebf 15b9 06a5 cd3b
00000100: beae e73b 6516 b33b 3a5a edba 496f b5ba
00000110: ec84 553c df1b 99bb a069 d33b a40d 7439
00000120: 4506 1ebb 59bd b1bb 3cbb deb9 22a2 25bb
00000130: f00b 3b3c 5134 da3b 219f 3bb9 1462 eab8
00000140: 7eb8 55bb 07da e93b ddd4 e23b 8e40 a6b8
00000150: 1559 4cbb 2344 0a3b 1ae0 a6bb 17d0 b23b
00000160: ab9f 71bb fc68 94bb 8892 afba 7cb8 023c
00000170: dd1b 75bb adb3 9dbb 515d b9b9 c1ed f4b9
00000180: 52e1 e0b9 4e16 3c39 f012 46bb 8ad6 86bb
00000190: c0d7 a9ba 0d9f 92bb 9070 243b 9196 4dbb
000001a0: 94b6 d239 77a8 073c 7a8d 8eb9 9e7a 7e3b
000001b0: 487e 0c3a 0a2d 9439 1749 fa3a daf4 10ba
000001c0: c48e 2239 fd42 143c 7d21 32bb 5f35 543b
000001d0: 0eb8 11bb 5daa 7439 3f7f da3b 91c3 57ba
000001e0: 80b3 d939 8bf2 1eb9 c1e5 fc3b cbf2 00bb
000001f0: 4a79 873b d392 3ab9 a9f9 0fba 3102 08bb

cvae_parameters.enc_00_lin_w f4 [128, 123]
-0.015941981 -0.012545165 -0.0077660843 -0.005601861 0.003638038 0.0023459569 -0.0054147574 -0.021336148
-0.000102909034 -0.014894304 0.0022815873 -0.00016310092 0.0020914 0.011616968 0.009315786 -0.004310715
-0.01509463 -0.02064631 0.0071854196 0.006363091 0.0031897957 -0.018108455 -0.0069827144 0.015200323
0.010226631 -0.007976589 -0.003181313 -0.0012283664 0.01394575 0.013190775 0.009586685 -0.009503356
-0.0053491783 -0.00083757174 -0.001963422 0.0010984219 0.0030101498 0.002329242 0.0075351777 0.005731701
-0.0012765097 0.0068535795 -0.004968874 0.003374378 0.001726769 0.023547266 -0.016463963 -0.017530918
-0.008460739 0.012932052 0.005037776 0.0027001712 -0.004662428 -0.006728787 0.0038428272 -0.0030704804
-0.007937213 0.008906372 0.014261286 0.030126065 -0.014759295 -0.01423543 0.014846875 -0.006582026
-0.00604167 0.008254015 0.011779352 0.010142225 -0.017443292 0.02440155 -0.0061119804 0.006522242
-0.0152531145 -0.0074981125 -0.0043083113 -0.0053380313 -0.011766165 0.012072662 9.1975395e-05 0.0068561025
-0.00088297453 0.0059690126 -0.0068016048 -0.0005188388 0.009592243 -0.004897848 0.008891347 0.002212169
-0.0012097954 0.019655084 -0.019349784 -0.0024787888 -0.013016445 -0.009699947 0.0010409058 0.004657021
0.016480898 -0.014332879 0.0018197714 0.003157635 -0.025848022 -0.018558014 -0.002018902 0.0024825435
0.0024153008 -0.0013682164 0.005249785 0.0065597785 0.005508294 -0.011828625 0.009229999 -0.012447811
-0.0010528796 -0.020814467 -0.0019217449 -0.0027342942 0.0067158947 0.00020375178 -0.0131391715 -0.0020819944
-0.006226985 0.0038719245 0.019217823 -0.0009758761 0.0013807906 0.014801619 0.0098673105 0.01618783
-0.0060200193 -0.001901456 -0.005465332 0.008062991 0.009449403 0.009083167 0.024109086 -0.01297895
0.0034997226 0.0028171102 -0.0019525888 -0.008191909 0.004447355 -0.013978991 0.0020568876 0.0046038413
0.0013762238 0.0037339274 0.006378146 0.011400238 0.006817732 0.0072617293 0.0018034783 -0.0015452253
0.0041827178 -0.004502595 -0.019602785 0.0038290066 -0.003978334 0.0007110845 0.0048170383 0.008078817
0.0053628576 -0.008280667 0.002636226 0.0010157659 0.015006777 -0.0008227331 0.0032872956 0.009730899
0.0008039622 0.0064540426 0.0039323727 0.007121331 -0.0062783696 -0.00620637 -0.00038862793 -0.008620921
0.003465656 -0.0011992198 -0.014388476 0.0016278864 0.008546899 0.006856563 0.019336293 0.0047758343
-0.0076607177 -0.0028374647 0.016665673 0.008151187 0.008875841 -0.014218392 -0.0077712275 -0.00868717
-0.0010495642 0.010498403 0.0010746325 0.001236518 0.0066404967 0.012127597 0.0029623357 0.0146288145
-0.0058133327 -0.010410108 0.008019038 0.009371424 0.013243918 -0.010611726 0.001236274 -0.0035128219
0.014653017 0.0049257176 0.01491216 0.01162389 -0.009706898 0.010589569 -0.0015217123 -0.00840037
0.011730294 0.017757671 -0.0024613019 0.0053251795 0.006318967 0.0035497758 -0.008203768 0.004551534
-9.1777474e-05 0.013623027 0.0054333266 0.004755865 0.0024200813 0.010884765 -3.1414247e-06 -0.015783764
0.002023058 -0.007250873 -0.0015061788 0.010453789 -0.008052986 0.012320456 0.011241914 -0.013630696
-0.014729224 -0.014750803 0.0044079595 -0.010786033 0.010348435 -0.0011059418 0.0075885975 -0.0016260294
0.0012585223 0.010663233 0.01037199 -0.0031554138 -0.0071225325 0.0027717217 0.020081116 0.005349385
00000000: c298 82bc 3c8a 4dbc a37a febb d18f b7bb
00000010: 266c 6e3b a0be 193b 476e b1bb 25c9 aebc
00000020: ded0 d7b8 3d07 74bc af86 153b 1206 2bb9
00000030: df0f 093b 1855 3e3c 3da1 183c e640 8dbb
00000040: 784f 77bc 7322 a9bc ab73 eb3b 7a81 d03b
00000050: e40b 513b 2f58 94bc 41cf e4bb c70a 793c
00000060: 998d 273c 3db0 02bc 937d 50bb 2301 a1ba
00000070: b77c 643c 1f1e 583c 7911 1d3c f7b3 1bbc
00000080: 2948 afbb 7d90 5bba c1ac 00bb ecf8 8f3a
00000090: ef45 453b 32a6 183b a7e9 f63b fed0 bb3b
000000a0: 8f50 a7ba fe93 e03b f0d1 a2bb ab24 5d3b
000000b0: c154 e23a 32e6 c03c 6fdf 86bc 009d 8fbc
000000c0: e99e 0abc f5e0 533c ee13 a53b 5bf5 303b
000000d0: 48c7 98bb 287d dcbb f1d7 7b3b 1d3a 49bb
000000e0: 160b 02bc 08ec 113c 2ba8 693c f0ca f63c
000000f0: f8d0 71bc b93b 69bc 4f40 733c 09ae d7bb
00000100: 34f9 c5bb d93b 073c 2ffe 403c 932b 263c
00000110: 3ce5 8ebc c2e5 c73c 0247 c8bb 88b8 d53b
00000120: 33e8 79bc bab2 f5bb bc2c 8dbb a7ea aebb
00000130: dfc6 40bc 6acc 453c eae2 c038 28a9 e03b
00000140: 6b77 67ba b597 c33b ffdf debb af02 08ba
00000150: c828 1d3c 207e a0bb 03ad 113c 0afa 103b
00000160: ff91 9eba b303 a13c 7083 9ebc 2d73 22bb
00000170: ed42 55bc 87ec 1ebc 016f 883a ec99 983b
00000180: f302 873c 74d4 6abc 6585 ee3a 53f0 4e3b
00000190: 3bbf d3bc fa06 98bc 8e4f 04bb 2bb2 223b
000001a0: 064a 1e3b b955 b3ba 6306 ac3b 69f3 d63b
000001b0: eb7e b43b d9cc 41bc 6c39 173c e7f1 4bbc
000001c0: c700 8aba 1a83 aabc 0fe3 fbba d831 33bb
000001d0: 0211 dc3b 34a6 5539 ae45 57bc 1272 08bb
000001e0: bc0b ccbb 1dc0 7d3b b26e 9d3c f0d1 7fba
000001f0: a5fb b43a 7d82 723c 80aa 213c 579c 843c
00000200: 9543 c5bb 473a f9ba 8716 b3bb a31a 043c
00000210: abd1 1a3c 90d1 143c 6b80 c53c a9a5 54bc
00000220: 9a5b 653b 449f 383b 02ee ffba 5b37 06bc
00000230: 1ebb 913b 2308 65bc d9cc 063b d2db 963b
00000240: 6862 b43a e8b4 743b c4ff d03b 10c8 3a3c
00000250: 4867 df3b cdf3 ed3b b162 ec3a 2889 caba
00000260: 2e0f 893b 818a 93bb 0596 a0bc 12f0 7a3b
00000270: af5c 82bb 1368 3a3a 3fd8 9d3b 045d 043c
00000280: e9ba af3b a2ab 07bc 88c4 2c3b 7323 853a
00000290: fcde 753c afac 57ba ab6f 573b 596e 1f3c
000002a0: fdc0 523a 6f7c d33b 22db 803b 0e5a e93b
000002b0: c8ba cdbb ce5e cbbb c2c0 cbb9 c33e 0dbc
000002c0: 0f20 633b 242f 9dba a4bd 6bbc ce5e d53a
000002d0: 4b08 0c3c 05ad e03b 2567 9e3c 9a7e 9c3b
000002e0: c206 fbbb c2f4 39bb 7386 883c 8e8c 053c
000002f0: fa6b 113c 42f4 68bc c8a5 febb a254 0ebc
00000300: 8891 89ba 7e01 2c3c afda 8c3a a912 a23a
00000310: 8698 d93b d4b2 463c bf23 423b b2ad 6f3c
00000320: c57d bebb 288f 2abc 4862 033c 9a8a 193c
00000330: 05fd 583c cedc 2dbc 790a a23a 5f37 66bb
00000340: 3513 703c ea67 a13b 2252 743c 2172 3e3c
00000350: ae09 1fbc df7f 2d3c 3174 c7ba b5a1 09bc
00000360: 6b30 403c 8978 913c cb4d 21bb d87e ae3b
00000370: 560f cf3b 5ba3 683b 1969 06bc 0925 953b
00000380: a878 c0b8 1e33 5f3c 0c0a b23b 16d7 9b3b
00000390: 3a9a 1e3b 0356 323c 44d1 52b6 f44c 81bc
000003a0: 4895 043b bb98 edbb f96a c5ba 5e46 2b3c
000003b0: acf0 03bc bddb 493c 0130 383c 4853 5fbc
000003c0: d852 71bc 5aad 71bc a570 903b e7b7 30bc
000003d0: 7b8c 293c 40f5 90ba c5a9 f83b 7e20 d5ba
000003e0: 00f5 a43a d7b4 2e3c 47ef 293c 0fcb 4ebb
000003f0: 2264 e9bb c6a5 353b 2781 a43c e549 af3b

cvae_parameters.enc_01_lin_b f4 [128]
-0.0025356323 -0.005223635 -0.0021636777 0.02789757 0.015272371 -0.004051442 -0.0011720093 0.0076187127
-0.0019114091 0.01843575 -0.004506151 -0.0025430731 0.015026064 -0.0039864085 -0.0020329298 0.0004844348
-0.0018955807 -0.0022495994 0.0071401694 -0.0072361515 0.020423159 0.014794036 -0.0088452585 -0.00034841927
-0.00013317539 -0.0051063686 -0.0039453227 -0.00016536172 -0.0001580446 -0.00086638745 0.0013969024 -0.0036217868
-0.0046667857 -0.0031317356 -0.002675721 0.028548768 -0.0013943526 -0.0032110293 -0.0070123044 0.006686839
-0.0007102522 -0.00043339297 -0.006042485 0.0013895457 0.021233708 0.001631157 0.02384014 0.023493305
-0.0015209486 0.00010816303 -0.0005878593 -0.0060105613 -0.0020248366 0.011369414 0.023668557 -0.0009488303
0.012068634 0.01792716 0.008188787 0.00823125 0.023192318 -0.0010402864 0.022139996 0.01523818
0.021423811 0.020338135 -0.0026832856 -0.014405403 -0.0028035752 0.024998823 -0.003730593 0.021794742
2.2866745e-05 0.022881584 -0.00061825605 -0.00074164785 -0.0019818987 0.017075215 -0.0047194334 -0.0031244277
0.01549194 0.00062296004 0.0063788844 0.016283005 -0.0034077398 0.02482482 -0.0011230957 -0.004241956
-0.0006482694 0.017807396 0.0072708228 -0.00580555 0.00037266404 -0.004399897 0.0012639996 0.024736062
-0.0009722851 -0.0029538071 -0.0015783431 -0.0025129009 0.014077448 0.0008799739 0.018391326 -0.0038505064
-0.00074224896 -0.0060455482 -0.00088936364 4.7291323e-05 0.0023467601 -0.0018345949 0.021483282 -0.0065701725
-0.0026231809 0.011053645 -0.005615661 0.0016543356 -0.0063694986 0.016299604 -0.0006718939 -0.010656185
0.003538832 0.012385163 -0.005241442 -0.0018137121 -0.0034874764 -0.0030405277 0.00031761246 0.0120344525
00000000: da2c 26bb 072b abbb 7dcc 0dbb 7289 e43c
00000010: f738 7a3c f5c1 84bb 1b9e 99ba 65a6 f93b
00000020: 3f88 faba 9206 973c 56a8 93bb b0a9 26bb
00000030: e12f 763c 6ba0 82bb e73a 05bb bdfb fd39
00000040: 2275 f8ba 046e 13bb 15f8 e93b 3d1d edbb
00000050: 784e a73c af62 723c b4eb 10bc 0bac b6b9
00000060: ffa4 0bb9 5353 a7bb c447 81bb f364 2db9
00000070: c6b8 25b9 471e 63ba 4418 b73a 805b 6dbb
00000080: d6eb 98bb ce3d 4dbb 265b 2fbb 1bdf e93c
00000090: b6c2 b6ba 2270 52bb 79c7 e5bb 451d db3b
000000a0: 3830 3aba 0539 e3b9 0a00 c6bb 6b21 b63a
000000b0: 50f2 ad3c 8ccc d53a 664c c33c 0875 c03c
000000c0: 915a c7ba 96d5 e238 921a 1aba 3ef4 c4bb
000000d0: 1fb3 04bb c746 3a3c 90e4 c13c ecba 78ba
000000e0: 85bb 453c fbdb 923c 432a 063c 5ddc 063c
000000f0: d1fd bd3c 385a 88ba f05e b53c 8fa9 793c
00000100: fd80 af3c 299c a63c 10da 2fbb a404 6cbc
00000110: 30bc 37bb 55ca cc3c f77c 74bb e38a b23c
00000120: f6d1 bf37 2972 bb3c 7612 22ba 256b 42ba
00000130: bee2 01bb 52e1 8b3c 7aa5 9abb 33c3 4cbb
00000140: e8d1 7d3c 244e 233a f605 d13b f063 853c
00000150: 6354 5fbb 6c5d cb3c d734 93ba 1b00 8bbb
00000160: 9ff0 29ba d1e0 913c 1540 ee3b 7c3c bebb
00000170: 1f62 c339 032d 90bb caac a53a 48a3 ca3c
00000180: f3e0 7eba a994 41bb 68e0 ceba 7baf 24bb
00000190: 19a5 663c 0cae 663a 68a9 963c c758 7cbb
000001a0: 7c93 42ba bc19 c6bb 2f24 69ba ac5a 4638
000001b0: 1acc 193b ca76 f0ba b5fd af3c 9a4a d7bb
000001c0: ace9 2bbb 591a 353c 9403 b8bb 4bd6 d83a
000001d0: 3ab7 d0bb bf86 853c 0922 30ba 4897 2ebc
000001e0: c0eb 673b 24eb 4a3c 67c0 abbb 14ba edba
000001f0: 258e 64bb 9743 47bb 3985 a639 272c 453c

cvae_parameters.enc_01_lin_w f4 [128, 128]
-0.00829898 -0.0022058086 -0.0053024697 0.010689338 -0.0015391392 0.024795353 -0.015497656 -0.01822717
-0.0044304826 -0.0019246095 0.0036078433 0.0037226721 -0.011848655 0.011284432 -0.0065939454 -0.0011496345
-0.022968251 -0.0031562913 0.0021081655 0.019876996 -0.0010811356 0.0007943461 0.001251458 -0.007438658
0.011676408 -0.0002545566 0.0084444955 -0.013899188 -0.0037336072 0.013574879 0.0029185642 0.004743244
-0.0017230668 -0.002248777 0.007174187 -0.0043997723 0.0023919179 -0.017931633 -0.0028560923 0.017276654
-0.016988117 -0.0052082883 0.005168754 0.0016204469 -0.0011767019 -0.008033542 0.0086591905 -0.0076242033
-0.013374902 -0.0008318478 0.00409777 0.007755703 0.0007133393 0.00024357873 -0.00865136 -0.011351999
-0.0010076145 -0.005933884 0.0115394695 -0.0012211957 -0.013746873 0.014722098 0.02205707 -0.006643514
-0.005811002 0.008217884 0.007763352 0.008876503 0.011253577 -0.0072441 0.0014946265 0.0095271235
0.011642192 0.0055005173 -0.0016882146 -0.016274055 0.012586837 0.020069417 -0.003713131 -0.0016457979
-0.0058121085 0.0037538852 -0.009138075 -0.009704669 -0.005054517 0.0060253353 -0.011760593 0.008799577
-0.016070526 -0.009207554 -0.0063671707 -0.0023367342 0.0014822662 -0.018183382 0.0056552845 0.0036306449
-0.0069649746 0.011525231 -0.010260117 0.01293414 -0.015147241 -0.004333033 0.0018694517 -0.025395403
-0.021541862 -0.004409298 -0.0057299896 -0.008252694 -0.01376569 0.013707145 -0.0074315458 -0.0012824755
-0.003940206 -0.0253391 -0.0052968008 0.0056401785 -0.02857239 -0.01112267 0.0024678928 0.0018342461
0.012462396 0.005929196 0.005375144 -0.005231173 -0.019412914 0.006175728 0.021520693 -0.015506466
-0.009829008 0.009335078 0.022682145 0.013113365 0.0056622005 0.0072745206 0.021287162 -0.005925078
-0.004761888 0.006237696 -0.0057777325 0.0058831973 -0.010445288 0.020998755 -0.0009948266 0.005651393
-0.0018295791 -0.004258615 -0.0039398214 -0.0056898342 0.0038750207 0.0061375615 0.00858528 -0.015140161
0.0037032764 0.0053727524 -0.0009611141 -0.006475257 0.0017475424 0.0034196142 -0.0038756127 0.007452452
-0.0018213426 -0.0019873383 0.0062377765 -0.001083163 0.008389042 -0.010053852 0.015693424 0.007467635
0.014838873 -0.007770772 -0.0085082855 0.001416872 0.009908114 0.0113731325 -0.0063846167 -0.015135281
-0.003589081 -0.010070269 0.015355584 0.007688859 0.004993869 0.009308572 -0.011989789 0.0010294708
-0.008505344 -0.0054099527 0.0002509976 0.001082824 0.007722533 0.016378762 0.002470521 -0.012885362
0.011070139 -0.011897631 0.011737082 0.0049490253 -0.002020224 -0.007894987 -0.026036972 0.0021598572
0.007654177 0.0120904045 -0.009742456 -0.008563632 0.0051500197 -0.010237163 0.0041747037 -0.0076980186
0.008419821 0.0010782323 -0.0034847497 0.0065970803 0.0016960931 -0.011350521 -0.012716499 0.0075738914
-0.007119935 -0.0081603555 0.024425399 -0.005572535 -0.016099053 0.0054849675 0.003692051 0.00075804704
0.0055543664 -0.0039427644 -0.002661631 -0.0011154809 0.015666204 0.0043653892 -0.018961608 -0.0050664106
0.0023206659 0.011198982 0.00070518884 -0.00037446283 -0.0035329107 0.004513747 0.010730711 -0.0048324903
0.011804976 -0.008195942 -0.0011870653 -0.0035895198 0.013625987 -0.004584398 -0.005412877 -0.0076252026
-0.0043291696 -0.0015250765 0.0092180325 -0.0024406614 0.0015659267 0.0014404733 0.008000267 0.0029910174
00000000: 72f8 07bc 548f 10bb 57c0 adbb 5522 2f3c
00000010: f1bc c9ba a01f cb3c e1e9 7dbc 2551 95bc
00000020: 952d 91bb 2e43 fcba 9171 6c3b 13f8 733b
00000030: dc20 42bc 57e2 383c 0612 d8bb 55af 96ba
00000040: ea27 bcbc c8d9 4ebb 2629 0a3b 15d5 a23c
00000050: e4b4 8dba aa3b 503a f607 a43a fcbf f3bb
00000060: 684e 3f3c 0276 85b9 c85a 0a3c 6bb9 63bc
00000070: 89af 74bb 2b69 5e3c 6245 3f3b 376d 9b3b
00000080: 87d8 e1ba 3860 13bb 7115 eb3b f72b 90bb
00000090: b9c1 1c3b 5ce5 92bc 472d 3bbb c587 8d3c
000000a0: aa2a 8bbc 4aaa aabb a75e a93b 2d65 d43a
000000b0: 903b 9aba 1e9f 03bc 47df 0d3c 74d4 f9bb
000000c0: 6822 5bbc 5c10 5aba 9646 863b 8d23 fe3b
000000d0: 64ff 3a3a 2b69 7f39 6fbe 0dbc bcfd 39bc
000000e0: ef11 84ba 0771 c2bb 0b10 3d3c 8710 a0ba
000000f0: 903a 61bc f434 713c 07b1 b43c d6b1 d9bb
00000100: 386a bebb 4ea4 063c b763 fe3b c16e 113c
00000110: ec60 383c ea5f edbb 58e7 c33a a717 1c3c
00000120: e4be 3e3c af3d b43b 1547 ddba 2b51 85bc
00000130: 0539 4e3c 9e68 a43c 0058 73bb d0b7 d7ba
00000140: 8073 bebb be03 763b ddb7 15bc 5500 1fbc
00000150: 5da0 a5bb 2d70 c53b 81af 40bc 1a2c 103c
00000160: 56a6 83bc 48db 16bc b3a3 d0bb e523 19bb
00000170: 9a48 c23a 51f5 94bc f74f b93b 1df0 6d3b
00000180: 713a e4bb 53d4 3c3c 0d1a 28bc b7e9 533c
00000190: 222c 78bc 1efc 8dbb 6408 f53a 050a d0bc
000001a0: 8f78 b0bc df7b 90bb a3c2 bbbb 4f36 07bc
000001b0: 7d89 61bc ef93 603c 5384 f3bb bd18 a8ba
000001c0: d81c 81bb f293 cfbc c990 adbb 3fd1 b83b
000001d0: a510 eabc dc3b 36bc 5fbc 213b 166b f03a
000001e0: 142f 4c3c b349 c23b fa21 b03b 426a abbb
000001f0: d507 9fbc c35d ca3b 2a4c b03c d50e 7ebc
00000200: d909 21bc 28f2 183c e8cf b93c 70d9 563c
00000210: fb89 b93b 1a5f ee3b 6a62 ae3c 2827 c2bb
00000220: 9d09 9cbb 9665 cc3b 2253 bdbb d6c7 c03b
00000230: b722 2bbc 9505 ac3c d764 82ba 522f b93b
00000240: 7dce efba da8b 8bbb 9e19 81bb ca71 babb
00000250: 0ff4 7d3b 991d c93b 46a9 0c3c 700e 78bc
00000260: abb2 723b ea0d b03b 47f3 7bba 652e d4bb
00000270: cb0d e53a 9b1b 603b fefd 7dbb b333 f43b
00000280: 1eba eeba 013e 02bb 4366 cc3b ebf8 8dba
00000290: 3172 093c e9b8 24bc 7f8f 803c 10b3 f43b
000002a0: bf1e 733c f6a1 febb 5666 0bbc 56b6 b93a
000002b0: a455 223c 6056 3a3c 0c36 d1bb f8f9 77bc
000002c0: ca36 6bbb c5fd 24bc fd95 7b3c d3f2 fb3b
000002d0: 9ca3 a33b fb82 183c d270 44bc 4fef 863a
000002e0: 005a 0bbc f945 b1bb 5498 8339 8bed 8d3a
000002f0: 4d0d fd3b c12c 863c 77e8 213b 201d 53bc
00000300: 875f 353c 48ee 42bc e44c 403c 6f2b a23b
00000310: bc65 04bb fa59 01bc 7d4b d5bc 648c 0d3b
00000320: e4cf fa3b d516 463c d29e 1fbc 7a4e 0cbc
00000330: 7fc1 a83b c6b9 27bc f4cb 883b a93f fcbb
00000340: 4af3 093c 7953 8d3a 6660 64bb 522c d83b
00000350: 714f de3a 89f7 39bc dd58 50bc 682e f83b
00000360: 584e e9bb 03b3 05bc c617 c83c d099 b6bb
00000370: 29e2 83bc 3ebb b33b 56f6 713b adb7 463a
00000380: 6701 b63b 4e32 81bb c26e 2ebb 5435 92ba
00000390: 6956 803c 8a0b 8f3b 6055 9bbc 2204 a6bb
000003a0: 5016 183b ef7b 373c 6cdc 383a 8d53 c4b9
000003b0: 6888 67bb 0ee8 933b ddcf 2f3c de59 9ebb
000003c0: a869 413c 4648 06bc 4d97 9bba 263e 6bbb
000003d0: 883f 5f3c b838 96bb 815e b1bb d6dc f9bb
000003e0: b5db 8dbb 13e5 c7ba 3b07 173c 81f3 1fbb
000003f0: c83f cd3a 43ce bc3a 8d13 033c f204 443b

cvae_parameters.out_lin_b f4 [120]
-0.12996733 -0.018191297 -0.13858032 -0.046546236 -0.18821125 -0.10209768 -0.08655974 -0.05595634
-0.09872318 -0.03747188 -0.033041768 -0.17700784 -0.0191226 -0.14488906 -0.06974429 -0.07905151
-0.09566212 -0.15497437 0.058142703 -0.18833512 -0.133047 -0.19997332 -0.12563674 -0.07591163
-0.024397235 -0.15043508 -0.20165257 -0.13249801 0.020372914 -0.05704937 -0.15376475 -0.034725774
-0.1601201 0.02917954 0.056523874 -0.06769796 -0.1945056 0.043144893 -0.11667084 0.009139469
-0.09380874 -0.13831356 -0.14044105 0.12511535 -0.14007358 0.100430205 -0.28461483 -0.25462952
-0.19497524 0.10029444 -0.19858398 0.107418366 -0.25256044 -0.20520954 -0.16102096 -0.058757123
-0.19238234 0.027794879 -0.05372513 -0.12668498 0.048490003 -0.1414305 -0.14449951 -0.111737534
-0.049943138 -0.07634768 0.24136633 -0.21513817 -0.14718243 -0.2194357 -0.14414147 -0.021485161
0.10311025 -0.14680982 -0.11951951 -0.22919916 -0.105942816 0.018229239 -0.1380119 -0.05544569
-0.14698136 -0.17893745 0.05577758 -0.016834904 -0.20674062 -0.05274467 -0.15861124 -0.10090106
0.08731 -0.07404639 -0.17973736 -0.19278814 -0.14852937 -0.0005440603 -0.018046666 -0.15018475
-0.06942758 -0.29428166 -0.048289165 0.014619647 -0.10021629 -0.17219964 0.04944726 -0.23451236
0.033592075 -0.07639969 -0.2062468 -0.17855527 0.116476625 -0.17393118 0.06695323 -0.14120246
-0.15951143 -0.07507089 -0.06029315 -0.037323114 -0.06887168 -0.031091679 -0.17104006 -0.030680243
00000000: 2816 05be ea05 95bc 00e8 0dbe 44a7 3ebd
00000010: 73ba 40be 9718 d1bd 3c46 b1bd 7a32 65bd
00000020: 612f cabd 1d7c 19bd ce56 07bd 8b41 35be
00000030: 00a7 9cbc cc5d 14be 18d6 8ebd c2e5 a1bd
00000040: 80ea c3bd 9ab1 1ebe 0b27 6e3d ecda 40be
00000050: 793d 08be cec5 4cbe eba6 00be 8f77 9bbd
00000060: b6dc c7bc a70b 1abe 037e 4ebe 8fad 07be
00000070: 19e5 a63c 9aac 69bd 8274 1dbe 9d3c 0ebd
00000080: 86f6 23be ee09 ef3c 9485 673d 3aa5 8abd
00000090: 7a2c 47be b3b8 303d 1ff1 eebd b6bd 153c
000000a0: cc1e c0bd 12a2 0dbe c7cf 0fbe 3d1e 003e
000000b0: 736f 0fbe 5aae cd3d 09b9 91be cd5e 82be
000000c0: 97a7 47be 2c67 cd3d 9959 4bbe 29fe db3d
000000d0: 9a4f 81be 7322 52be aee2 24be 4fab 70bd
000000e0: e0ff 44be 16b2 e33c e20e 5cbd b5b9 01be
000000f0: 749d 463d 28d3 10be aef7 13be a6d6 e4bd
00000100: 2d91 4cbd 2c5c 9cbd bc28 773e 2e4d 5cbe
00000110: feb6 16be c1b3 60be d299 13be a601 b0bc
00000120: 772b d33d 5055 16be a5c6 f4bd 2fb3 6abe
00000130: 8cf8 d8bd 7c55 953c fe52 0dbe 051b 63bd
00000140: 4882 16be 613b 37be 0877 643d 5ae9 89bc
00000150: d0b3 53be cc0a 58bd fc6a 22be 37a5 cebd
00000160: 96cf b23d a2a5 97bd 120d 38be 416a 45be
00000170: 1518 18be 459f 0eba 9ad6 93bc 08ca 19be
00000180: 0c30 8ebd 16ac 96be dcca 45bd 3e87 6f3c
00000190: 333e cdbd 1a55 30be 3689 4a3d 0224 70be
000001a0: d897 093d 7177 9cbd 5c32 53be 31d7 36be
000001b0: 4c8b ee3d 041b 32be c61e 893d 6197 10be
000001c0: f756 23be c4be 99bd f3f5 76bd 1fe0 18bd
000001d0: 980c 8dbd fab3 febc 2025 2fbe 2255 fbbc

cvae_parameters.out_lin_w f4 [120, 128]
-0.04292363 -0.011293885 0.019049894 0.007906984 -0.020195043 0.0020951652 -0.0259628 -0.047427095
-0.008458524 -0.0074540535 -0.007117063 -0.004910189 0.007552811 -0.021628467 -0.03294079 0.0015887733
-0.047733296 -0.028657764 -0.01769544 0.007987405 -0.011568192 -0.019266121 -0.017556932 -0.0432696
-0.024834385 -0.025187785 0.0027556138 -0.03410859 -0.023573378 -0.03017709 -0.005339574 -0.015559498
0.00019960322 0.0008871523 -0.030031543 0.0016404048 -0.02155211 -0.004714942 -0.03836392 -0.029317658
-0.023308853 -0.00026377587 -0.025101967 -0.012805283 -0.0008195958 0.024615485 -0.034338057 -0.021517552
0.00210571 0.0029801843 -0.007896035 -0.038201585 -0.024639452 -0.02389336 -0.003914606 -0.026707495
0.003324316 -0.018914044 -0.007697126 0.011063939 -0.0068252617 -0.0052082166 -0.021491682 -0.028316392
-0.0058359383 -0.007450353 -0.01908204 -0.026694134 -0.05023226 -0.03174202 -0.0046577114 -0.006077851
-0.0358422 -0.053539596 -0.028548732 -0.03530249 0.0038228976 -0.044623613 -0.00942448 -0.01967468
-0.0038519253 0.0014218808 -0.012836831 -0.0455061 -0.028308392 -0.005867163 0.016151363 0.014436128
-0.009433806 0.002015552 -0.04790341 -0.029577114 -0.007880822 -0.0040987255 0.00033081858 -0.028752122
0.022336503 0.023918185 -0.00810285 -0.027594209 -0.05646058 -0.02076322 0.0069044 -0.007813907
0.0017368442 0.008310292 0.025831899 -0.020804068 -0.010232102 -0.008786488 0.0071957465 -0.004474352
-0.026581582 0.009094165 -0.0137255015 -0.04343163 -0.044185106 -0.018506212 -0.03454233 0.0064087613
-0.0125657115 -0.0035216708 -0.012219942 -0.026336074 -0.013708829 -0.0123301055 0.0021413313 -0.005907897
0.0026572556 -0.0015023734 -0.015847811 -0.0123142395 0.0008418204 -0.013131697 0.008161425 -0.012719529
0.008604888 -0.003770096 -0.01921993 0.0026034764 -0.01116827 0.000102217746 -0.0011228739 0.0002009136
-0.0057435012 0.0057663624 0.0071657766 -0.004486136 -0.02147067 -0.004638285 0.004293395 -0.00435042
-0.0073007788 0.010749776 0.0057371473 0.0028155362 0.014583445 -0.011545963 -0.0060425 -0.015269586
-0.0006723371 -0.010528742 0.001489166 -0.029987052 -0.008997495 0.004022543 0.008454414 0.008452794
0.008460354 -0.010239506 0.0066484995 0.0016891321 -0.0030331674 0.0033946477 0.0012666987 -0.015813364
0.0046823523 0.016335135 -0.0026940778 -0.011527923 -0.014428801 0.005962719 0.0012002792 0.0150313405
0.0043130117 -0.011535788 0.005779895 -0.006170364 -0.005710874 0.0053118677 0.003498674 -0.020986488
-0.006188559 0.0056147417 -0.017304482 -0.01571984 0.011506026 0.0010774075 0.0129740015 0.0061675566
-0.009894354 -0.0213753 -0.011333205 0.0048465747 0.022581143 -0.004904986 -0.00029982947 -0.018681956
0.015650406 -0.0036248793 0.003139155 0.0034085014 0.012004076 0.007740057 -0.018730825 0.009247725
-0.010053329 -0.009302578 0.01720405 -0.014486304 -0.0015029223 0.0051651034 0.0041326964 0.0032874118
-0.0077658417 -0.016605511 -0.0018009916 -0.003190863 -0.013028609 0.00046773985 0.011806487 0.011107539
-0.01720506 -0.0008490047 0.0022995232 -0.0055150753 0.0036143158 0.011362031 -0.0001510855 -0.0027076085
0.009019826 -0.0063894447 0.008468011 -0.005293323 -0.0071609467 -0.0016304142 0.016187672 0.0044392715
-0.012722922 0.011524787 0.004721043 0.014566424 0.00438873 -0.0108716125 -0.010862893 -0.0006406464
00000000: b0d0 2fbd fd09 39bc 860e 9c3c 4b8c 013c
00000010: 1370 a5bc 0a4f 093b f0af d4bc ea42 42bd
00000020: 9f95 0abc 2241 f4bb 4036 e9bb a7e5 a0bb
00000030: 927d f73b 2f2e b1bc ecec 06bd 633e d03a
00000040: fd83 43bd b0c3 eabc 07f6 90bc 9bdd 023c
00000050: 8488 3dbc fcd3 9dbc 8ed3 8fbc 773b 31bd
00000060: 7b71 cbbc 9d56 cebc 8797 343b 73b5 0bbd
00000070: f51c c1bc f235 f7bc 98f7 aebb 44ed 7ebc
00000080: 954c 5139 c88f 683a b604 f6bc da02 d73a
00000090: 0d8e b0bc cd7f 9abb 7c23 1dbd 962b f0bc
000000a0: 35f2 bebc 664b 8ab9 a4a2 cdbc 40cd 51bc
000000b0: 25da 56ba 6aa6 c93c 10a6 0cbd 9445 b0bc
000000c0: f4ff 093b 324f 433b 5f5e 01bc 4479 1cbd
000000d0: add8 c9bc 02bc c3bc 1846 80bb adc9 dabc
000000e0: c5dc 593b a0f1 9abc 2c38 fcbb 8645 353c
000000f0: 72a6 dfbb b0a9 aabb 530f b0bc c7f7 e7bc
00000100: 663b bfbb 1722 f4bb f051 9cbc a8ad dabc
00000110: 58c0 4dbd ec03 02bd b79f 98bb b628 c7bb
00000120: 45cf 12bd 564c 5bbd 08df e9bc 5899 10bd
00000130: 9489 7a3b 40c7 36bd 2269 1abc cb2c a1bc
00000140: 9570 7cbb 675e ba3a 9251 52bc 9b64 3abd
00000150: 00e7 e7bc 5541 c0bb dd4f 843c 8285 6c3c
00000160: 4090 1abc 5a17 043b 5e36 44bd b44b f2bc
00000170: 901e 01bc 9a4e 86bb b871 ad39 9289 ebbc
00000180: 0bfb b63c 12f0 c33c d1c1 04bc 400d e2bc
00000190: 3643 67bd a117 aabc 4e3e e23b e705 00bc
000001a0: d2a6 e33a e427 083c 6b9d d33c 4b6d aabc
000001b0: 8ca4 27bc 34f5 0fbc 4cca eb3b 969d 92bb
000001c0: 9ec1 d9bc b1ff 143c ede0 60bc 5de5 31bd
000001d0: 71fb 34bd 579a 97bc 427c 0dbd 9600 d23b
000001e0: 6ae0 4dbc d5cb 66bb 2736 48bc c0be d7bc
000001f0: ff9a 60bc 3604 4abc 9455 0c3b 0897 c1bb
00000200: 5a25 2e3b 49eb c4ba 45d3 81bc aac1 49bc
00000210: 9cad 5c3a 5426 57bc 7fb7 053c 9265 50bc
00000220: 84fb 0c3c b713 77bb 1d73 9dbc 169f 2a3b
00000230: 1ffb 36bc bc5d d638 652d 93ba 55ac 5239
00000240: fb33 bcbb c1f3 bc3b e4ce ea3b 7000 93bb
00000250: 42e3 afbc c1fc 97bb 9caf 8c3b f88d 8ebb
00000260: 5f3b efbb d41f 303c aefe bb3b dc84 383b
00000270: 67ef 6e3c 472b 3dbc 2a00 c6bb 492d 7abc
00000280: c73f 30ba bf80 2cbc 1f30 c33a 68a7 f5bc
00000290: 3b6a 13bc 89cf 833b 6284 0a3c 967d 0a3c
000002a0: 4c9d 0a3c 9ac3 27bc a8db d93b de65 dd3a
000002b0: 1bc8 46bb bd78 5e3b 5b07 a63a 078b 81bc
000002c0: 6b6e 993b 43d1 853c 208f 30bb 9ddf 3cbc
000002d0: c766 6cbc ea62 c33b b052 9d3a 0346 763c
000002e0: 2a54 8d3b 9a00 3dbc 4665 bd3b c430 cabb
000002f0: 4922 bbbb 2d0f ae3b 024a 653b dbeb abbc
00000300: 65c9 cabb defb b73b 21c2 8dbc e5c6 80bc
00000310: c583 3c3c cc37 8d3a e890 543c 3719 ca3b
00000320: ee1b 22bc 411b afbc e8ae 39bc 04d0 9e3b
00000330: 17fc b83c 01ba a0bb 6e32 9db9 e70a 99bc
00000340: 4835 803c 628f 6dbb 48ba 4d3b 2a61 5f3b
00000350: beac 443c 4ea0 fd3b 6371 99bc c583 173c
00000360: b8b6 24bc d769 18bc 82ef 8c3c f657 6dbc
00000370: b4fd c4ba 0740 a93b 926b 873b 9e71 573b
00000380: 9a78 febb 4808 88bc 400f ecba cc1d 51bb
00000390: f275 55bc fb3a f539 ff6f 413c 65fc 353c
000003a0: a0f1 8cbc be8f 5eba 99b3 163b ceb7 b4bb
000003b0: 28de 6c3b d027 3a3c b56c 1eb9 2272 31bb
000003c0: e4c7 133c 8c5e d1bb 6abd 0a3c 9d73 adbb
000003d0: 60a6 eabb 9fb3 d5ba 029c 843c 4f77 913b
000003e0: cd73 50bc 76d2 3c3c fbb2 9a3b 03a8 6e3c
000003f0: 56cf 8f3b d91e 32bc 47fa 31bc 0df1 27ba

cvae_parameters.z_mu_lin_b f4 [32]
-0.001322102 0.00012388486 -0.0062252497 0.0014380937 -0.0003644263 -0.0011497915 0.0016788841 0.000383555
0.00017266037 -0.00039115525 -0.00033957485 -0.0025897168 0.0005763305 -0.0018205929 -0.00061288796 -0.0039153937
0.0035228604 0.00026203078 -0.00044715116 0.00033605043 -0.00037418865 0.0024562688 -0.0018943188 0.0025422308
-0.0010950711 -0.00045714714 2.0393052e-05 0.00017961959 0.00037114215 0.0003178509 -0.0035282276 -0.000816424
00000000: 624a adba 17e7 0139 2efd cbbb 6b7e bc3a
00000010: 7810 bfb9 9ab4 96ba 010e dc3a e117 c939
00000020: 2a0c 3539 f813 cdb9 f708 b2b9 3db8 29bb
00000030: e314 173a f6a0 eeba 37aa 20ba b44c 80bb
00000040: cadf 663b 2d61 8939 9d6f eab9 ed2f b039
00000050: c02e c4b9 5af9 203b cb4a f8ba 8e9b 263b
00000060: 7d88 8fba 40ad efb9 bf11 ab37 4458 3c39
00000070: db95 c239 3aa5 a639 d639 67bb 4a05 56ba
