dlpg/22/weights/dlpg_model_weights_50.pth (torch, 354171 bytes, 14 tensors)

cvae_parameters.dec_00_lin_b f4 [128]
0	0xbe233153	-0.15936784
1	0xbd3e833c	-0.046511874
2	0xbdadb8ea	-0.08482535
3	0xbd96ff56	-0.0737292
4	0xbe0a17ce	-0.13485643
5	0xbde93088	-0.1138621
6	0xbdaf6fc0	-0.085662365
7	0xbdd79bae	-0.105277404
8	0xbe03b438	-0.12861717
9	0xbd30b387	-0.04313996
10	0xbcab2425	-0.020891258
11	0xbd866ff4	-0.06564322
12	0xbe05e6ae	-0.13076279
13	0xbe15c520	-0.14625978
14	0xbd93ed5a	-0.072230056
15	0xbe99268b	-0.29912218
16	0xbdb1cfef	-0.08682238
17	0xbe38af9d	-0.18035741
18	0xbda059a1	-0.07829595
19	0xbdc9536d	-0.09830365
20	0xbe01c466	-0.12672576
21	0xbe59d122	-0.21271184
22	0xbe6343ef	-0.22193883
23	0xbe0113ee	-0.12605259
24	0xbe0fed6b	-0.14055412
25	0xbdd4fe88	-0.104001105
26	0xbdae13e0	-0.084998846
27	0xbd46f709	-0.048575435
28	0xbd22da93	-0.03975923
29	0xbd775276	-0.060381375
30	0xbe1cc47e	-0.15309331
31	0xbe26e500	-0.16298294
32	0xbddd5547	-0.10807281
33	0xbe8a6d16	-0.2703635
34	0xbdb5ee4b	-0.088833414
35	0xbda042fc	-0.07825276
36	0xbe22a24a	-0.15882221
37	0xbe09d88b	-0.13461511
38	0xbeb27360	-0.3485365
39	0xbea26e8c	-0.31724966
40	0xbd958332	-0.07300414
41	0xbdcc7814	-0.099838406
42	0xbdb30b89	-0.087424345
43	0xbe66d782	-0.22543147
44	0xbdf678e7	-0.12034779
45	0xbe213b95	-0.15745385
46	0xbe30346b	-0.17207496
47	0xbe347bba	-0.17625323
48	0xbde19012	-0.11013807
49	0xbd90b313	-0.07065406
50	0xbe00a6e3	-0.12563662
51	0xbd10209d	-0.035187352
52	0xbe2efb1d	-0.1708798
53	0xbe0d0814	-0.13772613
54	0xbe563ddd	-0.20922036
55	0xbd95ef3c	-0.07321021
56	0xbdb47e6d	-0.08813176
57	0x3d246401	0.040134434
58	0xbe5342dc	-0.20630974
59	0xbe1626c2	-0.14663222
60	0xbd765bd5	-0.06014617
61	0xbdc12ec0	-0.09432745
62	0xbdee968b	-0.116498075
63	0xbdaca029	-0.084289856
64	0xbdd10b28	-0.10207206
65	0xbe868e6e	-0.2628054
66	0xbe3428af	-0.17593645
67	0xbde902a2	-0.11377455
68	0xbd477d79	-0.048703644
69	0xbd66ef9c	-0.056380853
70	0xbd0cace8	-0.034344584
71	0xbde28a8d	-0.11061583
72	0xbd82a989	-0.063799925
73	0xbe42f538	-0.19038856
74	0x3d2cf5b2	0.0422265
75	0xbcf57cf8	-0.029966816
76	0xbe0c3c82	-0.13694957
77	0xbda4fe83	-0.08056357
78	0xbd801f4c	-0.062559694
79	0xbe0abefe	-0.1354942
80	0xbd92e5ce	-0.07172738
81	0xbd8922fb	-0.06696125
82	0xbdd2ffe8	-0.103027165
83	0xbc967bea	-0.018369634
84	0xbdb5d30e	-0.08878146
85	0xbd825255	-0.0636336
86	0xbdbe9956	-0.0930659
87	0xbdc93afe	-0.09825705
88	0xbd468765	-0.048468966
89	0xbe9f014e	-0.31055683
90	0xbe25ce10	-0.16191888
91	0xbd4f904e	-0.05067473
92	0xbde264fa	-0.11054416
93	0xbe036fa0	-0.1283555
94	0xbe04bb04	-0.12961966
95	0xbd8748d3	-0.06605687
96	0xbd9d7028	-0.07687408
97	0xbc18fc1e	-0.009337453
98	0xbe1d2cf4	-0.1534918
99	0xbe866818	-0.26251292
100	0xbd817446	-0.063210055
101	0xbd99c95a	-0.07509108
102	0xbd78a3ab	-0.06070296
103	0xbe16e21b	-0.1473469
104	0xbdb90f84	-0.090361625
105	0xbd7a59e1	-0.06112087
106	0xbd84c7b0	-0.064834
107	0xbc21b680	-0.009870172
108	0xbe210450	-0.15724301
109	0xbdde4185	-0.108523406
110	0x3df0b4bc	0.11753222
111	0xbd8846dd	-0.06654141
112	0xbdf3cf93	-0.11904826
113	0xbd9fc566	-0.07801323
114	0xbe17a3d8	-0.14808595
115	0xbddb0b12	-0.10695471
116	0xbe9fea61	-0.31233504
117	0xbd33541a	-0.043781377
118	0xbd9f8f75	-0.07791034
119	0xbda5ec74	-0.081017405
120	0xbd6ffd62	-0.058591254
121	0xbdc26373	-0.09491625
122	0xbe271be0	-0.16319227
123	0x3d4c9173	0.0499434
124	0xbda31976	-0.07963841
125	0xbd79876c	-0.060920164
126	0xbe14e6d4	-0.14541179
127	0xbd605240	-0.05476594

cvae_parameters.dec_00_lin_w f4 [128, 35]
0	0xbdbfb3d1	-0.09360469
1	0xbd96de76	-0.0736665
2	0x3da23163	0.07919576
3	0x3d495b01	0.049159054
4	0xbdd5fb70	-0.104483485
5	0x3c8ea50e	0.017412689
6	0x3d1ea9d4	0.03873618
7	0xbd1437a2	-0.036185868
8	0x3e33f10d	0.17572422
9	0x3d1e15ea	0.038595118
10	0xbd176a2e	-0.036966495
11	0xbe1e3702	-0.15450671
12	0xbcb646d3	-0.022250568
13	0xbd43d343	-0.047808897
14	0x3d6cd44b	0.057819646
15	0x3d27076b	0.04077856
16	0xbcd3a4a7	-0.025835348
17	0xbe188eb8	-0.14898193
18	0xbdf21bfd	-0.118217446
19	0xbe0894d6	-0.13338026
20	0x3d5911e5	0.05299558
21	0xbc4c9407	-0.012486464
22	0x3dfdfb1a	0.124014094
23	0xba164ab8	-0.000573318
24	0x3e40a9e4	0.18814808
25	0xbcce0165	-0.02514715
26	0x3d846fcf	0.06466638
27	0x3e01bcbb	0.12669651
28	0x3c7e5784	0.015523795
29	0xbddc8876	-0.10768215
30	0x3dc1a68e	0.09455596
31	0xbe588f38	-0.21148384
32	0xb9b96e78	-0.00035368255
33	0xbe29f750	-0.16598248
34	0x3a8db5bb	0.0010811606
35	0xbd886115	-0.06659142
36	0xbd225efd	-0.03964137
37	0x3cd82e2b	0.026389202
38	0x3c62936e	0.013829095
39	0xbd298e35	-0.041395385
40	0xbda881a8	-0.08227855
41	0xbd793277	-0.060839143
42	0x3cf75fb6	0.030197006
43	0x3da81be6	0.08208446
44	0xbd6a6c7e	-0.057232372
45	0xbcac609a	-0.021042157
46	0xbdc53bf0	-0.09630573
47	0xbd66c5cf	-0.05634099
48	0xbd5b8beb	-0.053600233
49	0xbd60f962	-0.05492533
50	0xbc027a09	-0.007963666
51	0x3afd2988	0.0019314745
52	0xbd878d48	-0.06618744
53	0xbdb2816a	-0.0871609
54	0xbd983ac1	-0.074330814
55	0x3d859554	0.06522623
56	0x3da292bc	0.079381436
57	0x3dda3456	0.106545135
58	0xbda93e01	-0.082637794
59	0x3ded4d1c	0.11586973
60	0x3d530541	0.051518682
61	0xbd5387d2	-0.0516432
62	0x3db3071a	0.08741589
63	0xbd74d9af	-0.05977791
64	0xbdc0ce0d	-0.09414301
65	0xbd25652b	-0.040379684
66	0xbde1c3fb	-0.110237084
67	0x3b7e85cb	0.003883707
68	0xbd155a1d	-0.03646289
69	0x3b4a95b0	0.0030911975
70	0xbd0b738d	-0.034045745
71	0xbd99feec	-0.075193256
72	0x3d09b863	0.03362311
73	0x3d3885da	0.045049526
74	0xbceb8cb9	-0.028753625
75	0xbd53a150	-0.05166751
76	0xbb739268	-0.0037166122
77	0xbd0be0a0	-0.034149766
78	0x3d32d41e	0.043659322
79	0xbbabdeb5	-0.0052450546
80	0xbdad6b7d	-0.084677674
81	0xbbe223b1	-0.0069012274
82	0x3c914eba	0.017737735
83	0xbdcdec10	-0.10054791
84	0x3c8ccc7a	0.017187346
85	0x3cbc4174	0.02298043
86	0xbcafe0c5	-0.021469483
87	0x3d7cf22c	0.06175439
88	0x3c9ad520	0.018900454
89	0x3bf1bf49	0.0073775393
90	0x3dc9d1ba	0.09854455
91	0x3c8f16b3	0.017466879
92	0x3c93e884	0.018055208
93	0xbc48f306	-0.012264973
94	0xbcbcdbaf	-0.023053972
95	0xba6b5bc3	-0.0008978212
96	0x3bda7b49	0.0066675288
97	0xbcc4a903	-0.024006372
98	0x3c637c60	0.013884634
99	0x3d021bae	0.03176468
100	0xba3eb534	-0.0007274926
101	0x3ca1b82a	0.019741137
102	0x3c10c9a5	0.008837138
103	0xbd9b5379	-0.075842805
104	0xbb2c07d7	-0.002624979
105	0xbceaffea	-0.028686482
106	0xbcf99d04	-0.030470379
107	0x3cbcad9f	0.023032008
108	0x3c9cee70	0.019156665
109	0x3b78d815	0.0037970592
110	0x3b408fb3	0.0029382526
111	0xbcd0e6c6	-0.025500666
112	0xbc86f21f	-0.016472874
113	0x3c57b5bf	0.01316589
114	0xbd1abe9e	-0.037779443
115	0xbc50158a	-0.012700448
116	0x3b67708a	0.0035314881
117	0x3ba4fb78	0.00503486
118	0xbd2f9ff9	-0.04287717
119	0xbbbd7e2e	-0.005782864
120	0x3c854717	0.01626925
121	0xbd01e8bd	-0.031716097
122	0x3ce3dde9	0.027815776
123	0x3be1c9bb	0.006890503
124	0xba3e1410	-0.00072509144
125	0x3d82980a	0.063766554
126	0x3c727897	0.014799259
127	0x3c8cca2a	0.017186243
128	0xbb74a4ca	-0.0037329667
129	0xbc56cde9	-0.013110616
130	0x3c10fd8f	0.008849516
131	0xbc1f21ad	-0.009712619
132	0x3bc49a65	0.0059998506
133	0x3b86f76c	0.0041188505
134	0x3d0c8aa0	0.03431189
135	0xbd0e82bb	-0.034792643
136	0xbb9384c5	-0.0045019113
137	0x3cc41262	0.023934547
138	0xbd8f5273	-0.06998148
139	0x3c16c4f6	0.009202233
140	0xbd15b002	-0.036544807
141	0xbda3a9fc	-0.07991406
142	0x3d4c4b6c	0.049876615
143	0x3d1c6dc4	0.03819062
144	0xbd2f53d6	-0.04280456
145	0xbcf2fb69	-0.029660897
146	0xbce6d7bf	-0.028179048
147	0xbd62ab70	-0.055339277
148	0x3d7a8d5c	0.061169967
149	0xbca6bb80	-0.020353079
150	0xbd55c49a	-0.052189447
151	0xbccdb8c0	-0.02511251
152	0x3d28d756	0.041220985
153	0xbe1d5171	-0.15363099
154	0x3c368dd0	0.011142209
155	0x3cb7aa6f	0.022420136
156	0xbc7e1dac	-0.015510004
157	0x3b85e0ea	0.0040856497
158	0xbba39867	-0.004992533
159	0xb98459a6	-0.00025243795
160	0x3e04ca45	0.12967785
161	0x3b3f7dba	0.0029219226
162	0x3d7ebc97	0.062191572
163	0xbcbf1136	-0.023323637
164	0x3caa0c0c	0.020757698
165	0xbc70a6c5	-0.014688198
166	0xbaf2230c	-0.001847358
167	0x3c98c1f5	0.018647173
168	0x3c941e65	0.0180809
169	0x3c15cd7c	0.00914323
170	0xbb888b75	-0.004167015
171	0xbcf67a86	-0.03008772
172	0x3b29c68f	0.0025905704
173	0xbe05f27e	-0.13080785
174	0xbb3021b9	-0.002687557
175	0xbd2c3ff1	-0.042053167
176	0xbcdb296a	-0.026753146
177	0x3d793399	0.060840223
178	0x3d8333a4	0.06406334
179	0xbd47e665	-0.048803706
180	0x3d558ca9	0.052136097
181	0x3d03191e	0.032006375
182	0xbd724311	-0.05914599
183	0x3c5dbf0a	0.013534317
184	0x3d0fb180	0.035081387
185	0xbd3e422e	-0.046449833
186	0x3bcb66b4	0.0062073115
187	0x3d8bccec	0.06826195
188	0xbc588bc9	-0.013216921
189	0x3d42de94	0.04757555
190	0x3d2d45b2	0.042302795
191	0xbd73a3ee	-0.059482507
192	0x3c0e9a88	0.008703835
193	0x3d5d5d10	0.05404383
194	0x3c3497b2	0.011022495
195	0x3c99c1e6	0.018769216
196	0xbd40c436	-0.04706212
197	0xbd4837ad	-0.04888122
198	0x3d78d6fa	0.060751893
199	0xbd275d35	-0.040860374
200	0xbd583f11	-0.05279452
201	0x3d1d7ec1	0.03845096
202	0x3c731ac0	0.014837921
203	0x3d69041e	0.056888692
204	0x3dc0b8fa	0.094102815
205	0x3c161436	0.009160092
206	0x3d18e0c4	0.03732373
207	0x3bfe85c6	0.007767412
208	0xbdd33017	-0.10311907
209	0xbbefbae6	-0.007315981
210	0xbcb019c8	-0.021496668
211	0xbcaf90b2	-0.0214313
212	0x3b70446e	0.003666188
213	0xbb09140e	-0.0020916495
214	0xbb895205	-0.0041906857
215	0xbd0894a4	-0.03334488
216	0xbd56f702	-0.05248166
217	0x3c28b1f8	0.010296337
218	0x3c824aa5	0.015904734
219	0xbcdd6f29	-0.027030544
220	0x3c936aa4	0.017995186
221	0xbd378113	-0.04480083
222	0xbd2ae5ab	-0.041722935
223	0xbcb81f69	-0.022475915
224	0xbd039383	-0.0321231
225	0xbc45ea46	-0.012079781
226	0x3c6cbba0	0.01444903
227	0xbc28464a	-0.0102706645
228	0xbcf896e2	-0.030345384
229	0xbd28817b	-0.041139107
230	0x3c3b4141	0.011429132
231	0x3d0b1e68	0.033964545
232	0x3cfa4dfd	0.030554766
233	0xbd18b170	-0.037278593
234	0x3d0e582a	0.03475205
235	0x3d0c3815	0.03423317
236	0xbd477853	-0.048698734
237	0x3cc853c5	0.024454007
238	0xbc1474d5	-0.009061058
239	0x3c0760f0	0.008262858
240	0xbd93ce4d	-0.07217083
241	0xbd2cc393	-0.0421787
242	0x3b986f18	0.0046519153
243	0xbdce787d	-0.10081575
244	0x3c9e1819	0.0192986
245	0xbd6f72a2	-0.05845893
246	0xbd60fdd2	-0.054929562
247	0x3d4c4c4d	0.049877454
248	0x3d3efb20	0.04662621
249	0xbd553db9	-0.052060816
250	0xb92ce764	-0.00016489398
251	0xbc29575a	-0.010335768
252	0xbcd8b357	-0.026452703
253	0x3d1ab829	0.037773285
254	0x399f93e0	0.0003043702
255	0xbd1ee8f0	-0.038796365

cvae_parameters.dec_01_lin_b f4 [128]
0	0xbcbcdae7	-0.0230536
1	0xbb8ab4c5	-0.004232975
2	0xbbae9ac1	-0.0053285067
3	0xbb753b68	-0.0037419442
4	0xbbca0745	-0.0061654174
5	0xbe39912c	-0.18121785
6	0xbb86a16f	-0.0041086
7	0xbcca7707	-0.02471496
8	0xbb131451	-0.002244253
9	0xbd63530e	-0.05549913
10	0xbbb47de1	-0.00550817
11	0xbba24ca8	-0.004952986
12	0xbdd018df	-0.10160994
13	0xbbd66b92	-0.006543585
14	0xbd4f156c	-0.05055754
15	0xbe0edade	-0.13950679
16	0x3d783dd8	0.060605854
17	0x3d4236b0	0.047415435
18	0x3f04acec	0.5182636
19	0xbc1337fe	-0.008985518
20	0x3e1f3f1d	0.1555142
21	0xbc83f70d	-0.016109014
22	0x3e3712b3	0.17878227
23	0xbc82855d	-0.015932733
24	0xbaa27dc4	-0.00123971
25	0xbd99893d	-0.07496879
26	0xbd3129f9	-0.04325292
27	0xbdc3fca7	-0.09569674
28	0xbe5f492e	-0.2180526
29	0xbd011054	-0.031509712
30	0xbc3f4a2e	-0.011675401
31	0xbad28788	-0.001606212
32	0xbb4ee6b0	-0.0031570606
33	0xba97fb5a	-0.0011595294
34	0xbb034d19	-0.0020034967
35	0xbdd9eb11	-0.106405385
36	0xbb9959ee	-0.00467991
37	0xbaea4f64	-0.0017876443
38	0xbb207671	-0.002448466
39	0xbaac1bd9	-0.0013130858
40	0xbabec91b	-0.0014555784
41	0xbbf0beb0	-0.0073469505
42	0x3d9050d0	0.07046664
43	0xbb1130c0	-0.0022154301
44	0xba79ea05	-0.0009533468
45	0xbb7c65ba	-0.0038512782
46	0xbbf31935	-0.0074187764
47	0xbdd8f525	-0.105936326
48	0xbd51fb47	-0.051265027
49	0x3e062872	0.13101366
50	0xbcded4b1	-0.027201029
51	0xbb03adab	-0.0020092528
52	0xbd0343f5	-0.03204723
53	0xbc8e2c9b	-0.017355254
54	0xbd97c1b7	-0.07409995
55	0x3cdf8b2c	0.027288042
56	0xbdeebd94	-0.11657253
57	0xbe7fb6fb	-0.24972145
58	0xbe256445	-0.16151531
59	0xbaee1c7a	-0.0018166446
60	0xbbe33604	-0.0069339294
61	0x3d5bada8	0.05363241
62	0xbb084e70	-0.0020798706
63	0xbdfd35f4	-0.12363806
64	0xbc5e79cc	-0.013578843
65	0xbb16c574	-0.0023005875
66	0xbcfca795	-0.030841628
67	0xbc2efe82	-0.010680797
68	0xbba05c82	-0.0048938403
69	0xbdbc3cc7	-0.0919128
70	0xbc776abb	-0.01510113
71	0xbb3a90fc	-0.0028467765
72	0xbc40430a	-0.011734733
73	0xbdbd7936	-0.09251635
74	0xbc1d834b	-0.009613822
75	0xbe288552	-0.16457108
76	0xbe0048be	-0.12527749
77	0xbb1693a9	-0.0022976196
78	0xbe375f01	-0.17907335
79	0xbbaab292	-0.0052092755
80	0xbdfb4fae	-0.12271057
81	0x3b302f12	0.0026883525
82	0xbb0c0cde	-0.0021369974
83	0xbb001b9c	-0.0019547706
84	0xbb2dbf8f	-0.0026511883
85	0xbc820efb	-0.015876284
86	0xbc249392	-0.010044949
87	0xbe58fc79	-0.2119006
88	0x3eb294fe	0.34879297
89	0xbc2fe171	-0.010734902
90	0xbe1252b6	-0.14289364
91	0xbdcab035	-0.0989689
92	0xbaa13ad4	-0.0012300857
93	0xbc882245	-0.016617903
94	0xbd38484f	-0.044990834
95	0xbc2dbef9	-0.010604613
96	0xbb2f17eb	-0.0026717137
97	0x3d7bc709	0.06146911
98	0xbaa9d0fd	-0.001295596
99	0xbddf10f0	-0.108919024
100	0xbc1bee37	-0.009517244
101	0xba6a423f	-0.0008936263
102	0x3ef29dac	0.4738592
103	0xbbb4bcaa	-0.0055156546
104	0xbb1dd098	-0.002408063
105	0xbe0bc481	-0.13649179
106	0xbb086565	-0.002081239
107	0xbd83401b	-0.064087115
108	0xbc187718	-0.009305738
109	0xbaf62faa	-0.0018782516
110	0xbac26833	-0.0014832079
111	0xbbb9b692	-0.005667516
112	0xbbfe3b97	-0.0077585685
113	0xbd7f857d	-0.062383164
114	0xb987b003	-0.00025880345
115	0xbd5da450	-0.05411178
116	0xbb1146e1	-0.0022167491
117	0x3c825389	0.015908973
118	0xbdb7c682	-0.08973409
119	0xbdc9c453	-0.09851899
120	0xbb9a8af6	-0.0047162725
121	0xbb421535	-0.002961469
122	0xbae5ad9c	-0.0017523053
123	0xbb4fed38	-0.0031727087
124	0xbdcc3e71	-0.09972847
125	0xbbbf6841	-0.0058412855
126	0xbb7324c1	-0.0037100764
127	0xbbc66b79	-0.006055292

cvae_parameters.dec_01_lin_w f4 [128, 128]
0	0xbcfdb545	-0.030970225
1	0xbc233608	-0.0099616125
2	0x3c7db9b5	0.015486171
3	0x3b8d01de	0.004303201
4	0xbccc5340	-0.02494204
5	0x3b39f5ad	0.0028375194
6	0x3bbb1947	0.0057098004
7	0xbc13d2b6	-0.009022405
8	0xbc5a1ed3	-0.013313013
9	0xbd08869d	-0.033331502
10	0x3a9b7a6c	0.0011862046
11	0x3b7715b8	0.0037702154
12	0x3be5bdaa	0.007011135
13	0xbcc8f046	-0.024528634
14	0xbb673c5c	-0.003528378
15	0xbd152fe7	-0.036422636
16	0xbc913a61	-0.017728033
17	0xbb910af0	-0.0044263527
18	0x3d04dda5	0.03243794
19	0x3c50b15e	0.0127376
20	0xbc266637	-0.010156206
21	0x3b292db3	0.0025814592
22	0xbc3069da	-0.0107674245
23	0xbc8fd806	-0.017559063
24	0x3cc65ba8	0.024213627
25	0xbcc7d443	-0.024393206
26	0x3c433ac3	0.011915865
27	0xbc2f875e	-0.010713426
28	0xbbcbb014	-0.0062160585
29	0xbb11ca4b	-0.002224582
30	0xb9350465	-0.00017263142
31	0x3b320232	0.0027161953
32	0x3bae2e0d	0.0053155483
33	0xbcf98e81	-0.030463459
34	0xba27a3c8	-0.000639495
35	0xbc9470c9	-0.018120186
36	0xbc93c464	-0.018037982
37	0xbc947f26	-0.018127035
38	0xbc80ac1f	-0.015707074
39	0xbd04731f	-0.03233635
40	0xbc92b8f5	-0.01791046
41	0x3afd8e27	0.0019344733
42	0xbc551c10	-0.013007179
43	0xbd17f00b	-0.037094157
44	0x3bf10132	0.007354879
45	0xbc9e2bb5	-0.01930795
46	0xbc319deb	-0.010840873
47	0xbc014f64	-0.007892463
48	0xba3e06de	-0.0007248948
49	0xbca0d95d	-0.019634897
50	0xbc71d1ae	-0.014759464
51	0x3be23032	0.006902718
52	0xbc5fe447	-0.013665265
53	0x3c2772dc	0.010220256
54	0xbc27be31	-0.010238216
55	0xbaed9539	-0.0018126137
56	0xba5bc49e	-0.0008383485
57	0x3c8ca744	0.017169602
58	0xbcef0014	-0.029174842
59	0xbad42a4c	-0.0016186922
60	0xbb1714e0	-0.0023053214
61	0x3aa0fa73	0.0012281671
62	0xbd005ba1	-0.031337384
63	0xbc783d6a	-0.015151361
64	0xbb793f13	-0.003803198
65	0xbcd6ccce	-0.026220705
66	0xbd1d4448	-0.038395196
67	0xbb51a1aa	-0.0031987228
68	0xbc69d0d6	-0.014270982
69	0x3c447078	0.011989705
70	0xbc1da20b	-0.009621154
71	0xbd0ed18d	-0.034867812
72	0xbc88a795	-0.016681472
73	0x3c15b92a	0.009138385
74	0xbcfe3808	-0.031032577
75	0xbc552787	-0.013009912
76	0xbbdb7c1e	-0.0066981455
77	0x3c9368e3	0.01799435
78	0x3ba796f3	0.00511443
79	0x3b9e1cfd	0.004825233
80	0x3bbe5d6e	0.0058094775
81	0xbccdfe11	-0.025145562
82	0x3cd26133	0.025681114
83	0xbcca22f8	-0.024674878
84	0xbce0a578	-0.027422652
85	0xbad6556d	-0.0016352363
86	0x3b18e9be	0.002333268
87	0xbac05610	-0.0014674086
88	0xbb82247e	-0.0039716354
89	0xbb764fa9	-0.0037584102
90	0xbbfc5554	-0.0077006016
91	0xbc56f6a2	-0.013120325
92	0xb7e6a6ba	-2.7495775e-05
93	0xb95cfe5b	-0.0002107559
94	0xbcf51355	-0.029916445
95	0xbc7edc29	-0.01555542
96	0xbc53b6b4	-0.012921978
97	0xbc044ea6	-0.008075392
98	0xba21d888	-0.0006173928
99	0xbb667cea	-0.003516967
100	0xbaff8832	-0.0019495545
101	0xbc8d8097	-0.01727323
102	0xbb48ea22	-0.0030657132
103	0xbcd0d350	-0.025491387
104	0xbc388d0f	-0.0112641
105	0x3bc2a6db	0.005940301
106	0xbc67043a	-0.014100129
107	0x38d7139e	0.00010255653
108	0x3bff8cd5	0.007798771
109	0xbd073237	-0.033006873
110	0xbc171ee8	-0.009223677
111	0x3b4a2f16	0.003085082
112	0xbc8504cd	-0.01623764
113	0x3c2edc6d	0.010672671
114	0xbb9f3b39	-0.004859355
115	0xbbbce57b	-0.005764661
116	0xbcbaf3c3	-0.022821313
117	0xbb3e2424	-0.002901324
118	0xbc8bde1f	-0.017073689
119	0xbb59241b	-0.0033133093
120	0xbc66870a	-0.014070282
121	0xbca9782c	-0.020687185
122	0xbc7cdbac	-0.015433233
123	0xbccba5a7	-0.024859263
124	0x3b19bded	0.0023459152
125	0xbcb1c773	-0.02170155
126	0x3b1b5575	0.002370206
127	0xbc544a52	-0.0129571725
128	0xbc04ffed	-0.008117658
129	0xbb934852	-0.0044947052
130	0xbc3472db	-0.011013712
131	0xbcc4094e	-0.023930218
132	0xbc81387a	-0.015774
133	0xba19ad33	-0.00058622955
134	0xbbac5cb6	-0.0052600754
135	0xbc4d0d6f	-0.01251541
136	0xbc6ec145	-0.014572446
137	0xbce6fd09	-0.028196828
138	0xbc1b68c9	-0.009485432
139	0x3c0fa771	0.0087679485
140	0xbc74136b	-0.014897208
141	0xbc82c004	-0.0159607
142	0xbcc652a9	-0.024209337
143	0xbc847e52	-0.016173515
144	0xbcb3b25f	-0.02193564
145	0xbcabfce6	-0.020994615
146	0xbcb7a4b5	-0.022417406
147	0xbaeaea2d	-0.0017922573
148	0xbc9e6ce8	-0.01933904
149	0xbbd612f7	-0.0065330225
150	0xbca9aa37	-0.020711048
151	0xbca4d1a3	-0.020119494
152	0xbbb3bdc1	-0.005485267
153	0xbbf50df9	-0.0074784723
154	0x3adc5e6c	0.0016812808
155	0xbc5d4223	-0.013504538
156	0xbc17f5ce	-0.009274913
157	0xbac76b45	-0.0015214464
158	0xbb02bfe1	-0.0019950795
159	0xbc332c45	-0.010935848
160	0x3c5cfde1	0.013488264
161	0xbcc8ff5f	-0.024535833
162	0xbc0e8756	-0.008699259
163	0xbc826e0c	-0.015921615
164	0xbcc1a827	-0.023639752
165	0x3c6566ad	0.014001531
166	0xbc7bb6ff	-0.015363454
167	0xbcd68da1	-0.02619058
168	0xbc8ab031	-0.016929718
169	0xbc8a062f	-0.016848652
170	0xbae65edd	-0.0017575879
171	0xbbe9b729	-0.00713243
172	0xbb7266f4	-0.0036987634
173	0xbcc6b608	-0.024256721
174	0x3c1434c7	0.009045786
175	0xbc7261e5	-0.014793848
176	0xbca5ca8c	-0.020238183
177	0x3c3b80b9	0.011444264
178	0xb829f664	-4.052221e-05
179	0xbc489de4	-0.012244675
180	0xbb88cebe	-0.004175036
181	0x38bfd18c	9.146621e-05
182	0x3bdc2a52	0.006718912
183	0xbca6ffa5	-0.020385573
184	0xbafce16c	-0.0019293255
185	0x3b23ad42	0.0024975096
186	0xbcb171a8	-0.02166064
187	0xbca2aaaf	-0.019856779
188	0x3b965089	0.0045872373
189	0xbae1786d	-0.0017202027
190	0xbc50479e	-0.012712387
191	0xbc065f5c	-0.008201446
192	0xbc2c52c4	-0.01051778
193	0xbd03d176	-0.03218218
194	0xbcd21d50	-0.025648743
195	0xba8cffb3	-0.0010757357
196	0xbc734ae2	-0.014849396
197	0xbbce8f68	-0.0063037165
198	0xbc946759	-0.018115686
199	0xbc2b117a	-0.010441178
200	0xbc7fd92b	-0.015615742
201	0xbca0b255	-0.019616285
202	0xbcad27a2	-0.021137062
203	0xbcc5d876	-0.024151068
204	0xbc800b6f	-0.015630452
205	0xbb806542	-0.003918321
206	0x3a26be82	0.00063607853
207	0xbb5c1e20	-0.0033587292
208	0xbc3eceb9	-0.011645966
209	0xbcbfcff5	-0.023414591
210	0x3b4c16eb	0.003114159
211	0xbbb0c647	-0.0053947303
212	0xbc7a13e9	-0.015263536
213	0xbc94e80f	-0.01817706
214	0xbb1f012d	-0.0024262175
215	0xbcb37195	-0.021904746
216	0xbc2a4936	-0.010393431
217	0xbce18f73	-0.027534222
218	0xbc6ad9e8	-0.014334179
219	0xbc79458e	-0.015214337
220	0xbbdc56cb	-0.0067242137
221	0xbca59e30	-0.020217031
222	0xbc36701f	-0.01113513
223	0xbca43387	-0.020044101
224	0xbbab728b	-0.0052321604
225	0xbc93c380	-0.018037558
226	0x3b5c7456	0.0033638678
227	0xbc8da74c	-0.017291687
228	0xbc9ca3b4	-0.019121028
229	0xbc0f3e85	-0.008742933
230	0xbbe16e46	-0.0068796007
231	0x3aa2ea00	0.0012429357
232	0xbc83bf2e	-0.016082373
233	0xbb0355b5	-0.00200401
234	0xbc847a40	-0.016171575
235	0xbb5ee2a0	-0.003400959
236	0xbc84fe52	-0.01623455
237	0x3b1138c9	0.002215909
238	0x3c8b89c1	0.01703346
239	0x3b3c9050	0.002877254
240	0xbc100b9a	-0.0087918285
241	0x3b4da7d2	0.0031380546
242	0xbbb0133b	-0.005373386
243	0xbc45688f	-0.0120488545
244	0xbc72f97d	-0.01482999
245	0xbc84f3d2	-0.016229544
246	0xbcc223db	-0.023698738
247	0xbbbe617f	-0.0058099623
248	0x3b8c1f94	0.0042762253
249	0xbc9cdaea	-0.019147355
250	0xbc53ecb4	-0.012934852
251	0xbc9ecc15	-0.019384423
252	0xbc8f59bc	-0.017498843
253	0x3c39cf25	0.011340891
254	0xbc67f998	-0.014158629
255	0xbb354cc6	-0.0027664169

cvae_parameters.enc_00_lin_b f4 [128]
0	0xbdfbb543	-0.12290432
1	0xbd93bdfd	-0.07213972
2	0xbe30902b	-0.17242496
3	0xbdfc7955	-0.1232783
4	0xbdb66cea	-0.089074925
5	0xbdc69efb	-0.09698292
6	0x3da5d668	0.08097535
7	0xbcda1041	-0.026619079
8	0xbdcc7f37	-0.09985202
9	0xbe55b3c0	-0.2086935
10	0xbd9b3e8c	-0.07580289
11	0xbc968755	-0.018375078
12	0xbe1123c5	-0.14173801
13	0xbde4fe47	-0.11181312
14	0xbc146538	-0.009057336
15	0xbdfa6bcd	-0.122275926
16	0xbdc88a3d	-0.09791992
17	0xbd9e66c2	-0.07734443
18	0xbdeb1eeb	-0.114805065
19	0xbcb765b5	-0.022387365
20	0xbda1b724	-0.078962594
21	0xbda9bf1b	-0.082884036
22	0xbdfee6a9	-0.12446339
23	0xbdd40ee6	-0.10354404
24	0xbe3e12d7	-0.18561874
25	0xbde8ed4a	-0.11373384
26	0xbe36ca09	-0.17850508
27	0xbe498ba8	-0.19682181
28	0xbd6c46e5	-0.057684798
29	0xbd431084	-0.047623172
30	0xbd2a56ce	-0.04158669
31	0xbe032914	-0.12808639
32	0xbdfb593b	-0.12272879
33	0xbcdf3a4c	-0.027249478
34	0xbdb45068	-0.08804399
35	0xbcc1dfea	-0.02366634
36	0xbe152d1b	-0.14567988
37	0xbe188435	-0.14894183
38	0xbe597908	-0.21237576
39	0xbe38586b	-0.18002479
40	0xbe040847	-0.12893783
41	0x3daa13a8	0.083045304
42	0xbd94b6dd	-0.07261441
43	0xbe1c180a	-0.15243545
44	0xbe20c563	-0.15700297
45	0xbe2f98d2	-0.1714814
46	0x3a947104	0.0011325185
47	0x3ca233b9	0.019800054
48	0xbdea4102	-0.114381805
49	0xbde31b5f	-0.11089205
50	0xbd5a8790	-0.05335194
51	0xbcac2a11	-0.021016153
52	0xbdb26933	-0.087114714
53	0xbdccd684	-0.10001853
54	0xbd69652a	-0.056981243
55	0x3d6fcaef	0.058543142
56	0xbde8c0a1	-0.11364866
57	0xbe277fd5	-0.16357358
58	0xbdfce0be	-0.12347554
59	0xbde08db4	-0.10964528
60	0xbcc0d55d	-0.02353924
61	0xbd9b7902	-0.0759144
62	0xbd0b6e57	-0.034040775
63	0xbe0a4164	-0.13501507
64	0xbe021924	-0.12704903
65	0xbda44ff0	-0.08023059
66	0x3d760927	0.060067322
67	0xbdf3eee8	-0.11910802
68	0xbe27214a	-0.16321293
69	0xbdbe3d3c	-0.09289023
70	0xbdf803b6	-0.12110083
71	0xbde80ec6	-0.11330943
72	0xbe004587	-0.12526523
73	0x3df802cb	0.12109908
74	0xbe225c4d	-0.15855522
75	0xbe0406f2	-0.12893274
76	0xbe3510ec	-0.17682236
77	0xbe20b40d	-0.15693684
78	0xbd2c70ab	-0.042099636
79	0xbd9d363c	-0.0767636
80	0xbdc6be3f	-0.09704255
81	0xbd05461f	-0.032537576
82	0xbd76548a	-0.060139216
83	0xbdae9f46	-0.08526473
84	0xbdd236dc	-0.1026437
85	0xbdcc724f	-0.0998274
86	0xbdcad3ac	-0.099036545
87	0xbdcdbb7d	-0.10045526
88	0xbdfbc0f9	-0.12292666
89	0x3ca0bad4	0.019620337
90	0xbdad0d29	-0.08449776
91	0xbb107d65	-0.0022047397
92	0xbe13a651	-0.14418913
93	0xbe21d596	-0.15804133
94	0xbe0b8f2a	-0.13628832
95	0xbdd6dcfd	-0.10491369
96	0xbbc4c0f5	-0.0060044476
97	0xbdc9daad	-0.09856162
98	0xbe24c5de	-0.16091105
99	0x3c3175f4	0.010831345
100	0xbd54fedf	-0.052000877
101	0xbe0d9ec7	-0.138301
102	0xbe2b0856	-0.16702399
103	0xbd3b5fe9	-0.045745764
104	0xbd933f06	-0.07189755
105	0x3b7ecbaa	0.0038878717
106	0xbe108d4c	-0.141164
107	0xbdc801b9	-0.097659536
108	0xbe1b0b06	-0.15140924
109	0xbe3cec20	-0.1844945
110	0xbe0b385a	-0.13595715
111	0xbd8b1ec8	-0.067929804
112	0xbe156a77	-0.14591394
113	0xbe12b484	-0.14326674
114	0xbdf9a014	-0.121887356
115	0xbd075404	-0.033039108
116	0xbdaeadce	-0.08529244
117	0xbd6283bc	-0.055301413
118	0xbde53252	-0.111912385
119	0xbd093e8c	-0.033506915
120	0xbd9a35a4	-0.075297624
121	0x3d7fd71e	0.06246101
122	0xbd8be4f8	-0.06830782
123	0xbcde30cb	-0.027122876
124	0xbe06ff2a	-0.13183275
125	0xbda6810f	-0.08130085
126	0xbdb5b65f	-0.08872675
127	0xbd407ec2	-0.046995886

cvae_parameters.enc_00_lin_w f4 [128, 163]
0	0xbc708fe7	-0.0146827465
1	0x3ca2164a	0.019786019
2	0x3c07fc08	0.008299835
3	0x3d406606	0.046972297
4	0x3d87b041	0.06625415
5	0xbd79f227	-0.06102195
6	0x3d8adb24	0.06780079
7	0xbd0e4f87	-0.034743812
8	0xbbb6639d	-0.005566074
9	0x3bad6b0a	0.005292301
10	0xbc8123a7	-0.01576407
11	0xbd03289d	-0.032021154
12	0xbd5cf95b	-0.05394874
13	0x3d5d058b	0.053960364
14	0xbce22c4b	-0.027609011
15	0xbd09757f	-0.03355932
16	0xbd2c0101	-0.041993145
17	0xbd0b97a4	-0.034080163
18	0x3d5ce49d	0.05392896
19	0xbd1656cc	-0.03670387
20	0xba953ce3	-0.0011385944
21	0xbb2cbebc	-0.0026358804
22	0xbd7285e9	-0.059209738
23	0xbddd433e	-0.10803841
24	0xbcefbf52	-0.029266033
25	0xbd8ba43e	-0.06818436
26	0xbdd0ff0d	-0.10204897
27	0x3cd866c6	0.026416194
28	0xbc98e1a6	-0.018662285
29	0xbd814606	-0.06312184
30	0x3c63b2ab	0.013897578
31	0xbdb9768f	-0.090558164
32	0x3d806d24	0.06270817
33	0xbda5c19e	-0.0809357
34	0xbe1b381e	-0.15158126
35	0x3da94a1d	0.08266089
36	0x3aeb3ba7	0.0017946855
37	0x3c695d40	0.014243424
38	0x3c11d335	0.008900453
39	0x3c3cf408	0.011532791
40	0x3d9398b3	0.072068594
41	0xbdbf8067	-0.09350663
42	0xbc726788	-0.014795192
43	0x3daf7973	0.085680865
44	0x3d0b0874	0.03394361
45	0x3d809c78	0.06279844
46	0x3da0b6c1	0.078473575
47	0xbbf2cbbf	-0.0074095423
48	0x3ce31559	0.02772014
49	0xbdb550f9	-0.08853335
50	0xbc63b0bf	-0.01389712
51	0x3da6dd27	0.0814765
52	0x3c3d6fd9	0.011562311
53	0xbab6b289	-0.0013938706
54	0x3da305df	0.07960104
55	0xbcc8e49a	-0.024523068
56	0xbda7a5a6	-0.08185892
57	0x3d587873	0.052849244
58	0xbd8ef239	-0.06979794
59	0x3daf34c8	0.08554989
60	0x3d0bcb2b	0.034129303
61	0xbddf9641	-0.109173305
62	0x3d1c0fd6	0.03810104
63	0x3be5adb4	0.0070092324
64	0xbd6ccfeb	-0.057815474
65	0x3d62eafe	0.055399887
66	0xbd99eb9c	-0.07515642
67	0x3d2b0296	0.041750513
68	0x3dc3d987	0.095629744
69	0xbd20122e	-0.039079838
70	0xbd30a8cf	-0.04312974
71	0x3d44ec97	0.048077192
72	0xbd46afc8	-0.04850748
73	0xbd39cf89	-0.045363937
74	0xbdc2b8ce	-0.09507905
75	0x3d21423d	0.03936981
76	0xbcb009f1	-0.021489115
77	0x3d84dc2a	0.064873055
78	0x3d0bd6b0	0.03414029
79	0xbcd78117	-0.026306672
80	0x3cbb097a	0.022831667
81	0xbd51e919	-0.05124769
82	0xbd39722a	-0.04527489
83	0xbd8bffe0	-0.06835914
84	0x3d8d5374	0.06900683
85	0x3d4adbc1	0.04952598
86	0x3d9018e1	0.07035995
87	0x3c82a437	0.015947444
88	0xbd95b86e	-0.07310568
89	0x3c8d174e	0.017223027
90	0xbc15b1b2	-0.009136604
91	0xbd9036fb	-0.07041737
92	0xbb84ca75	-0.004052455
93	0x3d78902d	0.06068437
94	0x3dd7c93b	0.105364285
95	0x3cb0307f	0.0215075
96	0xbd8012eb	-0.06253608
97	0x3d65c3ff	0.05609512
98	0x3ca030ae	0.019554462
99	0xbd115a2f	-0.035486396
100	0xbdb17e16	-0.08666627
101	0x3c91bc1f	0.017789898
102	0x3e047d6d	0.12938471
103	0xbd9eb36f	-0.07749068
104	0xbe228dd3	-0.15874414
105	0x3dc3447c	0.09534547
106	0xbd7ce103	-0.061738025
107	0x3ce6be06	0.028166782
108	0xbdafc359	-0.085821815
109	0xbb3cf3ac	-0.0028831763
110	0x3d8b9c22	0.06816889
111	0xbdcd3847	-0.100205
112	0xbe1fff76	-0.15624794
113	0x3dd4ca79	0.10390181
114	0xbd0c2f58	-0.034224838
115	0x3dbbb1c4	0.091647655
116	0xbd52a457	-0.051426258
117	0x3db0274a	0.08601244
118	0x3d0b4c6f	0.03400844
119	0xbdded9e2	-0.108814016
120	0xbe05e9f2	-0.13077524
121	0xbcb2c9a5	-0.021824667
122	0x3d1569ae	0.036477737
123	0x3d305209	0.043046985
124	0x3bd6b1dd	0.0065519647
125	0x3e0acf2b	0.13555591
126	0x3dad7226	0.08469038
127	0xbdbe8be0	-0.09304023
128	0xbd172ae9	-0.036906157
129	0xbcee1fbe	-0.02906787
130	0x3ae5f609	0.0017544638
131	0xbc55fc0d	-0.013060582
132	0xbc9a4b7a	-0.018834818
133	0x3d9c322d	0.07626758
134	0xbd04235e	-0.03226029
135	0xbcd40d28	-0.02588518
136	0x3cbf81b7	0.023377283
137	0x3d82c06b	0.06384357
138	0xbc81e900	-0.015858173
139	0xbd436e5c	-0.04771267
140	0xbd7cb2ff	-0.06169414
141	0x3d68a07a	0.056793667
142	0xbd2c8978	-0.042123288
143	0x3cd93f7a	0.026519526
144	0x3b85c5f1	0.0040824343
145	0x3d89a037	0.06720012
146	0xbcce3b24	-0.025174685
147	0x3d7fc570	0.06244415
148	0xbcaefacd	-0.021359826
149	0xbb68203a	-0.00354196
150	0x3d51f151	0.051255528
151	0xbcdb2c32	-0.026754472
152	0x3a661884	0.0008777457
153	0x3c985ad9	0.018598007
154	0xbb974489	-0.0046163243
155	0x3d36cb23	0.04462732
156	0x3d4e2181	0.05032492
157	0xbd808363	-0.0627506
158	0x3da50f30	0.080595374
159	0xbc089b5d	-0.008337823
160	0x3c1e7507	0.009671456
161	0xbe0800c4	-0.13281542
162	0x3b45a8fe	0.0030160542
163	0xbcc190ef	-0.02362868
164	0x3c188bbe	0.009310661
165	0x3bd5e194	0.006527135
166	0x3d1a17cd	0.037620354
167	0x3d78d552	0.060750313
168	0x3c1d6727	0.009607113
169	0x3caf3721	0.021388592
170	0x3bee3c4b	0.007270371
171	0xbc5ea3c7	-0.013588852
172	0xbb8aa3f7	-0.004230972
173	0x3d82751f	0.06369995
174	0xbd970380	-0.073737144
175	0x3d6f9cc3	0.05849911
176	0x3d450b98	0.04810676
177	0x3cbb07ff	0.022830961
178	0xbce42b86	-0.027852785
179	0xbd0e887c	-0.03479813
180	0xbce83555	-0.028345743
181	0x3df68137	0.120363645
182	0xbe05ed60	-0.13078833
183	0x3d9b4e4d	0.07583294
184	0x3d2abea3	0.04168571
185	0x3d327321	0.043566827
186	0xbd201b4e	-0.03908854
187	0xbd97344b	-0.07383021
188	0xbd5d6f30	-0.054061115
189	0xbc6c3d8a	-0.014418969
190	0xbdd23e06	-0.10265736
191	0x3cc925fd	0.024554247
192	0x3d2a0f45	0.04151847
193	0xbbbb77f0	-0.005721085
194	0xbc848ceb	-0.016180476
195	0xbd14b3c9	-0.03630427
196	0xbcb327a3	-0.021869486
197	0xbd81f235	-0.063450254
198	0xbd9a54d6	-0.075357124
199	0x3d416fb5	0.047225673
200	0x3d30ede0	0.043195605
201	0xbd1d382a	-0.03838364
202	0x3d11d60e	0.03560453
203	0xbc995930	-0.018719286
204	0x3c4169ae	0.011804981
205	0x3bd137a2	0.006384806
206	0xbcea9e50	-0.028639942
207	0x3be21c8d	0.006900376
208	0x3d943c7d	0.072381
209	0xbd11bda1	-0.035581235
210	0x3c885d3b	0.016646018
211	0xbd1993ec	-0.037494585
212	0xbcece10e	-0.028915908
213	0x3d751a49	0.05983952
214	0x3cdd4032	0.02700815
215	0xbcb06802	-0.02153397
216	0x3d017327	0.03160396
217	0x3c9bea1d	0.019032532
218	0x398d587b	0.0002695954
219	0x3d6515a4	0.05592884
220	0xbdac39a4	-0.084094316
221	0x3d05817a	0.03259418
222	0xbba78a3d	-0.005112915
223	0xbd0cabb9	-0.034343455
224	0x3c514db6	0.012774875
225	0x3cbf0fdc	0.023322992
226	0x3cf9740c	0.030450843
227	0x3d687380	0.056750774
228	0xbd1ef822	-0.038810857
229	0x3cb43fc4	0.022003062
230	0xbd76fa09	-0.060297046
231	0xbbbae9ff	-0.005704164
232	0x3d7bbb81	0.061458115
233	0xbd6e1d5c	-0.058133468
234	0x3d629cc2	0.055325277
235	0xbd834e00	-0.06411362
236	0xbd148f20	-0.036269307
237	0x3cc203f5	0.023683527
238	0xbd4a08e1	-0.049324874
239	0xbd45dd67	-0.04830685
240	0x3d2a87aa	0.041633286
241	0xbe0775e5	-0.13228567
242	0xbcf72d3f	-0.030172942
243	0xbdd04adf	-0.101705305
244	0xbd205833	-0.039146613
245	0x3c84b18a	0.016197938
246	0xbdb39c8a	-0.08770092
247	0x3d47d22d	0.048784424
248	0x3d9b6e58	0.07589406
249	0xbd815134	-0.063143164
250	0xbc29d908	-0.010366686
251	0xbd88fa8e	-0.066884145
252	0xbd46065e	-0.048345916
253	0x3c3e71f4	0.011623848
254	0xbd71284a	-0.058876313
255	0x3dc53de3	0.096309446

cvae_parameters.enc_01_lin_b f4 [128]
0	0x3e0f72f2	0.14008692
1	0x3e098ee2	0.13433412
2	0x3c663c5d	0.014052478
3	0x3da48626	0.08033399
4	0x3d6890cc	0.056778714
5	0x3e1bec45	0.15226848
6	0x3e076132	0.13220671
7	0x3e1882f1	0.148937
8	0x3dc7efe7	0.097625546
9	0x3e051e35	0.12999804
10	0x3c883ca8	0.016630486
11	0x3e224414	0.15846282
12	0x3d239be1	0.03994358
13	0xbd1e00b7	-0.0385749
14	0xbc8018a7	-0.015636755
15	0x3e01b5be	0.12666985
16	0x3e0d11e8	0.13776362
17	0x3e11d860	0.14242697
18	0x3e04c68f	0.12966369
19	0x3dd33baa	0.103141144
20	0x3e12efba	0.14349261
21	0x3d96c217	0.073612384
22	0x3dfeef0e	0.1244794
23	0x3e1e1a20	0.15439653
24	0x3e29a9e4	0.16568714
25	0x3e1130a7	0.14178716
26	0xbce861bd	-0.028366918
27	0x3e0f96ce	0.14022371
28	0xbd21a077	-0.03945967
29	0x3e212192	0.15735462
30	0xbb26f905	-0.0025478017
31	0x3e155b29	0.14585556
32	0x3d9b1bd6	0.07573669
33	0x3e15470d	0.14577885
34	0x3bf93860	0.0076055974
35	0xbbaa3a6e	-0.0051949536
36	0x3e048bb0	0.12943912
37	0x3e11c978	0.1423701
38	0x3dfabcaf	0.1224302
39	0x3ddfc764	0.109267026
40	0x3e0f1543	0.13972954
41	0xbc3ebfc1	-0.011642397
42	0x3da948b4	0.0826582
43	0xbc3b03cc	-0.011414479
44	0x3c7b73b0	0.015347406
45	0x3e13495a	0.1438345
46	0x3c1376f0	0.009000525
47	0x3e1a1711	0.15047862
48	0xbc35241d	-0.011055973
49	0xbd1ac624	-0.037786618
50	0x3e277b63	0.16355662
51	0xbc57428e	-0.0131384265
52	0xbc5b7c9b	-0.0133964075
53	0x3dc6d73a	0.0970902
54	0xbc570227	-0.013123072
55	0x3e16db01	0.14731981
56	0x3e26c280	0.16285133
57	0xbc896c14	-0.016775168
58	0xbca6ff54	-0.020385422
59	0x3e21868a	0.15773979
60	0xbcbd13de	-0.023080762
61	0xbb8050fc	-0.003915904
62	0xbce85606	-0.028361332
63	0x3684dc2d	3.9595384e-06
64	0xbbf94053	-0.007606545
65	0x3e101a97	0.14072643
66	0xbb67c462	-0.0035364856
67	0x3daad9ef	0.08342349
68	0xbc144ae1	-0.009051056
69	0x3dfd51ab	0.123690926
70	0x3b28b4c3	0.0025742508
71	0x3e0e248a	0.13881126
72	0xbc244a85	-0.0100275325
73	0x3e05da4f	0.1307156
74	0x3e08394b	0.13303106
75	0x3de17813	0.110092305
76	0x3d459c46	0.048244737
77	0xbcbe5056	-0.023231667
78	0xbce6396c	-0.028103553
79	0x3e06578b	0.13119332
80	0x3e02055f	0.12697361
81	0x3d41e928	0.047341496
82	0x3c79c6ec	0.015245181
83	0x3e22d1d4	0.15900356
84	0x3e061956	0.13095602
85	0x3d676460	0.05649221
86	0x3d81a9e3	0.063312314
87	0x3e0b9db0	0.13634372
88	0x3e0a1b87	0.13487063
89	0x3e0f3ce8	0.13988078
90	0x3e16cffa	0.14727774
91	0xbc970822	-0.018436495
92	0xbb7c6f12	-0.0038518352
93	0x3e330da3	0.17485671
94	0x3dcf6e6f	0.101284854
95	0x3e27bfba	0.16381732
96	0x3e127cd4	0.1430543
97	0x3e1682cc	0.14698333
98	0x3e082029	0.13293518
99	0x3e04eef1	0.12981774
100	0x3dbb3350	0.091406465
101	0x3db33a31	0.087513335
102	0x3e18fdbe	0.14940545
103	0x3e2daa34	0.16959459
104	0x3e1e25ec	0.15444154
105	0x3e054637	0.13015066
106	0x3d8cdf54	0.06878534
107	0x3e1739c1	0.14768125
108	0x3e0dfe42	0.13866523
109	0x3dc4f394	0.09616771
110	0x3e06755c	0.13130707
111	0xbc931e97	-0.017958922
112	0x3e044489	0.12916769
113	0xbc1d0133	-0.009582805
114	0x3dd558c4	0.10417321
115	0x3dc11f71	0.09429825
116	0x3c2b7945	0.010465925
117	0xbc0c5320	-0.00856474
118	0x3dff3882	0.1246195
119	0x3d97039f	0.073737375
120	0xbd1d008d	-0.038330603
121	0x3df5c5af	0.12000596
122	0x3df6fe9e	0.12060283
123	0x3e0b33f7	0.13594042
124	0x3df9badf	0.12193846
125	0xbd428fa9	-0.047500286
126	0x3d9f498e	0.07777701
127	0x3e0ccf03	0.13750844

cvae_parameters.enc_01_lin_w f4 [128, 128]
0	0x3d250771	0.0402903
1	0x3d22ea8d	0.039774466
2	0x3d509b60	0.050929427
3	0x39e34297	0.00043346427
4	0x3c85d390	0.016336232
5	0x3d83d785	0.064375915
6	0x3d06055b	0.03271995
7	0x3cefc7e1	0.029270114
8	0x3d4836cc	0.048880383
9	0x3d0056e6	0.031332873
10	0x3d547d09	0.051877055
11	0x3c4e6db1	0.012599395
12	0xbc92e573	-0.017931676
13	0xbbddb57e	-0.0067660203
14	0x3d41e71d	0.047339547
15	0xbd4323a8	-0.047641426
16	0x3d6ff200	0.0585804
17	0x3d2c7bc4	0.04211022
18	0x3d4af00d	0.049545337
19	0xbc2b55b7	-0.010457448
20	0xbca25661	-0.01981658
21	0x3afd4e99	0.0019325792
22	0x3cba624b	0.022751948
23	0xbb5bd6b1	-0.0033544714
24	0x3d8d2152	0.06891121
25	0x3c08d40f	0.00835134
26	0xbc271cfb	-0.010199781
27	0x3cafe2aa	0.021470387
28	0x3c805a63	0.0156681
29	0x3ce55d6b	0.027998647
30	0x3d0b009b	0.033936124
31	0x3d2464f3	0.040135335
32	0x3d30510b	0.04304604
33	0x3c2d6af9	0.010584586
34	0x3ccc6b04	0.024953373
35	0x3df20c62	0.11818768
36	0x3c64e222	0.01396993
37	0x3d49e536	0.04929086
38	0x3d43ec51	0.04783279
39	0x3d5a595e	0.053307883
40	0xbca2a46b	-0.019853791
41	0x3d2a3de3	0.041562926
42	0x3d1a1e6b	0.037626665
43	0x3d1d0e13	0.0383435
44	0x3d10ee93	0.035383772
45	0x3c553959	0.013014161
46	0x3c5ba46c	0.0134059
47	0x3d00f613	0.031484675
48	0x3d441ba4	0.047877923
49	0xbcf8c02a	-0.030365068
50	0x3cd375c2	0.025812987
51	0xba7d3d41	-0.00096603116
52	0xbbd45801	-0.0064802174
53	0x3c84d0fe	0.016212936
54	0xba17a1e8	-0.0005784319
55	0x3d1e976f	0.038718637
56	0x3d0de0c1	0.03463817
57	0x3d6eabae	0.058269195
58	0x3d7dafba	0.061935164
59	0x3d4a438a	0.049380817
60	0x3d9f5b9e	0.077811465
61	0x3cdc2baa	0.02687629
62	0xbc88b00e	-0.016685512
63	0x3d0505cf	0.032476243
64	0x3d3fee9c	0.046858415
65	0xbd2af1c6	-0.04173448
66	0x3d4f2cc9	0.05057982
67	0xbcf5af6a	-0.02999087
68	0x3db87cd1	0.09008182
69	0x3d7ca1ec	0.06167786
70	0x3c6605c7	0.014039463
71	0x3d220553	0.03955586
72	0xbcbe9500	-0.023264408
73	0x3cea94b7	0.028635366
74	0x3d365e76	0.04452368
75	0x3ca4fdc4	0.020140536
76	0x3ce6acd8	0.02815859
77	0x3d1e1076	0.038589917
78	0x3caa88b5	0.02081714
79	0x3beb6885	0.0071840906
80	0x3d8ad324	0.06778553
81	0x3d01743e	0.031604998
82	0xbbea6e46	-0.007154259
83	0xbc2ea3b3	-0.010659146
84	0x3ceb95b9	0.028757917
85	0x3bdcfd16	0.0067440374
86	0xbcc3a7e4	-0.023883767
87	0xbb829740	-0.0039853156
88	0x3c5f6add	0.013636318
89	0x3d1cceb5	0.03828307
90	0x3d94f462	0.07273175
91	0x3d0b37bd	0.033988703
92	0x3bba7ba4	0.0056910086
93	0x3c599adc	0.01328155
94	0x3c892daf	0.016745416
95	0x3c2a5b9d	0.010397819
96	0x3d8a83dd	0.06763432
97	0x3d14c4a8	0.03632036
98	0xba680f07	-0.0008852337
99	0x3ca1bac4	0.019742377
100	0x3d1fb6b0	0.038992584
101	0x3d04d096	0.032425486
102	0x3c2ebd42	0.01066524
103	0x3c8b6074	0.017013766
104	0x3af1a449	0.0018435802
105	0x3c8ba4c3	0.017046338
106	0x3cb18bea	0.021673162
107	0xbd15d412	-0.0365792
108	0x3d7bc440	0.061466455
109	0x3d574cfc	0.052563652
110	0x3d39019a	0.045167543
111	0x3d348cd0	0.0440796
112	0x3c15f182	0.009151818
113	0xbbbde9d4	-0.0057956968
114	0x3d40bb23	0.047053467
115	0xbc05090c	-0.008119833
116	0x3d6d721f	0.057970162
117	0x3d500051	0.05078155
118	0xbb73892b	-0.0037160616
119	0x3d039da1	0.03213275
120	0x3d3cd6b3	0.04610319
121	0xba9dbfc3	-0.0012035299
122	0x3d5fe8f4	0.05466552
123	0x3d7c0fe8	0.061538607
124	0x3caf0485	0.02136446
125	0xbce4d500	-0.027933598
126	0x3da00583	0.07813551
127	0x3cc63617	0.024195714
128	0x3d86fe47	0.06591468
129	0x3c457a80	0.012053132
130	0xbb71d88e	-0.0036902758
131	0x3d4be107	0.04977515
132	0x3d8fdc49	0.07024438
133	0x3dee2be0	0.11629462
134	0x3c186a48	0.009302683
135	0xbcb32495	-0.02186803
136	0xbb86fbc6	-0.004119369
137	0x3ca7f72b	0.020503601
138	0x3d54b24f	0.05192786
139	0xbd105dc2	-0.035245664
140	0x3d92cc12	0.071678296
141	0xbb5251a2	-0.0032092114
142	0x3d81b8ab	0.06334051
143	0x3c8006aa	0.015628178
144	0x3d3d2c25	0.046184678
145	0x3db73b49	0.089468546
146	0xbc166cb1	-0.0091811875
147	0x3d875427	0.06607848
148	0x3d95d8d8	0.0731675
149	0xbc097a9d	-0.00839105
150	0x3c916ba1	0.017751517
151	0x3d9b822a	0.07593186
152	0x3cef455d	0.02920788
153	0x3c96e446	0.018419396
154	0x3c19c3e6	0.009385085
155	0x3d6b7f4d	0.05749445
156	0xbc9b7694	-0.01897744
157	0x3bef0970	0.007294826
158	0xbd588eb0	-0.052870452
159	0x3cfb0841	0.030643584
160	0xbc0fe0d8	-0.008781634
161	0xbd10ee41	-0.035383467
162	0x3ce8ffce	0.02844229
163	0x3dbca2da	0.09210749
164	0xbd1ce7fb	-0.03830717
165	0x3cc30eed	0.023810828
166	0x3d0e7420	0.034778714
167	0x3ce22493	0.02760533
168	0x3c1f34e7	0.009717203
169	0x3c66fb79	0.014098042
170	0x3d137cd9	0.036007736
171	0x3b9bbde3	0.004752861
172	0x3d82d9c7	0.06389194
173	0x3d8ad978	0.0677976
174	0x3c1f1695	0.009709974
175	0x3d189666	0.037252806
176	0xbc03a58e	-0.008035077
177	0x3a9399a0	0.0011260994
178	0x3d0d9617	0.034566965
179	0x3c61b1a8	0.013775267
180	0x3c856e95	0.016288081
181	0x3d57091e	0.05249893
182	0x3d827515	0.06369988
183	0x3d3d176c	0.046164915
184	0x3b14dfe5	0.002271646
185	0x3cf9f8ec	0.030514203
186	0x3cf0a14f	0.029373793
187	0xbb02f3ec	-0.0019981815
188	0x3d40c80b	0.047065776
189	0x3ca2faac	0.01989492
190	0xbcf730dd	-0.030174667
191	0x3d0075df	0.03136241
192	0x3d8ca4c9	0.06867368
193	0x3a1f5ac4	0.0006078894
194	0x3d02e064	0.031952277
195	0x3cd5e488	0.026109949
196	0xbc315f7d	-0.010825989
197	0x3d9026ad	0.07038627
198	0x3c795a1b	0.015219237
199	0x3c0015c6	0.007817691
200	0x3d59e118	0.05319318
201	0x3daed721	0.08537126
202	0x3b964656	0.0045860214
203	0x3c09e19d	0.008415607
204	0x3c1c1f2c	0.009528916
205	0x3d34f49a	0.044178583
206	0x3d548c62	0.051891692
207	0x3cc7b85a	0.024379898
208	0xbccf9415	-0.025339166
209	0x3d5587e5	0.052131552
210	0x3b58fc0a	0.0033109211
211	0xbcf8eb83	-0.030385738
212	0xbd367136	-0.04454156
213	0xbd0da96a	-0.034585394
214	0xbb81cafc	-0.003960965
215	0xbcbe63c7	-0.023240937
216	0x3d03de65	0.032194514
217	0x3ca5b856	0.0202295
218	0x3c98ab34	0.018636324
219	0xbd2e8d61	-0.0426153
220	0x3d0500d8	0.032471508
221	0xbc394a26	-0.011309182
222	0x3d654f54	0.055983856
223	0x3d54a653	0.05191643
224	0xbd6ef736	-0.058341227
225	0x3cc2dbaa	0.023786385
226	0x3dabcc64	0.08388594
227	0x3ca4c569	0.020113664
228	0x3d1c24d6	0.038121067
229	0xbc82e56c	-0.015978537
230	0x3d3c006a	0.045898832
231	0xbd02a961	-0.031899814
232	0x3c7875b8	0.015164785
233	0x3d8de34b	0.06928118
234	0xbc8daed5	-0.01729528
235	0x3c7ab056	0.015300831
236	0x3d7fe6ef	0.062476095
237	0x3c959c66	0.018263053
238	0x3cbf1260	0.023324192
239	0x3c095c32	0.0083837975
240	0xbc2abba1	-0.010420711
241	0x3d1c4120	0.038148046
242	0x3c39be4c	0.011336874
243	0xbb1dcbd2	-0.0024077785
244	0x3db6a493	0.08918109
245	0x3cde0b93	0.027105128
246	0x3d0c801f	0.034301873
247	0x3c2f6b7f	0.010706781
248	0x3d9f06e9	0.0776499
249	0x3da9b8ae	0.08287178
250	0x3a36711e	0.0006959605
251	0xbc8a6994	-0.016896047
252	0x3ccb4ded	0.024817431
253	0x3d692b79	0.056926224
254	0xbd0b5fc0	-0.03402686
255	0xbd5151e0	-0.051103473

cvae_parameters.out_lin_b f4 [160]
0	0x3d6125c6	0.054967664
1	0xbc285dd8	-0.01027628
2	0xbcb23393	-0.021753108
3	0x3c91e2cf	0.017808346
4	0x3c424c85	0.011859064
5	0xbceef56c	-0.02916976
6	0x3d4b366f	0.04961246
7	0xbcd01dec	-0.025404893
8	0x3bb4a715	0.005513082
9	0x3d45bbb7	0.048274722
10	0xbd358905	-0.044320125
11	0x3bdb3b4a	0.0066904174
12	0x3d5be33a	0.053683497
13	0xbdfebd71	-0.12438477
14	0x3ca55d91	0.020186218
15	0x3d85f2ea	0.06540473
16	0xbd045492	-0.032307215
17	0x3d66a67c	0.056311116
18	0xbd1c42be	-0.038149588
19	0x3d447ef3	0.04797263
20	0xbbf55d2d	-0.007487914
21	0xbe8290ad	-0.25501004
22	0xbdf21d4b	-0.118219934
23	0x3d99c5be	0.075084195
24	0x3c7e7327	0.015530384
25	0xbd3f634a	-0.04672555
26	0x3cb04f6a	0.021522243
27	0xbd900d08	-0.070337355
28	0x3d1124b8	0.03543541
29	0xbe5cde34	-0.21569139
30	0xbc026a90	-0.007959977
31	0x3ced4502	0.02896357
32	0x3db6b349	0.08920915
33	0xbe1978d6	-0.14987502
34	0xbd1de63e	-0.038549654
35	0xbdf242e4	-0.118291646
36	0x3c3eaa3d	0.011637268
37	0x39ef75ef	0.000456735
38	0x3c0ab85a	0.008466804
39	0x3c781791	0.015142337
40	0x3c168bee	0.009188635
41	0xbe0235fe	-0.12715909
42	0xbcee8e72	-0.029120658
43	0xbe3e9a63	-0.18613581
44	0x3b2cbb4a	0.002635675
45	0x3bcd0100	0.0062562227
46	0x3c7e6dd7	0.015529118
47	0x3c43b3ab	0.011944692
48	0xbcbd5e0d	-0.023116136
49	0xbd9d4571	-0.076792605
50	0x3d67c349	0.056582723
51	0xbd72b6e0	-0.059256434
52	0x3dba5f08	0.09100157
53	0xbe173984	-0.14768034
54	0x3e021a19	0.12705268
55	0x3d5fbe62	0.054624923
56	0xbd3319ed	-0.043725897
57	0xbabceb2d	-0.001441335
58	0x3e094236	0.13404164
59	0x3dc66a47	0.096882395
60	0x3d395fe1	0.045257453
61	0xbe4a199a	-0.19736329
62	0x3dcb4577	0.09925359
63	0x3da742fc	0.08167073
64	0xbc0aeb25	-0.008478914
65	0xbd048714	-0.032355383
66	0x3d3f4597	0.046697225
67	0x3e0985a7	0.1342989
68	0xbe1b3443	-0.15156655
69	0xbe45e2bb	-0.19324772
70	0x3c588a8c	0.013216626
71	0x3d94dc88	0.072686255
72	0x3d1d27f0	0.038368165
73	0xb937ff2c	-0.00017547299
74	0xbbed6df9	-0.007245776
75	0xbb777f92	-0.0037765247
76	0xbdcbde25	-0.0995448
77	0xbdcd7041	-0.10031176
78	0x3d4a62b9	0.049410556
79	0x3dc4edbc	0.09615657
80	0xbc477277	-0.012173287
81	0x3b0544cb	0.0020335193
82	0x3caf4a76	0.02139781
83	0xbda9e98c	-0.08296499
84	0xbda07bf1	-0.0783614
85	0xbe00ec45	-0.1259013
86	0x3d27962d	0.040914703
87	0x3e00ed0b	0.12590425
88	0x3d8efa03	0.0698128
89	0x3d64b904	0.055840507
90	0x3c48b262	0.012249561
91	0xbd93072b	-0.071791016
92	0xbd4cc52e	-0.049992733
93	0xbe07fcf2	-0.13280085
94	0x3daadc0d	0.083427526
95	0x3dc82573	0.09772768
96	0xbace0d30	-0.0015720483
97	0xbcb0ff5e	-0.021606144
98	0x3d2227bc	0.039588675
99	0xbdd60621	-0.10450388
100	0xbe09f45d	-0.13472123
101	0x3ad74dc9	0.001642638
102	0x3df31f82	0.11871244
103	0x3d0fc382	0.03509856
104	0x3d9250ee	0.07144342
105	0xbc92ace1	-0.0179047
106	0x3c85a639	0.016314613
107	0xbced9d23	-0.029005593
108	0xbd1545ee	-0.036443643
109	0x3d579425	0.052631516
110	0x3de02521	0.10944582
111	0x3e30d227	0.17267667
112	0x3d3fa698	0.046789736
113	0xbd2f5414	-0.042804793
114	0xbc81c362	-0.015840236
115	0xbd976ad0	-0.0739342
116	0x3d8eb426	0.06967954
117	0x3da49a62	0.08037259
118	0x3d02e5a7	0.031957295
119	0x3e27b154	0.16376239
120	0xbd7594f1	-0.059956495
121	0xbda5f144	-0.081026584
122	0xbd9b6eac	-0.07589468
123	0xbd78c675	-0.06073614
124	0xbd14307a	-0.036179043
125	0x3d3093c8	0.043109685
126	0xbdbec5a9	-0.093150444
127	0x3d144d28	0.036206394
128	0xbd122fe7	-0.035690214
129	0xbbe88ab1	-0.0070966114
130	0xbd22cb8a	-0.03974489
131	0xbdbe495a	-0.092913345
132	0xbdb81ed8	-0.08990258
133	0x3d7a648e	0.061131053
134	0xbd2f2fd1	-0.04277021
135	0xbd021ead	-0.031767536
136	0x3d53c607	0.051702525
137	0x3db582df	0.08862852
138	0x3d01f351	0.031726185
139	0xbdd26358	-0.102728546
140	0xbe2b0723	-0.16701941
141	0x3e0973bb	0.13423054
142	0x3d132454	0.035923317
143	0xbdca5679	-0.098797746
144	0x3d278b39	0.040904257
145	0x3d1aa2ca	0.037752904
146	0x3cb6d684	0.022319086
147	0xbc7212bb	-0.0147749735
148	0xbdc586e5	-0.0964487
149	0x3d93051d	0.0717871
150	0x3d982b6a	0.074301556
151	0xbcfc5ec2	-0.030806903
152	0x3d5f1d4a	0.05447129
153	0xbadb3b33	-0.0016726017
154	0xbc0fe5e0	-0.008782834
155	0x3d1efe23	0.038816582
156	0x3c93226e	0.017960753
157	0xbd0a7090	-0.033798754
158	0x3d3dec96	0.046368204
159	0xbc6171a1	-0.013760001
