dlpg/22/weights/dlpg_model_weights_200.pth (torch, 354171 bytes, 14 tensors)

cvae_parameters.dec_00_lin_b f4 [128]
-0.019515146 -0.086142786 -0.14910208 0.16863127 -0.13943407 -0.060248934 -0.08417325 -0.1444605
-0.07026621 0.19464163 -0.06907611 -0.096232444 0.056895994 -0.13127972 -0.09566924 -0.16297588
0.07846156 -0.063363716 -0.08018052 -0.07534691 0.011386009 -0.11154468 -0.16905725 -0.11721846
-0.1677114 0.099063694 -0.058063168 -0.0356424 -0.17057574 -0.052781083 -0.23121034 -0.15993263
-0.07983521 0.032397736 -0.008544752 -0.0029749763 -0.096881524 -0.14578103 -0.2665752 -0.2572914
-0.069279104 0.0684914 -0.049777716 -0.1098854 -0.12375256 -0.059323385 -0.1218094 -0.09848794
-0.05406875 -0.040959965 -0.08376403 -0.1079915 -0.1438517 -0.13681822 -0.10976446 -0.06441051
-0.045491472 0.18337178 -0.081078656 -0.12283036 -0.07917249 0.03041347 -0.12158255 -0.085919656
-0.12139986 -0.154518 -0.0057543013 -0.07679795 -0.044753227 0.06907528 -0.108586974 -0.13435832
-0.05177804 -0.20555007 0.19938667 -0.03511674 -0.119773686 -0.07322937 -0.063536026 -0.12528059
-0.08852567 -0.10184477 -0.05262164 -0.06694721 -0.057064608 -0.050943285 -0.11016996 -0.09059304
-0.0603853 -0.2011353 -0.055154167 -0.06274697 -0.13267744 -0.16129963 -0.041169766 -0.04474556
-0.08855544 -0.030397825 0.22435759 -0.25433487 -0.07205251 -0.08278218 0.11555315 -0.04035617
-0.1168867 -0.07227722 -0.025926227 -0.0771698 -0.08656265 -0.15948674 0.032229166 -0.12775359
-0.081993304 -0.081789516 -0.16777645 0.06671405 -0.30336142 -0.09374773 -0.069988355 -0.0051212385
0.14627464 -0.061122287 -0.054262538 0.064554386 -0.068261236 -0.13021791 -0.17569917 -0.05225194
00000000: 3ade 9fbc a16b b0bd 37ae 18be adad 2c3e
00000010: cec7 0ebe 96c7 76bd 0663 acbd 74ed 13be
00000020: bbe7 8fbd 2350 473e c777 8dbd 8415 c5bd
00000030: c60b 693d 316e 06be 3cee c3bd 26e3 26be
00000040: 74b0 a03d d6c4 81bd af35 a4bd 7b4f 9abd
00000050: 628c 3a3c 8a71 e4bd 581d 2dbe 3b10 f0bd
00000060: 8abc 2bbe e8e1 ca3d a5d3 6dbd c4fd 11bd
00000070: 68ab 2ebe fa30 58bd 67c2 6cbe 61c5 23be
00000080: a580 a3bd 7db3 043d 4aff 0bbc d2f7 42bb
00000090: d269 c6bd 9f47 15be 8b7c 88be b3bb 83be
000000a0: 34e2 8dbd 3845 8c3d b8e3 4bbd 990b e1bd
000000b0: fb71 fdbd 14fd 72bd 3577 f9bd 0cb4 c9bd
000000c0: 3277 5dbd a3c5 27bd 7a8c abbd a62a ddbd
000000d0: dc4d 13be 131a 0cbe 30cc e0bd a8e9 83bd
000000e0: 4455 3abd d0c5 3b3e 910c a6bd 7c8e fbbd
000000f0: 3025 a2bd ab25 f93c 4600 f9bd a5f6 afbd
00000100: 7da0 f8bd f739 1ebe 948e bcbb 3e48 9dbd
00000110: 294f 37bd 5777 8d3d d962 debd 3a95 09be
00000120: 3615 54bd b87b 52be 052c 4c3e 92d6 0fbd
00000130: e84b f5bd 48f9 95bd 2d1f 82bd 8e49 00be
00000140: f24c b5bd fe93 d0bd ca89 57bd 9e1b 89bd
00000150: 94bc 69bd e8a9 50bd caa0 e1bd d888 b9bd
00000160: 9456 77bd 69f6 4dbe 56e9 61bd 7c81 80bd
00000170: 98dc 07be bb2b 25be a1a1 28bd 1f47 37bd
00000180: 8e5c b5bd dc04 f9bc ffbd 653e 2e38 82be
00000190: 4490 93bd b489 a9bd 21a7 ec3d 834c 25bd
000001a0: 4b62 efbd 1406 94bd 3d63 d4bc 330b 9ebd
000001b0: c247 b1bd 7e50 23be bb02 043d d6d1 02be
000001c0: 1bec a7bd 4381 a7bd 97cd 2bbe 60a1 883d
000001d0: 3052 9bbe cffe bfbd 0e56 8fbd 10d0 a7bb
000001e0: 05c9 153e 5d5b 7abd 6542 5ebd 1735 843d
000001f0: 8ccc 8bbd d857 05be 7cea 33be 2106 56bd

cvae_parameters.dec_00_lin_w f4 [128, 35]
-0.0063508195 0.023691656 0.015541389 -0.017349757 0.033600807 0.030939385 -0.046680685 0.038604055
0.12134483 0.09029793 0.008173682 -0.083762564 -0.01421249 0.098579586 0.05439566 -0.0013103441
0.011879438 -0.12289461 -0.027073668 0.017909799 -0.027929783 0.00625557 -0.004700474 -0.026200136
0.063242376 0.053491376 0.031933162 0.069258235 0.036828075 -0.056613162 0.077238105 -0.19502601
-0.00035368255 -0.026130844 0.0010811606 -0.052790802 0.0051405625 -0.004334312 0.010097449 0.0043593138
-0.015321815 0.030444007 0.03478609 -0.0038677985 -0.016594335 -0.043468125 -0.013480795 -0.0017389219
-0.009950845 0.0025264758 0.012450322 -0.004845333 0.00078094145 -0.01271522 0.0029820085 0.010297315
-0.022777375 0.0032707392 -0.020323716 -0.0075254585 -0.0065196278 0.012325281 0.010939873 -0.00017393717
-0.004402945 0.040351957 -0.012786332 0.003883707 -0.0761024 0.0030911975 -0.011570563 -0.056034666
-0.025527515 0.020695271 0.0026768777 -0.022094931 -0.00016059825 -0.0022244898 0.011900141 -0.013264617
-0.03541852 -0.025234293 0.0069947997 -0.060663022 0.020062312 -0.016362524 0.020981044 -0.021154942
-0.008555019 0.014136196 0.04309096 -0.0016897097 -0.012324379 0.008983049 -0.02330101 0.021998793
-0.00043370106 -0.04915636 -0.0056678792 0.012804703 -0.019941805 0.015838407 0.008837138 -0.14012556
-0.002624979 -0.017464316 0.010585626 0.021005245 -0.028293874 0.046595056 -0.01622725 0.010771064
0.008678984 -0.03052633 -0.023253309 0.01850991 0.016509041 0.02437715 0.007826124 -0.04002105
-0.005238625 -0.046611723 0.043159947 -0.010388573 -0.014868579 0.016577994 0.026222328 0.0349744
-0.032270525 -0.013665574 -0.012042206 -0.015778659 -0.010126517 0.0044093896 -0.02071896 -0.026128905
0.010255129 0.023934547 0.17238167 0.009202233 -0.008029412 -0.05916399 0.018808812 0.047980193
-0.027456265 -0.026776625 0.032787696 -0.079650775 0.08953341 0.03385995 -0.012708751 0.023914903
0.08915358 -0.12342889 0.017389439 0.002083618 0.02098629 0.023736004 0.030651107 0.024976594
0.086489 0.023423977 0.029612359 -0.029320773 -0.030881004 0.013913819 0.021612048 0.019347902
0.035647232 0.019764448 0.026500093 0.0015476499 0.0025905704 -0.13538595 -0.002687557 0.0061823847
-0.008843279 0.026190974 0.01138412 0.00017874117 0.0042091636 0.022509255 0.0066885105 0.009114079
0.007733128 -0.015030119 0.0128275445 -0.011960106 -0.006221359 0.0052670683 0.022888586 -0.020789042
-0.006957849 0.022290546 0.019199198 -0.019916667 -0.000725855 0.008792234 0.0445228 -0.0072691566
-0.023015156 0.017630855 -0.004639309 -0.025093356 0.013645344 0.012260988 0.019482177 0.007767412
-0.049502138 -0.007315981 -0.04286118 -0.014079728 -0.026943272 0.015604093 0.0033398964 0.0053703645
-0.00019313084 0.008077589 -0.015603469 0.019051023 0.006046203 0.004634102 0.035747286 -0.00723519
-0.0016126006 0.019990372 0.014622812 -0.0059043975 -0.017659161 -0.01709477 -0.040900867 0.0066683777
-0.008145027 -0.014696375 0.016494812 -0.0061025703 -0.01589336 -0.020614423 0.020070229 0.025943602
0.0025152548 -0.0032343166 0.0046519153 -0.09931874 0.0192986 -0.01819406 -0.017814305 0.021094605
0.02066377 -0.0138865085 0.0060916753 -0.005365957 -0.03539836 0.005396881 0.00022524579 -0.031090306
00000000: 891a d0bb 0115 c23c 4fa1 7e3c 1421 8ebc
00000010: 00a1 093d 9874 fd3c 3f34 3fbd 491f 1e3d
00000020: a383 f83d 1fee b83d e8ea 053c b58b abbd
00000030: 81db 68bc 18e4 c93d fccd 5e3d dabf abba
00000040: f9a1 423c 2bb0 fbbd 99c9 ddbc 92b7 923c
00000050: 00cd e4bc 86fb cc3b 6f06 9abb aba1 d6bc
00000060: 3885 813d c619 5b3d 59cc 023d 43d7 8d3d
00000070: 09d9 163d 34e3 67bd 032f 9e3d e6b4 47be
00000080: 786e b9b9 5a10 d6bc bbb5 8d3a 2b3b 58bd
00000090: 2a72 a83b d806 8ebb c56f 253c 93d8 8e3b
000000a0: 5a08 7bbc b665 f93c dc7b 0e3d e47a 7dbb
000000b0: d8f0 87bc a20b 32bd 8dde 5cbc 89ec e3ba
000000c0: de08 23bc 3b93 253b 6ffc 4b3c 99c5 9ebb
000000d0: 18b8 4c3a 8053 50bc cd6d 433b 12b6 283c
000000e0: 9e97 babc e659 563b ec7d a6bc 1f98 f6bb
000000f0: 9aa2 d5bb faef 493c 273d 333c e762 36b9
00000100: 9446 90bb 1848 253d c37d 51bc cb85 7e3b
00000110: 93db 9bbd b095 4a3b 7592 3dbc 9b84 65bd
00000120: 141f d1bc 2189 a93c 8e6e 2f3b 6e00 b5bc
00000130: 4466 28b9 bfc8 11bb cff8 423c d653 59bc
00000140: 0313 11bd 26b8 cebc a234 e53b ca79 78bd
00000150: b859 a43c b30a 86bc 70e0 ab3c 214d adbc
00000160: 5a2a 0cbc 819b 673c 2580 303d 4079 ddba
00000170: 31ec 49bc a32d 133c c2e1 bebc d036 b43c
00000180: 5f62 e3b9 2e58 49bd 9eb9 b9bb d1ca 513c
00000190: ff5c a3bc 8cbf 813c a5c9 103c 137d 0fbe
000001a0: d707 2cbb 5311 8fbc 556f 2d3c 3113 ac3c
000001b0: 8ec8 e7bc 75da 3e3d 03ef 84bc 1e79 303c
000001c0: 4c32 0e3c 5b12 fabc b97d bebc 18a2 973c
000001d0: f83d 873c 97b2 c73c 2539 003c 1ded 23bd
000001e0: c6a8 abbb efeb 3ebd 7cc8 303d d534 2abc
000001f0: 579b 73bc 93ce 873c 35d0 d63c 5141 0f3d
00000200: 192e 04bd 92e5 5fbc ac4c 45bc 3f42 81bc
00000210: b1e9 25bc a47c 903b cfba a9bc 490c d6bc
00000220: 2105 283c 6212 c43c d284 303e f6c4 163c
00000230: cb8d 03bc f155 72bd f014 9a3c e186 443d
00000240: f6eb e0bc a75a dbbc 644c 063d f21f a3bd
00000250: 4b5d b73d bbb0 0a3d 5d38 50bc 30e9 c33c
00000260: 2796 b63d 49c8 fcbd 4c74 8e3c 4f8d 083b
00000270: 71eb ab3c 0272 c23c 0818 fb3c b79b cc3c
00000280: 2521 b13d a4e3 bf3c 9e95 f23c 1e32 f0bc
00000290: 29fa fcbc c9f6 633c c00b b13c 7e7f 9e3c
000002a0: d502 123d 0de9 a13c b916 d93c 83da ca3a
000002b0: 8fc6 293b 9da2 0abe b921 30bb 9a95 ca3b
000002c0: 67e3 10bc 748e d63c 7684 3a3c 786c 3b39
000002d0: 06ed 893b 5465 b83c 4b2b db3b 3853 153c
000002e0: 2e66 fd3b e340 76bc 9f2a 523c 52f4 43bc
000002f0: 8bdc cbbb 5f97 ac3b d880 bb3c c84d aabc
00000300: abfe e3bb aa9a b63c a347 9d3c 4728 a3bc
00000310: 4e47 3eba 4d0d 103c 8a5d 363d 1b32 eebb
00000320: 488a bcbc 956e 903c 5805 98bb 9590 cdbc
00000330: b990 5f3c 50e2 483c 1699 9f3c c685 fe3b
00000340: c1c2 4abd e6ba efbb 348f 2fbd a9ae 66bc
00000350: 23b8 dcbc 4fa8 7f3c 2ae2 5a3b e2f9 af3b
00000360: 2a83 4ab9 dd57 043c b1a5 7fbc e410 9c3c
00000370: 3a1f c63b aad9 973b bf6b 123d 2c15 edbb
00000380: e65d d3ba d9c2 a33c 8594 6f3c ad79 c1bb
00000390: f2a9 90bc 550a 8cbc ab87 27bd 6882 da3b
000003a0: b872 05bc 10c9 70bc 2120 873c 12f8 c7bb
000003b0: cb32 82bc 94df a8bc 526a a43c ad87 d43c
000003c0: f9d6 243b d4f6 53bb 186f 983b a067 cbbd
000003d0: 1918 9e3c b60b 95bc 4eef 91bc 98ce ac3c
000003e0: 1147 a93c 3d84 63bc ad9c c73b e9d4 afbb
000003f0: dffd 10bd 52d8 b03b f52f 6c39 19b1 febc

cvae_parameters.dec_01_lin_b f4 [128]
-0.0230536 0.05176763 -0.06466532 -0.016464906 0.07379914 -0.18219864 -0.0036727209 0.019514184
-0.0018759774 0.031339996 0.054116186 -0.004952986 -0.10854453 -0.006543585 -0.09631425 -0.12730113
0.05292776 0.1852677 0.2408101 -0.009213504 0.10222179 -0.060888126 0.094212435 -0.015932733
-0.0028410815 -0.12615909 0.022170736 -0.09569674 -0.2180526 0.09276944 -0.011179608 -0.0029494932
-0.0031570606 -0.0015317022 0.13483346 -0.11989975 0.03595838 -0.0017876443 -0.002448466 -0.0033296181
-0.0012763514 -0.0073469505 0.055803813 -0.0022154301 -0.0009533468 -0.0038512782 -0.0074187764 -0.11198504
-0.051265027 0.05123536 -0.0316139 -0.0046651526 -0.03204723 -0.017636135 -0.07773855 0.0016394614
-0.11657253 -0.2533688 -0.16172865 -0.0023742772 0.02469619 0.021771878 -0.0020798706 0.24117349
0.06748856 -0.0023005875 -0.033993736 -0.010780334 -0.0047144243 -0.0919128 -0.01510113 0.020352913
-0.008513534 -0.10526517 -0.018050382 -0.17964013 -0.12527749 -0.0022976196 -0.17067966 -0.007352652
-0.14572965 -0.06194519 0.0016551607 -0.0018381596 -0.0017989979 -0.015876284 -0.004483487 -0.2245183
0.12180705 0.09257454 -0.14289364 -0.0989689 -0.0012300857 0.030022558 0.17255871 -0.011395971
-0.0023894038 0.07004595 -0.0028158252 -0.13867007 0.03138514 -0.0013257131 0.45820007 -0.004807505
-0.002408063 -0.15963759 0.04180368 0.056968912 -0.013188759 -0.0014168414 0.04742055 -0.0055510807
-0.008609729 -0.057599418 -0.0022198528 -0.016221909 -0.0022167491 0.009181468 -0.08973409 -0.09851899
0.0029157263 -0.005169187 -0.0017523053 -0.0031727087 -0.107520185 -0.01171791 -0.0044455566 0.048164163
00000000: e7da bcbc 4b0a 543d 406f 84bd 69e1 86bc
00000010: 0124 973d 4892 3abe 08b2 70bb 36dc 9f3c
00000020: 5be3 f5ba 5e5e 003d efa8 5d3d a84c a2bb
00000030: 984c debd 926b d6bb 6840 c5bd 3a5b 02be
00000040: c7ca 583d d1b6 3d3e ec96 763e 3df4 16bc
00000050: a859 d13d d465 79bd 73f2 c03d 5d85 82bc
00000060: 7031 3abb d92f 01be 679f b53c a7fc c3bd
00000070: 2e49 5fbe e7fd bd3d ad2a 37bc 494c 41bb
00000080: b0e6 4ebb 66c3 c8ba c811 0a3e 008e f5bd
00000090: 1849 133d 644f eaba 7176 20bb b935 5abb
000000a0: 3f4b a7ba b0be f0bb 8a92 643d c030 11bb
000000b0: 05ea 79ba ba65 7cbb 3519 f3bb 6a58 e5bd
000000c0: 47fb 51bd 2bdc 513d 947d 01bd 23de 98bb
000000d0: f543 03bd a879 90bc 6435 9fbd 32e3 d63a
000000e0: 94bd eebd 8eb9 81be 329c 25be c399 1bbb
000000f0: aa4f ca3c f05a b23c 704e 08bb 2ff6 763e
00000100: 7137 8a3d 74c5 16bb 043d 0bbd ff9f 30bc
00000110: 757b 9abb c73c bcbd bb6a 77bc 27bb a63c
00000120: 5a7c 0bbc 4495 d7bd 65de 93bc 95f3 37be
00000130: be48 00be a993 16bb a6c6 2ebe 84ee f0bb
00000140: 273a 15be 3dba 7dbd faf1 d83a 67ee f0ba
00000150: 5acc ebba fb0e 82bc 37ea 92bb 20e8 65be
00000160: fa75 f93d b897 bd3d b652 12be 35b0 cabd
00000170: d43a a1ba def1 f53c 3bb3 303e 2bb6 3abc
00000180: 8b97 1cbb 4074 8f3d b589 38bb 87ff 0dbe
00000190: b48d 003d 8dc3 adba 3399 ea3e 4688 9dbb
000001a0: 98d0 1dbb 0978 23be 563a 2b3d 3c58 693d
000001b0: aa15 58bc 4fb5 b9ba 0d3c 423d d7e5 b5bb
000001c0: d20f 0dbc 5eed 6bbd f37a 11bb cfe3 84bc
000001d0: e146 11bb de6d 163c 82c6 b7bd 53c4 c9bd
000001e0: c515 3f3b 4962 a9bb 9cad e5ba 38ed 4fbb
000001f0: 8b33 dcbd 7afc 3fbc 08ac 91bb c947 453d

cvae_parameters.dec_01_lin_w f4 [128, 128]
-0.030970225 -0.0099616125 0.015486171 0.004303201 -0.02494204 0.0028375194 0.0057098004 -0.009022405
-0.013313013 -0.033331502 0.0011862046 0.0037702154 0.007011135 -0.024528634 -0.003528378 -0.036422636
-0.017728033 -0.0044263527 0.03243794 0.0127376 -0.010156206 0.0025814592 -0.0107674245 -0.017559063
0.024213627 -0.024393206 0.011915865 -0.010713426 -0.0062160585 -0.002224582 -0.00017263142 0.0027161953
0.0053155483 -0.030463459 -0.000639495 -0.018120186 -0.018037982 -0.018127035 -0.015707074 -0.03233635
-0.01791046 0.0019344733 -0.013007179 -0.037094157 0.007354879 -0.01930795 -0.010840873 -0.007892463
-0.0007248948 -0.019634897 -0.014759464 0.006902718 -0.013665265 0.010220256 -0.010238216 -0.0018126137
-0.0008383485 0.017169602 -0.029174842 -0.0016186922 -0.0023053214 0.0012281671 -0.031337384 -0.015151361
-0.003803198 -0.026220705 -0.038395196 -0.0031987228 -0.014270982 0.011989705 -0.009621154 -0.034867812
-0.016681472 0.009138385 -0.031032577 -0.013009912 -0.0066981455 0.01799435 0.00511443 0.004825233
0.0058094775 -0.025145562 0.025681114 -0.024674878 -0.027422652 -0.0016352363 0.002333268 -0.0014674086
-0.0039716354 -0.0037584102 -0.0077006016 -0.013120325 -2.7495775e-05 -0.0002107559 -0.029916445 -0.01555542
-0.012921978 -0.008075392 -0.0006173928 -0.003516967 -0.0019495545 -0.01727323 -0.0030657132 -0.025491387
-0.0112641 0.005940301 -0.014100129 0.00010255653 0.007798771 -0.033006873 -0.009223677 0.003085082
-0.01623764 0.010672671 -0.004859355 -0.005764661 -0.022821313 -0.002901324 -0.017073689 -0.0033133093
-0.014070282 -0.020687185 -0.015433233 -0.024859263 0.0023459152 -0.02170155 0.002370206 -0.0129571725
-0.02989935 -0.029178329 -0.012737292 -0.043987837 -0.027770923 -0.045273956 -0.025023442 -0.017043605
-0.04101335 -0.043452222 -0.052198783 -0.0070564705 -0.05594083 -0.031151608 -0.04002179 -0.03873322
-0.024162691 -0.05519669 -0.040679976 -0.011943647 -0.03227349 -0.019514617 -0.015456707 -0.04758856
-0.016127063 -0.04516921 -0.0025434638 -0.014086202 -0.022604741 -0.01242773 -0.012181318 -0.024954295
0.0051397956 -0.041744474 -0.06348969 -0.06344921 -0.051295448 0.011293485 -0.032571238 -0.03448814
-0.046317924 -0.044212744 -0.008585744 -0.029693702 -0.03425954 -0.06793003 -0.01606113 -0.032787643
-0.057268575 0.012094985 -0.040194202 -0.016279 -0.010190577 -0.02134571 -0.0137735065 -0.04759551
-0.020944992 -0.00422821 -0.059274 -0.05710438 -0.0018521616 -0.024627132 -0.019885339 -0.008136316
-0.03350574 -0.03640861 -0.07703965 -0.014782739 -0.04784511 -0.02537476 -0.025280919 -0.033377733
-0.036616098 -0.019626725 -0.012065725 -0.037337307 -0.02890689 -0.028767029 -0.0021283152 -0.012459942
-0.011427094 -0.02619977 -0.031406578 -0.0315847 -0.038982555 -0.06088079 -0.0013475757 -0.050366405
0.0015682408 -0.040100746 -0.041611914 -0.02340379 -0.024762105 -0.034992278 -0.038971674 -0.031816684
-0.024794845 -0.011250241 -0.043327767 -0.018392164 -0.028322814 -0.0013950556 -0.01343525 -0.015634691
-0.025797768 -0.0020053093 -0.050395127 -0.014112524 -0.03510004 -0.01231321 0.032405026 -0.0082513755
-0.00961577 0.0030965225 -0.018263768 -0.02006102 -0.012843177 -0.038044374 -0.0546318 -0.014328958
-0.04193454 -0.047214456 -0.042793553 -0.011357571 -0.039760113 0.009502606 -0.022411136 -0.026095865
00000000: 45b5 fdbc 0836 23bc b5b9 7d3c de01 8d3b
00000010: 4053 ccbc adf5 393b 4719 bb3b b6d2 13bc
00000020: d31e 5abc 9d86 08bd 6c7a 9b3a b815 773b
00000030: aabd e53b 46f0 c8bc 5c3c 67bb e72f 15bd
00000040: 613a 91bc f00a 91bb a5dd 043d 5eb1 503c
00000050: 3766 26bc b32d 293b da69 30bc 06d8 8fbc
00000060: a85b c63c 43d4 c7bc c33a 433c 5e87 2fbc
00000070: 14b0 cbbb 4bca 11bb 6504 35b9 3202 323b
00000080: 0d2e ae3b 818e f9bc c8a3 27ba c970 94bc
00000090: 64c4 93bc 267f 94bc 1fac 80bc 1f73 04bd
000000a0: f5b8 92bc 278e fd3a 101c 55bc 0bf0 17bd
000000b0: 3201 f13b b52b 9ebc eb9d 31bc 644f 01bc
000000c0: de06 3eba 5dd9 a0bc aed1 71bc 3230 e23b
000000d0: 47e4 5fbc dc72 273c 31be 27bc 3995 edba
000000e0: 9ec4 5bba 44a7 8c3c 1400 efbc 4c2a d4ba
000000f0: e014 17bb 73fa a03a a15b 00bd 6a3d 78bc
00000100: 133f 79bb cecc d6bc 4844 1dbd aaa1 51bb
00000110: d6d0 69bc 7870 443c 0ba2 1dbc 8dd1 0ebd
00000120: 95a7 88bc 2ab9 153c 0838 febc 8727 55bc
00000130: 1e7c dbbb e368 933c f396 a73b fd1c 9e3b
00000140: 6e5d be3b 11fe cdbc 3361 d23c f822 cabc
00000150: 78a5 e0bc 6d55 d6ba bee9 183b 1056 c0ba
00000160: 7e24 82bb a94f 76bb 5455 fcbb a2f6 56bc
00000170: baa6 e6b7 5bfe 5cb9 5513 f5bc 29dc 7ebc
00000180: b4b6 53bc a64e 04bc 88d8 21ba ea7c 66bb
00000190: 3288 ffba 9780 8dbc 22ea 48bb 50d3 d0bc
000001a0: 0f8d 38bc dba6 c23b 3a04 67bc 9e13 d738
000001b0: d58c ff3b 3732 07bd e81e 17bc 162f 4a3b
000001c0: cd04 85bc 6ddc 2e3c 393b 9fbb 7be5 bcbb
000001d0: c3f3 babc 2424 3ebb 1fde 8bbc 1b24 59bb
000001e0: 0a87 66bc 2c78 a9bc acdb 7cbc a7a5 cbbc
000001f0: edbd 193b 73c7 b1bc 7555 1b3b 524a 54bc
00000200: 7bef f4bc 6407 efbc 13b0 50bc 972c 34bd
00000210: d97f e3bc 2f71 39bd f6fd ccbc 089f 8bbc
00000220: 9dfd 27bd f5fa 31bd 64ce 55bd f739 e7bb
00000230: 3622 65bd a831 ffbc e3ed 23bd baa6 1ebd
00000240: d6f0 c5bc ed15 62bd 0ca0 26bd 49af 43bc
00000250: 3531 04bd 1edd 9fbc 213e 7dbc 39ec 42bd
00000260: e71c 84bc 5903 39bd 3eb0 26bb d0c9 66bc
00000270: 942d b9bc ad9d 4bbc 2794 47bc f36c ccbc
00000280: bb6b a83b 41fc 2abd e206 82bd a9f1 81bd
00000290: 2d1b 52bd 4f08 393c 6b69 05bd 7043 0dbd
000002a0: ddb7 3dbd 6c18 35bd 38ab 0cbc 3540 f3bc
000002b0: bb53 0cbd e61e 8bbd a292 83bc 564c 06bd
000002c0: 7492 6abd 0b2a 463c ada2 24bd 8a5b 85bc
000002d0: 61f6 26bc 33dd aebc 46aa 61bc 82f3 42bd
000002e0: d594 abbc cc8c 8abb 4bc9 72bd 48e6 69bd
000002f0: 3bc4 f2ba d7be c9bc 94e6 a2bc 2f4e 05bc
00000300: 513d 09bd 3221 15bd f7c6 9dbd 4d33 72bc
00000310: 3cf9 43bd bbde cfbc ee19 cfbc 17b7 08bd
00000320: c3fa 15bd 3ac8 a0bc 52af 45bc 01ef 18bd
00000330: 24ce ecbc d5a8 ebbc 347b 0bbb c924 4cbc
00000340: b538 3bbc e6a0 d6bc 2fa4 00bd f55e 01bd
00000350: 2cac 1fbd 235e 79bd 23a1 b0ba 014d 4ebd
00000360: 6e8d cd3a ae40 24bd 4171 2abd 4eb9 bfbc
00000370: e6d9 cabc 1054 0fbd c3a0 1fbd 3652 02bd
00000380: 8f1e cbbc ee52 38bc 7578 31bd 2aab 96bc
00000390: 3f05 e8bc 4cda b6ba 861f 5cbc 5314 80bc
000003a0: d755 d3bc 826b 03bb 1f6b 4ebd 3738 67bc
000003b0: 0fc5 0fbd 59bd 49bc 22bb 043d c730 07bc
000003c0: 768b 1dbc 07ef 4a3b e69d 95bc 0257 a4bc
000003d0: 306c 52bc 6bd4 1bbd 98c5 5fbd 01c4 6abc
000003e0: 8dc3 2bbd f263 41bd 4b48 2fbd 1b15 3abc
000003f0: 80db 22bd d1b0 1b3c 8f97 b7bc ffc6 d5bc

cvae_parameters.enc_00_lin_b f4 [128]
-0.32899833 -0.2410752 -0.3155911 -0.2321292 -0.30563655 -0.25503075 -0.19658425 -0.21875669
-0.26235127 -0.30202657 -0.27508184 -0.1943771 -0.26547056 -0.181864 -0.21964508 -0.17598964
-0.27194628 -0.26560366 -0.28220993 0.03250141 -0.19368511 -0.07572647 -0.2564048 -0.18160306
-0.34896368 -0.17940019 -0.26017866 -0.2865219 -0.19936158 -0.23018084 -0.2016304 -0.25585514
-0.25024337 -0.103206515 -0.24934278 -0.21181977 -0.31900224 -0.32793796 -0.32251373 -0.32558414
-0.1543588 -0.20667401 -0.19809996 -0.30425605 -0.3074157 -0.3113589 -0.16170412 -0.2067535
-0.26084608 -0.24998619 -0.27618942 -0.119990446 -0.23685206 -0.2597983 -0.14554518 -0.22047755
-0.26455662 -0.3013469 -0.3155289 -0.28692654 -0.2474155 -0.2214026 -0.12064159 -0.2653797
-0.31239468 -0.04084093 -0.14372249 -0.27102283 -0.33412042 -0.21109413 -0.29159898 -0.29340675
-0.24834862 -0.1469497 -0.31256166 -0.26958188 -0.3176411 -0.28874847 -0.2328522 -0.24860957
-0.27851364 -0.17643802 -0.16904843 -0.2562642 -0.2557131 -0.22718492 -0.23179585 -0.2113711
-0.2601564 -0.19548254 -0.22531131 -0.22155768 -0.27153283 -0.22746684 -0.2819421 -0.25172785
-0.1664803 -0.28985327 -0.25638995 -0.21516982 -0.15426202 -0.25401795 -0.29364148 0.097582825
-0.18424562 -0.20119387 -0.26848808 -0.11921874 -0.30276334 -0.32496345 -0.29235426 -0.2659324
-0.27989972 -0.29896405 -0.26452124 -0.04682456 -0.21930167 -0.25381836 -0.27800766 -0.10499793
-0.27550036 -0.15593174 -0.25443152 -0.21498069 -0.2605497 -0.18893053 -0.24693906 -0.1300446
00000000: 7872 a8be 6bdc 76be 2895 a1be 47b3 6dbe
00000010: 657c 9cbe 6493 82be 624d 49be c101 60be
00000020: e852 86be 3aa3 9abe 87d7 8cbe ca0a 47be
00000030: c2eb 87be 8e3a 3abe a4ea 60be a136 34be
00000040: 8b3c 8bbe 34fd 87be d27d 90be 3320 053d
00000050: 6455 46be 7b16 9bbd 7d47 83be 27f6 39be
00000060: 5eab b2be afb4 37be 2336 85be 00b3 92be
00000070: 7125 4cbe 87b4 6bbe 3378 4ebe 72ff 82be
00000080: e61f 80be f05d d3bd b753 7fbe 48e7 58be
00000090: 4354 a3be 7ce7 a7be 8520 a5be f7b2 a6be
000000a0: 3c10 1ebe 5aa2 53be b7da 4abe 73c7 9bbe
000000b0: 9765 9dbe 6f6a 9fbe c495 25be 31b7 53be
000000c0: 9e8d 85be 61fc 7fbe b368 8dbe 8dbd f5bd
000000d0: 5989 72be 4804 85be cc09 15be dec4 61be
000000e0: f773 87be 244a 9abe 018d a1be 09e8 92be
000000f0: 7d5a 7dbe 5db7 62be f012 f7bd d9df 87be
00000100: 32f2 9fbe d248 27bd fd2b 13be 81c3 8abe
00000110: d511 abbe 0f29 58be 764c 95be 6939 96be
00000120: 1a4f 7ebe fb79 16be 1508 a0be a306 8abe
00000130: dba1 a2be d7d6 93be cf70 6ebe 8293 7ebe
00000140: 5799 8ebe 2bac 34be 081b 2dbe 1035 83be
00000150: d4ec 82be 2aa3 68be e45b 6dbe aa71 58be
00000160: 3833 85be 932c 48be 02b8 66be 04e0 62be
00000170: 5a06 8bbe 11ed 68be b75a 90be 79e2 80be
00000180: d079 2abe a667 94be 8b45 83be 7a55 5cbe
00000190: ddf6 1dbe a40e 82be 2d58 96be 81d9 c73d
000001a0: e2aa 3cbe c405 4ebe 4577 89be f428 f4bd
000001b0: cc03 9bbe 9c61 a6be 75af 95be 4b28 88be
000001c0: 044f 8fbe d111 99be 546f 87be 1ccb 3fbd
000001d0: 9e90 60be 7bf4 81be 0557 8ebe 2809 d7bd
000001e0: 620e 8dbe 92ac 1fbe d944 82be e623 5cbe
000001f0: c566 85be 0177 41be 98dd 7cbe 692a 05be

cvae_parameters.enc_00_lin_w f4 [128, 163]
0.04214039 0.014202532 0.053715028 0.028303968 0.06403017 -0.07108643 0.0127949985 0.03398941
-0.005002375 -0.03952345 -0.009013105 -0.07462136 -0.050092448 0.056678314 -0.040228218 0.04261113
0.0013691336 -0.07702319 0.042431623 -0.04501443 0.008489339 -0.005156366 -0.06445027 -0.0731371
0.004428048 -0.047788143 -0.053885195 -0.0041382276 -0.033237614 -0.046265077 -0.019493002 -0.05578634
0.04546395 -0.0036712785 -0.0872402 0.022615962 -0.0040307334 0.019945994 -0.02329978 0.016081294
0.071821414 -0.050758168 0.035084967 0.04125589 0.017094411 0.04475526 0.031492397 -0.0124360975
0.048898194 -0.053802814 0.023350988 0.03390855 0.0039848024 -0.004141238 0.03607792 -0.0352319
-0.07274249 0.068193704 -0.022647955 0.017523129 0.015485452 -0.083977796 0.05062924 -0.0117119495
-0.015298532 0.020054568 -0.0049513364 -0.006091797 0.054963406 -0.022686774 -0.008595611 0.037521385
-0.016819663 -0.07748083 -0.030979626 0.022984525 -0.053734314 0.043081388 0.023200454 0.010188265
0.05546319 -0.030716637 0.023459591 -0.06156584 0.064439856 0.009676694 -0.014539672 0.0718197
-0.012468881 0.042890094 -0.000577637 -0.050046332 0.01467371 -0.0007862932 0.021204114 0.0066732783
-0.0031113194 0.037906233 0.02368488 -0.013948118 -0.010546309 -0.013678008 0.06465773 -0.05042201
-0.075106904 0.0579434 -0.031078666 0.03690886 0.011718051 -0.032777663 0.006202751 -0.027492408
-0.071614414 0.060079142 -0.007965041 0.080213115 -0.014896229 0.0683242 -0.028967865 -0.021282207
-0.079518795 -0.05192908 0.025851717 0.01620043 0.01878423 0.07104363 0.059321713 0.009056729
-0.017793663 -0.037906844 -0.041448172 -0.031194411 0.0053788493 0.04260291 -0.026563518 0.039128
0.031350914 0.012199576 -0.015253298 -0.020776 -0.03572851 0.050355162 -0.012761231 0.0456367
0.046146765 0.03958143 -0.006191973 0.059176125 -0.009364093 -0.039545882 8.086337e-05 0.011728394
0.057261474 0.013034621 0.04072416 0.0264193 0.048070975 -0.072847106 0.02547899 0.06034428
0.009671456 -0.33890775 0.0030160542 0.008021821 0.04381213 0.012222624 0.06752956 0.025613042
-0.007031494 0.008509002 0.014099577 0.016941827 0.01955297 0.025102053 -0.021821594 0.022004778
0.019460157 0.02759528 -0.020876162 0.010431432 -0.009390952 0.07037416 -0.063586965 0.024618758
-0.004881412 0.050834488 -0.022442898 -0.029522788 -0.044896103 -0.021012003 -0.03156009 -0.020191161
-0.008741146 0.025755526 -0.010126999 -0.014934108 0.0027148838 -0.032424014 -0.025353221 0.010424605
0.010065251 -0.017748263 0.03187066 0.0006210905 0.027182491 0.022856304 -0.013685548 -0.023277743
0.0432388 -0.032273546 0.028355421 -0.01870298 0.008390167 0.05083864 0.023039449 -0.0076542725
-0.003683185 0.034070656 0.0065354016 0.061189197 -0.041346114 0.00018825589 -0.0014362927 -0.0021214867
-0.020993084 0.04631917 0.026238652 0.060216907 -0.010289189 -0.008334638 -0.042712487 -0.0055776644
0.017740581 -0.011030596 0.04173488 -0.036189217 -0.01664076 0.0013410542 -0.0074482625 -0.058850814
-0.017440176 -0.067914605 -0.028482603 -0.035059407 -0.0096948445 0.00039996378 -0.030437384 0.016353294
0.037692316 -0.0015646633 0.0078591425 -0.006678513 -0.027994785 -0.02203991 -0.0045742714 0.04729465
00000000: 679b 2c3d bdb1 683c 4a04 5c3d b9dd e73c
00000010: 4022 833d c395 91bd 1da2 513c 7b38 0b3d
00000020: f7ea a3bb 57e3 21bd b4ab 13bc 15d3 98bd
00000030: bd2d 4dbd 8527 683d 58c6 24bd 0289 2e3d
00000040: 8074 b33a 56be 9dbd c8cc 2d3d 0d61 38bd
00000050: de16 0b3c bcf6 a8bb 81fe 83bd e7c8 95bd
00000060: 2919 913b 80bd 43bd b9b6 5cbd f899 87bb
00000070: 2a24 08bd 7380 3dbd caaf 9fbc 3880 64bd
00000080: 6838 3a3d d599 70bb fdaa b2bd 1c45 b93c
00000090: 3e14 84bb c865 a33c 2edf bebc ebbc 833c
000000a0: 1b17 933d cce7 4fbd 41b5 0f3d f0fb 283d
000000b0: 9409 8c3c 4b51 373d 2cfe 003d c6c0 4bbc
000000c0: 7949 483d 5760 5cbd 924a bf3c b1e3 0a3d
000000d0: f292 823b 39b3 87bb 71c6 133d 534f 10bd
000000e0: 04fa 94bd 24a9 8b3d 3488 b9bc aa8c 8f3c
000000f0: b1b6 7d3c 8dfc abbd 9b60 4f3d 7ae3 3fbc
00000100: b2a6 7abc 7a49 a43c d23e a2bb b29d c7bb
00000110: 4f21 613d 9dd9 b9bc 9bd4 0cbc 06b0 193d
00000120: 64c9 89bc 45ae 9ebd fcc8 fdbc 0b4a bc3c
00000130: 8318 5cbd 1c76 303d e10e be3c aeec 263c
00000140: 5f2d 633d 75a1 fbbc 542e c03c 762c 7cbd
00000150: 0bf9 833d ff8a 1e3c ce37 6ebc 3516 933d
00000160: 474a 4cbc 86ad 2f3d 906c 17ba 62fd 4cbd
00000170: 006a 703c 3e1f 4eba 40b4 ad3c 84ab da3b
00000180: 47e7 4bbb 9143 1b3d cb06 c23c a686 64bc
00000190: 6dca 2cbc b919 60bc 466b 843d 4f87 4ebd
000001a0: a6d1 99bd 0f56 6d3d b098 febc bf2d 173d
000001b0: 11fd 3f3c df41 06bd 7240 cb3b c237 e1bc
000001c0: 94aa 92bd 8c15 763d ce7f 02bc c646 a43d
000001d0: 500f 74bc 8fed 8b3d 044e edbc 0658 aebc
000001e0: c0da a2bd 96b3 54bd fbc6 d33c c4b6 843c
000001f0: 63e1 993c 537f 913d 53fb 723d ad62 143c
00000200: 04c4 91bc 3544 1bbd 8fc5 29bd 6c8b ffbc
00000210: 0f41 b03b 6480 2e3d bc9b d9bc af44 203d
00000220: d169 003d bbe0 473c f8e8 79bc 6e32 aabc
00000230: 0f58 12bd 3741 4e3d 7b14 51bc 8ced 3a3d
00000240: 6404 3d3d 2320 223d 09e6 cabb aa62 723d
00000250: da6b 19bc ddfa 21bd 3195 a938 7328 403c
00000260: 028b 6a3d 2a8f 553c 60ce 263d 4a6d d83c
00000270: 12e6 443d dd30 95bd 51b9 d03c 902b 773d
00000280: 0775 1e3c 5185 adbe fea8 453b f56d 033c
00000290: 5974 333d 6741 483c f04c 8a3d 71d2 d13c
000002a0: 7268 e6bb 5769 0b3c ea01 673c 96c9 8a3c
000002b0: 8d2d a03c d2a2 cd3c 33c3 b2bc 5d43 b43c
000002c0: e86a 9f3c 7f0f e23c 7c04 abbc 99e8 2a3c
000002d0: 82dc 19bc 5420 903d e239 82bd 47ad c93c
000002e0: 40f4 9fbb d337 503d 2bda b7bc c6d9 f1bc
000002f0: fae4 37bd 5d21 acbc 2745 01bd ef67 a5bc
00000300: 0637 0fbc 41fd d23c b6eb 25bc 30ae 74bc
00000310: 31ec 313b 0bcf 04bd 8fb1 cfbc f6cb 2a3c
00000320: b9e8 243c ce64 91bc cf8a 023d aed0 223a
00000330: d1ad de3c 253d bb3c 5939 60bc f7b0 bebc
00000340: 2b1b 313d 4431 04bd a149 e83c fe36 99bc
00000350: e976 093c 2e3c 503d 3abd bc3c b1d0 fabb
00000360: 9761 71bb ac8d 0b3d ec26 d63b 86a1 7a3d
00000370: 8b5a 29bd 8e66 4539 fc41 bcba a408 0bbb
00000380: b0f9 abbc 2cb9 3d3d 71f2 d63c 01a6 763d
00000390: fd93 28bc 018e 08bc 4af3 2ebd d7c4 b6bb
000003a0: b254 913c acb9 34bc 32f2 2a3d 253b 14bd
000003b0: 3452 88bc 50c6 af3a 8e10 f4bb 8d0d 71bd
000003c0: b3de 8ebc d016 8bbd 5954 e9bc 749a 0fbd
000003d0: 20d7 1ebc 3bb2 d139 d257 f9bc 58f7 853c
000003e0: 4263 1a3d 6315 cdba a2c3 003c 6dd7 dabb
000003f0: 5255 e5bc 0b8d b4bc c5e3 95bb 09b8 413d

cvae_parameters.enc_01_lin_b f4 [128]
-0.0041910713 -0.004731272 -0.01644781 -0.005660471 -0.02346186 -0.0042755543 -4.811753e-06 -0.004130284
-0.025565973 -0.0049287938 -0.025239095 0.06200435 -0.02297 -0.06086038 -0.020974498 -0.0059785084
-0.005443099 -0.0043768967 -0.003660414 0.046147067 0.058830664 -0.056820657 -0.005249839 0.076056674
0.069920205 -0.0049287644 -0.03900484 0.13922037 -0.05082149 -0.009080982 0.13752113 -0.0038963836
0.07819003 -0.0049004713 -0.04998107 -0.009897452 -0.0072487793 -0.004705118 0.024412427 -0.007214761
-0.005535881 -0.019231673 -0.006643526 -0.0040591336 -0.009638584 -0.0030830025 0.1192832 0.06287207
-0.00782532 -0.04416912 0.03682387 0.12713915 -0.0212377 -0.0102286935 -0.02624609 -0.006107521
0.17586721 -0.022738202 -0.038156167 -0.0026044697 -0.028454961 0.15424408 -0.030966379 -0.015355894
0.04802761 -0.0043988344 0.14335196 -0.040180832 -0.06517061 -0.0056209937 0.13579406 -0.006820306
0.10360756 -0.0053027486 0.04850945 -0.0065757395 -0.0104089435 0.1067411 -0.03430204 0.09348794
-0.005321223 -0.0029506888 -0.039549354 -0.004219289 -0.0065276665 -0.0071809134 -0.005130314 -0.0022571392
-0.0036913685 -0.004909672 0.12216253 -0.033083137 0.02784915 0.11212465 -0.025461897 -0.0021630656
0.056576267 -0.0065013063 0.1220751 0.15042715 -0.0048081046 -0.0051497505 0.022495788 -0.003623394
0.09765231 -0.007404329 -0.014891987 -0.0043779123 -0.0035435064 -0.006335295 -0.0062724263 -0.02171044
-0.0063611087 0.12033253 -0.003968465 -0.003946571 -0.02645413 0.12062823 0.009142013 -0.008675225
0.06678181 -0.0053817634 -0.0059594815 0.1102397 -0.004195352 -0.0710618 -0.038286634 -0.003434272
00000000: 4155 89bb c908 9bbb 8fbd 86bc 797b b9bb
00000010: 1633 c0bc f319 8cbb a574 a1b6 5557 87bb
00000020: bb6f d1bc b881 a1bb 38c2 cebc 46f8 7d3d
00000030: 952b bcbc bc48 79bd b6d2 abbc 5de7 c3bb
00000040: 065c b2bb 126c 8fbb 8ee3 6fbb b504 3d3d
00000050: 6cf8 703d c7bc 68bd d706 acbb 9ac3 9b3d
00000060: 5332 8f3d 7981 a1bb 8ac3 1fbd c98f 0e3e
00000070: 322a 50bd 66c8 14bc 57d2 0c3e 785a 7fbb
00000080: 1822 a03d 2294 a0bb f3b8 4cbd ec28 22bc
00000090: 2b87 edbb 642d 9abb 92fc c73c cd69 ecbb
000000a0: 5666 b5bb be8b 9dbc efb1 d9bb 7b02 85bb
000000b0: 27eb 1dbc 330c 4abb c04a f43d 12c3 803d
000000c0: c535 00bc aeea 34bd a0d4 163d c430 023e
000000d0: affa adbc 4096 27bc 0a02 d7bc 9921 c8bb
000000e0: 8916 343e 7745 babc a449 1cbd c0af 2abb
000000f0: 611a e9bc 29f2 1d3e 34ad fdbc 4a97 7bbc
00000100: 99b8 443d 1924 90bb dbca 123e a894 24bd
00000110: 2b78 85bd 5030 b8bb 990d 0b3e e07c dfbb
00000120: 3330 d43d aec2 adbb d8b1 463d 4d79 d7bb
00000130: 468a 2abc 149b da3d 4c80 0cbd 9b76 bf3d
00000140: a75d aebb 5860 41bb 81fe 21bd f641 8abb
00000150: 09e6 d5bb de4d ebbb 311c a8bb 83ec 13bb
00000160: e3ea 71bb 50e1 a0bb 5930 fa3d 2f82 07bd
00000170: e723 e43c 9ca1 e53d 7895 d0bc 38c2 0dbb
00000180: 84bc 673d e908 d5bb 8302 fa3d 9309 1a3e
00000190: 4e8d 9dbb 3dbf a8bb 1649 b83c 7776 6dbb
000001a0: effd c73d 03a0 f2bb 85fd 73bc 9774 8fbb
000001b0: 2c3a 68bb 4e98 cfbb ed88 cdbb 18da b1bc
000001c0: d970 d0bb e770 f63d e609 82bb 3d52 81bb
000001d0: 55b6 d8bc ef0b f73d 62c8 153c 8822 0ebc
000001e0: e7c4 883d 8159 b0bb c147 c3bb 5ac5 e13d
000001f0: 2a79 89bb d988 91bd 72d2 1cbd 8611 61bb

cvae_parameters.enc_01_lin_w f4 [128, 128]
0.006510925 0.0017917786 0.010929596 -0.025307236 -0.008472494 0.02406856 -0.0068971477 -0.014665557
0.028234899 -0.020015862 0.009081151 -0.044717085 -0.040992334 -0.05723797 0.0003691825 -0.10594449
0.016620375 0.00050115533 0.0073497253 -0.108242095 -0.06168878 -0.05770065 -0.003170011 -0.021536332
0.027378904 -0.02657748 -0.040305268 0.009361952 -0.023180958 -0.012198226 -0.009755559 0.0070419717
0.0011533737 -0.042127255 -0.009560296 0.051543992 -0.015489092 0.009618591 0.018720012 0.011685535
-0.06018621 0.010119234 -0.0057319007 -0.0065776506 -7.081287e-05 -0.03375849 -0.028080815 -0.011205041
0.0063052913 -0.07076403 -0.011655781 -0.039236695 -0.037287127 -0.020531971 -0.039585512 -0.0038488053
0.0020203632 0.023234408 0.014620656 0.011919213 0.038609352 -0.012228985 -0.06519659 -0.007855183
0.004965937 -0.12849367 -0.0034033966 -0.05463214 0.043805353 0.018041154 -0.03219179 -0.0030321681
-0.0745558 -0.007644963 0.0042690905 -0.01652419 -0.007978736 0.0022830225 -0.015179955 -0.016237762
0.02241785 -0.0071323738 -0.026565056 -0.049656484 -0.015555218 -0.055365123 -0.072921395 -0.0655885
-0.017245699 0.0024074237 0.031207187 -0.015440995 -0.023732044 -0.029587185 -0.017110787 -0.02185272
-0.0019479931 0.010401737 -0.03699523 -0.015713586 0.001270219 0.0072032236 -0.01413715 -0.066444024
-0.033653095 0.0029287052 -0.00747912 -0.08127091 0.02134119 0.02060096 0.008303995 0.0011528126
-0.028011205 -0.030301018 0.008418633 -0.071050696 0.015290203 0.013065004 -0.036109265 -0.031815954
0.011922124 -0.046296615 0.009278781 0.022834413 -0.009039733 -0.04903949 0.036172815 -0.030861769
0.015364098 -0.027917415 -0.025468504 0.0022967397 0.023931487 0.050491124 -0.050219797 -0.069773294
-0.046658717 -0.022715334 0.0042783516 -0.08646637 0.01356849 -0.060226656 0.014518029 -0.05428347
0.0040821237 0.03784641 -0.056241363 -0.0415333 0.007791908 -0.08960513 -0.013151869 0.026631955
0.001663973 -0.0040113614 -0.0474172 0.016913481 -0.040956162 -0.03074124 -0.09311702 -0.0041841995
-0.034380537 -0.098970786 -0.0058258073 0.022332486 -0.07992673 -0.0033421365 0.008346374 -0.018871984
-0.043311052 -0.037121538 -0.011393791 -0.035667542 0.024093213 0.01601296 -0.03568119 -0.0061061713
-0.03868032 -0.06949126 -0.019661358 -0.040346775 -0.036154415 0.016571783 0.00808605 -0.006337808
-0.034570128 -0.005139374 -0.0032641995 -0.04046282 -9.951465e-05 -0.02649241 -0.1278285 -0.0061786952
0.005357952 -0.077327356 -0.021526612 -0.018815769 -0.027246429 0.018153448 -0.0063500195 -0.028654026
-0.004442415 0.0144327665 -0.016969774 -0.020021422 -0.010841303 0.0036314605 0.013523279 -0.029471919
-0.0685868 0.00076527445 -0.056661043 -0.0751218 -0.09426518 -0.09112805 -0.058312718 -0.08871344
-0.010420303 -0.035146475 -0.019609496 -0.09459827 -0.0071210507 -0.06768917 0.017167818 0.0006657849
-0.07735176 -0.013492491 0.032333273 -0.031381465 -0.0019410473 -0.04687134 0.006944326 -0.11003773
-0.026733031 0.020696707 -0.04371159 -0.04809858 0.0037910293 -0.023430053 -0.023314726 -0.031080784
-0.05379586 -0.009292428 -0.032306816 -0.0809851 0.03289461 -0.0014175359 -0.011450272 -0.06915617
0.032914676 0.030498799 -0.05112324 -0.05769164 -0.014104156 0.004402421 -0.06824282 -0.08571956
00000000: 9959 d53b 1dda ea3a 0c12 333c 1f51 cfbc
00000010: 37d0 0abc 6e2b c53c 7801 e2bb ce47 70bc
00000020: e04c e73c 4ef8 a3bc 1cc9 143c 4329 37bd
00000030: 94e7 27bd 5d72 6abd d68e c139 6df9 d8bd
00000040: 7427 883c f75f 033a f7d5 f03b 08ae ddbd
00000050: 60ad 7cbd 8457 6cbd f6bf 4fbb f66c b0bc
00000060: b949 e03c 04b9 d9bc 2317 25bd df62 193c
00000070: fee5 bdbc 11db 47bc c8d5 1fbc 57c0 e63b
00000080: cd2c 973a a18d 2cbd caa2 1cbc cb1f 533d
00000090: f6c5 7dbc 4b97 1d3c b65a 993c b074 3f3c
000000a0: d185 76bd 25cb 253c abd2 bbbb 5589 d7bb
000000b0: 5f81 94b8 5846 0abd bd09 e6bc 5995 37bc
000000c0: 9e9c ce3b bbec 90bd e4f7 3ebc a8b6 20bd
000000d0: 63ba 18bd aa32 a8bc 6b24 22bd 3d3c 7cbb
000000e0: 1268 043b 1656 be3c 7a8b 6f3c ce48 433c
000000f0: d724 1e3d 155c 48bc ca85 85bd 07b3 00bc
00000100: 4db9 a23b d893 03be 850b 5fbb f3c5 5fbd
00000110: 3e6d 333d 0bcb 933c 8adb 03bd 57b7 46bb
00000120: b6b0 98bd 9982 fabb bae3 8b3b bd5d 87bc
00000130: 3fb9 02bc c39e 153b 59b5 78bc 0e05 85bc
00000140: a4a5 b73c b0b6 e9bb f69e d9bc 9964 4bbd
00000150: 50db 7ebc 8ac6 62bd d057 95bd 4353 86bd
00000160: da46 8dbc dec5 1d3b 37a6 ff3c 3afc 7cbc
00000170: b469 c2bc d360 f2bc ec2b 8cbc 7a04 b3bc
00000180: cd53 ffba 0c6c 2a3c 4f88 17bd c7b9 80bc
00000190: 7a7d a63a 0509 ec3b 819f 67bc ce13 88bd
000001a0: d4d7 09bd 85ef 3f3b 6813 f5bb 5d71 a6bd
000001b0: b8d3 ae3c 58c3 a83c 7b0d 083c f919 973a
000001c0: c177 e5bc d739 f8bc 4eee 093c 0783 91bd
000001d0: c283 7a3c 990e 563c 4fe7 13bd 7251 02bd
000001e0: 0355 433c 85a1 3dbd 0706 183c 3c0f bb3c
000001f0: 631b 14bc a2dd 48bd f229 143d d2d1 fcbc
00000200: b3b9 7b3c 10b3 e4bc 53a3 d0bc e684 163b
00000210: f70b c43c c8cf 4e3d 46b3 4dbd 4de5 8ebd
00000220: 361d 3fbd 8215 babc 6a31 8c3b 4815 b1bd
00000230: 5f4e 5e3c 3ab0 76bd 07dd 6d3c 5858 5ebd
00000240: 56c3 853b d604 1b3d 585d 66bd d21e 2abd
00000250: 4353 ff3b e582 b7bd f07a 57bc 422b da3c
00000260: ab19 da3a bd71 83bb 8a38 42bd 248e 8a3c
00000270: a6c1 27bd 0ed5 fbbc 23b4 bebd 9c1b 89bb
00000280: 9bd2 0cbd 32b1 cabd 6ae6 bebb 9ef2 b63c
00000290: a0b0 a3bd bf07 5bbb 3bbf 083c 6b99 9abc
000002a0: ee66 31bd c10c 18bd 06ad 3abc 2118 12bd
000002b0: 215f c53c 9c2d 833c 7126 12bd 4716 c8bb
000002c0: 416f 1ebd 6f51 8ebd db10 a1bc a942 25bd
000002d0: a716 14bd 8cc1 873c 5a7b 043c 63ad cfbb
000002e0: 6899 0dbd 3268 a8bb 2eec 55bb 58bc 25bd
000002f0: 85b2 d0b8 9c06 d9bc 79e5 02be a776 cabb
00000300: c291 af3b ce5d 9ebd 9458 b0bc 8723 9abc
00000310: e733 dfbc 8ab6 943c d313 d0bb d9bb eabc
00000320: ae91 91bb 6977 6c3c 3204 8bbc f703 a4bc
00000330: b89f 31bc ccfd 6d3b be90 5d3c 186f f1bc
00000340: 3c77 8cbd b39c 483a 6915 68bd 75d9 99bd
00000350: 1a0e c1bd 58a1 babd 51d9 6ebd 64af b5bd
00000360: ebb9 2abc c0f5 0fbd 18a4 a0bc bdbc c1bd
00000370: b457 e9bb 9fa0 8abd 86a3 8c3c 1188 2e3a
00000380: 996a 9ebd 9c0f 5dbc e56f 043d da89 00bd
00000390: bd6a feba 2afc 3fbd 3b8d e33b 765b e1bd
000003a0: 3bff dabc 248c a93c ed0a 33bd 0403 45bd
000003b0: eb72 783b 62f0 bfbc 86fe bebc 219d febc
000003c0: 0c59 5cbd 453f 18bc 2754 04bd 84db a5bd
000003d0: 80bc 063d 9dcc b9ba ec99 3bbc c0a1 8dbd
000003e0: 8ad1 063d 9ed8 f93c 9a66 51bd 124e 6cbd
000003f0: 1e15 67bc 2f42 903b e4c2 8bbd bd8d afbd

cvae_parameters.out_lin_b f4 [160]
-0.071989335 -0.06234107 0.012711475 -0.00089847326 -0.08176047 -0.015405147 0.0011089977 -0.0180609
0.12627181 -0.014691569 0.054278564 -0.039205503 -0.03815275 0.014957119 -0.023343783 -0.06815517
0.18806332 0.011781697 0.07718862 -0.0755657 0.0072628474 -0.110640414 -0.14002262 -0.0689403
0.025795996 0.114060625 0.04783009 -0.017394157 -0.006950865 -0.3630602 -0.10123498 0.009960777
-0.11483733 0.27126807 -0.086107776 -0.09049023 -0.09598276 -0.219513 -0.040019765 -0.07472823
-0.16593286 0.15622215 -0.059269868 -0.12575322 -0.03483747 -0.038529567 -0.109543435 -0.16390973
-0.14189385 -0.010119645 0.19687293 -0.03858968 0.014530559 0.06430052 -0.1946089 -0.13605411
-0.0981981 0.03731757 0.32988724 0.036748856 0.029777063 0.008364328 -0.09647929 -0.0735022
-0.12984449 0.086521775 0.28325617 0.064500466 -0.1406405 -0.07148195 0.10871901 -0.040760543
-0.14155589 0.14115518 -0.017468125 -0.04494331 -0.19022013 -0.04568274 0.22779047 0.020577177
-0.114857554 0.0031496882 -0.10573059 -0.14442435 -0.07445775 -0.04510499 0.15753153 -0.07310683
-0.10202266 -0.14822295 0.14608285 -0.073134646 0.037545662 0.12383803 -0.12495512 -0.191532
-0.0242286 -0.2795091 0.19933422 0.053412434 -0.040922694 0.25776508 -0.24129291 -0.15432477
0.0028165993 -0.32807148 0.020936238 0.042314164 -0.08362908 0.17122701 -0.07649429 -0.074691735
0.028748484 -0.15528445 -0.13728723 0.01484647 -0.05273698 -0.037721377 0.037612993 0.09994923
-0.02782399 0.10405266 -0.24366814 0.019788211 -0.037557356 -0.106611945 0.16667436 0.11354163
-0.04407736 0.2631445 -0.24313064 -0.088623494 -0.11895687 -0.015572475 0.3325046 -0.051021803
0.010164309 0.2202705 -0.20775416 -0.24533996 -0.13889584 0.03327936 0.28860727 -0.22281203
0.023651669 0.019714858 -0.044632837 -0.12707776 -0.11376215 0.036993224 0.061091032 -0.13532184
-0.07158753 -0.064118415 0.015613976 0.0081762085 -0.08219117 -0.016629783 -0.0042212605 -0.011303752
00000000: 256f 93bd 5a59 7fbd ca43 503c 8587 6bba
00000010: 0972 a7bd df65 7cbc ca5b 913a 74f4 93bc
00000020: 664d 013e e8b4 70bc 3353 5e3d f395 20bd
00000030: 0f46 1cbd b40e 753c 763b bfbc f094 8bbd
00000040: ac93 403e 0508 413c 1115 9e3d 31c2 9abd
00000050: 2efd ed3b 7197 e2bd 1762 0fbe 9230 8dbd
00000060: 2052 d33c 9e98 e93d 7ce9 433d 317e 8ebc
00000070: 15c4 e3bb 07e3 b9be 4954 cfbd 8732 233c
00000080: d62f ebbd a6e3 8a3e 4659 b0bd f152 b9bd
00000090: 9c92 c4bd 04c8 60be c4eb 23bd 1d0b 99bd
000000a0: 4eea 29be b3f8 1f3e f6c4 72bd 74c5 00be
000000b0: bcb1 0ebd 2ed1 1dbd 4f58 e0bd f4d7 27be
000000c0: 9f4c 11be decc 25bc 0f99 493e 3610 1ebd
000000d0: 9511 6e3c feaf 833d 8e47 47be c551 0bbe
000000e0: 161c c9bd 4fda 183d fbe6 a83e f885 163d
000000f0: 07ef f33c 890a 093c ef96 c5bd 5288 96bd
00000100: f4f5 04be 5432 b13d f406 913e d218 843d
00000110: 1004 10be 2165 92bd 13a8 de3d 87f4 26bd
00000120: 07f4 10be fc8a 103e 5019 8fbc 7a16 38bd
00000130: 11c9 42be d31d 3bbd e841 693e 7891 a83c
00000140: 703a ebbd 006b 4e3b 4889 d8bd fae3 13be
00000150: 4e7d 98bd 03c0 38bd f24f 213e 09b9 95bd
00000160: 42f1 d0bd c2c7 17be be96 153e 9ec7 95bd
00000170: 7bc9 193d cb9e fd3d 78e8 ffbd f720 44be
00000180: 0f7b c6bc d11b 8fbe 451e 4c3e ffc6 5a3d
00000190: 8e9e 27bd c9f9 833e 7d15 77be 5007 1ebe
000001a0: b296 383b fcf8 a7be 7982 ab3c 9e51 2d3d
000001b0: b945 abbd 2256 2f3e 0aa9 9cbd fbf7 98bd
000001c0: f181 eb3c e302 1fbe 0695 0cbe 9c3e 733c
000001d0: bb02 58bd bb81 1abd 1510 1a3d 2fb2 cc3d
000001e0: 23ef e3bc 9019 d53d 2484 79be e31a a23c
000001f0: bed5 19bd 5d57 dabd afac 2a3e 8488 e83d
00000200: 768a 34bd e0ba 863e 3df7 78be 3c80 b5bd
00000210: a99f f3bd b223 7fbc 0b3e aa3e 3dfc 50bd
00000220: 3488 263c 978e 613e 82bd 54be 663a 7bbe
00000230: b63a 0ebe f04f 083d 55c4 933e d628 64be
00000240: 25c1 c13c 0e81 a13c ecd0 36bd ac20 02be
00000250: 21fc e8bd 3586 173d 973a 7a3d cf91 0abe
00000260: 7c9c 92bd 8450 83bd c3d1 7f3c 81f5 053c
00000270: d853 a8bd 2f3b 88bc 8052 8abb 5f33 39bc

cvae_parameters.out_lin_w f4 [160, 128]
0.008431391 -0.0028414812 -0.03134527 -0.024151502 -0.010451079 -0.013150555 -0.022569679 -0.01866456
0.00060467864 0.003983935 0.0025457116 -0.013909947 0.02044515 0.013776121 -0.022658985 0.01377511
-0.02898496 0.032494336 -0.030130906 0.008606134 0.0064521073 -0.013149327 -0.029990735 0.0150896
0.0007251272 0.03683442 -0.024245912 0.0043534273 0.017246393 -0.009892385 0.0051306416 -0.021976266
-0.0004271823 0.0023556808 0.054108415 0.016168209 0.016663093 0.005526728 0.0063631544 -0.0103495335
0.0009478713 -0.0029447996 -0.040585972 -0.0014657669 -0.003252439 -0.007919985 0.014249994 0.057371024
0.009263387 -0.00073364296 -0.044495054 -0.0063834004 0.008471075 0.009310094 0.00517188 -0.029609371
0.018097678 -0.040295523 -0.11516879 0.0042748726 0.021078719 -0.09092481 0.0010047596 -0.062591046
0.020900022 0.001824347 0.0063113794 -0.00085465075 0.009102058 0.0409509 0.0048766113 -0.0043358523
-0.00020604326 0.00018778072 -0.004623099 0.0005436566 -0.013810687 0.0071377796 0.08093559 -0.0071339733
-0.039889287 0.009011815 0.006341646 0.021952905 0.007920986 0.012984129 0.004977861 0.026125973
0.025947468 -0.022275135 -0.018322721 0.007373885 0.0078242645 -0.021518646 -0.029157227 0.0046529337
0.00018203458 -0.023451671 -0.0070426683 -0.0805026 -0.024886223 -0.01505684 -0.0059080077 -0.00961166
0.0025737658 0.0092116585 -0.030003695 -0.08962143 0.0010586549 -0.009419263 -0.0061423043 -0.007024995
0.012277745 0.055916812 -0.0028076181 -0.008432181 0.0013104624 -0.04448945 -0.009447512 -0.038470175
-0.002842863 -0.009390975 -0.0036506904 -0.002801054 -0.0030389766 -0.027723255 -0.0046048616 0.0034275034
0.011909864 -0.02554011 0.046503685 0.0034847213 -0.026090458 -0.007059537 0.0053899838 -0.0070145666
0.028248806 0.028006056 -0.032311626 -0.013091684 0.018835286 0.010868708 -0.0013793308 -0.039500434
0.021160273 -0.03691433 -0.03069264 0.012781425 0.0057689655 -0.032430373 0.012686972 0.003615053
-0.0066151787 -0.027716864 -0.05822167 -0.0514231 0.0016766445 -0.0004762012 -0.015897788 -0.00991821
0.0037899546 0.008832821 0.01883306 0.010216925 0.0017011059 0.011775936 -0.014672224 0.0036934586
0.0024459607 -0.0014398922 -0.0140778255 0.011966144 -0.0042092996 0.008503307 0.01640187 -0.005871845
-0.003833931 -0.021879017 0.020860733 -0.0032987155 -0.010310755 0.0013771235 -0.0009515728 -0.051848628
0.015438509 -0.01423396 -0.0051515456 0.027787218 -0.064971596 -0.021608407 -0.0040112883 -0.061833553
0.0014716748 0.030539263 0.0066441325 -0.0045438963 0.010643974 -0.02063898 0.004181007 0.008918105
0.009142946 0.0011878944 -0.012146155 0.005795883 0.005287976 -0.00047656946 -0.0038919484 0.016196765
-0.024719492 -0.0012677226 0.019569023 0.0061037927 0.008329073 -0.012510743 0.0012463226 -0.011582953
-0.032309193 0.030654255 -0.0042715794 -0.028024442 -0.001941582 -0.011104376 -0.0209994 0.02852301
-0.0017166623 -0.05439614 0.005594453 0.022987684 -0.012401712 -0.006135186 -0.07434162 -0.0029126673
0.0034668888 -0.039717857 0.014003898 0.07225462 0.006489966 -0.007025522 -0.0015844844 0.005018785
0.025142714 -0.028213127 0.010091649 -0.012057113 0.005917563 0.034236193 -0.010905575 -0.016397592
0.009675917 0.014686355 0.012897928 0.0051845196 0.009995188 0.0046137767 0.015030412 0.008167719
00000000: d123 0a3c 2538 3abb e663 00bd 5fd9 c5bc
00000010: 013b 2bbc 6d75 57bc 0ce4 b8bc 6be6 98bc
00000020: 4c83 1e3a ab8b 823b f4d5 263b 8ce6 63bc
00000030: 967c a73c 3db5 613c 569f b9bc 00b1 613c
00000040: de71 edbc c818 053d 17d5 f6bc be00 0d3c
00000050: 336c d33b 4670 57bc 21af f5bc 5f3a 773c
00000060: 7616 3e3a b0df 163d 5d9f c6bc 32a7 8e3b
00000070: 4f48 8d3c ac13 22bc f11e a83b 9207 b4bc
00000080: 70f7 dfb9 c461 1a3b c9a0 5d3d 3173 843c
00000090: 0a81 883c 8e19 b53b 0282 d03b 1791 29bc
000000a0: 917a 783a 8afd 40bb 7a3d 26bd fa1e c0ba
000000b0: df26 55bb d3c2 01bc cf78 693c e1fd 6a3d
000000c0: 76c5 173c f251 40ba 7240 36bd d82b d1bb
000000d0: 44ca 0a3c 5d89 183c e078 a93b 5a8f f2bc
000000e0: 9541 943c eb0c 25bd 9ddd ebbd 3b14 8c3b
000000f0: 47ad ac3c c936 babd 23b2 833a bc2f 80bd
00000100: 8636 ab3c ed1e ef3a b0cf ce3b a40a 60ba
00000110: cc20 153c 22bc 273d fbcb 9f3b c413 8ebb
00000120: 510d 58b9 01e7 4439 5e7d 97bb 2d84 0e3a
00000130: 3846 62bc 09e4 e93b 8fc1 a53d 1bc4 e9bb
00000140: f362 23bd 4ba6 133c 95cd cf3b 94d6 b33c
00000150: 06c7 013c 62bb 543c 531d a33b 2306 d63c
00000160: c98f d43c 587a b6bc 8819 96bc a1a0 f13b
00000170: 5831 003c df47 b0bc 23db eebc a377 983b
00000180: 89e0 3e39 b81d c0bc 2fc6 e6bb 8cde a4bd
00000190: 31de cbbc f7b0 76bc f697 c1bb 397a 1dbc
000001a0: a0ac 283b 7fec 163c 4fca f5bc 718b b7bd
000001b0: 90c2 8a3a 4153 1abc 6245 c9bb ee31 e6bb
000001c0: 9828 493c 0709 653d 0400 38bb 2127 0abc
000001d0: d2c3 ab3a 923a 36bd bdc9 1abc e792 1dbd
000001e0: 544f 3abb 9bdc 19bc 6c40 6fbb e391 37bb
000001f0: 9129 47bb e11b e3bc 61e4 96bb f79f 603b
00000200: 9721 433c 7e39 d1bc a67a 3e3d ec5f 643b
00000210: a8bb d5bc b053 e7bb 769e b03b 73da e5bb
00000220: 0a6a e73c f56c e53c 3259 04bd 817e 56bc
00000230: 754c 9a3c aa12 323c a9ca b4ba 35cb 21bd
00000240: 4f58 ad3c 7b33 17bd 226f fbbc 2f69 513c
00000250: 9709 bd3b b6d5 04bd 04dd 4f3c 86ea 6c3b
00000260: 24c4 d8bb 7a0e e3bc d979 6ebd 07a1 52bd
00000270: dbc2 db3a a5aa f9b9 143c 82bc fd7f 22bc
00000280: e360 783b 89b7 103c ca47 9a3c e464 273c
00000290: a4f7 de3a dbef 403c c563 70bc f40d 723b
000002a0: 694c 203b c4ba bcba aea6 66bc a50d 443c
000002b0: 2aee 89bb 7451 0b3c 375d 863c 9b68 c0bb
000002c0: b042 7bbb a03b b3bc 21e4 aa3c 432f 58bb
000002d0: 71ee 28bc 9980 b43a f872 79ba 3a5f 54bd
000002e0: cdf1 7c3c 8e35 69bc 4cce a8bb 05a2 e33c
000002f0: d40f 85bd 1d04 b1bc 2071 83bb 2e45 7dbd
00000300: 36e5 c03a 7a2d fa3c 06b7 d93b f7e4 94bb
00000310: 1064 2e3c 1413 a9bc d400 893b 3e1d 123c
00000320: 4ccc 153c 1fb3 9b3a ab00 47bc 64eb bd3b
00000330: c246 ad3b 12dc f9b9 0f10 7fbb 14af 843c
00000340: 8880 cabc b629 a6ba 374f a03c 5302 c83b
00000350: aa76 083c dcf9 4cbc a65b a33a 6dc6 3dbc
00000360: a556 04bd a21e fb3c 9bf8 8bbb 8493 e5bc
00000370: ae7c feba 21ef 35bc ef06 acbc 16a9 e93c
00000380: a101 e1ba 7dce 5ebd ac51 b73b ab50 bc3c
00000390: 8d30 4bbc ac09 c9bb 6b40 98bd 73e2 3ebb
000003a0: be34 633b 31af 22bd 9b70 653c 3bfa 933d
000003b0: c8a9 d43b 5a36 e6bb 79ae cfba 9f74 a43b
000003c0: 18f8 cd3c 371f e7bc 7257 253c 338b 45bc
000003d0: 1ee8 c13b 403b 0c3d 4cad 32bc 3e54 86bc
000003e0: bd87 1e3c 0a9f 703c d551 533c e7e2 a93b
000003f0: dbc2 233c 2a2f 973b 1e42 763c e5d1 053c

cvae_parameters.z_mu_lin_b f4 [32]
-0.057404224 -0.06419703 0.04014872 0.02966209 -0.05430081 -0.0350066 -0.039723806 -0.01140278
0.055480085 -0.030664345 -0.030597057 -0.06966031 -0.0017208618 -0.060432937 0.0022869823 0.0052795582
-0.012232354 -0.043695588 -0.07077843 -0.07066881 0.06733763 0.031761255 0.09185972 -0.021034513
0.11199715 0.029731058 -0.02666527 0.074723534 0.002851251 -0.06833379 -0.03747051 -0.09611808
00000000: b120 6bbd bc79 83bd fc72 243d e9fd f23c
00000010: 876a 5ebd 1563 0fbd 6eb5 22bd bad2 3abc
00000020: 163f 633d cb33 fbbc aea6 fabc 11aa 8ebd
00000030: 8a8e e1ba 8788 77bd 32e1 153b 2500 ad3b
00000040: 366a 48bc 25fa 32bd 48f4 90bd cfba 90bd
00000050: 50e8 893d 1718 023d f320 bc3d 9250 acbc
00000060: c35e e53d 8c8e f33c 2071 dabc a708 993d
00000070: 0edc 3a3b 96f2 8bbd ad7a 19bd 8ed9 c4bd
