dlpg/22/weights/dlpg_model_weights_300.pth (torch, 354171 bytes, 14 tensors)

cvae_parameters.dec_00_lin_b f4 [128]
-0.026273666 -0.0928269 -0.15223104 0.22311631 -0.14235568 -0.06478871 -0.08762147 -0.14445966
-0.074065946 0.25290576 -0.07270249 -0.10204433 0.06560303 -0.13390136 -0.09767701 -0.16649786
0.1050224 -0.0674363 -0.08706445 -0.07847124 0.0055477773 -0.11682109 -0.1723546 -0.11868297
-0.16908678 0.12976253 -0.062156327 -0.034900952 -0.1827385 -0.055174693 -0.24870126 -0.16037512
-0.082782894 0.03554418 -0.009034241 -0.0064924313 -0.09832242 -0.14900947 -0.27056217 -0.25846773
-0.07138661 0.07545776 -0.05072802 -0.11533791 -0.12632646 -0.06409998 -0.12509039 -0.10314095
-0.063868865 -0.043625094 -0.08401214 -0.11413455 -0.14787574 -0.13937111 -0.11585912 -0.06991046
-0.04828147 0.24921475 -0.09018471 -0.12552497 -0.08597132 0.030503623 -0.121853426 -0.08584489
-0.1252206 -0.15745611 -0.010623492 -0.07952675 -0.04929953 0.08050756 -0.12406659 -0.14094387
-0.056439523 -0.2056253 0.25871417 -0.034482494 -0.11970179 -0.07400101 -0.0634943 -0.12901454
-0.08871197 -0.102791965 -0.05457128 -0.06760501 -0.058425125 -0.052519053 -0.10949907 -0.090964414
-0.06502287 -0.20315385 -0.058995947 -0.06668628 -0.13390452 -0.16400544 -0.04360549 -0.048006862
-0.09057703 -0.03307301 0.2768122 -0.25560814 -0.07318561 -0.08466678 0.16178823 -0.046057064
-0.11861092 -0.072219454 -0.02713797 -0.08007919 -0.08883535 -0.1620381 0.044305757 -0.13275625
-0.08851678 -0.08178542 -0.17021136 0.083534814 -0.30340168 -0.094550885 -0.07228024 -0.00080830365
0.19760333 -0.0659074 -0.059161622 0.08668539 -0.07013448 -0.14399783 -0.17734852 -0.05292609
00000000: df3b d7bc 081c bebd 74e2 1bbe 9a78 643e
00000010: b0c5 11be f1af 84bd e372 b3bd 3ced 13be
00000020: e3af 97bd dd7c 813e 0be5 94bd 9efc d0bd
00000030: e25a 863d 701d 09be e20a c8bd 6a7e 2abe
00000040: fc15 d73d 0b1c 8abd d94e b2bd 88b5 a0bd
00000050: 21ca b53b e53f efbd b97d 30be 0f10 f3bd
00000060: 1625 2dbe 78e0 043e a297 7ebd 4df4 0ebd
00000070: cd1f 3bbe dcfe 61bd 8bab 7ebe 6039 24be
00000080: 148a a9bd c696 113d 5a04 14bc 76be d4bb
00000090: 445d c9bd f095 18be 2087 8abe e255 84be
000000a0: 2533 92bd 9989 9a3d 2fc8 4fbd 4836 ecbd
000000b0: b95b 01be da46 83bd b217 00be 903b d3bd
000000c0: aecd 82bd 3ab0 32bd 8f0e acbd 60bf e9bd
000000d0: bd6c 17be 4db7 0ebe 8c47 edbd 372d 8fbd
000000e0: cac2 45bd 2732 7f3e c3b2 b8bd 9e89 00be
000000f0: bb11 b0bd bce2 f93c 4a8e f9bd 72cf afbd
00000100: d439 00be 2d3c 21be 280e 2ebc ecde a2bd
00000110: 4eee 49bd 26e1 a43d a016 febd 9753 10be
00000120: 212d 67bd 708f 52be 2f76 843e 843d 0dbd
00000130: 3626 f5bd d78d 97bd 4d09 82bd 631c 04be
00000140: 9fae b5bd 9884 d2bd 2286 5fbd 7f74 8abd
00000150: 2f4f 6fbd 381e 57bd 0c41 e0bd 8d4b babd
00000160: b62a 85bd 9007 50be bca5 71bd d192 88bd
00000170: 441e 09be 0bf1 27be ac9b 32bd d8a2 44bd
00000180: 7380 b9bd 9177 07bd 54ba 8d3e 12df 82be
00000190: 56e2 95bd c765 adbd d0ab 253e 55a6 3cbd
000001a0: 48ea f2bd cbe7 93bd 7350 debc 8f00 a4bd
000001b0: 4fef b5bd 51ed 25be f479 353d 41f1 07be
000001c0: 4948 b5bd 1d7f a7bd e34b 2ebe 4d14 ab3d
000001d0: 7757 9bbe e5a3 c1bd aa07 94bd 57e4 53ba
000001e0: 8758 4a3e 75fa 86bd 7553 72bd 1c88 b13d
000001f0: aba2 8fbd 2b74 13be da9a 35be 07c9 58bd

cvae_parameters.dec_00_lin_w f4 [128, 35]
-0.006794883 0.024144981 0.016389834 -0.017033257 0.033385705 0.029312449 -0.046615344 0.03785744
0.11841488 0.08697887 0.008207454 -0.080597736 -0.0133736525 0.096457854 0.051813502 -0.0019366106
0.012505484 -0.1212804 -0.025711047 0.016825907 -0.026654882 0.006564655 -0.004417443 -0.025641793
0.062678434 0.053111367 0.02909766 0.06760233 0.036716215 -0.052477356 0.07427428 -0.18997227
-0.00035368255 -0.03288916 0.0010811606 -0.04717088 0.00605676 0.0007606804 0.008187567 0.0033394552
-0.013457836 0.020788658 0.024724534 -0.002301995 -0.009003393 -0.039280415 -0.013272584 0.0006390501
-0.0075073414 0.009854162 0.013488824 -0.0048363917 0.0039856248 -0.013804132 0.0043697977 0.011984193
-0.020796442 0.0053115655 -0.01574189 -3.9346192e-05 -0.0036856534 0.012484612 0.0055792644 0.00031322657
-0.005416255 0.039502725 -0.010963498 0.003883707 -0.08278647 0.0030911975 -0.011026437 -0.051771898
-0.023830116 0.014621035 -0.00042175694 -0.0214786 0.000519838 -0.0022341474 0.010803917 -0.01130908
-0.032196354 -0.025383689 0.00680844 -0.05760457 0.016424874 -0.017557222 0.01463925 -0.021829657
-0.009516351 0.012262321 0.041834243 -0.00047313573 -0.01481808 0.009505661 -0.020797327 0.022442972
-0.0032412075 -0.04587386 -0.0047110585 0.013085756 -0.019929709 0.015653826 0.008837138 -0.14325477
-0.002624979 -0.016879715 0.00974051 0.01802257 -0.02427074 0.040655654 -0.021452708 -0.0033376103
0.009883355 -0.028430022 -0.020598955 0.0119227 0.016530365 0.019798247 0.008431298 -0.038555413
-0.010104237 -0.042002495 0.039308846 -0.013909775 -0.015900012 0.015966553 0.023864957 0.03485123
-0.027190741 -0.012480305 -0.007842991 -0.01559206 -0.008980339 0.00017954716 -0.020733273 -0.027293095
0.010809341 0.023934547 0.22686984 0.009202233 -0.010095687 -0.06080756 0.020089852 0.04629766
-0.025208708 -0.020045275 0.031197261 -0.08003934 0.089725405 0.02811129 -0.01584037 0.018870788
0.08646263 -0.11844084 0.017097414 0.0011197593 0.019678334 0.026942458 0.033077724 0.023968657
0.085086636 0.024900641 0.026907071 -0.028372018 -0.033224404 0.01594991 0.023247968 0.016468635
0.031724647 0.019935224 0.029939247 0.00026831956 0.0025905704 -0.13830672 -0.002687557 0.007940929
-0.0077017182 0.023698948 0.006275903 -0.0035432437 0.0045177047 0.022447463 0.0053389617 0.008872668
0.008158029 -0.012353411 0.012519786 -0.012625778 -0.007012389 0.0057504876 0.01833952 -0.016508223
-0.0052601164 0.01999689 0.021134265 -0.016334623 -0.00023975103 0.009610869 0.04133621 -0.007469149
-0.017916782 0.015796684 -0.000849937 -0.023364248 0.009536503 0.008693455 0.018208383 0.007767412
-0.054042086 -0.007315981 -0.03952657 -0.016449014 -0.022026347 0.01814455 0.0065870658 0.005631873
0.0010728188 0.007848766 -0.013134242 0.016770635 0.0036068503 0.0032464098 0.032157805 -0.0065117977
-0.00042186538 0.021648841 0.012377062 -0.010277822 -0.011598956 -0.016617302 -0.036101926 0.008496831
-0.0052559506 -0.013188503 0.016299194 -0.005045951 -0.01771977 -0.01836761 0.016947616 0.024407573
6.4611427e-06 0.004373375 0.0046519153 -0.10276701 0.0192986 -0.01842337 -0.01817773 0.021416629
0.021198783 -0.013406504 0.0058205007 -0.0070723114 -0.034996063 0.006324935 -0.00044751138 -0.031205747
00000000: 9ca7 debb b2cb c53c f943 863c 5489 8bbc
00000010: 73bf 083d a920 f03c bbef 3ebd 6710 1b3d
00000020: 8083 f23d fa21 b23d 8f78 063c 6d10 a5bd
00000030: 2a1d 5bbc b28b c53d 653a 543d ded5 fdba
00000040: cde3 4c3c dc61 f8bd f99f d2bc 7cd6 893c
00000050: 575b dabc 511c d73b 33c0 90bb bd0e d2bc
00000060: 8d5d 803d 4e8b 593d 375e ee3c 1773 8a3d
00000070: be63 163d 7ff2 56bd 1d1d 983d 1788 42be
00000080: 786e b9b9 c9b6 06bd bbb5 8d3a 4136 41bd
00000090: c977 c63b 6668 473a 2525 063c c3da 5a3b
000000a0: 417e 5cbc fa4c aa3c 1b8b ca3c 11dd 16bb
000000b0: f882 13bc 80e4 20bd 4175 59bc ed85 273a
000000c0: 2500 f6bb 5a73 213c 3a00 5d3c 987a 9ebb
000000d0: d899 823b ba2a 62bc 8530 8f3b 5959 443c
000000e0: 4d5d aabc a40c ae3b 23f5 80bc a707 25b8
000000f0: 018b 71bb 428c 4c3c 43d2 b63b 8f38 a439
00000100: d77a b1bb 9ccd 213d 3ea0 33bc cb85 7e3b
00000110: f48b a9bd b095 4a3b 3ba8 34bc c50e 54bd
00000120: 6037 c3bc 118d 6f3c 421f ddb9 e4f3 afbc
00000130: bd45 083a c66a 12bb ea02 313c b849 39bc
00000140: 53e0 03bd 74f1 cfbc 5619 df3b c5f2 6bbd
00000150: 758d 863c 2ad4 8fbc 77d9 6f3c 1cd4 b2bc
00000160: 78ea 1bbc e7e7 483c 625a 2b3d 340f f8b9
00000170: 88c7 72bc a2bd 1b3c 285f aabc 53da b73c
00000180: 706a 54bb 3be6 3bbd 395f 9abb a465 563c
00000190: a143 a3bc 743c 803c a5c9 103c 61b1 12be
000001a0: d707 2cbb 5447 8abc a996 1f3c 12a4 933c
000001b0: 6ed3 c6bc 8b86 263d 97bd afbc cfbb 5abb
000001c0: cced 213c 14e6 e8bc 24bf a8bc 6e57 433c
000001d0: b06a 873c ef2f a23c 6d23 0a3c 48ec 1dbd
000001e0: 3e8c 25bc cf0a 2cbd 5002 213d d3e5 63bc
000001f0: be40 82bc 4acc 823c 7180 c33c 2ac0 0e3d
00000200: 1ebf debc 317a 4cbc e37f 00bc d775 7fbc
00000210: 4622 13bc d344 3c39 d3d8 a9bc c595 dfbc
00000220: aa19 313c 6212 c43c 9150 683e f6c4 163c
00000230: 6168 25bc 5911 79bd 7993 a43c 9da2 3d3d
00000240: 7e82 cebc fd35 a4bc 6691 ff3c aaeb a3bd
00000250: f4c1 b73d a649 e63c aac3 81bc e996 9a3c
00000260: 5213 b13d 1c91 f2bd e00f 8c3c e3c4 923a
00000270: 7534 a13c 6eb6 dc3c 827c 073d eb59 c43c
00000280: e741 ae3d 6efc cb3c 386c dc3c 6f6c e8bc
00000290: 5016 08bd 63a9 823c 8672 be3c 3be9 863c
000002a0: b4f1 013d 324f a33c 2743 f53c 3ead 8c39
000002b0: 8fc6 293b 47a0 0dbe b921 30bb ac1a 023c
000002c0: b25e fcbb 4c24 c23c 17a6 cd3b c435 68bb
000002d0: 4109 943b bee3 b73c 75f2 ae3b ab5e 113c
000002e0: 41a9 053c f665 4abc ca1f 4d3c 5adc 4ebc
000002f0: 2fc8 e5bb 966e bc3b c33c 963c 413c 87bc
00000300: 0e5d acbb 85d0 a33c c421 ad3c 30d0 85bc
00000310: ad65 7bb9 e876 1d3c 2850 293d c3bf f4bb
00000320: 37c6 92bc 0c68 813c 4ece 5eba 6166 bfbc
00000330: fe3e 1c3c fe6e 0e3c bf29 953c c685 fe3b
00000340: 3c5b 5dbd e6ba efbb 9de6 21bd 15c0 86bc
00000350: 9970 b4bc e1a3 943c 50d8 d73b 938b b83b
00000360: d39d 8c3a 1c98 003c 0131 57bc 9262 893c
00000370: e860 6c3b b8c1 543b e7b7 033d eb60 d5bb
00000380: d02d ddb9 e958 b13c 29c9 4a3c 4f64 28bc
00000390: 8c09 3ebc 0221 88bc 9ddf 13bd 4b36 0b3c
000003a0: 1c3a acbb 9714 58bc e385 853c 8158 a5bb
000003b0: 0d29 91bc ac77 96bc bad5 8a3c 64f2 c73c
000003c0: cbcc d836 874e 8f3b 186f 983b 8377 d2bd
000003d0: 1918 9e3c 9bec 96bc 76e9 94bc ed71 af3c
000003e0: 12a9 ad3c f4a6 5bbc e6b9 be3b d9be e7bb
000003f0: 0858 0fbd 6641 cf3b f69f eab9 32a3 ffbc

cvae_parameters.dec_01_lin_b f4 [128]
-0.0230536 0.05176763 -0.06466532 -0.017335258 0.07379914 -0.18240258 -0.0037313877 0.019514184
-0.0018759774 0.028153822 0.054116186 -0.004952986 -0.10866482 -0.006543585 -0.0962049 -0.12741117
0.05292776 0.18452422 0.2408101 -0.009213504 0.10260086 -0.060888126 0.094212435 -0.015932733
-0.0028410815 -0.12615909 0.021881793 -0.09569674 -0.2180526 0.093426794 -0.011179608 -0.0029494932
-0.0031570606 -0.0015317022 0.13468274 -0.11989975 0.03595838 -0.0017876443 -0.002448466 -0.0033296181
-0.0012763514 -0.0073469505 0.055803813 -0.0022154301 -0.0009533468 -0.0038512782 -0.0074187764 -0.11198504
-0.051265027 0.05123536 -0.0316139 -0.0046651526 -0.03204723 -0.017636135 -0.07773855 0.0016394614
-0.11657253 -0.2533688 -0.16172865 -0.0023139445 0.02469619 0.021771878 -0.0020798706 0.35139096
0.06748856 -0.0023005875 -0.033993736 -0.010780334 -0.0047144243 -0.0919128 -0.01510113 0.020352913
-0.008513534 -0.10526517 -0.018050382 -0.17964013 -0.12527749 -0.0022976196 -0.17067966 -0.007352652
-0.14572965 -0.06194519 0.0016551607 -0.0018381596 -0.0017989979 -0.015876284 -0.004483487 -0.2246567
0.12180705 0.092497505 -0.14289364 -0.0989689 -0.0012300857 0.030022558 0.24614906 -0.011395971
-0.0023894038 0.07004595 -0.0028158252 -0.13863727 0.030930944 -0.0013257131 0.51653486 -0.004807505
-0.002408063 -0.15963759 0.04180368 0.052817483 -0.013188759 -0.0014168414 0.04742055 -0.0055510807
-0.008609729 -0.057599418 -0.0022198528 -0.016221909 -0.0022167491 0.009558308 -0.08973409 -0.09851899
0.0029157263 -0.005169187 -0.0017523053 -0.0031727087 -0.10698466 -0.01171791 -0.0044455566 0.048164163
00000000: e7da bcbc 4b0a 543d 406f 84bd ac02 8ebc
00000010: 0124 973d bec7 3abe 4c8a 74bb 36dc 9f3c
00000020: 5be3 f5ba d8a2 e63c efa8 5d3d a84c a2bb
00000030: a98b debd 926b d6bb 1307 c5bd 1378 02be
00000040: c7ca 583d ebf3 3c3e ec96 763e 3df4 16bc
00000050: 6620 d23d d465 79bd 73f2 c03d 5d85 82bc
00000060: 7031 3abb d92f 01be 7241 b33c a7fc c3bd
00000070: 2e49 5fbe 8c56 bf3d ad2a 37bc 494c 41bb
00000080: b0e6 4ebb 66c3 c8ba 46ea 093e 008e f5bd
00000090: 1849 133d 644f eaba 7176 20bb b935 5abb
000000a0: 3f4b a7ba b0be f0bb 8a92 643d c030 11bb
000000b0: 05ea 79ba ba65 7cbb 3519 f3bb 6a58 e5bd
000000c0: 47fb 51bd 2bdc 513d 947d 01bd 23de 98bb
000000d0: f543 03bd a879 90bc 6435 9fbd 32e3 d63a
000000e0: 94bd eebd 8eb9 81be 329c 25be 8ca5 17bb
000000f0: aa4f ca3c f05a b23c 704e 08bb 84e9 b33e
00000100: 7137 8a3d 74c5 16bb 043d 0bbd ff9f 30bc
00000110: 757b 9abb c73c bcbd bb6a 77bc 27bb a63c
00000120: 5a7c 0bbc 4495 d7bd 65de 93bc 95f3 37be
00000130: be48 00be a993 16bb a6c6 2ebe 84ee f0bb
00000140: 273a 15be 3dba 7dbd faf1 d83a 67ee f0ba
00000150: 5acc ebba fb0e 82bc 37ea 92bb 680c 66be
00000160: fa75 f93d 556f bd3d b652 12be 35b0 cabd
00000170: d43a a1ba def1 f53c 800e 7c3e 2bb6 3abc
00000180: 8b97 1cbb 4074 8f3d b589 38bb eef6 0dbe
00000190: e462 fd3c 8dc3 adba a13b 043f 4688 9dbb
000001a0: 98d0 1dbb 0978 23be 563a 2b3d 2557 583d
000001b0: aa15 58bc 4fb5 b9ba 0d3c 423d d7e5 b5bb
000001c0: d20f 0dbc 5eed 6bbd f37a 11bb cfe3 84bc
000001d0: e146 11bb 739a 1c3c 82c6 b7bd 53c4 c9bd
000001e0: c515 3f3b 4962 a9bb 9cad e5ba 38ed 4fbb
000001f0: c61a dbbd 7afc 3fbc 08ac 91bb c947 453d

cvae_parameters.dec_01_lin_w f4 [128, 128]
-0.030970225 -0.0099616125 0.015486171 0.004303201 -0.02494204 0.0028375194 0.0057098004 -0.009022405
-0.013313013 -0.033331502 0.0011862046 0.0037702154 0.007011135 -0.024528634 -0.003528378 -0.036422636
-0.017728033 -0.0044263527 0.03243794 0.0127376 -0.010156206 0.0025814592 -0.0107674245 -0.017559063
0.024213627 -0.024393206 0.011915865 -0.010713426 -0.0062160585 -0.002224582 -0.00017263142 0.0027161953
0.0053155483 -0.030463459 -0.000639495 -0.018120186 -0.018037982 -0.018127035 -0.015707074 -0.03233635
-0.01791046 0.0019344733 -0.013007179 -0.037094157 0.007354879 -0.01930795 -0.010840873 -0.007892463
-0.0007248948 -0.019634897 -0.014759464 0.006902718 -0.013665265 0.010220256 -0.010238216 -0.0018126137
-0.0008383485 0.017169602 -0.029174842 -0.0016186922 -0.0023053214 0.0012281671 -0.031337384 -0.015151361
-0.003803198 -0.026220705 -0.038395196 -0.0031987228 -0.014270982 0.011989705 -0.009621154 -0.034867812
-0.016681472 0.009138385 -0.031032577 -0.013009912 -0.0066981455 0.01799435 0.00511443 0.004825233
0.0058094775 -0.025145562 0.025681114 -0.024674878 -0.027422652 -0.0016352363 0.002333268 -0.0014674086
-0.0039716354 -0.0037584102 -0.0077006016 -0.013120325 -2.7495775e-05 -0.0002107559 -0.029916445 -0.01555542
-0.012921978 -0.008075392 -0.0006173928 -0.003516967 -0.0019495545 -0.01727323 -0.0030657132 -0.025491387
-0.0112641 0.005940301 -0.014100129 0.00010255653 0.007798771 -0.033006873 -0.009223677 0.003085082
-0.01623764 0.010672671 -0.004859355 -0.005764661 -0.022821313 -0.002901324 -0.017073689 -0.0033133093
-0.014070282 -0.020687185 -0.015433233 -0.024859263 0.0023459152 -0.02170155 0.002370206 -0.0129571725
-0.02989935 -0.029178329 -0.012737292 -0.043987837 -0.027770923 -0.045273956 -0.025023442 -0.017043605
-0.04101335 -0.043452222 -0.052198783 -0.0070564705 -0.05594083 -0.031151608 -0.04002179 -0.03873322
-0.024162691 -0.05519669 -0.040679976 -0.011943647 -0.03227349 -0.019514617 -0.015456707 -0.04758856
-0.016127063 -0.04516921 -0.0025434638 -0.014086202 -0.022604741 -0.01242773 -0.012181318 -0.024954295
0.0051397956 -0.041744474 -0.06348969 -0.06344921 -0.051295448 0.011293485 -0.032571238 -0.03448814
-0.046317924 -0.044212744 -0.008585744 -0.029693702 -0.03425954 -0.06793003 -0.01606113 -0.032787643
-0.057268575 0.012094985 -0.040194202 -0.016279 -0.010190577 -0.02134571 -0.0137735065 -0.04759551
-0.020944992 -0.00422821 -0.059274 -0.05710438 -0.0018521616 -0.024627132 -0.019885339 -0.008136316
-0.03350574 -0.03640861 -0.07703965 -0.014782739 -0.04784511 -0.02537476 -0.025280919 -0.033377733
-0.036616098 -0.019626725 -0.012065725 -0.037337307 -0.02890689 -0.028767029 -0.0021283152 -0.012459942
-0.011427094 -0.02619977 -0.031406578 -0.0315847 -0.038982555 -0.06088079 -0.0013475757 -0.050366405
0.0015682408 -0.040100746 -0.041611914 -0.02340379 -0.024762105 -0.034992278 -0.038971674 -0.031816684
-0.024794845 -0.011250241 -0.043327767 -0.018392164 -0.028322814 -0.0013950556 -0.01343525 -0.015634691
-0.025797768 -0.0020053093 -0.050395127 -0.014112524 -0.03510004 -0.01231321 0.032405026 -0.0082513755
-0.00961577 0.0030965225 -0.018263768 -0.02006102 -0.012843177 -0.038044374 -0.0546318 -0.014328958
-0.04193454 -0.047214456 -0.042793553 -0.011357571 -0.039760113 0.009502606 -0.022411136 -0.026095865
00000000: 45b5 fdbc 0836 23bc b5b9 7d3c de01 8d3b
00000010: 4053 ccbc adf5 393b 4719 bb3b b6d2 13bc
00000020: d31e 5abc 9d86 08bd 6c7a 9b3a b815 773b
00000030: aabd e53b 46f0 c8bc 5c3c 67bb e72f 15bd
00000040: 613a 91bc f00a 91bb a5dd 043d 5eb1 503c
00000050: 3766 26bc b32d 293b da69 30bc 06d8 8fbc
00000060: a85b c63c 43d4 c7bc c33a 433c 5e87 2fbc
00000070: 14b0 cbbb 4bca 11bb 6504 35b9 3202 323b
00000080: 0d2e ae3b 818e f9bc c8a3 27ba c970 94bc
00000090: 64c4 93bc 267f 94bc 1fac 80bc 1f73 04bd
000000a0: f5b8 92bc 278e fd3a 101c 55bc 0bf0 17bd
000000b0: 3201 f13b b52b 9ebc eb9d 31bc 644f 01bc
000000c0: de06 3eba 5dd9 a0bc aed1 71bc 3230 e23b
000000d0: 47e4 5fbc dc72 273c 31be 27bc 3995 edba
000000e0: 9ec4 5bba 44a7 8c3c 1400 efbc 4c2a d4ba
000000f0: e014 17bb 73fa a03a a15b 00bd 6a3d 78bc
00000100: 133f 79bb cecc d6bc 4844 1dbd aaa1 51bb
00000110: d6d0 69bc 7870 443c 0ba2 1dbc 8dd1 0ebd
00000120: 95a7 88bc 2ab9 153c 0838 febc 8727 55bc
00000130: 1e7c dbbb e368 933c f396 a73b fd1c 9e3b
00000140: 6e5d be3b 11fe cdbc 3361 d23c f822 cabc
00000150: 78a5 e0bc 6d55 d6ba bee9 183b 1056 c0ba
00000160: 7e24 82bb a94f 76bb 5455 fcbb a2f6 56bc
00000170: baa6 e6b7 5bfe 5cb9 5513 f5bc 29dc 7ebc
00000180: b4b6 53bc a64e 04bc 88d8 21ba ea7c 66bb
00000190: 3288 ffba 9780 8dbc 22ea 48bb 50d3 d0bc
000001a0: 0f8d 38bc dba6 c23b 3a04 67bc 9e13 d738
000001b0: d58c ff3b 3732 07bd e81e 17bc 162f 4a3b
000001c0: cd04 85bc 6ddc 2e3c 393b 9fbb 7be5 bcbb
000001d0: c3f3 babc 2424 3ebb 1fde 8bbc 1b24 59bb
000001e0: 0a87 66bc 2c78 a9bc acdb 7cbc a7a5 cbbc
000001f0: edbd 193b 73c7 b1bc 7555 1b3b 524a 54bc
00000200: 7bef f4bc 6407 efbc 13b0 50bc 972c 34bd
00000210: d97f e3bc 2f71 39bd f6fd ccbc 089f 8bbc
00000220: 9dfd 27bd f5fa 31bd 64ce 55bd f739 e7bb
00000230: 3622 65bd a831 ffbc e3ed 23bd baa6 1ebd
00000240: d6f0 c5bc ed15 62bd 0ca0 26bd 49af 43bc
00000250: 3531 04bd 1edd 9fbc 213e 7dbc 39ec 42bd
00000260: e71c 84bc 5903 39bd 3eb0 26bb d0c9 66bc
00000270: 942d b9bc ad9d 4bbc 2794 47bc f36c ccbc
00000280: bb6b a83b 41fc 2abd e206 82bd a9f1 81bd
00000290: 2d1b 52bd 4f08 393c 6b69 05bd 7043 0dbd
000002a0: ddb7 3dbd 6c18 35bd 38ab 0cbc 3540 f3bc
000002b0: bb53 0cbd e61e 8bbd a292 83bc 564c 06bd
000002c0: 7492 6abd 0b2a 463c ada2 24bd 8a5b 85bc
000002d0: 61f6 26bc 33dd aebc 46aa 61bc 82f3 42bd
000002e0: d594 abbc cc8c 8abb 4bc9 72bd 48e6 69bd
000002f0: 3bc4 f2ba d7be c9bc 94e6 a2bc 2f4e 05bc
00000300: 513d 09bd 3221 15bd f7c6 9dbd 4d33 72bc
00000310: 3cf9 43bd bbde cfbc ee19 cfbc 17b7 08bd
00000320: c3fa 15bd 3ac8 a0bc 52af 45bc 01ef 18bd
00000330: 24ce ecbc d5a8 ebbc 347b 0bbb c924 4cbc
00000340: b538 3bbc e6a0 d6bc 2fa4 00bd f55e 01bd
00000350: 2cac 1fbd 235e 79bd 23a1 b0ba 014d 4ebd
00000360: 6e8d cd3a ae40 24bd 4171 2abd 4eb9 bfbc
00000370: e6d9 cabc 1054 0fbd c3a0 1fbd 3652 02bd
00000380: 8f1e cbbc ee52 38bc 7578 31bd 2aab 96bc
00000390: 3f05 e8bc 4cda b6ba 861f 5cbc 5314 80bc
000003a0: d755 d3bc 826b 03bb 1f6b 4ebd 3738 67bc
000003b0: 0fc5 0fbd 59bd 49bc 22bb 043d c730 07bc
000003c0: 768b 1dbc 07ef 4a3b e69d 95bc 0257 a4bc
000003d0: 306c 52bc 6bd4 1bbd 98c5 5fbd 01c4 6abc
000003e0: 8dc3 2bbd f263 41bd 4b48 2fbd 1b15 3abc
000003f0: 80db 22bd d1b0 1b3c 8f97 b7bc ffc6 d5bc

cvae_parameters.enc_00_lin_b f4 [128]
-0.32900846 -0.24108592 -0.31559435 -0.23211952 -0.30567974 -0.25508952 -0.19657008 -0.21875316
-0.26233074 -0.30203617 -0.2750792 -0.19438265 -0.2654751 -0.18185177 -0.21964146 -0.1760088
-0.2719256 -0.26565543 -0.28223008 0.03277623 -0.1933798 -0.075674854 -0.25639555 -0.18163949
-0.34896886 -0.17941013 -0.26017895 -0.2865543 -0.19927798 -0.23017646 -0.2015888 -0.25586793
-0.25023076 -0.10307375 -0.24933712 -0.21981798 -0.31899792 -0.32794234 -0.32250974 -0.325582
-0.15434428 -0.20668077 -0.19808224 -0.30427206 -0.30741614 -0.31135112 -0.16171914 -0.20675884
-0.2608458 -0.24998195 -0.27619246 -0.11998831 -0.23685941 -0.25979903 -0.14417039 -0.22048716
-0.26452896 -0.30134103 -0.31552628 -0.28697357 -0.24740407 -0.22140808 -0.120644 -0.26538083
-0.31239715 -0.043399848 -0.14368868 -0.27103892 -0.33411667 -0.21111484 -0.29159108 -0.2934146
-0.24837492 -0.14693233 -0.3125603 -0.26958477 -0.3176345 -0.28874427 -0.23285174 -0.24860339
-0.27852738 -0.17643866 -0.16902867 -0.25624973 -0.25570375 -0.22716731 -0.2318178 -0.21133742
-0.260149 -0.19547996 -0.22532415 -0.22147083 -0.27152207 -0.22748049 -0.28195134 -0.25172305
-0.16642699 -0.28985643 -0.25640354 -0.21515264 -0.1542124 -0.25400582 -0.29365066 0.097556934
-0.18422236 -0.20120023 -0.26855502 -0.119198464 -0.3028216 -0.3249683 -0.2923577 -0.26594156
-0.27982876 -0.29897657 -0.26451805 -0.048053864 -0.21950129 -0.25381878 -0.27800274 -0.10411453
-0.2755106 -0.15593013 -0.25439888 -0.21498808 -0.26054844 -0.18893293 -0.24694642 -0.13004008
00000000: cc73 a8be 3adf 76be 9595 a1be bdb0 6dbe
00000010: 0e82 9cbe 189b 82be ab49 49be d400 60be
00000020: 3750 86be 7ca4 9abe 2ed7 8cbe 3f0c 47be
00000030: 5aec 87be 5a37 3abe b1e9 60be a73b 34be
00000040: d539 8bbe fd03 88be 7680 90be 5e40 063d
00000050: 5b05 46be 6bfb 9abd 4746 83be b4ff 39be
00000060: 0cac b2be 4ab7 37be 2d36 85be 3fb7 92be
00000070: 870f 4cbe 61b3 6bbe 4b6d 4ebe 1f01 83be
00000080: 3f1e 80be 5518 d3bd 3b52 7fbe f717 61be
00000090: b253 a3be 0fe8 a7be ff1f a5be afb2 a6be
000000a0: 6d0c 1ebe 20a4 53be 12d6 4abe 8cc9 9bbe
000000b0: a665 9dbe 6a69 9fbe b499 25be 97b8 53be
000000c0: 958d 85be 45fb 7fbe 1969 8dbe 6ebc f5bd
000000d0: 468b 72be 6104 85be 67a1 13be 63c7 61be
000000e0: 5770 87be 5f49 9abe a98c a1be 33ee 92be
000000f0: 7e57 7dbe cdb8 62be 3414 f7bd ffdf 87be
00000100: 85f2 9fbe 0ac4 31bd 2023 13be 9dc5 8abe
00000110: 5711 abbe 7d2e 58be 6d4b 95be 703a 96be
00000120: ff55 7ebe 6e75 16be e707 a0be 0407 8abe
00000130: fda0 a2be 4ad6 93be b070 6ebe e391 7ebe
00000140: 249b 8ebe 56ac 34be da15 2dbe 2a33 83be
00000150: 9aeb 82be 8c9e 68be a561 6dbe d668 58be
00000160: 4032 85be e62b 48be 60bb 66be 40c9 62be
00000170: f104 8bbe a5f0 68be ed5b 90be d8e1 80be
00000180: d66b 2abe 1068 94be 5347 83be f950 5cbe
00000190: dbe9 1dbe 0d0d 82be 6159 96be eecb c73d
000001a0: c9a4 3cbe 6f07 4ebe 0b80 89be 531e f4bd
000001b0: 6f0b 9bbe 3f62 a6be e9af 95be 7e29 88be
000001c0: b745 8fbe 7513 99be e96e 87be 21d4 44bd
000001d0: f2c4 60be 89f4 81be 6056 8ebe 003a d5bd
000001e0: ba0f 8dbe 26ac 1fbe 9240 82be d625 5cbe
000001f0: 9b66 85be a277 41be 86df 7cbe 3a29 05be

cvae_parameters.enc_00_lin_w f4 [128, 163]
0.042145126 0.014202206 0.053717576 0.028299145 0.06402792 -0.071083486 0.012792105 0.033990156
-0.0049921502 -0.039516125 -0.009005011 -0.074624434 -0.050100856 0.056676768 -0.040225115 0.04261542
0.0013862071 -0.07700493 0.04244563 -0.04501435 0.008472876 -0.0051675513 -0.06444101 -0.07312954
0.004436744 -0.0477865 -0.053864595 -0.004142087 -0.03325682 -0.046262965 -0.019497545 -0.055791516
0.04547391 -0.0036801465 -0.087222025 0.022601213 -0.004040779 0.01994943 -0.023317873 0.016068073
0.071837194 -0.050753307 0.0350911 0.04123648 0.01709186 0.044753745 0.031468734 -0.012446763
0.048909333 -0.053791817 0.02334987 0.033895455 0.0039856774 -0.004137183 0.036059164 -0.035232395
-0.07273704 0.06819608 -0.02264676 0.017515663 0.015489754 -0.08396812 0.050616097 -0.011705912
-0.015300139 0.020055674 -0.0049479976 -0.0060980716 0.054954015 -0.022681769 -0.008605456 0.037522484
-0.01681871 -0.077474244 -0.03097689 0.022971816 -0.053751532 0.043073002 0.02319869 0.010182536
0.055466842 -0.030706275 0.023460684 -0.061580822 0.06443037 0.00966341 -0.014542501 0.07182424
-0.012464662 0.042893533 -0.00057198625 -0.050057467 0.014667577 -0.0007876154 0.021196764 0.0066918707
-0.0031047843 0.03789687 0.023693403 -0.013955432 -0.010556034 -0.0136709055 0.064658694 -0.050411437
-0.07510392 0.057930686 -0.031080091 0.036904592 0.01171158 -0.032770548 0.0062035345 -0.027496735
-0.07162703 0.06006876 -0.007972045 0.08020394 -0.014900487 0.068330936 -0.028971162 -0.02128843
-0.07953495 -0.051931527 0.025847098 0.016198566 0.01877876 0.0710396 0.05931159 0.00905082
-0.01779868 -0.03789481 -0.041449502 -0.031182878 0.0053750854 0.04259088 -0.026579164 0.039117426
0.03135117 0.012213126 -0.015252523 -0.020766443 -0.035724428 0.050351698 -0.012768419 0.04564226
0.046149272 0.039585933 -0.006190094 0.059175175 -0.009362948 -0.039545715 7.853464e-05 0.011735309
0.057266213 0.013034293 0.040726706 0.026414476 0.04806897 -0.07284417 0.025476143 0.06034502
0.009671456 -0.33891788 0.0030160542 0.008022351 0.04381583 0.012220082 0.06752991 0.025611946
-0.007033428 0.008505855 0.014091377 0.01694245 0.019556182 0.025100565 -0.021821508 0.022005966
0.019458188 0.027589895 -0.020876855 0.010427894 -0.009393067 0.07037442 -0.06358371 0.024629343
-0.004875736 0.050818697 -0.0224371 -0.02953136 -0.044912267 -0.0210099 -0.031545747 -0.020177215
-0.00873197 0.025741354 -0.010133851 -0.0149499215 0.002693418 -0.0324276 -0.025340661 0.010451636
0.010063588 -0.017754758 0.031853028 0.0006146665 0.02716054 0.02284073 -0.013678605 -0.02324555
0.043236617 -0.03227602 0.028324561 -0.018690122 0.008370222 0.050817087 0.023042545 -0.007633724
-0.0036680764 0.034071684 0.006500917 0.061193805 -0.04135765 0.0001718443 -0.0014335522 -0.0021142615
-0.020983556 0.04631318 0.02622232 0.060210165 -0.010293089 -0.008343019 -0.04271347 -0.00557867
0.0177288 -0.011033545 0.04173572 -0.03619347 -0.016638458 0.0013296648 -0.0074517587 -0.05884926
-0.017445445 -0.067909315 -0.028475776 -0.035064865 -0.009679386 0.00038462903 -0.030437578 0.016351443
0.037691724 -0.0015619487 0.007872526 -0.0066800336 -0.027971352 -0.022053383 -0.0045800614 0.047277234
00000000: 5ea0 2c3d 5fb0 683c f606 5c3d 9cd3 e73c
00000010: 1221 833d 3894 91bd fa95 513c 4339 0b3d
00000020: 3195 a3bb a9db 21bd c189 13bc b2d4 98bd
00000030: 8e36 4dbd e625 683d 17c3 24bd 828d 2e3d
00000040: 64b1 b53a c3b4 9dbd 78db 2d3d f860 38bd
00000050: d1d1 0a3c 9054 a9bb a6f9 83bd f1c4 95bd
00000060: 1b62 913b c7bb 43bd 1fa1 5cbd 58ba 87bb
00000070: 4e38 08bd 3c7e 3dbd 51b9 9fbc a585 64bd
00000080: da42 3a3d 9d2e 71bb 76a1 b2bd 2e26 b93c
00000090: 8368 84bb fd6c a33c 2005 bfbc 31a1 833c
000000a0: 611f 933d b3e2 4fbd afbb 0f3d 95e7 283d
000000b0: 3a04 8c3c b44f 373d 5ce5 003d 82ed 4bbc
000000c0: 2755 483d cf54 5cbd 3a48 bf3c f6d5 0a3d
000000d0: 499a 823b 3591 87bb c6b2 133d d84f 10bd
000000e0: 28f7 94bd 63aa 8b3d b385 b9bc 027d 8f3c
000000f0: bdc8 7d3c 7af7 abbd d352 4f3d 27ca 3fbc
00000100: 6fad 7abc cc4b a43c d022 a2bb 55d2 c7bb
00000110: 7617 613d 1ecf b9bc e6fd 0cbc 2db1 193d
00000120: 64c7 89bc d1aa 9ebd 3fc3 fdbc 642f bc3c
00000130: 912a 5cbd 516d 303d 2e0b be3c a7d4 263c
00000140: 3331 633d ba8b fbbc 9f30 c03c 2c3c 7cbd
00000150: 12f4 833d 4753 1e3c ac43 6ebc 9618 933d
00000160: 9538 4cbc 21b1 2f3d 59f1 15ba 0f09 4dbd
00000170: 4750 703c fa77 4eba d6a4 ad3c 7b47 db3b
00000180: a379 4bbb c039 1b3d ab18 c23c 53a5 64bc
00000190: 37f3 2cbc effb 5fbc c76b 843d 397c 4ebd
000001a0: 16d0 99bd ba48 6d3d ad9b febc 4529 173d
000001b0: ede1 3f3c 693a 06bd 0547 cb3b d540 e1bc
000001c0: 31b1 92bd a90a 763d 2e9d 02bc f741 a43d
000001d0: 2c21 74bc 17f1 8b3d ee54 edbc 1365 aebc
000001e0: 38e3 a2bd 27b6 54bd 4bbd d33c dbb2 843c
000001f0: ead5 993c 367d 913d b6f0 723d e449 143c
00000200: 8ace 91bc 9737 1bbd f4c6 29bd 3c73 ffbc
00000210: 7c21 b03b c673 2e3d 8cbc d9bc 9839 203d
00000220: 166a 003d 9019 483c b8e5 79bc 631e aabc
00000230: c753 12bd 953d 4e3d a232 51bc 61f3 3a3d
00000240: 0507 3d3d dc24 223d 46d6 cabb ab61 723d
00000250: 0d67 19bc b0fa 21bd f7b2 a438 7445 403c
00000260: fa8f 6a3d ca8d 553c 0cd1 263d 2c63 d83c
00000270: f8e3 443d 532f 95bd 58b3 d03c 572c 773d
00000280: 0775 1e3c a586 adbe fea8 453b 2e70 033c
00000290: 3a78 333d bd36 483c 1f4d 8a3d 25d0 d13c
000002a0: ac78 e6bb 245c 0b3c 85df 663c e5ca 8a3c
000002b0: 4934 a03c b39f cd3c 05c3 b2bc db45 b43c
000002c0: c766 9f3c 3404 e23c f005 abbc c2d9 2a3c
000002d0: 61e5 19bc 7720 903d 2d38 82bd 7ac3 c93c
000002e0: a3c4 9fbb 4427 503d 02ce b7bc c0eb f1bc
000002f0: edf5 37bd f41c acbc 1d36 01bd b04a a5bc
00000300: 8910 0fbc 88df d23c 7408 26bc 84f0 74bc
00000310: 0e84 303b ced2 04bd 3897 cfbc 573d 2b3c
00000320: bfe1 243c 6d72 91bc 5278 023d 9221 213a
00000330: c87f de3c 7c1c bb3c 3a1c 60bc 746d bebc
00000340: e118 313d dc33 04bd e908 e83c 071c 99bc
00000350: 4123 093c 9425 503d b8c3 bc3c 5124 fabb
00000360: 1c64 70bb c08e 0b3d a505 d53b 5ba6 7a3d
00000370: a466 29bd 1a31 3439 08e6 bbba 6c8f 0abb
00000380: b5e5 abbc e4b2 3d3d 31d0 d63c ef9e 763d
00000390: 58a4 28bc 28b1 08bc 52f4 2ebd 47cd b6bb
000003a0: fd3b 913c 0bc6 34bc 13f3 2a3d 9b3f 14bd
000003b0: 604d 88bc 2648 ae3a e22d f4bb ec0b 71bd
000003c0: c0e9 8ebc 0a14 8bbd 0846 e9bc 2da0 0fbd
000003d0: 4a96 1ebc 09a8 c939 3a58 f9bc 76f3 853c
000003e0: a362 1a3d 4dba ccba c4fb 003c 2fe4 dabb
000003f0: 2d24 e5bc 4ca9 b4bc 5714 96bb c6a5 413d

cvae_parameters.enc_01_lin_b f4 [128]
-0.008007394 -0.005168334 -0.016462477 -0.010251001 -0.02346186 -0.0042755543 -4.811753e-06 -0.006457888
-0.02579662 -0.0076119555 -0.025239095 0.05983029 -0.023081359 -0.06089472 -0.020974498 -0.011326513
-0.0066892784 -0.0048578014 -0.0037364291 0.044636715 0.056544084 -0.05729023 -0.009699422 0.073418
0.067122675 -0.00808309 -0.03900484 0.13777481 -0.05082149 -0.009080982 0.13592683 -0.0075591775
0.07717129 -0.0077442625 -0.04998107 -0.0099031385 -0.0072487793 -0.007116254 0.024544511 -0.011387889
-0.009532669 -0.019231673 -0.010789555 -0.0077399085 -0.009638584 -0.0030830025 0.11426565 0.0611112
-0.007831395 -0.04436936 0.035033032 0.12530477 -0.0212377 -0.010844452 -0.02624609 -0.009908672
0.17465788 -0.022738202 -0.038269535 -0.0026044697 -0.028454961 0.15119298 -0.030966379 -0.015355894
0.046969805 -0.0071137086 0.1418025 -0.040162314 -0.06530008 -0.0056209937 0.13454331 -0.010960993
0.102413155 -0.0053027486 0.046800606 -0.010241546 -0.0104089435 0.10575946 -0.03430204 0.09123878
-0.0065107276 -0.005734193 -0.03967458 -0.004219289 -0.007769949 -0.010943995 -0.008063577 -0.0022571392
-0.006525316 -0.004909672 0.120137095 -0.033083137 0.026633997 0.11005718 -0.025468811 -0.0021630656
0.054615572 -0.0065013063 0.11940239 0.14881402 -0.009222064 -0.0066419155 0.020847958 -0.003623394
0.0957875 -0.007404329 -0.014891987 -0.008356315 -0.0035435064 -0.010809135 -0.010293996 -0.021685725
-0.010231461 0.119251944 -0.004073934 -0.007874961 -0.02645413 0.11960202 0.008223971 -0.009901277
0.06607881 -0.005803307 -0.00993056 0.10851736 -0.005037755 -0.0710618 -0.038282353 -0.007183698
00000000: 7231 03bc 215b a9bb 51dc 86bc d1f3 27bc
00000010: 1633 c0bc f319 8cbb a574 a1b6 b19c d3bb
00000020: 6f53 d3bc b66d f9bb 38c2 cebc 9b10 753d
00000030: 1e15 bdbc be6c 79bd b6d2 abbc d792 39bc
00000040: bc31 dbbb 312e 9fbb e1de 74bb fdd4 363d
00000050: c59a 673d 29a9 6abd 53ea 1ebc 2d5c 963d
00000060: 9d77 893d f06e 04bc 8ac3 1fbd d714 0d3e
00000070: 322a 50bd 66c8 14bc 6730 0b3e fab2 f7bb
00000080: fb0b 9e3d 95c3 fdbb f3b8 4cbd c640 22bc
00000090: 2b87 edbb 772f e9bb 9211 c93c 4594 3abc
000000a0: e92e 1cbc be8b 9dbc acc6 30bc 0f9f fdbb
000000b0: 27eb 1dbc 330c 4abb 1c04 ea3d bd4f 7a3d
000000c0: 404f 00bc a5bc 35bd cc7e 0f3d e54f 003e
000000d0: affa adbc eeac 31bc 0a02 d7bc fc57 22bc
000000e0: 84d9 323e 7745 babc 84c0 1cbd c0af 2abb
000000f0: 611a e9bc 55d2 1a3e 34ad fdbc 4a97 7bbc
00000100: 6963 403d 1d1a e9bb ad34 113e 3d81 24bd
00000110: 0cbc 85bd 5030 b8bb b9c5 093e bd95 33bc
00000120: fdbd d13d aec2 adbb feb1 3f3d 28cc 27bc
00000130: 468a 2abc 6a98 d83d 4c80 0cbd 66db ba3d
00000140: f157 d5bb e6e5 bbbb d081 22bd f641 8abb
00000150: 0e9b febb 714e 33bc 181d 04bc 83ec 13bb
00000160: 51d2 d5bb 50e1 a0bb 700a f63d 2f82 07bd
00000170: 8a2f da3c a965 e13d f8a3 d0bc 38c2 0dbb
00000180: 94b4 5f3d e908 d5bb 3e89 f43d b462 183e
00000190: 2418 17bc 6da4 d9bb 56c9 aa3c 7776 6dbb
000001a0: 3d2c c43d 03a0 f2bb 85fd 73bc ede8 08bc
000001b0: 2c3a 68bb cc18 31bc 26a8 28bc 43a6 b1bc
000001c0: dca1 27bc 5d3a f43d a37e 85bb fb05 01bc
000001d0: 55b6 d8bc e7f1 f43d d6bd 063c f738 22bc
000001e0: 5454 873d ab29 bebb cab3 22bc 5a3e de3d
000001f0: c013 a5bb d988 91bd f5cd 1cbd 3a65 ebbb

cvae_parameters.enc_01_lin_w f4 [128, 128]
0.006510925 0.0017917786 0.010929596 -0.025307236 -0.008472494 0.02406856 -0.0068971477 -0.014665557
0.028234899 -0.020015862 0.009081151 -0.044717085 -0.040992334 -0.05723797 0.0003691825 -0.10594449
0.016620375 0.00050115533 0.0073497253 -0.108242095 -0.06179985 -0.05770065 -0.003170011 -0.021536332
0.027378904 -0.02657748 -0.040305268 0.009361952 -0.023180958 -0.012198226 -0.009755559 0.0070419717
0.0011533737 -0.042127255 -0.009560296 0.05049782 -0.015489092 0.009618591 0.018720012 0.011685535
-0.06018621 0.010119234 -0.0057319007 -0.0065776506 -7.081287e-05 -0.03375849 -0.028080815 -0.011205041
0.0063052913 -0.07076403 -0.011655781 -0.039236695 -0.037287127 -0.020531971 -0.039603606 -0.0038488053
0.0020203632 0.023234408 0.014620656 0.011919213 0.038609352 -0.012228985 -0.06519659 -0.007855183
0.004965937 -0.12849367 -0.0034033966 -0.05463214 0.043805353 0.018041154 -0.03219179 -0.0030321681
-0.0745558 -0.007644963 0.0042690905 -0.01652419 -0.007978736 0.0022830225 -0.015179955 -0.016237762
0.02241785 -0.0071323738 -0.026565056 -0.049656484 -0.015555218 -0.055365123 -0.072921395 -0.0655885
-0.017245699 0.0024074237 0.031207187 -0.015440995 -0.023732044 -0.029587185 -0.017110787 -0.02185272
-0.0019479931 0.010401737 -0.03699523 -0.015713586 0.001270219 0.0072032236 -0.01413715 -0.066444024
-0.033653095 0.0029287052 -0.00747912 -0.08127091 0.02134119 0.02060096 0.008303995 0.0011528126
-0.028011205 -0.030301018 0.008418633 -0.071050696 0.015290203 0.013065004 -0.036109265 -0.032064904
0.011922124 -0.046296615 0.009278781 0.022834413 -0.009039733 -0.04903949 0.036172815 -0.030861769
0.015364098 -0.027917415 -0.025468504 0.0022967397 0.023931487 0.050491124 -0.050219797 -0.069773294
-0.046658717 -0.022715334 0.0042783516 -0.08646637 0.01356849 -0.060226656 0.014518029 -0.05428347
0.0040821237 0.03784641 -0.056241363 -0.0415333 0.0077310046 -0.08960513 -0.013151869 0.026631955
0.001663973 -0.0040113614 -0.0474172 0.016913481 -0.040956162 -0.03074124 -0.09311702 -0.0041841995
-0.034380537 -0.098970786 -0.0058258073 0.0222526 -0.07992673 -0.0033421365 0.008346374 -0.018871984
-0.043311052 -0.037121538 -0.011393791 -0.035667542 0.024093213 0.01601296 -0.03568119 -0.0061061713
-0.03868032 -0.06949126 -0.019661358 -0.040346775 -0.036154415 0.016571783 0.008043707 -0.006337808
-0.034570128 -0.005139374 -0.0032641995 -0.04046282 -9.951465e-05 -0.02649241 -0.1278285 -0.0061786952
0.005357952 -0.07732909 -0.021526612 -0.018815769 -0.027246429 0.018153448 -0.0063500195 -0.028654026
-0.004442415 0.0144327665 -0.016969774 -0.020021422 -0.010841303 0.0036314605 0.013523279 -0.029471919
-0.0685868 0.00076527445 -0.056661043 -0.0751218 -0.09426518 -0.09112805 -0.058312718 -0.08871344
-0.010420303 -0.035146475 -0.019609496 -0.09459827 -0.0071210507 -0.06768917 0.017167818 0.0006657849
-0.07735176 -0.013492491 0.032333273 -0.031381465 -0.0019410473 -0.04687134 0.006944326 -0.11003773
-0.026733031 0.020696707 -0.04371159 -0.04809858 0.0037910293 -0.023430053 -0.023314726 -0.031080784
-0.05379586 -0.009292428 -0.032306816 -0.0809851 0.03289461 -0.0014175359 -0.011450272 -0.06915838
0.032914676 0.030498799 -0.05112324 -0.05769164 -0.014104156 0.004402421 -0.06824282 -0.08571956
00000000: 9959 d53b 1dda ea3a 0c12 333c 1f51 cfbc
00000010: 37d0 0abc 6e2b c53c 7801 e2bb ce47 70bc
00000020: e04c e73c 4ef8 a3bc 1cc9 143c 4329 37bd
00000030: 94e7 27bd 5d72 6abd d68e c139 6df9 d8bd
00000040: 7427 883c f75f 033a f7d5 f03b 08ae ddbd
00000050: d721 7dbd 8457 6cbd f6bf 4fbb f66c b0bc
00000060: b949 e03c 04b9 d9bc 2317 25bd df62 193c
00000070: fee5 bdbc 11db 47bc c8d5 1fbc 57c0 e63b
00000080: cd2c 973a a18d 2cbd caa2 1cbc cdd6 4e3d
00000090: f6c5 7dbc 4b97 1d3c b65a 993c b074 3f3c
000000a0: d185 76bd 25cb 253c abd2 bbbb 5589 d7bb
000000b0: 5f81 94b8 5846 0abd bd09 e6bc 5995 37bc
000000c0: 9e9c ce3b bbec 90bd e4f7 3ebc a8b6 20bd
000000d0: 63ba 18bd aa32 a8bc 6437 22bd 3d3c 7cbb
000000e0: 1268 043b 1656 be3c 7a8b 6f3c ce48 433c
000000f0: d724 1e3d 155c 48bc ca85 85bd 07b3 00bc
00000100: 4db9 a23b d893 03be 850b 5fbb f3c5 5fbd
00000110: 3e6d 333d 0bcb 933c 8adb 03bd 57b7 46bb
00000120: b6b0 98bd 9982 fabb bae3 8b3b bd5d 87bc
00000130: 3fb9 02bc c39e 153b 59b5 78bc 0e05 85bc
00000140: a4a5 b73c b0b6 e9bb f69e d9bc 9964 4bbd
00000150: 50db 7ebc 8ac6 62bd d057 95bd 4353 86bd
00000160: da46 8dbc dec5 1d3b 37a6 ff3c 3afc 7cbc
00000170: b469 c2bc d360 f2bc ec2b 8cbc 7a04 b3bc
00000180: cd53 ffba 0c6c 2a3c 4f88 17bd c7b9 80bc
00000190: 7a7d a63a 0509 ec3b 819f 67bc ce13 88bd
000001a0: d4d7 09bd 85ef 3f3b 6813 f5bb 5d71 a6bd
000001b0: b8d3 ae3c 58c3 a83c 7b0d 083c f919 973a
000001c0: c177 e5bc d739 f8bc 4eee 093c 0783 91bd
000001d0: c283 7a3c 990e 563c 4fe7 13bd 7d56 03bd
000001e0: 0355 433c 85a1 3dbd 0706 183c 3c0f bb3c
000001f0: 631b 14bc a2dd 48bd f229 143d d2d1 fcbc
00000200: b3b9 7b3c 10b3 e4bc 53a3 d0bc e684 163b
00000210: f70b c43c c8cf 4e3d 46b3 4dbd 4de5 8ebd
00000220: 361d 3fbd 8215 babc 6a31 8c3b 4815 b1bd
00000230: 5f4e 5e3c 3ab0 76bd 07dd 6d3c 5858 5ebd
00000240: 56c3 853b d604 1b3d 585d 66bd d21e 2abd
00000250: 5e54 fd3b e582 b7bd f07a 57bc 422b da3c
00000260: ab19 da3a bd71 83bb 8a38 42bd 248e 8a3c
00000270: a6c1 27bd 0ed5 fbbc 23b4 bebd 9c1b 89bb
00000280: 9bd2 0cbd 32b1 cabd 6ae6 bebb 164b b63c
00000290: a0b0 a3bd bf07 5bbb 3bbf 083c 6b99 9abc
000002a0: ee66 31bd c10c 18bd 06ad 3abc 2118 12bd
000002b0: 215f c53c 9c2d 833c 7126 12bd 4716 c8bb
000002c0: 416f 1ebd 6f51 8ebd db10 a1bc a942 25bd
000002d0: a716 14bd 8cc1 873c c1c9 033c 63ad cfbb
000002e0: 6899 0dbd 3268 a8bb 2eec 55bb 58bc 25bd
000002f0: 85b2 d0b8 9c06 d9bc 79e5 02be a776 cabb
00000300: c291 af3b b75e 9ebd 9458 b0bc 8723 9abc
00000310: e733 dfbc 8ab6 943c d313 d0bb d9bb eabc
00000320: ae91 91bb 6977 6c3c 3204 8bbc f703 a4bc
00000330: b89f 31bc ccfd 6d3b be90 5d3c 186f f1bc
00000340: 3c77 8cbd b39c 483a 6915 68bd 75d9 99bd
00000350: 1a0e c1bd 58a1 babd 51d9 6ebd 64af b5bd
00000360: ebb9 2abc c0f5 0fbd 18a4 a0bc bdbc c1bd
00000370: b457 e9bb 9fa0 8abd 86a3 8c3c 1188 2e3a
00000380: 996a 9ebd 9c0f 5dbc e56f 043d da89 00bd
00000390: bd6a feba 2afc 3fbd 3b8d e33b 765b e1bd
000003a0: 3bff dabc 248c a93c ed0a 33bd 0403 45bd
000003b0: eb72 783b 62f0 bfbc 86fe bebc 219d febc
000003c0: 0c59 5cbd 453f 18bc 2754 04bd 84db a5bd
000003d0: 80bc 063d 9dcc b9ba ec99 3bbc e9a2 8dbd
000003e0: 8ad1 063d 9ed8 f93c 9a66 51bd 124e 6cbd
000003f0: 1e15 67bc 2f42 903b e4c2 8bbd bd8d afbd

cvae_parameters.out_lin_b f4 [160]
-0.07917746 -0.035672214 -0.0070292857 0.021646654 -0.08676103 -0.02721793 0.022113822 -0.012680778
0.13527268 -0.06550495 0.07696879 -0.056407016 -0.023655929 0.03879816 -0.10810765 -0.08468587
0.139814 -0.086328246 0.084375925 -0.03276186 0.07515826 -0.14531411 -0.24306746 -0.008948948
-0.06645533 0.03662446 -0.0022381498 0.1182746 0.14591916 -0.36783358 -0.003900797 0.061226774
-0.11558994 0.20230766 -0.21403196 0.0129214125 -0.0824837 -0.080396794 0.10943814 -0.05271585
-0.07591422 0.099402644 -0.19942509 -0.11609515 -0.067506805 0.09966406 -0.047357477 -0.16560413
-0.107852235 -0.026387464 0.17758273 -0.043382168 0.061251983 0.12523568 -0.22101808 -0.16379859
-0.18673381 0.043983556 0.41431683 0.06286315 0.06958979 0.03220749 -0.1636756 -0.08136456
-0.23592734 0.06249307 0.32589304 0.06970231 -0.19927293 -0.04821841 0.1305437 -0.043544896
-0.14409754 0.14045133 -0.052252673 -0.053024143 -0.2932564 -0.03295191 0.35486448 0.041973166
-0.07295455 -0.0049159992 -0.2240941 -0.23005128 -0.16770558 -0.019559491 0.2964967 -0.045055058
-0.17553343 -0.17503887 0.069736324 -0.21438652 0.023860525 0.1038864 -0.14255261 -0.18592145
-0.21487096 -0.26238787 0.29791474 -0.045678288 0.029129785 0.2296922 -0.37586728 -0.15153931
-0.22065477 -0.22341615 0.18223983 0.019312438 -0.044538863 0.12467843 -0.11212561 -0.049204268
-0.13549474 -0.021579472 0.027585711 0.0106980195 -0.06833751 -0.03983459 0.06532265 0.115194574
-0.043651484 0.1650592 -0.24461673 0.0068204813 -0.05589081 -0.08329516 0.21872886 0.08399111
-0.023483323 0.26915073 -0.4220802 -0.12237898 -0.15086003 -0.016744321 0.436671 -0.116913095
-0.05818417 0.137614 -0.28707013 -0.4032646 -0.22583425 0.08080687 0.2728377 -0.2375784
-0.05094513 -0.004613339 -0.008651685 -0.23795226 -0.15141793 0.07236996 0.0060409433 -0.11685709
-0.0766762 -0.039045475 -0.006194908 0.027200634 -0.08729079 -0.03026933 0.018635739 -0.0059372843
00000000: cb27 a2bd 071d 12bd ec55 e6bb 5354 b13c
00000010: c4af b1bd 23f8 debc 0c28 b53c 0ac3 4fbc
00000020: ec84 0a3e 7627 86bd d0a1 9d3d 0b0b 67bd
00000030: 14ca c1bc d2ea 1e3d 8b67 ddbd c96f adbd
00000040: 672b 0f3e ddcc b0bd 49cd ac3d 4d31 06bd
00000050: 93ec 993d 39cd 14be ade6 78be 9c9e 12bc
00000060: bb19 88bd 8803 163d ecad 12bb f439 f23d
00000070: d56b 153e af54 bcbe 84a4 7fbb edc8 7a3d
00000080: 6bba ecbd bd29 4f3e 322b 5bbe 55b4 533c
00000090: 37ed a8bd 13a7 a4bd 1b21 e03d 93ec 57bd
000000a0: ea78 9bbd 9d93 cb3d 1736 4cbe 4bc3 edbd
000000b0: 0241 8abd ac1c cc3d eaf9 41bd 2194 29be
000000c0: a2e1 dcbd 862a d8bc 3fd8 353e 80b1 31bd
000000d0: 5ce3 7a3d c83d 003e 9052 62be d1ba 27be
000000e0: 2637 3fbe 1a28 343d 5621 d43e 65be 803d
000000f0: 1885 8e3d 00ec 033d 949a 27be 76a2 a6bd
00000100: f096 71be bcf8 7f3d 74db a63e 16c0 8e3d
00000110: 340e 4cbe ab80 45bd 3fad 053e 225c 32bd
00000120: 4e8e 13be 79d2 0f3e e606 56bd d82f 59bd
00000130: b425 96be 95f8 06bd ccb0 b53e 0eec 2b3d
00000140: 3269 95bd 6416 a1bb ec78 65be 9092 6bbe
00000150: 03bb 2bbe 3a3b a0bc 6ace 973e a78b 38bd
00000160: 09bf 33be 643d 33be ebd1 8e3d 2488 5bbe
00000170: 2677 c33c 65c2 d43d 50f9 11be 3162 3ebe
00000180: 2207 5cbe b457 86be 4888 983e 2819 3bbd
00000190: 96a1 ee3c 6f34 6b3e ad71 c0be 1f2d 1bbe
000001a0: 53f3 61be 34c7 64be 149d 3a3e 1e35 9e3c
000001b0: 626e 36bd 6857 ff3d 1da2 e5bd 6a8a 49bd
000001c0: 22bf 0abe 6fc7 b0bc 6efb e13c bf46 2f3c
000001d0: 89f4 8bbd 9829 23bd e2c7 853d 22eb eb3d
000001e0: e6cb 32bd 4705 293e cf7c 7abe 587e df3b
000001f0: c3ed 64bd a796 aabd 75fa 5f3e 8803 ac3d
00000200: 1960 c0bc 20ce 893e e51a d8be d5a1 fabd
00000210: 0d7b 1abe 632b 89bc 5793 df3e 2270 efbd
00000220: 8652 6ebd afea 0c3e dbfa 92be b378 cebe
00000230: 1841 67be 127e a53d 62b1 8b3e c147 73be
00000240: d7ab 50bd 7e2b 97bb ccbf 0dbc c2a9 73be
00000250: 4d0d 1bbe b436 943d 1bf3 c53b c552 efbd
00000260: 6908 9dbd 26ee 1fbd a8fe cabb ddd3 de3c
00000270: 84c5 b2bd 63f7 f7bc faa9 983c 8d8d c2bb

cvae_parameters.out_lin_w f4 [160, 128]
0.008431391 -0.0028414812 -0.03134527 -0.024152812 -0.010451079 -0.013149944 -0.022569675 -0.01866456
0.00060467864 0.0039850874 0.0025457116 -0.013909947 0.020445226 0.013776121 -0.022658918 0.01377511
-0.02898496 0.03249429 -0.030130906 0.008606134 0.0064530517 -0.013149327 -0.029990735 0.0150896
0.0007251272 0.03683442 -0.024246676 0.0043534273 0.017246393 -0.009891568 0.0051306416 -0.021976266
-0.0004271823 0.0023556808 0.05410915 0.016168209 0.016663093 0.005526728 0.0063631544 -0.0103495335
0.0009478713 -0.0029447996 -0.040585972 -0.0014657669 -0.003252439 -0.007919985 0.014249994 0.057371024
0.009263387 -0.00073364296 -0.044495054 -0.0063834004 0.008471075 0.009310094 0.00517188 -0.029609371
0.018097678 -0.040295523 -0.11516879 0.004274894 0.021078719 -0.09092481 0.0010047596 -0.06136885
0.020900022 0.001824347 0.0063113794 -0.00085465075 0.009102058 0.0409509 0.0048766113 -0.0043358523
-0.00020604326 0.00018778072 -0.004623099 0.0005436566 -0.013810687 0.0071377796 0.08093559 -0.0071339733
-0.039889287 0.009011815 0.006341646 0.021952905 0.007920986 0.012984129 0.004977861 0.026124509
0.025947468 -0.022275133 -0.018322721 0.007373885 0.0078242645 -0.021518646 -0.031296972 0.0046529337
0.00018203458 -0.023451671 -0.0070426683 -0.080503404 -0.024886733 -0.01505684 -0.009395606 -0.00961166
0.0025737658 0.0092116585 -0.030003695 -0.08962139 0.0010586549 -0.009419263 -0.0061423043 -0.007024995
0.012277745 0.055916812 -0.0028076181 -0.008432181 0.0013104624 -0.04449128 -0.009447512 -0.038470175
-0.002842863 -0.009390975 -0.0036506904 -0.002801054 -0.0030389524 -0.027723255 -0.0046048616 0.0034275034
0.011909864 -0.02554011 0.046503685 0.00348464 -0.026090458 -0.0070598978 0.005390023 -0.0070145666
0.028248806 0.028003626 -0.032311626 -0.013091684 0.018834986 0.010868708 -0.001379286 -0.039500434
0.021160273 -0.03691494 -0.03069264 0.012781425 0.0057689887 -0.032430373 0.012686972 0.003615053
-0.0066151787 -0.027716864 -0.058223948 -0.0514231 0.0016766445 -0.0004775663 -0.015897788 -0.00991821
0.0037899546 0.008832821 0.018833326 0.010216925 0.0017011059 0.011775936 -0.014672224 0.0036934586
0.0024459607 -0.0014398922 -0.0140778255 0.011966144 -0.0042092996 0.008503307 0.01640187 -0.005871845
-0.003833931 -0.021879017 0.020860733 -0.0032987155 -0.010310755 0.0013771235 -0.0009515728 -0.051848628
0.015438509 -0.01423396 -0.0051515456 0.027787218 -0.064971596 -0.021608407 -0.0040112883 -0.033806045
0.0014716748 0.030539263 0.0066441325 -0.0045438963 0.010643974 -0.02063898 0.004181007 0.008918105
0.009142946 0.0011878944 -0.012146155 0.005795883 0.005287976 -0.00047656946 -0.0038919484 0.016196765
-0.024719492 -0.0012677226 0.019569023 0.0061037927 0.008329073 -0.012510743 0.0012463226 -0.011581298
-0.032309193 0.030654212 -0.0042715794 -0.028024442 -0.001941582 -0.011104376 -0.0067133815 0.02852301
-0.0017166623 -0.05439614 0.005594453 0.022986794 -0.012401084 -0.006135186 -0.055249795 -0.0029126673
0.0034668888 -0.039717857 0.014003898 0.07225137 0.006489966 -0.007025522 -0.0015844844 0.005018785
0.025142714 -0.028213127 0.010091649 -0.012057113 0.005917563 0.03423271 -0.010905575 -0.016397592
0.009675917 0.014686355 0.012897928 0.0051845196 0.009995271 0.0046137767 0.015030412 0.008167719
00000000: d123 0a3c 2538 3abb e663 00bd 1edc c5bc
00000010: 013b 2bbc dd72 57bc 0ae4 b8bc 6be6 98bc
00000020: 4c83 1e3a 5695 823b f4d5 263b 8ce6 63bc
00000030: bf7c a73c 3db5 613c 329f b9bc 00b1 613c
00000040: de71 edbc bc18 053d 17d5 f6bc be00 0d3c
00000050: 1f74 d33b 4670 57bc 21af f5bc 5f3a 773c
00000060: 7616 3e3a b0df 163d f7a0 c6bc 32a7 8e3b
00000070: 4f48 8d3c 3e10 22bc f11e a83b 9207 b4bc
00000080: 70f7 dfb9 c461 1a3b 8ea1 5d3d 3173 843c
00000090: 0a81 883c 8e19 b53b 0282 d03b 1791 29bc
000000a0: 917a 783a 8afd 40bb 7a3d 26bd fa1e c0ba
000000b0: df26 55bb d3c2 01bc cf78 693c e1fd 6a3d
000000c0: 76c5 173c f251 40ba 7240 36bd d82b d1bb
000000d0: 44ca 0a3c 5d89 183c e078 a93b 5a8f f2bc
000000e0: 9541 943c eb0c 25bd 9ddd ebbd 6914 8c3b
000000f0: 47ad ac3c c936 babd 23b2 833a e75d 7bbd
00000100: 8636 ab3c ed1e ef3a b0cf ce3b a40a 60ba
00000110: cc20 153c 22bc 273d fbcb 9f3b c413 8ebb
00000120: 510d 58b9 01e7 4439 5e7d 97bb 2d84 0e3a
00000130: 3846 62bc 09e4 e93b 8fc1 a53d 1bc4 e9bb
00000140: f362 23bd 4ba6 133c 95cd cf3b 94d6 b33c
00000150: 06c7 013c 62bb 543c 531d a33b 1103 d63c
00000160: c98f d43c 577a b6bc 8819 96bc a1a0 f13b
00000170: 5831 003c df47 b0bc 4131 00bd a377 983b
00000180: 89e0 3e39 b81d c0bc 2fc6 e6bb f8de a4bd
00000190: 43df cbbc f7b0 76bc 07f0 19bc 397a 1dbc
000001a0: a0ac 283b 7fec 163c 4fca f5bc 6b8b b7bd
000001b0: 90c2 8a3a 4153 1abc 6245 c9bb ee31 e6bb
000001c0: 9828 493c 0709 653d 0400 38bb 2127 0abc
000001d0: d2c3 ab3a 7d3c 36bd bdc9 1abc e792 1dbd
000001e0: 544f 3abb 9bdc 19bc 6c40 6fbb e391 37bb
000001f0: 2929 47bb e11b e3bc 61e4 96bb f79f 603b
00000200: 9721 433c 7e39 d1bc a67a 3e3d 8f5e 643b
00000210: a8bb d5bc b756 e7bb ca9e b03b 73da e5bb
00000220: 0a6a e73c dc67 e53c 3259 04bd 817e 56bc
00000230: d44b 9a3c aa12 323c 29c9 b4ba 35cb 21bd
00000240: 4f58 ad3c 1f34 17bd 226f fbbc 2f69 513c
00000250: c909 bd3b b6d5 04bd 04dd 4f3c 86ea 6c3b
00000260: 24c4 d8bb 7a0e e3bc 3c7c 6ebd 07a1 52bd
00000270: dbc2 db3a dd61 fab9 143c 82bc fd7f 22bc
00000280: e360 783b 89b7 103c 5948 9a3c e464 273c
00000290: a4f7 de3a dbef 403c c563 70bc f40d 723b
000002a0: 694c 203b c4ba bcba aea6 66bc a50d 443c
000002b0: 2aee 89bb 7451 0b3c 375d 863c 9b68 c0bb
000002c0: b042 7bbb a03b b3bc 21e4 aa3c 432f 58bb
000002d0: 71ee 28bc 9980 b43a f872 79ba 3a5f 54bd
000002e0: cdf1 7c3c 8e35 69bc 4cce a8bb 05a2 e33c
000002f0: d40f 85bd 1d04 b1bc 2071 83bb 3578 0abd
00000300: 36e5 c03a 7a2d fa3c 06b7 d93b f7e4 94bb
00000310: 1064 2e3c 1413 a9bc d400 893b 3e1d 123c
00000320: 4ccc 153c 1fb3 9b3a ab00 47bc 64eb bd3b
00000330: c246 ad3b 12dc f9b9 0f10 7fbb 14af 843c
00000340: 8880 cabc b629 a6ba 374f a03c 5302 c83b
00000350: aa76 083c dcf9 4cbc a65b a33a 7cbf 3dbc
00000360: a556 04bd 8b1e fb3c 9bf8 8bbb 8493 e5bc
00000370: ae7c feba 21ef 35bc edfb dbbb 16a9 e93c
00000380: a101 e1ba 7dce 5ebd ac51 b73b cd4e bc3c
00000390: eb2d 4bbc ac09 c9bb 9c4d 62bd 73e2 3ebb
000003a0: be34 633b 31af 22bd 9b70 653c 87f8 933d
000003b0: c8a9 d43b 5a36 e6bb 79ae cfba 9f74 a43b
000003c0: 18f8 cd3c 371f e7bc 7257 253c 338b 45bc
000003d0: 1ee8 c13b 9937 0c3d 4cad 32bc 3e54 86bc
000003e0: bd87 1e3c 0a9f 703c d551 533c e7e2 a93b
000003f0: 35c3 233c 2a2f 973b 1e42 763c e5d1 053c

cvae_parameters.z_mu_lin_b f4 [32]
-0.0568789 -0.06332377 0.03960475 0.029253142 -0.053531688 -0.034358777 -0.038807213 -0.011091335
0.054477055 -0.030144991 -0.030047735 -0.06886164 -0.0015074667 -0.05955651 0.0025325802 0.005233532
-0.011942418 -0.042842854 -0.069583595 -0.070018284 0.06657538 0.030979529 0.09068232 -0.020645529
0.11053649 0.029295431 -0.026201569 0.074098736 0.0030735296 -0.067360856 -0.036714483 -0.09491746
00000000: d9f9 68bd e5af 81bd 9738 223d 49a4 ef3c
00000010: 0b44 5bbd cabb 0cbd 50f4 1ebd 6eb8 35bc
00000020: 5523 5f3d a1f2 f6bc ab26 f6bc 5507 8dbd
00000030: 3096 c5ba 87f1 73bd a5f9 253b 0c7e ab3b
00000040: 22aa 43bc fd7b 2fbd d881 8ebd bf65 8fbd
00000050: ac58 883d c8c8 fd3c a7b7 b93d d020 a9bc
00000060: f560 e23d f9fc ef3c aca4 d6bc 14c1 973d
00000070: 456d 493b 7df4 89bd ed61 16bd 1664 c2bd
