dlpg/11/weights/dlpg_model_weights_50.pth (torch, 354171 bytes, 14 tensors)

cvae_parameters.dec_00_lin_b f4 [128]
-0.03627962 0.018794926 -0.049409803 -0.119284146 0.24940105 -0.0716415 -0.10413895 0.0132687325
-0.08278665 -0.0795584 -0.06813197 -0.12006683 -0.04235349 -0.036554433 -0.057378322 -0.1396954
-0.16550338 0.028115427 -0.06268593 0.24613184 -0.08378273 -0.062445275 -0.05673701 -0.13759704
0.402129 0.19232672 -0.09434147 -0.055342965 -0.050740764 0.17504925 -0.006976169 -0.042628843
-0.10750122 0.04077861 -0.074928015 -0.02933757 0.12900864 -0.04650596 -0.01668165 0.08046029
-0.032202266 -0.082588054 -0.002905114 -0.11727735 0.0074106227 0.03752453 -0.09092729 -0.05708231
-0.021006342 -0.03945066 -0.09810589 -0.0908794 0.1769014 0.004330944 -0.0716544 0.04135161
-0.05279625 -0.13228062 -0.017495656 -0.056365963 -0.00022252537 0.0011095173 0.09384766 -0.006101778
-0.022152353 -0.003365968 -0.03020619 -0.08134577 -0.07588633 -0.0052428986 -0.04591255 -0.028692033
-0.095860705 0.1929001 0.14792782 -0.09492966 0.01232396 -0.068100736 -0.06125108 0.27449918
0.1304197 0.08433624 -0.08349204 -0.12131614 -0.0016616074 -0.054621853 0.1426741 -0.12731971
0.009816598 -0.089217514 -0.08637981 -0.056048587 -0.056176126 -0.0006492002 -0.03774634 0.058185708
-0.059942495 -0.048483673 -0.119179085 0.033611357 -0.14486004 -0.12232485 -0.0908263 0.03622974
-0.038937155 0.06848054 -0.063338324 -0.036631055 -0.04440026 0.0150820175 -0.051280733 -0.07531987
0.023598284 0.093120106 -0.03377085 0.023628248 -0.024616135 -0.08718965 -0.089832686 0.036540408
-0.004190895 -0.14796214 -0.06608326 0.03796724 0.06720363 -0.05521225 -0.060348127 -0.097929515
00000000: f099 14bd d1f7 993c ef61 4abd 3f4b f4bd
00000010: fd62 7f3e c7b8 92bd cd46 d5bd 1965 593c
00000020: 0c8c a9bd 84ef a2bd c688 8bbd 99e5 f5bd
00000030: da7a 2dbd 1aba 15bd 8805 6bbd 500c 0fbe
00000040: b879 29be 5352 e63c 7b61 80bd fc09 7c3e
00000050: 4896 abbd 9ec6 7fbd 1165 68bd 3de6 0cbe
00000060: dae3 cd3e 4cf1 443e 1a36 c1bd 4eaf 62bd
00000070: 8cd5 4fbd 1c40 333e 5998 e4bb 959b 2ebd
00000080: 9a29 dcbd 7907 273d dc73 99bd 5855 f0bc
00000090: d71a 043e 097d 3ebd f5a7 88bc 5dc8 a43d
000000a0: 86e6 03bd ed23 a9bd ba63 3ebb 1b2f f0bd
000000b0: cfd4 f23b 52b3 193d 1638 babd 24cf 69bd
000000c0: 7e15 acbc 0497 21bd beeb c8bd fb1e babd
000000d0: a425 353e 97ea 8d3b 8bbf 92bd 4e60 293d
000000e0: e140 58bd 9274 07be 0d53 8fbc ffdf 66bd
000000f0: b355 69b9 396d 913a 3433 c03d 6cf1 c7bb
00000100: da78 b5bc 9297 5cbb f972 f7bc 9c98 a6bd
00000110: 4b6a 9bbd 9fcc abbb cc0e 3cbd 8e0b ebbc
00000120: 9e52 c4bd 9b87 453e 647a 173e 7b6a c2bd
00000130: 6fea 493c 6678 8bbd 6ae2 7abd 288b 8c3e
00000140: be8c 053e 7bb8 ac3d e0fd aabd 9974 f8bd
00000150: 4bca d9ba 2abb 5fbd 2919 123e 1960 02be
00000160: ccd5 203c acb7 b6bd e6e7 b0bd 3493 65bd
00000170: f018 66bd 172f 2aba e89b 1abd 2354 6e3d
00000180: 4386 75bd d196 46bd 2a14 f4bd 10ac 093d
00000190: 3156 14be 7385 fabd 2403 babd a365 143d
000001a0: 917c 1fbd 863f 8c3d 86b7 81bd 720a 16bd
000001b0: 0cdd 35bd 911a 773c bf0b 52bd 4e41 9abd
000001c0: 3051 c13c c1b5 be3d 4e53 0abd 0790 c13c
000001d0: c7a7 c9bc 7d90 b2bd 33fa b7bd 65ab 153d
000001e0: c653 89bb 6383 17be a956 87bd 8983 1b3d
000001f0: 0fa2 893d 3e26 62bd 992f 77bd 458f c8bd

cvae_parameters.dec_00_lin_w f4 [128, 35]
-0.059739437 0.025306989 0.1158686 0.051822912 -0.10731802 -0.069896296 0.0037444325 0.11750832
-0.07568203 -0.06471106 0.1028592 -0.019858615 0.03692441 -0.11912715 0.10141755 -0.09502609
-0.07418271 -0.021028923 0.091380045 -0.011919779 -0.028327703 -0.025637375 0.11820384 0.08682606
0.1091046 0.13629648 -0.088502 0.07453119 0.038562223 -0.088728264 -0.056778554 0.03275726
-0.00035368255 -0.04289014 0.0010811606 -0.034671023 -0.007480992 0.10979805 0.05814332 -0.028853195
-0.17241494 -0.0051495545 0.06397769 -0.08711283 -0.0724021 0.13210277 0.07940754 0.17661975
-0.12636673 0.067049265 -0.096020736 -0.17860126 -0.00092519197 0.12906583 0.0380648 -0.053894803
0.022160513 0.083322905 0.094169654 0.12084466 0.2106284 -0.044742852 0.06398991 0.11468887
-0.0019085772 -0.14120984 0.023072718 0.003883707 0.028831957 0.0030911975 -0.08562954 0.006065445
0.077147804 0.061767984 -0.100897886 -0.12511954 -0.013716033 0.107538015 -0.10760998 -0.07405814
0.119958386 -0.032509092 0.1081503 -0.12233631 0.09652819 -0.1136755 -0.11800966 0.037009683
0.078372166 0.0020730407 -0.068085894 0.012897241 0.08956319 0.07593783 0.0873988 0.1380047
-0.07047273 0.03671443 0.10568598 -0.06304596 -0.10657745 0.048784792 0.008837138 -0.040432483
-0.002624979 0.1027661 -0.024282277 -0.0077372724 -0.018593138 0.04829633 0.16581263 0.03615858
-0.010603251 0.14387748 -0.03999888 -0.024287734 -0.007063334 -0.15916042 0.022200378 -0.10101354
0.007941048 0.14033505 -0.0408446 -0.024790091 0.003394742 0.06808581 0.024873221 -0.0011873525
-0.035805102 -0.011361576 -0.1364289 0.0043431623 -0.048421346 0.019093147 0.023369912 0.08453593
-0.033967633 0.023934547 -0.11553769 0.009202233 0.061782457 0.07831286 -0.13516513 -0.11135862
0.14078544 -0.053115807 -0.02811302 -0.120833814 0.045341354 0.101105124 -0.11584348 0.15256727
0.013075827 0.11728912 -0.009850283 0.078570224 0.03162269 0.14109975 -0.13129763 -0.089939944
0.046607822 -0.07601269 -0.13846396 -0.14119944 -0.07584154 -0.02276339 0.09672287 -0.0073555224
-0.06524217 0.13525566 0.034804523 0.08692942 0.0025905704 0.25345695 -0.002687557 -0.019261941
-0.007158747 0.014388165 0.017526248 -0.009906691 0.022056667 0.029584324 -0.005531119 0.014891413
0.0081813345 0.0054122857 -0.012082261 0.022826018 0.01799603 0.0017047782 -0.022176353 -0.014145868
-0.010309926 -0.004327931 -0.0012486445 0.006865829 -0.0024959412 -0.020102357 0.010345532 0.0032160142
-0.027703945 0.017217116 -0.0048129614 -0.0125063555 0.006229026 -0.022337029 -0.007818316 0.007767412
-0.06089715 -0.007315981 -0.03820276 0.008005955 0.045917116 -0.03934122 -0.1148041 0.00031796677
0.061758738 0.05730685 -0.0026954226 -0.017140467 0.07663546 -0.15644324 -0.09071305 -0.11223322
0.009771752 -0.044748925 0.05683051 0.031858638 0.064152546 -0.061272185 -0.0073694084 -0.021202134
0.08677344 0.050401468 0.020706765 0.0038822857 -0.115550146 0.022829583 0.057639904 -0.078870416
0.012714269 -0.011526677 0.0046519153 -0.11928508 0.0192986 0.010099068 -0.053015992 -0.0013144631
0.023894887 -0.023912901 0.12433124 0.02167486 0.012541119 0.036936656 0.01697421 -0.008763787
00000000: 57b1 74bd 9a50 cf3c 844c ed3d 4344 543d
00000010: 8dc9 dbbd ca25 8fbd 2765 753b 34a8 f03d
00000020: 2eff 9abd 3b87 84bd d8a7 d23d 89ae a2bc
00000030: 0d3e 173d eff8 f3bd 01b4 cf3d 0a9d c2bd
00000040: 1bed 97bd d944 acbc 7625 bb3d 2d4b 43bc
00000050: 800f e8bc 7905 d2bc db14 f23d ddd1 b13d
00000060: 3c72 df3d 4e91 0b3e 8940 b5bd cfa3 983d
00000070: 6cf3 1d3d 2ab7 b5bd a190 68bd 7a2c 063d
00000080: 786e b9b9 92ad 2fbd bbb5 8d3a 3403 0ebd
00000090: 1c23 f5bb cddd e03d b127 6e3d 895d ecbc
000000a0: 8b8d 30be 98bd a8bb bc06 833d 3668 b2bd
000000b0: 8d47 94bd f345 073e 6ca0 a23d cfdb 343e
000000c0: 4866 01be 2051 893d 85a6 c4bd 40e3 36be
000000d0: 9588 72ba d529 043e d6e9 1b3d ccc0 5cbd
000000e0: f789 b53c 33a5 aa3d 05dc c03d 687d f73d
000000f0: f9ae 573e 4844 37bd 240d 833d 00e2 ea3d
00000100: 3929 faba 5099 10be ff02 bd3c cb85 7e3b
00000110: ff30 ec3c b095 4a3b 8a5e afbd a4c0 c63b
00000120: abff 9d3d 6d00 7d3d 8da3 cebd 561f 00be
00000130: 36b9 60bc e43c dc3d 9f62 dcbd cbab 97bd
00000140: beac f53d 4128 05bd e87d dd3d 768b fabd
00000150: 92b0 c53d b3ce e8bd 0caf f1bd 7797 173d
00000160: 9681 a03d dadb 073b 9e70 8bbd f34e 533c
00000170: e86c b73d 4b85 9b3d 24fe b23d 1b51 0d3e
00000180: 0254 90bd df61 163d e471 d83d 3e1e 81bd
00000190: 4745 dabd 90d2 473d a5c9 103c 889c 25bd
000001a0: d707 2cbb 0877 d23d a0eb c6bc f288 fdbb
000001b0: a350 98bc 5fd2 453d c9ca 293e 051b 143d
000001c0: 42b9 2dbc 9e54 133e ded5 23bd 12f7 c6bc
000001d0: 8a73 e7bb f3fa 22be 91dd b53c 30e0 cebd
000001e0: 2b1b 023c feb3 0f3e ab4c 27bd 9714 cbbc
000001f0: 527a 5e3b 9370 8b3d edc2 cb3c f0a0 9bba
00000200: 5fa8 12bd e725 3abc 04b4 0bbe 1651 8e3b
00000210: 7655 46bd 3b69 9c3c 4272 bf3c 2c21 ad3d
00000220: a521 0bbd 6212 c43c 069f ecbd f6c4 163c
00000230: 9a0f 7d3d 7e62 a03d ba68 0abe fd0f e4bd
00000240: 0f2a 103e f68f 59bd 474d e6bc b877 f7bd
00000250: dbb7 393d 3410 cf3d 593f edbd 983a 1c3e
00000260: fe3b 563c 4735 f03d 1563 21bc 6de9 a03d
00000270: cb86 013d 747c 103e e372 06be 6f32 b8bd
00000280: d8e7 3e3d 8bac 9bbd 7fc9 0dbe 9696 10be
00000290: cf52 9bbd 4a7a babc a416 c63d 9806 f1bb
000002a0: b09d 85bd 7680 0a3e 308f 0e3d 0d08 b23d
000002b0: 8fc6 293b 1cc5 813e b921 30bb 38cb 9dbc
000002c0: ec93 eabb 57bc 6b3c 3593 8f3c ac4f 22bc
000002d0: 2fb0 b43c d35a f23c 643e b5bb 1dfb 733c
000002e0: 010b 063c 8b59 b13b adf4 45bc a1fd ba3c
000002f0: 696c 933c dd72 df3a 2fab b5bc 12c4 67bc
00000300: f7ea 28bc 51d1 8dbb 8fa9 a3ba c0fa e03b
00000310: f292 23bb b3ad a4bc 4e80 293c c4c3 523b
00000320: 62f3 e2bc e90a 8d3c 0cb6 9dbb 75e7 4cbc
00000330: db1c cc3b 25fc b6bc 6518 00bc c685 fe3b
00000340: 4a6f 79bd e6ba efbb 7f7a 1cbd 692b 033c
00000350: 9613 3c3d 4224 21bd 691e ebbd c7b4 a639
00000360: bbf6 7c3d 96ba 6a3d b0a5 30bb 2a6a 8cbc
00000370: 0df3 9c3d a832 20be c3c7 b9bd 88da e5bd
00000380: b319 203c a64a 37bd 1cc7 683d 347e 023d
00000390: 6962 833d 8bf8 7abd 147b f1bb 19b0 adbc
000003a0: 46b6 b13d c571 4e3d 3ca1 a93c f26d 7e3b
000003b0: 8ea5 ecbd 1b05 bb3c d217 6c3d d086 a1bd
000003c0: 824f 503c 63da 3cbc 186f 983b bc4b f4bd
000003d0: 1918 9e3c 9076 253c 4c27 59bd 104a acba
000003e0: 36bf c33c fde4 c3bc 61a1 fe3d 7a8f b13c
000003f0: 4479 4d3c e44a 173d 800d 8b3c fd95 0fbc

cvae_parameters.dec_01_lin_b f4 [128]
-0.008203261 -0.024958977 -0.005995037 0.012282922 -0.0059951395 -0.009595508 -0.0014964453 0.045866195
-0.11364984 -0.016157208 -0.0020475646 -0.018478192 -0.008140576 -0.010806518 -0.005995128 -0.009531374
0.028510341 -0.017778829 -0.014452727 -0.016337119 0.03268458 -0.027245458 0.012270777 -0.016948929
0.011842867 -0.005938613 0.016222736 -0.007674836 0.010947947 0.04049422 2.0103937e-05 -0.005989437
0.017312417 -0.053522237 -0.010914953 -0.018054508 -0.0033509112 -0.0076238587 -0.055277288 -0.009738535
-0.007587572 -0.0055846423 -0.011017673 -0.027030716 0.020813838 -0.01732955 0.008858076 -0.063935734
0.066378 -0.08208598 0.02568044 -0.012295542 -0.03816722 0.11165681 -0.032217197 0.047612395
-0.0047018463 0.41104 0.006652395 0.057858698 -0.013069835 0.018757937 -0.005995151 -0.015807066
-0.01214608 0.099323526 -0.021695802 -0.08345463 -0.0059117666 -0.018607508 0.010102878 -0.012109044
0.17663261 -0.0009668296 -0.0059950887 -0.0147722205 -0.029674126 -0.009811425 -0.0059130066 -0.010402288
-0.006787509 0.024867339 0.0054325527 -0.005722929 -0.0059951576 0.023006584 -0.060955886 -0.0097000925
-0.011272377 -0.0122933 -0.0059950287 -0.051586628 -0.0087519055 0.07098677 -0.012310555 -0.0059951204
0.025905803 -0.018840369 0.07607013 -0.0030344306 -0.0061839414 -0.01140527 -0.01637712 -0.005995096
-0.005936407 -0.005994729 -0.0070402715 -0.011786514 -0.026459834 0.06971921 -0.027942605 0.12824425
-0.044703145 -0.030589376 -0.0048462804 -0.006227967 0.10220516 -0.010827714 -0.008870735 -0.02469094
-0.040120948 -0.018813817 0.093023956 -0.0060733217 -0.005797197 -0.005742683 -0.019854283 0.03655222
00000000: f866 06bc c576 ccbc 0472 c4bb 4f3e 493c
00000010: e072 c4bb 7a36 1dbc 5f24 c4ba 31de 3b3d
00000020: 3fc1 e8bd 1f5c 84bc 6f30 06bb 945f 97bc
00000030: 0d60 05bc d20d 31bc c772 c4bb 7b29 1cbc
00000040: 858e e93c e8a4 91bc 21cb 6cbc 6cd5 85bc
00000050: 44e0 053d de31 dfbc 5e0b 493c 7bd8 8abc
00000060: 9608 423c b298 c2bb 8be5 843c 317d fbbb
00000070: 055f 333c 44dd 253d e0a4 a837 0a43 c4bb
00000080: c5d2 8d3c 223a 5bbd a2d4 32bc 0ce7 93bc
00000090: f69a 5bbb 90d1 f9bb 706a 62bd 608e 1fbc
000000a0: 2ba1 f8bb 60ff b6bb 7883 34bc 856f ddbc
000000b0: c881 aa3c b3f6 8dbc 7721 113c bdf0 82bd
000000c0: 30f1 873d b21c a8bd c95f d23c 3e73 49bc
000000d0: 3b55 1cbd 53ac e43d 2ef6 03bd 3705 433d
000000e0: f211 9abb d673 d23e 55fc d93b 3efd 6c3d
000000f0: dc22 56bc 3faa 993c f972 c4bb d27d 81bc
00000100: 5a00 47bc 226a cb3d 65bb b1bc 43ea aabd
00000110: 7eb7 c1bb c66e 98bc 8b86 253c 0365 46bc
00000120: 2edf 343e d672 7dba 7372 c4bb 2f07 72bc
00000130: 2717 f3bc 19c0 20bc e5c1 c1bb 5c6e 2abc
00000140: c169 debb 97b6 cb3c 8e03 b23b 6887 bbbb
00000150: 0773 c4bb 4e78 bc3c e1ac 79bd 23ed 1ebc
00000160: c7af 38bc d669 49bc f271 c4bb 804c 53bd
00000170: 2764 0fbc 8361 913d 36b2 49bc b772 c4bb
00000180: 6838 d43c 1e57 9abc a8ca 9b3d 4cdd 46bb
00000190: a9a2 cabb 2bdd 3abc 4f29 86bc 8372 c4bb
000001a0: 3186 c2bb 6f6f c4bb 14b2 e6bb 391c 41bc
000001b0: 4bc2 d8bc f2c8 8e3d e4e7 e4bc 7652 033e
000001c0: a51a 37bd 9296 fabc 8ccd 9ebb f913 ccbb
000001d0: f050 d13d b966 31bc 8f56 11bc a744 cabc
000001e0: dd55 24bd 6f1f 9abc 5883 be3d b702 c7bb
000001f0: 6af6 bdbb 1e2d bcbb 73a5 a2bc c8b7 153d

cvae_parameters.dec_01_lin_w f4 [128, 128]
-0.012617192 -0.0051923846 0.016259205 -0.0009037037 -0.022914939 0.000109913264 0.008053666 -0.005088544
0.010798735 -0.016443258 -0.004595019 -0.010209233 0.0072613596 -0.02636898 -0.0034266436 -0.015751865
-0.004423889 -0.007733474 0.028742256 -0.021858692 -0.017700214 0.008635628 -0.0087971175 -0.0043957145
0.00027139205 -0.012665884 0.0164577 0.004950991 -0.007664884 -0.0109851705 -0.0072673806 0.0017387543
-0.0038484104 -0.010962537 0.0017734683 -0.016263608 -0.026034042 -0.0022297965 0.00788358 -0.0060682734
-0.002283614 0.002023727 -0.010637775 -0.030041747 -0.00041671956 0.013547781 -0.011598517 0.011179171
0.003992569 -0.018838476 -0.00072997395 0.0113261845 0.00090786413 0.0018205887 -0.00021003293 -0.004274197
0.006461418 0.020075943 -0.0037375698 0.005213526 -0.010254549 -0.0046411227 -0.016482152 -0.01333509
0.011602903 0.0028913617 -0.022555375 0.010028831 -0.0013970284 0.01915475 -0.0052247206 -0.009344057
-0.024515707 0.0014520861 -0.028086409 -0.0038336688 0.015147957 0.020922702 -0.0028739886 -0.011472203
0.0043867845 -0.018676138 0.028156558 -0.00941647 -0.0024383704 -0.008341283 -0.0062000994 0.005724034
0.009942527 0.015637962 -0.004383588 -0.016778039 0.0071448237 1.44609885e-05 0.0009394165 -0.013831556
-0.005490624 0.009073711 0.0009856117 0.0018247956 -0.0029464574 -0.016066413 -0.0020968884 -0.0059647467
-0.008558178 0.014370646 -0.007748573 -0.005693231 0.010884808 -0.028531091 -0.016285142 -0.004069795
-0.0054695588 0.007667175 -0.008622413 -0.0030413675 -0.010918755 0.0008519595 -0.010226481 -0.03956831
-0.004782073 -0.018202337 -0.006700972 -0.0131947445 0.0019543692 -0.018969331 -0.0032235777 -5.7903657e-05
-0.003554692 0.00203573 -0.006023485 -0.020511175 -0.021476306 0.004981671 0.00343912 -0.015428123
0.0010787804 -0.0041989414 -0.0051367725 0.011385577 -0.0067062434 -0.011825068 -0.009213439 0.0024802678
-0.016998654 -0.014120471 -0.021104986 -0.07798112 -0.014010809 -0.0024158217 -0.013400649 -0.01829625
-0.120735675 -0.0010053862 0.0059643383 -0.0069061765 -0.006426013 0.0011101981 -0.0036230257 -0.009923711
0.013946321 -0.0079980865 0.0021855442 -0.018574042 -0.117413945 0.020620868 0.003019369 -0.010156088
-0.012890475 -0.01165238 -0.0018919804 0.0018268431 -0.009389603 -0.0076978696 0.013930257 -0.009116458
-0.019310046 0.024582943 0.013959841 -0.0015893895 -0.0024923158 0.004171709 0.02056458 -0.013775479
0.0020889514 0.013378285 -0.01678957 -0.012620347 0.0031962488 0.0034220535 0.011105019 -0.0016354285
-0.00083357247 -0.008642916 -0.022162398 0.007867372 -0.008832127 -0.0010683078 -0.01044712 0.010017856
-0.014166978 -0.08171958 -0.1322912 -0.023747548 -6.51618e-05 0.0025049117 0.0021980347 -0.11858596
-0.011315724 -0.0028103753 -0.0004415486 -0.0037313108 -0.0018782247 -0.012475796 -0.004833816 -0.0117098065
-0.009793923 -0.012245444 -0.005992204 -0.005716092 -0.0025014507 -0.012330372 0.0028522993 -0.014217581
0.004923435 0.0001851909 0.013297723 -0.012589811 -0.013864334 -0.01123234 0.0100450795 0.017846143
-0.009423794 0.0047583235 -0.0037297572 -0.00896212 -0.0052757533 0.007959777 0.008795288 0.0020387922
-0.0010819642 0.0042923028 -0.0042863786 -0.016347706 -0.012256126 -0.013874651 -0.004760233 -0.04306858
0.0026612303 -0.02425531 -0.0017416157 -0.008225435 -0.02294151 0.013097315 -0.010723424 0.00864398
00000000: 57b8 4ebc e124 aabb 0632 853c 87e6 6cba
00000010: 1cb8 bbbc 3c81 e638 86f3 033c cdbd a6bb
00000020: 2ded 303c 03b4 86bc d091 96bb a044 27bc
00000030: b3f0 ed3b c203 d8bc 8a91 60bb 0e0a 81bc
00000040: 45f6 90bb 1569 fdbb e174 eb3c 0011 b3bc
00000050: 0a00 91bc 737c 0d3c c921 10bc ed09 90bb
00000060: a049 8e39 9184 4fbc 4cd2 863c ec3b a23b
00000070: b529 fbbb 25fb 33bc 3523 eebb eae6 e33a
00000080: 9d35 7cbb 369c 33bc b973 e83a 423b 85bc
00000090: 5845 d5bc c721 12bb 222a 013c 5ed8 c6bb
000000a0: afa8 15bb 81a0 043b 104a 2ebc 1c1a f6bc
000000b0: 277b dab9 83f7 5d3c b507 3ebc d728 373c
000000c0: 19d4 823b 2653 9abc b95b 3fba 7691 393c
000000d0: bbfd 6d3a d2a0 ee3a 493c 5cb9 900e 8cbb
000000e0: 4dba d33b 4e76 a43c 04f2 74bb 3ad6 aa3b
000000f0: b202 28bc 8f14 98bb 9405 87bc 6c7b 5abc
00000100: 1a1a 3e3c 007d 3d3b 0dc6 b8bc f74f 243c
00000110: 7f1c b7ba 6cea 9c3c 2234 abbb d117 19bc
00000120: 2ad5 c8bc ed53 be3a 7815 e6bc 4a3e 7bbb
00000130: 232f 783c 1666 ab3c 8759 3cbb e8f5 3bbc
00000140: 04bf 8f3b b3fe 98bc 95a8 e63c 8a47 1abc
00000150: 11cd 1fbb e0a9 08bc 342a cbbb ad90 bb3b
00000160: fbe5 223c 2f1b 803c 34a4 8fbb 1972 89bc
00000170: 201f ea3b 799d 7237 2d43 763a c09d 62bc
00000180: b1ea b3bb e7a9 143c a42f 813a fb2d ef3a
00000190: 5a19 41bb b69d 83bc f36b 09bb ec73 c3bb
000001a0: 9a37 0cbc dc72 6b3c bee7 fdbb 488e babb
000001b0: 3256 323c 09ba e9bc 6b68 85bc ea5b 85bb
000001c0: fc39 b3bb ed3c fb3b 0545 0dbc ae51 47bb
000001d0: 94e4 32bc 0956 5f3a f88c 27bc 6112 22bd
000001e0: f0b2 9cbb 111d 95bc d493 dbbb c52e 58bc
000001f0: e014 003b 9265 9bbc a942 53bb 94dd 72b8
00000200: d6f5 68bb e269 053b a860 c5bb 0d07 a8bc
00000210: 14ef afbc 493d a33b dc62 613b 3dc6 7cbc
00000220: dd65 8d3a 4697 89bb 5f52 a8bb 928a 3a3c
00000230: 0cc0 dbbb eebd 41bc f7f3 16bc fd8b 223b
00000240: c340 8bbc 8c59 67bc 5de4 acbc 91b4 9fbd
00000250: 988d 65bc c352 1ebb 658e 5bbc 04e2 95bc
00000260: 4444 f7bd 2ac7 83ba 7f70 c33b 354d e2bb
00000270: 4e91 d2bb 1184 913a 4970 6dbb 1097 22bc
00000280: 1c7f 643c 680a 03bc 593b 0f3b 9728 98bc
00000290: b976 f0bd 18ed a83c 9be0 453b b865 26bc
000002a0: 9232 53bc a0e9 3ebc 54fc f7ba af72 ef3a
000002b0: d9d6 19bc 693e fcbb bc3b 643c 325d 15bc
000002c0: 1a30 9ebc 2b62 c93c d1b7 643c 1053 d0ba
000002d0: 1f56 23bb d5b2 883b 0d77 a83c 8cb2 61bc
000002e0: cae6 083b 9830 5b3c 488a 89bc 92c5 4ebc
000002f0: 2878 513b 8844 603b d3f1 353c e05b d6ba
00000300: 1a84 5aba 049b 0dbc eb8d b5bc 26e6 003c
00000310: a0b4 10bc 7606 8cba 662a 2bbc ef21 243c
00000320: 9d1c 68bc 985c a7bd 5877 07be 388a c2bc
00000330: 7aa7 88b8 7229 243b e70c 103b 32dd f2bd
00000340: 9665 39bc 462e 38bb a67f e7b9 0289 74bb
00000350: c32e f6ba 4867 4cbc fd64 9ebb 7dda 3fbc
00000360: b176 20bc 1da1 48bc 405a c4bb 0e4e bbbb
00000370: 61ef 23bb 5405 4abc a4ed 3a3b dbf0 68bc
00000380: c454 a13b ce2f 4239 b1de 593c 7f45 4ebc
00000390: 3b27 63bc d907 38bc 1e94 243c 1332 923c
000003a0: 4266 1abc b6eb 9b3b f16e 74bb dbd5 12bc
000003b0: 3ae0 acbb b969 023c 1d1a 103c 429d 053b
000003c0: b2d0 8dba 72a6 8c3b c074 8cbb a0eb 85bc
000003d0: ebcd 48bc 8152 63bc bbfb 9bbb ae68 30bd
000003e0: 0968 2e3b 12b3 c6bc ed46 e4ba fac3 06bc
000003f0: d5ef bbbc 1f96 563c 4db1 2fbc 7b9f 0d3c

cvae_parameters.enc_00_lin_b f4 [128]
-0.15951505 -0.11517362 -0.13162751 -0.07620799 -0.07627453 -0.12767687 -0.1276554 -0.12675892
-0.1388157 -0.039811034 -0.04239807 -0.06370877 -0.11534188 -0.117219 -0.05461734 -0.061429013
0.062173203 -0.011584305 0.0655749 -0.04061453 -0.08978909 -0.13471803 -0.08270904 -0.123770714
0.018573182 0.057723824 -0.007591334 -0.06748632 -0.11955468 -0.09988376 -0.07303469 0.06666308
-0.1141463 -0.16474457 -0.038637627 -0.11781194 -0.050439414 0.041110843 -0.12588023 -0.11029889
-0.14213592 -0.06784221 0.084521234 0.09209181 -0.11795166 -0.1201139 -0.12881933 -0.117323734
-0.07593569 -0.13909377 -0.12881982 0.117663704 -0.01652106 -0.091814786 -0.13061444 -0.13525775
0.034605086 -0.07311838 -0.15235402 -0.11663777 -0.1176762 -0.043740183 -0.11459096 -0.12798356
-0.021272345 -0.06158016 -0.12574105 -0.12572402 0.15794052 -0.09370166 -0.058612403 0.0885086
-0.15526374 -0.121892534 -0.09823574 -0.11337811 -0.115467146 -0.10977896 -0.006660062 -0.11891064
-0.13955683 -0.04211269 -0.110039994 -0.018834444 -0.116599664 -0.115353435 -0.0033842272 -0.11677047
-0.11617121 -0.14155369 -0.111691505 0.020831846 -0.022481877 -0.13455877 -0.067257 -0.004909061
-0.044658538 -0.105674125 0.016847167 -0.11696076 -0.12638637 -0.12054281 0.14394908 0.004289687
0.06629238 -0.1221608 -0.13307872 -0.101196066 -0.12992606 0.08666492 -0.114217445 -0.12773712
0.07758824 -0.041322134 -0.038957376 0.08620422 -0.12425103 -0.06866605 -0.08396683 -0.067891136
-0.09675307 -0.11683503 -0.042846393 -0.078152664 -0.096468754 -0.06534411 -0.14283597 -0.11304852
00000000: ea57 23be 26e0 ebbd 5dc9 06be ef12 9cbd
00000010: d235 9cbd babd 02be 19b8 02be 17cd 01be
00000020: b425 0ebe e510 23bd 99a9 2dbd be79 82bd
00000030: 5d38 ecbd 8410 f0bd 6fb6 5fbd fd9c 7bbd
00000040: 54a9 7e3d 19cc 3dbc 224c 863d 6c5b 26bd
00000050: 58e3 b7bd 86f3 09be 5b63 a9bd 807b fdbd
00000060: c926 983c d16f 6c3d bac0 f8bb 4536 8abd
00000070: 16d9 f4bd db8f ccbd 3693 95bd a786 883d
00000080: 89c5 e9bd cdb2 28be 7d42 1ebd 6347 f1bd
00000090: 8f99 4ebd d863 283d bfe6 00be 62e4 e1bd
000000a0: 148c 11be dbf0 8abd 7819 ad3d a29a bc3d
000000b0: a490 f1bd 47fe f5bd 37e9 03be 6d47 f0bd
000000c0: 2c84 9bbd 996e 0ebe 58e9 03be abf9 f03d
000000d0: 2d57 87bc 6409 bcbd cbbf 05be 0281 0abe
000000e0: 10be 0d3d 17bf 95bd b102 1cbe c8df eebd
000000f0: 3800 f1bd e828 33bd aaae eabd 1f0e 03be
00000100: 5743 aebc 7a3b 7cbd 43c2 00be ccbd 00be
00000110: 29bb 213e a8e6 bfbd 8f13 70bd ff43 b53d
00000120: 75fd 1ebe cba2 f9bd d22f c9bd c832 e8bd
00000130: 0a7a ecbd cbd3 e0bd a63c dabb 6c87 f3bd
00000140: fce7 0ebe 5b7e 2cbd a65c e1bd b14a 9abc
00000150: cecb eebd 6c3e ecbd e9c9 5dbb 5b25 efbd
00000160: 2ceb edbd 73f3 10be 84be e4bd 8ca7 aa3c
00000170: ea2b b8bc c6c9 09be 0abe 89bd 30dc a0bb
00000180: dfeb 36bd ad6b d8bd 1203 8a3c 1f89 efbd
00000190: 6e6b 01be 26df f6bd 6367 133e 8190 8c3b
000001a0: 4dc4 873d 712f fabd ca45 08be e23f cfbd
000001b0: 560b 05be 617d b13d d6ea e9bd 85cd 02be
000001c0: 95e6 9e3d 6641 29bd c591 1fbd d78b b03d
000001d0: 5377 febd c9a0 8cbd cdf6 abbd 820a 8bbd
000001e0: 7926 c6bd 3447 efbd b37f 2fbd 810e a0bd
000001f0: 6991 c5bd 22d3 85bd 9843 12be fc85 e7bd

cvae_parameters.enc_00_lin_w f4 [128, 163]
-0.1261194 -0.09545475 -0.10729768 -0.08108811 -0.0867331 -0.08272214 -0.10166481 -0.09506015
-0.12168871 -0.028685804 0.036858458 -0.0683689 -0.04460659 0.00213227 -0.0939063 -0.031028869
-0.13375317 -0.00898626 0.08131938 -0.061521824 0.016908469 0.04891343 -0.02568777 0.0603715
-0.08530644 -0.0383863 0.0677692 -0.0080786105 0.020175086 0.020168005 -0.04761228 0.02574924
0.043520864 -0.019624034 0.014679387 0.04658949 -0.037246093 0.07883228 -0.0067307805 -0.00027448934
0.049382582 -0.099748805 0.03408675 -0.03150217 -0.09544882 0.07886592 -0.011629028 -0.056749713
-0.05289112 -0.09192306 -0.0069987765 -0.062061414 -0.12211135 0.0032560762 0.022985786 -0.07879813
-0.03281923 -0.0070964596 -0.0028311738 0.011639026 -0.052767105 0.009094109 -0.052070256 -0.01637784
0.06380564 -0.022893963 -0.0028694323 0.037549347 -0.03291338 0.013605082 -0.07589986 0.032737173
-0.020776741 -0.026074018 -0.019201636 0.029452039 -0.028773213 -0.0354348 0.024288187 -0.015430297
-0.042290665 0.043865904 0.024111632 0.040725708 0.09530742 -0.02219496 0.025601422 -0.015867617
-0.080607064 0.04383373 0.019616773 0.05839439 0.03997839 -0.078367755 -0.13201576 -0.025541758
-0.05038422 -0.15184504 0.11047485 -0.018104719 -0.058230292 -0.06419883 -0.12193079 0.012750031
-0.098474264 -0.12419493 0.06919736 -0.042469434 -0.15151602 -0.041997958 -0.12323445 -0.04417181
-0.011580099 -0.08561746 0.04918922 0.016428957 -0.17832376 -0.036429018 -0.15664256 0.01949579
0.002076996 -0.11190081 0.026316538 0.07308691 -0.018451637 -0.062939994 -0.17813277 0.054295488
-0.024576806 -0.08841983 0.01428374 0.048688956 -0.04511809 -0.026020419 -0.08216238 0.015764862
0.02469007 -0.019915173 -0.023327878 0.013052775 -0.116538405 -0.006428691 -0.054379504 -0.059649725
-0.082127735 -0.015786326 -0.08692621 -0.00024729338 -0.078415565 -0.027864583 -0.04981367 -0.064479254
-0.11405055 -0.08912715 -0.12471343 -0.07452666 -0.10685123 -0.08343239 -0.10784172 -0.07070618
0.009671456 -0.16943039 0.0030160542 -0.06875559 -0.023330722 -0.064242855 -0.02299702 -0.042813662
-0.04923709 -0.0643747 -0.02507961 -0.061736178 0.039818734 0.018599764 0.031637687 -0.04306085
0.018991465 -0.030511832 -0.025514549 -0.113599345 0.11426348 0.039907243 0.021578955 -0.0057243085
0.033105176 0.012757172 0.006019642 -0.044113133 0.058656026 -0.033269368 -0.0843691 -0.013667626
0.08457485 -0.019588934 0.036582414 0.07550707 0.10342658 -0.0021516038 -0.028012013 0.014706296
0.069798045 -0.03013317 0.07226181 0.07975381 -0.03762741 0.07621272 0.039001316 0.0699778
0.025987318 0.050880104 0.013880624 0.045026436 -0.047063578 0.041505914 0.0625908 0.13015817
0.0077014673 0.0265445 -0.017695077 0.008745002 0.07423033 -0.015245189 0.09082753 0.14513204
-0.06180648 0.09357823 0.056208156 -0.032115813 0.066024475 0.029174492 0.048268557 0.102934875
0.004904968 0.0531462 0.082795605 -0.031919297 0.06254877 0.08127349 0.06595919 0.020705681
-0.04280347 -0.04929404 0.054221652 -0.027062556 0.09930775 0.17369257 0.15453324 0.037555147
-0.040723674 -0.0002839363 0.08656254 0.07721422 0.07794925 0.14164558 0.16030666 0.04092824
00000000: 7225 01be c87d c3bd e3be dbbd 8611 a6bd
00000010: 20a1 b1bd 3a6a a9bd a435 d0bd e5ae c2bd
00000020: ee37 f9bd 7efe eabc e5f8 163d fe04 8cbd
00000030: 66b5 36bd 8ebd 0b3b f251 c0bd 4130 febc
00000040: 97f6 08be 1b3b 13bc c68a a63d 4ffe 7bbd
00000050: a183 8a3c 7359 483d 296f d2bc 1b48 773d
00000060: 25b5 aebd f43a 1dbd 94ca 8a3d 265c 04bc
00000070: 3946 a53c 5f37 a53c 1805 43bd 12f0 d23c
00000080: ef42 323d 95c2 a0bc d081 703c 9fd4 3e3d
00000090: 5c8f 18bd d272 a13d e18d dcbb 56e9 8fb9
000000a0: 6445 4a3d 1a49 ccbd 8c9e 0b3d 6b08 01bd
000000b0: ac7a c3bd 7584 a13d ae87 3ebc 6372 68bd
000000c0: 5ca4 58bd 2842 bcbd fe55 e5bb 1c34 7ebd
000000d0: 8415 fabd e563 553b b04c bc3c ea60 a1bd
000000e0: 756d 06bd 6b89 e8bb 378b 39bb 9db1 3e3c
000000f0: 5222 58bd 75ff 143c 9f47 55bd d22a 86bc
00000100: 88ac 823d 1f8c bbbc 160d 3cbb 58cd 193d
00000110: 2ed0 06bd dae7 5e3c 6371 9bbd 6a17 063d
00000120: fc33 aabc 2e99 d5bc c04c 9dbc 6745 f13c
00000130: cdb5 ebbc 1524 11bd 05f8 c63c 5bcf 7cbc
00000140: fa38 2dbd bcac 333d c285 c53c 00d0 263d
00000150: 8930 c33d 34d2 b5bc 13ba d13c cefc 81bc
00000160: 5115 a5bd ff8a 333d 5bb3 a03c f52e 6f3d
00000170: 61c0 233d 467f a0bd 242f 07be f33c d1bc
00000180: af5f 4ebd 447d 1bbe a340 e23d 5950 94bc
00000190: e382 6ebd ad7a 83bd dab6 f9bd 82e5 503c
000001a0: e0ac c9bd e959 febd 58b7 8d3d 6ef4 2dbd
000001b0: 0427 1bbe 0d06 2cbd 5862 fcbd 80ed 34bd
000001c0: 75ba 3dbc 3558 afbd a37a 493d 0596 863c
000001d0: 819a 36be 9836 15bd e866 20be a3b5 9f3c
000001e0: 361e 083b 402c e5bd c895 d73c 97ae 953d
000001f0: e327 97bc afe6 80bd 7068 36be f264 5e3d
00000200: 4c55 c9bc 7515 b5bd 5906 6a3c 126e 473d
00000210: bfcd 38bd c628 d5bc c044 a8bd 5025 813c
00000220: d442 ca3c 2525 a3bc 1b1a bfbc 4edb 553c
00000230: b0ab eebd c5a7 d2bb 0bbd 5ebd 4553 74bd
00000240: 9632 a8bd 5352 81bc 5e06 b2bd 28a7 81b9
00000250: 5798 a0bd 4444 e4bc 6b09 4cbd b30d 84bd
00000260: 5693 e9bd 4c88 b6bd c169 ffbd 6fa1 98bd
00000270: d1d4 dabd 9ade aabd 1fdc dcbd 67ce 90bd
00000280: 0775 1e3c 297f 2dbe fea8 453b bbcf 8cbd
00000290: 1220 bfbc c291 83bd 3f64 bcbc 615d 2fbd
000002a0: d5ac 49bd e2d6 83bd c173 cdbc 13df 7cbd
000002b0: f818 233d 885e 983c 8596 013d 9360 30bd
000002c0: fd93 9b3c f3f3 f9bc e303 d1bc c6a6 e8bd
000002d0: f902 ea3d c775 233d 59c6 b03c fb92 bbbb
000002e0: 4b99 073d 7503 513c 6b40 c53b f9af 34bd
000002f0: 4d41 703d 7645 08bd b5c9 acbd 2eee 5fbc
00000300: 9435 ad3d f978 a0bc 71d7 153d 73a3 9a3d
00000310: 51d1 d33d ec01 0dbb 7379 e5bc adf2 703c
00000320: 47f2 8e3d d6d9 f6bc 00fe 933d f755 a33d
00000330: 331f 1abd 6a15 9c3d d8bf 1f3d 8550 8f3d
00000340: 5be3 d43c a867 503d 8f6b 633c a46d 383d
00000350: bdc5 40bd 1b02 2a3d 9b2f 803d 2f48 053e
00000360: 975c fc3b da73 d93c 44f5 90bc 3247 0f3c
00000370: 1206 983d f5c6 79bc c903 ba3d 7e9d 143e
00000380: cb28 7dbd f1a5 bf3d 863a 663d df8b 03bd
00000390: d737 873d 58ff ee3c 40b5 453d 85cf d23d
000003a0: dbb9 a03b d4af 593d be90 a93d cfbd 02bd
000003b0: 9219 803d b772 a63d 9d15 873d f69e a93c
000003c0: b152 2fbd 8ce8 49bd 8617 5e3d 4bb2 ddbc
000003d0: dd61 cb3d 77dc 313e f63d 1e3e 6dd3 193d
000003e0: decd 26bd 49dd 94b9 b347 b13d 7d22 9e3d
000003f0: dba3 9f3d 8a0b 113e 6e27 243e 5fa4 273d

cvae_parameters.enc_01_lin_b f4 [128]
-0.0063206237 -0.061181486 0.033214245 -0.04512408 -0.06767983 -0.06893574 -0.041103162 -0.008009133
-0.056297395 -0.047700737 -0.006785299 -0.050922707 -0.047112517 -0.026394961 -0.067877956 -0.014206681
-0.050153654 -0.04929697 0.03257035 -0.0074065905 -0.08153075 -0.068805285 0.0992069 -0.022613354
-0.057155296 -0.06829303 -0.007521858 -0.046533577 -0.0101085445 -0.051839128 -0.029528355 -0.008369071
-0.046513602 -0.0078485245 -0.044443402 -0.005091217 -0.045953497 -0.06740921 -0.069808945 -0.0047804476
-0.049833808 -0.036456317 -0.038534164 -0.021067433 0.078667365 -0.034975864 -0.005924646 -0.008516745
-0.04628667 -0.049647357 -0.0060832603 -0.057696696 -0.014829428 -0.030198438 -0.07222343 -0.07914873
-0.01064502 -0.0058712424 -0.010137205 -0.053441238 -0.0058891024 -0.025379624 -0.081302166 -0.042929024
-0.039862778 -0.0077614626 -0.011462453 -0.0026095856 -0.06895306 -0.011100315 -0.005239876 -0.043871522
-0.02251385 -0.064726144 -0.06727486 -0.05084845 -0.060359374 -0.009051195 -0.047504276 -0.06478831
-0.008317127 -0.04876666 -0.051322155 -0.023284746 -0.056357432 -0.043824293 -0.0573318 -0.015170796
-0.04566381 -0.044988867 -0.04853853 -0.01841629 -0.067059375 -0.07006146 -0.07149021 -0.012330133
-0.06603536 -0.06938207 -0.048392486 -0.05537951 -0.04596939 -0.05179123 -0.008066749 -0.052181408
-0.07007046 -0.0632341 -0.054773156 -0.009626255 0.039856255 -0.021575646 -0.052043196 -0.021484751
-0.07370558 -0.04642641 -0.012867402 -0.0047418205 -0.0071342494 -0.052887946 -0.049938776 -0.04185127
-0.009616455 -0.01063922 -0.056514356 -0.068183206 -0.06596557 -0.079763524 -0.008162598 -0.06521554
00000000: 3c1d cfbb 7099 7abd a90b 083d 07d4 38bd
00000010: b99b 8abd 2e2e 8dbd ca5b 28bd bd38 03bc
00000020: 1998 66bd d961 43bd 3757 debb 5494 50bd
00000030: 0ef9 40bd 3f3a d8bc 9903 8bbd 24c3 68bc
00000040: eb6d 4dbd 9feb 49bd 7d68 053d fcb2 f2bb
00000050: 98f9 a6bd c9e9 8cbd fd2c cb3d a43f b9bc
00000060: ac1b 6abd 37dd 8bbd eb79 f6bb fe99 3ebd
00000070: 4f9e 25bc 4455 54bd 73e5 f1bc 6e1e 09bc
00000080: 0c85 3ebd 1997 00bc 490a 36bd 39d4 a6bb
00000090: bc39 3cbd d70d 8abd fef7 8ebd 4da5 9cbb
000000a0: 891e 4cbd 3853 15bd 00d6 1dbd 9c95 acbc
000000b0: 5b1c a13d da42 0fbd 8823 c2bb d189 0bbc
000000c0: 1797 3dbd 075b 4bbd 1656 c7bb 5f53 6cbd
000000d0: 21f7 72bc b762 f7bc e1e9 93bd bb18 a2bd
000000e0: 7368 2ebc 8d63 c0bb 8516 26bc 33e5 5abd
000000f0: 5ff9 c0bb eee8 cfbc c081 a6bd 58d6 2fbd
00000100: 2747 23bd de53 febb 03cd 3bbc 9505 2bbb
00000110: 4337 8dbd 18de 35bc 44b3 abbb a0b2 33bd
00000120: f76e b8bc 248f 84bd 67c7 89bd 7746 50bd
00000130: 643b 77bd 774b 14bc d893 42bd bcaf 84bd
00000140: 8f44 08bc 8dbf 47bd 2e37 52bd a7bf bebc
00000150: 0dd7 66bd 1a81 33bd c0d4 6abd ee8e 78bc
00000160: fa09 3bbd 3f46 38bd 56d0 46bd c2dd 96bc
00000170: 6d56 89bd 627c 8fbd 7669 92bd 5304 4abc
00000180: 8c3d 87bd 3018 8ebd 3337 46bd a0d5 62bd
00000190: 664a 3cbd 0a23 54bd 662a 04bc 2cbc 55bd
000001a0: 1a81 8fbd e180 81bd d159 60bd 71b7 1dbc
000001b0: 5040 233d 69bf b0bc 3f2b 55bd ca00 b0bc
000001c0: f3f2 96bd 9f29 3ebd ccd1 52bc 4661 9bbb
000001d0: 6cc6 e9bb 08a1 58bd 9a8c 4cbd 3d6c 2bbd
000001e0: 568e 1dbc 1f50 2ebc 997b 67bd a3a3 8bbd
000001f0: f518 87bd 0f5b a3bd 6bbc 05bc ba8f 85bd

cvae_parameters.enc_01_lin_w f4 [128, 128]
7.7385506e-05 -0.002839608 -0.0015716061 -0.0028857589 -0.0146122975 0.0030129338 -0.014013374 0.0099253375
0.0041246302 0.004736606 -0.015208843 -0.005271379 0.0009542879 -0.009240088 0.0058473023 -0.024064424
0.0035561032 -0.0050770896 0.015513527 -0.013615136 -0.014907752 0.0036493368 -0.009221829 0.010205894
0.0057377685 -0.009690619 -0.0026122553 -0.0057434393 -0.032666203 -0.023879971 -0.0018499793 0.016140293
-0.0005849296 -0.014698941 -0.008699564 0.0053374236 -0.015732681 -0.0043086777 0.014418708 0.0010871886
-0.009244617 0.004747825 0.007434572 -0.022750493 -0.0050575426 -0.0049319966 -0.01001779 -0.0056794686
-0.0026711887 -0.020384569 -0.013561526 2.8656497e-05 -0.006185007 -0.004479692 -0.008341468 -0.014595838
-0.0036485386 0.00037599486 -0.0022151459 -0.012247695 0.0058393474 -0.0016146094 -0.0013730633 -0.015010582
-0.0009698515 -0.030866656 -0.010013431 0.0018891688 0.002546088 -0.02163476 0.0040281685 -0.0081935
-0.016795184 -0.010421003 0.0032874995 -0.0025986743 -0.018164417 -0.00637734 -0.016366586 -0.0072745355
-0.010806274 -0.0075882846 0.008174704 -0.02121889 -0.0018329457 0.00051128096 -0.0032154543 -0.011588551
-0.010991821 0.012747758 0.006826165 0.0014523764 -0.010636959 0.014766559 -0.0056297793 0.006981979
0.00024157377 0.009462215 0.006753959 -0.014602497 0.0085727535 -0.0017133789 -0.0065545617 -0.014769707
-0.009449469 0.013089917 -0.0022452094 -0.025430933 0.0064578224 -0.012793848 -0.009350966 0.0047867647
-0.0092830155 -0.025976427 -0.008088834 -0.0037950939 0.005366501 0.004376551 -0.008663847 0.015744869
-0.00019294235 -0.018741986 -0.0022893697 -0.00038950494 -0.0010777207 -0.011074323 -0.01145442 -0.011509006
0.018106397 0.029096289 0.017031187 -0.017170183 0.00426278 -0.0087332735 -0.017245803 0.014248207
0.017400185 -0.0020112423 -0.0023160467 0.011321589 -0.0022485477 0.025923425 -0.012004117 -0.010167307
-0.02623352 -0.050652854 -0.105773725 -0.0047906865 0.01301562 -0.002458908 -0.0016448243 -0.011667727
-0.06946164 -0.02398346 -0.04473297 -0.02213517 -0.002648443 0.015019708 0.011430691 -0.036175594
-0.000117260926 0.004074698 -0.009330775 -0.0030972618 -0.012549893 -0.02476921 -0.007820992 -0.014527724
-0.002496762 0.000663869 -0.048420362 -0.096321076 0.01869439 0.002898331 -0.0078039896 -0.01335292
-0.01035885 -0.004891178 0.014755333 -0.089493886 0.017077588 0.0024491113 0.011194572 -0.008325185
-0.013070977 -0.011307174 -0.013651897 -0.003906752 0.018848866 -0.013470466 -0.016353216 0.0048715826
0.0060127806 0.009002821 0.01467417 0.024987899 -0.114966 0.029599257 -0.024922112 -0.037900884
0.00812959 0.01965817 0.0821161 0.0066825026 -0.008052227 0.0006422511 -0.04199001 0.025564272
-0.00825845 -0.006739909 -0.008863418 0.008290699 -0.006929302 -0.002984869 -0.036987334 -0.009412678
0.017865285 -0.011169528 -0.003576879 -0.049002014 0.013576417 0.0057841293 -0.05603754 0.013516742
0.010938833 5.2866682e-05 0.024260769 0.002139114 0.03539137 -0.002604663 -0.10001209 -0.079275005
-0.036551803 0.0058280593 -0.019255074 -0.031595543 -0.009972403 -0.1012927 -0.014223239 0.008569256
-0.07522271 0.015351982 -0.0009032774 -0.09210742 -0.0063717854 0.0032100265 0.04566589 0.008684129
0.0005975636 0.009447697 0.0019852289 -0.02292876 0.006839166 0.018532505 0.0051178997 0.010400069
00000000: 074a a238 b718 3abb 5afe cdba 001f 3dbb
00000010: 6b68 6fbc a474 453b 5a98 65bc e29d 223c
00000020: e827 873b 8835 9b3b 832e 79bc 88bb acbb
00000030: 2d29 7a3a bd63 17bc ba9a bf3b c122 c5bc
00000040: 830d 693b b75d a6bb 732c 7e3c 0512 5fbc
00000050: a53f 74bc b629 6f3b 2717 17bc 9f36 273c
00000060: e403 bc3b 67c5 1ebc 5f32 2bbb 7633 bcbb
00000070: ffcc 05bd ee9f c3bc 017b f2ba a638 843c
00000080: f655 19ba d4d3 70bc 9e88 0ebc 8ee5 ae3b
00000090: d3e1 80bc cf2f 8dbb 723c 6c3c ff7f 8e3a
000000a0: bc76 17bc a593 9b3b b69d f33b 3e5f babc
000000b0: beb9 a5bb 969c a1bb a821 24bc d61a babb
000000c0: 1c0f 2fbb 8afd a6bc 2a31 5ebc 5c63 f037
000000d0: 99ab cabb 61ca 92bb a7aa 08bc 6223 6fbc
000000e0: 521c 6fbb 2d21 c539 fb2b 11bb 8eaa 48bc
000000f0: ff57 bf3b 4da1 d3ba 5cf8 b3ba f2ee 75bc
00000100: a23d 7eba 12dc fcbc 600f 24bc fc9d f73a
00000110: 45dc 263b 613b b1bc bafe 833b 083e 06bc
00000120: 0e96 89bc dbbc 2abc 1773 573b 854e 2abb
00000130: 8bcd 94bc 01f9 d0bb 3813 86bc 3a5f eebb
00000140: cc0c 31bc 25a7 f8bb 32ef 053c 3dd3 adbc
00000150: 743f f0ba 7c07 063a 5fba 52bb e8dd 3dbc
00000160: 0a17 34bc f9db 503c 06ae df3b aa5d be3a
00000170: a446 2ebc 70ef 713c 037a b8bb 16c9 e43b
00000180: f74e 7d39 6807 1b3c 5150 dd3b 503f 6fbc
00000190: bc74 0c3c 7593 e0ba a6c7 d6bb a4fc 71bc
000001a0: f2d1 1abc 1777 563c 5d24 13bb 8854 d0bc
000001b0: 249c d33b 4a9d 51bc cb34 19bc 4bda 9c3b
000001c0: ca17 18bc 84cc d4bc 0787 04bc 1cb7 78bb
000001d0: 79d9 af3b 2c69 8f3b cff2 0dbc 62fb 803c
000001e0: 9150 4ab9 cb88 99bc 4009 16bb 7836 ccb9
000001f0: 4e42 8dba 1471 35bc 52ab 3bbc 4590 3cbc
00000200: de53 943c 575b ee3c fd84 8b3c 7ca8 8cbc
00000210: caae 8b3b 0116 0fbc 1247 8dbc 5071 693c
00000220: d58a 8e3c 0ccf 03bb d1c8 17bb 307e 393c
00000230: 5f5c 13bb 5d5d d43c eaac 44bc c794 26bc
00000240: aee7 d6bc 5e79 4fbd e59f d8bd 31fb 9cbb
00000250: 783f 553c a125 21bb 2597 d7ba fe29 3fbc
00000260: e841 8ebd f678 c4bc eb39 37bd d154 b5bc
00000270: 8091 2dbb 3915 763c cb47 3b3c dc2c 14bd
00000280: fbe9 f5b8 0b85 853b 1be0 18bc 6efb 4abb
00000290: 119e 4dbc cce8 cabc 9e23 00bc b105 6ebc
000002a0: b7a0 23bb 7f07 2e3a 6e54 46bd fc43 c5bd
000002b0: fa24 993c edf1 3d3b 9cb8 ffbb 35c6 5abc
000002c0: 2ab8 29bc 2d46 a0bb 5ac0 713c 9248 b7bd
000002d0: 4ce6 8b3c 4581 203b 7069 373c 5b66 08bc
000002e0: a727 56bc ba41 39bc 35ac 5fbc 3604 80bb
000002f0: f068 9a3c 3bb3 5cbc 2ef7 85bc cca1 9f3b
00000300: dc06 c53b 9180 133c ee6b 703c 6cb3 cc3c
00000310: 4b73 ebbd 247a f23c 7529 ccbc f53d 1bbd
00000320: f931 053c 2c0a a13c 7c2c a83d e5f8 da3b
00000330: 7ded 03bc be5c 283a b7fd 2bbd 2a6c d13c
00000340: 734e 07bc 74da dcbb df37 11bc b6d5 073c
00000350: 330f e3bb cb9d 43bb 0880 17bd a237 1abc
00000360: 385a 923c 6500 37bc 126a 6abb 56b6 48bd
00000370: 9f6f 5e3c cb88 bd3b 9f87 65bd 5375 5d3c
00000380: ca38 333c 2bbd 5d38 85be c63c 6130 0c3b
00000390: 8bf6 103d feb2 2abb 23d3 ccbd ef5a a2bd
000003a0: 58b7 15bd 4ef9 be3b d1bc 9dbc 546a 01bd
000003b0: 4a63 23bc 8c72 cfbd 9708 69bc 1166 0c3c
000003c0: 5d0e 9abd e186 7b3c ecc9 6cba d1a2 bcbd
000003d0: 69ca d0bb 4f5f 523b 280c 3b3d e147 0e3c
000003e0: d0a5 1c3a 83ca 1a3c 9d1a 023b 18d5 bbbc
000003f0: 151b e03b 7bd1 973c 0eb4 a73b 0d65 2a3c

cvae_parameters.out_lin_b f4 [160]
0.36152512 0.6752888 0.35387513 0.7160416 0.476956 0.52817166 0.3581208 0.796894
0.21812895 0.39734834 0.20971172 0.616126 0.41407442 0.37254778 0.34842506 0.70534366
0.08311111 0.22621956 0.01672876 0.36499357 0.311162 0.02601792 0.25104874 0.46439102
0.1346322 0.2658287 0.08740148 0.26756945 0.23019706 -0.16588019 0.3099351 0.26693806
0.09794652 0.11250097 0.08512554 0.1706216 0.08566558 -5.357884e-05 0.34419465 0.20973913
0.17193213 0.0065928437 0.011485257 0.09790608 0.09249412 0.14700732 0.32438895 0.34299043
0.15459722 0.07478843 -0.0071427664 0.08017285 0.096777484 0.1708781 0.23294586 0.32786146
0.15418428 0.21851373 -0.06634999 0.18620545 0.072493725 0.13790531 0.14731734 0.37309545
0.13910742 0.27730748 -0.124462835 0.31596276 0.18708125 0.30561873 0.05699916 0.23091412
0.20445006 0.361304 -0.09232007 0.2683414 0.32126135 0.38411915 0.05865435 0.2125469
0.20444253 0.27868804 -0.068347976 0.112950526 0.17876066 0.2892985 0.045104418 0.24952565
0.20248929 0.29236546 0.039712187 0.08112767 0.06737735 0.28709462 0.039174307 0.07180469
0.05011421 0.28561342 0.0809199 0.14190653 0.08223767 0.2069484 -0.010926178 -0.06749237
0.19342652 0.27633885 0.082142256 0.11640884 0.05915344 0.14932556 0.13708065 0.03574322
-0.044398125 0.2725045 0.1195898 -0.036349665 0.12884831 0.057949338 0.26210997 0.20535766
-0.077125914 0.1841894 0.1929491 0.04248348 0.15311491 0.014415515 0.1329622 0.17494838
0.14037769 0.08174595 0.20698753 0.23320149 0.268897 0.19373176 0.10199025 0.18546121
0.17017147 0.14775667 0.16045482 0.40355995 0.16694473 0.29949424 0.15307191 0.32808125
0.2691253 0.46221814 0.23650235 0.6246267 0.32267573 0.41110724 0.23670116 0.67641574
0.35255378 0.6701589 0.36138573 0.7060364 0.47087562 0.5290268 0.35573128 0.7937196
00000000: d219 b93e badf 2c3f 1f2f b53e 814e 373f
00000010: 9433 f43e 4236 073f 9c5b b73e 3f01 4c3f
00000020: 325d 5f3e 3e71 cb3e abbe 563e 6fba 1d3f
00000030: 9001 d43e 95be be3e c564 b23e 6791 343f
00000040: 2836 aa3d 1aa6 673e c10a 893c 70e0 ba3e
00000050: a050 9f3e 8823 d53c 7689 803e a9c4 ed3e
00000060: 06dd 093e b31a 883e 8cff b23d ddfe 883e
00000070: c7b8 6b3e 7fdc 29be d0af 9e3e 1bac 883e
00000080: 2f98 c83d e966 e63d 4d56 ae3d 6eb7 2e3e
00000090: 7071 af3d d7b9 60b8 483a b03e dbc5 563e
000000a0: fa0e 303e c808 d83b a92c 3c3c fc82 c83d
000000b0: 8f6d bd3d 1689 163e 4f16 a63e 719c af3e
000000c0: bc4e 1e3e ad2a 993d de0d eabb aa31 a43d
000000d0: 4633 c63d abfa 2e3e 5c89 6e3e 75dd a73e
000000e0: 7ce2 1d3e 10c2 5f3e 81e2 87bd a4ac 3e3e
000000f0: 9777 943d 0d37 0d3e 5bda 163e 5e06 bf3e
00000100: 2d72 0e3e 3ffb 8d3e 5fe6 febd dfc5 a13e
00000110: 3a92 3f3e 0f7a 9c3e f477 693d c074 6c3e
00000120: 5b5b 513e d6fc b83e 4e12 bdbd 0b64 893e
00000130: 5e7c a43e 44ab c43e 8b3f 703d e5a5 593e
00000140: 6259 513e 33b0 8e3e 06fa 8bbd 9b52 e73d
00000150: 090d 373e ef1e 943e 69bf 383d a783 7f3e
00000160: 5a59 4f3e edb0 953e 3fa9 223d 4426 a63d
00000170: 23fd 893d 11fe 923e 3d75 203d 560e 933d
00000180: 8f44 4d3d ec3b 923e 55b9 a53d f24f 113e
00000190: 396c a83d 48ea 533e b603 33bc 7139 8abd
000001a0: 9a11 463e 497c 8d3e 333a a83d c267 ee3d
000001b0: e14a 723d cde8 183e df5e 0c3e 7c67 123d
000001c0: cfda 35bd b685 8b3e 7feb f43d 63e3 14bd
000001d0: d0f0 033e 495c 6d3d 4733 863e 4749 523e
000001e0: 31f4 9dbd 259c 3c3e 7394 453e 2803 2e3d
000001f0: 28ca 1c3e 0d2f 6c3c 3e27 083e ab25 333e
00000200: 2bbf 0f3e 6c6a a73d 8af4 533e 5fcc 6e3e
00000210: deac 893e 9e61 463e 44e0 d03d 8be9 3d3e
00000220: 6e41 2e3e 864d 173e 454e 243e 699f ce3e
00000230: 8ff3 2a3e 4f57 993e e2be 1c3e 44fa a73e
00000240: cbca 893e dba7 ec3e ac2d 723e 89e7 1f3f
00000250: c135 a53e a67c d23e ca61 723e 9529 2d3f
00000260: ee81 b43e 898f 2b3f 8d07 b93e cdbe 343f
00000270: 9c16 f13e 4d6e 073f 6922 b63e 3531 4b3f

cvae_parameters.out_lin_w f4 [160, 128]
0.0073956437 0.009556004 0.0009856176 0.038535524 0.008313133 0.0010933959 -0.015073336 0.0029038738
-0.014773268 0.0073962784 0.015387778 -0.008712508 0.021765377 0.021971544 0.014828621 0.014084007
-0.019688215 0.0034334955 -0.0053604273 0.0033862402 0.013433401 0.0056885453 -0.010039169 0.015275018
0.00095093803 0.003648681 0.011544908 0.006583885 -0.06790427 -0.028443752 0.022567695 -0.0034315244
0.0081063565 -0.038555276 0.024539316 0.010324259 0.016886083 0.013098046 -0.010804934 0.0008985427
0.010640538 -0.002010215 0.009831434 5.1006555e-05 0.0108 -0.0056252177 0.017304508 -0.006102195
-0.010067302 -0.033074085 -0.009112814 -0.0023144865 -0.0056344382 -0.018507976 -0.0026205678 -0.010139889
0.017149156 0.0026286733 0.0020860436 -0.009388785 0.004837288 -0.019908832 0.0047659096 0.0064180787
-0.00026540758 0.0198715 0.0003687424 0.014976452 0.014639962 0.023409301 0.0017280604 -0.010505013
0.00058909843 0.011453537 0.0012097816 -0.008498936 -0.036303535 -0.018706251 0.0014351365 -0.024545664
-0.0008917385 0.01903755 0.026572682 0.02589997 0.010077088 0.022677666 -0.02815109 -0.010064592
0.0033068329 0.005492184 0.0020622339 0.014549761 0.008697986 0.00967399 0.012230209 0.0012271372
0.021427477 0.012948924 0.01707757 0.013000002 -0.0073579587 -0.010196798 0.010077418 -0.004286919
0.0068603843 0.002329051 -0.0078117917 0.019908769 0.013405711 -0.003477177 -0.0032730568 0.006277793
-0.01714032 0.013076984 -2.0825946e-05 0.009870796 -0.015694179 0.020178257 0.02615286 0.0076602492
-0.0532542 0.00049737305 -0.0015046095 0.0020949005 -0.0017126453 -0.013193233 -0.0049765995 0.008804975
0.021702077 -0.007289828 -0.00011821026 0.026003456 0.00013916357 0.00719104 0.017798893 -0.019953392
-0.00062294863 0.026250908 0.0065984735 0.0037275753 0.015045112 0.0059908493 0.006010361 -0.002969691
0.0070762807 0.033206627 0.01297354 0.026374359 0.0091772815 0.00589278 0.018902244 0.013261902
-0.012708223 0.007891499 0.027216956 0.008219815 0.02298233 -0.02235705 -0.0012722504 -0.0019704027
-0.026621297 -0.0036189214 0.023745013 0.029308338 0.015710177 0.02158554 -0.007384581 0.011831826
0.0024240336 -0.0015190995 0.013692855 0.022247013 -0.0002617605 0.009155095 0.035313897 0.02660091
-0.010780805 -0.05927212 0.012899674 -0.0044603115 -0.006420069 -0.0093277 0.0154761365 0.020994814
0.046086792 0.018832846 0.03450834 -0.0099216355 0.0016021429 0.0179933 -0.0032648756 -0.00331197
0.0030450267 0.0047463235 0.032370917 -0.00020999563 0.02941503 0.021967657 0.023924882 0.0027067026
0.023851609 0.014957796 -0.006223223 -0.0058307843 -0.012885289 0.0019257328 0.022335563 -0.012347534
0.02489776 0.007906209 0.049546227 0.0066292244 0.0061573926 0.0061247265 -0.021229124 -0.0133330915
0.036508758 0.03899558 0.0033373805 -0.004112681 0.0009813603 -0.00087636657 0.0050777984 0.0092616575
-0.016983809 0.034064483 0.025324725 0.0030709226 -0.008316145 0.004009969 0.016072338 0.0066166506
0.0010395864 0.009422092 0.02970819 -0.01444675 0.010251104 -0.009328505 0.01805186 0.012885544
-0.042414393 0.01867848 0.01020767 -0.020731442 0.008229886 -0.056787346 0.008946329 7.40919e-05
-0.0105696395 0.023388268 -0.020825095 0.003852107 -0.008526565 0.009021542 0.008030465 0.015008864
00000000: 2857 f23b c990 1c3c d72f 813a 6dd7 1d3d
00000010: cf33 083c 4750 8f3a 27f6 76bc eb4e 3e3b
00000020: 940b 72bc 7b5c f23b 051d 7c3c e8be 0ebc
00000030: 4e4d b23c abfd b33c bff3 723c 9bc0 663c
00000040: 2e49 a1bc 7f04 613b 86a6 afbb afeb 5d3b
00000050: c417 5c3c fa66 ba3b 547b 24bc 1244 7a3c
00000060: 5f48 793a b61e 6f3b db26 3d3c a1bd d73b
00000070: 6511 8bbd df02 e9bc e3df b83c 6de3 60bb
00000080: 86d0 043c 23ec 1dbd ad06 c93c 1527 293c
00000090: af54 8a3c 3099 563c 2e07 31bc 2e8c 6b3a
000000a0: a755 2e3c d0bd 03bb 0614 213c dfef 5538
000000b0: 7cf2 303c bf53 b8bb 2fc2 8d3c ecf4 c7bb
000000c0: 53f1 24bc b178 07bd ea4d 15bc a4ae 17bb
000000d0: 18a1 b8bb 0a9e 97bc d5bd 2bbb c721 26bc
000000e0: 637c 8c3c d245 2c3b 01b6 083b 6bd3 19bc
000000f0: 1d82 9e3b d917 a3bc 592b 9c3b bf4e d23b
00000100: 6726 8bb9 8ec9 a23c c453 c139 cb5f 753c
00000110: 74dc 6f3c ddc4 bf3c 1680 e23a 381d 2cbc
00000120: ba6d 1a3a 9ea7 3b3c 8991 9e3a 1f3f 0bbc
00000130: 04b3 14bd da3d 99bc 311b bc3a fd13 c9bc
00000140: 8fc3 69ba a3f4 9b3c f4ae d93c 2d2c d43c
00000150: 5f1a 253c 83c6 b93c 1d9d e6bc f5e5 24bc
00000160: 73b7 583b c7f7 b33b 8b26 073b 1f62 6e3c
00000170: ff81 0e3c a87f 1e3c 3761 483c e4d7 a03a
00000180: ad88 af3c b927 543c 43e6 8b3c f6fd 543c
00000190: 081b f1bb 7810 27bc c11b 253c 4879 8cbb
000001a0: 13cd e03b fea2 183b 0ffa ffbb b717 a33c
000001b0: a1a3 5b3c 59e1 63bb c880 56bb f2b5 cd3b
000001c0: db69 8cbc d940 563c 61b3 aeb7 1fb9 213c
000001d0: 1491 80bc df4c a53c 863e d63c d402 fb3b
000001e0: 1321 5abd 2462 023a 5136 c5ba 994a 093b
000001f0: d77a e0ba 6e28 58bc be12 a3bb be42 103c
00000200: 8ec8 b13c 82df eebb a6e7 f7b8 3305 d53c
00000210: 70ec 1139 d1a2 eb3b fcce 913c 4c75 a3bc
00000220: 604d 23ba 250c d73c 0238 d83b 564a 743b
00000230: c67f 763c e34e c43b 90f2 c43b 269f 42bb
00000240: 25e0 e73b ac03 083d f98e 543c 0a0f d83c
00000250: 4f5c 163c 3918 c13b e1d8 9a3c 7348 593c
00000260: 2736 50bc 594b 013c 18f6 de3c 67ac 063c
00000270: 7045 bc3c 2226 b7bc a4c1 a6ba df21 01bb
00000280: e814 dabc 6d2b 6dbb e784 c23c 0a18 f03c
00000290: a1b2 803c 29d4 b03c 5bfa f1bb 46da 413c
000002a0: 89dc 1e3b 851c c7ba ff57 603c 5e3f b63c
000002b0: e63c 89b9 40ff 153c 4ea5 103d 27ea d93c
000002c0: f9a1 30bc 53c7 72bd 2759 533c ce27 92bb
000002d0: 715f d2bb 36d3 18bc 9f8f 7d3c 51fd ab3c
000002e0: 81c5 3c3d 5747 9a3c 9e58 0d3d 5b8e 22bc
000002f0: fffe d13a af66 933c 86f7 55bb a30d 59bb
00000300: 128f 473b 0c87 9b3b 5e97 043d 4632 5cb9
00000310: caf7 f03c 84f5 b33c 1dfe c33c ef62 313b
00000320: 7364 c33c 8b11 753c 2eec cbbb 2a10 bfbb
00000330: d21c 53bc df68 fc3a 12f9 b63c 504d 4abc
00000340: 63f6 cb3c 0b89 013c fcf0 4a3d f739 d93b
00000350: f4c3 c93b eeb1 c83b b3e8 adbc 0a73 5abc
00000360: 358a 153d d4b9 1f3d f4b7 5a3b abc3 86bb
00000370: fda0 803a f7bb 65ba a963 a63b 35be 173c
00000380: a121 8bbc 3387 0b3d cc75 cf3c 8841 493b
00000390: 7140 08bc 0f66 833b 23aa 833c 7dd0 d83b
000003a0: bb42 883a 1e5f 1a3c 975e f33c 10b2 6cbc
000003b0: 3ff4 273c 96d6 18bc 7fe1 933c e41d 533c
000003c0: b7ba 2dbd 9d03 993c 123e 273c fcd4 a9bc
000003d0: a5d6 063c d999 68bd a093 123c c961 9b38
000003e0: 482c 2dbc c198 bf3c 6499 aabc a273 7c3b
000003f0: 01b3 0bbc 17cf 133c 3692 033c bde7 753c

cvae_parameters.z_mu_lin_b f4 [32]
0.0001907735 -0.18993506 0.09764272 0.09463569 -0.187703 0.4721273 -0.02147685 0.14279798
0.1925004 -0.124831386 0.10722829 -0.3603123 -0.4399268 0.008788287 -0.17739399 -0.050998084
0.3457927 -0.3105806 0.048826914 0.2328139 0.08216427 0.22925624 0.16648191 0.07080133
-0.041226927 -0.35704055 -0.24587116 -0.05468549 0.0024186168 -0.26940474 0.30966836 -0.18734133
00000000: 5f0a 4839 567e 42be e8f8 c73d 5bd0 c13d
00000010: 3735 40be abba f13e 38f0 afbc a239 123e
00000020: d31e 453e 99a7 ffbd 819a db3d db7a b8be
00000030: 163e e1be bffc 0f3c c5a6 35be 5ee3 50bd
00000040: be0b b13e 6c04 9fbe bbfe 473d c466 6e3e
00000050: be45 a83d 26c2 6a3e 3c7a 2a3e 4a00 913d
00000060: 91dd 28bd 05ce b6be a6c5 7bbe e4fd 5fbd
00000070: a881 1e3b 6bef 89be da8c 9e3e 68d6 3fbe
