dlpg/11/weights/dlpg_model_weights_250.pth (torch, 354171 bytes, 14 tensors)

cvae_parameters.dec_00_lin_b f4 [128]
0	0xbec61e9d	-0.3869523
1	0xbea20da9	-0.31651047
2	0xbcafe13c	-0.021469705
3	0x3e538202	0.20655063
4	0x3de6e20f	0.11273586
5	0xbda0d25d	-0.078526236
6	0xbe3bc3f5	-0.1833647
7	0x3bc215f3	0.0059230267
8	0xbd2769d8	-0.040872425
9	0x3dc9fbe9	0.09862501
10	0xbea7f927	-0.32807276
11	0xbe898d60	-0.26865673
12	0xbd2d7ada	-0.04235349
13	0xbe301ebe	-0.17199227
14	0xbe8214da	-0.25406533
15	0xbe86886f	-0.26275966
16	0xbcb9a396	-0.022661012
17	0xbe584f4d	-0.21124001
18	0xbe90d853	-0.28290042
19	0xbcf7005f	-0.030151544
20	0xbd8f2c0e	-0.06990825
21	0xbd971bdd	-0.073783614
22	0xbd8c1928	-0.06840736
23	0xbe0fa3fd	-0.140274
24	0x3e75502e	0.23956367
25	0x3e8df932	0.27729183
26	0x3ee6626b	0.44996962
27	0xbe3d2539	-0.1847123
28	0xbd81e7c0	-0.06343031
29	0xbe099926	-0.13437328
30	0x3dcff9bb	0.10155054
31	0x3e40539a	0.18781891
32	0xbde39a36	-0.11113398
33	0xbe803176	-0.25037736
34	0x3df0a96c	0.11751065
35	0xbe9a4801	-0.3013306
36	0x3ea94bf8	0.33065772
37	0x3e0aeefe	0.13567731
38	0xbd9d8e02	-0.076931015
39	0x3e56c4bf	0.2097349
40	0xbe8294fb	-0.25504288
41	0xbdb5be84	-0.088742286
42	0xbe40165e	-0.18758532
43	0xbcf716eb	-0.030162295
44	0x3e2cbc0b	0.16868608
45	0xbe7d3339	-0.24726571
46	0xbde1ed6e	-0.11031614
47	0x3d48ad25	0.04899325
48	0xbd3a2afd	-0.045451153
49	0xbd4eedf6	-0.050519906
50	0xbdfc7585	-0.123271026
51	0xbebf1bc9	-0.37325886
52	0xbdd6fb13	-0.10497107
53	0xbe361930	-0.17783046
54	0x3b692737	0.0035576352
55	0x3c72b04a	0.014812538
56	0xbe1c3408	-0.15254223
57	0xbee47866	-0.44623107
58	0xbda38f3a	-0.07986303
59	0xbd8de298	-0.06927985
60	0xbd628ab5	-0.055308063
61	0xbb130e4d	-0.0022438944
62	0x3d85a6c7	0.06525951
63	0x3dd2addf	0.102870695
64	0xbda08282	-0.078373924
65	0x3e8372f0	0.25673628
66	0xbde5be60	-0.11217952
67	0xbe68401c	-0.22680706
68	0xbece6ca1	-0.40317252
69	0x3a50f787	0.0007971455
70	0xbe988df2	-0.29795796
71	0xbe860bc6	-0.26180857
72	0xbe9250bf	-0.2857723
73	0xbe7e4c0c	-0.24833697
74	0x3c0d518e	0.008625401
75	0xbe26a256	-0.16272864
76	0x3bd8f3b8	0.0066208504
77	0xbddc8346	-0.10767226
78	0xbebbfe26	-0.36717337
79	0x3e945a44	0.28975117
80	0x3cf68a88	0.030095354
81	0x3e6b690e	0.22989294
82	0xbd94346f	-0.072365634
83	0x3c2ab50c	0.0104191415
84	0xbed6bfdd	-0.41943255
85	0xbd822624	-0.06354931
86	0xbe1cad59	-0.15300502
87	0xbd64b633	-0.05583782
88	0x3e340346	0.17579374
89	0xbe32b27c	-0.17450899
90	0x3d0ac2e5	0.033877272
91	0xbe020cad	-0.12700148
92	0x3e158b8e	0.14604017
93	0xbe32af5f	-0.17449711
94	0x3db73f93	0.08947673
95	0xbeab5631	-0.33464196
96	0xbe61c3f4	-0.22047406
97	0xbcbf99bd	-0.023388738
98	0xbebb0918	-0.36530375
99	0xbe8c6986	-0.27424258
100	0xbe5d8b85	-0.21635254
101	0x3e0e07b4	0.13870126
102	0xbe950d7b	-0.29111847
103	0x3e61fab9	0.220683
104	0xbe0c3a38	-0.13694084
105	0x3de3ae00	0.11117172
106	0xbe20ff5c	-0.15722412
107	0xbec94aa2	-0.39314753
108	0xbe00aae3	-0.12565188
109	0x3e005a13	0.1253436
110	0x3dd4e554	0.10395303
111	0xbede658f	-0.43436858
112	0xbd89e25f	-0.0673263
113	0xbdd3f9ea	-0.10350402
114	0xbe0c39d5	-0.13693936
115	0xbee4d8fc	-0.44696796
116	0x3b0b838c	0.0021288125
117	0xbda49a1e	-0.08037208
118	0x3dc1798b	0.094470106
119	0xbd4886f1	-0.048956815
120	0x3e7fa0ed	0.24963732
121	0xbed13996	-0.40864247
122	0xbd925005	-0.07144169
123	0x3ebcb81b	0.3685921
124	0x39d97bf1	0.0004148181
125	0xbe40ed37	-0.1884049
126	0xbe6386ac	-0.22219342
127	0xbe231b72	-0.15928438

cvae_parameters.dec_00_lin_w f4 [128, 35]
0	0xbd02ae0c	-0.031904265
1	0x3d747ef7	0.059691396
2	0xbd611510	-0.054951727
3	0xbc88e9a2	-0.016712967
4	0xbd25eae5	-0.040507216
5	0xbd068d38	-0.03284952
6	0xbb107349	-0.0022041372
7	0xbd8627aa	-0.06550534
8	0x3c33e4bf	0.01097983
9	0x3d93e2b1	0.07220972
10	0xbca115fc	-0.019663803
11	0xbd3bb299	-0.04582462
12	0xbd4e03dd	-0.050296653
13	0xbc0653a6	-0.008198654
14	0x3d00c329	0.03143612
15	0x3db7a62f	0.08967244
16	0x3d9a662c	0.07539019
17	0x3dfd891d	0.12379668
18	0xbd9c2549	-0.07624299
19	0xbe13aaeb	-0.14420669
20	0x3e06db0d	0.13169499
21	0xbe0a1f2d	-0.13488455
22	0x3c1557f2	0.009115206
23	0x3c55567d	0.013021109
24	0xbe13029b	-0.14356463
25	0x3c74557b	0.014912958
26	0x3d2a724d	0.041612912
27	0xbcbc60e3	-0.022995418
28	0xbc98213e	-0.018570539
29	0xbd77c2aa	-0.06048838
30	0x3e0526e8	0.13003123
31	0x3d9fbfe1	0.0780027
32	0xb9b96e78	-0.00035368255
33	0xbec980a8	-0.3935597
34	0x3a8db5bb	0.0010811606
35	0xbdd78ee0	-0.10525298
36	0xbcca9347	-0.02472843
37	0xbd45ee2f	-0.048322853
38	0x3bf92c6e	0.0076041734
39	0xbb3c8c7e	-0.0028770263
40	0xbc2c84bd	-0.010529694
41	0xbc0b8063	-0.0085144965
42	0x3d03ed04	0.032208458
43	0xbd441306	-0.047869705
44	0xb8b289df	-8.513382e-05
45	0x3b077fee	0.0020675617
46	0xbc4340ba	-0.0119172875
47	0xb9f56503	-0.000468053
48	0x3c060411	0.00817968
49	0x3cd70d72	0.026251528
50	0x3b066f39	0.0020513071
51	0xbc5e7dae	-0.013579769
52	0x3c905994	0.01762084
53	0x3d048928	0.032357365
54	0x3cbc4aa6	0.022984814
55	0xbbe6b9f1	-0.007041209
56	0x3cef7c6b	0.029234132
57	0x3c674a1c	0.01411679
58	0xbc541568	-0.012944557
59	0x3d88984f	0.066696756
60	0x3c887c90	0.016660959
61	0x394eafd1	0.00019711188
62	0xbd18091d	-0.037118066
63	0x3c92c386	0.017915498
64	0xbb1387c1	-0.0022511336
65	0xbd427e5b	-0.047483783
66	0x3cef0c10	0.029180557
67	0x3b7e85cb	0.003883707
68	0xbe9ce88c	-0.3064617
69	0x3b4a95b0	0.0030911975
70	0xbd2066c1	-0.039160494
71	0xbc60d5c5	-0.013722842
72	0x3da55d16	0.08074395
73	0x3d89a2fc	0.0672054
74	0xbdc8f97c	-0.0981321
75	0xbd91fee7	-0.07128697
76	0xbbfd9915	-0.007739196
77	0x3da2e721	0.079542406
78	0xbd8f6ad4	-0.07002798
79	0xbd9cbe87	-0.07653528
80	0x3dc36758	0.09541196
81	0xbd2ef291	-0.042711798
82	0x3ca3cbda	0.019994665
83	0xbda92213	-0.08258452
84	0x3cd28285	0.025697002
85	0xbe032927	-0.12808667
86	0xbd6ea7e7	-0.058265593
87	0xbd229d77	-0.03970095
88	0x3dc06d8f	0.09395897
89	0xbbb710d7	-0.0055867243
90	0xbcaacfa6	-0.020850968
91	0xbd425ec9	-0.047453675
92	0x3de7383b	0.11290022
93	0x3d64db01	0.05587292
94	0xbd04ee12	-0.032453604
95	0x3ca663aa	0.020311195
96	0xbda00d70	-0.07815063
97	0x3db26588	0.08710772
98	0x39a1c299	0.000308533
99	0xbd1f6cc7	-0.038922098
100	0xbd234e19	-0.0398694
101	0xbc5f993a	-0.013647372
102	0x3c10c9a5	0.008837138
103	0xbc4cbc56	-0.012496075
104	0xbb2c07d7	-0.002624979
105	0x3d2f5981	0.042809967
106	0xbd7e1eab	-0.062040966
107	0x3badbffa	0.0053024264
108	0x3d308d64	0.04310359
109	0xbcd33b96	-0.025785249
110	0x3cf42138	0.029800996
111	0xbd7999e0	-0.060937762
112	0xbcd3e5a2	-0.025866333
113	0x3d03b63c	0.032156214
114	0xbca075ad	-0.019587362
115	0xbc2748f5	-0.010210265
116	0xbc678411	-0.014130608
117	0x3c05ae20	0.00815919
118	0x3c2df13e	0.010616599
119	0xbd275843	-0.040855657
120	0x3ce2d6f3	0.027690386
121	0xbc5a142a	-0.013310472
122	0xbb0e161a	-0.0021680654
123	0xbc480606	-0.012208467
124	0x3cf56903	0.0299573
125	0xbcf28ff6	-0.029609662
126	0x3d6a6993	0.05722959
127	0xbcde3dfe	-0.02712917
128	0xbbfe6530	-0.0077635273
129	0x3cae62aa	0.021287281
130	0x3d3b75bd	0.04576658
131	0x3c272324	0.010201249
132	0xbd3bda94	-0.04586275
133	0x3ca8a5b2	0.020586822
134	0xbce1446e	-0.02749845
135	0xb94ba982	-0.00019422735
136	0xbd360ff6	-0.044448815
137	0x3cc41262	0.023934547
138	0x3e575dca	0.21031871
139	0x3c16c4f6	0.009202233
140	0x3d309fba	0.043121077
141	0x3bf48876	0.0074625565
142	0x3d8a0b18	0.06740397
143	0xbc78aefb	-0.015178437
144	0xbc3f9ea7	-0.0116955405
145	0xbe049b7c	-0.12949938
146	0xbd1154dc	-0.03548132
147	0xbd8fcd15	-0.07021538
148	0xbcf5ac7c	-0.029989474
149	0x3a90805f	0.0011024586
150	0xbcaccfcf	-0.021095185
151	0x3d7bd1f8	0.06147954
152	0x3d66417c	0.056214795
153	0xbcf6b549	-0.03011574
154	0x3d774292	0.06036622
155	0xbba308d8	-0.0049754195
156	0xbd991169	-0.07474024
157	0x3d073c80	0.03301668
158	0xbd3ecfa6	-0.046584748
159	0xbd5db486	-0.05412724
160	0x3b0e03d0	0.0021669753
161	0xbdaf0877	-0.085465364
162	0xbcd448b0	-0.025913566
163	0x3c94befa	0.018157471
164	0x3d29eb75	0.041484315
165	0x3dd381ae	0.10327469
166	0x3d77b7be	0.060477965
167	0x3d383510	0.04497248
168	0x3c9d8984	0.019230612
169	0x3cbc741d	0.023004586
170	0xbde29772	-0.11064042
171	0x3d96e1e4	0.07367304
172	0x3b29c68f	0.0025905704
173	0x3def3415	0.11679856
174	0xbb3021b9	-0.002687557
175	0xbc5ffb44	-0.013670746
176	0xbb940c7e	-0.0045180907
177	0x3c4067f4	0.011743534
178	0x3c73e33e	0.014885722
179	0xbca13393	-0.019677913
180	0x3ce07878	0.027401194
181	0x3d03f4ec	0.032215998
182	0x37d7865b	2.5692561e-05
183	0x3c0379b3	0.008024621
184	0xbad9ea15	-0.0016625548
185	0x3c4a7074	0.0123559125
186	0xbbd60355	-0.006531159
187	0x3ca4cc93	0.02011708
188	0x3c51f3a4	0.012814436
189	0xbb871644	-0.0041225273
190	0xbc9fd714	-0.019511737
191	0xbc3c82da	-0.011505807
192	0xbb632948	-0.0034662057
193	0x3aa14e39	0.0012306637
194	0xbb7f6a64	-0.0038973326
195	0x3aa8ad57	0.0012869042
196	0x3bf0d207	0.007349256
197	0xbc589d9b	-0.01322117
198	0x3bf733e5	0.007544028
199	0x3a175570	0.0005772924
200	0xbd086098	-0.033295244
201	0x3c29441f	0.010331183
202	0xbc6fc616	-0.01463463
203	0xbbb87de1	-0.0056302403
204	0x3c401898	0.011724614
205	0xbc538e53	-0.012912351
206	0xba75be53	-0.0009374369
207	0x3bfe85c6	0.007767412
208	0xbd8ad13a	-0.06778188
209	0xbbefbae6	-0.007315981
210	0xbd6512a5	-0.055925984
211	0x3e189706	0.14901361
212	0xbdab42a9	-0.08362324
213	0xbe1da128	-0.15393507
214	0x3dae10fe	0.08499335
215	0x3d92e2c4	0.07172158
216	0x3e027c53	0.12742738
217	0xbd03184a	-0.032005586
218	0x3cc9f67d	0.024653668
219	0x3e14ff06	0.14550409
220	0xbdcbd21c	-0.099521846
221	0x3d015e81	0.031584267
222	0xbcc43314	-0.023950137
223	0x3d32be5b	0.04363857
224	0x3d2465a4	0.040135995
225	0x3dbfd633	0.09367027
226	0x3de8cac8	0.113668025
227	0x3d8681bb	0.06567713
228	0xbd80c5ea	-0.06287749
229	0xbdcd9a84	-0.10039237
230	0x3da1e77f	0.079054825
231	0xbde88c3d	-0.11354873
232	0xbd118139	-0.035523627
233	0xbe1a816a	-0.1508843
234	0xbe1f73d8	-0.15571535
235	0xbddc625b	-0.10760947
236	0x3d94a059	0.072571464
237	0x3d2112b5	0.03932448
238	0xbe22168d	-0.15828915
239	0x3dae5a08	0.08513266
240	0x3d0b2dda	0.033979274
241	0x3dc41177	0.09573644
242	0x3b986f18	0.0046519153
243	0xbe4b4530	-0.19850612
244	0x3c9e1819	0.0192986
245	0x3d450469	0.04809991
246	0x3d0ee3ff	0.034885403
247	0xbdbedbdf	-0.09319281
248	0xbdc5e234	-0.096622854
249	0x3e23e09c	0.1600365
250	0x3e2014c8	0.15632927
251	0x3d37f6ec	0.044913217
252	0xbdb6fb46	-0.08934645
253	0x3d421040	0.04737878
254	0x3e117316	0.14204058
255	0xbd1fbed4	-0.039000347

cvae_parameters.dec_01_lin_b f4 [128]
0	0x3e1b4b7e	0.15165517
1	0xbccc76c5	-0.024958977
2	0xbbc47204	-0.005995037
3	0x3e0403c1	0.12892057
4	0xbbc472e0	-0.0059951395
5	0xbc1d367a	-0.009595508
6	0x3d715d29	0.058926735
7	0x3e5a30d9	0.21307696
8	0xbba42271	-0.0050089885
9	0xbc845c1f	-0.016157208
10	0xbb06306f	-0.0020475646
11	0xbc975f94	-0.018478192
12	0x3d89486d	0.06703267
13	0xbc310dd2	-0.010806518
14	0xbbc472c7	-0.005995128
15	0xbc1c297b	-0.009531374
16	0x3cb585c9	0.02215852
17	0xbc91a4e8	-0.017778829
18	0xbca734bf	-0.020410893
19	0xbc85d56c	-0.016337119
20	0x38b0615a	8.410467e-05
21	0x3dc1555c	0.09440109
22	0x3d81d50b	0.06339463
23	0x3e353283	0.1769505
24	0x3d67eb66	0.056620978
25	0xbbc298b2	-0.005938613
26	0x3c2c3ea7	0.010512984
27	0xbbfb7d31	-0.007674836
28	0x3e0780cd	0.13232727
29	0x3d91ddfe	0.0712242
30	0x37a8a4e0	2.0103937e-05
31	0xbbc4430a	-0.005989437
32	0x3d9430a8	0.07235843
33	0x3c3d0881	0.011537672
34	0x3e775023	0.24151663
35	0xbc93e70c	-0.018054508
36	0xbb5b9af6	-0.0033509112
37	0xbd1e7995	-0.03869017
38	0xbd3d2458	-0.04617724
39	0xbc73cda4	-0.0148805715
40	0xbc61a43e	-0.013772069
41	0x3db9f187	0.09079271
42	0xbc927fd8	-0.017883226
43	0xbcdd6f85	-0.027030716
44	0x3e685d70	0.22691894
45	0xbc8df6b3	-0.01732955
46	0x3b327064	0.0027227635
47	0xbd82f0bd	-0.063935734
48	0x3d3f5069	0.046707544
49	0xbda81cb2	-0.08208598
50	0x3c20da15	0.00981762
51	0xbc49733e	-0.012295542
52	0xbd1c553b	-0.03816722
53	0x3d56f364	0.05247821
54	0xbd03f62e	-0.032217197
55	0x3dc99bef	0.09844195
56	0xbb9a11f2	-0.0047018463
57	0x3f1227fd	0.5709227
58	0x3bd9fc55	0.006652395
59	0xbd2ae956	-0.041726433
60	0xbc5622dc	-0.013069835
61	0x3c0c7efd	0.008575198
62	0xbbc472f9	-0.005995151
63	0xbcb6e32e	-0.022325125
64	0xbc7ac999	-0.015306854
65	0x3e1fe035	0.15612872
66	0x3df79fb7	0.1209101
67	0xbdc708e7	-0.09718495
68	0xbc3e0a69	-0.011599162
69	0xbc986ec6	-0.018607508
70	0x3b867cda	0.004104239
71	0xbc8ce32a	-0.017198164
72	0x3e80555d	0.25065127
73	0xbbae5dfc	-0.0053212624
74	0xbbc47273	-0.0059950887
75	0xbc72072f	-0.0147722205
76	0xbd10f1e3	-0.03538693
77	0xbca44b35	-0.020055393
78	0xbbc1c1e5	-0.0059130066
79	0xbc2a6e5c	-0.010402288
80	0xbc44dd90	-0.012015715
81	0x3d1eef2d	0.038802315
82	0x3bb2038e	0.0054325527
83	0xbbbb8768	-0.005722929
84	0xbbc47307	-0.0059951576
85	0x3c3498fc	0.011022802
86	0x3d3200b7	0.043457713
87	0xbda99c07	-0.08281713
88	0xbc38afc7	-0.011272377
89	0xbc4969d6	-0.0122933
90	0xbbc471f2	-0.0059950287
91	0xbd534c80	-0.051586628
92	0xbc6c8ff0	-0.014438614
93	0xbd3cb9af	-0.04607552
94	0xbc8d8f49	-0.017280238
95	0xbbc472b7	-0.0059951204
96	0xba7e10f7	-0.0009691859
97	0xbc9a571e	-0.018840369
98	0x3c16354f	0.009167983
99	0x3e16355a	0.1466879
100	0xbbcaa2a9	-0.0061839414
101	0xbca9f733	-0.020747757
102	0xbcb39999	-0.021923827
103	0xbbc47283	-0.005995096
104	0xbbc28631	-0.005936407
105	0xbc3f6649	-0.0116821015
106	0xbc46cde6	-0.012134051
107	0xbc8aed50	-0.016958863
108	0x3dd77a82	0.105214134
109	0x3ecaf0ff	0.3963699
110	0xbce4e7e4	-0.027942605
111	0x3e80fdb8	0.25193572
112	0xbd43e226	-0.047823094
113	0xbcfa9692	-0.030589376
114	0x3ea70593	0.3262144
115	0xbbcc13f9	-0.006227967
116	0x3e634ade	0.22196528
117	0xbc975314	-0.018472232
118	0x3b2f6f06	0.0026769056
119	0xbdc6f046	-0.09713797
120	0xbd2455dd	-0.040120948
121	0xbc9a1f6f	-0.018813817
122	0x3d39f1ba	0.045396544
123	0xbd6d8534	-0.05798836
124	0xbbbdf66a	-0.005797197
125	0xbc478310	-0.012177244
126	0xbce5ea33	-0.028065776
127	0x3d15b7c8	0.03655222

cvae_parameters.dec_01_lin_w f4 [128, 128]
0	0xbda648b5	-0.081193365
1	0x3d33ea6b	0.04392473
2	0x3eaa0781	0.3320885
3	0xbd29a125	-0.041413445
4	0xbe46747a	-0.1938037
5	0x3bffa0d4	0.0078011546
6	0xbd5c6563	-0.053807627
7	0xbca4a986	-0.020100366
8	0x3d80a9cf	0.062823884
9	0x3cdd563f	0.027018664
10	0x3d85465b	0.0650756
11	0x3d3a035a	0.045413353
12	0x3bedf0b3	0.0072613596
13	0xbd8bc4d7	-0.068246536
14	0x3e55a104	0.20862204
15	0x3dd37926	0.103258416
16	0x3cad8a6f	0.021184174
17	0xbd9c80f8	-0.07641786
18	0x3ebd85aa	0.3701604
19	0xbcfeb376	-0.031091433
20	0x3cdaf576	0.026728373
21	0xbe07df4c	-0.13268775
22	0xbc441303	-0.011967423
23	0xbbe70d2f	-0.007051132
24	0xbd608f7d	-0.05482434
25	0xbe17ddcc	-0.14830703
26	0x3cfdac7d	0.030966038
27	0xbc95abce	-0.0182704
28	0xbbfb29b5	-0.007664884
29	0xbd76cb8c	-0.06025271
30	0xbca910dc	-0.020637922
31	0xbd8fc44b	-0.07019862
32	0x3e33a1f0	0.17542243
33	0xbd337942	-0.043816812
34	0xbe438a3c	-0.19095701
35	0xbe2a6413	-0.16639738
36	0xbde8f9d6	-0.113757774
37	0xbe4243ec	-0.18971223
38	0x3c888ef0	0.01666972
39	0xbd88b9df	-0.06676077
40	0x3b92c29c	0.0044787657
41	0xbce1b0fc	-0.027550213
42	0x3d8e5a02	0.069507614
43	0xbda4b2eb	-0.080419384
44	0xbdbe0107	-0.0927754
45	0xbd179345	-0.03700568
46	0xbe08ed42	-0.13371757
47	0xbdbce0a5	-0.09222535
48	0x3d53d7f9	0.05171964
49	0xbc9a5326	-0.018838476
50	0xbbd1c1e9	-0.0064012897
51	0x3e2069fe	0.15665433
52	0x3cd7fb6f	0.02636501
53	0xbc680f11	-0.014163748
54	0x3da9be07	0.08288198
55	0xbe266e57	-0.16253029
56	0xbd4eb184	-0.05046226
57	0x3e741d09	0.23839201
58	0xbdd822b0	-0.10553491
59	0x3be9dfc3	0.00713727
60	0xbdc9a0c7	-0.09845119
61	0xbdf791cd	-0.12088356
62	0xbe23fca0	-0.16014338
63	0x3d28b0de	0.0411843
64	0xbe61e5fd	-0.2206039
65	0xbdc4f0b1	-0.09616221
66	0xbe179c49	-0.14805712
67	0xbbbc306a	-0.005743076
68	0x3dd17ed7	0.10229271
69	0x3d7aa54b	0.061192792
70	0x3e473fd4	0.19457942
71	0xbd462e2c	-0.048383877
72	0x3d449114	0.04798992
73	0xbe00eace	-0.12589571
74	0xbd58d821	-0.05294049
75	0xbe84a42a	-0.25906497
76	0xbc6df622	-0.014524015
77	0x3e11f059	0.14251842
78	0x3d102d0b	0.035199206
79	0xbe651e36	-0.22374806
80	0xbdfd19e0	-0.12358451
81	0x3df3d990	0.11906731
82	0x39ab0ece	0.00032626692
83	0x3db73d3a	0.08947225
84	0x3d94b25b	0.07260581
85	0x3cb4b9bd	0.022061223
86	0x3e204f1c	0.15655178
87	0xbe0c4cfe	-0.13701245
88	0xbe4e2731	-0.20132138
89	0x3d12a539	0.0358021
90	0xbd6b611b	-0.057465654
91	0xbd089e62	-0.03335417
92	0x3d576988	0.052590877
93	0x3da877fc	0.0822601
94	0xbe4a4164	-0.19751507
95	0xbd817fea	-0.06323226
96	0xbd749257	-0.059709873
97	0x3ad422ee	0.0016184726
98	0xbd223057	-0.03959688
99	0x3c7d8f1d	0.015476015
100	0xbe10abed	-0.14128084
101	0xbe9610e5	-0.29309765
102	0xbd934da0	-0.0719254
103	0xbea5b38c	-0.32363546
104	0xbe2fa7ce	-0.17153856
105	0x3c9d60ed	0.019211257
106	0xbe465f9d	-0.19372411
107	0xbd356da3	-0.04429401
108	0x3e2054fc	0.15657419
109	0xbe82c2f7	-0.2553937
110	0xbd83ff41	-0.0644517
111	0xbdef6e35	-0.11690942
112	0xbd98454a	-0.07435091
113	0xbdeea9e1	-0.116534956
114	0x3be32125	0.0069314414
115	0x3cdd7632	0.027033899
116	0xbe0b87fa	-0.1362609
117	0xbd91d50a	-0.07120712
118	0xbe1e13fb	-0.1543731
119	0xbe8e2617	-0.27763435
120	0xbc998f19	-0.018744992
121	0xbdea4276	-0.11438458
122	0xbbdb93d4	-0.006700972
123	0xbd3bd526	-0.04585757
124	0xbd138140	-0.036011934
125	0xbc269a13	-0.01016857
126	0x3b3887ec	0.0028157188
127	0xbd996c9b	-0.07491418
128	0xbb68f5d6	-0.003554692
129	0x3b0569e2	0.00203573
130	0xbbc560a8	-0.006023485
131	0xbca8070d	-0.020511175
132	0xbcafef14	-0.021476306
133	0x3ba33d49	0.004981671
134	0x3b6162dc	0.00343912
135	0xbc7cc63d	-0.015428123
136	0x3a8d65dd	0.0010787804
137	0xbb899746	-0.0041989414
138	0xbba8525f	-0.0051367725
139	0x3c3a8a92	0.011385577
140	0xbbdbc00c	-0.0067062434
141	0xbc41bdee	-0.011825068
142	0xbc16f3f7	-0.009213439
143	0x3b228bfd	0.0024802678
144	0xbc8b40c3	-0.016998654
145	0xbc67598c	-0.014120471
146	0xbcace45d	-0.021104986
147	0xbd9fb491	-0.07798112
148	0xbc658d98	-0.014010809
149	0xbb1e52c3	-0.0024158217
150	0xbc5b8e65	-0.013400649
151	0xbc95e204	-0.01829625
152	0xbdf74444	-0.120735675
153	0xba83c72a	-0.0010053862
154	0x3bc3707f	0.0059643383
155	0xbbe24d35	-0.0069061765
156	0xbbd2914e	-0.006426013
157	0x3a918411	0.0011101981
158	0xbb6d7049	-0.0036230257
159	0xbc229710	-0.009923711
160	0x3c647f1c	0.013946321
161	0xbc030a68	-0.0079980865
162	0x3b0f3b59	0.0021855442
163	0xbc982897	-0.018574042
164	0xbdf076b9	-0.117413945
165	0x3ca8ed18	0.020620868
166	0x3b45e09b	0.003019369
167	0xbc2665b8	-0.010156088
168	0xbc533292	-0.012890475
169	0xbc3ee9a0	-0.01165238
170	0xbaf7fc54	-0.0018919804
171	0x3aef72af	0.0018268431
172	0xbc19d6d9	-0.009389603
173	0xbbfc3e69	-0.0076978696
174	0x3c643bbc	0.013930257
175	0xbc155d32	-0.009116458
176	0xbc9e301a	-0.019310046
177	0x3cc9622b	0.024582943
178	0x3c64b7d1	0.013959841
179	0xbad05310	-0.0015893895
180	0xbb23561f	-0.0024923158
181	0x3b88b2d5	0.004171709
182	0x3ca8770d	0.02056458
183	0xbc61b28c	-0.013775479
184	0x3b08e6ca	0.0020889514
185	0x3c5b3098	0.013378285
186	0xbc898a48	-0.01678957
187	0xbc4ec592	-0.012620347
188	0x3b517828	0.0031962488
189	0x3b604488	0.0034220535
190	0x3c35f1d3	0.011105019
191	0xbad65be0	-0.0016354285
192	0xba5a841a	-0.00083357247
193	0xbc0d9b04	-0.008642916
194	0xbcb58deb	-0.022162398
195	0x3c00e626	0.007867372
196	0xbc10b4a0	-0.008832127
197	0xba8c0676	-0.0010683078
198	0xbc2b2a66	-0.01044712
199	0x3c2421ef	0.010017856
200	0xbc681c9d	-0.014166978
201	0xbda75c98	-0.08171958
202	0xbe077758	-0.1322912
203	0xbcc28a38	-0.023747548
204	0xb888a77a	-6.51618e-05
205	0x3b242972	0.0025049117
206	0x3b100ce7	0.0021980347
207	0xbdf2dd32	-0.11858596
208	0xbc396596	-0.011315724
209	0xbb382e46	-0.0028103753
210	0xb9e77fa6	-0.0004415486
211	0xbb748902	-0.0037313108
212	0xbaf62ec3	-0.0018782247
213	0xbc4c6748	-0.012475796
214	0xbb9e64fd	-0.004833816
215	0xbc3fda7d	-0.0117098065
216	0xbc2076b1	-0.009793923
217	0xbc48a11d	-0.012245444
218	0xbbc45a40	-0.005992204
219	0xbbbb4e0e	-0.005716092
220	0xbb23ef61	-0.0025014507
221	0xbc4a0554	-0.012330372
222	0x3b3aeda4	0.0028522993
223	0xbc68f0db	-0.014217581
224	0x3ba154c4	0.004923435
225	0x39422fce	0.0001851909
226	0x3c59deb1	0.013297723
227	0xbc4e457f	-0.012589811
228	0xbc63273b	-0.013864334
229	0xbc3807d9	-0.01123234
230	0x3c24941e	0.0100450795
231	0x3c923213	0.017846143
232	0xbc1a6642	-0.009423794
233	0x3b9bebb6	0.0047583235
234	0xbb746ef1	-0.0037297572
235	0xbc12d5db	-0.00896212
236	0xbbace03a	-0.0052757533
237	0x3c0269b9	0.007959777
238	0x3c101a1d	0.008795288
239	0x3b059d42	0.0020387922
240	0xba8dd0b2	-0.0010819642
241	0x3b8ca672	0.0042923028
242	0xbb8c74c0	-0.0042863786
243	0xbc85eba0	-0.016347706
244	0xbc48cdeb	-0.012256126
245	0xbc635281	-0.013874651
246	0xbb9bfbbb	-0.004760233
247	0xbd3068ae	-0.04306858
248	0x3b2e6809	0.0026612303
249	0xbcc6b312	-0.02425531
250	0xbae446ed	-0.0017416157
251	0xbc06c3fa	-0.008225435
252	0xbcbbefd5	-0.02294151
253	0x3c56961f	0.013097315
254	0xbc2fb14d	-0.010723424
255	0x3c0d9f7b	0.00864398

cvae_parameters.enc_00_lin_b f4 [128]
0	0xbe2ec369	-0.1706673
1	0xbe80ea65	-0.2517883
2	0xbe34904f	-0.17633174
3	0xbdb4f7c0	-0.08836317
4	0x3d0e5a20	0.03475392
5	0xbe02bdba	-0.12767687
6	0xbe07fa1d	-0.13279004
7	0xbdddd1b7	-0.108310156
8	0xbe27d2a1	-0.16388942
9	0xbd2310e5	-0.039811034
10	0xbd2da999	-0.04239807
11	0xbd923662	-0.07139279
12	0xbdf87f80	-0.12133694
13	0xbe6f5073	-0.23370533
14	0xbe3ffa6c	-0.18747872
15	0xbe185ccb	-0.14879148
16	0x3e4819f1	0.19541146
17	0xbde2548c	-0.11051282
18	0xbc7c7c72	-0.015410529
19	0xbe2d6f34	-0.16936952
20	0xbe4f10d9	-0.2022127
21	0xbe0f3e88	-0.13988698
22	0xbe129490	-0.14314485
23	0xbe0a240d	-0.13490315
24	0xbd9a6017	-0.07537859
25	0x3e7b1bff	0.24522398
26	0xbda46a95	-0.080281414
27	0xbe229d5d	-0.15880342
28	0xbdf4d916	-0.11955468
29	0xbe28dc16	-0.16490206
30	0xbe0cfcba	-0.13768283
31	0xbd915325	-0.07095937
32	0x3e2565db	0.16152136
33	0xbe32ed1b	-0.17473261
34	0xbe56c626	-0.20974025
35	0xbe00efd6	-0.1259149
36	0xbd4e998f	-0.050439414
37	0xbca8c74b	-0.020602843
38	0xbe0694a4	-0.1314264
39	0xbdf37981	-0.118884094
40	0xbe291abb	-0.16514103
41	0xbdf04322	-0.117315546
42	0xbe412625	-0.18862207
43	0xbdf893af	-0.121375434
44	0xbdf190a4	-0.11795166
45	0xbe0055c3	-0.12532715
46	0xbe10bb48	-0.14133942
47	0xbe2049c5	-0.15653141
48	0x3d917246	0.07101874
49	0xbe283eb6	-0.16430172
50	0xbe0fab24	-0.14030129
51	0x3d74e063	0.059784304
52	0xbc87572d	-0.01652106
53	0xbd9d26a2	-0.07673384
54	0xbe056723	-0.13027625
55	0xbe23be95	-0.1599067
56	0xbc476dde	-0.0121721905
57	0xbd991d9d	-0.074763514
58	0xbe23ebee	-0.16007969
59	0xbdeedfc8	-0.11663777
60	0xbdf68bf4	-0.12038413
61	0x3e24a8d9	0.16080035
62	0xbe33f709	-0.17574705
63	0xbe0931ab	-0.13397853
64	0xbe19f213	-0.1503375
65	0xbd7c3b7a	-0.06158016
66	0xbe00c243	-0.12574105
67	0xbcd4adaa	-0.025961716
68	0x3e40b2e0	0.18818235
69	0xbe692edf	-0.22771786
70	0xbd05cb03	-0.03266431
71	0x3de96b16	0.11397378
72	0xbe469cb0	-0.19395709
73	0xbdfdfdf7	-0.124019556
74	0xbdc92fd2	-0.09823574
75	0xbe110ab6	-0.14164242
76	0xbe32ef9e	-0.17474219
77	0xbe31926a	-0.17341009
78	0x3dd5939b	0.10428544
79	0xbe29d0f0	-0.1658361
80	0xbe160d20	-0.14653444
81	0xbd1157fc	-0.0354843
82	0x3e298372	0.16554049
83	0xbc10a024	-0.008827243
84	0x3c91c8f0	0.01779601
85	0xbdf8858d	-0.12134848
86	0xbd6f5770	-0.058432996
87	0xbe22de82	-0.15905192
88	0xbe5ff1e8	-0.21869624
89	0xbe242c0c	-0.16032428
90	0xbd857f28	-0.06518394
91	0xbde6c034	-0.112671286
92	0xbcb82bea	-0.022481877
93	0xbe3c5da3	-0.18395095
94	0xbe04c67d	-0.12966342
95	0x3cde4e1e	0.027136859
96	0x3e2f1123	0.17096381
97	0xbe28902e	-0.1646125
98	0x3e20d0b5	0.15704615
99	0xbe00fdd1	-0.12596823
100	0xbe410e4f	-0.18853115
101	0xbe014689	-0.12624563
102	0x3e2b1cbb	0.16710179
103	0xbdd690c6	-0.10476832
104	0xba3b4e91	-0.0007145191
105	0xbe025b26	-0.12730083
106	0xbe1b6421	-0.15174915
107	0x3d68ee63	0.05686797
108	0xbe0b934c	-0.13630408
109	0xbe120818	-0.142609
110	0xbdfce0d7	-0.12347572
111	0xbdf69a3e	-0.12041138
112	0xbda74c8b	-0.08168896
113	0xbdc7f65c	-0.09763786
114	0xbe080c12	-0.13285854
115	0x3de832d0	0.11337817
116	0xbe13473d	-0.14382644
117	0xbde50744	-0.111830264
118	0xbdbdb705	-0.09263424
119	0xbd97c783	-0.07411101
120	0xbe2ca723	-0.16860633
121	0xbdfc968b	-0.12333401
122	0xbe48ae58	-0.19597757
123	0xbe1ea53d	-0.15492721
124	0xbe1a40cb	-0.15063779
125	0xbe239295	-0.15973885
126	0xbe1e8413	-0.1548007
127	0xbde785fc	-0.11304852

cvae_parameters.enc_00_lin_w f4 [128, 163]
0	0xbe0c8123	-0.13721137
1	0xbdd8a639	-0.105785795
2	0xbde9eea0	-0.11422467
3	0xbdc25c8d	-0.09490309
4	0xbdd26761	-0.10273624
5	0xbdbd0c61	-0.09230877
6	0xbde849bb	-0.11342188
7	0xbdd5c727	-0.10438376
8	0xbe034189	-0.12817968
9	0xbd1f3b7c	-0.038875088
10	0xbcdd4160	-0.027008712
11	0xbdaa9590	-0.08329308
12	0xbce552ec	-0.027993642
13	0xbc987b66	-0.018613528
14	0xbda78904	-0.081804305
15	0xbd899707	-0.06718259
16	0xbe2c3454	-0.16816837
17	0xbc3c0ec9	-0.011478134
18	0x3cda95b7	0.026682718
19	0xbdcaf827	-0.099106126
20	0x3d7cc1d7	0.061708298
21	0x3d77d8b7	0.06050941
22	0xbd845daf	-0.06463181
23	0x3d569179	0.052384827
24	0xbdfcc509	-0.12342269
25	0xbd9179cc	-0.07103309
26	0x3dd305fc	0.10303876
27	0xbd02cf28	-0.03193584
28	0x3d3c55dd	0.045980323
29	0x3d3a31a7	0.04545751
30	0xbddfe68b	-0.109326445
31	0x3d154696	0.03644427
32	0x3cfd431f	0.030915795
33	0xbd9b6e1e	-0.075893626
34	0x3dbdd26b	0.0926865
35	0x3d91ce63	0.07119443
36	0xbd1b3b51	-0.037898365
37	0x3dbca23b	0.092106305
38	0x3b8ce04a	0.0042991983
39	0x3cf8e816	0.030384105
40	0x3c14bbcd	0.009077978
41	0xbdd402aa	-0.10352071
42	0x3dcf0b55	0.10109583
43	0xbceb3214	-0.028710403
44	0xbda75cb8	-0.081719816
45	0x3d140c48	0.036144525
46	0xbd564207	-0.052309062
47	0xbd4732ad	-0.048632313
48	0xbe01135a	-0.12605038
49	0xbda188b2	-0.07887401
50	0x3d384c9b	0.04499493
51	0xbe0f1214	-0.1397174
52	0xbdad38c6	-0.08458094
53	0xbd9c8d9c	-0.07644197
54	0xbd505224	-0.050859585
55	0xbda3eb6c	-0.080038875
56	0xbd8d6e96	-0.06905858
57	0xbac00f3f	-0.0014652981
58	0xbd2777b2	-0.040885635
59	0xbd092082	-0.033478267
60	0x3c93bd5d	0.018034631
61	0xbd656535	-0.05600472
62	0xbd122b5b	-0.03568588
63	0xbc02c2f5	-0.007981052
64	0x3de79c09	0.11309058
65	0xbddaf529	-0.10691292
66	0xbd91b023	-0.071136735
67	0x3d051bb8	0.032497138
68	0xbd16a951	-0.036782566
69	0xbcf021fd	-0.029313082
70	0xbd8dd691	-0.06925691
71	0x3d4d2ae6	0.05008974
72	0xbc93b6c8	-0.018031493
73	0xbde7dd78	-0.11321539
74	0xbd83f4bd	-0.064431645
75	0x3c79cd71	0.015246735
76	0xbdac3442	-0.08408405
77	0xbd2d0a8c	-0.042246386
78	0x3c45f195	0.012081523
79	0xbd1bff4d	-0.03808527
80	0xbe04dd76	-0.12975106
81	0xbd00cfc1	-0.03144813
82	0x3c95f0aa	0.018303234
83	0x3c84c48c	0.016207002
84	0x3d153427	0.03642669
85	0x3c04e552	0.008111315
86	0x3d5fa5eb	0.05460159
87	0xbdb93111	-0.09042562
88	0xbe26e156	-0.16296896
89	0x3c21dcb1	0.009879277
90	0x3c934871	0.017978879
91	0x3d41d9c6	0.047326826
92	0x3be411be	0.006960123
93	0xbc7acb40	-0.015307248
94	0xbd8c4aef	-0.0685023
95	0xbd66140f	-0.056171473
96	0xbd15110e	-0.036393218
97	0xbe1115df	-0.141685
98	0x3df6eb29	0.12056572
99	0xbbfdaa7e	-0.0077412715
100	0xbd73b709	-0.059500728
101	0xbdd49bd2	-0.10381283
102	0xbd78d9b3	-0.06075449
103	0x3d2d9f18	0.04238805
104	0xbdcf1874	-0.10112086
105	0xbdaf03ab	-0.085456215
106	0x3d18dc5a	0.03731952
107	0x3b98af95	0.004659603
108	0xbdba1718	-0.09086436
109	0xbd5725d7	-0.05252632
110	0xbd9f5eac	-0.07781729
111	0xbc3d5551	-0.011555986
112	0xbbb0bd5e	-0.005393668
113	0xbdc9783f	-0.09837388
114	0x3d4bc92d	0.049752403
115	0x3d6e2f64	0.058150664
116	0xbdcc8fb2	-0.09988345
117	0xbd635cf0	-0.055508554
118	0xbe2b9a6e	-0.16758129
119	0x3cecb6e7	0.028895808
120	0x3d07ce65	0.033155818
121	0xbe1ad31b	-0.15119593
122	0x3d915847	0.07096916
123	0x3d95d28f	0.073155515
124	0xbc174cee	-0.00923465
125	0xbd6d2e62	-0.057905562
126	0xbe40c92b	-0.1882674
127	0x3d17f113	0.03709514
128	0x3b80a2fd	0.0039256797
129	0xbda8a59a	-0.08234711
130	0x3d853d22	0.06505801
131	0x3cf6e565	0.03013868
132	0x3b140d8e	0.0022591087
133	0x3cc8c22f	0.024506656
134	0xbdc5db13	-0.09660926
135	0x3beb0887	0.0071726474
136	0x3da49923	0.08037021
137	0xbd175fa5	-0.036956448
138	0x3cb77166	0.02239294
139	0xbd24c1d6	-0.04022392
140	0xbd9b3a4d	-0.07579479
141	0x3d08f127	0.033433106
142	0xbd17675c	-0.036963806
143	0xbd805163	-0.06265523
144	0xbd379e5d	-0.04482876
145	0x3beaefb5	0.0071696886
146	0xbd193a81	-0.03740931
147	0xbce9ba51	-0.028531225
148	0xbd948104	-0.0725117
149	0xbc9d3301	-0.01918936
150	0xbd5f27c9	-0.0544813
151	0xbd96cdbf	-0.07363462
152	0xbe0390db	-0.12848227
153	0xbdceabeb	-0.100913845
154	0xbe0a6998	-0.13516843
155	0xbdaedb2e	-0.08537899
156	0xbdf943d3	-0.121711396
157	0xbdbc70b4	-0.09201184
158	0xbdf21b28	-0.11821586
159	0xbda5b0e4	-0.0809038
160	0x3c1e7507	0.009671456
161	0xbe38ec63	-0.18058924
162	0x3b45a8fe	0.0030160542
163	0xbe7f7780	-0.2494793
164	0xbe1e679c	-0.15469211
165	0xbe74fce3	-0.23924594
166	0xbe0fa7e9	-0.14028896
167	0xbe365b3a	-0.17808238
168	0xbe3acaf2	-0.1824148
169	0xbe35387f	-0.17697333
170	0xbe0d72ca	-0.1381332
171	0xbdfb122d	-0.12259326
172	0xbdccf48c	-0.10007581
173	0x3b9276d6	0.0044697328
174	0xbe3359aa	-0.17514673
175	0xbe40698f	-0.18790267
176	0xbe311a18	-0.1729511
177	0xbdb552c3	-0.08853676
178	0xbe5faef5	-0.21844085
179	0xbdc57ad2	-0.09642567
180	0xbd5a41e3	-0.05328549
181	0x3e4b2d8a	0.1984159
182	0xbe31ecae	-0.17375442
183	0xbe57b910	-0.2106669
184	0xbe194974	-0.14969426
185	0x3e17c504	0.14821249
186	0xbdb204b2	-0.08692302
187	0x3cd2aa0a	0.025715847
188	0xbd060900	-0.032723427
189	0x3de43b6b	0.111441456
190	0xbdb3cc91	-0.08779252
191	0xbe88fc27	-0.26754877
192	0x3e360037	0.1777352
193	0x3ddcd740	0.10783243
194	0x3dbac3d3	0.09119382
195	0xbce0cd52	-0.027441654
196	0x3e0f5ae5	0.13999517
197	0x3ded159c	0.11576387
198	0x3a67fd23	0.0008849671
199	0xbe2fdde4	-0.17174488
200	0x3e3d53ce	0.18489
201	0xbcfd8870	-0.030948848
202	0x3e2d2fc5	0.16912754
203	0xbd9ffccc	-0.07811889
204	0x3decc268	0.115605175
205	0xbb9c4f92	-0.0047702277
206	0x3d76df8a	0.060271777
207	0xbe144e94	-0.144831
208	0x3c41aed9	0.011821472
209	0xbd75462c	-0.059881374
210	0x3dd1a627	0.10236769
211	0xbe9f6329	-0.3113034
212	0x3d296c4b	0.04136304
213	0x3d7e8680	0.062139988
214	0xbd9eb99b	-0.07750245
215	0xbe61262f	-0.21987222
216	0xbdf3c0b0	-0.119019866
217	0xbdf79eaf	-0.12090813
218	0xbd7172f9	-0.058947537
219	0xbe5eaa3f	-0.21744631
220	0x3d938d11	0.07204641
221	0x3e25a1a3	0.16174941
222	0xbd53169e	-0.05153524
223	0x3cc94596	0.024569314
224	0xbe163401	-0.14668275
225	0xbdcb57b2	-0.09928836
226	0x3cce98f0	0.02521941
227	0xbc6abd12	-0.014327304
228	0xbd325dca	-0.043546475
229	0x3db0086a	0.08595355
230	0xbdb1c587	-0.086802535
231	0xbc6e910f	-0.014560952
232	0xbaa541c8	-0.0012608105
233	0xbda7e205	-0.08197407
234	0x3de6d735	0.11271516
235	0xbe9b9686	-0.30388278
236	0xbe25b7c6	-0.16183385
237	0xbdc0544f	-0.093910806
238	0x3d16153d	0.03664135
239	0xbe1cb46f	-0.15303205
240	0x3d667813	0.056266855
241	0xbde99667	-0.1140564
242	0x3dd416dd	0.10355923
243	0xbce2d619	-0.02768998
244	0xbd7eed41	-0.06223798
245	0x3da4e002	0.080505386
246	0x3e3c272e	0.18374321
247	0xbd843c8d	-0.06456862
248	0x3a4ee012	0.00078916654
249	0x3e1d510e	0.15362951
250	0x3dc1e9d6	0.09468429
251	0x3c45a6e9	0.01206372
252	0xbdbb8ae3	-0.0915735
253	0xbc9c0535	-0.019045452
254	0x3e118ce9	0.14213909
255	0x3d0f4eab	0.034987133

cvae_parameters.enc_01_lin_b f4 [128]
0	0xbbcf1d3c	-0.0063206237
1	0xbd7a9970	-0.061181486
2	0x3e39a642	0.18129829
3	0xbd38d407	-0.04512408
4	0xbd8a9bb9	-0.06767983
5	0xbd997546	-0.07493071
6	0xbd3dc9d0	-0.04633504
7	0xbc0338bd	-0.008009133
8	0xbd669819	-0.056297395
9	0xbd4361d9	-0.047700737
10	0xbc4a0654	-0.01233061
11	0xbd509454	-0.050922707
12	0xbd40f90e	-0.047112517
13	0xbcd83a3f	-0.026394961
14	0xbd8b0399	-0.067877956
15	0xbca1c137	-0.019745452
16	0xbd4d6deb	-0.050153654
17	0xbd49eb9f	-0.04929697
18	0x3d7b01e5	0.061281104
19	0x3e22dd4a	0.15904728
20	0xbdb5432c	-0.08850703
21	0xbba2bd58	-0.004966419
22	0xbcd6fca2	-0.026243512
23	0xbce3a08a	-0.027786512
24	0xbd6a1bac	-0.057155296
25	0xbdad4312	-0.08460058
26	0xbc877607	-0.016535772
27	0xbd3e99fe	-0.046533577
28	0xbc259e4f	-0.0101085445
29	0xbd545544	-0.051839128
30	0xbcf1e573	-0.029528355
31	0xbc63f761	-0.01391396
32	0xbd3e850c	-0.046513602
33	0xbcc0f2bc	-0.023553245
34	0xbd360a49	-0.044443402
35	0xbba6d439	-0.005091217
36	0xbd3c39bc	-0.045953497
37	0xbda02f70	-0.07821548
38	0xbd8ef7fe	-0.069808945
39	0xbc308b36	-0.010775378
40	0xbd4c1e89	-0.049833808
41	0xbd155338	-0.036456317
42	0xbd1dd600	-0.038534164
43	0xbcac959c	-0.021067433
44	0x3d823aef	0.06358897
45	0xbcc3b84d	-0.023891592
46	0xbc97285b	-0.01845186
47	0xbc0b89d1	-0.008516745
48	0xbd3d9717	-0.04628667
49	0xbd4b5b07	-0.049647357
50	0xbc1ef4c4	-0.009701911
51	0xbd7efd12	-0.062253065
52	0xbc72f721	-0.014829428
53	0xbcf762b7	-0.030198438
54	0xbdaa952d	-0.08329234
55	0xbda218bb	-0.07914873
56	0xbc2e6873	-0.01064502
57	0xbc419912	-0.01181628
58	0xbc261685	-0.010137205
59	0xbd73731b	-0.059435945
60	0x3e2463de	0.16053721
61	0xbccfe8ee	-0.025379624
62	0xbda681c0	-0.081302166
63	0xbd2fd658	-0.042929024
64	0xbd234727	-0.039862778
65	0xbc9b88be	-0.018986102
66	0xbc3bcd03	-0.011462453
67	0xbb2b0595	-0.0026095856
68	0xbdc17cdc	-0.09447643
69	0xbc35de18	-0.011100315
70	0xbc2b83f0	-0.010468468
71	0xbd33b2a0	-0.043871522
72	0xbcb86ef7	-0.02251385
73	0xbd848f24	-0.064726144
74	0xbda741ec	-0.081668705
75	0xbd504677	-0.05084845
76	0xbdac74ac	-0.08420691
77	0xbc144b77	-0.009051195
78	0xbd4849fe	-0.04889869
79	0xbdadcbed	-0.084861614
80	0xbc08448f	-0.008317127
81	0xbd9290a7	-0.071564965
82	0xbd74d05d	-0.059769023
83	0xbcbebfa7	-0.023284746
84	0xbd90b280	-0.07065296
85	0xbd33811a	-0.043824293
86	0xbd6ad4c0	-0.0573318
87	0xbd121326	-0.035662793
88	0xbd504f08	-0.05085662
89	0xbd38463f	-0.044988867
90	0xbd46d056	-0.04853853
91	0xbcb3618c	-0.0218971
92	0xbd9efb39	-0.07762761
93	0xbda0eca6	-0.07857637
94	0xbd926976	-0.07149021
95	0xbd2ac26a	-0.041689314
96	0xbd99d8db	-0.07512065
97	0xbd997329	-0.07492668
98	0xbd463733	-0.048392486
99	0xbd849088	-0.0647288
100	0xbd3c4a66	-0.04596939
101	0xbd54230a	-0.05179123
102	0xbc042a66	-0.008066749
103	0xbd55bc2c	-0.052181408
104	0xbdace044	-0.08441213
105	0xbd7870fa	-0.060654618
106	0xbd6059d1	-0.054773156
107	0xbc1db771	-0.009626255
108	0x3d7366a0	0.059424043
109	0xbcb0bf69	-0.021575646
110	0xbd552b3f	-0.052043196
111	0xbcb000ca	-0.021484751
112	0xbda17845	-0.07884268
113	0xbd3e299f	-0.04642641
114	0xbc7cd2ab	-0.0154310865
115	0xbc2fe263	-0.010735127
116	0xbc581431	-0.013188408
117	0xbd58a108	-0.052887946
118	0xbd4c8c9a	-0.049938776
119	0xbd5d8515	-0.054081995
120	0xbc1d8e56	-0.009616455
121	0xbc2e501f	-0.01063922
122	0xbd677b99	-0.056514356
123	0xbd95c4fa	-0.07312961
124	0xbd8718f5	-0.06596557
125	0xbda35b0f	-0.079763524
126	0xbc05bc6b	-0.008162598
127	0xbd858fba	-0.06521554

cvae_parameters.enc_01_lin_w f4 [128, 128]
0	0x38a24a07	7.7385506e-05
1	0xbb3a18b7	-0.002839608
2	0xbacdfe5a	-0.0015716061
3	0xbb3d1f00	-0.0028857589
4	0xbc6f686b	-0.0146122975
5	0x3b4574a4	0.0030129338
6	0xbc65985a	-0.014013374
7	0x3c229de2	0.0099253375
8	0x3b8727e8	0.0041246302
9	0x3b9b3588	0.004736606
10	0xbc792e83	-0.015208843
11	0xbbacbb88	-0.005271379
12	0x3a7a292d	0.0009542879
13	0xbc1763bd	-0.009240088
14	0x3bbf9aba	0.0058473023
15	0xbcc522c1	-0.024064424
16	0x3b690d83	0.0035561032
17	0xbba65db7	-0.0050770896
18	0x3c7e2c73	0.015513527
19	0xbc5f1205	-0.013615136
20	0xbc743fa5	-0.014907752
21	0x3b6f29b6	0.0036493368
22	0xbc171727	-0.009221829
23	0x3c27369f	0.010205894
24	0x3bbc03e4	0.0057377685
25	0xbc1ec567	-0.009690619
26	0xbb2b325f	-0.0026122553
27	0xbbbc3376	-0.0057434393
28	0xbd05ccff	-0.032666203
29	0xbcc39fee	-0.023879971
30	0xbaf27b01	-0.0018499793
31	0x3c8438a6	0.016140293
32	0xba1955f6	-0.0005849296
33	0xbc70d3d4	-0.014698941
34	0xbc0e889e	-0.008699564
35	0x3baee58e	0.0053374236
36	0xbc80e1d3	-0.015732681
37	0xbb8d2fcf	-0.0043086777
38	0x3c6c3c72	0.014418708
39	0x3a8e7fff	0.0010871886
40	0xbc1776bc	-0.009244617
41	0x3b9b93a5	0.004747825
42	0x3bf39db6	0.007434572
43	0xbcba5f3e	-0.022750493
44	0xbba5b9be	-0.0050575426
45	0xbba19c96	-0.0049319966
46	0xbc2421a8	-0.01001779
47	0xbbba1ad6	-0.0056794686
48	0xbb2f0f1c	-0.0026711887
49	0xbca6fd8a	-0.020384569
50	0xbc5e312a	-0.013561526
51	0x37f0635c	2.8656497e-05
52	0xbbcaab99	-0.006185007
53	0xbb92ca61	-0.004479692
54	0xbc08aaa7	-0.008341468
55	0xbc6f2362	-0.014595838
56	0xbb6f1c52	-0.0036485386
57	0x39c5212d	0.00037599486
58	0xbb112bfb	-0.0022151459
59	0xbc48aa8e	-0.012247695
60	0x3bbf57ff	0.0058393474
61	0xbad3a14d	-0.0016146094
62	0xbab3f85c	-0.0013730633
63	0xbc75eef2	-0.015010582
64	0xba7e3da2	-0.0009698515
65	0xbcfcdc12	-0.030866656
66	0xbc240f60	-0.010013431
67	0x3af79dfc	0.0018891688
68	0x3b26dc45	0.002546088
69	0xbcb13b61	-0.02163476
70	0x3b83feba	0.0040281685
71	0xbc063e08	-0.0081935
72	0xbc89960e	-0.016795184
73	0xbc2abcdb	-0.010421003
74	0x3b577317	0.0032874995
75	0xbb2a4e85	-0.0025986743
76	0xbc94cd8b	-0.018164417
77	0xbbd0f901	-0.00637734
78	0xbc861338	-0.016366586
79	0xbbee5f3a	-0.0072745355
80	0xbc310ccc	-0.010806274
81	0xbbf8a725	-0.0075882846
82	0x3c05ef32	0.008174704
83	0xbcadd33d	-0.02121889
84	0xbaf03f74	-0.0018329457
85	0x3a06077c	0.00051128096
86	0xbb52ba5f	-0.0032154543
87	0xbc3ddde8	-0.011588551
88	0xbc34170a	-0.010991821
89	0x3c50dbf9	0.012747758
90	0x3bdfae06	0.006826165
91	0x3abe5daa	0.0014523764
92	0xbc2e46a4	-0.010636959
93	0x3c71ef70	0.014766559
94	0xbbb87a03	-0.0056297793
95	0x3be4c916	0.006981979
96	0x397d4ef7	0.00024157377
97	0x3c1b0768	0.009462215
98	0x3bdd5051	0.006753959
99	0xbc6f3f50	-0.014602497
100	0x3c0c74bc	0.0085727535
101	0xbae09375	-0.0017133789
102	0xbbd6c7a6	-0.0065545617
103	0xbc71fca4	-0.014769707
104	0xbc1ad1f2	-0.009449469
105	0x3c567717	0.013089917
106	0xbb13245d	-0.0022452094
107	0xbcd05488	-0.025430933
108	0x3bd39c24	0.0064578224
109	0xbc519d4a	-0.012793848
110	0xbc1934cb	-0.009350966
111	0x3b9cda4b	0.0047867647
112	0xbc1817ca	-0.0092830155
113	0xbcd4cc84	-0.025976427
114	0xbc048707	-0.008088834
115	0xbb78b71c	-0.0037950939
116	0x3bafd979	0.005366501
117	0x3b8f692c	0.004376551
118	0xbc0df2cf	-0.008663847
119	0x3c80fb62	0.015744869
120	0xb94a5091	-0.00019294235
121	0xbc9988cb	-0.018741986
122	0xbb160940	-0.0022893697
123	0xb9cc3678	-0.00038950494
124	0xba8d424e	-0.0010777207
125	0xbc357114	-0.011074323
126	0xbc3bab52	-0.01145442
127	0xbc3c9045	-0.011509006
128	0x3c9453de	0.018106397
129	0x3cee5b57	0.029096289
130	0x3c8b84fd	0.017031187
131	0xbc8ca87c	-0.017170183
132	0x3b8baeca	0.00426278
133	0xbc0f1601	-0.0087332735
134	0xbc8d4712	-0.017245803
135	0x3c697150	0.014248207
136	0x3c8e8ad5	0.017400185
137	0xbb03cf0c	-0.0020112423
138	0xbb17c8d1	-0.0023160467
139	0x3c397e30	0.011321589
140	0xbb135c5f	-0.0022485477
141	0x3cd45d5d	0.025923425
142	0xbc44acea	-0.012004117
143	0xbc2694c7	-0.010167307
144	0xbcd6e7ae	-0.02623352
145	0xbd4f795e	-0.050652854
146	0xbdd89fe5	-0.105773725
147	0xbb9cfb31	-0.0047906865
148	0x3c553f78	0.01301562
149	0xbb2125a1	-0.002458908
150	0xbad79725	-0.0016448243
151	0xbc3f29fe	-0.011667727
152	0xbd8e41e8	-0.06946164
153	0xbcc478f6	-0.02398346
154	0xbd3739eb	-0.04473297
155	0xbcb554d1	-0.02213517
156	0xbb2d9180	-0.002648443
157	0x3c761539	0.015019708
158	0x3c3b47cb	0.011430691
159	0xbd142cdc	-0.036175594
160	0xb8f5e9fb	-0.000117260926
161	0x3b85850b	0.004074698
162	0xbc18e01b	-0.009330775
163	0xbb4afb6e	-0.0030972618
164	0xbc4d9e11	-0.012549893
165	0xbccae8cc	-0.02476921
166	0xbc00239e	-0.007820992
167	0xbc6e05b1	-0.014527724
168	0xbb23a0b7	-0.002496762
169	0x3a2e077f	0.000663869
170	0xbd46546e	-0.048420362
171	0xbdc543fc	-0.096321076
172	0x3c9924fa	0.01869439
173	0x3b3df1ed	0.002898331
174	0xbbffb89c	-0.0078039896
175	0xbc5ac635	-0.01335292
176	0xbc29b82a	-0.01035885
177	0xbba0462d	-0.004891178
178	0x3c71c05a	0.014755333
179	0xbdb74892	-0.089493886
180	0x3c8be64c	0.017077588
181	0x3b208145	0.0024491113
182	0x3c376970	0.011194572
183	0xbc08665b	-0.008325185
184	0xbc5627a7	-0.013070977
185	0xbc3941ba	-0.011307174
186	0xbc5fac35	-0.013651897
187	0xbb800436	-0.003906752
188	0x3c9a68f0	0.018848866
189	0xbc5cb33b	-0.013470466
190	0xbc85f72e	-0.016353216
191	0x3b9fa1cc	0.0048715826
192	0x3bc506dc	0.0060127806
193	0x3c138091	0.009002821
194	0x3c706bee	0.01467417
195	0x3cccb36c	0.024987899
196	0xbdeb734b	-0.114966
197	0x3cf27a24	0.029599257
198	0xbccc2975	-0.024922112
199	0xbd1b3df5	-0.037900884
200	0x3c0531f9	0.00812959
201	0x3ca10a2c	0.01965817
202	0x3da82c7c	0.0821161
203	0x3bdaf8e5	0.0066825026
204	0xbc03ed7d	-0.008052227
205	0x3a285cbe	0.0006422511
206	0xbd2bfdb7	-0.04199001
207	0x3cd16c2a	0.025564272
208	0xbc074e73	-0.00825845
209	0xbbdcda74	-0.006739909
210	0xbc1137df	-0.008863418
211	0x3c07d5b6	0.008290699
212	0xbbe30f33	-0.006929302
213	0xbb439dcb	-0.002984869
214	0xbd178008	-0.036987334
215	0xbc1a37a2	-0.009412678
216	0x3c925a38	0.017865285
217	0xbc370065	-0.011169528
218	0xbb6a6a12	-0.003576879
219	0xbd48b656	-0.049002014
220	0x3c5e6f9f	0.013576417
221	0x3bbd88cb	0.0057841293
222	0xbd65879f	-0.05603754
223	0x3c5d7553	0.013516742
224	0x3c3338ca	0.010938833
225	0x385dbd2b	5.2866682e-05
226	0x3cc6be85	0.024260769
227	0x3b0c3061	0.002139114
228	0x3d10f68b	0.03539137
229	0xbb2ab2fe	-0.002604663
230	0xbdccd323	-0.10001209
231	0xbda25aef	-0.079275005
232	0xbd15b758	-0.036551803
233	0x3bbef94e	0.0058280593
234	0xbc9dbcd1	-0.019255074
235	0xbd016a54	-0.031595543
236	0xbc23634a	-0.009972403
237	0xbdcf728c	-0.1012927
238	0xbc690897	-0.014223239
239	0x3c0c6611	0.008569256
240	0xbd9a0e5d	-0.07522271
241	0x3c7b86e1	0.015351982
242	0xba6cc9ec	-0.0009032774
243	0xbdbca2d1	-0.09210742
244	0xbbd0ca69	-0.0063717854
245	0x3b525f4f	0.0032100265
246	0x3d3b0c28	0.04566589
247	0x3c0e47e1	0.008684129
248	0x3a1ca5d0	0.0005975636
249	0x3c1aca83	0.009447697
250	0x3b021a9d	0.0019852289
251	0xbcbbd518	-0.02292876
252	0x3be01b15	0.006839166
253	0x3c97d17b	0.018532505
254	0x3ba7b40e	0.0051178997
255	0x3c2a650d	0.010400069

cvae_parameters.out_lin_b f4 [160]
0	0x3ea00122	0.31250864
1	0x3f2ad1e7	0.66726536
2	0x3ec1be59	0.37840536
3	0x3f3bbbb9	0.7333332
4	0x3eeb1cc4	0.45920384
5	0x3f0b5358	0.5442405
6	0x3ea5590a	0.32294494
7	0x3f58c7b7	0.8467974
8	0x3e98e479	0.2986181
9	0x3f284dba	0.657436
10	0x3e91a4bb	0.28445992
11	0x3f286857	0.6578421
12	0x3ee38719	0.4443901
13	0x3ec909e3	0.39265355
14	0x3ea2d1db	0.31800732
15	0x3f58b7a3	0.8465521
16	0x3e5bdb47	0.21470366
17	0x3ee7c7dc	0.45269668
18	0x3e0ac278	0.13550746
19	0x3ecffdec	0.40623415
20	0x3ed0148c	0.40640676
21	0x3df927e1	0.121658094
22	0x3e0516ce	0.1299698
23	0x3f3feb7b	0.7496869
24	0x3e8864e0	0.26639462
25	0x3eb0dcf6	0.3454358
26	0x3e067256	0.13129553
27	0x3e7e7e7b	0.24852936
28	0x3e98cd96	0.2984435
29	0xbd4d026d	-0.05005114
30	0x3e5c8430	0.215348
31	0x3f2aea01	0.6676331
32	0x3e27ea73	0.16398029
33	0x3e83a04b	0.2570823
34	0x3e1e1a0d	0.15439625
35	0x3d0b8d49	0.034070287
36	0x3e2c885b	0.1684889
37	0xbd084600	-0.033269882
38	0x3ebb3431	0.36563256
39	0x3f1a6d61	0.6032315
40	0x3e0b3e61	0.13598014
41	0x3e8a6c25	0.27035633
42	0x3d8f77ce	0.07005273
43	0xbd918e8c	-0.07107267
44	0x3e14cce1	0.1453128
45	0x3da91304	0.0825558
46	0x3e914e29	0.28379944
47	0x3f0f2c3f	0.5592689
48	0x3e257cfc	0.16160959
49	0x3ecd4a16	0.40095586
50	0x3d7d70df	0.06187522
51	0x3e4eedab	0.2020785
52	0x3e59556e	0.21223995
53	0x3e5e6ad6	0.21720442
54	0x3dd39d53	0.103327416
55	0x3eea2db3	0.4573799
56	0x3e5596d7	0.20858322
57	0x3f188cf3	0.5959007
58	0x3da0dc77	0.0785455
59	0x3ed7c0a2	0.42139155
60	0x3e72ebe7	0.23722802
61	0x3eba6c54	0.36410773
62	0x3bc5612c	0.0060235467
63	0x3edd7130	0.43250418
64	0x3e82ba40	0.25532722
65	0x3f141a90	0.5785303
66	0x3dd0141c	0.101600856
67	0x3f0b6e53	0.54465216
68	0x3eb47814	0.35247862
69	0x3ecc822a	0.39943057
70	0xbd59c4ed	-0.05316632
71	0x3f0c69b7	0.5484881
72	0x3e72c7fa	0.23709098
73	0x3f0f15d1	0.55892664
74	0x3db17769	0.08665354
75	0x3ecb7750	0.39739466
76	0x3ed145ca	0.40873557
77	0x3ea55f96	0.3229949
78	0x3cb458cf	0.022015003
79	0x3f1c5140	0.6106148
80	0x3e27e3c1	0.16395475
81	0x3f0ebfe5	0.5576156
82	0x3dce2768	0.1006611
83	0x3e946938	0.28986526
84	0x3e9c8a35	0.30574194
85	0x3e8476cd	0.25871888
86	0x3df37ad6	0.118886635
87	0x3f17130a	0.59013426
88	0x3ddc275e	0.10749696
89	0x3f15ab85	0.58464843
90	0x3e135ce4	0.14390904
91	0x3e5cb315	0.2155269
92	0x3e2c0a09	0.16800703
93	0x3e8ac7d9	0.27105597
94	0x3e3f8a24	0.1870504
95	0x3eb648f9	0.3560255
96	0xbd46711e	-0.04844772
97	0x3ec9bf8a	0.39403945
98	0x3e5ecc42	0.21757606
99	0x3e93b1cb	0.28846583
100	0x3e461129	0.19342484
101	0x3e985921	0.297555
102	0x3dfb6b84	0.12276366
103	0x3eb3ad43	0.35093126
104	0x3c9c89a4	0.0191086
105	0x3ed2fddc	0.41209304
106	0x3e9a3f6f	0.3012652
107	0x3e9fd0bb	0.31213936
108	0x3e8b67f0	0.27227736
109	0x3eaafb2b	0.3339475
110	0x3e32bbaa	0.174544
111	0x3f0224af	0.50837225
112	0xbd76a99d	-0.06022035
113	0x3ee71503	0.45133218
114	0x3e82fd0f	0.25583693
115	0x3e8c4385	0.27395263
116	0x3eab4675	0.33452192
117	0x3ed8f5bd	0.42374983
118	0x3e79b6b8	0.24386108
119	0x3f1f5444	0.62237954
120	0xbd877545	-0.06614164
121	0x3e8a4737	0.27007458
122	0x3e6c2799	0.2306198
123	0x3e890bfe	0.26766962
124	0x3e96a2e6	0.29421157
125	0x3eab9363	0.33510885
126	0x3e5c6959	0.21524562
127	0x3f02a31f	0.51030153
128	0x3e1ca455	0.15297063
129	0x3e2aa10f	0.16663001
130	0x3de4d8fa	0.111741975
131	0x3e8ce5ba	0.27519017
132	0x3ec4af9a	0.38415223
133	0x3eb2898d	0.34870568
134	0x3e45fd05	0.193348
135	0x3ec3bc74	0.38229716
136	0x3eb03f27	0.3442318
137	0x3eddb13d	0.43299285
138	0x3dd238ba	0.10264726
139	0x3ed3743a	0.4129961
140	0x3ec72b8d	0.38900414
141	0x3ef74d58	0.48301196
142	0x3e312156	0.17297873
143	0x3f045e2d	0.517062
144	0x3eb8ca49	0.3609183
145	0x3f279225	0.65457374
146	0x3e99ded5	0.3005282
147	0x3f2adfc6	0.667477
148	0x3ee5744f	0.448153
149	0x3f0c46a5	0.54795295
150	0x3e6eb1f4	0.23310071
151	0x3f478ab7	0.7794604
152	0x3ea0c409	0.31399563
153	0x3f2b7174	0.6696999
154	0x3ebb6370	0.36599302
155	0x3f3ab622	0.7293416
156	0x3eefbc30	0.46823263
157	0x3f0ad301	0.54228216
158	0x3eac2493	0.33621654
159	0x3f5a7690	0.8533716
