dlpg/11/weights/dlpg_model_weights_300.pth (torch, 354171 bytes, 14 tensors)

cvae_parameters.dec_00_lin_b f4 [128]
-0.29488254 -0.31651047 -0.028309064 0.22383012 0.1136225 -0.078526236 -0.06899697 0.0012484109
0.00948239 0.049653675 -0.32807276 -0.26865673 -0.04235349 -0.18022242 -0.10520419 -0.26865247
0.0057608397 -0.12245418 -0.3195808 -0.016273383 -0.013247147 0.055256028 -0.06840736 -0.140274
0.2658885 0.29756895 0.47316304 -0.1847123 -0.06343031 -0.14901777 0.109206915 0.20365828
-0.113865584 -0.20071255 0.046522286 -0.38990128 0.34847143 0.17224056 -0.015969886 0.22686583
-0.25504288 -0.022348082 -0.18758532 0.0029026847 0.20266108 -0.24726571 -0.13603622 0.022222746
-0.087334976 -0.056460585 -0.123271026 -0.37325886 -0.07853612 -0.20290427 0.026426045 -0.019153401
-0.10416065 -0.47056916 -0.030049127 -0.06927985 -0.07279828 0.058862638 0.08714092 0.12546381
-0.08604381 0.2720691 -0.055437878 -0.022651736 -0.40317252 0.067914136 -0.29795796 -0.26180857
-0.22954279 -0.26402017 0.039299373 -0.12048255 -0.027280832 -0.0434895 -0.37249458 0.30729935
-0.025991943 0.26222712 0.0702695 -0.03896538 -0.41943255 -0.0968817 -0.10698377 0.03920223
0.19871756 -0.07958804 0.01621447 -0.060642492 0.16448203 -0.12541138 0.13865867 -0.39040723
-0.19756371 0.06433297 -0.36530375 -0.27424258 -0.13686314 0.104293235 -0.3279534 0.23828584
-0.10642088 0.089970574 -0.16700153 -0.36390424 -0.08334617 0.11144696 0.022242758 -0.4146618
-0.019935723 -0.102835804 -0.12360761 -0.44696796 0.016451294 -0.01609803 0.036605757 -0.06434121
0.2750491 -0.40864247 -0.07144169 0.38960612 0.008340795 -0.1884049 -0.22219342 -0.0626097
00000000: d8fa 96be a90d a2be 69e8 e7bc b933 653e
00000010: eab2 e83d 5dd2 a0bd 494e 8dbd b8a1 a33a
00000020: 075c 1b3c a761 4b3d 27f9 a7be 608d 89be
00000030: da7a 2dbd 3a8c 38be 4b75 d7bd d18c 89be
00000040: 6dc5 bc3b 42c9 fabd 18a0 a3be c24f 85bc
00000050: 900a 59bc 2554 623d 2819 8cbd fda3 0fbe
00000060: 8a22 883e f55a 983e 6d42 f23e 3925 3dbe
00000070: c0e7 81bd 1d98 18be e0a7 df3d cc8b 503e
00000080: 5c32 e9bd 9787 4dbe 278e 3e3d 24a1 c7be
00000090: d96a b23e d45f 303e 47d3 82bc 844f 683e
000000a0: fb94 82be 5313 b7bc 5e16 40be f83a 3e3b
000000b0: 6386 4f3e 3933 7dbe 144d 0bbe 7a0c b63c
000000c0: aedc b2bd 3743 67bd 8575 fcbd c91b bfbe
000000d0: 8cd7 a0bd 23c6 4fbe 6f7b d83c 98e7 9cbc
000000e0: 2e52 d5bd 71ee f0be 9629 f6bc 98e2 8dbd
000000f0: 4417 95bd f319 713d f076 b23d 9679 003e
00000100: bd37 b0bd a44c 8b3e d412 63bd 2290 b9bc
00000110: a16c cebe 9116 8b3d f28d 98be c60b 86be
00000120: 440d 6bbe a72d 87be 61f8 203d 8ebf f6bd
00000130: 0d7c dfbc 0c22 32bd 9cb7 bebe 5756 9d3e
00000140: 0eed d4bc a242 863e 75e9 8f3d 2a9a 1fbd
00000150: ddbf d6be ea69 c6bd 4f1a dbbd 8492 203d
00000160: 9e7c 4b3e 0eff a2bd 35d4 843c 4364 78bd
00000170: fa6d 283e d76b 00be 8afc 0d3e 75e3 c7be
00000180: 244e 4abe 01c1 833d 1809 bbbe 8669 8cbe
00000190: da25 0cbe b197 d53d 82e9 a7be 3401 743e
000001a0: 31f3 d9bd 7e42 b83d 7302 2bbe a851 babe
000001b0: 66b1 aabd 4e3e e43d 7236 b63c 8d4e d4be
000001c0: 3e50 a3bc 949b d2bd fd25 fdbd fcd8 e4be
000001d0: ddc4 863c 04e0 83bc ebef 153d 53c5 83bd
000001e0: 3cd3 8c3e 9639 d1be 0550 92bd 747a c73e
000001f0: d4a7 083c 37ed 40be ac86 63be 8439 80bd

cvae_parameters.dec_00_lin_w f4 [128, 35]
-0.079941794 0.03670037 -0.10877675 -0.039293393 -0.050659075 0.12151066 0.10852321 -0.05626812
0.06814603 0.09581984 0.09838278 -0.12249573 -0.11626511 0.0030159638 0.045294583 0.15722406
0.18133476 0.0441467 -0.02724645 -0.08761073 0.11658717 0.021672111 -0.051050957 -0.0036546646
-0.09309375 -0.14422543 -0.09572186 -0.06491746 -0.056291487 -0.08538871 0.20344397 0.04070463
-0.00035368255 -0.3014824 0.0010811606 -0.10525298 -0.02472843 -0.048322853 0.0076041734 -0.0028770263
-0.010529694 -0.0085144965 0.032208458 -0.047869705 -8.513382e-05 0.0020675617 -0.0119172875 -0.000468053
0.00817968 0.026251528 0.0020513071 -0.013579769 0.01762084 0.032357365 0.022984814 -0.007041209
0.029234132 0.01411679 -0.012944557 0.066696756 0.016660959 0.00019711188 -0.037118066 0.017915498
-0.0022511336 -0.047483783 0.029180557 0.003883707 -0.3064617 0.0030911975 -0.07434888 -0.018101467
0.04570923 0.038069487 -0.07678535 -0.061180662 -0.01887796 0.0029199282 -0.061035257 -0.03529531
0.07574334 -0.053585965 0.09288804 -0.052021146 0.095435336 -0.01134974 -0.048515443 0.030430852
0.0006095191 -0.0372239 0.034187917 0.000606686 0.032339975 0.10838925 0.08382056 0.037954383
-0.051956482 0.052543595 0.061567336 -0.061667312 -0.066002116 0.009317676 0.008837138 -0.019325932
-0.002624979 0.054818004 -0.0985878 0.00083825807 0.072981626 -0.0061304923 0.020997979 -0.084022425
-0.046241228 0.03811904 -0.024914723 0.0005598158 0.004460718 0.013072222 0.026201535 -0.041003376
0.028540345 -0.021462373 -0.008966243 -0.019796606 0.0315062 -0.047694977 0.06921563 -0.029471304
0.022428932 0.045758944 0.07005005 0.007141381 -0.08356666 0.0453356 -0.030514313 -0.0048480146
-0.038832556 0.023934547 0.22759219 0.009202233 0.053719815 0.0057338336 0.06875097 0.028441286
-0.022716863 -0.19615066 -0.036188457 -0.07779069 -0.07548248 -0.008152508 -0.028811866 0.0888019
0.1154342 -0.026318666 0.065641984 -0.024132326 -0.13508675 0.0223379 -0.01897193 -0.04930489
-0.00089513185 -0.07024779 0.02260867 0.049589034 0.06775303 0.12253176 0.078321844 0.014233027
0.036102705 0.02445923 -0.13039505 0.0975212 0.0025905704 0.1176851 -0.002687557 -0.013670746
-0.0045180907 0.011743534 0.014885722 -0.019677913 0.027401194 0.032215998 2.5692561e-05 0.008024621
-0.0016625548 0.0123559125 -0.006531159 0.02011708 0.012814436 -0.0041225273 -0.019511737 -0.011505807
-0.0034662057 0.0012306637 -0.0038973326 0.0012869042 0.007349256 -0.01322117 0.007544028 0.0005772924
-0.033295244 0.010331183 -0.01463463 -0.0056302403 0.011724614 -0.012912351 -0.0009374369 0.007767412
-0.06778188 -0.007315981 0.026613174 0.12295587 -0.08204641 -0.15989412 0.15931815 0.06820897
0.048111934 -0.042974547 0.11729617 0.06983109 -0.12784936 0.12380734 -0.0083618825 0.09682893
-0.069795445 0.0991329 0.09705318 0.06532176 -0.07040919 -0.10439457 0.04400688 -0.08291257
-0.09915941 -0.19632672 -0.13388874 -0.09280999 0.11008258 -0.09066794 -0.19625522 0.11134889
0.060784932 0.013261588 0.0046519153 -0.08416258 0.0192986 0.08119615 0.01762283 0.019617919
-0.04536783 0.1312461 0.096602365 0.042799808 0.07594317 0.032345973 -0.032355618 -0.013136718
00000000: 86b8 a3bd 2153 163d 58c6 debd 1cf2 20bd
00000010: e47f 4fbd 95da f83d 6b41 de3d 6679 66bd
00000020: 2590 8b3d 313d c43d e97c c93d 0bdf fabd
00000030: 671c eebd 7aa7 453b d086 393d 58ff 203e
00000040: d2af 393e 2cd3 343d f233 dfbc 416d b3bd
00000050: 41c5 ee3d b689 b13c cf1a 51bd 1983 6fbb
00000060: f0a7 bebd d5af 13be d309 c4bd 72f3 84bd
00000070: e791 66bd 47e0 aebd 9e53 503e e6b9 263d
00000080: 786e b9b9 e75b 9abe bbb5 8d3a e08e d7bd
00000090: 4793 cabc 2fee 45bd 6e2c f93b 7e8c 3cbb
000000a0: bd84 2cbc 6380 0bbc 04ed 033d 0613 44bd
000000b0: df89 b2b8 ee7f 073b ba40 43bc 0365 f5b9
000000c0: 1104 063c 720d d73c 396f 063b ae7d 5ebc
000000d0: 9459 903c 2889 043d a64a bc3c f1b9 e6bb
000000e0: 6b7c ef3c 1c4a 673c 6815 54bc 4f98 883d
000000f0: 907c 883c d1af 4e39 1d09 18bd 86c3 923c
00000100: c187 13bb 5b7e 42bd 100c ef3c cb85 7e3b
00000110: 8ce8 9cbe b095 4a3b 3a44 98bd 8749 94bc
00000120: 9a39 3b3d c0ee 1b3d a341 9dbd 9398 7abd
00000130: f4a5 9abc 445c 3f3b 1b00 7abd d191 10bd
00000140: 531f 9b3d f57c 5bbd 163c be3d 2014 55bd
00000150: 9a73 c33d 43f4 39bc 21b8 46bd 1f4a f93c
00000160: 22c8 1f3a 1778 18bd a108 0c3d 020a 1f3a
00000170: ec76 043d 2ffb dd3d 1daa ab3d 0e76 1b3d
00000180: 52d0 54bd f437 573d 082e 7c3d dd96 7cbd
00000190: 1e2c 87bd 2aa9 183c a5c9 103c 6b51 9ebc
000001a0: d707 2cbb d888 603d 67e8 c9bd 8cbe 5b3a
000001b0: 6477 953d 4ce2 c8bb f403 ac3c f313 acbd
000001c0: 7167 3dbd b622 1c3d f619 ccbc 9ac0 123a
000001d0: 372b 923b df2c 563c 9aa4 d63c 28f3 27bd
000001e0: 71cd e93c dcd1 afbc 26e7 12bc 7e2c a2bc
000001f0: a50c 013d cf5b 43bd edc0 8d3d ce6d f1bc
00000200: e1bc b73c bb6d 3b3d 6776 8f3d 3f02 ea3b
00000210: ff24 abbd d2b1 393d 27f9 f9bc 18dc 9ebb
00000220: e30e 1fbd 6212 c43c ed0d 693e f6c4 163c
00000230: 4f09 5c3d e2e2 bb3b 4fcd 8c3d b3fd e83c
00000240: b718 babc b8db 48be 593a 14bd ba50 9fbd
00000250: 8f96 9abd 1992 05bc dd06 ecbc c5dd b53d
00000260: c468 ec3d 3e9a d7bc 4e6f 863d 28b1 c5bc
00000270: 2e54 0abe f9fd b63c 056b 9bbc edf3 49bd
00000280: 48a7 6aba 13de 8fbd d135 b93c df1d 4b3d
00000290: 1ac2 8a3d eef1 fa3d 3467 a03d a431 693c
000002a0: 6ee0 133d b95e c83c 4886 05be 32b9 c73d
000002b0: 8fc6 293b e304 f13d b921 30bb 44fb 5fbc
000002c0: 7e0c 94bb f467 403c 3ee3 733c 9333 a1bc
000002d0: 7878 e03c ecf4 033d 5b86 d737 b379 033c
000002e0: 15ea d9ba 7470 4a3c 5503 d6bb 93cc a43c
000002f0: a4f3 513c 4416 87bb 14d7 9fbc da82 3cbc
00000300: 4829 63bb 394e a13a 646a 7fbb 57ad a83a
00000310: 07d2 f03b 9b9d 58bc e533 f73b 7055 173a
00000320: 9860 08bd 1f44 293c 16c6 6fbc e17d b8bb
00000330: 9818 403c 538e 53bc 53be 75ba c685 fe3b
00000340: 3ad1 8abd e6ba efbb df03 da3c 4ad0 fb3d
00000350: f307 a8bd 49bb 23be 4c24 233e 25b1 8b3d
00000360: 0511 453d 1406 30bd f938 f03d 9a03 8f3d
00000370: f1ea 02be b48e fd3d 4700 09bc 3f4e c63d
00000380: eaf0 8ebd 3106 cb3d d1c3 c63d 6ac7 853d
00000390: b232 90bd d2cc d5bd 8f40 343d 11ce a9bd
000003a0: 1714 cbbd df09 49be 211a 09be 2a13 bebd
000003b0: fa72 e13d 1db0 b9bd 21f7 48be e30a e43d
000003c0: 9ff9 783d 2247 593c 186f 983b 6e5d acbd
000003d0: 1918 9e3c 2b4a a63d c15d 903c c2b5 a03c
000003e0: 9ed3 39bd 6165 063e 76d7 c53d da4e 2f3d
000003f0: 1888 9b3d 367d 043d 5387 04bd 643b 57bc

cvae_parameters.dec_01_lin_b f4 [128]
0.14537656 -0.024958977 -0.005995037 0.15316287 -0.0059951395 -0.009595508 0.102830306 0.22465113
-0.011538429 -0.016157208 -0.0020475646 -0.018478192 0.04776405 -0.010806518 -0.005995128 -0.009531374
0.02215852 -0.017778829 -0.020410893 -0.016337119 0.0011293901 0.09440109 0.06339463 0.22336271
0.06288833 -0.005938613 0.010512984 -0.007674836 0.11141951 0.03929764 2.0103937e-05 -0.005989437
0.125919 0.0042469255 0.2793865 -0.018054508 -0.0033509112 -0.03869017 -0.061484184 -0.0148805715
-0.013772069 0.038937125 -0.017883226 -0.027030716 0.2470827 -0.01732955 0.0027227635 -0.063935734
0.046707544 -0.08208598 0.00981762 -0.012295542 -0.03816722 0.05799135 -0.032217197 0.08336334
-0.0047018463 0.58574015 0.006652395 -0.041726433 -0.013069835 0.008575198 -0.005995151 -0.022325125
-0.015306854 0.18262453 0.060963266 -0.10893346 -0.011599162 -0.018607508 0.004104239 -0.017198164
0.28545582 -0.0053212624 -0.0059950887 -0.0147722205 -0.03538693 -0.020055393 -0.0059130066 -0.010402288
-0.012015715 0.038802315 0.0054325527 -0.005722929 -0.0059951576 0.011022802 -0.013409657 -0.08281713
-0.011272377 -0.0122933 -0.0059950287 -0.051586628 -0.014438614 -0.04607552 -0.017280238 -0.0059951204
0.019760065 -0.018840369 0.009167983 0.1466879 -0.0061839414 -0.020747757 -0.021923827 -0.005995096
-0.005936407 -0.0116821015 -0.012134051 -0.016958863 0.07018571 0.42966455 -0.027942605 0.29441983
-0.047823094 -0.030589376 0.3367277 -0.006227967 0.23853815 -0.018472232 -0.0035234375 -0.09713797
-0.040120948 -0.018813817 0.045396544 -0.05798836 -0.005797197 -0.012177244 -0.028065776 0.03655222
00000000: 98dd 143e c576 ccbc 0472 c4bb bad6 1c3e
00000010: e072 c4bb 7a36 1dbc b298 d23d f20a 663e
00000020: ae0b 3dbc 1f5c 84bc 6f30 06bb 945f 97bc
00000030: 3da4 433d d20d 31bc c772 c4bb 7b29 1cbc
00000040: c985 b53c e8a4 91bc bf34 a7bc 6cd5 85bc
00000050: 0b08 943a 5c55 c13d 0bd5 813d 32b9 643e
00000060: 99cb 803d b298 c2bb a73e 2c3c 317d fbbb
00000070: e92f e43d 90f6 203d e0a4 a837 0a43 c4bb
00000080: e9f0 003e cb29 8b3b bf0b 8f3e 0ce7 93bc
00000090: f69a 5bbb 9579 1ebd d7d6 7bbd a4cd 73bc
000000a0: 3ea4 61bc 897c 1f3d d87f 92bc 856f ddbc
000000b0: 3f03 7d3e b3f6 8dbc 6470 323b bdf0 82bd
000000c0: 6950 3f3d b21c a8bd 15da 203c 3e73 49bc
000000d0: 3b55 1cbd 5688 6d3d 2ef6 03bd 66ba aa3d
000000e0: f211 9abb 11f3 153f 55fc d93b 56e9 2abd
000000f0: dc22 56bc fd7e 0c3c f972 c4bb 2ee3 b6bc
00000100: 99c9 7abc ed01 3b3e 9eb4 793d 8218 dfbd
00000110: 690a 3ebc c66e 98bc da7c 863b 2ae3 8cbc
00000120: 4427 923e fc5d aebb 7372 c4bb 2f07 72bc
00000130: e3f1 10bd 354b a4bc e5c1 c1bb 5c6e 2abc
00000140: 90dd 44bc 2def 1e3d 8e03 b23b 6887 bbbb
00000150: 0773 c4bb fc98 343c 2eb4 5bbc 079c a9bd
00000160: c7af 38bc d669 49bc f271 c4bb 804c 53bd
00000170: f08f 6cbc afb9 3cbd 498f 8dbc b772 c4bb
00000180: dcdf a13c 1e57 9abc 4f35 163c 5a35 163e
00000190: a9a2 cabb 33f7 a9bc 9999 b3bc 8372 c4bb
000001a0: 3186 c2bb 4966 3fbc e6cd 46bc 50ed 8abc
000001b0: 87bd 8f3d fefc db3e e4e7 e4bc 32be 963e
000001c0: 26e2 43bd 9296 fabc 9367 ac3e f913 ccbb
000001d0: 5843 743e 1453 97bc 79e9 66bb 46f0 c6bd
000001e0: dd55 24bd 6f1f 9abc baf1 393d 3485 6dbd
000001f0: 6af6 bdbb 1083 47bc 33ea e5bc c8b7 153d

cvae_parameters.dec_01_lin_w f4 [128, 128]
-0.087471955 0.04392473 0.3320885 -0.047688898 -0.20008081 0.0078011546 -0.053807627 -0.020100366
0.062823884 0.02074019 0.0650756 0.045413353 0.0072613596 -0.068246536 0.20234326 0.103258416
0.021184174 -0.08269588 0.3638816 -0.031091433 0.026728373 -0.13896646 -0.011967423 -0.007051132
-0.061102927 -0.15458323 0.030966038 -0.0182704 -0.007664884 -0.066528514 -0.026915895 -0.07019862
0.17542243 -0.05009514 -0.1972358 -0.16639738 -0.120035216 -0.19599056 0.01666972 -0.07303863
0.0044787657 -0.027550213 0.069507614 -0.08669725 -0.099053115 -0.03700568 -0.13999608 -0.09850369
0.0454424 -0.018838476 -0.0064012897 0.15665433 0.020086689 -0.014163748 0.08288198 -0.16880804
-0.05046226 0.23211323 -0.10553491 0.00713727 -0.09845119 -0.12088356 -0.16014338 0.034905795
-0.2206039 -0.10243823 -0.15433495 -0.005743076 0.10229271 0.054915942 0.19457942 -0.048383877
0.04798992 -0.12589571 -0.05294049 -0.25906497 -0.014524015 0.14251842 0.035199206 -0.22374806
-0.12358451 0.11278894 -0.005930912 0.08947225 0.07260581 0.022061223 0.15027285 -0.14329097
-0.20759714 0.0358021 -0.057465654 -0.03335417 0.046313018 0.075982824 -0.2037933 -0.06951048
-0.059709873 -0.00466025 -0.03959688 0.015476015 -0.14128084 -0.29309765 -0.07820424 -0.32363546
-0.17153856 0.012932941 -0.19372411 -0.05057279 0.15029725 -0.2553937 -0.0644517 -0.11690942
-0.07435091 -0.116534956 0.0069314414 0.027033899 -0.14253226 -0.07748513 -0.1543731 -0.28390944
-0.025023678 -0.11438458 -0.006700972 -0.04585757 -0.04213445 -0.01016857 0.0028157188 -0.07491418
-0.003554692 0.00203573 -0.006023485 -0.020511175 -0.021476306 0.004981671 0.00343912 -0.015428123
0.0010787804 -0.0041989414 -0.0051367725 0.011385577 -0.0067062434 -0.011825068 -0.009213439 0.0024802678
-0.016998654 -0.014120471 -0.021104986 -0.07798112 -0.014010809 -0.0024158217 -0.013400649 -0.01829625
-0.120735675 -0.0010053862 0.0059643383 -0.0069061765 -0.006426013 0.0011101981 -0.0036230257 -0.009923711
0.013946321 -0.0079980865 0.0021855442 -0.018574042 -0.117413945 0.020620868 0.003019369 -0.010156088
-0.012890475 -0.01165238 -0.0018919804 0.0018268431 -0.009389603 -0.0076978696 0.013930257 -0.009116458
-0.019310046 0.024582943 0.013959841 -0.0015893895 -0.0024923158 0.004171709 0.02056458 -0.013775479
0.0020889514 0.013378285 -0.01678957 -0.012620347 0.0031962488 0.0034220535 0.011105019 -0.0016354285
-0.00083357247 -0.008642916 -0.022162398 0.007867372 -0.008832127 -0.0010683078 -0.01044712 0.010017856
-0.014166978 -0.08171958 -0.1322912 -0.023747548 -6.51618e-05 0.0025049117 0.0021980347 -0.11858596
-0.011315724 -0.0028103753 -0.0004415486 -0.0037313108 -0.0018782247 -0.012475796 -0.004833816 -0.0117098065
-0.009793923 -0.012245444 -0.005992204 -0.005716092 -0.0025014507 -0.012330372 0.0028522993 -0.014217581
0.004923435 0.0001851909 0.013297723 -0.012589811 -0.013864334 -0.01123234 0.0100450795 0.017846143
-0.009423794 0.0047583235 -0.0037297572 -0.00896212 -0.0052757533 0.007959777 0.008795288 0.0020387922
-0.0010819642 0.0042923028 -0.0042863786 -0.016347706 -0.012256126 -0.013874651 -0.004760233 -0.04306858
0.0026612303 -0.02425531 -0.0017416157 -0.008225435 -0.02294151 0.013097315 -0.010723424 0.00864398
00000000: 7f24 b3bd 6bea 333d 8107 aa3e 6f55 43bd
00000010: fce1 4cbe d4a0 ff3b 6365 5cbd 86a9 a4bc
00000020: cfa9 803d 55e7 a93c 5b46 853d 5a03 3a3d
00000030: b3f0 ed3b d7c4 8bbd 1233 4f3e 2679 d33d
00000040: 6f8a ad3c 755c a9bd b04e ba3e 76b3 febc
00000050: 76f5 da3c 394d 0ebe 0313 44bc 2f0d e7bb
00000060: 1047 7abd 114b 1ebe 7dac fd3c ceab 95bc
00000070: b529 fbbb 1a40 88bd b97e dcbc 4bc4 8fbd
00000080: f0a1 333e 9030 4dbd 2ef8 49be 1364 2abe
00000090: 06d5 f5bd c0b1 48be f08e 883c 4795 95bd
000000a0: 9cc2 923b fcb0 e1bc 025a 8e3d 548e b1bd
000000b0: 5cdc cabd 4593 17bd 225b 0fbe 4dbc c9bd
000000c0: cf21 3a3d 2653 9abc e9c1 d1bb fe69 203e
000000d0: d78c a43c 110f 68bc 07be a93d 04dc 2cbe
000000e0: 84b1 4ebd 17af 6d3e b022 d8bd c3df e93b
000000f0: c7a0 c9bd cd91 f7bd a0fc 23be 61f9 0e3d
00000100: fde5 61be 22cb d1bd fb09 1ebe 6a30 bcbb
00000110: d77e d13d 8aef 603d d43f 473e 2c2e 46bd
00000120: 1491 443d ceea 00be 21d8 58bd 2aa4 84be
00000130: 22f6 6dbc 59f0 113e 0b2d 103d 361e 65be
00000140: e019 fdbd e3fd e63d 1958 c2bb 3a3d b73d
00000150: 5bb2 943d bdb9 b43c 20e1 193e deba 12be
00000160: 5894 54be 39a5 123d 1b61 6bbd 629e 08bd
00000170: b8b2 3d3d e29c 9b3d 31af 50be 835b 8ebd
00000180: 5792 74bd 03b5 98bb 5730 22bd 1d8f 7d3c
00000190: edab 10be e510 96be 8b29 a0bd 8cb3 a5be
000001a0: cea7 2fbe b0e4 533c 9d5f 46be 6a25 4fbd
000001b0: 86e7 193e f7c2 82be 41ff 83bd 356e efbd
000001c0: 4a45 98bd e1a9 eebd 2521 e33b 3276 dd3c
000001d0: faf3 11be 86b0 9ebd fb13 1ebe 945c 91be
000001e0: 75fe ccbc 7642 eabd d493 dbbb 26d5 3bbd
000001f0: 2c95 2cbd 139a 26bc ec87 383b 9b6c 99bd
00000200: d6f5 68bb e269 053b a860 c5bb 0d07 a8bc
00000210: 14ef afbc 493d a33b dc62 613b 3dc6 7cbc
00000220: dd65 8d3a 4697 89bb 5f52 a8bb 928a 3a3c
00000230: 0cc0 dbbb eebd 41bc f7f3 16bc fd8b 223b
00000240: c340 8bbc 8c59 67bc 5de4 acbc 91b4 9fbd
00000250: 988d 65bc c352 1ebb 658e 5bbc 04e2 95bc
00000260: 4444 f7bd 2ac7 83ba 7f70 c33b 354d e2bb
00000270: 4e91 d2bb 1184 913a 4970 6dbb 1097 22bc
00000280: 1c7f 643c 680a 03bc 593b 0f3b 9728 98bc
00000290: b976 f0bd 18ed a83c 9be0 453b b865 26bc
000002a0: 9232 53bc a0e9 3ebc 54fc f7ba af72 ef3a
000002b0: d9d6 19bc 693e fcbb bc3b 643c 325d 15bc
000002c0: 1a30 9ebc 2b62 c93c d1b7 643c 1053 d0ba
000002d0: 1f56 23bb d5b2 883b 0d77 a83c 8cb2 61bc
000002e0: cae6 083b 9830 5b3c 488a 89bc 92c5 4ebc
000002f0: 2878 513b 8844 603b d3f1 353c e05b d6ba
00000300: 1a84 5aba 049b 0dbc eb8d b5bc 26e6 003c
00000310: a0b4 10bc 7606 8cba 662a 2bbc ef21 243c
00000320: 9d1c 68bc 985c a7bd 5877 07be 388a c2bc
00000330: 7aa7 88b8 7229 243b e70c 103b 32dd f2bd
00000340: 9665 39bc 462e 38bb a67f e7b9 0289 74bb
00000350: c32e f6ba 4867 4cbc fd64 9ebb 7dda 3fbc
00000360: b176 20bc 1da1 48bc 405a c4bb 0e4e bbbb
00000370: 61ef 23bb 5405 4abc a4ed 3a3b dbf0 68bc
00000380: c454 a13b ce2f 4239 b1de 593c 7f45 4ebc
00000390: 3b27 63bc d907 38bc 1e94 243c 1332 923c
000003a0: 4266 1abc b6eb 9b3b f16e 74bb dbd5 12bc
000003b0: 3ae0 acbb b969 023c 1d1a 103c 429d 053b
000003c0: b2d0 8dba 72a6 8c3b c074 8cbb a0eb 85bc
000003d0: ebcd 48bc 8152 63bc bbfb 9bbb ae68 30bd
000003e0: 0968 2e3b 12b3 c6bc ed46 e4ba fac3 06bc
000003f0: d5ef bbbc 1f96 563c 4db1 2fbc 7b9f 0d3c

cvae_parameters.enc_00_lin_b f4 [128]
-0.17659624 -0.27845523 -0.18524888 -0.09573074 0.041641563 -0.12767687 -0.13279004 -0.108310156
-0.16388942 -0.039811034 -0.04239807 -0.07139279 -0.12133694 -0.25732905 -0.19549555 -0.18546684
0.22149935 -0.13896331 -0.015410529 -0.19842762 -0.2022127 -0.13988698 -0.14314485 -0.13490315
-0.09752244 0.27034345 -0.100856274 -0.15880342 -0.11955468 -0.16490206 -0.13768283 -0.10359278
0.18344827 -0.17473261 -0.22518218 -0.1259149 -0.050439414 -0.02719762 -0.1314264 -0.118884094
-0.14774522 -0.11808259 -0.2217696 -0.16041115 -0.11795166 -0.12532715 -0.14133942 -0.15653141
0.050610792 -0.16430172 -0.14030129 0.04563116 -0.01652106 -0.04667583 -0.13027625 -0.1599067
-0.0121721905 -0.074763514 -0.16007969 -0.11663777 -0.12038413 0.17807418 -0.18121548 -0.13397853
-0.19484037 -0.06158016 -0.12574105 -0.11774412 0.18869759 -0.23280682 -0.03266431 0.1224492
-0.19395709 -0.124019556 -0.09823574 -0.14164242 -0.18073562 -0.17341009 0.114293106 -0.1658361
-0.14653444 -0.065262444 0.19160935 -0.019375188 0.041880775 -0.12134848 -0.07915602 -0.15905192
-0.21869624 -0.16032428 -0.06518394 -0.13081397 -0.022481877 -0.18395095 -0.1877088 0.024679283
0.19397327 -0.1646125 0.18364741 -0.12596823 -0.18853115 -0.12624563 0.19058542 -0.10476832
0.00720778 -0.12730083 -0.15174915 0.028550567 -0.13630408 -0.17425327 -0.12347572 -0.12041138
-0.11055019 -0.10416153 -0.13285854 0.13071775 -0.14382644 -0.111830264 -0.09263424 -0.07411101
-0.16860633 -0.12333401 -0.23511198 -0.15492721 -0.15063779 -0.15973885 -0.1548007 -0.11304852
00000000: a5d5 34be af91 8ebe e2b1 3dbe 7a0e c4bd
00000010: 5890 2a3d babd 02be 1dfa 07be b7d1 ddbd
00000020: a1d2 27be e510 23bd 99a9 2dbd 6236 92bd
00000030: 807f f8bd a2c0 83be fc2f 48be 05eb 3dbe
00000040: bad0 623e 664c 0ebe 727c 7cbc 9c30 4bbe
00000050: d910 4fbe 883e 0fbe 9094 12be 0d24 0abe
00000060: d8b9 c7bd 756a 8a3e bc8d cebd 5d9d 22be
00000070: 16d9 f4bd 16dc 28be bafc 0cbe 7428 d4bd
00000080: ddd9 3b3e 1bed 32be 2896 66be d6ef 00be
00000090: 8f99 4ebd 8bcd debc a494 06be 8179 f3bd
000000a0: 864a 17be 49d5 f1bd 9217 63be d242 24be
000000b0: a490 f1bd c355 00be 48bb 10be c549 20be
000000c0: 434d 4f3d b63e 28be 24ab 0fbe bde7 3a3d
000000d0: 2d57 87bc 282f 3fbd 2367 05be 95be 23be
000000e0: de6d 47bc 9d1d 99bd eeeb 23be c8df eebd
000000f0: f48b f6bd 1459 363e 8d90 39be ab31 09be
00000100: 3c84 47be 7a3b 7cbd 43c2 00be d423 f1bd
00000110: f139 413e e964 6ebe 03cb 05bd a5c6 fa3d
00000120: b09c 46be f7fd fdbd d22f c9bd b60a 11be
00000130: c212 39be 6a92 31be 8112 ea3d f0d0 29be
00000140: 200d 16be 51a8 85bd 3e35 443e b7b8 9ebc
00000150: 2d8b 2b3d 8d85 f8bd 8d1c a2bd 82de 22be
00000160: e8f1 5fbe 0c2c 24be 287f 85bd 19f4 05be
00000170: ea2b b8bc a35d 3cbe bc36 40be 352c ca3c
00000180: eea0 463e 2e90 28be 110e 3c3e d1fd 00be
00000190: 4f0e 41be 8946 01be d328 433e c690 d6bd
000001a0: 3e2f ec3b 265b 02be 2164 1bbe e1e2 e93c
000001b0: 4c93 0bbe 736f 32be d7e0 fcbd 3e9a f6bd
000001c0: 2368 e2bd a452 d5bd 120c 08be e0da 053e
000001d0: 3d47 13be 4407 e5bd 05b7 bdbd 83c7 97bd
000001e0: 23a7 2cbe 8b96 fcbd 32c1 70be 3da5 1ebe
000001f0: cb40 1abe 9592 23be 1384 1ebe fc85 e7bd

cvae_parameters.enc_00_lin_w f4 [128, 163]
-0.14313966 -0.11171427 -0.12015298 -0.10083156 -0.10866461 -0.09823717 -0.11935016 -0.11031223
-0.13410799 -0.044803612 -0.032936417 -0.08922058 -0.03392216 -0.024542049 -0.087732635 -0.07311107
-0.17409672 -0.01740637 0.03261104 -0.09317806 0.055779733 0.054580823 -0.070558004 0.046456277
-0.12935123 -0.06510466 0.09711031 -0.03786437 0.040051736 0.039528903 -0.103398636 0.030515723
0.024987219 -0.08182206 0.08675802 0.065265894 -0.043826908 0.086177744 -0.0016289381 0.024455585
0.0031494456 -0.109449215 0.10702415 -0.034638874 -0.08764824 0.042070266 -0.05823703 -0.054560307
-0.13197877 -0.084778704 0.05092326 -0.14564583 -0.09050935 -0.070513494 -0.056788076 -0.08596699
-0.07498706 0.004463103 -0.03495714 -0.039406717 0.0121061 -0.061931323 -0.0416144 -0.013909618
0.10716202 -0.11284137 -0.06520819 0.026568653 -0.042710975 -0.03524165 -0.07518538 0.04416113
-0.02396004 -0.11914387 -0.058503386 0.009318441 -0.09001252 -0.048174977 0.006153186 -0.04401386
-0.13567893 -0.037376568 0.02423144 0.022129977 0.030498143 0.0021827505 0.06053006 -0.09635413
-0.1688973 0.003950767 0.023907367 0.04139841 0.0010315713 -0.021234961 -0.06257456 -0.062100008
-0.042321745 -0.14761351 0.12649345 -0.013669776 -0.0654293 -0.09788431 -0.066683054 0.036459446
-0.10704909 -0.09138454 0.031391 -0.0012688804 -0.09679287 -0.04659784 -0.07188934 -0.017484583
0.00053448335 -0.092445396 0.043823864 0.052222125 -0.10581194 -0.049580593 -0.16165276 0.022967216
0.027229529 -0.14526735 0.0650406 0.06722695 -0.015148614 -0.063804075 -0.18233882 0.031166533
-0.0020028048 -0.07641854 0.059129488 0.024210155 0.00818742 0.018581878 -0.09068069 0.001244088
0.07444186 -0.042883847 0.028320324 -0.03429713 -0.08172331 0.027504573 -0.03103523 -0.05672721
-0.050757002 0.0012412647 -0.043337483 -0.034459185 -0.078440174 -0.025117889 -0.048552867 -0.079562835
-0.13441056 -0.106842324 -0.14109676 -0.09130746 -0.12763976 -0.097940244 -0.12414414 -0.08683227
0.009671456 -0.18651776 0.0030160542 -0.27873427 -0.18206833 -0.2674313 -0.17136699 -0.21284455
-0.22186956 -0.19798493 -0.1644321 -0.14351273 -0.10803525 -0.048578884 -0.17938922 -0.19396691
-0.21333233 -0.079216786 -0.24046588 -0.094169356 -0.05398008 0.24882981 -0.14053723 -0.17864494
-0.19890963 0.15765454 -0.09826614 0.110514 -0.021429813 0.1302422 -0.059049215 -0.11694249
0.16904667 0.10977212 0.0799644 -0.013511579 0.19995566 0.113428846 0.026737439 -0.1278468
0.19255683 -0.10299303 0.15606624 -0.06348651 0.13347696 -0.038196348 0.07324225 -0.1341407
0.01683514 -0.08693186 0.09097815 -0.2974857 0.041194905 0.028321622 -0.06924333 -0.20571636
-0.17383721 -0.12436535 -0.05592112 -0.24194029 0.065194435 0.044642944 -0.05237734 0.031230725
-0.15179513 -0.09838937 0.027569313 -0.076277316 -0.04835349 0.041784048 -0.086759225 -0.009254341
0.023257924 -0.05138366 0.114831574 -0.39230174 -0.16555423 -0.105469264 0.039428458 -0.13721384
0.13983855 -0.070957914 0.106715746 -0.040940095 -0.06271507 0.07619507 0.18928386 0.031560544
0.0045084106 0.24607013 0.09869818 0.0064230845 -0.0908234 -0.013608524 0.15673608 -0.034109373
00000000: 3493 12be 74ca e4bd c412 f6bd c780 cebd
00000010: 8d8b debd 9230 c9bd db6d f4bd 61eb e1bd
00000020: 9b53 09be fe83 37bd 56e8 06bd 48b9 b6bd
00000030: f6f1 0abd 680c c9bc 2bad b3bd 42bb 95bd
00000040: 6946 32be ce97 8ebc 2793 053d 24d4 bebd
00000050: 4a79 643d 2490 5f3d b780 90bd f048 3e3d
00000060: a674 04be 9855 85bd c5e1 c63d ab17 1bbd
00000070: 4a0d 243d 0fe9 213d aac2 d3bd 1cfc f93c
00000080: ffb1 cc3c 5392 a7bd 30ae b13d 20aa 853d
00000090: d883 33bd f57d b03d 1882 d5ba 1457 c83c
000000a0: ee66 4e3b e926 e0bd 7a2f db3d 7ee1 0dbd
000000b0: ec80 b3bd df51 2c3d f489 6ebd a17a 5fbd
000000c0: 7125 07be 75a0 adbd e994 503d 2e24 15be
000000d0: f75c b9bd 6169 90bd 9d9a 68bd 760f b0bd
000000e0: d192 99bd 393f 923b 382f 0fbd f068 21bd
000000f0: aa58 463c b3ab 7dbd dc73 2abd 2be5 63bc
00000100: c377 db3d 6019 e7bd df8b 85bd 81a6 d93c
00000110: b4f1 2ebd 8c59 10bd cbfa 99bd 4de2 343d
00000120: d947 c4bc b401 f4bd 3fa1 6fbd 60ac 183c
00000130: 7c58 b8bd 2053 45bd aaa0 c93b e147 34bd
00000140: 6bef 0abe 2c18 19bd 0381 c63c ed49 b53c
00000150: 3ed7 f93c 7a0c 0f3b 5eee 773d 5055 c5bd
00000160: 6af3 2cbe 7075 813b 62d9 c33c 6191 293d
00000170: ca35 873a f1f4 adbc 1727 80bd 945c 7ebd
00000180: 9159 2dbd ff27 17be 8087 013e 32f7 5fbc
00000190: ccff 85bd 9277 c8bd 2091 88bd 8056 153d
000001a0: 8e3c dbbd d127 bbbd d993 003d 9050 a6ba
000001b0: 573b c6bd 60dd 3ebd b83a 93bd d43b 8fbc
000001c0: 921c 0c3a 0354 bdbd a780 333d dee6 553d
000001d0: eeb3 d8bd 0515 4bbd 4d88 25be be25 bc3c
000001e0: 7610 df3c f7c0 14be 0234 853d 48ae 893d
000001f0: e431 78bc b6ab 82bd 07b7 3abe f550 ff3c
00000200: 7d41 03bb 5381 9cbd c331 723d 6054 c63c
00000210: 8724 063c 0639 983c ccb6 b9bd ab10 a33a
00000220: f974 983d f9a6 2fbd 0600 e83c 267b 0cbd
00000230: 8d5e a7bd 4551 e13c 983d febc ca5a 68bd
00000240: 93e6 4fbd efb1 a23a a582 31bd 1325 0dbd
00000250: 3ea5 a0bd 08c4 cdbc 5fdf 46bd d7f1 a2bd
00000260: eca2 09be 26d0 dabd ab7b 10be 68ff babd
00000270: ffb3 02be e594 c8bd 483f febd 1ed5 b1bd
00000280: 0775 1e3c 83fe 3ebe fea8 453b 42b6 8ebe
00000290: 1f70 3abe c1ec 88be d47a 2fbe ecf3 59be
000002a0: c631 63be 90bc 4abe e360 28be 00f5 12be
000002b0: 9641 ddbd a7fa 46bd cfb1 37be 439f 46be
000002c0: ca73 5abe 693c a2bd b03c 76be dddb c0bd
000002d0: 371a 5dbd 3ecd 7e3e fee8 0fbe b3ee 36be
000002e0: f7ae 4bbe 3170 213e c23f c9bd 2a55 e23d
000002f0: 938d afbc 365e 053e 97dd 71bd 8b7f efbd
00000300: 921a 2d3e 35d0 e03d 60c4 a33d ab5f 5dbc
00000310: 2dc1 4c3e 624d e83d 7908 db3c 46ea 02be
00000320: 9e2d 453e 02ee d2bd d4cf 1f3e 3705 82bd
00000330: 2fae 083e c673 1cbd 0800 963d 2e5c 09be
00000340: d9e9 893c 5509 b2bd c152 ba3d 0c50 98be
00000350: fdbb 283d bf02 e83c 72cf 8dbd 4fa7 52be
00000360: 6202 32be 43b3 febd 8b0d 65bd 32bf 77be
00000370: a984 853d 85db 363d 9f89 56bd 94d7 ff3c
00000380: 2f70 1bbe 5e80 c9bd 0ad9 e13c 4837 9cbd
00000390: 4f0e 46bd c025 2b3d d2ae b1bd 859f 17bc
000003a0: 6787 be3c ac77 52bd d12c eb3d c6db c8be
000003b0: 0c87 29be 4500 d8bd bc7f 213d c981 0cbe
000003c0: d631 0f3e 6252 91bd c98d da3d cdb0 27bd
000003d0: c270 80bd 290c 9c3d a1d3 413e a145 013d
000003e0: 4abb 933b cff9 7b3e 4522 ca3d bd78 d23b
000003f0: 9e01 babd 49f6 5ebc 6c7f 203e 45b6 0bbd

cvae_parameters.enc_01_lin_b f4 [128]
-0.011953792 -0.061181486 0.2137258 -0.04512408 -0.06767983 -0.07493071 -0.025819628 -0.008009133
-0.056297395 -0.047700737 -0.01233061 -0.050922707 -0.047112517 -0.026394961 -0.067877956 -0.019745452
-0.050153654 -0.04929697 0.038541827 0.18356156 -0.08850703 -0.004937444 -0.041321516 -0.027786512
-0.057155296 -0.08460058 -0.016535772 -0.046533577 -0.0101085445 -0.051839128 -0.029528355 -0.01391396
-0.051490948 -0.055959076 -0.044443402 -0.005091217 -0.045953497 -0.07821548 -0.069808945 -0.010775378
-0.049833808 -0.036456317 -0.038534164 -0.021067433 0.057802204 -0.04459577 -0.01845186 -0.008516745
-0.04628667 -0.049647357 -0.009701911 -0.06744513 -0.014829428 -0.030198438 -0.08329234 -0.07914873
-0.01064502 -0.01181628 -0.010137205 -0.059435945 0.18743552 -0.025379624 -0.081302166 -0.042929024
-0.039862778 -0.024978247 -0.011462453 -0.0026095856 -0.09447643 -0.011100315 -0.010468468 -0.043871522
-0.02251385 -0.064726144 -0.09631703 -0.05084845 -0.08420691 -0.009051195 -0.04889869 -0.084861614
-0.008317127 -0.070661135 -0.056631748 -0.023284746 -0.07065296 -0.043824293 -0.0573318 -0.035662793
-0.05085662 -0.044988867 -0.04853853 -0.0218971 -0.07762761 -0.07857637 -0.07149021 -0.041689314
-0.07233291 -0.07597034 -0.048392486 -0.0647288 -0.04596939 -0.05179123 -0.008066749 -0.052181408
-0.08441213 -0.060654618 -0.054773156 -0.009626255 0.034047183 -0.021575646 -0.052043196 -0.021484751
-0.07884268 -0.04642641 -0.0154310865 -0.010735127 -0.013188408 -0.052887946 -0.055213355 -0.059627905
-0.009616455 -0.01063922 -0.056514356 -0.07312961 -0.06596557 -0.079763524 -0.008162598 -0.06521554
00000000: d6d9 43bc 7099 7abd f0da 5a3e 07d4 38bd
00000010: b99b 8abd 4675 99bd af83 d3bc bd38 03bc
00000020: 1998 66bd d961 43bd 5406 4abc 5494 50bd
00000030: 0ef9 40bd 3f3a d8bc 9903 8bbd 37c1 a1bc
00000040: eb6d 4dbd 9feb 49bd 09de 1d3d 90f7 3b3e
00000050: 2c43 b5bd 48ca a1bb c040 29bd 8aa0 e3bc
00000060: ac1b 6abd 1243 adbd 0776 87bc fe99 3ebd
00000070: 4f9e 25bc 4455 54bd 73e5 f1bc 61f7 63bc
00000080: 2ce8 52bd 5835 65bd 490a 36bd 39d4 a6bb
00000090: bc39 3cbd 702f a0bd fef7 8ebd 368b 30bc
000000a0: 891e 4cbd 3853 15bd 00d6 1dbd 9c95 acbc
000000b0: 01c2 6c3d 0eaa 36bd 5b28 97bc d189 0bbc
000000c0: 1797 3dbd 075b 4bbd c4f4 1ebc ac20 8abd
000000d0: 21f7 72bc b762 f7bc 2d95 aabd bb18 a2bd
000000e0: 7368 2ebc 1299 41bc 8516 26bc 1b73 73bd
000000f0: 19ef 3f3e eee8 cfbc c081 a6bd 58d6 2fbd
00000100: 2747 23bd 2e9f ccbc 03cd 3bbc 9505 2bbb
00000110: dc7c c1bd 18de 35bc f083 2bbc a0b2 33bd
00000120: f76e b8bc 248f 84bd dd41 c5bd 7746 50bd
00000130: ac74 acbd 774b 14bc fe49 48bd edcb adbd
00000140: 8f44 08bc c9b6 90bd b1f6 67bd a7bf bebc
00000150: 80b2 90bd 1a81 33bd c0d4 6abd 2613 12bd
00000160: 084f 50bd 3f46 38bd 56d0 46bd 8c61 b3bc
00000170: 39fb 9ebd a6ec a0bd 7669 92bd 6ac2 2abd
00000180: 4723 94bd 5696 9bbd 3337 46bd 8890 84bd
00000190: 664a 3cbd 0a23 54bd 662a 04bc 2cbc 55bd
000001a0: 44e0 acbd fa70 78bd d159 60bd 71b7 1dbc
000001b0: 0f75 0b3d 69bf b0bc 3f2b 55bd ca00 b0bc
000001c0: 4578 a1bd 9f29 3ebd abd2 7cbc 63e2 2fbc
000001d0: 3114 58bc 08a1 58bd 6627 62bd 643c 74bd
000001e0: 568e 1dbc 1f50 2ebc 997b 67bd fac4 95bd
000001f0: f518 87bd 0f5b a3bd 6bbc 05bc ba8f 85bd

cvae_parameters.enc_01_lin_w f4 [128, 128]
7.7385506e-05 -0.002839608 -0.007232904 -0.0028857589 -0.020244202 0.0030129338 -0.014013374 0.0099253375
0.0041246302 0.004736606 -0.015208843 -0.005271379 0.0009542879 -0.014794597 0.0058473023 -0.029691644
-0.00206861 -0.0050770896 0.015513527 -0.013615136 -0.014907752 0.0036493368 -0.009221829 0.010205894
7.4058786e-05 -0.015362251 -0.0026122553 -0.0057434393 -0.032666203 -0.023879971 -0.0018499793 0.010488746
-0.0062613618 -0.014698941 -0.008699564 0.0053374236 -0.015732681 -0.009973997 0.014418708 0.0010871886
-0.009244617 -0.00091358344 0.007434572 -0.022750493 -0.0050575426 -0.0049319966 -0.01001779 -0.0056794686
-0.0026711887 -0.020384569 -0.013561526 -0.005634 -0.006185007 -0.004479692 -0.008341468 -0.014595838
-0.0036485386 0.00037599486 -0.0022151459 -0.012247695 0.0058393474 -0.0072881533 -0.0013730633 -0.015010582
-0.0065839374 -0.030866656 -0.010013431 0.0018891688 -0.0031158915 -0.02163476 0.0040281685 -0.013846082
-0.016795184 -0.010421003 0.0032874995 -0.0025986743 -0.018164417 -0.00637734 -0.021918071 -0.0072745355
-0.010806274 -0.013206343 0.0024935708 -0.026820563 -0.0074618007 0.00051128096 -0.0032154543 -0.011588551
-0.010991821 0.012747758 0.006826165 0.0014523764 -0.010636959 0.014766559 -0.0056297793 0.0013030996
0.00024157377 0.009462215 0.0010869384 -0.014602497 0.0085727535 -0.0017133789 -0.012227449 -0.014769707
-0.009449469 0.013089917 -0.0022452094 -0.025430933 0.0064578224 -0.012793848 -0.009350966 0.0047867647
-0.0092830155 -0.025976427 -0.008088834 -0.0094547 0.005366501 0.004376551 -0.008663847 0.015744869
-0.00019294235 -0.018741986 -0.007944778 -0.00038950494 -0.0010777207 -0.011074323 -0.01145442 -0.011509006
0.018106397 0.029096289 0.017031187 -0.017170183 0.00426278 -0.0087332735 -0.017245803 0.014248207
0.017400185 -0.0020112423 -0.0023160467 0.011321589 -0.0022485477 0.025923425 -0.012004117 -0.010167307
-0.02623352 -0.050652854 -0.105773725 -0.0047906865 0.01301562 -0.002458908 -0.0016448243 -0.011667727
-0.06946164 -0.02398346 -0.04473297 -0.02213517 -0.002648443 0.015019708 0.011430691 -0.036175594
-0.000117260926 0.004074698 -0.009330775 -0.0030972618 -0.012549893 -0.02476921 -0.007820992 -0.014527724
-0.002496762 0.000663869 -0.048420362 -0.096321076 0.01869439 0.002898331 -0.0078039896 -0.01335292
-0.01035885 -0.004891178 0.014755333 -0.089493886 0.017077588 0.0024491113 0.011194572 -0.008325185
-0.013070977 -0.011307174 -0.013651897 -0.003906752 0.018848866 -0.013470466 -0.016353216 0.0048715826
0.0060127806 0.009002821 0.01467417 0.024987899 -0.114966 0.029599257 -0.024922112 -0.037900884
0.00812959 0.01965817 0.0821161 0.0066825026 -0.008052227 0.0006422511 -0.04199001 0.025564272
-0.00825845 -0.006739909 -0.008863418 0.008290699 -0.006929302 -0.002984869 -0.036987334 -0.009412678
0.017865285 -0.011169528 -0.003576879 -0.049002014 0.013576417 0.0057841293 -0.05603754 0.013516742
0.010938833 5.2866682e-05 0.024260769 0.002139114 0.03539137 -0.002604663 -0.10001209 -0.079275005
-0.036551803 0.0058280593 -0.019255074 -0.031595543 -0.009972403 -0.1012927 -0.014223239 0.008569256
-0.07522271 0.015351982 -0.0009032774 -0.09210742 -0.0063717854 0.0032100265 0.04566589 0.008684129
0.0005975636 0.009447697 0.0019852289 -0.02292876 0.006839166 0.018532505 0.0051178997 0.010400069
00000000: 074a a238 b718 3abb ff01 edbb 001f 3dbb
00000010: 2bd7 a5bc a474 453b 5a98 65bc e29d 223c
00000020: e827 873b 8835 9b3b 832e 79bc 88bb acbb
00000030: 2d29 7a3a 0a65 72bc ba9a bf3b e43b f3bc
00000040: 8491 07bb b75d a6bb 732c 7e3c 0512 5fbc
00000050: a53f 74bc b629 6f3b 2717 17bc 9f36 273c
00000060: 0250 9b38 f3b1 7bbc 5f32 2bbb 7633 bcbb
00000070: ffcc 05bd ee9f c3bc 017b f2ba fdd8 2b3c
00000080: 1c2c cdbb d4d3 70bc 9e88 0ebc 8ee5 ae3b
00000090: d3e1 80bc fa69 23bc 723c 6c3c ff7f 8e3a
000000a0: bc76 17bc 8c7d 6fba b69d f33b 3e5f babc
000000b0: beb9 a5bb 969c a1bb a821 24bc d61a babb
000000c0: 1c0f 2fbb 8afd a6bc 2a31 5ebc 6b9d b8bb
000000d0: 99ab cabb 61ca 92bb a7aa 08bc 6223 6fbc
000000e0: 521c 6fbb 2d21 c539 fb2b 11bb 8eaa 48bc
000000f0: ff57 bf3b 76d1 eebb 5cf8 b3ba f2ee 75bc
00000100: 12be d7bb 12dc fcbc 600f 24bc fc9d f73a
00000110: fc33 4cbb 613b b1bc bafe 833b adda 62bc
00000120: 0e96 89bc dbbc 2abc 1773 573b 854e 2abb
00000130: 8bcd 94bc 01f9 d0bb 878d b3bc 3a5f eebb
00000140: cc0c 31bc 6b5f 58bc 2d6b 233b ccb6 dbbc
00000150: 1f82 f4bb 7c07 063a 5fba 52bb e8dd 3dbc
00000160: 0a17 34bc f9db 503c 06ae df3b aa5d be3a
00000170: a446 2ebc 70ef 713c 037a b8bb c4cc aa3a
00000180: f74e 7d39 6807 1b3c 9a77 8e3a 503f 6fbc
00000190: bc74 0c3c 7593 e0ba a355 48bc a4fc 71bc
000001a0: f2d1 1abc 1777 563c 5d24 13bb 8854 d0bc
000001b0: 249c d33b 4a9d 51bc cb34 19bc 4bda 9c3b
000001c0: ca17 18bc 84cc d4bc 0787 04bc e3e7 1abc
000001d0: 79d9 af3b 2c69 8f3b cff2 0dbc 62fb 803c
000001e0: 9150 4ab9 cb88 99bc d02a 02bc 7836 ccb9
000001f0: 4e42 8dba 1471 35bc 52ab 3bbc 4590 3cbc
00000200: de53 943c 575b ee3c fd84 8b3c 7ca8 8cbc
00000210: caae 8b3b 0116 0fbc 1247 8dbc 5071 693c
00000220: d58a 8e3c 0ccf 03bb d1c8 17bb 307e 393c
00000230: 5f5c 13bb 5d5d d43c eaac 44bc c794 26bc
00000240: aee7 d6bc 5e79 4fbd e59f d8bd 31fb 9cbb
00000250: 783f 553c a125 21bb 2597 d7ba fe29 3fbc
00000260: e841 8ebd f678 c4bc eb39 37bd d154 b5bc
00000270: 8091 2dbb 3915 763c cb47 3b3c dc2c 14bd
00000280: fbe9 f5b8 0b85 853b 1be0 18bc 6efb 4abb
00000290: 119e 4dbc cce8 cabc 9e23 00bc b105 6ebc
000002a0: b7a0 23bb 7f07 2e3a 6e54 46bd fc43 c5bd
000002b0: fa24 993c edf1 3d3b 9cb8 ffbb 35c6 5abc
000002c0: 2ab8 29bc 2d46 a0bb 5ac0 713c 9248 b7bd
000002d0: 4ce6 8b3c 4581 203b 7069 373c 5b66 08bc
000002e0: a727 56bc ba41 39bc 35ac 5fbc 3604 80bb
000002f0: f068 9a3c 3bb3 5cbc 2ef7 85bc cca1 9f3b
00000300: dc06 c53b 9180 133c ee6b 703c 6cb3 cc3c
00000310: 4b73 ebbd 247a f23c 7529 ccbc f53d 1bbd
00000320: f931 053c 2c0a a13c 7c2c a83d e5f8 da3b
00000330: 7ded 03bc be5c 283a b7fd 2bbd 2a6c d13c
00000340: 734e 07bc 74da dcbb df37 11bc b6d5 073c
00000350: 330f e3bb cb9d 43bb 0880 17bd a237 1abc
00000360: 385a 923c 6500 37bc 126a 6abb 56b6 48bd
00000370: 9f6f 5e3c cb88 bd3b 9f87 65bd 5375 5d3c
00000380: ca38 333c 2bbd 5d38 85be c63c 6130 0c3b
00000390: 8bf6 103d feb2 2abb 23d3 ccbd ef5a a2bd
000003a0: 58b7 15bd 4ef9 be3b d1bc 9dbc 546a 01bd
000003b0: 4a63 23bc 8c72 cfbd 9708 69bc 1166 0c3c
000003c0: 5d0e 9abd e186 7b3c ecc9 6cba d1a2 bcbd
000003d0: 69ca d0bb 4f5f 523b 280c 3b3d e147 0e3c
000003e0: d0a5 1c3a 83ca 1a3c 9d1a 023b 18d5 bbbc
000003f0: 151b e03b 7bd1 973c 0eb4 a73b 0d65 2a3c

cvae_parameters.out_lin_b f4 [160]
0.31519476 0.6756553 0.37061778 0.7371798 0.46138826 0.53904426 0.32789847 0.85373414
0.30730903 0.6601286 0.2875863 0.66728044 0.45763084 0.3725338 0.31796625 0.825696
0.25150836 0.4691178 0.1477885 0.42849007 0.4335484 0.13344881 0.12706539 0.7284929
0.2658799 0.3596395 0.1734604 0.25917384 0.32484698 -0.028224718 0.21955244 0.68824875
0.11261898 0.24708953 0.21999381 0.050849494 0.22849053 -0.03790211 0.3969283 0.6156937
0.0742888 0.24246234 0.12262419 -0.07666898 0.2302688 0.069997296 0.30167654 0.5754024
0.0872997 0.4541697 0.14120325 0.18743597 0.23405947 0.24276057 0.09258865 0.50322926
0.16561747 0.662647 0.13214737 0.40599304 0.22151649 0.38489082 -0.035910606 0.5208321
0.24598429 0.6262322 0.06913508 0.55758435 0.34943497 0.38750982 -0.059255224 0.5926685
0.22300698 0.56757 0.08224732 0.40927646 0.3903354 0.32406408 0.01934781 0.6250579
0.09250008 0.5613155 0.15949064 0.26973012 0.26487237 0.27031332 0.13437663 0.6107975
0.011222948 0.5553591 0.20192039 0.1803519 0.13760139 0.31254166 0.2315497 0.38908073
-0.12424524 0.35874215 0.20943993 0.25462955 0.24053174 0.35729194 0.13578308 0.37810963
-0.032338 0.39891657 0.27619308 0.30913293 0.3314462 0.3757761 0.15061624 0.5372159
-0.11897476 0.46487907 0.22522631 0.30368853 0.36948657 0.44172412 0.2151891 0.6407521
-0.09380946 0.28100866 0.22420418 0.320933 0.31998008 0.3365662 0.20493217 0.5000247
0.1710287 0.15158524 0.09341044 0.33455476 0.42116034 0.34785682 0.18775935 0.39655733
0.39995858 0.40507722 0.10582203 0.44922006 0.417848 0.51034915 0.1994694 0.5531251
0.39066675 0.6462025 0.3127642 0.678103 0.47029 0.5697616 0.25596508 0.7932103
0.31292307 0.668648 0.35579273 0.7301928 0.46426144 0.53708696 0.33707583 0.8592303
00000000: 3561 a13e bff7 2c3f 9dc1 bd3e d1b7 3c3f
00000010: 153b ec3e cefe 093f 4fe2 a73e 528e 5a3f
00000020: 9c57 9d3e 30fe 283f 833e 933e e4d2 2a3f
00000030: 974e ea3e c0bc be3e 79cc a23e d060 533f
00000040: b4c5 803e 3530 f03e de55 173e 0d63 db3e
00000050: 0efa dd3e cea6 083e 6e1d 023e 837e 3a3f
00000060: 6921 883e ab22 b83e 9a9f 313e 6fb2 843e
00000070: 5852 a63e 8637 e7bc 5bd2 603e 1231 303f
00000080: c8a4 e63d 0a05 7d3e 0f46 613e 8f47 503d
00000090: 6cf9 693e 3e3f 1bbd 303a cb3e 1a9e 1d3f
000000a0: ba24 983d 0c48 783e 6422 fb3d a004 9dbd
000000b0: 96cb 6b3e be5a 8f3d 5975 9a3e 924d 133f
000000c0: 2fca b23d ee88 e83e 9697 103e 37ef 3f3e
000000d0: 49ad 6f3e 3a96 783e 1e9f bd3d a2d3 003f
000000e0: a097 293e 3ca3 293f a451 073e 52de cf3e
000000f0: 38d5 623e 6910 c53e 0017 13bd 4155 053f
00000100: 4ee3 7b3e c150 203f b196 8d3d d9bd 0e3f
00000110: 24e9 b23e b067 c63e 9bb5 72bd 1fb9 173f
00000120: f15b 643e 444c 113f 4871 a83d af8c d13e
00000130: 0bda c73e baeb a53e 4c7f 9e3c cb03 203f
00000140: af70 bd3d 5fb2 0f3f 8451 233e 111a 8a3e
00000150: 5a9d 873e 8266 8a3e 079a 093e 3a5d 1c3f
00000160: 75e0 373c 042c 0e3f 38c4 4e3e 2bae 383e
00000170: 61e7 0c3e 7605 a03e 5d1b 6d3e 9735 c73e
00000180: 4a74 febd 0dad b73e 6c77 563e ce5e 823e
00000190: f44d 763e f8ee b63e b80a 0b3e 9697 c13e
000001a0: da74 04bd cb3e cc3e 2e69 8d3e ac46 9e3e
000001b0: 51b3 a93e ba65 c03e 253b 1a3e fb86 093f
000001c0: 0aa9 f3bd a104 ee3e baa1 663e 107d 9b3e
000001d0: 582d bd3e aa29 e23e 885a 5c3e 5408 243f
000001e0: 2d1f c0bd 5ee0 8f3e c895 653e 5551 a43e
000001f0: 6ed4 a33e 6852 ac3e bdd9 513e 9e01 003f
00000200: 2622 2f3e 2939 1b3e f94d bf3d c34a ab3e
00000210: 54a2 d73e 4a1a b23e fd43 403e 9009 cb3e
00000220: 5fc7 cc3e 4866 cf3e 38b9 d83d 2c00 e63e
00000230: 2cf0 d53e 3ea6 023f b541 4c3e 9b99 0d3f
00000240: 7905 c83e 876d 253f a122 a03e 2998 2d3f
00000250: dac9 f03e e5db 113f db0d 833e d50f 4b3f
00000260: 7437 a03e 842c 2b3f 772a b63e eaed 3a3f
00000270: adb3 ed3e 887e 093f 3495 ac3e 84f6 5b3f

cvae_parameters.out_lin_w f4 [160, 128]
-0.051469836 0.009556004 0.0009856176 -0.040113416 0.008313133 0.0010933959 -0.009433853 0.008843151
-0.013948642 0.0073962784 0.015387778 -0.008712508 0.033704564 0.021971544 0.014828621 0.014084007
-0.018700985 0.0034334955 -0.005537942 0.0033862402 0.017258478 -0.01603459 -0.006637965 0.04779594
0.010097104 0.003648681 0.012514124 0.006583885 0.04892083 -0.0023289884 0.022567695 -0.0034315244
-0.030528266 -0.021474948 -0.009974302 0.010324259 0.016886083 0.0139155 0.029864367 0.0056248643
0.010634925 -0.028800603 -0.025545754 5.1006555e-05 0.005873206 -0.0056252177 0.015871542 -0.006102195
-0.023582403 -0.033074085 -0.045428015 -0.0023144865 -0.0056344382 -0.011386339 -0.0026205678 -0.02955273
0.017149156 -0.01092858 0.0020860436 0.05289164 0.004837288 -0.020273387 0.0047659096 -0.0023991265
0.0013590571 0.015913684 0.04497712 -0.0458025 0.013767752 0.023409301 0.0002472115 -0.009483795
-0.017294636 0.012622403 0.0012097816 -0.008498936 -0.0419184 -0.017505106 0.0014351365 -0.024545664
-0.004729708 -0.011346421 0.026572682 0.02589997 0.010077088 0.028414791 -0.0005283397 -0.03107711
0.0033068329 0.005492184 0.0020622339 0.014549761 0.013052018 -0.018397283 0.0136979995 0.0012271372
0.0034186845 0.012948924 0.054068714 0.00029247566 -0.0073579587 -0.0061498876 0.015236603 -0.004286919
0.0068603843 0.0036038503 -0.0078417575 0.026457194 0.04178958 -0.018085137 -0.0032730568 0.017844835
0.020461157 0.013076984 -0.015861219 0.009870796 -0.012122088 0.024660252 0.012133481 0.004519585
-0.0532542 0.00049737305 0.015808426 0.064304985 -0.0017126453 -0.009515972 0.004069174 0.008804975
-0.0144366035 -0.007289828 -0.00011821026 0.031654015 0.00013916357 0.00719104 0.0020700449 0.0080374805
0.009771711 0.026250908 0.0065984735 0.0037275753 -0.02856542 0.0059908493 0.006010361 -0.002969691
0.009093476 0.033206627 0.011492279 0.026374359 0.019221043 0.045653574 -0.0037130525 0.007143664
-0.014269565 0.007891499 0.027875463 0.008219815 0.025847835 -0.0071041076 -0.0012722504 -0.0019704027
0.0038806319 0.0059589376 0.0023552997 0.029308338 0.015710177 -0.0014937944 0.01657742 0.01661527
0.0024263125 0.004307464 -0.0045647016 0.022247013 0.0035178822 0.009155095 0.03182979 0.02660091
0.053454608 -0.05927212 -0.01683045 -0.0044603115 -0.006420069 0.0043544676 0.0154761365 -0.0048576067
0.046086792 -0.0013318211 0.03450834 -0.043954805 0.0016021429 0.03255749 -0.0032648756 -0.005291005
0.003810056 0.0067750146 -0.06269556 0.008000315 0.031206917 0.021967657 0.018891053 0.001306598
-0.018740796 0.010182917 -0.006223223 -0.0058307843 -0.018569283 0.00493979 0.022335563 -0.012347534
0.024416622 -0.03303671 0.049546227 0.0066292244 0.0061573926 0.0040429095 0.015884202 0.060020145
0.036508758 0.03899558 0.0033373805 -0.004112681 -0.0032824434 0.037432745 0.003533701 0.0092616575
-0.006584478 0.034064483 0.02632043 0.0019529812 -0.008316145 0.0011091079 0.010713463 0.0066166506
0.0010395864 0.009390544 0.02974155 -0.0114354445 0.043129895 0.019724218 0.01805186 -0.012245961
-0.078135364 0.01867848 0.008096052 -0.020731442 0.007781643 -0.043292996 0.05507272 0.011123253
-0.0105696395 0.023388268 -0.012262307 -0.012364694 -0.008526565 0.012276388 0.004598768 0.015008864
00000000: 09d2 52bd c990 1c3c d72f 813a f74d 24bd
00000010: cf33 083c 4750 8f3a 7390 1abc dde2 103c
00000020: d888 64bc 7b5c f23b 051d 7c3c e8be 0ebc
00000030: cc0d 0a3d abfd b33c bff3 723c 9bc0 663c
00000040: cf32 99bc 7f04 613b a077 b5bb afeb 5d3b
00000050: a761 8d3c f95a 83bc 4983 d9bb adc5 433d
00000060: 536e 253c b61e 6f3b 0a08 4d3c a1bd d73b
00000070: 3561 483d f1a1 18bb e3df b83c 6de3 60bb
00000080: 6a16 fabc 3bec afbc 416b 23bc 1527 293c
00000090: af54 8a3c d6fd 633c 1ea6 f43c c850 b83b
000000a0: 1c3e 2e3c 3eef ebbc 5445 d1bc dfef 5538
000000b0: 0674 c03b bf53 b8bb 0905 823c ecf4 c7bb
000000c0: e22f c1bc b178 07bd ba12 3abd a4ae 17bb
000000d0: 18a1 b8bb c48d 3abc d5bd 2bbb 9118 f2bc
000000e0: 637c 8c3c c90d 33bc 01b6 083b e8a4 583d
000000f0: 1d82 9e3b 6014 a6bc 592b 9c3b aa3a 1dbb
00000100: 6422 b23a 6a5d 823c ee39 383d 679b 3bbd
00000110: 2392 613c ddc4 bf3c 2a9c 8139 eb61 1bbc
00000120: 7bad 8dbc 32ce 4e3c 8991 9e3a 1f3f 0bbc
00000130: a1b2 2bbd de66 8fbc 311b bc3a fd13 c9bc
00000140: abfb 9abb 57e6 39bc f4ae d93c 2d2c d43c
00000150: 5f1a 253c 23c6 e83c 4780 0aba 6c95 febc
00000160: 73b7 583b c7f7 b33b 8b26 073b 1f62 6e3c
00000170: 22d8 553c e6b5 96bc 936d 603c e4d7 a03a
00000180: 020c 603b b927 543c 2877 5d3d 6b57 9939
00000190: 081b f1bb ff84 c9bb f2a2 793c 4879 8cbb
000001a0: 13cd e03b 932e 6c3b b77a 00bc c2bc d83c
000001b0: 8d2b 2b3d 4827 94bc c880 56bb 552f 923c
000001c0: 289e a73c d940 563c 63ef 81bc 1fb9 213c
000001d0: b99b 46bc 4c04 ca3c 82cb 463c 0719 943b
000001e0: 1321 5abd 2462 023a ac80 813c 55b2 833d
000001f0: d77a e0ba e1e8 1bbc b556 853b be42 103c
00000200: 8187 6cbc 82df eebb a6e7 f7b8 a4a7 013d
00000210: 70ec 1139 d1a2 eb3b 97a9 073b a3af 033c
00000220: 8719 203c 250c d73c 0238 d83b 564a 743b
00000230: 0702 eabc e34e c43b 90f2 c43b 269f 42bb
00000240: cefc 143c ac03 083d 1d4a 3c3c 0a0f d83c
00000250: 7375 9d3c 3eff 3a3d af56 73bb 6615 ea3b
00000260: e5ca 69bc 594b 013c 155b e43c 67ac 063c
00000270: d7be d33c 93c9 e8bb a4c1 a6ba df21 01bb
00000280: 3352 7e3b 3143 c33b 5f5b 1a3b 0a18 f03c
00000290: a1b2 803c 6ccb c3ba 5fcd 873c bf1c 883c
000002a0: c502 1f3b a125 8d3b 7e93 95bb 5e3f b63c
000002b0: 458c 663b 40ff 153c f45f 023d 27ea d93c
000002c0: 38f3 5a3d 53c7 72bd 03e0 89bc ce27 92bb
000002d0: 715f d2bb ecaf 8e3b 9f8f 7d3c 8f2c 9fbb
000002e0: 81c5 3c3d 8090 aeba 9e58 0d3d f409 34bd
000002f0: fffe d13a 015b 053d 86f7 55bb 2b60 adbb
00000300: 22b2 793b f100 de3b 8866 80bd c113 033c
00000310: a6a5 ff3c 84f5 b33c 69c1 9a3c 2742 ab3a
00000320: 4c86 99bc 40d6 263c 2eec cbbb 2a10 bfbb
00000330: 9c1e 98bc f6dd a13b 12f9 b63c 504d 4abc
00000340: 5e05 c83c 8051 07bd fcf0 4a3d f739 d93b
00000350: f4c3 c93b 627a 843b 961f 823c afd7 753d
00000360: 358a 153d d4b9 1f3d f4b7 5a3b abc3 86bb
00000370: 431e 57bb 1453 193d aa95 673b 35be 173c
00000380: 9bc2 d7bb 3387 0b3d f19d d73c 2dfb ff3a
00000390: 7140 08bc 7c5f 913a 8587 2f3c 7dd0 d83b
000003a0: bb42 883a ccda 193c 8da4 f33c bb5b 3bbc
000003b0: f9a8 303d af94 a13c 7fe1 933c 49a3 48bc
000003c0: 6f05 a0bd 9d03 993c 4ea5 043c fcd4 a9bc
000003d0: 27fd fe3b ff53 31bd ef93 613d 4e3e 363c
000003e0: 482c 2dbc c198 bf3c d8e7 48bc 4995 4abc
000003f0: 01b3 0bbc e722 493c 43b1 963b bde7 753c

cvae_parameters.z_mu_lin_b f4 [32]
-0.14747003 -0.011506807 -0.08597108 -0.20912321 -0.20201823 0.68223894 0.31478646 -0.070356935
0.020812185 0.11557853 0.22880751 -0.7336131 -0.58215326 -0.076378815 -0.013901922 0.23932166
0.68259 -0.20767333 -0.119482666 0.16689987 0.25802213 0.27989036 -0.07940587 0.24737433
0.1468766 -0.35942838 -0.27412352 -0.023698375 0.15509148 -0.29998767 0.5127522 -0.18331623
00000000: 6202 17be 0c87 3cbc 9b11 b0bd 6524 56be
00000010: dedd 4ebe 36a7 2e3f b12b a13e 4c17 90bd
00000020: 517e aa3c 70b4 ec3d 844c 6a3e 11ce 3bbf
00000030: ff07 15bf 7f6c 9cbd e3c4 63bc bd10 753e
00000040: 38be 2e3f 51a8 54be 54b3 f4bd cde7 2a3e
00000050: 7a1b 843e ca4d 8f3e 8b9f a2bd b24f 7d3e
00000060: d266 163e ff06 b8be eb59 8cbe 1823 c2bc
00000070: 4dd0 1e3e fc97 99be ba43 033f 40b7 3bbe
