dlpg/17/weights/dlpg_model_weights_50.pth (torch, 389944 bytes, 15 tensors)

VQ.projection.weight f4 [200, 32]
0	0x3dfbf7c1	0.12303115
1	0xbd4775a9	-0.048696194
2	0x3dfbc857	0.12294071
3	0xbe04055a	-0.12892666
4	0xbdd58228	-0.10425216
5	0xbe270420	-0.16310167
6	0x3cf5fb3b	0.030027023
7	0x3e2430b1	0.160342
8	0x3bc945de	0.006142362
9	0x3dfab51e	0.122415766
10	0xbd7d4422	-0.061832555
11	0xbdbd7cf4	-0.092523485
12	0xbd1571c5	-0.036485452
13	0xbe1bddc0	-0.1522131
14	0x3cd2835f	0.025697408
15	0x3cd130a1	0.025535883
16	0xbe1c559e	-0.15267035
17	0xbd69d3c0	-0.057086706
18	0xbc14105e	-0.009037105
19	0xbd9f32b0	-0.0777334
20	0x3e153bb1	0.14573552
21	0xbd99c241	-0.07507754
22	0x3dc886f7	0.097913675
23	0x3c9254ec	0.01786276
24	0x3e0a7198	0.13519895
25	0xbe00b340	-0.12568378
26	0x3e2dd1c4	0.1697455
27	0xbded2ea4	-0.115811616
28	0xbdd54dbc	-0.10415217
29	0xbe0c77f9	-0.13717641
30	0x3d8f34c3	0.069924854
31	0xbc421a04	-0.011847023
32	0xbe01b21d	-0.12665601
33	0x3cb3b97f	0.021939037
34	0xbd556b33	-0.052104186
35	0xbdc81529	-0.09769661
36	0x3da74005	0.08166508
37	0x3baf2582	0.0053450475
38	0xbddd312d	-0.10800395
39	0xbdbce82f	-0.09223973
40	0x3e23b577	0.15987192
41	0x3cf1f6b4	0.029536583
42	0xbe233e2f	-0.1594169
43	0xbd30dcf3	-0.043179464
44	0xbdff8c44	-0.124779254
45	0xbd1d9e84	-0.03848125
46	0xbdd28b61	-0.10280491
47	0xbdd10a62	-0.102070585
48	0x3d422d5a	0.047406532
49	0xbe26743c	-0.16255277
50	0xbb5f8bd5	-0.0034110446
51	0xbdd479e1	-0.10374809
52	0x3e2f8f82	0.17144588
53	0x3e22b31a	0.15888634
54	0x3e2bb7c1	0.16769315
55	0x3c716016	0.014732381
56	0xbcbacccb	-0.022802731
57	0x3d9daa89	0.076985426
58	0xbd966a22	-0.07344462
59	0x3e1df397	0.15424953
60	0x3e04efd2	0.12982109
61	0x3d77058d	0.060308028
62	0xbe242ded	-0.16033144
63	0x3e0eb73e	0.13937089
64	0x3e212d32	0.15739897
65	0x3dfe870f	0.12428104
66	0xbc3f8968	-0.011690475
67	0x3d373725	0.044730324
68	0xbdbccea2	-0.092190996
69	0x3dc55e01	0.096370704
70	0xbd9ff908	-0.07811171
71	0x3e26b1a9	0.1627871
72	0x3de68250	0.11255324
73	0x3dc80b07	0.09767728
74	0xbdd4a547	-0.10383087
75	0xbba99bd5	-0.0051760473
76	0xbd8f99fd	-0.07011793
77	0xbd9406f3	-0.07227888
78	0xbae56c26	-0.0017503544
79	0x3c887fdc	0.01666253
80	0x3d1c417d	0.038148392
81	0x3d253c5d	0.04034077
82	0xbdda7ee6	-0.10668735
83	0x3e2e8ca4	0.17045838
84	0x3c850dd9	0.016241955
85	0x3e2c751c	0.16841549
86	0x3cd87484	0.026422746
87	0xbd804d20	-0.062647104
88	0x3b4f0ab4	0.0031592073
89	0xbd02aa7e	-0.031900875
90	0xbd86d832	-0.06584205
91	0xbd4bf398	-0.049792856
92	0x3df2d208	0.118564665
93	0xbe0d1760	-0.13778448
94	0xbe0a5194	-0.13507682
95	0x3deffb66	0.11717872
96	0x3e034978	0.12820995
97	0xbd999ae4	-0.07500246
98	0xbd59e0b6	-0.053192817
99	0x3dcb47f9	0.09925837
100	0x3e180c99	0.14848556
101	0xbcb18164	-0.021668144
102	0x3db88f14	0.09011665
103	0xbdfadde2	-0.12249352
104	0x3da3d231	0.07999075
105	0x3bea307e	0.007146894
106	0xbdac36f8	-0.08408922
107	0xbe022164	-0.1270805
108	0xbe1e8c1e	-0.15483138
109	0xbd86b2cf	-0.06577074
110	0x3e11717e	0.1420345
111	0xbcceb154	-0.025231041
112	0x3d813689	0.0630923
113	0x3e2c2e80	0.16814613
114	0xbe2a652b	-0.16640155
115	0x3db12ec8	0.08651501
116	0x3d5f82a2	0.05456794
117	0x3d4ab251	0.049486462
118	0xbd81b7ed	-0.06333909
119	0xbd8b5938	-0.068041265
120	0x3db002b5	0.08594266
121	0xbe0f92f2	-0.14020899
122	0x3c531aa9	0.012884774
123	0xbdb9ffd9	-0.09082002
124	0xbd4dbdaf	-0.050229724
125	0xbddd5800	-0.108078
126	0x3e225f05	0.1585656
127	0xbe0fffd5	-0.14062436
128	0x3e308140	0.17236805
129	0x3dfdb314	0.12387672
130	0xbd9764c2	-0.07392265
131	0x3c248cd7	0.010043344
132	0xbe0de046	-0.13855085
133	0xbe102d0f	-0.14079688
134	0xbdf364f0	-0.11884487
135	0x3e1a0e54	0.15044528
136	0x3ce3f03e	0.027824517
137	0xbe2d54c8	-0.16926873
138	0xbca7db0b	-0.02049019
139	0xbcea1408	-0.028574005
140	0x3e214b7b	0.1575145
141	0xbd2d1b1e	-0.04226219
142	0xbe017b0f	-0.126446
143	0xbda4afba	-0.0804133
144	0x3dcf4715	0.1012098
145	0xbe214555	-0.15749104
146	0x3ccfb3fa	0.025354374
147	0xbe1689c2	-0.14700988
148	0xbdbba20d	-0.09161768
149	0xbe012c76	-0.12614617
150	0x3cf75975	0.030194024
151	0x3d612032	0.054962344
152	0x3db5b8b0	0.08873117
153	0xbdda7857	-0.10667484
154	0xbce31ffb	-0.02772521
155	0x3e20f3dd	0.15718026
156	0xbd6fa0f1	-0.058503095
157	0xbe227eba	-0.15868655
158	0xbcfa5740	-0.030559182
159	0xbd9201f4	-0.07129279
160	0x3ddf7390	0.10910714
161	0xbc4d6ac7	-0.012537665
162	0x3e2f528f	0.17121337
163	0xbdfdf92d	-0.12401042
164	0xbd3a43c0	-0.045474768
165	0x3d04c8bd	0.032418
166	0x3d1408e5	0.036141295
167	0xbca136cf	-0.019679455
168	0xbe117750	-0.1420567
169	0x3e1774d5	0.14790662
170	0xbdf10948	-0.117693484
171	0x3d5ba549	0.053624425
172	0x3dc23469	0.09482653
173	0x3d2cca53	0.04218514
174	0xbbb7745e	-0.005598589
175	0xbd8b0269	-0.06787569
176	0xbcc58973	-0.024113392
177	0xbe1f6404	-0.15565497
178	0x3d9f7556	0.07786052
179	0x3cd60275	0.026124218
180	0xbd8f6d1b	-0.07003232
181	0x3d90b0d7	0.070649795
182	0xbd590f2b	-0.05299298
183	0xbd86118f	-0.06546318
184	0xbe330a02	-0.17484286
185	0x3dd575a5	0.104228295
186	0x3e28cd38	0.16484535
187	0xbe2b2049	-0.16711535
188	0x3e1b70fd	0.1517982
189	0xbda63274	-0.08115092
190	0xbe107633	-0.1410759
191	0xbddd2e04	-0.107997924
192	0xbe125b60	-0.1429267
193	0xbc6da59e	-0.014504818
194	0xbadcbbd2	-0.0016840643
195	0x3de05dac	0.109553665
196	0xbe0d37d8	-0.13790834
197	0x3e0db3e6	0.13838157
198	0x3e2385c3	0.15968995
199	0xbd3e3f63	-0.04644717
200	0xbdf0e75f	-0.117628805
201	0x3d80227d	0.06256578
202	0x3d864fac	0.06558165
203	0xbd423a80	-0.04741907
204	0xbdc13991	-0.09434808
205	0xbe0a6667	-0.13515626
206	0xbe135f2c	-0.14391774
207	0x3d69fc98	0.057125658
208	0x3cdc561b	0.026896527
209	0x3c0abbea	0.008467654
210	0xbd1669fa	-0.03672216
211	0xbdba0b5f	-0.090842
212	0xbd4d924a	-0.05018834
213	0xbdae4fc1	-0.085113056
214	0xbdb4c541	-0.08826686
215	0xbd914e77	-0.07095044
216	0x3bd0026d	0.0063479454
217	0xbdd620ac	-0.104554504
218	0xbd3bf720	-0.045889974
219	0x3e3222e2	0.17396119
220	0x3d8493cd	0.06473503
221	0x3e2138e9	0.15744366
222	0xbd68068f	-0.05664688
223	0x3c4981c7	0.012299008
224	0xbc10ad3e	-0.008830367
225	0xbd09c05a	-0.033630706
226	0x3d06cc10	0.032909453
227	0x3b9e9dc3	0.004840584
228	0xbde6350d	-0.112405874
229	0x3e090c15	0.13383515
230	0x3bb7b6d0	0.0056065097
231	0xbe0d3a47	-0.13791762
232	0xbda2d073	-0.07949915
233	0x3dc48728	0.095960915
234	0xbc13fe4c	-0.009032797
235	0x3de433db	0.11142703
236	0xbd5d345e	-0.05400502
237	0x3da30b85	0.079611816
238	0xbe1ad91e	-0.15121886
239	0x3d80bbbb	0.06285807
240	0xbd97746a	-0.07395251
241	0x3dade251	0.08490432
242	0xbd603d92	-0.054746218
243	0xbe1f81d4	-0.15576869
244	0x3e0226e0	0.12710142
245	0xbe23d24d	-0.15998192
246	0x3dabeaa2	0.08394362
247	0x3e2d0359	0.16895808
248	0xbe2d7aef	-0.16941427
249	0xbe329e0f	-0.17443107
250	0xbd2fbfb8	-0.042907447
251	0xbd7139b1	-0.05889291
252	0x3de18463	0.11011579
253	0xbd86057a	-0.06544013
254	0x3dff4155	0.12463633
255	0xbd539267	-0.051653292

VQ.projection.bias f4 [200]
0	0x3e15d0b9	0.14630403
1	0xbc35aa2a	-0.011087934
2	0x3d50451b	0.050847154
3	0x3e1cfe9c	0.15331501
4	0xbd348406	-0.04407122
5	0x3dc77e4e	0.097408876
6	0x3d5410aa	0.051773705
7	0xbe22c5ad	-0.1589572
8	0xba3ba936	-0.0007158698
9	0x3d832fbf	0.06405591
10	0xbdec8892	-0.11549486
11	0xbd86c8e4	-0.065812856
12	0xbe0921b9	-0.1339177
13	0x3cb366b9	0.021899568
14	0x3e13b511	0.1442454
15	0xbe0c1622	-0.13680318
16	0xbd32f467	-0.04369011
17	0xbe144619	-0.14479865
18	0xbd1c3c5d	-0.038143504
19	0xbd9e851d	-0.07740233
20	0x3da776b6	0.08176939
21	0xbcbf9b75	-0.023389557
22	0x3df95c7c	0.12175843
23	0xbe14f171	-0.14545228
24	0xbd2e249d	-0.042515386
25	0x3d75b7ca	0.059989728
26	0x3d94f884	0.07273963
27	0xbd682983	-0.056680214
28	0x3d2e4c02	0.042552955
29	0xbc9a2f46	-0.01882137
30	0xbe196022	-0.14978078
31	0xbe1af116	-0.1513103
32	0xbd93cc58	-0.0721671
33	0xbda3f074	-0.08004847
34	0xbda13184	-0.078707725
35	0x3de1fbce	0.11034356
36	0x3db3cd1f	0.08779358
37	0x3bb57da3	0.0055386587
38	0xbdafcc42	-0.08583881
39	0x3ca53ffd	0.020172114
40	0xbd90ef20	-0.070768595
41	0x3ca6b084	0.020347841
42	0x3de30604	0.11085132
43	0x3e1d142c	0.15339726
44	0x3d509de8	0.05093184
45	0xbd5d6ea9	-0.054060612
46	0x3dd82c10	0.10555279
47	0xbe23f6ba	-0.16012087
48	0x3de36c3e	0.1110463
49	0x3d68a702	0.056799896
50	0x3e182d3e	0.14861009
51	0x3e28307e	0.16424748
52	0x3e15e998	0.1463989
53	0xbe1dd772	-0.15414217
54	0xbc9a92cb	-0.018868824
55	0xbd042ed4	-0.03227122
56	0x3d807a7c	0.06273362
57	0xbe01fd15	-0.126942
58	0xbd92785a	-0.071518615
59	0x3dd6872b	0.10475
60	0x3de9c8ff	0.1141529
61	0xbe157c7d	-0.1459827
62	0xbd6f542c	-0.058429882
63	0xbc4c5b5d	-0.012472955
64	0x3d62d26f	0.055376466
65	0xbd95dbed	-0.07317338
66	0xbd4e0dbd	-0.05030607
67	0x3d8ce80f	0.06880199
68	0xbc8dce97	-0.017310424
69	0x3e33581c	0.1751408
70	0x3d8c6a55	0.06856219
71	0x3d8772d1	0.06613696
72	0x3e29f91a	0.16598931
73	0xbdd3fb67	-0.103506856
74	0x3e2a1667	0.16610108
75	0x3e012d69	0.12614979
76	0xbb97fe58	-0.0046384744
77	0xbdb8682c	-0.09004244
78	0x3da3f827	0.08006316
79	0x3e350438	0.1767739
80	0x3dcfee8e	0.101529226
81	0xbdd90b07	-0.105978064
82	0xbe24378a	-0.16036811
83	0x3de0ca09	0.10976035
84	0x3e153e1e	0.14574477
85	0x3e1cf536	0.15327916
86	0x3c027193	0.0079616485
87	0xbc8f3e3f	-0.017485736
88	0xbd10f38c	-0.035388514
89	0xbdd4aa33	-0.103840254
90	0x37aef10c	2.0854663e-05
91	0xbc9ea873	-0.019367432
92	0x3d66edde	0.05637919
93	0xbe13130f	-0.14362739
94	0x3c8ac7bb	0.016940942
95	0x3e0cd731	0.13753964
96	0xbe0c913d	-0.13727279
97	0xbc39cb53	-0.01133998
98	0x3e191b49	0.14951815
99	0xbc096ad4	-0.008387286
100	0xbce9fa5c	-0.028561763
101	0xbe0d894a	-0.13821903
102	0x3d71e935	0.059060294
103	0x3da259d3	0.07927289
104	0x3be4176c	0.0069608
105	0x3daf7b7c	0.08568475
106	0x3de6d6b2	0.11271419
107	0xbd8dcfd6	-0.06924407
108	0xbdcf85d5	-0.10132948
109	0xbd2aa377	-0.0416598
110	0x3e114840	0.14187717
111	0x3d84e5be	0.06489132
112	0x3e06667c	0.13125032
113	0xbc1061ee	-0.008812411
114	0xbe1745ac	-0.14772671
115	0xbe1d24b3	-0.15346031
116	0xbe08caf6	-0.13358673
117	0xbccfd62e	-0.025370684
118	0x3df9cb6b	0.12197002
119	0x3d0ddaf7	0.03463265
120	0x3dd13438	0.10215038
121	0xbdfb5e5c	-0.12273857
122	0x3d61861b	0.055059534
123	0x3d1bde10	0.038053572
124	0xbdf1fea3	-0.11816146
125	0x3cc2d5d1	0.023783596
126	0xbd0486b7	-0.032355037
127	0xbc636e34	-0.013881255
128	0x3d7e9658	0.062155098
129	0x3df7808d	0.12085066
130	0xbe1f4588	-0.15553868
131	0x3daf2ba8	0.08553249
132	0xbe212e10	-0.15740228
133	0x3e13b21b	0.1442341
134	0x3dc5a64f	0.096508615
135	0x3b0ade59	0.0021189658
136	0xbd0d85f1	-0.034551565
137	0xbda98605	-0.08277515
138	0x3e151c12	0.14561489
139	0x3c99b76e	0.018764224
140	0xbcf5d6fe	-0.030009743
141	0xbcec6599	-0.02885704
142	0xbd62aebb	-0.055342417
143	0x3dc466ed	0.09589944
144	0xbe1aebfe	-0.15129086
145	0xbe0fed53	-0.14055376
146	0x3d9e3c1f	0.07726311
147	0xbd9e32d1	-0.07724536
148	0x3dbeb09c	0.09311029
149	0x3dcee73d	0.10102699
150	0x3df19673	0.11796274
151	0x3df106ae	0.11768852
152	0xbc5d0a51	-0.013491229
153	0xbc75aa3d	-0.014994201
154	0xbdedad29	-0.11605293
155	0x3e00e5be	0.1258764
156	0x3dc60afc	0.09670064
157	0xbd56fa2c	-0.052484676
158	0x3e2034e4	0.15645176
159	0xbaa497dc	-0.0012557465
160	0xbdca2201	-0.09869767
161	0xbe037d2a	-0.12840715
162	0x3e11e20f	0.14246391
163	0xbc91a8d5	-0.0177807
164	0x3dfc8468	0.12329942
165	0xbdb5c95a	-0.088762954
166	0x3dab9878	0.083786905
167	0x3c21c835	0.009874393
168	0x3bd030e7	0.006353486
169	0x3e29607d	0.16540714
170	0x3df85c51	0.12126983
171	0x3dd2e03b	0.10296675
172	0x3dbe17f9	0.09281916
173	0xbce02f21	-0.027366223
174	0xbdcca990	-0.09993279
175	0xbd8a16b5	-0.06742612
176	0xbc8a3e5e	-0.016875442
177	0x3e022ea4	0.12713104
178	0x3daf1ce2	0.08550431
179	0xbda17bd0	-0.078849435
180	0x3dfc1fce	0.12310754
181	0x3e09147a	0.13386717
182	0xbdd8a8ed	-0.10579095
183	0x3e0df926	0.13864574
184	0x3ba70cf3	0.005097979
185	0x39c5b5e8	0.000377103
186	0xbd8fe9a0	-0.07026982
187	0xbcf08b2f	-0.029363243
188	0xbdd2e431	-0.1029743
189	0xbe282114	-0.16418868
190	0x3da10bfe	0.078636155
191	0x3e143c0a	0.14476028
192	0xbd9a4d03	-0.0753422
193	0xbc7c5f05	-0.015403514
194	0x3ce29f9e	0.027664002
195	0xbdf53744	-0.11973432
196	0x3d7fee96	0.062483393
197	0x3e29cd3b	0.16582195
198	0x3d7e2cad	0.062054325
199	0xbd291898	-0.04128322

VQ.embedding.weight f4 [200, 32]
0	0xbf3aabaf	-0.7291822
1	0xbff614b9	-1.9225074
2	0xbf6bec99	-0.92157894
3	0xbeff38dc	-0.49848068
4	0x3f6c38c4	0.9227412
5	0x3e94853c	0.290079
6	0xbdeeb8fe	-0.11656378
7	0x3f9a1f35	1.2040774
8	0x3e601a1f	0.21884964
9	0x401c365e	2.4408183
10	0x3ce4f6f5	0.02794979
11	0x3c87965d	0.016551191
12	0xbf545d52	-0.82954895
13	0xbe8e298c	-0.27766073
14	0xbf56a539	-0.8384586
15	0x3de9d1e5	0.11416987
16	0x3ead66d3	0.3386751
17	0x3f16a2be	0.58842075
18	0x3fb51e4e	1.4149873
19	0xbfda70e7	-1.7065705
20	0x3f8c7809	1.0974132
21	0x3fd4b43b	1.6617502
22	0xbec23d5d	-0.3793744
23	0x3f31921e	0.6936358
24	0xbf05c8ab	-0.5225932
25	0xbd033606	-0.032033943
26	0xbf7c70b7	-0.9860949
27	0x3ecda144	0.40162098
28	0xbe94aaaa	-0.29036456
29	0x3fa64145	1.2988669
30	0xbf2b7d9d	-0.66988546
31	0xbed6c365	-0.4194595
32	0x4014f903	2.3276985
33	0xbef4ccb4	-0.47812426
34	0x3ffe10a9	1.9848834
35	0xbe381c0c	-0.17979449
36	0x3f5e227a	0.8677136
37	0xbd9b39a4	-0.075793535
38	0xbe142303	-0.14466481
39	0x3f4be66d	0.79648477
40	0x3f46f857	0.77722687
41	0xbf73b97b	-0.95204896
42	0x3f484ad1	0.7823916
43	0x3f7ca03e	0.9868201
44	0xbe97f7e8	-0.29681325
45	0x3e2146c8	0.15749657
46	0xbecbd10e	-0.39807934
47	0xbd817a23	-0.06322124
48	0x3f4fee1d	0.8122271
49	0x3f987254	1.190989
50	0xc015a5f3	-2.3382537
51	0xbf18a693	-0.5962917
52	0x3ee0c432	0.43899685
53	0x3eefa942	0.4680882
54	0xbf564149	-0.8369337
55	0x3d879c73	0.06621637
56	0x3ef50346	0.4785406
57	0x3e6d3109	0.23163237
58	0xc00decdf	-2.2175825
59	0x4005a87a	2.088408
60	0xbe79dd94	-0.24400932
61	0xbf93edda	-1.1556962
62	0xbf668eee	-0.90061843
63	0xbed16fd4	-0.4090563
64	0x3f8d53c1	1.1041185
65	0x400d2fb6	2.206037
66	0x3e0f5b2a	0.1399962
67	0x3fc35427	1.5260056
68	0xc0027a6d	-2.0387223
69	0xbee2e10f	-0.4431233
70	0x3f3a0d0f	0.72676176
71	0x3dd30470	0.10303581
72	0x3f359742	0.70933926
73	0xbfa462d2	-1.2842658
74	0x3e550422	0.20802358
75	0x3ec8e55f	0.39237496
76	0x3edb621a	0.42848283
77	0x3fd3e6b8	1.6554785
78	0x3eab3f5a	0.3344677
79	0x3e8a242c	0.26980722
80	0xbf0f28e9	-0.559218
81	0x3f963ba6	1.1736953
82	0x3fa76455	1.3077494
83	0x3d486613	0.04892547
84	0x3ebfb8dd	0.37445727
85	0x3fa151d9	1.2603103
86	0xbf21aa78	-0.6315074
87	0x3e472317	0.1944698
88	0x3f04930e	0.5178689
89	0xc035159a	-2.8294435
90	0xbed8a29d	-0.42311564
91	0x3eb3c005	0.35107437
92	0x3fb0004e	1.3750093
93	0x3e1736e2	0.1476703
94	0xbd83da57	-0.064381294
95	0x3f63be62	0.88962376
96	0xbf2cf250	-0.6755724
97	0xbd6e6ab1	-0.058207218
98	0x3ee09f74	0.43871653
99	0x3f3b8f04	0.732651
100	0x3f75bf57	0.95995086
101	0xbb61c269	-0.0034448153
102	0xbe8d42a2	-0.275899
103	0xbfbd8b7f	-1.4808196
104	0xbf604678	-0.87607527
105	0x40076278	2.115385
106	0x3f2af4df	0.66779894
107	0xc00e2b3b	-2.2213886
108	0x3f5abe76	0.8544687
109	0xbff238d1	-1.8923589
110	0xbf099d9c	-0.5375612
111	0x3f85e37d	1.0460049
112	0xbfcf0cf4	-1.6175828
113	0x3e37d71f	0.17953156
114	0xbfe4e570	-1.7882519
115	0x3f9ea4af	1.2394007
116	0xbf7b34da	-0.9812752
117	0xbf858156	-1.0430095
118	0xbfa970a6	-1.3237503
119	0x3f181953	0.5941364
120	0x3f40c9f2	0.75308144
121	0x3e8feed1	0.2811189
122	0xbf0859b8	-0.532619
123	0x3f893807	1.0720223
124	0x3e6b69e5	0.22989614
125	0xbdf53910	-0.119737744
126	0x3f83e5e5	1.0304533
127	0x3f511f76	0.8168863
128	0xbf69385b	-0.91101617
129	0xbf295f4d	-0.6616104
130	0x3f96887e	1.1760404
131	0xbf9c253c	-1.2198863
132	0x3fbff983	1.499802
133	0xbf9391a1	-1.1528817
134	0xbfe43997	-1.7830075
135	0xbf793436	-0.9734529
136	0xbf28d89c	-0.6595552
137	0x3f90b06d	1.1303841
138	0x3f33fe62	0.7031003
139	0x3e11689b	0.1420006
140	0x3ea18659	0.31547812
141	0xbf9bea40	-1.2180862
142	0xbfa20ebd	-1.2660748
143	0xbea0bd9b	-0.31394657
144	0x3f95aa1c	1.1692538
145	0xbef16824	-0.47149765
146	0x3f312db0	0.6921034
147	0xbf29a692	-0.6626979
148	0x3fec03ab	1.8438619
149	0x3e328eb7	0.17437254
150	0xbc3984bf	-0.011323153
151	0xbea1f70e	-0.316338
152	0x3f07d20b	0.53054875
153	0x3e75620f	0.23963188
154	0x3e52bf8f	0.20580886
155	0xbf0e33cc	-0.55547786
156	0xbfe05d4c	-1.7528472
157	0xbf8b6e4c	-1.0893035
158	0xc0064a9b	-2.0983036
159	0xbce30095	-0.027710238
160	0xbfe997a9	-1.8249408
161	0xbed5592c	-0.41669595
162	0x3fbc564a	1.4713833
163	0x3f7decc8	0.99189425
164	0xbfacab74	-1.3489823
165	0x3f5ef4ba	0.87092173
166	0x3f7e6b11	0.9938212
167	0xbe85e0cf	-0.26148078
168	0x3eb5385f	0.3539457
169	0x3e803cd2	0.25046402
170	0xbfae7f32	-1.3632567
171	0xbdc6ddd5	-0.0971028
172	0x3f54d54f	0.83137983
173	0x3f12eb0b	0.573899
174	0xbf50fcfd	-0.8163603
175	0x3fba2f84	1.4545751
176	0x3fa33214	1.2749658
177	0x401c9e4f	2.4471624
178	0x3faf6311	1.3702108
179	0x3f403977	0.75087684
180	0x3e6bbc61	0.2302108
181	0xbf6a173b	-0.91441697
182	0x3fe6e260	1.8037834
183	0xbf392f0b	-0.72337407
184	0xbf6003ce	-0.87505805
185	0xbfb58875	-1.4182268
186	0x3ed4ae11	0.41539052
187	0x3eab7c66	0.33493346
188	0xbefd10f1	-0.49426988
189	0x3e834de2	0.25645357
190	0x3fdcf396	1.7261837
191	0xbf0906c0	-0.53525925
192	0xbdd96977	-0.10615819
193	0x3f54968d	0.8304222
194	0xbf7983b7	-0.97466606
195	0x3f28e7f7	0.6597895
196	0x3d550434	0.05200596
197	0xbdb29afb	-0.087209664
198	0xbfad63a3	-1.3546032
199	0x3eec5365	0.46157375
200	0x3e17e9e3	0.14835314
201	0x3ca5f923	0.0202604
202	0xbc9929a8	-0.018696621
203	0xbecc3cbc	-0.39890087
204	0xbfcbcd88	-1.5922098
205	0x3fc12af2	1.5091231
206	0xbf966f20	-1.1752663
207	0x3f9613ca	1.1724789
208	0xbe401b0c	-0.18760318
209	0x3e955105	0.29163375
210	0xbf6de685	-0.9292987
211	0x3f0b67c4	0.5445521
212	0xbeac8be8	-0.3370049
213	0xbebd2f52	-0.36950165
214	0xbe995177	-0.29944965
215	0x3f474e06	0.7785343
216	0x3f0bb2c8	0.54569674
217	0xc00f0513	-2.2346847
218	0x3fa69495	1.3014094
219	0xbf579430	-0.8421049
220	0x3e8a177b	0.2697104
221	0x3f41971c	0.756212
222	0x3f46dfcb	0.7768523
223	0x3ed1dd6b	0.4098924
224	0x3f241a84	0.6410296
225	0x3ea3aaf8	0.31966376
226	0x3e1e320e	0.15448782
227	0xbdd0bb96	-0.10192029
228	0xbf304ef1	-0.68870455
229	0xbf04904b	-0.51782674
230	0x3f1807c8	0.59386873
231	0xbf9d3e59	-1.2284652
232	0xbe9f956d	-0.3116869
233	0xbfd0ee20	-1.632267
234	0x3f82c49d	1.0216252
235	0xc00f343a	-2.2375627
236	0xbd0be69c	-0.034155473
237	0xbed0a4c4	-0.40750706
238	0xbe021067	-0.1270157
239	0x3fbf3485	1.4937903
240	0xbf8aac2c	-1.0833793
241	0xc030601e	-2.7558665
242	0xbfa7e096	-1.3115413
243	0x3e9b725b	0.30360684
244	0x3f252ff1	0.6452628
245	0xbf1bec3d	-0.60907346
246	0xbfa8592c	-1.3152213
247	0xbdfc408e	-0.12317
248	0x402663ca	2.5998406
249	0x3fd4fd3e	1.6639783
250	0xbfe8f003	-1.8198246
251	0xbc186d5e	-0.009303419
252	0xbf00915c	-0.502218
253	0xc0145cc5	-2.3181622
254	0xbcc5f73d	-0.024165744
255	0xbf875729	-1.0573474

cvae_parameters.dec_00_lin_b f4 [128]
0	0xbcd466ce	-0.025927927
1	0xbcd5d92e	-0.026104536
2	0xbcae133a	-0.021249402
3	0xbc80aa95	-0.01570634
4	0xbbc2a66b	-0.0059402487
5	0xbca03fed	-0.019561732
6	0xbce3287d	-0.027729267
7	0xbce2dc26	-0.027692866
8	0x3bf8b3f7	0.007589813
9	0xbcce018d	-0.025147224
10	0xbc27d26e	-0.010243041
11	0xbcc29825	-0.023754189
12	0xbc988036	-0.018615823
13	0xbc9cf711	-0.01916078
14	0x3d4f261b	0.05057345
15	0xbd49204d	-0.04910307
16	0xbd35e541	-0.044408087
17	0xbc8f41e9	-0.017487483
18	0xbcc6fdd1	-0.024290951
19	0xbd0502fa	-0.03247354
20	0xbc2524e3	-0.010079595
21	0x3adc07ed	0.001678703
22	0xbcaefd12	-0.021360908
23	0xbcefbab6	-0.029263835
24	0xbc51b321	-0.012799055
25	0xbca1ed75	-0.019766549
26	0xbc046931	-0.00808172
27	0x3ae37063	0.001735222
28	0x3cbfdb01	0.023419859
29	0xbca80258	-0.02050893
30	0xbc1d8d46	-0.009616202
31	0xbc0a0459	-0.008423888
32	0x3dd3e855	0.10347048
33	0xbc69f1fc	-0.014278885
34	0xbcd22fac	-0.025657497
35	0xbc687256	-0.014187416
36	0xbc1a259a	-0.009408379
37	0xbcf5c9e6	-0.0300035
38	0xbc5541bc	-0.013016161
39	0xbcc2ef19	-0.023795651
40	0xbcd647cd	-0.026157284
41	0xbd299d7e	-0.041409962
42	0xbca4c5ec	-0.020113908
43	0xbca8ba26	-0.020596575
44	0xbd2c4376	-0.042056523
45	0xbb3fad13	-0.0029247447
46	0xbcc021ab	-0.023453554
47	0xbc086073	-0.008323777
48	0xbc75fe80	-0.015014291
49	0xbc6c9b1c	-0.014441278
50	0xbc6841f4	-0.014175881
51	0xbcd83439	-0.02639209
52	0xbcca302f	-0.024681179
53	0xbc36a3e1	-0.01114747
54	0xbcb7d79c	-0.022441678
55	0xbcb4e2ff	-0.022080896
56	0xbcd17f2a	-0.025573332
57	0xbcb29571	-0.021799775
58	0xbc52c9e0	-0.012865514
59	0xbc886e78	-0.016654238
60	0xbd0ac60d	-0.033880282
61	0xbcbfabf4	-0.023397423
62	0xbca8ec3a	-0.020620454
63	0xbb883e47	-0.0041578147
64	0xbd0c11d4	-0.03419669
65	0xbc8c73d4	-0.017145075
66	0xbc5f1901	-0.013616801
67	0x3b0850ec	0.0020800186
68	0xbcbfaad6	-0.02339689
69	0xbb8e096a	-0.0043346183
70	0xbd0933fb	-0.033496838
71	0xbcdbc715	-0.026828328
72	0xbc419078	-0.011814229
73	0xbc817857	-0.015804453
74	0xbcb09acf	-0.021558193
75	0x3de632e6	0.11240177
76	0xbc9bc996	-0.019017022
77	0xbc83b0fc	-0.016075604
78	0xba0fa4f7	-0.0005479599
79	0xbc4d1bb7	-0.012518815
80	0xbc9a4f95	-0.018836776
81	0xbd0b6cb0	-0.0340392
82	0xbd171132	-0.036881633
83	0xbc4cef76	-0.012508264
84	0xbd1ad02e	-0.037796192
85	0xbd273c17	-0.04082879
86	0x3c23c44f	0.009995534
87	0xbc8f95fe	-0.017527577
88	0x3b56daa6	0.0032784133
89	0xbce43e87	-0.027861847
90	0xbc603a56	-0.013685783
91	0x3d1ddadb	0.038538795
92	0xbcbe9b24	-0.023267336
93	0xbc428be9	-0.0118741775
94	0x3d80e4fe	0.06293677
95	0xbcf09e7f	-0.029372452
96	0xbcc978c6	-0.024593722
97	0xbd36419f	-0.044496175
98	0xbcbaf86b	-0.022823533
99	0x3d5f11bf	0.054460283
100	0x3dee7d81	0.11645032
101	0xbc9644c0	-0.01834333
102	0xbc2ee716	-0.010675212
103	0xbb26d63b	-0.002545728
104	0xbcd4443f	-0.025911449
105	0x3c9730b6	0.018455844
106	0x3cfda4a5	0.030962298
107	0xbcd7e5d9	-0.026354717
108	0xbccf6565	-0.025316903
109	0xbcb531b8	-0.022118434
110	0xbc321bea	-0.010870913
111	0xbcc4b2a7	-0.02401097
112	0xbc105a97	-0.008810661
113	0xbc255798	-0.010091685
114	0xbcc2a6b0	-0.023761123
115	0xbc9fce90	-0.019507676
116	0x3c3846fd	0.011247394
117	0xbcf5221f	-0.029923497
118	0xbcac0073	-0.020996308
119	0xbce05775	-0.027385453
120	0xbc1cd37c	-0.009571906
121	0x3da8fc8b	0.08251294
122	0xbcec2688	-0.028826967
123	0xbceeded7	-0.029158993
124	0xbc32ead2	-0.010920243
125	0xbcfa6a99	-0.030568408
126	0xbcfd58ef	-0.030926196
127	0xbd55dfd2	-0.052215405

cvae_parameters.dec_00_lin_w f4 [128, 35]
0	0xbc179bf7	-0.0092534935
1	0x3cdd62c8	0.027024642
2	0x3c1935f6	0.009351244
3	0xbc404a25	-0.011736427
4	0x3cc7ecb8	0.024404868
5	0xbb088c90	-0.0020835735
6	0x3bb2a56c	0.0054518487
7	0xbaa51151	-0.0012593662
8	0x3c39e032	0.011344956
9	0x3b952512	0.0045515383
10	0xbb737abc	-0.0037152013
11	0xbbe3650d	-0.0069395364
12	0x3c728f42	0.014804663
13	0x3c147b95	0.009062667
14	0x3c5b9703	0.013402703
15	0x3b8497fe	0.004046439
16	0xbb1c6a52	-0.0023867083
17	0x3c4fd555	0.01268514
18	0xbd07872b	-0.03308789
19	0x3bc9d9af	0.006159983
20	0xbbdc4202	-0.006721736
21	0xbcf5d5c6	-0.030009162
22	0x3b08bb06	0.0020863428
23	0x3c46ba46	0.012129372
24	0xbc735745	-0.01485235
25	0xba365b94	-0.0006956395
26	0xbd075139	-0.033036444
27	0x3b891a2a	0.004184027
28	0xbcb81aa8	-0.022473648
29	0x3b88f024	0.0041790176
30	0xbc8a5546	-0.016886365
31	0xba0acad1	-0.0005294504
32	0xbaa4fae2	-0.0012586976
33	0xbc9ac0b0	-0.018890709
34	0xbba24994	-0.004952619
35	0xbc6ea994	-0.014566798
36	0x3c283c3d	0.010268268
37	0xbc485974	-0.012228359
38	0xbc595198	-0.013264082
39	0x3cbc5fab	0.022994837
40	0x3bc36695	0.0059631565
41	0xbc15d27a	-0.00914442
42	0xbc117771	-0.008878575
43	0x3cc2ff7a	0.023803461
44	0xbbe8e642	-0.007107527
45	0xbc9b0fab	-0.01892837
46	0xbbaa4ea4	-0.005197363
47	0xbb097184	-0.0020972202
48	0xbc68733b	-0.014187629
49	0x3c71cadf	0.014757841
50	0x39cf59b5	0.00039548954
51	0x3d105152	0.035233803
52	0x3c568483	0.013093117
53	0xbcf6eda0	-0.030142605
54	0x3cb05ade	0.021527704
55	0x3baa79b4	0.0052024964
56	0xbcf2c2cb	-0.0296339
57	0x3c141928	0.009039201
58	0x3cd6fe9d	0.026244456
59	0x398c94cf	0.00026813752
60	0x3c8fbf18	0.017547175
61	0xbcf9c15a	-0.030487705
62	0xbbac84aa	-0.005264838
63	0xbcfd1b1f	-0.030896721
64	0xbcc8f43e	-0.024530526
65	0x38ff8e77	0.00012185884
66	0xb9d40a45	-0.00040443442
67	0x3a6292ce	0.00086430914
68	0xbc8842e3	-0.016633457
69	0xbbd540c5	-0.0065079653
70	0x3bbdf7f5	0.005797381
71	0xbbe3689a	-0.0069399597
72	0xbbdc49c3	-0.0067226603
73	0x3b75636b	0.003744329
74	0x3cd843fc	0.026399605
75	0x3c071909	0.008245715
76	0xbb7ef0e0	-0.0038900897
77	0x3cc082f0	0.023499936
78	0x3c40bd77	0.011763922
79	0xbc85a44f	-0.0163137
80	0xbcb274c5	-0.021784196
81	0x3c9713de	0.01844209
82	0x3c0c8d99	0.008578681
83	0xba03f1f9	-0.000503331
84	0x3d187086	0.037216686
85	0x3b0150d1	0.0019732008
86	0x3d048b01	0.032359127
87	0x3c20ed2b	0.00982217
88	0xbb68c084	-0.003551514
89	0xbb1e3ef5	-0.0024146412
90	0xbc411d55	-0.011786778
91	0xbb83e8e0	-0.0040255636
92	0x3cae3577	0.021265728
93	0x3bb2777e	0.0054463735
94	0xbb0c7961	-0.0021434652
95	0xbcb8938c	-0.022531293
96	0xbc91b662	-0.017787162
97	0xbc924780	-0.01785636
98	0xbd258146	-0.040406488
99	0xb916b519	-0.00014372579
100	0xbcdfcd2e	-0.027319517
101	0x3c60874d	0.013704133
102	0x3ab5a92f	0.0013859625
103	0xbbe0c1d4	-0.0068590436
104	0x3c5465ef	0.012963756
105	0xbb54dd21	-0.0032480436
106	0x3bfcc1a7	0.007713515
107	0xbc25b155	-0.01011308
108	0x3c053b02	0.008131744
109	0x3d07f422	0.033191808
110	0xbd090c62	-0.033459075
111	0xbc00d1a8	-0.007862486
112	0x3b6820b9	0.0035419895
113	0x3ce6706a	0.028129775
114	0xbcbe2fc7	-0.023216141
115	0xbba0cc8c	-0.0049071964
116	0x3ba94806	0.0051660566
117	0x3a9ad63d	0.0011813116
118	0xbc8aaf7d	-0.016929382
119	0x3ca6fc3f	0.020383952
120	0xbc9e31c6	-0.019310843
121	0x3b0e2f07	0.002169551
122	0xbc058597	-0.008149526
123	0xbc6ce27a	-0.014458293
124	0x3c0621be	0.008186756
125	0x3bb7945d	0.005602403
126	0xbd27c1cd	-0.040956307
127	0x3ce9378b	0.028468868
128	0xbca6f877	-0.02038215
129	0xbbedc50e	-0.0072561568
130	0x3cc06c50	0.023489147
131	0xbbff9b63	-0.007800506
132	0x3cd77514	0.026300944
133	0xbcaee4f2	-0.021349404
134	0x3c11073d	0.008851823
135	0xbc09ee9e	-0.008418707
136	0x3c544702	0.012956383
137	0x3b758503	0.0037463314
138	0xbcb6620e	-0.022263553
139	0x3bf81389	0.007570688
140	0x3c0106eb	0.0078751845
141	0xba2f461d	-0.0006686168
142	0xbc235650	-0.009969309
143	0xbb521b6c	-0.0032059802
144	0x3c49b0f9	0.01231026
145	0x3acf27c9	0.0015804704
146	0xbb33bc64	-0.0027425522
147	0x3b348b32	0.0027548787
148	0x3bd286ff	0.006424784
149	0xbc4389eb	-0.011934738
150	0xbbb76bf4	-0.005597586
151	0xbbbb046a	-0.0057073133
152	0x3beb27dd	0.007176383
153	0x3bd64397	0.006538819
154	0x3c503ce8	0.012709834
155	0xbc221580	-0.009892821
156	0x3cf415b3	0.029795503
157	0xbbb13fbb	-0.0054092086
158	0xbbf43335	-0.0074523934
159	0x3ca72f01	0.020408155
160	0xba1e1371	-0.00060301187
161	0xbca6d82b	-0.020366749
162	0x3c6820a0	0.014167935
163	0x3bed165e	0.0072353324
164	0xbbff0107	-0.007782105
165	0x3a5303d6	0.0008049583
166	0xbc884488	-0.01663424
167	0xbade6dc1	-0.0016969965
168	0xbce72b66	-0.028218936
169	0x3c067498	0.008206509
170	0xbc12c0ce	-0.008957101
171	0x3cb3c7a1	0.021945776
172	0x3c159be7	0.009131408
173	0xbc4dff0c	-0.012573015
174	0xbb2382f8	-0.002494989
175	0x3bf166f3	0.007367009
176	0x3c4e1b96	0.012579819
177	0xbcf5408d	-0.029938007
178	0x3c50eb74	0.012751449
179	0x3c20f89b	0.009824897
180	0xba729b1a	-0.00092546793
181	0xbbf91b9b	-0.007602168
182	0x3b3cfd54	0.0028837519
183	0x3cfe6fb4	0.031059124
184	0xbc8ac28a	-0.016938467
185	0xbc1aa6e9	-0.009439209
186	0xbca1a4b2	-0.019731853
187	0xb915d973	-0.00014290753
188	0x3c296543	0.010339084
189	0x39f9fc5c	0.00047681003
190	0xbc9cfc40	-0.01916325
191	0x3c6e3958	0.014540039
192	0xbc3e61cb	-0.011619995
193	0x3ba3bbf5	0.0049967715
194	0xbc278b9d	-0.0102261575
195	0xbc1046ad	-0.008805913
196	0x36790cb0	3.7111276e-06
197	0x3ce0487b	0.027378311
198	0xbbc12f39	-0.005895522
199	0x3c620e45	0.013797347
200	0xbcae3578	-0.02126573
201	0x3b856601	0.0040709977
202	0x3b2780ec	0.002555902
203	0xbcaf6571	-0.021410676
204	0x3a75f296	0.00093821564
205	0x3b0669a8	0.0020509753
206	0xbbc4e04a	-0.0060081827
207	0xbb343f34	-0.0027503492
208	0xbc959d34	-0.018263437
209	0xbc3e724e	-0.011623932
210	0x3bef7c51	0.007308521
211	0x3bf0e102	0.007351042
212	0xbbc58a94	-0.0060284827
213	0x3b8fdc48	0.0043902732
214	0x3c3043c0	0.01075834
215	0x3b98f5a6	0.0046679555
216	0xbc8ae800	-0.01695633
217	0xbab7bbfb	-0.0014017815
218	0x3bdf0d29	0.0068069887
219	0xbc5e25a4	-0.013558779
220	0xbce53812	-0.027980838
221	0xbbd829c5	-0.006596776
222	0x3cd754df	0.026285587
223	0xbc49338a	-0.012280354
224	0x3ce5dda5	0.02805979
225	0xbc476437	-0.012169889
226	0x3d2163cb	0.03940181
227	0x3c3d68f4	0.011560667
228	0xbca250ad	-0.01981386
229	0x3cd300bb	0.025757184
230	0xbc70f3b1	-0.014706538
231	0xbcd11faa	-0.025527794
232	0x3ad018dc	0.0015876549
233	0x3cda2c8a	0.026632566
234	0xbc05dff1	-0.008171068
235	0xbc15f8b0	-0.00915353
236	0xbce3df45	-0.027816424
237	0xbc652bbd	-0.013987479
238	0xbcb51bdc	-0.022108011
239	0xbc543c57	-0.012953839
240	0x3997aee6	0.00028931274
241	0x3c3daffe	0.011577604
242	0xbc17187a	-0.009222144
243	0xbc92f3e2	-0.017938558
244	0x3c925e9b	0.017867377
245	0x3c4e4983	0.012590769
246	0xbcfcc74e	-0.030856755
247	0xbcbc2fce	-0.022972014
248	0x3c082720	0.008310109
249	0x3c4d7e17	0.012542269
250	0x3c26d1ea	0.010181883
251	0xbc1bf21a	-0.009518171
252	0x3b315d53	0.0027063682
253	0x3cfedac7	0.03111018
254	0x3b5266d4	0.0032104747
255	0x3c92cc78	0.017919764

cvae_parameters.dec_01_lin_b f4 [128]
0	0x3dd2594d	0.10270939
1	0x3c3fd3df	0.011708229
2	0x3c9395f8	0.018015847
3	0x3c679d44	0.014136616
4	0x3ced56d0	0.02897206
5	0xbc0c53b9	-0.008564883
6	0xbb82b96c	-0.003989389
7	0x3dc3d4f6	0.095621035
8	0x3dce8db0	0.100856185
9	0x3d91bf56	0.071165726
10	0x3cd96080	0.026535273
11	0x3be0eb54	0.006863991
12	0x3b6d0b7d	0.0036170178
13	0x3c86b19f	0.016442118
14	0x3b63c1dd	0.0034753003
15	0x3de632ac	0.11240134
16	0xbc55030e	-0.013001217
17	0x3de9c50d	0.114145376
18	0x3dc8e03b	0.098083936
19	0x3c2ffa59	0.01074084
20	0x3df47027	0.11935454
21	0x3ccbc8f6	0.0248761
22	0xbc2d3a65	-0.010573004
23	0x3df91843	0.12162831
24	0x3daefebc	0.085446805
25	0x3df0eaa7	0.117635064
26	0x3ce6080f	0.028080015
27	0x3db4ae92	0.08822359
28	0x3ce94173	0.028473591
29	0x3d161542	0.036641367
30	0xbb712f81	-0.0036801996
31	0x3c5bb5db	0.013410057
32	0x3d6ca2ee	0.05777257
33	0x3ce5b04c	0.028038166
34	0x3cbd549f	0.02311164
35	0x3d7abb68	0.06121388
36	0x3d565914	0.052331045
37	0x3df67734	0.12034455
38	0x3dd7ab73	0.10530748
39	0x3d150e5f	0.03639066
40	0x3b84b03a	0.004049328
41	0x3d4add23	0.0495273
42	0xbc05a515	-0.008157034
43	0x3ddb3682	0.10703756
44	0x3dda30bc	0.106538266
45	0xb9d2a775	-0.00040179086
46	0x3cf849d1	0.030308636
47	0x3bb7245a	0.0055890502
48	0x3cf11fd9	0.029434131
49	0x3dd05c3e	0.10173844
50	0x3e04b354	0.12959033
51	0x3df4a53b	0.11945578
52	0x3c0760c8	0.008262821
53	0x3de44f3a	0.11147924
54	0x3d73f0ea	0.059555925
55	0xbb6ec740	-0.003643468
56	0x3dbaac8e	0.091149434
57	0x3d24f193	0.040269446
58	0x3d52e0d4	0.051483944
59	0x3bbe48bb	0.00580701
60	0x3cd59b50	0.026075035
61	0x3baf0aad	0.005341849
62	0x3d8fb70f	0.070173375
63	0x3b1cae1c	0.0023907488
64	0x3db1ce17	0.08681887
65	0x3cd0c0f4	0.025482632
66	0xbb8aac0b	-0.004231935
67	0xbc03b5d0	-0.008038953
68	0x3d8ae94a	0.067827776
69	0x3d655371	0.05598778
70	0x3da51318	0.080602825
71	0x3b21a646	0.0024665757
72	0xbba530b8	-0.005041208
73	0x3b95678c	0.004559463
74	0x3d4be12e	0.049775295
75	0x3ca75adf	0.020429073
76	0x3d989117	0.07449549
77	0x3d75f432	0.060047336
78	0x3dbddc03	0.092704795
79	0xbb572932	-0.003283095
80	0x3db67ddd	0.08910725
81	0x3d9ef5e2	0.07761742
82	0x3a2b4ea1	0.0006534849
83	0xbc2f07b2	-0.010682987
84	0xbb439828	-0.002984533
85	0xbc726ab1	-0.014795945
86	0xbc30f771	-0.010801182
87	0x3d2b7d86	0.041867755
88	0x3bb95b67	0.005656648
89	0x3b0afe37	0.0021208653
90	0x3cd4debb	0.025985112
91	0x3dec179d	0.115279414
92	0x3c9648c8	0.018345252
93	0x3db35ff5	0.08758537
94	0x3da2fe32	0.0795864
95	0x3c02b721	0.007978232
96	0xbc0e8ebd	-0.008701024
97	0xba380401	-0.00070196396
98	0x3cab94f2	0.020945046
99	0xbc0d5187	-0.008625395
100	0xbc625cc1	-0.01381606
101	0x3abb37bd	0.0014283579
102	0xbc3ae763	-0.011407706
103	0x3d567118	0.05235395
104	0x3b6d9538	0.0036252271
105	0x3d898783	0.067153
106	0x3cbb72ea	0.022881944
107	0x3dafae20	0.085781336
108	0x3c163931	0.009168909
109	0x3d1b42b9	0.03790543
110	0x3dc02919	0.09382839
111	0x3e09945b	0.134355
112	0x3d9efde9	0.07763273
113	0xba15c843	-0.000571374
114	0x3dd9c36b	0.10632976
115	0x3bc71bf0	0.0060763285
116	0x3bc24d68	0.0059296377
117	0x3d9ef0bd	0.07760761
118	0xba49f18c	-0.0007703535
119	0x3caffaca	0.02148189
120	0x3da457fa	0.08024593
121	0x3c246b39	0.0100353295
122	0xbc0b6943	-0.008508983
123	0xbb874001	-0.004127503
124	0x3e0641ff	0.13111113
125	0x3ddb217e	0.106997475
126	0xbc86fec4	-0.016478904
127	0x3cba087a	0.02270912

cvae_parameters.dec_01_lin_w f4 [128, 128]
0	0x3c1e28d9	0.0096532935
1	0x3c5b5c7a	0.013388747
2	0xbb81538a	-0.003946726
3	0xbcc0d08b	-0.023536941
4	0x3c1c8e03	0.009555343
5	0xbc1853de	-0.009297339
6	0xb9d2629e	-0.00040127797
7	0xbd04b491	-0.032398764
8	0x3b8a96c2	0.0042293975
9	0xba679228	-0.00088337297
10	0xbbb1e623	-0.0054290458
11	0xbca5905c	-0.020210437
12	0x3bde6739	0.0067872074
13	0x3c747f2c	0.014922898
14	0x3d3dfc15	0.046382982
15	0xbc99742b	-0.018732151
16	0xbbca4f11	-0.006173976
17	0x3bb6c13a	0.0055772336
18	0xba8b7bc1	-0.001064174
19	0xbc47ca0b	-0.012194167
20	0x3b61b9cb	0.0034443017
21	0x3c55a8a9	0.0130407
22	0xbc39b6ca	-0.011335084
23	0xbc5c49c6	-0.013445323
24	0xbca1f854	-0.019771732
25	0xbac6a783	-0.0015156124
26	0x3c742066	0.0149003025
27	0x3c060279	0.0081793
28	0x3b8c3798	0.004279088
29	0xbc818e12	-0.015814815
30	0xbaa59bc2	-0.001263492
31	0xbc56ddee	-0.013114436
32	0x3d89a2b6	0.06720488
33	0xbc9f58f9	-0.019451605
34	0xbc8a4028	-0.016876295
35	0xbbc4736f	-0.005995206
36	0x3c693f9c	0.014236357
37	0x3b9c9cce	0.0047794348
38	0x3c91973a	0.017772306
39	0x3c87b43e	0.016565438
40	0x3c371968	0.011175491
41	0xbc84065c	-0.016116314
42	0xbc13fa7a	-0.009031886
43	0x3a8bcba9	0.0010665554
44	0x3ca84f3e	0.020545598
45	0x3c451f35	0.012031366
46	0xbaa1f456	-0.0012356143
47	0x3b7befd0	0.00384425
48	0x3b9973b1	0.004682981
49	0xba77d667	-0.00094542507
50	0x3b3b0fd7	0.0028543377
51	0xbcf3834c	-0.029725693
52	0xbb923ee2	-0.0044630626
53	0xbcdea4c7	-0.027178181
54	0xbc74553d	-0.0149129005
55	0x3c40f398	0.011776827
56	0xbc1aa592	-0.009438889
57	0x3bc57f68	0.006027151
58	0xbc3179c9	-0.0108322585
59	0x3b974e0f	0.0046174596
60	0xbcad7a3a	-0.021176446
61	0x3c47f2a4	0.012203846
62	0xbc687e7a	-0.014190311
63	0x3c54c30d	0.012985957
64	0xb9ba21ac	-0.00035501772
65	0xbbb3f9f2	-0.0054924423
66	0xba8ed261	-0.0010896438
67	0x3c91ab9c	0.017782025
68	0x3b56d67e	0.0032781656
69	0xbbd47c9f	-0.0064845826
70	0xbbf9c250	-0.007622041
71	0xbbbed373	-0.0058235466
72	0xbb6c9ebd	-0.0036105358
73	0x3bf88c10	0.007585056
74	0x3b66dbd7	0.003522625
75	0x3d837418	0.064186275
76	0xbba2c73c	-0.0049675982
77	0xbc2e453d	-0.010636625
78	0x3c040184	0.008057002
79	0x3a0d6ea3	0.00053952093
80	0x3c175029	0.00923542
81	0x3c1be4c7	0.009514994
82	0xbc278443	-0.010224405
83	0x3c7f644d	0.015587878
84	0x3c5ab337	0.013348392
85	0x3b8b82d6	0.00425754
86	0x3a192494	0.00058419374
87	0xbaf73765	-0.0018861113
88	0x3becf6be	0.0072315624
89	0x3c8c22ae	0.01710638
90	0xbc06b03e	-0.00822073
91	0x3a95c89a	0.0011427582
92	0xbb646240	-0.00348486
93	0x3aa61923	0.0012672286
94	0x3d313581	0.043263916
95	0xbcc91601	-0.024546625
96	0xbc34c731	-0.011033819
97	0xbd15e499	-0.03659496
98	0x3b6d1fda	0.0036182315
99	0x3d020bca	0.031749524
100	0x3d8bff86	0.068358466
101	0x3ab13e25	0.0013522549
102	0xbb4c6670	-0.0031188987
103	0x3bb2eb7a	0.0054602
104	0xbc440f82	-0.011966588
105	0x3c8d8999	0.017277526
106	0x3c9d02c3	0.019166356
107	0x3bed01be	0.0072328737
108	0x39c48d48	0.00037489296
109	0xbcbef843	-0.02331174
110	0xbb9b7781	-0.0047444706
111	0xbba51763	-0.0050381883
112	0x3ca0bf16	0.019622367
113	0x3c022278	0.007942788
114	0xbba57594	-0.005049417
115	0x3c19d8cb	0.009390066
116	0xbbf9cf8e	-0.0076236194
117	0xbbc4f691	-0.0060108383
118	0x3b26f0b0	0.002547305
119	0xbc83822e	-0.016053285
120	0x3c2f4f2d	0.010700029
121	0x3d52607c	0.051361546
122	0xbc5fe905	-0.013666396
123	0x3b093ded	0.0020941452
124	0xbcaf79d2	-0.021420393
125	0xbc5b5385	-0.013386612
126	0x3b6f7404	0.0036537657
127	0x3bf477de	0.0074605783
128	0xbcdc8aa6	-0.026921581
129	0xbc81fb78	-0.01586698
130	0xbcab59ed	-0.020916903
131	0xbc82c43e	-0.015962716
132	0x3bb7172f	0.0055874805
133	0xbc381c5e	-0.011237232
134	0xbcf85ce6	-0.030317735
135	0xbc4d0fc7	-0.012515969
136	0xbd1808f4	-0.037117913
137	0xba6c1d3b	-0.0009007041
138	0xbd04830d	-0.032351542
139	0xbd1f541d	-0.038898576
140	0xbc8a20ce	-0.016861346
141	0x3c0f46bf	0.0087448945
142	0xbc9fce0a	-0.019507427
143	0xbd022f0e	-0.031783156
144	0xbc9f5cf5	-0.019453505
145	0xbb4034dd	-0.0029328384
146	0xbcf8e582	-0.030382875
147	0xbcdbb286	-0.026818525
148	0xbb3103c3	-0.0027010299
149	0xbbdedd50	-0.006801285
150	0xbaddb40f	-0.0016914624
151	0xbc3c5dc7	-0.011496968
152	0xbc367117	-0.011135361
153	0xbc29050a	-0.010316143
154	0xbbddda15	-0.006770382
155	0xbb6d86b3	-0.0036243617
156	0xbce3276e	-0.027728762
157	0xbcc61e14	-0.024184264
158	0xbcfe4481	-0.031038525
159	0xbbef288e	-0.0072985357
160	0xbcd48daf	-0.025946466
161	0xbbd70fa8	-0.0065631457
162	0xbd0a9d56	-0.033841453
163	0xbbe9a077	-0.0071297246
164	0xbb1448d5	-0.002262642
165	0xbcc9c1f8	-0.024628624
166	0xbd0811b5	-0.03322001
167	0xbb08cdeb	-0.002087469
168	0x3cddfbbd	0.027097577
169	0xbcae462d	-0.021273697
170	0x3b4a4ed5	0.0030869741
171	0x3c332fba	0.010936672
172	0xbc7474ef	-0.014920457
173	0xbbd9293c	-0.00662723
174	0xbc6020ef	-0.013679727
175	0x3ba3bd10	0.0049969032
176	0x3c4144bd	0.011796174
177	0x3c4a8d88	0.012362845
178	0xbc4fe30c	-0.01268841
179	0xbcbe8d34	-0.02326069
180	0xbc341a13	-0.010992545
181	0xbb8251f3	-0.0039770543
182	0xbb61ccf4	-0.0034454437
183	0xbcf17629	-0.029475288
184	0x3be0e86b	0.006863644
185	0x3c812e10	0.015769035
186	0xbb9274c0	-0.004469484
187	0xbc6efd24	-0.014586721
188	0xbb888893	-0.0041666715
189	0xbcbc740e	-0.023004558
190	0xbc68bd49	-0.014205285
191	0xbc17f38e	-0.009274377
192	0xbc5aa7a4	-0.013345633
193	0x3af7e90a	0.0018914056
194	0xbca5430e	-0.020173576
195	0xbd1f35e5	-0.038869757
196	0xbcd09f44	-0.025466569
197	0xbc97278e	-0.018451478
198	0xbcaeb1ba	-0.021324981
199	0x3beb7fe8	0.0071868785
200	0x3b681e1f	0.0035418344
201	0xbc64bcdd	-0.013961044
202	0x3a26cec8	0.000636321
203	0xbd0d3414	-0.034473494
204	0xbab780d2	-0.0014000183
205	0xbc4588f3	-0.012056577
206	0x3c50f1cb	0.01275296
207	0xbd35672d	-0.04428785
208	0xbc792a9d	-0.015207914
209	0xbcb1130f	-0.021615533
210	0xbcd28642	-0.025698785
211	0xbaa345cf	-0.0012456718
212	0xbca7a470	-0.020464152
213	0xbcd246c9	-0.025668519
214	0xbccbb906	-0.0248685
215	0x3bc8d761	0.006129191
216	0xbc610f70	-0.013736591
217	0xbbbb32a0	-0.005712822
218	0xbc9290ab	-0.017891249
219	0xbd37d2f3	-0.04487891
220	0xbc26ed8e	-0.010188473
221	0x3a5055f8	0.00079473807
222	0xbb67a4f6	-0.0035346127
223	0xbccc079f	-0.024905978
224	0xbc42d83d	-0.011892376
225	0xbd08679d	-0.03330194
226	0xbc1c2dd9	-0.009532415
227	0xbd2d0faf	-0.042251285
228	0xbc613a61	-0.013746829
229	0xbb8c1a01	-0.004275561
230	0xbc07cf02	-0.008289101
231	0xbc003548	-0.007825203
232	0xbc29b93b	-0.010359104
233	0xbd43f1c5	-0.04783799
234	0xbcccfa63	-0.025021737
235	0xbc9669a2	-0.018360917
236	0xbd28ac26	-0.0411798
237	0x3b04f9c2	0.0020290469
238	0xbbe995d8	-0.0071284585
239	0xbb703cc7	-0.003665732
240	0xbc822151	-0.015885027
241	0xbc1d612f	-0.00960569
242	0xbc5aafc7	-0.013347573
243	0xbc44a8c8	-0.012003131
244	0xbcb78555	-0.022402445
245	0xbc0995c8	-0.008397527
246	0xbc7cf42d	-0.015439075
247	0xbc3904fa	-0.01129269
248	0xbcbd207b	-0.023086777
249	0xbbde4bb0	-0.006783925
250	0xb9db0b11	-0.0004177918
251	0xbcba8404	-0.022768028
252	0xbc3aee8a	-0.011409411
253	0x3b9b6a1a	0.004742873
254	0xbc40afe4	-0.011760686
255	0xbc8d8085	-0.017273197

cvae_parameters.enc_00_lin_b f4 [128]
0	0x378d0093	1.6808777e-05
1	0x38a487c1	7.8454155e-05
2	0xb7c20a9a	-2.3131539e-05
3	0x365bc5c5	3.274866e-06
4	0x3822a72b	3.8779497e-05
5	0x389aacf1	7.375505e-05
6	0x3937fe25	0.00017546916
7	0x394fc631	0.0001981489
8	0x38e03bd9	0.000106923
9	0x389941d6	7.3078714e-05
10	0x39ab0431	0.00032618784
11	0xb881e952	-6.1946586e-05
12	0x3851d651	5.002908e-05
13	0xb8fdff81	-0.000121115714
14	0xb70e8a21	-8.49602e-06
15	0xb73935cd	-1.1039386e-05
16	0x38936e01	7.029996e-05
17	0x3807bc4f	3.2361884e-05
18	0xb8c86df0	-9.5572206e-05
19	0xb7d5af62	-2.5473248e-05
20	0xb8d36147	-0.00010079383
21	0xb80e7e3e	-3.397301e-05
22	0x38635093	5.4196058e-05
23	0xb948fbf3	-0.00019167345
24	0x39330973	0.0001707429
25	0x3849a868	4.8078975e-05
26	0xb8417952	-4.6127774e-05
27	0xb8a8ef0d	-8.055391e-05
28	0xb84b807b	-4.851863e-05
29	0xb7f362f0	-2.9013929e-05
30	0xb8b1d666	-8.4799525e-05
31	0x391ddb1f	0.00015054316
32	0x37c69b9b	2.3675899e-05
33	0xb830a596	-4.2115884e-05
34	0x352dd0d1	6.475139e-07
35	0xb815c8f4	-3.571152e-05
36	0xb8df5d79	-0.00010650879
37	0x3860e9a3	5.3623353e-05
38	0xb943a40d	-0.00018657763
39	0x391420e9	0.0001412664
40	0x3792acee	1.7485083e-05
41	0x3912f741	0.00014015754
42	0xb83058ae	-4.204426e-05
43	0xb97a3ab5	-0.00023863728
44	0x39364421	0.00017382253
45	0xb84ffccf	-4.9588092e-05
46	0xb925aa79	-0.00015799132
47	0x39311d78	0.00016891013
48	0x392fdc87	0.00016771453
49	0xb820ba73	-3.8320617e-05
50	0x391dd60d	0.00015052427
51	0x37c2f457	2.3240382e-05
52	0xb7277c67	-9.98294e-06
53	0x398b8a96	0.000266154
54	0x38a616fd	7.919779e-05
55	0x388b5a35	6.644839e-05
56	0x3948b8b5	0.00019142295
57	0xb8b678f2	-8.700964e-05
58	0xb8aedd9b	-8.338244e-05
59	0xb853497e	-5.0374765e-05
60	0x3887a8c8	6.4687396e-05
61	0xb83addeb	-4.4552533e-05
62	0x38ad715c	8.270398e-05
63	0xb97a4e87	-0.00023871112
64	0xb903c6ad	-0.00012567146
65	0xb84d7123	-4.8981175e-05
66	0x38cb3fae	9.6916556e-05
67	0x38d0621c	9.936487e-05
68	0xb79ff44f	-1.9068042e-05
69	0x38b2cebc	8.526209e-05
70	0xb7f46968	-2.913615e-05
71	0xb8db1809	-0.00010447211
72	0xb84343a6	-4.6554625e-05
73	0x3a01cada	0.0004951187
74	0x3760fc9a	1.3410254e-05
75	0x3881ae8d	6.183712e-05
76	0x38080703	3.2431457e-05
77	0xb84942f5	-4.7984493e-05
78	0xb7b7ac2c	-2.1895474e-05
79	0x393c4d4c	0.00017957872
80	0x3897745f	7.221917e-05
81	0xb8f43954	-0.00011645505
82	0x3828f4bd	4.028225e-05
83	0x37f8aef0	2.9645365e-05
84	0xb789421a	-1.6362454e-05
85	0xb892dfce	-7.0035094e-05
86	0xb8d2d780	-0.0001005372
87	0xb7fedfc2	-3.0383355e-05
88	0xb879a607	-5.952085e-05
89	0xb5b584ac	-1.3524163e-06
90	0xb90edc06	-0.0001362414
91	0x37933091	1.7546381e-05
92	0xb8f6c934	-0.00011767671
93	0xb87c79b8	-6.019484e-05
94	0x38d12caa	9.974216e-05
95	0x3816b53a	3.5931567e-05
96	0xb8b28d43	-8.5140135e-05
97	0xb945f0d5	-0.00018877101
98	0x38afab01	8.376502e-05
99	0xb78367bc	-1.5664722e-05
100	0x382f748f	4.1831805e-05
101	0xb91b5844	-0.00014814833
102	0x3837215b	4.3661665e-05
103	0xb9ed1029	-0.00045216203
104	0xb99d5133	-0.00030005872
105	0xb8c599f1	-9.422366e-05
106	0x3920da10	0.00015340024
107	0xb85faa87	-5.332616e-05
108	0x3824dcc5	3.9306255e-05
109	0xb81fda02	-3.811159e-05
110	0x39278f10	0.00015979656
111	0x38dba4fb	0.00010473464
112	0x38d29d10	0.000100428355
113	0xb955e242	-0.0002039755
114	0x38b0b336	8.4257146e-05
115	0x393466c4	0.00017204421
116	0xb8c6c64f	-9.4783136e-05
117	0xb818e797	-3.645531e-05
118	0xb8390be9	-4.411853e-05
119	0x382dfb9b	4.148074e-05
120	0x3926d64b	0.00015910824
121	0xb7034519	-7.8242965e-06
122	0x3902fd80	0.00012492202
123	0xb8df8a9b	-0.00010659286
124	0xb8b378f8	-8.557917e-05
125	0x393f170e	0.00018223768
126	0x38981431	7.251686e-05
127	0xb8b649d5	-8.6921886e-05

cvae_parameters.enc_00_lin_w f4 [128, 163]
0	0xbc3883c4	-0.011261884
1	0xbc3cc43a	-0.011521393
2	0xbb245ced	-0.0025079802
3	0xbb8e16a4	-0.004336195
4	0x3c0b0a49	0.008486339
5	0x3be2da23	0.0069229766
6	0xbb4f3903	-0.0031619675
7	0xbcad3ff1	-0.021148654
8	0x3b53bc7e	0.0032308395
9	0xbc4fccb0	-0.012683079
10	0x3b635304	0.0034686932
11	0x3b4c191b	0.0031142894
12	0x3aa3099f	0.001243878
13	0x3c4b6e83	0.012416485
14	0x3c37676c	0.011194091
15	0xbb23194d	-0.0024886907
16	0xbc5d906b	-0.013523201
17	0xbc8b46df	-0.017001567
18	0x3bb67ba3	0.005568938
19	0x3c02b863	0.0079785315
20	0x3bc75ead	0.0060842843
21	0xbc7c58da	-0.015402043
22	0xbb5ed234	-0.0033999803
23	0x3c97801e	0.018493708
24	0x3bf7a141	0.0075570648
25	0xbbc22588	-0.005924884
26	0xbaf7d88c	-0.001890914
27	0x3aef2db3	0.0018247872
28	0x3c63f26f	0.013912781
29	0x3c838584	0.016054876
30	0x3c1b4a1c	0.009478118
31	0xbc0b0292	-0.0084844995
32	0xbbc6924f	-0.006059922
33	0x399ae6df	0.0002954518
34	0xbba66fdc	-0.0050792526
35	0x3b26a787	0.0025429444
36	0x3b913b6e	0.0044321334
37	0x3aa3f83b	0.0012509892
38	0x3bd6979d	0.0065488354
39	0x3b9005c3	0.004395218
40	0xba8b0c68	-0.0010608556
41	0x3c04324a	0.0080686305
42	0xbb40c1a5	-0.0029412296
43	0x3a24b3e4	0.00062829093
44	0x3bae805f	0.0053253616
45	0x3cbd4710	0.023105174
46	0xbc6d831d	-0.014496592
47	0xbc812f7e	-0.015769716
48	0xbbe04c17	-0.006845008
49	0x3c11f570	0.0089086145
50	0x3c2c6788	0.010522731
51	0x3af18a49	0.0018428053
52	0xbb1096aa	-0.002206246
53	0xbb7bdd3a	-0.0038431422
54	0x3bb36784	0.0054749865
55	0xbb7eea54	-0.0038896995
56	0xbb965335	-0.004587556
57	0x3bf5c037	0.0074997204
58	0x3c78d33f	0.015187084
59	0x3d0c2d9a	0.034223177
60	0xbc7a52c6	-0.015278524
61	0xbc495304	-0.012287859
62	0x3c944274	0.018098094
63	0xbbb69362	-0.0055717686
64	0xbbbcc69b	-0.0057609803
65	0x3c152dc0	0.009105146
66	0x3c36921e	0.0111432355
67	0x3c566889	0.013086447
68	0xbc7296bb	-0.014806445
69	0x3cd1ecd5	0.025625626
70	0xbb9e4ae6	-0.004830706
71	0x3b5346fa	0.003223835
72	0xbc852931	-0.016254993
73	0xbbb8d4e0	-0.005640611
74	0xbb9c8581	-0.004776657
75	0xbba0e11b	-0.004909647
76	0xbc2e221c	-0.0106282495
77	0x3c361679	0.011113756
78	0xbabd9af2	-0.0014465733
79	0x3c021b2b	0.007941048
80	0xba65b3d8	-0.00087624555
81	0x3bde95e7	0.006792772
82	0xbc08fc4c	-0.0083609335
83	0x38995018	7.310527e-05
84	0x3c0a5265	0.008442496
85	0xbb81f0f3	-0.003965491
86	0x3c29ac99	0.010356092
87	0x3b653f5d	0.0034980394
88	0xbb2365e7	-0.0024932565
89	0x3cbcaaeb	0.023030719
90	0xbc9a319c	-0.018822484
91	0xb9e36e28	-0.00043378887
92	0xbc2b22c0	-0.010445297
93	0xbc1c129a	-0.009525919
94	0x39c81091	0.00038159316
95	0x3be4cfe6	0.0069827912
96	0x3c869a94	0.01643113
97	0xbc5f69db	-0.013636078
98	0x3b614797	0.0034374946
99	0x3bab2993	0.005223462
100	0xbcd46137	-0.025925262
101	0xbc8ad4ef	-0.016947238
102	0xbb0d7477	-0.002158431
103	0x3b2dd1db	0.0026522789
104	0x3b23e197	0.0025006288
105	0x3a36db1a	0.00069753977
106	0x3b61536b	0.0034381996
107	0x3b95a5fc	0.004566906
108	0x3b9cb43b	0.0047822273
109	0xbc0daffb	-0.008647914
110	0x3c002310	0.00782086
111	0xbc1a1522	-0.0094044525
112	0xbb075812	-0.002065186
113	0xbcc7f9fe	-0.024411198
114	0xba2f715a	-0.0006692611
115	0xb9a53542	-0.00031510933
116	0x3c1e8166	0.009674406
117	0x3b6222ca	0.00345056
118	0xbc187a89	-0.009306558
119	0xba369b8f	-0.0006965929
120	0xbbc57123	-0.00602545
121	0xbb98af7b	-0.004659591
122	0x3c9c9cea	0.019117791
123	0xbb8438dd	-0.004035099
124	0x3a99f29e	0.0011745279
125	0x3c3d9d82	0.011573197
126	0x3c169814	0.009191532
127	0x3c6181b7	0.013763837
128	0xbc0dd7ec	-0.008657437
129	0xbb8a6492	-0.0042234147
130	0xbc065c7e	-0.008200763
131	0x3bb73dbc	0.005592076
132	0x3bc62b02	0.0060476074
133	0x3b992c35	0.0046744593
134	0x3c9f5f1b	0.01945453
135	0xbc2ff2fa	-0.0107390825
136	0xba2dc651	-0.0006628978
137	0x3a8d3563	0.0010773357
138	0xbbc593d0	-0.0060295835
139	0xbc4cbc74	-0.012496103
140	0xba8cc009	-0.0010738383
141	0xbc29729c	-0.010342266
142	0xbb4ee041	-0.0031566771
143	0x3b1cf172	0.0023947624
144	0xbb273600	-0.0025514364
145	0x3a963d50	0.0011462364
146	0x3b1c99c0	0.0023895353
147	0x3c3e7776	0.011625161
148	0x3b3bdc17	0.002866512
149	0x3b7ca476	0.0038550175
150	0xbb02b69f	-0.0019945276
151	0xba9af1d9	-0.0011821344
152	0x3afb8c86	0.001919166
153	0xbbfcfb8c	-0.0077204164
154	0xbc9bb439	-0.019006835
155	0x3aabbdb7	0.0013102804
156	0xbbe6b41b	-0.007040513
157	0x3b4e3e54	0.0031470256
158	0x3ace17e2	0.001572367
159	0x3b7c93ca	0.0038540238
160	0x3c1e7507	0.009671456
161	0xbc221a94	-0.009894032
162	0x3b45a8fe	0.0030160542
163	0xba90cf05	-0.0011048025
164	0x3c243b5c	0.010023918
165	0xbba4619d	-0.005016519
166	0x3bfb3eca	0.007667397
167	0x3bca68b8	0.006177034
168	0x3b4de349	0.003141599
169	0x3b098158	0.0020981636
170	0xba934c66	-0.0011237978
171	0x3b6058cf	0.0034232622
172	0xbb4c38ee	-0.0031161862
173	0xbc31ef7d	-0.010860321
174	0x3b1d4d02	0.00240022
175	0xbc66dcfd	-0.014090774
176	0xba322310	-0.0006795386
177	0xbb6e74ae	-0.0036385464
178	0xbc7d138a	-0.015446553
179	0xbb801308	-0.0039085187
180	0x3c30b635	0.010785629
181	0x3aa20eac	0.0012363992
182	0x3c814c4e	0.015783455
183	0x3bf7c5bd	0.007561414
184	0xbc348647	-0.011018342
185	0xbbebe35a	-0.0071987333
186	0x3c7883f8	0.015168183
187	0x3b228891	0.0024800638
188	0x3bdecc9a	0.0067992928
189	0xbc1fbb6f	-0.0097492775
190	0xbc3ea72f	-0.011636539
191	0xbc475693	-0.012166637
192	0xbbbd17c8	-0.005770657
193	0x3bb47f65	0.0055083507
194	0x3b9aece8	0.0047279485
195	0x3b803217	0.003912221
196	0x3af9217d	0.0019007173
197	0x3c12b0bc	0.00895327
198	0xbb2d5427	-0.0026447864
199	0x3c211275	0.009831061
200	0xba3aa341	-0.00071196636
201	0xbc2f1416	-0.010685941
202	0x3b913e92	0.004432508
203	0x3bc9c480	0.006157458
204	0x3bd74492	0.0065694535
205	0xbc48caf7	-0.012255422
206	0x3bc96177	0.006145652
207	0xbbc23789	-0.0059270305
208	0x3c3f6c17	0.0116834855
209	0x3aa184ee	0.0012322941
210	0x3c241af9	0.010016196
211	0x3c0c10d8	0.008548938
212	0xbc52497a	-0.012834901
213	0x3c1dfe89	0.009643205
214	0xbb9f21ec	-0.0048563387
215	0xbc5857f3	-0.0132045625
216	0x3c1ae528	0.009454049
217	0x3c559e97	0.013038299
218	0xbbca562a	-0.0061748223
219	0x3bb7173a	0.0055874856
220	0x3b2c72ad	0.002631347
221	0xb9ce3fcc	-0.00039338914
222	0xbc2d016e	-0.010559423
223	0xbaaf7ff5	-0.0013389575
224	0xbb69cd21	-0.0035675245
225	0x3c814292	0.015778814
226	0x3b2561a4	0.00252352
227	0x3b70324c	0.0036651073
228	0xbab71e35	-0.0013970794
229	0x3bcc9be0	0.0062441677
230	0xbb3101c3	-0.0027009107
231	0xbc584bdf	-0.013201683
232	0xbae5ef68	-0.0017542662
233	0xbbaea01a	-0.005329144
234	0xbb990e5d	-0.0046709017
235	0x3c0c13e9	0.008549669
236	0xbc0d1c8c	-0.008612763
237	0x3c0643b9	0.008194857
238	0x3c4259a9	0.011862197
239	0xbc8fde80	-0.017562151
240	0xbc780a55	-0.015139182
241	0xbc8f5231	-0.017495247
242	0x3a922890	0.0011151005
243	0xbc31711a	-0.010830188
244	0x3c739c59	0.014868819
245	0xbaa12f45	-0.0012297413
246	0x3bc8dce7	0.0061298492
247	0xbae0755d	-0.0017124821
248	0xba576e66	-0.000821805
249	0x3c2b0339	0.01043778
250	0x3c17f60a	0.009274969
251	0xbb99abd5	-0.0046896734
252	0xbc060e2b	-0.008182089
253	0x3aad7415	0.0013233448
254	0x3c9ce7ab	0.019153437
255	0x3b829db9	0.003986087
