dlpg/17/weights/dlpg_model_weights_150.pth (torch, 389944 bytes, 15 tensors)

VQ.projection.weight f4 [200, 32]
0.122559294 -0.049162734 0.12268891 -0.12909842 -0.1034666 -0.16346115 0.029721225 0.16006683
0.006410428 0.12311998 -0.0625051 -0.0927163 -0.036045507 -0.15290341 0.025265368 0.025544725
-0.15274854 -0.05796326 -0.009052894 -0.07701734 0.14492552 -0.07526674 0.09921561 0.017748084
0.13538997 -0.12559308 0.16967951 -0.116535 -0.10442512 -0.13715407 0.070001535 -0.01137829
-0.12661472 0.02202008 -0.052147713 -0.09758251 0.08150766 0.00547655 -0.107848614 -0.09219338
0.15983225 0.029476507 -0.15919636 -0.04307149 -0.124861464 -0.03839929 -0.10269269 -0.10199733
0.04742449 -0.16242924 -0.0034095983 -0.103833675 0.17166343 0.15896139 0.16762891 0.01468664
-0.022761852 0.07679383 -0.073496886 0.15439044 0.1298501 0.06027324 -0.16051163 0.13927291
0.15728351 0.124209 -0.011721989 0.044686258 -0.09205842 0.096287414 -0.078159146 0.16273336
0.11259432 0.09778172 -0.10394619 -0.005196313 -0.070052624 -0.07239514 -0.0018197955 0.01667814
0.038113423 0.040204506 -0.106712855 0.17055945 0.016123595 0.16836333 0.02660758 -0.06265448
0.0032075024 -0.031859756 -0.06584756 -0.04989087 0.1185218 -0.13780732 -0.13509277 0.117275424
0.12794402 -0.07521507 -0.05335666 0.09917709 0.1488622 -0.021842137 0.09002713 -0.12261642
0.08016422 0.0075689144 -0.08439353 -0.12714243 -0.15458918 -0.06614468 0.14181043 -0.025177365
0.063055195 0.16765215 -0.1664004 0.086926 0.05420183 0.049383145 -0.06253466 -0.06814702
0.08609841 -0.1402364 0.012791624 -0.091208376 -0.05039204 -0.10803245 0.15852758 -0.14034826
0.1727897 0.12419197 -0.07368402 0.010108175 -0.13912182 -0.1405335 -0.1187142 0.15058792
0.027642783 -0.16981074 -0.020068457 -0.028516589 0.1572155 -0.041762218 -0.12619653 -0.08048826
0.10127932 -0.15683705 0.025383823 -0.14757374 -0.091149636 -0.12606928 0.029147329 0.055068754
0.08845039 -0.10661994 -0.02760748 0.15762962 -0.058262378 -0.15863465 -0.030480605 -0.071678154
0.10874983 -0.012918403 0.17095083 -0.124147125 -0.04485058 0.0321304 0.035923313 -0.019885655
-0.14181843 0.14854145 -0.11819302 0.053468276 0.09522373 0.04159856 -0.005969192 -0.06782851
-0.024156742 -0.15641584 0.07786853 0.026753591 -0.070661366 0.07050389 -0.05182396 -0.06561695
-0.17467068 0.10424383 0.16476034 -0.16774355 0.15151855 -0.08110064 -0.14103776 -0.10764375
-0.14302252 -0.014561876 -0.0017404358 0.109537795 -0.13778652 0.13832921 0.15966053 -0.04648721
-0.11757601 0.06270143 0.06548628 -0.047439057 -0.09426813 -0.13529679 -0.14399436 0.057144817
0.02686935 0.008305659 -0.03673452 -0.090715066 -0.050294094 -0.08513555 -0.0879997 -0.070977084
0.0064144903 -0.104574926 -0.045925226 0.17383368 0.06467755 0.15743536 -0.05668139 0.012386019
-0.008140214 -0.032943852 0.033314165 0.0050951345 -0.11354519 0.13437809 0.0060688113 -0.1374614
-0.07991073 0.094900586 -0.008029384 0.111707866 -0.05468227 0.080671825 -0.15052862 0.06281309
-0.073812835 0.086231306 -0.05473983 -0.15685207 0.1283102 -0.15968774 0.08192471 0.16914314
-0.16971843 -0.17452982 -0.042809572 -0.057757534 0.11054316 -0.06548045 0.124577105 -0.052354325
00000000: 5e00 fb3d dd5e 49bd 5344 fb3d 6032 04be
00000010: 4ce6 d3bd 5c62 27be ed79 f33c 8fe8 233e
00000020: 910e d23b 5426 fc3d ad02 80bd 0be2 bdbd
00000030: 74a4 13bd b692 1cbe 51f9 ce3c 2c43 d13c
00000040: 1d6a 1cbe e26a 6dbd 9752 14bc 44bb 9dbd
00000050: 5b67 143e 7325 9abd 8e31 cb3d 6e64 913c
00000060: aba3 0a3e 799b 00be 77c0 2d3e e7a9 eebd
00000070: d6dc d5bd 1e72 0cbe f75c 8f3d 026c 3abc
00000080: 4aa7 01be 7463 b43c d798 55bd 57d9 c7bd
00000090: 7ded a63d a274 b33b bcdf dcbd e2cf bcbd
000000a0: 11ab 233e b778 f13c 5f04 23be bb6b 30bd
000000b0: 5eb7 ffbd 9348 1dbd 8c50 d2bd fae3 d0bd
000000c0: 2f40 423d da53 26be 9173 5fbb c0a6 d4bd
000000d0: 8ac8 2f3e c6c6 223e eaa6 2b3e 3ca0 703c
000000e0: 1077 babc 1546 9d3d 8985 96bd 8718 1e3e
000000f0: 6df7 043e 13e1 763d 295d 24be 8f9d 0e3e
00000100: ee0e 213e 4a61 fe3d 960d 40bc f008 373d
00000110: 2089 bcbd 5632 c53d e711 a0bd 93a3 263e
00000120: da97 e63d c841 c83d bde1 d4bd d545 aabb
00000130: c077 8fbd e743 94bd 3486 eeba 98a0 883c
00000140: d21c 1c3d 7bad 243d 458c dabd 23a7 2e3e
00000150: a115 843c 7067 2c3e 24f8 d93c fe50 80bd
00000160: f634 523b 607f 02bd 16db 86bd 5e5a 4cbd
00000170: 8fbb f23d 5d1d 0dbe c255 0abe 192e f03d
00000180: c203 033e 5c0a 9abd 838c 5abd 5c1d cb3d
00000190: 556f 183e 48ee b2bc 2560 b83d 511e fbbd
000001a0: 232d a43d a804 f83b 84d6 acbd a031 02be
000001b0: a04c 1ebe dd76 87bd c136 113e c340 cebc
000001c0: 1523 813d 01ad 2b3e de64 2abe 4206 b23d
000001d0: bd02 5e3d fb45 4a3d 2c12 80bd aa90 8bbd
000001e0: 5d54 b03d 219a 0fbe f693 513c 75cb babd
000001f0: e267 4ebd 1e40 ddbd 0e55 223e 74b7 0fbe
00000200: c8ef 303e 5c58 fe3d a6e7 96bd c29c 253c
00000210: f375 0ebe 04e8 0fbe 6e20 f3bd b833 1a3e
00000220: 1e73 e23c dee2 2dbe 9b66 a4bc 9f9b e9bc
00000230: 1afd 203e dc0e 2bbd aa39 01be 07d7 a4bd
00000240: 886b cf3d e499 20be bcf1 cf3c 921d 17be
00000250: a9ac babd 4e18 01be 61c6 ee3c c68f 613d
00000260: 7a25 b53d 8e5b dabd 1529 e2bc a969 213e
00000270: 88a4 6ebd 1f71 22be 76b2 f9bc ffcb 92bd
00000280: 3bb8 de3d b6a7 53bc bc0d 2f3e d940 febd
00000290: 3eb5 37bd 2b9b 033d 5324 133d 3ee7 a2bc
000002a0: da38 11be 401b 183e 2f0f f2bd 8d01 5b3d
000002b0: a904 c33d 4063 2a3d 3699 c3bb ade9 8abd
000002c0: 5ce4 c5bc 792b 20be 8979 9f3d 592a db3c
000002d0: e8b6 90bd 5864 903d 5c45 54bd 2e62 86bd
000002e0: dfdc 32be ca7d d53d efb6 283e f7c4 2bbe
000002f0: ae27 1b3e 1818 a6bd 346c 10be 5474 dcbd
00000300: 7f74 12be ef94 6ebc 561f e4ba 5a55 e03d
00000310: e917 0dbe 2ca6 0d3e 0d7e 233e 5f69 3ebd
00000320: b1cb f0bd 9b69 803d ac1d 863d 754f 42bd
00000330: a60f c1bd 3e8b 0abe 4273 13be af10 6a3d
00000340: 1c1d dc3c 7514 083c f076 16bd d2c8 b9bd
00000350: 2e01 4ebd 8c5b aebd 3039 b4bd 6f5c 91bd
00000360: a530 d23b 612b d6bd 171c 3cbd 7501 323e
00000370: aa75 843d bc36 213e bf2a 68bd bbee 4a3c
00000380: 885e 05bc 22f0 06bd 6f74 083d 16f5 a63b
00000390: 618a e8bd 699a 093e e1dc c63b aec2 0cbe
000003a0: 3da8 a3bd 3d5b c23d ad8d 03bc 18c7 e43d
000003b0: 84fa 5fbd 4537 a53d 2d24 1abe 26a4 803d
000003c0: 2f2b 97bd 0a9a b03d df36 60bd d49d 20be
000003d0: c063 033e 2f85 23be 24c8 a73d dc33 2d3e
000003e0: abca 2dbe f2b7 32be 1759 2fbd 2a93 6cbd
000003f0: 7464 e23d 9d1a 86bd 4822 ff3d 7d71 56bd

VQ.projection.bias f4 [200]
0.12312548 -0.007870027 0.046951365 0.14019819 -0.029815666 0.07923476 0.047434136 -0.12389836
0.0034883234 0.05944967 -0.10818148 -0.049118005 -0.11360128 0.020291107 0.12627146 -0.11383224
-0.039565064 -0.15048622 -0.02739028 -0.07307348 0.07568815 -0.013799398 0.09799249 -0.14106032
-0.02723618 0.054818146 0.071750574 -0.047963697 0.043449435 -0.011260359 -0.15797564 -0.1341657
-0.07908244 -0.082860164 -0.06207712 0.076124355 0.08545966 0.0059551992 -0.060066078 0.016055096
-0.05476012 0.029561637 0.10210759 0.133272 0.026259357 -0.06104131 0.09769079 -0.14633843
0.098391935 0.051792733 0.108836375 0.1444388 0.13276261 -0.13836533 -0.018262936 -0.03262269
0.059490588 -0.113492794 -0.073300414 0.097543545 0.100673504 -0.12581451 -0.052570768 -0.009200631
0.03435799 -0.0692042 -0.04606107 0.06601412 -0.011800459 0.15544273 0.05952885 0.04792205
0.14258523 -0.09105431 0.14609972 0.09387183 -0.0059389137 -0.07397004 0.07267306 0.16599588
0.085330285 -0.08489071 -0.13007554 0.09894643 0.13205813 0.13787825 0.0066179982 -0.0072306246
-0.028513467 -0.09565344 0.0126881795 -0.023743501 0.060035337 -0.11882993 0.021193892 0.124737516
-0.12393048 -0.0044245664 0.13200164 -0.0012410107 -0.021110475 -0.1311039 0.05392824 0.08297992
0.01932614 0.07166001 0.09672213 -0.06354172 -0.0804075 -0.03152998 0.13530143 0.06008636
0.1366426 -0.0008406834 -0.14215074 -0.13421349 -0.110043615 -0.020584581 0.092389986 0.04316
0.087108485 -0.10159764 0.056102157 0.036613036 -0.09357525 0.0035548364 -0.036656417 -0.025152676
0.054539993 0.10360546 -0.15528569 0.07864011 -0.15805592 0.13433623 0.0852407 0.0097416155
-0.002518074 -0.06181261 0.11720613 0.02929503 -0.019775413 -0.024505218 -0.050799564 0.08533696
-0.11851532 -0.10960616 0.06901872 -0.06643158 0.09292891 0.09833433 0.09418928 0.11193104
0.0004341241 -0.008686495 -0.09406224 0.09732684 0.08642531 -0.03719004 0.1400828 0.016507296
-0.07828638 -0.10495769 0.1302339 -0.023793355 0.098340765 -0.08408885 0.07117872 0.023583408
0.009678373 0.1504441 0.10869038 0.09583338 0.07565949 -0.027104167 -0.077033706 -0.05879762
-0.02185558 0.11196882 0.06396725 -0.06911256 0.11574899 0.10330837 -0.09132385 0.13148059
-0.0015355168 0.0038536622 -0.060875256 -0.02360304 -0.08193624 -0.13826518 0.07801625 0.13312551
-0.05035955 -0.006797472 0.033295877 -0.092851356 0.056315117 0.1537561 0.05668833 -0.027836066
00000000: 3629 fc3d 49f1 00bc 1350 403d 1d90 0f3e
00000010: fc3f f4bc d545 a23d 4c4a 423d 6cbe fdbd
00000020: 5b9c 643b 7f81 733d 408e ddbd f62f 49bd
00000030: caa7 e8bd 8939 a63c 4e4d 013e e120 e9bd
00000040: fa0e 22bd 0f19 1abe 9561 e0bc 8ca7 95bd
00000050: 6402 9b3d df16 62bc 49b0 c83d 1e72 10be
00000060: 691e dfbc fe88 603d f7f1 923d 9575 44bd
00000070: 09f8 313d 5e7d 38bc 5ec4 21be bc62 09be
00000080: f9f5 a1bd 97b2 a9bd 9444 7ebd 16e7 9b3d
00000090: 7905 af3d d523 c33b d907 76bd fa85 833c
000000a0: 264c 60bd 3f2b f23c c91d d13d 7578 083e
000000b0: dd1d d73c 7406 7abd 1c12 c83d bed9 15be
000000c0: b681 c93d 9e24 543d 9be5 de3d c4e7 133e
000000d0: ecf2 073e a4af 0dbe 279c 95bc 5f9f 05bd
000000e0: 67ac 733d e96e e8bd 871e 96bd e9c4 c73d
000000f0: e92d ce3d 85d5 00be 7254 57bd 3ebe 16bc
00000100: f7ba 0c3d eeba 8dbd 88aa 3cbd 6932 873d
00000110: b656 41bc 612c 1f3e 86d4 733d e949 443d
00000120: dd01 123e af7a babd 2a9b 153e e03f c03d
00000130: 389b c2bb 9b7d 97bd 9dd5 943d d3fa 293e
00000140: a5c1 ae3d 2edb adbd 8632 05be 6da4 ca3d
00000150: 3f3a 073e f52f 0d3e cbdb d83b e0ee ecbb
00000160: 1395 e9bc f3e5 c3bd 15e2 4f3c bb81 c2bc
00000170: 9de7 753d 1b5d f3bd d09e ad3c 6276 ff3d
00000180: 43cf fdbd f4fb 90bb 702b 073e 69a9 a2ba
00000190: e0ef acbc 1a40 06be dce3 5c3d 60f1 a93d
000001a0: da51 9e3c 7cc2 923d 4116 c63d 2922 82bd
000001b0: b0ac a4bd 9525 01bd 758c 0a3e 1d1d 763d
000001c0: 0aec 0b3e 4f61 5cba f78f 11be 436f 09be
000001d0: 8c5e e1bd ffa0 a8bc f636 bd3d 8ac8 303d
000001e0: ef65 b23d 6c12 d0bd 60cb 653d 8df7 153d
000001f0: 61a4 bfbd 42f8 683b 0a25 16bd fc0c cebc
00000200: 5465 5f3d 192f d43d 3603 1fbe 110e a13d
00000210: 69d9 21be 708f 093e ad92 ae3d 4c9b 1f3c
00000220: 4506 25bb 382f 7dbd c409 f03d 21fc ef3c
00000230: 0c00 a2bc 2bbf c8bc 3413 50bd 25c5 ae3d
00000240: 29b8 f2bd 3279 e0bd b059 8d3d 480d 88bd
00000250: 8351 be3d 8263 c93d 4fe6 c03d 1a3c e53d
00000260: 269b e339 cd51 0ebc b4a3 c0bd 4b53 c73d
00000270: c1ff b03d 9554 18bd de71 0f3e 4f3a 873c
00000280: 9c54 a0bd 0ff4 d6bd 095c 053e 48ea c2bc
00000290: e266 c93d c636 acbd 26c6 913d fe31 c13c
000002a0: 0a92 1e3c 050e 1a3e 1099 de3d 4b44 c43d
000002b0: 5df3 9a3d 8f09 debc d9c3 9dbd c6d5 70bd
000002c0: 790a b3bc e94f e53d 4301 833d e38a 8dbd
000002d0: ce0d ed3d 5793 d33d 0008 bbbd d9a2 063e
000002e0: 6543 c9ba b98d 7c3b 5558 79bd 2a5b c1bc
000002f0: 30ce a7bd 6395 0dbe fcc6 9f3d 0e52 083e
00000300: d145 4ebd 54bd debb 4261 083d da28 bebd
00000310: aeaa 663d 3d72 1d3e 0632 683d 7608 e4bc

VQ.embedding.weight f4 [200, 32]
-0.7301448 -1.9208653 -0.91777414 -0.50054663 0.9169104 0.28795254 -0.11587517 1.2004379
0.21601287 2.44277 0.028591365 0.016797092 -0.8328121 -0.27627626 -0.84188414 0.1147613
0.3353148 0.58614165 1.4154292 -1.705126 1.096002 1.6627126 -0.38236606 0.69197005
-0.5184134 -0.029743852 -0.98367274 0.40352085 -0.28597087 1.2945496 -0.66966057 -0.4191852
2.3258128 -0.47785282 1.9890236 -0.18215719 0.8628594 -0.07869642 -0.14257431 0.7924374
0.77452767 -0.9466452 0.7811223 0.98650163 -0.29883304 0.15983965 -0.40367362 -0.06094966
0.8098242 1.1886736 -2.3388062 -0.5961787 0.43711063 0.4714617 -0.8398209 0.063168146
0.48323995 0.23281221 -2.2139196 2.0895824 -0.2387188 -1.1593754 -0.8996977 -0.41153225
1.1029195 2.206579 0.14156693 1.5236242 -2.039574 -0.44492444 0.7278693 0.099451914
0.7080829 -1.2822094 0.20872498 0.39230984 0.42747122 1.6545702 0.33342376 0.2708902
-0.5587913 1.174534 1.3058189 0.051433075 0.37278363 1.2595913 -0.63354456 0.1942794
0.51951426 -2.8270242 -0.42249936 0.35346302 1.3761293 0.14580609 -0.065244295 0.88853425
-0.67423534 -0.055919092 0.44169393 0.72968125 0.9567342 -0.007420457 -0.27493626 -1.4829996
-0.8778288 2.1161797 0.6676151 -2.219992 0.85204077 -1.8913825 -0.5388295 1.0460743
-1.6172768 0.17646274 -1.7878792 1.2409519 -0.98298025 -1.041652 -1.3271219 0.5935479
0.7559228 0.28291205 -0.53010297 1.071713 0.233713 -0.12427601 1.0292413 0.8147947
-0.9137177 -0.6600022 1.1805391 -1.2221367 1.4949248 -1.1563541 -1.7802619 -0.9773447
-0.6646887 1.1350627 0.7040135 0.1401987 0.3144261 -1.2153839 -1.2701701 -0.31092483
1.1687669 -0.4734504 0.6903451 -0.662373 1.8402367 0.17753579 -0.016800202 -0.31977263
0.5349472 0.24104075 0.21247898 -0.5538244 -1.7479695 -1.0933648 -2.09697 -0.029446986
-1.8248385 -0.4148589 1.470883 0.9906473 -1.3512816 0.8686786 0.9943718 -0.26321843
0.35057577 0.2536685 -1.3628172 -0.09700878 0.8283675 0.57448846 -0.81789625 1.4569218
1.2739319 2.4461267 1.3705198 0.7521495 0.22852145 -0.9113421 1.8003058 -0.72665715
-0.87165844 -1.4161284 0.41730747 0.33671647 -0.48926553 0.25600883 1.7256798 -0.5366372
-0.10683125 0.83144444 -0.9731668 0.65768486 0.050441787 -0.08860326 -1.3539412 0.45932633
0.14653407 0.022872796 -0.018981857 -0.39903006 -1.5925522 1.5098319 -1.1764874 1.1728
-0.18695995 0.2907881 -0.93109024 0.54493314 -0.337478 -0.36876395 -0.30182576 0.77738154
0.5467847 -2.2345192 1.3022476 -0.84063363 0.27095762 0.7539015 0.7775172 0.40833586
0.6410125 0.3203924 0.15463044 -0.10256303 -0.6898562 -0.519235 0.5941169 -1.2302115
-0.3142529 -1.6288066 1.0215112 -2.2386677 -0.035171535 -0.4065635 -0.12739278 1.4954076
-1.0855159 -2.7564397 -1.3109121 0.30417624 0.6440447 -0.608137 -1.3175386 -0.12477561
2.6010492 1.6656142 -1.8184702 -0.0077593084 -0.49975872 -2.3181906 -0.024498979 -1.0589764
00000000: c5ea 3abf eade f5bf 3ff3 6abf d323 00bf
00000010: a4ba 6a3f 846e 933e f64f edbd f3a7 993f
00000020: 7a32 5d3e 5856 1c40 7038 ea3c 0e9a 893c
00000030: 2c33 55bf 1574 8dbe b885 57bf f907 eb3d
00000040: 62ae ab3e 610d 163f c92c b53f 9241 dabf
00000050: cb49 8c3f c4d3 d43f 7cc5 c3be f324 313f
00000060: beb6 04bf 61a9 f3bc fad1 7bbf 499a ce3e
00000070: c66a 92be cdb3 a53f e06e 2bbf 719f d6be
00000080: 1eda 1440 20a9 f4be 5398 fe3f 6a87 3abe
00000090: 5be4 5c3f 972b a1bd 00ff 11be 2ddd 4a3f
000000a0: 7247 463f 5757 72bf a2f7 473f 5f8b 7c3f
000000b0: a500 99be 01ad 233e 4fae cebe 5aa6 79bd
000000c0: a450 4f3f 7526 983f 00af 15c0 2b9f 18bf
000000d0: f7cc df3e 6e63 f13e 81fe 56bf 4d5e 813d
000000e0: 3a6b f73e 5366 6e3e dcb0 0dc0 b8bb 0540
000000f0: b372 74be 6a66 94bf 9752 66bf 5bb4 d2be
00000100: 772c 8d3f 9738 0d40 ecf6 103e 1e06 c33f
00000110: 6188 02c0 23cd e3be a455 3a3f 72ad cb3d
00000120: ec44 353f 701f a4bf 00bc 553e d6dc c83e
00000130: 82dd da3e f5c8 d33f 85b6 aa3e 1fb2 8a3e
00000140: f20c 0fbf 2157 963f 1325 a73f 7dab 523d
00000150: 7fdd be3e 4a3a a13f fa2f 22bf 2ef1 463e
00000160: e3fe 043f f7ed 34c0 d651 d8be 1bf9 b43e
00000170: 0125 b03f 314e 153e cd9e 85bd fb76 633f
00000180: b09a 2cbf 6b0b 65bd b525 e23e 64cc 3a3f
00000190: 88ec 743f 4e27 f3bb 72c4 8cbe eed2 bdbf
000001a0: 63b9 60bf 7d6f 0740 d3e8 2a3f 5914 0ec0
000001b0: 581f 5a3f d218 f2bf bbf0 09bf c3e5 853f
000001c0: ed02 cfbf a6b2 343e 3ad9 e4bf 83d7 9e3f
000001d0: 98a4 7bbf da54 85bf 21df a9bf c1f2 173f
000001e0: 2884 413f d9d9 903e d4b4 07bf e42d 893f
000001f0: 7652 6f3e 6c84 febd 2ebe 833f 6396 503f
00000200: 67e9 69bf e7f5 28bf e81b 973f fa6e 9cbf
00000210: b259 bf3f 6903 94bf 9fdf e3bf 4333 7abf
00000220: 0a29 2abf bc49 913f 3b3a 343f 3f90 0f3e
00000230: 75fc a03e b391 9bbf ef94 a2bf 8a31 9fbe
00000240: 279a 953f 1768 f2be 75ba 303f 4791 29bf
00000250: e08c eb3f f1cb 353e 94a0 89bc 3db9 a3be
00000260: 4df2 083f 63d3 763e 1794 593e 70c7 0dbf
00000270: 77bd dfbf 61f3 8bbf c234 06c0 ce3a f1bc
00000280: 4f94 e9bf 6368 d4be e545 bc3f 109b 7d3f
00000290: ccf6 acbf b961 5e3f 268f 7e3f 91c4 86be
000002a0: ab7e b33e d6e0 813e cb70 aebf 8aac c6bd
000002b0: e40f 543f ad11 133f a661 51bf 6a7c ba3f
000002c0: 3310 a33f 578d 1c40 316d af3f df8c 403f
000002d0: 8701 6a3e b74d 69bf 6c70 e63f 3406 3abf
000002e0: 0225 5fbf b243 b5bf 53a9 d53e 1a66 ac3e
000002f0: 0381 fabe 9713 833e 13e3 dc3f 0e61 09bf
00000300: 58ca dabd 8bd9 543f 7621 79bf 095e 283f
00000310: 0c9c 4e3d a075 b5bd f24d adbf d22c eb3e
00000320: 070d 163e bb5f bb3c d77f 9bbc ab4d ccbe
00000330: c0d8 cbbf 2c42 c13f 2497 96bf 4f1e 963f
00000340: 6e72 3fbe 2ee2 943e ee5b 6ebf bd80 0b3f
00000350: ebc9 acbe a1ce bcbe e888 9abe 7a02 473f
00000360: 15fa 0b3f 5d02 0fc0 0db0 a63f c433 57bf
00000370: f5ba 8a3e b0ff 403f 5e0b 473f 6611 d13e
00000380: 6519 243f 790a a43e 7157 1e3e 910c d2bd
00000390: 6a9a 30bf 96ec 04bf 0c18 183f 9277 9dbf
000003a0: c2e5 a0be bc7c d0bf e1c0 823f 5546 0fc0
000003b0: 0710 10bd 1729 d0be 4173 02be 8469 bf3f
000003c0: 2ff2 8abf 8269 30c0 f8cb a7bf fdbc 9b3e
000003d0: 1de0 243f deae 1bbf 1ba5 a8bf 5b8a ffbd
000003e0: 9777 2640 d932 d53f a2c3 e8bf cc41 febb
000003f0: 60e0 ffbe 3c5d 14c0 15b2 c8bc 8a8c 87bf

cvae_parameters.dec_00_lin_b f4 [128]
-0.03863529 -0.028181616 -0.021520542 -0.01830405 -0.030099608 -0.038016956 -0.05051498 -0.03593703
-0.04883047 -0.032046653 -0.037163474 -0.04936438 -0.034357503 -0.022949234 -0.07385009 -0.051062748
-0.049531907 -0.031249307 -0.044569887 -0.0450378 -0.02731096 -0.0025929073 -0.04612371 -0.04207152
-0.043148357 -0.028988251 -0.016425148 -0.063994795 -0.025240157 -0.025336003 -0.038824726 -0.036107965
-0.046285354 -0.020285226 -0.041466054 -0.026449217 -0.031270474 -0.04384362 -0.050667983 -0.041523505
-0.029963452 -0.037612263 -0.034014136 -0.036673103 -0.04540164 0.15370066 -0.05293239 -0.015172462
-0.0250739 -0.021001725 -0.0037433275 -0.060581073 -0.040882103 -0.054775745 -0.023452332 -0.025650788
-0.03094611 -0.026106343 -0.06625899 -0.031732287 -0.038189676 -0.029659564 -0.04899904 -0.05245657
-0.040931243 -0.039801598 -0.043348152 -0.045335256 -0.03983471 -0.019884177 -0.02598548 -0.04366085
-0.02280127 0.1368926 -0.033657342 -0.04796585 -0.02902838 -0.018000871 -0.053724766 -0.039380793
-0.045166437 -0.0477587 -0.048439305 -0.02744064 -0.053155094 -0.048832003 -0.050711874 -0.0308001
0.007170827 -0.033278458 -0.048721112 0.13613605 -0.05556443 -0.03833132 -0.04682354 -0.05479151
-0.033731565 -0.060950987 -0.046701293 -0.044425886 -0.061965164 -0.02541894 -0.020584153 -0.034157023
-0.051814515 -0.07411095 -0.055341028 -0.041941654 -0.046322208 -0.034675382 -0.03231512 0.17269218
-0.03296421 -0.017887754 -0.04039423 -0.034251526 -0.065092385 -0.042238735 -0.020720687 -0.04498109
-0.0453662 -0.062000263 -0.045146637 -0.030642847 -0.03928044 -0.042215645 -0.031031942 -0.053066593
00000000: 0a40 1ebd 22dd e6bc d94b b0bc 60f2 95bc
00000010: 7493 f6bc abb7 1bbd cce8 4ebd b532 13bd
00000020: 7502 48bd 5a43 03bd ba38 18bd 4e32 4abd
00000030: 74ba 0cbd 0800 bcbc b73e 97bd 2c27 51bd
00000040: f8e1 4abd 8cfe ffbc ea8e 36bd 8e79 38bd
00000050: 3cbb dfbc c4ed 29bb 37ec 3cbd 3053 2cbd
00000060: 55bc 30bd c578 edbc 088e 86bc b40f 83bd
00000070: 72c4 cebc 738d cfbc ad06 1fbd f2e5 13bd
00000080: b695 3dbd 342d a6bc 4fd8 29bd 07ac d8bc
00000090: 7815 00bd 5e95 33bd 3b89 4fbd 8d14 2abd
000000a0: ea75 f5bc 510f 1abd 6852 0bbd 8936 16bd
000000b0: 12f7 39bd b563 1d3e a2cf 58bd eb95 78bc
000000c0: c867 cdbc cf0b acbc 9d52 75bb dc23 78bd
000000d0: fe73 27bd 885c 60bd 1b1f c0bc 9a21 d2bc
000000e0: b282 fdbc f8dc d5bc cbb2 87bd b7f9 01bd
000000f0: c76c 1cbd 9df8 f2bc 38b3 48bd b3dc 56bd
00000100: 85a7 27bd 0007 23bd d58d 31bd 76b1 39bd
00000110: b929 23bd 24e4 a2bc 80df d4bc b8d5 32bd
00000120: bbc9 babc 932d 0c3e 48dc 09bd d777 44bd
00000130: edcc edbc 9076 93bc 800e 5cbd c14d 21bd
00000140: 7100 39bd a09e 43bd 4b68 46bd 31cb e0bc
00000150: 28b9 59bd 1104 48bd 41b7 4fbd 7e50 fcbc
00000160: 42f9 ea3b fe4e 08bd ca8f 47bd 4067 0b3e
00000170: 8797 63bd 4d01 1dbd 0aca 3fbd 106d 60bd
00000180: 1c2a 0abd bea7 79bd db49 3fbd ebf7 35bd
00000190: 2fcf 7dbd 613b d0bc 19a0 a8bc 3ce8 0bbd
000001a0: 753b 54bd 7bc7 97bd 46ad 62bd 03cb 2bbd
000001b0: 5bbc 3dbd c607 0ebd dc5c 04bd 38d6 303e
000001c0: 7b05 07bd 5789 92bc 6c74 25bd 544b 0cbd
000001d0: 284f 85bd 8602 2dbd 6ebe a9bc 173e 38bd
000001e0: e9d1 39bd fdf3 7dbd aeeb 38bd b506 fbbc
000001f0: 87e4 20bd 50ea 2cbd b336 febc 5b5c 59bd

cvae_parameters.dec_00_lin_w f4 [128, 35]
-0.012615736 0.033726376 -0.0022361656 -0.012985495 0.024927268 -0.008907741 -0.0003634417 0.00237542
0.007221202 0.005722259 -0.007417039 -0.0019485252 0.004402068 0.010053335 0.0070547326 -0.009287472
0.0042614345 0.023076136 -0.034159742 0.008016987 -0.011220443 -0.023082485 0.0037541697 0.005725577
-0.022368114 0.00564642 -0.030561874 -0.006765839 -0.022971733 0.010114366 -0.017877521 -0.013587115
-0.0012586976 -0.031599905 -0.004952619 -0.00991692 0.013681676 -0.0041882847 -0.013677349 0.023503618
0.0057746107 -0.011312697 -0.013723991 0.023619533 -0.010272819 -0.0055733426 -0.0071723685 -0.0042945435
-0.023197556 0.01774909 -0.0069053527 0.027073514 0.0035185225 -0.044125967 0.016976014 -0.0053450037
-0.020726921 0.00578873 0.023337381 0.007711625 0.014422625 -0.034726325 -0.006627121 -0.033734396
-0.021249138 -0.0028485488 0.0016006738 0.00086430914 -0.01871105 -0.0065079653 0.020833477 0.0010545156
-0.0054026456 0.014449074 0.032639284 0.013831509 -0.0029320049 0.045119207 0.019610418 -0.015821012
-0.022591852 0.01725235 -0.0052111 0.028943483 0.027848046 0.019148633 0.018512622 0.03477002
-0.023539258 -0.0021462487 -0.016795898 -0.003008144 0.025709411 -0.0007545658 0.009732833 -0.03844293
-0.0111937225 -0.010402682 -0.048120506 0.011017525 -0.0012998279 0.005192225 0.0013859625 -0.0071306312
0.012963756 0.009125831 -0.003384208 0.005727841 0.005817755 0.041662652 -0.03100713 -0.013863863
-0.009243994 0.01543142 -0.021906646 -0.0185993 0.003914161 0.0038840955 -0.00081621326 0.013320656
-0.04353039 0.0045655346 -0.015879018 -0.029927019 0.006375315 -0.006583889 -0.026591377 0.030025167
-0.017002046 -0.009504867 0.024712404 0.011842577 0.031810056 -0.016927732 0.021274496 -0.0056874896
0.0008866251 0.0037463314 -0.024856428 0.007570688 0.019587371 -0.00039116634 -0.011169964 0.0044431775
0.012600984 0.0060004215 -0.0001300244 0.002966857 -0.008253462 -0.0073765144 -0.007668408 -0.009110486
-0.00085613906 0.0077523403 0.020267028 -0.01732221 0.008664971 0.0014685506 -0.008979006 0.02067997
0.006080824 -0.018857995 0.0062679085 0.005213538 -0.016258541 0.0066316635 -0.0067220246 -0.010591607
-0.026742704 0.013836717 -0.009279708 0.0053206906 0.009131408 -0.03673406 -0.002494989 0.019522604
0.02046997 -0.043761194 0.029874995 0.035385206 0.017898887 -0.034557965 -0.0031520834 0.038625397
-0.08009982 -0.0040713474 -0.024518458 -0.0039885407 -0.011765035 0.0435718 -0.0316127 0.04330577
-0.007530625 -0.0325494 0.020483876 0.008078238 -0.07350538 0.037353054 0.0018087616 -0.03435363
-0.022753 -0.037910692 0.026628055 -0.06510736 0.015170752 0.008035756 0.039979775 -0.0027503492
-0.03671814 -0.011623932 0.0107787745 -0.0025766839 -0.0022696485 0.0024293407 0.008573384 -5.949022e-05
-0.0067448085 -0.0056375964 0.009633353 -0.017910168 -0.018395761 -0.0039534303 0.015323701 -0.004476051
0.019443154 -0.017717665 0.030951926 0.015937218 -0.020436969 0.015330046 -0.013342324 -0.0226323
0.006316385 0.01914632 -0.0112263905 0.0032194406 -0.022833357 -0.0093215555 -0.016322117 -0.0057984954
-0.007014571 0.005936596 -0.009222144 -0.040721674 0.017867377 0.015130628 -0.027176637 -0.0103448
0.014046237 0.016304417 -0.0028047983 -0.014768494 0.0037702285 0.034316406 0.013061973 0.0058849123
00000000: 3bb2 4ebc ab24 0a3d a28c 12bb 1dc1 54bc
00000010: 4534 cc3c c6f1 11bc 528c beb9 efac 1b3b
00000020: d59f ec3b ca81 bb3b a20a f3bb a865 ffba
00000030: 393f 903b beb6 243c 632b e73b 7b2a 18bc
00000040: 81a3 8b3b 2a0a bd3c 16eb 0bbd ae59 033c
00000050: f3d5 37bc 7b17 bdbc 8408 763b 9f9d bb3b
00000060: 563d b7bc 9b05 b93b e55c fabc f9b3 ddbb
00000070: 372f bcbc bab6 253c e173 92bc 7e9c 5ebc
00000080: e2fa a4ba e76e 01bd 9449 a2bb 947a 22bc
00000090: 1c29 603c e13d 89bb f616 60bc a98a c03c
000000a0: f238 bd3b e458 39bc 97da 60bc c07d c13c
000000b0: 534f 28bc 96a0 b6bb 3006 ebbb 3eb9 8cbb
000000c0: cd08 bebc 8a66 913c 4c46 e2bb 46c9 dd3c
000000d0: 0397 663b 6ebd 34bd 4811 8b3c 2425 afbb
000000e0: 81cb a9bc 63af bd3b 092e bf3c cdb1 fc3b
000000f0: e04c 6c3c 313d 0ebd 5228 d9bb 142d 0abd
00000100: ac12 aebc b8ae 3abb b3cd d13a ce92 623a
00000110: ea47 99bc c540 d5bb f8aa aa3c ac37 8a3a
00000120: ad08 b1bb cfbb 6c3c c5b0 053d 8e9d 623c
00000130: e126 40bb ebce 383d 07a6 a03c 119b 81bc
00000140: 8c12 b9bc cd54 8d3c e0c1 aabb e21a ed3c
00000150: 9621 e43c 98dd 9c3c c8a7 973c 026b 0e3d
00000160: 67d5 c0bc 14a8 0cbb 8d97 89bc 4824 45bb
00000170: 8b9c d23c 0ece 45ba 7676 1f3c 5576 1dbd
00000180: e065 37bc 0370 2abc 021a 45bd d982 343c
00000190: fd5e aaba 8a23 aa3b 2fa9 b53a 12a8 e9bb
000001a0: ef65 543c 8284 153c 97c9 5dbb 9db0 bb3b
000001b0: dea2 be3b 75a6 2a3d aa02 febc 4225 63bc
000001c0: 1f74 17bc 11d4 7c3c 9175 b3bc 8f5d 98bc
000001d0: 5d42 803b 4f8c 7e3b 25f7 55ba e13e 5a3c
000001e0: ec4c 32bd 7b9a 953b b714 82bc 8229 f5bc
000001f0: 05e8 d03b aabd d7bb 29d6 d9bc 57f7 f53c
00000200: e047 8bbc 4dba 1bbc ab71 ca3c 5e07 423c
00000210: 434b 023d 07ac 8abc da47 ae3c 1f5e babb
00000220: 676c 683a 0385 753b b59f cbbc 8913 f83b
00000230: b275 a03c 7515 cdb9 3a02 37bc 1398 913b
00000240: 5c74 4e3c 2f9f c43b 2957 08b9 9a6f 423b
00000250: 8739 07bc b0b6 f1bb 4547 fbbb 2644 15bc
00000260: 856e 60ba 5807 fe3b 0a07 a63c 4fe7 8dbc
00000270: 86f7 0d3c 627c c03a ae1c 13bc 0a69 a93c
00000280: a641 c73b 157c 9abc 0763 cd3b 54d6 aa3b
00000290: a230 85bc 6d4e d93b 6e44 dcbb 6b88 2dbc
000002a0: 8413 dbbc 66b3 623c eb09 18bc 3059 ae3b
000002b0: e79b 153c 7476 16bd f882 23bb deed 9f3c
000002c0: a3b0 a73c f03e 33bd 68bc f43c 14f0 103d
000002d0: b0a0 923c a78c 0dbd 2f93 4ebb aa35 1e3d
000002e0: 600b a4bd f068 85bb efda c8bc 4eb2 82bb
000002f0: 22c2 40bc 5878 323d 527c 01bd 6461 313d
00000300: 76c3 f6bb 8552 05bd cdcd a73c 965a 043c
00000310: fd89 96bd 84ff 183d f813 ed3a 64b6 0cbd
00000320: 8064 babc 3e48 1bbd 1423 da3c 0257 85bd
00000330: bf8e 783c 67a8 033c d5c1 233d 343f 34bb
00000340: c365 16bd 4e72 3ebc 7599 303c 95dd 28bb
00000350: 62be 14bb 9335 1f3b 6177 0c3c 2385 79b8
00000360: 8e03 ddbb 96bb b8bb 36d5 1d3c 58b8 92bc
00000370: b5b2 96bc c78b 81bb 4310 7b3c d6ab 92bb
00000380: 4047 9f3c a324 91bc e58e fd3c c58e 823c
00000390: 6e6b a7bc e02a 7b3c c399 5abc 6067 b9bc
000003a0: aef9 ce3b bed8 9c3c e5ee 37bc 40fd 523b
000003b0: 050d bbbc 70b9 18bc f6b5 85bc 4e01 bebb
000003c0: 7dda e5bb c787 c23b 7a18 17bc c5cb 26bd
000003d0: 9b5e 923c 74e6 773c 8aa1 debc 3c7d 29bc
000003e0: 3022 663c d790 853c b5d0 37bb 8ef7 71bc
000003f0: f015 773b 5c8f 0c3d e301 563c 39d6 c03b

cvae_parameters.dec_01_lin_b f4 [128]
0.0068650767 -0.00082712615 -0.0051584905 -0.0044530923 -0.0056496896 -0.013131579 0.0054621375 0.16176909
0.10781262 0.025061455 0.0023928906 0.024213873 0.08456562 -0.0082577085 -0.0010913531 0.07478002
-0.012596493 0.043125253 0.04203503 -0.007988799 0.0470873 -0.005950808 -0.011095984 0.068746835
0.03577378 0.036703102 -0.006785915 -0.0040417137 -0.0016912369 0.001392904 -0.0036801996 0.08181901
0.14127453 -0.0041417093 -0.0017621781 -0.0007260713 0.0008349488 0.01619603 0.08842302 -0.017024502
-0.0013617603 0.0071417093 -0.008157034 0.04001929 0.00055165245 0.0020174223 -0.0041474244 -0.008063906
-0.006072226 0.021040963 -0.002469805 0.0015684916 0.048785955 0.01686723 0.045145508 -0.0036748045
0.14748046 0.010465077 0.009843831 0.028898913 -0.0057653277 -0.0010191923 0.0012638816 0.0065412726
0.11838509 0.119278386 -0.021618253 -0.00773895 0.00025149834 -9.6189025e-05 -0.0069006006 0.01633765
-0.010397493 0.0026780304 0.012909263 -0.0019835338 0.06754062 0.015914127 0.06705454 0.02470434
0.16925961 0.093288474 -0.0011136112 0.10724618 -0.009917964 -0.018373266 -0.01349623 0.022732353
-0.002820565 -0.005444925 0.0015735171 0.022043413 -0.015743071 0.13092324 0.11876304 -0.0018202551
-0.009908178 -0.0026092767 -0.0073360503 -0.012258912 -0.0145252505 0.0022734879 -0.015358322 -0.004511767
0.1090282 0.098632544 -0.0065304874 0.03731826 0.14224942 0.12985264 -0.0015422979 0.19028565
0.002571931 0.15911356 0.13987659 -0.008362834 0.04370035 0.10326205 -0.008587778 0.018891614
-0.014333742 0.0023572424 -0.010409452 0.015507788 0.04626683 0.10391456 -0.01606002 0.0015746047
00000000: 70f4 e03b 7fd3 58ba 8e08 a9bb 3feb 91bb
00000010: 0821 b9bb d625 57bc bbfb b23b cca6 253e
00000020: ddcc dc3d ae4d cd3c 0bd2 1c3b 2c5c c63c
00000030: bd30 ad3d 574b 07bc bc0b 8fba 4426 993d
00000040: 8561 4ebc 1ba4 303d ec2c 2c3d 74e3 02bc
00000050: 9dde 403d fffe c2bb eecb 35bc 24cb 8c3d
00000060: 8787 123d fe55 163d 615c debb 5a70 84bb
00000070: 7eac ddba 1a92 b63a 812f 71bb ba90 a73d
00000080: 45aa 103e 2db7 87bb e3f8 e6ba d255 3eba
00000090: 77e0 5a3a 89ad 843c 2117 b53d f876 8bbc
000000a0: 187d b2ba 0005 ea3b 15a5 05bc 44eb 233d
000000b0: c59c 103a bb36 043b 1ee7 87bb 791e 04bc
000000c0: 86f9 c6bb 195e ac3c 74dc 21bb d895 cd3a
000000d0: c8d3 473d 252d 8a3c 7fea 383d fdd4 70bb
000000e0: 1e05 173e b775 2b3c 0548 213c 6abd ec3c
000000f0: 13eb bcbb 6b96 85ba d4a8 a53a 2c58 d63b
00000100: e273 f23d 3a48 f43d c318 b1bc 0597 fdbb
00000110: 89db 8339 17b9 c9b8 6f1e e2bb 89d6 853c
00000120: 3f5a 2abc e581 2f3b 6081 533c 2dfe 01bb
00000130: bd52 8a3d 585e 823c e453 893d c260 ca3c
00000140: 6452 2d3e 070e bf3d 97f6 91ba e3a3 db3d
00000150: f57e 22bc 8883 96bc 4b1f 5dbc 3339 ba3c
00000160: 3ad9 38bb 576b b2bb 793e ce3a 6394 b43c
00000170: 9df7 80bc be10 063e 093a f33d a095 eeba
00000180: e955 22bc 6600 2bbb 4063 f0bb 9bd9 48bc
00000190: 51fb 6dbc ccfe 143b 79a1 7bbc 72d7 93bb
000001a0: 2d4a df3d dcff c93d b3fd d5bb 08db 183d
000001b0: d5a9 113e 17f8 043e ee26 caba 3eda 423e
000001c0: d88d 283b aaee 223e cf3b 0f3e 4504 09bc
000001d0: 23ff 323d 0e7b d33d c0b3 0cbc 96c2 9a3c
000001e0: 12d8 6abc f77b 1a3b 688c 2abc 6114 7e3c
000001f0: 4a82 3d3d 28d1 d43d 4e90 83bc f762 ce3a

cvae_parameters.dec_01_lin_w f4 [128, 128]
0.009470941 0.0133388275 -0.010804211 -0.030749388 0.006023012 -0.04931336 -0.00015911556 -0.03834241
-0.024879564 -0.0010282831 -0.014508935 -0.023470463 0.0036738033 0.015224933 -0.0021196643 -0.01973456
-0.006306569 0.0035456805 -0.002051377 -0.011477966 -0.0007637359 0.012718014 -0.013522473 -0.014958481
-0.024819832 -0.0035705953 0.010856954 -0.06303032 -0.05203498 -0.01657873 -0.006810512 -0.027323693
0.0037895974 -0.063252635 -0.022384673 -0.009562127 0.008900019 0.0036253894 0.009090037 0.01513939
0.009798423 -0.015524746 -0.009086168 -0.0023186423 0.01997801 -0.011552815 -0.001268554 0.0017053648
0.003564917 -0.0015179059 -0.024178945 -0.034216605 -0.008397504 -0.05635908 -0.015606662 0.011550126
-0.017943213 0.005882843 -0.033931192 0.003980192 -0.021098105 0.012545752 -0.017522214 -0.0008090651
-0.0012157894 -0.0055802665 -0.00519674 0.0105328355 0.0006279166 -0.009448326 -0.006623407 -0.01209259
-0.0040313094 0.0011797121 0.0016015626 0.00013021381 -0.004685905 -0.011120172 -0.056677073 -0.008471234
0.0060669426 0.009128059 -0.010185132 0.009561253 0.012566736 0.0051577785 -0.02937325 -0.0026879138
-0.0050815674 0.016211623 -0.009537842 -0.050396442 -0.0108811045 0.0011650319 -0.014847099 -0.033468243
-0.014146182 -0.036958873 0.0012222319 -0.02450332 0.017794475 -0.0066013997 -0.0038085175 0.0021566553
-0.07063321 0.003962034 -0.01620453 0.0056589204 -0.016032172 -0.023961069 -0.005333479 -0.01523753
0.015992494 0.0071754535 -0.009835894 0.0049370234 -0.043643355 -0.012720112 0.0026182085 -0.029187582
-0.027965527 -0.012114472 -0.015450109 0.002924333 -0.0395389 -0.017372992 0.0031067703 0.0073963013
-0.026906975 -0.01586698 -0.020916903 -0.01599229 0.0055853627 -0.011242994 -0.030317735 -0.012515969
-0.03770687 -0.0009007041 -0.032351542 -0.038898576 -0.016861346 0.00873121 -0.019589268 -0.031783156
-0.019453505 -0.0029328384 -0.030382875 -0.026818525 -0.0027746318 -0.0068004164 -0.0016914624 -0.011496968
-0.011135361 -0.0103004705 -0.006759828 -0.0051186965 -0.02867467 -0.02418995 -0.031038238 -0.007314398
-0.02591524 -0.0058004423 -0.033831794 -0.0069398233 -0.002262642 -0.024628624 -0.033300374 -0.002107909
0.027097577 -0.021273198 0.0030869741 0.010936672 -0.014920457 -0.005512888 -0.013679727 0.0050274697
0.011754938 0.012362845 -0.01270828 -0.02326069 -0.010732873 -0.0037059023 -0.0034454437 -0.029475288
0.0067279725 0.01576861 -0.0065642074 -0.014586721 -0.0041666715 -0.023000594 -0.014193853 -0.009274833
-0.013345633 0.0018914056 -0.019887771 -0.03887229 -0.025466569 -0.018451478 -0.021322973 0.0071868785
0.0035435788 -0.013957591 0.000636321 -0.034435365 -0.0014000183 -0.012056289 0.011464308 -0.044283807
-0.015207914 -0.021615172 -0.025698785 -0.0012456718 -0.020464152 -0.025668519 -0.025040373 0.006129191
-0.013925216 -0.005712822 -0.017888784 -0.045644138 -0.010191885 0.00079473807 -0.0033958913 -0.024892328
-0.011892376 -0.03330194 -0.009704963 -0.042487923 -0.01441141 -0.0043087145 -0.008266087 -0.007821243
-0.0106667355 -0.048134223 -0.027230747 -0.018360917 -0.041252155 0.0020290469 -0.0071307663 -0.0036764
-0.015929382 -0.009523035 -0.013347573 -0.012003131 -0.02328374 -0.008407144 -0.015451019 -0.01129269
-0.02345722 -0.006594613 -0.00041827085 -0.022768028 -0.012922048 0.004747982 -0.011760686 -0.017273197
00000000: 012c 1b3c 198b 5a3c 2504 31bc 24e6 fbbc
00000010: b05c c53b cefc 49bd 42d8 26b9 ee0c 1dbd
00000020: 3ad0 cbbc 75c7 86ba e2b6 6dbc 2145 c0bc
00000030: 31c4 703b ff71 793c 11ea 0abb 5faa a1bc
00000040: 56a7 cebb a65e 683b 6570 06bb 140e 3cbc
00000050: 7335 48ba 385f 503c 5d8d 5dbc 6b14 75bc
00000060: f652 cbbc a600 6abb 5ee1 313c 0a16 81bd
00000070: a222 55bd 1ed0 87bc b72a dfbb f0d5 dfbc
00000080: e55a 783b 998a 81bd 1060 b7bc 78aa 1cbc
00000090: 63d1 113c f197 6d3b 61ee 143c 340b 783c
000000a0: 9189 203c 815b 7ebc 27de 14bc 5df4 17bb
000000b0: eca8 a33c 0548 3dbc 9c45 a6ba 8c86 df3a
000000c0: 62a1 693b 78f4 c6ba ec12 c6bc b626 0cbd
000000d0: af95 09bc c7d8 66bd 16b3 7fbc bd3c 3d3c
000000e0: a5fd 92bc ddc4 c03b 6ffb 0abd 456c 823b
000000f0: efd5 acbc b38c 4d3c bf8a 8fbc 7117 54ba
00000100: 1f5b 9fba abda b6bb 6a49 aabb ea91 2c3c
00000110: c59a 243a 27cd 1abc 2a09 d9bb 0020 46bc
00000120: 1319 84bb 92a0 9a3a 86eb d13a 018a 0839
00000130: 388c 99bb 6231 36bc 3826 68bd eeca 0abc
00000140: 34cd c63b db8d 153c 8adf 26bc cda6 1c3c
00000150: b6e4 4d3c 9502 a93b 2ca0 f0bc b627 30bb
00000160: 4783 a6bb 3dce 843c 9c44 1cbc 806c 4ebd
00000170: a946 32bc fcb3 983a 3f41 73bc ff15 09bd
00000180: 63c5 67bc 3062 17bd 4c33 a03a 30bb c8bc
00000190: b8c5 913c 8e50 d8bb 5298 79bb ac56 0d3b
000001a0: 25a8 90bd f3d3 813b 5dbf 84bc 776e b93b
000001b0: e755 83bc 014a c4bc 77c4 aebb d5a6 79bc
000001c0: b102 833c 1120 eb3b bb26 21bc c1c6 a13b
000001d0: 60c3 32bd 0468 50bc 4096 2b3b cc1a efbc
000001e0: f617 e5bc c77b 46bc 7422 7dbc 2ba6 3f3b
000001f0: 8bf3 21bd ce51 8ebc f59a 4b3b ac5c f23b
00000200: 046c dcbc 78fb 81bc ed59 abbc 4302 83bc
00000210: 6b05 b73b 8934 38bc e65c f8bc c70f 4dbc
00000220: 8572 1abd 3b1d 6cba 0d83 04bd 1d54 1fbd
00000230: ce20 8abc 590d 0f3c ac79 a0bc 0e2f 02bd
00000240: f55c 9fbc dd34 40bb 82e5 f8bc 86b2 dbbc
00000250: 99d6 35bb 07d6 debb 0fb4 ddba c75d 3cbc
00000260: 1771 36bc 4ec3 28bc 8c81 ddbb bdba a7bb
00000270: 24e7 eabc 012a c6bc e743 febc 9ead efbb
00000280: 334c d4bc a311 bebb 3593 0abd 7567 e3bb
00000290: d548 14bb f8c1 c9bc f965 08bd d824 0abb
000002a0: bdfb dd3c 2145 aebc d54e 4a3b ba2f 333c
000002b0: ef74 74bc 75a5 b4bb ef20 60bc 79bd a43b
000002c0: c997 403c 888d 4a3c 6436 50bc 348d bebc
000002d0: efd8 2fbc b9de 72bb f4cc 61bb 2976 f1bc
000002e0: 5376 dc3b 2c2d 813c 9018 d7bb 24fd 6ebc
000002f0: 9388 88bb be6b bcbc 568d 68bc 78f5 17bc
00000300: a4a7 5abc 0ae9 f73a aeeb a2bc 8d38 1fbd
00000310: 449f d0bc 8e27 97bc 84ad aebc e87f eb3b
00000320: 633b 683b 61ae 64bc c8ce 263a 190c 0dbd
00000330: d280 b7ba be87 45bc cbd4 3b3c f062 35bd
00000340: 9d2a 79bc 4d12 b1bc 4286 d2bc cf45 a3ba
00000350: 70a4 a7bc c946 d2bc 7821 cdbc 61d7 c83b
00000360: 9726 64bc a032 bbbb 808b 92bc 59f5 3abd
00000370: ddfb 26bc f855 503a 9a8d 5ebb ffea cbbc
00000380: 3dd8 42bc 9d67 08bd 9101 1fbc d107 2ebd
00000390: d61d 6cbc 1e30 8dbb 7b6e 07bc ac24 00bc
000003a0: 88c3 2ebc 6428 45bd 0413 dfbc a269 96bc
000003b0: 05f8 28bd c2f9 043b 34a9 e9bb c2ef 70bb
000003c0: 567e 82bc 8106 1cbc c7af 5abc c8a8 44bc
000003d0: 8bbd bebc 1ebe 09bc 4526 7dbc fa04 39bc
000003e0: 5b29 c0bc a017 d8bb 5d4b dbb9 0484 babc
000003f0: ffb6 53bc f694 9b3b e4af 40bc 8580 8dbc

cvae_parameters.enc_00_lin_b f4 [128]
-4.041311e-05 0.00011629309 -1.45796475e-05 1.577258e-05 0.000108057604 4.5261844e-05 0.00021244465 0.00015633773
0.00017369185 8.802521e-05 0.0003150298 -1.605807e-05 5.170949e-05 -7.5488664e-05 -4.38955e-05 -7.037764e-05
4.071816e-05 0.000109975386 -0.00023733378 1.2102347e-05 -8.5886386e-05 -1.5064665e-05 5.9396963e-05 -0.00017547827
0.000176974 -3.123349e-05 -0.000104812534 -0.00010135233 4.505185e-05 -4.9115395e-05 -3.8165228e-05 0.00017205466
5.9098656e-05 -0.00010627197 -3.6796202e-05 -5.2498453e-05 -3.012087e-05 8.3349965e-05 -6.999991e-05 0.00020320952
5.3926145e-05 0.00012574682 -2.2822765e-05 -0.00032742665 0.00014707251 -0.00023376041 -0.00021001871 2.3781071e-05
0.00017502348 -4.858049e-06 0.00013892761 -0.00014306752 -1.1435119e-05 0.00020887703 8.108075e-05 0.00017684832
0.00036253175 -0.0001450527 -0.000125701 1.2841106e-05 5.9403283e-05 -5.59994e-05 0.00012144486 -0.000247885
-0.00017997636 -7.4559516e-06 0.0001424357 5.4557102e-05 4.369452e-05 8.259365e-06 2.2748031e-06 -0.00012225626
6.2616454e-07 0.00057152414 3.0591047e-05 2.4692179e-05 -2.2540375e-05 9.4461575e-06 0.00010712968 4.28784e-05
0.0001247987 -0.00016382696 4.776326e-05 5.5356104e-05 1.4354511e-05 -8.846564e-05 -0.00020045794 -6.277625e-05
0.00012594138 -3.5402678e-05 -8.1874794e-05 1.9404779e-05 -8.009164e-05 -0.0001192481 7.732419e-06 6.165836e-05
-3.5121444e-05 -0.00027683633 6.0122173e-05 1.0766687e-05 0.00010875008 -0.000110417204 0.00010775434 -0.00036089862
-0.00027189174 -3.2268556e-05 0.00021538581 -3.5582965e-05 -6.242266e-05 -0.00012882233 0.00014826171 9.114522e-05
3.325339e-05 -0.00020491531 2.2565455e-06 0.00014813131 -8.846058e-05 -6.2949555e-05 -6.5536806e-05 6.9179594e-05
8.484042e-05 -0.00015675707 0.0001269119 -0.00013014938 -0.00015129226 0.00031067384 0.00016334954 -0.00012442787
00000000: 3f81 29b8 61e2 f338 1c9b 74b7 5c4f 8437
00000010: fc9c e238 89d7 3d38 adc3 5e39 97ee 2339
00000020: 0d21 3639 2d9a b838 962a a539 71b4 86b7
00000030: a4e2 5838 ab4f 9eb8 6f1c 38b8 b597 93b8
00000040: cbc8 2a38 96a2 e638 cddc 78b9 2f0b 4b37
00000050: e71d b4b8 3ebe 7cb7 0121 7938 9700 38b9
00000060: 1992 3939 b400 03b8 cdce dbb8 1e8d d4b8
00000070: 0ef6 3c38 4101 4eb8 9a13 20b8 9269 3439
00000080: b3e0 7738 54de deb8 9f55 1ab8 c931 5cb8
00000090: 13ac fcb7 2ccc ae38 eacc 92b8 a414 5539
000000a0: c22e 6238 e8da 0339 8473 bfb7 76aa abb9
000000b0: 7a37 1a39 951d 75b9 7838 5cb9 767d c737
000000c0: 8286 3739 5302 a3b6 19ad 1139 6504 16b9
000000d0: 76d9 3fb7 0006 5b39 e509 aa38 5c70 3939
000000e0: 3012 be39 4a19 18b9 9bce 03b9 2170 5737
000000f0: ca27 7938 e6e0 6ab8 36b0 fe38 90f6 81b9
00000100: 09b8 3cb9 232e fab6 cb5a 1539 3ed4 6438
00000110: a244 3738 b491 0a37 d2a8 1836 ea31 00b9
00000120: b315 2835 56d2 153a e34e 0038 0d22 cf37
00000130: 1615 bdb7 f07a 1e37 cfaa e038 55d8 3338
00000140: 65dc 0239 f7c8 2bb9 6955 4838 2a2e 6838
00000150: 28d4 7037 a186 b9b8 0532 52b9 bea6 83b8
00000160: 220f 0439 567d 14b8 32b4 abb8 72c7 a237
00000170: dff6 a7b8 d614 fab8 7dba 0137 944e 8138
00000180: 5d4f 13b8 5824 91b9 b12b 7c38 92a2 3437
00000190: c110 e438 c98f e7b8 2cfa e138 fe36 bdb9
000001a0: b18c 8eb9 1958 07b8 30d9 6139 eb3e 15b8
000001b0: e9e8 82b8 7b14 07b9 b376 1b39 3825 bf38
000001c0: 8e79 0b38 89de 56b9 286f 1736 b253 1b39
000001d0: ea83 b9b8 c903 84b8 ce70 89b8 8314 9138
000001e0: 5bec b138 285f 24b9 a713 0539 b578 08b9
000001f0: 35a4 1eb9 f0e1 a239 cf48 2b39 da78 02b9

cvae_parameters.enc_00_lin_w f4 [128, 163]
-0.011243032 -0.011541436 -0.0024938332 -0.0043645287 0.008489286 0.0069199293 -0.0031447976 -0.02118767
0.0032469793 -0.01271385 0.0034889386 0.0030944652 0.0012414631 0.012426126 0.011218997 -0.0025394324
-0.013489206 -0.017009951 0.005605349 0.007977356 0.006085208 -0.015358358 -0.0033710194 0.018436026
0.0076297503 -0.005889853 -0.0018652023 0.0018529162 0.013932647 0.016101759 0.009507577 -0.008528621
-0.006002418 0.00035478213 -0.0050441055 0.0025567359 0.004445531 0.0012346465 0.0065661613 0.0043310653
-0.0009993972 0.008136373 -0.0029198325 0.0006171554 0.005335603 0.023076665 -0.014478049 -0.015831584
-0.006764826 0.008916807 0.010518456 0.001850093 -0.0021524483 -0.0038446405 0.0055102985 -0.0039223516
-0.004509463 0.0074644666 0.015204608 0.03427236 -0.015189299 -0.012303031 0.018127676 -0.0056223697
-0.0057083396 0.009095394 0.011155123 0.013102975 -0.01473723 0.025575086 -0.0048622955 0.003143508
-0.01624797 -0.005632599 -0.004770851 -0.0049674883 -0.010582127 0.011113192 -0.0014908995 0.007923525
-0.0008857159 0.006820009 -0.008298731 6.270021e-06 0.008469364 -0.0039192056 0.01036021 0.003527401
-0.0024888895 0.023035092 -0.018762967 -0.00047656416 -0.010436961 -0.009495899 0.00042896956 0.007018309
0.016383838 -0.013656577 0.0034560296 0.005203885 -0.02590853 -0.016946023 -0.0021558949 0.002697839
0.0024409108 0.00074562046 0.0034280191 0.004565495 0.0048504407 -0.008643236 0.0077751544 -0.009335343
-0.0020569433 -0.024316806 -0.00067592855 -0.0002590488 0.009740914 0.0034593826 -0.00933478 -0.0006376767
-0.0059842817 -0.004577269 0.019152775 -0.003943901 0.0012240623 0.01157487 0.009202967 0.013760326
-0.008655009 -0.0041767024 -0.008186281 0.0056149345 0.006100543 0.0046653585 0.019454584 -0.010791714
-0.00067953987 0.0010559662 -0.0060617737 -0.012502477 -0.0010444566 -0.010332794 -0.0031441632 0.0023518014
-0.0025470813 0.0011139677 0.002383427 0.011606723 0.002878643 0.0038641784 -0.0019684522 -0.0012194713
0.0019382864 -0.007740257 -0.018992105 0.0012821638 -0.0070370464 0.0031435154 0.0015895434 0.00381519
0.009671456 -0.00995125 0.0030160542 -0.001117636 0.010036455 -0.005026409 0.007685802 0.0061752084
0.0031429196 0.002086315 -0.0010976229 0.0033924268 -0.0031290236 -0.010815825 0.0024980314 -0.01409544
-0.00058257714 -0.00359712 -0.015371076 -0.0040017893 0.010708667 0.0013806403 0.0160168 0.007573898
-0.010778763 -0.007128698 0.01528769 0.00237829 0.0067279697 -0.009565726 -0.011368021 -0.012152552
-0.005592193 0.005608323 0.004837416 0.0038976518 0.0019403129 0.009137188 -0.002526331 0.009832685
-0.000579314 -0.010515961 0.004397053 0.0061799693 0.0067005157 -0.012180737 0.0062121428 -0.005977544
0.011875027 0.0012285694 0.009864299 0.00847913 -0.01266152 0.009601482 -0.0047178804 -0.013183529
0.009681951 0.012780193 -0.006247534 0.005467306 0.0027831723 -0.0004190234 -0.010388972 -0.0012944975
-0.003390266 0.015451273 0.002550885 0.0036013399 -0.001412583 0.006166259 -0.0026419684 -0.013252739
-0.001659746 -0.0055935243 -0.00464379 0.008518767 -0.008713046 0.008051196 0.011884536 -0.01754668
-0.015004139 -0.017663145 0.0011480096 -0.0108821085 0.01480394 -0.0013078934 0.0061197565 -0.0015171847
-0.000690891 0.010332155 0.009456081 -0.004855403 -0.008274014 0.0013557287 0.019174887 0.0042937673
00000000: b234 38bc 4b18 3dbc 946f 23bb 5204 8fbb
00000010: a516 0b3c 93c0 e23b f318 4ebb c491 adbc
00000020: 46cb 543b c04d 50bc ada6 643b 83cc 4a3b
00000030: 97b8 a23a f396 4b3c e2cf 373c 9b6c 26bb
00000040: d501 5dbc 7458 8bbc 13ad b73b 75b3 023c
00000050: 6d66 c73b 9fa1 7bbc 52ec 5cbb 2607 973c
00000060: fc02 fa3b abff c0bb ce79 f4ba 8ddd f23a
00000070: c245 643c d6e7 833c abc5 1b3c a1bb 0bbc
00000080: efaf c4bb 0d02 ba39 0649 a5bb e98e 273b
00000090: d1ab 913b ddd3 a13a f428 d73b 9ceb 8d3b
000000a0: 35fe 82ba 6c4e 053c a95a 3fbb 99c8 213a
000000b0: 48d6 ae3b 460b bd3c 5735 6dbc 3db1 81bc
000000c0: 79ab ddbb cd17 123c 9a55 2c3c d27e f23a
000000d0: 1710 0dbb 5df6 7bbb bc8f b43b 1287 80bb
000000e0: 1ec4 93bb 7c98 f43b c01c 793c 2d61 0c3d
000000f0: 8adc 78bc a792 49bc 7e80 943c db3b b8bb
00000100: 060d bbbb d904 153c fac3 363c dcad 563c
00000110: 6c74 71bc d882 d13c e453 9fbb 5003 4e3b
00000120: 761a 85bc aa91 b8bb cd54 9cbb 50c6 a2bb
00000130: a860 2dbc 1b14 363c 496a c3ba acd1 013c
00000140: 632f 68ba 627a df3b 67f7 07bc 1263 d236
00000150: 16c3 0a3c ae6c 80bb dfbd 293c f82b 673b
00000160: a31c 23bb 17b4 bc3c cbb4 99bc 5cdb f9b9
00000170: caff 2abc b094 1bbc 52e7 e039 d8f9 e53b
00000180: 6637 863c d6bf 5fbc 8e7e 623b 5a85 aa3b
00000190: 203e d4bc 63d2 8abc ea49 0dbb 3ace 303b
000001a0: b0f7 1f3b be75 433a 9ea8 603b 269a 953b
000001b0: 72f0 9e3b 5c9c 0dbc b9c6 fe3b 44f3 18bc
000001c0: c8cd 06bb 0a34 c7bc cc30 31ba f1d0 87b9
000001d0: 5b98 1f3c cfb6 623b e8f0 18bc c229 27ba
000001e0: cb17 c4bb eafc 95bb 48e6 9c3c d73b 81bb
000001f0: b770 a03a 86a4 3d3c 0bc8 163c fe72 613c
00000200: bdcd 0dbc b8dc 88bb c01f 06bc 7cfd b73b
00000210: 10e7 c73b dddf 983b 385f 9f3c bbcf 30bc
00000220: 2623 32ba 5968 8a3a d8a1 c6bb 30d7 4cbc
00000230: 26e6 88ba e14a 29bc 4e0e 4ebb ae20 1a3b
00000240: efec 26bb 8e02 923a 4533 1c3b 202a 3e3c
00000250: 9ea7 3c3b 283e 7d3b 2601 01bb abd6 9fba
00000260: 190e fe3a fba1 fdbb 5595 9bbc 470e a83a
00000270: 0697 e6bb 7003 4e3b 3a58 d03a 4408 7a3b
00000280: 0775 1e3c 910a 23bc fea8 453b a47d 92ba
00000290: f16f 243c 93b4 a4bb 2ed9 fb3b 6759 ca3b
000002a0: 71f9 4d3b 8fba 083b 1dde 8fba 7a53 5e3b
000002b0: 4e10 4dbb dc34 31bc 03b6 233b 8ff0 66bc
000002c0: 17b8 18ba a9bd 6bbb f7d6 7bbc 7121 83bb
000002d0: 6873 2f3c 9af6 b43a aa35 833c 762e f83b
000002e0: 6999 30bc da97 e9bb 3879 7a3c 16dd 1b3b
000002f0: 4d76 dc3b 90b9 1cbc f040 3abc 7f1b 47bc
00000300: b73e b7bb 06c6 b73b 3083 9e3b bf6f 7f3b
00000310: 1952 fe3a 25b4 153c cd90 25bb 4519 213c
00000320: 1bdd 17ba 234b 2cbc 2715 903b 5781 ca3b
00000330: 0090 db3b b791 47bc 3b8f cb3b 46df c3bb
00000340: 798f 423c f307 a13a de9d 213c 0dec 0a3c
00000350: 4472 4fbc 894f 1d3c 7398 9abb baff 57bc
00000360: 0ca1 1e3c 0464 513c 1db8 ccbb 1627 b33b
00000370: e265 363b 5eb0 dbb9 8236 2abc 21ac a9ba
00000380: 3a2f 5ebb 5627 7d3c c02c 273b 7504 6c3b
00000390: 6c26 b9ba 540e ca3b e024 2dbb 0422 59bc
000003a0: d68b d9ba e249 b7bb ef2a 98bb 4c92 0b3c
000003b0: 2ac1 0ebc 2ae9 033c 5bb7 423c 0ebe 8fbc
000003c0: ecd3 75bc 4db2 90bc cf78 963a df4a 32bc
000003d0: 3a8c 723c 9f6d abba 3d88 c83b 45dc c6ba
000003e0: e91c 35ba 3348 293c aeed 1a3c 131a 9fbb
000003f0: bb8f 07bc b5b2 b13a a714 9d3c bbb2 8c3b

cvae_parameters.enc_01_lin_b f4 [128]
-0.0011316997 0.0017003122 -0.00069775205 -0.0015934551 -0.00067487627 0.00066509383 0.0037683155 -5.024659e-05
-0.0019914235 -0.00014339777 0.0019768707 -0.00023728966 -0.0004144958 0.0012973079 0.001936167 0.0008718498
0.0014321816 -0.0011985736 2.9155797e-05 -0.0006641803 -0.0007030027 0.0013137292 -0.0022578395 0.0012705406
0.0017427456 0.0011550708 0.001952947 0.0011473582 0.00093399006 -0.002008371 -0.0021069008 -0.0012562402
-0.0005912592 0.002691801 -0.0012706908 0.00020644316 -0.0017464259 0.0005529427 -0.00016744023 0.000658004
0.0011894517 0.001262429 -0.00111417 -4.0740915e-06 0.0020176382 -0.00018348914 0.0014986634 0.00018586995
0.0016280084 0.00079167006 -0.0004296735 0.0059104944 -0.0006251308 0.0013705717 -0.0018033771 0.00047352366
-0.00142475 0.0010654539 0.0018956069 -0.0003240042 -0.00071102375 0.0016815629 0.0029626954 0.0019010645
-0.00011269069 0.0006555588 0.00066058285 -5.9144666e-05 0.00091580406 0.00069354486 -0.0007983906 -0.0005210299
0.00044930144 0.0019696176 -0.0009535278 -0.00049793726 -0.0017888162 -0.0010318493 -0.0013454836 0.0011424953
-0.0050466536 -3.0189867e-05 -0.0015841927 -8.773857e-05 -0.0006676563 -0.0010514024 0.0045487466 -0.0014525331
0.00027931496 -0.0006752406 0.0027415531 -0.0026928973 -0.0015065599 0.00069247524 -0.0015064108 0.00050677214
-0.0037173585 0.0032095348 0.0002880997 0.0022208903 -0.0014399484 0.00012661165 -0.0007850144 0.00031605852
0.0025620456 0.0018344354 0.0007806121 -0.00033419236 0.003282884 -0.003694152 0.001062172 -0.0010449697
-0.00047618308 -0.00027713226 -0.0017792858 0.00053591287 0.00026414153 0.00018370437 0.00071746 0.00035543297
-0.0013671619 0.0006482005 0.0005150496 0.0035918253 -0.00065975724 0.0014050119 8.9139096e-05 0.0003375126
00000000: 8a55 94ba 03dd de3a 59e9 36ba 7bdb d0ba
00000010: 2eea 30ba b159 2e3a d8f5 763b ddbf 52b8
00000020: 8b82 02bb 0c5d 16b9 638e 013b f5d0 78b9
00000030: af50 d9b9 6e0a aa3a fcc6 fd3a da8c 643a
00000040: 0ab8 bb3a 7519 9dba 9993 f437 631c 2eba
00000050: b649 38ba 7031 ac3a 43f8 13bb 4588 a63a
00000060: d76c e43a bf65 973a 07fa ff3a f462 963a
00000070: 03d7 743a e09e 03bb ee13 0abb 6da8 a4ba
00000080: bcfe 1aba ed68 303b 4f8d a6ba aa78 5839
00000090: 54e8 e4ba 5bf3 103a e592 2fb9 e77d 2c3a
000000a0: 60e7 9b3a 1778 a53a 5709 92ba 2eb4 88b6
000000b0: 5a3a 043b fe66 40b9 cd6e c43a 16e6 4239
000000c0: e662 d53a 1488 4f3a cd45 e1b9 d2ac c13b
000000d0: d1df 23ba c1a4 b33a 4b5f ecba 4543 f839
000000e0: adbe baba b3a6 8b3a 0376 f83a 1cdf a9b9
000000f0: ff63 3aba e367 dc3a c829 423b 242d f93a
00000100: 5a54 ecb8 ced9 2b3a f72a 2d3a 1a12 78b8
00000110: 9212 703a 02cf 353a 164b 51ba ba95 08ba
00000120: 3890 eb39 b314 013b 2bf6 79ba 0188 02ba
00000130: b676 eaba 1e3f 87ba f05a b0ba c8bf 953a
00000140: 665e a5bb 3f40 fdb7 b0a4 cfba 4900 b8b8
00000150: a805 2fba 36cf 89ba a70d 953b ec62 beba
00000160: 0571 9239 a102 31ba a1ab 333b 527b 30bb
00000170: c377 c5ba 3a87 353a c272 c5ba e7d8 043a
00000180: ed9e 73bb 0f57 523b 160c 9739 5b8c 113b
00000190: a7bc bcba 0ec3 0439 6dc9 4dba a8b4 a539
000001a0: fee7 273b 7071 f03a fea1 4c3a 8a36 afb9
000001b0: a725 573b 9619 72bb 9438 8b3a 5df7 88ba
000001c0: 36a8 f9b9 104c 91b9 ed36 e9ba 817c 0c3a
000001d0: 7a7c 8a39 c4a0 4039 ed13 3c3a 6859 ba39
000001e0: 5732 b3ba 00ec 293a 6504 073a d464 6b3b
000001f0: 8ff3 2cba 6028 b83a 30f0 ba38 2df4 b039
