dlpg/17/weights/dlpg_model_weights_300.pth (torch, 389944 bytes, 15 tensors)

VQ.projection.weight f4 [200, 32]
00000000: 6ecb f93d 8eb9 4abd 4e61 f93d 3300 04be
00000010: 9246 d2bd 44c5 27be 8ae4 f23c 0bdc 233e
00000020: f32b cf3b 636d fe3d e037 80bd 8cd6 bdbd
00000030: 806a 13bd 703e 1dbe 12ce cd3c 6027 d43c
00000040: b26f 1cbe b531 70bd fc5c 13bc c3ac 9bbd
00000050: 833c 143e c3c7 99bd e0bd ce3d 99ec 8f3c
00000060: 2f57 0b3e e41b 01be 5b40 2d3e b3e4 efbd
00000070: ad94 d6bd a7e9 0cbe 66d0 8e3d 3b90 31bc
00000080: 7151 01be 35f9 b53c b6c3 53bd d0fd c7bd
00000090: b612 a63d fde9 b93b 54d0 dcbd a5bc bcbd
000000a0: 89b2 233e c4e9 ec3c 23ee 22be 6772 30bd
000000b0: 63d3 ffbd f6cf 1bbd a91d d2bd f344 d1bd
000000c0: ab61 423d 56f2 25be e01e 61bb e4ab d5bd
000000d0: 78ea 2f3e eeb4 223e 67be 2a3e 2c23 723c
000000e0: 022a bdbc a4bc 9d3d 3c0e 96bd 816b 1e3e
000000f0: 3e2a 053e b5b9 773d e83a 24be 9652 0e3e
00000100: d1f2 203e 803b fe3d c873 42bc 6e1f 373d
00000110: 083f bcbd 510d c53d c215 a0bd d39e 263e
00000120: 069b e63d bca4 c83d 3bf6 d4bd 8458 aabb
00000130: ad68 8fbd 2884 94bd 2592 f2ba b020 893c
00000140: 3413 1c3d 4c25 243d e58a dabd d2d4 2e3e
00000150: b09d 833c 1468 2c3e 066f dc3c e65f 80bd
00000160: cc2c 593b bbc8 02bd cc03 87bd 6ad1 4cbd
00000170: e89a f23d e92b 0dbe 365c 0abe e862 f03d
00000180: 6931 023e acfa 9abd c09c 5fbd ca9d cb3d
00000190: 1289 193e 5e2c b7bc 9830 b83d 6e46 fbbd
000001a0: b5f6 a33d af9c 143c 8428 adbd 0d2c 02be
000001b0: 5734 1ebe 2f4b 89bd 4a05 113e 5f5c cabc
000001c0: 0408 813d 07bb 2a3e 884b 2abe bfce b43d
000001d0: bf06 5d3d f939 4b3d c588 76bd 2611 8cbd
000001e0: 6433 b23d 7d45 10be bfdb 463c ee78 bcbd
000001f0: 185b 50bd 567d debd 9af5 213e 0df6 0ebe
00000200: 323f 313e 7dc2 fe3d 8512 96bd 31b1 243c
00000210: 80de 0ebe 45b2 0fbe a814 f3bd f440 1a3e
00000220: e174 e23c f66b 2ebe 458d a3bc 7095 e9bc
00000230: c7e8 203e 53a7 29bd 1929 01be 8331 a5bd
00000240: aa79 cf3d a63b 20be 22c6 cf3c a599 17be
00000250: 745b babd 3425 01be 90ec e73c 2cf1 613d
00000260: a989 b43d 19f4 d9bd 0875 e0bc fab8 213e
00000270: b1e6 6dbd d144 22be c9c2 f8bc aa5c 93bd
00000280: 71a2 dd3d 546f 58bc 8737 2e3e f9eb fdbd
00000290: 52ce 34bd 703e 023d e2df 123d 8e41 a3bc
000002a0: 2d50 11be cf1d 193e 343a f2bd f014 5b3d
000002b0: 311b c33d c7fa 273d 54eb c7bb c944 8abd
000002c0: 7023 c6bc 7ec8 20be 6894 9f3d ab74 e23c
000002d0: 1303 91bd 52b8 903d 4bf6 4dbd 47b4 86bd
000002e0: f73c 32be 8499 d43d 0347 283e 3d52 2cbe
000002f0: 81d7 1a3e 18ee a6bd c5a9 10be bc79 dbbd
00000300: 73c5 12be e385 71bc 03bb 0fbb 4783 e03d
00000310: 2fae 0cbe 3e76 0d3e 747b 233e 828b 3ebd
00000320: 30db f0bd 3e8d 813d 40f8 853d 3948 42bd
00000330: a9f8 c0bd b5e2 0abe 3a81 13be b0ca 6a3d
00000340: e5ec db3c 4e4e 023c 8256 16bd 1cc0 b8bd
00000350: 6a6c 4ebd 4631 aebd 276f b2bd 958b 91bd
00000360: 992b dd3b e0a7 d6bd e214 3dbd aaae 313e
00000370: 6219 843d 69fe 203e e6b4 68bd 5a80 4f3c
00000380: 46d1 f0bb 1406 05bd ba40 0d3d a6f4 9f3b
00000390: 45ad eabd 4e1e 0a3e cd0d ca3b c6ac 0cbe
000003a0: 717f a3bd 0769 bf3d 7885 00bc ccc0 e43d
000003b0: b675 60bd 5d03 a73d b9f0 19be 4562 7f3d
000003c0: a00b 97bd 2477 b23d 5b83 60bd 74f2 21be
000003d0: 2eab 033e 22ba 23be 6529 a33d 1870 2d3e
000003e0: d5ac 2ebe 3f19 32be 60d4 2cbd 874f 69bd
000003f0: c65a e33d 60f6 84bd 55d3 ff3d dc65 59bd
0.12197004 -0.049493365 0.121767625 -0.12890701 -0.102673665 -0.16383845 0.029649992 0.16001908
0.006322378 0.124232076 -0.06260657 -0.09269437 -0.03599024 -0.1535585 0.025122676 0.025897682
-0.15276983 -0.058641154 -0.008994337 -0.07601311 0.14476208 -0.07508805 0.100948095 0.017568873
0.13607477 -0.12608296 0.16919081 -0.11713543 -0.104775764 -0.13761006 0.069733426 -0.01083761
-0.12628724 0.022213558 -0.051700316 -0.09765208 0.081090376 0.0056736455 -0.10781923 -0.092156686
0.15986075 0.028920062 -0.15911154 -0.043077853 -0.12491491 -0.038040124 -0.102595635 -0.10218229
0.047456425 -0.16205725 -0.0034350678 -0.10433176 0.17179286 0.15889332 0.16674195 0.014778893
-0.02309132 0.07701996 -0.07326934 0.15470697 0.13004395 0.06047984 -0.16038096 0.13898692
0.15717627 0.124136925 -0.011868425 0.044707708 -0.0919171 0.096216805 -0.0781665 0.16271524
0.11260037 0.097970456 -0.10398527 -0.00519854 -0.07002387 -0.07251769 -0.0018506689 0.01673922
0.03810425 0.04007463 -0.10671023 0.17073372 0.016066402 0.16836578 0.026908409 -0.06268291
0.0033138273 -0.031929713 -0.06592521 -0.0500044 0.11845952 -0.13786282 -0.13511738 0.11737615
0.12714161 -0.07567343 -0.054592848 0.09942205 0.14993694 -0.022360023 0.089936435 -0.12269293
0.0800604 0.009070559 -0.08454993 -0.12712117 -0.15449654 -0.06703793 0.14162174 -0.02470225
0.06300357 0.16672908 -0.16630375 0.08828496 0.05396151 0.049615834 -0.060189027 -0.06839208
0.08701208 -0.14089008 0.0121373525 -0.09202753 -0.050868124 -0.1086375 0.15816346 -0.13961048
0.17309263 0.124394394 -0.07327751 0.010052011 -0.13952065 -0.14032848 -0.11869174 0.1506384
0.027643623 -0.17033371 -0.019964823 -0.02851364 0.15713798 -0.04141934 -0.12613334 -0.08066084
0.101306275 -0.15647754 0.025363032 -0.14804704 -0.090994745 -0.12611848 0.028311044 0.05516164
0.08815319 -0.10642261 -0.027399555 0.15793219 -0.058081333 -0.15846564 -0.030366318 -0.07195409
0.10821999 -0.013210136 0.1701337 -0.12398524 -0.044142075 0.031797826 0.035858043 -0.01992872
-0.14190741 0.14952777 -0.118275076 0.053486764 0.09526671 0.041010644 -0.0061010513 -0.06751401
-0.02418682 -0.15701482 0.07791978 0.027643522 -0.070806645 0.07066406 -0.05028371 -0.06577354
-0.17406069 0.10380843 0.16433339 -0.16828246 0.1512127 -0.081508815 -0.14127262 -0.10716578
-0.14333133 -0.014741394 -0.0021931536 0.10962539 -0.13738321 0.13814637 0.15965062 -0.046519764
-0.11760557 0.06325768 0.065414906 -0.04743216 -0.09422428 -0.13563044 -0.14404765 0.057322204
0.026846359 0.00795324 -0.036703594 -0.09021017 -0.05039636 -0.08505492 -0.08712607 -0.07106701
0.006749582 -0.10481238 -0.046162494 0.17351785 0.06450154 0.1572205 -0.056813143 0.012664879
-0.007349166 -0.0324765 0.034485556 0.0048814593 -0.1145883 0.13488123 0.006166196 -0.13737783
-0.07983292 0.09346204 -0.007844321 0.111695856 -0.054799758 0.08154938 -0.15033235 0.062349577
-0.07375264 0.087141305 -0.05481277 -0.15815145 0.12858269 -0.15988973 0.0796688 0.16937292
-0.17058118 -0.17392443 -0.042194724 -0.05696061 0.11101298 -0.06492305 0.1249148 -0.053075656

VQ.projection.bias f4 [200]
00000000: 7c66 d33d 7b7e 0c3b 393d 313d e1a6 e73d
00000010: bb50 a5bc 2f1b 7c3d 597d 183d 38b2 c8bd
00000020: 2ef0 9e3b 4cd4 423d 43c0 adbd 20cb 19bd
00000030: b2cf c0bd e35b ab3c d0cd d03d 801c c0bd
00000040: a2cc d6bc befe febd abc1 89bc 106c 70bd
00000050: e2d4 693d 1441 ffbb 2e98 963d b553 ecbd
00000060: 683f 8bbc 53ef 263d 8da8 733d e02c 1abd
00000070: ac4b 163d 2689 0e3b 5668 08be a222 d6bd
00000080: 9747 85bd bfcf 87bd b8e6 3abd ea7d 893d
00000090: 0f98 9c3d d154 023c 5e9e 40bd 1dad 0e3c
000000a0: faeb 1bbd 9b53 b33c 6e93 ad3d 5525 e53d
000000b0: d4c0 d53c 964b 44bd 4d60 a93d bbe7 efbd
000000c0: c7df a13d ff75 3a3d 5fa8 b33d e263 f23d
000000d0: 96c9 da3d ad16 e2bd 70f1 95bb a80a d7bc
000000e0: 7b0c 4b3d c772 bdbd 9a72 67bd 1d40 b13d
000000f0: 5e85 ae3d 12ac cfbd 8cd0 39bd 60df 28bc
00000100: 3d8f d03c 1307 54bd 94ed 14bd 8721 6a3d
00000110: b67f b2bb 51e7 f43d b40d 1d3d b782 253d
00000120: bf11 e83d b0c6 8cbd c99e f33d 58f8 a43d
00000130: 5ff7 04bc 26e0 63bd 88c8 7a3d 9a8e 083e
00000140: 5918 913d 8357 91bd 2d4a d6bd 50ca ad3d
00000150: 5709 e03d e503 e83d 6043 fe3b 8900 333b
00000160: 01fa 97bc 3ba6 92bd a07a 723c dda8 92bc
00000170: 4373 523d 60c8 c8bd 4619 943c 370a d73d
00000180: 7c10 c7bd ab6c 61bb 17d8 d63d b9ec 463b
00000190: 8809 a9bc f083 d1bd a26b 283d 9773 893d
000001a0: b966 9c3c 4948 8f3d 49e8 a63d 99e8 59bd
000001b0: 444a 75bd 54b9 96bc 48a6 e83d 1f5a 5b3d
000001c0: 2690 e53d 5dba daba 454f ddbd c54c d1bd
000001d0: 7004 babd e72e 69bc d382 8d3d a9e5 173d
000001e0: 4935 973d e0c9 adbd e626 423d f99d 0f3d
000001f0: 164f 9abd 8098 1c3b 5c75 09bd fef6 a9bc
00000200: fc4a 3a3d 34b1 c63d fadf ffbd 7e41 823d
00000210: 572a 03be 7134 dd3d 8c04 8f3d 4b63 2c3c
00000220: 64b4 7c3a 8b03 37bd b6d6 bb3d f642 d03c
00000230: 6c07 52bc 4499 8ebc 282c 19bd 9a58 963d
00000240: 8350 c2bd c43d acbd 51b3 6b3d 435f 49bd
00000250: a06c 9c3d 1d85 aa3d 480a 9b3d c10e c63d
00000260: 7c1f 1a3c fee4 22ba 5163 96bd f647 ad3d
00000270: 0175 983d fc63 c2bc e258 e83d 2ce3 283c
00000280: 057f 65bd 2000 a8bd a8e2 d63d 3a51 5fbc
00000290: de0e a43d cc25 85bd 3289 613d fc60 d43c
000002a0: 5445 f53b 9166 fb3d 303e b33d 318c 9d3d
000002b0: debc 8b3d 7867 54bc 0057 6cbd 0a1b 43bd
000002c0: a55c 55bc 7832 bf3d 7ba4 5f3d 3af1 51bd
000002d0: a332 be3d 44dc a73d f01a 95bd 81c9 dd3d
000002e0: 4ed9 8dbb 915a 633b 310a 4bbd 6f9c 88bc
000002f0: e87d 8bbd 2466 e6bd 1cce 853d 2186 e53d
00000300: a16c 12bd 2d9c 4fbb d739 1b3d a825 9dbd
00000310: 143f 2a3d 4f4b 033e 9a69 2f3d bc18 98bc
0.10322282 0.0021437693 0.043271277 0.113111265 -0.020180097 0.06154936 0.037228916 -0.097996175
0.004850409 0.047565743 -0.08483937 -0.03754723 -0.09414615 0.020917838 0.101955056 -0.09380436
-0.026220623 -0.12450932 -0.01681598 -0.058696806 0.057087786 -0.0077897403 0.07353245 -0.11539403
-0.016998008 0.04075558 0.059486914 -0.037640452 0.03669326 0.0021749227 -0.13321051 -0.104558244
-0.06507795 -0.06631421 -0.045630187 0.06713469 0.076461904 0.007954792 -0.04702603 0.008708266
-0.03806684 0.021890452 0.084753856 0.11188761 0.026092924 -0.047923647 0.08270321 -0.11714121
0.0790401 0.045522686 0.087723486 0.118354574 0.10682981 -0.11039481 -0.0045759007 -0.026250198
0.04957245 -0.09250408 -0.056505777 0.08654807 0.085215315 -0.10140242 -0.0453649 -0.010307163
0.025458926 -0.05176456 -0.036359385 0.05716088 -0.0054473532 0.119581826 0.038343146 0.040407863
0.1133151 -0.06873834 0.1189552 0.0805518 -0.0081156185 -0.055633686 0.061226398 0.13335648
0.07084722 -0.0709677 -0.10463367 0.08485854 0.109392814 0.11328868 0.0077594966 0.0027313551
-0.018551828 -0.07160612 0.014799744 -0.017902786 0.051379453 -0.098038435 0.018078458 0.10499995
-0.09719941 -0.0034397047 0.104904346 0.00303535 -0.020634428 -0.10230243 0.04111827 0.067115
0.01909195 0.06996209 0.08149774 -0.053200338 -0.05988528 -0.018398918 0.11359841 0.053552743
0.11209135 -0.0016687621 -0.10806135 -0.10219721 -0.09082878 -0.014232374 0.06909718 0.037084255
0.0738321 -0.0848577 0.047400378 0.035062764 -0.07534616 0.0023894608 -0.03355919 -0.020747658
0.045481667 0.097017676 -0.12493892 0.06360148 -0.1280912 0.10801018 0.06983289 0.01052172
0.00096399174 -0.044681113 0.09171812 0.025422554 -0.012819152 -0.017407067 -0.037395626 0.07341118
-0.09488013 -0.08410218 0.057544056 -0.049163114 0.07637906 0.083261706 0.0757032 0.09670783
0.0094069205 -0.0006213932 -0.07343162 0.08460991 0.07444192 -0.023729317 0.11345078 0.010308068
-0.05602934 -0.08203149 0.1049245 -0.013630206 0.08010648 -0.0650135 0.05506248 0.025925152
0.007485071 0.12275422 0.08752096 0.07692755 0.06823133 -0.012964122 -0.057700157 -0.04763321
-0.013022576 0.09335798 0.05460022 -0.051255442 0.09287002 0.08196309 -0.072805285 0.108294494
-0.0043288833 0.0034691433 -0.049570266 -0.016676156 -0.06811124 -0.112499505 0.06533453 0.11207224
-0.035748128 -0.0031678781 0.037896957 -0.07673198 0.041564062 0.12821697 0.04282532 -0.018566482

VQ.embedding.weight f4 [200, 32]
00000000: 2708 3bbf a6ea f5bf 4819 6bbf 5904 00bf
00000010: d8ab 6a3f 6ea7 933e c965 ecbd 0bb0 993f
00000020: b4fb 5c3e fe53 1c40 0a54 ea3c 9dd0 873c
00000030: d416 55bf 3c43 8dbe 6d8e 57bf 13e5 ea3d
00000040: e765 ab3e 84fc 153f ef44 b53f e340 dabf
00000050: 513e 8c3f b6db d43f 68cb c3be af11 313f
00000060: 08d3 04bf 7c5d f2bc f8b4 7bbf c497 ce3e
00000070: 3648 92be 90af a53f 464e 2bbf 03c7 d6be
00000080: d0d7 1440 bcc0 f4be 47a0 fe3f 3f84 3abe
00000090: 44cc 5c3f 940b a1bd edcd 11be 4bd6 4a3f
000000a0: ff20 463f e43f 72bf 3f0e 483f a672 7c3f
000000b0: f4ed 98be 34ef 233e 8cc4 cebe eb2a 7abd
000000c0: 1747 4f3f 652a 983f ceae 15c0 2aaf 18bf
000000d0: b3cd df3e da71 f13e 58f8 56bf c62c 813d
000000e0: c272 f73e 4153 6e3e daa9 0dc0 83bd 0540
000000f0: e548 74be f377 94bf 0466 66bf 96bf d2be
00000100: 3b4d 8d3f bb2f 0d40 9509 113e d501 c33f
00000110: 4d80 02c0 1fd0 e3be 124e 3a3f 1f3c cb3d
00000120: cb3a 353f 8d10 a4bf 9ad4 553e b6e2 c83e
00000130: 27e7 da3e e9cf d33f 1acc aa3e 088e 8a3e
00000140: 64f4 0ebf 2657 963f 3c15 a73f c680 523d
00000150: 21ee be3e 3335 a13f f721 22bf 96b1 463e
00000160: 431d 053f 46ef 34c0 c66a d8be dc1f b53e
00000170: 611f b03f 598c 143e 9b31 87bd 597a 633f
00000180: 8b78 2cbf 6c43 66bd 601e e23e 06d4 3a3f
00000190: 3af8 743f 2548 ecbb adc7 8cbe 43d8 bdbf
000001a0: 90ba 60bf 9f70 0740 d3f4 2a3f 4e16 0ec0
000001b0: 7029 5a3f 1512 f2bf d7f3 09bf 56db 853f
000001c0: 87fa cebf e8c9 343e b8de e4bf add2 9e3f
000001d0: 5bab 7bbf d454 85bf 5fd6 a9bf a3ec 173f
000001e0: 6692 413f f4cd 903e 36b6 07bf a434 893f
000001f0: db29 6f3e 79de ffbd acad 833f cb97 503f
00000200: 59ab 69bf 9b0c 29bf df21 973f f17a 9cbf
00000210: cc5c bf3f c0ff 93bf 43df e3bf fa47 7abf
00000220: 8935 2abf 825b 913f 0947 343f 1f49 0f3e
00000230: 32fa a03e fb8b 9bbf e299 a2bf 574e 9fbe
00000240: 1ea9 953f 4b3d f2be ee81 303f 039a 29bf
00000250: 358a eb3f 68c6 353e a325 88bc 3dc9 a3be
00000260: 8719 093f 6795 763e 14b8 593e 4d9f 0dbf
00000270: 92b4 dfbf 9a0e 8cbf c945 06c0 3162 f0bc
00000280: ce8f e9bf f788 d4be 0844 bc3f 7286 7d3f
00000290: 1ef9 acbf 5266 5e3f 839b 7e3f 21ba 86be
000002a0: a447 b33e 30ff 813e 5266 aebf 02bd c6bd
000002b0: eb0b 543f fd24 133f f365 51bf d179 ba3f
000002c0: ad10 a33f 838a 1c40 4b6a af3f e08b 403f
000002d0: 7dfa 693e 0944 69bf ac6a e63f 3114 3abf
000002e0: 081e 5fbf 1f40 b5bf a9db d53e 4570 ac3e
000002f0: bb62 fabe b200 833e 8ee1 dc3f d060 09bf
00000300: e08a dbbd e2bd 543f 5b2d 79bf 926d 283f
00000310: 8e53 4e3d c75d b5bd 4744 adbf 442c eb3e
00000320: 34a1 153e 08a6 ba3c 2a1a 9bbc e666 ccbe
00000330: d0c6 cbbf 084b c13f 318e 96bf 9d19 963f
00000340: a11c 40be 50c9 943e 132c 6ebf 4985 0b3f
00000350: f7d1 acbe aec5 bcbe 798c 9abe eae5 463f
00000360: 4ddd 0b3f c000 0fc0 88b6 a63f ab42 57bf
00000370: 90b5 8a3e 6df8 403f 6b34 473f a8d6 d03e
00000380: 7d66 243f fae8 a33e 355d 1e3e 0f4e d1bd
00000390: d173 30bf bce0 04bf 12fd 173f 497f 9dbf
000003a0: d4d2 a0be 7473 d0bf c8bd 823f 2448 0fc0
000003b0: 6bb0 0ebd 7725 d0be c835 02be 3a60 bf3f
000003c0: fddd 8abf d760 30c0 8bd4 a7bf 57b3 9b3e
000003d0: a7d8 243f 5ebe 1bbf b290 a8bf 1c92 ffbd
000003e0: e97e 2640 362c d53f a8d5 e8bf 2e12 f4bb
000003f0: 720d 00bf 2a6e 14c0 4cb2 d1bc e88a 87bf
-0.73059314 -1.9212234 -0.9183545 -0.50006634 0.9166846 0.28838676 -0.115428515 1.2006849
0.21580392 2.4426265 0.028604526 0.016578967 -0.8323796 -0.27590358 -0.842017 0.11469474
0.33476183 0.58588433 1.4161662 -1.7051052 1.0956517 1.662955 -0.38241124 0.6916761
-0.5188451 -0.029585592 -0.9832301 0.40350163 -0.28570718 1.2944202 -0.6691631 -0.4194871
2.3256721 -0.47803295 1.9892663 -0.1821451 0.86249185 -0.078635365 -0.1423871 0.79233235
0.773941 -0.9462874 0.7814674 0.9861244 -0.29869044 0.16009218 -0.40384328 -0.061076086
0.8096785 1.1887938 -2.3387942 -0.5964228 0.43711624 0.47157174 -0.8397269 0.06307368
0.4832974 0.23273946 -2.213492 2.0896919 -0.23855932 -1.1599106 -0.89999413 -0.41161793
1.1039194 2.2060382 0.14163812 1.5234934 -2.0390809 -0.4449472 0.72775376 0.099235766
0.70792836 -1.2817551 0.20881882 0.39235467 0.4275448 1.6547824 0.33358842 0.27061486
-0.5584166 1.1745346 1.3053355 0.05139234 0.37291053 1.259436 -0.63333076 0.19403681
0.51997775 -2.827104 -0.42268962 0.3537587 1.3759576 0.14506663 -0.06601258 0.8885856
-0.67371434 -0.056216642 0.441638 0.7297977 0.95691264 -0.0072107487 -0.2749609 -1.4831623
-0.8778467 2.1162488 0.6677982 -2.2201114 0.8521948 -1.8911768 -0.53887695 1.0457561
-1.6170205 0.17655146 -1.7880468 1.2408043 -0.9830834 -1.0416512 -1.3268546 0.59345454
0.7561401 0.2828213 -0.53012407 1.071919 0.2335581 -0.12493605 1.0287375 0.8148162
-0.9127708 -0.6603486 1.1807212 -1.2225019 1.4950194 -1.1562424 -1.7802509 -0.9776608
-0.6648794 1.1356051 0.7042089 0.13992737 0.31440884 -1.2152094 -1.2703211 -0.31114456
1.1692235 -0.47312388 0.68948257 -0.6625063 1.8401552 0.17751467 -0.01661951 -0.3198947
0.53554577 0.2408043 0.21261626 -0.553212 -1.7476981 -1.0941956 -2.0980093 -0.029343696
-1.8247011 -0.41510746 1.4708261 0.9903327 -1.3513525 0.8687488 0.9945604 -0.2631388
0.35015595 0.25390005 -1.3624976 -0.09704019 0.82830685 0.57478315 -0.8179619 1.4568425
1.2739464 2.445954 1.3704313 0.7521343 0.2284946 -0.9111944 1.8001304 -0.7268706
-0.871552 -1.4160193 0.4176915 0.33679405 -0.4890345 0.25586468 1.7256334 -0.5366335
-0.10719848 0.8310224 -0.9733483 0.6579219 0.050372653 -0.08855777 -1.3536462 0.4593221
0.14612275 0.022784248 -0.018933374 -0.39922255 -1.5920048 1.5101023 -1.1762143 1.1726567
-0.18760921 0.2905984 -0.93036 0.5450025 -0.3375394 -0.36869568 -0.30185297 0.7769457
0.54634553 -2.2344208 1.3024454 -0.840861 0.27091646 0.7537907 0.7781436 0.4078877
0.64218885 0.32013685 0.15465243 -0.102199666 -0.6892672 -0.5190542 0.5937053 -1.2304469
-0.3141085 -1.6285233 1.0214167 -2.238778 -0.034836214 -0.40653583 -0.12715828 1.4951241
-1.0848995 -2.7559106 -1.3111738 0.30410263 0.64393085 -0.6083735 -1.3169158 -0.1247904
2.601496 1.6654117 -1.8190203 -0.0074484563 -0.50020516 -2.3192239 -0.025597714 -1.0589266

cvae_parameters.dec_00_lin_b f4 [128]
00000000: 3a04 2ebd 9964 07bd c361 1ebd 4ac8 3abc
00000010: cc5f f5bc f952 98bd 0fda 4cbd 31c0 31bd
00000020: 0126 5fbd 9af3 0fbd 4292 29bd 4bf1 69bd
00000030: 6511 23bd 0ac8 c0bc f55e 98bd 471f 6dbd
00000040: fdae 4cbd 1129 01bd f6ee 31bd 0d5c 3fbd
00000050: a6a0 f0bc bdd4 84bb eff1 3ebd 5a52 25bd
00000060: b964 33bd 1876 02bd 0269 9dbc 2cd2 95bd
00000070: 5b86 2fbd dc98 eabc 5433 38bd 3a43 22bd
00000080: d8d5 3cbd b8f8 6dbd 547a 28bd b5a1 f3bc
00000090: a173 0abd aebc 60bd 02fb 5ebd 1652 38bd
000000a0: 6f94 02bd d926 3cbd 5634 10bd 2ed5 22bd
000000b0: eee8 47bd 4deb 233e 58eb 57bd 93e7 91bc
000000c0: e4e4 dbbc 9a53 c2bc 47a2 54bd de29 81bd
000000d0: 1162 2ebd 0092 86bd caec c6bc 9060 17bd
000000e0: 2321 11bd 4912 e1bc ef40 c1bd 01a2 16bd
000000f0: 6d92 1cbd 65d4 17bd cd8a 4ebd c069 73bd
00000100: 5f97 32bd 73f1 22bd cc9a 33bd dee3 3ebd
00000110: dfdf 1ebd 2e43 96bc b9af f2bc 0260 48bd
00000120: 2ef5 c2bc 7ded 6b3e 6319 0ebd af6b 4cbd
00000130: 21f0 00bd db7e 4ebc 5b0c aabd 09b0 29bd
00000140: 1afa 69bd c458 45bd d608 4fbd 0f93 e5bc
00000150: 0560 5dbd caca 52bd 8620 6abd 7964 18bd
00000160: 4f50 933d f1d4 18bd f30c 48bd 48fe 8d3e
00000170: aa0d 70bd cd5c 1cbd 23d2 46bd d32a 5bbd
00000180: 9a94 0cbd 56b1 7cbd 8974 41bd 32dd 4dbd
00000190: fbe9 78bd a3ec a6bc 4add cbbc cedb 19bd
000001a0: 9bd5 a6bd 5d4d 9ebd 2a85 8abd 5305 2cbd
000001b0: 5083 55bd 2924 08bd dced 03bd 1fd5 343e
000001c0: 9429 0dbd 1259 91bc f5a3 4abd 0b1e 0fbd
000001d0: 738b 8dbd 63b9 34bd 9af2 f1bc cce3 5fbd
000001e0: b87b 67bd c64c 80bd c233 3cbd 0ae6 2abd
000001f0: b8db 27bd b3c0 2dbd 5f86 06bd 8662 58bd
-0.0424845 -0.03305492 -0.03866745 -0.011400292 -0.029952906 -0.07437701 -0.050012644 -0.04339618
-0.054479603 -0.035144426 -0.041399248 -0.05711488 -0.03981151 -0.023532886 -0.074399866 -0.057891157
-0.04997157 -0.031533305 -0.04344078 -0.046718646 -0.029373478 -0.0040536807 -0.046617445 -0.04036174
-0.04379723 -0.031850904 -0.01921511 -0.07315478 -0.04285274 -0.028637342 -0.044970825 -0.039614893
-0.046102375 -0.058098525 -0.041132286 -0.029740194 -0.03380168 -0.05486744 -0.0544386 -0.04500016
-0.03187984 -0.045935486 -0.03520616 -0.039754085 -0.048806123 0.16007729 -0.052714676 -0.017810619
-0.026842542 -0.023721505 -0.051912572 -0.06306814 -0.042573992 -0.06570816 -0.024282832 -0.036957324
-0.035431992 -0.02747454 -0.09436213 -0.036775593 -0.03822558 -0.03706779 -0.05042534 -0.059427023
-0.04360139 -0.039781045 -0.043848798 -0.04660403 -0.03878772 -0.01834258 -0.029624807 -0.048919685
-0.023798551 0.23039813 -0.03469218 -0.049907383 -0.031479005 -0.012603487 -0.08303138 -0.041427646
-0.05712328 -0.048180357 -0.050545536 -0.028024225 -0.05404665 -0.051462926 -0.057159923 -0.037205193
0.07193052 -0.03731245 -0.048840474 0.27733064 -0.05860678 -0.03817444 -0.048540246 -0.053507637
-0.034321405 -0.06169256 -0.047230277 -0.050259776 -0.060770016 -0.020376509 -0.024885792 -0.037563138
-0.08146211 -0.077295996 -0.0676368 -0.041997265 -0.052127182 -0.03323761 -0.032209262 0.17659424
-0.03446348 -0.017742667 -0.049472768 -0.03494076 -0.069113635 -0.04412211 -0.029534627 -0.054660603
-0.05651447 -0.06264643 -0.045947798 -0.04172329 -0.040981025 -0.0424201 -0.03284299 -0.052828334

cvae_parameters.dec_00_lin_w f4 [128, 35]
00000000: 62e1 18bc 428f 043d fd56 433b 484d 66bc
00000010: e7f5 cc3c eadf fabb c09e ff3a 69b1 a339
00000020: 291c 0b3c 416f cc38 737f b1bb 9a9f d4ba
00000030: 27a5 893b 0489 043c ef53 8f3b 2b16 17bc
00000040: 680e a33b 74d5 b23c 4147 00bd 664c 973b
00000050: c42d 02bc 9b57 c1bc 18b7 ab3b 9602 0d3c
00000060: 0e9d cfbc de6f f53b 24d9 fcbc 23d9 52bb
00000070: 8860 b3bc 0cda f93b 5a2e 5abc 9eab 3dbc
00000080: e2fa a4ba 9333 11bd 9449 a2bb df21 e9bb
00000090: 0e49 363c 9cdb 27bb a353 49bc bce0 ae3c
000000a0: 5568 ca3b 9e48 09bc 52be 4bbc 9786 cd3c
000000b0: d55f 30bc 88ce 8ebb 269d a7bb ed1d edbb
000000c0: cebf a3bc d38d 723c 7733 d1bb c13e de3c
000000d0: 312c 993b 015f 25bd 1ff0 723c de66 b6bb
000000e0: 2aaf c8bc d8de b43b e61f b43c 1aa7 aa3b
000000f0: b97f 8d3c 87ea 06bd 5030 83bb 528a ffbc
00000100: 00a3 a8bc 828a 7c3a 1238 dd3a ce92 623a
00000110: ae33 c1bc c540 d5bb b62e b33c d7a3 573b
00000120: e9f6 13bc 78b2 343c 1bfc de3c 3bc5 3c3c
00000130: 97f3 60ba 7872 153d f8c3 9f3c 66db 8dbc
00000140: 3532 55bc b4d7 6a3c a8b7 2dbb dbb8 9f3c
00000150: e8c3 ce3c 9ea1 813c d5d4 893c 745c f73c
00000160: d4ff bfbc e819 27bb 16e6 74bc 0006 89bb
00000170: ad8c c93c d067 ce3a 1210 fa3b 2317 03bd
00000180: 07b5 4ebc de9b 62bc 5bf6 3dbd 98b1 2e3c
00000190: 421b 07bb 4a41 e43b 2fa9 b53a b0df c6bc
000001a0: ef65 543c 5e5f 0a3c 4a1f 43bc cfc6 8eba
000001b0: 47ae 193c 1ba3 333d 458f 0ebd 7c73 9fbc
000001c0: d459 3abc ae33 603c 4e8e e6bc 5cde b8bc
000001d0: 8f16 2e3c cd9c beba 67c7 0bbc a2a7 c03b
000001e0: c4cc 46bd ec5b 853b 6eab bbbc 92fd 04bd
000001f0: 12d3 e63b 6d19 07bc c717 acbc 7f36 043d
00000200: 62bb 98bc b4b2 b6bb a474 e13c 361f 8c3c
00000210: 890b f83c be2f 85bc 6d5d ba3c dedc 81bb
00000220: aa06 6bbb 0385 753b c90e 93bc 8913 f83b
00000230: 355e a03c 96ab e239 3004 29bc a241 853b
00000240: 549c 493c 8063 c33b d884 9eb8 138f 3a3b
00000250: 6da4 1dbc f253 00bc 80b0 f0bb fe24 17bc
00000260: 4f2d 94b9 20d3 e83b ae71 aa3c 3c33 8abc
00000270: ba87 1f3c 9537 883a edfd 0cbc b016 a83c
00000280: 3da8 d23b f5eb 9abc a603 c53b 6660 b23b
00000290: d681 8abc bcba c93b 4115 e9bb b900 23bc
000002a0: 36d0 dcbc fcf8 543c 6bef 0dbc 0708 d23b
000002b0: e79b 153c b7dc 15bd f882 23bb 14bb 8e3c
000002c0: 57fb 403b 0c28 14bd d3ac c23c 958c 323d
000002d0: 64de 7c3c b15f fdbc c714 11bc 66d0 f13c
000002e0: a628 8bbd 6b41 e4bb c278 14bc de9b a7ba
000002f0: 69ae 63bb f484 413d 720f e7bc ce27 153d
00000300: 4b8c a2bb 91e1 b7bc 7ba9 b13c f9b4 953b
00000310: a40c 5abd dc2c cf3c ef59 c9bb 43ed e5bc
00000320: a042 f8bb e54d 01bd 0074 a23c 9ef8 70bd
00000330: ae1f 803c 9aac 043b 9622 eb3c 343f 34bb
00000340: eda9 95bd 4e72 3ebc 078e 403c bf64 74bb
00000350: cc38 f1ba 0886 cd3a 572a fd3b 0c5a 78ba
00000360: 836a dbbb 7b21 d2bb 74dd 243c 85f6 95bc
00000370: e432 94bc b979 22bb 96db 713c 03c5 a3bb
00000380: c0e7 9b3c 96d6 94bc a6a6 fe3c 6d5f 863c
00000390: 3fec aabc 87f4 6a3c 672d 5cbc f0ea c0bc
000003a0: 67fc b43b b9cc a33c bdbc 34bc c215 633b
000003b0: d41e c4bc 6c63 02bc 982e 7abc ad89 fabb
000003c0: a4b0 e8bb 0d2c dd3b 7a18 17bc 1dbd 24bd
000003d0: 9b5e 923c 9ce5 583c 148d d7bc 35b4 a8bb
000003e0: 545c 373c 096a 853c 9e34 daba df0c 0fbc
000003f0: 0fac 8eba 728f 033d ad4b 3d3c e933 2e3c
-0.009331079 0.032363184 0.0029806488 -0.014056511 0.0250196 -0.007656087 0.0019502267 0.00031221964
0.008490601 9.748201e-05 -0.0054168045 -0.0016221881 0.004200596 0.008089308 0.0043740193 -0.009221594
0.0049760826 0.021830298 -0.031317953 0.0046172617 -0.007945482 -0.023601344 0.0052403323 0.008606574
-0.025343444 0.0074901422 -0.03086526 -0.003217288 -0.021896616 0.00762487 -0.013316715 -0.011576561
-0.0012586976 -0.035449576 -0.004952619 -0.0071146335 0.011125816 -0.0025613075 -0.012288007 0.021347396
0.006176988 -0.00837913 -0.012435513 0.025088592 -0.010765036 -0.0043581165 -0.005115169 -0.0072362334
-0.01998892 0.014804321 -0.006384309 0.027129533 0.0046744575 -0.040373806 0.014827757 -0.005566462
-0.024497587 0.005519729 0.021987867 0.0052079083 0.017272817 -0.032938506 -0.004003562 -0.031193886
-0.020585537 0.00096336764 0.0016877672 0.00086430914 -0.023584213 -0.0065079653 0.02187286 0.0032904053
-0.009031036 0.011028878 0.027219823 0.011521633 -0.00085812196 0.03648612 0.019502625 -0.017316531
-0.013012459 0.014333654 -0.0026507173 0.019497326 0.0252399 0.015824135 0.016825119 0.030195452
-0.023437418 -0.002549762 -0.014947435 -0.0041816235 0.024603212 0.0015747491 0.0076313103 -0.032004487
-0.0126164025 -0.013831107 -0.04637752 0.010662459 -0.0020615612 0.006965791 0.0013859625 -0.024276584
0.012963756 0.008445589 -0.011909315 -0.001089299 0.00937993 0.04385672 -0.0348046 -0.019464247
-0.011373956 0.013684196 -0.028144028 -0.022566967 0.010625496 -0.001454258 -0.008531428 0.0058793584
-0.048535123 0.004069796 -0.022908892 -0.032468386 0.0070442045 -0.008245808 -0.021007432 0.032278534
-0.018644039 -0.0055755023 0.027521439 0.017104726 0.030278938 -0.016258117 0.022749627 -0.003963097
-0.0035862126 0.0037463314 -0.017951386 0.007570688 0.019576171 0.0004323392 -0.01031594 0.004066662
0.012305338 0.005962789 -7.558771e-05 0.0028466627 -0.009621722 -0.007832514 -0.007345259 -0.009225128
-0.00028262517 0.007105246 0.02080616 -0.016870134 0.00973695 0.0010392541 -0.0086054625 0.02051863
0.006428747 -0.018911341 0.006012398 0.0054436205 -0.016907614 0.0061562937 -0.0071131294 -0.009948903
-0.026954751 0.012998816 -0.008663039 0.0064096483 0.009131408 -0.036587443 -0.002494989 0.01742319
0.0029446685 -0.036171004 0.02376405 0.0435911 0.015433881 -0.030929418 -0.008855051 0.029518317
-0.067948624 -0.0069658062 -0.009061994 -0.0012787541 -0.0034741408 0.047245935 -0.028205607 0.036414914
-0.004960572 -0.022446426 0.02168726 0.0045686928 -0.05323471 0.025289945 -0.006144754 -0.028067237
-0.0075763017 -0.031568427 0.019830704 -0.05883085 0.015640106 0.002024448 0.028703015 -0.0027503492
-0.073078014 -0.011623932 0.011752612 -0.0037291495 -0.0018403768 0.0015680203 0.0077259946 -0.0009473867
-0.006696047 -0.0064126826 0.010062564 -0.018306026 -0.018090673 -0.002479179 0.014761826 -0.004997851
0.019031405 -0.018168729 0.031085324 0.016402924 -0.020864604 0.014340526 -0.013438559 -0.023549527
0.0055232528 0.01999508 -0.011031327 0.003465042 -0.023940481 -0.007958274 -0.015269898 -0.0076458068
-0.0071011353 0.006749636 -0.009222144 -0.040219415 0.017867377 0.013238337 -0.026312388 -0.0051484355
0.011191446 0.016285913 -0.0016647761 -0.008731096 -0.0010885018 0.032119222 0.011553687 0.0106324935

cvae_parameters.dec_01_lin_b f4 [128]
00000000: f7e6 e53b 7fd3 58ba 2566 a9bb 3feb 91bb
00000010: 0821 b9bb d625 57bc bbfb b23b b47d 833d
00000020: eb97 a73d 4b79 bd3c 0bd2 1c3b d27f c53c
00000030: 6d5f 893e 574b 07bc bc0b 8fba 6d15 803d
00000040: 3734 4fbc 73a8 143d ec2c 2c3d 74e3 02bc
00000050: 8d3d 183d fffe c2bb eecb 35bc e79b 863d
00000060: ebd1 ec3b fe55 163d 615c debb 5a70 84bb
00000070: 7eac ddba 1a92 b63a 812f 71bb 452b a13d
00000080: 451d 193e 2db7 87bb e3f8 e6ba d255 3eba
00000090: 77e0 5a3a 6403 513c 630a ac3d 1466 a7bc
000000a0: 187d b2ba 0c42 f03b e305 04bc 6a61 003d
000000b0: c59c 103a bb36 043b 1ee7 87bb 791e 04bc
000000c0: c42e 25bc 33cc 883c 74dc 21bb d895 cd3a
000000d0: 0b5e 313e 530b 433c 0c78 2b3d fdd4 70bb
000000e0: d5cf a43d f5e2 2e3c 99a2 083c 7e8d a03c
000000f0: 13eb bcbb 6b96 85ba d4a8 a53a dc78 743b
00000100: 766d 353e bce3 6f3d c318 b1bc 0597 fdbb
00000110: 89db 8339 36cf 37bb 7f74 f6bb 89d6 853c
00000120: 3f5a 2abc e581 2f3b 26df 4b3c 2dfe 01bb
00000130: 1e21 de3c eec6 6a3c ace9 693c 0576 b83c
00000140: 7ae8 3b3e e36f fd3c 97f6 91ba eb7f e63d
00000150: f57e 22bc 8883 96bc d5d3 58bc 7330 143d
00000160: 3ad9 38bb 576b b2bb 793e ce3a 0287 a93c
00000170: 9df7 80bc b0df 5d3d 9d45 5f3e a095 eeba
00000180: e955 22bc 6600 2bbb 4063 f0bb aab6 4cbc
00000190: 51fb 6dbc dada 233b 79a1 7bbc 72d7 93bb
000001a0: a273 b33d 75ef 003e b3fd d5bb e42f 023d
000001b0: 8762 493e 39ca 573e ee26 caba 21ae c93d
000001c0: d88d 283b db2a 9d3e 5f45 ac3d 4504 09bc
000001d0: 7d9a f33c 881c 43bb c0b3 0cbc b619 9d3c
000001e0: 8540 68bc f77b 1a3b 688c 2abc fada 413c
000001f0: 7649 223d 6efb 7a3e 648f 85bc f762 ce3a
0.0070160585 -0.00082712615 -0.0051696473 -0.0044530923 -0.0056496896 -0.013131579 0.0054621375 0.0642046
0.08183273 0.023129126 0.0023928906 0.024108801 0.26830617 -0.0082577085 -0.0010913531 0.06254087
-0.012646726 0.03629346 0.04203503 -0.007988799 0.037168074 -0.005950808 -0.011095984 0.06572705
0.0072271726 0.036703102 -0.006785915 -0.0040417137 -0.0016912369 0.001392904 -0.0036801996 0.07869581
0.14952572 -0.0041417093 -0.0017621781 -0.0007260713 0.0008349488 0.012757156 0.084004186 -0.020434417
-0.0013617603 0.007332092 -0.008058044 0.0313429 0.00055165245 0.0020174223 -0.0041474244 -0.008063906
-0.010081951 0.016698932 -0.002469805 0.0015684916 0.17321031 0.011904555 0.041862532 -0.0036748045
0.08047453 0.010674228 0.008339548 0.019598719 -0.0057653277 -0.0010191923 0.0012638816 0.0037303483
0.17717537 0.058566794 -0.021618253 -0.00773895 0.00025149834 -0.0028047091 -0.0075212116 0.01633765
-0.010397493 0.0026780304 0.012443339 -0.0019835338 0.0271154 0.014329655 0.014276903 0.022517214
0.18350402 0.03093714 -0.0011136112 0.11254867 -0.009917964 -0.018373266 -0.013234098 0.036179017
-0.002820565 -0.005444925 0.0015735171 0.02069426 -0.015743071 0.054168403 0.21803899 -0.0018202551
-0.009908178 -0.0026092767 -0.0073360503 -0.012494722 -0.0145252505 0.0025002272 -0.015358322 -0.004511767
0.087622896 0.12591346 -0.0065304874 0.031783953 0.19666491 0.21073236 -0.0015422979 0.098476656
0.002571931 0.3069676 0.08411669 -0.008362834 0.029736752 -0.0029771645 -0.008587778 0.019177299
-0.014175539 0.0023572424 -0.010409452 0.011831993 0.03962084 0.24509975 -0.016303726 0.0015746047

cvae_parameters.dec_01_lin_w f4 [128, 128]
00000000: 012c 1b3c 198b 5a3c 2504 31bc 24e6 fbbc
00000010: b05c c53b cefc 49bd 42d8 26b9 ee0c 1dbd
00000020: 3ad0 cbbc 75c7 86ba e2b6 6dbc 2145 c0bc
00000030: 31c4 703b ff71 793c 11ea 0abb 5faa a1bc
00000040: 56a7 cebb a65e 683b 6570 06bb 140e 3cbc
00000050: 7335 48ba 385f 503c 5d8d 5dbc 6b14 75bc
00000060: f652 cbbc a600 6abb 5ee1 313c 0a16 81bd
00000070: a222 55bd 1ed0 87bc b72a dfbb f0d5 dfbc
00000080: e55a 783b 998a 81bd 1060 b7bc 78aa 1cbc
00000090: 63d1 113c f197 6d3b 61ee 143c 340b 783c
000000a0: 9189 203c 815b 7ebc 27de 14bc 5df4 17bb
000000b0: eca8 a33c 4124 3cbc 9c45 a6ba 8c86 df3a
000000c0: 62a1 693b 78f4 c6ba ec12 c6bc b626 0cbd
000000d0: af95 09bc c7d8 66bd 16b3 7fbc bd3c 3d3c
000000e0: a5fd 92bc 4ad3 c03b 6ffb 0abd 456c 823b
000000f0: efd5 acbc b38c 4d3c bf8a 8fbc 7117 54ba
00000100: 1f5b 9fba abda b6bb 6a49 aabb ea91 2c3c
00000110: c59a 243a 27cd 1abc 2a09 d9bb 0020 46bc
00000120: 1319 84bb 72f6 9f3a 86eb d13a 018a 0839
00000130: 388c 99bb 6231 36bc 3826 68bd eeca 0abc
00000140: 34cd c63b db8d 153c 8adf 26bc cda6 1c3c
00000150: b6e4 4d3c 9502 a93b 2ca0 f0bc b627 30bb
00000160: 4783 a6bb 3dce 843c 9c44 1cbc af67 4ebd
00000170: a946 32bc fcb3 983a 3f41 73bc ff15 09bd
00000180: 63c5 67bc 3062 17bd 4c33 a03a 30bb c8bc
00000190: b8c5 913c 8e50 d8bb 5298 79bb ac56 0d3b
000001a0: 25a8 90bd f3d3 813b 5dbf 84bc 776e b93b
000001b0: e755 83bc 014a c4bc 77c4 aebb d5a6 79bc
000001c0: b102 833c 1120 eb3b bb26 21bc c1c6 a13b
000001d0: 60c3 32bd 0468 50bc 4096 2b3b cc1a efbc
000001e0: f617 e5bc c77b 46bc 7422 7dbc 2ba6 3f3b
000001f0: 8bf3 21bd ce51 8ebc f59a 4b3b ac5c f23b
00000200: 046c dcbc 78fb 81bc ed59 abbc 4302 83bc
00000210: 6b05 b73b 8934 38bc e65c f8bc c70f 4dbc
00000220: 8572 1abd 3b1d 6cba 0d83 04bd 1d54 1fbd
00000230: ce20 8abc 590d 0f3c ac79 a0bc 0e2f 02bd
00000240: f55c 9fbc dd34 40bb 82e5 f8bc 86b2 dbbc
00000250: 99d6 35bb 07d6 debb 0fb4 ddba c75d 3cbc
00000260: 1771 36bc 4ec3 28bc 8c81 ddbb bdba a7bb
00000270: 24e7 eabc 012a c6bc e743 febc 9ead efbb
00000280: 334c d4bc a311 bebb 3593 0abd 7567 e3bb
00000290: d548 14bb f8c1 c9bc f965 08bd d824 0abb
000002a0: bdfb dd3c 2145 aebc d54e 4a3b ba2f 333c
000002b0: ef74 74bc 75a5 b4bb ef20 60bc 79bd a43b
000002c0: c997 403c 888d 4a3c 6436 50bc 348d bebc
000002d0: efd8 2fbc b9de 72bb f4cc 61bb 2976 f1bc
000002e0: 5376 dc3b 2c2d 813c 9018 d7bb 24fd 6ebc
000002f0: 9388 88bb be6b bcbc 568d 68bc 78f5 17bc
00000300: a4a7 5abc 0ae9 f73a aeeb a2bc 8d38 1fbd
00000310: 449f d0bc 8e27 97bc 84ad aebc e87f eb3b
00000320: 633b 683b 61ae 64bc c8ce 263a 190c 0dbd
00000330: d280 b7ba be87 45bc cbd4 3b3c f062 35bd
00000340: 9d2a 79bc 4d12 b1bc 4286 d2bc cf45 a3ba
00000350: 70a4 a7bc c946 d2bc 7821 cdbc 61d7 c83b
00000360: 9726 64bc a032 bbbb 808b 92bc 59f5 3abd
00000370: ddfb 26bc f855 503a 9a8d 5ebb ffea cbbc
00000380: 3dd8 42bc 9d67 08bd 9101 1fbc d107 2ebd
00000390: d61d 6cbc 1e30 8dbb 7b6e 07bc ac24 00bc
000003a0: 88c3 2ebc 6428 45bd 0413 dfbc a269 96bc
000003b0: 05f8 28bd c2f9 043b 34a9 e9bb c2ef 70bb
000003c0: 567e 82bc 8106 1cbc c7af 5abc c8a8 44bc
000003d0: 8bbd bebc 1ebe 09bc 4526 7dbc fa04 39bc
000003e0: 5b29 c0bc a017 d8bb 5d4b dbb9 0484 babc
000003f0: ffb6 53bc f694 9b3b e4af 40bc 8580 8dbc
0.009470941 0.0133388275 -0.010804211 -0.030749388 0.006023012 -0.04931336 -0.00015911556 -0.03834241
-0.024879564 -0.0010282831 -0.014508935 -0.023470463 0.0036738033 0.015224933 -0.0021196643 -0.01973456
-0.006306569 0.0035456805 -0.002051377 -0.011477966 -0.0007637359 0.012718014 -0.013522473 -0.014958481
-0.024819832 -0.0035705953 0.010856954 -0.06303032 -0.05203498 -0.01657873 -0.006810512 -0.027323693
0.0037895974 -0.063252635 -0.022384673 -0.009562127 0.008900019 0.0036253894 0.009090037 0.01513939
0.009798423 -0.015524746 -0.009086168 -0.0023186423 0.01997801 -0.011483253 -0.001268554 0.0017053648
0.003564917 -0.0015179059 -0.024178945 -0.034216605 -0.008397504 -0.05635908 -0.015606662 0.011550126
-0.017943213 0.0058845626 -0.033931192 0.003980192 -0.021098105 0.012545752 -0.017522214 -0.0008090651
-0.0012157894 -0.0055802665 -0.00519674 0.0105328355 0.0006279166 -0.009448326 -0.006623407 -0.01209259
-0.0040313094 0.0012204184 0.0016015626 0.00013021381 -0.004685905 -0.011120172 -0.056677073 -0.008471234
0.0060669426 0.009128059 -0.010185132 0.009561253 0.012566736 0.0051577785 -0.02937325 -0.0026879138
-0.0050815674 0.016211623 -0.009537842 -0.05039185 -0.0108811045 0.0011650319 -0.014847099 -0.033468243
-0.014146182 -0.036958873 0.0012222319 -0.02450332 0.017794475 -0.0066013997 -0.0038085175 0.0021566553
-0.07063321 0.003962034 -0.01620453 0.0056589204 -0.016032172 -0.023961069 -0.005333479 -0.01523753
0.015992494 0.0071754535 -0.009835894 0.0049370234 -0.043643355 -0.012720112 0.0026182085 -0.029187582
-0.027965527 -0.012114472 -0.015450109 0.002924333 -0.0395389 -0.017372992 0.0031067703 0.0073963013
-0.026906975 -0.01586698 -0.020916903 -0.01599229 0.0055853627 -0.011242994 -0.030317735 -0.012515969
-0.03770687 -0.0009007041 -0.032351542 -0.038898576 -0.016861346 0.00873121 -0.019589268 -0.031783156
-0.019453505 -0.0029328384 -0.030382875 -0.026818525 -0.0027746318 -0.0068004164 -0.0016914624 -0.011496968
-0.011135361 -0.0103004705 -0.006759828 -0.0051186965 -0.02867467 -0.02418995 -0.031038238 -0.007314398
-0.02591524 -0.0058004423 -0.033831794 -0.0069398233 -0.002262642 -0.024628624 -0.033300374 -0.002107909
0.027097577 -0.021273198 0.0030869741 0.010936672 -0.014920457 -0.005512888 -0.013679727 0.0050274697
0.011754938 0.012362845 -0.01270828 -0.02326069 -0.010732873 -0.0037059023 -0.0034454437 -0.029475288
0.0067279725 0.01576861 -0.0065642074 -0.014586721 -0.0041666715 -0.023000594 -0.014193853 -0.009274833
-0.013345633 0.0018914056 -0.019887771 -0.03887229 -0.025466569 -0.018451478 -0.021322973 0.0071868785
0.0035435788 -0.013957591 0.000636321 -0.034435365 -0.0014000183 -0.012056289 0.011464308 -0.044283807
-0.015207914 -0.021615172 -0.025698785 -0.0012456718 -0.020464152 -0.025668519 -0.025040373 0.006129191
-0.013925216 -0.005712822 -0.017888784 -0.045644138 -0.010191885 0.00079473807 -0.0033958913 -0.024892328
-0.011892376 -0.03330194 -0.009704963 -0.042487923 -0.01441141 -0.0043087145 -0.008266087 -0.007821243
-0.0106667355 -0.048134223 -0.027230747 -0.018360917 -0.041252155 0.0020290469 -0.0071307663 -0.0036764
-0.015929382 -0.009523035 -0.013347573 -0.012003131 -0.02328374 -0.008407144 -0.015451019 -0.01129269
-0.02345722 -0.006594613 -0.00041827085 -0.022768028 -0.012922048 0.004747982 -0.011760686 -0.017273197

cvae_parameters.enc_00_lin_b f4 [128]
00000000: 7bf8 1eb9 48d7 9c38 fcf6 b2b7 85e8 6938
00000010: ce3b 1539 cc02 2338 8977 2d39 ba6f 1b39
00000020: 9473 3939 632c 8338 4b37 8739 b573 4fb6
00000030: e8fe 4838 05c6 b2b8 49e4 28b9 852d 5cb9
00000040: c8d6 dab6 6eeb f137 4541 82b9 77de 5bb8
00000050: 5735 1138 b947 ca35 8adc 7838 bff5 08b9
00000060: 2072 5739 159b a7b8 0295 90b8 52e5 c8b8
00000070: 6301 2d38 5ffb da38 d13a 3bb7 4265 3439
00000080: 7739 bc37 55c9 7fb8 8309 67b8 e087 1fb8
00000090: 316a 23b8 2a6d a038 1c19 2838 8074 5339
000000a0: 7746 8338 49c9 8f38 2085 dbb7 18a8 d6b9
000000b0: 7388 2239 bfd7 96b9 3871 44b9 8dc2 42b9
000000c0: eaca 7339 c9c0 5e38 ddcf 2939 b0d9 17b9
000000d0: f749 fdb6 68cc 7a39 4b30 1f38 6ae7 5139
000000e0: 338e 0e3a 0434 19b9 66fa fbb8 c0ba a8b8
000000f0: 6894 6d38 5bc0 63b8 5107 9738 afb5 62b9
00000100: fbb7 64b9 d03e e3b7 09a5 2139 a188 1038
00000110: ac25 3038 3903 1437 18de 94b6 0d42 bcb8
00000120: 7bbb 26b7 13cb e239 5436 4e38 da2e bb37
00000130: 351f 1db9 9b89 c937 b6a6 1639 0f89 2eb9
00000140: c9bd 3b39 1b02 60b9 54b5 3239 84b6 f138
00000150: 83e0 7eb8 fe78 beb8 f342 2ab9 612b 7fb8
00000160: f478 6439 d7cb 7db8 360e 3fb7 3eb8 5d37
00000170: 6bcd d7b8 b7d2 3cb9 5736 ea36 e289 8938
00000180: 317a 3fb8 74be 87b9 75e2 6b38 f0ba 2c37
00000190: f852 1f39 fa2c 6cb8 c4e1 e238 f5d9 b3b9
000001a0: edde eeb8 1707 12b8 44a3 7739 82eb c7b8
000001b0: e43d 0fb9 3d6a 3ab9 1cc5 bd38 660a b238
000001c0: 2bbb 5938 910b 8e38 6857 8a36 5c77 0c39
000001d0: 7a91 b5b8 d7b0 4fb8 1ea8 d4b8 8a88 c137
000001e0: 3002 9fb7 033c 2ab9 e168 0739 cacc 58b8
000001f0: 49e1 27b9 e9f8 9939 39e3 2239 f090 87b8
-0.0001516062 7.478759e-05 -2.1334265e-05 5.576808e-05 0.00014232026 3.8864833e-05 0.00016543096 0.00014823573
0.00017686031 6.2548344e-05 0.00025790403 -3.0912754e-06 4.7921116e-05 -8.5245854e-05 -0.00016106771 -0.00020997792
-6.52191e-06 2.883907e-05 -0.00024844162 -5.2420855e-05 3.462037e-05 1.5071047e-06 5.93332e-05 -0.00013061518
0.00020546513 -7.992067e-05 -6.89421e-05 -9.5794574e-05 4.1247706e-05 0.000104418716 -1.1159763e-05 0.00017203859
2.2438106e-05 -6.0984243e-05 -5.508355e-05 -3.8035098e-05 -3.8961127e-05 7.649728e-05 4.0077706e-05 0.00020165928
6.259692e-05 6.856264e-05 -2.6168826e-05 -0.000409425 0.00015500355 -0.00028770973 -0.00018734194 -0.00018573758
0.00023249877 5.310847e-05 0.00016194531 -0.00014481577 -7.548598e-06 0.00023918005 3.795353e-05 0.00020018002
0.00054380595 -0.00014610594 -0.00012015253 -8.045649e-05 5.6643417e-05 -5.4300162e-05 7.201604e-05 -0.00021620722
-0.00021812312 -2.7089758e-05 0.00015415637 3.445952e-05 4.1996755e-05 8.822238e-06 -4.436599e-06 -8.9768415e-05
-9.938022e-06 0.0004325738 4.9164824e-05 2.2313954e-05 -0.00014984312 2.4025145e-05 0.0001436722 -0.00016644991
0.0001790441 -0.00021363089 0.00017042953 0.00011525772 -6.0767412e-05 -9.0824426e-05 -0.00016237404 -6.0837137e-05
0.00021788833 -6.050974e-05 -1.1387796e-05 1.3215524e-05 -0.00010290261 -0.00018007575 6.9800694e-06 6.558352e-05
-4.565175e-05 -0.00025891105 5.623927e-05 1.0295524e-05 0.0001519433 -5.6308672e-05 0.00010818572 -0.0003430393
-0.000113902475 -3.4815715e-05 0.00023616577 -9.532926e-05 -0.00013660599 -0.00017777919 9.048937e-05 8.489638e-05
5.1911145e-05 6.773242e-05 4.122896e-06 0.00013395905 -8.65785e-05 -4.951734e-05 -0.00010140262 2.3070974e-05
-1.8955296e-05 -0.0001623482 0.00012913674 -5.1689138e-05 -0.00016010286 0.00029367887 0.00015534171 -6.464298e-05

cvae_parameters.enc_00_lin_w f4 [128, 163]
00000000: 9198 37bc e1ba 3dbc 689b 21bb 3be1 90bb
00000010: 1f20 0b3c 9074 e23b 2bde 4bbb 5633 aebc
00000020: b98b 563b 22ba 50bc d044 683b 7d3c 463b
00000030: 9695 a53a 0780 4b3c 0a68 383c 73d6 2bbb
00000040: bd95 5cbc 3628 8bbc fc7d ba3b 7540 013c
00000050: 1c84 c83b 92fa 7bbc 8dca 5abb 0642 963c
00000060: 28e8 fc3b bc0f bfbb 1ecc eeba b524 ef3a
00000070: d1fc 643c f9c5 833c 274f 1c3c 93e7 0cbc
00000080: b21c c2bb 4856 bf39 7b57 a4bb 7e5a 283b
00000090: 59b1 933b aab6 a33a 3be4 d83b 79a9 8c3b
000000a0: b687 76ba 734e 043c aa38 3dbb a562 233a
000000b0: 2bb6 b13b 4d90 bd3c 5481 6cbc 25ea 81bc
000000c0: 603c dbbb 61d8 103c 0509 2d3c fdcc ee3a
000000d0: 8bf5 07bb 0c78 77bb 2853 b53b 0671 81bb
000000e0: 149e 91bb 4c06 f33b 11bb 793c 5a00 0c3d
000000f0: 153b 78bc d13b 49bc 1e7b 943c 907d b9bb
00000100: 27f4 b9bb 4743 143c 8ffd 363c 3c04 553c
00000110: 6ea3 71bc fc8c d13c 4232 9ebb a18c 493b
00000120: 70eb 84bc 8ed2 bbbb 142b 9bbb 392a a5bb
00000130: d23e 2dbc 9cb2 363c d50a b8ba fa78 003c
00000140: 908d 5cba 3dd1 db3b eed1 06bc 791b 8bb8
00000150: 4f8d 0b3c f191 7dbb fc4f 2b3c 131e 603b
00000160: ecc8 1dbb 5b1b bc3c c05b 99bc 7a02 17ba
00000170: 26ea 29bc d0c5 1abc 64ac fe39 adf8 e03b
00000180: 78f2 863c 00e4 5fbc 6778 633b c9b5 a73b
00000190: 9aa8 d3bc f8cf 8abc 54fe 0dbb ab23 273b
000001a0: 84e7 253b 5e92 493a c93d 5f3b 3ea6 943b
000001b0: 640c a03b d22d 0dbc 291f ff3b 2c49 1abc
000001c0: 0072 01bb 85e1 c6bc a29c 3eba 97c3 91b9
000001d0: d2dc 1f3c 7c5f 673b a306 18bc de3a 34ba
000001e0: 2a12 c2bb e325 94bb ce98 9c3c d97c 82bb
000001f0: 4cca a73a d44a 3f3c 9d8c 173c 826e 603c
00000200: 9310 0dbc f598 88bb 6b3e 06bc de33 b73b
00000210: 79ab c93b 36cd 9a3b b040 9f3c a0b1 31bc
00000220: 9f6d 2eba a286 833a 7725 c6bb 872f 4dbc
00000230: 8c72 85ba 75bc 29bc 7323 50bb 0d72 153b
00000240: 3e98 25bb aad4 8a3a 9dbd 1d3b 9f4d 3d3c
00000250: ff63 3d3b 187e 7b3b a94c 00bb 322b aaba
00000260: 1b7a 013b 5be7 febb dd59 9bbc cc9e a03a
00000270: bf82 e6bb d66a 4d3b 47cf d43a eff8 743b
00000280: 0775 1e3c bfdc 24bc fea8 453b 379b 90ba
00000290: 9832 243c 715b a4bb 2822 fb3b 1a58 ca3b
000002a0: eab1 4d3b 8b92 093b f0c2 93ba a4c7 5e3b
000002b0: ab0e 4dbb 0cb3 30bc 2688 213b 2cc0 66bc
000002c0: 2c09 1cba 5d9d 6bbb 0850 7cbc e7aa 82bb
000002d0: c220 303c c8b1 bd3a 25f2 823c 60cc f83b
000002e0: 524f 31bc 1d83 eabb e612 7a3c aa58 203b
000002f0: 3204 df3b 961e 1cbc c9c9 39bc 9485 46bc
00000300: 4903 b8bb 46ff b63b 0813 9e3b b39a 813b
00000310: 41d5 013b 30f5 153c 0dc4 22bb 77f2 213c
00000320: 9941 14ba b8f0 2bbc 3a5c 903b 3e10 cb3b
00000330: 0309 da3b 0479 47bc 74c5 cc3b 1a6b c1bb
00000340: 866f 433c cb65 a53a 22fe 213c c815 0b3c
00000350: 2fef 50bc 54a1 1d3c ea9c 9abb 58bf 56bc
00000360: 75cd 1f3c 3bc3 513c 493c ccbb f570 b33b
00000370: 573e 323b 91f7 d9b9 9818 2bbc 3325 a3ba
00000380: 1dff 5abb 5b5e 7d3c 1a78 263b 0230 6b3b
00000390: c787 beba 4f4d c93b c0c7 30bb 280f 59bc
000003a0: d521 d7ba 195c b6bb 4f12 9abb 443d 0b3c
000003b0: 462f 10bc ab33 043c c5ee 413c 0f97 8fbc
000003c0: 4566 75bc ec2c 90bc d9e1 8d3a a91f 32bc
000003d0: 6902 713c 3c6c a3ba 561b c73b fd09 c0ba
000003e0: f475 2cba e378 2a3c c22e 1a3c 4fa6 9dbb
000003f0: 91d0 08bc 95e2 b43a a29d 9c3c a087 8e3b
-0.011205808 -0.0115802 -0.002465928 -0.004421381 0.008491545 0.006910868 -0.0031107764 -0.021264713
0.003273709 -0.01273969 0.0035441406 0.0030248456 0.0012633081 0.012420661 0.011255274 -0.002622035
-0.013463435 -0.016986948 0.005691288 0.007888903 0.0061192643 -0.015379565 -0.003338489 0.01834203
0.007718105 -0.005830733 -0.0018218791 0.0018245192 0.013976292 0.016085612 0.009540356 -0.0086001335
-0.005923831 0.00036494643 -0.0050153113 0.0025688703 0.0045072255 0.0012490351 0.006619004 0.0042926637
-0.0009404378 0.008075344 -0.0028872886 0.0006232656 0.0054233274 0.023140097 -0.014435131 -0.01585872
-0.006690547 0.008840651 0.010561232 0.001821905 -0.002074572 -0.0037760762 0.0055335946 -0.003950241
-0.004443893 0.007416522 0.015242354 0.034180023 -0.015150805 -0.012282328 0.018125113 -0.00566072
-0.005674857 0.009049243 0.0111688515 0.013001498 -0.014748437 0.025579922 -0.0048277685 0.0030753987
-0.016225547 -0.005731887 -0.00473536 -0.0050404337 -0.01057406 0.011150982 -0.0014041314 0.007841343
-0.00084134284 0.0067082928 -0.008228762 -6.633154e-05 0.008517577 -0.0038691724 0.0104560815 0.0034197613
-0.0024076058 0.022962263 -0.018720508 -0.0005760562 -0.010370767 -0.009446576 0.00048575096 0.006865582
0.01647304 -0.013665199 0.0034709217 0.005118106 -0.025837231 -0.01694487 -0.0021666484 0.0025503438
0.0025314996 0.0007689352 0.0034063926 0.004536419 0.0048842896 -0.008616881 0.007785697 -0.00941686
-0.0019751787 -0.024277458 -0.0007271265 -0.0002780228 0.0097572375 0.0035304716 -0.009278926 -0.0006875227
-0.0059225755 -0.004521118 0.019115832 -0.003982168 0.0012801378 0.011675555 0.009249833 0.013698222
-0.008609909 -0.0041686245 -0.008193593 0.0055909 0.0061544743 0.00472417 0.019440025 -0.010845572
-0.0006653908 0.001003463 -0.0060469466 -0.012523538 -0.0010181232 -0.010359873 -0.003175941 0.0022803575
-0.0025267745 0.0010591943 0.0024069317 0.011554151 0.0028898714 0.0038374718 -0.0019576943 -0.0012982844
0.0019756618 -0.0077790446 -0.018963749 0.0012254356 -0.007034629 0.0031344197 0.001623609 0.0037379821
0.009671456 -0.010062396 0.0030160542 -0.0011032586 0.010021828 -0.0050157835 0.007663984 0.0061750533
0.0031386563 0.0020991887 -0.0011273306 0.0033993507 -0.003128926 -0.010784876 0.0024647801 -0.014083903
-0.00059522945 -0.003595195 -0.01539994 -0.0039876583 0.010749998 0.0014472539 0.015984604 0.007592723
-0.010822134 -0.007156743 0.015263295 0.002446691 0.00680592 -0.009528777 -0.011339613 -0.012116808
-0.005615626 0.00558463 0.004824046 0.003955209 0.0019810947 0.009152696 -0.0024836094 0.009884468
-0.0005655527 -0.010494404 0.0044055255 0.0061970046 0.0066539063 -0.0121748485 0.006249124 -0.00590266
0.011928445 0.0012618838 0.00988725 0.00848908 -0.012752338 0.009620983 -0.0047184126 -0.013107143
0.009753575 0.012802894 -0.0062327725 0.005476112 0.0027197802 -0.00041573917 -0.010442875 -0.0012446999
-0.003341622 0.015464391 0.0025401176 0.003588677 -0.0014536314 0.006143249 -0.002697453 -0.013248242
-0.0016413281 -0.005565178 -0.0047018896 0.008498494 -0.008800333 0.008068959 0.011836712 -0.017528085
-0.014977996 -0.017599545 0.0010824754 -0.010871806 0.014710047 -0.001246817 0.0060762567 -0.0014651414
-0.00065788557 0.010404798 0.009410562 -0.0048110853 -0.008350507 0.0013800437 0.019118134 0.004349664

cvae_parameters.enc_01_lin_b f4 [128]
00000000: e2ba 90ba c852 e13a 24c0 d2b9 f6a4 f4ba
00000010: 21eb 2fba 451c 9f3a d3f9 953b 6ec5 fdb9
00000020: 83f6 28bb 0fec 3dba 5577 143b 0ab2 b83a
00000030: 28b3 cbb9 7d8c e53a 920b 183b eb86 a13a
00000040: 570d 353b b61a e7ba 15ea 37ba 151c 88ba
00000050: 2a42 b9ba 687d 963a ba79 bdba 515e a83a
00000060: 8a80 633b 37a5 0f3b 089f 3a3b e5ce 1f3a
00000070: 20e1 533a 1e7b 0cbb fbb5 70ba b611 02bb
00000080: c13e f9b9 2cb7 f239 93d6 a4ba 6907 5539
00000090: b65c 4bba f450 303a db2e 8039 1f4e 263a
000000a0: 3221 a13a 2e69 d139 66bf 33ba c85c 3637
000000b0: fd44 3d3b a738 cb39 7bbf 6ab7 0c21 0c39
000000c0: 02d5 d93a 8758 4b3a 28c2 73b9 7a1e c63b
000000d0: b4de 08ba f5aa 0d3b 2240 f7ba f981 eeb7
000000e0: 1c73 deba 32c4 453a 3434 083b da3b 57ba
000000f0: ebfb 34ba b64c 0d3b a713 443b 28b5 353b
00000100: 5ed8 e7b8 d899 173a 69fb 393a ac41 98b8
00000110: 7a69 e2b9 4610 983a c40f 56ba 4a4e 82ba
00000120: f9a6 f239 3b85 223b f687 85ba 4398 0c3a
00000130: 1c06 f2ba b39c c2ba 3c61 b8ba 65cc a53a
00000140: 54a7 a3bb cd52 cfba 1439 42b9 e946 a137
00000150: 01f5 c9b9 8921 88ba 85ac 823b 035f 0dbb
00000160: 9f8a 93ba 84b3 0dba e95f 723b 0d65 30bb
00000170: 424d c7ba 90a9 463a 5725 6aba 74cf 6539
00000180: fc11 77bb 9119 4e3b d653 89b8 31f7 cf3a
00000190: b073 ccba dc1c 2539 d38c 55ba 4be9 323b
000001a0: 4ede e23a f61c fd3a 41f1 933a a478 82ba
000001b0: 70c8 3f3b 4368 69bb 42f6 8fba 6904 94ba
000001c0: 221b a538 70bb 9bb9 2d65 20ba d31b 0f3a
000001d0: fc27 173a 7928 2338 72b2 5b3a b993 113a
000001e0: 74c5 cbba cae9 133b a7b8 76ba 6672 a63b
000001f0: 2bad 27ba 532e be3a 8822 9638 4521 53b9
-0.0011042024 0.0017190808 -0.00040197477 -0.0018664885 -0.0006710757 0.0012139162 0.0045769005 -0.00048403017
-0.0025781698 -0.00072449533 0.0022654135 0.0014091146 -0.0003885266 0.0017513182 0.0023200256 0.0012323534
0.002762636 -0.0017631862 -0.0007015777 -0.0010384346 -0.0014134098 0.0011481466 -0.0014455833 0.0012845491
0.0034714066 0.0021918544 0.0028476138 0.00060961983 0.00080825575 -0.0021435688 -0.00091823906 -0.0019846982
-0.00047539736 0.0004629431 -0.0012576155 0.00020316023 -0.00077576505 0.000672593 0.00024448973 0.00063440384
0.0012293218 0.0003994195 -0.00068568287 1.0869648e-05 0.0028880232 0.00038761387 -1.3992069e-05 0.00013363751
0.0016619267 0.0007757027 -0.00023246615 0.0060461136 -0.00052211736 0.002161679 -0.0018863718 -2.8432334e-05
-0.0016971561 0.0007544189 0.0020783069 -0.00082105177 -0.0006903994 0.0021560616 0.002991894 0.0027726386
-0.0001105524 0.00057831174 0.0007094653 -7.260157e-05 -0.00043184665 0.001160153 -0.00081658014 -0.0009941545
0.0004628224 0.002479865 -0.0010187614 0.0005363265 -0.0018464956 -0.0014847725 -0.0014067064 0.0012649415
-0.0049943123 -0.0015817523 -0.00018522545 1.9225716e-05 -0.0003852025 -0.0010385971 0.003987851 -0.0021571524
-0.0011256522 -0.0005405473 0.0036983436 -0.00269157 -0.001520552 0.00075783674 -0.00089319557 0.00021916424
-0.0037699929 0.0031448344 -6.548285e-05 0.0015866515 -0.0015598442 0.00015746377 -0.00081462896 0.0027299698
0.0017308684 0.0019310999 0.0011287109 -0.0009954167 0.0029263757 -0.0035615123 -0.0010983425 -0.0011292818
7.872867e-05 -0.00029703556 -0.0006118592 0.0005459163 0.0005766151 3.889992e-05 0.00083807774 0.00055533234
-0.0015546517 0.002256977 -0.00094116706 0.0050795553 -0.00063963485 0.0014509655 7.158989e-05 -0.00020134922
