dlpg/17/weights/dlpg_model_weights_100.pth (torch, 389944 bytes, 15 tensors)

VQ.projection.weight f4 [200, 32]
000000 91 58 fb 3d 31 c6 48 bd e3 88 fb 3d 77 31 04 be
       0.12272752 -0.049017135 0.122819684 -0.12909494
000010 f6 66 d4 bd 39 49 27 be a1 e4 f3 3c b0 f8 23 3e
       -0.10371201 -0.16336526 0.029772105 0.16012836
000020 07 31 cf 3b d5 99 fb 3d cd 56 7f bd 0b d2 bd bd
       0.006322983 0.122852005 -0.06233864 -0.09268578
000030 46 40 14 bd 25 52 1c be cf e0 cf 3c 82 ef d0 3c
       -0.03619411 -0.1526571 0.025375752 0.025504831
000040 02 68 1c be 14 2c 6c bd f7 42 14 bc 1d 44 9e bd
       -0.15274051 -0.057659224 -0.009049169 -0.07727835
000050 8d a1 14 3e ee 18 9a bd 5f 26 ca 3d 2d 08 92 3c
       0.14514752 -0.07524286 0.098706 0.017826164
000060 df 84 0a 3e 1d 8a 00 be 0d ce 2d 3e 63 38 ee bd
       0.13527249 -0.12552686 0.16973133 -0.11631849
000070 30 9f d5 bd b8 6f 0c be 38 79 8f 3d e8 d7 3c bc
       -0.10430753 -0.13714492 0.070055425 -0.011526085
000080 0f 7c 01 be a8 b3 b5 3c 4a 17 55 bd 0b d8 c7 bd
       -0.12644981 0.022180393 -0.052024163 -0.09758004
000090 38 6f a6 3d be ed b6 3b 79 c5 dc bd ea aa bc bd
       0.08126682 0.0055825403 -0.107798524 -0.09212287
0000a0 87 92 23 3e b3 3b ef 3c 2d d5 22 be 43 4e 30 bd
       0.15973864 0.029203271 -0.15901633 -0.043043386
0000b0 cc 03 00 be 04 45 1c bd 75 17 d2 bd d3 fb d0 bd
       -0.12501448 -0.038151756 -0.1025838 -0.10204282
0000c0 6c 46 42 3d c9 05 26 be e9 27 60 bb f4 36 d5 bd
       0.04743044 -0.16213144 -0.0034203476 -0.10410872
0000d0 d2 00 30 3e a9 d2 22 3e 4e 1f 2b 3e 1c ea 71 3c
       0.17187813 0.15900673 0.1671116 0.014765289
0000e0 26 52 bb bc 97 68 9d 3d 95 69 96 bd 40 56 1e 3e
       -0.02286632 0.076859646 -0.07344357 0.1546259
0000f0 9d 13 05 3e 11 e4 76 3d 1f 4f 24 be c5 78 0e 3e
       0.12995763 0.060276095 -0.16045807 0.13913257
000100 42 19 21 3e 17 6c fe 3d 18 a3 3f bc 83 11 37 3d
       0.15732291 0.1242296 -0.011696599 0.044694435
000110 70 9f bc bd ec 3a c5 3d a4 11 a0 bd 68 a4 26 3e
       -0.09210098 0.09630379 -0.07815865 0.16273654
000120 9b 94 e6 3d f4 25 c8 3d 6e d8 d4 bd 5a 4c aa bb
       0.11258813 0.09772864 -0.10392843 -0.00519709
000130 9a 81 8f bd a6 34 94 bd b2 10 ed ba dd 87 88 3c
       -0.070071414 -0.072366044 -0.0018086641 0.016666347
000140 73 1b 1c 3d f7 dc 24 3d 76 87 da bd df 9a 2e 3e
       0.038112115 0.04024979 -0.106703684 0.17051266
000150 c3 4b 84 3c 7e 66 2c 3e 76 4d d9 3c 83 48 80 bd
       0.016149407 0.16835973 0.026526194 -0.062638305
000160 80 5b 50 3b b6 76 02 bd 9a d4 86 bd 0e 42 4c bd
       0.003179282 -0.031851493 -0.06583519 -0.049867682
000170 5f c9 f2 3d c7 1b 0d be 5c 54 0a be c6 1d f0 3d
       0.11854815 -0.13780127 -0.13508743 0.11724429
000180 6b 35 03 3e 64 aa 99 bd 06 de 59 bd 06 1f cb 3d
       0.12813346 -0.075032026 -0.053190254 0.099180266
000190 37 24 18 3e c1 f6 b1 bc 91 80 b8 3d fe f4 fa bd
       0.14857565 -0.021724107 0.09008897 -0.1225376
0001a0 27 f5 a3 3d 77 4b ed 3b ce 66 ac bd 01 28 02 be
       0.080057435 0.007241662 -0.08418046 -0.12710573
0001b0 1e 7b 1e be 51 de 86 bd 5a 5a 11 3e c2 b3 ce bc
       -0.15476653 -0.06585372 0.14194623 -0.0252322
0001c0 81 2d 81 3d 4d 0e 2c 3e f5 64 2a be a9 5c b1 3d
       0.06307507 0.1680233 -0.16640075 0.08660252
0001d0 0c 13 5f 3d e8 69 4a 3d f0 53 81 bd 64 5d 8b bd
       0.054461524 0.049417406 -0.06314838 -0.06804922
0001e0 f2 0b b0 3d 4e 86 0f be 1e a5 52 3c 4e 3a ba bd
       0.085960284 -0.14016077 0.01285675 -0.09093152
0001f0 5b d1 4d bd 04 3c dd bd e9 64 22 3e cf e3 0f be
       -0.050248485 -0.10802463 0.15858807 -0.14051746
000200 6d 9b 30 3e ed c4 fd 3d be 6c 97 bd 0a 8a 25 3c
       0.1724679 0.12391076 -0.07393788 0.010103712
000210 43 02 0e be a6 17 10 be df 4d f3 bd f5 17 1a 3e
       -0.1386805 -0.14071521 -0.11880087 0.15048201
000220 79 b1 e3 3c 6a 60 2d be 72 df a6 bc db fa e9 bc
       0.027794586 -0.1693131 -0.020370219 -0.028562
000230 92 3f 21 3e eb d6 2c bd ef 69 01 be 38 b0 a4 bd
       0.15746906 -0.04219715 -0.12638067 -0.080414236
000240 37 63 cf 3d 8f 2d 21 be 3c f0 cf 3c bc 9c 16 be
       0.101263456 -0.15740035 0.025383107 -0.14708227
000250 fa 73 bb bd 98 20 01 be 3b 59 f6 3c 37 08 61 3d
       -0.0915298 -0.1261009 0.030071845 0.054939475
000260 e4 a3 b5 3d 85 99 da bd 5a 02 e3 bc 45 00 21 3e
       0.0886915 -0.10673813 -0.027711082 0.15722759
000270 05 84 6f bd cf 75 22 be ba 83 fa bc a8 37 92 bd
       -0.058475513 -0.15865253 -0.03058039 -0.07139522
000280 2b 16 df 3d 39 f5 50 bc b2 35 2f 3e b7 3f fe bd
       0.108929 -0.012753778 0.17110327 -0.124144964
000290 e4 c8 38 bd 1d 0b 04 3d 16 5c 13 3d f5 50 a2 bc
       -0.04511346 0.03223716 0.035976492 -0.019813994
0002a0 50 51 11 be 4a cd 17 3e 38 ad f1 bd 1b 22 5b 3d
       -0.14191175 0.14824405 -0.11800617 0.053499322
0002b0 77 b2 c2 3d 98 77 2b 3d dc a3 bf bb 93 03 8b bd
       0.09506696 0.0418621 -0.005848391 -0.06787791
0002c0 63 cb c5 bc d0 d6 1f be 59 7b 9f 3d c1 cd d8 3c
       -0.024144834 -0.15609288 0.077871986 0.026465299
0002d0 60 3d 90 bd 1e 78 90 3d 59 8a 56 bd ab 34 86 bd
       -0.07042956 0.070541605 -0.052378032 -0.06553014
0002e0 ac fe 32 be 63 a5 d5 3d d7 c6 28 3e f5 85 2b be
       -0.17479962 0.10431936 0.16482101 -0.1675032
0002f0 6e 49 1b 3e 21 11 a6 bd f7 5c 10 be 87 c5 dc bd
       0.1516473 -0.08108736 -0.14097963 -0.10779863
000300 f9 5e 12 be 71 74 6d bc 95 2a dc ba 5c 54 e0 3d
       -0.14294042 -0.014493094 -0.0016797358 0.1095359
000310 4a 34 0d be 62 b2 0d 3e 7f 83 23 3e 94 4a 3e bd
       -0.13789478 0.13837579 0.1596813 -0.046457842
000320 bc de f0 bd 34 26 80 3d 4a 46 86 3d 95 42 42 bd
       -0.11761233 0.06257287 0.06556375 -0.04742678
000330 cd 33 c1 bd df 6d 0a be d6 66 13 be 6b f7 69 3d
       -0.09433708 -0.13518475 -0.14394698 0.05712072
000340 36 35 dc 3c ee 46 0a 3c e6 75 16 bd 12 0a ba bd
       0.026880842 0.0084397625 -0.03673353 -0.09083952
000350 7b 9d 4d bd d1 54 ae bd 91 b3 b4 bd 21 4b 91 bd
       -0.050199013 -0.08512271 -0.08823312 -0.07094408
000360 72 5f d0 3b b6 1a d6 bd 89 ff 3b bd aa 1c 32 3e
       0.006359034 -0.104543135 -0.045897994 0.17393747
000370 0b 92 84 3d 1a 37 21 3e 59 11 68 bd d2 dc 49 3c
       0.06473168 0.15743676 -0.05665717 0.012320714
000380 7a 14 09 bc 09 c5 07 bd c7 ae 07 3d 94 de a6 3b
       -0.008366698 -0.03314689 0.033125665 0.0050924513
000390 6c e3 e7 bd 87 77 09 3e 39 a3 c4 3b 62 d8 0c be
       -0.11322674 0.13424502 0.006000903 -0.13754418
0003a0 99 6e a3 bd 31 18 c3 3d b7 45 07 bc fb b2 e4 3d
       -0.07980079 0.095260985 -0.008256367 0.1116695
0003b0 a2 35 5f bd 97 8e a4 3d 59 49 1a be 9f c5 80 3d
       -0.054494508 0.08035009 -0.15067042 0.06287693
0003c0 25 37 97 bd d6 cd af 3d 76 3e 60 bd 37 41 20 be
       -0.07383565 0.08584182 -0.054747067 -0.15649877
0003d0 c6 19 03 3e 35 8e 23 be fb 26 a9 3d 41 19 2d 3e
       0.128028 -0.15972216 0.08259388 0.16904165
0003e0 bf a1 2d be 72 cf 32 be 56 a0 2f bd 40 c4 6d bd
       -0.16956232 -0.17461947 -0.042877518 -0.058048487
0003f0 86 11 e2 3d 10 24 86 bd e2 fb fe 3d f2 ab 55 bd
       0.110384986 -0.06549847 0.124503866 -0.052165933

VQ.projection.bias f4 [200]
000000 19 64 05 3e 2e 52 73 ba 74 46 45 3d 24 c1 18 3e
       0.13026465 -0.000928196 0.048162892 0.14917427
000010 a7 8a 25 bd 4a 6a b2 3d e8 3b 50 3d a5 b9 08 be
       -0.040415432 0.08711679 0.05083838 -0.13352068
000020 d7 5f 77 b9 ba af 65 3d 2a 46 ee bd 87 14 78 bd
       -0.00023591459 0.05607579 -0.116344765 -0.06056645
000030 10 33 fb bd 18 e0 63 3c d3 d5 05 3e e6 4e 00 be
       -0.12265599 0.013908409 0.13069849 -0.12530097
000040 12 35 27 bd b5 43 1f be a0 66 01 bd 81 71 96 bd
       -0.040822096 -0.15553172 -0.03159201 -0.07345868
000050 90 fb a3 3d 4b 56 88 bc 5a 25 e3 3d ab b2 18 be
       0.08006966 -0.01664271 0.110911086 -0.14911906
000060 57 67 02 bd 17 8c 6b 3d eb e9 a0 3d bf cc 5a bd
       -0.031836834 0.057506647 0.07857116 -0.053417917
000070 be 98 3d 3d bc 92 31 bc d1 38 1d be 5c 10 11 be
       0.046288244 -0.010838207 -0.15353705 -0.14166397
000080 8f 7e a3 bd e2 81 a8 bd 99 0b 88 bd 4d ea bb 3d
       -0.079831235 -0.08227898 -0.06642837 0.09175549
000090 5a a9 ad 3d 18 d6 45 3b 54 31 8c bd f7 8e 8f 3c
       0.08479567 0.0030187424 -0.06845346 0.017524226
0000a0 b7 31 82 bd df c9 ea 3c 6c ab d1 3d 05 24 0e 3e
       -0.063571386 0.028660713 0.10237774 0.13880928
0000b0 ea ae 02 3d b4 d4 66 bd 19 b2 cf 3d 78 2b 1d be
       0.031905092 -0.056355193 0.10141391 -0.15348613
0000c0 74 a9 d3 3d f4 c1 79 3d f2 97 fe 3d a1 d3 1d 3e
       0.10335055 0.060975984 0.12431325 0.15412761
0000d0 4f a7 0c 3e cb 85 16 be 14 34 b6 bc a2 02 1b bd
       0.13735698 -0.14699475 -0.02224163 -0.037844308
0000e0 68 24 78 3d fb 98 f6 bd e2 ef 9b bd 0b 06 cc 3d
       0.060581595 -0.120408975 -0.076141134 0.0996209
0000f0 1b c6 e6 3d b5 50 0d be 57 53 5c bd 7b 94 40 bc
       0.11268254 -0.13800319 -0.053790417 -0.0117541505
000100 55 90 3a 3d 0d 71 9b bd 0c 36 44 bd 5e f1 83 3d
       0.045547802 -0.07589922 -0.047903106 0.064425215
000110 a5 5f 65 bc a6 6f 27 3e 6b e2 8b 3d 59 a3 68 3d
       -0.013999854 0.16351184 0.06830295 0.056796405
000120 02 c8 1c 3e 97 9d cb bd d6 9f 1c 3e b4 8e d7 3d
       0.15310672 -0.09942167 0.15295348 0.10525265
000130 c6 7c b3 ba e6 ff a4 bd 15 77 9f 3d 5a c1 34 3e
       -0.0013693802 -0.08056621 0.07786385 0.17651883
000140 60 60 c1 3d fe bd bc bd 1f 54 15 be 2a fa cd 3d
       0.0944221 -0.09215926 -0.14582871 0.10057481
000150 46 8f 0b 3e d5 5f 16 3e ab 40 a5 3b ce 64 87 bc
       0.13628873 0.14684995 0.0050431094 -0.01652756
000160 06 26 e5 bc 41 01 cf bd 27 18 c3 3b ef 26 e0 bc
       -0.027972233 -0.10107661 0.005953807 -0.027362315
000170 c7 e2 81 3d 92 dd 03 be 12 96 d8 3c e8 4e 01 3e
       0.063420825 -0.12877491 0.026438747 0.12627757
000180 87 b4 05 be 89 81 2c bb de 27 12 3e 0d 0a 99 bb
       -0.13057147 -0.0026322326 0.1427302 -0.0046703876
000190 a5 18 c1 bc 67 fc 09 be c8 35 67 3d e3 78 ad 3d
       -0.023571322 -0.1347519 0.056447774 0.08470323
0001a0 88 30 59 3c 8e a9 9e 3d 97 11 d9 3d 2f 84 8a bd
       0.0132562 0.07747184 0.10599058 -0.06763493
0001b0 c1 f7 b4 bd b5 24 27 bd 10 35 12 3e 7b 87 7b 3d
       -0.08836318 -0.04080649 0.14278054 0.0614085
0001c0 2e 5e 0c 3e 89 af da 39 a9 34 16 be a0 14 14 be
       0.13707802 0.00041710984 -0.14668526 -0.14460993
0001d0 c4 c2 f3 bd ef 39 ac bc 4e c9 d5 3d ab e0 22 3d
       -0.11902383 -0.021023719 0.104387864 0.03976504
0001e0 a4 19 bf 3d aa b9 d9 bd ce da 62 3d b0 7d 20 3d
       0.093310624 -0.10631116 0.05538445 0.039182365
0001f0 8c 09 cf bd 63 8d 2d 3c bc a9 15 bd 11 60 bd bc
       -0.10109243 0.010592791 -0.036538824 -0.023117097
000200 e6 23 74 3d 17 03 de 3d c8 86 1e be 7b e6 a7 3d
       0.059604548 0.10840433 -0.15481102 0.081982575
000210 38 af 24 be ea 7f 0d 3e 01 87 c4 3d a6 a1 2c 3c
       -0.16082466 0.13818327 0.095960625 0.010536587
000220 64 9c 72 bc 94 0c 91 bd af 47 05 3e e8 6b ec 3c
       -0.014807794 -0.07082477 0.13015626 0.028860047
000230 6c c0 ba bc 06 01 e4 bc f8 ba 52 bd 66 13 b7 3d
       -0.022796832 -0.02783252 -0.05144784 0.08939247
000240 e4 d6 04 be 90 74 00 be 15 42 93 3d 53 88 8b bd
       -0.129726 -0.12544465 0.071903385 -0.06813111
000250 02 83 c0 3d ce bc d2 3d c4 0d e1 3d c0 9d f1 3d
       0.09399988 0.10289918 0.10988954 0.117976665
000260 3f 16 22 bb 59 49 32 bc 83 bf cf bd 9a 60 de 3d
       -0.0024732498 -0.010881745 -0.1014395 0.10858269
000270 ee 5c c2 3d 73 55 4a bd fa 70 13 3e ce 60 46 3c
       0.09490381 -0.049397897 0.14398566 0.012108041
000280 02 b9 b9 bd 41 67 f1 bd c9 83 0c 3e d3 f3 d7 bc
       -0.090684906 -0.11787272 0.13722147 -0.026361382
000290 07 a2 db 3d c1 e2 b1 bd df 2e a8 3d 72 86 c7 3c
       0.10724264 -0.08685828 0.08212065 0.0243561
0002a0 72 1b e9 3b 57 19 21 3e 43 de eb 3d d2 01 ce 3d
       0.0071138674 0.15732323 0.115170024 0.10058941
0002b0 ba 9d a8 3d d7 c6 eb bc 38 46 b9 bd f2 7a 77 bd
       0.08233209 -0.028781338 -0.09046596 -0.060419984
0002c0 40 fa b7 bc 99 69 ea 3d 94 24 91 3d e8 6e 90 bd
       -0.022458196 0.114459224 0.07087055 -0.07052404
0002d0 b1 2a f7 3d 53 9c e5 3d 67 82 ca bd c3 89 0c 3e
       0.120686896 0.11211457 -0.098881535 0.13724427
0002e0 79 68 46 3a 70 e8 9a 3b c3 76 84 bd b4 56 de bc
       0.0007568668 0.0047274157 -0.064679645 -0.027140953
0002f0 0d 5d c6 bd d0 73 1c be 89 1b ab 3d ae 42 0a 3e
       -0.09685717 -0.15278554 0.08354861 0.13501999
000300 2e 9f 74 bd 84 8c 6c bc dd 28 04 3d 19 ca cf bd
       -0.059722118 -0.014437798 0.032265533 -0.10145969
000310 a4 a3 77 3d 53 07 22 3e 17 a8 73 3d 07 94 11 bd
       0.060458794 0.15823106 0.059486475 -0.03554156

VQ.embedding.weight f4 [200, 32]
000000 f4 d8 3a bf 0f 13 f6 bf 38 4c 6b bf 92 ad ff be
       -0.72987294 -1.9224566 -0.91913176 -0.4993711
000010 97 08 6b 3f 70 0f 94 3e 14 98 ed bd 26 ce 99 3f
       0.9180998 0.28918028 -0.11601272 1.2016037
000020 12 78 5e 3e 7c 4e 1c 40 99 d1 ea 3c 88 35 8f 3c
       0.2172549 2.4422903 0.028664397 0.01748158
000030 19 2d 55 bf 72 ae 8d be 8d 52 57 bf 0e b4 eb 3d
       -0.8327194 -0.27672154 -0.8411034 0.11508952
000040 0d 43 ac 3e 0d 05 16 3f 56 ff b4 3f 28 2b da bf
       0.33644906 0.58601457 1.4140422 -1.704442
000050 f6 33 8c 3f 0b a1 d4 3f ac 2d c3 be f1 50 31 3f
       1.0953357 1.6611646 -0.38120782 0.6926413
000060 ae f6 04 bf 54 bf fb bc 96 3c 7c bf 0b 75 ce 3e
       -0.51938903 -0.03073088 -0.98529947 0.40323672
000070 20 9c 93 be be d8 a5 3f 61 9f 2b bf 25 84 d6 be
       -0.2883005 1.295677 -0.6704007 -0.41897693
000080 08 e8 14 40 38 01 f5 be 6f 79 fe 3f 4b 44 3a be
       2.326662 -0.47852492 1.9880809 -0.18190114
000090 39 47 5d 3f 1c fa 9e bd bb ad 13 be 5e 2c 4b 3f
       0.864368 -0.07762548 -0.14421742 0.79364574
0000a0 fd d6 46 3f 65 06 73 bf 13 ea 47 3f 9c 98 7c 3f
       0.77671796 -0.9493163 0.78091544 0.98670363
0000b0 a6 34 99 be e8 aa 22 3e 8f b1 cd be 30 6b 7e bd
       -0.2992298 0.15885508 -0.4017453 -0.06211394
0000c0 0b d7 4f 3f a1 2d 98 3f 36 ca 15 c0 30 87 18 bf
       0.81187505 1.1888925 -2.340467 -0.5958128
0000d0 17 df df 3e 1c ab ef 3e 0c 96 56 bf 2e 64 85 3d
       0.43724892 0.46810234 -0.83822703 0.065132484
0000e0 45 62 f6 3e c0 82 6d 3e e5 db 0d c0 56 d3 05 40
       0.4812185 0.23194408 -2.2165463 2.091024
0000f0 c8 ec 76 be e6 84 94 bf 2e 8b 66 bf f7 11 d2 be
       -0.24113762 -1.1603057 -0.9005612 -0.4102933
000100 e3 4a 8d 3f ae 3b 0d 40 34 59 10 3e 5a 34 c3 3f
       1.1038479 2.2067676 0.14096528 1.5250351
000110 de 9c 02 c0 76 cb e3 be 57 f7 39 3f 35 0d cf 3d
       -2.0408244 -0.44491166 0.72643036 0.10109941
000120 7a 77 35 3f ef 46 a4 bf 0d d7 54 3e cf a8 c8 3e
       0.7088543 -1.2834147 0.2078516 0.3919129
000130 94 d4 d9 3e 86 e0 d3 3f 02 82 aa 3e 4b 02 8b 3e
       0.42544997 1.6552894 0.33302313 0.27150187
000140 84 f0 0e bf 71 1e 96 3f f3 36 a7 3f 51 39 4f 3d
       -0.5583575 1.172804 1.3063644 0.05059177
000150 85 ea be 3e 96 32 a1 3f 31 14 22 bf 84 ac 47 3e
       0.372883 1.2593563 -0.6331206 0.19499403
000160 67 33 05 3f 01 f9 34 c0 a6 86 d8 be d2 47 b5 3e
       0.5203156 -2.827698 -0.4229023 0.35406357
000170 8d 2b b0 3f 91 fe 13 3e 07 fb 84 bd 97 ad 63 3f
       1.3763291 0.14452578 -0.06493192 0.8893675
000180 b4 aa 2c bf 68 4b 69 bd 98 c1 e1 3e 04 15 3b 3f
       -0.6744797 -0.05695668 0.44093013 0.7307894
000190 83 d7 74 3f 32 1f b9 bb 07 c3 8c be 1f b9 bd bf
       0.95641345 -0.0056494707 -0.27492544 -1.482212
0001a0 b7 5a 60 bf 55 72 07 40 ec c0 2a 3f 61 14 0e c0
       -0.8763842 2.1163533 0.66700625 -2.2199938
0001b0 e7 e0 59 3f aa 1c f2 bf 16 bb 09 bf 7d 12 86 3f
       0.851088 -1.8914998 -0.53801095 1.0474392
0001c0 ad 00 cf bf a8 ca 34 3e 76 10 e5 bf 41 c6 9e 3f
       -1.6172081 0.17655432 -1.7895648 1.2404252
0001d0 ca ae 7b bf 28 6c 85 bf bd c9 a9 bf 86 0c 18 3f
       -0.9831358 -1.0423632 -1.3264691 0.5939411
0001e0 a2 79 41 3f d7 7d 90 3e bb 08 08 bf ca 6f 89 3f
       0.7557622 0.28221008 -0.5313832 1.073724
0001f0 53 0d 6f 3e 00 bc fd bd d0 d5 83 3f 75 9e 50 3f
       0.23344927 -0.12389374 1.0299625 0.81491786
000200 e2 c0 69 bf f4 25 29 bf f2 f6 96 3f f0 44 9c bf
       -0.9130994 -0.66073537 1.1794112 -1.2208538
000210 80 4d bf 3f cd df 93 bf ff 06 e4 bf 2f db 79 bf
       1.4945526 -1.1552674 -1.7814635 -0.9760007
000220 e1 7a 29 bf 42 2b 91 3f b5 f0 33 3f 69 02 10 3e
       -0.66203123 1.1341326 0.70289165 0.1406342
000230 95 93 a0 3e 5c c1 9b bf 48 7e a2 bf fa e3 9e be
       0.31362596 -1.2168384 -1.2694788 -0.31033307
000240 9a 81 95 3f f8 53 f2 be 06 69 30 3f a6 a6 29 bf
       1.1680176 -0.47329688 0.68910253 -0.6626991
000250 97 bb eb 3f 66 18 34 3e 06 c4 7c bc 2e 00 a3 be
       1.8416623 0.17587432 -0.015427595 -0.31836075
000260 48 fd 08 3f 8a 44 75 3e a3 e3 56 3e 46 6f 0d bf
       0.53511477 0.23951927 0.20985274 -0.55247915
000270 f4 c4 df bf 7a 01 8c bf 42 29 06 c0 4a c5 ea bc
       -1.748198 -1.0937951 -2.0962682 -0.028658528
000280 f5 99 e9 bf 77 23 d5 be 63 55 bc 3f f0 d2 7d 3f
       -1.8250109 -0.4162862 1.4713558 0.9914999
000290 de f6 ac bf ad 91 5e 3f 72 7b 7e 3f 67 78 86 be
       -1.3512838 0.86941034 0.9940711 -0.26263735
0002a0 2d a9 b3 3e 81 8d 81 3e be 6a ae bf 6e aa c6 bd
       0.35090008 0.2530327 -1.3626325 -0.09700476
0002b0 2d f8 53 3f 01 3e 13 3f 88 4e 51 bf 3c 9d ba 3f
       0.8280056 0.57516485 -0.81760454 1.4579234
0002c0 f1 fd a2 3f 72 91 1c 40 6b 5f af 3f 77 64 40 3f
       1.2733747 2.4463773 1.3700994 0.751533
0002d0 67 31 6a 3e 65 9b 69 bf 58 8a e6 3f 73 df 39 bf
       0.22870408 -0.9125274 1.8010969 -0.7260658
0002e0 a9 4e 5f bf 6c 5b b5 bf 5e a1 d5 3e ba ad ac 3e
       -0.872294 -1.4168525 0.41724676 0.33726293
0002f0 d9 86 fa be 2f 97 82 3e 80 f5 dc 3f 04 6a 09 bf
       -0.48931006 0.2550597 1.7262421 -0.5367739
000300 40 d1 db bd a3 c3 54 3f 96 30 79 bf 17 91 28 3f
       -0.10733271 0.8311102 -0.9733976 0.6584639
000310 11 aa 4e 3d da 69 b4 bd 71 59 ad bf 98 45 eb 3e
       0.050455157 -0.08809252 -1.354292 0.45951533
000320 5b 26 17 3e 41 45 b2 3c fe dc 9f bc 67 48 cc be
       0.14760725 0.021761538 -0.019514557 -0.3989899
000330 46 ed cb bf 8b 31 c1 3f 1f 94 96 bf f2 20 96 3f
       -1.5931785 1.5093244 -1.1763953 1.1728804
000340 3e f9 3e be 81 ce 94 3e 89 9b 6e bf 6b 7a 0b 3f
       -0.18649766 0.290638 -0.9320608 0.5448367
000350 38 8f ac be 2f 42 bd be 89 19 9a be c9 29 47 3f
       -0.33703017 -0.36964557 -0.30097607 0.77798134
000360 89 05 0c 3f 62 02 0f c0 27 85 a6 3f 9c 26 57 bf
       0.54695946 -2.2345204 1.3009385 -0.8404329
000370 fc 8c 8a 3e cb fa 40 3f 86 00 47 3f 7a 35 d1 3e
       0.27060688 0.7538268 0.77735174 0.40861112
000380 4a 11 24 3f 8a ae a3 3e 35 e8 1d 3e 24 fc d0 bd
       0.6408888 0.319691 0.15420611 -0.10204342
000390 d4 9b 30 bf e7 ca 04 bf e5 0e 18 3f b9 5e 9d bf
       -0.68987775 -0.51872104 0.5939773 -1.2294532
0003a0 33 5d a0 be c4 95 d0 bf 27 b9 82 3f e3 40 0f c0
       -0.31321105 -1.6295705 1.0212754 -2.2383354
0003b0 3b 3b 11 bd 6f fa cf be 93 2a 02 be fa 68 bf 3f
       -0.035456877 -0.40620753 -0.12711553 1.4953911
0003c0 1a de 8a bf 14 70 30 c0 4d d0 a7 bf 6d 9b 9b 3e
       -1.084903 -2.7568407 -1.3110443 0.30392018
0003d0 cc ce 24 3f e0 e9 1b bf 65 88 a8 bf c5 ad fe bd
       0.64378047 -0.6090374 -1.3166624 -0.12435488
0003e0 6f 77 26 40 b7 21 d5 3f 6d da e8 bf 62 35 f0 bb
       2.6010396 1.6650914 -1.8191658 -0.0073305825
0003f0 ab 0d 00 bf 9c 75 14 c0 d1 a6 c6 bc 9d 85 87 bf
       -0.50020856 -2.3196783 -0.024249466 -1.058765

cvae_parameters.dec_00_lin_b f4 [128]
000000 16 f0 13 bd 9c d6 1b bd 2f 2b 0d bd 31 cd e2 bc
       -0.036117636 -0.038046464 -0.03446501 -0.027685734
000010 6a 74 d0 bc 6d e9 39 3e 62 99 3b bd 02 5c 16 bd
       -0.025446136 0.18155451 -0.045800574 -0.03670884
000020 29 cd 23 bd b5 47 f5 bc 98 21 2d bd 2d aa 26 bd
       -0.039990578 -0.02994142 -0.042268366 -0.040689636
000030 9d 9b 27 bd 0c a1 c2 bc fb b3 82 bd bf a4 5f bd
       -0.04091989 -0.023758434 -0.06381985 -0.054600473
000040 16 79 4c bd e9 29 f8 bc cd 5a 34 bd 06 bd 2d bd
       -0.049920164 -0.030293422 -0.044031907 -0.042416595
000050 5a 8e cf bc 13 95 1f bc eb 4b 3b bd 5c e5 2e bd
       -0.025336433 -0.009740132 -0.045726698 -0.042699203
000060 bb e9 07 bd 04 b5 13 bd 22 ca 86 bc f3 22 40 3d
       -0.033181887 -0.0360613 -0.016453806 0.04690833
000070 29 b7 43 bd fb 77 d5 bc 03 12 f0 bc 6a 45 f9 bc
       -0.047782097 -0.026058188 -0.029305464 -0.030428607
000080 f3 d6 3a bd 0a cf 2d 3e 67 71 21 bd 1b 64 0b bd
       -0.045615148 0.1697351 -0.03941479 -0.034031015
000090 08 92 da bc f3 fd 30 bd 5e 63 40 bd 0a 23 39 bd
       -0.026680961 -0.043210935 -0.046969764 -0.04519943
0000a0 43 94 da bc 02 04 1b bd f4 1a f5 bc 46 53 0e bd
       -0.026682025 -0.03784562 -0.029920079 -0.034747384
0000b0 5f 95 42 bd 5c bd e4 3c 5b b4 54 bd 73 b3 9a bc
       -0.047505733 0.027922325 -0.051929813 -0.018884396
0000c0 a9 a1 80 bc 18 2a b8 bc e1 e6 19 3e d4 ed 63 bd
       -0.015702086 -0.02248101 0.1502948 -0.055646732
0000d0 e7 e9 16 bd a1 8f 1d bd f9 5f b1 bc 0c af 0d bd
       -0.03684416 -0.038467053 -0.021652209 -0.034590766
0000e0 c7 98 09 bd df 60 c3 bc a3 29 ff 3d 87 10 d0 bc
       -0.033592965 -0.023849903 0.124591134 -0.025398506
0000f0 4d b9 19 bd 75 12 0b bd 43 b4 3a bd dd 2d 0d bd
       -0.037530232 -0.03395315 -0.045582067 -0.034467567
000100 d6 71 30 bd af a7 09 bd 34 63 1c bd 79 ca 1b bd
       -0.043077312 -0.03360718 -0.038180545 -0.03803489
000110 56 69 30 bd 7a d3 9e bc a6 98 1d bd d7 0b f5 bc
       -0.043069206 -0.01938795 -0.038475655 -0.029912872
000120 85 66 a2 bc 9a 88 03 bd 11 f2 f9 bc a1 04 57 bd
       -0.019824276 -0.032112695 -0.030510934 -0.05249465
000130 5a 60 02 bd bb f8 b0 bc 13 6f 96 3d 28 c4 15 bd
       -0.03183017 -0.021602979 0.073454045 -0.036564022
000140 28 ec 4b bd 05 a6 3a bd bf b3 43 bd 4b 64 e2 bc
       -0.049785763 -0.045568485 -0.04777884 -0.027635714
000150 a0 96 4b bd 2f ec 41 bd f2 20 f5 bc 2c f0 fc bc
       -0.049704194 -0.047344383 -0.029922936 -0.030876242
000160 9c 31 08 bd 52 3f e9 bc 62 7c 45 bd 15 cf ca bc
       -0.033250436 -0.028472576 -0.048214324 -0.024756948
000170 ef 19 68 bd aa b5 16 bd 82 aa 5a bd 27 97 3c bd
       -0.056665357 -0.036794342 -0.053385265 -0.046042588
000180 cc 3d 21 bd f2 51 5a bd 37 38 14 bd 99 d4 74 bd
       -0.039365575 -0.053300805 -0.036186423 -0.05977306
000190 c1 47 5e bd 89 fc f9 bc 94 a5 59 bc 39 76 06 bd
       -0.05426765 -0.030515926 -0.013284106 -0.03282759
0001a0 5f f0 e9 3d f7 66 76 bd fa 2b 4d bd cf 3b 28 bd
       0.114228 -0.06015679 -0.050090767 -0.041072663
0001b0 5c 40 ab bc 64 74 11 bd 38 b4 eb bc 01 9d d4 3c
       -0.020904712 -0.03551139 -0.028772458 0.025953772
0001c0 0e ec 0f bd 48 55 6b bc f4 f5 ae b9 f5 c6 0b bd
       -0.03513723 -0.014363594 -0.00033371116 -0.034125287
0001d0 f4 fc 58 bd 05 60 20 bd bc 5e 13 bd fe e6 a5 bc
       -0.05297561 -0.03915407 -0.035979018 -0.020251747
0001e0 63 37 5e bd b9 be 52 bd 03 b6 22 bd ad 37 12 bd
       -0.05425204 -0.05145142 -0.03972436 -0.035697628
0001f0 f3 42 42 bd f1 b2 3d bd b8 e7 0d bd 8e e0 58 bd
       -0.04742713 -0.04631323 -0.034644812 -0.052948527

cvae_parameters.dec_00_lin_w f4 [128, 35]
000000 ca 5c 7e bb 6e 5a cb 3c a3 2f d9 bb e6 bc bd bb
       -0.003881263 0.024823394 -0.006627993 -0.0057903407
000010 6a c4 ca 3c 0c 80 8a bb 97 33 c9 3b b4 8b 4b 3b
       0.02475186 -0.00422669 0.006140183 0.0031058611
000020 82 7b 05 3c 51 c1 ac 3b 38 9b 4e bc d1 c3 91 bb
       0.008147122 0.0052720685 -0.012610249 -0.004448392
000030 18 a1 47 3c c6 ca 78 3c c6 0a 4f 3c 6a 56 f7 3a
       0.012184404 0.015185064 0.012636846 0.0018870358
000040 88 ba 86 3a 28 fb 92 3c f7 bb 0e bd 47 c7 e3 3b
       0.0010278979 0.017942026 -0.034847226 0.006951246
000050 bf 09 72 bc c3 72 c6 bc 00 db 8d 3a 65 2d a4 3b
       -0.014772831 -0.024224645 0.0010822713 0.0050102943
000060 27 8c c1 bc 4d 43 8c 3b 64 6c c5 bc 26 0e 52 bb
       -0.0236264 0.004280484 -0.024099536 -0.003205189
000070 19 80 b1 bc 27 b6 2a 3c 43 61 ab bc da 0e 19 bc
       -0.021667527 0.010419405 -0.020920401 -0.00934192
000080 e2 fa a4 ba 42 3f ee bc 94 49 a2 bb e0 ab 28 bc
       -0.0012586976 -0.029082898 -0.004952619 -0.010294884
000090 0e a8 88 3b d9 68 95 b8 79 6a e0 bb 69 37 ce 3c
       0.0041704243 -7.124403e-05 -0.00684863 0.025172906
0000a0 7d e6 ab 3b ad 5b 3f bb 6a 50 57 bc fe 48 ce 3c
       0.005245982 -0.002919893 -0.013141731 0.02518129
0000b0 ee 20 6f bc 7f 94 9b bb 86 87 2f bc 1f eb c6 39
       -0.014595253 -0.0047479267 -0.010713464 0.00037940682
0000c0 0a f8 49 bc 16 b3 1b 3c 42 ba 99 bb ad 43 e1 3c
       -0.0123272035 0.009503147 -0.004691393 0.02749809
0000d0 15 ac 8d 3b 77 26 12 bd 0b 62 83 3c b5 a6 49 bb
       0.0043234923 -0.035681214 0.016037961 -0.003076953
0000e0 e6 b7 86 bc 8a a8 e2 3b 68 c8 bf 3c da ac 0d 3c
       -0.016445111 0.006917064 0.02341099 0.008647168
0000f0 cf da 88 3c 27 a1 04 bd 12 a8 05 bc 74 06 bf bc
       0.016705899 -0.03238025 -0.008157747 -0.023318507
000100 78 67 bd bc 4d ce e4 39 f3 09 07 bc ce 92 62 3a
       -0.023120627 0.00043641255 -0.008242118 0.00086430914
000110 8d 18 ea bc c5 40 d5 bb 9f 1d 86 3c a2 e8 07 bc
       -0.02857616 -0.0065079653 0.016371546 -0.00829521
000120 33 48 a5 bb ef f4 4c 3c d8 08 e0 3c e7 63 54 3c
       -0.005044007 0.012509569 0.027347967 0.012963272
000130 d8 36 2c 3a bc bc d4 3c 38 ac 80 3c 6c 01 81 bc
       0.00065694517 0.025968902 0.01570712 -0.015747748
000140 d5 32 9c bc 52 63 68 3c ab d3 78 bb b4 54 a0 3c
       -0.019067207 0.014183836 -0.003796796 0.01957164
000150 88 47 e0 3c 59 76 ec 3a cf 4c cf 3c a3 78 cc 3c
       0.027377859 0.0018040641 0.02530518 0.024959868
000160 6e 75 57 bc cd bf 9b 3b ea 37 77 bc 68 20 44 3b
       -0.013150556 0.004753089 -0.015089015 0.0029926542
000170 19 78 c0 3c 2a 74 19 3c 0a a8 32 bb 6e 70 8b bc
       0.023494767 0.009366075 -0.0027260804 -0.017021384
000180 55 91 fa bb 46 b6 d9 bc 0e ca 3b bd e8 8b 9c 3b
       -0.0076467195 -0.026576173 -0.04584699 0.0047774203
000190 92 31 30 bc e3 c0 17 3b 2f a9 b5 3a 29 73 a4 bc
       -0.010754006 0.002315574 0.0013859625 -0.020074444
0001a0 ef 65 54 3c db 45 7d 3b 41 03 1b b8 2b b6 28 ba
       0.012963756 0.0038646373 -3.695791e-05 -0.00064358365
0001b0 46 16 2a 3c 94 8b 18 3d 39 dd 07 bd 84 04 fc bb
       0.010381287 0.037242487 -0.03316996 -0.007690968
0001c0 8b f6 f6 bb d5 ae ab 3c 4a e8 d3 bc 62 dc 66 bc
       -0.0075367144 0.02095739 -0.0258676 -0.014090629
0001d0 ec da 0c 3b 72 b3 a2 3b b5 20 bc ba b9 d5 94 3b
       0.0021492792 0.004965239 -0.0014353009 0.0045420793
0001e0 69 f0 11 bd 55 4c 9f 3b 0f 84 39 bc b5 f0 cb bc
       -0.035629664 0.0048613944 -0.011322989 -0.024895051
0001f0 6e f9 05 3c fd 50 7b ba c7 2d 10 bd 33 73 03 3d
       0.008177144 -0.00095869583 -0.035199907 0.032092284
000200 64 7e 31 bc f8 48 e5 bb 43 85 a3 3c 6e 91 bb 3b
       -0.0108333565 -0.006997224 0.019961005 0.0057241237
000210 9d 32 da 3c 8d 68 9a bc ea 2f 8b 3c 4e 69 c6 bb
       0.026635462 -0.018848682 0.01699062 -0.0060550338
000220 6c 38 41 3b 03 85 75 3b a0 3e 0c bd 89 13 f8 3b
       0.0029483093 0.0037463314 -0.03423941 0.007570688
000230 93 cf a5 3c c4 f4 d1 3a 62 0a 4d bc 21 2f 24 3b
       0.02024058 0.001601838 -0.0125146825 0.0025052505
000240 a8 aa 46 3c 12 4e ba 3b 37 69 e1 b9 ad f0 81 3b
       0.012125649 0.0056855762 -0.00042993735 0.0039654584
000250 09 32 28 bc 57 d9 52 bb 10 52 e8 bb 92 04 04 bc
       -0.010265836 -0.0032173002 -0.0070898607 -0.00805773
000260 8f c4 18 3b 12 04 a7 3b 5f 8c cd 3c 68 0d 9e bc
       0.0023310517 0.0050969208 0.025091348 -0.019293502
000270 f2 de 01 3c 51 2c 36 3a e3 62 3a bc f5 ee c8 3c
       0.007926689 0.00069493527 -0.0113761155 0.024528006
000280 cb 37 d0 3b d1 67 b1 bc f4 18 29 3b f9 a8 97 3b
       0.0063543073 -0.021655949 0.0025802227 0.0046282974
000290 a1 f4 6f bc a1 33 10 3c 11 b9 05 bc 7a ad 40 bc
       -0.014645726 0.008801372 -0.008161799 -0.01176011
0002a0 92 8d f0 bc 15 88 50 3c 71 28 4b bc 31 fc 96 3b
       -0.029364381 0.012727757 -0.012399779 0.0046077003
0002b0 e7 9b 15 3c c2 66 03 bd f8 82 23 bb d8 cb e2 bb
       0.009131408 -0.03208042 -0.002494989 -0.0069212727
0002c0 08 e9 91 3b ee d6 08 bd 4d 72 f2 3c ef 13 f3 bc
       0.0044528283 -0.033408098 0.029595518 -0.029672591
0002d0 c0 cb 1d 3b 51 32 4d bc 37 b5 46 bc 69 42 c0 bb
       0.0024077743 -0.012524203 -0.012128166 -0.0058672917
0002e0 a3 5a 18 bc b2 c4 45 bc 9a 7b 53 bc ad 8b 83 ba
       -0.009298953 -0.012070822 -0.012907887 -0.0010036133
0002f0 3d 8e 75 3c 4b 23 60 3b 1d e0 75 3a e9 9a ef bb
       0.0149875255 0.0034200724 0.0009379404 -0.007312168
000300 18 4c 23 bd 7d 72 06 3d 7e 19 e2 bc 19 5f 80 bc
       -0.03986749 0.03282403 -0.027600046 -0.015670346
000310 13 43 d6 3c 75 85 a7 3c cc cb 45 bd 02 61 f6 3c
       0.02615503 0.02044938 -0.04829006 0.030075554
000320 c9 19 9e bc db 3f c5 3c ef be 58 3c a7 19 cf 3c
       -0.019299405 0.0240783 0.013229116 0.025280787
000330 97 6f b7 bc 8a 46 25 3d 40 05 04 bc 34 3f 34 bb
       -0.022392077 0.040350474 -0.008057892 -0.0027503492
000340 2a 3e 3b 3e 4e 72 3e bc a9 c0 3f 3c de 14 57 bb
       0.18285432 -0.011623932 0.011703649 -0.0032818834
000350 bf 0d 11 3a 5a 65 d9 39 62 5a 0d 3c 4a a8 0d 3b
       0.00055333594 0.00041464978 0.008627506 0.00216152
000360 f8 37 13 bc 55 cd ba bb f7 fa e3 3b 61 5b 8f bc
       -0.008985512 -0.005700747 0.0069574076 -0.017499628
000370 a7 87 9c bc d4 b7 d1 bb 0c c1 aa 3c 26 e2 00 bc
       -0.019107653 -0.006400088 0.020844005 -0.007866418
000380 32 ef c9 3c 41 1e 91 bc 80 2f fd 3c 23 4c 98 3c
       0.02465019 -0.017714621 0.030906439 0.018590992
000390 20 f4 c1 bc 79 80 9c 3c a5 c1 39 bc cc 51 c3 bc
       -0.023675978 0.01910423 -0.011337672 -0.023842715
0003a0 a6 3b 90 ba 64 42 a2 3c 4b ef 4a bc 9c 6d 91 3b
       -0.0011004105 0.019807048 -0.012386153 0.0044381153
0003b0 61 43 b2 bc 6f cb 57 bc f6 36 8e bc 16 9a 4a bb
       -0.021760644 -0.013171061 -0.017360192 -0.0030914596
0003c0 61 53 2f bc 93 14 c9 3b 7a 18 17 bc 55 7c 13 bd
       -0.010701031 0.006136486 -0.009222144 -0.036007244
0003d0 9b 5e 92 3c b7 8c aa 3c c2 86 d2 bc 12 ed 92 bc
       0.017867377 0.020819051 -0.025699023 -0.01793531
0003e0 e4 b8 32 3c 62 f1 a0 3c 42 05 93 bb 96 4c 5e bc
       0.010908339 0.01964635 -0.0044867108 -0.013568064
0003f0 e7 ab cd 3b 74 48 0e 3d 77 cf 03 3c cf 13 e7 3b
       0.006276596 0.034737065 0.008045069 0.007051922

cvae_parameters.dec_01_lin_b f4 [128]
000000 79 db 61 3c 7f d3 58 ba 0f 54 c2 ba 2c fc 23 bb
       0.0137852365 -0.00082712615 -0.0014826077 -0.0025022132
000010 08 21 b9 bb d6 25 57 bc a4 ce b0 3d 83 b9 0a 3e
       -0.0056496896 -0.013131579 0.086331636 0.1354733
000020 fc 88 e8 3d d2 09 da 3d 15 94 13 3b 29 62 db 3d
       0.11354253 0.10646404 0.0022518684 0.10712082
000030 1f fe 2e 3c 25 c6 9e 3d bc 0b 8f ba 00 bc 80 3d
       0.010680704 0.07752637 -0.0010913531 0.06285858
000040 38 83 4c bc fa 27 fb 3d e1 27 cf 3d 74 e3 02 bc
       -0.012482457 0.12263484 0.10115028 -0.007988799
000050 da 9f 36 3e 64 8e 4d bb ee cb 35 bc 5c 2b dd 3d
       0.17834416 -0.003136539 -0.011095984 0.10799286
000060 ee fb 44 3d 85 1e 05 3e 61 5c de bb 5a 70 84 bb
       0.04809182 0.12999924 -0.006785915 -0.0040417137
000070 7e ac dd ba a9 cd b5 3a 81 2f 71 bb b5 28 03 3e
       -0.0016912369 0.0013870496 -0.0036801996 0.12808497
000080 0f b4 08 3e 00 ea 02 ba 03 d1 e5 3a d2 55 3e ba
       0.13349937 -0.0004993975 0.0017533604 -0.0007260713
000090 77 e0 5a 3a eb f2 70 3d 4a 11 05 3e 2e 4b 4d 3b
       0.0008349488 0.058825415 0.12994877 0.0031325328
0000a0 18 7d b2 ba 1d 3d d7 3c 15 a5 05 bc 6c 50 03 3e
       -0.0013617603 0.026274258 -0.008157034 0.12823647
0000b0 c5 9c 10 3a fa 1b 1f bc 32 13 55 ba 79 1e 04 bc
       0.00055165245 -0.00971126 -0.00081281655 -0.008063906
0000c0 05 7d 81 bb 44 dc 83 3d 74 dc 21 bb d8 95 cd 3a
       -0.003951671 0.06438497 -0.002469805 0.0015684916
0000d0 45 b8 2a 3e 75 c9 7d 3d 26 0e fc 3d fd d4 70 bb
       0.16671856 0.061959703 0.12307386 -0.0036748045
0000e0 28 b9 f6 3d 84 8d bc 3c 5e ab 83 3c 51 40 ea 3d
       0.120470345 0.023016699 0.016072925 0.11438049
0000f0 13 eb bc bb 6b 96 85 ba d4 a8 a5 3a f2 9d 65 3c
       -0.0057653277 -0.0010191923 0.0012638816 0.014014708
000100 ad 4d 04 3e 37 15 39 bc 12 eb 7f bc 75 16 fd bb
       0.12920256 -0.011296562 -0.01562001 -0.0077236244
000110 89 db 83 39 3c 07 8d 3b e5 d7 ae bb 0c 80 b6 39
       0.00025149834 0.004303841 -0.005335795 0.00034809147
000120 9d c9 10 bc e5 81 2f 3b bc 5d cc 3c 2d fe 01 bb
       -0.008837131 0.0026780304 0.02494704 -0.0019835338
000130 e7 f4 72 3d e0 7d 1c 3d a5 aa 54 3d 17 58 d5 3d
       0.05931559 0.03820598 0.05192055 0.104171924
000140 24 3c 0f 3d cc dd 2e 3d e5 89 9b 38 5c f1 25 3b
       0.034969464 0.04269199 7.416661e-05 0.0025320863
000150 84 c8 82 bb 88 83 96 bc 15 9f 59 bc 2a 20 6b 3d
       -0.0039911885 -0.018373266 -0.013282557 0.05740372
000160 3a d9 38 bb 61 9c b5 bb 79 3e ce 3a 2c d7 86 3d
       -0.002820565 -0.0055423235 0.0015735171 0.065840095
000170 6d ff 56 bc c7 e7 8d 3d af 06 8f 3d 6b 93 53 38
       -0.013122422 0.06928974 0.06983697 5.0443614e-05
000180 34 53 21 bc f8 1e bd ba 70 05 c6 bb 54 9d 41 bc
       -0.009846497 -0.0014428785 -0.0060431287 -0.011817295
000190 51 fb 6d bc 6c 07 10 3b 00 c1 75 bc 7a 7f 73 bb
       -0.0145252505 0.002197708 -0.014999628 -0.003715484
0001a0 92 a2 e4 3c 73 38 79 3d 00 f4 c3 b7 d5 2f cb 3d
       0.02790955 0.06084485 -2.3359433e-05 0.099212326
0001b0 5b 62 54 3c 0e fb 01 3e 0a fa ce 3b 5f 54 46 3d
       0.012962903 0.12693426 0.006316428 0.048420306
0001c0 d8 8d 28 3b 0e db cf 3d 6b aa f2 3d 45 04 09 bc
       0.002571931 0.10149203 0.11848911 -0.008362834
0001d0 3b e6 d2 3c 40 2c 2b 3c 5f f9 bd bb 26 b8 56 3d
       0.025744548 0.010447562 -0.0057975496 0.05242171
0001e0 de 11 38 b9 f7 7b 1a 3b e8 a3 2a bc 6e 6c a7 3d
       -0.00017554263 0.0023572424 -0.010415055 0.08174978
0001f0 5a 72 1c 3e 11 cb 1d 3e bf 5e 84 bc f7 62 ce 3a
       0.15277997 0.15409495 -0.01615846 0.0015746047

cvae_parameters.dec_01_lin_w f4 [128, 128]
000000 4f 38 1b 3c bf 03 5b 3c 27 cf 30 bc b4 6e fc bc
       0.009473874 0.013367592 -0.0107915765 -0.030814506
000010 2a 28 c5 3b 7a 67 49 bd 42 d8 26 b9 f3 0c 1d bd
       0.006016751 -0.04917095 -0.00015911556 -0.038342427
000020 3a d0 cb bc 75 c7 86 ba 96 f5 6d bc 21 45 c0 bc
       -0.024879564 -0.0010282831 -0.014523884 -0.023470463
000030 31 c4 70 3b ff 71 79 3c 11 ea 0a bb f5 aa a1 bc
       0.0036738033 0.015224933 -0.0021196643 -0.019734839
000040 56 a7 ce bb a6 5e 68 3b 65 70 06 bb 14 0e 3c bc
       -0.006306569 0.0035456805 -0.002051377 -0.011477966
000050 6f 11 4a ba 5e ea 4c 3c 5d 8d 5d bc 6b 14 75 bc
       -0.0007708286 0.012507049 -0.013522473 -0.014958481
000060 f6 52 cb bc a6 00 6a bb 5e e1 31 3c a5 1c 81 bd
       -0.024819832 -0.0035705953 0.010856954 -0.06304292
000070 a2 22 55 bd 36 15 88 bc 8e 57 dc bb be 1f e0 bc
       -0.05203498 -0.016611677 -0.0067243045 -0.027358886
000080 e5 5a 78 3b f6 78 81 bd a1 2a b7 bc f2 8d 1a bc
       0.0037895974 -0.063218996 -0.022359194 -0.009433256
000090 63 d1 11 3c f1 97 6d 3b 84 a9 15 3c 34 0b 78 3c
       0.008900019 0.0036253894 0.009134654 0.01513939
0000a0 91 89 20 3c 81 5b 7e bc 27 de 14 bc 5d f4 17 bb
       0.009798423 -0.015524746 -0.009086168 -0.0023186423
0000b0 ec a8 a3 3c cf ac 14 bc 9c 45 a6 ba 7f f8 e3 3a
       0.01997801 -0.009074404 -0.001268554 0.0017392783
0000c0 f8 80 69 3b 78 f4 c6 ba 3c ac be bc b6 26 0c bd
       0.003562985 -0.0015179059 -0.023275487 -0.034216605
0000d0 59 fd 06 bc 3f 0b 67 bd 16 b3 7f bc 5a 20 3e 3c
       -0.008239114 -0.05640721 -0.015606662 0.011604393
0000e0 97 ae 92 bc e2 2f c1 3b 62 f6 0a bd 90 5e 82 3b
       -0.017905517 0.0058956007 -0.033926375 0.003978558
0000f0 ef d5 ac bc ea 98 4d 3c bf 8a 8f bc 71 17 54 ba
       -0.021098105 0.012548665 -0.017522214 -0.0008090651
000100 1f 5b 9f ba ab da b6 bb 6a 49 aa bb ea 91 2c 3c
       -0.0012157894 -0.0055802665 -0.00519674 0.0105328355
000110 c5 9a 24 3a 27 cd 1a bc f6 f1 d7 bb 00 20 46 bc
       0.0006279166 -0.009448326 -0.0065901233 -0.01209259
000120 c7 1b 83 bb ca 1b 79 3b 86 eb d1 3a 01 8a 08 39
       -0.004001114 0.0038010948 0.0016015626 0.00013021381
000130 b8 8f 99 bb 62 31 36 bc 38 26 68 bd ee ca 0a bc
       -0.004686322 -0.011120172 -0.056677073 -0.008471234
000140 f6 f2 c6 3b df 52 15 3c 8a df 26 bc cd a6 1c 3c
       0.0060714437 0.009113996 -0.010185132 0.009561253
000150 46 cb 4d 3c 95 02 a9 3b 2c a0 f0 bc b6 27 30 bb
       0.012560671 0.0051577785 -0.02937325 -0.0026879138
000160 de e3 a2 bb 3d ce 84 3c 09 36 1c bc a8 72 40 bd
       -0.0049710115 0.016211623 -0.009534367 -0.046984345
000170 a9 46 32 bc fc b3 98 3a 3f 41 73 bc eb c3 08 bd
       -0.0108811045 0.0011650319 -0.014847099 -0.033389967
000180 63 c5 67 bc 30 62 17 bd 47 cd a2 3a 5e d8 c8 bc
       -0.014146182 -0.036958873 0.0012420797 -0.024517234
000190 b8 c5 91 3c fa 84 d9 bb ab f4 79 bb 66 c3 00 3b
       0.017794475 -0.0066381665 -0.0038140218 0.0019647717
0001a0 16 a8 90 bd f3 d3 81 3b 5d bf 84 bc 77 6e b9 3b
       -0.0706331 0.003962034 -0.01620453 0.0056589204
0001b0 e7 55 83 bc a8 24 c4 bc 4a c0 ae bb cb b5 3c bc
       -0.016032172 -0.02394326 -0.0053329812 -0.011517952
0001c0 b1 02 83 3c 4d 27 eb 3b 77 5c 21 bc c1 c6 a1 3b
       0.015992494 0.007176316 -0.0098487055 0.0049370234
0001d0 60 c3 32 bd 04 68 50 bc 40 96 2b 3b 65 37 ef bc
       -0.043643355 -0.012720112 0.0026182085 -0.029201219
0001e0 1d 2d e5 bc c7 7b 46 bc 2f 36 7d bc 78 ba 3c 3b
       -0.027975613 -0.012114472 -0.015454813 0.0028797667
0001f0 19 42 22 bd ce 51 8e bc 89 83 4b 3b ac 5c f2 3b
       -0.039613817 -0.017372992 0.0031053743 0.0073963013
000200 04 6c dc bc 78 fb 81 bc ed 59 ab bc 43 02 83 bc
       -0.026906975 -0.01586698 -0.020916903 -0.01599229
000210 6b 05 b7 3b 89 34 38 bc e6 5c f8 bc c7 0f 4d bc
       0.0055853627 -0.011242994 -0.030317735 -0.012515969
000220 85 72 1a bd 3b 1d 6c ba 0d 83 04 bd 1d 54 1f bd
       -0.03770687 -0.0009007041 -0.032351542 -0.038898576
000230 ce 20 8a bc 59 0d 0f 3c ac 79 a0 bc 0e 2f 02 bd
       -0.016861346 0.00873121 -0.019589268 -0.031783156
000240 f5 5c 9f bc dd 34 40 bb 82 e5 f8 bc 86 b2 db bc
       -0.019453505 -0.0029328384 -0.030382875 -0.026818525
000250 99 d6 35 bb 07 d6 de bb 0f b4 dd ba c7 5d 3c bc
       -0.0027746318 -0.0068004164 -0.0016914624 -0.011496968
000260 17 71 36 bc 4e c3 28 bc 8c 81 dd bb bd ba a7 bb
       -0.011135361 -0.0103004705 -0.006759828 -0.0051186965
000270 24 e7 ea bc 01 2a c6 bc e7 43 fe bc 9e ad ef bb
       -0.02867467 -0.02418995 -0.031038238 -0.007314398
000280 33 4c d4 bc a3 11 be bb 35 93 0a bd 75 67 e3 bb
       -0.02591524 -0.0058004423 -0.033831794 -0.0069398233
000290 d5 48 14 bb f8 c1 c9 bc f9 65 08 bd d8 24 0a bb
       -0.002262642 -0.024628624 -0.033300374 -0.002107909
0002a0 bd fb dd 3c 21 45 ae bc d5 4e 4a 3b ba 2f 33 3c
       0.027097577 -0.021273198 0.0030869741 0.010936672
0002b0 ef 74 74 bc 75 a5 b4 bb ef 20 60 bc 79 bd a4 3b
       -0.014920457 -0.005512888 -0.013679727 0.0050274697
0002c0 c9 97 40 3c 88 8d 4a 3c 64 36 50 bc 34 8d be bc
       0.011754938 0.012362845 -0.01270828 -0.02326069
0002d0 ef d8 2f bc b9 de 72 bb f4 cc 61 bb 29 76 f1 bc
       -0.010732873 -0.0037059023 -0.0034454437 -0.029475288
0002e0 53 76 dc 3b 2c 2d 81 3c 90 18 d7 bb 24 fd 6e bc
       0.0067279725 0.01576861 -0.0065642074 -0.014586721
0002f0 93 88 88 bb be 6b bc bc 56 8d 68 bc 78 f5 17 bc
       -0.0041666715 -0.023000594 -0.014193853 -0.009274833
000300 a4 a7 5a bc 0a e9 f7 3a ae eb a2 bc 8d 38 1f bd
       -0.013345633 0.0018914056 -0.019887771 -0.03887229
000310 44 9f d0 bc 8e 27 97 bc 84 ad ae bc e8 7f eb 3b
       -0.025466569 -0.018451478 -0.021322973 0.0071868785
000320 63 3b 68 3b 61 ae 64 bc c8 ce 26 3a 19 0c 0d bd
       0.0035435788 -0.013957591 0.000636321 -0.034435365
000330 d2 80 b7 ba be 87 45 bc cb d4 3b 3c f0 62 35 bd
       -0.0014000183 -0.012056289 0.011464308 -0.044283807
000340 9d 2a 79 bc 4d 12 b1 bc 42 86 d2 bc cf 45 a3 ba
       -0.015207914 -0.021615172 -0.025698785 -0.0012456718
000350 70 a4 a7 bc c9 46 d2 bc 78 21 cd bc 61 d7 c8 3b
       -0.020464152 -0.025668519 -0.025040373 0.006129191
000360 97 26 64 bc a0 32 bb bb 80 8b 92 bc 59 f5 3a bd
       -0.013925216 -0.005712822 -0.017888784 -0.045644138
000370 dd fb 26 bc f8 55 50 3a 9a 8d 5e bb ff ea cb bc
       -0.010191885 0.00079473807 -0.0033958913 -0.024892328
000380 3d d8 42 bc 9d 67 08 bd 91 01 1f bc d1 07 2e bd
       -0.011892376 -0.03330194 -0.009704963 -0.042487923
000390 d6 1d 6c bc 1e 30 8d bb 7b 6e 07 bc ac 24 00 bc
       -0.01441141 -0.0043087145 -0.008266087 -0.007821243
0003a0 88 c3 2e bc 64 28 45 bd 04 13 df bc a2 69 96 bc
       -0.0106667355 -0.048134223 -0.027230747 -0.018360917
0003b0 05 f8 28 bd c2 f9 04 3b 34 a9 e9 bb c2 ef 70 bb
       -0.041252155 0.0020290469 -0.0071307663 -0.0036764
0003c0 56 7e 82 bc 81 06 1c bc c7 af 5a bc c8 a8 44 bc
       -0.015929382 -0.009523035 -0.013347573 -0.012003131
0003d0 8b bd be bc 1e be 09 bc 45 26 7d bc fa 04 39 bc
       -0.02328374 -0.008407144 -0.015451019 -0.01129269
0003e0 5b 29 c0 bc a0 17 d8 bb 5d 4b db b9 04 84 ba bc
       -0.02345722 -0.006594613 -0.00041827085 -0.022768028
0003f0 ff b6 53 bc f6 94 9b 3b e4 af 40 bc 85 80 8d bc
       -0.012922048 0.004747982 -0.011760686 -0.017273197

cvae_parameters.enc_00_lin_b f4 [128]
000000 2a f3 8b 35 41 cb bf 38 25 9f a6 b7 62 b4 b1 35
       1.0427077e-06 9.145449e-05 -1.986285e-05 1.3240026e-06
000010 fe 84 a7 37 04 f9 8d 38 da d4 4a 39 4b 44 30 39
       1.996988e-05 6.769787e-05 0.00019343515 0.00016810109
000020 57 fe 29 39 eb 15 aa 38 f3 2c a8 39 3e 7a d0 b7
       0.00016211845 8.110314e-05 0.00032076947 -2.4852456e-05
000030 6d 28 55 38 08 76 86 b8 32 72 2c 38 8f 48 e5 b7
       5.0820807e-05 -6.411603e-05 4.111435e-05 -2.7332715e-05
000040 7e 10 9b 38 ed 56 aa 38 03 1b 6f b9 54 a7 1b 37
       7.394048e-05 8.122423e-05 -0.00022802879 9.277679e-06
000050 81 66 d9 b8 6b 91 f1 b6 c0 dd a5 38 ed af 37 b9
       -0.00010366459 -7.1992886e-06 7.909117e-05 -0.00017517777
000060 7b b4 43 39 d4 af 83 b7 55 ce c8 b8 aa b7 e0 b8
       0.00018663883 -1.5698293e-05 -9.5751755e-05 -0.000107153624
000070 f8 21 60 37 eb 90 90 b8 f9 58 8d b6 4b 4a 27 39
       1.3359349e-05 -6.893448e-05 -4.2124852e-06 0.00015954037
000080 ac 5a 83 38 54 82 03 b9 12 1f d6 b7 41 92 b9 b8
       6.263456e-05 -0.00012541685 -2.5525256e-05 -8.848729e-05
000090 6a 5d 9e b8 2e cd 89 38 19 2c eb b8 91 1f 4c 39
       -7.551427e-05 6.570887e-05 -0.00011213887 0.00019466715
0000a0 2d 71 26 38 34 02 1f 39 25 8a 28 b8 6e 94 a5 b9
       3.9682887e-05 0.00015164242 -4.018298e-05 -0.0003158184
0000b0 16 51 18 39 11 ef 48 b9 b1 35 41 b9 0c c5 91 38
       0.00014526056 -0.00019162546 -0.00018425916 6.9508416e-05
0000c0 8f ce 56 39 e3 8c 90 b8 e5 bc dc 38 8e 54 0c b9
       0.0002048558 -6.892697e-05 0.00010525602 -0.0001338294
0000d0 cb 49 96 b6 1e 7c 75 39 a1 77 f3 38 3f 2c 25 39
       -4.478939e-06 0.00023411258 0.000116094256 0.00015752109
0000e0 6b 37 9b 39 82 7f 27 b9 d1 7e e4 b8 4f c7 16 36
       0.00029605193 -0.00015973861 -0.000108955086 2.2467755e-06
0000f0 c2 2f 8e 38 6e 88 a4 b8 f9 12 1f 39 43 ba 88 b9
       6.779983e-05 -7.8455414e-05 0.0001517049 -0.00026078717
000100 10 dc 03 b9 28 74 f8 b7 f6 39 11 39 93 25 cd 38
       -0.00012575113 -2.9617993e-05 0.0001384987 9.7821605e-05
000110 11 0a 13 38 80 f0 ac b7 6e 84 f4 b7 ec e8 b7 b8
       3.5056906e-05 -2.061599e-05 -2.9148734e-05 -8.769505e-05
000120 fa 79 bb b7 30 8d 17 3a 05 20 44 38 15 64 49 38
       -2.2348937e-05 0.00057812314 4.6759862e-05 4.8015343e-05
000130 26 a5 4e b7 17 f5 d6 b7 af 4e 73 38 a5 51 0a 39
       -1.2317008e-05 -2.5624917e-05 5.8008995e-05 0.0001319112
000140 b2 87 d7 38 e9 83 3c b9 b1 10 07 38 88 b2 6d 38
       0.00010277274 -0.00017978218 3.2202053e-05 5.6671473e-05
000150 a9 62 27 38 a6 02 a5 b8 8d a5 35 b9 07 a2 82 b8
       3.9907787e-05 -7.8683064e-05 -0.00017323178 -6.229063e-05
000160 1a 74 1f 38 3a 86 db b7 03 e0 a6 b8 f7 6b 8c 38
       3.8016682e-05 -2.6169339e-05 -7.957222e-05 6.69583e-05
000170 ba 8e b0 b8 33 66 ff b8 96 9d b8 37 e4 e3 c1 38
       -8.418919e-05 -0.000121783836 2.2007891e-05 9.245405e-05
000180 22 9d 74 b8 12 91 8e b9 2d 3f af 38 07 b9 76 37
       -5.8320475e-05 -0.00027192436 8.356418e-05 1.4705823e-05
000190 aa 78 b6 38 d2 61 27 b9 20 d8 17 39 cc 2b db b9
       8.700912e-05 -0.00015962802 0.00014480995 -0.00041803566
0001a0 dd 48 9f b9 72 4b 77 b8 05 46 53 39 65 25 4e b8
       -0.0003038113 -5.8959653e-05 0.00020148612 -4.9149054e-05
0001b0 7d df ed b7 1e ba ca b8 45 1c 2d 39 58 96 c7 38
       -2.8356671e-05 -9.6667776e-05 0.00016509097 9.517063e-05
0001c0 2f 9b 5f 38 45 98 7a b9 9f 22 05 b8 86 3a c6 38
       5.331187e-05 -0.00023898583 -3.1741914e-05 9.4522766e-05
0001d0 98 62 c0 b8 72 d2 24 b8 6f c5 4e b8 15 cf 63 38
       -9.173638e-05 -3.929664e-05 -4.92981e-05 5.4313878e-05
0001e0 8c 18 d5 38 79 b1 04 b9 93 db 08 39 d8 88 32 b9
       0.00010161204 -0.00012654615 0.00013051768 -0.00017026381
0001f0 ab e8 1a b9 33 7b 83 39 66 52 1e 39 60 3a f2 b8
       -0.0001477326 0.00025078058 0.0001509875 -0.000115503324
