dlpg/23/weights/dlpg_model_weights_150.pth (torch, 313083 bytes, 14 tensors)

cvae_parameters.dec_00_lin_b f4 [128]
-0.15895891 -0.07439297 -0.05981676 -0.08376866 -0.2002968 -0.09686425 -0.1569601 -0.09097888
0.1870356 0.097760946 -0.10287741 0.06988767 -0.15574175 -0.18186472 -0.11731758 -0.19083133
-0.13338692 -0.18219869 -0.1449743 -0.21311446 0.08784913 -0.066276334 0.078674644 -0.13873228
-0.22544453 -0.20797476 -0.21009254 -0.080980726 -0.0423435 -0.075537704 -0.116885595 0.078257345
-0.102518104 -0.15923348 -0.15057078 -0.16159567 -0.16979621 -0.1658699 0.10600187 0.04196729
-0.1030101 -0.21010211 -0.12900458 0.11016397 -0.12477122 -0.13187519 -0.09427354 -0.097755805
-0.078481175 -0.06540845 0.09797663 -0.116521 -0.19970214 -0.15520996 -0.0722188 -0.17425454
-0.16701868 -0.094153486 -0.09370318 -0.23320022 0.12454146 -0.14123297 -0.15311772 -0.18301317
-0.14693968 -0.09143363 0.117636085 -0.10811224 0.1782804 -0.1011568 -0.063414894 -0.049231023
-0.06613985 -0.010663236 -0.020745438 -0.018917404 -0.16507891 -0.108159326 -0.21993801 -0.054556176
-0.13645718 -0.09644877 -0.043743297 -0.08555218 -0.16678701 -0.07780495 -0.13368715 -0.0800573
-0.16138853 -0.061397843 -0.09466166 -0.26323077 -0.17425351 -0.07754391 -0.05719146 -0.1777002
-0.18889329 -0.11813765 -0.1298002 -0.1099803 -0.18000397 0.11480474 -0.08825772 -0.20204176
-0.16358896 0.11924636 0.08169928 0.004034614 -0.10923576 -0.14220385 -0.0144589385 -0.14433014
-0.114168465 -0.12684678 -0.124156624 -0.08042338 -0.089636765 -0.16243282 0.10067124 -0.23417069
-0.074778244 -0.1306829 -0.12851967 -0.18085876 -0.16973189 -0.08047845 -0.08279235 -0.10700707
00000000: 20c6 22be 575b 98bd 6b02 75bd e78e abbd
00000010: 9b1a 4dbe c460 c6bd 26ba 20be 2353 babd
00000020: 4386 3f3e e436 c83d 64b1 d2bd 4421 8f3d
00000030: c47a 1fbe bf3a 3abe 3344 f0bd 4a69 43be
00000040: 9596 08be 4b92 3abe 2574 14be ad3a 5abe
00000050: 3fea b33d e3bb 87bd 2c20 a13d d60f 0ebe
00000060: eeda 66be 56f7 54be 8022 57be 39d9 a5bd
00000070: 6170 2dbd 83b3 9abd b761 efbd 6345 a03d
00000080: 03f5 d1bd 1a0e 23be 3a2f 1abe 5679 25be
00000090: 0fdf 2dbe cdd9 29be 8217 d93d e5e5 2b3d
000000a0: f6f6 d2bd 0225 57be c719 04be a69d e13d
000000b0: 0e88 ffbd 4a0a 07be 7c12 c1bd 3234 c8bd
000000c0: bdba a0bd def4 85bd f9a7 c83d 90a2 eebd
000000d0: b87e 4cbe 5cef 1ebe 73e7 93bd c86f 32be
000000e0: f206 2bbe 8bd3 c0bd 74e7 bfbd 0acc 6ebe
000000f0: 980f ff3d 609f 10be e4ca 1cbe ce67 3bbe
00000100: 5b77 16be 8e41 bbbd 30eb f03d f369 ddbd
00000110: 238f 363e 4c2b cfbd abdf 81bd 78a6 49bd
00000120: 5474 87bd dab4 2ebc 56f2 a9bc acf8 9abc
00000130: 720a 29be a382 ddbd 6e37 61be 4c76 5fbd
00000140: 6ebb 0bbe ef86 c5bd 2c2c 33bd fb35 afbd
00000150: 37ca 2abe 3458 9fbd 49e5 08be 15f5 a3bd
00000160: 0943 25be 4e7c 7bbd f9dd c1bd 2fc6 86be
00000170: 836f 32be 57cf 9ebd 9841 6abd 0bf7 35be
00000180: 3e6d 41be 27f2 f1bd 58ea 04be 5a3d e1bd
00000190: f652 38be bf1e eb3d 77c0 b4bd 09e4 4ebe
000001a0: dd83 27be 7037 f43d f451 a73d cc34 843b
000001b0: 00b7 dfbd e39d 11be 2fe5 6cbc 48cb 13be
000001c0: 28d1 e9bd 1fe4 01be d445 febd 03b5 a4bd
000001d0: 7b93 b7bd ca54 26be b92c ce3d 71ca 6fbe
000001e0: 5625 99bd bdd1 05be a99a 03be 0a33 39be
000001f0: 32ce 2dbe e3d1 a4bd 098f a9bd 8626 dbbd

cvae_parameters.dec_00_lin_w f4 [128, 35]
-0.026640452 -0.011585947 0.06076502 0.019269472 0.037292685 -0.0197537 -0.021228343 -0.04745718
-0.0034502144 0.010211055 -0.0057889842 0.012528874 -0.021534525 0.050248798 -0.021940406 0.003850972
-0.044495422 -0.045844633 -0.03523152 -0.010137427 0.0037745952 0.035224143 0.025661072 -0.0071662916
-0.0095083825 0.015715031 0.0030972587 -0.015075998 -0.004265136 0.0050801584 -0.02704554 -0.0064874683
0.0024212277 -0.1468803 0.0038817045 0.08626885 -0.031958397 0.113374665 -0.065637104 0.1303893
0.051775087 0.02322392 0.10253521 0.0721852 -0.107419185 0.11206313 -0.0076350104 -0.063840814
0.10217159 -0.10739551 -0.0028305913 -0.043906543 -0.049738973 0.06562591 0.025833756 0.09397056
-0.08058311 0.20503248 -0.05955641 -0.022735951 0.046102583 -0.1062245 0.017517118 0.056070175
0.10008543 -0.059592545 0.0074742856 0.014796896 -0.07459576 -0.005321757 -0.017273957 -0.04238007
0.019551154 0.010543304 -0.019264765 -0.006355237 0.02112245 -0.040910363 -0.07838009 0.10234725
0.01538961 0.004126093 -0.012340959 0.026053362 0.017909398 0.02441523 -1.6107075e-05 0.034745265
-0.031646177 -0.047745146 -0.040098913 -0.046527922 -0.08369846 -0.047854308 0.059616372 0.06978747
-0.01277638 -0.072325505 0.06320732 0.017183324 -0.09886152 0.011466704 0.026339151 -0.046938445
-0.005241731 0.002044978 0.0014549599 -0.009742506 0.014080269 -0.002762231 -0.0011254593 0.010590229
0.0026031393 0.007226294 -0.007771692 -0.017612705 -0.0029175961 0.013223315 0.0063442336 -0.0036375117
-0.004190791 0.0017737731 -0.00077595055 0.0004146196 0.0015646706 0.009262728 0.0032111125 0.012074592
0.005433923 -0.0039588236 -0.00316589 0.0039237547 -0.0044462127 0.00040214538 0.015944315 0.0033819098
-0.0099986205 -0.004030642 -0.08102068 -0.003163791 -0.07285723 0.03555927 0.015799254 -0.016926074
-0.010890583 -0.017603632 -0.05217613 0.044853 0.004202994 -0.005739124 -0.010457209 0.0009544699
0.02452272 -0.00036520322 -0.01930093 -0.033442277 0.017825274 -0.013688424 0.033938132 -0.0044454276
-0.00035379312 0.07827087 0.013530326 -0.012377553 0.011696939 -0.0084998505 0.03617613 -0.012985376
-0.03533462 -0.014163265 0.032769807 0.025060533 -0.004464576 -0.19981186 -0.0010892828 0.02863498
0.0067037474 -0.023130637 -0.0042184703 -0.022073185 -0.046365265 0.0012948371 0.027722774 -0.010911674
-0.038299523 0.013539051 0.017439995 0.025913246 -0.004478797 -0.017834665 -0.05113021 -0.0056804586
0.03956204 0.019203173 -0.07385837 0.0337936 -0.0006788997 0.03773875 -0.017135102 0.058792688
0.0034386418 0.017985472 0.04286061 0.036059927 0.017391115 0.019735852 -0.030422708 -0.010147929
-0.080262415 0.010107289 -0.023258694 0.038333043 0.04713732 -0.0414889 0.0687533 -0.044345602
0.009586675 0.041212432 0.0067061684 -0.03223828 0.04624607 0.043531545 -0.07512105 -0.03018543
-0.019361882 -0.013513411 -0.017267393 -0.047247965 0.010724197 -0.007264492 -0.0072285538 0.032451894
-0.014595441 -0.010093986 -0.026280483 -0.012430299 0.012555298 -0.030095195 -0.078321226 0.02211368
0.0200939 0.05607168 0.0032742866 -0.16661933 -0.007932676 0.019015979 0.008124491 -0.018289892
-0.00060487457 0.017824585 0.012920766 0.006377057 -0.036637064 0.013349862 -0.0057752184 0.031935792
00000000: 143d dabc fcd2 3dbc bee4 783d 03db 9d3c
00000010: 37c0 183d 83d2 a1bc 10e7 adbc 7662 42bd
00000020: fe1c 62bb 454c 273c 85b1 bdbb e845 4d3c
00000030: 2c69 b0bc afd1 4d3d 5ebc b3bc 9760 7c3b
00000040: d540 36bd 95c7 3bbd ed4e 10bd 7317 26bc
00000050: 335f 773b 3147 103d 2b37 d23c 36d3 eabb
00000060: 0cc9 1bbc cfbc 803c 61fb 4a3b 5201 77bc
00000070: 8ec2 8bbb 7577 a63b 9c8e ddbc d494 d4bb
00000080: 76ad 1e3b ca67 16be 3264 7e3b b9ad b03d
00000090: cfe6 02bd fa30 e83d bf6c 86bd c684 053e
000000a0: 1d12 543d 1740 be3c fbfd d13d d6d5 933d
000000b0: 97fe dbbd 5b81 e53d 1c2f fabb f9be 82bd
000000c0: 573f d13d 2df2 dbbd 7181 39bb 59d7 33bd
000000d0: 18bb 4bbd e166 863d 50a1 d33c a373 c03d
000000e0: c208 a5bd 09f4 513e 6cf1 73bd bf40 babc
000000f0: 10d6 3c3d 3b8c d9bd 0f80 8f3c d7a9 653d
00000100: 97f9 cc3d 5017 74bd daea f43b ae6e 723c
00000110: a9c5 98bd 2262 aebb 1d82 8dbc b996 2dbd
00000120: be29 a03c d2bd 2c3c 24d1 9dbc 983f d0bb
00000130: fd08 ad3c a091 27bd be85 a0bd 6f9b d13d
00000140: b424 7c3c 2d34 873b bc31 4abc dc6d d53c
00000150: bbb6 923c 7302 c83c ae1d 87b7 0d51 0e3d
00000160: 6c9f 01bd 6a90 43bd c23e 24bd 1094 3ebd
00000170: 196a abbd e102 44bd 4c30 743d bcec 8e3d
00000180: 0654 51bc 651f 94bd d772 813d 0bc4 8c3c
00000190: e977 cabd d8de 3b3c 34c5 d73c 8742 40bd
000001a0: d4c2 abbb 0a05 063b 5ab4 be3a 089f 1fbc
000001b0: eeb0 663c 8c06 35bb 2684 93ba a482 2d3c
000001c0: 6e99 2a3b 8cca ec3b ada9 febb 8548 90bc
000001d0: 2435 3fbb 9aa6 583c 4ae3 cf3b 5263 6ebb
000001e0: e752 89bb f37d e83a 2969 4bba 4d61 d939
000001f0: a215 cd3a b2c2 173c 8771 523b 82d4 453c
00000200: 0d0f b23b 05b9 81bb d27a 4fbb d792 803b
00000210: 89b1 91bb 0ad7 d239 a79d 823c 08a3 5d3b
00000220: 41d1 23bc 7a13 84bb 2cee a5bd 9b57 4fbb
00000230: 2c36 95bd 99a6 113d 706d 813c 8da8 8abc
00000240: 6a6e 32bc 7e35 90bc a3b6 55bd c8b7 373d
00000250: 45b9 893b 430f bcbb b754 2bbc 6435 7a3a
00000260: dfe3 c83c bf78 bfb9 fc1c 9ebc c5fa 08bd
00000270: 4f06 923c 6945 60bc b602 0b3d f3aa 91bb
00000280: 4f7d b9b9 7a4c a03d 4dae 5d3c 38cb 4abc
00000290: 85a4 3f3c f542 0bbc 6c2d 143d 9dc0 54bc
000002a0: 09bb 10bd 0a0d 68bc a239 063d bf4b cd3c
000002b0: 944b 92bb 7b9b 4cbe 44c6 8eba e893 ea3c
000002c0: 1cab db3b 767c bdbc 183b 8abb d3d2 b4bc
000002d0: 81e9 3dbd 86b7 a93a df1a e33c e1c6 32bc
000002e0: f6df 1cbd e5d2 5d3c 52de 8e3c 0448 d43c
000002f0: dfc2 92bb 011a 92bc e96d 51bd 2423 babb
00000300: ce0b 223d f94f 9d3c 0f43 97bd 286b 0a3d
00000310: 30f8 31ba f393 1a3d ea5e 8cbc 9ad0 703d
00000320: d65a 613b 4556 933c 9b8e 2f3d 93b3 133d
00000330: d077 8e3c 15ad a13c 0b39 f9bc 8043 26bc
00000340: 9f60 a4bd 0b99 253c 0489 bebc 1c03 1d3d
00000350: 1013 413d 44f0 29bd 88ce 8c3d bca3 35bd
00000360: 6e11 1d3c 5ece 283d 6bbf db3b 490c 04bd
00000370: 856c 3d3d 224e 323d 11d9 99bd 6f47 f7bc
00000380: cf9c 9ebc 5b67 5dbc 5974 8dbc 1587 41bd
00000390: 8bb4 2f3c fa0a eebb 81dd ecbb 47ec 043d
000003a0: b721 6fbc 3f61 25bc 2b4a d7bc 74a8 4bbc
000003b0: bdb4 4d3c 338a f6bc e166 a0bd c027 b53c
000003c0: f69b a43c 6bab 653d 6a95 563b 429e 2abe
000003d0: 0ef8 01bc 66c7 9b3c 961c 053c afd4 95bc
000003e0: 7290 1eba dd04 923c 9fb1 533c a2f6 d03b
000003f0: bf10 16bd 61b9 5a3c 0b3e bdbb 1bcf 023d

cvae_parameters.dec_01_lin_b f4 [128]
0.06099856 0.05526289 -0.02603846 0.02730793 0.006551862 -0.007011679 -0.0023585104 0.052534387
0.049958397 0.03994812 0.064184755 -0.0011099386 0.002185931 0.07272935 -0.039310116 0.073289834
0.056686625 -0.0031115666 -0.15636918 3.5898087e-05 0.035523165 -0.0066789147 0.002806737 0.0061885407
-0.018522633 -0.11261915 0.053792354 -0.079985015 0.17624478 0.01948074 0.00010227911 -0.0053007775
0.0036302488 -0.006400568 -0.0008535299 0.24088085 -0.007431374 -0.0017845267 -0.18718415 0.0016474505
-0.00095296005 -0.19281602 -0.018201573 -0.119820796 -0.00038798997 0.01624801 -0.0027328695 -0.033293262
0.0630947 0.052201733 0.06164974 0.036074437 -0.0028430528 0.049184 0.08890561 -0.042477164
0.034534678 0.2053908 -0.0016221314 -0.09994961 -0.0046850466 0.010722364 -0.15547381 0.0582625
-0.0012909363 0.078858435 -0.00055163755 0.057102956 0.065479 0.009052359 0.057246856 0.024849476
0.0565912 0.44734892 0.042727817 0.0035463243 0.11444038 0.052781127 0.051661175 -0.13474283
0.06823883 0.0690996 0.0074968557 0.36088243 0.0615438 0.060433183 0.07164215 -0.021667462
0.07591237 0.003727016 0.06304333 0.049560115 0.061725557 0.040226914 0.060859818 0.018730976
0.0071617505 0.008905568 0.022857882 -0.00228851 -0.055403385 0.009207831 -0.09510532 0.013498446
-0.0039731883 -0.034762204 0.027135098 -0.08134049 0.040353615 -0.12510642 0.061265077 0.00025359765
-0.0038246892 0.011659599 -0.022066649 0.018748099 0.0024577172 -0.0021789388 0.046854764 0.05727101
0.06304252 0.00982492 0.05281791 0.20935236 0.027660986 0.052039552 -0.11759637 0.06288415
00000000: a0d9 793d 575b 623d 9c4e d5bc e1b4 df3c
00000010: 01b1 d63b 3ac2 e5bb 3d91 1abb 4c2e 573d
00000020: 2da1 4c3d a4a0 233d 4c73 833d 5c7b 91ba
00000030: d641 0f3b 20f3 943d a503 21bd fb18 963d
00000040: 3c30 683d 6deb 4bbb 3e1f 20be 4791 1638
00000050: bd80 113d ccda dabb 3cf1 373b 3ec9 ca3b
00000060: c7bc 97bc dea4 e6bd 5f55 5c3d 2fcf a3bd
00000070: 8379 343e 1396 9f3c ae7e d638 25b2 adbb
00000080: 78e9 6d3b dbbb d1bb 6cbf 5fba 78a9 763e
00000090: e282 f3bb c8e6 e9ba 34ad 3fbe 44ef d73a
000000a0: 11d0 79ba 9071 45be 771b 95bc 9b64 f5bd
000000b0: 226b cbb9 8c1a 853c f119 33bb 845e 08bd
000000c0: cb37 813d 7cd1 553d 7084 7c3d cac2 133d
000000d0: 8352 3abb 2975 493d 2514 b63d 89fc 2dbd
000000e0: 3c74 0d3d f751 523e b39d d4ba 62b2 ccbd
000000f0: 0585 99bb dbac 2f3c 8734 1fbe a9a4 6e3d
00000100: a234 a9ba 8880 a13d c59b 10ba cae4 693d
00000110: db19 863d 5850 143c ae7b 6a3d 2191 cb3c
00000120: 2dcc 673d eb0a e53e 5d03 2f3d 7369 683b
00000130: b85f ea3d 0631 583d ab9a 533d 06fa 09be
00000140: cdc0 8b3d 1784 8d3d 2fa8 f53b 95c5 b83e
00000150: 5a15 7c3d c988 773d 1fb9 923d f67f b1bc
00000160: f277 9b3d f440 743b dd1c 813d 8cff 4a3d
00000170: f0d3 7c3d fac4 243d 2548 793d b471 993c
00000180: 1ead ea3b a9e8 113c 7440 bb3c d4fa 15bb
00000190: a9ee 62bd 71dc 163c 94c6 c2bd 9628 5d3c
000001a0: 8531 82bb d062 0ebd 6d4a de3c d895 a6bd
000001b0: d549 253d e61b 00be 17f1 7a3d 4df5 8439
000001c0: a3a7 7abb e707 3f3c 1ec5 b4bc 9d95 993c
000001d0: a711 213b 87cc 0ebb c8ea 3f3d 0295 6a3d
000001e0: 701c 813d b4f8 203c 9857 583d 7760 563e
000001f0: 4b99 e23c 6d27 553d 5ed6 f0bd 68c9 803d

cvae_parameters.dec_01_lin_w f4 [128, 128]
-0.024386711 0.0019325794 -0.04761657 -0.028391236 -0.009287474 -0.036530674 -0.01879712 -0.033558648
-0.012326748 -0.022117011 -0.056498587 -0.022385735 -0.01957107 -0.025618756 -0.028669806 0.0066052894
-0.013899238 -0.013048599 -0.00032309623 -0.0059120297 -0.040533658 -0.039971113 -0.045639653 -0.008740322
0.01863252 -0.017489087 -0.02126511 -0.05459702 -0.061281934 -0.024325792 -0.03308534 -0.025323672
-0.06514136 -0.0084457975 -0.02901169 -0.028206857 -0.031483963 -0.04626586 -0.04259504 -0.02652782
0.007858263 -0.030668024 -0.03143947 -0.012064864 -0.039354436 -0.039345372 -0.0056236475 -0.02989845
-0.018125119 -0.036763538 -0.044661596 -0.008892106 -0.025395095 -0.004315776 0.0139788035 -0.022441301
0.00085405225 -0.010356826 -0.061503943 0.028223278 -0.05044168 -0.02697895 -0.021510042 -0.002638765
-0.038098976 -0.016780479 -0.012781234 -0.02307627 -0.04395072 -0.044118892 -0.03010321 -0.037661966
-0.009179053 -0.0034903632 -0.033879694 -0.03917197 -0.03342559 -0.024326555 -0.004321393 -0.025999343
-0.046546284 -0.014910511 -0.036816478 -0.025450455 -0.018527988 -0.007733146 -0.034083664 -0.021689372
-0.028314771 -0.013790326 -0.010360722 -0.016288666 -0.0039724368 -0.031490874 -0.017534675 -0.015477081
-0.024908658 -0.019220548 -0.012305982 -0.041005604 -0.014106463 -0.023510126 -0.03176726 -0.0162254
-0.0039295554 -0.0069310325 0.0037401873 -0.031836692 -0.0312514 -0.031933956 -0.025472265 -0.0149432765
-0.03553721 -0.018937226 -0.03383974 -0.052137587 -0.022115171 -0.012819134 -0.038699683 -0.022147013
-0.0125820115 -0.013551106 -0.03519237 -0.025933268 -0.0052063405 -0.04128799 -0.0028542902 -0.00393602
-0.023303708 -0.0011851622 -0.03288112 -0.010762031 -0.01763942 -0.049173616 -0.04157385 -0.044986356
-0.00706018 -0.0028036737 -0.019836565 -0.023731545 -0.017716026 -0.022675987 -0.047721483 0.0022669176
-0.016144276 -0.0019619546 -0.014383265 -0.025756303 -0.0037960918 -0.03731373 -0.03458061 -0.0028051443
0.032474224 -0.01776783 -0.029529948 -0.031231614 -0.04485117 -0.027387962 -0.048465054 -0.02833601
-0.034365 -0.030034842 -0.015182635 -0.02924434 -0.030825948 -0.053594105 -0.034845382 -0.022721568
-0.023790894 -0.020478787 -0.012603733 -0.004470704 -0.038987596 -0.043659158 -0.024253128 -0.018665636
-0.033866838 -0.04081893 -0.040496226 -0.024516571 0.0065753236 -0.010473981 0.0019782544 -0.0076613757
-0.015798654 -0.01165347 -0.03644388 0.051861666 -0.033129767 -0.015532474 -0.0035331515 0.010580651
-0.03357402 -0.01935896 -2.0736408e-05 -0.009206118 -0.038027488 -0.026174253 -0.049329977 -0.025535056
-0.022917995 0.004160697 -0.014464271 -0.03595188 -0.031096667 -0.008615522 -0.005929443 -0.047224447
-0.0309034 -0.015964083 -0.01743096 -0.025930297 -0.012888851 -0.023474276 -0.021778576 -0.026160503
-0.008488673 -0.023351897 -0.026375577 -0.00088243483 -0.0053642765 -0.031479858 -0.015009216 -0.022197932
-0.0026277374 -0.041399755 -0.013046258 -0.037753955 -0.0062570754 -0.033247735 -0.029091313 -0.036033772
-0.007756574 -0.023428248 -0.023575934 -0.0131626725 -0.020602174 -0.027844032 -0.011639006 -0.013565217
-0.026201991 -0.0046161297 -0.038865555 -0.057497915 -0.022228282 -0.017840004 -0.032305047 0.0033679642
-0.023758223 -0.020771997 -0.033613175 -0.031973768 -0.014627695 -0.045772918 -0.017907083 -0.012597627
00000000: a4c6 c7bc 9b4e fd3a 9809 43bd bd94 e8bc
00000010: 7d2a 18bc 30a1 15bd 6bfc 99bc cb74 09bd
00000020: 21f6 49bc bc2e b5bc 106b 67bd 4a62 b7bc
00000030: 8253 a0bc 6dde d1bc f1dc eabc 2f71 d83b
00000040: a1b9 63bc cac9 55bc 3e65 a9b9 b3b9 c1bb
00000050: 9f06 26bd c0b8 23bd a5f0 3abd 9133 0fbc
00000060: 3aa3 983c 4645 8fbc 2b34 aebc 20a1 5fbd
00000070: c402 7bbd e246 c7bc 7e84 07bd 9773 cfbc
00000080: d568 85bd 3e60 0abc eca9 edbc 1112 e7bc
00000090: 54f5 00bd 4581 3dbd 2378 2ebd df50 d9bc
000000a0: f2bf 003c 823b fbbc acc6 00bd b5ab 45bc
000000b0: 1e32 21bd 9d28 21bd 9346 b8bb 98ed f4bc
000000c0: 217b 94bc 5d95 16bd 14ef 36bd 32b0 11bc
000000d0: 6009 d0bc 5a6b 8dbb 5a07 653c d2d6 b7bc
000000e0: 7ae2 5f3a adaf 29bc 8feb 7bbd 8134 e73c
000000f0: ef9b 4ebd f502 ddbc d435 b0bc 21ef 2cbb
00000100: ac0d 1cbd 3777 89bc 6268 51bc 720a bdbc
00000110: ac05 34bd 03b6 34bd 029b f6bc 6f43 1abd
00000120: bd63 16bc 94be 64bb 6fc5 0abd ca72 20bd
00000130: 45e9 08bd 7c48 c7bc 799a 8dbb 93fc d4bc
00000140: 51a7 3ebd 374b 74bc e0cc 16bd 797d d0bc
00000150: 02c8 97bc 5566 fdbb 509b 0bbd e9ad b1bc
00000160: 61f4 e7bc d2f0 61bc 05c0 29bc cf6f 85bc
00000170: 372b 82bb 93fc 00bd e1a4 8fbc 9593 7dbc
00000180: 3e0d ccbc 6974 9dbc 089f 49bc 7ef5 27bd
00000190: cb1e 67bc 4f98 c0bc 631e 02bd 21eb 84bc
000001a0: 80c3 80bb b71d e3bb ee1d 753b 3167 02bd
000001b0: 7801 00bd 2ecd 02bd 36ab d0bc a5d4 74bc
000001c0: 778f 11bd 3e22 9bbc 8a9b 0abd 398e 55bd
000001d0: e02a b5bc 5807 52bc 8f83 1ebd a76d b5bc
000001e0: c824 4ebc 7505 5ebc e025 10bd 0172 d4bc
000001f0: f399 aabb 981d 29bd 0b0f 3bbb bbf9 80bb
00000200: 6be7 bebc 7257 9bba 5aae 06bd 3b53 30bc
00000210: 8c80 90bc 466a 49bd 5749 2abd 9d43 38bd
00000220: 1559 e7bb d7bd 37bb 4b80 a2bc a868 c2bc
00000230: 3321 91bc fec2 b9bc 9a77 43bd 9190 143b
00000240: 0041 84bc 2394 00bb c9a7 6bbc e2fe d2bc
00000250: dac7 78bb 48d6 18bd 66a4 0dbd 83d6 37bb
00000260: b103 053d d78d 91bc cae8 f1bc 71d9 ffbc
00000270: dcb5 37bd b85c e0bc 4b83 46bd ec20 e8bc
00000280: 50c2 0cbd a10b f6bc 96c0 78bc d391 efbc
00000290: b386 fcbc 7e85 5bbd 08ba 0ebd 9522 babc
000002a0: 1fe5 c2bc 21c3 a7bc e37f 4ebc fc7e 92bb
000002b0: 75b1 1fbd f2d3 32bd 7fae c6bc ade8 98bc
000002c0: f4b7 0abd c031 27bd 5fdf 25bd fad6 c8bc
000002d0: d075 d73b 0f9b 2bbc 9aa5 013b 470c fbbb
000002e0: 2e6c 81bc 32ee 3ebc 2e46 15bd e66c 543d
000002f0: 14b3 07bd eb7b 7ebc 728c 67bb 785a 2d3c
00000300: e984 09bd af96 9ebc 19f3 adb7 42d5 16bc
00000310: b6c2 1bbd 636b d6bc 3b0e 4abd e52e d1bc
00000320: 85be bbbc 7556 883b 8dfb 6cbc 4742 13bd
00000330: 70be febc 1e28 0dbc c64b c2bb 6c6e 41bd
00000340: 2129 fdbc 1cc7 82bc 5fcb 8ebc c66b d4bc
00000350: c22b 53bc 204d c0bc fc68 b2bc 8d4e d6bc
00000360: 1314 0bbc 7a4c bfbc 9811 d8bc 3353 67ba
00000370: d0c6 afbb 06f1 00bd 37e9 75bc 70d8 b5bc
00000380: 1e36 2cbb ca92 29bd f9bf 55bc e4a3 1abd
00000390: 2708 cdbb c72e 08bd e850 eebc 2698 13bd
000003a0: dc2a febb 99ec bfbc 5122 c1bc 40a8 57bc
000003b0: e4c5 a8bc 2b19 e4bc 88b1 3ebc a540 5ebc
000003c0: 8fa5 d6bc e742 97bb 7d31 1fbd ef82 6bbd
000003d0: 1618 b6bc 3325 92bc 4c52 04bd 10b9 5c3b
000003e0: 9ba0 c2bc 092a aabc f8ad 09bd edf6 02bd
000003f0: 00a9 6fbc 627c 3bbd e0b1 92bc 4766 4ebc

cvae_parameters.enc_00_lin_b f4 [128]
-0.16069834 0.16693242 0.038728386 -0.05166076 0.041211434 -0.11052589 -0.12102101 0.12587246
-0.09958174 -0.13576148 -0.0028613727 -0.055225004 -0.09096737 -0.14663321 -0.04160452 0.02705411
-0.0009906142 -0.2286762 -0.13852742 -0.11600768 -0.16057831 -0.2141851 -0.13594604 -0.1581428
-0.094616555 0.04563532 -0.12784791 -0.21118261 -0.09503819 -0.22160572 -0.19468647 0.08739905
-0.10688513 -0.13988462 -0.11326478 0.066044725 -0.0018337031 -0.16274521 -0.25867704 -0.08633504
0.037489068 -0.13776904 -0.039814923 -0.08717987 -0.16611952 -0.1427213 -0.1677972 -0.23282723
-0.17065613 -0.1632399 -0.21125656 0.038299557 -0.10708176 -0.1489174 -0.19663398 -0.16285218
-0.10335815 0.017580543 -0.021711936 -0.072974056 -0.038100567 -0.187976 -0.15656099 -0.023227423
0.07264914 -0.23463622 -0.2365254 -0.1432914 -0.21119858 -0.100550935 -0.028686311 -0.06374648
-0.14677155 -0.19375567 -0.052849922 -0.08791631 -0.20127645 -0.16203089 0.03606597 -0.21060485
-0.19407803 0.09582589 -0.18203701 -0.14643392 -0.12473813 -0.16117917 -0.20043756 -0.09246303
-0.15588656 0.027411997 -0.20670825 -0.1437555 -0.017459892 -0.19072461 0.19843644 -0.22882843
0.14791033 -0.16211332 -0.21727985 -0.03535813 -0.13763398 -0.1451715 -0.12985761 -0.059170753
-0.19294466 -0.12642533 -0.18776283 -0.12025717 -0.10377705 -0.030373575 -0.11594726 -0.13973717
0.08897507 -0.14537606 0.021223688 -0.020437872 -0.224411 -0.11771093 -0.02696531 -0.05522717
-0.13608274 -0.17730503 -0.050909378 -0.1437083 -0.17768505 -0.15880302 -0.19679214 -0.05505198
00000000: 1b8e 24be 55f0 2a3e a8a1 1e3d 3c9a 53bd
00000010: 52cd 283d 665b e2bd ddd9 f7bd b6e4 003e
00000020: 83f1 cbbd 0f05 0bbe de85 3bbb 9d33 62bd
00000030: 1a4d babd 0427 16be 8069 2abd 95a0 dd3c
00000040: 7fd7 81ba 182a 6abe 22da 0dbe 6f95 edbd
00000050: a46e 24be 5753 5bbe 7035 0bbe 30f0 21be
00000060: 53c6 c1bd 1aec 3a3d 90ea 02be 4140 58be
00000070: 62a3 c2bd 9cec 62be e45b 47be 46fe b23d
00000080: 97e6 dabd ea3d 0fbe 5df7 e7bd 7542 873d
00000090: de58 f0ba aea6 26be 5171 84be 6dd0 b0bd
000000a0: 238e 193d 5413 0dbe f914 23bd 5c8b b2bd
000000b0: 3c1b 2abe 8825 12be 07d3 2bbe 436a 6ebe
000000c0: 7bc0 2ebe 5c28 27be a453 58be ffdf 1c3d
000000d0: af4d dbbd ce7d 18be 6b5a 49be b9c2 26be
000000e0: 70ad d3bd 1205 903c 3bdd b1bc 6c73 95bd
000000f0: 570f 1cbd c87c 40be 8651 20be 7047 bebc
00000100: 13c9 943d 7a44 70be b733 72be fbba 12be
00000110: 7144 58be a6ed cdbd 8eff eabc 848d 82bd
00000120: 484b 16be e367 46be 2979 58bd 770d b4bd
00000130: 6a1b 4ebe 6deb 25be e9b9 133d cca8 57be
00000140: 64bc 46be 5d40 c43d e967 3abe c6f2 15be
00000150: b476 ffbd 270c 25be 813f 4dbe 425d bdbd
00000160: baa0 1fbe 208f e03c 54ab 53be a434 13be
00000170: 0c08 8fbc 504d 43be ec32 4b3e 0052 6abe
00000180: ce75 173e 0901 26be 9c7e 5ebe b0d3 10bd
00000190: ecef 0cbe d6a7 14be 65f9 04be 085d 72bd
000001a0: 4993 45be a475 01be e644 40be 6449 f6bd
000001b0: 1089 d4bd 01d2 f8bc c275 edbd 4317 0fbe
000001c0: 9038 b63d 76dd 14be 4ddd ad3c 536d a7bc
000001d0: ffcb 65be 6e12 f1bd 5be6 dcbc e335 62bd
000001e0: 4659 0bbe 738f 35be 5a86 50bd 4528 13be
000001f0: 12f3 35be 429d 22be e183 49be 2f7e 61bd

cvae_parameters.enc_00_lin_w f4 [128, 123]
-0.013906332 -0.06428637 0.0073089357 0.012843676 0.030006273 0.029607158 -0.039021503 -0.021129001
-0.0544035 0.032031525 0.04497042 0.0077977167 -0.030805167 0.035357695 -0.05218351 0.0082443645
0.01644439 -0.03826284 -0.006349783 -0.0429197 -0.0768838 -0.07727806 0.013600455 -0.039802223
-0.0306452 -0.06552281 -0.06649282 -0.08366336 -0.0009247766 -0.063427985 0.015661446 -0.06284346
-0.029329812 -0.005831158 -0.014964797 -0.024326382 -0.0021611114 0.0031122994 -0.041304987 -0.043660164
-0.01573859 0.0050884574 -0.06407653 0.025770808 -0.06778459 -0.027571155 -0.00012539084 -0.113021255
-0.07184187 0.007699076 0.008804081 0.020337323 0.04432172 -0.022712346 -0.046228524 -0.052280124
-0.023893187 0.023347102 0.039560493 0.12901859 -0.086112924 0.045297164 -0.034990005 0.03784045
0.0152909905 0.0063543087 -0.059150044 0.07505899 -0.04100839 0.030975673 0.031037092 0.081434034
-0.00031001627 -0.016879106 -0.017879032 -0.05940104 -0.01516053 0.037740283 0.023825467 0.048938356
-0.0070988345 -0.021402743 0.032854557 -0.08236188 0.07764611 0.05362758 0.016341247 0.0108708395
0.038582254 -0.048793692 0.013672028 -0.008055022 -0.008115052 -0.025705159 0.020959025 -0.037951168
0.033955894 -0.0845659 0.021211773 -0.036491185 0.005111577 -0.07846752 -0.006095502 -0.023735784
-0.035221525 -0.027633704 -0.029610645 -0.044773273 0.0064010625 0.0027391831 0.018325098 -0.033571534
-0.020816622 -0.008791648 3.5540717e-05 -0.05453033 0.022915864 0.022651939 0.005876267 0.023196962
-0.006226985 -0.16533391 0.019217823 0.060633346 0.075357094 0.10751008 0.008263429 0.01734898
-0.041689936 0.1287004 0.020881474 0.13892595 0.071823716 0.00020046036 0.04894433 0.100802906
-0.02436765 0.112426974 0.06467751 -0.07066809 0.021674188 0.044884577 0.03241898 0.07812936
-0.01838293 -0.008640952 -0.059159573 0.05079143 0.06827689 0.09760672 0.014767805 0.0917286
-0.12121367 -0.02311832 -0.02430915 0.10820196 0.007239614 0.10224292 -0.031242779 0.072025314
-0.11920866 0.05918832 -0.038250927 0.1061247 0.03842636 0.12525314 -0.06970338 0.057926465
-0.09286457 -0.035726897 0.045277636 0.08847563 0.012883358 0.04771459 0.0116662895 -0.07311963
-0.023951381 0.06847072 0.043434206 -0.06472856 0.040734943 0.03542301 -0.08191538 -0.03553711
-0.011371389 -0.048457377 0.037926625 -0.04202774 -0.084714696 -0.03943488 -0.0026286342 -0.0025936726
-0.033780936 -0.122274905 -0.0007078802 0.06829545 0.07062847 0.10463011 -0.034871988 -0.009416009
0.04684755 -0.013712555 0.012386275 0.07607843 0.012934478 0.059940215 -0.040864065 -0.04720951
-0.01760569 0.02949575 0.056255847 0.013971732 -0.08121212 -0.04836819 0.023312828 0.05291251
0.0037584733 -0.0471144 0.03341422 -0.04559606 0.088709235 0.119448185 -0.004501538 -0.035745453
0.0069186967 -0.004469578 0.014434349 0.06575209 0.039906554 0.039164312 -0.041789822 -0.0022757454
0.065476716 0.045573376 0.05799849 0.049471006 -0.078900576 0.07653572 0.08962022 0.079249024
-0.011474057 -0.004354927 -0.030286595 -0.010786033 0.18133144 -0.0011059418 -0.011339553 0.020325324
-0.094644584 0.075125635 -0.02182162 0.029465692 -0.006292636 0.06567041 0.06199319 0.040184304
00000000: 62d7 63bc 93a8 83bd cc7f ef3b 486e 523c
00000010: b7cf f53c b68a f23c 03d5 1fbd ba16 adbc
00000020: 34d6 5ebd 7d33 033d e732 383d fd83 ff3b
00000030: 1e5b fcbc 3bd3 103d 60be 55bd 5f13 073c
00000040: 63b6 863c 7fb9 1cbd d711 d0bb 91cc 2fbd
00000050: 4175 9dbd f643 9ebd 71d4 5e3c a807 23bd
00000060: a40b fbbc d330 86bd 632d 88bd b257 abbd
00000070: b56c 72ba 88e6 81bd 6f4c 803c 12b4 80bd
00000080: 1345 f0bc 4c13 bfbb e82e 75bc 1f48 c7bc
00000090: 6fa1 0dbb b8f7 4b3b 6b2f 29bd 00d5 32bd
000000a0: 37ee 80bc 13bd a63b 8e3a 83bd 4d1d d33c
000000b0: a6d2 8abd e7dc e1bc 597b 03b9 b077 e7bd
000000c0: d521 93bd 8848 fc3b fe3e 103c 759a a63c
000000d0: b18a 353d 3e0f babc 1f5a 3dbd af23 56bd
000000e0: a5bb c3bc 6c42 bf3c 2f0a 223d 731d 043e
000000f0: f95b b0bd 8589 393d ae51 0fbd 96fe 1a3d
00000100: 1087 7a3c ce37 d03b 5147 72bd 87b8 993d
00000110: 6af8 27bd b2c0 fd3c 8041 fe3c e3c6 a63d
00000120: ae89 a2b9 0d46 8abc 0c77 92bc 814e 73bd
00000130: df63 78bc 8e95 1a3d a02d c33c 9673 483d
00000140: 579d e8bb ce54 afbc 8092 063d 58ad a8bd
00000150: ec04 9f3d 98a8 5b3d 14de 853c 9b1b 323c
00000160: 6d08 1e3d e5db 47bd a400 603c 36f9 03bc
00000170: fff4 04bc a093 d2bc 43b2 ab3c af72 1bbd
00000180: 5615 0b3d e330 adbd 50c4 ad3c c877 15bd
00000190: 047f a73b 94b3 a0bd c7bc c7bb 8c71 c2bc
000001a0: 7244 10bd 1460 e2bc 0692 f2bc 2e64 37bd
000001b0: 01c0 d13b de83 333b 841e 963c 4e82 09bd
000001c0: 9f87 aabc d80a 10bc 8e11 1538 325b 5fbd
000001d0: 0dba bb3c 8f90 b93c b38d c03b 8e07 be3c
000001e0: bc0b ccbb 4b4d 29be b26e 9d3c ac5a 783d
000001f0: d254 9a3d 3f2e dc3d 5563 073c 731f 8e3c
00000200: 11c3 2abd 0aca 033e a00f ab3c 9b42 0e3e
00000210: 5018 933d ab32 5239 da79 483d c171 ce3d
00000220: aa9e c7bc 1d40 e63d a475 843d 6eba 90bd
00000230: 118e b13c e4d8 373d c4c9 043d 4902 a03d
00000240: cc97 96bc c892 0dbc 4f51 72bd ad0a 503d
00000250: c1d4 8b3d 08e6 c73d aaf4 713c 34dc bb3d
00000260: df3e f8bd a262 bdbc fc23 c7bc fd98 dd3d
00000270: 493a ed3b bc64 d13d dbf0 ffbc 0282 933d
00000280: ac23 f4bd 746f 723d 01ad 1cbd e857 d93d
00000290: f564 1d3d 5c42 003e a5c0 8ebd 4d44 6d3d
000002a0: c82f bebd 5e56 12bd 0b75 393d b632 b53d
000002b0: b814 533c 6070 433d f723 3f3c bfbf 95bd
000002c0: b035 c4bc 603a 8c3d 11e8 313d 6890 84bd
000002d0: afd9 263d b817 113d 40c3 a7bd 5c8f 11bd
000002e0: 104f 3abc 3e7b 46bd f358 1b3d 4825 2cbd
000002f0: e67e adbd 7886 21bd 2a45 2cbb 9bfa 29bb
00000300: e15d 0abd 446b fabd 0991 39ba 7cde 8b3d
00000310: a9a5 903d 5048 d63d eed5 0ebd 9b45 1abc
00000320: 37e3 3f3d a0aa 60bc ceef 4a3c 02cf 9b3d
00000330: 22eb 533c df83 753d 1461 27bd c25e 41bd
00000340: cf39 90bc 12a1 f13c 886c 663d b1e9 643c
00000350: 8a52 a6bd b91d 46bd 8bfa be3c caba 583d
00000360: b850 763b 07fb 40bd 59dd 083d efc2 3abd
00000370: 30ad b53d 40a1 f43d a381 93bb d369 12bd
00000380: 3cb6 e23b 8a75 92bb 0c7e 6c3c 08a9 863d
00000390: 0e75 233d c26a 203d ce2b 2bbd ac24 15bb
000003a0: a818 863d 26ab 3a3d d38f 6d3d 1ca2 4a3d
000003b0: a096 a1bd c2be 9c3d ce8a b73d 504d a23d
000003c0: affd 3bbc c7b3 8ebb 981b f8bc e7b7 30bc
000003d0: f3ae 393e 40f5 90ba 88c9 39bc 4b81 a63c
000003e0: 05d5 c1bd 78db 993d 41c3 b2bc 0962 f13c
000003f0: 7532 cebb 357e 863d 92ec 7d3d 4c98 243d

cvae_parameters.enc_01_lin_b f4 [128]
0.16133884 0.039306667 0.033802178 0.18262435 0.031949013 0.02326565 0.023024911 0.006499398
0.01879886 0.21741347 -0.009419784 0.041234244 -0.13841112 0.019152017 0.04685926 -0.03778239
-0.010188013 -0.053890914 0.050281677 0.021825185 0.042807646 0.02613823 -0.0012871819 0.03791898
-0.074917935 0.042617984 0.05883892 -0.012912688 0.035037477 0.03744937 0.045083936 0.050586607
0.034986906 0.03146327 -0.093239866 0.040043175 -0.0661784 -0.031112539 -0.030540925 0.04082979
-0.00019201708 0.047138043 0.041363556 -0.064244725 0.046375 0.03511367 -0.03333904 -0.04848347
-0.028674355 0.042884924 0.019142363 0.030309418 0.023701804 0.036775913 0.039806858 0.02324231
-0.061925042 0.013124188 0.007153095 -0.06437502 0.14048564 -0.048494305 0.036885384 0.004715948
0.036058005 -0.047772538 -0.06283828 0.010743414 0.028393943 -0.02738858 -0.029975267 0.055000428
-0.02278047 0.017833909 0.004727123 0.052659165 -0.040429823 -0.028453292 0.032079253 0.06482308
0.013496556 -0.01217179 0.032615364 0.050656505 -0.03091865 0.036093105 0.032792274 0.049655303
-0.08723991 0.032753993 0.058455527 -0.0037177263 0.015919404 -0.07630573 0.05740081 0.0054464857
0.03131078 0.11929717 -0.0071230973 0.04011954 0.011243266 -0.027877817 -0.08592147 0.019344047
-0.042972032 -0.016352478 -0.041639645 0.04972008 -0.006235539 0.012846313 0.02367052 -0.063768506
-0.01237143 0.03117243 -0.03645474 0.021041438 -0.04264579 0.005892688 0.036384776 0.04632328
-0.029409762 0.021917252 0.027263643 -0.013616741 0.037404146 0.047583085 0.047218233 -0.07204942
00000000: 0236 253e 0700 213d 2774 0a3d e101 3b3e
00000010: f8dc 023d 9b97 be3c bd9e bc3c e7f8 d43b
00000020: 1100 9a3c a3a1 5e3e 7055 1abc 3de5 283d
00000030: a5bb 0dbe b1e4 9c3c 7fef 3f3d b5c1 1abd
00000040: a0eb 26bc b8bc 5cbd 29f4 4d3d bbca b23c
00000050: 1257 2f3d d71f d63c a8b6 a8ba ef50 1b3d
00000060: 936e 99bd 3290 2e3d 1401 713d bd8f 53bc
00000070: 7583 0f3d 8364 193d efa9 383d e733 4f3d
00000080: 6e4e 0f3d a1df 003d 8bf4 bebd 5004 243d
00000090: 8a88 87bd b9df febc f630 fabc 233d 273d
000000a0: 3158 49b9 d213 413d d56c 293d bd92 83bd
000000b0: b6f3 3d3d 5ad3 0f3d 848e 08bd 9a96 46bd
000000c0: 7be6 eabc 1aa8 2f3d 72d0 9c3c 754b f83c
000000d0: 492a c23c 57a2 163d 840c 233d a866 be3c
000000e0: 1da5 7dbd d606 573c 8364 ea3b 0dd7 83bd
000000f0: 78db 0f3e f7a1 46bd 2115 173d 3d88 9a3b
00000100: 8fb1 133d 23ad 43bd 5bb1 80bd 2505 303c
00000110: 6a9a e83c 045e e0bc b18e f5bc 2148 613d
00000120: 1c9e babc 6b18 923c fbe5 9a3b 23b1 573d
00000130: be99 25bd e116 e9bc 8965 033d f7c1 843d
00000140: a920 5d3c 306c 47bc b097 053d 327d 4f3d
00000150: 1c49 fdbc 5dd6 133d 3151 063d 5c63 4b3d
00000160: d7aa b2bd 0d29 063d 106f 6f3d 19a5 73bb
00000170: 6969 823c 2e46 9cbd 1d1d 6b3d 6f78 b23b
00000180: bc3f 003d 1352 f43d df68 e9bb 6354 243d
00000190: ad35 383c 0560 e4bc 98f7 afbd 6877 9e3c
000001a0: 7103 30bd a2f5 85bc 558e 2abd 48a7 4b3d
000001b0: 7e53 ccbb 5879 523c aee8 c13c 1099 82bd
000001c0: 8ab1 4abc 535d ff3c 9151 15bd 185f ac3c
000001d0: 5aad 2ebd 7317 c13b 3408 153d 7bbd 3d3d
000001e0: beec f0bc cf8b b33c 0158 df3c c018 5fbc
000001f0: 1735 193d 7be6 423d e867 413d a58e 93bd

cvae_parameters.enc_01_lin_w f4 [128, 128]
0.008372065 0.016572721 -0.005730956 -0.0020768547 -0.0094144335 0.011486082 0.015423264 0.0048302156
-0.04654871 0.018059961 -0.02690155 0.0088958545 -0.010081801 -1.8697681e-05 0.0017057789 -0.012507805
7.197072e-05 0.009184302 0.015754798 0.012691095 0.011150319 0.018986877 0.010978796 -0.0052333726
0.0009816326 -0.024082897 0.0054303436 -0.0016243736 -0.013224519 0.0035532368 0.0011406338 -0.010198768
-0.005085372 0.0036153267 0.024249118 -0.011434028 0.009452644 -0.03658554 0.0109150475 0.024843248
-0.008323657 0.01338378 0.0019618424 0.016394764 0.016355786 -0.024142299 0.016662627 -0.016052658
0.017364558 -0.0037737584 0.015654787 -0.0027973375 -0.00662217 0.0025987292 -0.0030132283 -0.016681643
0.037322406 0.0028530136 -0.009063281 -0.022567512 0.0010734373 0.02258638 0.013365267 -0.014374243
0.021961221 0.016010726 0.030528883 0.014785945 0.02273187 0.014313876 0.013571614 0.01661597
-0.010607769 0.0223394 -0.012554857 -0.0095694605 0.0063731703 0.030599002 0.0014414532 -0.00015932147
-0.008627298 -0.0018678942 0.008874532 -0.0074693193 0.003254554 0.017043013 0.00071394234 0.019013168
0.007503356 -0.015117799 -0.0024574883 -0.014364868 -0.009799778 0.0068528308 -0.008794918 0.022827996
-0.0244073 0.005513801 0.014123764 0.0073675355 -0.017393013 0.0076301885 -0.00058871397 0.0327316
-0.022535564 0.014588997 -0.0077430606 -0.0020707063 -0.019150373 0.024535455 -0.004115119 0.010836724
-0.0066488343 0.008776915 -0.029823601 -0.007653369 -0.011323936 -0.01111116 0.0036033385 0.009464706
0.012973576 -0.0030689253 -0.009595077 0.001036932 0.008086905 0.0064236484 -0.01772445 -0.0012576733
0.017995343 -0.02650871 -0.02097124 0.0031480608 0.03164816 -0.03392155 -0.033583555 -0.046210818
-0.11593816 -0.012018723 -0.110824525 0.0050888946 -0.052838955 0.012668741 -0.027779229 -0.05816599
0.0058591575 -0.0044408995 0.014346081 -0.021783618 -0.0063606985 0.04562282 0.009441909 -0.057730414
0.010665944 -0.06451176 -0.06339709 -0.03449871 -0.09358295 0.00063168496 -0.03322343 -0.030672068
-0.011151163 0.0020058951 0.007787219 0.013493392 0.021471165 -0.06434664 0.02729446 -0.029816302
-0.060411084 -0.007843317 -0.024563044 0.037304446 0.021765107 0.014688985 -0.023271035 -0.017406415
0.013165957 -0.058210418 0.05442073 0.011707601 -0.051041353 0.007674324 -0.022257932 -0.00032720066
-0.021197382 0.0011325463 -0.0376546 -0.049735583 0.020900635 -0.00027219957 -0.012017165 -0.07032121
0.05009934 0.020667912 0.055186458 0.042072162 0.04820879 0.005406145 -0.018654987 -0.0076006604
-0.017004399 0.005361754 -0.11965463 0.011832786 0.007241467 0.016250767 0.01033297 0.018470988
0.01068307 0.0077454937 -0.037268132 0.0046923878 -0.03328602 0.0028475327 -0.0076133143 -0.010497598
-0.009457525 -0.10565005 -0.009555117 -0.007672729 -0.061778948 0.03254634 -0.02028802 0.018695988
-0.12401565 0.0030511871 0.027948381 -0.0006643223 -0.04727324 0.0024593947 -0.023552362 0.03082897
-0.027588438 0.015273282 -0.0400291 -0.0377932 -0.05087238 0.056005623 0.020900927 0.012616525
0.01595642 -0.0016383325 -0.095240764 -0.048040666 0.012401154 -0.04883453 -0.026103472 -0.014820052
-0.021652298 -0.01770969 -0.024691729 -0.014075446 -0.029491238 -0.061985336 -0.058837526 -0.028494513
00000000: fc2a 093c 84c3 873c beca bbbb d71b 08bb
00000010: ff3e 1abc 1f30 3c3c dcb1 7c3c c946 9e3b
00000020: dca9 3ebd 7cf2 933c a460 dcbc ebbf 113c
00000030: 232e 25bc f7d8 9cb7 7194 df3a 89ed 4cbc
00000040: fcee 9638 c179 163c 3510 813c 4fee 4f3c
00000050: d4af 363c 5e8a 9b3c 68e0 333c b67c abbb
00000060: 20aa 803a 7f49 c5bc 06f1 b13b efe8 d4ba
00000070: a7ab 58bc 6cdd 683b 5281 953a bc18 27bc
00000080: 31a3 a6bb 1eef 6c3b 16a6 c63c ca55 3bbc
00000090: 43df 1a3c b8da 15bd 07d5 323c 1184 cb3c
000000a0: f35f 08bc a447 5b3c 4192 003b 504e 863c
000000b0: 92fc 853c 12c6 c5bc 1080 883c dd80 83bc
000000c0: 1e40 8e3c 2951 77bb 783e 803c 8953 37bb
000000d0: cafe d8bb 714f 2a3b 9579 45bb f1a7 88bc
000000e0: 61df 183d a0f9 3a3b 287e 14bc 81df b8bc
000000f0: 94b2 8c3a 1207 b93c fef9 5a3c f281 6bbc
00000100: 05e8 b33c ed28 833c b517 fa3c c040 723c
00000110: 3038 ba3c bf84 6a3c 7a5b 5e3c 371e 883c
00000120: 35cc 2dbc 1e01 b73c e3b2 4dbc 3ac9 1cbc
00000130: 07d6 d03b c2aa fa3c 25ef bc3a 880f 27b9
00000140: 8359 0dbc 21d4 f4ba 7c66 113c 31c1 f4bb
00000150: 5b4a 553b ca9d 8b3c dc27 3b3a 81c1 9b3c
00000160: b6de f53b a5b0 77bc d00d 21bb a05a 6bbc
00000170: 408f 20bc b68d e03b 8f18 10bc c701 bb3c
00000180: d1f1 c7bc 1dad b43b 5c67 673c 5e6b f13b
00000190: cb7b 8ebc a906 fa3b ed53 1aba 9211 063d
000001a0: 819c b8bc b006 6f3c 80b9 fdbb b0b4 07bb
000001b0: 3ee1 9cbc 94fe c83c 1fd8 86bb 848c 313c
000001c0: 77de d9bb 0dcd 0f3c a050 f4bc 1dc9 fabb
000001d0: 0888 39bc 950b 36bc fd25 6c3b db11 1b3c
000001e0: 1f8f 543c 0620 49bb ab34 1dbc aae9 873a
000001f0: f07e 043c 787d d23b de32 91bc 83d8 a4ba
00000200: f86a 933c cb28 d9bc e1cb abbc b24f 4e3b
00000210: 80a1 013d 53f1 0abd e98e 09bd 8e47 3dbd
00000220: fc70 edbd 2eea 44bc f8f7 e2bd bec0 a63b
00000230: a96d 58bd 8d90 4f3c 4491 e3bc 763f 6ebd
00000240: 2dfe bf3b f784 91bb d30b 6b3c 8f73 b2bc
00000250: 686d d0bb fede 3a3d 3db2 1a3c ba76 6cbd
00000260: 36c0 2e3c be1e 84bd 55d6 81bd 854e 0dbd
00000270: 6ba8 bfbd a997 253a 4b15 08bd fd43 fbbc
00000280: 5eb3 36bc 5675 033b ed2b ff3b 6313 5d3c
00000290: 4ce4 af3c 2cc8 83bd a298 df3c 5141 f4bc
000002a0: 9d71 77bd 4281 00bc 7038 c9bc 8ccc 183d
000002b0: bd4c b23c 12aa 703c e6a2 bebc e697 8ebc
000002c0: 07b6 573c 0c6e 6ebd 45e8 5e3d 3dd1 3f3c
000002d0: bd10 51bd e578 fb3b 4456 b6bc 218c abb9
000002e0: 22a6 adbc f371 943a b63b 1abd 8ab7 4bbd
000002f0: cf37 ab3c 02b6 8eb9 a5e3 44bc 9104 90bd
00000300: f734 4d3d c14f a93c 320b 623d dc53 2c3d
00000310: 9576 453d 0826 b13b 58d2 98bc f60e f9bb
00000320: cf4c 8bbc a7b1 af3b 7d0d f5bd 4dde 413c
00000330: d449 ed3b 5420 853c 9e4b 293c 7850 973c
00000340: 0b08 2f3c e9cd fd3b 78a6 18bd 9ac2 993b
00000350: ec56 08bd ac9d 3a3b 1c79 f9bb 1efe 2bbc
00000360: bcf3 1abc 0e5f d8bd 118d 1cbc 846b fbbb
00000370: ec0b 7dbd 504f 053d 1033 a6bc 5428 993c
00000380: ebfb fdbd 6df6 473b 01f4 e43c ea25 2eba
00000390: 96a1 41bd cc2d 213b e2f0 c0bc 098d fc3c
000003a0: 2601 e2bc ca3c 7a3c 8ef5 23bd 0bcd 1abd
000003b0: 8f5f 50bd 2766 653d 6c38 ab3c 8bb5 4e3c
000003c0: 0ab7 823c 51bd d6ba 970d c3bd 4ac6 44bd
000003d0: 362e 4b3c b706 48bd f3d6 d5bc cecf 72bc
000003e0: 2960 b1bc e913 91bc 4f46 cabc b39c 66bc
000003f0: 9c97 f1bc 56e4 7dbd 9eff 70bd 536d e9bc

cvae_parameters.out_lin_b f4 [120]
0.023929838 -0.042404454 -0.05867243 0.023155913 0.032867752 -0.06378515 0.005114869 -0.063017055
-0.0034062911 -0.06403618 0.056324326 -0.06851634 -0.044262417 -0.0730847 0.023702642 -0.13161749
0.045534924 -0.026321502 -0.042843543 0.0103696 -0.16342433 -0.031608697 -0.018536549 0.066248395
-0.00909015 -0.034008916 -0.18620737 -0.0074882526 -0.117084 -0.04078392 -0.027161818 -0.049066674
-0.14589652 -0.07856599 -0.14646186 -0.1852082 -0.026284717 -0.009081867 -0.05080696 -0.07682954
-0.19365025 -0.07344267 -0.0077891466 0.07033383 0.004212985 -0.15504487 -0.07379538 0.036577642
-0.017286206 0.13462071 -0.0887304 -0.1350126 0.057263322 0.05165217 0.020335287 0.01975778
-0.052760545 -0.0068003987 0.06642501 -0.033843845 0.055069346 -0.07636357 -0.058610484 -0.036441565
0.015199624 -0.0675284 0.06922058 -0.085888006 -0.07875547 -0.01641217 -0.035111073 -0.12855725
0.014806943 -0.14026685 -0.15737027 -0.11594465 -0.016223377 -0.0765652 0.06175693 -0.16583638
-0.11609473 -0.051110785 0.12899736 -0.12638846 0.14597209 -0.01703611 -0.07670782 0.05047341
0.08717635 -0.12787238 0.08030882 -0.010388742 -0.018235775 0.02800105 0.10404278 -0.11933403
0.025733449 0.07083901 0.031599358 0.01822829 0.044727225 0.091936864 -0.018609159 -0.0091213025
-0.052686065 -0.037237946 0.036497876 0.08989726 0.0077732326 0.0057270816 -0.061967734 -0.017774507
0.04154649 0.030589323 0.019582452 -0.03593253 -0.058713757 0.029419402 0.04037094 -0.053115807
00000000: 8208 c43c 4bb0 2dbd 8152 70bd 78b1 bd3c
00000010: 56a0 063d caa1 82bd a29a a73b 160f 81bd
00000020: 153c 5fbb 6725 83bd 56b4 663d 4b52 8cbd
00000030: 824c 35bd 6ead 95bd 0b2c c23c bcc6 06be
00000040: d482 3a3d 31a0 d7bc b67c 2fbd 41e5 293c
00000050: b558 27be 1f78 01bd f6d9 97bc 3dad 873d
00000060: daee 14bc ef4c 0bbd 25ad 3ebe 0460 f5bb
00000070: bcc9 efbd 0a0d 27bd 7682 debc 23fa 48bd
00000080: e665 15be 35e7 a0bd 19fa 15be 38a7 3dbe
00000090: 0c53 d7bc 1ccc 14bc f51a 50bd ce58 9dbd
000000a0: 404c 46be 1c69 96bd 193c ffbb 2f0b 903d
000000b0: 140d 8a3b 15c4 1ebe 0822 97bd 70d2 153d
000000c0: cd9b 8dbc 03da 093e 49b8 b5bd be40 0abe
000000d0: f28c 6a3d 3a91 533d 3096 a63c 11db a13c
000000e0: 711b 58bd e1d5 debb d609 883d d89f 0abd
000000f0: 6590 613d 8164 9cbd 8c11 70bd c043 15bd
00000100: d807 793c 544c 8abd 85c3 8d3d 0de6 afbd
00000110: 8c4a a1bd d172 86bc a1d0 0fbd 83a4 03be
00000120: d298 723c 1da2 0fbe ac25 21be 6374 edbd
00000130: e3e6 84bc 37ce 9cbd d6f4 7c3d 03d1 29be
00000140: 13c3 edbd 8b59 51bd e217 043e fa6b 01be
00000150: b579 153e 508f 8bbc fd18 9dbd 35bd 4e3d
00000160: 8489 b23d faf0 02be f378 a43d 8b35 2abc
00000170: 3163 95bc 7562 e53c 6214 d53d 6665 f4bd
00000180: f4ce d23c 0b14 913d 546e 013d 7f53 953c
00000190: e533 373d 6549 bc3d 3c72 98bc 8471 15bc
000001a0: 58cd 57bd d186 18bd cc7e 153d 0e1c b83d
000001b0: 9ab6 fe3b 3eaa bb3b e1d1 7dbd d89b 91bc
000001c0: a72c 2a3d 7696 fa3c 616b a03c fd2d 13bd
000001d0: d67d 70bd f500 f13c 005c 253d f68f 59bd

cvae_parameters.out_lin_w f4 [120, 128]
-0.03312397 -0.019132268 -0.04973554 -0.029309928 0.024947114 -0.006206382 -0.01491095 -0.034326915
-0.010196559 -0.014651442 -0.027985098 0.008470388 0.010184085 -0.014873809 -0.022178644 -0.050357413
-0.04275372 0.08892458 -0.044404704 0.008350608 -0.01981699 -0.000263462 -0.011187213 -0.03235595
-0.007064924 -0.009725199 -0.01645237 -0.030834291 -0.029505847 -0.007878037 0.026720924 0.00691218
-0.011016104 0.002810946 -0.009203422 -0.091556676 -0.007615 -0.0020159583 -0.004145271 -0.041905493
-0.010471019 -0.042879608 -0.024846619 -0.035246648 -0.007483204 0.04084709 -0.0034869262 0.018482879
-0.020088777 0.017379452 0.04324365 0.008946972 -0.008239166 0.0352299 -0.025461143 -0.003387523
-0.009943271 -0.03819675 -0.0076197633 0.004312456 -0.005555494 -0.022880755 -0.020641856 -0.015365807
0.013498818 -0.038448386 0.003419369 -0.02105446 -0.049018435 -0.015773768 -0.017995497 -0.008530909
-0.026298009 -0.02063919 -0.028036665 -0.03024774 0.0035415136 0.011663797 0.0001854197 -0.021109564
-0.012158874 -0.01568352 -0.017267803 -0.044620957 0.00044486413 -0.028583689 0.019461278 0.014958228
-0.0015402045 -0.0053074285 0.016007563 -0.02495215 -0.02111741 0.004506144 -0.021450248 -0.013751162
0.018423067 -0.02003128 -0.020098072 0.0018400231 0.0038877418 -0.008525234 0.0012832785 -0.012797998
0.0040658345 -0.028108563 0.017982135 -0.033300363 -0.018416408 0.03726296 -0.009400224 -0.018286487
-0.0061233896 -0.006105778 0.0066794977 -0.022006273 -0.026307274 -0.009904877 -0.012690255 -0.018978933
-0.018445434 0.09109242 -0.029908275 0.020186324 -0.028234694 -0.007246392 -0.0071622115 -0.02692391
-0.015511271 -0.016125143 0.055326406 -0.0063238572 0.026093075 -0.021427866 0.0074759903 -0.032195635
-0.010322987 0.006073497 -0.039560366 0.00069539255 -0.01973439 -0.03559269 0.007175521 -0.024976892
-0.031695783 0.010858335 -0.026195584 -0.00911148 -0.031949967 -0.008273436 -0.005832108 -0.015344238
-0.00917604 0.030263636 -0.013751743 -0.013493672 0.0094163865 -0.025213685 -0.03316348 -0.01837186
-0.0066305506 -0.011435927 -0.0035709762 -0.088649035 -0.017377019 -0.00616515 -0.0025670424 -0.021503134
0.0053274203 -0.039526887 -0.005319979 0.02019029 -0.008429102 0.021719078 -9.734303e-05 -0.022532329
-0.010936349 0.017064182 0.05951975 -0.0956183 -0.020731822 -0.0069951066 -0.017199079 0.014401442
-0.0152124185 -0.021147579 0.0039691743 -0.0057734665 -0.01092158 -0.0023211807 0.054885857 -0.044747025
-0.009907209 -0.016739253 -0.019524563 -0.030449783 -0.005669029 -0.0066694748 -0.010086595 -0.0069998926
-0.029133096 -0.08846934 -0.02675141 0.0065392037 -0.05589064 0.008133451 -0.020204494 0.027649546
-0.008461904 -0.027208 -0.0026741016 -0.019356498 -0.03318769 -0.007293509 -0.044677593 0.009514726
0.06399554 -0.018403387 -0.020680819 -0.030263918 -0.029189147 -0.015084559 -0.016711319 0.008409003
-0.017883586 -0.0068928576 -0.004588377 -0.0074093984 -0.012948951 0.008003843 -0.021155791 -0.00090575026
-0.023894064 0.009923855 -0.015241058 0.0015851541 -0.011567204 -0.045613 -0.023934439 -0.001961206
0.0020580257 -0.0015135716 0.0022847962 -0.016213285 0.0034872808 -0.008392242 -0.009015693 -0.015239116
-0.038728062 -0.062489003 -0.016605323 0.0075773266 -0.002846967 -0.029408 0.013021947 -0.026461862
00000000: 00ad 07bd 46bb 9cbc 7eb7 4bbd 601b f0bc
00000010: e45d cc3c e85e cbbb 0f4d 74bc 619a 0cbd
00000020: 780f 27bc 9a0c 70bc 0141 e5bc 62c7 0a3c
00000030: 26db 263c 47b1 73bc fdaf b5bc 9343 4ebd
00000040: 861e 2fbd 171e b63d b5e1 35bd fdd0 083c
00000050: 3d57 a2bc 4521 8ab9 924a 37bc ac87 04bd
00000060: e180 e7bb 7156 1fbc 1fc7 86bc 3298 fcbc
00000070: 3fb6 f1bc e212 01bc d7e5 da3c 927f e23b
00000080: e47c 34bc d937 383b f3c9 16bc 1182 bbbd
00000090: 4087 f9bb 2b1e 04bb 0ed5 87bb 18a5 2bbd
000000a0: a38e 2bbc 87a2 2fbd 238b cbbc ca5e 10bd
000000b0: aa35 f5bb 474f 273d ea84 64bb 6869 973c
000000c0: 3891 a4bc 5a5f 8e3c 4120 313d 5296 123c
000000d0: 91fd 06bc 3a4d 103d e393 d0bc 3401 5ebb
000000e0: 1ae9 22bc 3274 1cbd 35af f9bb 814f 8d3b
000000f0: dd0a b6bb 6c70 bbbc 1c19 a9bc dec0 7bbc
00000100: 252a 5d3c 0e7c 1dbd 7e17 603b 677a acbc
00000110: 8ec7 48bd fd37 81bc 4b6b 93bc 3ac5 0bbc
00000120: ec6e d7bc 8513 a9bc 26ad e5bc 1cca f7bc
00000130: bd18 683b 8319 3f3c 396d 4239 f7ed acbc
00000140: 0436 47bc ba7a 80bc 3575 8dbc 77c4 36bd
00000150: a73c e939 5728 eabc 426d 9f3c 5b13 753c
00000160: b0e0 c9ba f0e9 adbb 4b22 833c 7468 ccbc
00000170: 6bfe acbc 47a8 933b 6eb8 afbc 8e4c 61bc
00000180: f9eb 963c a418 a4bc b6a4 a4bc ee2c f13a
00000190: 7cc9 7e3b 6cad 0bbc ae33 a83a b2ae 51bc
000001a0: b13a 853b ee43 e6bc 454f 933c f665 08bd
000001b0: 02de 96bc 0ca1 183d 6603 1abc 8bcd 95bc
000001c0: b7a6 c8bb fa12 c8bb b0df da3b 8046 b4bc
000001d0: 5a82 d7bc 1148 22bc caea 4fbc b579 9bbc
000001e0: e11a 97bc aa8e ba3d 3302 f5bc ca5d a53c
000001f0: 724c e7bc 2473 edbb fcb0 eabb 888f dcbc
00000200: fc22 7ebc e018 84bc f19d 623d 5c38 cfbb
00000210: 25c1 d53c 7e89 afbc 27f9 f43b 92df 03bd
00000220: bf21 29bc 2f04 c73b 0d0a 22bd 014b 363a
00000230: 04aa a1bc a4c9 11bd a220 eb3b 579c ccbc
00000240: 70d3 01bd 28e7 313c 1f98 d6bc 5148 15bc
00000250: f8dd 02bd 4e8d 07bc 451b bfbb 6666 7bbc
00000260: 1a57 16bc 72eb f73c fe4e 61bc 9014 5dbc
00000270: 3047 1a3c ee8c cebc 6ed6 07bd 9580 96bc
00000280: 1745 d9bb c15d 3bbc 0a07 6abb a08d b5bd
00000290: 405a 8ebc 0705 cabb d33b 28bb 5727 b0bc
000002a0: a491 ae3b f2e6 21bd 3853 aebb 1b66 a53c
000002b0: 371a 0abc 35ec b13c a424 ccb8 b895 b8bc
000002c0: 5f2e 33bc 2fca 8b3c fbca 733d 87d3 c3bd
000002d0: c8d5 a9bc 3537 e5bb 15e5 8cbc 07f4 6b3c
000002e0: 823d 79bc b03d adbc d90f 823b 592f bdbb
000002f0: 6df0 32bc f31e 18bb fecf 603d a848 37bd
00000300: d951 22bc c220 89bc faf1 9fbc d371 f9bc
00000310: 43c3 b9bb 9c8b dabb 3f42 25bc 5b5f e5bb
00000320: 88a8 eebc 6a2f b5bd c625 dbbc d146 d63b
00000330: 95ed 64bd 2b42 053c e583 a5bc 4d81 e23c
00000340: cca3 0abc 50e3 debc fb3f 2fbb 8591 9ebc
00000350: d1ef 07bd 63fe eebb daff 36bd a7e3 1b3c
00000360: 1810 833d b3c2 96bc d26a a9bc 09ec f7bc
00000370: 141e efbc 3a25 77bc 2de6 88bc eac5 093c
00000380: 9980 92bc 7bdd e1bb 195a 96bb 8aca f2bb
00000390: d627 54bc 8d22 033c e94e adbc df6f 6dba
000003a0: 7cbd c3bc aa97 223c a1b5 79bc f2c4 cf3a
000003b0: 5f84 3dbc b2d4 3abd 2812 c4bc 9487 00bb
000003c0: f1df 063b 0963 c6ba 85bc 153b b9d1 84bc
000003d0: dd8a 643b 9d7f 09bc 8fb6 13bc 7cad 79bc
000003e0: 51a1 1ebd 78f4 7fbd e307 88bc 394b f83b
000003f0: 2e94 3abb 0ce9 f0bc 015a 553c 8cc6 d8bc

cvae_parameters.z_mu_lin_b f4 [32]
-0.014033994 0.011577229 0.014356226 -0.004217598 0.0042850124 -0.015249541 -0.0055536567 0.0064126938
0.012934848 -0.001979862 0.008775486 0.0035531924 -0.004027276 -0.010729169 -0.00029618334 -0.02006042
0.0046905763 -0.0053173234 0.007784904 0.00780692 0.008359314 0.0189456 -0.0032735902 -0.009071372
-0.007929378 -0.0042218086 0.003229994 0.0035685846 -0.010999033 0.0066722403 0.00842699 0.0036381066
00000000: d6ee 65bc 6bae 3d3c 6036 6b3c c733 8abb
00000010: 4a69 8c3b 36d9 79bc 73fb b5bb 9321 d23b
00000020: afec 533c 93c0 01bb 0ec7 0f3c addc 683b
00000030: 3df7 83bb 65c9 2fbc 0e49 9bb9 c055 a4bc
00000040: 68b3 993b f13c aebb 8218 ff3b 31d1 ff3b
00000050: 81f5 083c ce33 9b3c bb89 56bb 18a0 14bc
00000060: 39ea 01bc 1957 8abb 4fae 533b eade 693b
00000070: 4a35 34bc cfa2 da3b 5c11 0a3c 4d6d 6e3b
