dlpg/23/weights/dlpg_model_weights_50.pth (torch, 313083 bytes, 14 tensors)

cvae_parameters.dec_00_lin_b f4 [128]
000000 51 d1 09 be 40 13 28 be 3f a3 c1 bd 4a b8 b3 3d
       -0.13458754 -0.16413593 -0.09454965 0.08775385
000010 65 b1 15 be 4c 16 c4 3a 35 15 36 bc cb 2c d2 bc
       -0.14618452 0.0014960258 -0.011113455 -0.025656125
000020 92 dd f7 bc 0f 2e ca bd 08 46 ad bd 2c 24 23 3e
       -0.03025702 -0.09872066 -0.08460623 0.15931767
000030 9f f2 a7 bd 6a 42 e6 bd cd 7e 57 bd 46 9a ea bd
       -0.08200573 -0.11243136 -0.05261116 -0.114552066
000040 5c 0a 03 be e2 63 26 be 46 0c 37 bb 00 f9 0a be
       -0.1279692 -0.1624904 -0.00279309 -0.13571548
000050 f9 00 a9 3d 50 7f df 3c 9d 1e d5 3d b1 a8 cd 3c
       0.08252139 0.027282387 0.1040623 0.025104852
000060 e0 8a 3d be 50 1b 59 be a6 0a 29 be 78 1e 6b bd
       -0.18510008 -0.21201825 -0.16507968 -0.057402104
000070 a4 50 20 3d 79 e0 a8 3c 41 7b 8f 3d f7 a2 76 bd
       0.039139405 0.02061485 0.07005931 -0.06021401
000080 45 59 82 bd 04 e5 3b be 02 74 53 bd 4b 13 ad bd
       -0.06364683 -0.18349081 -0.051624306 -0.084509455
000090 52 24 bb bd 02 e1 dc bb b3 9b 3e 3e 27 cc ee 3d
       -0.09137787 -0.00674069 0.18614082 0.11660033
0000a0 c1 e6 60 bd 47 d0 af bd 43 97 8e 3d fb 6b 8e 3d
       -0.054907564 -0.085846476 0.06962445 0.069541894
0000b0 a0 b0 a5 bc a7 25 25 3e 04 e2 b8 bc 82 7d f6 bc
       -0.020225823 0.16127644 -0.02256871 -0.030089144
0000c0 7e ab ca 3c b9 75 99 3d 34 08 f9 3d 7f 6d 40 be
       0.024739977 0.07493157 0.12159768 -0.1879177
0000d0 47 fb 07 be 17 d6 f4 bd 1f 7d b8 bc f2 e3 24 be
       -0.13279448 -0.11954897 -0.0225206 -0.16102579
0000e0 85 6e cf bd 7e f8 9f bd 26 b7 b2 3d 61 a8 34 be
       -0.10128502 -0.07811068 0.08726339 -0.17642356
0000f0 db 7d 52 3e 6c 48 89 3c 4c b7 df bd 96 a8 f8 bd
       0.20555823 0.016758166 -0.10923633 -0.1214153
000100 bc d7 f8 bd e5 9e 11 3d eb 2e e5 3c e3 12 df bd
       -0.12150523 0.035551924 0.027976474 -0.10892274
000110 b8 42 ce 3d 54 ec e6 3d 82 0e 24 bd f9 d3 b2 bd
       0.10071319 0.11275545 -0.0400529 -0.08731837
000120 44 4c e7 bd 90 3e 9c bd 46 0d b8 3b 39 97 07 3e
       -0.112938434 -0.0762912 0.0056168167 0.1324128
000130 7e e7 9f bd b9 98 8f bd de 16 fd bd bd 97 96 3d
       -0.078078255 -0.070115514 -0.12357877 0.073531605
000140 9c 02 60 3b 11 fb bf bd 4d e5 99 bd 6a 33 cb bd
       0.0034181243 -0.09374059 -0.07514439 -0.09921916
000150 f0 53 69 ba 54 3e df 3d a8 55 a0 bd 47 6f e5 3d
       -0.00089007523 0.1090056 -0.07828838 0.11202865
000160 7d a9 c0 bd a9 4e 73 3a e8 d7 06 3b f1 3d 38 be
       -0.09407327 0.00092814356 0.0020575467 -0.17992379
000170 3f 1b 02 be 44 62 b5 bd 71 55 87 bd 36 84 11 be
       -0.12705706 -0.08856633 -0.066080935 -0.1421059
000180 92 37 16 be 87 a6 35 bd af f4 41 3c 6e f8 70 3d
       -0.14669636 -0.044348266 0.011838122 0.05883067
000190 94 18 32 be 05 8a 2d 3e 3c c6 c5 3c f3 bf c5 bd
       -0.17392188 0.16947182 0.024142377 -0.09655752
0001a0 5a 0e ad bd 6d c4 ac 3c 44 d9 eb 3d ae e2 76 bd
       -0.08450003 0.021089757 0.115160495 -0.060274772
0001b0 b6 2b 16 3d 44 c8 7e bd 9f dc df bd 52 b9 dd bd
       0.03666278 -0.062202707 -0.10930752 -0.10826363
0001c0 9d 63 bc 3b 84 7a 82 bd 91 6a 88 3c df 07 28 3c
       0.0057491795 -0.06371024 0.016652377 0.010255783
0001d0 27 ff 10 bd 55 a7 ee bd 68 0d 5a 3e b8 98 21 be
       -0.035399582 -0.1165301 0.21294177 -0.15780914
0001e0 58 80 d6 3d 19 f8 07 be 56 8d 03 bd 60 66 83 bd
       0.104736984 -0.13278235 -0.03211721 -0.06416011
0001f0 7b 90 03 be 14 ad 7e 3c c8 2e 46 bd cf 31 b5 bd
       -0.12848084 0.015544195 -0.048384458 -0.08847391

cvae_parameters.dec_00_lin_w f4 [128, 35]
000000 49 9c 2d bd b2 64 ae bc 00 76 83 3d 5f 4d 24 bb
       -0.042385373 -0.02128825 0.06418991 -0.002507053
000010 77 7e 6c 3d f8 f6 c4 bc bf 89 18 bd 82 d1 bc bc
       0.057737794 -0.024043545 -0.03724074 -0.02304912
000020 79 df 7e 3c dc e2 e8 bc f9 05 b2 bc c9 14 54 bc
       0.01555621 -0.028428487 -0.021731364 -0.012944409
000030 b5 bb e5 bc b8 0d 76 3d e1 00 02 bd 5e 38 89 bc
       -0.028043607 0.060071677 -0.03173912 -0.01675051
000040 90 df 46 bd 0f 41 0d bd 8e da 19 bd 5f 17 86 3c
       -0.04855305 -0.034485873 -0.037561946 0.016368566
000050 07 38 9b bb 75 e6 3b 3d 36 4a 21 3d b5 2f 91 bc
       -0.0047369036 0.045874078 0.039377414 -0.017722944
000060 f2 92 6f bc 38 ba a7 3c 77 86 5d 3c a3 24 6d bd
       -0.014622437 0.020474538 0.013520828 -0.057896268
000070 9e 51 46 3c 24 4d 87 bc 59 aa 6f bb d8 b9 e6 3b
       0.01210442 -0.016516276 -0.003657004 0.0070411973
000080 76 ad 1e 3b b3 e6 fa bd 32 64 7e 3b 45 1b 5b bc
       0.0024212277 -0.12251034 0.0038817045 -0.013373201
000090 79 bc 4a 3c 3b 36 d4 3d a9 f8 38 bd c5 58 a8 3d
       0.012374037 0.10361906 -0.045159016 0.082200564
0000a0 d4 c4 ac 3c 8c 65 ab 3d e7 07 ab 3d 43 f1 8a 3d
       0.021089949 0.08368978 0.083511166 0.06784298
0000b0 0a df 96 bd f7 06 89 3b 45 44 9f 3c b5 12 f2 bc
       -0.0736676 0.0041817385 0.019441733 -0.029549936
0000c0 82 55 9a 3d cf 71 a7 bd c3 ca c7 3c 91 5d de bc
       0.075358406 -0.08176004 0.024388677 -0.027144225
0000d0 07 0e 2c 3c 97 45 02 bd 61 d4 94 3d 74 f7 18 3d
       0.010501391 -0.031804647 0.072670706 0.037345365
0000e0 ea d0 db bc 50 9d 84 3d f6 20 2b 3c d2 d6 2b bc
       -0.026833016 0.064753175 0.01044487 -0.010488229
0000f0 1b b6 0e bd c1 35 2b bd 8f db 6a bb 3d 02 1c bc
       -0.034841638 -0.04179931 -0.0035836434 -0.009522018
000100 13 f8 e9 3c 4b 32 81 bd 7f 7f 30 bd ae 6e 72 3c
       0.028560674 -0.06308421 -0.04309034 0.014796896
000110 27 4b 28 be 22 62 ae bb 93 7a 0f 3c 6d e2 f4 bc
       -0.16434918 -0.005321757 0.008757251 -0.029893124
000120 cd fe 65 bd 5b 95 6a bb a5 3c d7 3c ac 49 d3 3c
       -0.0561512 -0.003579459 0.026274035 0.025791965
000130 e3 3e c7 3c f0 78 2c bd 8c f3 6c bd 05 b9 5d 3d
       0.024321979 -0.042107522 -0.057849452 0.054131526
000140 f7 15 86 bd 6e 34 92 bb 02 f4 37 bc 39 36 47 3d
       -0.06547158 -0.0044618165 -0.01122761 0.048635695
000150 83 a5 05 bc 8f 05 16 3d 47 0f 8f bd 5b 4e f6 3b
       -0.008157137 0.036626395 -0.06985336 0.007516665
000160 03 74 8f bd fa 24 6b ba 5f 33 d6 bc 49 3d 57 bd
       -0.07004549 -0.00089700485 -0.026147543 -0.05254868
000170 f3 cd 4a bc 08 09 fd 3c 5c 30 db 3d 4f d1 19 3d
       -0.012378204 0.030888095 0.10702583 0.037553128
000180 84 1f 30 bd ec 28 92 bd 1f c3 b4 3c 66 6a de bc
       -0.042998806 -0.071367115 0.022065697 -0.027150344
000190 cd cc 4d bc f3 2d 67 bd 34 c5 d7 3c 48 45 a7 bd
       -0.012561035 -0.056440305 0.026339151 -0.08167511
0001a0 d4 c2 ab bb 51 a1 08 bd 70 20 81 bc c3 8e 93 3c
       -0.005241731 -0.03335697 -0.015762538 0.01801241
0001b0 2b 40 09 bd 77 04 22 3e 7c 5c 3b 3d a8 64 09 3c
       -0.03350846 0.15822016 0.045742497 0.008385815
0001c0 8f 1a 81 bc 54 0d 2b bc c3 89 8b bc 33 d1 52 bd
       -0.015759734 -0.010440189 -0.017033463 -0.05146904
0001d0 a9 66 e2 ba c3 1c 2a bd 6a 32 14 3d df 81 8c bc
       -0.0017273027 -0.041531336 0.03618089 -0.017151771
0001e0 1f e5 2f bc bd 93 a5 bd f0 1d 58 3d 8c f6 22 bb
       -0.010735779 -0.080848195 0.052762926 -0.0024866192
0001f0 3b d2 02 bc 24 30 8a bc 92 bf 63 bd 14 fa 84 3d
       -0.007984693 -0.016868658 -0.055602618 0.06493011
000200 32 85 13 3d 00 24 2c bd 51 5c 1e 3d 04 72 23 bc
       0.036015697 -0.04202652 0.03866226 -0.009975914
000210 62 58 70 bd f3 98 40 3d e7 bc 34 3d 42 57 0d 3a
       -0.05867804 0.047020864 0.044125464 0.00053917256
000220 ae 54 d5 bb 7a 13 84 bb bc 58 b9 3d 9b 57 4f bb
       -0.0065103387 -0.004030642 0.09050128 -0.003163791
000230 5c 91 11 be eb 0c 8c 3c cf 88 c4 3c 9e a0 ee bc
       -0.14215606 0.017096004 0.023991017 -0.029129323
000240 11 56 82 3d 3f 0d 72 bd 7f db 7a bd f9 ce dd 3c
       0.06364072 -0.059094664 -0.061244484 0.027076231
000250 94 fa 87 3c 0a cb 06 bd 08 ef 1d bd f4 12 aa bc
       0.016598977 -0.032908477 -0.038558036 -0.02076099
000260 98 48 c2 bb 26 b4 eb bc 02 82 3b bd dc 26 8c bd
       -0.005929064 -0.028772425 -0.045778282 -0.06843349
000270 36 7d b5 bc 66 fc 63 bd 78 05 d7 3c 7d f0 b1 3c
       -0.022154432 -0.055660628 0.026247725 0.021721119
000280 ad 86 d5 3c 76 37 88 3d 76 92 8e 3d 1e e7 92 bd
       0.026065195 0.06651203 0.06961529 -0.07172988
000290 8c 9a 69 bb 2f b0 a0 3c f2 6e 97 3d c4 2e d4 bc
       -0.0035645096 0.01961526 0.07394208 -0.025901206
0002a0 5f 10 04 bd db 75 96 3b 02 db ed 3b 42 14 20 3d
       -0.032242175 0.004591686 0.007258774 0.03908182
0002b0 94 4b 92 bb 28 32 15 be 44 c6 8e ba 45 09 29 3d
       -0.004464576 -0.14569914 -0.0010892828 0.041268606
0002c0 30 a2 b1 3a 17 60 96 bd 9c d2 07 bd 64 30 91 bd
       0.0013552364 -0.073425464 -0.033159837 -0.07089308
0002d0 71 b3 3d bc 83 28 0f 3c c1 e7 e5 3b 86 72 1a bd
       -0.011578427 0.008737686 0.0070161526 -0.037706874
0002e0 0b a3 14 bd 5f f3 5d 3c 68 a8 51 3d 4c 1d 27 3c
       -0.036288302 0.013546794 0.051185995 0.010199856
0002f0 52 66 1a bc 10 46 b4 3c b9 5c 3e 3d d9 80 3c 3d
       -0.009423809 0.022006065 0.046475146 0.046021316
000300 fb 9f 35 3d c6 69 93 3d be 47 cc bd d8 0f bf bc
       0.044342022 0.07197909 -0.09974621 -0.023322985
000310 e7 d9 fe bb fc 0c 97 3c e4 47 4e bb 48 37 ef 3c
       -0.007777441 0.018438809 -0.0031475956 0.029201165
000320 fd 18 8a bd 74 13 6b 3d ed 7f f5 3d 4c 72 96 3c
       -0.067430474 0.0573916 0.119872905 0.018365048
000330 70 2c d2 bb 6b 32 d1 bb 30 75 c1 ba 80 43 26 bc
       -0.006413989 -0.006384184 -0.0014759656 -0.010147929
000340 03 47 94 3c 0b 99 25 3c 19 92 08 bb b7 fa a0 3d
       0.018100267 0.010107289 -0.0020839034 0.0786032
000350 a0 82 e9 3d fa 87 08 be b7 2c a2 3d 8e 36 25 bc
       0.11401868 -0.13333121 0.07918685 -0.010083808
000360 95 f4 27 bd 1f 1f 07 3e 42 b0 f2 3d 25 19 cb bd
       -0.041004736 0.13195466 0.11850025 -0.09916905
000370 98 9a 92 3d 32 07 d0 3d 98 f3 82 bd 14 48 39 bc
       0.07158393 0.101576224 -0.06394118 -0.011308689
000380 7e 2f 23 bc 6a 60 48 bd fd 85 0c 3c 74 03 55 bc
       -0.0099600535 -0.048920073 0.008576867 -0.013001312
000390 5c 6f be 3d 24 57 c0 3c 56 07 ce 3d f7 53 8a 3d
       0.09298584 0.023479052 0.10059993 0.06754296
0003a0 85 1d fd 3c 14 d8 17 bc bc a1 64 bd dd 1d d9 bd
       0.030897865 -0.009267826 -0.055818304 -0.10601399
0003b0 1d 3d d8 bc d5 e0 5c bc d0 da 01 be bb ff c2 3d
       -0.026396329 -0.0134813385 -0.12681127 0.09521433
0003c0 f7 5d 1d 3d 3f 4c 72 3d 6a 95 56 3b d2 23 aa bc
       0.03841969 0.059154745 0.0032742866 -0.020769034
0003d0 0e f8 01 bc 34 14 c6 3d 2f 0a 0d bd f1 a4 22 bd
       -0.007932676 0.09671822 -0.03443354 -0.03970808
0003e0 ae 9c 0b 3d 63 95 69 bd f2 9c 20 3d 42 e5 32 3d
       0.03408497 -0.057027232 0.039212175 0.04367567
0003f0 e3 27 8b bd 06 60 04 bd 91 8c 68 3d 9e a7 25 3c
       -0.06794717 -0.032318138 0.05677468 0.010110764

cvae_parameters.dec_01_lin_b f4 [128]
000000 fe 7c 92 3d 73 27 60 3d 3d c0 7a bd e1 b4 df 3c
       0.071527466 0.05472512 -0.06121849 0.02730793
000010 54 3e c5 3c 3a c2 e5 bb 3d 91 1a bb 8e a6 48 3d
       0.024077572 -0.007011679 -0.0023585104 0.048986964
000020 b3 ba 5f 3d 16 3b 2c 3d 1d 80 9b 3d 5c 7b 91 ba
       0.05462141 0.042048536 0.07592795 -0.0011099386
000030 d6 41 0f 3b b6 3b c7 3d a5 03 21 bd ae cc 85 3c
       0.002185931 0.09728186 -0.039310116 0.01633295
000040 e0 59 91 3d 86 96 f6 3c 1e 86 21 be 47 91 16 38
       0.070972204 0.030101072 -0.15773818 3.5898087e-05
000050 82 d7 05 3d cc da da bb 3c f1 37 3b 3e c9 ca 3b
       0.032676227 -0.0066789147 0.002806737 0.0061885407
000060 91 41 75 bc de a4 e6 bd 18 dd 6e 3d 2f cf a3 bd
       -0.0149692455 -0.11261915 0.05831632 -0.079985015
000070 bf 94 99 3d 13 96 9f 3c 3d b3 53 3d 25 b2 ad bb
       0.07499074 0.01948074 0.051684607 -0.0053007775
000080 78 e9 6d 3b db bb d1 bb 6c bf 5f ba 15 62 11 3d
       0.0036302488 -0.006400568 -0.0008535299 0.03549393
000090 e2 82 f3 bb c8 e6 e9 ba 34 ad 3f be 44 ef d7 3a
       -0.007431374 -0.0017845267 -0.18718415 0.0016474505
0000a0 11 d0 79 ba ec ae 76 be a4 17 00 bc 61 92 7a bd
       -0.00095296005 -0.24090165 -0.007818136 -0.061174754
0000b0 22 6b cb b9 ff 14 d1 3c f1 19 33 bb 84 5e 08 bd
       -0.00038798997 0.025522707 -0.0027328695 -0.033293262
0000c0 3b 0c 84 3d 87 8b 5c 3d 92 b9 44 3d 53 a2 a2 bc
       0.06447645 0.053844 0.048028536 -0.019852793
0000d0 83 52 3a bb cd 6b 4b 3d e7 b5 18 3e 89 fc 2d bd
       -0.0028430528 0.049663354 0.1491314 -0.042477164
0000e0 3c 74 0d 3d 63 b7 cf 3d b3 9d d4 ba 62 b2 cc bd
       0.034534678 0.101424 -0.0016221314 -0.09994961
0000f0 05 85 99 bb db ac 2f 3c 7f f9 00 be 99 df 8c 3d
       -0.0046850466 0.010722364 -0.12595175 0.06878585
000100 a2 34 a9 ba 86 3f 9f 3d c5 9b 10 ba f2 3e 77 3d
       -0.0012909363 0.07775788 -0.00055163755 0.060362764
000110 c6 f0 8b 3d 58 50 14 3c 73 b1 78 3d 21 91 cb 3c
       0.06833033 0.009052359 0.060716104 0.024849476
000120 26 59 7b 3d d8 a6 89 3d 54 8e 2f 3d 73 69 68 3b
       0.061364315 0.06721276 0.042860344 0.0035463243
000130 37 55 63 3c 07 f7 65 3d 06 81 6f 3d 06 fa 09 be
       0.013875297 0.056143787 0.058472656 -0.13474283
000140 56 f3 90 3d 30 cb 95 3d 2f a8 f5 3b 43 9f a3 3c
       0.07077663 0.073141456 0.0074968557 0.019973403
000150 7c be 8a 3d c9 88 77 3d b0 0d 90 3d ff 6d b0 bc
       0.06774613 0.060433183 0.07033861 -0.021536825
000160 ab 02 f4 bb f4 40 74 3b de 92 5f 3d 8c ff 4a 3d
       -0.007446607 0.003727016 0.054583423 0.049560115
000170 f3 ff 7e 3d fa c4 24 3d f6 81 7a 3d b4 71 99 3c
       0.06225581 0.040226914 0.061159097 0.018730976
000180 1e ad ea 3b a9 e8 11 3c 74 40 bb 3c d4 fa 15 bb
       0.0071617505 0.008905568 0.022857882 -0.00228851
000190 c7 09 2a bc 71 dc 16 3c 94 c6 c2 bd 96 28 5d 3c
       -0.010378308 0.009207831 -0.09510532 0.013498446
0001a0 ec 55 28 bd d0 62 0e bd 87 3e de 3c 66 78 8e bd
       -0.041097566 -0.034762204 0.027129425 -0.06956558
0001b0 d5 49 25 3d 0a dc ea bd c8 10 8f 3d 4d f5 84 39
       0.040353615 -0.1146775 0.06985623 0.00025359765
0001c0 a3 a7 7a bb e7 07 3f 3c 31 db a1 bd 9d 95 99 3c
       -0.0038246892 0.011659599 -0.079031356 0.018748099
0001d0 a7 11 21 3b 87 cc 0e bb 78 46 53 3d e5 15 78 3d
       0.0024577172 -0.0021789388 0.051580876 0.060567755
0001e0 c6 68 99 3d eb 08 4d 3d 44 53 7a 3d cb 60 9c 3d
       0.07490687 0.050057333 0.061114565 0.07635649
0001f0 4b 99 e2 3c 0e a4 57 3d 5e d6 f0 bd 29 b5 8a 3d
       0.027660986 0.05264669 -0.11759637 0.06772835

cvae_parameters.dec_01_lin_w f4 [128, 128]
000000 a4 c6 c7 bc c0 c5 5b 3b 98 09 43 bd 1b 61 e6 bc
       -0.024386711 0.0033534616 -0.04761657 -0.028122475
000010 7d 2a 18 bc 30 a1 15 bd 30 73 99 bc cb 74 09 bd
       -0.009287474 -0.036530674 -0.018731683 -0.033558648
000020 d0 cd 30 bc 84 fe b1 bc 10 6b 67 bd 03 47 8e bc
       -0.010791257 -0.021727808 -0.056498587 -0.017367845
000030 82 53 a0 bc a9 d4 d1 bc 9d db e8 bc 9e 26 d9 3b
       -0.01957107 -0.0256141 -0.028425032 0.006626918
000040 6c fa 64 bc ca c9 55 bc 86 b7 20 39 98 a7 ba bb
       -0.013975721 -0.013048599 0.00015327157 -0.0056962483
000050 37 96 23 bd 13 5c 23 bd 59 11 35 bd 84 c5 0a bc
       -0.039938178 -0.03988273 -0.044205997 -0.008469943
000060 3a a3 98 3c 46 45 8f bc 2b 34 ae bc dd 79 5f bd
       0.01863252 -0.017489087 -0.02126511 -0.054559577
000070 07 8e 78 bd 52 89 ba bc 20 7c 07 bd 0d 27 cf bc
       -0.060682323 -0.022770558 -0.03307736 -0.025287176
000080 5c 69 85 bd 71 d1 0f bc ec a9 ed bc 11 12 e7 bc
       -0.06514236 -0.008777962 -0.02901169 -0.028206857
000090 48 d5 00 bd 45 81 3d bd ed 20 1e bd 83 2d cd bc
       -0.0314534 -0.04626586 -0.03860562 -0.025046116
0000a0 ad 93 03 3c 82 3b fb bc cc ff fd bc 51 b6 3a bc
       0.008030814 -0.030668024 -0.031005763 -0.011396007
0000b0 1e 32 21 bd a2 68 1b bd ea 44 94 bb 98 ed f4 bc
       -0.039354436 -0.037941583 -0.0045248168 -0.02989845
0000c0 81 a2 94 bc 7f 89 11 bd fe 96 37 bd 66 2e cf bb
       -0.018143894 -0.035531517 -0.04482173 -0.00632267
0000d0 60 09 d0 bc 6a c9 24 bb 5a 07 65 3c d2 d6 b7 bc
       -0.025395095 -0.0025144466 0.0139788035 -0.022441301
0000e0 d3 ec 68 3a 91 9b 27 bc e4 da 7b bd 81 34 e7 3c
       0.0008885387 -0.010229961 -0.061488047 0.028223278
0000f0 2e 87 35 bd 3f 8c dc bc d4 35 b0 bc 21 ef 2c bb
       -0.04431837 -0.026922343 -0.021510042 -0.002638765
000100 3d 83 19 bd 44 7b 88 bc 50 7d 47 bc a9 b5 b5 bc
       -0.037478674 -0.01666034 -0.012175873 -0.022181349
000110 74 ac 33 bd 03 b6 34 bd df 9f f9 bc c2 0d 1b bd
       -0.043865636 -0.044118892 -0.03047174 -0.037854917
000120 78 fc ff bb 27 5e 3f bb e8 91 0c bd 39 66 1f bd
       -0.007812079 -0.0029200406 -0.034318835 -0.038915846
000130 ff 6d 05 bd 7c 48 c7 bc 79 9a 8d bb f0 a2 d0 bc
       -0.032575604 -0.024326555 -0.004321393 -0.02546832
000140 3c a5 3e bd 69 69 79 bc 04 e7 15 bd 4f 7a d0 bc
       -0.0465443 -0.015222886 -0.036597267 -0.025448946
000150 3b 2d 97 bc ce 03 cf bb a4 30 0c bd fa 8c ae bc
       -0.018454185 -0.006317592 -0.034226075 -0.021307457
000160 ea ee e7 bc d2 f0 61 bc 23 f0 25 bc cf 6f 85 bc
       -0.028312165 -0.013790326 -0.010128054 -0.016288666
000170 9f b3 7b bb 50 e7 00 bd 1b 8e 8f bc 95 93 7d bc
       -0.0038406623 -0.031470597 -0.017523816 -0.015477081
000180 3e 0d cc bc e5 04 9d bc 08 9f 49 bc e0 95 27 bd
       -0.024908658 -0.019167373 -0.012305982 -0.040914416
000190 17 14 61 bc 38 24 c0 bc 23 19 02 bd f8 91 84 bc
       -0.0137377 -0.02345477 -0.031762253 -0.016182885
0001a0 80 c3 80 bb 28 48 e7 bb 2d 82 e0 3b 5a 7f 02 bd
       -0.0039295554 -0.0070581622 0.0068514557 -0.031859733
0001b0 68 f3 ff bc 2e cd 02 bd fe ab d0 bc a5 d4 74 bc
       -0.031243995 -0.031933956 -0.025472637 -0.0149432765
0001c0 77 8f 11 bd 45 41 9a bc 8a 9b 0a bd 39 8e 55 bd
       -0.03553721 -0.018829951 -0.03383974 -0.052137587
0001d0 be 6f b3 bc 58 07 52 bc 97 c6 1a bd a7 6d b5 bc
       -0.021903869 -0.012819134 -0.037787046 -0.022147013
0001e0 5e 03 4e bc 13 3f 4f bc bf a4 0f bd 6c 3b d2 bc
       -0.012574045 -0.012649315 -0.035069223 -0.0256631
0001f0 f3 99 aa bb 11 14 29 bd 18 40 20 bb bb f9 80 bb
       -0.0052063405 -0.041278902 -0.0024452265 -0.00393602
000200 6b e7 be bc 47 71 a3 ba 12 a7 06 bd 20 4f 30 bc
       -0.023303708 -0.0012469672 -0.032874174 -0.010761052
000210 8c 80 90 bc 46 6a 49 bd 57 49 2a bd 9d 43 38 bd
       -0.01763942 -0.049173616 -0.04157385 -0.044986356
000220 a2 eb f3 bb 7c 33 49 bb 4b 80 a2 bc 86 2d c2 bc
       -0.007443861 -0.0030700853 -0.019836565 -0.023703348
000230 33 21 91 bc 1d f8 b9 bc b2 78 43 bd 91 90 14 3b
       -0.017716026 -0.022701317 -0.047722526 0.0022669176
000240 00 41 84 bc 23 94 00 bb c9 a7 6b bc e2 fe d2 bc
       -0.016144276 -0.0019619546 -0.014383265 -0.025756303
000250 1f 34 78 bb 48 d6 18 bd bb 03 0e bd 83 d6 37 bb
       -0.0037872863 -0.03731373 -0.034671526 -0.0028051443
000260 b1 03 05 3d d7 8d 91 bc ca e8 f1 bc 71 d9 ff bc
       0.032474224 -0.01776783 -0.029529948 -0.031231614
000270 f0 d2 37 bd fe 5d e0 bc 4b 83 46 bd be ef e8 bc
       -0.0448789 -0.027388569 -0.048465054 -0.02843463
000280 d7 c0 0c bd a0 0a f6 bc 96 c0 78 bc d3 91 ef bc
       -0.034363594 -0.030034363 -0.015182635 -0.02924434
000290 b3 86 fc bc 7e 85 5b bd 75 b9 0e bd 4f c8 ba bc
       -0.030825948 -0.053594105 -0.034844834 -0.022800593
0002a0 71 12 c3 bc 21 c3 a7 bc a1 44 4e bc 6b 05 93 bb
       -0.023812504 -0.020478787 -0.012589605 -0.00448673
0002b0 75 b1 1f bd 1c d3 32 bd d4 9f c6 bc ad e8 98 bc
       -0.038987596 -0.04365836 -0.024246134 -0.018665636
0002c0 f4 b7 0a bd c0 31 27 bd 07 f9 25 bd fa d6 c8 bc
       -0.033866838 -0.04081893 -0.040520694 -0.024516571
0002d0 d0 75 d7 3b 94 94 2b bc 9a a5 01 3b 47 0c fb bb
       0.0065753236 -0.0104724355 0.0019782544 -0.0076613757
0002e0 2e 6c 81 bc 52 d2 3e bc 2e 46 15 bd e6 6c 54 3d
       -0.015798654 -0.011646824 -0.03644388 0.051861666
0002f0 e5 44 08 bd 38 75 7e bc 72 8c 67 bb 78 5a 2d 3c
       -0.033268828 -0.015530877 -0.0035331515 0.010580651
000300 e9 84 09 bd af 96 9e bc 8f fe a4 b9 7b 61 16 bc
       -0.03357402 -0.01935896 -0.00031470179 -0.009178515
000310 cb 68 1c bd 63 6b d6 bc b3 05 4a bd 09 69 d1 bc
       -0.038185876 -0.026174253 -0.04932184 -0.02556278
000320 1f 92 bb bc 51 97 8a 3b 0a 50 6d bc 0d 71 13 bd
       -0.022896824 0.004229464 -0.014484415 -0.035996486
000330 70 be fe bc 1e 28 0d bc c6 4b c2 bb 6c 6e 41 bd
       -0.031096667 -0.008615522 -0.005929443 -0.047224447
000340 21 29 fd bc 1c c7 82 bc f0 d5 8e bc c6 6b d4 bc
       -0.0309034 -0.015964083 -0.017435998 -0.025930297
000350 c2 2b 53 bc 20 4d c0 bc fc 68 b2 bc 8d 4e d6 bc
       -0.012888851 -0.023474276 -0.021778576 -0.026160503
000360 13 14 0b bc 7a 4c bf bc be ef d8 bc 33 53 67 ba
       -0.008488673 -0.023351897 -0.026481505 -0.00088243483
000370 6f a4 ae bb de ee 00 bd 83 ab 75 bc 70 d8 b5 bc
       -0.0053296606 -0.0314778 -0.014994505 -0.022197932
000380 1e 36 2c bb ca 92 29 bd f9 bf 55 bc e4 a3 1a bd
       -0.0026277374 -0.041399755 -0.013046258 -0.037753955
000390 27 08 cd bb 6c 82 08 bd e8 50 ee bc 26 98 13 bd
       -0.0062570754 -0.033327505 -0.029091313 -0.036033772
0003a0 dc 2a fe bb c7 4f c0 bc 80 35 c1 bc f1 63 56 bc
       -0.007756574 -0.02347554 -0.023585081 -0.013085351
0003b0 e4 c5 a8 bc 22 1c e4 bc 37 9a 3e bc a5 40 5e bc
       -0.020602174 -0.027845446 -0.011633447 -0.013565217
0003c0 ee 93 d6 bc 45 7c 98 bb 7d 31 1f bd ef 82 6b bd
       -0.026193585 -0.004653486 -0.038865555 -0.057497915
0003d0 53 0b b6 bc 33 25 92 bc 98 3c 04 bd 10 b9 5c 3b
       -0.022222197 -0.017840004 -0.03228435 0.0033679642
0003e0 9b a0 c2 bc 09 2a aa bc f8 ad 09 bd ed f6 02 bd
       -0.023758223 -0.020771997 -0.033613175 -0.031973768
0003f0 00 a9 6f bc bf a3 3b bd a4 0e 93 bc 47 66 4e bc
       -0.014627695 -0.045810457 -0.017951317 -0.012597627

cvae_parameters.enc_00_lin_b f4 [128]
000000 b1 85 5b bd 9e ff b0 3c 13 de d3 3d b1 58 80 bd
       -0.053594295 0.021606263 0.10345092 -0.062669165
000010 b1 1a 5a 3d 12 08 92 bd 18 ba e0 bd 05 6a 61 3d
       0.05324811 -0.071304455 -0.109729946 0.05503275
000020 a0 53 39 bd c1 70 99 bd de 9f 74 bd bd 9d 69 3d
       -0.045245767 -0.07492209 -0.059722774 0.057035197
000030 c6 3a 49 bd 8c b3 5e bd 11 77 c7 bb 9f 7e 62 bd
       -0.049128316 -0.054370448 -0.006087192 -0.055296537
000040 9c 2c c6 3d 16 ba 08 be ff f3 b9 bd 26 49 5f bd
       0.09676477 -0.13352236 -0.09079742 -0.05451312
000050 d1 5a 8f bd bb 4a f2 bd 25 62 d3 bc 46 4b 60 bd
       -0.06999744 -0.1183066 -0.025803635 -0.054759286
000060 46 bc 8e bd c3 29 23 3c b3 82 df bd 35 81 0e be
       -0.06969504 0.009958687 -0.10913601 -0.13916476
000070 f6 ec 54 bd 6c 3b 10 be 3b 39 b3 bd 73 58 3c 3d
       -0.051983796 -0.14085168 -0.0875115 0.04598279
000080 b3 57 d9 bc 9e 9b f1 bc 3a 8c f3 3c e1 51 31 3e
       -0.026531076 -0.02949315 0.029729951 0.1731639
000090 e9 f9 3a 3d 49 85 15 be 99 80 35 be f0 f6 93 3c
       0.04564849 -0.14601626 -0.17724837 0.018062085
0000a0 bd f3 98 bd 53 21 0b bd 22 4a 64 3c 08 c4 9a 3c
       -0.074683644 -0.033967327 0.01393369 0.018892303
0000b0 c0 65 bc bd 51 cf 9c bd 47 e8 f3 bd 7d f9 24 be
       -0.09199095 -0.0765673 -0.11909538 -0.16110797
0000c0 73 c5 2e bd e5 5d 2d bd 97 3c f2 bd cc 7f a1 3d
       -0.04266877 -0.042325873 -0.11827963 0.078857034
0000d0 00 8b f5 bd 83 b3 47 bd 22 14 b2 bd 3b 37 af bd
       -0.11989403 -0.04875518 -0.08695246 -0.08555456
0000e0 a1 c3 6e bc 78 ee 15 3d 92 26 be 3c 52 24 d3 bc
       -0.014573009 0.036604375 0.023211751 -0.025774155
0000f0 db 27 1c 3d ec 92 aa bd c6 01 d5 bd 25 e1 e8 3c
       0.038123947 -0.083288044 -0.10400729 0.02842767
000100 16 4a 16 3e 89 6c 2b be e7 b7 0e be 50 bb d7 bd
       0.14676699 -0.16740622 -0.1393734 -0.10533774
000110 11 9d e1 bd 46 fe 62 bd 8c d7 68 bb 54 f3 35 bd
       -0.11016286 -0.055418275 -0.0035528867 -0.04442151
000120 35 6b f3 bd 9b dc b0 bd bf f4 6d 3b 69 50 0a bd
       -0.118856825 -0.08635827 0.003630921 -0.03376809
000130 ec fb d4 bd 7c 4b 3f bd 83 fc 92 3d 73 4c fb bd
       -0.10399613 -0.046702847 0.07177069 -0.12270441
000140 f6 89 06 be d2 19 03 3e 9f 7e ca bd 0f 2d a5 bd
       -0.13138565 0.12802818 -0.09887432 -0.08065235
000150 47 f2 92 3c f3 15 3f bd 60 8f 12 be c6 ab 82 3b
       0.017937792 -0.04665179 -0.14312506 0.003987762
000160 bf d8 71 bd 35 fd 3d bc 5a 76 0b be b1 d2 94 bd
       -0.059044596 -0.011596014 -0.13619366 -0.07266749
000170 c9 6e 85 bb 8d c7 e5 bd b2 c9 f7 3d eb e0 28 be
       -0.0040720445 -0.11219702 0.12099017 -0.1649205
000180 9e 20 72 3d 05 32 02 bd 26 0a cd bd fa 4b 26 3d
       0.059113137 -0.031785984 -0.10011701 0.0405998
000190 2d 7d 6f 3b 42 18 aa bd 82 40 ca bc 02 14 bf 3d
       0.0036543116 -0.08305408 -0.024688963 0.09329988
0001a0 da f0 e8 bd 68 c1 b2 bd 15 16 e8 bd d2 f8 c5 bd
       -0.11374064 -0.087282956 -0.11332337 -0.09666599
0001b0 db 0a 82 bd 81 fc 49 3d ab 52 d5 bc ab 2a bf bc
       -0.06349727 0.049313072 -0.026040396 -0.023335775
0001c0 a1 d3 f1 3d 95 1f a6 bd 69 62 ac bd 20 27 e7 bc
       0.11807943 -0.081114925 -0.08417208 -0.028216898
0001d0 07 75 20 be f5 24 98 bc ab 53 8d bd ba cb 15 3d
       -0.15669642 -0.01857231 -0.06900724 0.036571242
0001e0 6d 4c fd 3b ee d4 ce bd 28 44 aa bd 02 e6 dd bd
       0.007730058 -0.10099207 -0.08313781 -0.10834886
0001f0 db 37 c1 bd 81 c3 e4 bd 9b d7 11 be af 90 d6 bc
       -0.09434482 -0.11170102 -0.14242403 -0.026192037

cvae_parameters.enc_00_lin_w f4 [128, 123]
000000 25 ce 33 bc 16 13 7f bd 18 c3 ec bc 28 96 99 3c
       -0.010974442 -0.06227406 -0.028901622 0.018748358
000010 cb ea 3a 3d f7 94 07 bc b1 9b 60 bd 2e 0d 6c bd
       0.045634072 -0.008275262 -0.05483598 -0.057629757
000020 a0 10 9c bd 4f 03 f1 3c 3b 86 9b 3d f8 44 49 bd
       -0.076203585 0.029420523 0.07593962 -0.04913804
000030 c2 91 1f bd 31 64 82 3c 96 dd 9f bd 4f a7 27 3c
       -0.038957365 0.015916916 -0.07805936 0.010232761
000040 32 13 25 3d f9 ae c5 bd 7b 37 0e bd be ec 2d bd
       0.04030151 -0.09652514 -0.03472088 -0.042462103
000050 c6 78 bb bd d8 95 9f bd b7 c0 36 3d 6e bc cc bd
       -0.09153895 -0.07792252 0.04461738 -0.099968776
000060 c4 1e 90 bd e2 a2 97 bd 8e 6f f3 bd 4a d5 bf bd
       -0.07037118 -0.07404114 -0.11886512 -0.093668535
000070 71 fa 02 3d 9e 66 f8 bd 87 1a b8 bc ef f1 83 bd
       0.03197712 -0.12128948 -0.022473587 -0.064426295
000080 e0 51 ce bd 45 aa 1e bd fe 3a 88 3c 14 ba d4 bd
       -0.1007421 -0.0387366 0.016629692 -0.10387054
000090 76 8a 21 bc a2 ad 3a bc 3d e4 eb bd 2f 67 7a bd
       -0.009859672 -0.011393936 -0.11518142 -0.06113356
0000a0 c9 b3 77 3c 91 3b 76 bd 11 6c 9b bd bc f0 24 3c
       0.015118548 -0.0601154 -0.075889714 0.010067161
0000b0 05 20 e7 bd 4f e1 46 bd 64 c8 d3 3c 1a 25 36 be
       -0.11285404 -0.048554715 0.02585239 -0.1778759
0000c0 14 17 04 be 94 c7 f0 bc 5b f4 e5 bc 94 30 d9 bb
       -0.12899429 -0.029392041 -0.02807062 -0.0066281054
0000d0 c4 c3 a3 3d 60 b2 ba bd e2 7c cf bd 7b d3 c4 bd
       0.07996324 -0.091160536 -0.101312414 -0.09610649
0000e0 76 f3 81 bd 03 96 18 3c aa c0 a1 3d bd 16 7d 3d
       -0.063452646 0.009313109 0.07898076 0.061789263
0000f0 89 fb 11 be 82 aa 08 bc 30 0e 98 bd 5c 6b fd 3c
       -0.1425611 -0.0083414335 -0.07424581 0.030934982
000100 07 7a db 3c 2e 09 10 bd e7 cd 89 bd 60 29 5b 3d
       0.026791586 -0.035165004 -0.06728726 0.053506255
000110 67 fc a3 bd 2e 8d 44 3d f4 c1 50 3d 47 e7 2c 3d
       -0.08007126 0.047986202 0.050966218 0.04221275
000120 da 7d 27 3c 14 f0 0b bd 82 94 79 bd 56 a5 07 bd
       0.010222876 -0.034164503 -0.060932644 -0.03311666
000130 2f 4d ce 3c f0 a4 ef 3c 14 78 27 3d e4 b0 a8 3c
       0.025183288 0.029253453 0.040886 0.02059216
000140 49 c3 92 bc a3 7c 7f bc 01 9a 72 3d 28 62 b6 bd
       -0.017915385 -0.015593681 0.0592289 -0.089054406
000150 28 c1 87 3d c1 ab 1b 3d 68 f1 94 3c 42 9e b3 3c
       0.066286385 0.038005594 0.018181518 0.02192605
000160 e5 ed 67 3d 6a 0f be bd 4b 7b a9 3c 21 74 93 bc
       0.05662336 -0.09280284 0.020688673 -0.01799971
000170 cc f2 dd 3c 49 ad f7 bc 84 5f dd 3c ad 1c ba bd
       0.027093314 -0.030233996 0.027023084 -0.09087501
000180 39 fe a1 3d ab 60 ed bd 62 b4 33 3d ef a2 ff bc
       0.07909817 -0.115907036 0.0438732 -0.031205622
000190 da 04 50 3c e2 80 c2 bd 54 19 95 3d d8 05 60 bd
       0.012696469 -0.09497239 0.072802216 -0.054693073
0001a0 a2 11 00 bd b0 2d 09 bd 8f c9 fb bb ff 97 6b bd
       -0.031266816 -0.033490837 -0.0076839398 -0.057518
0001b0 48 c0 ed 3c e2 99 4c bc 74 e5 ee ba 8f e5 03 bd
       0.02902235 -0.01248786 -0.0018226341 -0.032201346
0001c0 69 db 4c 3b 5a 5e 63 bd 09 84 64 ba 94 a8 59 bd
       0.0031258708 -0.055509903 -0.00087171845 -0.053139284
0001d0 90 06 84 bc 7d 56 f5 3c 41 59 e7 3c c7 2a 6e bc
       -0.01611641 0.029948467 0.028240802 -0.014536566
0001e0 bc 0b cc bb d1 85 6e bd b2 6e 9d 3c 14 3a 87 3c
       -0.006226985 -0.058233086 0.019217823 0.016507186
0001f0 92 0a 9e 3d e3 af 47 3d 15 ba 50 3b be cf 1f 3d
       0.0771686 0.048751723 0.0031849195 0.039016478
000200 f7 e1 76 bb 57 64 82 3d 84 e7 24 3d 64 e8 ba 3d
       -0.0037671307 0.063667946 0.040259853 0.09126356
000210 c9 23 d7 3d 00 28 45 3c 8d 84 6d 3d b3 2a ab 3c
       0.10504872 0.0120334625 0.05798774 0.020894384
000220 13 fd 22 3c c4 3c af 3d 47 6a b4 3d c8 75 5d bd
       0.009948033 0.08556512 0.08809333 -0.054067403
000230 77 bf da 3c 64 09 47 3c 30 30 07 3d d5 c6 61 3d
       0.026702626 0.012148235 0.03300494 0.05512126
000240 c7 d1 82 3c 25 38 4f bc 08 ba 62 bd 4a 12 bc 3d
       0.01596917 -0.012647663 -0.055353194 0.09183176
000250 a9 a2 91 3d 58 0d bf 3d 13 5f b8 3c 1f 34 93 3d
       0.07111103 0.09328717 0.022506272 0.07187676
000260 15 ac d4 bd 0e 22 0d 3d cd 37 e7 bc 96 6b b5 3d
       -0.103843845 0.034456305 -0.02822485 0.08858411
000270 1c 50 1d 3a 90 10 c5 3d d3 66 98 3a e2 be 7d 3d
       0.0006001012 0.096223 0.0011627324 0.06194962
000280 e2 e2 c0 bd 40 e3 7d 3d 45 e7 58 bd 07 2f ba 3d
       -0.094182745 0.0619843 -0.05295493 0.09091001
000290 1e 3e 2f 3d fe 7e ae 3d ea 4d 90 bc db 2f 7b 3d
       0.04278385 0.085203156 -0.017615277 0.061324935
0002a0 33 89 c7 bd 80 41 80 bc 19 20 73 3c 4f b9 23 3d
       -0.097429655 -0.015656233 0.014839196 0.039971646
0002b0 c5 69 90 3c 2b c1 c1 3c 98 c5 f3 3c 10 11 08 bd
       0.01762856 0.02365168 0.029757306 -0.033219397
0002c0 f7 72 69 bd e5 98 8b 3c 79 c6 e6 3c f8 01 5f bd
       -0.056994405 0.01704068 0.028170811 -0.054445237
0002d0 d1 76 5a 3d d6 ca 09 3d 3a 92 92 bd d9 6c 5e bd
       0.05333597 0.033640705 -0.07156797 -0.054303024
0002e0 ed 03 b5 3b 31 8f f8 bc 3b b0 4e 39 aa f1 22 bd
       0.0055241496 -0.030341716 0.00019711342 -0.03978125
0002f0 5e 3a 14 bd e5 0a 46 bd 6b 16 e3 bb cd be 84 3c
       -0.036188476 -0.048350234 -0.0069301627 0.016204262
000300 f1 15 a2 bd e0 b2 8d bd 27 59 00 3d 61 09 0f 3d
       -0.07914341 -0.06918883 0.031335022 0.034921054
000310 c2 21 7b 3d a0 ae b1 3d 39 68 8a bd 27 76 66 3c
       0.06131149 0.08675885 -0.0675816 0.014066256
000320 be 0f 73 3c e0 63 52 3c 48 e5 29 3d 2d 5f bf 3d
       0.014835296 0.012841195 0.041478425 0.09344325
000330 f3 ea 2a bc e9 69 65 3d 5c fb 85 bd 2d 24 ae ba
       -0.010431993 0.056009207 -0.065420836 -0.0013285928
000340 2e 86 9a 3c 5b 33 53 3d 9b 73 12 3d 92 5c d3 3c
       0.01886281 0.05156265 0.03575478 0.025800977
000350 8f 5a a5 bd b1 bf 2c bc 0d dd d7 3c c8 34 c2 3c
       -0.08073913 -0.01054375 0.026350522 0.023706809
000360 b1 8a 2b 3b b3 02 59 bd 90 32 03 3c 80 73 67 bd
       0.0026175196 -0.05298109 0.0080076605 -0.056506634
000370 96 25 9d 3d 78 6d aa 3d d5 9d 90 ba 06 39 8d bd
       0.076731846 0.08321661 -0.0011033366 -0.06895642
000380 e6 ce 55 bc 72 03 bc bb b0 b2 36 3c 1b de 55 3d
       -0.013049817 -0.0057377154 0.011151001 0.05221377
000390 3b 3e 7c 3d 35 bb e4 3c 03 51 15 bd 8a 30 72 bb
       0.061582785 0.027921299 -0.036454212 -0.00369552
0003a0 aa 42 60 3d 40 e0 c3 3c 1f be 95 3d 4e c9 3b 3d
       0.054751076 0.023910642 0.07311653 0.045846276
0003b0 61 f4 8e bc 09 bd d9 3c 62 24 b1 3d 3a 5d a5 3c
       -0.017450513 0.026579397 0.086495176 0.020186055
0003c0 2d c8 6a bc e3 df f7 3b 31 20 03 3c e7 b7 30 bc
       -0.014329952 0.007564531 0.0080032805 -0.010786033
0003d0 6c 7b 13 3d 40 f5 90 ba 8b 35 b0 3c fa 52 98 3c
       0.036006376 -0.0011059418 0.021509906 0.018594254
0003e0 56 3f dd bd ce 3a 10 3e 45 d0 37 bd 5f c6 0a 3d
       -0.10803096 0.14084932 -0.044876356 0.033880588
0003f0 ee 13 3a bc ae f3 d9 ba f4 6b 42 3d 0c 1e db 3d
       -0.011357291 -0.0016628408 0.047466233 0.1069909

cvae_parameters.enc_01_lin_b f4 [128]
000000 3d 16 b0 3c 3b 74 e9 3d e7 12 d4 3d 18 e5 ab bc
       0.021494979 0.11399122 0.10355168 -0.020983264
000010 f3 1d 02 3e 36 40 85 3d ec ec f9 3d a8 d3 a6 3d
       0.12706737 0.06506388 0.122033924 0.08145839
000020 92 8f 57 3d 40 32 86 3c 3d 71 b8 3d 4c 35 e8 3d
       0.052627154 0.016381383 0.090059735 0.113382906
000030 d5 d6 81 3d 1b 1c 65 3d 77 20 e6 3d 9d 9f c4 bb
       0.06339804 0.055935007 0.11236661 -0.0060004727
000040 62 f5 0e bc dc 91 9b 3c 20 52 08 3e b7 f0 76 3d
       -0.008725496 0.01899045 0.13312578 0.060288157
000050 e7 59 e8 3d ee cb f2 3d e8 ec 07 3d 57 e6 c4 3d
       0.113452725 0.11855303 0.033184916 0.09614246
000060 87 ba b2 3d fa 8f c6 3d 1a 73 14 3e bd 8f 53 bc
       0.087269835 0.0969543 0.14497033 -0.012912688
000070 c9 35 e0 3d a2 22 cb 3d 13 05 ea 3d 96 b7 f1 3d
       0.10947759 0.09918715 0.11426749 0.11802594
000080 ba 23 8e 3d 64 eb f3 3d ad 41 e6 3c 65 83 e8 3d
       0.06940408 0.119101316 0.028107489 0.113531865
000090 41 1c 54 bd f2 d5 06 3d f6 30 fa bc 8b 3b c5 3d
       -0.051784758 0.032918878 -0.030540925 0.096304975
0000a0 b1 86 8b 3d 30 18 10 3e 31 c4 d3 3d ff 05 74 bc
       0.068128 0.14071727 0.10340155 -0.014894008
0000b0 e2 7a 08 3e 90 06 d2 3d c4 79 4e 39 01 58 6e 3a
       0.13328126 0.10255158 0.00019691052 0.0009092093
0000c0 2b 64 a8 3c d5 fe ac 3d 5f 30 e2 3d fd 34 89 3d
       0.020555576 0.08447043 0.11044382 0.0669956
0000d0 32 10 13 3e a9 61 17 3e d9 ef dc 3d 05 90 6e 3d
       0.14361647 0.14783348 0.10787935 0.058242816
0000e0 0c 5a 78 bd ef f8 9f 3d 4a 35 86 3d c5 0b 0f 3d
       -0.06063275 0.07811152 0.06553133 0.034923334
0000f0 8f 8e 09 bd f7 a1 46 bd 41 df c6 3d d0 de 0b 3d
       -0.03358322 -0.048494305 0.09710551 0.034148037
000100 b5 02 bc 3d 69 d8 ed 3c 16 46 e5 bc 87 d5 e5 3c
       0.09180204 0.029033856 -0.027987521 0.02805592
000110 06 6e a6 3d 5f 2a 8a bc 5b 37 ba bc 35 32 1c 3e
       0.08126454 -0.016865907 -0.022731474 0.15253527
000120 a1 42 23 3c fb c5 f3 3d 8e 05 2c 3d 8a 4c 01 3e
       0.009964616 0.11902996 0.041997485 0.12626854
000130 89 09 af 3c d4 6c 2c 3d af 93 21 3e 64 4c 13 3e
       0.021366851 0.042095974 0.15778993 0.1438461
000140 e5 3a fd 3d ad 04 af bb ca 05 bf 3d 19 65 1b 3e
       0.12364749 -0.0053411336 0.09327276 0.15175284
000150 d2 f8 b4 bc 38 c4 f9 3d fa f1 02 3e 8b 67 f4 3d
       -0.022091303 0.12195629 0.12787619 0.11933812
000160 0b 13 42 bd 00 c2 ee 3d c8 20 0c 3e aa 1f 4c 3d
       -0.047381442 0.11658096 0.1368438 0.049834885
000170 73 b9 f1 3c 79 14 2b bd b6 2e 13 3e df 65 ca 3c
       0.029507374 -0.04176757 0.14373288 0.024706779
000180 a3 42 f2 3d 6a a6 3c 3d 9c 20 53 3d ae db f7 3d
       0.11829116 0.046057142 0.05154477 0.121024475
000190 b0 05 31 3d 49 9c c2 3c 35 f4 6c bc 82 33 96 3d
       0.043218315 0.023756163 -0.01446252 0.07334043
0001a0 5a da e0 3c 5d 1b e3 bb fc 11 f2 3c fe 00 01 3e
       0.027447868 -0.006930752 0.029549591 0.12598035
0001b0 cb 1d f5 3d bf 93 7a 3d 25 0c c3 3d f6 22 9b 3c
       0.11968573 0.061176058 0.09523801 0.01893757
0001c0 ac 8d d0 bb 7d 50 a9 3d 34 9f 01 bd 8b 37 76 3d
       -0.006364545 0.08267305 -0.03164597 0.060111564
0001d0 e8 19 50 3c b8 b9 a5 3d 40 b1 e8 3d 5a f7 12 3e
       0.012701489 0.08092064 0.11361933 0.1435217
0001e0 cc f6 be bc ec 09 cc 3d 37 cd 9b 3d 1d 9e 53 bc
       -0.023311041 0.0996283 0.07607501 -0.012916115
0001f0 e8 cc e5 3d 68 5b f0 3d d5 64 2d 3e 74 5f 43 3c
       0.112207234 0.11736184 0.16932996 0.011924613

cvae_parameters.enc_01_lin_w f4 [128, 128]
000000 79 c9 95 bc b3 fd 65 3c d4 3d b2 3c c6 9f 59 3c
       -0.018284546 0.014037537 0.021757998 0.013282722
000010 de a7 67 bb 42 f9 38 3d f8 47 1f bc 67 58 a0 bc
       -0.003534786 0.045159586 -0.0097217485 -0.019573404
000020 1b 18 c6 3c de 65 89 3c dc 4f d7 3c 33 a9 31 bc
       0.024181416 0.016772207 0.026283197 -0.010843563
000030 c0 0c 5c bb 26 97 89 3c 3d 10 24 3c c9 67 01 3c
       -0.0033576936 0.016795706 0.010013637 0.0078982795
000040 07 02 fe bc 17 e8 a6 3c e2 43 ea 3c 57 91 9a 3c
       -0.031006826 0.020374341 0.028596822 0.018868132
000050 0c 5b 24 bc f7 9b 3c 3c 77 5d 48 3c 0a 12 2f 3d
       -0.010031473 0.011511794 0.012229315 0.042741813
000060 75 9c 81 3b 1a bf 34 bc f4 07 e5 3c 42 ec ad 3c
       0.0039554187 -0.01103189 0.027957894 0.02123082
000070 05 8c 39 3d 19 7d 9d 3c af 0e cc 3c 2e c8 00 3d
       0.04529955 0.01922469 0.024909345 0.031440906
000080 65 6f 8f 3b 73 99 28 bb 00 9d 26 3d 3d 46 33 bc
       0.004377293 -0.0025726228 0.04067707 -0.010942039
000090 df b4 ef bb 2d a9 ce bb 86 f4 ae 3a a4 06 f1 3c
       -0.0073152627 -0.0063067884 0.001334802 0.029422112
0000a0 1d 0c 91 3b 45 df e8 3b b8 8f 04 3d 32 f2 de 3c
       0.004426493 0.007106694 0.032363623 0.027215097
0000b0 3e 09 60 3c fb 5a fb bb 66 d1 94 3c ad 42 a2 3b
       0.0136740785 -0.007670758 0.018166255 0.004951796
0000c0 10 c8 09 3b dd 28 70 bc 1b 67 fc 3c 17 cd 32 3b
       0.0021023788 -0.01465818 0.030810883 0.0027282888
0000d0 b4 60 2c 3d ad 12 19 3c ec 34 40 3c 02 30 0c bd
       0.04208441 0.009342832 0.011731368 -0.03422547
0000e0 f2 cc 9a 3c 35 5e 0c bd 8c 4c be 3c 70 ca 1b bc
       0.018896554 -0.03426953 0.02322986 -0.009508714
0000f0 90 13 b5 bc f5 3b 31 3d 96 a4 ef 3c c2 5b eb bc
       -0.022104055 0.04327007 0.029253285 -0.028730277
000100 c0 3a ad bc c0 a4 2c 3b 8d 79 f1 3c 0a 3e a7 bc
       -0.021146178 0.0026343316 0.029476905 -0.020415325
000110 40 ec dc 3c 9b 9a ef bc 61 ae ca 3c 14 7d 3d 3c
       0.026968122 -0.029248526 0.024741353 0.0115654655
000120 2e 01 c5 3b 99 25 6f 3c 7b b5 40 bb ca 6b 9f bc
       0.0060121035 0.014596366 -0.0029405046 -0.019460578
000130 4c 89 62 3c c6 96 21 3d cd 0e 4b 3b 81 f0 39 3c
       0.013826679 0.03945043 0.0030984164 0.0113488445
000140 2e c4 b5 bb 34 ab 6b 3c 61 38 05 3d 16 25 46 bc
       -0.005547068 0.01438408 0.03252447 -0.012093803
000150 e1 d4 48 3d 69 c9 70 3c 71 0b 90 bc cf 58 ce ba
       0.049031142 0.014696457 -0.01758358 -0.001574302
000160 72 8f e9 bb e4 e0 c7 3c 8d 6b b1 bc 3e 46 22 bc
       -0.0071276957 0.024399228 -0.02165773 -0.009904442
000170 a0 01 9e bc 4a 95 46 3c c1 37 b8 3c d0 c9 c3 3c
       -0.019287884 0.012120554 0.022487523 0.023899943
000180 f5 03 3d 3c 18 62 c2 3c e8 fe 6e bc 4b f7 a5 3c
       0.011536588 0.023728415 -0.014587142 0.02025952
000190 2d 39 3a 3d 02 a3 e9 bb 14 64 0e bc 03 e2 f6 bc
       0.045464683 -0.0071300277 -0.008690853 -0.030137068
0001a0 20 b1 06 bc 06 b6 e9 3c bf 34 c0 3c 1e 45 e0 3b
       -0.008220941 0.028529178 0.023462651 0.006844177
0001b0 48 9f 20 bc 00 fd 96 bc 30 5e 8c bc 51 e1 4d 3c
       -0.009803601 -0.018431187 -0.017134756 0.012565927
0001c0 bd 6d 63 3c ce fc c5 3b 34 4c 4c 3c 9a 36 13 3d
       0.013881144 0.0060420996 0.01246934 0.035940744
0001d0 83 e6 11 bd 81 3f 93 bc 00 83 b8 3b f8 81 84 3c
       -0.035620224 -0.017974617 0.005630851 0.016175255
0001e0 dc e3 20 3c c6 2a d4 3c 82 d5 32 3c 15 e9 ad bb
       0.009819951 0.025899302 0.010915162 -0.0053073266
0001f0 c9 9d 95 3c 17 ca 42 3d d2 99 34 3d 40 b3 38 3c
       0.018263714 0.04755601 0.044092007 0.011273205
000200 4b c4 87 3d 22 11 82 3c dc 65 87 3c b5 e3 27 3d
       0.06629237 0.01587731 0.016528063 0.040988643
000210 ba 0a 8b 3d 3d 53 a5 3c 69 89 1a 3c 1e f2 90 3c
       0.06789155 0.020181293 0.009432175 0.017693575
000220 06 d0 88 bd 4f ac f4 3c 76 f6 6d bd 18 92 74 3d
       -0.06680302 0.02986732 -0.05809637 0.05970964
000230 bc 2d 38 bc 17 0c 5d 3d 4a 5b 46 3c f8 c5 a7 bb
       -0.011241373 0.053966608 0.012106726 -0.0051200353
000240 79 d9 65 3d 91 3c de 3c df 19 28 3d 7a 15 d6 3c
       0.0561156 0.02712849 0.041040298 0.026133288
000250 18 c6 1b 3d d7 2a b0 3d a5 93 62 3d 39 fc 0b bc
       0.038030714 0.08601921 0.055316586 -0.008544021
000260 a0 39 54 3d a4 d6 2f bc a2 56 30 3a fb 98 b8 bb
       0.051812768 -0.010732327 0.00067267765 -0.005633471
000270 5c dc 33 bd d3 46 d7 3c fb 26 22 bc c5 c7 29 3d
       -0.043911323 0.026278889 -0.009896989 0.04145028
000280 18 e3 ba 3c cc f5 4a 3d c3 33 68 3d fd 61 98 3d
       0.022813365 0.049550816 0.05668999 0.07440565
000290 93 37 a9 3d f2 ef 97 bc cc e3 83 3d 39 56 7b 3c
       0.08262553 -0.018547032 0.06439933 0.015340381
0002a0 57 c7 88 bb b5 25 1e 3d d6 77 ce 39 b9 55 ac 3d
       -0.004174154 0.03861018 0.00039380667 0.08414788
0002b0 9c 43 8f 3d fd 6f 5f 3d 0a 54 c9 3c 83 69 a4 3c
       0.06995317 0.05455016 0.024576206 0.020069843
0002c0 dc 0b 78 3d 0b a6 8c bc d5 d9 d1 3d ac db 7f 3d
       0.060558185 -0.01716902 0.10246626 0.062465355
0002d0 31 bc b1 ba ef 99 2f 3d 21 fc 1a 3c c2 56 c1 3c
       -0.0013560114 0.042871412 0.009459526 0.02360094
0002e0 f2 ce c9 3c 26 41 52 3d 42 14 ce 3a de a5 59 3c
       0.024634812 0.05133166 0.001572259 0.013284175
0002f0 ec 07 98 3d d0 04 48 3d 90 fd ca 3c cd 5f 46 3b
       0.07423386 0.048832715 0.024779111 0.0030269504
000300 86 df e1 3d 28 0a 7c 3d 26 ec bf 3d e8 6b bf 3d
       0.11028962 0.061533123 0.093712136 0.09346753
000310 12 12 be 3d 92 47 80 3d 6a 40 c2 3c 75 6a 34 3d
       0.092807904 0.06263651 0.023712356 0.044046838
000320 c5 ab b3 3b 3a 7b 52 3d 6c 14 79 bd 18 b6 75 3d
       0.005483123 0.05138705 -0.06081049 0.05998811
000330 dd c0 11 3d 31 69 8e 3d b8 44 3b 3d 4f 60 50 3d
       0.03558432 0.069536574 0.045719832 0.050873097
000340 fa 37 0d 3d 89 09 82 3d 08 96 ce 3b 19 c7 23 3d
       0.03447721 0.06349475 0.006304506 0.039984796
000350 fb 21 07 3c 10 ef 5d 3d cf 30 dc 3c 9c b4 1a 3d
       0.008247848 0.054183066 0.026878743 0.0377699
000360 77 c3 2c 3d f0 8d 88 bd cf c0 1e 3d 51 6c c9 3c
       0.042178597 -0.066676974 0.038758095 0.024587782
000370 3b 56 aa 3b 2d 30 7b 3d f4 7e c2 3c f3 0f 82 3d
       0.0051982678 0.06132524 0.023742177 0.06350698
000380 db f8 57 bd 1f f0 19 3d 99 ad b4 3d 8d 9a cf 3c
       -0.05272756 0.037582513 0.088221736 0.02534225
000390 0c 59 7b bc b2 6d 3e 3d 1b d1 d2 3b e5 89 ac 3d
       -0.015341055 0.046491332 0.0064336187 0.08424739
0003a0 b2 c8 05 3b c7 0f 66 3d c8 04 a4 3b 3e 76 cc 3b
       0.0020413813 0.05616739 0.005005453 0.0062396815
0003b0 18 6e 7c bc a0 af e3 3d c4 a3 67 3d 04 b8 6b 3d
       -0.015407108 0.11117482 0.056552663 0.057548538
0003c0 75 a9 8e 3d b5 96 fe 3c 8c 41 19 bd 56 36 45 3c
       0.06965915 0.031077722 -0.037416026 0.0120368805
0003d0 ee 8f 63 3d 06 31 63 39 e0 fd fd 3a 0b 81 3c 3d
       0.055557184 0.0002166667 0.0019378029 0.046021502
0003e0 0d b9 cd 3c bf ce 8e 3c aa 33 90 3c 82 69 f3 3c
       0.025112653 0.017432569 0.01760276 0.029713396
0003f0 61 ce fc 3b 56 1e 99 bc 21 69 e2 bc c0 e3 6e 3c
       0.007715032 -0.018691223 -0.02763802 0.014580667

cvae_parameters.out_lin_b f4 [120]
000000 24 4b ed 3d be e5 8d 3d 16 66 ab bd f2 95 be bd
       0.115865976 0.069285855 -0.08369081 -0.093059435
000010 3d 02 70 bd a2 8b 96 bb f2 ab 49 3e 6a 74 b4 bc
       -0.058595885 -0.0045942822 0.19694498 -0.022028167
000020 16 a7 ab bd 26 ab 3d be 79 65 00 be 54 86 84 3d
       -0.083814785 -0.18522319 -0.12538709 0.064709336
000030 a9 fe 40 3e be c3 da 3d 10 6b dc bd b2 5b 80 be
       0.18847145 0.10681866 -0.10762608 -0.25069958
000040 0c 98 c2 bd 4f a0 ab 3d e9 f6 bd 3d 73 83 58 3e
       -0.09501657 0.08380186 0.0927561 0.21143894
000050 4f e5 91 bd 94 f7 69 be 04 ea a8 bb 58 cc 79 3b
       -0.07123815 -0.2284835 -0.00515485 0.0038116183
000060 c6 8e d0 3d 18 2f dc 3d 55 69 01 3c 16 79 d4 bd
       0.10183482 0.1075117 0.007898648 -0.10374658
000070 3a 83 0a be 0c 96 8c 3b c6 6d 10 3d 31 eb 18 3e
       -0.13526621 0.004290348 0.035260938 0.14933468
000080 84 60 2b 3d fb d0 08 be da cd 8a be 0d 89 8e 3d
       0.04184009 -0.1336097 -0.27110177 0.06959734
000090 32 cd 18 3e fc 28 66 3e a7 3c ab 3d 8e 39 28 be
       0.14922026 0.22476572 0.08361178 -0.16428205
0000a0 57 95 76 be 6d 52 ce 3d 07 bf 29 3e 21 15 25 3e
       -0.24080406 0.10074315 0.16576777 0.16121341
0000b0 95 f6 6b 3c be 0a 5a be 9a 79 c9 bd 30 f4 17 3e
       0.014402051 -0.2129316 -0.09837647 0.14839244
0000c0 7f 01 56 3e cb 26 0d 3e 84 98 a8 bd 4a 77 25 be
       0.20899008 0.1378433 -0.08232215 -0.16158786
0000d0 11 1b ac 3d 41 28 03 3e 05 ab 80 3e 3d 31 f0 3d
       0.084036 0.12808324 0.25130478 0.117281415
0000e0 e3 11 c7 bc b2 4e a4 bc 9a 58 2b 3e a1 52 dd 3d
       -0.024300521 -0.020057056 0.16733018 0.10806776
0000f0 22 58 81 3e 9a be 74 3c 91 8b 73 bd 4c 96 66 3d
       0.25262552 0.014938021 -0.059459273 0.056295678
000100 3e a7 66 bd 03 7b 2e 3c f1 5a 65 3e af e9 0d be
       -0.05631184 0.0106494455 0.22397973 -0.13858674
000110 46 43 c9 3c 55 48 ce 3d 27 a9 60 bd 2c 2f 13 be
       0.024568211 0.1007239 -0.054848816 -0.14373463
000120 a1 9a 26 3e 66 93 07 bd 73 0d f4 3c 49 6e 17 bd
       0.16269924 -0.033099554 0.02979157 -0.03697041
000130 ae 92 0c bd d7 72 96 bd 05 4b 39 3e c3 e3 a2 bd
       -0.034319572 -0.07346123 0.18095024 -0.07953598
000140 d3 dc 6f be 08 b2 5c be b8 2c 06 bc 5c e7 80 bd
       -0.23424082 -0.21552289 -0.008189373 -0.06294128
000150 dd ee fc 3d 4b 1e 89 bd 79 dd cf be d0 00 60 be
       0.12350247 -0.06695231 -0.40598658 -0.2187531
000160 3e e4 32 bd 50 75 76 bb 0d ab f4 3d 24 d9 a2 3c
       -0.0436747 -0.0037606545 0.11946688 0.019878931
000170 26 4f 91 be 84 26 c5 be 05 93 4b be d3 c9 eb 3b
       -0.28380698 -0.38505948 -0.19880302 0.00719569
000180 66 10 e4 3a fb 2a 8c 3e 58 a5 14 be 07 18 b7 be
       0.0017399907 0.27376541 -0.14516199 -0.3576052
000190 7c 72 cd bd 5c 34 a1 bb 2f ac ba bd 4b 28 8c 3e
       -0.10031602 -0.004919572 -0.09114873 0.2737449
0001a0 5e b2 93 be 1d 55 6b be 25 03 98 bd 8c da 2b 3d
       -0.2884702 -0.22981687 -0.07422475 0.04195647
0001b0 f8 f9 d3 3d 11 35 05 3e 91 70 4b be 24 86 18 be
       0.10350412 0.13008524 -0.1986716 -0.1489492
0001c0 19 73 2a bd 7e 8a 42 bc 81 94 f5 3d 90 b7 91 3d
       -0.041613672 -0.011873839 0.119912155 0.0711509
0001d0 a7 29 b9 bd 05 af bc bd e2 1f 6d bd 47 ef b1 bb
       -0.09041148 -0.0921307 -0.057891734 -0.0054301354
