dlpg/15/weights/dlpg_model_weights_200.pth (torch, 313083 bytes, 14 tensors)

cvae_parameters.dec_00_lin_b f4 [128]
00000000: 685f 46bd 59f7 11bd 6bb8 0fbd 8238 26bd
00000010: 50df 27bd 698f 3bbd 734f 06bd efb1 35bd
00000020: 67b8 17bd 8ca0 1cbd 51f1 03bd 79c4 cdbc
00000030: 7562 24bd dc98 d7bc dfe7 20bd f683 02bd
00000040: a689 34bd db57 98bc 2a31 1fbd 6b84 19bd
00000050: e87e 1abd b60e 1fbd 7f67 54bd d494 4ebd
00000060: efa1 29bd 4eab 13bd 8330 06bd 5956 3ebd
00000070: 3382 0bbd afa7 eebc 3d81 11bd 18c5 09bd
00000080: 80f2 e9bc ddb8 d6bc 5b05 13bd 684e 41bd
00000090: ecf7 48bd 8b83 f0bc 6de6 42bd 0993 09bd
000000a0: f11c 1bbd a80f 48bd 9f97 26bd bb76 09bd
000000b0: 2995 31bd 491f 3bbd 7d31 16bd e0ef 00bd
000000c0: 81b2 14bd 80d3 03bd 448e 21bd 25a1 c5bc
000000d0: 0277 5bbd ad0d 04bd d66e bdbc d228 f8bc
000000e0: a98e 3bbd 9b80 45bd b800 2cbd 8213 efbc
000000f0: 9068 0ebd ddc7 17bd 26ca 07bd 03fe 04bd
00000100: 3898 54bd 7276 2ebd 4271 36bd 9418 14bd
00000110: 2c97 2bbd 74e8 39bd 46c1 33bd 38bd febc
00000120: 4e59 12bd 7036 20bd 00d4 06bd afdb 15bd
00000130: c9a1 2abd 2a8d 2fbd 515c 12bd bff3 2cbd
00000140: 774c fcbc da27 11bd f596 25bd ba5f 0bbd
00000150: dc79 18bd 0e90 e2bc f8b1 13bd ef3c 3fbd
00000160: cb03 5ebd 87b1 09bd d95f 34bd 7d54 03bd
00000170: 77dc c2bc 4293 33bd 6489 1fbd 2c3b 29bd
00000180: bd95 e3bc 50e0 31bd 22f2 fbbc cead 09bd
00000190: c620 28bd d390 3dbd a045 30bd 90e0 0bbd
000001a0: e11a 09bd e833 1bbd 81c5 04bd f037 26bd
000001b0: e614 00bd a045 0bbd b2a6 2dbd 4d6b 19bd
000001c0: aca9 44bd 5f26 41bd 194b 03bd 7969 1bbd
000001d0: 8f19 d8bc 51fb 47bd f29c 0ebd 230c 1bbd
000001e0: f31d 27bd 94db 0abd 63ed 0fbd c648 1bbd
000001f0: d808 b4bc 6941 3ebd daa8 14bd 59db f5bc
-0.04843083 -0.03563628 -0.035087984 -0.040581234 -0.04098445 -0.045791063 -0.032790612 -0.044359144
-0.037041094 -0.038239047 -0.03221256 -0.0251181 -0.04013296 -0.026318006 -0.03928363 -0.03186413
-0.044076584 -0.01859658 -0.038865246 -0.0374798 -0.037718683 -0.03883239 -0.051856514 -0.050434902
-0.041414198 -0.03605204 -0.032761108 -0.046469066 -0.034059715 -0.029132692 -0.03552364 -0.03363523
-0.028558016 -0.026211197 -0.03589378 -0.047193915 -0.04906456 -0.0293596 -0.047583032 -0.03358749
-0.037869398 -0.048843056 -0.04067194 -0.033560496 -0.04335514 -0.045684133 -0.03666829 -0.031478763
-0.036303047 -0.032184124 -0.039442316 -0.024124691 -0.05358029 -0.032239605 -0.02312414 -0.030292902
-0.04579035 -0.04821835 -0.041992873 -0.029184107 -0.034767687 -0.03705584 -0.03315177 -0.032468807
-0.05190298 -0.042593427 -0.044541605 -0.036156252 -0.041892216 -0.0453877 -0.04388549 -0.031096086
-0.0357297 -0.039114416 -0.032917023 -0.03658646 -0.041658197 -0.042859234 -0.03573257 -0.042224642
-0.03079818 -0.035438396 -0.040427167 -0.03402684 -0.03722559 -0.027656581 -0.036058396 -0.04668897
-0.054202836 -0.03361657 -0.04403672 -0.032062996 -0.023786766 -0.043841608 -0.038949385 -0.041316196
-0.027781362 -0.04342681 -0.030755106 -0.03361302 -0.04104688 -0.046280693 -0.04303515 -0.034149706
-0.0334729 -0.0378913 -0.032414917 -0.04058069 -0.03126993 -0.034001946 -0.0423953 -0.037455846
-0.048013374 -0.047155734 -0.03205404 -0.037942383 -0.026379375 -0.04882366 -0.034817643 -0.03785337
-0.040800046 -0.033900812 -0.0351385 -0.0379112 -0.021976873 -0.0464491 -0.036293842 -0.03001182

cvae_parameters.dec_00_lin_w f4 [128, 35]
00000000: 4e5e 13bc aefe 1b3c 1070 f1bb 8699 7a3b
00000010: 0b6f 81bb a55b 063c e368 99bc 6d20 303c
00000020: f542 963b 3beb 453b 0640 113c 2543 dc3b
00000030: df6a 013c 527a 1c3c 9482 91bc fd27 85bb
00000040: 8617 5c3c c16e ca3b 2237 cabc ff00 4abc
00000050: 436a a13b afb8 fe3b e1ba 853b f93a 1f3b
00000060: 266e dbbb b076 4fbb 6c11 0a3c 99d2 38bc
00000070: 731f 2b3c 391a a039 e95b 8f3c e098 6cbb
00000080: 76ad 1e3b dfe4 14bd 3264 7e3b 4e3c 04bc
00000090: fbd5 a8bc 75cc c63b 81c4 9a3b 7005 733c
000000a0: a3a7 cf39 94f5 df3b b8cd 453c d0e2 643b
000000b0: 30ed dc39 e95b d3ba 4311 55bc ba05 77bb
000000c0: 651a ac3b 1b86 c0bb acdd 1c3c 466f d1bb
000000d0: 008f 85bc f92c e73a 85a3 cd3b 50c6 12bb
000000e0: 8b5b 27bb f0e1 123c e2c5 9bba 5743 1f3b
000000f0: b86c a9ba f06b b6bb e91d 3abc 62fc 0b3c
00000100: 0a13 3e3b 79fb a7bb 9f3b 8a39 ae6e 723c
00000110: f4d3 12bd 2262 aebb 01fa d7bb 05ef 2cba
00000120: 470d 79bb 1519 3f3b 27ff edb9 2c8e 513b
00000130: c4ca 0dbc 662d 47ba 98f2 06ba 8091 2fb7
00000140: 81c9 17bc 18eb 103c aa76 203c 5b07 f9bb
00000150: 34ec e13b 219f 863b 594d 21bc 64b9 4d3c
00000160: bab4 f13a 6121 563c e520 673b 07a4 eabb
00000170: e3fa 86ba df96 373c 93d8 803b 4033 a63a
00000180: 9516 a2bb 9504 91bb 2827 ef3b 37bb 24bb
00000190: a93e 9038 31f1 0ebb 34c5 d73c 61f3 b5bc
000001a0: d4c2 abbb ff99 62bb 58e0 1dbc 22ce 5abb
000001b0: a499 413b 04d3 183c 1fea a1bc b6d9 d63b
000001c0: 33f2 223b 1b75 8aba 8282 8e3c 73fa cebb
000001d0: 1a19 ad3b 4996 e8bb 7011 18bb 651e 163c
000001e0: 8692 51bb 47b4 f53b 9dd1 333b cbc1 133c
000001f0: 140c 80bc a05a 253b 519f 163c 3656 f0bb
00000200: cc7e efbb 3fd6 41bc 4126 a4ba 7c2d 50bb
00000210: 58f4 103c 6409 533c d608 c5bb 6ac3 8ebc
00000220: 4999 88bb 7a13 84bb 53fa 1abd 9b57 4fbb
00000230: 82aa c3ba 301c 9e3b 83cd 8d3a ad04 97bb
00000240: ccb9 09bc 7161 89bb 0fce d1bb 8719 ca3b
00000250: 690e e5bb ed2c 59bc 87cc a63a d7bb 37bc
00000260: 3287 a03c 4d26 a1bb 525e 1c3c b397 ac3a
00000270: 21d4 b8bb 0066 9c3b 9771 8abb 962d 65bb
00000280: 4356 533c 4df2 86bc 5a83 e7b9 0cc8 0dbc
00000290: 8926 143b 433a 8e3c 2c0a 923b bf38 f9ba
000002a0: afa7 24bb 29da 49bc 417d cbbb 74bb ad3b
000002b0: 944b 92bb 23dd 25bd 44c6 8eba 2b74 153c
000002c0: 51a2 823c 1629 7cbc 79d9 233c ff91 623c
000002d0: 3cfe 1d3c 7082 3b3c 3acd ae3c 448a 3abc
000002e0: 1f69 843c 358c 0a3a b4d5 d43a 9049 c23b
000002f0: 835a 89bc 8bcd 7ebb 0733 7d3c a185 42bc
00000300: 9131 333c 08ff 6cbc 2fe5 413c 9bcd e2bb
00000310: 5335 25bc 128b 68bc ee68 c2bb dd29 af3b
00000320: 535b 8dbc f92c 953a 24bd 353b 08e0 95bb
00000330: cd78 153b f0cf 80bc 4587 b5bb 8043 26bc
00000340: b533 efbc 0b99 253c c01c 943a 5682 633b
00000350: 33b9 c2bc cd87 2cbc 1731 513b bb48 7dbc
00000360: ece7 f5bb d749 df3b 2b0d 61bc 38b5 bd3b
00000370: 82dc 1c3b ea5a 00ba 59f0 ab3b c085 39bc
00000380: aee3 2e3c 8521 143c 30cc fbbb ef8f 383c
00000390: 1afb 6eba 335d 36bc 81dc 7bbc 8833 04bc
000003a0: c99c fe3b 9a39 d43c 23ef dabc a9f6 8cbb
000003b0: 2783 16ba 283e eebb 457c 00bc d384 fd3a
000003c0: d439 dcbb fb49 aa3c 6a95 563b 68e3 2dbd
000003d0: 0ef8 01bc b62b 9c39 27dd 483c 6a94 0a3b
000003e0: ce51 ca39 61a9 79bc ef2d 0aba 7788 46bc
000003f0: 2a5d 48bc fe69 37bc 88b6 4fbc c31d 06bc
-0.008994652 0.00952117 -0.007368095 0.003823848 -0.003950005 0.008200561 -0.018726772 0.010749918
0.0045856186 0.0030200023 0.008865362 0.0067218714 0.007899015 0.009550648 -0.01776246 -0.004063605
0.013433343 0.0061777537 -0.024684492 -0.012329339 0.0049259975 0.007773481 0.0040811156 0.0024296625
-0.0066964803 -0.0031656437 0.008427005 -0.011280679 0.01044451 0.00030537116 0.01749988 -0.0036101863
0.0024212277 -0.03635108 0.0038817045 -0.008071018 -0.020609846 0.0060668536 0.004723132 0.014832839
0.00039607016 0.006834695 0.012072973 0.003492523 0.00042138388 -0.0016125414 -0.013004604 -0.0037692622
0.00525217 -0.0058753616 0.009574335 -0.0063914387 -0.01630354 0.0017637304 0.0062755966 -0.0022396035
-0.0025536742 0.0089650005 -0.0011884535 0.0024301612 -0.0012926077 -0.0055670664 -0.01135967 0.0085440595
0.0029003047 -0.0051264134 0.00026365832 0.014796896 -0.035846666 -0.005321757 -0.006591082 -0.0006596896
-0.0038002299 0.0029159237 -0.00045394266 0.003197561 -0.0086543 -0.00075980125 -0.00051478436 -1.046469e-05
-0.009264351 0.008845113 0.009793917 -0.007599754 0.0068946127 0.004108325 -0.009845101 0.012556408
0.0018440702 0.013069482 0.003526741 -0.007160667 -0.0010298159 0.011205404 0.0039320677 0.0012680069
-0.0049465396 -0.004425595 0.007298369 -0.0025136003 6.8781264e-05 -0.0021811242 0.026339151 -0.022210779
-0.005241731 -0.0034576652 -0.009636007 -0.0033387025 0.002954104 0.009327654 -0.019764958 0.006556715
0.00248636 -0.0010563465 0.017396215 -0.006316477 0.0052825334 -0.0070979935 -0.0023203753 0.00916252
-0.0031978204 0.0074982974 0.0027438172 0.009018372 -0.01563076 0.0025231019 0.009193257 -0.007334496
-0.0073088165 -0.011830865 -0.0012523608 -0.0031765392 0.008847319 0.012880657 -0.006013016 -0.017427165
-0.0041686636 -0.004030642 -0.037836384 -0.003163791 -0.0014928135 0.0048251376 0.0010818694 -0.0046087117
-0.008406114 -0.004192524 -0.006402738 0.006167594 -0.006990243 -0.01325534 0.0012725749 -0.011214218
0.019595716 -0.004917896 0.009543972 0.0013167768 -0.005640522 0.0047729015 -0.0042249667 -0.0034969798
0.012898984 -0.01647296 -0.00044157618 -0.008653652 0.0022605977 0.017361766 0.004456779 -0.0019014104
-0.0025124361 -0.01232008 -0.00621 0.005301887 -0.004464576 -0.040494096 -0.0010892828 0.009121935
0.01594654 -0.015390655 0.01000058 0.0138287535 0.009643134 0.011444673 0.021338094 -0.011385504
0.016163407 0.00052851747 0.0016238005 0.0059291795 -0.016766792 -0.0038879837 0.01545406 -0.01187268
0.0109371105 -0.014465101 0.011834427 -0.0069214827 -0.010083514 -0.014193313 -0.0059329187 0.0053455667
-0.01725546 0.0011381201 0.0027731145 -0.0045738257 0.0022807599 -0.015724152 -0.005539807 -0.010147929
-0.02919946 0.010107289 0.0011300072 0.0034715137 -0.02376995 -0.010530424 0.003192013 -0.015459235
-0.007504454 0.0068142223 -0.01373605 0.005789425 0.0023935144 -0.000489636 0.0052471575 -0.011323392
0.0106744 0.009041195 -0.007684253 0.011264785 -0.00091163965 -0.011130619 -0.015372396 -0.008068927
0.007770155 0.025906373 -0.026725357 -0.004301865 -0.0005741589 -0.007270593 -0.007842128 0.0019341953
-0.006720761 0.02078723 0.0032742866 -0.0424532 -0.007932676 0.00029787206 0.012259758 0.002114559
0.00038589392 -0.015238137 -0.0005271127 -0.012117497 -0.012229243 -0.011194704 -0.012677796 -0.008185807

cvae_parameters.dec_01_lin_b f4 [128]
00000000: 8cbe f43d 9a76 923d b4ea 89bb 9059 92ba
00000010: b157 9e3d f047 a1bb a742 e33d 7efa f63d
00000020: be4a b4bb 6741 bd3d d18f 8a3d f8f1 5cbb
00000030: d956 60bb 9d06 be3d e335 e53d 6ee9 1ebb
00000040: b8d6 a63d cb1f 903d 5848 033e 313c 88bb
00000050: 46ec d43d 1d0a ec3d d4fb d03d 0034 70bc
00000060: 8298 aebb d3b8 603d 22c3 88bb d3c3 ab3d
00000070: e872 d73d 6a10 d13d 56a8 07bb 54f0 f23d
00000080: c18f 37bc 57fe af3d e3fb ce3d 8115 993d
00000090: 2726 03bc 602b 45bc 77af 1c3d d6c4 f43d
000000a0: f468 c7bb 6a3d f83d 384c ea3d ac7f 013e
000000b0: 6ea9 2abb 541f e2bb f0d9 63bb ece2 9c3d
000000c0: e793 2cbc 4bbe e8bb 731f dfbb 8ef0 e33d
000000d0: 409b 06bc 22ee c13d 439f c2bb 93e5 6f3d
000000e0: df9c 73bc 8506 36bc 1b97 27bc f46b 363d
000000f0: 215b 7cbb 7959 35bc e535 ec3d 23d1 3dbc
00000100: 4612 4fbc bc3a c63d 8dd3 0e3d 0226 28bc
00000110: 929e 003e bd95 1abb f310 29bc 9bed eb3d
00000120: 65c3 de3d ade5 b53d 7a6b 013e 9a2e abbb
00000130: 8753 65bc 035a f6bb 7829 e33d 3acc 663d
00000140: 1c27 663d 598c 5f3d d3fd 17bc 7e43 a5bb
00000150: 227c c43d dfd8 0dbc 4981 ce3d 9429 abbb
00000160: 4eab 8a3d 1918 d73d 7dd4 bf3d 07f7 d03d
00000170: c9b0 e93d 7d66 943d f1ba 0abb 5a40 c83d
00000180: 302a 39bc ed12 ddbb ad9b ecba 2594 eb3d
00000190: 0ea9 2c3d 0a38 c93d d086 06bc c2b1 90bc
000001a0: 6953 f8bb 1760 dd3d d672 a03d 0048 40bc
000001b0: bd52 9bbb 9899 98bb d92e 22bc 6939 55bb
000001c0: efcf 8c3d 5199 6bbb 6354 04bc ab6c e63d
000001d0: 6eeb e03d bd05 b63d 7b57 873d e944 b53d
000001e0: fa5b 4f3d e30f 693d 2aae 833d 5d49 be3d
000001f0: de67 5ebc bc8e c63d 9c0d b2bb 29fa 02bc
0.119504064 0.07151528 -0.004208887 -0.0011165608 0.077315696 -0.0049219057 0.11096697 0.12059496
-0.005502074 0.0924099 0.06765712 -0.003371356 -0.0034231453 0.09278605 0.11191919 -0.0024248022
0.08146423 0.07037314 0.12820566 -0.004157566 0.10396628 0.115253665 0.102042824 -0.014660835
-0.005328239 0.054863762 -0.0041736523 0.0838696 0.105199635 0.10208209 -0.0020699701 0.11862245
-0.011203707 0.08593433 0.10106637 0.07474805 -0.008004702 -0.012034267 0.038253274 0.11951606
-0.0060855094 0.12121089 0.11440319 0.12646359 -0.002604093 -0.0069007073 -0.0034767352 0.076604694
-0.01053331 -0.007102763 -0.006809169 0.111298665 -0.008215725 0.09469248 -0.0059393956 0.05856855
-0.014868944 -0.011109953 -0.010228897 0.044536546 -0.0038506465 -0.011068695 0.11533717 -0.011585507
-0.012638634 0.096791714 0.03486972 -0.010262968 0.1256049 -0.0023587786 -0.010318982 0.11519929
0.10877112 0.08881698 0.12638655 -0.005224061 -0.013996965 -0.0075180545 0.11091894 0.05634711
0.05618964 0.054577205 -0.009276825 -0.005043446 0.09593989 -0.008657663 0.10083253 -0.0052234624
0.06770955 0.10502643 0.09366701 0.10203367 0.11410672 0.072461106 -0.0021168555 0.09777899
-0.011301562 -0.006746641 -0.0018051766 0.11502866 0.04215341 0.09825142 -0.008210853 -0.017662887
-0.0075783026 0.10809343 0.07834403 -0.011735916 -0.004740088 -0.0046569817 -0.009898865 -0.003253544
0.06875598 -0.0035949538 -0.00807676 0.112511955 0.10982405 0.08887813 0.066084825 0.08851034
0.050624825 0.056899916 0.064297035 0.09291337 -0.013574569 0.09695193 -0.0054337513 -0.007994213

cvae_parameters.dec_01_lin_w f4 [128, 128]
00000000: 16ef 0b3a 634a 993c 7179 2fbc 2888 eabb
00000010: 4668 d13b 6327 7b3b 8dc2 273c 1c1b 0c3c
00000020: 6a32 ba3b 0592 6b3b 770a 9bbc bfbc 303c
00000030: 8b1b 9fbb 2e8a b53b a403 273c 0364 833c
00000040: 3e62 533b 2e31 b5bb 7cec a63c 551f e0ba
00000050: 2c5f 44bc 7395 943a 1b3c eabb efc1 a23b
00000060: a423 3d3c 1b04 193b 4c5e 983b 9490 71bc
00000070: 3984 0abb 53a5 ca3b a419 033c 187c f9bb
00000080: fdea 50bc cd88 9f3c ff49 1a3a e194 9fbb
00000090: e70b a23a b538 a4bb e0b8 cf3b 5f76 f1bb
000000a0: 3745 a73c 4de1 17bc 909e e1bb 7ea2 b93b
000000b0: fc0f 323b b77d c7bb be5d 9b3c 9186 f3ba
000000c0: bc06 253b 1422 d23b f153 a43b e4d4 633c
000000d0: 9120 173b a08c 953c 73c6 613c 2de8 aabb
000000e0: c289 a73c adb8 ce3b 9558 72bc ccd1 d039
000000f0: e918 323b e053 193c 95bf fdba 9530 8b3b
00000100: 6950 703b bd62 533c e249 1f3c d694 003b
00000110: da44 4cbc 12f4 dcbb 0259 3e3c 3be9 57bc
00000120: f177 533c a1fe 543c d0fb 39bc 810e b9bb
00000130: 35dd c33b b912 25bc 789b 773c 9ca7 d33c
00000140: 4dab 1dbc 9cc3 103c d70f 7dbc b432 b8bb
00000150: 1bdb 2dbb 1671 aa3c 5d3b 92bb d4fd 183c
00000160: 28bf fe3a d75f 2f3c 059a 0c3c fdae eaba
00000170: bf70 203c da38 47bb b4b9 dd3b 5f59 073b
00000180: 741f 273b 487b cb3b cb36 73b8 c40d 273b
00000190: b605 03bb 02b6 5c3c c7df 16bc 642a 083c
000001a0: 560f 083c 4f2b 333c e377 a53c 0c03 32bc
000001b0: 7e47 903a 31ae 08bc 70e1 c7bb 3134 d93b
000001c0: d29e 91b9 696c b0bb 396e 593b 6dd2 3d39
000001d0: ca47 123c 3ce5 bd3b d080 02bc 032a 7bbc
000001e0: 7e2a db3b 5702 253c f752 bfbb 49a9 6cbb
000001f0: 69e8 113c c361 55bb 00df 393c ee5f 143c
00000200: e4fe ecbb df96 f23b f669 02bb 044f 7c3b
00000210: f537 50bc 39f3 2ebc 81ca 17bc e8b9 39bc
00000220: 1a0f b13a 3d35 903c b827 8b3c bb44 8c3b
00000230: 471a 33bc 3a41 7cbb 3512 efbb 04bd ba3b
00000240: 4704 0fbc bf9d 5f3a 2db7 423b be79 c3bc
00000250: dec0 c63c d885 b33b 1520 98ba ba38 663c
00000260: 9a79 903b 3c40 21bb 0487 0dbc fd4d 053c
00000270: c4f3 503c 397a 86b8 266e a9bc 1ed4 85bc
00000280: 03b9 90ba 1699 fbbb 482f 093c f6df 95bb
00000290: d5e4 a1bb 9c25 6bbc e8db ab3b b6b5 86bb
000002a0: 1b0a 04bc ced3 20bb c1f2 463c 459a 543c
000002b0: 9af2 d43a 0435 46bc 1137 b4bb 3b94 01ba
000002c0: b36a 6ebc 1d4c 9137 87fa dd3b 7589 41bc
000002d0: 70da af3c 518c 973b 7d44 023a 54ec 1bbb
000002e0: f612 fcbb e512 d0ba 8b3e d13b 7d1e 273c
000002f0: 50a4 af3b b76f b33c aba5 143c c18f 993b
00000300: 83fc 103b 0c49 6dbb a04f 273c c314 c939
00000310: 7a9b b5bb fc3b a93b 2c03 30bc 0edf 20bb
00000320: 9b7c 3cbc 9082 803c cf3a a23b 7a39 a2bb
00000330: 943f 24bb c6a7 083c 9d91 92bb 2b40 b6ba
00000340: e075 893b 3d98 ac3b 426c 08bc 5c01 84bc
00000350: 8ab4 1d39 8036 04bb 309d 803b e075 96bb
00000360: 09ba ac3b b37e 4bbb e5b6 2cbc 4b5c edbb
00000370: b199 f13b c56a e7bb 2bf1 813b 6be0 06bc
00000380: 5dbb 793c ae11 a5bc 1cf1 533b 7ad2 c5bb
00000390: c392 a4bb e4a3 183b 67b4 1cbc 484a 84bc
000003a0: 8747 e33a 1822 41bc 86d9 13bc f015 fabb
000003b0: a3e3 1d3c 6585 6fbc f54a 8a3a fe3b 013a
000003c0: 9971 1b3c abdd de3b 298c e9bb 6468 fabb
000003d0: b748 213a 5345 eeba b384 b33b 40d1 6a3b
000003e0: 7d78 26bc 9ee4 d4ba baae 97bb 53ec 96bc
000003f0: 9b90 a03b fb58 14bc d9be 9abb 345a ac39
0.0005338056 0.018712228 -0.010710106 -0.0071573444 0.006390604 0.0038323037 0.010239256 0.008551385
0.0056822794 0.0035945189 -0.018925888 0.010787188 -0.0048555783 0.005540154 0.010193739 0.0160389
0.0032254602 -0.0055295443 0.020376436 -0.0017099181 -0.011985581 0.0011336043 -0.0071482784 0.0049669663
0.011544142 0.0023348394 0.004649913 -0.014743943 -0.002113594 0.006184259 0.008001719 -0.00761367
-0.012751338 0.019474411 0.000588566 -0.0048700427 0.0012363166 -0.005011643 0.0063391775 -0.0073688473
0.020418746 -0.0092700245 -0.006885357 0.0056651225 0.0027170172 -0.0060879844 0.018965598 -0.0018579533
0.0025181016 0.006412754 0.0050148894 0.013905738 0.0023060183 0.018255532 0.013780224 -0.005215666
0.02045143 0.006308636 -0.014791627 0.00039829162 0.0027175492 0.009358376 -0.0019359464 0.004247735
0.0036669022 0.012901959 0.009722205 0.0019619963 -0.012467587 -0.0067429626 0.011617901 -0.013178165
0.012907014 0.013000161 -0.011351541 -0.005647481 0.0059772977 -0.010075265 0.01511275 0.025836758
-0.009623361 0.008835699 -0.015445671 -0.0056212787 -0.0026528302 0.020805877 -0.004462643 0.009337861
0.0019435631 0.010704002 0.008581643 -0.0017904934 0.009792506 -0.0030398876 0.0067665223 0.0020652635
0.0025500925 0.0062097646 -5.7986745e-05 0.0025490383 -0.0019992418 0.013471128 -0.009208626 0.008310888
0.008304438 0.010935619 0.020198768 -0.010864984 0.0011007634 -0.008342312 -0.0060998723 0.006628536
-0.00027774886 -0.0053840172 0.003317727 0.00018102834 0.008928249 0.005795149 -0.007965282 -0.015329841
0.006688415 0.010071359 -0.0058387476 -0.0036111644 0.008905509 -0.0032559491 0.011344671 0.009056075
-0.007232534 0.007403239 -0.0019899583 0.0038499245 -0.012708654 -0.010678106 -0.009264589 -0.011335827
0.0013508529 0.017603511 0.016986713 0.0042806542 -0.010931558 -0.0038491026 -0.0072958716 0.005698802
-0.008729047 0.0008530281 0.0029711232 -0.023861762 0.024261888 0.005478602 -0.0011606241 0.014051611
0.0044090273 -0.0024604937 -0.008638147 0.00813627 0.012753431 -6.412384e-05 -0.020682406 -0.016336497
-0.0011041466 -0.0076781614 0.008373089 -0.0045738174 -0.004940609 -0.0143522285 0.0052447207 -0.004111017
-0.00805905 -0.0024540308 0.012142838 0.012976234 0.0016246617 -0.012097601 -0.0054997285 -0.00049430475
-0.014551806 1.732079e-05 0.00677425 -0.0118125575 0.021466464 0.0046248813 0.0004969312 -0.0023791986
-0.00769269 -0.0015874772 0.0063856295 0.01020014 0.0053601637 0.021903856 0.009072701 0.0046863263
0.0022123165 -0.003620687 0.010211855 0.00038353176 -0.005542216 0.0051646214 -0.010742944 -0.0024547013
-0.011504318 0.015687257 0.004950858 -0.0049506994 -0.002506231 0.008340782 -0.004472925 -0.0013904622
0.00419496 0.0052671717 -0.008326592 -0.01611393 0.00015039943 -0.0020174086 0.003924988 -0.0045916885
0.0052712006 -0.003105086 -0.010541652 -0.007243668 0.007373058 -0.0070622885 0.003965517 -0.008232216
0.015242425 -0.020150032 0.0032339757 -0.0060370537 -0.005022378 0.0023291046 -0.009564496 -0.016148701
0.0017340042 -0.011787914 -0.00902403 -0.0076320097 0.009636792 -0.014619206 0.0010550903 0.0004929899
0.009487533 0.006801327 -0.007127304 -0.007641839 0.0006152498 -0.0018178619 0.0054784655 0.003583029
-0.010160563 -0.001624245 -0.0046289833 -0.018423235 0.004900051 -0.009054418 -0.004722458 0.00032873603

cvae_parameters.enc_00_lin_b f4 [128]
00000000: 4305 293c c82d 9abb 9e9f 51bb 70a3 27bb
00000010: b9d6 efba 0d6b 34bb 199c 1a3c d113 5c3a
00000020: 05c0 95bb 3bc1 39b8 4fe5 82ba 1360 bdba
00000030: d289 263c f0ca 3338 44e0 62bb 872a 923b
00000040: 78b1 233c 05e1 7cbb ffdd 0eba ca94 88bb
00000050: 32dd 12ba 108c 1c3c 9e8d 7eba 10cb 76ba
00000060: e356 96bb 7590 073b 90d6 a4b9 df27 21bb
00000070: 39e6 8a3a daa5 f9bb e295 46bb 178a e7b9
00000080: a62b 203b 281e 8dbb 9596 153c 7f65 eab9
00000090: e8c9 a5bb dffd e0ba 3a94 2e3c 15f2 c7b9
000000a0: c592 85ba bf2b 803c 9f3f 193b 1454 c9bb
000000b0: be4d 70ba cbac e23b 213d 8fbb f90a 6ebb
000000c0: 5098 bfba 34ce 34bb 5de8 153c f7b9 1a3b
000000d0: 5433 25bb fb9d f539 9370 37ba bb13 93ba
000000e0: 8efd b2ba c8c8 1fbb 8817 37bb 59d4 28bb
000000f0: 9650 87bb e503 513c 3a4c ebba 4ccb e738
00000100: 1336 0b3c 2d71 3dbb ee9d a33b b7b7 b73b
00000110: c131 1a3b 3358 c8ba ef41 5d3c 006c 153a
00000120: 8e17 43bb d06f 033a 09dc 4cba a284 72bb
00000130: b2d9 123c 95f5 85ba 449c fab9 7896 02bb
00000140: e795 77b9 a84f 383c 6a7b 1bbb 0f1b 933b
00000150: 8b22 cc3b 1d99 32ba 26fd 2f3b b6e4 05bb
00000160: 9cbf 4cbb a7c0 a7bb 1714 623b d550 053a
00000170: c6e3 b0bb 2c83 133c fecf 46bb 7265 cf3b
00000180: 978c abba a523 90ba dbf2 22bb 0028 60bb
00000190: 2031 2f3c 666c acbb 73fe 323c 0791 cd3b
000001a0: e964 b3ba 8879 6fb8 bd87 79b9 3196 a3ba
000001b0: 02ef 19bb e716 e33b 350d deba b335 283a
000001c0: 5d16 bd39 cad6 4abb 4f12 27ba b01b 833b
000001d0: 793e ae3a 2d1d 183c 668e 80ba 48bf 4839
000001e0: 8d8c 253c 0f64 a4ba 217f 9239 5d2f e2b9
000001f0: c7b9 f4ba 0983 16bb 315d edba e362 90ba
0.010316196 -0.0047051646 -0.0031986008 -0.0025579594 -0.0018298245 -0.0027529628 0.009436631 0.0008395287
-0.0045700097 -4.4287397e-05 -0.0009986552 -0.0014448188 0.010164695 4.2865926e-05 -0.0034618536 0.004460636
0.009991042 -0.003858627 -0.000544995 -0.0041681277 -0.00056024187 0.009554878 -0.00097104337 -0.0009414414
-0.0045879944 0.0020685468 -0.0003144038 -0.0024590415 0.0010597176 -0.007618648 -0.003030174 -0.00044162638
0.002444008 -0.0043065734 0.00913014 -0.00044707578 -0.0050594695 -0.0017165503 0.010655457 -0.00038136603
-0.0010190835 0.01564586 0.0023383868 -0.006144056 -0.0009166858 0.006917571 -0.004371301 -0.0036322458
-0.0014617536 -0.0027588727 0.009149638 0.002360938 -0.0025207596 0.00046847746 -0.0006997671 -0.001122109
-0.0013655887 -0.002438115 -0.002793761 -0.0025761335 -0.0041294796 0.012757276 -0.0017951794 0.00011052805
0.008496779 -0.002890657 0.004993192 0.0056066173 0.002352819 -0.0015285074 0.013504489 0.0005699992
-0.0029768678 0.0005013915 -0.000781477 -0.0037005325 0.008963035 -0.0010220284 -0.00047800143 -0.0019926112
-0.00023611599 0.01124946 -0.0023724684 0.0044893096 0.006229704 -0.0006812977 0.002685377 -0.0020430512
-0.0031242138 -0.0051194015 0.0034496838 0.0005085592 -0.0053982465 0.009003442 -0.0030336375 0.006329232
-0.0013088164 -0.0010996951 -0.0024863991 -0.003420353 0.010692865 -0.0052619455 0.010924923 0.006273392
-0.001368669 -5.7095225e-05 -0.00023797057 -0.0012480674 -0.0023488407 0.0069302204 -0.0016941192 0.0006416693
0.0003606555 -0.0030950778 -0.00063732726 0.0040011033 0.0013293765 0.0092843 -0.0009808063 0.00019144744
0.010104311 -0.0012542027 0.00027942008 -0.00043141367 -0.0018671089 -0.0022966287 -0.0018109438 -0.0011015799

cvae_parameters.enc_00_lin_w f4 [128, 123]
00000000: 33eb 96bc 0cbd a7bc 00c7 30bc 90de 10bc
00000010: 130b 573a 0226 fab9 727c acbb aac3 a9bc
00000020: ff55 c1b9 3951 61bc 6f88 8839 6ced 083b
00000030: 9167 c1b9 256b 833c 5e0b 533c 56b4 44ba
00000040: dfad 5ebc 1fa3 6ebc 7ae9 ba3b 1c47 ff3b
00000050: b0e1 b03b 15ad 85bc 7309 03ba 2635 9a3c
00000060: 1ad5 113c 8d37 e7bb 984d 0dbb 45c9 6c3a
00000070: 3034 6a3c 7076 843c 8cb7 1a3c e294 00bc
00000080: 4638 ffbb b150 413b 63f1 dbbb 9fe8 bcba
00000090: 4af0 1c3b 8fc7 f93a 8477 ab3b 5900 d53b
000000a0: 7627 31bb c208 213b 9098 9db9 8eae 7e38
000000b0: 66d0 893b a8b1 b03c a70a 76bc e170 4ebc
000000c0: a960 78bb 63cf 033c 2358 433c 1043 bcba
000000d0: 9515 b9b8 c302 73ba 4c92 ba3b b19f 52bb
000000e0: 5827 9ebb f773 f33b 8ebf 8b3c b7f3 173d
000000f0: a382 6ebc 3fee 5fbc 8088 8e3c 24b2 e6bb
00000100: 1f23 f1bb 2b97 143c 718f e73b d503 473c
00000110: 2529 86bc 9efa ca3c dfc4 fdbb 9766 833a
00000120: 24fd a5bc 6e78 c3bb a0e8 71bb af63 96bb
00000130: 9d40 41bc 39df 513c f03d 953a e84b 2c3c
00000140: 5711 2f3b cb8e 843b d315 d7bb 6fb6 64bb
00000150: a120 4b3c 039e 8fbb e2b7 383c d898 6f38
00000160: ae04 f5ba 7447 a73c 3844 82bc 173a 53bb
00000170: b7fd 44bc f232 3bbc 7678 25b9 837f 2d3c
00000180: 0736 8a3c cd9a 37bc ba45 1e3b bcdf c33b
00000190: 1f34 cbbc 1bc7 50bc f4e2 8bbb fffe d73b
000001a0: c674 083b 79a1 463b 1682 bb3b 7c86 be3b
000001b0: 5436 a13b f10f 3bbc 2146 d83b ddf3 27bc
000001c0: ceed 62bb 37d5 9fbc c790 19bc 030d 08bc
000001d0: c657 0a39 632e fab9 6128 8bbc 0fb5 1dbc
000001e0: bc0b ccbb b815 ba3b b26e 9d3c 8d89 b4ba
000001f0: 67f9 963b 1e19 743c a435 303c 03bd 873c
00000200: 0ae4 c9bb 44e3 14bb 844a 41bb e0e3 103c
00000210: c410 0e3c c3a1 273c d510 b13c 3795 3dbc
00000220: f27d 923b c91e ce3a dcfa 53bb 5df4 f4bb
00000230: ea8f f0b9 62df 45bc 8ccd 9db8 1149 933a
00000240: c5b5 56b7 68ca 093b e217 333b e1ab 453c
00000250: 16df a33b 2d1d 823b b463 c939 b627 0bbb
00000260: 14ed ac3a 16f9 93bb d339 83bc 2e1e cc3a
00000270: 9e1c d8bb 4a8f c83a 603b 3a3a 850b d13b
00000280: 4b08 5f3c f117 32bc 04ed a43b fe1c 8a39
00000290: 83a7 2e3c 133c c2bb f20e 223c f592 ae3b
000002a0: 8cba c23b 8886 9a3b 1adf 03bb b1d4 093b
000002b0: 30b6 bf39 b4de 41bc 10b5 993b fcfe 74bc
000002c0: 2a64 7ebb 933f 2dbb c3fb 3dbc e15b 19bb
000002d0: 37fe 493c 84df f739 dfab 443c ddd7 393c
000002e0: 3934 06bc 0e37 5cbb 1a93 7b3c 0edd 703b
000002f0: eb67 b13b f29f d6bb 2177 2abc 84b0 01bc
00000300: 9475 d0bb 125d e53b f3ad b13b 248b 8f3b
00000310: b1c7 013b 11e8 223c 3ce6 94ba 09be 5c3c
00000320: 7093 d73a 52b8 58bc 4deb 903b 3cc4 893b
00000330: 4331 183c 35bd 16bc 9796 ea3b f89f 00bc
00000340: 41e1 6a3c 14d1 b13a 0f15 473c c8df 2f3c
00000350: 5945 5fbc 9411 e93b f8cb c3ba 6340 2fbc
00000360: 620e 4e3c a1fb 7b3c 0dda 14bc 2357 213b
00000370: ee94 f13b 94fc 633a 066e cdbb c85c 063b
00000380: 2a30 b5bb 8202 4f3c be86 e83b 6711 ab3b
00000390: b16f 6d3b 8504 193c f1d1 64bb 8be6 85bc
000003a0: 84ed 3d3b 58e0 2dbb fb09 02bb e567 4b3c
000003b0: 75e3 33bc a098 133c 8404 763c b168 76bc
000003c0: 9bba 4ebc c061 6fbc c674 b83a e7b7 30bc
000003d0: 12e5 1e3c 40f5 90ba 609b ed3b 5143 6539
000003e0: d9a7 a13a ca0a 363c 9f85 2b3c 3167 5ebb
000003f0: 2aa0 eabb 3df8 673b 773f a33c ca31 b23b
-0.018422699 -0.020475887 -0.010789633 -0.008842126 0.00082032493 -0.00047712034 -0.0052638585 -0.020723183
-0.000368759 -0.013752275 0.00026041592 0.0020893468 -0.00036888992 0.016042301 0.012881128 -0.0007503679
-0.013591259 -0.014565258 0.005704102 0.0077904593 0.005397998 -0.016317884 -0.00049986615 0.018824171
0.008900905 -0.0070561827 -0.0021561142 0.0009032677 0.014294669 0.016169757 0.009443175 -0.007847996
-0.0077886907 0.0029497559 -0.006712125 -0.0014412588 0.0023946934 0.0019056665 0.005232753 0.0065002856
-0.0027031577 0.002457187 -0.00030059041 6.0720886e-05 0.004205751 0.021569088 -0.015017188 -0.012600155
-0.003789941 0.00804505 0.011922869 -0.0014363248 -8.8255074e-05 -0.0009270126 0.0056937095 -0.003213864
-0.0048264675 0.0074295956 0.017059114 0.03709766 -0.014557513 -0.013667642 0.017399073 -0.007040279
-0.007358923 0.009069244 0.00706666 0.01214691 -0.016377041 0.024777707 -0.007744416 0.0010025081
-0.020262308 -0.005965284 -0.0036912337 -0.00458952 -0.01179519 0.012809568 0.0011386257 0.010516144
0.0026713216 0.0040453426 -0.006563881 -0.0034898778 0.012397916 -0.00438285 0.01127431 5.7124387e-05
-0.0018693411 0.020419814 -0.01590167 -0.003223067 -0.012023381 -0.0114257205 -0.00015780501 0.010589483
0.016871465 -0.011206341 0.0024150447 0.005977599 -0.024805127 -0.012742783 -0.0042689983 0.006591677
0.0020821556 0.0030308648 0.0057222946 0.0058143716 0.0049198065 -0.011417375 0.006600157 -0.010251013
-0.0034626606 -0.019510848 -0.0093728965 -0.0083038835 0.00013193404 -0.00047718277 -0.016987028 -0.009625687
-0.006226985 0.0056788586 0.019217823 -0.0013773903 0.004607368 0.0148985665 0.010754976 0.01656962
-0.0061612176 -0.0022718469 -0.0029493878 0.008843392 0.008670989 0.010231438 0.021614471 -0.01157122
0.0044705803 0.0015725727 -0.0032345569 -0.0074754194 -0.00045883592 -0.012077184 -7.5246295e-05 0.0011236985
-1.27977155e-05 0.0021025185 0.0027327468 0.012064905 0.005000959 0.003970763 0.00038411992 -0.0021233386
0.0013193213 -0.0045157773 -0.016018784 0.0015572959 -0.0065952083 0.0015301493 0.00071041845 0.006379547
0.013612817 -0.010869966 0.0050331373 0.00026343012 0.010660055 -0.0059275716 0.009891259 0.0053275772
0.0059426483 0.0047157444 -0.0020121993 0.0021031315 0.000365661 -0.011832882 0.004690774 -0.014953371
-0.0038817027 -0.0026435598 -0.011595669 -0.0023400711 0.012328676 0.00047278043 0.012003868 0.01134297
-0.008191162 -0.003360215 0.015354896 0.0036752853 0.0054139993 -0.0065498287 -0.010404379 -0.00791562
-0.0063616727 0.0069996202 0.0054223477 0.0043806005 0.0019802863 0.009943024 -0.0011360119 0.013473042
0.0016447138 -0.013227539 0.0044225813 0.004204301 0.009289089 -0.009200384 0.007159065 -0.0078506395
0.014335931 0.0013566338 0.012151017 0.010734506 -0.013627374 0.007112691 -0.0014938107 -0.010696503
0.012576671 0.015379817 -0.0090851905 0.0024618588 0.00737249 0.0008697 -0.0062692193 0.002050208
-0.0055294232 0.012634875 0.0070961406 0.0052205804 0.0036229903 0.009339456 -0.0034915174 -0.016345283
0.0028980682 -0.0026531424 -0.0019842375 0.012414907 -0.010979523 0.009008557 0.015015725 -0.015039609
-0.012617732 -0.014610708 0.0014072887 -0.010786033 0.009698169 -0.0011059418 0.007251188 0.00021864219
0.0012333348 0.011110971 0.0104688695 -0.0033936019 -0.0071602063 0.0035395764 0.019927723 0.005438064

cvae_parameters.enc_01_lin_b f4 [128]
00000000: 58fc 00bb 2651 8d3c e59d 8fbb 3883 97bb
00000010: cbb5 913c 0846 29bb 97fb 9fbb 1268 c93c
00000020: 7b2a fc3a b7d2 40ba 2470 dcbb 25a9 b6bb
00000030: 30fd 8cbb 39a6 88bb 0666 4dbb 3ec1 f4b9
00000040: 463d f4ba bcb7 5fbb d272 623c 5419 22bc
00000050: 4db0 703c c533 73bb aa85 6cbb c050 60bb
00000060: 0cd3 95bb 541b 81bb 3852 5aba 83da 94ba
00000070: 46ba c0bb b873 833c 4b30 1fbb 8c9a e03b
00000080: 007c 933b fe96 973c 8823 84bb 770b c73c
00000090: 02d3 c2ba ec80 28bb df51 db3c 7403 5fbb
000000a0: 422c 083d f213 c33c f714 57b9 de27 bbbb
000000b0: 0f03 a73c eec7 a1bb d6fd f2b9 e6eb 903c
000000c0: 13f3 3ebb 3336 1ebc 8f7d 6fbb c473 24bc
000000d0: 66d0 9abb 9c51 f53c ce25 3dbb 405d 6bbb
000000e0: a0c7 c5bb 49f0 de3c 2302 913c 18b0 b53c
000000f0: 4b96 ac3c ea7b 43bb 0ff8 b93c b39f 3f3c
00000100: 7383 34bb 6157 b83b 0a9d ea3c 6081 03bc
00000110: df11 313b c4bb fb3c b31d 59bb 58d8 d93c
00000120: 42b6 deba 95bb ac3c 2e8e 183b 97af 83b8
00000130: 94f8 81bb 5a60 db3c 8dfd 1dbb 0eca 05bb
00000140: fa2d 5c3c 768d f1b9 988c 17bc 557a 05bb
00000150: cce2 043d 41ae d83c 015a 5e3b c32e 81bb
00000160: b98e ccb9 59ba dfbb e478 6d3b f9fb 953c
00000170: 2b4c 48bb 56e2 05bb 3d94 2639 784c 403c
00000180: 8a72 df3c 9270 903c 7595 4fb9 c79b 98bb
00000190: 7390 963c 2279 70bb d1da a73c d6b5 d93c
000001a0: fe3c 03ba 6c9a 48bb 2a3f 57bb 7149 e63c
000001b0: dd35 08bc 2b81 a2bb 800c eabb 3f80 84bb
000001c0: d1b1 09bb ea5d a43c dc8f 56bb 5f6e 913c
000001d0: 83ed 27bb f3de 1b3c ae36 b0ba 7fbc 563b
000001e0: 343e f63b d1c7 833c 1eb1 8639 035f 94bb
000001f0: 81f6 e23c 1fc0 b53c 63cf 7bbb 7a7c 8a3c
-0.0019681659 0.017250609 -0.004382836 -0.004623797 0.017786881 -0.0025829095 -0.004882287 0.024585757
0.0019238734 -0.00073556177 -0.0067272354 -0.005574363 -0.0043026432 -0.004170206 -0.0031341328 -0.00046683283
-0.0018633984 -0.0034136614 0.013821321 -0.009893734 0.014690471 -0.0037109714 -0.0036090412 -0.0034227818
-0.004572278 -0.0039400253 -0.00083282916 -0.0011356625 -0.0058815805 0.01604639 -0.002429026 0.006854361
0.004500866 0.018504616 -0.004032556 0.024297459 -0.0014863911 -0.002571161 0.026772438 -0.0034029158
0.033245333 0.023813222 -0.00020511808 -0.0057115396 0.0203872 -0.0049371636 -0.0004634696 0.01769061
-0.0029136583 -0.009656477 -0.0036543345 -0.010037366 -0.00472455 0.029946141 -0.0028861645 -0.0035913736
-0.00603576 0.027214186 0.017701214 0.022178695 0.021067759 -0.0029828497 0.022701291 0.01169579
-0.002754417 0.0056256508 0.028639335 -0.008026451 0.0027018709 0.030729182 -0.0033129274 0.026592419
-0.0016991573 0.02108554 0.0023278105 -6.279273e-05 -0.0039664004 0.026779342 -0.0024107427 -0.0020414623
0.013438696 -0.000460725 -0.009249829 -0.0020367105 0.032442853 0.026450278 0.0033928158 -0.003942342
-0.0003901625 -0.0068276343 0.0036235387 0.018308626 -0.0030562978 -0.0020429096 0.00015886217 0.011736982
0.027276296 0.017631803 -0.00019796735 -0.004657242 0.018379426 -0.0036693295 0.020490082 0.026575964
-0.0005006342 -0.003060962 -0.0032844045 0.028111191 -0.008313623 -0.0049592457 -0.0071426034 -0.0040436084
-0.0021010528 0.020064313 -0.0032739555 0.017752824 -0.0025623746 0.009513604 -0.001344403 0.003276616
0.0075147394 0.01608649 0.00025690434 -0.004527928 0.027705433 0.022186337 -0.0038423173 0.016905058

cvae_parameters.enc_01_lin_w f4 [128, 128]
00000000: 06b1 07bc 7d8c 0dbb 0c9c aebb 1f96 2f3c
00000010: 2003 d0ba 7b52 cb3c fbb2 7ebc fb61 95bc
00000020: 6d95 8fbb 9f4b fdba 78be 6e3b ae40 703b
00000030: fd09 42bc 38e2 373c 6a32 d9bb c3f0 a1ba
00000040: 1615 bebc 4f17 45bb b36f 0f3b e843 a23c
00000050: dcd2 8cba e140 0b3a 5414 af3a 54dc f3bb
00000060: 8287 403c be9f 9bb9 8bbd 0a3c 9470 64bc
00000070: e8b8 64bb a1e3 5d3c 16af 423b f684 9b3b
00000080: 39c9 e4ba d273 16bb 6b44 e03b 42a6 8ebb
00000090: 1117 203b 942e 93bc cd38 47bb 613f 8d3c
000000a0: dcdf 8abc d8fe b2bb ad6b ab3b a82e d13a
000000b0: 8977 97ba 76b4 02bc 5f23 0f3c d45c efbb
000000c0: 3622 59bc b3cb 3bba 81b5 823b 0c82 fb3b
000000d0: 5522 6a3a 670b 2f39 f085 0dbc df5a 39bc
000000e0: 3395 84ba c2bc c0bb 9be9 3c3c fec6 9dba
000000f0: 93d6 60bc ddc4 6e3c 4a72 b43c b1d2 d5bb
00000100: 11ca bcbb 2e77 083c d0b6 fa3b 02c3 103c
00000110: f12c 3c3c 9ca4 eebb 6f4a a33a e1c5 163c
00000120: c6ac 3b3c 8f2d b63b 17fc d8ba 901c 85bc
00000130: b7e8 513c aff8 a53c c516 74bb 59ff d7ba
00000140: 9b6b bfbb 598b 7c3b aba8 12bc c64b 1fbc
00000150: 93d8 a6bb b696 c43b 83e4 3fbc 29ec 123c
00000160: c5fe 83bc 5d11 16bc 065e d6bb 6751 0ebb
00000170: ffb0 bb3a c00a 96bc f501 b93b 2788 693b
00000180: 1b6e e6bb 4a4a 3b3c 333f 27bc 3421 553c
00000190: f6cb 79bc 1af6 8abb 9165 f33a d379 d0bc
000001a0: db98 b0bc e233 8dbb d2c6 b9bb dc4a 07bc
000001b0: 0559 61bc 50bf 5f3c 2f03 f2bb 40ab aeba
000001c0: 9a23 7fbb d027 cfbc b725 acbb e02c b93b
000001d0: e28e eabc d56d 37bc 7bef 1e3b afb4 f93a
000001e0: 410d 473c 3db8 c23b b7f3 b13b e8ac abbb
000001f0: f6ba 9ebc 1a88 cb3b 4d38 b03c d5ec 7dbc
00000200: 1c21 06bc be0f 453c ea4f be3c 0ddd 533c
00000210: 2430 a53b a014 053c 4156 553c cbd6 09bc
00000220: d751 81bb d8b8 c93b 43b6 c0bb 3ec8 b13b
00000230: 63dd 15bc 2d6f 903c bf84 79ba 5f2e b63b
00000240: 72a6 d9bb 7b73 aabb 37e6 72b9 e81e c3bb
00000250: 05e9 8d3b 5d2f 0f3b bee3 133c 51bf 78bc
00000260: d35c d43b 47e6 f93b 26f7 5cba a4db 7bbb
00000270: 833b 7e3b 583d b53b 770b 76bb 2c61 983b
00000280: a452 99bb b581 ab3a df27 1a3b 4f30 8bba
00000290: 2c1a 063c 406b 36bc 45cd 1a3c 21df 393b
000002a0: 47bc 7f3c dd01 38bc 1fa3 8ebb f8d1 a13b
000002b0: 6d79 213c e481 253c d907 a3bb 856c 44bc
000002c0: da0b dbba 8873 33bc 6f0d 7d3c c915 b43b
000002d0: bb96 ea3b 02dd 253c 5679 35bc 639b cc3a
000002e0: bc2f e7bb d73a a6bb 380f 39bb dded 623b
000002f0: f9c7 003c 2aab 4c3c f205 d039 e611 24bc
00000300: f1e0 1d3c 075e 1dbc fd2a fd3b bd3d a03b
00000310: a81e 49bb c8a0 08bc c470 debc 527a 083a
00000320: c639 113c 1f88 413c 68b9 16bc 0e14 fabb
00000330: 30a3 963b a569 47bc 9ae9 823b ddbf b6bb
00000340: 61d3 c73b 082f e13a 5fa7 1cbb 65c2 863b
00000350: 6a54 53bb bcde 2fbc 8751 21bc 8676 f23b
00000360: 8e1a 0ebc a0b9 40bb 3b0c 8e3c 0783 32b8
00000370: 89ae 78bc 0f51 0e3b 4fe2 b13a 271f 22bb
00000380: 352f ab3b c6c5 62bb 7969 9eba 10fe 4a3a
00000390: 7a03 5a3c d0d4 003c e2db 83bc 942c 8cbb
000003a0: b4e4 533b 88c8 503c 8dfe 983a 3810 ddba
000003b0: 6a07 3dbb 5f47 8aba ca44 433c 03da 94bb
000003c0: d9d4 043c e97e 96bb 4225 84b9 4212 36bb
000003d0: 5484 253c f5d8 e6bb 76f7 b3bb 7662 f6bb
000003e0: 8f6f efbb 7f38 a9ba 02e4 163c 103b 63ba
000003f0: 3424 98ba 4c1f f13a e113 b03b 1575 5e3b
-0.008281952 -0.002159863 -0.005328661 0.010716944 -0.0015870072 0.024819603 -0.015545602 -0.018235197
-0.0043818266 -0.0019324905 0.0036429446 0.0036659646 -0.011843202 0.011223368 -0.0066283243 -0.0012355078
-0.023203414 -0.0030073707 0.0021886646 0.01980777 -0.0010743993 0.0005312097 0.0013357499 -0.0074420366
0.011751058 -0.0002968292 0.008468042 -0.013942856 -0.0034900252 0.0135430405 0.002970641 0.004746075
-0.0017454989 -0.0022957218 0.0068440936 -0.0043533156 0.002442781 -0.017966546 -0.0030398846 0.017242135
-0.016952448 -0.0054625086 0.005231342 0.0015959339 -0.001155601 -0.007977596 0.0087364605 -0.007304767
-0.013252785 -0.00071638374 0.003988922 0.007675415 0.00089315075 0.00016693548 -0.00863789 -0.011313169
-0.0010115266 -0.0058818767 0.011530305 -0.0012037454 -0.0137230335 0.014573303 0.022027154 -0.0065253605
-0.005761393 0.008329196 0.0076511875 0.008835556 0.011485324 -0.0072828066 0.0012458096 0.009202451
0.011454767 0.00555963 -0.0016554621 -0.016248971 0.012811831 0.020260183 -0.0037245017 -0.0016479298
-0.005841685 0.0038535206 -0.008951346 -0.009722656 -0.0050917356 0.0059994115 -0.011712196 0.008967438
-0.016112695 -0.009159413 -0.00654197 -0.0021716 0.0014319717 -0.018315673 0.0056459852 0.0035634132
-0.0070321686 0.011431286 -0.010207939 0.0130084045 -0.015246382 -0.0042407634 0.0018569698 -0.025448715
-0.021557262 -0.0043091634 -0.005669453 -0.008257594 -0.013754134 0.013656452 -0.0073856334 -0.0013326183
-0.0038931132 -0.025287539 -0.0052535194 0.0056511015 -0.028632585 -0.01119562 0.0024251628 0.001905104
0.012149156 0.005942373 0.0054306644 -0.005239118 -0.01937626 0.006211293 0.021511221 -0.01549836
-0.008186605 0.012027679 0.023231465 0.012931121 0.005041139 0.008122593 0.013021053 -0.008413027
-0.0039465236 0.0061560683 -0.0058811023 0.005425482 -0.009147021 0.017631138 -0.0009518377 0.005559727
-0.0066421563 -0.0052017546 -0.0002316468 -0.005954612 0.0043307566 0.00218483 0.009026466 -0.015182332
0.006480792 0.007626328 -0.0008429162 -0.0038430477 0.0038792796 0.0055309944 -0.0037543455 0.0046502557
-0.004679041 0.001308492 0.00235223 -0.0010619255 0.008184951 -0.011133969 0.009448354 0.0028361755
0.015608854 -0.011230913 -0.0043529416 0.0049383603 0.00985561 0.010101769 -0.0049753007 -0.011988764
-0.0016711906 -0.010952838 0.015445097 0.005495761 0.0071590818 0.010123493 -0.011076292 0.0015610274
-0.007055251 -0.005072932 -0.002823783 0.003462664 0.007860177 0.012491981 0.0003967728 -0.010014033
0.00963615 -0.009604937 0.007726072 0.0048901723 -0.0030688439 -0.0083391145 -0.02715338 0.00052062154
0.008863872 0.011812239 -0.009199478 -0.0076317852 0.00459709 -0.012171184 0.0039951326 -0.005577071
0.0060981964 0.0017180154 -0.0023903472 0.004112529 -0.003224636 -0.010734256 -0.009846098 0.007399383
-0.008673323 -0.0029407516 0.017339816 -4.2560536e-05 -0.015178331 0.0021715795 0.0013571474 -0.0024737807
0.0052241334 -0.0034602745 -0.0012085877 0.0007743547 0.013306493 0.007863238 -0.01609606 -0.004277775
0.0032332363 0.012743123 0.0011672542 -0.0016865795 -0.002884353 -0.0010549835 0.011918256 -0.0045425906
0.008107387 -0.0045927656 -0.0002520476 -0.0027781879 0.01010235 -0.0070449063 -0.005492146 -0.0075190617
-0.007307 -0.0012910514 0.009209635 -0.0008668164 -0.0011607469 0.0018396168 0.0053734635 0.0033944298

cvae_parameters.out_lin_b f4 [120]
00000000: b617 47be 0429 3bbe 7278 57be 38f6 82bd
00000010: 80b6 31be 2166 3abe a5d6 8b3c 2be8 5ebe
00000020: b8f3 08be cc78 f2bd 1399 c1bd 3026 42bd
00000030: 5086 c43d cf84 29be a502 a8bd 04a0 e7bd
00000040: bde3 8b3d 798e 4e3d 8760 933d d450 0fbe
00000050: a8b5 5a3c 51ea f1ba de5b 1c3e 5f70 183e
00000060: dfd1 2bbd 6c72 68bd 687f 103e 66c3 a33d
00000070: 9e73 be3d ae90 3b3e 6e6b 23be 184b 4abd
00000080: 9bb5 253e 0d35 e23d 0c4c 063c 79d5 f93d
00000090: 6455 1abe d47e 3abe 734f 973d 4849 d53b
000000a0: 44e8 fd3c 45df db3c 5fea 4a3d 22f6 85be
000000b0: 7165 be3c 4c64 29bd af7e 8e3d 13cb 023c
000000c0: e522 5a3e 6dcf 89be 475e 5ebc caa0 2dbe
000000d0: f5f7 c2ba 22dc 723d 6c55 d23d 4dee 41be
000000e0: 97f8 febd 3b87 85be a47e 873c 7c87 713d
000000f0: 638e eebd 72fe b7bd 256a 0dbe d46a 7ebe
00000100: c6b6 c63c 0ab2 8bbb 2108 5ebe 1047 55bb
00000110: c456 8cbd a952 0fbe 7676 7ebc c7d9 14be
00000120: afea f4bd 7b69 83bc 0d3a 543d a0c9 3b3d
00000130: eeff 02bd dac5 8ebe acdb ba3d 52b8 f9bd
00000140: 3752 a73d 1b1e ebbc 0b54 12be 3efb 8cbe
00000150: 3f40 183e 3188 29be f7c7 34bd d6fa 1abe
00000160: 364b 57be 85b7 a4bd 7a90 473e a841 80bd
00000170: 2468 14be f959 5bbe ab02 c3bd 6bab d63d
00000180: c28f da3d 10a4 bfbd eb09 a7bd 6527 35be
00000190: d92e 023c 2461 663e 95cc 5fbd b5ee 3abe
000001a0: b9a5 6837 be50 d3bc 8307 c3bd 6a95 b93d
000001b0: 4005 483b e2f4 61be 68b7 343c 6af7 8bbd
000001c0: f67b 32be d8c1 1a3d 4530 eebd 4887 2cbe
000001d0: 1269 41be e942 22bd c86a 2cbe d9d3 e7bd
-0.19442639 -0.18277365 -0.2104204 -0.06394619 -0.17354774 -0.18203022 0.017070124 -0.21768253
-0.13374221 -0.118394464 -0.09453025 -0.0473997 0.095959306 -0.16554569 -0.082036294 -0.113098174
0.06830547 0.05042884 0.071961455 -0.13995677 0.013348974 -0.0018456673 0.1526942 0.14886616
-0.041948196 -0.056749746 0.14111102 0.07996254 0.09299396 0.1831691 -0.1595895 -0.04938802
0.16182558 0.11045275 0.008196842 0.1219892 -0.15071636 -0.18212444 0.073882006 0.00650898
0.030994542 0.026839862 0.04953992 -0.26164347 0.02324173 -0.041355416 0.06957757 0.007982987
0.21302374 -0.26916066 -0.013572282 -0.16955867 -0.0014874922 0.059291966 0.10270199 -0.18938561
-0.124497585 -0.26079735 0.01653988 0.0589671 -0.11648252 -0.089840785 -0.13810022 -0.24845439
0.024257075 -0.0042631673 -0.21682788 -0.0032543577 -0.06852487 -0.13996376 -0.015531173 -0.145362
-0.11958825 -0.016041508 0.051813174 0.04584658 -0.031982355 -0.27885324 0.0912393 -0.121933594
0.08169978 -0.028700879 -0.14289872 -0.27535433 0.14868258 -0.16555859 -0.044136014 -0.15134749
-0.21024784 -0.08042816 0.19488707 -0.06262523 -0.14492851 -0.2142104 -0.09521993 0.10481914
0.10671951 -0.09357464 -0.081561886 -0.17690809 0.00794574 0.22497994 -0.054638464 -0.18255122
1.3866863e-05 -0.025795337 -0.09522917 0.090617016 0.0030520707 -0.22066072 0.011030056 -0.068343
-0.174301 0.03778252 -0.116303004 -0.1684848 -0.18887737 -0.03961459 -0.16837609 -0.113197036

cvae_parameters.out_lin_w f4 [120, 128]
00000000: 7907 78bd 38c7 dcbc c047 9c3c 9c47 47bc
00000010: b560 14bd a10d d4bc a03c 13bd 13f6 86bd
00000020: b77e 20bc 2ab2 19bd 90db 1dbd 1b5a 83bb
00000030: 6fcb 613a 4a75 e2bc fa7b 67bd 0bf6 6cbc
00000040: 32a4 4dbd 64ec 29bd eac0 12bd aa07 f93b
00000050: ef4c 58bd 79cf 31bd 272d 26bd ae19 b0bc
00000060: 9377 3fbc 7759 e7bc 31b7 103b 0176 45bd
00000070: c370 19bd 48b0 46bd 0b14 a5bb 81db 26bd
00000080: 78ef 5f3a 1c1e 13bd 1351 46bd b832 10bd
00000090: c2cc 37bb d986 1abb 0c85 61bd 9a95 46bd
000000a0: d109 fbbc c6c4 17bd 4b85 1abd ed4c 0fbd
000000b0: a6bf 8abc 88c1 c73c 05be 55bc b68f 22bd
000000c0: 9e85 fb3a ec71 413b b508 ba3b 63cb 60bd
000000d0: ac0f 2fbb cd59 5dbd fcd0 a3bb 53e2 13bd
000000e0: 5acc 383b bd52 9cbc 6e6f 00bc 385a 81bc
000000f0: 88be c0bc 3b15 e4bb 3c34 0fbd 39f8 42bb
00000100: 5932 343c 66b6 42bd e3d5 a8bc 216a d5bb
00000110: 3d57 8abd 3bc2 8ebc 2c49 a7bb ebb1 33bd
00000120: 48bd 5fbd 4524 8bbd bb6f 4ebd 4abe 85bc
00000130: c7f9 573b dabe c0bc 04ab 1cbd 93f8 5ebd
00000140: a529 93bc 00f1 10bd 4497 57bc 5b49 18bd
00000150: 0cae 1bbd bbd1 c3bb 2df4 89bc d740 6c3c
00000160: 3a26 f0bc 3d45 0cbd 8dcf 6cbd c5a7 2cbd
00000170: 8089 2fbd 6ac7 d1bc 73e6 c7ba 0748 1bbd
00000180: 12ac c93c af15 bf3c 3135 57bc 472d 28bd
00000190: 2e61 83bd 6954 13bd 734d e63b 98d3 e6bb
000001a0: aeff 0d3c 4e20 0ebd 3418 3dbc ba50 cabb
000001b0: 7d1c 483b 3c0e 32bc dcd8 e43b 3abd b7bb
000001c0: 1ba8 06bd 0107 173c e70d e539 5201 71bd
000001d0: f834 6dbd 3d68 34bd df70 2cbd ac1a 26bd
000001e0: fb1c 71bc 55aa 17bd bed6 37bd 5679 24bd
000001f0: e889 65bc 4edc dcbc 9d08 40bb 5a83 173b
00000200: c0e5 7dbd 88eb 45bd 85c7 82bc 8b2a 3dbd
00000210: 515d 56bd f8b6 6bbd 9309 31bd 410b 8cbd
00000220: 4956 ee3b d676 3dbd e580 85bd dcae 95bc
00000230: 076d 16bd 4b65 4dbd 765b 84bd adf6 fabc
00000240: 9753 3bbd 0cf9 56bd 9506 62bd f663 b4bb
00000250: 29b8 a6bd 0a1f 88bd 9c7b 45bd 3530 00bc
00000260: bc42 79bc d34d 0ebd 3371 f13a fbbe 53bd
00000270: f6cf 1bbd d944 98bd b0d2 86bc 22d6 a1bd
00000280: 15e9 cfba 1896 7bbd 25d2 7abd a147 aabd
00000290: 5ccd 24bc 95a3 20ba 10b2 48bd 9c9e 6abd
000002a0: dbd9 3dbd 5058 81bd a568 1ebd d41a 6cbd
000002b0: 8ed5 07bd 99cc 393b 8c51 79bc 34d3 96bd
000002c0: 6f8d 843b cc75 833c 3465 ecbb 28af 97bd
000002d0: 7fa0 7fbc 2ea6 44bd af86 53bb 8bbd 3bbd
000002e0: 6662 3e3b 54db 49bc f9cc ad3b 8cc1 40bd
000002f0: d1b4 1fbd dcff 323b 1628 6bbd c221 bcbc
00000300: 7a0d 0abc 07df 50bd a1c4 71bd b4b5 83bc
00000310: 54ec 34bd 6723 c3bc b773 3b3c 0a78 4dbd
00000320: 234e 92bd 5362 9fbd 6466 9bbd 075c 8e3b
00000330: 7f0b b03c e75c a2bb 34a0 8abd 3ffc 93bd
00000340: b2e9 01bd e1e4 6abd 0a12 54ba f8d5 adbc
00000350: b86d 28bd 7a74 ed3b 1448 94bd 40f5 0c3c
00000360: 9d28 36bd 3b1c 6ebd 42b0 28bd b86f 96bd
00000370: 72b7 52bd 2967 57bd cc94 73bb 3210 45bd
00000380: 0b1b d5bb 7ca8 97bc 7038 91bc 1961 80bd
00000390: 9e2e 95bd c277 6ebd e884 303c 3b04 243c
000003a0: 8480 a3bc d99d 78bd 4428 4abd b3f7 29bc
000003b0: fd54 4cbb 7be7 063c 1ddb 6fba 3150 35bc
000003c0: 9408 06bd 56ea d7bb d45d 023c 4eac 7fbd
000003d0: 6bef 78bd 38f4 4dbd e90c 29bd c3b2 73bd
000003e0: 20db 28bd 7d04 1bbd 2884 47bd 09c6 32bd
000003f0: 811e 5e3b 055e 8abd 08fa adbc 7446 7ebb
-0.060554 -0.026950464 0.019077182 -0.012163069 -0.03622504 -0.025885405 -0.03594649 -0.06589904
-0.009795836 -0.037523426 -0.03853947 -0.004008544 0.0008613383 -0.027643818 -0.056514718 -0.014462958
-0.050205417 -0.041485205 -0.03582851 0.0075997906 -0.052807745 -0.043410752 -0.040570404 -0.02149662
-0.011686224 -0.028240902 0.0022081847 -0.04820824 -0.037461054 -0.04850796 -0.0050377897 -0.04073668
0.00085424585 -0.035917386 -0.048417162 -0.03520462 -0.002804563 -0.002357891 -0.055058524 -0.048482515
-0.03064433 -0.037052892 -0.037724774 -0.03498547 -0.016937088 0.024384275 -0.0130457925 -0.039687835
0.0019189601 0.0029517366 0.0056773075 -0.054881465 -0.0026712222 -0.05404072 -0.004999278 -0.03610451
0.0028197975 -0.019082421 -0.007839067 -0.01579009 -0.023528352 -0.0069605387 -0.034961924 -0.0029750003
0.010998332 -0.04753723 -0.020609802 -0.0065128957 -0.06754921 -0.0174266 -0.0051051583 -0.043870848
-0.054623872 -0.06794027 -0.050399523 -0.016326088 0.0032955275 -0.023528505 -0.03824903 -0.054436278
-0.017964194 -0.035386086 -0.013158623 -0.037179332 -0.03800778 -0.0059759296 -0.016840065 0.014419756
-0.029315103 -0.03424572 -0.057815123 -0.042152185 -0.04285574 -0.025607783 -0.0015251174 -0.037910488
0.024618182 0.02332577 -0.01313524 -0.041058805 -0.0641502 -0.03596917 0.0070282756 -0.007044267
0.008666916 -0.034698777 -0.011541415 -0.006174174 0.0030534558 -0.010867652 0.0069838595 -0.0056072744
-0.03287516 0.009217978 0.00043688642 -0.05883915 -0.057911843 -0.044044722 -0.04209983 -0.04055278
-0.014716382 -0.037027676 -0.04488253 -0.040154777 -0.01400993 -0.026960518 -0.002930201 0.0023119063
-0.061986685 -0.048320323 -0.015964279 -0.04618315 -0.052335087 -0.05754754 -0.04322202 -0.06838084
0.0072734696 -0.04625591 -0.06518725 -0.018271856 -0.03672507 -0.05014543 -0.06462757 -0.030635202
-0.045734014 -0.052483603 -0.05518206 -0.0055050803 -0.081405945 -0.06646545 -0.048213586 -0.007823993
-0.015213665 -0.034742188 0.0018420577 -0.051695805 -0.038040124 -0.07435007 -0.016457886 -0.07902171
-0.001586231 -0.061422437 -0.061235566 -0.083144434 -0.010058727 -0.0006127891 -0.04899794 -0.057280168
-0.04635034 -0.063156724 -0.038674016 -0.057642773 -0.033162646 0.002835071 -0.015217196 -0.073645025
0.0040451805 0.01604738 -0.007214213 -0.07406455 -0.01560223 -0.048010044 -0.0032276323 -0.04583506
0.002905035 -0.012320358 0.0053039757 -0.04705958 -0.0389908 0.0027313149 -0.057411276 -0.022965316
-0.008426065 -0.050993945 -0.05902541 -0.016077854 -0.044170693 -0.023820592 0.011441163 -0.050163306
-0.0714381 -0.07782426 -0.07587889 0.0043444666 0.021489857 -0.0049549225 -0.067688376 -0.072258465
-0.03171701 -0.057347182 -0.0008089846 -0.021220192 -0.04112026 0.007246551 -0.0724031 0.008603394
-0.044472326 -0.05813239 -0.041183718 -0.073455274 -0.05144448 -0.052588616 -0.0037167547 -0.04811115
-0.006503468 -0.018512957 -0.017727107 -0.0626852 -0.07284282 -0.05821968 0.010773875 0.010010774
-0.019958742 -0.06069741 -0.049354807 -0.0103739975 -0.0031178587 0.0082339 -0.0009149777 -0.011066482
-0.032723024 -0.0065892143 0.007956941 -0.062420182 -0.0607752 -0.050281733 -0.041272078 -0.059496652
-0.0412246 -0.037846077 -0.04871002 -0.043645892 0.0033892693 -0.06756214 -0.021237388 -0.0038799318

cvae_parameters.z_mu_lin_b f4 [32]
00000000: 63be 70bb 7f3a 103c 0fd7 68ba ce82 94ba
00000010: ce3d 153a 48f6 27ba 34e6 243a 4eec c7ba
00000020: 970f 0f39 837e 9a39 5de3 29bc cadb 9abb
00000030: c98c 81b8 4ee4 47ba 1ccc 2ab9 2195 b3ba
00000040: d179 9b3b 8bb5 4dba da63 813a 975b 7d3a
00000050: 75f3 1f3c c422 45bb 5ebc d139 e705 4c3c
00000060: 604f 6e3a bda1 32bb 619c a23a 25fe 3c3a
00000070: 5fc7 aa3a 04ab 793a 0448 72ba 2c0b 78b9
-0.0036734573 0.008803009 -0.0008882144 -0.0011330487 0.00056931085 -0.0006407243 0.00062904065 -0.0015252919
0.0001364335 0.00029467428 -0.010369149 -0.004725908 -6.1774226e-05 -0.00076252676 -0.000162885 -0.001370106
0.0047447463 -0.00078471814 0.0009871677 0.0009664832 0.0097626345 -0.0030080536 0.0004000393 0.012452579
0.0009090807 -0.0027257048 0.0012406224 0.00072095013 0.0013029388 0.00095240795 -0.00092422985 -0.00023655285
