dlpg/15/weights/dlpg_model_weights_150.pth (torch, 313083 bytes, 14 tensors)

cvae_parameters.dec_00_lin_b f4 [128]
-0.047118142 -0.03460782 -0.031890977 -0.039685577 -0.0406639 -0.039716274 -0.0301086 -0.043349393
-0.03484956 -0.036487497 -0.030479837 -0.025431087 -0.038317285 -0.025446875 -0.04216829 -0.031019809
-0.042751137 -0.018581124 -0.037743043 -0.037079867 -0.03679609 -0.036730926 -0.050749827 -0.048180897
-0.03809874 -0.03196553 -0.031444352 -0.04638099 -0.03311399 -0.027402587 -0.03539516 -0.031268865
-0.027841695 -0.025737414 -0.035098057 -0.04780646 -0.047440164 -0.02906443 -0.043684553 -0.03264405
-0.036864474 -0.04716791 -0.037787557 -0.03277627 -0.043458767 -0.04060533 -0.035633422 -0.02935323
-0.0346327 -0.03163573 -0.037957218 -0.02303293 -0.051270474 -0.032202713 -0.02232646 -0.029517354
-0.04350472 -0.046816565 -0.039304726 -0.03502469 -0.0339473 -0.034651756 -0.0308144 -0.032252993
-0.051972896 -0.042828374 -0.043035246 -0.033340782 -0.0413887 -0.04401627 -0.04255334 -0.027995626
-0.033130836 -0.038252715 -0.03189791 -0.035579097 -0.040627167 -0.040715113 -0.035073575 -0.041438755
-0.02850896 -0.03473815 -0.03963628 -0.03260085 -0.034688435 -0.02593409 -0.034394536 -0.043366317
-0.05236464 -0.03005493 -0.04239603 -0.033432595 -0.022692217 -0.04190828 -0.04116523 -0.03748809
-0.027882367 -0.043920107 -0.029904943 -0.033101037 -0.033045754 -0.046001974 -0.04163601 -0.03542024
-0.03310089 -0.038140647 -0.03035881 -0.03899279 -0.031248188 -0.032597262 -0.04074235 -0.03560215
-0.04674537 -0.04592043 -0.03156322 -0.037703775 -0.020754997 -0.047474608 -0.03453102 -0.03490612
-0.041498106 -0.031341568 -0.032160092 -0.03306569 -0.017854081 -0.045548134 -0.03636636 -0.029361844
00000000: f4fe 40bd eec0 0dbd 1da0 02bd 588d 22bd
00000010: 318f 26bd 88ad 22bd 50a6 f6bc 228f 31bd
00000020: 6abe 0ebd ea73 15bd dab0 f9bc db54 d0bc
00000030: 96f2 1cbd f775 d0bc a8b8 2cbd 411d febc
00000040: d11b 2fbd 7137 98bc 7398 1abd 0fe1 17bd
00000050: 7fb7 16bd 2b73 16bd 0ddf 4fbd 5559 45bd
00000060: 6d0d 1cbd 4aee 02bd cbcb 00bd fef9 3dbd
00000070: 89a2 07bd 647b e0bc 84fa 10bd c813 00bd
00000080: 4414 e4bc 45d7 d2bc fbc2 0fbd b5d0 43bd
00000090: 9e50 42bd 8718 eebc 93ee 32bd c4b5 05bd
000000a0: 34ff 16bd 2333 41bd 20c7 1abd 6940 06bd
000000b0: d201 32bd c651 26bd 5af4 11bd 2f76 f0bc
000000c0: 05db 0dbd 7894 01bd 0779 1bbd 8eaf bcbc
000000d0: fd00 52bd fee6 03bd fbe5 b6bc 61ce f1bc
000000e0: 0132 32bd bac2 3fbd fefd 20bd 0d76 0fbd
000000f0: 530c 0bbd 00ef 0dbd 7b6e fcbc b71b 04bd
00000100: 88e1 54bd ce6c 2fbd ba45 30bd 5890 08bd
00000110: 3387 29bd 684a 34bd 694c 2ebd 1557 e5bc
00000120: 33b4 07bd e1ae 1cbd 62a7 02bd 63bb 11bd
00000130: ac68 26bd e4c4 26bd 4fa9 0fbd afbb 29bd
00000140: 9f8b e9bc 9749 0ebd a759 22bd 7888 05bd
00000150: 7615 0ebd bb73 d4bc 49e1 0cbd e1a0 31bd
00000160: 4e7c 56bd c235 f6bc 76a7 2dbd 9ef0 08bd
00000170: 07e5 b9bc 04a8 2bbd df9c 28bd 1d8d 19bd
00000180: 9069 e4bc 92e5 33bd 36fb f4bc f494 07bd
00000190: fc5a 07bd 916c 3cbd 858a 2abd d014 11bd
000001a0: cd94 07bd 5e39 1cbd 0ab3 f8bc e7b6 1fbd
000001b0: 33fc ffbc b584 05bd 73e1 26bd 8fd3 11bd
000001c0: 1378 3fbd 1017 3cbd 6f48 01bd 466f 1abd
000001d0: 6206 aabc bc74 42bd 6670 0dbd b8f9 0ebd
000001e0: ebf9 29bd 0460 00bd 4dba 03bd e46f 07bd
000001f0: b942 92bc ae90 3abd e4f4 14bd 4088 f0bc

cvae_parameters.dec_00_lin_w f4 [128, 35]
-0.008475266 0.010567149 -0.008071676 0.0041433037 -0.0036095714 0.010605765 -0.018274771 0.010581118
0.0045599733 0.0021917252 0.011085707 0.00082781195 0.008654363 0.011991177 -0.02066666 -0.0064699445
0.01527219 0.007918395 -0.02306347 -0.01407511 0.00509548 0.0059062005 0.004645498 -0.0012422635
-0.005259741 -0.003260117 0.010143089 -0.011842289 0.011340216 0.0011848628 0.017115997 -0.0025627154
0.0024212277 -0.0350391 0.0038817045 -0.008977955 -0.02217492 0.005670035 0.007144765 0.015189903
-0.0010976887 0.0067465575 0.010047607 0.0045546545 0.00095975003 0.0008325489 -0.016094241 -0.0028237652
0.0041621844 -0.0074940124 0.009212939 -0.0050889044 -0.017295573 0.0027071387 0.0052225916 -0.0024644474
-0.0024971776 0.00855389 -0.0030634045 0.0031155418 -0.0010746331 -0.0070673674 -0.012155013 0.008670509
0.00048640583 -0.004811837 0.00081910286 0.014796896 -0.03481778 -0.005321757 -0.008433538 0.0008584923
-0.007961261 0.0021150592 -0.0018668162 0.0016740195 -0.011896527 0.00036219842 0.0011245288 -0.00046686552
-0.009008628 0.010551876 0.008913747 -0.008971402 0.006332541 0.0062662615 -0.007902905 0.011050141
0.002806916 0.015119769 0.0041433037 -0.009762222 -0.0048642294 0.01102797 0.0071089757 0.0007631178
-0.0061308923 -0.002406897 0.010340068 -0.0041208644 0.00011271789 -0.0023769094 0.026339151 -0.019013822
-0.005241731 -0.0030381023 -0.009460606 -0.0031913905 0.0029649374 0.00942249 -0.02011423 0.0062214937
0.002292289 -0.0015940489 0.018706707 -0.0062647127 0.005269746 -0.0070324047 -0.0019815504 0.009140409
-0.0044536367 0.007976886 0.003432622 0.0099807335 -0.016833896 0.0035716111 0.009606578 -0.007988361
-0.00783955 -0.011896213 -0.0005943279 -0.0033394317 0.008815952 0.0131832305 -0.006371857 -0.017748332
-0.004115999 -0.004030642 -0.03694069 -0.003163791 -0.0013382812 0.0044542546 -0.0004483544 -0.0057163225
-0.009332779 -0.0037421735 -0.006572315 0.0064179907 -0.0067626196 -0.013941812 0.0005037246 -0.011224037
0.019895172 -0.0049459846 0.010309296 0.0015201947 -0.0054834397 0.004614712 -0.0038350732 -0.00433629
0.012375547 -0.015761307 -0.00041847577 -0.009161626 0.0024325333 0.017606502 0.004308323 -0.0020125876
-0.0019655037 -0.013136638 -0.006005053 0.006499531 -0.004464576 -0.040173575 -0.0010892828 0.011708584
0.020236913 -0.019812256 0.009103671 0.010433291 0.012619525 0.011929014 0.021221831 -0.009274005
0.015418406 0.0005486664 0.0040080845 0.004594038 -0.018331356 -0.0042336197 0.016631775 -0.015676456
0.011079756 -0.012910398 0.00963897 -0.010381426 -0.012965258 -0.019766523 -0.0007210702 0.002920486
-0.01929777 -0.0050564096 0.0062741237 0.0022207464 0.003754642 -0.017875077 -0.0033359579 -0.010147929
-0.023125816 0.010107289 -1.1660481e-05 0.002276157 -0.024896005 -0.009853077 0.001207681 -0.019454798
-0.008284754 0.009855671 -0.014024362 0.0038442474 0.0040890602 -0.0032108433 0.004437511 -0.010335436
0.009629504 0.010416163 -0.0059486874 0.014970057 -0.0011280356 -0.014678803 -0.014266782 -0.0063204844
0.009148768 0.02748173 -0.026232325 -0.0060814708 -0.0019176828 -0.010959161 -0.0076373443 -0.00029447596
-0.0056733964 0.0225125 0.0032742866 -0.039771218 -0.007932676 -0.00093598675 0.011762134 0.0015524058
-0.00042709417 -0.0144513585 0.00026496468 -0.013538958 -0.013027059 -0.0126911905 -0.013319764 -0.007134075
00000000: d8db 0abc d621 2d3c 103f 04bc 8dc4 873b
00000010: 8f8e 6cbb cdc3 2d3c f9b4 95bc 6d5c 2d3c
00000020: d46b 953b 0ca3 0f3b d3a0 353c 8501 593a
00000030: 08cb 0d3c a476 443c 214d a9bc d401 d4bb
00000040: 3538 7a3c 28bc 013c 9aef bcbc 4a9b 66bc
00000050: fcf7 a63b cd88 c13b 4339 983b 72d3 a2ba
00000060: e859 acbb b0a7 55bb 332f 263c 2906 42bc
00000070: 50cc 393c 664d 9b3a d936 8c3c 3bf3 27bb
00000080: 76ad 1e3b 2985 0fbd 3264 7e3b 4618 13bc
00000090: 2ea8 b5bc b3cb b93b a21e ea3b 12df 783c
000000a0: 52e0 8fba 3a12 dd3b b89e 243c 363f 953b
000000b0: bc97 7b3a 693f 5a3a 12d8 83bc eb0e 39bb
000000c0: ef62 883b 5590 f5bb def1 163c d3c0 a6bb
000000d0: 72af 8dbc 406a 313b 4622 ab3b 9182 21bb
000000e0: b0a7 23bb 9d25 0c3c 66c3 48bb 1e2e 4c3b
000000f0: b4da 8cba 6095 e7bb d225 47bc c00e 0e3c
00000100: 4904 ff39 9dac 9dbb 10b9 563a ae6e 723c
00000110: 179d 0ebd 2262 aebb d22c 0abc 710c 613a
00000120: f36f 02bc ce9c 0a3b f5af f4ba c66a db3a
00000130: a7e9 42bc 73e5 bd39 ed64 933a a1c5 f4b9
00000140: ed98 13bc c7e1 2c3c f70a 123c cafc 12bc
00000150: 3481 cf3b 3655 cd3b 307b 01bc a70b 353c
00000160: 3cf4 373b e8b8 773c 8dc4 873b baf1 1fbc
00000170: 1d64 9fbb a9ae 343c 69f2 e83b f80b 483a
00000180: a7e5 c8bb 08bd 1dbb 6369 293c 5108 87bb
00000190: f562 ec38 ecc5 1bbb 34c5 d73c e0c2 9bbc
000001a0: d4c2 abbb e61a 47bb a800 1bbc a626 51bb
000001b0: 654f 423b ca60 1a3c 99c6 a4bc acdd cb3b
000001c0: 3a3a 163b 68ef d0ba cf3e 993c 3848 cdbb
000001d0: d5ad ac3b 1670 e6bb e6dc 01bb a7c1 153c
000001e0: d0ef 91bb 7cb1 023c d7f5 603b 3b86 233c
000001f0: 3de7 89bc b111 6a3b e964 1d3c 9de1 02bc
00000200: 7571 00bc 55e8 42bc accc 1bba 5eda 5abb
00000210: c870 103c 7afe 573c 03cb d0bb f364 91bc
00000220: 81df 86bb 7a13 84bb 1f4f 17bd 9b57 4fbb
00000230: 4469 afba fff4 913b 1c11 ebb9 fd4f bbbb
00000240: 83e8 18bc 413f 75bb 935c d7bb 024e d23b
00000250: f798 ddbb 336c 64bc 630c 043a 06e5 37bc
00000260: 33fb a23c ed11 a2bb 52e8 283c 4541 c73a
00000270: 6dae b3bb 0337 973b da55 7bbb 7017 8ebb
00000280: cec2 4a3c db1d 81bc de66 dbb9 a51a 16bc
00000290: 236b 1f3b 833b 903c d52c 8d3b 9ee5 03bb
000002a0: aecf 00bb 0e3b 57bc 09c6 c4bb 05fa d43b
000002b0: 944b 92bb 0c8d 24bd 44c6 8eba 5cd5 3f3c
000002c0: e2c7 a53c 504d a2bc 9027 153c 65f0 2a3c
000002d0: 20c2 4e3c e971 433c 68d9 ad3c fff1 17bc
000002e0: 7b9d 7c3c 61d4 0f3a 4056 833b 9589 963b
000002f0: a42b 96bc 2dba 8abb 5c3f 883c e96b 80bc
00000300: dd87 353c 2286 53bc c5ec 1d3c db16 2abc
00000310: 3c6c 54bc 67ed a1bc 3406 3dba a065 3f3b
00000320: 5b16 9ebc 3db0 a5bb 2a97 cd3b f189 113b
00000330: 7110 763b c16e 92bc 16a0 5abb 8043 26bc
00000340: 5a72 bdbc 0b99 253c 62a1 43b7 942b 153b
00000350: b5f2 cbbc cd6e 21bc 0d4b 9e3a ab5f 9fbc
00000360: c7bc 07bc ae79 213c 70c6 65bc c5ef 7b3b
00000370: 86fd 853b 036d 52bb 8a68 913b f655 29bc
00000380: 11c5 1d3c 8ea8 2a3c 35ed c2bb f844 753c
00000390: 98da 93ba 5d7f 70bc 39bf 69bc 111c cfbb
000003a0: b7e4 153c 5d21 e13c 2ce5 d6bc 1347 c7bb
000003b0: c25a fbba 0e8e 33bc b042 fabb e563 9ab9
000003c0: e6e7 b9bb 226c b83c 6a95 563b 25e7 22bd
000003d0: 0ef8 01bc 025d 75ba f7b5 403c 187a cb3a
000003e0: 9ceb dfb9 64c5 6cbc f5ea 8a39 81d2 5dbc
000003f0: 726f 55bc b6ee 4fbc 243b 5abc f5c4 e9bb

cvae_parameters.dec_01_lin_b f4 [128]
0.11275445 0.06361836 -0.0044006533 -0.0009800094 0.06766181 -0.0038625496 0.10196021 0.09982116
-0.005502074 0.076544926 0.0660366 -0.0032983795 -0.00203964 0.0884142 0.09581144 -0.0019309529
0.07344937 0.060702078 0.11292478 -0.0031069354 0.09410769 0.11696488 0.08692254 -0.014660835
-0.005328239 0.05091641 -0.003929755 0.06818422 0.08566731 0.09534409 -0.0023090579 0.11153234
-0.011203707 0.06961373 0.10226367 0.06720783 -0.00802545 -0.012034267 0.040371094 0.114052355
-0.006085825 0.10184908 0.09683018 0.108096756 -0.0018544865 -0.0069007073 -0.0033092913 0.072122455
-0.01053331 -0.007102763 -0.0068827234 0.10686437 -0.008215725 0.083835155 -0.005949497 0.04473309
-0.014868944 -0.011109953 -0.010228897 0.05733251 -0.0033259362 -0.011068695 0.09996219 -0.011585507
-0.012638634 0.08462471 0.04167822 -0.010262968 0.11720252 -0.0023639726 -0.010318982 0.10743825
0.09836351 0.08733922 0.106419966 -0.005174993 -0.013996965 -0.0075180545 0.099182434 0.046122413
0.061274238 0.047351006 -0.009276825 -0.0046624807 0.09260426 -0.0086608045 0.08281458 -0.0051054787
0.059236247 0.09280834 0.08825448 0.09347438 0.09616094 0.0604082 -0.0020872494 0.08062496
-0.011301562 -0.0067523452 -0.0012898404 0.0953838 0.042303566 0.09215883 -0.008210853 -0.017662887
-0.0075866566 0.097079426 0.06804541 -0.011735916 -0.0046615433 -0.004305598 -0.009898865 -0.0032526697
0.07181182 -0.0033068813 -0.00807676 0.10839328 0.10999466 0.067920566 0.05755989 0.09046012
0.04610367 0.05597321 0.062047187 0.07464932 -0.013574569 0.09348074 -0.005591513 -0.007994268
00000000: ceeb e63d 584a 823d 5b33 90bb a973 80ba
00000010: 4692 8a3d d422 7dbb 84d0 d03d 096f cc3d
00000020: be4a b4bb 96c3 9c3d 323e 873d a029 58bb
00000030: 7bab 05bb 8112 b53d ca38 c43d 0718 fdba
00000040: a06c 963d bea2 783d 1b45 e73d ba9d 4bbb
00000050: 88bb c03d 488b ef3d 7204 b23d 0034 70bc
00000060: 8298 aebb ba8d 503d 2dc5 80bb 2ba4 8b3d
00000070: 5872 af3d c343 c33d 9053 17bb 116b e43d
00000080: c18f 37bc a591 8e3d 9d6f d13d 42a4 893d
00000090: 2d7d 03bc 602b 45bc 295c 253d 4894 e93d
000000a0: 9a6b c7bb 4096 d03d e74e c63d d561 dd3d
000000b0: 3e12 f3ba 541f e2bb b2e0 58bb f0b4 933d
000000c0: e793 2cbc 4bbe e8bb 7888 e1bb b5db da3d
000000d0: 409b 06bc c4b1 ab3d 00f4 c2bb 0b3a 373d
000000e0: df9c 73bc 8506 36bc 1b97 27bc 7ed5 6a3d
000000f0: f3f7 59bb 7959 35bc fab8 cc3d 23d1 3dbc
00000100: 4612 4fbc b84f ad3d c8b6 2a3d 0226 28bc
00000110: e007 f03d e1ec 1abb f310 29bc 9608 dc3d
00000120: cf72 c93d e8de b23d b6f2 d93d fd92 a9bb
00000130: 8753 65bc 035a f6bb 2920 cb3d dbea 3c3d
00000140: b2fa 7a3d 21f3 413d d3fd 17bc b9c7 98bb
00000150: 4da7 bd3d 0ce6 0dbc b19a a93d dc4b a7bb
00000160: b5a1 723d 4d12 be3d c4be b43d 7f6f bf3d
00000170: 07f0 c43d 976e 773d 3cca 08bb b31e a53d
00000180: 302a 39bc c742 ddbb dd0f a9ba 9558 c33d
00000190: 8146 2d3d c5bd bc3d d086 06bc c2b1 90bc
000001a0: 7d99 f8bb 94d1 c63d 645b 8b3d 0048 40bc
000001b0: dcbf 98bb f915 8dbb d92e 22bc be2a 55bb
000001c0: 1312 933d 43b8 58bb 6354 04bc 4cfd dd3d
000001d0: e144 e13d f019 8b3d ebc3 6b3d 2843 b93d
000001e0: 34d7 3c3d 2a44 653d 3125 7e3d bee1 983d
000001f0: de67 5ebc d572 bf3d 0339 b7bb 64fa 02bc

cvae_parameters.dec_01_lin_w f4 [128, 128]
0.0011511672 0.019614946 -0.011511014 -0.0063726846 0.0057773846 0.0012997454 0.010640869 0.008030139
0.005705654 0.0039230515 -0.019846972 0.0100377295 -0.0017183311 0.0055007273 0.011584809 0.016236564
0.0039402186 -0.005081602 0.020574547 -0.0024448691 -0.012615379 0.0005457677 -0.008666447 0.0056244126
0.009602579 0.0030551865 0.0036921634 -0.015206167 -0.0020183248 0.006452242 0.006872402 -0.00732267
-0.012271441 0.020618564 -4.1678657e-05 -0.005975473 0.0009981955 -0.0044765286 0.00564703 -0.0067150034
0.020876985 -0.008873619 -0.00612943 0.006966875 0.0020852166 -0.0069853333 0.019032557 -0.0031540014
0.003082478 0.007096301 0.006129794 0.013118317 0.0025420059 0.018550813 0.0139679825 -0.005940549
0.021202115 0.0060451487 -0.015470062 0.0021839528 0.002686055 0.00992942 -0.002207051 0.0046197283
0.00420276 0.011644312 0.009510488 0.0011412849 -0.011476372 -0.0057920143 0.0112620955 -0.011823704
0.012251489 0.012968354 -0.011338544 -0.005660015 0.0042117448 -0.009213826 0.0151176015 0.025747899
-0.006581203 0.008569442 -0.015326225 -0.0061632018 -0.0011474782 0.021011392 -0.0035792252 0.009237886
0.0020994507 0.011065786 0.008602271 -0.0028380596 0.010711102 -0.003572907 0.006169495 0.003643879
0.0032491705 0.0076280977 0.00060284376 0.002542255 -0.0032320989 0.012757903 -0.010134401 0.007761961
0.010070233 0.010093369 0.020665241 -0.009490589 0.0018570995 -0.007718321 -0.0071074604 0.005276357
-9.437452e-05 -0.005490695 0.0049423445 0.0008376087 0.010836211 0.0059229354 -0.008313966 -0.016106535
0.00624274 0.010374107 -0.005685296 -0.0024229654 0.011101665 -0.0051761093 0.010774762 0.0094515905
-0.0070116078 0.008166138 -0.0026888568 0.0045358445 -0.013052179 -0.012812973 -0.009537089 -0.011561013
0.0011091253 0.017837131 0.016341573 0.0036904253 -0.008990954 -0.0038023877 -0.0062662843 0.0056932042
-0.008606403 0.0012033472 0.0025783123 -0.024219608 0.023637878 0.0050920704 -0.0023939544 0.014422447
0.0029000095 -0.001972447 -0.009604116 0.0078118066 0.012816625 0.00012259139 -0.021737186 -0.015682153
-0.0005869771 -0.0067908373 0.007763621 -0.0050643776 -0.005168871 -0.013798475 0.0049007325 -0.0037712615
-0.007818919 -0.0024319505 0.01240216 0.013873579 0.0009876036 -0.012921677 -0.005550368 -0.0016053731
-0.01416154 0.00051436137 0.007772964 -0.012281554 0.02190908 0.0048523466 0.0004814819 -0.0029475032
-0.006969804 -0.0019105648 0.0058421767 0.011345042 0.005131395 0.022649148 0.008574801 0.0049778814
0.002439583 -0.004487049 0.010111949 -0.00015391459 -0.0048546735 0.0057128957 -0.011329296 -0.001850999
-0.011695717 0.015512875 0.004906218 -0.005032042 -0.0041428693 0.008548909 -0.004759444 -0.0019165302
0.0067498893 0.005031316 -0.00827378 -0.016709438 0.0008097231 -0.0020960746 0.0041 -0.0051741945
0.005512848 -0.0026999908 -0.010326323 -0.008448436 0.007893768 -0.007902871 0.0029988077 -0.0074581346
0.015865425 -0.018734233 0.0031531216 -0.0061075184 -0.0060304357 0.0016071219 -0.010106947 -0.01681998
0.0030890969 -0.012588034 -0.008783128 -0.0063336114 0.010071535 -0.014293267 0.00030069338 -0.00041358155
0.009720031 0.00657916 -0.0054404465 -0.0073018377 0.002153225 -0.0019899362 0.005249803 0.003407524
-0.010571757 -0.0014251597 -0.004368689 -0.01796334 0.0063329823 -0.010511543 -0.0054531256 0.0005967216
00000000: c3e2 963a 86af a03c b198 3cbc f4d1 d0bb
00000010: 3750 bd3b 385c aa3a 0a57 2e3c d890 033c
00000020: 7ff6 ba3b f18c 803b 1e96 a2bc 4a75 243c
00000030: a039 e1ba 723f b43b 36ce 3d3c 8b02 853c
00000040: f31c 813b 9183 a6bb f48b a83c 193a 20bb
00000050: bcb0 4ebc da11 0f3a b7fd 0dbc fe4c b83b
00000060: 2354 1d3c 8639 483b 39f8 713b 4923 79bc
00000070: df45 04bb 546d d33b e331 e13b 02f3 efbb
00000080: 270e 49bc 43e8 a83c 1ed0 2eb8 e7cd c3bb
00000090: e2d5 823a d8af 92bb b90a b93b 8809 dcbb
000000a0: 3606 ab3c a862 11bc 63d9 c8bb 624a e43b
000000b0: 21a8 083b 39e5 e4bb 2aea 9b3c 5db3 4ebb
000000c0: 6603 4a3b 1688 e83b 70dc c83b 36ee 563c
000000d0: c897 263b e0f7 973c f7d9 643c f0a8 c2bb
000000e0: 0fb0 ad3c 6216 c63b 2576 7dbc a620 0f3b
000000f0: 8608 303b 02af 223c 2ca4 10bb 1761 973b
00000100: 4eb7 893b c9c7 3e3c e1d1 1b3c 2b97 953a
00000110: 6507 3cbc f0ca bdbb a784 383c 35b8 41bc
00000120: 78ba 483c 3879 543c 4dc5 39bc a677 b9bb
00000130: ad02 8a3b 96f5 16bc d1af 773c 42ed d23c
00000140: 22a7 d7bb d866 0c3c d91a 7bbc aff4 c9bb
00000150: fb66 96ba 1520 ac3c 6f91 6abb 815a 173c
00000160: f096 093b 454d 353c 8af0 0c3c bdfe 39bb
00000170: 9e7d 2f3c 6f27 6abb 7a29 ca3b 25ce 6e3b
00000180: 09f0 543b 1ff5 f93b 2908 1e3a f69b 263b
00000190: 9fd1 53bb 8606 513c c20a 26bc 0c58 fe3b
000001a0: 9efd 243c a85e 253c 274a a93c 6a7e 1bbc
000001b0: eb69 f33a f8e9 fcbb b3e5 e8bb 4ae5 ac3b
000001c0: efea c5b8 4aeb b3bb 64f3 a13b f892 5b3a
000001d0: 5d8a 313c 2f15 c23b 4d37 08bc daf1 83bc
000001e0: e68f cc3b 29f8 293c b84b babb 9dca 1ebb
000001f0: c2e3 353c 5a9c a9bb a188 303c d8da 1a3c
00000200: a1c1 e5bb 44cb 053c 8837 30bb 6ca1 943b
00000210: ced8 55bc 81ed 51bc 7341 1cbc 676a 3dbc
00000220: 1260 913a 2d1f 923c c3de 853c 10db 713b
00000230: cb4e 13bc 7b31 79bb 6755 cdbb 0f8e ba3b
00000240: df01 0dbc a2b9 9d3a e7f8 283b 3368 c6bc
00000250: 39a4 c13c 62db a63b e4e3 1cbb 214c 6c3c
00000260: 160e 3e3b 2b44 01bb 955a 1dbc 2ffa ff3b
00000270: d2fc 513c e08b 0039 2f12 b2bc dc77 80bc
00000280: 5edf 19ba ac85 debb f965 fe3b 14f3 a5bb
00000290: a25f a9bb 0013 62bc 5396 a03b 4527 77bb
000002a0: ec1a 00bc 5c61 1fbb 6e32 4b3c 024e 633c
000002b0: 7a72 813a 71b5 53bc dddf b5bb 626b d2ba
000002c0: ce05 68bc 35d6 063a 59b4 fe3b 9238 49bc
000002d0: ac7a b33c 6f00 9f3b 686f fc39 e62a 41bb
000002e0: f462 e4bb eb6b faba bb6f bf3b 8ee0 393c
000002f0: 4325 a83b b58a b93c 527d 0c3c 7f1d a33b
00000300: 69e1 1f3b 1808 93bb 97ac 253c 2264 21b9
00000310: f413 9fbb 3e33 bb3b 839e 39bc 389d f2ba
00000320: 659f 3fbc b729 7e3c 57c4 a03b d4e3 a4bb
00000330: e8c0 87bb b910 0c3c 1cf5 9bbb 1534 fbba
00000340: 2d2e dd3b bddd a43b c08e 07bc 3be2 88bc
00000350: 9943 543a 4c5e 09bb 4b59 863b 4a8c a9bb
00000360: 1fa5 b43b 54f2 30bb bd2f 29bc 4f6b 0abc
00000370: dd54 013c 0b7b 01bc a587 443b 5e63 f4bb
00000380: 35f8 813c 8978 99bc 9aa4 4e3b 9421 c8bb
00000390: f69a c5bb 10a6 d23a 9c97 25bc 0eca 89bc
000003a0: 7272 4a3b 0b3e 4ebc 1ce7 0fbc 2f8a cfbb
000003b0: 1403 253c 4f2e 6abc 62a6 9d39 fad5 d8b9
000003c0: c440 1f3c ff95 d73b c645 b2bb 4144 efbb
000003d0: 1f1d 0d3b 9769 02bb 8a06 ac3b c450 5f3b
000003e0: 2a35 2dbc 6dcc baba 3827 8fbb db27 93bc
000003f0: e884 cf3b 9b38 2cbc 22b0 b2bb 4f6d 1c3a

cvae_parameters.enc_00_lin_b f4 [128]
0.010327268 -0.004644624 -0.0031557041 -0.002525231 -0.0017537513 -0.0027052648 0.009429839 0.0013473764
-0.004544165 -1.9107089e-05 -0.0009800855 -0.0014229676 0.010184065 8.987533e-05 -0.0034535944 0.004455474
0.009968543 -0.0038256038 -0.00048131205 -0.0041411645 -0.00053895335 0.009533417 -0.00096232514 -0.0009348819
-0.0045645963 0.0021501118 -0.00030382047 -0.0024519376 0.0010846218 -0.00761437 -0.0029833096 -0.00042274632
0.0025059362 -0.0042695752 0.009098661 -0.00040860046 -0.005035967 -0.0016590813 0.010646902 -0.00032264035
-0.001015145 0.015647523 0.0024106565 -0.0061365687 -0.0008953281 0.006941742 -0.004339323 -0.0035795223
-0.0014516086 -0.002104619 0.00917967 0.0025917126 -0.002514416 0.0005013817 -0.0006778125 -0.0011026321
-0.001341738 -0.002418303 -0.0027598757 -0.0025664556 -0.004055168 0.0127310585 -0.0017237078 0.00015034627
0.0084866835 -0.0028329676 0.0050229505 0.005614118 0.0023620378 -0.0014600158 0.013492531 0.0006114002
-0.0029172315 0.000537213 -0.00077927444 -0.003666214 0.008977546 -0.0010053577 -0.00045471752 -0.001973121
-0.00023521826 0.011219627 -0.00232792 0.004480092 0.0062465286 -0.0006628638 0.002750178 -0.0020100996
-0.0031260408 -0.0050583854 0.0034743624 0.0006797711 -0.005387587 0.008971811 -0.003014752 0.0063528595
-0.0012401519 -0.00108632 -0.0024476822 -0.0033930293 0.010693332 -0.0052266377 0.010894337 0.0062645217
-0.0013478469 2.3543025e-05 -0.00023147388 -0.0009743668 -0.0023201194 0.006976904 -0.001675189 0.0007292308
0.00040583673 -0.0030419368 -0.00061323197 0.004074028 0.0018255707 0.009258763 -0.00097210985 0.0002483261
0.010112361 -0.0012241161 0.00033487397 -0.00041568227 -0.0018353054 -0.0022825818 -0.0018072187 -0.0011009303
00000000: b433 293c ee31 98bb eecf 4ebb 597e 25bb
00000010: 21de e5ba d04a 31bb 9d7f 1a3c 739a b03a
00000020: 38e7 94bb 2948 a0b7 3676 80ba df82 baba
00000030: 11db 263c 737b bc38 b355 62bb 3aff 913b
00000040: 1a53 233c fbb6 7abb 9c58 fcb9 9bb2 87bb
00000050: 8c48 0dba 0d32 1c3c 8c44 7cba dd12 75ba
00000060: 9c92 95bb e4e8 0c3b 184a 9fb9 b0b0 20bb
00000070: de29 8e3a f781 f9bb a183 43bb 0da4 ddb9
00000080: a23a 243b cbe7 8bbb 8d12 153c 6d39 d6b9
00000090: c104 a5bb 8875 d9ba 5870 2e3c 0e28 a9b9
000000a0: 9d0e 85ba 3c2f 803c 1bfc 1d3b 4515 c9bb
000000b0: 74b4 6aba 8d77 e33b e130 8ebb 6b96 6abb
000000c0: e743 beba a6ed 09bb 5466 163c b9d9 293b
000000d0: e6c8 24bb 286f 033a 3aaf 31ba 3286 90ba
000000e0: 42dd afba 647c 1ebb 08df 34bb fb31 28bb
000000f0: 37e1 84bb ee95 503c 09ee e1ba 45a6 1d39
00000100: bb0b 0b3c 4fa9 39bb 9097 a43b a3f6 b73b
00000110: 6bcc 1a3b 005e bfba c70f 5d3c 5f46 203a
00000120: 062f 3fbb c1d3 0c3a 3948 4cba dd44 70bb
00000130: 8f16 133c 35c6 83ba 2767 eeb9 7a4f 01bb
00000140: eca4 76b9 87d2 373c 0490 18bb bccd 923b
00000150: aeaf cc3b 09c4 2dba 553c 343b e0bb 03bb
00000160: 43de 4cbb d0c0 a5bb 21b2 633b ab32 323a
00000170: 5b8a b0bb 81fe 123c 2593 45bb a62b d03b
00000180: 988c a2ba da62 8eba 4b69 20bb 965d 5ebb
00000190: 1633 2f3c 3744 abbb 297e 323c 9e46 cd3b
000001a0: 3daa b0ba 437e c537 ccb7 72b9 a66c 7fba
000001b0: 250d 18bb 839e e43b 0492 dbba da29 3f3a
000001c0: 7cc6 d439 3b5b 47bb 4dc1 20ba 6d7f 853b
000001d0: fd47 ef3a 11b2 173c 30d5 7eba c431 8239
000001e0: 51ae 253c 8572 a0ba 0692 af39 eeef d9b9
000001f0: a18e f0ba 5e97 15bb 32e0 ecba 174d 90ba

cvae_parameters.enc_00_lin_w f4 [128, 123]
-0.018433752 -0.020493578 -0.010811245 -0.008842896 0.00081038557 -0.00048250172 -0.0052413265 -0.020692607
-0.00035871155 -0.013750235 0.00021410889 0.0020652493 -0.00032549602 0.016137164 0.012907963 -0.00080495357
-0.013613395 -0.014592046 0.005753467 0.0077854237 0.0054188645 -0.016467974 -0.0003670195 0.01882719
0.008984409 -0.0071876906 -0.0021630311 0.0007721687 0.014480876 0.016230261 0.00950684 -0.007960968
-0.0077657923 0.002929759 -0.0065799905 -0.0013876563 0.0024291077 0.0018697721 0.00534645 0.0065081622
-0.002689587 0.0025189645 -0.00027779015 5.3924894e-05 0.004357495 0.021501986 -0.015061538 -0.012448145
-0.0038537786 0.008016742 0.012004557 -0.0015192188 -9.7613476e-05 -0.00071164593 0.005590516 -0.003238362
-0.0047733495 0.0074449843 0.017067183 0.03727863 -0.0146498745 -0.013679843 0.017412664 -0.0069427723
-0.007373268 0.009195451 0.006942359 0.012093958 -0.016492082 0.024900759 -0.00779289 0.0010598648
-0.020420035 -0.0060075317 -0.003808312 -0.0044803554 -0.011881066 0.012832678 0.0010742756 0.01052869
0.0027478687 0.004120507 -0.0065801996 -0.0034264438 0.012473289 -0.0044411584 0.011391861 7.173838e-05
-0.0018471995 0.0205072 -0.01575056 -0.0033931339 -0.012025393 -0.011452984 -0.00019824605 0.010630439
0.016981715 -0.011330325 0.0023701724 0.0059517752 -0.02483991 -0.012765392 -0.0042419434 0.006531066
0.0020577095 0.0030237893 0.005761529 0.0058150967 0.0049446304 -0.011479113 0.0065740985 -0.010240543
-0.0034347242 -0.01951253 -0.009326285 -0.008322436 0.00014538616 -0.0005136787 -0.017011069 -0.009583397
-0.006226985 0.005689939 0.019217823 -0.0014013192 0.0045731687 0.014866486 0.010743618 0.016543446
-0.0061851474 -0.002319254 -0.0030005998 0.008827575 0.008655475 0.010216126 0.021615453 -0.011632672
0.0044209473 0.0015838548 -0.0032476836 -0.0074760243 -0.00046230142 -0.012105079 -0.000103327824 0.001145095
-3.479395e-05 0.0021108193 0.0027294343 0.012080399 0.004993148 0.0039643133 0.00036431768 -0.002130176
0.0013306293 -0.004495756 -0.01601732 0.0015104845 -0.0066276304 0.001511427 0.0007399406 0.006387432
0.013600401 -0.01091417 0.0049839066 0.00024346486 0.0106918 -0.005913888 0.009874018 0.0053200787
0.0058981855 0.0047045443 -0.001995566 0.0021171842 0.00034391964 -0.011830969 0.0046880157 -0.014971365
-0.0038542184 -0.00263992 -0.011634446 -0.0023655137 0.012370374 0.0004420528 0.012060246 0.011335846
-0.008232946 -0.0034039938 0.015389985 0.0036528935 0.00545733 -0.0065663094 -0.010421903 -0.0079507
-0.0063639935 0.0069794087 0.0054225926 0.0043534506 0.0019992783 0.009945802 -0.001127938 0.013462028
0.0016042269 -0.013267276 0.004446517 0.004215879 0.009304153 -0.0091944635 0.007111113 -0.007870898
0.01432876 0.0013459251 0.012155846 0.010735385 -0.01364928 0.0071282303 -0.0015312813 -0.010714742
0.012556012 0.0153521225 -0.0090681575 0.002474019 0.007349413 0.0008670322 -0.0063048955 0.0020316446
-0.0055225976 0.012610842 0.007106879 0.005225852 0.0035942525 0.009359747 -0.0035128375 -0.016351955
0.0028830662 -0.002659434 -0.0020240308 0.0124250855 -0.010987872 0.009028222 0.014977286 -0.015055147
-0.012644888 -0.014641121 0.0014269842 -0.010786033 0.009758713 -0.0011059418 0.00723425 0.00019440711
0.0012106018 0.011102958 0.01045038 -0.0034105552 -0.0071779485 0.0035150188 0.019929592 0.005418752
00000000: 6102 97bc 26e2 a7bc a621 31bc cbe1 10bc
00000010: 0e70 543a 49f8 fcb9 6fbf abbb 8b83 a9bc
00000020: 7311 bcb9 aa48 61bc 6b82 6039 2259 073b
00000030: 56a7 aab9 1632 843c ec7b 533c 8503 53ba
00000040: b80a 5fbc 7a13 6fbc 9487 bc3b de1c ff3b
00000050: bb90 b13b d8e7 86bc 866c c0b9 7b3b 9a3c
00000060: 5833 133c b886 ebbb a4c1 0dbb 5d6b 4a3a
00000070: 3241 6d3c 53f5 843c 94c2 1b3c b86e 02bc
00000080: 3078 febb 3301 403b f69c d7bb 05e2 b5ba
00000090: aa31 1f3b 2413 f53a 4631 af3b 6c42 d53b
000000a0: c843 30bb 3615 253b 5da4 91b9 6a2d 6238
000000b0: 51c9 8e3b ef24 b03c abc4 76bc 4ef3 4bbc
000000c0: ad8f 7cbb a758 033c c3ae 443c 8620 c7ba
000000d0: d6b5 ccb8 c08d 3aba a630 b73b b33a 54bb
000000e0: c269 9cbb 0ef5 f33b 7ad0 8b3c 7ab1 183d
000000f0: 0706 70bc 6c21 60bc 01a5 8e3c 3280 e3bb
00000100: 749b f1bb 84a8 163c ba7c e33b bd25 463c
00000110: 671a 87bc adfc cb3c 805b ffbb 29eb 8a3a
00000120: eb47 a7bc d4da c4bb df94 79bb f2cf 92bb
00000130: cda8 42bc 2740 523c b5ce 8c3a 8780 2c3c
00000140: 9615 343b 5105 873b b79e d7bb 308e 60bb
00000150: c45c 4c3c 2387 91bb eea4 3a3c 4072 9638
00000160: bb1d f2ba b7fe a73c 5207 81bc 575f 5ebb
00000170: 2706 45bc 4ca5 3bbc 45e0 4fb9 4b2b 2e3c
00000180: 3d1d 8b3c d4a2 39bc e554 1b3b 1c07 c33b
00000190: 117d cbbc ef25 51bc 0000 8bbb 8d02 d63b
000001a0: a3da 063b c42a 463b 35cb bc3b 918c be3b
000001b0: 9106 a23b e412 3cbc 896b d73b f3c7 27bc
000001c0: 1c19 61bb bed8 9fbc 46cd 18bc d45a 08bc
000001d0: cd72 1839 65a8 06ba cc5a 8bbc ae03 1dbc
000001e0: bc0b ccbb ab72 ba3b b26e 9d3c 78ac b7ba
000001f0: 85da 953b 9092 733c 0006 303c 1f86 873c
00000200: c7ac cabb a0fe 17bb b6a5 44bb 88a1 103c
00000210: b2cf 0d3c 8a61 273c e412 b13c f696 3ebc
00000220: 98dd 903b 5999 cf3a 17d7 54bb 70f9 f4bb
00000230: 0c61 f2b9 6254 46bc b4b1 d8b8 0317 963a
00000240: b8ef 11b8 ac55 0a3b 4fe0 323b deec 453c
00000250: 909d a33b 12e7 813b e401 bf39 6c9a 0bbb
00000260: 8368 ae3a 2251 93bb c136 83bc 73fb c53a
00000270: 982c d9bb 131b c63a 93f8 413a aa4d d13b
00000280: 37d4 5e3c 59d1 32bc 0a50 a33b 9a4a 7f39
00000290: a92c 2f3c 4ac9 c1bb a2c6 213c 0e54 ae3b
000002a0: 9145 c13b 9428 9a3b 0bc8 02bb 75c0 0a3b
000002b0: 1d50 b439 aed6 41bc ed9d 993b 754a 75bc
000002c0: 0e97 7cbb 8202 2dbb 679e 3ebc bc06 1bbb
000002d0: 1cad 4a3c 53c3 e739 5798 453c fcb9 393c
000002e0: 7ae3 06bc 8a15 5fbb 4726 7c3c 6265 6f3b
000002f0: 67d3 b23b 322a d7bb a1c0 2abc a743 02bc
00000300: 0c89 d0bb 86b3 e43b 01b0 b13b 64a7 8e3b
00000310: 5306 033b b8f3 223c 52d7 93ba d68f 5c3c
00000320: ec44 d23a fd5e 59bc 17b4 913b 5b25 8a3b
00000330: 7270 183c 60a4 16bc 5704 e93b f0f4 00bc
00000340: 2dc3 6a3c c169 b03a 5029 473c 78e3 2f3c
00000350: 3ba1 5fbc ee93 e93b 46b5 c8ba e38c 2fbc
00000360: bbb7 4d3c 7887 7b3c 9c92 14bc 2723 223b
00000370: 58d3 f03b 8c49 633a 4c99 cebb 5725 053b
00000380: e8f6 b4bb b49d 4e3c d2e0 e83b a03d ab3b
00000390: 8d8d 6b3b a059 193c a237 66bb 89f4 85bc
000003a0: d3f1 3c3b e649 2ebb 9aa5 04bb 9692 4b3c
000003b0: 7a06 34bc 1ceb 133c 4a63 753c dda9 76bc
000003c0: 812c 4fbc 50e1 6fbc a509 bb3a e7b7 30bc
000003d0: 02e3 1f3c 40f5 90ba 4a0d ed3b c3d9 4b39
000003e0: 0ead 9e3a 2ee9 353c 1238 2b3c 9f83 5fbb
000003f0: ff34 ebbb 3b5c 663b 6243 a33c c98f b13b

cvae_parameters.enc_01_lin_b f4 [128]
-0.001903468 0.017214669 -0.00433164 -0.0046258685 0.017777342 -0.0025969057 -0.0047725937 0.024566708
0.0019238734 -0.00067542423 -0.0067272354 -0.005574363 -0.0042744786 -0.00392164 -0.003115665 -0.000469061
-0.0018368992 -0.0034136411 0.013800106 -0.00986901 0.014694337 -0.0035766924 -0.0035838422 -0.0034349037
-0.004572278 -0.0038242405 -0.00083282916 -0.0009955375 -0.005893433 0.016029952 -0.0024367871 0.0074628238
0.0044966033 0.018482067 -0.003975098 0.02427956 -0.0014410621 -0.00247327 0.026759313 -0.0033361325
0.033224933 0.023782944 -0.00020511808 -0.005689125 0.020364435 -0.004929208 -0.00022538917 0.017674433
-0.0027014876 -0.009616261 -0.0036404324 -0.010041208 -0.0047235033 0.02992469 -0.002887728 -0.0035556715
-0.006024679 0.027193414 0.017670425 0.022165459 0.02104987 -0.0029828497 0.022683341 0.011706315
-0.0027318087 0.006121198 0.02862659 -0.008026451 0.0029693334 0.030705778 -0.003298726 0.026585024
-0.0016919617 0.021076541 0.0023326357 -6.279273e-05 -0.003897461 0.026776062 -0.0023755755 -0.001983249
0.013467798 -0.00032890384 -0.009194925 -0.0020436377 0.03242139 0.026451502 0.0033859604 -0.003853124
-0.00035907776 -0.006822708 0.0036301562 0.018337706 -0.0030562978 -0.0020272292 0.00015886217 0.012000409
0.027256852 0.017641032 -0.00016488948 -0.004657242 0.018361202 -0.0035472615 0.020473788 0.026565557
-0.000482097 -0.003060962 -0.0032854718 0.02808439 -0.008304779 -0.0049445494 -0.0070399395 -0.0040436084
-0.0020970707 0.020043103 -0.0032739555 0.01772999 -0.0025357606 0.009837293 -0.0013159869 0.00328391
0.0075147394 0.016072892 0.00032480655 -0.004520729 0.027696982 0.02217749 -0.0038174454 0.016888827
00000000: ca7d f9ba c705 8d3c 6ef0 8dbb 9994 97bb
00000010: caa1 913c d930 2abb 6b63 9cbb 1f40 c93c
00000020: 7b2a fc3a f40e 31ba 2470 dcbb 25a9 b6bb
00000030: ed10 8cbb 1a81 80bb 2f30 4cbb 4dec f5b9
00000040: 1cc4 f0ba 65b7 5fbb d719 623c a1b1 21bc
00000050: 84c0 703c f166 6abb e5de 6abb 1f1c 61bb
00000060: 0cd3 95bb 1ca0 7abb 3852 5aba b27c 82ba
00000070: b31d c1bb 3f51 833c 81b2 1fbb b48a f43b
00000080: 3e58 933b b467 973c 8a41 82bb eee5 c63c
00000090: 05e2 bcba 9616 22bb 5936 db3c 04a3 5abb
000000a0: de16 083d 73d4 c23c f714 57b9 d76b babb
000000b0: 51d3 a63c 3285 a1bb 7256 6cb9 f9c9 903c
000000c0: 710b 31bb 868d 1dbc 5294 6ebb e183 24bc
000000d0: 9ec7 9abb a024 f53c 0940 3dbb 4506 69bb
000000e0: ac6a c5bb b9c4 de3c 91c1 903c 5694 b53c
000000f0: c770 ac3c ea7b 43bb 6ad2 b93c d8cb 3f3c
00000100: 2508 33bb 5594 c83b 4f82 ea3c 6081 03bc
00000110: 2699 423b af8a fb3c 702f 58bb d6c8 d93c
00000120: d0c4 ddba b6a8 ac3c 22df 183b 97af 83b8
00000130: 8c6c 7fbb 7959 db3c 8baf 1bbb 66f9 01bb
00000140: 0aa8 5c3c ba70 acb9 50a6 16bc 8dee 05bb
00000150: 4bcc 043d d2b0 d83c fde6 5d3b b284 7cbb
00000160: 9a42 bcb9 0691 dfbb eae7 6d3b f538 963c
00000170: 2b4c 48bb 43db 04bb 3d94 2639 5d9d 443c
00000180: c349 df3c ed83 903c 2fe6 2cb9 c79b 98bb
00000190: 3b6a 963c 2c79 68bb a5b8 a73c 03a0 d93c
000001a0: f7c1 fcb9 6c9a 48bb 1251 57bb 3c11 e63c
000001b0: c510 08bc e305 a2bb 4baf e6bb 3f80 84bb
000001c0: 026f 09bb 6f31 a43c dc8f 56bb 7c3e 913c
000001d0: 012f 26bb 992c 213c 317d acba de36 573b
000001e0: 343e f63b 4cab 833c cc4a aa39 a022 94bb
000001f0: c8e4 e23c 91ad b53c 1b2e 7abb 705a 8a3c

cvae_parameters.enc_01_lin_w f4 [128, 128]
-0.008281012 -0.0021597599 -0.005328661 0.010716944 -0.0015870072 0.024826478 -0.015544676 -0.018233994
-0.0043817786 -0.0019324905 0.0036429446 0.0036679213 -0.011832834 0.011228744 -0.0066283243 -0.0012309483
-0.023194676 -0.0030073707 0.0021945261 0.019808318 -0.001073269 0.0005394425 0.0013390929 -0.0074419365
0.011751058 -0.00029608473 0.008468042 -0.013941851 -0.0034900252 0.0135430405 0.0029710971 0.004746344
-0.0017448136 -0.0022952873 0.0068590757 -0.0043533156 0.0024428337 -0.017965376 -0.003034973 0.0172441
-0.016948026 -0.005455828 0.005231771 0.0015959776 -0.0011553644 -0.007969881 0.008736611 -0.007304767
-0.013252785 -0.00071627006 0.0039926395 0.0076762415 0.0008935876 0.00017003951 -0.00863789 -0.011311934
-0.0010115266 -0.0058765872 0.011536366 -0.0012035544 -0.013722885 0.014580755 0.022031602 -0.006524814
-0.0057532038 0.008330935 0.00766051 0.008845619 0.011489804 -0.0072827404 0.0012535538 0.0092033325
0.011458233 0.0055599697 -0.001655308 -0.016246146 0.012819171 0.020260183 -0.0037244689 -0.0016440573
-0.005841204 0.003860825 -0.008951346 -0.009722285 -0.00509166 0.0060001705 -0.01170797 0.0089679975
-0.016112689 -0.009159413 -0.0065384135 -0.0021712375 0.0014319927 -0.018307297 0.005646037 0.0035643664
-0.0070319604 0.01143388 -0.010204471 0.013008405 -0.0152459545 -0.0042401655 0.0018611931 -0.025446827
-0.02155501 -0.0043085427 -0.005669453 -0.008257221 -0.013753707 0.013658672 -0.0073845303 -0.0013324494
-0.0038906862 -0.025287237 -0.0052532516 0.0056555863 -0.028632056 -0.011193051 0.0024251628 0.001906247
0.012164491 0.0059431707 0.0054310425 -0.005236201 -0.019375946 0.006211701 0.021517677 -0.01549833
-0.008354584 0.012049084 0.023232145 0.012976328 0.0050530285 0.008142558 0.013298712 -0.008262778
-0.003916752 0.0061773923 -0.005881781 0.005444277 -0.009255954 0.017679177 -0.00094412745 0.0053711357
-0.0065270048 -0.005193096 -0.000206336 -0.0059161745 0.004376094 0.0024618714 0.009067246 -0.015176392
0.00649518 0.0076805134 -0.0008399606 -0.0038415366 0.0038913721 0.005543402 -0.0037430744 0.004677604
-0.004790871 0.00133482 0.0024766128 -0.0010389416 0.008228201 -0.011120674 0.009691647 0.0028862357
0.015634367 -0.011082146 -0.0043081846 0.0049542924 0.00988003 0.010140877 -0.004974839 -0.011994854
-0.0016602465 -0.01102449 0.015531125 0.005522587 0.0071844365 0.010172706 -0.011076623 0.001588474
-0.0070641343 -0.005047966 -0.0028175318 0.0034526773 0.007896457 0.01270452 0.00040375747 -0.010001925
0.009855847 -0.009595586 0.007794299 0.0049470942 -0.0030426194 -0.008328151 -0.0273306 0.0005912438
0.008893629 0.011863567 -0.00917591 -0.007635345 0.0047276057 -0.012190171 0.004013409 -0.0055539114
0.006130601 0.0016963214 -0.002359136 0.0041571883 -0.0030909325 -0.010711281 -0.009768517 0.0074281082
-0.008683205 -0.0029228413 0.017630825 -0.00012382555 -0.015173257 0.0023898277 0.0013672563 -0.0025070033
0.0052513448 -0.0034459683 -0.0011710101 0.00078775693 0.013370993 0.00787923 -0.016158972 -0.004263311
0.0032432363 0.012777094 0.0011728151 -0.0016925506 -0.0028732966 -0.0010119115 0.011923679 -0.0045053377
0.008110288 -0.0045946906 -0.00021956244 -0.0027614327 0.010138154 -0.007079239 -0.0054823207 -0.0074686212
-0.0071805944 -0.0012758599 0.009246201 -0.00084364257 -0.0011099393 0.0018721439 0.0054020085 0.0034036697
00000000: 15ad 07bc c28a 0dbb 0c9c aebb 1f96 2f3c
00000010: 2003 d0ba e660 cb3c 19af 7ebc 755f 95bc
00000020: 0695 8fbb 9f4b fdba 78be 6e3b 8261 703b
00000030: 81de 41bc c4f8 373c 6a32 d9bb c557 a1ba
00000040: c302 bebc 4f17 45bb 0ad2 0f3b 0e45 a23c
00000050: efac 8cba 6069 0d3a 8084 af3a 7ddb f3bb
00000060: 8287 403c d23b 9bb9 8bbd 0a3c 5d6c 64bc
00000070: e8b8 64bb a1e3 5d3c bdb6 423b 3887 9b3b
00000080: 3bb2 e4ba 886c 16bb 19c2 e03b 42a6 8ebb
00000090: f317 203b 202c 93bc 66e6 46bb 8043 8d3c
000000a0: 96d6 8abc cdc6 b2bb 476f ab3b 1f30 d13a
000000b0: 996f 97ba 1b94 02bc 0124 0f3c d45c efbb
000000c0: 3622 59bc 12c4 3bba b0d4 823b fb88 fb3b
000000d0: a63f 6a3a a24c 3239 f085 0dbc b155 39bc
000000e0: 3395 84ba 6390 c0bb 0703 3d3c 96c0 9dba
000000f0: f4d5 60bc 1ee4 6e3c 9e7b b43c 1bce d5bb
00000100: 5f85 bcbb 797e 083c 0405 fb3b 37ed 103c
00000110: bb3f 3c3c 0ea4 eebb 494e a43a 93c9 163c
00000120: 50bb 3b3c 6830 b63b ebf6 d8ba a316 85bc
00000130: 8007 523c aff8 a53c 3816 74bb 697d d7ba
00000140: 9267 bfbb e505 7d3b aba8 12bc 384a 1fbc
00000150: f1d7 a6bb 149d c43b c9d2 3fbc 82ee 123c
00000160: c2fe 83bc 5d11 16bc 3040 d6bb 524b 0ebb
00000170: b4b1 bb3a 2ff9 95bc 6402 b93b 2598 693b
00000180: 5c6c e6bb 2b55 3b3c a730 27bc 3521 553c
00000190: 2bca 79bc 16f1 8abb 47f3 f33a dd75 d0bc
000001a0: 2294 b0bc ad2e 8dbb d2c6 b9bb 4c49 07bc
000001b0: 3a57 61bc 9fc8 5f3c eef9 f1bb 95a5 aeba
000001c0: e2fa 7ebb 2e27 cfbc 7823 acbb 7f52 b93b
000001d0: c68d eabc 0f63 37bc 7bef 1e3b 09db f93a
000001e0: 934d 473c eebe c23b e3f6 b13b 7094 abbb
000001f0: 4eba 9ebc 868b cb3b d745 b03c b5ec 7dbc
00000200: aae1 08bc 8569 453c 5751 be3c aa9a 543c
00000210: e093 a53b 5d68 053c d7e2 593c 9a60 07bc
00000220: 1958 80bb b96b ca3b f5bb c0bb e865 b23b
00000230: 49a6 17bc ecd3 903c 527f 77ba 5a00 b03b
00000240: 7ce0 d5bb d92a aabb e65b 58b9 78dc c1bb
00000250: 5665 8f3b 5957 213b c98e 143c 67a6 78bc
00000260: 85d5 d43b d1ac fb3b cd30 5cba 4ac2 7bbb
00000270: 6406 7f3b 6da5 b53b 5e4e 75bb 9646 993b
00000280: bdfc 9cbb 20f5 ae3a ab4e 223b 182d 88ba
00000290: 94cf 063c 7d33 36bc b7c9 1e3c 0027 3d3b
000002a0: a513 803c e491 35bc ac2b 8dbb 9e57 a23b
000002b0: d9df 213c ec25 263c f903 a3bb 1086 44bc
000002c0: a19c d9ba 10a0 34bc 4276 7e3c d1f6 b43b
000002d0: 6c6b eb3b 6cab 263c b97a 35bc 5834 d03a
000002e0: 417a e7bb 6869 a5bb 57a6 38bb 5046 623b
000002f0: 2460 013c 9e26 503c 69af d339 1ddf 23bc
00000300: 6b7a 213c ce36 1dbc 5267 ff3b 3c1b a23b
00000310: af66 47bb cc72 08bc 6ce4 dfbc b3fd 1a3a
00000320: 95b6 113c 685f 423c 8e56 16bc eb31 fabb
00000330: 08ea 9a3b 48b9 47bc ea82 833b 96fd b5bb
00000340: 35e3 c83b 1a57 de3a bc9b 1abb 0639 883b
00000350: 3e91 4abb 5e7e 2fbc 210c 20bc 7d67 f33b
00000360: 0044 0ebc 248d 3fbb 856e 903c 2bd7 01b9
00000370: 4199 78bc a89e 1c3b 8235 b33a 894c 24bb
00000380: 7913 ac3b c1d5 61bb 947c 99ba 7981 4e3a
00000390: 0212 5b3c e317 013c d25f 84bc 3fb3 8bbb
000003a0: 7a8c 543b 0457 513c 25b9 993a 93d8 ddba
000003b0: eb4d 3cbb 1ea2 84ba 895b 433c 83a1 93bb
000003c0: 03e1 043c 0f8f 96bb 583a 66b9 27f9 34bb
000003d0: 801a 263c f6f8 e7bb 0aa5 b3bb 56bb f4bb
000003e0: 314b ebbb c13a a7ba 617d 173c e527 5dba
000003f0: 627b 91ba ba62 f53a 5503 b13b 1a10 5f3b

cvae_parameters.out_lin_b f4 [120]
-0.17325503 -0.1852618 -0.20212927 -0.078847304 -0.16616239 -0.18209107 -0.021800295 -0.19505998
-0.15271237 -0.10161713 -0.13236862 -0.05567726 0.08949886 -0.153569 -0.089851774 -0.14270158
0.012027394 0.035688847 0.115213454 -0.16559891 0.011947412 -0.08226401 0.08973323 0.14210266
0.034940198 -0.09972305 0.11014571 -0.031126399 0.055632208 0.14675167 -0.044875916 -0.08651274
0.13555267 0.0006204256 0.024265466 0.07035811 -0.06079865 -0.2053551 0.07637649 -0.038039185
0.016273433 0.041616134 0.06347175 -0.24520674 0.036110558 -0.050215736 0.020127518 0.06728025
0.19779077 -0.24148624 -0.009670961 -0.1123558 -0.048525147 0.1308448 0.12763686 -0.1655459
-0.07744558 -0.16725694 -0.040201183 0.111943804 -0.021055976 -0.0873222 -0.13404958 -0.18874532
-0.07135488 0.04580081 -0.08056722 -0.053278785 -0.14224176 -0.1380727 -0.056067567 -0.09570585
-0.007544982 -0.06134109 -0.02137836 0.0020262557 -0.008337001 -0.22216281 0.12810658 -0.15875773
0.0153021775 -0.007270568 -0.092463784 -0.20510618 0.14683458 -0.19065769 -0.07053896 -0.07490931
-0.17482226 -0.007857284 0.16648538 -0.101919085 -0.08455944 -0.1834495 -0.12728663 0.15797356
0.13285281 -0.13298695 -0.01151378 -0.19122738 -0.06712269 0.21019383 -0.020962294 -0.17623392
-0.019705035 -0.090989254 -0.12114488 0.04264739 0.004327857 -0.21180041 -0.020405255 -0.11378069
-0.17224318 0.054618992 -0.09492947 -0.17600687 -0.18363567 -0.048003178 -0.159852 -0.11347883
00000000: c469 31be 45b5 3dbe fafa 4ebe b27a a1bd
00000010: 7926 2abe 1576 3abe 8896 b2bc cebd 47be
00000020: a260 1cbe a41c d0bd a48b 07be d70d 64bd
00000030: 2e4b b73d 3141 1dbe 3504 b8bd 5d20 12be
00000040: 8c0e 453c 782e 123d 08f5 eb3d c392 29be
00000050: 14bf 433c 097a a8bd 0ec6 b73d 5c83 113e
00000060: 741d 0f3d 993b ccbd 1394 e13d cafc febc
00000070: 99de 633d 1246 163e cfcf 37bd 972d b1bd
00000080: 52ce 0a3e 0fa4 223a 5fc8 c63c ea17 903d
00000090: 0108 79bd 9b48 52be 476b 9c3d face 1bbd
000000a0: dd4f 853c ae75 2a3d 7afd 813d 7a17 7bbe
000000b0: aae8 133d 04af 4dbd 77e2 a43c 3aca 893d
000000c0: aa89 4a3e 2b48 77be f372 1ebc cc1a e6bd
000000d0: 4ec2 46bd 2efc 053e 3db3 023e dd84 29be
000000e0: ca9b 9ebd 6745 2bbe ffa9 24bd cb42 e53d
000000f0: 957d acbc fbd5 b2bd 4b44 09be 7446 41be
00000100: 8222 92bd a199 3b3d 6d00 a5bd db3a 5abd
00000110: d3a7 11be ee62 0dbe 1ba7 65bd 6e01 c4bd
00000120: e53b f7bb cb40 7bbd ac21 afbc eeca 043b
00000130: eb97 08bc a67e 63be 5f2e 033e 6391 22be
00000140: fcb5 7a3c f23d eebb a75d bdbd 5b07 52be
00000150: ce5b 163e c53b 43be bb76 90bd 0d6a 99bd
00000160: 9b04 33be d6bb 00bc 257b 2a3e f4ba d0bd
00000170: 802d adbd 30da 3bbe 6d57 02be d2c3 213e
00000180: 910a 083e bb2d 08be 4ba4 3cbc 1cd1 43be
00000190: 9f77 89bd 0d3d 573e 1eb9 abbc aa76 34be
000001a0: 746c a1bc 9358 babd cf1a f8bd 08af 2e3d
000001b0: b2d0 8d3b 35e2 58be ec28 a7bc da05 e9bd
000001c0: 8460 30be 2ab8 5f3d 626a c2bd 253b 34be
000001d0: fd0a 3cbe fb9e 44bd 3eb0 23be 9767 e8bd

cvae_parameters.out_lin_w f4 [120, 128]
-0.056883253 -0.024464592 0.01907739 -0.012163084 -0.033942714 -0.025885714 -0.033037383 -0.06250959
-0.009795836 -0.034870088 -0.036518753 -0.004008523 0.00085992937 -0.025166364 -0.0531216 -0.014463077
-0.04759543 -0.038933065 -0.031954844 0.007593167 -0.04933708 -0.039778035 -0.037664965 -0.02149662
-0.011686224 -0.026354058 0.0022080995 -0.04567346 -0.03412069 -0.045287963 -0.005037813 -0.037196778
0.00085424585 -0.03328559 -0.04531448 -0.033095077 -0.002804593 -0.002357891 -0.05337181 -0.045012686
-0.030644666 -0.033707213 -0.034597218 -0.03132174 -0.016937084 0.024384275 -0.01304582 -0.037288833
0.0019189601 0.0029517366 0.0056769997 -0.051523753 -0.0026712222 -0.051288623 -0.0049992567 -0.034088418
0.0028197975 -0.019082421 -0.007839067 -0.014375745 -0.023528352 -0.0069605387 -0.031458605 -0.0029750003
0.010998332 -0.04441629 -0.0191433 -0.0065128957 -0.06390785 -0.017426562 -0.0051051583 -0.04021874
-0.05112969 -0.065211624 -0.046631325 -0.016328223 0.0032955275 -0.023528505 -0.034830615 -0.052734725
-0.015961349 -0.03311125 -0.013158623 -0.037179265 -0.03531135 -0.0059758704 -0.013819844 0.014418795
-0.02759438 -0.031197216 -0.054995287 -0.03897989 -0.0396794 -0.023274662 -0.0015251372 -0.035026945
0.024618182 0.023326054 -0.013135318 -0.037758652 -0.062349282 -0.032959007 0.0070282756 -0.007044267
0.008666916 -0.031417955 -0.008765378 -0.006174174 0.003053474 -0.010867767 0.0069838595 -0.00560728
-0.030590888 0.009217981 0.00043688642 -0.055309456 -0.054622192 -0.041251674 -0.039998796 -0.03772786
-0.0141144525 -0.03503581 -0.042901594 -0.037073586 -0.01400993 -0.023865504 -0.002930119 0.0023119138
-0.063840285 -0.049771976 -0.01596393 -0.04618315 -0.05377973 -0.057547517 -0.045159716 -0.07015953
0.0072734696 -0.047794748 -0.06691993 -0.018271886 -0.036726598 -0.0520405 -0.06641129 -0.030635383
-0.04728894 -0.05390146 -0.056942042 -0.0054882294 -0.082985036 -0.06844198 -0.049821094 -0.007823993
-0.015213665 -0.03614982 0.0018422267 -0.05305337 -0.039456148 -0.07598971 -0.016457891 -0.080840446
-0.001586231 -0.06288543 -0.06305716 -0.08460349 -0.01005865 -0.0006127891 -0.050047986 -0.05918716
-0.046350207 -0.06498603 -0.04054074 -0.0594943 -0.033162646 0.002835071 -0.015217199 -0.07518369
0.0040451805 0.01604738 -0.0072142966 -0.07583307 -0.01560223 -0.049804874 -0.0032276267 -0.046817906
0.002905035 -0.012320358 0.0053039757 -0.04851714 -0.0389908 0.0027313149 -0.059139676 -0.022965316
-0.008426065 -0.05267326 -0.05999307 -0.016077854 -0.046269085 -0.023820527 0.011441163 -0.051823024
-0.07314338 -0.07966212 -0.07776562 0.004345553 0.021489857 -0.0049549225 -0.0694518 -0.07353411
-0.033121023 -0.058515724 -0.0008089846 -0.021220258 -0.042898137 0.0072464445 -0.07404311 0.008603371
-0.04616567 -0.059915606 -0.042755384 -0.07509164 -0.053420283 -0.053895146 -0.0037166101 -0.049798388
-0.006503468 -0.018512888 -0.017727124 -0.06432144 -0.07377369 -0.05985649 0.010773875 0.010010774
-0.019958751 -0.062280767 -0.050666977 -0.0103739975 -0.0031180328 0.008233738 -0.0009149777 -0.011066489
-0.034373343 -0.006589151 0.007956941 -0.06425391 -0.06274298 -0.05156922 -0.042609144 -0.06133755
-0.042683583 -0.03897562 -0.050229922 -0.045047265 0.0033892693 -0.06930413 -0.021237243 -0.003879927
00000000: 6afe 68bd f869 c8bc 3048 9c3c ac47 47bc
00000010: 8407 0bbd 470e d4bc 3552 07bd 0705 80bd
00000020: b77e 20bc f0d3 0ebd b094 15bd ee59 83bb
00000030: e26c 613a b129 cebc 0996 59bd 8bf6 6cbc
00000040: 6df3 42bd 4778 1fbd 15e3 02bd 1ad0 f83b
00000050: ae15 4abd 4bee 22bd 9446 1abd ae19 b0bc
00000060: 9377 3fbc 77e4 d7bc c3b5 103b 1814 3bbd
00000070: 23c2 0bbd df7f 39bd 3d14 a5bb a65b 18bd
00000080: 78ef 5f3a 7956 08bd ad9b 39bd b48e 07bd
00000090: 43cd 37bb d986 1abb 669c 5abd 395f 38bd
000000a0: 860a fbbc 9310 0abd d0b5 0dbd 3a4b 00bd
000000b0: a4bf 8abc 88c1 c73c 23be 55bc 2dbc 18bd
000000c0: 9e85 fb3a ec71 413b 2006 ba3b 920a 53bd
000000d0: ac0f 2fbb 0514 52bd ced0 a3bb 4ca0 0bbd
000000e0: 5acc 383b bd52 9cbc 6e6f 00bc 3f88 6bbc
000000f0: 88be c0bc 3b15 e4bb bdda 00bd 39f8 42bb
00000100: 5932 343c dbed 35bd 69d2 9cbc 216a d5bb
00000110: 1ee2 82bd 26c2 8ebc 2c49 a7bb 68bc 24bd
00000120: 5e6d 51bd ac8d 85bd 7d00 3fbd c4c2 85bc
00000130: c7f9 573b dabe c0bc 8caa 0ebd 5e00 58bd
00000140: 60c1 82bc a99f 07bd 4497 57bc 4949 18bd
00000150: a2a2 10bd 3cd1 c3bb a16c 62bc cf3c 6c3c
00000160: 9c0d e2bc 4e91 ffbc bd42 61bd 61a9 1fbd
00000170: de86 22bd 81aa bebc 1de7 c7ba 6a78 0fbd
00000180: 12ac c93c 4816 bf3c 8435 57bc d1a8 1abd
00000190: f661 7fbd 0600 07bd 734d e63b 98d3 e6bb
000001a0: aeff 0d3c 1db0 00bd a99c 0fbc ba50 cabb
000001b0: cb1c 483b b80e 32bc dcd8 e43b 46bd b7bb
000001c0: be99 fabc 0407 173c e70d e539 2b8c 62bd
000001d0: 85bb 5fbd 84f7 28bd c7d5 23bd 8788 1abd
000001e0: 4e40 67bc b681 0fbd 95b9 2fbd 79da 17bd
000001f0: e889 65bc 9781 c3bc 3d07 40bb 7a83 173b
00000200: b2be 82bd b3dd 4bbd cac6 82bc 8b2a 3dbd
00000210: 2248 5cbd f2b6 6bbd 65f9 38bd cdaf 8fbd
00000220: 4956 ee3b 6dc4 43bd 510d 89bd ecae 95bc
00000230: a16e 16bd 6b28 55bd a402 88bd 0ef7 fabc
00000240: 0cb2 41bd c7c7 5cbd 0f3c 69bd 9bd6 b3bb
00000250: 0ff4 a9bd 4f2b 8cbd 3411 4cbd 3530 00bc
00000260: bc42 79bc d511 14bd df76 f13a 7e4e 59bd
00000270: c59c 21bd 7ea0 9bbd b3d2 86bc ad8f a5bd
00000280: 15e9 cfba 14ca 80bd 1d24 81bd 9844 adbd
00000290: 09cd 24bc 95a3 20ba 1eff 4cbd 3c6e 72bd
000002a0: b7d9 3dbd 6517 85bd 0c0e 26bd 4cb0 73bd
000002b0: 8ed5 07bd 99cc 393b 8f51 79bc e8f9 99bd
000002c0: 6f8d 843b cc75 833c e865 ecbb 5e4e 9bbd
000002d0: 7fa0 7fbc 3200 4cbd 9786 53bb 22c4 3fbd
000002e0: 6662 3e3b 54db 49bc f9cc ad3b e9b9 46bd
000002f0: d1b4 1fbd dcff 323b 723c 72bd c221 bcbc
00000300: 7a0d 0abc ebbf 57bd 4bbb 75bd b4b5 83bc
00000310: a784 3dbd 4423 c3bc b773 3b3c 6144 54bd
00000320: 32cc 95bd e525 a3bd 9543 9fbd 2465 8e3b
00000330: 7f0b b03c e75c a2bb bf3c 8ebd 0d99 96bd
00000340: e9a9 07bd 2fae 6fbd 0a12 54ba 1bd6 adbc
00000350: f5b5 2fbd 9573 ed3b eaa3 97bd 27f5 0c3c
00000360: 3718 3dbd 116a 75bd 4520 2fbd a5c9 99bd
00000370: 3acf 5abd 28c1 5cbd 5f92 73bb 65f9 4bbd
00000380: 0b1b d5bb 57a8 97bc 7938 91bc f6ba 83bd
00000390: a916 97bd 142c 75bd e884 303c 3b04 243c
000003a0: 8980 a3bc 1e1a 7fbd 2d88 4fbd b3f7 29bc
000003b0: e957 4cbb cde6 063c 1ddb 6fba 3850 35bc
000003c0: 10cb 0cbd cee9 d7bb d45d 023c 8e97 83bd
000003d0: 647f 80bd 3f3a 53bd ed86 2ebd 153d 7bbd
000003e0: fbd4 2ebd e6a4 1fbd e4bd 4dbd 7b83 38bd
000003f0: 811e 5e3b 53ef 8dbd baf9 adbc 6046 7ebb

cvae_parameters.z_mu_lin_b f4 [32]
-0.0037111347 0.00896233 -0.00085466664 -0.0011195649 0.0005896651 -0.0006175094 0.00064658775 -0.0015673473
0.00016129586 0.00024284596 -0.0105056185 -0.0047773314 -6.211877e-05 -0.0007022096 -0.00013921558 -0.0013620716
0.0048476905 -0.0007425191 0.0009913518 0.0010179268 0.009893192 -0.0030365628 0.00039310023 0.01266653
0.00091265346 -0.0027678965 0.0012759521 0.00073852483 0.0013041274 0.0009430038 -0.0009110572 -0.0002639158
00000000: 8236 73bb bdd6 123c b50b 60ba 5dbe 92ba
00000010: c193 1a3a 5be0 21ba c57f 293a 736f cdba
00000020: 8721 2939 77a4 7e39 c21f 2cbc 298b 9cbb
00000030: c345 82b8 7d14 38ba 66fa 11b9 8a87 b2ba
00000040: 60d9 9e3b 9da5 42ba 3ff0 813a f56b 853a
00000050: 0e17 223c 1201 47bb 0519 ce39 4787 4f3c
00000060: 233f 6f3a 9965 35bb d93d a73a 9099 413a
00000070: 41ef aa3a ea33 773a 04d4 6eba 2e5e 8ab9
