dlpg/15/weights/dlpg_model_weights_250.pth (torch, 313083 bytes, 14 tensors)

cvae_parameters.dec_00_lin_b f4 [128]
0	0xbd49f084	-0.04930164
1	0xbd13a49a	-0.03604565
2	0xbd0d8da9	-0.034558926
3	0xbd295fed	-0.041351248
4	0xbd283a27	-0.041071083
5	0xbd460ceb	-0.048352163
6	0xbd0d1f60	-0.03445375
7	0xbd37b554	-0.044850662
8	0xbd1e276e	-0.03861182
9	0xbd1d00a9	-0.038330708
10	0xbd02c53a	-0.03192637
11	0xbcd456e7	-0.025920345
12	0xbd2d199c	-0.04226075
13	0xbce2dd9e	-0.027693566
14	0xbd2cc1f7	-0.042177167
15	0xbd02f54d	-0.03197222
16	0xbd391aaf	-0.045191463
17	0xbc9a0520	-0.018801272
18	0xbd269809	-0.040672336
19	0xbd18e1c0	-0.037324667
20	0xbd1d647b	-0.038425904
21	0xbd25c251	-0.040468518
22	0xbd53e256	-0.051729523
23	0xbd4ffe13	-0.050779413
24	0xbd2c736e	-0.04210227
25	0xbd17e99d	-0.037088025
26	0xbd04f735	-0.032462317
27	0xbd431585	-0.047627944
28	0xbd0e6250	-0.034761727
29	0xbd04666a	-0.032324232
30	0xbd1124f6	-0.03543564
31	0xbd137a11	-0.036005083
32	0xbceb9570	-0.02875778
33	0xbce2f12c	-0.02770289
34	0xbd17a0a0	-0.03701842
35	0xbd469e22	-0.04849065
36	0xbd486859	-0.04892764
37	0xbcf3e060	-0.029770076
38	0xbd48704f	-0.04893523
39	0xbd07e508	-0.033177406
40	0xbd1b5a47	-0.037927892
41	0xbd496fe2	-0.049178965
42	0xbd2cbf1e	-0.04217445
43	0xbd0b1a23	-0.033960473
44	0xbd34256c	-0.043981
45	0xbd3c8bf9	-0.046031926
46	0xbd185d08	-0.037198097
47	0xbd056c09	-0.032573733
48	0xbd16c0dd	-0.036805023
49	0xbd04468c	-0.03229384
50	0xbd2ab819	-0.041679475
51	0xbcc6254f	-0.024187712
52	0xbd6111a2	-0.054948457
53	0xbd073660	-0.03301084
54	0xbcb8c8fd	-0.022556776
55	0xbcf980e6	-0.030456971
56	0xbd47e0a1	-0.048798207
57	0xbd457f69	-0.04821721
58	0xbd3174ad	-0.04332416
59	0xbcf3983d	-0.029735679
60	0xbd0f5489	-0.03499273
61	0xbd182c2c	-0.0371515
62	0xbd179b18	-0.037013143
63	0xbd0624b4	-0.032749847
64	0xbd5679dc	-0.052362308
65	0xbd2e9226	-0.042619847
66	0xbd3de309	-0.046359096
67	0xbd16c0c8	-0.036804944
68	0xbd2bda49	-0.04195622
69	0xbd3dda80	-0.046350956
70	0xbd34b7eb	-0.04412071
71	0xbd0a4e2d	-0.03376596
72	0xbd19a868	-0.03751412
73	0xbd217c4d	-0.039425183
74	0xbd0bde35	-0.03414746
75	0xbd151bec	-0.03640358
76	0xbd2bd7cc	-0.041953847
77	0xbd318745	-0.043341894
78	0xbd129f53	-0.035796475
79	0xbd30f663	-0.043203723
80	0xbd09b518	-0.03361997
81	0xbd12ad62	-0.035809882
82	0xbd24a7ef	-0.040199216
83	0xbd0f545c	-0.03499256
84	0xbd1fd12f	-0.039017852
85	0xbced1314	-0.028939761
86	0xbd14fef2	-0.036375947
87	0xbd4319f8	-0.047632188
88	0xbd5f5c6e	-0.054531507
89	0xbd03fe20	-0.032224774
90	0xbd3ab8fa	-0.045586564
91	0xbcfacd52	-0.030615482
92	0xbccbdd90	-0.024885923
93	0xbd38a151	-0.04507572
94	0xbd1cf414	-0.03831871
95	0xbd2e2d6f	-0.042523798
96	0xbce8acb7	-0.02840267
97	0xbd2ab88b	-0.0416799
98	0xbd02f838	-0.031975
99	0xbd0f0781	-0.034919266
100	0xbd2bde77	-0.041960206
101	0xbd477d12	-0.04870326
102	0xbd32c0ae	-0.043640785
103	0xbd0f88eb	-0.035042685
104	0xbd11f0ea	-0.035630144
105	0xbd200a61	-0.039072398
106	0xbd052e17	-0.032514658
107	0xbd2b618d	-0.04184108
108	0xbd0816f8	-0.03322503
109	0xbd15e1f1	-0.036592428
110	0xbd2f29ff	-0.04276466
111	0xbd1c04a5	-0.038090367
112	0xbd462b6c	-0.048381254
113	0xbd4669d3	-0.048440766
114	0xbd08a2bd	-0.033358324
115	0xbd1d7f30	-0.038451374
116	0xbcdcb6bd	-0.026942605
117	0xbd4a03d7	-0.04932007
118	0xbd128c23	-0.035778176
119	0xbd1f07ce	-0.038825803
120	0xbd24a694	-0.040197924
121	0xbd07fc1c	-0.033199415
122	0xbd114b39	-0.03547213
123	0xbd1e8bda	-0.03870759
124	0xbcba931a	-0.022775222
125	0xbd4226d0	-0.047400296
126	0xbd1d4a22	-0.038400777
127	0xbcf8b0ef	-0.030357806

cvae_parameters.dec_00_lin_w f4 [128, 35]
0	0xbbe46283	-0.0069697513
1	0x3c20fc38	0.009825759
2	0xbc033ddb	-0.008010353
3	0x3b63caa9	0.0034758246
4	0xbb5de5c9	-0.0033858886
5	0x3be9e78f	0.0071381996
6	0xbc9a96b9	-0.018870698
7	0x3c3811ff	0.011234759
8	0x3b63b9fe	0.003474831
9	0x3b428f98	0.002968764
10	0x3bf52c15	0.0074820616
11	0x3bf7571b	0.0075482256
12	0x3bdfb61f	0.0068271304
13	0x3c0ca32b	0.008583824
14	0xbc8d5c97	-0.017256064
15	0xbba14732	-0.004921817
16	0x3c4630b2	0.012096571
17	0x3bda3ec0	0.0066603124
18	0xbcc0de94	-0.023543634
19	0xbc51d1b9	-0.012806349
20	0x3baa41a7	0.0051958147
21	0x3bc99df5	0.006152863
22	0x3b96c101	0.0046006446
23	0x3acaf9fd	0.0015485879
24	0xbbf486ad	-0.0074623437
25	0xbb3e6caa	-0.0029056468
26	0x3c18e3aa	0.009331623
27	0xbc311bdc	-0.010809865
28	0x3c1f227c	0.009712812
29	0x3a69014b	0.00088884373
30	0x3c87c126	0.016571593
31	0xbb10ae4c	-0.0022076545
32	0x3b1ead76	0.0024212277
33	0xbd1875f4	-0.037221864
34	0x3b7e6432	0.0038817045
35	0xbc0f58c2	-0.008749189
36	0xbca3a41d	-0.019975716
37	0x3bc540a8	0.0060196705
38	0x3b928b4e	0.004472173
39	0x3c73c923	0.014879498
40	0x3855a072	5.0932584e-05
41	0x3bc7b81a	0.0060949447
42	0x3c400579	0.011720055
43	0x3b7b9227	0.0038386674
44	0x390f7b58	0.00013683492
45	0xbb0e4b47	-0.002171235
46	0xbc47601a	-0.0121689085
47	0xbb8326d7	-0.004002433
48	0x3b93dec4	0.0045126397
49	0xbbc4c98a	-0.0060054706
50	0x3c1d68d4	0.0096075125
51	0xbbdff1a7	-0.006834227
52	0xbc86c977	-0.016453488
53	0x3ad035f1	0.0015885216
54	0x3bab6c8e	0.0052314466
55	0xbb190397	-0.0023348087
56	0xbb1565e3	-0.0022796325
57	0x3c0d5298	0.008625649
58	0xba927c3c	-0.0011175941
59	0x3b3333c8	0.0027344096
60	0xba59df05	-0.00083111256
61	0xbbb73766	-0.005591321
62	0xbc33d07d	-0.010975
63	0x3c103135	0.008800794
64	0x3b23910b	0.0024958279
65	0xbba7cc96	-0.005120824
66	0x38ce2c68	9.831117e-05
67	0x3c726eae	0.014796896
68	0xbd148153	-0.036256146
69	0xbbae6222	-0.005321757
70	0xbbd47487	-0.0064836177
71	0x3b0824f4	0.002077398
72	0xbbbe3e9b	-0.005805803
73	0x3bbf8a95	0.0058453777
74	0xb99c3423	-0.00029793484
75	0x3b3afd76	0.0028532422
76	0xbc1dc901	-0.009630443
77	0xb99f5d9d	-0.0003039659
78	0x39a3a77c	0.00031214568
79	0xb9e5d2c9	-0.0004383533
80	0xbc16e1d2	-0.009209113
81	0x3c2348fd	0.009966132
82	0x3c2aaf66	0.010417795
83	0xbbee8d54	-0.007280031
84	0x3bce20ed	0.006290546
85	0x3b572d61	0.0032833444
86	0xbc34b72b	-0.011029999
87	0x3c4ec1ef	0.01261948
88	0x3b60e648	0.0034316946
89	0x3c4080e4	0.01174948
90	0x3b7e2760	0.0038780794
91	0xbc003037	-0.007823995
92	0xbb1d0ce2	-0.0023963978
93	0x3c2f7bed	0.010710699
94	0x3b968638	0.004593637
95	0x3b310535	0.002701116
96	0xbb5388e9	-0.003227765
97	0xbb9e577d	-0.0048322068
98	0x3be88f65	0.007097172
99	0xbad3b2c4	-0.0016151299
100	0xba4da142	-0.00078441587
101	0xbae0d845	-0.0017154297
102	0x3cd7c534	0.026339151
103	0xbcb19de9	-0.021681743
104	0xbbabc2d4	-0.005241731
105	0xbb671215	-0.003525858
106	0xbc18eb70	-0.009333476
107	0xbb264105	-0.0025368345
108	0x3b615cb7	0.0034387538
109	0x3c1197e7	0.008886314
110	0xbc9d3cba	-0.019193996
111	0x3be418da	0.0069609703
112	0x3b659bdf	0.0035035533
113	0xb9e4c583	-0.00043634707
114	0x3c8d956a	0.01728316
115	0xbbcff096	-0.0063458188
116	0x3bc02740	0.005864054
117	0xbbe2e538	-0.0069242977
118	0xbaed521d	-0.0018106137
119	0x3c1cfa3d	0.009581146
120	0xbb3ca01b	-0.0028781954
121	0x3bfc2df0	0.007695906
122	0x3b5dc81b	0.0033841196
123	0x3c147df2	0.009063231
124	0xbc7191b1	-0.014744208
125	0x3aae4c6c	0.0013297922
126	0x3c091af8	0.008368246
127	0xbbeb92f0	-0.007189147
128	0xbbd8f3fa	-0.006620881
129	0xbc2f79e9	-0.010710218
130	0xbae2a687	-0.0017292061
131	0xbb69661a	-0.0035613836
132	0x3c03da58	0.008047663
133	0x3c4d4c3f	0.0125303855
134	0xbbb61156	-0.005556266
135	0xbc89acea	-0.016806085
136	0xbb7ae7b9	-0.003828509
137	0xbb84137a	-0.004030642
138	0xbd1e21ff	-0.03860664
139	0xbb4f579b	-0.003163791
140	0xba56db09	-0.0008196091
141	0x3b8fb410	0.004385479
142	0x3a168dd7	0.00057431817
143	0xbbbfc518	-0.005852353
144	0xbc0d9e21	-0.008643658
145	0xbb9ad968	-0.004725624
146	0xbba528ef	-0.00504028
147	0x3bb9d8bc	0.0056715887
148	0xbbe718ac	-0.0070525017
149	0xbc5dd320	-0.013539106
150	0x3ac17c2e	0.001476174
151	0xbc2b78d7	-0.010465822
152	0x3ca0666b	0.019580087
153	0xbb9fedd8	-0.004880648
154	0x3c1104b9	0.008851224
155	0x3a881d83	0.0010384772
156	0xbbc10c06	-0.005891326
157	0x3b8c7f9c	0.004287673
158	0xbb97132a	-0.004610439
159	0xbb8414a8	-0.0040307827
160	0x3c5360d6	0.012901505
161	0xbc806c45	-0.015676627
162	0xb914939e	-0.00014169372
163	0xbc07159a	-0.008244896
164	0x3b046038	0.0020198952
165	0x3c93254e	0.017962124
166	0x3b91ad15	0.004445682
167	0xbaa41fc3	-0.0012521673
168	0xbb102ed6	-0.0022000573
169	0xbc3f54a7	-0.011677898
170	0xbbe61479	-0.0070214835
171	0x3bc161e5	0.0059015625
172	0xbb924b94	-0.004464576
173	0xbd2637ea	-0.040580668
174	0xba8ec644	-0.0010892828
175	0x3be8fad7	0.0071099806
176	0x3c60742d	0.013699573
177	0xbc749746	-0.0149286445
178	0x3c0e43d8	0.008683167
179	0x3c72beee	0.014816029
180	0x3bfab924	0.007651465
181	0x3c3e7fa9	0.011627116
182	0x3caa149f	0.020761786
183	0xbc1536b0	-0.009107277
184	0x3c6462f6	0.01393961
185	0x3b17c365	0.0023157236
186	0x399f52f5	0.0003038865
187	0x3b971cf8	0.0046116076
188	0xbc895863	-0.016765779
189	0xbb4b8229	-0.0031052923
190	0x3c896f1e	0.016776618
191	0xbc4bf1e3	-0.012447807
192	0x3c08c9c5	0.008348887
193	0xbc6195e7	-0.01376865
194	0x3c2c7cca	0.010527799
195	0xbbd3ee88	-0.006467644
196	0xbc40d395	-0.011769195
197	0xbc64758c	-0.013944041
198	0xbbd443f8	-0.006477829
199	0x3b68faf7	0.0035549977
200	0xbc779027	-0.015110052
201	0xb9d50f97	-0.0004063814
202	0x3b314df4	0.002705452
203	0xbac9e466	-0.0015403151
204	0x3a9cc8ed	0.0011961736
205	0xbc5ca124	-0.013466153
206	0xbbd2c1fb	-0.0064318157
207	0xbc264380	-0.010147929
208	0xbd021736	-0.031760417
209	0x3c25990b	0.010107289
210	0x384c6c7c	4.8738424e-05
211	0x3b59fc54	0.0033261972
212	0xbcc93689	-0.024562137
213	0xbc21ccbb	-0.009875472
214	0x3ad31ea1	0.0016107151
215	0xbc7b114b	-0.015323947
216	0xbbe720ce	-0.007053471
217	0x3bdd2a64	0.006749438
218	0xbc605c3e	-0.013693867
219	0x3b205644	0.002446548
220	0x3b9b2ed4	0.004735807
221	0xbae2f352	-0.0017314947
222	0x3b8597f6	0.004076953
223	0xbc2b7278	-0.010464303
224	0x3c2fdf46	0.010734385
225	0x3c1b83ef	0.009491905
226	0xbbc8c61a	-0.006127131
227	0x3c4fc8fd	0.012682197
228	0x3a1f3288	0.00060728984
229	0xbc42f909	-0.011900195
230	0xbc5fb071	-0.013652907
231	0xbbdd8381	-0.0067600613
232	0x3bfdbda4	0.007743554
233	0x3cbf8fbf	0.023383973
234	0xbccb4f1f	-0.024818001
235	0xbba1e6b4	-0.004940832
236	0xbab141e1	-0.0013523662
237	0xbbbd6b8d	-0.0057806433
238	0xbbf3c807	-0.0074396166
239	0x3b41da46	0.0029579564
240	0xbbf10246	-0.0073550073
241	0x3cacbe4c	0.021086834
242	0x3b56956a	0.0032742866
243	0xbd34b2e2	-0.04411591
244	0xbc01f80e	-0.007932676
245	0x3a577d13	0.00082202366
246	0x3c3ee346	0.011650866
247	0x3b3acd0e	0.002850357
248	0x3a6612db	0.00087766134
249	0xbc76614d	-0.015037847
250	0xb988de5b	-0.0002610561
251	0xbc49670a	-0.012292633
252	0xbc487e7c	-0.0122371875
253	0xbc2a5f74	-0.010398734
254	0xbc4114cb	-0.011784743
255	0xbc04234d	-0.008065057

cvae_parameters.dec_01_lin_b f4 [128]
0	0x3e000904	0.12503439
1	0x3d92f048	0.07174736
2	0xbb898a47	-0.004197392
3	0xbaa9b726	-0.0012948259
4	0x3da86ddf	0.08224081
5	0xbbab5832	-0.0052290196
6	0x3e06967c	0.13143343
7	0x3e020ded	0.12700625
8	0xbbb44abe	-0.005502074
9	0x3ddebf62	0.10876347
10	0x3d9fe0bb	0.07806536
11	0xbb5cf1f8	-0.003371356
12	0xbb58fe87	-0.0033110694
13	0x3dc9543a	0.09830518
14	0x3df0ff98	0.11767501
15	0xbb33f813	-0.0027461096
16	0x3dbd9469	0.092568226
17	0x3da64070	0.08117759
18	0x3e1051eb	0.14093749
19	0xbb698d6b	-0.003563727
20	0x3dcc72b7	0.099828176
21	0x3df435b3	0.11924305
22	0x3ddf36ee	0.10899149
23	0xbc703400	-0.014660835
24	0xbbae9882	-0.005328239
25	0x3d938558	0.07203168
26	0xbb866a5d	-0.004102035
27	0x3dafff08	0.08593565
28	0x3dfbcbc5	0.12294725
29	0x3ddbdb96	0.10735242
30	0xbb0105d7	-0.0019687319
31	0x3dfd6e37	0.123745374
32	0xbc378fc1	-0.011203707
33	0x3db3f3d6	0.087867424
34	0x3dd5d63f	0.10441255
35	0x3d928b33	0.071554564
36	0xbc02dcb5	-0.007987191
37	0xbc452b60	-0.012034267
38	0x3d0be8ce	0.034157567
39	0x3dff83a9	0.12476284
40	0xbbd9e666	-0.00664978
41	0x3e0a02d7	0.13477646
42	0x3df39013	0.11892714
43	0x3e0bbbd8	0.13645875
44	0xbb23ff97	-0.002502417
45	0xbbe21f54	-0.0069007073
46	0xbb5befa2	-0.003355958
47	0x3daaef5f	0.08346438
48	0xbc2c93e7	-0.01053331
49	0xbbe8be4b	-0.007102763
50	0xbbdfdf10	-0.006832011
51	0x3dea8786	0.1145163
52	0xbc069b40	-0.008215725
53	0x3dcd7a0e	0.10033046
54	0xbbc39917	-0.0059691775
55	0x3d81d725	0.06339864
56	0xbc739cdf	-0.014868944
57	0xbc360685	-0.011109953
58	0xbc27971b	-0.010228897
59	0x3d5a6913	0.053322863
60	0xbb76ba7f	-0.0037647781
61	0xbc355979	-0.011068695
62	0x3e004fd5	0.12530454
63	0xbc3dd123	-0.011585507
64	0xbc4f1246	-0.012638634
65	0x3ddeb0bc	0.10873553
66	0x3d49f0a6	0.049301766
67	0xbc282602	-0.010262968
68	0x3e082f15	0.1329921
69	0xbb18f045	-0.0023336571
70	0xbc2910f3	-0.010318982
71	0x3dfb3a31	0.122669585
72	0x3de4a4e9	0.111642666
73	0x3dbd35d0	0.092387795
74	0x3e0dfe0d	0.13866444
75	0xbbb21144	-0.005434187
76	0xbc655387	-0.013996965
77	0xbbf65a03	-0.0075180545
78	0x3dfb0c72	0.12258233
79	0x3d7b287f	0.061317917
80	0x3d8821a7	0.06647044
81	0x3d833821	0.0640719
82	0xbc17fdd3	-0.009276825
83	0xbb9c571f	-0.004771128
84	0x3dd7673d	0.10517738
85	0xbc0dd8df	-0.008657663
86	0x3de16444	0.11005452
87	0xbba83de8	-0.005134333
88	0x3dc8e687	0.098095946
89	0x3def1d62	0.11675526
90	0x3de43ecd	0.11144791
91	0x3dc723f8	0.09723657
92	0x3e00fb95	0.12595971
93	0x3dae44a6	0.085091874
94	0xbb0ed428	-0.0021793935
95	0x3de9802f	0.11401402
96	0xbc392a30	-0.011301562
97	0xbbdd879c	-0.0067605507
98	0xbb099da1	-0.0020998495
99	0x3e09e11d	0.1346478
100	0x3d3517ae	0.044212036
101	0x3ddb217f	0.10699748
102	0xbc067afc	-0.008208033
103	0xbc90b1c2	-0.017662887
104	0xbbf85369	-0.0075783026
105	0x3ddf9465	0.10916976
106	0x3dabe83f	0.08393907
107	0xbc404800	-0.011735916
108	0xbb9e5a09	-0.0048325104
109	0xbb9dcd9f	-0.0048157717
110	0xbc222ed9	-0.009898865
111	0xbb553969	-0.003253544
112	0x3db1cee5	0.0868204
113	0xbb6efcf7	-0.0036466697
114	0xbc045463	-0.00807676
115	0x3debaf71	0.11508072
116	0x3dfa55b5	0.122233786
117	0x3dc70943	0.097185634
118	0x3d8ab83d	0.06773422
119	0x3dbba0d3	0.09161534
120	0x3d439f05	0.047759075
121	0x3d72d5f2	0.059286065
122	0x3d96b138	0.073580205
123	0x3dca821b	0.09888097
124	0xbc5e67de	-0.013574569
125	0x3de345a0	0.11097264
126	0xbbb2d3f8	-0.0054573976
127	0xbc02811d	-0.007965353

cvae_parameters.dec_01_lin_w f4 [128, 128]
0	0xb8b22dd5	-8.496238e-05
1	0x3c99fc66	0.01879711
2	0xbc2e60dc	-0.01064321
3	0xbbd5abe9	-0.0065207374
4	0x3bd2b168	0.00642984
5	0x3b249169	0.0025111085
6	0x3c13886e	0.009004695
7	0x3c05c724	0.008165155
8	0x3bcc774b	0.006239807
9	0x3b71f656	0.003692051
10	0xbc9dc4e5	-0.019258926
11	0x3c13c443	0.00901896
12	0xbb999579	-0.004687008
13	0x3bc0d7b1	0.0058850874
14	0x3c38d0da	0.011280263
15	0x3c860b7a	0.016362894
16	0x3b24e886	0.0025163009
17	0xbbab0496	-0.0052190525
18	0x3caa6ba4	0.02080328
19	0xbac4fe3d	-0.0015029382
20	0xbc3e71d3	-0.0116238175
21	0x3a34c518	0.00068958243
22	0xbc03f6db	-0.00805446
23	0x3b8085c4	0.003922196
24	0x3c385e41	0.011252941
25	0x3ab49a82	0.0013778957
26	0x3b7cbf7f	0.003856629
27	0xbc6b5d50	-0.014365509
28	0xbaedfecd	-0.0018157602
29	0x3bf8db36	0.0075944914
30	0x3c092df7	0.008372775
31	0xbc164465	-0.00917158
32	0xbc53d4e0	-0.012929171
33	0x3c9dfc4c	0.019285344
34	0x3ae43222	0.001740996
35	0xbbb3a5b4	-0.0054824
36	0x3958196d	0.00020608837
37	0xbbac8646	-0.00526503
38	0x3ba813fd	0.005129336
39	0xbbe1e980	-0.0068942904
40	0x3caaf6b2	0.020869587
41	0xbc0f5812	-0.008749025
42	0xbbeaf39e	-0.0071701547
43	0x3bb298f0	0.0054503605
44	0x3b218d99	0.002465105
45	0xbbcf544b	-0.006327187
46	0x3c9b6f1a	0.018973876
47	0xba612e26	-0.00085899455
48	0x3adadbfd	0.0016697642
49	0x3bc47338	0.0059951805
50	0x3bac6426	0.005260962
51	0x3c60687f	0.013696789
52	0x3aeba566	0.001797837
53	0x3c949844	0.018139012
54	0x3c51350f	0.012768998
55	0xbba4619d	-0.005016519
56	0x3ca64624	0.020297118
57	0x3bd1c937	0.0064021605
58	0xbc758d7f	-0.014987349
59	0x3aac5748	0.001314857
60	0x3b14f174	0.0022726925
61	0x3c0df333	0.00866394
62	0xbb76ef27	-0.0037679167
63	0x3b87366a	0.0041263597
64	0x3b85c872	0.004082733
65	0x3c3f46e3	0.011674616
66	0x3c165b63	0.009177062
67	0x3b5c0735	0.0033573632
68	0xbc439f59	-0.011939847
69	0xbbd3c132	-0.0064622397
70	0x3c54331d	0.0129516395
71	0xbc47e010	-0.012199417
72	0x3c5585f8	0.013032429
73	0x3c446989	0.011988052
74	0xbc31cca0	-0.010852009
75	0xbbbf0f09	-0.0058306498
76	0x3bb583c7	0.0055393907
77	0xbc39c78a	-0.011339078
78	0x3c7854a2	0.015156897
79	0x3cd517f6	0.026012402
80	0xbc277ae5	-0.010222171
81	0x3c102338	0.008797459
82	0xbc80b24c	-0.015710019
83	0xbbb35420	-0.005472675
84	0xbb3e21a6	-0.0029011755
85	0x3ca6ea9f	0.020375548
86	0xbb991269	-0.004671384
87	0x3c0d54b3	0.008626151
88	0x3b4e4f4b	0.0031480368
89	0x3c2ed238	0.010670237
90	0x3c0b9327	0.008518971
91	0xbb23bf98	-0.0024986025
92	0x3c1d6950	0.009607628
93	0xbb92effc	-0.004484175
94	0x3bea591f	0.0071517373
95	0x3b21066d	0.002457048
96	0x3b0f8dfc	0.0021904698
97	0x3bbd8f4a	0.0057849037
98	0xbab8e38e	-0.0014105903
99	0x3b078898	0.0020680781
100	0xbb096113	-0.0020962402
101	0x3c46884c	0.012117457
102	0xbc1a108a	-0.009403357
103	0x3c179d86	0.009253865
104	0x3c142157	0.009041152
105	0x3c2cb7b7	0.010541848
106	0x3ca4b548	0.020105973
107	0xbc387bc3	-0.011259976
108	0xba258f5b	-0.0006315612
109	0xbbf100ca	-0.0073548304
110	0xbbd4dc98	-0.0064960234
111	0x3bbe0aca	0.005799626
112	0xb915102d	-0.00014215773
113	0xbbac06ae	-0.0052498197
114	0x3b4174af	0.0029519012
115	0x38f3ab00	0.00011618994
116	0x3c012ccf	0.007884218
117	0x3ba5c97b	0.0050594187
118	0xbc0e469d	-0.008683828
119	0xbc85b51d	-0.016321713
120	0x3be80a33	0.007081294
121	0x3c28318d	0.01026572
122	0xbb96fb2d	-0.004607579
123	0xbb3c2726	-0.0028709858
124	0x3c189565	0.009312962
125	0xbb950496	-0.004547666
126	0x3c1cfbe2	0.009581538
127	0x3c17530c	0.0092361085
128	0xbbfc86b8	-0.0077064894
129	0x3bf23994	0.0073921178
130	0xbb040527	-0.0020144673
131	0x3b8f78d2	0.0043784166
132	0xbc51bac6	-0.012800878
133	0xbc3d921c	-0.01157048
134	0xbc24fcdd	-0.010070053
135	0xbc3eaf91	-0.011638538
136	0x3af1ee64	0.0018457887
137	0x3c8fcf86	0.01755501
138	0x3c87050d	0.0164819
139	0x3b360871	0.0027776028
140	0xbc30090a	-0.010744343
141	0xbb75395a	-0.0037418217
142	0xbbd88298	-0.006607365
143	0x3bc1e030	0.005916618
144	0xbc1aaea6	-0.0094410535
145	0x3a99ff8c	0.0011749133
146	0x3b4cfa2b	0.0031277041
147	0xbcc24af4	-0.023717381
148	0x3cc9a965	0.024616906
149	0x3ba5fa41	0.005065233
150	0xbaf8a7de	-0.0018970927
151	0x3c5da861	0.013528914
152	0x3b8c3b57	0.004279535
153	0xbb49d9eb	-0.0030800055
154	0xbc191f3d	-0.009345827
155	0x3c0ddaec	0.008658152
156	0x3c53c3ef	0.012925132
157	0x3a71906e	0.0009214942
158	0xbca79af2	-0.020459626
159	0xbc8dc666	-0.017306518
160	0xba9abe54	-0.001180599
161	0xbc004807	-0.007829673
162	0x3c159209	0.009129056
163	0xbba2ca43	-0.004967959
164	0xbbb6cb09	-0.005578403
165	0xbc6f8b1c	-0.014620569
166	0x3b902933	0.0043994426
167	0xbb7e9a9d	-0.003884948
168	0xbc00b67e	-0.0078560095
169	0xbaf264e2	-0.00184932
170	0x3c44d2bb	0.012013133
171	0x3c54c9e2	0.012987586
172	0x3aa4f5f8	0.0012585511
173	0xbc489eb5	-0.01224487
174	0xbbb77e07	-0.0055997404
175	0x39d79d2c	0.00041125098
176	0xbc7aaed4	-0.015300471
177	0xb9ac2fc8	-0.00032841996
178	0x3bdbcb9b	0.0067076213
179	0xbc443fd4	-0.011978108
180	0x3cada4a8	0.021196678
181	0x3b9427d6	0.0045213504
182	0xb905e462	-0.00012768948
183	0xbb1845ab	-0.0023234885
184	0xbbf50192	-0.007476994
185	0xbad36ab8	-0.0016129827
186	0x3bce356f	0.006292991
187	0x3c329f16	0.010902187
188	0x3ba35976	0.00498503
189	0x3caf3a37	0.021390064
190	0x3c040c8f	0.008059635
191	0x3b925ce9	0.004466642
192	0x3b2a1676	0.002595333
193	0xbb9a4cb2	-0.00470885
194	0x3c21b7d9	0.009870493
195	0x3aa7115e	0.0012746265
196	0xbba8e2f6	-0.005154009
197	0x3bb0fd41	0.005401284
198	0xbc262702	-0.010141136
199	0xbac18d65	-0.001476687
200	0xbc415503	-0.0118000535
201	0x3c708699	0.014680528
202	0x3baa1e51	0.0051916023
203	0xbba79c4b	-0.005115067
204	0xbb405868	-0.002934957
205	0x3bf15537	0.0073648947
206	0xbb951e9f	-0.0045507695
207	0xbaa9e7a7	-0.0012962715
208	0x3b7a3ba6	0.0038182526
209	0x3ba8ba65	0.005149173
210	0xbc0f5478	-0.008748166
211	0xbc847310	-0.016168147
212	0x39582eab	0.0002061675
213	0xbb162398	-0.00229094
214	0x3b76859e	0.0037616263
215	0xbba83c79	-0.005134162
216	0x3bc6a875	0.006062562
217	0xbb523450	-0.0032074638
218	0xbc2dfe1d	-0.010619667
219	0xbc00ecb4	-0.007868934
220	0x3bea9b3a	0.0071596177
221	0xbbffb849	-0.007803951
222	0x3b868eeb	0.0041063926
223	0xbbfd2185	-0.007724943
224	0x3c754c9f	0.014971881
225	0xbca86049	-0.020553725
226	0x3b008097	0.0019607896
227	0xbbdad13b	-0.0066777742
228	0xbba8a151	-0.0051461835
229	0x3aa8d960	0.0012882166
230	0xbc216f63	-0.009853217
231	0xbc7ec648	-0.015550204
232	0x3b1e074d	0.0024113238
233	0xbc47734e	-0.012173487
234	0xbc16fa74	-0.009214986
235	0xbc02bb40	-0.007979214
236	0x3c06482c	0.008195918
237	0xbc624956	-0.01381143
238	0x3a332701	0.000683412
239	0xb923fcf3	-0.00015639122
240	0x3c21e5de	0.009881465
241	0x3bdfb656	0.006827156
242	0xbbf44b6f	-0.0074552814
243	0xbbfb472c	-0.0076683965
244	0xb946474d	-0.00018909313
245	0xbb259849	-0.002526777
246	0x3b9fe4cc	0.0048795696
247	0x3b4b72cd	0.0031043768
248	0xbc228fe2	-0.009922
249	0xbab70d60	-0.0013965778
250	0xbb6cb218	-0.0036116894
251	0xbc92cd67	-0.01792021
252	0x3bbd04c0	0.0057683885
253	0xbc264d0e	-0.010150207
254	0xbbc16c9f	-0.005902841
255	0x397b2d35	0.00023954066

cvae_parameters.enc_00_lin_b f4 [128]
0	0x3c28f9c3	0.010313454
1	0xbb9af84d	-0.004729307
2	0xbb522375	-0.003206459
3	0xbb28353f	-0.0025666503
4	0xbaf50026	-0.0018692061
5	0xbb3560fc	-0.0027676215
6	0x3c1aaf8f	0.0094412705
7	0x3a45c1d5	0.0007543837
8	0xbb95c272	-0.004570299
9	0xb84ab827	-4.833206e-05
10	0xba836511	-0.0010024627
11	0xbabe18a5	-0.0014503194
12	0x3c261d44	0.010138813
13	0x38044ae1	3.154099e-05
14	0xbb62e0c2	-0.003461883
15	0x3b926d50	0.0044685975
16	0x3c240253	0.01001032
17	0xbb7dd2e8	-0.0038730446
18	0xba1395bb	-0.00056299166
19	0xbb88cd15	-0.0041748383
20	0xba122f81	-0.00055765366
21	0x3c1c6928	0.009546556
22	0xba7fd6f7	-0.000975951
23	0xba777899	-0.00094402727
24	0xbb9695ac	-0.004595479
25	0x3af69557	0.0018812817
26	0xb9a6681c	-0.00031739555
27	0xbb219c50	-0.002465982
28	0x3a702872	0.00091613
29	0xbbf9caac	-0.0076230373
30	0xbb4c5a92	-0.0031181914
31	0xb9ec18d8	-0.00045031938
32	0x3b1f9ece	0.002435613
33	0xbb8d5622	-0.0043132463
34	0x3c15ec34	0.0091505535
35	0xb9ee8eed	-0.00045501385
36	0xbba5b355	-0.0050567784
37	0xbae3490a	-0.0017340493
38	0x3c2e7119	0.010647082
39	0xb9ce1efb	-0.00039314464
40	0xba8575a2	-0.0010182152
41	0x3c80287e	0.015644308
42	0x3b1742d7	0.002308061
43	0xbbc9538d	-0.006143993
44	0xba729ef5	-0.0009255254
45	0x3be1df34	0.006893063
46	0xbb8ff929	-0.004393716
47	0xbb6e91c7	-0.0036402808
48	0xbac0dd5f	-0.0014714411
49	0xbb5508ec	-0.0032506539
50	0x3c15f69c	0.009153035
51	0x3b0ef437	0.0021813044
52	0xbb256d82	-0.0025242274
53	0x39f53104	0.0004676656
54	0xba37585f	-0.00069940643
55	0xba92f44e	-0.0011211724
56	0xbab4005d	-0.0013733018
57	0xbb202adf	-0.0024439616
58	0xbb37515b	-0.0027972076
59	0xbb290a1d	-0.0025793382
60	0xbb879bc6	-0.0041384427
61	0x3c51465a	0.012773121
62	0xbaec24f1	-0.001801638
63	0x38c672d3	9.4627634e-05
64	0x3c0b6663	0.008508298
65	0xbb3e8658	-0.0029071774
66	0x3ba41c6d	0.0050082714
67	0x3bb7002d	0.0055847378
68	0x3b1a5292	0.002354775
69	0xbae79dac	-0.0017670891
70	0x3c5d4d2d	0.01350717
71	0x3a10fdc0	0.0005530976
72	0xbb439b28	-0.002984712
73	0x39ff9383	0.00048747295
74	0xba4d6f59	-0.00078367215
75	0xbb726553	-0.0036986663
76	0x3c12b63b	0.00895458
77	0xba8554de	-0.0010172387
78	0xb9ffa09d	-0.00048757056
79	0xbb033e51	-0.0020026157
80	0xb97ff388	-0.00024409418
81	0x3c38acfc	0.011271711
82	0xbb1c2613	-0.0023826405
83	0x3b92afcd	0.0044765235
84	0x3bcc9b8c	0.0062441286
85	0xba358eb0	-0.0006925864
86	0x3b35aee2	0.0027722646
87	0xbb063bf3	-0.002048251
88	0xbb4dab0f	-0.0031382476
89	0xbba8067f	-0.0051277275
90	0x3b62240a	0.0034506344
91	0x39d85b25	0.00041266638
92	0xbbb0d418	-0.0053963773
93	0x3c139a74	0.009008992
94	0xbb474e2f	-0.0030411591
95	0x3bce6b09	0.0062993807
96	0xbaafd97d	-0.0013416257
97	0xba901192	-0.0010991564
98	0xbb23b73f	-0.002498105
99	0xbb60bf69	-0.0034293777
100	0x3c2f1ee0	0.0106885135
101	0xbbacb4a2	-0.0052705565
102	0x3c333df2	0.010940062
103	0x3bcd6861	0.0062685465
104	0xbab4f0c8	-0.0013804669
105	0xb8bc880a	-8.989878e-05
106	0xb97f4670	-0.00024344935
107	0xbab78ab5	-0.001400313
108	0xbb1a564c	-0.0023549972
109	0x3be277d0	0.0069112554
110	0xbade3beb	-0.0016955113
111	0x3a236ff5	0.00062346394
112	0x39b54a05	0.0003457816
113	0xbb4b204d	-0.0030994595
114	0xba2bdb15	-0.0006555778
115	0x3b838842	0.004014046
116	0x3a853188	0.0010161856
117	0x3c18867e	0.009309409
118	0xba80bbe6	-0.0009821623
119	0x393f1b91	0.00018225449
120	0x3c261253	0.010136205
121	0xbaa5ddb5	-0.0012654575
122	0x398f2af9	0.00027307103
123	0xb9e21aa0	-0.00043125916
124	0xbaf541c0	-0.0018711612
125	0xbb167219	-0.002295619
126	0xbaedcb17	-0.001814219
127	0xba901b6c	-0.00109945

cvae_parameters.enc_00_lin_w f4 [128, 123]
0	0xbc96e201	-0.018418314
1	0xbca7a7cc	-0.020465754
2	0xbc309e16	-0.010779878
3	0xbc10f782	-0.008848073
4	0x3a587b83	0.0008258151
5	0xb9f8f226	-0.0004748266
6	0xbbad125b	-0.005281729
7	0xbca9fbc4	-0.020749934
8	0xb9c40e4a	-0.0003739468
9	0xbc60eaa5	-0.013727819
10	0x398436d9	0.00025217867
11	0x3b0a415c	0.0021096086
12	0xb9dc3fe7	-0.0004200928
13	0x3c8306d8	0.015994474
14	0x3c5346f0	0.012895331
15	0xba32521d	-0.0006802397
16	0xbc5efe80	-0.013610482
17	0xbc6e1f17	-0.01453378
18	0x3bb991f1	0.0056631495
19	0x3bff2967	0.007786918
20	0x3bb1f6d7	0.005431037
21	0xbc849eb1	-0.016188951
22	0xba18a37a	-0.00058227
23	0x3c9a43d8	0.018831179
24	0x3c114709	0.008867034
25	0xbbe52123	-0.0069924756
26	0xbb0bcc68	-0.0021331552
27	0x3a81e4d4	0.0009910115
28	0x3c685c54	0.014182169
29	0x3c843513	0.016138589
30	0x3c1a323d	0.009411392
31	0xbbfec548	-0.0077749826
32	0xbbff6e03	-0.007795097
33	0x3b421f49	0.0029620698
34	0xbbde6a73	-0.006787592
35	0xbac26bf6	-0.00148332
36	0x3b1bd02c	0.0023775203
37	0x3b00075a	0.0019535632
38	0x3ba94958	0.005166214
39	0x3bd47b15	0.006484399
40	0xbb32417f	-0.0027199683
41	0x3b1e1a0c	0.0024124412
42	0xb999bdd7	-0.00029323876
43	0x38b8e851	8.817076e-05
44	0x3b86672e	0.0041016554
45	0x3cb0ba7c	0.021573298
46	0xbc75cf33	-0.015003013
47	0xbc4fbdd2	-0.012679534
48	0xbb76e590	-0.003767345
49	0x3c043851	0.0080700675
50	0x3c4260b5	0.011863877
51	0xbabbdb65	-0.0014332352
52	0xb8de840f	-0.00010610383
53	0xba8885c5	-0.0010415843
54	0x3bbb55fd	0.0057170377
55	0xbb51a5e0	-0.0031989738
56	0xbb9f31ee	-0.004858247
57	0x3bf1fdac	0.0073849764
58	0x3c8b7c81	0.017027142
59	0x3d179422	0.037006505
60	0xbc6e3cc9	-0.0145408595
61	0xbc5ff712	-0.013669746
62	0x3c8e95aa	0.01740535
63	0xbbe9455b	-0.0071188635
64	0xbbf1aa80	-0.0073750615
65	0x3c13ff9c	0.00903311
66	0x3be8c831	0.007103943
67	0x3c47279d	0.012155441
68	0xbc857d99	-0.016295241
69	0x3cca3edb	0.024688175
70	0xbbfda00c	-0.0077400263
71	0x3a83af2d	0.0010046713
72	0xbca58fb5	-0.020210126
73	0xbbc2d115	-0.0059453347
74	0xbb6d114d	-0.0036173642
75	0xbb98f5a3	-0.004667954
76	0xbc408af7	-0.011751882
77	0x3c51edc4	0.012813035
78	0x3a970aea	0.0011523638
79	0x3c2c81f2	0.010529028
80	0x3b2f1d8f	0.00267205
81	0x3b82b4cc	0.003988838
82	0xbbd653e7	-0.0065407637
83	0xbb664dca	-0.003514158
84	0x3c4a7d68	0.012359001
85	0xbb8e4132	-0.004341268
86	0x3c384f0f	0.011249318
87	0x3843cc75	4.668204e-05
88	0xbaf60916	-0.0018771018
89	0x3ca6dd26	0.020369124
90	0xbc82d972	-0.015972827
91	0xbb4e33d2	-0.0031463993
92	0xbc451e69	-0.012031176
93	0xbc3abe00	-0.011397839
94	0xb91e127e	-0.00015074943
95	0x3c2cd68b	0.010549198
96	0x3c89ac23	0.016805714
97	0xbc36ef69	-0.011165478
98	0x3b1daf82	0.002406091
99	0x3bc4b922	0.006003515
100	0xbccb635a	-0.024827648
101	0xbc50d5b9	-0.012746268
102	0xbb8c451c	-0.0042806994
103	0x3bd7b236	0.0065825237
104	0x3b05e39a	0.002042985
105	0x3b46a8b9	0.003031297
106	0x3bb914ff	0.005648255
107	0x3bbe636d	0.0058101923
108	0x3ba1302f	0.004919074
109	0xbc3b22e0	-0.011421889
110	0x3bd75965	0.006571936
111	0xbc28202c	-0.010261577
112	0xbb65830a	-0.0035020732
113	0xbc9fec5b	-0.019521883
114	0xbc19d1c8	-0.009388395
115	0xbc07f164	-0.008297298
116	0x390aa1e2	0.00013221012
117	0xb9f1edd9	-0.00046144312
118	0xbc8b0f5f	-0.016975103
119	0xbc1ddc2a	-0.009635011
120	0xbbcc0bbc	-0.006226985
121	0x3bb9feee	0.005676142
122	0x3c9d6eb2	0.019217823
123	0xbab34968	-0.0013678493
124	0x3b976bc8	0.004621003
125	0x3c744ee5	0.014911388
126	0x3c304894	0.0107594915
127	0x3c87d2d4	0.016580023
128	0xbbc9940c	-0.0061516818
129	0xbb13b1d2	-0.002253641
130	0xbb4091ea	-0.0029383847
131	0x3c1100b6	0.008850267
132	0x3c0e3f62	0.008682104
133	0x3c27f839	0.010252052
134	0x3cb10637	0.021609409
135	0xbc3d4c4e	-0.011553837
136	0x3b92c4aa	0.0044790106
137	0x3acf2e5c	0.0015806663
138	0xbb533765	-0.0032229063
139	0xbbf48b57	-0.0074628997
140	0xb9fc1e3c	-0.00048087712
141	0xbc45d08b	-0.012073646
142	0xb899007c	-7.295699e-05
143	0x3a93ccb3	0.0011276215
144	0x36701072	3.577236e-06
145	0x3b0994dd	0.002099327
146	0x3b322bb0	0.0027186684
147	0x3c459eb1	0.012061761
148	0x3ba41b7a	0.0050081583
149	0x3b820817	0.0039682495
150	0x39cbe484	0.00038889435
151	0xbb0afd92	-0.0021208269
152	0x3aacc20f	0.0013180393
153	0xbb9409bc	-0.004517762
154	0xbc832612	-0.016009364
155	0x3acbb01c	0.0015540156
156	0xbbd7ea96	-0.006589244
157	0x3ac8f9ad	0.0015333198
158	0x3a3a8b29	0.00071160734
159	0x3bd0ce95	0.0063722827
160	0x3c5f0508	0.013612039
161	0xbc321717	-0.010869763
162	0x3ba5682e	0.0050478196
163	0x398c5edc	0.00026773557
164	0x3c2ebfb0	0.010665819
165	0xbbc29497	-0.0059381234
166	0x3c220c96	0.009890696
167	0x3bae8e92	0.0053270543
168	0x3bc34e86	0.0059602885
169	0x3b9abe77	0.004722412
170	0xbb03e22d	-0.0020123825
171	0x3b09b1e0	0.0021010563
172	0x39c6fb52	0.0003795275
173	0xbc41df8e	-0.011833085
174	0x3b99a220	0.0046885163
175	0xbc74fd8c	-0.014953028
176	0xbb7edf08	-0.0038890261
177	0xbb2d0db6	-0.0026405877
178	0xbc3d866b	-0.011567692
179	0xbb18a8d7	-0.0023293996
180	0x3c49a3c0	0.012307107
181	0x39f4b9f5	0.00046677855
182	0x3c44b036	0.012004903
183	0x3c39de17	0.011344454
184	0xbc05c3de	-0.008164374
185	0xbb5b43c5	-0.0033457142
186	0x3c7b6122	0.0153429825
187	0x3b70ed18	0.0036762413
188	0x3bb1babe	0.0054238727
189	0xbbd6757b	-0.0065447665
190	0xbc2a50d7	-0.01039525
191	0xbc017eb6	-0.007903745
192	0xbbd065c5	-0.006359788
193	0x3be589ef	0.0070049684
194	0x3bb1f777	0.0054311114
195	0x3b8ff8b9	0.0043936637
196	0x3b014531	0.001972508
197	0x3c22e8b1	0.009943173
198	0xba9538ef	-0.0011384765
199	0x3c5cffe7	0.013488746
200	0x3ad88f4f	0.0016522201
201	0xbc585ef4	-0.013206232
202	0x3b908408	0.0044102706
203	0x3b89afa2	0.0042018453
204	0x3c181dfb	0.009284492
205	0xbc1663d4	-0.009179074
206	0x3beab7b8	0.0071630143
207	0xbc005fbc	-0.007835325
208	0x3c6ae2ba	0.014336282
209	0x3ab36dac	0.0013689301
210	0x3c470af9	0.012148612
211	0x3c301e8e	0.010749472
212	0xbc5f5958	-0.013632141
213	0x3be8e842	0.0071077654
214	0xbac1ac7a	-0.0014776133
215	0xbc2f17e6	-0.01068685
216	0x3c4e331f	0.01258543
217	0x3c7c315d	0.0153926285
218	0xbc14ff6c	-0.0090941
219	0x3b20cd30	0.0024536364
220	0x3bf19e8a	0.0073736357
221	0x3a623d5f	0.0008630361
222	0xbbcd1d8c	-0.006259626
223	0x3b0697cf	0.0020537262
224	0xbbb532e7	-0.0055297497
225	0x3c4eef3d	0.012630281
226	0x3be816b7	0.007082786
227	0x3baa7539	0.0052019623
228	0x3b6d8b4b	0.0036246355
229	0x3c18d245	0.009327476
230	0xbb646155	-0.0034848053
231	0xbc85f620	-0.016352713
232	0x3b3e1ffc	0.0029010763
233	0xbb2e50d8	-0.002659848
234	0xbb015b9a	-0.0019738437
235	0x3c4b5b44	0.012411896
236	0xbc33e733	-0.010980415
237	0x3c1377ab	0.009000699
238	0x3c7644e1	0.01503107
239	0xbc764eb2	-0.015033411
240	0xbc4e8d1f	-0.012606888
241	0xbc6f2ed3	-0.014598566
242	0x3ab76d3d	0.0013994348
243	0xbc30b7e7	-0.010786033
244	0x3c1e7fd4	0.009674031
245	0xba90f540	-0.0011059418
246	0x3bedb567	0.007254291
247	0x3969eb8b	0.00022308358
248	0x3aa233a2	0.0012375007
249	0x3c36113d	0.011112508
250	0x3c2b93e8	0.010472275
251	0xbb5e3319	-0.0033904968
252	0xbbea6708	-0.0071533956
253	0x3b683b16	0.0035435609
254	0x3ca3451f	0.01993042
255	0x3bb26d57	0.005445163

cvae_parameters.enc_01_lin_b f4 [128]
0	0xbb016287	-0.0019742565
1	0x3c8d641a	0.017259646
2	0xbb9060f4	-0.004406089
3	0xbb97cdbe	-0.0046326807
4	0x3c91b66d	0.017787183
5	0xbb294608	-0.0025829095
6	0xbba09025	-0.004899996
7	0x3cc9733c	0.02459108
8	0x3afc2a7b	0.0019238734
9	0xba419e8b	-0.00073859905
10	0xbbdc7024	-0.0067272354
11	0xbbb6a925	-0.005574363
12	0xbb8e23f6	-0.004337783
13	0xbb899688	-0.004198853
14	0xbb4cef1c	-0.003127045
15	0xb9f4c13e	-0.00046683283
16	0xbaf5e931	-0.0018761513
17	0xbb5fb7bc	-0.0034136614
18	0x3c62f9d0	0.013853505
19	0xbc222957	-0.0098975515
20	0x3c710b13	0.014712113
21	0xbb74f581	-0.0037377777
22	0xbb6ca99d	-0.003611184
23	0xbb617fd8	-0.0034408476
24	0xbb95d30c	-0.004572278
25	0xbb815f7b	-0.0039481497
26	0xba5a5238	-0.00083282916
27	0xba963c90	-0.0011462141
28	0xbbc07944	-0.005873831
29	0x3c838d41	0.016058566
30	0xbb1f8ba4	-0.0024344707
31	0x3bd0720b	0.006361251
32	0x3b934834	0.0044946913
33	0x3c97af80	0.018516302
34	0xbb84bcb4	-0.0040508155
35	0x3cc70e3e	0.024298783
36	0xbac4e65a	-0.0015022263
37	0xbb2951c0	-0.002583608
38	0x3cdb5043	0.02677167
39	0xbb5f58d1	-0.0034080038
40	0x3d082fb5	0.033248622
41	0x3cc32c94	0.023824967
42	0xb95714f7	-0.00020511808
43	0xbbbb27de	-0.0057115396
44	0x3ca70df0	0.020392388
45	0xbba1c7ee	-0.0049371636
46	0xba04da7f	-0.0005067959
47	0x3c90f828	0.017696455
48	0xbb3ff40d	-0.0029289753
49	0xbc1e7768	-0.009672023
50	0xbb70374d	-0.0036654056
51	0xbc2473c4	-0.010037366
52	0xbb9ad066	-0.00472455
53	0x3cf55f0d	0.02995255
54	0xbb3ddca0	-0.0028970614
55	0xbb6c9bf5	-0.00361037
56	0xbbc5c7a0	-0.00603576
57	0x3cdefd80	0.027220488
58	0x3c911813	0.017711675
59	0x3cb5bcef	0.022184817
60	0x3cacadfa	0.021079052
61	0xbb437bea	-0.0029828497
62	0x3cba02e9	0.022706466
63	0x3c3f48eb	0.0116751
64	0xbb37652a	-0.0027983882
65	0x3b8f72bb	0.0043776906
66	0x3ceab09d	0.028648669
67	0xbc037b7b	-0.0080250455
68	0x3b2fcd94	0.0026825415
69	0x3cfbd06c	0.030739032
70	0xbb591db3	-0.0033129274
71	0x3cd9cfce	0.026588347
72	0xbae23872	-0.0017259254
73	0x3cacb3a7	0.021081759
74	0x3b188e2e	0.0023278105
75	0xb883af97	-6.279273e-05
76	0xbb823b01	-0.003974319
77	0x3cdb6489	0.026781337
78	0xbb1faa43	-0.0024362959
79	0xbb051553	-0.00203069
80	0x3c5c21d5	0.013435801
81	0xb9f748f4	-0.00047165866
82	0xbc178c1a	-0.009249711
83	0xbb06224b	-0.0020467218
84	0x3d04e45e	0.03244435
85	0x3cd8a8cb	0.026447674
86	0x3b63852b	0.0034716825
87	0xbb81c19a	-0.0039598467
88	0xb9d50994	-0.00040633662
89	0xbbdfba59	-0.0068276343
90	0x3b6d78e4	0.0036235387
91	0x3c95f89d	0.018307025
92	0xbb484c2b	-0.0030562978
93	0xbb060aa6	-0.0020453124
94	0x3926943d	0.00015886217
95	0x3c3f2197	0.011665723
96	0x3cdf7e05	0.02728177
97	0x3c90855d	0.017641718
98	0xb95d93e9	-0.00021131303
99	0xbb989bc7	-0.004657242
100	0x3c9692d4	0.01838056
101	0xbb721375	-0.0036937867
102	0x3ca7e3b8	0.020494327
103	0x3cd9b347	0.026574744
104	0xba0b22e2	-0.0005307627
105	0xbb489a6c	-0.003060962
106	0xbb573f2a	-0.0032844045
107	0x3ce65f52	0.028121624
108	0xbc082180	-0.008308768
109	0xbba34405	-0.004982474
110	0xbbea0c80	-0.0071426034
111	0xbb851def	-0.0040624063
112	0xbb08559c	-0.002080298
113	0x3ca46ff5	0.020072917
114	0xbb568fdc	-0.0032739555
115	0x3c9183d8	0.017763063
116	0xbb27f024	-0.0025625313
117	0x3c2104ba	0.009827787
118	0xbab136ed	-0.0013520397
119	0x3b58f7e0	0.003310673
120	0x3bf63e34	0.0075147394
121	0x3c83c799	0.016086387
122	0x3983e8a3	0.00025159595
123	0xbb94b0bf	-0.0045376713
124	0x3ce2f7af	0.027705995
125	0x3cb5c5c8	0.022189036
126	0xbb7bcf63	-0.0038423173
127	0x3c8a79cd	0.016903782

cvae_parameters.enc_01_lin_w f4 [128, 128]
0	0xbc07b2e1	-0.008282394
1	0xbb0d8c7d	-0.002159863
2	0xbbae9cd9	-0.0053287563
3	0x3c2f961f	0.010716944
4	0xbad00320	-0.0015870072
5	0x3ccb50f7	0.02481888
6	0xbc7eb2fb	-0.015545602
7	0xbc9561fb	-0.018235197
8	0xbb8f956d	-0.0043818266
9	0xbafd4b9f	-0.0019324905
10	0x3b6ebe78	0.0036429446
11	0x3b7040ae	0.0036659646
12	0xbc420ebc	-0.011844333
13	0x3c37e086	0.011222964
14	0xbbd9326a	-0.0066283243
15	0xbaa2120a	-0.0012364995
16	0xbcbe17cd	-0.023204708
17	0xbb451796	-0.0030073873
18	0x3b0f615f	0.0021878106
19	0x3ca243e8	0.01980777
20	0xba8cd2dc	-0.0010743993
21	0x3a0b3345	0.0005310069
22	0x3aaf1454	0.0013357499
23	0xbbf3dc54	-0.0074420366
24	0x3c408782	0.011751058
25	0xb99bbd7c	-0.0002970508
26	0x3c0abd8b	0.008468042
27	0xbc647353	-0.013943511
28	0xbb64b8e8	-0.0034900252
29	0x3c5de3a1	0.0135430405
30	0x3b42a4c9	0.002970027
31	0x3b9b833a	0.004745868
32	0xbae4c939	-0.0017454989
33	0xbb1673d2	-0.0022957218
34	0x3be03c6e	0.0068431413
35	0xbb8ea642	-0.0043533156
36	0x3b201711	0.002442781
37	0xbc932e94	-0.017966546
38	0xbb4746d0	-0.0030407198
39	0x3c8d3f61	0.017242135
40	0xbc8adfdc	-0.016952448
41	0xbbb304dc	-0.0054632258
42	0x3bab6a40	0.005231172
43	0x3ad12ea8	0.0015959339
44	0xba977789	-0.001155601
45	0xbc02b4e9	-0.007977703
46	0x3c0f235f	0.0087364605
47	0xbbef635f	-0.007305547
48	0xbc592236	-0.013252785
49	0xba3bd86d	-0.0007165734
50	0x3b82b3f3	0.003988737
51	0x3bfb7f57	0.007675092
52	0x3a6a2255	0.00089315075
53	0x392f0b67	0.00016693548
54	0xbc0d85f0	-0.00863789
55	0xbc395b59	-0.011313283
56	0xba84a83c	-0.0010120939
57	0xbbc0bcc2	-0.0058818767
58	0x3c3ce99b	0.011530305
59	0xba9dc6fe	-0.0012037454
60	0xbc60d693	-0.0137230335
61	0x3c6ec1a7	0.0145725375
62	0x3cb47009	0.022026079
63	0xbbd5d3b8	-0.006525483
64	0xbbbcca12	-0.0057613933
65	0x3c08724a	0.00832803
66	0x3bfab274	0.007650668
67	0x3c10c127	0.008835114
68	0x3c3c2a44	0.011484686
69	0xbbeea49c	-0.0072828066
70	0x3aa3218e	0.0012445913
71	0x3c16c542	0.009202303
72	0x3c3bacc6	0.011454767
73	0x3bb62d8f	0.00555963
74	0xbad8fc17	-0.0016554621
75	0xbc851c90	-0.016248971
76	0x3c51e7f1	0.012811647
77	0x3ca5f8af	0.020260183
78	0xbb7416c5	-0.0037245017
79	0xbad7ff59	-0.0016479298
80	0xbbbf6b9b	-0.005841685
81	0x3b7c7caa	0.0038526454
82	0xbc12a8ab	-0.008951346
83	0xbc1f4bc6	-0.009722656
84	0xbba6d893	-0.0050917356
85	0x3bc494fd	0.005999206
86	0xbc3fe5be	-0.01171249
87	0x3c12ec29	0.008967438
88	0xbc83fec5	-0.016112695
89	0xbc16115d	-0.009159413
90	0xbbd66779	-0.0065430966
91	0xbb0e5e0c	-0.0021723537
92	0x3abbb0ff	0.0014319717
93	0xbc960b62	-0.018315975
94	0x3bb8feac	0.0056455936
95	0x3b69868e	0.003563318
96	0xbbe66e1b	-0.0070321686
97	0x3c3b465a	0.011430347
98	0xbc273f33	-0.010207939
99	0x3c552134	0.0130084045
100	0xbc79cd23	-0.015246662
101	0xbb8af61a	-0.0042407634
102	0x3af351a6	0.0018563762
103	0xbcd07b83	-0.02544952
104	0xbcb098db	-0.021557262
105	0xbb8d33e2	-0.0043091634
106	0xbbb9c6d2	-0.005669453
107	0xbc074adc	-0.008257594
108	0xbc615a2d	-0.01375441
109	0x3c5fbf50	0.013656452
110	0xbbf2032f	-0.0073856334
111	0xbaaeab40	-0.0013326183
112	0xbb7f239a	-0.0038931132
113	0xbccf280c	-0.02528765
114	0xbbac25c0	-0.0052535236
115	0x3bb92ce0	0.0056511015
116	0xbcea8f00	-0.02863264
117	0xbc376fbe	-0.011196075
118	0x3b1eef7b	0.0024251628
119	0x3af9b2e6	0.0019050508
120	0x3c4706d9	0.012147629
121	0x3bc2b83d	0.005942373
122	0x3bb1f3b7	0.0054306644
123	0xbbabb175	-0.0052396604
124	0xbc9ebaf6	-0.01937626
125	0x3bcb881a	0.006211293
126	0x3cb03711	0.021510633
127	0xbc7decd5	-0.01549836
128	0xbc046198	-0.008079909
129	0x3c44f0d7	0.012020311
130	0x3cbe4ccd	0.02322998
131	0x3c53b0bf	0.0129205575
132	0x3ba49d90	0.0050236657
133	0x3c0509f0	0.008120045
134	0x3c52fc00	0.012877464
135	0xbc0bbfbb	-0.008529599
136	0xbb817f2d	-0.003951928
137	0x3bc9997a	0.006152329
138	0xbbc0c3f4	-0.0058827344
139	0x3bb1cb5c	0.0054258537
140	0xbc151b27	-0.009100712
141	0x3c905924	0.01762063
142	0xba79f60a	-0.0009535259
143	0x3bba8db8	0.0056931637
144	0xbbdc1c7d	-0.0067172633
145	0xbbaa9d99	-0.0052067754
146	0xb96e9c7f	-0.00022755748
147	0xbbc30c02	-0.005952359
148	0x3b8dd9c4	0.004328938
149	0x3b059ed7	0.0020388865
150	0x3c13cf2b	0.009021561
151	0xbc78bee0	-0.015182227
152	0x3bd44b5d	0.0064787106
153	0x3bf9483c	0.007607488
154	0xba5dd7db	-0.0008462646
155	0xbb7ba5b7	-0.0038398334
156	0x3b7f481c	0.0038952893
157	0x3bb513f5	0.0055260607
158	0xbb75f151	-0.003752787
159	0x3b98215e	0.0046426496
160	0xbb968adf	-0.0045941914
161	0x3aaa9b96	0.0013016339
162	0x3b145a4b	0.0022636827
163	0xba8af1c8	-0.0010600621
164	0x3c05e5c4	0.008172456
165	0xbc367cb9	-0.011138135
166	0x3c194cda	0.009356702
167	0x3b39d055	0.0028352935
168	0x3c7fb0c3	0.015606108
169	0xbc39c663	-0.011338803
170	0xbb8f2d0e	-0.0043693846
171	0x3ba1a6ef	0.00493323
172	0x3c21621b	0.00985005
173	0x3c24c32a	0.010056296
174	0xbba2abb6	-0.004964317
175	0xbc446ce6	-0.011988854
176	0xbadb0a32	-0.0016711412
177	0xbc331702	-0.010930778
178	0x3c7c5d41	0.015403093
179	0x3bb3ef8a	0.0054912018
180	0x3bea854e	0.0071570044
181	0x3c25c9ce	0.010118915
182	0xbc3581e2	-0.01107833
183	0x3acc6681	0.0015594513
184	0xbbe72090	-0.0070534423
185	0xbba65ffb	-0.0050773597
186	0xbb39366b	-0.0028261195
187	0x3b636605	0.003469826
188	0x3c00c695	0.007859846
189	0x3c4adab4	0.012381244
190	0x39d24710	0.00040107267
191	0xbc23fd40	-0.01000911
192	0x3c1cb68e	0.009565009
193	0xbc1d56ae	-0.009603186
194	0x3bfd5f34	0.0077322964
195	0x3ba0a7cf	0.004902817
196	0xbb48c0a0	-0.0030632392
197	0xbc0893d4	-0.008336026
198	0xbcdde200	-0.027085304
199	0x3a04eda3	0.0005070811
200	0x3c114df8	0.008868687
201	0x3c4130fc	0.011791464
202	0xbc16ac67	-0.009196377
203	0xbbfa294b	-0.007634317
204	0x3b961ef8	0.0045813285
205	0xbc474375	-0.012162079
206	0x3b82c3a4	0.0039906073
207	0xbbb6f048	-0.005582843
208	0x3bc79a98	0.006091427
209	0x3ae59b10	0.0017517526
210	0xbb1cbfea	-0.00239181
211	0x3b854d39	0.0040680435
212	0xbb56248d	-0.0032675595
213	0xbc301529	-0.0107472325
214	0xbc21026a	-0.009827236
215	0x3bf24f75	0.007394726
216	0xbc0e0e74	-0.008670438
217	0xbb40e8de	-0.0029435675
218	0x3c8cd532	0.017191503
219	0xb7874bda	-1.6128575e-05
220	0xbc78b4a2	-0.015179785
221	0x3b053620	0.002032645
222	0x3ab122af	0.0013514365
223	0xbb22d3f5	-0.0024845575
224	0x3baad917	0.0052138674
225	0xbb62bae3	-0.0034596256
226	0xba9f2fa2	-0.0012144933
227	0x3a4a44c0	0.0007715933
228	0x3c58ef94	0.013240714
229	0x3c00c2d9	0.007858955
230	0xbc837bdc	-0.016050272
231	0xbb8b870d	-0.0042580427
232	0x3b536540	0.0032256395
233	0x3c509aca	0.012732217
234	0x3a99abab	0.0011724135
235	0xbadb2e9c	-0.0016722265
236	0xbb3da7a2	-0.0028939028
237	0xba8b279c	-0.0010616663
238	0x3c4331a5	0.011913692
239	0xbb95499e	-0.004555895
240	0x3c04db36	0.008108905
241	0xbb96628b	-0.004589384
242	0xb9867c14	-0.00025650917
243	0xbb36c444	-0.002788798
244	0x3c252ad1	0.010081009
245	0xbbe5ff15	-0.0070189335
246	0xbbb40e77	-0.0054948884
247	0xbbf6a4e9	-0.007526983
248	0xbbf066cc	-0.007336473
249	0xbaaa6ecc	-0.0013002991
250	0x3c16acb7	0.009196452
251	0xba65f406	-0.0008772019
252	0xba9a3974	-0.001176639
253	0x3aefd72c	0.0018298379
254	0x3bb01155	0.00537316
255	0x3b5e6b51	0.0033938477

cvae_parameters.out_lin_b f4 [120]
0	0xbe34e6f5	-0.17666228
1	0xbe1be721	-0.15224887
2	0xbe520d14	-0.20512801
3	0xbd71efa5	-0.059066433
4	0xbe35ddc5	-0.1776038
5	0xbe2e04ec	-0.16994065
6	0x3ceec65d	0.029147321
7	0xbe65a9d3	-0.22428064
8	0xbdb24986	-0.0870543
9	0xbde5de7d	-0.11224077
10	0xbd18a693	-0.037268233
11	0xbd2c404f	-0.042053517
12	0x3dd267bd	0.10273693
13	0xbe263823	-0.16232352
14	0xbcc134b6	-0.023584705
15	0xbdee7d7a	-0.116450265
16	0x3dd9fb7c	0.1064367
17	0x3cabcf9d	0.020973021
18	0x3cbb121c	0.022835784
19	0xbdfd5c5a	-0.1237113
20	0x3d81a7ee	0.06330858
21	0xbcdc37f1	-0.026882144
22	0x3dff28a6	0.12458925
23	0x3dc34d7b	0.095362626
24	0xbdb76bcd	-0.08956108
25	0xbcf27276	-0.029595595
26	0x3e3003ac	0.171889
27	0x3d40c8ec	0.047066614
28	0x3d5f2407	0.054477718
29	0x3e226ded	0.15862246
30	0xbe60a4fc	-0.21937937
31	0x3bb6d79e	0.005579903
32	0x3e4a15d4	0.1973489
33	0x3dd99ba9	0.10625393
34	0x3c5612d0	0.013066009
35	0x3e0f28bc	0.13980383
36	0xbe7378ff	-0.23776625
37	0xbe1872eb	-0.14887588
38	0x3e092217	0.1339191
39	0x3cd581dc	0.026062898
40	0x3d88142d	0.06644473
41	0x3d5e7153	0.054307293
42	0xbc807a0e	-0.0156832
43	0xbe837e82	-0.25682455
44	0x3d83e91f	0.06440949
45	0xbc82ab60	-0.015950859
46	0x3dbc511c	0.09195158
47	0xbc9003ad	-0.017579878
48	0x3e504359	0.20338191
49	0xbe85b074	-0.26111186
50	0xbb89a5b1	-0.00420066
51	0xbe255e24	-0.16149193
52	0x3acdb1dc	0.0015693265
53	0x3c9e7652	0.019343529
54	0x3e1e4347	0.15455352
55	0xbe5001c4	-0.20313174
56	0xbdf30395	-0.118659176
57	0xbe7a7310	-0.24457955
58	0x3d5b1a41	0.053491835
59	0x3d77297a	0.06034229
60	0xbd487338	-0.048938006
61	0xbe0b8263	-0.13623957
62	0xbe248baa	-0.16068903
63	0xbe4d0796	-0.20022425
64	0x3dcc4c4a	0.099754885
65	0x3c92ca4c	0.017918728
66	0xbe5ad623	-0.21370749
67	0xbc8ff766	-0.017574023
68	0xbda06286	-0.07831292
69	0xbdb31997	-0.08745115
70	0xbbbc324a	-0.0057432996
71	0xbe10f4a0	-0.14155817
72	0xbe3b59c6	-0.18295965
73	0xbc229beb	-0.009924869
74	0x3e0bea65	0.13663633
75	0x3cd4bff8	0.025970444
76	0xbe1eedf8	-0.15520465
77	0xbeb2514f	-0.3482766
78	0x3d3f1b82	0.046657093
79	0xbdbba10d	-0.091615774
80	0x3e4232f6	0.18964753
81	0xbd335b9b	-0.043788534
82	0xbe8e8855	-0.27838388
83	0xbe9b6792	-0.30352455
84	0x3e122b08	0.14274228
85	0xbe1c7598	-0.15279233
86	0xbb21b4eb	-0.0024674486
87	0xbe178b8e	-0.1479933
88	0xbe81c3d9	-0.25344732
89	0xbd88b81d	-0.06675742
90	0x3e256d4e	0.16154978
91	0xbd7dda18	-0.06197557
92	0xbe00f10b	-0.1259195
93	0xbe7c0905	-0.24612816
94	0xbd5bf51a	-0.053700544
95	0x3df27df7	0.11840432
96	0x3c8228dd	0.015888626
97	0xbd98505d	-0.07437203
98	0xbd9dba04	-0.07701495
99	0xbe4e561a	-0.20150033
100	0x3d976b8f	0.07393562
101	0x3e769bd5	0.24082883
102	0xbd8ae02a	-0.06781037
103	0xbe324d54	-0.17412311
104	0xbd9e4956	-0.077288315
105	0xbd9ec27f	-0.07751941
106	0xbd7b1b27	-0.06130519
107	0x3ddcc51b	0.107797824
108	0x3d062d36	0.03275796
109	0xbe57e080	-0.21081734
110	0xbd18abac	-0.037273094
111	0xbe05eaa0	-0.13077784
112	0xbe278e6b	-0.16362922
113	0x3d6e7fcb	0.05822734
114	0xbdcc9191	-0.09988702
115	0xbe0de5c9	-0.13857187
116	0xbe38467f	-0.17995642
117	0xbd07505d	-0.033035625
118	0xbe2d265c	-0.16909164
119	0xbdca7edc	-0.09887478
