dlpg/13/weights/dlpg_model_weights_300.pth (torch, 354171 bytes, 14 tensors)

cvae_parameters.dec_00_lin_b f4 [128]
00000000: d596 a8bd feed a53d c883 89bd 2c70 f0bd
00000010: 75e3 48bc b2a1 95bd 07fc 38bd 7a62 e8bd
00000020: fe69 93bd 5d83 a3bd 3281 b1bd 1809 96bd
00000030: b568 c4ba 7143 f7bd 04ec 01be 5813 06be
00000040: 4830 00be 1eb9 0fbe feef d6bd 10b0 61bd
00000050: b59d cbbd 76f4 eebd 5635 ebbc 4cdc babd
00000060: ce48 f9bd 9424 d1bd af39 13be e639 04be
00000070: c245 d4bd 331c b7bd 9f35 76bd baf6 a6bc
00000080: cb1d eabd 4b3a f53d ad2d fd3d 77ed acbd
00000090: 7dbd 52bd 9a5c 7cbd 94d8 f0bd d9ab c1bd
000000a0: a8b1 babd 1735 ea3c 6b70 a4bd e9a4 ddbd
000000b0: 64bf ddbd f4d7 73bd 974d 10be b5c1 6dbd
000000c0: 8286 debd 2cef c9bd 3848 c7ba 7fc2 903e
000000d0: 46f9 20be 457d 62bd c179 0fbe c03e b0bd
000000e0: 0663 fbbd 77e2 e3bc de31 e1bd b847 77bd
000000f0: 0b96 92bd 45e1 883d 5f80 c8bd 0548 debd
00000100: 0dc8 acbd 6689 a0bd 29a3 d1bd 7425 fcbd
00000110: fa42 cfbd d89b 6dbd 48f1 d1bd 6dbf c6bd
00000120: 0f42 813e f85f d5bd 039b 6cbd c070 5abd
00000130: 6f7f b2bd cd3a f0bd d6c5 a6bd b35d efbd
00000140: b0ca a1bd ada3 d0bd b56d aabd cb4b 173e
00000150: b945 06be 3e37 8ebd 1632 98bd 8121 acbd
00000160: f4b3 603e c261 dabd 0a3c 0abe 139b 04be
00000170: 03c9 0abe ddd5 edbd 553e f0bc 061c cbbd
00000180: 46d2 98bd e61c 11be 4026 4cbd e231 6fbd
00000190: 6d52 9ebd 2439 dfbd eba5 9fbd 9044 ce3c
000001a0: 0082 ffbd 3f28 f6bd 6ffa dcbd 1e67 e1bd
000001b0: 890b 3f3e 6e05 08be 7867 b2bd ba4b f4bd
000001c0: 84a6 91bd f97c fbbd 136e 08be dbe2 f2bd
000001d0: 0111 a1bd 5fc0 3cbd 6099 a7bd bfe9 ffbd
000001e0: f074 02be c9f2 0abe c775 0abe 8981 85bd
000001f0: e9e8 fabd 5567 cabd 962e ddbd c27b 82bd
-0.08231894 0.08102034 -0.067145884 -0.11740145 -0.012261261 -0.073062316 -0.045162227 -0.11346908
-0.07197951 -0.0798404 -0.0866722 -0.07325953 -0.0014984818 -0.1207341 -0.12687689 -0.13093317
-0.12518418 -0.1403546 -0.104949936 -0.055099547 -0.099421896 -0.11667721 -0.028711956 -0.091240495
-0.121720895 -0.10212055 -0.14377473 -0.12912712 -0.10364868 -0.089409254 -0.06010973 -0.02038132
-0.11431464 0.11974009 0.123622276 -0.0844373 -0.05145024 -0.06161175 -0.11760059 -0.094566055
-0.091159165 0.028589768 -0.080292545 -0.1082247 -0.108275205 -0.05953212 -0.14092098 -0.05804606
-0.10865499 -0.098600715 -0.0015204018 0.2827339 -0.1572009 -0.055295248 -0.14011289 -0.086057186
-0.122747466 -0.027817948 -0.109958395 -0.06037113 -0.07157525 0.06683592 -0.0979011 -0.108535804
-0.08436594 -0.07838707 -0.102361985 -0.12311831 -0.10120197 -0.058009952 -0.10251099 -0.0970448
0.2524571 -0.10418695 -0.05776502 -0.053330183 -0.08715712 -0.11729965 -0.08143203 -0.116877936
-0.07899988 -0.10187469 -0.08321706 0.14775006 -0.13112535 -0.0694413 -0.07431428 -0.08404828
0.21943647 -0.10663177 -0.13499466 -0.12949781 -0.13553242 -0.11613057 -0.029326597 -0.099174544
-0.074619815 -0.1417118 -0.049841166 -0.05839718 -0.07730565 -0.108995706 -0.07795318 0.025179178
-0.124759674 -0.12019395 -0.10789954 -0.11005996 0.18656744 -0.13283321 -0.08711141 -0.11928506
-0.071118385 -0.12279696 -0.1332324 -0.118596755 -0.07864571 -0.046081897 -0.08183551 -0.124957554
-0.1273992 -0.13569178 -0.13521491 -0.065188475 -0.12251455 -0.0988299 -0.10799901 -0.06371261

cvae_parameters.dec_00_lin_w f4 [128, 35]
00000000: 0476 883b 3b4b 9b3b 6d91 b03a 2f13 cb3b
00000010: 0be6 3f3c 21ec 14bc 1cbe e83a 5f16 523b
00000020: 4c2b d43c 6fd1 853c cfaf 5d3c b639 1dbc
00000030: 6362 1d3c e109 223c 0d9a 953b 8b90 f6ba
00000040: 9bb7 a83c cb53 adbb bb3f acbb 39b9 6ebc
00000050: 0557 3a3c d78e 7d3a fe95 9cbb 88dd 24bc
00000060: f35b ad3c 24f5 633a 07b9 963b 46e7 d53b
00000070: 98bf 3abb 02aa 373b f3a9 283b 8d32 093a
00000080: 786e b9b9 3121 b6bd bbb5 8d3a 4e5b fa3b
00000090: a9f5 123d dbc3 7f3b 5187 7abb eac8 7abc
000000a0: e453 66bb 3a91 cc3b 740b 10bd d24c 72ba
000000b0: 317f 0d3d e7a5 0ebb 22d8 38bd f509 b53c
000000c0: 1e31 d5bb 051a cb3c 6eee d9bb 091b 2fbb
000000d0: 651f 193c e9fa b83b a053 05b9 3447 4d3c
000000e0: 6b24 19bd aef6 9fbc 9991 0b3d c122 3bbc
000000f0: 92f1 5e3d 1a32 85bc b69b 9a3c 4c31 9bbb
00000100: bdcc 37bc bf36 4c3b 8f10 a1bc cb85 7e3b
00000110: a481 ba3d b095 4a3b a740 953b 3eb4 4639
00000120: 2820 d2bb 82ec 14bb f011 d9ba 9ca5 2b3b
00000130: 9c06 1fba ac14 9839 bf2a 91ba ad9b 79bb
00000140: ec91 92bb 109b 043c a214 cf3b e4f9 a7bb
00000150: f317 883c 0ff7 0d3b 0935 a13b ccf1 5f3c
00000160: bd01 8dbb 9816 973c b4e8 4abc 5686 1c3a
00000170: 75fe b0bb 4161 13bc 30bd 853b c1ad f9bb
00000180: f3b9 f0bb 2168 863a 6586 8a3b c2a6 053c
00000190: d437 afba bb22 37bb a5c9 103c d44e 6ebd
000001a0: d707 2cbb 76c6 9aba 40d1 433c 9e87 dc36
000001b0: 452a c83b 6c50 3abc 5554 0dbd 850d 9ebc
000001c0: 344a 973c 0f0a e53a 21f7 12bd 035a 0b3c
000001d0: 1c9e 743c fbdf 393c 345b 1cbc 15e6 94bb
000001e0: 1bdc 1b3c 22d8 9f3c 80c1 02bb 0dcf 413b
000001f0: 5299 a7bb 1b96 05bc 9d24 01bc 818e 213c
00000200: c130 a4bc 0d5f 0bba 9d0e 19bc db27 8c3c
00000210: f67d 333c 83c9 20bd 232f a5bb 7544 0bbd
00000220: 5c9d 68bb 6212 c43c d2be e8bd f6c4 163c
00000230: f408 2bbc 1b1d ccbc 2f52 5e3d 3b19 cabb
00000240: f208 963b 291b 063c 51fa 2c3d 16ee 9dbc
00000250: 561a 07bc 4559 c2bc e816 923d b0e3 a4bc
00000260: c8df 82bb 2117 8d3b ad27 31bd 56b4 923c
00000270: e087 9abc a2ed 4dbc 15ab 9939 e74f 7e3c
00000280: 74f6 15bb 0483 8bbc 6c31 1abc 321b 023c
00000290: 9ba3 0bbd 4053 cabc 6829 333d 9f4c 4b3b
000002a0: 89d8 7ebb 2406 1bbd 9789 1fbc 019d a8bb
000002b0: 8fc6 293b c7bb 06bc b921 30bb ea8d 9d3c
000002c0: ad75 6dbc f6dd 83bc 12dd e53b 7c92 85bb
000002d0: f9d1 27bb d9a2 0abd 801d a53c 8859 6dbc
000002e0: 4f27 5d3b f748 063c d9fc 0b3d 8f9a 34bc
000002f0: 0be4 48bc 987a 8bbc 884f 69ba 83d8 babb
00000300: 79d8 a33c 2ad5 d93c 4db5 9e3a 43dd 033c
00000310: 6a22 23b9 1cf2 353c 36cd 0cbd fde2 e03b
00000320: a690 363b a713 59bc 51e9 8fbc 13f6 843c
00000330: 46b9 0abc ac66 71bc bc4d be3c c685 fe3b
00000340: a638 7fbd e6ba efbb cd20 be3b 7aaa c6bb
00000350: a391 8f3a d234 43bb 7adf f93b 852a 70bc
00000360: a14e 823b 1ba4 d9bb d548 8ebb 0a19 c63b
00000370: 29bf debb 6ff7 14bc 0434 2dbc 4b8a dbbb
00000380: 9afb 3dba 7812 163b 6ab3 443c dbdc 443b
00000390: 231a f8ba bb31 60bc 61cf 0e3a 1394 62bc
000003a0: af0e 263b 9e67 8bbb 77d5 2e3c 229a f7bb
000003b0: 8031 fd3b b804 7cbb 61c6 c43b 5a91 293c
000003c0: 622e ba3a b970 cf3a 186f 983b 980f 77bd
000003d0: 1918 9e3c b92a 98bc 79ce 023c a1ff 433b
000003e0: cfdd ea3b ab57 e33b 0be5 21bc 8d45 f6ba
000003f0: 7d50 813d fb12 6a39 4ce4 153d 4190 dc3b
0.004164459 0.004739193 0.0013471075 0.006197355 0.011712561 -0.009089501 0.0017756852 0.0032056791
0.025899552 0.016335217 0.013530686 -0.009596279 0.009605977 0.009890051 0.0045654834 -0.0018811388
0.020595362 -0.00528953 -0.0052566207 -0.014570528 0.011373286 0.0009672469 -0.0047786226 -0.010062583
0.021162009 0.00086958916 0.0045996937 0.006527814 -0.0028495546 0.0028024917 0.0025736063 0.0005233668
-0.00035368255 -0.088930495 0.0010811606 0.007640279 0.03587881 0.003902665 -0.0038227628 -0.015306691
-0.0035145218 0.0062428983 -0.035167173 -0.00092430145 0.034545127 -0.0021766366 -0.045127995 0.022099474
-0.0065060994 0.02479268 -0.0066507375 -0.0026718995 0.009345864 0.005645145 -0.00012715021 0.012529183
-0.037388247 -0.019526806 0.0340744 -0.01142186 0.0544296 -0.016259242 0.018873077 -0.0047361013
-0.011218247 0.003116056 -0.019661216 0.003883707 0.09106758 0.0030911975 0.0045548263 0.00018949897
-0.0064125247 -0.0022723977 -0.0016561132 0.002619124 -0.00060663535 0.000290071 -0.0011075361 -0.0038087175
-0.0044729616 0.00809361 0.0063195983 -0.005126225 0.016612982 0.002166215 0.0049196524 0.013668489
-0.0043031857 0.01844339 -0.012384582 0.00059709453 -0.0054014274 -0.008995355 0.004081391 -0.00761959
-0.0073463856 0.0010254422 0.004227447 0.008157434 -0.0013368079 -0.0027944285 0.008837138 -0.058180645
-0.002624979 -0.0011808414 0.011951745 6.572299e-06 0.0061085545 -0.011371713 -0.034504253 -0.019293556
0.018468 0.0017474311 -0.03588021 0.008505347 0.014930274 0.011344905 -0.009543229 -0.0045440295
0.009512926 0.01951224 -0.001995176 0.0029572875 -0.0051147128 -0.008153464 -0.007882264 0.009860636
-0.020042779 -0.0005316593 -0.009341863 0.017108848 0.010955324 -0.039254677 -0.0050410195 -0.034000833
-0.0035494184 0.023934547 -0.11364521 0.009202233 -0.010439146 -0.024916222 0.054277595 -0.0061675585
0.004578703 0.008185186 0.042230908 -0.019278567 -0.008246025 -0.023724208 0.07133275 -0.020128101
-0.003993962 0.0043057357 -0.04325073 0.017908257 -0.018863618 -0.012568863 0.000293099 0.01552198
-0.0022882493 -0.017030247 -0.009411197 0.007941054 -0.034091573 -0.0246979 0.04374066 0.0031021012
-0.003888639 -0.037847653 -0.009737394 -0.0051456694 0.0025905704 -0.008223481 -0.002687557 0.019232709
-0.014493388 -0.01609705 0.007014879 -0.0040763 -0.0025607331 -0.03384671 0.020155668 -0.014486678
0.0033745354 0.008196107 0.03417668 -0.011023178 -0.012261401 -0.01702623 -0.00089000957 -0.0057020797
0.020000683 0.026590902 0.0012108475 0.008048358 -0.00015557712 0.011105087 -0.034375392 0.0068629966
0.0027857213 -0.013249314 -0.017567309 0.016230619 -0.008467024 -0.014733952 0.023230426 0.007767412
-0.062309884 -0.007315981 0.00580225 -0.006062803 0.0010953437 -0.0029786122 0.0076255174 -0.014658575
0.0039766585 -0.0066418773 -0.0043421783 0.0060454654 -0.0067976904 -0.009092196 -0.0105714835 -0.0066998354
-0.00072472694 0.0022899192 0.012005666 0.0030038867 -0.0018928688 -0.013683732 0.0005447772 -0.013829249
0.0025338342 -0.0042542955 0.010671011 -0.007556216 0.007726848 -0.003845496 0.006005094 0.010349596
0.0014204497 0.0015826441 0.0046519153 -0.060317606 0.0192986 -0.01857506 0.007983797 0.0029907005
0.007167555 0.006937941 -0.009881268 -0.0018789038 0.0631418 0.0002232305 0.036594674 0.0067310636

cvae_parameters.dec_01_lin_b f4 [128]
00000000: 6425 bf3e 415c b2b9 e749 ee3c f9b8 c73d
00000010: 9478 18ba f290 73bb 0b60 9fbb 3a4f 28bb
00000020: 8b30 aabb e3ab dbbb fada 9cbb 6014 153e
00000030: 7d65 cdbb f6f1 c9ba 8ada c5b9 d71c 08bc
00000040: fbd1 9dbc 1ddf 61bc 2494 ad3a 58ef e5bb
00000050: 55b0 2f3d bd8f 163d 8c9a c5bb 4b61 74bc
00000060: 4d43 1a3d f606 6cbc 7010 c8ba 41a9 0cbc
00000070: 4f03 6d3d 4e15 823e b15f 6ebc 36c0 ccbb
00000080: 7a49 0f3d dac3 b1bb c84e d13c 71b8 10bb
00000090: 2b50 95bb ea3b d1bb 0dc1 3a3e 1e02 3f3c
000000a0: 9903 e2bb 7779 5abb 2281 c53c 8a9f 70bb
000000b0: c8e3 4e3b 3162 ee3b 3afb a23b 8828 263d
000000c0: cda6 c33d ecd4 2cba f9a6 073e 5a40 b4bb
000000d0: 0b9f 213d 0147 483e e4fa 90bb 3ca3 d43d
000000e0: 6939 5abb ff94 ab3e 4ee3 d7bb 65e8 c2bc
000000f0: 6322 48bc 3261 9fbb cecc 6dbb 4262 8e3b
00000100: 90ed 9bbb 8334 d83c 3e71 0dbc 87fa 5f3d
00000110: e69c eb3d 8827 5f3d af80 48bb d086 38bb
00000120: f38d 093e 157d 2c3d ed56 5ebc 17ec 46ba
00000130: b779 893d b32c 0ebc 039f a0bc 1ed7 12bb
00000140: a4fb 553d 04bd 95bc 824b 2d3b 6750 8ebc
00000150: 215f 10bc c199 52bb 038a 1c3c 0ce8 db3c
00000160: aba4 eebb e64e 88b9 60c2 b4bb c1cf 9cbb
00000170: ac98 943d 38af 953d 90be 6e3d 1036 99bc
00000180: 4c61 cfbb 1b9d 43bb 9be3 3a3d 3399 9bbc
00000190: 0d76 2f3b 8610 a3bb 4e61 013d e75b 7c3e
000001a0: 68eb a1bc 758f 343c 3dc3 c5ba 6ae0 4d3d
000001b0: 3a2b 8e3d d765 3bbc fa98 8ebc d979 9bbc
000001c0: a248 15bb 9825 9dbc 60be 0c3e 63a0 983e
000001d0: d045 6aba 4827 b03a 2e2b 0bbc 60be 51bc
000001e0: 5bea 89bc 74b9 b23c f53d 7bbc 1488 75bc
000001f0: 8f52 b63a d1e3 c3bb 5766 7dbb 63c8 173c
0.37333214 -0.0003401954 0.029087974 0.097520776 -0.00058163074 -0.0037165252 -0.004863744 -0.0025681988
-0.005193775 -0.00670384 -0.004786846 0.14558554 -0.006268202 -0.0015407193 -0.00037737592 -0.008307657
-0.019265166 -0.0137861045 0.0013243002 -0.0070170574 0.042892773 0.036758173 -0.0060303863 -0.014915775
0.03766184 -0.0144059565 -0.0015263688 -0.008585275 0.057864483 0.2540688 -0.014549182 -0.0062484993
0.034982182 -0.0054249587 0.025550261 -0.0022082592 -0.004556676 -0.006385316 0.18237706 0.01165822
-0.0068974015 -0.003333656 0.024109427 -0.0036716186 0.0031568874 0.007274889 0.004973796 0.040565997
0.09553299 -0.0006593007 0.13247289 -0.0055008354 0.039458316 0.19558336 -0.0044244397 0.10382697
-0.003329838 0.33512112 -0.006588376 -0.023792455 -0.01221523 -0.0048638815 -0.0036285403 0.0043452093
-0.0047585443 0.026392227 -0.008632956 0.05468228 0.115045354 0.05448106 -0.003059428 -0.0028156526
0.13433056 0.042111475 -0.013570529 -0.0007588281 0.067126684 -0.008677649 -0.019607073 -0.0022406052
0.052241936 -0.018278606 0.0026442711 -0.017372323 -0.008811743 -0.0032135102 0.009554389 0.026844047
-0.0072828135 -0.00025998725 -0.0055163354 -0.0047855084 0.07255682 0.07308811 0.058287203 -0.018702537
-0.0063287374 -0.002984828 0.045627218 -0.01899395 0.0026773245 -0.004976335 0.031586938 0.24644433
-0.01976557 0.011020531 -0.0015088093 0.050262846 0.069418386 -0.011437855 -0.01740693 -0.018979
-0.0022778888 -0.019182965 0.13744497 0.29809865 -0.00089367945 0.0013439441 -0.008494182 -0.012801737
-0.016835382 0.021816947 -0.015334596 -0.014986057 0.0013910102 -0.0059780856 -0.0038665736 0.0092640845

cvae_parameters.dec_01_lin_w f4 [128, 128]
00000000: 65bf f2bc 84c2 8d3c 78a8 033c 1e39 333c
00000010: 8015 a23b 6825 ae3b c26d 803b 16f1 b4bc
00000020: c27e 08bc e406 42bd 2777 63bc a546 5e3b
00000030: fbe9 c03b 05f8 92bc 857a 05bd 97d4 6cbd
00000040: e81a d4bc fc43 e5bc ca17 a63c 2940 ab3b
00000050: 94ac 0ebd b6bd f03a d801 503b 19bd f7bc
00000060: d48c 05bc a7e5 2dbd 9be5 e7bc 57ed e7bc
00000070: e8be 84bd a096 41bc fde7 60bc 0985 573b
00000080: 1352 72bd 3094 343d 7804 bf3c ccbd 81bc
00000090: cded 60bc fd5b 62bc 7e51 f5bc e678 95bc
000000a0: 7cff 223c 9ee2 e13b ba5a adbc b9f8 09bd
000000b0: e819 4ebc 830e 983b 08fa debc 5adf 593b
000000c0: 3747 8bbd 9dd0 e3bc 93b1 7ebb efe2 e33d
000000d0: 7ada 12bd 9128 073c 7f4c 3cbd d98b 33bb
000000e0: 39e2 8ebc bb16 5c3b 828e d2bc 8e3a 5b3b
000000f0: 5038 d1bb 4d8e ae3c 9a5b 36bc db75 31bd
00000100: 0bda 42bc 7ce3 90bc b8c5 c1bc 7571 29bd
00000110: 82f0 00bd 3b32 673c 4fb3 debc b283 d6bb
00000120: ff9a 9f3d 6033 a7bc c60d 7abc a61d 2bbc
00000130: 3000 8bbc 3df5 efbc 5e20 a8bb 9f9f 8d3b
00000140: 98fa 82bc 82b3 fbbc 0141 df3c a6da 2d3d
00000150: 79e5 a0bc e280 2fbd a0c0 1c3b 467f 6abc
00000160: cb11 a63d e0aa aebb b9e0 71bd 20eb 83bd
00000170: 88c5 f8bc 36be f8bc c9bd 6a3b 7091 7fbc
00000180: ee0c 65bd d332 94bc fe51 05b8 a314 1cbc
00000190: 0084 833b efc8 b8bd 121e ecbb 4b3b 9b3b
000001a0: 1770 27bd 6b96 f33b d50a 12bd 0a31 acbc
000001b0: 5bfd 563d 6aef bbbc 0b20 13bd 3a05 383a
000001c0: d302 8abc bdd2 3cbd 165f 41bd b7ea 60bd
000001d0: dfb3 f5bc a2dc 243a ff00 16bd e9bb 47bd
000001e0: 2cb4 4cbd 53b4 1abc d68b 31bd ea17 d7bc
000001f0: 90c7 93bc 82cb edbc f0f2 96bc d18e 4dbc
00000200: a6f1 43bc 2dd5 82bc 45c9 28bc e5b9 1ebd
00000210: b65c e3bc 1414 07ba 701b 00bc e9c9 46bc
00000220: f1a8 a8bb 7857 bbbc 221d 36bc 0d78 b9bb
00000230: d24e f6bc ede3 9fbc 0480 fcbc 802f 15bd
00000240: 80e0 62bc a4ad 0abd 4dc7 00bd 4e5d f8ba
00000250: a5b8 0abd c707 7fbc 81ae 98bc 506f abbc
00000260: fbe3 babc 9ace 603b 4389 303b b912 86bc
00000270: 3c43 21bd 3af1 3abb 9cff 08bc 8216 d7bc
00000280: 11ff e4b7 2a11 b1bc 6848 1fbd 522a f8bc
00000290: e295 5bbc fbe1 b43c ebe1 c8bc 1b65 a5bc
000002a0: 89ef b4bc 2231 92bc ab32 843b 272a 0abc
000002b0: 5654 ecbb 2b49 49bc bdcc 7fbb feb3 09bc
000002c0: 9809 78bc b3ed d03b 96db 993b 83e1 a4bb
000002d0: 9567 a13a fe23 3e3c de44 b83b e2f3 10bd
000002e0: dc76 94bb c7dc d83a 6af1 11bd 65a9 e9bc
000002f0: 32e4 ad3b aba3 813b 57ab 25bc 9271 32bc
00000300: cc93 c0bc b028 a1bc c09a 9abc da1d d2bc
00000310: 4f5d 11bd 24fd 9cbb 6125 d7bc 9284 35bc
00000320: 5775 4dbd 4c28 38bd 3619 5ebb 3856 adbc
00000330: c1c5 2ebd dc60 0abd a6c4 3bbb 1290 59bc
00000340: 6fc6 dcbc f139 e6bc ff56 0fbb 9795 e1bc
00000350: e6aa fbbc fee5 3bbd 9413 85bc b617 39bc
00000360: 8d13 8bbb 3070 c7bc 864b ecbc 29fe acbc
00000370: 5514 aebc 94fe 34bd 5e3e 75bc b207 0bbd
00000380: 4134 b0bc 27e8 dabb bc2a 2c3c cb8d f2bc
00000390: 5fc4 b2bc 4271 dcbc 1a56 18bb 9e19 9e3b
000003a0: cda0 fbbc bec1 c13c 8c1a a2bc 07ab 63bc
000003b0: 21f8 dcbc 7856 a23c e515 3bbb cb96 68bc
000003c0: aef9 c1bb 9e35 e7bb be3f fcbc 864f a1bc
000003d0: c6b7 8dbc 4551 1cbc b8a7 8dbc 47ee 88bc
000003e0: 865b 4c3b f387 a2bc 29c8 d9bc b315 8abc
000003f0: 2477 dfbc 6b8c ba3b e985 cc3a c52d 543a
-0.02963228 0.017304666 0.008035772 0.010938911 0.0049464107 0.0053145178 0.003919334 -0.022087615
-0.008331003 -0.047369853 -0.013883389 0.003391662 0.0058872676 -0.01794053 -0.032587547 -0.05781993
-0.025891736 -0.027986519 0.020275015 0.0052261543 -0.034832552 0.0018367085 0.003173938 -0.030241536
-0.008151252 -0.04245534 -0.028307727 -0.028311415 -0.06481725 -0.011815697 -0.013727185 0.0032885692
-0.059160303 0.044086635 0.02331756 -0.015837573 -0.013728571 -0.013815877 -0.029946085 -0.018246125
0.0099486075 0.00689347 -0.021161426 -0.033684466 -0.012579419 0.004640402 -0.027218834 0.00332447
-0.068006925 -0.027809436 -0.0038863167 0.111272685 -0.035852887 0.008249418 -0.04597139 -0.0027396588
-0.017441856 0.0033582884 -0.025702719 0.003345165 -0.006384887 0.021308089 -0.011130238 -0.043325286
-0.011892806 -0.017686598 -0.02365385 -0.041367967 -0.031479366 0.014111097 -0.02718511 -0.006546461
0.07793235 -0.02041024 -0.015262073 -0.01044408 -0.016967863 -0.029291743 -0.0051308116 0.004322007
-0.015988633 -0.030725244 0.027252676 0.042444848 -0.019640671 -0.04284752 0.0023918524 -0.014312571
0.081088625 -0.0053304285 -0.059052203 -0.06441331 -0.030367628 -0.030364137 0.0035818687 -0.01559864
-0.055920534 -0.018090641 -3.1786032e-05 -0.009526405 0.0040135384 -0.090227 -0.007205733 0.004737293
-0.04087838 0.0074337027 -0.03565486 -0.021019477 0.052487712 -0.02294131 -0.03591923 0.0007019822
-0.01684705 -0.046099413 -0.04720982 -0.05491134 -0.029992996 0.00062889804 -0.036622044 -0.04876319
-0.049976513 -0.009442407 -0.04334625 -0.02625652 -0.018039495 -0.029027704 -0.018426389 -0.012546257
-0.011959469 -0.01597079 -0.010301893 -0.0387515 -0.027754169 -0.0005152833 -0.007819042 -0.0121331
-0.0051470925 -0.022868857 -0.011115344 -0.005660063 -0.030066881 -0.019517863 -0.030822761 -0.036422253
-0.01384747 -0.033857003 -0.031440068 -0.0018948705 -0.033867497 -0.015565819 -0.018637897 -0.020927101
-0.022813788 0.0034302832 0.0026937283 -0.01636635 -0.03937076 -0.002852513 -0.008361723 -0.02625585
-2.7298493e-05 -0.02161463 -0.03888741 -0.030293617 -0.013402434 0.022080412 -0.024521789 -0.020189812
-0.022086876 -0.017845694 0.0040343604 -0.008432901 -0.007212202 -0.012285511 -0.0039031946 -0.00840473
-0.015139006 0.006375992 0.004695366 -0.005031766 0.0012314195 0.011605261 0.005623444 -0.035388835
-0.0045307707 0.0016545289 -0.03563062 -0.028523156 0.005306744 0.0039562783 -0.010111651 -0.010891335
-0.023507975 -0.019672722 -0.018872619 -0.025649 -0.035489377 -0.004790919 -0.02626294 -0.0110789705
-0.050160732 -0.044960305 -0.0033889539 -0.021159276 -0.04266906 -0.03378378 -0.0028651147 -0.013278978
-0.02695009 -0.0281038 -0.0021871922 -0.02753715 -0.03072114 -0.045873635 -0.016244687 -0.011297157
-0.004244274 -0.024345487 -0.028844606 -0.021117287 -0.02124993 -0.044188097 -0.014968483 -0.033942886
-0.021509292 -0.0066805067 0.010508236 -0.029608628 -0.021822153 -0.026909474 -0.002324468 0.004824831
-0.030716324 0.023651954 -0.01978805 -0.013895757 -0.026973786 0.019816622 -0.0028546986 -0.014196108
-0.0059196567 -0.007055952 -0.030792113 -0.01969124 -0.017299544 -0.009540861 -0.017291889 -0.016715182
0.0031182482 -0.019840216 -0.026584702 -0.01685605 -0.02727849 0.0056930087 0.0015603873 0.00080939784

cvae_parameters.enc_00_lin_b f4 [128]
00000000: bc7e d8ba 4ca3 4fbb c20a 80b9 0f82 85ba
00000010: 3af8 92ba aefa 77ba 7529 50bb 56c0 c3ba
00000020: d7dc c8ba c440 a1ba 2b5b 95ba 7725 b8ba
00000030: b9ff ccba b4d6 e6ba 08b7 abba d364 2f38
00000040: e094 8ab9 d93c 72ba 820e d8b8 07ad ca38
00000050: e46b 8b39 264b 0cbb feeb 0bbb dcb0 b9ba
00000060: d681 123a 493a f33a 7beb 87b9 4f9d 5e3a
00000070: 47ce 86ba c574 0ebb 89c0 11bb 6afb 03ba
00000080: 7ac8 123a 4545 0abb 357d e9b6 1dea 04bb
00000090: d60d 89ba 3381 f639 a0f8 8cb9 c9bf 0abb
000000a0: 560a 0f39 4c4b b2ba 3ae6 c5b9 d30b 8fb9
000000b0: 7a60 b3ba adc6 21ba f6c3 dcb9 830b 79ba
000000c0: 6b94 0abb 1281 14b9 a58e e5ba b1d7 9dba
000000d0: a393 963a 3190 bbba 35ce cb3a 547f 52ba
000000e0: 4c47 8238 c601 b3ba 5f5c f0b9 dfce beba
000000f0: 9601 51b9 0409 08b9 6499 fbba 9f27 4fba
00000100: 237c 8eba 6b5c f5b9 47e4 5dba de0a afba
00000110: 8b1c 383a ac71 3db9 3a99 b23a b726 0eb9
00000120: 5ff6 5bba de4e 34ba 515b 683a f34b 3eb9
00000130: 25ff 48ba 3b9d 3bbb bfa1 c7b8 24a1 3eba
00000140: 6beb 29bb 0f31 e8ba 860f bfb9 cec2 86ba
00000150: b059 44ba 20e4 9bba 84a9 72ba 32ce acba
00000160: a126 22bb 4cb3 0c3b bf1c d8b9 b3ce 88ba
00000170: f045 3139 0c92 bdba 8268 e8ba b51d e4b9
00000180: 1438 70ba 5851 50bb fc5b 0fba 13dc b5ba
00000190: 68c0 88b9 04ad ba3a 86f2 32b7 32b9 6a3a
000001a0: dd90 4bba a897 caba 5311 44bb 2aeb 92ba
000001b0: 73bd 31bb 1132 d0ba 88c3 3ebb a680 9eba
000001c0: a91f 91ba 4eba 10ba 6c3a f239 c2ed 58ba
000001d0: 233b 353a 192d 90ba 7ac8 14ba 1a75 34bb
000001e0: 6c4a 5cba 4329 70ba 1688 09bb 111e c5ba
000001f0: 478d 3ebb 060e f2b9 f0a4 c3ba 07b9 1aba
-0.0016517262 -0.0031683026 -0.00024422078 -0.0010185855 -0.0011212893 -0.00094596564 -0.0031762992 -0.001493464
-0.0015324604 -0.0012302627 -0.0011394968 -0.0014049251 -0.0015640176 -0.0017611594 -0.0013100812 4.181715e-05
-0.00026432332 -0.00092406344 -0.00010302385 9.6643394e-05 0.0002659253 -0.0021407097 -0.002135038 -0.0014167088
0.0005588805 0.0018556799 -0.00025924653 0.0008492069 -0.0010284864 -0.002173708 -0.0022240004 -0.0005034717
0.00055993313 -0.0021098417 -6.958517e-06 -0.0020281144 -0.0010456394 0.00047017037 -0.0002688812 -0.0021171442
0.00013641393 -0.0013602762 -0.000377463 -0.00027283895 -0.0013685368 -0.00061712676 -0.00042107672 -0.00095003116
-0.0021145593 -0.00014162462 -0.0017513825 -0.001204243 0.0011488091 -0.001430994 0.0015549125 -0.00080298376
6.212163e-05 -0.0013657145 -0.0004584519 -0.0014557502 -0.00019932384 -0.0001297333 -0.0019195494 -0.00079023273
-0.0010870736 -0.00046798898 -0.0008464497 -0.0013354679 0.0007023296 -0.0001806679 0.0013625987 -0.00013556598
-0.0008390899 -0.0006878207 0.0008863705 -0.00018148105 -0.0007667414 -0.0028627652 -9.519187e-05 -0.00072719366
-0.0025927674 -0.0017714816 -0.00036441925 -0.0010281445 -0.0007490171 -0.0011893548 -0.0009256827 -0.001318401
-0.0024742263 0.0021469174 -0.00041220148 -0.0010437578 0.00016906089 -0.0014463081 -0.0017731341 -0.00043509682
-0.000916363 -0.0031786766 -0.0005468724 -0.0013874791 -0.00026083295 0.0014242237 -1.0666094e-05 0.0008953988
-0.0007765422 -0.0015456574 -0.0029917553 -0.0011209 -0.0027120977 -0.0015884062 -0.0029108245 -0.0012092784
-0.0011072058 -0.00055209256 0.00046201365 -0.0008275175 0.0006913414 -0.0010999768 -0.0005675625 -0.0027535618
-0.00084034237 -0.0009161422 -0.0020985655 -0.0015038868 -0.0029075907 -0.00046168285 -0.0014926475 -0.0005902205

cvae_parameters.enc_00_lin_w f4 [128, 163]
00000000: 706d 2fbc e672 46bc 87b8 08bb 00ba a8bb
00000010: 8288 0c3c 297d df3b e6b7 2ebb 8452 b6bc
00000020: 9249 813b 6b88 51bc c708 863b 5b25 333b
00000030: 1ef5 6a3a 40ed 4a3c 1a2e 433c 54c6 72bb
00000040: 6cab 4ebc dc3a 89bc 23a3 d63b 034e f63b
00000050: 6432 b43b 61c1 84bc 8a71 2bbb f377 863c
00000060: cc34 063c 585e cebb b98b 9fb9 889d 183a
00000070: e74f 6e3c bd73 663c 1e25 0d3c 8e07 22bc
00000080: 0925 cfbb 7d56 bfb9 484a 7fbb dce4 ee3a
00000090: 02cd a23b f99f c5b8 a576 bd3b 78ed 7b3b
000000a0: 611a b0ba 0390 e73b df47 3ebb f590 263a
000000b0: 6574 973b 8714 b43c 70c1 66bc 1599 8fbc
000000c0: 54aa d4bb 203f e23b 890d 263c c12a 7a3a
000000d0: e361 27bb 73e3 adbb 49cb d23b f1d8 c5bb
000000e0: aed4 8ebb 52cd a13b 0bd2 743c 78bd 003d
000000f0: 13ef 70bc 9a7f 6cbc 5c29 a13c 72e8 fcbb
00000100: 58d7 b8bb a449 e33b 2f30 423c f78e 273c
00000110: 544d 6dbc c8cd c13c ec31 43bb 996a 7b3a
00000120: eacf 79bc e55c fcbb 3f94 68bb 90e5 d2bb
00000130: e616 30bc 4b0b 263c 1d15 26ba 4336 b33b
00000140: 5762 e739 ab24 9a3b 825b febb 774f 9fba
00000150: 6c2e 0e3c af42 76bb 670a 2b3c 3898 c53a
00000160: b4d4 09bb ba9b aa3c d065 9cbc b79a 33bb
00000170: 7742 25bc 1fc6 17bc d5a0 ab3a cb94 a83b
00000180: d631 863c 34fb 7dbc 711d 5a3b 311f 783b
00000190: 9685 d8bc 94c2 8abc 5330 a6ba bbaf 4d3a
000001a0: 10fd 403b 75c9 0cb9 060c 7a3b 5efe 783b
000001b0: b5a6 963b 41b5 09bc 652b 183c 4c47 40bc
000001c0: 3489 f9ba 0a53 c9bc 0427 9d38 7706 bdba
000001d0: a059 273c c3a5 603b aee0 eebb 07bf 3ebb
000001e0: f705 c9bb 8012 a9bb b02b 9e3c 3627 a0bb
000001f0: 773c 0d3b 8001 383c f9ab 2c3c 931d 503c
00000200: 3114 f8bb 55d2 bebb 9aa4 0fbc 40cf a23b
00000210: e8b7 c43b 0bd9 943b 49e7 a13c 529d 36bc
00000220: af4b b53a af9d 92ba 7221 c9bb b610 52bc
00000230: ecc3 0cbb b0e7 22bc 9531 3bbb 275f fe3a
00000240: 3545 d1ba 3e00 26b8 5a11 353b a599 333c
00000250: a715 1e3b e1a7 843b 4387 c6ba fc05 0bbb
00000260: 2205 223b 612e 08bc f23b 98bc bb5b 013a
00000270: a4d4 e3bb fba3 473b a085 073b be21 343b
00000280: 0775 1e3c 5470 3dbc fea8 453b fae8 8eb6
00000290: 7c09 113c a5b4 88bb af44 c63b 3852 d03b
000002a0: 7f02 413b 3c11 4a3b ed7a 59bb 96bd a43b
000002b0: fb65 96bb f554 2bbc a6e2 353a fe04 57bc
000002c0: c90f 0bb9 9345 0ebb b88a 8ebc 9ce7 baba
000002d0: beb3 143c 478e d639 4a8b 543c 9e83 1c3c
000002e0: cd10 0bbc 5a26 c7bb 78e4 503c c523 903b
000002f0: bf1a bd3b d582 2abc 6e66 7bbc 67dd 21bc
00000300: 5bc3 8bbb 327d c63b 4dc5 a53a 1777 963b
00000310: efe8 e93a cedb 1c3c 9186 b9bb 2f44 413c
00000320: 46d9 0fba 2ce2 1dbc 424c f53a 587d c73b
00000330: a208 e63b d65e 34bc 103f 5e3b 5ff5 8abb
00000340: 463a 4b3c 39b4 d13a d88a 003c 9314 0c3c
00000350: be74 4cbc a949 2d3c 041d ddbb 2327 29bc
00000360: e8c3 293c efef 573c a99b 14bc 7948 c13b
00000370: 5c6f e83a e71a 8ab9 02ae 3abc 8d4f ea3a
00000380: 7e91 39bb 51a0 8c3c 14cb 68ba ac18 9a3b
00000390: 6ad3 7dbb 602d a93b efa0 72bb b097 2dbc
000003a0: eb8b bcb9 a744 76bb ff57 fabb 0881 1f3c
000003b0: 2070 37bc 9290 e93b 0670 243c c21d 7dbc
000003c0: b155 4abc bb46 8ebc 5a12 c5ba b913 16bc
000003d0: b40c 513c 1741 b8ba 2a19 5c3b db30 ebb9
000003e0: fc29 d43a 22ad 233c 7f90 d83b 59ab 3cbb
000003f0: f749 26bc e6dc 023b 65dc 873c 9289 693b
-0.010707244 -0.012112355 -0.002086194 -0.005149126 0.008577468 0.00682034 -0.0026659905 -0.022256143
0.003945538 -0.012788872 0.004090402 0.0027335498 0.0008962917 0.012385666 0.011912847 -0.0037044482
-0.012614112 -0.0167517 0.006550209 0.007516624 0.005499171 -0.016205491 -0.0026160204 0.016414618
0.008191299 -0.0062978677 -0.00030430945 0.0005821814 0.014545417 0.01406568 0.008614806 -0.0098894965
-0.0063215536 -0.00036494798 -0.0038954187 0.0018226164 0.0049682865 -9.423489e-05 0.005781966 0.0038441103
-0.0013435596 0.007066728 -0.0029034538 0.0006353998 0.0046220296 0.021982444 -0.014084205 -0.01752905
-0.0064900313 0.0069044977 0.010135063 0.0009543114 -0.0025540523 -0.005306655 0.006432925 -0.0060378243
-0.0043588495 0.004937806 0.014942656 0.03143069 -0.014705437 -0.014434719 0.019673042 -0.0077181393
-0.0056409054 0.006936269 0.011852308 0.010226957 -0.0144837685 0.023657694 -0.0029784394 0.00095907744
-0.0152473245 -0.0077015036 -0.0035488752 -0.0064360574 -0.010747647 0.010134528 -0.00063355436 0.005469115
0.00044133022 0.004704078 -0.0077623734 -0.001215442 0.00867806 -0.0037576368 0.010439492 0.0015075272
-0.0021031322 0.02082621 -0.019091517 -0.002740545 -0.010086647 -0.009263544 0.0013094196 0.0051446906
0.016381186 -0.015501786 0.0033281709 0.0037860388 -0.026430886 -0.016938485 -0.0012679197 0.0007846315
0.0029447712 -0.00013426489 0.003815414 0.0037993412 0.0045975097 -0.008405031 0.00928769 -0.0117357485
-0.0019038082 -0.024575729 7.4936106e-05 -0.0014421482 0.010214239 0.003427849 -0.0072899675 -0.002910556
-0.0061347443 -0.005159676 0.019307941 -0.004887487 0.0021550932 0.011230826 0.010539048 0.012702364
-0.0075707664 -0.0058234134 -0.008767271 0.004968554 0.0060033686 0.004542475 0.019763606 -0.0111459065
0.001383176 -0.0011185909 -0.00613802 -0.012821367 -0.0021479083 -0.009942934 -0.0028563489 0.001940702
-0.001596606 -3.957771e-05 0.002762875 0.010961925 0.0024121793 0.004048333 -0.0015146512 -0.0021213284
0.0024722298 -0.008311839 -0.018583272 0.00049346284 -0.006952839 0.003046273 0.0020679012 0.0027485932
0.009671456 -0.011562426 0.0030160542 -4.259052e-06 0.008852359 -0.004171925 0.006050668 0.0063574575
0.002945095 0.0030833026 -0.0033184842 0.005027483 -0.0045897937 -0.010457267 0.00069383753 -0.013123749
-0.00013261953 -0.002170895 -0.01740013 -0.0014259699 0.009076057 0.00040923266 0.012972662 0.009552864
-0.008487892 -0.00607757 0.012749784 0.0043987953 0.0057710106 -0.010407169 -0.015344245 -0.009879447
-0.0042652315 0.006057405 0.0012647301 0.0045918333 0.0017845909 0.00957389 -0.0056617935 0.011796041
-0.00054873934 -0.009636443 0.0018714743 0.00608794 0.007020072 -0.011008939 0.00339121 -0.0042406763
0.01240403 0.0015999145 0.007845603 0.008549827 -0.012479005 0.010576644 -0.0067478437 -0.010324272
0.010361649 0.013179763 -0.009070315 0.005898532 0.0017733383 -0.00026341455 -0.011394026 0.0017876491
-0.002831548 0.017166289 -0.00088803587 0.004702648 -0.003873075 0.00516288 -0.0037022193 -0.010595247
-0.000359624 -0.003757754 -0.0076398845 0.009735353 -0.011196166 0.00712783 0.010036474 -0.015448989
-0.012349532 -0.017367711 -0.0015035376 -0.009159976 0.012759376 -0.0014057484 0.0033584335 -0.00044859093
0.0016186829 0.009990009 0.006609022 -0.0028788655 -0.0101494705 0.0019968092 0.016584584 0.0035634977

cvae_parameters.enc_01_lin_b f4 [128]
00000000: fe8f 29bc a7fd f8bb 5e91 37bc 107f 64bc
00000010: 437e 0dbc 7d2f 21bc a47e 60bc 4414 86bc
00000020: cdb6 66bc 6d85 79bc 73b0 69bc bd0d 71bc
00000030: b41c a0bb c203 5ebc 3490 2fbc a1a2 4fbc
00000040: 860b 17bc 2748 b5bc 23de 54bc 1039 52bc
00000050: fc15 83bc c25f 49bc 209a b2bc 91d0 3fbc
00000060: 4302 9bbc a481 81bc f111 47bc b83d 11bc
00000070: f82c 25bc a436 64bc 0317 1abc 852c 75bc
00000080: 8e87 23bc 91ee 83bc 6469 14bc f8cb 3abb
00000090: 8336 5abc 0f7f 08bc f745 81bc 07d0 19bc
000000a0: 86c2 9dbc f2c0 06bc 1206 66bc fec1 ebbb
000000b0: 91c2 73bc 3bb4 64bc b4fe 25bc d7c8 47bc
000000c0: fffd d2bb 05f8 79bc c288 e9bb 20fd 47bc
000000d0: 6424 29bc 5702 63bc c711 54bc 8696 2dbc
000000e0: e62f 2bbc b1f2 4dbc ff1f 18bc 31ec 67bc
000000f0: 1841 efbb bd39 29bc 8f50 0abc 5959 2abc
00000100: 0138 f7bb 7b94 11bc f469 a5bb 9615 9bbb
00000110: 16b3 bfbc 8e30 50bc fa0f 1cbc 6220 73bc
00000120: 4df0 ecbb 6214 5dbc 5378 37bc 2ec7 8fbc
00000130: 0ed8 49bc 54aa 60bc c987 70bc 22f9 74bc
00000140: c0c2 4abc 2f13 a1bc 9821 88bc e39b 3bbc
00000150: 9f83 50bc 3c09 50bc 10ee 85bc d3b2 8cbc
00000160: 6335 7ebc 9c06 79bc 9ea5 50bc 26f9 32bc
00000170: 29b1 06bc 5e31 56bc c458 98bc 950e 12bc
00000180: d705 72bc 928e 07bc e678 1dbc c09e 4dbc
00000190: 49d4 4cbc 6613 94bc e0df debb 52d8 62bc
000001a0: 8c57 c8bc 70f3 96bc 101e a0bc e8d0 51bc
000001b0: f15f 44bc ea71 97bc 8434 bdbc b582 25bc
000001c0: ce36 2dbc b95e f8bb a5a0 c2bc c3a3 f6bb
000001d0: 5b85 3abc 8435 28bc f333 04bc 12b9 41bc
000001e0: 1215 98bc e194 66bc ff64 6fbc 8e0e a2bc
000001f0: d367 11bc c30f 61bc e1dd edbb a6d2 95bc
-0.010349272 -0.007598597 -0.011204092 -0.01394631 -0.00863606 -0.009837982 -0.0137020685 -0.016367085
-0.014081669 -0.015229565 -0.01426326 -0.014712748 -0.004886234 -0.013550701 -0.010715533 -0.012673051
-0.009219056 -0.022129131 -0.012992415 -0.012830988 -0.016001694 -0.012290897 -0.021802008 -0.011707441
-0.018921977 -0.015808888 -0.012150274 -0.008864813 -0.010081522 -0.013929043 -0.0094049005 -0.014964228
-0.009981049 -0.016104968 -0.00905833 -0.0028502923 -0.013318661 -0.008331074 -0.015780432 -0.0093879765
-0.019257795 -0.008224713 -0.014039533 -0.0071947565 -0.014877931 -0.013958986 -0.010131527 -0.01219388
-0.00643897 -0.015256886 -0.0071268985 -0.012206346 -0.010323618 -0.013855538 -0.012943692 -0.01059497
-0.010448432 -0.012570069 -0.009284972 -0.0141554335 -0.007301461 -0.010328707 -0.008442058 -0.010397279
-0.007544518 -0.008885498 -0.005048031 -0.004732798 -0.023400825 -0.012706889 -0.0095252935 -0.014839264
-0.0072307945 -0.013493629 -0.011198121 -0.017551031 -0.012319578 -0.013712484 -0.014680811 -0.014951976
-0.012375534 -0.019662468 -0.016617581 -0.0114507405 -0.012726693 -0.012697514 -0.016348869 -0.017175114
-0.015515658 -0.01519933 -0.012734799 -0.010923659 -0.008220949 -0.0130732935 -0.018597014 -0.008914609
-0.0147719 -0.0082737375 -0.009611344 -0.012550056 -0.012501785 -0.018075656 -0.0068015903 -0.01384552
-0.024455808 -0.018426627 -0.019545585 -0.012806155 -0.011985765 -0.018486936 -0.02309633 -0.010101964
-0.0105721485 -0.007579651 -0.023758242 -0.007526846 -0.0113843335 -0.010266665 -0.008069026 -0.011823909
-0.018564735 -0.014073581 -0.014611482 -0.01978233 -0.008874851 -0.013736668 -0.007259116 -0.018288922

cvae_parameters.enc_01_lin_w f4 [128, 128]
00000000: 2d7b c13b a2de 223b 26ff 863b d2c9 fe39
00000010: ee97 1abc 56e4 c73a 3b56 3bbc d53d 863c
00000020: af53 1c3c 1e6c 5e3b 5898 22bc 7eda 81bb
00000030: 43b7 c93b e61d 66bb f49a 003c dbe0 9ebc
00000040: d4cc 1b3b fc6e ffbb 0053 7a3c 025f 17bc
00000050: 8029 1abc 8ffd 023c 6446 a3bb f6da 083c
00000060: cedf 9e3b 3a35 e2bb 70bb eb3a 3940 abbb
00000070: 6316 dabc f451 99bc ec2c 4c3b 7246 863c
00000080: 61a8 493b 253b 8bbc d6c3 43bb cecf 273c
00000090: 36e1 5ebc a154 ca39 ca06 a33c d14e f03b
000000a0: c14d 00bc 8386 263c 988b 213c 2089 a1bc
000000b0: e6c3 a239 e6a6 df38 38b0 7abb 8912 06bb
000000c0: e35b e9ba 5d07 75bc 9802 18bc 7dac 023b
000000d0: 2b24 f6ba b38e 14bb 7341 7bbb 6898 5ebc
000000e0: 43ec f539 abb8 b83a df96 b7bb 61ea f6bb
000000f0: 77f9 e43b 3d4f 473a fcc1 413b ae61 73bc
00000100: c61e 813b 2317 f9bc aee0 3abc 5694 123a
00000110: 79da 1c3b 91ac 90bc 021f 433b 8866 3bbc
00000120: 22a3 3fbc e277 a2bb 4f87 a8b9 32c6 b1bb
00000130: a81b 8dbc 7f42 aeba ea65 48bc 972b 32bb
00000140: 0b24 c6bb 5af8 b7bb 31f5 503c cd7a 86bc
00000150: fc99 523b 4f75 7b3b d1e5 b839 5d0f e9bb
00000160: 4c76 c2bb 729a 863c be7e 313c 987c be39
00000170: 0db0 2cbc 7cc1 503c b0d7 a2bb b40c 4a3c
00000180: a8a7 ad3b a545 563c a7c2 d43b 7597 31bc
00000190: c6e9 613c 0196 f13a 270d a2bb 9ba2 2cbc
000001a0: 2cb9 f9bb 1f32 963c 0eaf e7ba d183 a8bc
000001b0: 3d06 383c 6edb 4dbc 0b25 d9bb 3ed2 993b
000001c0: 5abf a1bb e0ac d3bc 35b7 95bb de58 97bb
000001d0: 92b8 313c 9f12 0d3c 06b1 3ebb 2174 893c
000001e0: 821d 4f3b 910d 84bc 86d3 223b 513c 993b
000001f0: f5e9 313b 2b85 cfbb 2697 d3bb 6b69 bdbb
00000200: d5bf 463b 8c34 533c 89be 8aba d17c 9dbb
00000210: fa61 283c 2390 0e3b 4912 81bc 57ae e1ba
00000220: fdab 733b 26ad 50bb f8fb f6bb fa47 363b
00000230: 3e06 3abb a066 843c e46e cc3a 8291 c8bb
00000240: 33ca ef3a 9084 a5bc 4c3c 76bc dd2a 103a
00000250: de17 e03b 6e3f 29bc a9ed 423c 6e5a 18bc
00000260: e54a ad3a d9ea ccbb e6d7 81bc eb88 073c
00000270: 20f4 15bc fefd 8e3b d98a 08bc cfaf 283b
00000280: dad4 c4ba 3b2e e7bb 60df 2c3c 77bd a6bb
00000290: 27e2 a8bc e589 953c e950 3d3b 83e7 81bc
000002a0: 0007 033c dc5f 1ebc ae27 883c bc78 66bc
000002b0: bce1 223c 02f5 70bb b82e 0aba d161 22bc
000002c0: fac0 903a dca4 f6bb 2e59 923b a835 b1bb
000002d0: a9c1 2b3c 3217 933a 8341 5fbb c6e0 993b
000002e0: 0671 8b3b bc6e 08bc bbe5 35bc 7672 05bc
000002f0: 0df0 003c 0a0a 39ba 82de 9dbc 28bb 6cbb
00000300: 7484 a7bb 6da6 bc3b 430e 9a3b 2dc9 9f3c
00000310: 5885 86bb 5c70 a23c fa05 1dba b9d1 96bb
00000320: 16ca 56b9 7940 083b 25ae 31bb d47f a23b
00000330: 5aa0 583b d4fb fbbb 5deb 333c f6fe 4e3c
00000340: 58dc a1bb 7f51 863c eb4c 06bc 3c1b 26bb
00000350: 48a9 9bbc 4640 e939 e43d 29bc 8de3 79bc
00000360: 5e4e d43b 58c7 36bc 7dea bfbb ec91 23bc
00000370: 5795 893b 8156 92bb ac3b 853b a9ec c13b
00000380: 3d6f 9d3b 112b 23bc eb0d 2a3c b175 50bc
00000390: bdda 9c3c 43e8 0fbc bc90 33bc d19e 53bc
000003a0: 0ea6 5f3b 89cf 1b3c f1c7 90bc b9d9 8dbc
000003b0: e2a5 92bc 78f6 41bc dfc0 24bc d358 463b
000003c0: 3bed cbbb a096 113c 47ce 0dbc 82a9 8cbb
000003d0: ff5b 62bb 82d1 5d3c 9f63 293b de22 1d3c
000003e0: 7efc e839 19ff 1e3c 8769 b5bb d712 af3b
000003f0: 0309 fa3b ef29 5f3c dbd4 06bc 66ab 08bb
0.0059045763 0.0024851938 0.0041197715 0.00048597023 -0.009435637 0.0015250545 -0.011434133 0.016386906
0.009541436 0.0033938955 -0.009924017 -0.003962814 0.0061558797 -0.0035113036 0.007849444 -0.019394329
0.002377321 -0.007795213 0.015278578 -0.00923896 -0.009409308 0.007995023 -0.0049827565 0.008352986
0.004848457 -0.0069033178 0.0017984938 -0.005226162 -0.026622003 -0.018715836 0.0031154705 0.016391013
0.0030770528 -0.016995976 -0.0029871366 0.010242416 -0.013603499 0.00038591496 0.019900698 0.0073336144
-0.007831038 0.010163906 0.009859942 -0.019718707 0.00031045004 0.00010664556 -0.0038252007 -0.0020457825
-0.0017803874 -0.014955369 -0.009277962 0.0019939237 -0.001877909 -0.0022668063 -0.0038338571 -0.013586141
0.0004690607 0.0014093121 -0.005602702 -0.0075352644 0.0069877463 0.0007603055 0.0029565087 -0.014854832
0.003940436 -0.03040654 -0.011406107 0.0005591562 0.002393393 -0.017660411 0.002977312 -0.01143802
-0.011696609 -0.004958139 -0.0003214427 -0.005425238 -0.017225102 -0.0013294964 -0.012231329 -0.0027186626
-0.006046777 -0.0056143226 0.012753771 -0.016415978 0.003213524 0.0038369482 0.0003526644 -0.007112427
-0.0059345122 0.016431067 0.01083344 0.00036332454 -0.010540021 0.012741443 -0.0049695596 0.01233213
0.005299527 0.013078128 0.006492931 -0.010839333 0.013788646 0.0018431545 -0.0049454155 -0.010536815
-0.007620951 0.018334446 -0.0017676072 -0.020570667 0.011231956 -0.012564523 -0.0066267303 0.0046942523
-0.004936141 -0.02583927 -0.004568959 -0.004618748 0.010847228 0.008610397 -0.0029097213 0.016779007
0.0031603281 -0.01611975 0.0024845316 0.0046763797 0.0027147506 -0.0063330135 -0.0064572273 -0.005780389
0.0030326743 0.012890946 -0.0010585348 -0.004806139 0.010277266 0.0021753393 -0.01575579 -0.0017218095
0.003718137 -0.0031841486 -0.0075373612 0.0027813897 -0.0028385068 0.016162217 0.0015597013 -0.0061208615
0.0018294513 -0.020204812 -0.015029024 0.0005499551 0.0068387827 -0.010330064 0.011897483 -0.009298904
0.0013221173 -0.006253582 -0.015850019 0.00827239 -0.009152442 0.0043637743 -0.008333885 0.0025739556
-0.0015017048 -0.0070550716 0.010551304 -0.005088504 -0.02061565 0.01825423 0.0028887338 -0.015857464
0.007997274 -0.009666409 0.016620483 -0.014066871 0.009941515 -0.003676713 -0.0005271244 -0.009911017
0.001104384 -0.007526977 0.0044661975 -0.0054080077 0.010483184 0.0011222123 -0.0034066148 0.0046959845
0.004255417 -0.008327182 -0.011102135 -0.008144965 0.007869733 -0.0007058686 -0.019271139 -0.0036122296
-0.005112225 0.005757144 0.004701407 0.019505108 -0.0041052513 0.019828968 -0.0005989965 -0.0046026376
-0.00020483913 0.0020790382 -0.0027111855 0.004959086 0.0033054561 -0.0076899324 0.010981408 0.01263403
-0.004939597 0.016396282 -0.00819705 -0.0025345823 -0.019001618 0.0004448911 -0.010329697 -0.015252006
0.0064790687 -0.011155926 -0.0058568106 -0.009983521 0.004198711 -0.0044658785 0.0040659513 0.0059181047
0.0048045204 -0.009958998 0.010379295 -0.012723372 0.019147271 -0.008783403 -0.0109598 -0.012916283
0.0034126076 0.009509929 -0.017673464 -0.017315732 -0.017901365 -0.011838548 -0.01005575 0.0030265346
-0.0062233484 0.008886009 -0.008655137 -0.004292668 -0.0034539697 0.01353872 0.0025846732 0.0095908325
0.0004443861 0.009704375 -0.0055362615 0.005342822 0.007630469 0.013620838 -0.00822946 -0.0020854115

cvae_parameters.out_lin_b f4 [160]
00000000: 3975 99be 0d91 813e cab5 55be 23f8 b73e
00000010: 8718 27bd cb77 443d 8264 76be a8d6 ef3e
00000020: e772 05be 38f3 ab3e ba37 73be 6f1d 903e
00000030: cf3f ca3b c9e9 b93d a0dd 24be 9876 b03e
00000040: dd06 afbd 12d4 973e a492 74be 71c9 453e
00000050: abbf b73d 23b9 cc3d f019 81be 13da 8f3e
00000060: 0b9f 8dbd 6b1d 393e 7078 82be 214d 8e3e
00000070: 1567 f53d 061a 18bd ebf4 b9be 96af bd3e
00000080: 02c5 24be 8543 c73d 294f 9ebe fad7 c73e
00000090: 8085 293e e7f7 fcbd c7b2 7bbe c465 e73e
000000a0: c747 a0be 8a0f 773d ea7d 45be 4b6e a03e
000000b0: b61b 40bd 7ae9 53be 146a 8d3b 4d6c 803e
000000c0: 67d3 d9be 705e 573e 81b5 20be 9bcf 2e3e
000000d0: e071 afbd 2652 c8bd a791 ccb8 ce50 413e
000000e0: da81 a1be 8987 9d3e e6cc 17be 8b6f a33d
000000f0: 20cc e23d 03d0 b13d 6308 48be 613d e53d
00000100: 62cc a6be 99fb 913e 1596 47be 4027 463e
00000110: bc6e 033e 3ce8 09bd bff0 adbe 4cf8 653d
00000120: 3abd 59be b5e1 9b3d 92b3 18be 7c54 3e3e
00000130: c76b 8abd a103 71be d906 93be d233 b93d
00000140: ffe7 38be b386 483d 625f 1abd c001 8c3e
00000150: 4177 90bd 584d 7bbe 553d 16be b2c5 4b3e
00000160: 6025 4dbe 2d8f 1b3e acf2 3bbe 2a5d 533e
00000170: f2d7 b53c e57a 40bd 565d bbbd 5ab4 bb3e
00000180: bdaf 01be 8cbd 0c3b a723 a7be 8001 443e
00000190: 82af 7f3d 3fa1 22bd b497 42be b1c1 f83e
000001a0: 0214 92be e762 ddbd 690a 72be 42a0 963e
000001b0: 0d13 65bd 8f23 d7bd e4e1 c8bd 51f5 173f
000001c0: c5f9 aabe 292b 023d 8c6b 81bc e681 9b3e
000001d0: 1a23 41bd 5b67 14be c5e5 633d 860a e23e
000001e0: 91ea 75be 7cdd 283e 7304 78bd fab7 623e
000001f0: b802 d93d 6a31 163b a9c5 8a3c f880 b33e
00000200: a6df 0dbe fff7 833e f14d fdbd c97e 543e
00000210: d929 833d 62dc 4b3e d9a7 06bd bae9 013f
00000220: 2759 c9bd 6594 b53e 357c 15be 4b68 173e
00000230: ea0a 203d e89f 833c 47b4 75bd 11d9 053f
00000240: 2be3 f9bd 9ac3 8f3e d2aa 71be b8c5 613e
00000250: bb30 4abc 1a40 c0bc 025d 12be 8e52 fb3e
00000260: db83 90be 0cdc 773e 20d3 4cbe 1040 b93e
00000270: 0fcf 1dbd e439 683d 7b04 7fbe 10d7 f13e
-0.29972246 0.25305977 -0.20870128 0.359315 -0.040794875 0.047965806 -0.24061778 0.46843457
-0.13032113 0.33584 -0.23751727 0.28147456 0.0061721574 0.09077794 -0.16100168 0.3446548
-0.08546231 0.29653984 -0.23884064 0.19315125 0.08972105 0.099962495 -0.252151 0.28096065
-0.06915101 0.18077628 -0.25482512 0.2779322 0.11982552 -0.037134193 -0.3631967 0.37048024
-0.16090778 0.09729675 -0.3091977 0.39031965 0.16554832 -0.12351971 -0.24579917 0.4519483
-0.31304762 0.060317554 -0.19286314 0.31334147 -0.046901427 -0.20694533 0.004315624 0.25082627
-0.425441 0.21032119 -0.15694238 0.17071383 -0.08566642 -0.097812936 -9.754608e-05 0.18878481
-0.3154438 0.30767468 -0.14824256 0.079802595 0.1107409 0.08682253 -0.1953445 0.11193348
-0.32577807 0.28512266 -0.19490846 0.1935091 0.1283521 -0.03366874 -0.33972737 0.056144997
-0.2126359 0.076114096 -0.1491225 0.18586916 -0.06758838 -0.2353654 -0.28716162 0.09043087
-0.1805725 0.048956584 -0.03768862 0.27345085 -0.07053996 -0.24541223 -0.14671834 0.19899634
-0.20033789 0.15191336 -0.1835429 0.20641008 0.022197697 -0.0469922 -0.09148662 0.36661035
-0.12664695 0.0021475283 -0.32644388 0.19141197 0.062423237 -0.039704558 -0.19003183 0.48585275
-0.2853089 -0.1080988 -0.23636784 0.29419142 -0.05592637 -0.10504829 -0.0980871 0.593587
-0.33393684 0.031779442 -0.015798353 0.30372542 -0.047152616 -0.14492552 0.055639047 0.44148654
-0.24015261 0.1649074 -0.060551118 0.22140494 0.10596222 0.0022917637 0.016939955 0.35059333
-0.13854846 0.25775144 -0.12368382 0.2075149 0.06404466 0.19908288 -0.032874916 0.50747263
-0.098314576 0.3546478 -0.14598162 0.14785878 0.03907291 0.01606746 -0.05998638 0.5228434
-0.12201532 0.2807892 -0.23600319 0.2204808 -0.01234072 -0.023468066 -0.14293292 0.49086422
-0.28225598 0.24205035 -0.20002413 0.36181688 -0.038527545 0.056695834 -0.24904053 0.47234392

cvae_parameters.out_lin_w f4 [160, 128]
00000000: 2f2d e7bc 788b b0bc ed90 56bc 4c16 3cbd
00000010: 7204 17bd 29db cfbc cb2c 47bd f248 0ebb
00000020: aed4 33bd 580f e1bc c22d 89bc d599 55bd
00000030: c07f e0bb 05e4 c9b9 5f37 9a3b c57e 95bc
00000040: 403d 81bc d016 38bc deea 30bd 8f5b cbbc
00000050: bea2 dcbc 6062 10bd 53de ffbc 1b0b 29bd
00000060: eb38 73bd 3e38 8ebc 9c9c 98bc 79ac 8dbc
00000070: a7e3 21bd 0e64 5fbd f040 bcbb 9346 c9bc
00000080: bd7e 29bd 2115 bcbc 6e8a eebb ceb1 6bbb
00000090: 84b6 8dbc 1156 27bd bf2c 6dbd 6d57 36bd
000000a0: 4fa3 0bbd 0676 a9bc 1b10 72bb eed3 52bc
000000b0: a18c 44bd 5450 cabc f808 92ba b8d2 b5bc
000000c0: b677 98bc 7d03 59bc d6fb 73bd f779 04bd
000000d0: 133b 44bc 4ac6 58bd b6b8 bcbc dbda e2bc
000000e0: 56c0 4cbc 9282 51bd 479a d5bc 7f9f 513b
000000f0: f8ff 72bc ad28 0abd d763 adbc bf6b c3bc
00000100: e92f 75bc 70bb f8bb 9fb6 e6bc fd1c 30bc
00000110: 444c 1ebd 08c6 05bc 4c5f 8c3a 9d90 50bd
00000120: b96c 43bd 6317 e2bc 621b 70bb 3112 07bd
00000130: c7ee 23bd edc4 8cbc 3bf1 aabb a84b dcbc
00000140: f99e 01bd 61f9 733c e095 19bd d405 833c
00000150: 6a88 9cbc 030c 833b 599b c0bb d55d 13bd
00000160: 1c60 53bc cc42 85bc d959 adbc 6716 c3bc
00000170: f84a 98bc 1660 73bd 5ead d4bc d50d 9fbb
00000180: 077b dabc 2524 f7ba 8db1 36bd 5a36 b83b
00000190: a648 89bc 615f 1abd c682 b2bb 0625 18bd
000001a0: 87de 8038 8f47 5dbc c95a 40bd 2e41 a1bc
000001b0: ad91 a7bc 0fb4 01bd 7f00 3abd bcc3 cabc
000001c0: 4cc6 8cbc bc21 ca3b 2681 4cbd 7871 4bbd
000001d0: 17cf 20bd 40bb 62bd e463 843c 2c69 a83b
000001e0: 85c7 d8ba daf5 dbbc db24 eabb db87 9ebb
000001f0: c790 f1bc a535 fbbc 8c54 b7bc 511b 0fbd
00000200: 51bd 043c 1dc7 743c b392 5e3b ab40 6f3d
00000210: a9d4 303d 4821 2e3c 7198 e63c dcec 603c
00000220: 1433 8f3d 9eb2 203d 1321 5a3c 6965 103d
00000230: bca6 7e3c 8d50 963c 4542 a33b b3c2 f93c
00000240: d80f 803b c690 9e3c 5998 1b3d b150 393d
00000250: e44e ad3c 00a9 0a3d a07b 1a3d a5ea 593d
00000260: a727 5f3d c1e1 943c 4ebb 183d 9866 bb3c
00000270: cf0c dd3c 9f80 1c3d 644c 1e3b a940 203c
00000280: d097 3f3d c6d5 043d 4bcc 6f3d 88ca b23c
00000290: 12c4 d63c 1ebc 6b3d 378c 663d ac7a 613d
000002a0: e636 0b3d 32ca fd3b 713e 963c c443 973c
000002b0: e7ba 393d 766c a33c b1ee c73c 4f77 153d
000002c0: ccae 393d 3629 353c 86bd af3d dde5 8a3c
000002d0: b448 c1bb aab6 8a3d a5e8 8a3c e9d2 7b3b
000002e0: 08c9 3f3d 3052 c23c cefd fc3c 9326 ad3c
000002f0: 8c9e 633c f731 623d 31ed 6d3c 1819 7a3c
00000300: d649 163c 4d6a 0f3d 213d 0f3d 8446 a73b
00000310: 13e5 683d 7741 9a3c 4669 5d3c 60c7 2d3d
00000320: 30c6 923d 0737 fa3c 8900 4dbc b28a 493c
00000330: 7426 523d 6528 a33c cc6e 8b3c f2b7 eb3c
00000340: bf72 3b3d d43d 4d3c 87d0 863d 6b21 133b
00000350: 2281 cb3c 24e0 003b 96bb 0a3c bb4b af3c
00000360: 6b51 c73c 24b9 f23c 4383 973c 4397 853c
00000370: ab6b ac3c fe28 483d b5fb ec3c 415f 633b
00000380: 8027 c63c b9b7 d73c e5e4 383d b1fd 04bc
00000390: ce0d b8bb 2565 813c a2bd 823c 7263 c73b
000003a0: 62b8 85bb cd66 5a3c 43d6 823d 31f3 783c
000003b0: 7ba1 063d e048 493c 90b7 353d 6774 6c3c
000003c0: a9ef 4b3d 67c7 a8ba 0f36 813d 1833 13ba
000003d0: 97f3 343d 693c 153d 2490 41bb 3040 c03a
000003e0: 549c 163c ef42 cf3c cd98 0a3c af31 d1ba
000003f0: 6aa2 5a3c 2738 803c ca98 e73c b44d 2a3d
-0.028219787 -0.021550879 -0.013096076 -0.0459197 -0.036869474 -0.025373058 -0.048626702 -0.002171096
-0.043904 -0.027473137 -0.016745452 -0.05214866 -0.0068511665 -0.00038507595 0.004706308 -0.018248925
-0.015776277 -0.011235908 -0.043192737 -0.024823932 -0.02693307 -0.035250068 -0.031233942 -0.041270357
-0.059380453 -0.017360803 -0.018629365 -0.017294155 -0.039523747 -0.05453878 -0.005745046 -0.024569785
-0.041380633 -0.022959294 -0.0072796857 -0.0035964134 -0.017298944 -0.040853564 -0.057904 -0.04451697
-0.03409129 -0.02068616 -0.003693587 -0.012867911 -0.047985677 -0.024696507 -0.0011141589 -0.022195205
-0.01861177 -0.013245461 -0.05956634 -0.032342877 -0.011976975 -0.05292348 -0.023037296 -0.027692249
-0.012497028 -0.051149912 -0.026074542 0.0031985936 -0.0148315355 -0.033730198 -0.021165771 -0.023855088
-0.014965036 -0.0075907037 -0.028163252 -0.010749099 -0.03864695 -0.00816489 0.0010709553 -0.050919164
-0.047711108 -0.027599042 -0.0036637415 -0.032976333 -0.040022638 -0.017183745 -0.005216745 -0.026891544
-0.03164575 0.0148909995 -0.037496448 0.01599399 -0.019108016 0.0039992346 -0.005877894 -0.035978157
-0.012901332 -0.016267203 -0.021161007 -0.023814393 -0.018590435 -0.059417807 -0.025961574 -0.004853944
-0.026669992 -0.0018855376 -0.04460292 0.0056217136 -0.016758274 -0.037688617 -0.0054477183 -0.037144683
6.1449646e-05 -0.01350583 -0.04696158 -0.0196844 -0.020455206 -0.031665858 -0.04541063 -0.024751537
-0.017184399 0.006168572 -0.049927853 -0.04966876 -0.039259996 -0.055354357 0.016160913 0.0051394906
-0.0016538954 -0.02685063 -0.007145507 -0.0048379726 -0.02948798 -0.030665228 -0.022379182 -0.03493816
0.008101777 0.01494005 0.0033961951 0.05841128 0.04317156 0.010628052 0.028148862 0.013728347
0.06992164 0.039232843 0.01331355 0.035252962 0.015542682 0.018348956 0.004982265 0.030488348
0.0039081387 0.019356143 0.037987087 0.04524297 0.021155782 0.033852577 0.037715554 0.05320229
0.054481175 0.018174054 0.037288003 0.022876069 0.026983647 0.0382086 0.002415442 0.009781041
0.04677564 0.032430433 0.05854444 0.02182509 0.02621654 0.05755245 0.056286063 0.05504863
0.033987902 0.007745051 0.018340321 0.01846493 0.04534426 0.01994918 0.02440581 0.036490735
0.045332715 0.011057189 0.085810706 0.01695531 -0.0058985595 0.06773122 0.016956637 0.0038425273
0.046822578 0.02372083 0.030882742 0.021136558 0.013892781 0.05522343 0.014521883 0.015264772
0.009172877 0.035013486 0.034970406 0.0051048417 0.056859087 0.018830044 0.013513869 0.042426467
0.071667075 0.030543817 -0.012512335 0.012301134 0.051306203 0.019916723 0.017020606 0.028774235
0.045763727 0.012526948 0.06582742 0.0022450339 0.024841849 0.0019664848 0.008467576 0.021398416
0.024330815 0.029629298 0.018495208 0.016307479 0.021047434 0.04886722 0.028928617 0.0034694227
0.024188757 0.026332723 0.045140166 -0.008117125 -0.00561688 0.0157953 0.015959565 0.006084853
-0.004080818 0.013330174 0.063885234 0.0151947 0.032868844 0.012285441 0.044364512 0.014432049
0.049789105 -0.0012876809 0.06309139 -0.00056152185 0.044177618 0.036434565 -0.0029535377 0.0014667567
0.009192545 0.025300471 0.008459282 -0.0015960241 0.013344387 0.015651776 0.028271098 0.04157801
