dlpg/16/weights/dlpg_model_weights_150.pth (torch, 313083 bytes, 14 tensors)

cvae_parameters.dec_00_lin_b f4 [128]
00000000: 081d 45be 3b95 58bd 566f 21be f90f 83be
00000010: 58bb 44be 840a 62be 5960 55be 5b0a b33e
00000020: 75d9 80be e743 5bbe 6dfe ffbd 50dd 453e
00000030: 8717 6bbd 4422 49be e7be a0bd 3b94 88be
00000040: 712d 2ebe be1f 0abd 04fc 89be 82fa a2bd
00000050: b429 eebd 3424 82be e9df 37be 9cff 47be
00000060: 2860 56be ed57 35bc 502f d5bc 7cdb 41be
00000070: 8e95 86be 50dc 16bd eb51 8dbe 1434 16be
00000080: 0280 08be 9441 a2bd ecd7 73be e294 5ebe
00000090: c4b1 8fbe ee6e 8dbe bb71 e2bd 2bee 49bd
000000a0: 181d 87be 6439 26be 187e 4dbe 0142 87be
000000b0: 8a53 433c 74a6 21be f10e 56be 1d9c 2e3d
000000c0: eb12 26be 6bb4 54be 21eb ffbd 6bf6 5abe
000000d0: 44a5 94be 5f38 52be 624b 99be 3f83 43be
000000e0: fed4 70bd c2a5 34be 911c 4cbc d7d1 a43e
000000f0: e19f 70be 67f9 d3bd f69b c8bd 102c 52be
00000100: ed2d 5abe ea4e 67be c0b7 04be 986f 21be
00000110: 4ad0 47be 6ea4 233e c4e8 6dbe c3e9 80bd
00000120: d580 54be f9dd 86be 7fcd c3bd a2ff 94bd
00000130: 1639 49be aff6 89be 8c44 f0bd 3a6c 6cbe
00000140: 2060 42be 905a 1abe 7914 07be a0df 6dbd
00000150: 372c 92be 4691 1bbe 7ff3 87be f0b3 6fbe
00000160: 186a 5dbe da56 91be 8f02 11be 7d90 65be
00000170: d787 1dbe 95ad 51be 2c23 61be 9680 2dbe
00000180: d5cf 93be eb19 c9bd d142 75be 42ce 80be
00000190: 6b0a 1dbe 526b 2abe e8b4 9abe 7dc5 17be
000001a0: 7aae b2be 44af e0bd 9787 93be 36ba bcbd
000001b0: 598c 9abd 6291 70be e722 5dbe cf6e 9fbe
000001c0: 1e13 2dbe 0664 debd 3896 9ebe 4262 b7bd
000001d0: 47bc 1fbe 4951 aabe 587f 15be ffc0 78be
000001e0: 57b5 31be 8f48 333e 8e59 74be e3d0 44be
000001f0: c26c 53be 2bb9 3cbe b926 fcbd abea 67be
-0.19249356 -0.052876692 -0.15765128 -0.25598124 -0.19212091 -0.22074324 -0.20837535 0.34968838
-0.25165907 -0.21412621 -0.124997 0.19322705 -0.057395484 -0.19641978 -0.07848912 -0.2667559
-0.17009522 -0.033721678 -0.26950085 -0.07957937 -0.11629048 -0.25418246 -0.17956509 -0.19531101
-0.20935118 -0.011068326 -0.026023537 -0.18931383 -0.26285976 -0.0368312 -0.2760156 -0.14668304
-0.13330081 -0.07922664 -0.23812836 -0.21736482 -0.28065312 -0.27623695 -0.110568486 -0.0492994
-0.26389384 -0.1623283 -0.20067632 -0.26417544 0.011921773 -0.15786153 -0.20904137 0.04262935
-0.16218154 -0.20771949 -0.12496019 -0.21383063 -0.29032338 -0.20529316 -0.29940325 -0.19093035
-0.058796875 -0.17641357 -0.012457983 0.32191345 -0.23498489 -0.10350304 -0.09795372 -0.20524621
-0.21306582 -0.22588697 -0.1296072 -0.15765226 -0.1951305 0.15980694 -0.23233324 -0.062945865
-0.2075227 -0.26341227 -0.0956068 -0.072753206 -0.19650683 -0.26946017 -0.11731824 -0.2308816
-0.18981981 -0.1507361 -0.13191403 -0.058074594 -0.28549358 -0.15192136 -0.2655296 -0.23408484
-0.21622503 -0.28386575 -0.14161132 -0.22418399 -0.1538385 -0.20476373 -0.21986073 -0.16943583
-0.288695 -0.098193966 -0.2395127 -0.25157362 -0.15336005 -0.16642502 -0.30216146 -0.1482143
-0.3489874 -0.10970929 -0.28814384 -0.092152044 -0.075463004 -0.23492959 -0.21595345 -0.31139228
-0.16901824 -0.10858922 -0.30973983 -0.08954288 -0.15599166 -0.3326514 -0.14599359 -0.24292372
-0.17354332 0.17508148 -0.23862287 -0.19220309 -0.20646957 -0.18430011 -0.12312073 -0.22648112

cvae_parameters.dec_00_lin_w f4 [128, 35]
00000000: 98bb 8f3d 519b 85bd 934c c53c 6e30 5f3d
00000010: 4763 1abd 2312 9535 6d8c 4fbd 6759 a7bb
00000020: bb73 113a 7101 ddbb 4d5a 3fb9 a0d5 633b
00000030: e2a2 3c3d 817a a1bc fd9b 10bd 2a55 11bc
00000040: 8df8 fdbc 54a7 ed3c 4905 10bd a63e 1cbd
00000050: e1b4 2e3d 42fe 9f3c 580f 2d3d 4a37 9e3c
00000060: 2ebf b0bc f01c bd3d 3c12 57bd 9388 81bd
00000070: 2e90 f9bc c9b2 c5bb d0d7 433d 4d20 bcbc
00000080: 76ad 1e3b 4dc0 38be 3264 7e3b 3722 ffbc
00000090: 0f37 33bd 41b8 48bc a2d7 0cb9 b6f7 9bbd
000000a0: f2d3 7b3c 4564 263d d094 30bc bd7e 773c
000000b0: 431a 0c3d 8008 43bd 4665 c2bc d2ff e5bc
000000c0: a4ff 45bb 03ff 57bd 6478 a43c 2bc4 0e3d
000000d0: 0186 7cbb 8c75 0f3c 9f19 5d3d 59c5 e5bc
000000e0: de85 33bc 1373 8ebb 8964 49bd e218 e0bc
000000f0: ef2b 36bd a7e3 2f3c 09fd ec3c d680 6a3c
00000100: 3ddf e83c 939f 033d 31f1 1cbb ae6e 723c
00000110: 8a73 59bd 2262 aebb c97e ff3c 2f42 6e3d
00000120: 43de 123c 9128 ddbd 5332 84bd cfb7 46bc
00000130: 5ca0 b7bc dcfa 493d 7e9d 143d a002 a6bc
00000140: b3b7 2fbd 50b8 eebc 1f01 903c 2b4a 853c
00000150: da4b 9abc b2d4 01bd 0a8a 153c da36 be3c
00000160: 6dd8 9f3c c30d 023d 7ce9 9d3d e046 c83c
00000170: 97d9 e2bd 8e5d 333d 7309 003e ca91 2cbd
00000180: bd55 64bd c2e1 89bc 5145 4d3b 47a9 af3d
00000190: 98f9 293e 7570 353d 34c5 d73c 983d 14be
000001a0: d4c2 abbb f6bd d8bc 47fc 24b9 e3a7 173d
000001b0: cf2a 033c 8483 483c 5b9d 0e3d 2f5a 8b3b
000001c0: c328 5c3b 38bc 87bd 3105 48bb 18fe 91bc
000001d0: 9000 443d bae0 3c3d 8014 85bd e943 483d
000001e0: 041f 63bc 7ad0 053d 5412 393b 50e4 8f3b
000001f0: 4fd7 a9bd 0f27 a13b 27c6 0fbd 5994 123d
00000200: b92c b3bb 9e3c 5ebd 6a6a 9f3c 787b a7bc
00000210: e97d 843c 4f5a ebbc b0ea 23bd a3f1 54bd
00000220: a3a6 91bb 7a13 84bb 89a8 81be 9b57 4fbb
00000230: c0ed 43bd aae6 45bc e8a7 b93c 32cf 873d
00000240: 5148 c5bc 4efe 6e3b 70c8 a1bc ede4 223d
00000250: a648 82bb 3904 f6bc 1b67 23bd 35a6 a2bd
00000260: 4af1 983d 75c1 483d 5c75 673c 11c5 f33c
00000270: 6d06 b6bc b5ae dd3c b74a e43c b48e 14bd
00000280: d3dc d73c 977b e0ba 3cc8 d2bc a714 3a3c
00000290: 19d6 2fbd 2a4c 6b3d 5079 f83c d93b efbc
000002a0: 07bf eabc 5efb 853c f99f 65bc 40c7 cebc
000002b0: 944b 92bb c839 44be 44c6 8eba d8e7 e03c
000002c0: d85f 8d3d cd5e 833d adb0 b7bc 82a3 9ebd
000002d0: be2a 33bd 777d 87bb 2f5b 4dbd f184 18bd
000002e0: bebd 3c3d b029 373c 0b0b 74bb 682a 22bd
000002f0: a75f 2bbc 45d3 4dbc 1658 b93b 97f1 96bd
00000300: 1705 8e3c 47f2 1c3d 0039 b1bb 6fda fabc
00000310: 0fdd b3bc dbfb cdbb 91cd c73c 2f40 89bb
00000320: 2d45 f3bc ac56 d03d 5bcf b83c 160e 4dbb
00000330: 4c43 473c ae22 893c f5b8 09bd 8043 26bc
00000340: ce0a 51be 0b99 253c 42fc b03c d266 a73d
00000350: 8ad8 6f3d cff6 83bc 4f4f 8a3c eeb4 f63c
00000360: f552 f6bc 4681 eebc 6a01 9dbc 6452 8d3c
00000370: f3c0 2d3c af58 183d e1f7 9a3c fe3f 14bd
00000380: 2494 393d b81b 993d 4675 e1bc 720d 5dbc
00000390: 0092 efbc 0b42 96bc cceb 1fbe 5a24 4f3d
000003a0: d401 acbb 369e 863c 7a30 393c 33a8 c53c
000003b0: 0e09 bb3c e2a6 dcbb 8782 85bc 97fc c7bc
000003c0: 0d93 b2bb be6a 40bd 6a95 563b e343 5fbe
000003d0: 0ef8 01bc a267 1abc 36af 1ebd aa0e 5fbd
000003e0: 7921 963d 7692 f63b c1d0 43bd 736f 3f3d
000003f0: 5eb4 203d 7854 b5bc be09 31bc b772 ebbc
0.070182025 -0.06523765 0.024084365 0.054489546 -0.037692335 1.1106644e-06 -0.05067103 -0.005107093
0.0005548556 -0.0067445566 -0.00018248819 0.0034764782 0.046053775 -0.019711735 -0.035305012 -0.008870402
-0.031002307 0.029010452 -0.03516129 -0.038145684 0.04265297 0.01953042 0.04225096 0.019313473
-0.021575537 0.09234035 -0.052507624 -0.063248776 -0.030464258 -0.0060332757 0.047813237 -0.022964621
0.0024212277 -0.18042107 0.0038817045 -0.031144245 -0.04375368 -0.012250961 -0.0001343177 -0.076156065
0.015370356 0.04062297 -0.010777667 0.0151059 0.034204733 -0.047615528 -0.023729932 -0.028076086
-0.0030212188 -0.052733433 0.020076938 0.03485505 -0.003853202 0.008756053 0.053979512 -0.028048204
-0.010957209 -0.004347214 -0.049168143 -0.027355615 -0.044475492 0.010735429 0.02892925 0.014312943
0.02842676 0.032134604 -0.0023947472 0.014796896 -0.053088702 -0.005321757 0.031188386 0.058168586
0.008964124 -0.10798753 -0.06454911 -0.012128784 -0.022415332 0.049311504 0.03628301 -0.020264924
-0.0428998 -0.029140621 0.01757866 0.016270718 -0.018834997 -0.031696983 0.009127149 0.023219515
0.01951238 0.031751405 0.07710549 0.024447858 -0.11076658 0.043790393 0.12503605 -0.042131223
-0.05574583 -0.016831283 0.0031321833 0.08577209 0.16599119 0.0442967 0.026339151 -0.14476621
-0.005241731 -0.026457768 -0.0001573424 0.037025344 0.008005812 0.012238387 0.034818035 0.004252694
0.0033593632 -0.06627697 -0.0030520672 -0.017821357 0.0478521 0.046112753 -0.06498051 0.04889289
-0.013862375 0.032669522 0.0028239684 0.0043912306 -0.0829302 0.004917986 -0.035101082 0.035786007
-0.005467978 -0.054257028 0.019459922 -0.020444617 0.01617332 -0.028729586 -0.040018737 -0.051988255
-0.0044449135 -0.004030642 -0.25323895 -0.003163791 -0.047834158 -0.01207892 0.022663072 0.06631316
-0.024082335 0.0036467495 -0.019748896 0.039769102 -0.0039759455 -0.03003131 -0.03989325 -0.07941858
0.07467897 0.04901262 0.014127102 0.029757055 -0.02221986 0.027060846 0.027867658 -0.036268905
0.026350414 -0.0017126676 -0.025730245 0.011357463 -0.04292879 0.057445683 0.030331284 -0.029203342
-0.028655542 0.016355213 -0.014015191 -0.025241494 -0.004464576 -0.19162667 -0.0010892828 0.027454302
0.06903046 0.06414566 -0.022423113 -0.077460304 -0.043741934 -0.0041348296 -0.050135788 -0.037236158
0.04607939 0.011179373 -0.0037238027 -0.039591223 -0.010459817 -0.012562578 0.0056562526 -0.07370298
0.017336411 0.03831699 -0.0054084063 -0.030621735 -0.021955995 -0.006286127 0.024390014 -0.0041885595
-0.029696072 0.10172781 0.022559812 -0.0031288913 0.012162041 0.01674017 -0.033623654 -0.010147929
-0.20414278 0.010107289 0.02160466 0.08173908 0.058556117 -0.016108898 0.01688352 0.03011557
-0.030068854 -0.029114377 -0.019165713 0.017251201 0.010605085 0.03719395 0.018917026 -0.03619384
0.045307294 0.0747599 -0.02752174 -0.013491975 -0.029244423 -0.018342039 -0.15617293 0.050571777
-0.0052492414 0.016432863 0.011303062 0.024128055 0.022831466 -0.006733761 -0.016297592 -0.024412436
-0.0054496587 -0.046976797 0.0032742866 -0.2180324 -0.007932676 -0.009424122 -0.038741313 -0.054457344
0.07330603 0.0075247837 -0.047806505 0.046737146 0.03923451 -0.022135004 -0.010805545 -0.028741224

cvae_parameters.dec_01_lin_b f4 [128]
00000000: 7577 b83d c47b 503e 061a 8abd 934a 683e
00000010: f561 2dbe 1d70 153c a6bd 52bd f596 633b
00000020: a3a7 ca3b 8975 6b3c a5b9 703b 48f1 913c
00000030: d6d8 1f3d aa97 123e d0c4 fbba b47d fb3d
00000040: 71a7 e33c eceb d6bd 02b9 40bc 9204 103d
00000050: 634b f3bd 3be2 02be 723e fdbd 4c4b acbd
00000060: 0425 513e 9edb 10be ca06 953d e814 c43d
00000070: 877f 283d 7240 17be 6c21 73bd fabc 4c3d
00000080: b92d 97bb 6660 503c 7fe3 2bbe 748a d23b
00000090: e83f 2dbe f3ce 67bd 6645 a53d 56de e3bd
000000a0: e266 513c fb7d 153d 3d1e cabd c701 0d3d
000000b0: 80a5 173d 7cd8 3c3e 7f73 b1bc b909 aa3d
000000c0: e79e 5a3d f374 50be 4e65 81be b5fd 3d3c
000000d0: ca9b ce3b 3bad c1bc dbed b43d 03cf 16be
000000e0: 95ab 5d3c aa2a 8fbd d819 813d c84a b93b
000000f0: 5476 0b3d d481 893e 65f3 363c 2001 1e3d
00000100: 9353 823c 90a1 503c 66ca c93c c9f5 073d
00000110: b8e1 0abe 7455 503c e93f cdbc 75be a8bd
00000120: 6490 cc3c 5223 5dbd bdd8 22be 7880 5e3d
00000130: 72a3 93bc 8c95 9dbd ed0f b0bd d240 25bd
00000140: 10f1 963b 616b 863d dd26 9b3e 6e6e c0bd
00000150: 7fb0 093d 4af6 aebb f399 193d 1d90 183d
00000160: f4dd 1fbe 2f84 cb3c 4c76 f53d 5ce1 ccbd
00000170: 9405 c03e 6d11 113d 9eec 113d 949c ca3c
00000180: b4f9 d03d 592b 413d 06ad ea3c 22f5 e8bc
00000190: cc19 053d 9948 c43c 81b3 4e3d 101a 153c
000001a0: 8b3a 0ebe 95f7 d33b 6c03 ac3e bdb7 8ebb
000001b0: c0d8 50bb 4afe f4bd 5886 9bbd a50c 213c
000001c0: 8cae 223c 5dcf 953b f26c f5bc b297 abbd
000001d0: 7a04 8c3e 9ac0 a13e 5763 abbd 14bc 083d
000001e0: 2500 31bd 54f6 40bd 2bc4 533c 6bb7 973c
000001f0: e613 6dbd 0101 58bd bd58 e13c 6959 fcbd
0.090071596 0.20359713 -0.06743245 0.22684698 -0.16931899 0.009120968 -0.051450394 0.0034727429
0.0061845346 0.014371284 0.0036731747 0.017815247 0.03902515 0.14315668 -0.0019208435 0.12279835
0.027789803 -0.10494217 -0.011762859 0.03516061 -0.11879613 -0.12781613 -0.12365426 -0.08412799
0.20424277 -0.14146277 0.072766855 0.095743 0.041137245 -0.14770678 -0.059358045 0.04998491
-0.004613605 0.012718296 -0.16786002 0.0064251963 -0.1691891 -0.056593847 0.08069877 -0.111263916
0.012780877 0.036497097 -0.09869049 0.034425523 0.037023067 0.18441957 -0.021661518 0.08302636
0.053374197 -0.20357113 -0.25272602 0.011596133 0.0063051926 -0.023642173 0.0883443 -0.14727406
0.013529678 -0.069905594 0.063037574 0.0056546666 0.034048393 0.26856863 0.011166428 0.03857529
0.015908992 0.012733832 0.024632644 0.033193383 -0.13562667 0.012715686 -0.025054889 -0.08239452
0.024971195 -0.053988762 -0.15902992 0.054321736 -0.018022273 -0.076945394 -0.085967876 -0.04034502
0.0046063736 0.0656345 0.30303088 -0.09396063 0.033615585 -0.0053394185 0.037500333 0.037246812
-0.15612012 0.024843303 0.11985454 -0.100039214 0.37504256 0.03541701 0.035626046 0.024732865
0.10203877 0.04716048 0.028646957 -0.028437201 0.032495305 0.023960399 0.050464157 0.009100452
-0.1388952 0.006468723 0.3359636 -0.0043553994 -0.0031867474 -0.11962564 -0.075939834 0.009829675
0.0099293105 0.004571839 -0.029959176 -0.08378543 0.27347165 0.31592256 -0.08368557 0.03338249
-0.04321303 -0.047109917 0.012925188 0.018520078 -0.057880305 -0.052735332 0.027508134 -0.12321741

cvae_parameters.dec_01_lin_w f4 [128, 128]
00000000: f7f6 e73d 58e8 f93c 35b6 d4bd 2480 23bd
00000010: 62f7 31bd 18c7 77bd cb80 0dbb d82a cdbd
00000020: 5974 1b3d e484 24be 7a01 3ebe 4939 5ebc
00000030: 1779 77bd 8ae6 0abe 7375 ccbd 4b0b 7abb
00000040: 8007 dcbd 5c73 8cbd ec0d 553a 6b70 92bd
00000050: 5d80 6abd c776 70bd 4395 46be 442e f8bc
00000060: ad17 a0bb 594f 51bd 9c14 86bd 8c3b 42bd
00000070: d526 fcbc 3a4a 93bd 105c b3bc 3efc 78bd
00000080: 0128 80bc ab0b ab3d 518e d5bd 3c95 70bc
00000090: 8cc6 c8bd 9ecb 1ebd 3fc4 e2bc 8fe2 82bd
000000a0: 976e df3c da92 c3bd f8b6 c2bd 3326 dcbd
000000b0: af69 11be f873 e83b 976e f5bc b097 20be
000000c0: a628 ebbd a49c 07be 984b 033c f63f 1dbe
000000d0: 8688 a9bd 1189 763d dce2 bdbd 7bce 9cbb
000000e0: a676 29bd bc17 c93a 460a d9bc 80c1 eebc
000000f0: cfb6 c2bd eaa0 6bbd a53e 98bd 6ed2 30be
00000100: 4ee9 453b 0794 b9bd ed90 55bd 733a 5cbd
00000110: 984e 80be 2b32 65bd 6fee 653d 4bd3 b0bd
00000120: 06ab 893d 0b5f 16bc 4de9 8d3c b45c 0abe
00000130: 881c df3d f649 03bd e3de a3bb 760b a2bd
00000140: 0c61 a1bc f31b b33d dbbb 00bd 978a a7bd
00000150: 8922 c6bc a4ee 07be 4298 743c 6cb1 5abd
00000160: d237 56be 19db 10bd 4ca4 98bd 2b16 0ebe
00000170: 1130 d33b f13b 1bbd bba5 1dbd a410 eebc
00000180: 9bab a7bd f8cd e9bc 5e74 4e3c 66a2 20bc
00000190: c425 ae3c 020e 2fbd 27e0 69bd 6765 3bbd
000001a0: ee48 7abd 1a38 933c 7ac8 91bd 4ffd 95bc
000001b0: 8b79 4fbd cab4 11bd d179 97bd 0106 1f3e
000001c0: 7d94 46be ddb5 b5bd 1603 0dbe de30 913d
000001d0: 7608 e23c 6bb8 2ebd c6a3 f8bd 4802 ffbb
000001e0: d10e 9bbd 3eab 71bd 42b1 55be 6af1 dcbd
000001f0: a389 c43d 5fc9 963c b1a2 543c f2de f73c
00000200: 0eb7 ffbb 9a2b 813d 4884 12bd 03c9 be3c
00000210: 8602 4bbc 3a86 2a3b 871e 2bbd 27ae 983d
00000220: c27f 8a3d c536 11bb a5f8 ebbc 7569 073e
00000230: 272f 2f3d b3da 34bd 939c e2bc 85af aebc
00000240: 13b3 dd3c 2644 c53c f74d 94bc d9d6 15bc
00000250: 0965 383d 323d 69b9 46ae 70bd c1df 30bd
00000260: 5803 463d 38aa 1a3d 8ac4 1e3d fce4 8c3d
00000270: 9299 5b3d 4745 093d d48b 5bbd ccd3 40bd
00000280: 6a28 fe3c 096b efbb c084 78bd 9222 e73b
00000290: 61b3 9bbd 6ce3 63bc 77f2 7f3d 103e a33c
000002a0: e7de 7fbc 59e1 ce3b 38c6 2b3c 9bfd bf3b
000002b0: 25e5 bf3d 0dc4 ac3c 70a3 37bc c438 633d
000002c0: c2f1 89bd da3d 9bbd 0311 6b3b 947c ef3c
000002d0: 83f3 f2bc 579b bebc f6ef 68bb 07ab 853d
000002e0: b73e d3bb cd45 af3b 9406 223d 78a7 353e
000002f0: 374a 57bb a0b6 8e3c 7084 4b3c befc 373d
00000300: e9e2 993c e4f3 2dbd 7907 e83b aec0 2c3d
00000310: fea8 e1bb f55f f43d 90e9 81bd f02c 3c3d
00000320: 9d7c ac3b 928d 823d 6611 513c c890 cdbb
00000330: 13cd 4eba c210 113c 8313 42bc fed7 83bd
00000340: d8cc 42bc b591 a9bc 5b99 45bd 77ad 8a3d
00000350: de4a 443d 7c4e 3abd 757a 1bbb 55cd 5cbd
00000360: eb92 0ebd 996c be3d cd3c d6bc c8ef 89bd
00000370: e189 61bc 9d33 95bc a5f2 d13c 2326 19bd
00000380: 784f 503c 615d 273c 0714 69bd aa64 0ebd
00000390: d19b 123d 39fe 6d3d 72f7 bdbd ae36 053c
000003a0: f8da e03b d11c 8fbb b525 bdbd 455f 7abd
000003b0: 3e59 d93c b73a 8c3c ca03 043d 9b47 83bb
000003c0: 46ed 49bd 3dba e13c ab57 5fbd a15c 01bd
000003d0: f58e 9b3c 84d2 173a 8fc7 bebb bb39 2c3d
000003e0: 1c45 d33c c74c c13d c063 2cbd 0de8 13bd
000003f0: ea46 103d 4e99 58bc 35bb 213d b67a 48bb
0.11326402 0.030506298 -0.10386316 -0.039917126 -0.043448813 -0.060492605 -0.002159166 -0.100179374
0.037952755 -0.16066319 -0.18555251 -0.0135634625 -0.060418215 -0.13564506 -0.09983339 -0.0038153704
-0.10743618 -0.068579406 0.00081273797 -0.07150348 -0.057251323 -0.058707025 -0.19392876 -0.030295499
-0.004885635 -0.051101062 -0.065469 -0.04742007 -0.030780235 -0.07191892 -0.021894485 -0.060787432
-0.015644075 0.08351835 -0.10427535 -0.014684018 -0.09803495 -0.038768403 -0.027681468 -0.06390869
0.027274413 -0.09549494 -0.09507555 -0.107494734 -0.14200471 0.0070939027 -0.02995996 -0.15682864
-0.114823624 -0.13243347 0.008013628 -0.1535643 -0.08277993 0.06018931 -0.092717856 -0.0047853566
-0.041372918 0.0015342156 -0.026494157 -0.029145002 -0.09507524 -0.057526506 -0.074338235 -0.17267773
0.0030198875 -0.09061437 -0.052140165 -0.05376668 -0.25059962 -0.055956047 0.05613559 -0.08634051
0.06722073 -0.009177933 0.01732316 -0.13511926 0.10894114 -0.032052957 -0.0050009354 -0.07912342
-0.019699596 0.08745565 -0.031429153 -0.08180731 -0.02418639 -0.13274628 0.014928879 -0.05339186
-0.20919731 -0.035365198 -0.07453212 -0.13875644 0.006444939 -0.03789896 -0.03848813 -0.02906067
-0.08187028 -0.028540596 0.012600986 -0.009804344 0.021258242 -0.04273797 -0.057098534 -0.045751
-0.061104707 0.017971087 -0.07118316 -0.018309264 -0.05065302 -0.035572805 -0.073962815 0.15529634
-0.19392581 -0.08872578 -0.13770708 0.07089399 0.027591925 -0.042656343 -0.12140612 -0.0077822544
-0.075711854 -0.0590012 -0.208684 -0.107882336 0.095965646 0.018406568 0.012978242 0.030257676
-0.0078038042 0.063071445 -0.035770684 0.02328921 -0.012390738 0.0026019947 -0.04177716 0.07455092
0.06762649 -0.002215789 -0.028805086 0.13223822 0.042769577 -0.04415388 -0.027662551 -0.021323929
0.027062928 0.024080347 -0.018103583 -0.009145462 0.04501823 -0.00022243409 -0.05875995 -0.04318214
0.048343033 0.03775999 0.038761653 0.06879613 0.053613253 0.033513334 -0.053600147 -0.047076985
0.03102513 -0.0073064608 -0.060673475 0.0070536816 -0.07602573 -0.013909202 0.062487092 0.019927055
-0.015617109 0.0063134846 0.010484271 0.0058590895 0.09369878 0.021089578 -0.0112084 0.055474058
-0.06735565 -0.075801566 0.0035868294 0.029234208 -0.029657131 -0.023267431 -0.0035543418 0.065267615
-0.006446685 0.005348897 0.039557055 0.17739666 -0.0032850632 0.017421067 0.012421712 0.044918768
0.018784957 -0.04246892 0.007080969 0.04217594 -0.0068866005 0.11932365 -0.06343377 0.045941293
0.0052638785 0.06374659 0.012760496 -0.006273363 -0.0007888835 0.008854093 -0.011845472 -0.064376816
-0.011889659 -0.020699361 -0.048241954 0.06771367 0.04792296 -0.045485005 -0.0023724113 -0.053906757
-0.03480808 0.09298057 -0.026152039 -0.06735188 -0.013765783 -0.018213088 0.025628397 -0.037389886
0.012714259 0.010215134 -0.056903865 -0.03476397 0.03579313 0.058103774 -0.09275712 0.008130712
0.0068620406 -0.004367449 -0.09235708 -0.061126012 0.026531812 0.017117841 0.032230176 -0.004006339
-0.049298547 0.027554626 -0.054526966 -0.03158248 0.018989066 0.0005791562 -0.005822129 0.042047244
0.02578979 0.09438472 -0.042087317 -0.036109973 0.03522388 -0.013220144 0.039485175 -0.003059072

cvae_parameters.enc_00_lin_b f4 [128]
00000000: 454a 07be 603a ecbd 9e9b 21be 9d65 cabd
00000010: ce46 d2bd 3699 43be 5ddc c1bd f012 a8bd
00000020: 846c aebd 272a d2bd 0f8a ccbd dcb1 27be
00000030: 081a 0b3e d3e7 08be e418 05be 68fb cbbd
00000040: 38e0 d7bd 3b27 18be 1f21 abbd a516 c9bd
00000050: 1bfc 9bbd 18b4 dbbd 8c25 a8bc e5ad 02be
00000060: ebb3 463e 6187 443e 323a 54bd ba09 a0bd
00000070: 5fe0 c7bd 1032 a0bd 54bd 20be 365b 0cbe
00000080: 9cda 98bd 4aca 90bd dad1 86bd bc7c 9cbd
00000090: 4976 d5bc 2563 143e 39d6 f6bd f2e3 34be
000000a0: 4dc3 22be b6ce 54bc a0bf 28bd 97dc 91bc
000000b0: 0b4e a8bd 6250 02be 4512 e03d 8f29 583d
000000c0: f77d f4bd 8a26 0ebe d9de 69be 8d42 06be
000000d0: 6c71 88bd 4792 10bd fa4a 1bbe 1d11 39be
000000e0: 3141 10be 7f85 08be bee9 abbd c851 4fbd
000000f0: ff52 ed3d 093a 0abe 2757 22be ce1e 1dbe
00000100: 21ba 3d3d 8678 b8bd e3e2 91bd 6968 a8bd
00000110: 27ef 19be ada0 c1bd 64e9 98bd c0ef b7bd
00000120: 2689 2cbe cedf cabd 0208 0bbe 249b f13d
00000130: e239 05be 1694 e0bd 97e6 c1bd c58b 3b3e
00000140: 6b47 d6bd 0e57 b7bd 09ad 92bd 4621 1fbd
00000150: f118 d8bd d345 7f3d 701c 1dbd 0a4a 3fbe
00000160: aa49 03be 010f b9bd a848 bcbd 5e53 93bd
00000170: ca2c 4ebd 9501 1ebd 9e14 bcbd 7704 a83d
00000180: b881 2ebe 0acb 54be 180e 90bd 5252 87bd
00000190: 105d e53b 7ea8 93bd da56 ccbd e8b2 bdbd
000001a0: dd7a d5bd f006 fbbd 175f e1bd af7b 6bbd
000001b0: 3c5f d9bd 2f7f 12bd 9993 52be 1ceb e8bd
000001c0: 607b 36be d4de 94bd 5a85 be3d c229 a4bd
000001d0: 90a7 f3bc e53f 34bd dc98 03be a2cd 0fbe
000001e0: 0161 023e 9830 ddbd f483 a1bb 12c2 6cbd
000001f0: 84ff 283e 6b24 9abd a2ab 3cbe ab36 e7bd
-0.13211925 -0.11534572 -0.1578202 -0.098826624 -0.10267411 -0.19101414 -0.09465859 -0.08206737
-0.085167915 -0.10261946 -0.0998727 -0.16376442 0.13584149 -0.13369684 -0.12997776 -0.09960061
-0.10540813 -0.14858715 -0.08355927 -0.09818772 -0.07616445 -0.107277095 -0.020525716 -0.12761648
0.19404571 0.19192268 -0.051813312 -0.07814355 -0.09759592 -0.07822049 -0.15697223 -0.13706669
-0.074635714 -0.070698336 -0.06582995 -0.07640979 -0.02605738 0.14490946 -0.120525785 -0.17665079
-0.15894814 -0.012988737 -0.041198373 -0.01780538 -0.082180105 -0.12725976 0.10940985 0.05277401
-0.119380884 -0.13881889 -0.22838916 -0.13111325 -0.066622585 -0.03529575 -0.1516532 -0.18072934
-0.14087369 -0.13332175 -0.08394192 -0.050615102 0.11588096 -0.13498701 -0.15853558 -0.15343782
0.046320084 -0.09007363 -0.07123353 -0.0822304 -0.15032636 -0.094544746 -0.07466391 -0.089812756
-0.16849193 -0.099059686 -0.13577273 0.11797169 -0.13010362 -0.10965745 -0.0946781 0.18315037
-0.10462841 -0.08952151 -0.0716191 -0.03885009 -0.10551632 0.06232245 -0.0383572 -0.18680587
-0.1282107 -0.09036065 -0.091935456 -0.071936354 -0.050335683 -0.038575727 -0.0918362 0.082039766
-0.17041671 -0.20780578 -0.07033938 -0.06607498 0.0069996193 -0.07209872 -0.09977503 -0.09262639
-0.10423825 -0.122571826 -0.11004465 -0.057491 -0.10613868 -0.035765823 -0.20564117 -0.113729686
-0.17820501 -0.072690636 0.093027785 -0.08015777 -0.029742986 -0.044006247 -0.1285128 -0.14043286
0.12732317 -0.10800284 -0.00492906 -0.057802267 0.16503721 -0.075264774 -0.18424848 -0.11289724

cvae_parameters.enc_00_lin_w f4 [128, 123]
00000000: 9315 b0bd 65b3 c0bd c9da a5bd 4b3a a8bd
00000010: a8f5 9e3d f061 89bd 1432 3abd a616 a2bd
00000020: b37a f9bc c14c 31be 8bbf 96bc 62b4 71bd
00000030: 980e a7bb 0a0b 15bd 3ef2 bcbd 43da 08be
00000040: 4b1d 88bc 6df1 98bd 65ea ac3c 1e42 eabd
00000050: 45ed a4bd 1b73 c4bd 81e4 a0bc 482a f8bd
00000060: c5e3 113d 9e06 a5bd 1b8c b9bd ab61 53bc
00000070: 3172 15bd c8c8 57bd 7350 bdbc 7e6b f9bd
00000080: 818e fcbd 35ea eebd a5d6 90bd f6b5 853d
00000090: f5e2 b3bd a183 f9bd ca39 323c f9d0 01be
000000a0: 872e 4dbd 3e26 8a3d c626 e8bd 6114 26be
000000b0: d296 b0bd f6b3 23bd 6105 80bc 7711 29bc
000000c0: 7a3f 31bd ddcc 19be 5dbc 063a 0671 87bd
000000d0: c3b9 a23d d4b0 51bc ecb6 023d f5a8 d5bd
000000e0: d562 993d b3a9 62bc 284f f5bc 06a0 b03d
000000f0: 5e87 87bc a080 96bd 2d3a 683d 50d2 f1bc
00000100: 0d58 9fbd 66ad 10bd 45a8 993c 7428 7f3b
00000110: dbc2 9fbb 88e9 dfba fb99 8ebd 394d 6cbd
00000120: 3484 4abd 091c 96bd c8b8 cfbd 3a0b 783d
00000130: 4fd5 b0bd 903a c63a 48be a1bd 632d 68bd
00000140: 3ec4 9b3c 21bf d33d 9445 06be 3eb6 123d
00000150: b385 32bd caa8 59bd bacb 143e 5579 0a3d
00000160: 5322 d9bb e150 233d 4c91 c1bd 46de 2d3c
00000170: 3268 023e 0dfa 05bd 4ac5 4abc eed4 ab3c
00000180: dd0e 65bc ebef 013d 1a0c 423d 6715 7ebc
00000190: badc c1bd 95d2 38bd c319 c6bc 5ead 0abc
000001a0: a9df f6bc e3dd 2dbd 063c adbd 2e46 b0bc
000001b0: 6626 aabd f83e bdbd 30c3 59bd fd1d 38bd
000001c0: a3b4 05bd 59bf 94bd 49cb a0bd 20f1 a0bd
000001d0: ddb0 82bd aa09 9bbd e82e 873d ab60 a7bd
000001e0: bc0b ccbb 2a0b 0cbe b26e 9d3c c911 98bd
000001f0: 65a2 92bd 1811 87bd 6260 7fbd 19a0 a63d
00000200: 2abf 97bd 5599 58bd 7bbc a5bd b329 03bd
00000210: fe8d ef3b 51ea 2c3d d97f 89bd f881 cdbd
00000220: 06bd 3ebd 39be 653d 6e2f ba3c 4305 8bbc
00000230: 396d eabd 2f6b f8bd cc18 86bd 66a1 433d
00000240: 3c25 a63b 1187 a3bc d2f6 15be 54e8 5bbc
00000250: 262e 8ebc 0395 f4bc 7995 95bc 7c69 5a3c
00000260: d59a 7abd 2044 64bc 56a4 14bd 7370 27bd
00000270: cb92 a23b d0e3 73bd d024 22bc 6706 053d
00000280: e254 31bd 1a0b 643a 96ad c93b 4b29 033d
00000290: 5592 d13a 50b4 f63c 201e eabd 53f4 4e3d
000002a0: 56cc 643c a0b0 2b3d c492 c73b e948 383d
000002b0: 23d7 01be b0ac a83d 56cb 893d b39d 733c
000002c0: bef3 923d 9f87 ee3c 5e3d 68bd 4492 4a3d
000002d0: 26fb 753d 55bc 84bb 73d2 d83d 5b06 fd3c
000002e0: e2b9 2cbd 40b8 af3a 6c70 d438 3de0 9a3d
000002f0: ef5c 8c3c fee9 6abd fe9a 86bd 7643 b8bd
00000300: 0846 603c 5b76 713d 0329 bd3c c308 34be
00000310: 19e0 c7bd e5ee a0bd 6b93 193d 0be1 eb3c
00000320: 8a52 813d 4553 abbd a181 ebbd c5bc 83bd
00000330: fa84 1cbb c3a4 1eba ebf0 873d aa7d 84bd
00000340: b5a8 00be 7233 84bd 506f 55bd 46e1 793d
00000350: caed 4c3d 2125 01bd 2f4b 84bd acaa e63a
00000360: b5e7 c5bc b1b4 8e3d 2c40 ab3d 879b 09bd
00000370: af65 a6bd 1ac3 193d cc9e 44bc 48bd 313c
00000380: ce35 c83d e9f7 233d 4d51 10bd 68f2 cebd
00000390: 8485 73bd 7bd6 2c3b 5dc6 b8bc 49eb 7abb
000003a0: 889e a4bd 3394 acbd edce debd 015b 8abc
000003b0: 9e2e b8bd afd9 6fbd ca47 7abd e9a3 b9bd
000003c0: 906e b3bd b965 383d fd5e 83bd e7b7 30bc
000003d0: 34b9 cebd 40f5 90ba 0263 c1bd 6d1c efbd
000003e0: f428 e2bd b6c0 c1bd 1747 cd3d 4377 e6bd
000003f0: 7c8f 71bd bcc7 d2bd 6104 c2bc 20e4 cdbd
-0.08597865 -0.09409217 -0.080983706 -0.082142435 0.07761699 -0.06708133 -0.045457914 -0.07914476
-0.030454015 -0.17314436 -0.018401882 -0.059009917 -0.0050981753 -0.03638748 -0.092258915 -0.1336451
-0.01661553 -0.07467923 0.021107862 -0.11438392 -0.08053068 -0.09592267 -0.01964021 -0.121174395
0.03561761 -0.08057903 -0.09059926 -0.012901704 -0.036485855 -0.052681714 -0.02310965 -0.12178706
-0.12331868 -0.11665765 -0.0707219 0.06528847 -0.08783523 -0.12183309 0.010878036 -0.12677373
-0.0500932 0.06745575 -0.113355204 -0.16218711 -0.08622517 -0.039966546 -0.015627565 -0.010319105
-0.043273427 -0.15019555 0.00051397627 -0.066133544 0.079455875 -0.012798507 0.03191273 -0.104326166
0.07489554 -0.013834405 -0.029944971 0.08624272 -0.01654404 -0.07348752 0.056696106 -0.02951923
-0.07780466 -0.035321616 0.018756995 0.0038934024 -0.0048755235 -0.0017083148 -0.06962963 -0.057690833
-0.049442485 -0.07329566 -0.10142666 0.06055758 -0.086344354 0.0015123654 -0.078976214 -0.05668391
0.019014474 0.10339189 -0.1311248 0.03581833 -0.043584537 -0.053139485 0.1453084 0.033807117
-0.006626406 0.039872054 -0.09451541 0.010612076 0.1273506 -0.03270917 -0.012376139 0.020975556
-0.013980594 0.031722944 0.047374822 -0.015508032 -0.094659284 -0.0451227 -0.024182206 -0.0084641855
-0.030135946 -0.042447936 -0.08458714 -0.02151784 -0.08308105 -0.09240526 -0.05316466 -0.044950474
-0.03264297 -0.07263059 -0.078512736 -0.07858491 -0.0638139 -0.07570203 0.066007435 -0.08172735
-0.006226985 -0.13676134 0.019217823 -0.07425267 -0.071598805 -0.06595057 -0.062347777 0.08136005
-0.074095085 -0.052880604 -0.080925904 -0.03202219 0.007310628 0.04221565 -0.06713838 -0.10034555
-0.046566986 0.056089614 0.022727694 -0.016970282 -0.11446614 -0.12129819 -0.065476984 0.047761343
0.0050703567 -0.019961866 -0.14644936 -0.013422091 -0.01735599 -0.02985621 -0.01825975 0.0133308135
-0.061182816 -0.013932258 -0.036289535 -0.040878724 0.0049613467 -0.05954343 -0.009896472 0.03247681
-0.04329384 0.0008699164 0.0061547263 0.032021802 0.0015989045 0.030115277 -0.11431527 0.050525974
0.013964733 0.04191649 0.006090494 0.044991408 -0.12679724 0.082360625 0.067282364 0.014869141
0.071753964 0.029117404 -0.05669915 0.049455896 0.060053967 -0.0040507712 0.10587015 0.03088682
-0.04216946 0.0013406351 0.00010129888 0.07562301 0.017134158 -0.05735206 -0.06572531 -0.08997242
0.013688572 0.058950763 0.023090845 -0.17581467 -0.0975954 -0.078580655 0.037494104 0.028793832
0.06314571 -0.08365492 -0.11499334 -0.06432489 -0.002388297 -0.0006051773 0.06637748 -0.06469281
-0.12564357 -0.06455125 -0.05210811 0.061005853 0.05003146 -0.03152955 -0.06459653 0.0017598472
-0.024158338 0.06968058 0.08361849 -0.033595588 -0.08124863 0.03753958 -0.012000751 0.010848351
0.097758874 0.040031347 -0.035233784 -0.10104829 -0.059453502 0.0026372958 -0.022555524 -0.0038287214
-0.0803805 -0.08426704 -0.10879312 -0.016889097 -0.089932665 -0.05855721 -0.06110362 -0.090644665
-0.087613225 0.045018885 -0.06414602 -0.010786033 -0.100939184 -0.0011059418 -0.09442712 -0.11675344
-0.110429674 -0.09460585 0.10023325 -0.11253216 -0.058974728 -0.102920026 -0.023683729 -0.10053277

cvae_parameters.enc_01_lin_b f4 [128]
00000000: 74a8 3f3e 51de 9bbd 2621 203e aedf 82bd
00000010: 32a3 20bd 01d2 253e 82f9 32bc d582 56bd
00000020: dd43 1dbc 2afb 97bd 99c2 0dbe ff30 49bb
00000030: 044d 98bd 93fd 84bd b13b 4dbd 5b39 873c
00000040: b70b 2e3e 960e 7fbd cd9d 02be ba44 a9bd
00000050: 6f82 10bd 2751 1abd 609e 96bd 50a6 e83b
00000060: 31a1 e8bd 9f73 14bd 4573 34bd 6584 ddb9
00000070: 511f 89bd 70d4 a4bc f330 6ebc 4350 483e
00000080: 1305 a3bd 0f5d b7bd bb80 35bd 3283 8abd
00000090: 54f5 c63c 0960 25bd 576a 21bd 8616 e2bd
000000a0: 6ea1 20bd 6778 013b 4602 ef3d b25c 9abd
000000b0: 697d 39bc 7fee 9abc 185d 2dbc 4093 80bd
000000c0: 4ee6 12bd d0bc 17bd ad6b 1ebd 148b 703a
000000d0: 52fd e0bd 3b74 90bd 3347 2b3d 7c6d a1bc
000000e0: c4b8 90bd a28d eabd f884 37bd 111d 02be
000000f0: ea96 79bd 1d42 fbbc f60e 8dbd cd48 4ebd
00000100: 69e2 2dbd ce6d 35bc a08d a0bb dae6 a1bc
00000110: a88a e0bd ccdb 6fbc d19a 52bd d088 c33c
00000120: a306 2ebc 6f6b 36bd c1d3 51bc 1aca 2c3e
00000130: 2859 143b 896c 3dbd c98e dfbd 9c57 c6bc
00000140: 323f 8fbd 023f 5e3c c626 81bc 8ffd cabd
00000150: ac37 5fbd 5517 93bd 3033 a3bc 3b87 17bd
00000160: 0c36 0bbd 7eec 8cbd b87c 09bd 8f18 21bd
00000170: 1a7d 54bd e34e 90bc d4e7 3dbb afdb 74bc
00000180: 20ee 3a3e d474 1dbd 9dd4 b2bd 3f95 c3bd
00000190: 9394 09bd 566d 97bd ad0f f0bc 883d 5abd
000001a0: 5dfe 0ebd a3c4 d4bd eb67 e1bd 2dbb 92bd
000001b0: b425 09bd 20dc 273d 0026 8cbd 86c3 31bd
000001c0: 55d9 2f3c 4fe1 e8bd 35da 4abd 72dd 60bc
000001d0: 9793 a93b b43f b73b 7993 fabc 5878 98bc
000001e0: dafa c4bb 7cfa aabc 902d ecbc adc5 4abd
000001f0: 4d5a 7ebd 97bb e7bc 3daa 38bd 9739 45bd
0.18716604 -0.07610763 0.15637645 -0.0639032 -0.039218135 0.16193391 -0.010923745 -0.052370865
-0.009598699 -0.074209526 -0.13843764 -0.003069937 -0.074365646 -0.06493678 -0.050105754 0.016506841
0.16996656 -0.06226977 -0.12755509 -0.08265062 -0.03528064 -0.03767505 -0.073544264 0.007099904
-0.1135887 -0.036243077 -0.044055242 -0.00042251046 -0.06695426 -0.02012083 -0.014538038 0.19561867
-0.07959952 -0.089532964 -0.04431222 -0.06763305 0.024286903 -0.04037479 -0.039408054 -0.11039452
-0.03921645 0.0019755603 0.116703555 -0.075372115 -0.011321404 -0.018912552 -0.010581277 -0.06278086
-0.035864167 -0.0370453 -0.038676906 0.00091759977 -0.10985817 -0.07053419 0.041815948 -0.019705527
-0.07066491 -0.114527956 -0.044804543 -0.127064 -0.06093494 -0.030671174 -0.06887619 -0.050362397
-0.04245225 -0.011073543 -0.0048996955 -0.019763399 -0.109639466 -0.014639806 -0.051417176 0.023868948
-0.0106216995 -0.04453605 -0.012806834 0.1687397 0.002263615 -0.046246085 -0.10915906 -0.024211697
-0.069944754 0.013564827 -0.015765559 -0.09911644 -0.054496452 -0.071821846 -0.019921869 -0.0369942
-0.03398709 -0.06881045 -0.033566207 -0.03933006 -0.05187712 -0.017615741 -0.0028977292 -0.014944955
0.182549 -0.038441494 -0.08731959 -0.09549951 -0.033588957 -0.07393901 -0.02930435 -0.053281337
-0.03491055 -0.10389068 -0.11006149 -0.07164607 -0.033483222 0.040981412 -0.068431854 -0.043399356
0.010732968 -0.11371099 -0.049524505 -0.013724672 0.005175065 0.005592311 -0.030587899 -0.018612072
-0.006011349 -0.020871393 -0.02883032 -0.049504925 -0.062097836 -0.028287692 -0.045084227 -0.048150625

cvae_parameters.enc_01_lin_w f4 [128, 128]
00000000: 87ab 52bc 3762 ce3c 2114 1dbc 528f 303c
00000010: d95e f9bb bf11 ad3c fa7b cb3b c6f1 c8bc
00000020: 6caa 64bb 293c ff3b be0f 16bc 4665 b239
00000030: 86f7 e13c 39dc 30bb 47e9 01bd f9aa c23b
00000040: f34e d5bc c4ec 5cba 7767 443b 4cab 663c
00000050: a490 8a3b a52e 493c 11ce 5abc 355c 51bc
00000060: c85b 503d 3c95 fd3c cf04 6a3c 951e 05ba
00000070: e5c3 84bb f0c7 5e3d 5394 03bc e001 9c3c
00000080: 71a9 e13c bb39 6d3b 5ea0 e63c 910e 983c
00000090: e388 14bc 851c b7bb ae37 edbb 9e41 48ba
000000a0: 0fa0 16bc 0fb0 623b 343e 803c 0156 b93b
000000b0: 03a6 44bc c664 3a3b 87c3 033d c5db 6abc
000000c0: 5d51 b63b aeee 29bc b4e8 a5bb 448b 9a3b
000000d0: dd49 073c da6d 4f3c 75a7 a2bc a787 cabc
000000e0: a99c bf3b 3d58 b5bb 80fe fb3c 30cc b53b
000000f0: d068 f93b 6a6e b83c 61fc 0b3d d213 dd3b
00000100: 4769 173c 0980 303d 1b16 8bbc 6bd8 103b
00000110: bcd0 ca3c cbae 04bc b012 6d3c d5bf 8c3b
00000120: 30a0 ad3c 5b4d b33a 20dc 2fbb 34cd 673c
00000130: f6bd 363b 1078 643b 5620 b0ba ce2a 1f3d
00000140: c57d c2bc d1a1 c8ba e777 b8bb 6a72 343c
00000150: eafc 19bc 83ca 0dbc be2a 03bd c6ae 6139
00000160: a425 a4bc da87 c0bc 8b5a f0bb a242 aaba
00000170: 0c23 04bc 36a0 f23b c73e 3d3c 5e44 383c
00000180: 4b50 54bc c107 90bb ee03 2d3b 3016 ad3c
00000190: ec59 923b 0a62 183d 537f 57bb 9d76 09bd
000001a0: 388b 95bc a64c 213d 1d9d afbb 46fb 0a3c
000001b0: f500 cdbb feea 943b 329f 5cbc ae8a ab3b
000001c0: 87ea fd3b ba89 98bc ffd9 203c 7927 303b
000001d0: 22f2 b7bc cd19 da3b 1d8a 573c 17e3 853b
000001e0: 9c2a f23a b438 093c 2b64 ed3c 11a1 343d
000001f0: f790 6f3c 6848 9e3c 7147 7d3c 92f7 d63a
00000200: 2e7f bfbc 60ef 2ebd ce4b 36bc 5c80 e23c
00000210: b229 77bd 4893 ff3c 2e5d 11bd df82 5bbd
00000220: ebb5 a7bd af67 b8bc 912f b03c f5a8 463d
00000230: 3d85 f8bd 7e99 21bc b15d 6cbd a061 1cbd
00000240: 882c 043d 5d0c c9bc 7a39 23bc eae3 ecbc
00000250: 31d4 b13d 4e66 23bd 9a31 3cbb cc78 003d
00000260: 155c cfbc b03b 8dbd 0240 c63b cb81 d9bd
00000270: 90f9 a2bc 256e 32bc c438 a13c 9366 08bd
00000280: 0d90 833c d2fb de3c fec2 0d3d 6f85 863d
00000290: 5267 20bd dc8d 3a3b 7a91 be3c d55d 753d
000002a0: 35da 103d 0a80 d3bd 4f94 42bd 4c92 dcbc
000002b0: b5a2 c73c b949 6d3b 4b11 ebbb 527c 1bbd
000002c0: 44de 833d 5da9 343d f1d8 7e3d 504b 6f3d
000002d0: be12 d63c e5de 7cbd 7931 903c 0147 d43c
000002e0: 2f59 c2bc 12cb 34bc 1624 a33c 5a77 e53c
000002f0: fb04 0cbe ba15 363d 2cbb 193d 3937 0ebd
00000300: e197 9c3d 6e20 073d 359c 85bc 9bce fa3a
00000310: 805e 40bc 06e0 d3bc f75b 30bd fe81 1b3c
00000320: 95ba 123d 64f3 763d 66ae 13bd 99d0 96bd
00000330: 7f50 37bc e459 bf3d d080 b43c d497 14bc
00000340: e498 363b 1572 ce3c 08a9 ec3c 6a32 03bd
00000350: ac0e 253d e210 223d 6d3b 19bd 8cba c13c
00000360: cbdd 4c3c a619 b7bc a122 643d bdf6 df3c
00000370: 99cc f6bc c7a5 823c 390a d33c 7439 093c
00000380: fdc0 043d 3108 783d 96e5 503c db41 fdba
00000390: 5c8a a23d 42bb e4bc cea8 0fbd 6e8b 34bd
000003a0: e007 99bc 0671 84bb 6f69 203b 673f 96bd
000003b0: fba9 f83c c7e6 d8bd 1a52 633d 7e94 5bbd
000003c0: fcc2 283d 1e5d 9e3d 8c21 39bb d5ea 7b3c
000003d0: 7c4d d93b 32e5 3abc 3a83 523c e844 443c
000003e0: efbd b53c 5052 b73b 83b0 b1bc 0c80 73bd
000003f0: e47d 15bc febd 57bb 99ed 2a3d 82a2 233c
-0.012858278 0.025193317 -0.009587319 0.010776358 -0.0076101837 0.021126626 0.0062098475 -0.024529349
-0.0034891618 0.007789154 -0.009159027 0.0003402626 0.027583849 -0.0026986732 -0.03171661 0.0059407917
-0.026038622 -0.0008427615 0.0029968896 0.014078926 0.0042286683 0.012279187 -0.013354794 -0.0127783315
0.05086878 0.03095495 0.014283373 -0.00050781044 -0.0040516728 0.054389894 -0.008030969 0.019043863
0.027546616 0.003619774 0.02815264 0.018561633 -0.009065839 -0.0055881166 -0.0072393036 -0.0007639172
-0.009193434 0.0034589802 0.01565466 0.0056560044 -0.012002471 0.0028441413 0.03216889 -0.014334624
0.0055638985 -0.010371847 -0.0050631408 0.004716309 0.0082573565 0.012660468 -0.01985524 -0.024722887
0.005847533 -0.0055342005 0.030761003 0.0055480227 0.0076113716 0.022513587 0.034176234 0.0067467475
0.009241409 0.043090854 -0.016978314 0.0022101651 0.024757735 -0.0080983145 0.0144697875 0.004295329
0.021194547 0.001367967 -0.0026834086 0.014148045 0.0027884222 0.0034861602 -0.0013437371 0.03885918
-0.023741612 -0.0015307014 -0.005629528 0.011013607 -0.009398678 -0.00865424 -0.032023184 0.0002152278
-0.02003748 -0.02350228 -0.0073350123 -0.0012989829 -0.008064996 0.0074043525 0.011550612 0.011246769
-0.012958596 -0.0043954556 0.0026400047 0.021128744 0.004466286 0.037202872 -0.0032882288 -0.033560384
-0.018254861 0.03937974 -0.0053593055 0.00848276 -0.0062562176 0.004544615 -0.0134656895 0.0052350378
0.007748905 -0.01862036 0.009817599 0.0026878996 -0.022454325 0.0066559077 0.013155487 0.004085909
0.0018475833 0.0083753355 0.028978428 0.044098917 0.014621965 0.019321635 0.0154589275 0.0016400686
-0.023376074 -0.042708755 -0.011126472 0.027649097 -0.060342498 0.031198159 -0.035489254 -0.053591605
-0.08188995 -0.022510378 0.021507056 0.048500974 -0.12134788 -0.009863256 -0.05770654 -0.03817904
0.03226903 -0.024542028 -0.009962434 -0.028917272 0.086830504 -0.039892487 -0.0028716088 0.0313652
-0.025312463 -0.0689615 0.006050111 -0.10620459 -0.019894391 -0.010890518 0.019680388 -0.033300947
0.0160599 0.027219687 0.034609787 0.06568419 -0.039161034 0.0028465902 0.023262728 0.05990394
0.03536435 -0.10327156 -0.04750472 -0.026925229 0.024369577 0.0036207272 -0.0071736923 -0.037960358
0.06438878 0.04410683 0.06221861 0.058421433 0.026131984 -0.061736006 0.017601715 0.025912764
-0.023724167 -0.011034744 0.019914668 0.028011013 -0.13673775 0.044454314 0.037532017 -0.034720633
0.07646156 0.03298991 -0.016309837 0.001913506 -0.011741281 -0.025863659 -0.043056455 0.009491442
0.03582247 0.06029071 -0.03605499 -0.073640056 -0.011188625 0.09343317 0.022034079 -0.009069402
0.0027862126 0.025200883 0.028889194 -0.0320305 0.040297195 0.039566882 -0.03741019 0.023648523
0.012504051 -0.022351097 0.055697087 0.027339334 -0.030126857 0.01594819 0.02576171 0.008375514
0.03241061 0.060554687 0.01275005 -0.0019321995 0.07936546 -0.027921323 -0.035073094 -0.044078283
-0.018680513 -0.0040417938 0.0024476906 -0.07336312 0.03035449 -0.10590892 0.05549822 -0.05360841
0.041201577 0.077326044 -0.0028248755 0.015375813 0.0066315513 -0.0114071835 0.01284867 0.011979319
0.022185294 0.005594529 -0.021690613 -0.059448287 -0.009124253 -0.003291964 0.041730497 0.009987475

cvae_parameters.out_lin_b f4 [120]
00000000: bbc7 a43e ad79 123f cced 0d3f b0c5 ac3e
00000010: 13f6 f1bd 26d8 d13e 9dde 733e 99bc dc3e
00000020: b4c0 053f 952a 913e 845e e7bd 6e00 c23e
00000030: c08e 4c3e 3dbe 863e 8516 b93e 9232 2f3e
00000040: 9bda f93b 75a4 313e 642b 163e f6a4 513e
00000050: 1023 2e3e 0687 743e 4991 6b3c 76cb 1a3e
00000060: ff38 133e 3b44 813e 1a1c dd3d 3e15 383e
00000070: c51d 81bd f03f 353e 5d45 3e3e 39bb 7d3e
00000080: 8cd8 503e d63d 0c3e 090d 5dbd d683 7c3e
00000090: 193c 5b3e 5163 833e 14d7 b33e d197 003e
000000a0: abdb bdbd 3d95 833e be37 413e 31e9 9f3e
000000b0: d9c0 da3e aae8 423e 1e96 02be f8b7 a93e
000000c0: 4ee2 fc3d 0bc5 bb3e 08e4 e33e f484 6e3e
000000d0: 62ae 1ebe 66d2 943e 3cd7 423e fac4 943e
000000e0: 327f ac3e cb0f fd3d 0cc5 c8bd 2a6b 0a3e
000000f0: 3596 e03d 7cab ae3e a8a2 2b3e f383 653e
00000100: 9368 e2bd 40dd cf3d 34be 393e 2331 583e
00000110: bb54 193e 1b6c a83e ca46 0ebe 3d6d 083e
00000120: f7f9 683e 1b4a 223e 1b9f 6b3e 3e6d 5b3e
00000130: 61c8 36be baaf f83d 06da 4d3e ce17 533e
00000140: 0106 453e 9585 803e a5f7 24be 31e8 373e
00000150: ffbf 5d3e 1f64 5a3e a071 d23d f4d5 ae3e
00000160: 729f 10be 284b 8a3e 685f 5a3e a23e 4b3e
00000170: f8f5 b13d 582f a13e 6603 37be 4c33 933e
00000180: 4a7b 613e 9c38 2c3e a6a5 ac3d 4698 083e
00000190: 7722 53be 5be6 493e 511a 7d3e 0f8d 623e
000001a0: 6c14 9b3e 58b1 293c e2fa 8bbe 575c 393e
000001b0: cf7b 773e d7e4 e33e c53f f83e cc48 233e
000001c0: 9a62 16be d761 b73e 064c a73e 5ee9 113f
000001d0: 51cd 0c3f b1b1 b03e fafe f7bd c9a0 d13e
0.32183632 0.5721691 0.55440974 0.33744574 -0.11814513 0.4098522 0.23815389 0.4311264
0.52247167 0.283528 -0.11297324 0.37890953 0.1997633 0.26317015 0.36149994 0.17109135
0.0076249368 0.17347892 0.1466499 0.20473084 0.17005563 0.23879632 0.0143779 0.15116677
0.14377211 0.25247368 0.107963756 0.17976853 -0.06304506 0.17700171 0.18581147 0.24778451
0.20395106 0.13695464 -0.05396751 0.24659666 0.21409644 0.2566171 0.3512503 0.12557913
-0.09270414 0.25699797 0.1886892 0.31232598 0.42725256 0.19034067 -0.12752578 0.3314817
0.12347852 0.3667377 0.44509912 0.23292905 -0.1549621 0.2906677 0.19027418 0.2905653
0.33690792 0.12356528 -0.09803209 0.13517442 0.1096615 0.34115207 0.16761267 0.22413616
-0.11055102 0.10149622 0.18138963 0.21112494 0.14973728 0.32894978 -0.13894191 0.13322921
0.22751604 0.15848581 0.23009913 0.21428391 -0.17849876 0.12142892 0.201027 0.2061455
0.19240572 0.25101915 -0.16110094 0.17959668 0.21655272 0.21327256 0.102755785 0.34147608
-0.14123324 0.27010465 0.21325457 0.19848111 0.08689493 0.31481433 -0.1787239 0.28750074
0.22019687 0.1681847 0.084300324 0.13339338 -0.20618616 0.1971678 0.2471707 0.22124122
0.30289018 0.010357223 -0.27339846 0.18101631 0.24168323 0.44510528 0.48486152 0.15945739
-0.14686051 0.35816833 0.3267519 0.56996715 0.5500079 0.34510568 -0.1210918 0.40942982

cvae_parameters.out_lin_w f4 [120, 128]
00000000: afd2 edba 3c00 683b b1ba a13c adcc 963b
00000010: e73a 343b e0a7 caba 3dba ffba 77ba 92bc
00000020: 38f8 d4bb 4738 023c a939 78bb 83f6 153c
00000030: d54a 613c 918e 243c 5534 47bc da02 463c
00000040: e3ca 86bc 7a2f f5bb 46fc f63b c01f 713c
00000050: 06c1 1e3b 0309 86ba 94b0 8abb a47b ddbc
00000060: 11c9 7b39 3b2a 9eba fa52 363c dd6f 03bb
00000070: 1d85 bf3b d9c1 093b af70 763a 658c 2fbc
00000080: 61ef 0e3a c3f8 86bb 09e4 77bc 4792 1e3c
00000090: fa58 b4bc 071e 5cbb feea a3ba 2d05 e4bb
000000a0: aeb7 bbba d7e3 883b 179b d039 d029 873c
000000b0: a94b 233b 7c9f 8abb 03dc 55bc ca55 533c
000000c0: a925 ea39 3026 5b3c f3be b23a 9039 bfbb
000000d0: 7476 b43b 4598 b63b a949 faba ca8a 813b
000000e0: 698b 01ba 0cbf ecba 4109 543c 6fd1 08ba
000000f0: bd80 743b 57e0 dc3a 3b58 803c 51ab 333c
00000100: f854 a93c c7bc ad3b 4faa 5a3c cf93 fdbb
00000110: 7a89 b6bb af8b fe3b 8ce1 02b9 79f2 05bc
00000120: ac61 e7bb fefd 3fbc e502 d2bb bc9c c8bb
00000130: de12 483c 19eb 09bd cfc3 053c 9cf9 49b9
00000140: d7e0 e53c d846 f53b c376 3b3b 4347 14bc
00000150: 186f 193b c255 78bb 623f f23b 6ab1 553b
00000160: 5a98 8d3b 5662 723c 1779 e2bb fb0e 2fbc
00000170: dd7b a8bb f30b 673b 2a0d 4b3b bda1 9a3c
00000180: 68d0 193d f825 dd3c 79a2 0f3b d6ff 5e3b
00000190: feae 91bc 1b7b 073c 889e 963a 01e0 b8bb
000001a0: 9fc8 743b 6546 d63c 85d9 1abb 1707 b0bb
000001b0: 2b35 273c c322 bc3a cc37 2d3b 80c0 bbba
000001c0: 1a5e 8d3b 7e45 893c 154c 77b9 8cae bebc
000001d0: 2422 8739 563c e73a a82e b23b ced7 0f3c
000001e0: 000e 103c caef 4fbb a803 ad3b 3536 6b3b
000001f0: e644 c5ba f417 b03b a57f 183c 7242 403c
00000200: da45 55ba deb5 813b 73ca 9fbc ab16 30ba
00000210: 61ff 0e3c 16fe bcbc 5d96 1cbc 373d 043b
00000220: 7c33 893c 41ae a03b b59c 10bc cc44 763c
00000230: 8542 15bb c4cc 893c dc6d 8b3a cd1c a8bb
00000240: 71c8 013b 9368 47bc 3d68 f63b ecb9 8e3c
00000250: 86fb b2bb 1047 2dbc dd56 923b 0441 cfbc
00000260: c907 da3b e17e 7c39 1aff ff3c 8bad 8ebb
00000270: 5c8e 083d beaa daba b334 c63b 0bf9 94bb
00000280: 740b 993b f105 d7b9 83ad c7bc 68e8 20bc
00000290: 56d4 6ebd 3c28 493c 022e 803b 5ff4 f2bc
000002a0: ee5a 14bc 7c71 463b 48d3 4e3b 7548 df3c
000002b0: b2f2 9b3c de7f 2eba fa3a adbc 3fdc 543b
000002c0: dc56 323a 17ce 1b3c d2e4 4a3a 935a 5d3b
000002d0: eea4 853b 2fd9 0a3d a36a 5c3c 92b6 d5bc
000002e0: 1462 09bb 0ab9 643b 2954 803d 4092 c9bb
000002f0: 056c e23c 6ebb ef3b bc4e af3c ebc8 bd3b
00000300: 1161 6a3c 7b4d df3c 0599 bb3b d3fd bfbb
00000310: 6d95 423b c13f e0bb 894a 253c 96d8 51bc
00000320: 81f8 68bb 05c7 88bb 24ee bdbc a9ba 8e3c
00000330: 6b7d 5e3c 017e f3bc ed87 86bc 31b5 6abc
00000340: 351a 243d 6800 353c 7d8b ccbb 701f bbbc
00000350: ebc5 a7bb 1f2e 3d3c dd91 03bc 2db3 aaba
00000360: 0286 173c ec47 f33c d83f 1b3a b6a4 2abd
00000370: 164c 983a 1ca1 403b 7cd1 1a3b e48b 473d
00000380: 6fa7 cb3c ae3d d23b 2970 8abb bcff 8a3b
00000390: 331b 513b 1f42 743c 3519 26bb 3467 943c
000003a0: 1206 58bc 8679 283d ee21 9cba 8dbd 76bb
000003b0: 861f 913c 687c e0ba f63d 2aba c71f ec3b
000003c0: bde3 bd3c 0a79 bb3b 13fd f3bb c243 bdbc
000003d0: fd29 42bb 8be4 ce3b 76d9 6c3b a487 c63c
000003e0: 5c29 f0bb aa4e 34bc 3ad4 0c3d fc76 d03c
000003f0: 5b2a e73c c10b 37bc 3f98 863c de64 e93b
-0.0018144454 0.003540053 0.019742342 0.004602036 0.002750093 -0.0015461408 -0.0019510459 -0.017911179
-0.0064993165 0.007947988 -0.0037876165 0.009153011 0.0137507515 0.010043756 -0.012158473 0.012085641
-0.016454166 -0.0074824663 0.0075373976 0.014717042 0.0024223938 -0.0010226074 -0.0042324755 -0.027036496
0.00024012128 -0.0012067029 0.011128182 -0.002005569 0.0058447258 0.0021020083 0.00094009464 -0.010714625
0.00054525404 -0.00411901 -0.015130051 0.00967843 -0.022015084 -0.0033587234 -0.0012505946 -0.006958625
-0.0014321709 0.0041775513 0.00039788403 0.01649943 0.0024916923 -0.004230438 -0.013052943 0.012898872
0.00044660017 0.013375804 0.001363723 -0.0058357194 0.005507285 0.005572351 -0.0019095439 0.0039533125
-0.0004941733 -0.0018062307 0.012941659 -0.00052191963 0.003730818 0.0016851526 0.015667072 0.010966138
0.0206704 0.005302045 0.013346269 -0.0077385674 -0.0055705877 0.0077681164 -0.00012481789 -0.008175486
-0.007061204 -0.011718271 -0.0064090365 -0.0061222 0.01221153 -0.033671472 0.00816436 -0.0001926184
0.028061314 0.007485252 0.0028604723 -0.009050193 0.0023412164 -0.0037892913 0.0073928097 0.0032606968
0.0043211402 0.014793953 -0.0069114077 -0.010684724 -0.005141719 0.0035254925 0.0030983188 0.018875951
0.037552267 0.026995644 0.002191691 0.0034027002 -0.017783638 0.008269097 0.0011491338 -0.0056419377
0.0037351025 0.026156614 -0.0023628187 -0.005371939 0.010205547 0.0014353622 0.0026430963 -0.0014324337
0.0043141963 0.01675677 -0.00023584098 -0.02327659 0.00025774643 0.0017641883 0.0054376908 0.008779479
0.0087924 -0.0031728619 0.005279977 0.0035890464 -0.001505044 0.005373949 0.009307777 0.011734592
-0.0008135714 0.003958448 -0.019505715 -0.0006717245 0.008727879 -0.023070376 -0.009557334 0.0020178088
0.016748182 0.004903585 -0.008826424 0.015031051 -0.0022775244 0.016821273 0.0010637599 -0.0051303864
0.001980331 -0.0121709285 0.0075197504 0.017422639 -0.005462113 -0.010576025 0.0044659213 -0.025299557
0.00665376 0.00024079859 0.031249572 -0.004354184 0.03333889 -0.0016682965 0.0060487627 -0.00454629
0.004670555 -0.00041012422 -0.024374729 -0.009821035 -0.058307968 0.012277659 0.0039117346 -0.02965754
-0.009054882 0.0030280044 0.003155904 0.02725623 0.019036625 -0.0006656627 -0.021146286 0.003247991
0.0006803104 0.009509585 0.00077397854 0.003377591 0.004078499 0.03389853 0.013453159 -0.026088033
-0.0020963 0.003490033 0.06266052 -0.0061514676 0.027639398 0.0073160445 0.021399848 0.0057917736
0.014305369 0.027258625 0.0057250285 -0.0058591156 0.0029691115 -0.0068435376 0.010088571 -0.012807986
-0.003554851 -0.0041741156 -0.023184843 0.01742299 0.013579707 -0.02972317 -0.016422236 -0.014325426
0.040064055 0.01104746 -0.0062422142 -0.022842139 -0.005120029 0.011546641 -0.008030382 -0.0013023369
0.009248259 0.029697381 0.0005922294 -0.041660987 0.0011619355 0.0029392904 0.0023623398 0.048717394
0.024860112 0.006416044 -0.0042247963 0.0042419117 0.003190708 0.014908343 -0.0025344614 0.018115617
-0.013185041 0.04113152 -0.0011911967 -0.0037649602 0.017715227 -0.001712692 -0.0006494218 0.0072059366
0.023179883 0.005721216 -0.0074459403 -0.023103599 -0.0029627078 0.0063138655 0.003614036 0.0242346
-0.007329149 -0.011005083 0.034382083 0.025447361 0.028218439 -0.011172236 0.016430018 0.00712262

cvae_parameters.z_mu_lin_b f4 [32]
00000000: 54c9 253c 3a0e 8e3c 9cb1 913d c1ea 1b3b
00000010: d4ae 4ebb c941 d0bc a9f5 fdbd 35fb 1ebc
00000020: d06c 963c 4f5f e63b ea08 e03c 75f2 0f3d
00000030: d5ab ee3c 9a86 f2bc 9fd0 e03d efe5 dd3d
00000040: 02a8 51bd 2ecd efbd 494a e9bb 2474 973d
00000050: 6755 52be 2756 12bd 4c84 7bbd 3942 65bb
00000060: 308d 11bd 2f20 02bd 16a1 9f3c e02e 363d
00000070: 884b 86bd 1537 a13d bd94 513a 9656 24be
0.010118801 0.017340768 0.071139544 0.0023791047 -0.003153731 -0.025421994 -0.124003716 -0.009703447
0.018362433 0.0070304046 0.027348 0.035143334 0.02913467 -0.029605199 0.10977291 0.10834872
-0.051185615 -0.11709057 -0.007119451 0.07395199 -0.20540391 -0.035726693 -0.061405465 -0.0034982099
-0.035535038 -0.031768974 0.019485991 0.044478297 -0.06557375 0.07871834 0.0007994881 -0.16048655
