dlpg/24/weights/dlpg_model_weights_300.pth (torch, 313083 bytes, 14 tensors)

cvae_parameters.dec_00_lin_b f4 [128]
0	0xbd6b6255	-0.057466824
1	0xbd316d1c	-0.043316945
2	0xbd3449ae	-0.04401558
3	0xbd6ddfcd	-0.05807476
4	0xbd6627e1	-0.056190375
5	0xbd850446	-0.06494956
6	0xbd844e43	-0.0646024
7	0xbd64f7aa	-0.055900253
8	0xbd8d8b07	-0.06911283
9	0xbd823ad1	-0.063588746
10	0xbd2bf118	-0.04197797
11	0xbd723cf6	-0.059140168
12	0xbd2e9aa8	-0.04262796
13	0xbd4ae400	-0.049533844
14	0xbd485c06	-0.048915885
15	0xbd54e595	-0.05197676
16	0xbd5f3786	-0.05449631
17	0xbd008994	-0.031381205
18	0xbd2d7cc1	-0.042355303
19	0xbd5c46af	-0.053778347
20	0xbd5fad78	-0.054608792
21	0xbcdd9a17	-0.027051015
22	0xbd74f1ff	-0.059801098
23	0xbd1f0f9d	-0.03883325
24	0xbd75d6fd	-0.060019482
25	0xbd4be39b	-0.04977761
26	0xbd5521b8	-0.05203411
27	0xbd5e8b58	-0.054332107
28	0xbd5a70eb	-0.053330343
29	0xbd2f4e18	-0.042799085
30	0xbd5b3ae2	-0.053522952
31	0xbd3bb30c	-0.04582505
32	0xbd3d53de	-0.04622256
33	0xbd1f58aa	-0.038902916
34	0xbd5b89a4	-0.05359806
35	0xbd34c286	-0.044130825
36	0xbd3f6fb3	-0.046737384
37	0xbd4f47c9	-0.05060557
38	0xbd79b6c2	-0.060965307
39	0xbd53d04a	-0.05171231
40	0xbd4efc0f	-0.05053335
41	0xbd552083	-0.05203296
42	0xbda2be88	-0.07946497
43	0xbd6465ba	-0.055761077
44	0xbd3622ad	-0.044466663
45	0xbd7fdd8f	-0.062467154
46	0xbd8598bb	-0.06523272
47	0xbd31ab28	-0.043376118
48	0xbd6c641a	-0.05771265
49	0xbd26f7b3	-0.040763568
50	0xbd42370c	-0.047415778
51	0xbd308eea	-0.043105043
52	0xbd70ec16	-0.0588189
53	0xbd72e337	-0.05929872
54	0xbd27d744	-0.040976778
55	0xbd2bfadb	-0.04198728
56	0xbd79e5f8	-0.06101033
57	0xbd684cf2	-0.056714006
58	0xbd85a56e	-0.06525694
59	0xbd259a6d	-0.040430475
60	0xbd5f41f8	-0.054506272
61	0xbd46ab96	-0.04850348
62	0xbd370728	-0.04468456
63	0xbd4a6a1f	-0.04941761
64	0xbd39d330	-0.04536742
65	0xbd283e61	-0.041075114
66	0xbd6931ce	-0.056932263
67	0xbd685022	-0.056717046
68	0xbd566a07	-0.05234721
69	0xbd35363e	-0.044241183
70	0xbd6b32e0	-0.057421565
71	0xbd200b99	-0.03907356
72	0xbd6575cf	-0.056020554
73	0xbd31ed2a	-0.043439068
74	0xbd6be34e	-0.05758982
75	0xbd41f26b	-0.04735033
76	0xbd2b9947	-0.041894224
77	0xbd549be9	-0.0519065
78	0xbd3a9918	-0.045556158
79	0xbd459f0b	-0.04824738
80	0xbd74e503	-0.059788715
81	0xbd4e8190	-0.05041653
82	0xbd3cd156	-0.046098076
83	0xbd61539c	-0.055011377
84	0xbd256927	-0.040383484
85	0xbd4cbcd7	-0.04998478
86	0xbd6e27c7	-0.058143403
87	0xbd4eb280	-0.0504632
88	0xbd530de7	-0.05152693
89	0xbd2c259c	-0.042028055
90	0xbd80a78a	-0.062819555
91	0xbd4479db	-0.047967773
92	0xbd093e95	-0.03350695
93	0xbd4e0d67	-0.05030575
94	0xbd7c5ebb	-0.06161378
95	0xbd6f516f	-0.05842727
96	0xbd052612	-0.03250701
97	0xbdb5bee9	-0.08874304
98	0xbd1ac714	-0.037787512
99	0xbd3a3ec5	-0.045470018
100	0xbd12e174	-0.03585954
101	0xbd96a410	-0.07355511
102	0xbd616523	-0.055028092
103	0xbd3832a1	-0.04497016
104	0xbd3e090b	-0.046395343
105	0xbd5a5c32	-0.05331058
106	0xbd3826d3	-0.0449589
107	0xbd47a5ee	-0.048742227
108	0xbd8017b7	-0.06254523
109	0xbd9494e2	-0.0725496
110	0xbd2e3c12	-0.042537756
111	0xbd5c7729	-0.053824577
112	0xbd8e4128	-0.06946021
113	0xbd4c64cf	-0.049900826
114	0xbd3a4844	-0.045479074
115	0xbd4953ac	-0.04915206
116	0xbd1e381f	-0.03862774
117	0xbd3d2f64	-0.046187773
118	0xbd29b8b4	-0.041435912
119	0xbd325121	-0.0435344
120	0xbd6722f9	-0.056429837
121	0xbd633835	-0.055473525
122	0xbd7b8af0	-0.061411798
123	0xbd2afe4a	-0.041746415
124	0xbd5e8a2e	-0.054330997
125	0xbd4326be	-0.04764437
126	0xbd32c3cc	-0.043643758
127	0xbd2f61cf	-0.042817887

cvae_parameters.dec_00_lin_w f4 [128, 35]
0	0x3c655004	0.013996128
1	0x3ba75123	0.005106108
2	0xbba8799f	-0.0051414515
3	0x3bb4332d	0.0054992647
4	0xbc1d5a80	-0.009604096
5	0x3c54fe7a	0.013000125
6	0xbbc8d11f	-0.006128445
7	0xbaa38bb3	-0.0012477547
8	0xbb90c643	-0.004418166
9	0x3bb2e764	0.005459713
10	0xbc4c0d29	-0.0124543095
11	0x3c6ab4e6	0.014325356
12	0xbc6f3ec4	-0.014602367
13	0xbb6775b6	-0.0035317964
14	0xbad5ac5c	-0.0016301977
15	0xbc23b2fe	-0.0099914055
16	0xbada06de	-0.0016634127
17	0xbb91daac	-0.0044511165
18	0xbc2331c4	-0.0099605955
19	0x3c59613a	0.0132678095
20	0xbc14823b	-0.0090642525
21	0x3c2654ca	0.010152051
22	0xbc1c62a6	-0.009545004
23	0x3c2600c7	0.010132021
24	0xbb2d0347	-0.0026399659
25	0x3bca9b18	0.0061830394
26	0x3c0606c1	0.008180321
27	0xbbd2ea2a	-0.006436606
28	0xbc7584e2	-0.014985295
29	0x3a182d01	0.0005805046
30	0x3b670460	0.003525041
31	0x3cafa138	0.02143918
32	0x3b1ead76	0.0024212277
33	0xbd39e800	-0.045387268
34	0x3b7e6432	0.0038817045
35	0xbc2c813a	-0.010528857
36	0xbc3d5df1	-0.011558042
37	0xbbae16f2	-0.005312794
38	0xbb1140c7	-0.0022163854
39	0xbc2b66c4	-0.010461513
40	0x3b81bd7b	0.0039593554
41	0x3b803060	0.0039120167
42	0x3b47d3dd	0.003049127
43	0x3b735a9a	0.003713286
44	0x3c846116	0.016159575
45	0x3aa04584	0.0012227749
46	0xbbda480c	-0.0066614207
47	0x3aa2271a	0.0012371272
48	0x3baed16f	0.005335025
49	0x3b4bef41	0.0031117948
50	0x3c03e983	0.008051279
51	0xbb391936	-0.0028243787
52	0x3a7db557	0.0009678206
53	0x3b588466	0.00330379
54	0x3bb43818	0.005499851
55	0xbc01395c	-0.007887211
56	0x3b1fa61a	0.002436048
57	0xbb317e7c	-0.0027083447
58	0x3c710b91	0.01471223
59	0x3b6f823c	0.0036546132
60	0x3b7e022f	0.0038758626
61	0x3b9d2b47	0.004796419
62	0xbadf0b6e	-0.0017016956
63	0x3c64df98	0.0139693245
64	0x3baefd46	0.005340251
65	0x3bae6626	0.0053222356
66	0xba8cad13	-0.0010732732
67	0x3c726eae	0.014796896
68	0xbd324d28	-0.043530613
69	0xbbae6222	-0.005321757
70	0x3bf02b2c	0.0073293652
71	0x3bb7e25c	0.005611701
72	0xbc2ccd8d	-0.010547054
73	0x3ac28fd9	0.0014843895
74	0x3bdccd76	0.00673836
75	0xbb613c74	-0.0034368308
76	0x3b00dd0e	0.001966301
77	0xbcaca614	-0.021075286
78	0x3bd9ab7d	0.0066427574
79	0xbb1f8bd9	-0.002434483
80	0x3b6fe691	0.0036605934
81	0x3c077be3	0.008269283
82	0xbafaeb07	-0.001914353
83	0x3b0dbc42	0.0021627103
84	0xbb6d6b54	-0.0036227303
85	0xbb3687b0	-0.0027851872
86	0xbc3affa8	-0.011413492
87	0x3be5653e	0.0070005944
88	0xbc08ef9c	-0.008357909
89	0x3b72643b	0.0036986012
90	0x3bd0831c	0.0063632857
91	0xbc8d74d2	-0.017267618
92	0xbc42ad62	-0.011882158
93	0x3c34b3d5	0.011029203
94	0x3b4d2c8b	0.0031307067
95	0xbbd07ad5	-0.006362299
96	0xbb1812ab	-0.0023204486
97	0xba3e90f6	-0.00072695257
98	0xbc24e301	-0.010063888
99	0xb95031be	-0.00019854956
100	0xbc39a3d4	-0.011330564
101	0x3bf174ac	0.0073686447
102	0x3cd7c534	0.026339151
103	0xbcff05af	-0.03113064
104	0xbbabc2d4	-0.005241731
105	0xbaf73db1	-0.001886299
106	0xbb72fa60	-0.0037075505
107	0xbb446954	-0.0029970007
108	0x3a5b9679	0.0008376609
109	0x3c9d5df2	0.019209836
110	0xbb495fd2	-0.003072728
111	0xbc103bd2	-0.008803325
112	0x3ba225b4	0.004948342
113	0x3c3520b2	0.011055158
114	0x3c5bd6bd	0.013417897
115	0x3a241973	0.0006259896
116	0x3c136218	0.008995555
117	0x3c062c6e	0.008189304
118	0x3c47b9ab	0.012190263
119	0xbc9de824	-0.019275732
120	0x3bfabf0d	0.0076521696
121	0x3b8a709c	0.00422485
122	0x3c1fff88	0.009765513
123	0xbbd3c421	-0.0064625894
124	0xbccb61e2	-0.024826948
125	0x3c02d368	0.0079849735
126	0x3ae9247a	0.001778736
127	0x3b919f32	0.0044440264
128	0xbb820aa4	-0.0039685536
129	0xbc55b7ad	-0.01304428
130	0x3c0bdb6a	0.008536199
131	0x3aa6134d	0.0012670547
132	0x3b78ba54	0.0037952857
133	0xbc584c35	-0.013201763
134	0x3b88d9db	0.004176361
135	0x3b3728bb	0.0027947861
136	0xbb942781	-0.004521311
137	0xbb84137a	-0.004030642
138	0xbd62966a	-0.055319227
139	0xbb4f579b	-0.003163791
140	0x3bd14cb3	0.006387317
141	0x3abde083	0.0014486465
142	0xb9958a3a	-0.0002852248
143	0xbb79f1ed	-0.0038138584
144	0xbbabec5f	-0.0052466835
145	0x3c12fc6e	0.008971317
146	0x3af3c9b6	0.0018599543
147	0x3c9b1cc4	0.018934615
148	0x3cccd86a	0.025005538
149	0x3b8cc5b9	0.0042960313
150	0xbbdee4d7	-0.006802182
151	0xbc787999	-0.01516571
152	0x3c42df5e	0.011894075
153	0xbb059e3d	-0.0020388507
154	0xbc27a526	-0.010232246
155	0xbc6c7d69	-0.014434197
156	0x3c859f32	0.016311262
157	0x3c52ed33	0.0128739355
158	0x3bac7011	0.005262383
159	0x3c6abcc1	0.014327229
160	0x3bc28ff8	0.0059375726
161	0x3920b634	0.00015326665
162	0xbb5aa97d	-0.0033365183
163	0x3c3eed59	0.011653268
164	0x3abcacf3	0.0014394805
165	0x3bd9c9ba	0.006646362
166	0x3c6a92bf	0.014317214
167	0xbc3e2b36	-0.011606982
168	0xbc914b8c	-0.017736219
169	0xb98c9549	-0.00026814107
170	0x3c6dda59	0.01451739
171	0xbbfb0cba	-0.0076614292
172	0xbb924b94	-0.004464576
173	0xbd6425d4	-0.05570014
174	0xba8ec644	-0.0010892828
175	0x3c2a39c0	0.010389745
176	0xbc4bc2d6	-0.012436589
177	0xbc7586cf	-0.014985754
178	0xbb82645d	-0.0039792494
179	0x39980eeb	0.00029002814
180	0x3c1a8a84	0.009432439
181	0x3c931477	0.017954094
182	0xbbd92b37	-0.006627466
183	0xbc28cf3d	-0.010303316
184	0xbc26716c	-0.010158878
185	0x3afcb682	0.0019280466
186	0xbbaa93c9	-0.0052056056
187	0xbc6818f4	-0.014166106
188	0x3c22b3a8	0.009930529
189	0xbbf8401e	-0.0075760027
190	0xbba6625e	-0.0050776443
191	0xbb8bbd99	-0.004264545
192	0xbc3e340a	-0.011609087
193	0x3adb199c	0.0016716006
194	0xbb9e61be	-0.004833429
195	0xbbe0827a	-0.0068514915
196	0xbb417fa0	-0.0029525533
197	0x3baa45cf	0.00519631
198	0xbc104a80	-0.008806825
199	0x3c6a4440	0.014298499
200	0xbbd139ac	-0.006385049
201	0x3cb4afd3	0.022056496
202	0x3cc5c320	0.024140894
203	0x3c19e626	0.009393251
204	0xbc1b537b	-0.0094803525
205	0x3ab18852	0.0013544655
206	0x3b0f01f4	0.0021821233
207	0xbc264380	-0.010147929
208	0xbd461297	-0.048357572
209	0x3c25990b	0.010107289
210	0x3b8a2876	0.004216249
211	0xbc5a37d7	-0.013318977
212	0xba2b98b0	-0.00065458845
213	0x3b7f240f	0.0038931405
214	0x3bcbe723	0.006222622
215	0xbb805726	-0.003916639
216	0x3b472634	0.003038776
217	0x3c935c22	0.017988268
218	0xbc9a0cc4	-0.018804915
219	0xbba5c3c4	-0.0050587375
220	0xbbc7b798	-0.006094884
221	0x3b891f79	0.00418466
222	0xbc9f0ecf	-0.019416241
223	0xbc4528fd	-0.012033698
224	0xbc572b5d	-0.013132897
225	0x3cb46183	0.022019153
226	0xbc3d2a49	-0.011545726
227	0xbb8458cf	-0.004038907
228	0xbc667c5c	-0.0140677355
229	0xbabd08b0	-0.0014422145
230	0x3ac00640	0.00146503
231	0x3a3e1d06	0.00072522496
232	0xb9add668	-0.00033156876
233	0x3c177ad5	0.009245594
234	0x3b8f0a33	0.0043652295
235	0x3b897353	0.004194656
236	0xbc1e2191	-0.009651558
237	0xbc05a2e9	-0.008156517
238	0xbbebeb83	-0.007199706
239	0x3b2cd473	0.0026371747
240	0x3c53bee7	0.012923933
241	0xbc0077d8	-0.007841073
242	0x3b56956a	0.0032742866
243	0xbd98146d	-0.07425771
244	0xbc01f80e	-0.007932676
245	0x3ce8343a	0.028345216
246	0x3c73f9c3	0.014891091
247	0xbb8a1ce4	-0.00421487
248	0xbbd11a8a	-0.0063813375
249	0xbb363b3a	-0.0027806298
250	0x3ab3ce93	0.001371818
251	0x3b3a2b36	0.0028407103
252	0xbbbdc375	-0.0057911226
253	0xbb31e7b9	-0.0027146174
254	0xbb11bbbc	-0.0022237143
255	0x3b954b6c	0.00455611

cvae_parameters.dec_01_lin_b f4 [128]
0	0x3e29a20a	0.16565719
1	0x3da9fd06	0.083002135
2	0xbc11f050	-0.008907393
3	0xbbad61ed	-0.0052912147
4	0x3dc7c2bf	0.09753942
5	0xbc00d2b0	-0.007862732
6	0x3e064e41	0.13115789
7	0x3de7111c	0.1128256
8	0xbbcb65d6	-0.006207208
9	0xbb2253b1	-0.0024769122
10	0xbc6d67fc	-0.014490124
11	0xbb64eb81	-0.003493041
12	0xbafaa758	-0.0019123359
13	0x3e146e14	0.14495116
14	0x3dd903cb	0.105964266
15	0xbc1d563e	-0.009603081
16	0xbbe087eb	-0.00685214
17	0x3d6cc21c	0.057802305
18	0x3e09c0fc	0.13452524
19	0xbc6c7376	-0.014431825
20	0xbb84c4d9	-0.0040517864
21	0x3e090a54	0.13382846
22	0x3ccf5da4	0.025313206
23	0xbc0f67a0	-0.0087527335
24	0xbb8992dd	-0.0041984157
25	0x3e1528c5	0.14566334
26	0xbc29fd08	-0.010375269
27	0x3e153601	0.14571382
28	0x3dd92415	0.10602585
29	0x3e45f49e	0.19331595
30	0xbb114797	-0.0022167915
31	0x3df941e5	0.121707715
32	0xbc209ebc	-0.00980347
33	0xbc298fc4	-0.010349218
34	0x3e037ac7	0.12839805
35	0xbbbe58df	-0.005808934
36	0xbb9d406f	-0.004798941
37	0xbc02d7d3	-0.007986027
38	0x3dc737db	0.097274505
39	0x3df9917e	0.121859536
40	0x3e18d590	0.14925218
41	0xbbdcca85	-0.0067380094
42	0x3e0518a8	0.12997687
43	0x3dad3228	0.08456832
44	0xbc42e801	-0.011896134
45	0xbbb00593	-0.0053717582
46	0x3e2143b3	0.15748481
47	0xbaf19d41	-0.0018433706
48	0xbc3e7af4	-0.011625994
49	0xbc08f8ad	-0.00836007
50	0xbbc39071	-0.0059681465
51	0x3e251d93	0.16124563
52	0x3de9010b	0.11377152
53	0xbb71d342	-0.00368996
54	0xbb7ad7ea	-0.0038275667
55	0x3e160f29	0.1465422
56	0xbc820bcb	-0.015874764
57	0xbbd3c08e	-0.0064621633
58	0xbbffa7a0	-0.007801965
59	0xbb914cb0	-0.0044341907
60	0xbc383ddb	-0.011245216
61	0xbc62cc4f	-0.013842656
62	0x3dea4b50	0.11440146
63	0x3e48b324	0.19599587
64	0xbc16801f	-0.00918582
65	0xbc83edaf	-0.016104547
66	0x3dc3a016	0.09552018
67	0x3d8e17c0	0.06938124
68	0x3de46deb	0.11153778
69	0x3e14b82d	0.14523382
70	0xbbe430c1	-0.0069638197
71	0xbb3320b5	-0.0027332727
72	0x3e217c41	0.15770055
73	0x3dc048b9	0.09388871
74	0x3dc0c116	0.09411828
75	0x3df66784	0.12031463
76	0xbc7ebeec	-0.015548449
77	0x3de84767	0.11341744
78	0x3de762f9	0.112981744
79	0xbc2982c0	-0.010346115
80	0xbb573dab	-0.0032843153
81	0xbc180873	-0.009279358
82	0xbbcb23bb	-0.0061993278
83	0xbb01cd91	-0.0019806365
84	0x3dfd9326	0.12381582
85	0xbc2b8ca1	-0.01047054
86	0xbbaa0aa1	-0.0051892553
87	0xbc0368d4	-0.008020598
88	0xbbfc165f	-0.0076930965
89	0xbc4b5b5e	-0.01241192
90	0x3e0b12c7	0.13581382
91	0x3e3091ca	0.17243114
92	0xbc944468	-0.018099025
93	0xbb8a2c17	-0.0042166817
94	0xbbbee5bb	-0.005825726
95	0x3d90b020	0.07064843
96	0xbba0d6ba	-0.00490841
97	0xbba89227	-0.005144376
98	0xbb409598	-0.002938604
99	0x3e0b0c9f	0.13579033
100	0x3e14391e	0.14474913
101	0x3d73e7c7	0.059547212
102	0xbb8d7af8	-0.0043176375
103	0xbb5a0da7	-0.0033272298
104	0xbb4ed83e	-0.0031561996
105	0xbbaf406b	-0.0053482554
106	0xbc305d46	-0.010764426
107	0xbb878dbe	-0.00413677
108	0xbb7c46e5	-0.0038494405
109	0xbbd166e8	-0.006390441
110	0xbc3c7e30	-0.011504695
111	0xbb49ab10	-0.0030772127
112	0xbb415c35	-0.0029504423
113	0xbba8068b	-0.005127733
114	0xbafda28f	-0.0019350814
115	0x3e2722fb	0.16321938
116	0x3df53e8f	0.11974823
117	0xbbd2d45b	-0.006434006
118	0x3e20934f	0.15681194
119	0xbc5b9a5f	-0.013403504
120	0xbbaa5caa	-0.0051990347
121	0xbc5ee1c6	-0.013603633
122	0xbc0b7583	-0.008511904
123	0x3e1311fe	0.14362332
124	0x3e3fbcf5	0.18724425
125	0x3dba9fe0	0.09112525
126	0xbc5fbeb0	-0.013656303
127	0xbb75e832	-0.0037522432

cvae_parameters.dec_01_lin_w f4 [128, 128]
0	0x3b0bf189	0.0021353683
1	0x3c96a3e6	0.0183887
2	0xbbd41834	-0.006472612
3	0xbb2661d8	-0.002538791
4	0x3c096c8d	0.008387697
5	0x3bc43770	0.005988054
6	0x3c77e224	0.0151296
7	0x3c18417c	0.009292956
8	0x3bb49ffd	0.005512236
9	0x3bcc20c2	0.006229491
10	0xbc6e7758	-0.014554821
11	0x3c4005f4	0.011720169
12	0xbb8e8252	-0.0043490315
13	0x3c13a4ba	0.009011442
14	0x3c8a11da	0.016854215
15	0x3c81b46d	0.015833104
16	0x3ab03f2c	0.0013446561
17	0xbb1d0818	-0.0023961123
18	0x3cc0fa9a	0.023556996
19	0x3b7ba610	0.0038398542
20	0xbc0f6195	-0.008751293
21	0x3c3a0f1e	0.011356143
22	0x396380bc	0.00021696364
23	0x3ba77473	0.0051103174
24	0x3c78cf73	0.0151861785
25	0x3bd8d835	0.0066175708
26	0x3b2852c1	0.002568409
27	0xbc1f548f	-0.00972475
28	0x3b8a59cf	0.004222132
29	0x3c372cf4	0.011180151
30	0x3c0ad779	0.008474224
31	0xbc33ce24	-0.010974441
32	0xbc2c6f6f	-0.010524615
33	0x3ca2f5f1	0.019892665
34	0x3b8c2038	0.0042763017
35	0x3a528212	0.0008030246
36	0x3b02349b	0.001986778
37	0xba3dadfd	-0.0007235704
38	0x3c145949	0.00905449
39	0xbb479467	-0.0030453445
40	0x3ccc78ea	0.02496
41	0xbb88fd29	-0.0041805697
42	0x3a658d55	0.0008756717
43	0x3c62be8c	0.013839375
44	0x3bec8add	0.007218702
45	0x3a3e4071	0.00072575273
46	0x3c9c2888	0.019062296
47	0x3b0e10eb	0.0021677564
48	0x3c1f8cc3	0.00973815
49	0x3c1905f5	0.009339799
50	0x3b3a1253	0.002839227
51	0x3c34dbe7	0.011038757
52	0x3b3ba696	0.0028633229
53	0x3c94946e	0.018137183
54	0x3c8cabc3	0.017171746
55	0xbb949c2a	-0.004535218
56	0x3c9bd9dd	0.019024784
57	0x3c2903ea	0.010315875
58	0xbc5351a0	-0.012897879
59	0x3beb7d6f	0.0071865837
60	0x3bb1267c	0.005406199
61	0x3c323c6e	0.010878665
62	0xbb396258	-0.0028287377
63	0x3bc1ba41	0.005912096
64	0x3b94f6dc	0.0045460295
65	0x3c7555c0	0.014974058
66	0x3c203cab	0.009780089
67	0x3b0ef16f	0.0021811386
68	0xbbdba8d3	-0.006703475
69	0xb97ec693	-0.00024297302
70	0x3c440914	0.011965055
71	0xbc118320	-0.00888136
72	0x3c7ca834	0.015420962
73	0x3ca41fd3	0.020034706
74	0xbb792268	-0.0038014892
75	0xb8cb346c	-9.689559e-05
76	0x3c2aef9e	0.010433106
77	0xbb801535	-0.003908778
78	0x3c7d4026	0.015457189
79	0x3ce1c7e2	0.027561132
80	0xbbf03459	-0.007330459
81	0x3c4c8957	0.012483916
82	0xbc786790	-0.01516141
83	0xbb39592b	-0.0028281908
84	0x3af00391	0.001831161
85	0x3cdd31bb	0.027001252
86	0xbad48a4c	-0.0016215532
87	0x3c0e868d	0.008699072
88	0x39fe85d3	0.00048546362
89	0x3c69b432	0.014264153
90	0x3c29af14	0.010356683
91	0x3ace8ed5	0.001575912
92	0x3c55ca43	0.013048711
93	0x3b4a99ee	0.0030914503
94	0x3c3a5fb5	0.011375357
95	0x3b4fbed1	0.0031699429
96	0x3b536065	0.00322535
97	0x3c2c83c4	0.010529462
98	0x3b3d9d40	0.002893284
99	0x39b224e7	0.000339783
100	0xbb6c34ef	-0.0036042293
101	0x3cacdb39	0.021100627
102	0xbb7ed862	-0.0038886298
103	0x3c46e088	0.012138493
104	0x3c4a165a	0.012334431
105	0x3c4ac19e	0.0123752635
106	0x3cbe417d	0.023224587
107	0xbc192055	-0.009346087
108	0x3b838ff2	0.0040149624
109	0xba8713bb	-0.0010305563
110	0xbbe00980	-0.00683707
111	0x3c5e8275	0.013580908
112	0x3b3d9ec3	0.002893374
113	0xba8b522d	-0.0010629349
114	0x3bd6cdbd	0.0065552876
115	0x3b9018c8	0.0043974854
116	0x3c000cde	0.007815568
117	0x3c071ce4	0.008246634
118	0xbb6b8959	-0.003594002
119	0xbc710076	-0.014709583
120	0x3c102e91	0.008800165
121	0x3c58f025	0.013240849
122	0x37c96d27	2.4011895e-05
123	0xbb4c9ba3	-0.0031220696
124	0x3cab91b4	0.0209435
125	0x3ad7ab28	0.0016454207
126	0x3c65711e	0.01400402
127	0x3c633d15	0.013869544
128	0xbc65f048	-0.014034338
129	0x3c2c7871	0.010526762
130	0xbaa85582	-0.0012842866
131	0x3b9d1582	0.0047938237
132	0xbc486fcc	-0.012233686
133	0xbc41ecbd	-0.011836228
134	0xbc890ba6	-0.016729187
135	0xbc42a68d	-0.011880529
136	0xbbfb6754	-0.00767223
137	0x3c402b15	0.011729022
138	0x3c63128d	0.013859403
139	0xbbfc6d1a	-0.0077034356
140	0xbc95e427	-0.018297268
141	0xbbfa1705	-0.0076321387
142	0xbbd9cc37	-0.0066466588
143	0x3b8059c9	0.003916953
144	0xbc3ce127	-0.01152829
145	0xbb3a81d7	-0.0028458738
146	0xbb3618cb	-0.0027785774
147	0xbce1843a	-0.02752887
148	0x3caeb4c5	0.021326432
149	0xbb6136f5	-0.0034365032
150	0xbc17f1f7	-0.0092739975
151	0x3c2d9a52	0.010595875
152	0x3b1aa50a	0.0023596906
153	0xbc59d6b0	-0.013295814
154	0xbc943995	-0.018093864
155	0x3c022463	0.007943246
156	0x3b6b87f1	0.0035939182
157	0xbaa4f7f5	-0.0012586104
158	0xbcc0dfdf	-0.02354425
159	0xbca325d2	-0.019915495
160	0xbb9eaa2a	-0.0048420625
161	0xbc896fd6	-0.01677696
162	0xbb0396f7	-0.0020078996
163	0xbc4527f2	-0.0120334495
164	0xbc428125	-0.011871611
165	0xbca4cb1e	-0.020116385
166	0x3b186cba	0.0023258165
167	0xbb8fc2b3	-0.0043872236
168	0xbcb33b73	-0.021878934
169	0xbbc7d1b1	-0.006097995
170	0x3c3c9cdf	0.01151201
171	0x3be062c6	0.006847712
172	0xbb3fb9f3	-0.0029255121
173	0xbc8fd051	-0.017555388
174	0xbb120a31	-0.0022283907
175	0xbb86115d	-0.0040914253
176	0xbcca68f7	-0.024708254
177	0xb9e448b0	-0.00043541705
178	0x3c11e810	0.008905426
179	0xbc7b453d	-0.015336332
180	0x3c33c7bd	0.010972914
181	0x3b2f8ff5	0.0026788686
182	0xbc681b9c	-0.014166739
183	0xbc0d8e9d	-0.008639959
184	0xbc62e92f	-0.013849541
185	0xbbfce4a5	-0.0077176862
186	0xbc23997b	-0.009985323
187	0x3c44b546	0.01200611
188	0x3b717135	0.0036841158
189	0x3c4ddf8f	0.012565508
190	0x3bfbebaa	0.0076880055
191	0xbb79845d	-0.003807328
192	0x3b9f6cfd	0.0048652873
193	0xbbdc525a	-0.0067236843
194	0x3bbcc814	0.005761156
195	0xbb57d347	-0.0032932328
196	0xbc3eca63	-0.011644932
197	0x3b8b3163	0.0042478307
198	0xbb87e634	-0.0041473154
199	0xbbe74942	-0.0070582936
200	0xbc0b03b4	-0.00848477
201	0x3c88b41b	0.016687443
202	0x3b9a2f14	0.004705319
203	0xbb4cfd55	-0.0031278927
204	0x3a35c53f	0.0006933994
205	0x39d27e2b	0.00040148324
206	0xbb9a586c	-0.0047102477
207	0xbc0a9e7a	-0.008460635
208	0x3bc9c905	0.0061579966
209	0x3bb1258e	0.005406088
210	0xbc04a028	-0.008094825
211	0xbc5a3cd0	-0.013320163
212	0xbc009a25	-0.007849251
213	0xbc8e1295	-0.017342845
214	0x3929fa1f	0.00016210273
215	0xbbe9fb3f	-0.0071405466
216	0x3c0e2424	0.008675609
217	0xbbdf5e81	-0.0068166857
218	0xbc884b92	-0.016637597
219	0xbbc33173	-0.0059568225
220	0x3b84a81f	0.004048362
221	0xbc288ac1	-0.010286988
222	0xbb9ddc72	-0.004817539
223	0xbc81e362	-0.015855495
224	0x3c6cea1f	0.014460116
225	0xbcb07af2	-0.021543
226	0xbba423c5	-0.005009147
227	0xbc2c8da7	-0.010531819
228	0xbc105250	-0.008808687
229	0xbba04cf1	-0.0048919846
230	0xbc32fedf	-0.010925024
231	0xbc83be02	-0.016081814
232	0xbc212026	-0.009834325
233	0xbc971a28	-0.01844509
234	0xbc0fa49a	-0.008767271
235	0xbbd997ae	-0.006640396
236	0x3bfca3e8	0.007709969
237	0xbc722faf	-0.0147818765
238	0xbbfb42b1	-0.0076678623
239	0xbbd05265	-0.0063574784
240	0x3bb049bd	0.005379884
241	0xbaf82cbf	-0.0018934234
242	0xbc8f85eb	-0.017519912
243	0xbc64e72d	-0.013971132
244	0xba9bbe91	-0.0011882355
245	0xbb82cdf2	-0.0039918358
246	0xbbd9136c	-0.0066246297
247	0xbb120303	-0.0022279627
248	0xbc819cb2	-0.015821788
249	0xbc3a06ce	-0.011354161
250	0xbb4c6550	-0.0031188317
251	0xbc9f2850	-0.019428402
252	0xbb960b0f	-0.004578955
253	0xbbdcd398	-0.006739091
254	0xbbf5a51b	-0.0074964887
255	0xbb2bbca2	-0.0026204963

cvae_parameters.enc_00_lin_b f4 [128]
0	0x3c5b7bf3	0.013396251
1	0xbbbb728b	-0.0057204417
2	0xbb8710b2	-0.0041218633
3	0xbb6d5a86	-0.0036217286
4	0xb9fde317	-0.00048425116
5	0xbadc8352	-0.0016823804
6	0x3b7a8417	0.0038225704
7	0xbb376379	-0.0027982874
8	0xbbbd88a0	-0.0057841092
9	0x39d4bd81	0.00040576982
10	0xb9b53543	-0.00034562693
11	0xbae74f03	-0.0017647449
12	0x3c2f71d6	0.010708293
13	0x3c047b86	0.008086091
14	0xbb7d5dd2	-0.0038660658
15	0xbc0b42ff	-0.00849986
16	0xbaaf2e9c	-0.0013365331
17	0x3c52f6a4	0.0128761865
18	0xbbc1d13e	-0.005914836
19	0xbac74f0f	-0.0015206056
20	0xbafc88e2	-0.0019266868
21	0x3bc47d7f	0.0059964056
22	0x3adc06e7	0.0016786725
23	0xbab67e08	-0.0013923058
24	0x3ba1d63c	0.004938869
25	0xbbd3745e	-0.006453081
26	0xbb32320d	-0.0027190477
27	0x3c0da18e	0.008644475
28	0x3c5eb52e	0.013593001
29	0x3880b801	6.137789e-05
30	0xbb99ee48	-0.004697595
31	0x3c5a70e9	0.013332584
32	0xbb82c3a5	-0.003990608
33	0xbbfa9a4b	-0.0076477877
34	0xba80301d	-0.0009779964
35	0x3c1294bd	0.008946595
36	0xbc0c00ae	-0.008545084
37	0xbaca7c94	-0.0015448504
38	0x3bbd2458	0.005772155
39	0xbb025286	-0.0019885614
40	0x3a3c0edd	0.00071738457
41	0x3c13c057	0.009018025
42	0xbc1a2031	-0.009407089
43	0xbbe50b23	-0.006989853
44	0xbb025e94	-0.0019892799
45	0x3c4a1095	0.012333055
46	0xbadaf42b	-0.0016704848
47	0x3c6c875d	0.01443657
48	0x3c34ad67	0.01102767
49	0x3c37cad3	0.011217791
50	0xbb0a28f8	-0.0021081548
51	0x3c22f6b8	0.009946518
52	0x3c527cd5	0.012847145
53	0xba6eed34	-0.00091143255
54	0xb7bacd34	-2.2268483e-05
55	0x3c27c904	0.010240797
56	0xbbb7192c	-0.0055877175
57	0xbadc74f1	-0.0016819519
58	0xb957d416	-0.00020583006
59	0xbb0ac2f5	-0.0021173332
60	0xb9f6a259	-0.00047041735
61	0x3a782a63	0.00094667653
62	0x3bd6db06	0.0065568713
63	0x3c85ee4e	0.016348984
64	0x3c1d6ae8	0.009608008
65	0x3c4b58f3	0.012411344
66	0xbafcfe00	-0.0019301772
67	0xbb3ffc3d	-0.0029294633
68	0x3c8da7d3	0.017291939
69	0xbb25ffe0	-0.0025329515
70	0xbbcf4a1f	-0.0063259746
71	0x3a6d92ff	0.00090627366
72	0xb934a955	-0.00017229219
73	0x3c252773	0.010080206
74	0xbb7b656b	-0.003836001
75	0xbb94dec8	-0.004543159
76	0x3c884db4	0.016638614
77	0x3c612ba6	0.013743317
78	0xbb3e5d50	-0.0029047318
79	0xbb64e1c4	-0.0034924606
80	0x3a2e35ba	0.0006645579
81	0x3c7b1514	0.01532485
82	0x3bfffa4d	0.0078118206
83	0x3a2dec34	0.0006634623
84	0xbbcb09ae	-0.0061962223
85	0x3a9c4655	0.0011922816
86	0xbc1714ff	-0.009221314
87	0x3bb80181	0.0056154137
88	0xbba78efa	-0.0051134797
89	0x3c1a7469	0.009427168
90	0xbb768764	-0.003761732
91	0x3bc79b24	0.0060914923
92	0xbb9ef268	-0.0048506744
93	0xbbf741eb	-0.0075457
94	0xbaa40abc	-0.0012515406
95	0xba1d47f4	-0.00059997966
96	0xb90305ef	-0.00012495344
97	0x3af8aa66	0.0018971681
98	0xbaebafe1	-0.0017981493
99	0x3c1742f3	0.0092322705
100	0xbba2ce33	-0.0049684285
101	0xbbdfcc7a	-0.0068297954
102	0x3a9c3122	0.0011916498
103	0xbb84cd3e	-0.004052787
104	0xbb82fe76	-0.0039976193
105	0x3c07351f	0.008252411
106	0xbaac1892	-0.0013129881
107	0x3c56fc9d	0.013121751
108	0xbb24a6c6	-0.0025123819
109	0x3ae07ede	0.0017127653
110	0x384da591	4.9030004e-05
111	0xbb3854ee	-0.0028126794
112	0xba78f1d9	-0.00094964873
113	0x3bda2fc3	0.0066585257
114	0xbb7c467d	-0.0038494163
115	0x3c3df734	0.011594582
116	0xbb9b3e9f	-0.0047376896
117	0xbb0511c4	-0.0020304779
118	0xbb2f0765	-0.0026707288
119	0xbb42ad36	-0.0029705293
120	0xbbbd6fd1	-0.005781152
121	0x3c006212	0.007835882
122	0x3c343304	0.010998491
123	0xbb9756bc	-0.004618494
124	0x3be3a039	0.0069465903
125	0xbb5fb189	-0.0034132919
126	0x3b189f20	0.0023288205
127	0xbb306f8d	-0.0026921958

cvae_parameters.enc_00_lin_w f4 [128, 123]
0	0xbca05bee	-0.019575085
1	0xbc66c197	-0.014084241
2	0xbc33cb29	-0.01097373
3	0xbbdf643d	-0.0068173693
4	0x39f8798d	0.00047392808
5	0xba578bac	-0.0008222412
6	0xbc084ed7	-0.008319578
7	0xbcc6719c	-0.024224095
8	0xba491f33	-0.00076721905
9	0xbc73c9d4	-0.014879663
10	0x3abff876	0.0014646191
11	0x3b12f389	0.002242299
12	0x39484581	0.00019099379
13	0x3c15b1ef	0.009136661
14	0x3c10a99d	0.008829501
15	0xbb9520f0	-0.0045510456
16	0xbc4ebe91	-0.012618677
17	0xbc92ee8f	-0.01793602
18	0x3adf4486	0.0017033971
19	0x3b4a834c	0.0030901013
20	0x3b02eaa2	0.0019976278
21	0xbca7946c	-0.020456515
22	0x3a03ae43	0.00050232204
23	0x3c588792	0.013215916
24	0x3c07e4c6	0.00829429
25	0xbc13b245	-0.009014671
26	0xbb2dc11a	-0.0026512803
27	0xbaacece4	-0.0013193158
28	0x3c84b707	0.016200555
29	0x3c50881d	0.012727764
30	0x3c37a82e	0.011209531
31	0xbb95dc04	-0.004573347
32	0xbb1e84d0	-0.002418805
33	0x3b0a27d9	0.002108088
34	0xbc097fc4	-0.008392278
35	0x3b098a72	0.002098706
36	0x3aeb5701	0.0017955006
37	0x3b4659ae	0.0030265856
38	0x3bcfc6f5	0.006340856
39	0x3b2d2007	0.0026416795
40	0xbb437d66	-0.0029829382
41	0x3b8db573	0.004324609
42	0xbc1fa3ea	-0.00974367
43	0x3b7b4e2b	0.0038346152
44	0xbb1f79dd	-0.002433411
45	0x3cc5e1c2	0.024155501
46	0xbc8b9443	-0.01703847
47	0xbc9ee317	-0.019395394
48	0xbc1a602f	-0.009422346
49	0x3c78e697	0.015191696
50	0x3aec5b6f	0.001803262
51	0x3bc54f80	0.00602144
52	0xbc15ade9	-0.009135702
53	0xbc08f17e	-0.0083583575
54	0x3badbccf	0.0053020488
55	0xba5c5378	-0.0008404772
56	0xbbdfbff1	-0.006828301
57	0x3c53f797	0.012937448
58	0x3c60907c	0.013706323
59	0x3d01bdd9	0.031675193
60	0xbc322529	-0.0108731175
61	0xbc5c9ab8	-0.013464622
62	0x3c8212be	0.015878078
63	0xbc0f85c0	-0.008759916
64	0xbbb72d27	-0.0055900994
65	0x3bedae92	0.0072534764
66	0x3c71e751	0.014764623
67	0x3c07c761	0.008287282
68	0xbc9a83e6	-0.018861722
69	0x3ca8e7d3	0.020618355
70	0xbc06d418	-0.008229278
71	0x3bcf18b4	0.0063200835
72	0xbc2719d2	-0.010199027
73	0xbc1cd27b	-0.009571667
74	0xbbf49103	-0.007463576
75	0xbc28fda0	-0.010314375
76	0xbc88ebe1	-0.016714038
77	0x3c760d7a	0.0150178615
78	0x39debcdd	0.00042483854
79	0x3c259b71	0.010107861
80	0xbb126317	-0.0022336894
81	0x3b11f1fc	0.0022269478
82	0xbc572adf	-0.01313278
83	0xbb40c9e4	-0.0029417211
84	0x3c2a6478	0.01039993
85	0xbb8ae6a6	-0.004238921
86	0x3bfa1bf9	0.007632729
87	0xb7f6b76e	-2.9410901e-05
88	0xbbd4b631	-0.0064914455
89	0x3c9fec8c	0.019521974
90	0xbca45b38	-0.020063028
91	0xbb8c076b	-0.004273345
92	0xbc7b2f9c	-0.015331175
93	0xbc345ba8	-0.011008181
94	0xbb5a5178	-0.003331272
95	0x3a391137	0.0007059755
96	0x3c514663	0.012773129
97	0xbc6f4572	-0.014603959
98	0xbaeb821a	-0.001796785
99	0x3b1e004d	0.0024109066
100	0xbcfb6251	-0.03068653
101	0xbcb30bc0	-0.021856189
102	0xbb5716d7	-0.003282001
103	0x3b2a072a	0.0025944212
104	0xbb1c05f4	-0.002380726
105	0x3a5570b7	0.0008142101
106	0x3b99b23f	0.004690438
107	0x3bb65b19	0.005565059
108	0x3bb9849f	0.0056615616
109	0xbc574422	-0.013138803
110	0x3c2db6be	0.010602651
111	0xbc1157a1	-0.00887099
112	0xbb8350fc	-0.004007457
113	0xbc99a2a2	-0.018754307
114	0xbbc10cdb	-0.005891425
115	0xbb9c71dc	-0.0047743153
116	0x3b0d6aff	0.0021578667
117	0xba8c7ce9	-0.0010718378
118	0xbc8b3d94	-0.016997136
119	0xbbe820d1	-0.00708399
120	0xbbcc0bbc	-0.006226985
121	0x3c0f81b1	0.008758948
122	0x3c9d6eb2	0.019217823
123	0xb96b93d5	-0.00022466418
124	0x3b200964	0.002441966
125	0x3c7fad0e	0.015605224
126	0x3c2ffbde	0.010741202
127	0x3c8f43a4	0.017488308
128	0xbba534bf	-0.005041688
129	0x3a23760b	0.00062355463
130	0xbb8f531d	-0.0043739215
131	0x3c138a98	0.009005211
132	0x3c4f4e1e	0.012652902
133	0x3c40f6f0	0.0117776245
134	0x3cb6a2ec	0.022294484
135	0xbc1b535a	-0.009480322
136	0x3b91b5e2	0.004446731
137	0x3b079fd4	0.002069463
138	0x3a2c8edc	0.0006582567
139	0xbb7c4644	-0.003849403
140	0x3ac216a8	0.0014807777
141	0xbc214ada	-0.009844506
142	0x3968cc47	0.00022201343
143	0x3b8c86a9	0.0042885137
144	0x3ab11404	0.0013509993
145	0xbaa16a9c	-0.0012315097
146	0x3be05b0e	0.006846792
147	0x3c7f6d24	0.015589986
148	0x3b6a967f	0.003579527
149	0x3c1a2950	0.009409264
150	0xb981cb6b	-0.00024756356
151	0x3a082976	0.00051941664
152	0x3b4a096b	0.0030828367
153	0xbaa9bf7b	-0.0012950742
154	0xbca1b4bb	-0.0197395
155	0x3c03198e	0.008001698
156	0xbbc35dd3	-0.0059621125
157	0x3c20b421	0.009808571
158	0x3b1817cc	0.0023207543
159	0x3c2531de	0.01008269
160	0x3c0d499e	0.008623509
161	0xbb6c2787	-0.0036034302
162	0x3af1f2b7	0.0018459175
163	0x3ba8d61c	0.005152477
164	0x3c5ec89d	0.013597635
165	0xba2db45a	-0.0006626301
166	0x3b90e76f	0.0044221203
167	0x3c46183e	0.012090741
168	0x36ce778a	6.1531946e-06
169	0x3bdfd81c	0.006831182
170	0x3aa72f89	0.0012755255
171	0x3c0c8f5f	0.008579104
172	0xbbe1d9a5	-0.0068924003
173	0xbb80d4cc	-0.0039316174
174	0xbb4c0f37	-0.0031136998
175	0xbbdbc093	-0.0067063062
176	0x3b7a3782	0.0038180058
177	0x3a2e6ec7	0.00066540804
178	0xbc72e7d9	-0.014825785
179	0x3b681eec	0.0035418821
180	0x3bf7d8b6	0.0075636758
181	0x3c332f9e	0.010936646
182	0x3c964d88	0.018347517
183	0x3bd750d4	0.0065709148
184	0xbbd4f493	-0.006498882
185	0xba81c471	-0.0009900463
186	0x3c91a62a	0.017779429
187	0x3c19c2a0	0.009384781
188	0x3c0d111f	0.008610039
189	0xbc5bb733	-0.013410377
190	0xbbd5a557	-0.006519954
191	0xbbf2370a	-0.007391815
192	0xbaca4f5d	-0.0015435029
193	0x3c1f6711	0.009729163
194	0x3a8cd0a3	0.0010743331
195	0x3996b201	0.00028742853
196	0x3bb1ee45	0.0054300153
197	0x3c5a3954	0.013319332
198	0x3a88b425	0.0010429664
199	0x3c8b9056	0.017036598
200	0xbb2fab96	-0.0026805154
201	0xbc122872	-0.008920776
202	0x3bd226cf	0.0064133178
203	0x3c086417	0.0083246445
204	0x3c1aaa33	0.009439993
205	0xbb9a160b	-0.0047023348
206	0x3c09c576	0.008408895
207	0xb91e7fc7	-0.00015115655
208	0x3c7275c5	0.014798586
209	0x3b4a31c9	0.0030852428
210	0x3c516966	0.012781477
211	0x3c85e046	0.016342293
212	0xbb956dff	-0.0045602317
213	0x3c68bd47	0.0142052835
214	0xba380a4b	-0.0007020577
215	0xbc08c2c9	-0.008347222
216	0x3c646eab	0.013942401
217	0x3c9282cd	0.017884636
218	0xbaee3782	-0.0018174502
219	0x3c140211	0.009033696
220	0x3c027049	0.007961341
221	0x3bca89a6	0.0061809598
222	0xbbedb823	-0.007254617
223	0x3a2918e1	0.00064505456
224	0xbac14d52	-0.0014747775
225	0x3c69556a	0.014241556
226	0x3bdafeeb	0.0066832206
227	0x3b707dc0	0.0036696047
228	0x395b73d8	0.00020928623
229	0x3ba6bf8c	0.005088752
230	0xbb2e9948	-0.0026641656
231	0xbc93edb0	-0.018057674
232	0x3b608985	0.0034261656
233	0xbc15affb	-0.009136195
234	0xbb409346	-0.0029384657
235	0x3c07cea6	0.008289015
236	0xbc0ee4a3	-0.008721503
237	0x3c430bec	0.011904698
238	0x3c5e3a8c	0.013563763
239	0xbc62f664	-0.013852689
240	0xbc4b8099	-0.012420797
241	0xbc631815	-0.013860722
242	0x3b8ad187	0.0042364034
243	0xbc30b7e7	-0.010786033
244	0x3c0e439a	0.00868311
245	0xba90f540	-0.0011059418
246	0x3bf8d721	0.0075940047
247	0xbab47a11	-0.0013769289
248	0x3ab46ed2	0.0013765937
249	0x3c30871d	0.010774401
250	0x3c2fd039	0.0107307965
251	0xbb457288	-0.003012808
252	0xbbf608fd	-0.0075083957
253	0x3b249945	0.002511577
254	0x3ca24b0f	0.019811181
255	0x3bca43a4	0.006172614

cvae_parameters.enc_01_lin_b f4 [128]
0	0x3d11b4e7	0.035572913
1	0x3c9c5838	0.019085035
2	0x3b6c344d	0.0036041916
3	0x3d1b087f	0.0378499
4	0x3c4a02ce	0.01232977
5	0x3cad897e	0.021183725
6	0xbb755ea6	-0.0037440448
7	0x3d068ff4	0.03285213
8	0x3c1d83a2	0.009613903
9	0xba90c979	-0.0011046372
10	0xbb7a1bf9	-0.0038163646
11	0xbafdfd1a	-0.0019377798
12	0x3d0384e6	0.032109164
13	0x3ccf45b4	0.025301792
14	0xbacd6a81	-0.0015672
15	0xba9f552e	-0.0012156123
16	0x3d045cfe	0.032315247
17	0xbc7031b8	-0.014660291
18	0xbbd23f0f	-0.0064162086
19	0x3cde603b	0.027145496
20	0x3cd70531	0.026247593
21	0x3c8442d5	0.01614515
22	0xbc2912da	-0.010319436
23	0xbae177e7	-0.0017201871
24	0x3b8efd6c	0.0043637063
25	0x3cb81a07	0.022473348
26	0x3a827841	0.0009954051
27	0xba35ed45	-0.0006939958
28	0x3a53e34d	0.00080828817
29	0x3a0ed3a5	0.00054484076
30	0x3cfaf456	0.030634087
31	0xbb393797	-0.0028261894
32	0xbc822874	-0.01588843
33	0xbc07796e	-0.008268697
34	0x3d0de90c	0.03464608
35	0x3d07e152	0.033173867
36	0xb965f718	-0.00021931191
37	0xbb798884	-0.0038075754
38	0x3cae1741	0.021251323
39	0xbb8425cc	-0.004032826
40	0x3a892af5	0.0010465073
41	0x3a835f75	0.0010022955
42	0x39866e73	0.00025640763
43	0x3bcf909f	0.006334379
44	0x3cbca497	0.023027701
45	0xba2d39f6	-0.0006608063
46	0x3cd1b3c1	0.025598409
47	0x3cd7cf41	0.026343944
48	0x3cccc0e8	0.024994329
49	0x3c85de82	0.016341452
50	0xbaf69a45	-0.0018814286
51	0xbc275ad5	-0.010214527
52	0x3cdb3286	0.02675749
53	0x3ca4c2c1	0.020112397
54	0x3b4e380b	0.003146651
55	0x3d08bea1	0.033384923
56	0x3c9157d3	0.017742073
57	0x3cb7ef1e	0.022452887
58	0xbbf0b731	-0.007346057
59	0xba393588	-0.0007065167
60	0x3c88a941	0.016682269
61	0xbb68fc0a	-0.0035550618
62	0x3ce333b7	0.02773462
63	0xbc2b3395	-0.01044931
64	0x3cd968b6	0.026539188
65	0x3cdb91c4	0.026802905
66	0xbc19de2a	-0.009391347
67	0x3cf7490a	0.030186195
68	0xbb6b8b18	-0.003594106
69	0x3cb0b737	0.021571739
70	0xbbab55f4	-0.0052287523
71	0x3cf0e3a2	0.029405419
72	0xbb3fc726	-0.0029262989
73	0xba6c9b47	-0.00090258237
74	0x3a5d43f3	0.0008440606
75	0xb9182c8c	-0.00014512445
76	0x3c52a3c6	0.012856429
77	0xbb97e4af	-0.0046354155
78	0x3b874277	0.0041277963
79	0x3a61c5ab	0.00086125237
80	0xbc04149f	-0.008061557
81	0xbb8c51d6	-0.0042822165
82	0x3bd9a314	0.006641755
83	0x38e2d47e	0.000108160995
84	0x3cf10065	0.029419133
85	0x3ceba120	0.028763354
86	0xbbc473a2	-0.00599523
87	0x3cce6bcc	0.025197886
88	0xbaea45e2	-0.001787361
89	0xbc49e910	-0.012323633
90	0xb97ca236	-0.00024093021
91	0x3cf380f8	0.029724583
92	0x3a00e5e7	0.00049170706
93	0xbbcf8fcd	-0.006334281
94	0x3bf75e82	0.007549108
95	0x3d0cb153	0.034348797
96	0xbb9677bd	-0.0045919106
97	0x3d1fea73	0.039041948
98	0x3a891863	0.0010459538
99	0xb9ada822	-0.000331224
100	0x3d1242ea	0.035708345
101	0xbb2e9651	-0.0026639889
102	0x3ced335a	0.02895515
103	0xbb682ed2	-0.0035428298
104	0xbb7a14dd	-0.0038159408
105	0x3cfaae9b	0.030600837
106	0x3ae63f47	0.0017566466
107	0xba35ce0d	-0.0006935306
108	0x3b3af33d	0.002852633
109	0xbbb21a79	-0.0054352847
110	0x3d16dda9	0.036832485
111	0xbbf8b3ce	-0.0075897938
112	0xba55842f	-0.0008145002
113	0x3ccede55	0.0252525
114	0x3d2fa956	0.0428861
115	0x3ba19b59	0.004931849
116	0x3cc63116	0.024193328
117	0xbbd96cb8	-0.0066352747
118	0xba1049f6	-0.0005504185
119	0xbbb44f79	-0.005502638
120	0x3c0284b3	0.007966208
121	0x3ceb489c	0.028721146
122	0xbafd5621	-0.0019328037
123	0xbac784f0	-0.0015222114
124	0xbbd86f72	-0.006605082
125	0x3cd2a81a	0.025714923
126	0x3c9064de	0.017626222
127	0x3cedc0a3	0.02902252

cvae_parameters.enc_01_lin_w f4 [128, 128]
0	0xbb8be173	-0.004268819
1	0x3ae57227	0.0017505334
2	0xbb8aa79e	-0.0042314073
3	0x3c285ac8	0.01027555
4	0xbace36ae	-0.0015732849
5	0x3cc0acb9	0.02351986
6	0xbc78ff58	-0.015197597
7	0xbc8e0776	-0.017337542
8	0xbb30cbf5	-0.0026977037
9	0xb8f7b799	-0.000118120755
10	0x3b986c52	0.0046515847
11	0x3b758f92	0.0037469608
12	0xbc35724e	-0.011074616
13	0x3c203489	0.00977815
14	0xbb9ab6ee	-0.004721514
15	0x3ba93a79	0.005164441
16	0xbca407af	-0.020023195
17	0xbb7f8bca	-0.0038993233
18	0x3bc27f7c	0.0059356075
19	0x3c9cbe2e	0.019133653
20	0x38c3b5f7	9.332218e-05
21	0x3b0b3a54	0.0021244483
22	0x3b6edfbe	0.0036449279
23	0xbbec6fc2	-0.007215471
24	0x3c80eec1	0.015738847
25	0x3bb492e2	0.005510674
26	0x3c2eb88c	0.010664117
27	0xbc3e168e	-0.011602057
28	0xbb62933e	-0.0034572626
29	0x3c6a3271	0.014294253
30	0x3b9ef289	0.00485069
31	0x3b6e5f5c	0.0036372757
32	0x37e7d3ba	2.7635939e-05
33	0x3b02fd4b	0.00199874
34	0x3c001233	0.007816839
35	0xbbb9789d	-0.00566013
36	0x3c236779	0.0099734
37	0xbc5e7ca9	-0.013579526
38	0xbb787897	-0.0037913674
39	0x3c8643fb	0.016389837
40	0xbc8724de	-0.016497072
41	0xbb4bb95b	-0.0031085822
42	0x3c7e6604	0.015527252
43	0x3c25741e	0.010098485
44	0xba6ea3b9	-0.0009103376
45	0xbb9848fe	-0.004647373
46	0x3c25a51c	0.010110166
47	0xbb881186	-0.0041524796
48	0xbc7a03fd	-0.01525974
49	0x3b8f1a5b	0.0043671555
50	0x3ba2039a	0.004944277
51	0x3b8bd37b	0.004267154
52	0xbaedc5b9	-0.0018140591
53	0x392c8456	0.00016452497
54	0xbc09d140	-0.0084117055
55	0xbc143842	-0.009046616
56	0x3b0e812d	0.0021744475
57	0xbbc4b434	-0.006002927
58	0x3c7ebab0	0.015547439
59	0x3a750d36	0.0009347977
60	0xbc62af79	-0.013835781
61	0x3c748472	0.014924156
62	0x3c95a9ba	0.018269408
63	0xbbcb8d70	-0.006211929
64	0xb97b9712	-0.00023993503
65	0x3c1a8006	0.009429937
66	0x3c09f842	0.008421006
67	0x3c5344ed	0.012894851
68	0x3bf5718c	0.0074903425
69	0xbb4d3711	-0.003131334
70	0x3bc71780	0.0060757995
71	0x3c27f3ab	0.010250966
72	0x3c74a2f7	0.014931432
73	0x3bcd2234	0.006260181
74	0xb88252e5	-6.2143234e-05
75	0xbc32f0d6	-0.010921678
76	0x3c1a5f89	0.009422191
77	0x3caa11fb	0.020760527
78	0xbb78a1e7	-0.0037938298
79	0x3a0f8afa	0.0005475726
80	0xbb054be2	-0.002033942
81	0x3b844972	0.0040370757
82	0xbbd68122	-0.0065461555
83	0xbbfa0803	-0.0076303496
84	0xb8b1bdbd	-8.475359e-05
85	0x3bb1e772	0.0054292018
86	0xbb831a00	-0.004000902
87	0x3be5db9f	0.0070147063
88	0xbc69fa93	-0.014280933
89	0xbbd5ce5f	-0.0065248455
90	0xbbb3cac5	-0.0054868185
91	0x3b075f17	0.0020656043
92	0x3b36745c	0.0027840352
93	0xbc62e0d9	-0.013847553
94	0x3b95fcb8	0.0045772456
95	0x3b8def65	0.0043315166
96	0xbbdd2fe4	-0.006750094
97	0x3c36d4bc	0.011159118
98	0xbbf2f48e	-0.007414407
99	0x3c64f4da	0.013974393
100	0xbbedc0f3	-0.0072556674
101	0x39977348	0.00028886856
102	0x3b3b7080	0.002860099
103	0xbcbf52dd	-0.023354942
104	0xbc99b558	-0.01876323
105	0xba48bca7	-0.0007657506
106	0xbbac119e	-0.0052511236
107	0xbbbde0ee	-0.005794636
108	0xbc40eb46	-0.011774844
109	0x3c2d370e	0.010572208
110	0xbbcd233e	-0.0062603047
111	0xb8bd72ef	-9.03363e-05
112	0xbaf4beb8	-0.0018672561
113	0xbc90e046	-0.017685067
114	0xbb23a036	-0.002496732
115	0x3bb41039	0.005495098
116	0xbcdcabe6	-0.026937436
117	0xbc215157	-0.009846053
118	0x3bb128c3	0.0054064705
119	0x3b73e069	0.0037212616
120	0x3c679340	0.014134228
121	0x3bdc82b2	0.0067294473
122	0x3bdc5253	0.006723681
123	0xbb221988	-0.0024734456
124	0xbc87f3d3	-0.016595757
125	0x3beebe50	0.0072858706
126	0x3c9a0faf	0.018806307
127	0xbc6023ae	-0.013680382
128	0xbbf5e133	-0.0075036525
129	0x3c36d484	0.011159066
130	0x3cba26b4	0.022723533
131	0x3c4c90c1	0.012485684
132	0x39dec3a2	0.00042488897
133	0x3bee83e1	0.007278905
134	0x3c67587f	0.01412022
135	0xbbbf80bf	-0.005844205
136	0xbb91c77f	-0.0044488306
137	0x3bcdd061	0.006280944
138	0xbbc275f2	-0.0059344703
139	0x3b62d9f1	0.0034614766
140	0xbbe6c608	-0.00704265
141	0x3c9a8c39	0.018865691
142	0xba9baf23	-0.0011877756
143	0x3c07a2a5	0.008278524
144	0xba3d68bd	-0.0007225385
145	0xbb8ab0a6	-0.004232484
146	0xba23d31e	-0.00062494155
147	0xbc2791b1	-0.010227607
148	0x3b82321d	0.003973259
149	0x3a9889cc	0.0011637746
150	0x3bbace7f	0.005700886
151	0xbc740031	-0.014892624
152	0x3b81cd9e	0.003961279
153	0x3c03aa3b	0.008036192
154	0xba8bad1e	-0.0010656451
155	0xbb5f7ef4	-0.003410277
156	0x3bca9561	0.006182358
157	0x3b558665	0.0032581326
158	0xbb745b9d	-0.003728605
159	0x3bfda2ac	0.0077403393
160	0xbadde041	-0.0016927795
161	0xba3dcca4	-0.00072402717
162	0x3bc25da8	0.005931575
163	0xbbc45a62	-0.00599222
164	0x3c3c6313	0.0114982305
165	0xbc3d2158	-0.011543594
166	0x3c135b38	0.008993916
167	0x3be1b114	0.0068875644
168	0x3c65a144	0.0140154995
169	0xbbccf80e	-0.0062551564
170	0xba5c208f	-0.00083971856
171	0x3bc1b441	0.0059113805
172	0x3c207008	0.009792335
173	0x3c36ceab	0.011157672
174	0xbba872b1	-0.0051406254
175	0xbbe73113	-0.0070554106
176	0xbbb2e47a	-0.0054593654
177	0xbc089256	-0.00833567
178	0x3c742e20	0.014903575
179	0x3b687219	0.0035468398
180	0x3b32576e	0.0027212757
181	0x3c1050ab	0.008808295
182	0xbc46b604	-0.012128357
183	0xb9039d34	-0.00012551696
184	0xbbf31d0b	-0.0074192337
185	0xbbade0e0	-0.005306348
186	0xba96cc89	-0.0011505048
187	0x3a8f862d	0.0010950022
188	0x3bf16266	0.0073664663
189	0x3c76bbb3	0.015059399
190	0x3a86c52b	0.0010282149
191	0xbc1f9300	-0.009739637
192	0x3c2bff5c	0.010497894
193	0xbbda6850	-0.006665267
194	0x3c46e75b	0.01214012
195	0x3bb3af60	0.005483553
196	0xbab02938	-0.0013440019
197	0xbbdd695a	-0.0067569437
198	0xbccf25ce	-0.025286581
199	0xb972c576	-0.00023152478
200	0x3be9e68d	0.0071380795
201	0x3c27b63d	0.01023632
202	0xbc19bc8a	-0.00938333
203	0xbbbc7174	-0.0057508294
204	0x3b9b415f	0.0047380175
205	0xbbe4d4c6	-0.0069833724
206	0xba4b4c93	-0.0007755246
207	0xbbd61151	-0.006532826
208	0x3bdcc5c6	0.0067374436
209	0x3af1e226	0.0018454238
210	0xbb444e23	-0.00299538
211	0x3bd9461c	0.006630672
212	0x3aebf0dd	0.001800086
213	0xbc62f3b7	-0.013852051
214	0xbc0f8165	-0.008758877
215	0x3b9103fc	0.004425524
216	0xbbd08c9a	-0.0063644173
217	0xbbc35282	-0.0059607634
218	0x3cc9c489	0.024629848
219	0xbae39f44	-0.001736619
220	0xbc7d714b	-0.015468906
221	0x3c0189cc	0.0079063885
222	0x3b4fe085	0.0031719517
223	0x3a54370f	0.00080953626
224	0x3bba8ee1	0.005693302
225	0xbb43cdb4	-0.0029877247
226	0xbb94b98b	-0.00453872
227	0xbb310362	-0.0027010073
228	0x3c903ec3	0.017608052
229	0x3bcfec23	0.0063452884
230	0xbc8e4ae2	-0.017369691
231	0xbb816d2b	-0.0039497814
232	0x3b5e6785	0.0033936214
233	0x3c0eabaf	0.008707925
234	0x396096f8	0.00021418545
235	0xbb3b31e1	-0.0028563666
236	0xbb2d0576	-0.002640096
237	0xb980369e	-0.00024454755
238	0x3c04f52a	0.008115092
239	0xbbfa6547	-0.0076414677
240	0x3c4824f7	0.012215844
241	0xbc0f6ddc	-0.00875422
242	0x3a278616	0.0006390525
243	0xbbcf8c75	-0.0063338825
244	0x3c677bf4	0.014128674
245	0xbb891b71	-0.0041841795
246	0xbb256c6c	-0.0025241626
247	0xbc00267b	-0.007821674
248	0xbb14c4ba	-0.0022700266
249	0xbb9d784a	-0.0048055993
250	0x3be574d1	0.007002451
251	0xba101920	-0.0005496908
252	0xbb26e99e	-0.0025468837
253	0x3ab6adca	0.0013937291
254	0x3b99e04c	0.0046959277
255	0x3b090a85	0.002091081

cvae_parameters.out_lin_b f4 [120]
0	0xbdf5c403	-0.12000277
1	0xbc68503c	-0.014179286
2	0xbe0faac1	-0.14029981
3	0xbcd9f77c	-0.026607268
4	0xbe01f544	-0.12691218
5	0xbdb4037f	-0.08789729
6	0xbdb5ff06	-0.088865325
7	0xbd17a6ed	-0.037024427
8	0xbda1e875	-0.07905666
9	0xbda2d1fb	-0.07950207
10	0xbd8be9ab	-0.06831678
11	0xbde9831c	-0.1140196
12	0xbcc21e9f	-0.023696242
13	0xbe1c2cc9	-0.15251459
14	0xbdb326c5	-0.08747629
15	0xbdcf1f51	-0.10113395
16	0xbe0d87c7	-0.13821326
17	0xbba88757	-0.005143087
18	0x3e22b6b8	0.15890014
19	0xbe8e7de8	-0.27830434
20	0xbe792f32	-0.2433441
21	0xbdbcb74b	-0.09214648
22	0xbdaf7688	-0.0856753
23	0x3d6e3c4b	0.05816297
24	0xbd928b8b	-0.07155522
25	0xbe1da82b	-0.15396182
26	0xbe838852	-0.25689942
27	0xbcbaea22	-0.022816721
28	0x3e0462df	0.12928341
29	0xbbd3ca24	-0.006463306
30	0xbe860314	-0.26174223
31	0x3d6908f5	0.056893308
32	0xbde469c5	-0.111529864
33	0x3e06c89d	0.13162465
34	0x3e986957	0.29767868
35	0xbcc0f0d7	-0.023552341
36	0xbe8a4d7a	-0.27012235
37	0x3df728a6	0.120683
38	0xbd2d51b9	-0.042314265
39	0x3d60ae75	0.054853875
40	0x3d2672a8	0.04063669
41	0xbd894773	-0.06703081
42	0xbe4268c0	-0.18985271
43	0x3e034476	0.12819085
44	0xbd92c901	-0.07167245
45	0x3e037ac7	0.12839805
46	0xbe79c28e	-0.24390623
47	0xbe6a11f4	-0.22858411
48	0xbe29a29b	-0.16565935
49	0x3d8a1aca	0.06743391
50	0xbe13881c	-0.1440739
51	0x3e0cc0da	0.13745442
52	0xbeb517ed	-0.35369816
53	0xbe579778	-0.21053874
54	0xbbfae51b	-0.007656706
55	0xbc0093b3	-0.007847714
56	0xbc678583	-0.014130953
57	0x3c7dbaa3	0.015486392
58	0xbec3fc43	-0.38278398
59	0xbe85a1d6	-0.26100034
60	0x3da9cdb1	0.08291186
61	0xbe06da92	-0.13169315
62	0x3d1b74d4	0.037953213
63	0xbdc10947	-0.09425598
64	0xbeb4cc30	-0.35312033
65	0xbe69a40a	-0.22816482
66	0x3e753e05	0.2394944
67	0xbe3831fc	-0.17987818
68	0x3c831853	0.01600281
69	0xbe4f64b2	-0.20253256
70	0xbe309cb0	-0.17247272
71	0xbc715e36	-0.014731934
72	0x3dfc9111	0.12332357
73	0xbda48ff5	-0.0803527
74	0x3d10b29e	0.035326593
75	0xbe6f6eaa	-0.23382059
76	0xbc8e49a0	-0.017369092
77	0x3e6725b3	0.22572975
78	0xbdd8a01d	-0.10577414
79	0x3c741876	0.01489841
80	0xbb9a6262	-0.004711435
81	0xbe5b586d	-0.2142045
82	0x3ddc712a	0.10763772
83	0x3e6fa85e	0.2340407
84	0xbeac47df	-0.33648583
85	0x3d838ea0	0.06423688
86	0xbe5834eb	-0.21113937
87	0xbdfa5dad	-0.122248985
88	0x3e054c79	0.13017453
89	0x3daa55f0	0.083171725
90	0xbea66c6c	-0.32504594
91	0xbd738149	-0.059449468
92	0xbe8acf75	-0.27111402
93	0x3c8f0243	0.017457133
94	0x39f24a71	0.000462133
95	0xbd818a93	-0.06325259
96	0xbd8c120e	-0.06839381
97	0xbe5af8f1	-0.21384026
98	0xbde42f96	-0.11141889
99	0x3d2340f1	0.039856855
100	0xbe83aff3	-0.25720176
101	0xbe012e77	-0.12615381
102	0x3d7230a5	0.059128422
103	0xbe3ca626	-0.18422756
104	0x3e11741b	0.14204447
105	0xbe03300b	-0.12811296
106	0xbf0247b7	-0.5089068
107	0xbe94931f	-0.29018494
108	0x3d9f0502	0.07764627
109	0xbd9e0cf9	-0.07717318
110	0x3dc62e07	0.09676748
111	0xbe1c2cbb	-0.15251438
112	0xbe9217bd	-0.28533736
113	0xbddcc50a	-0.1077977
114	0xbce27161	-0.027641954
115	0xbcaa5fbb	-0.020797601
116	0xbc993989	-0.018704193
117	0xbc00f4d6	-0.007870873
118	0xbde9b40d	-0.11411295
119	0x3c5f0a0a	0.013613233
