dlpg/24/weights/dlpg_model_weights_150.pth (torch, 313083 bytes, 14 tensors)

cvae_parameters.dec_00_lin_b f4 [128]
-0.053591084 -0.04306117 -0.047872424 -0.05625802 -0.055219352 -0.06307887 -0.061717387 -0.056217518
-0.06894962 -0.05853702 -0.041970663 -0.056458034 -0.039647233 -0.048855204 -0.047270503 -0.051191367
-0.052533448 -0.029317738 -0.038190372 -0.051638078 -0.048724864 -0.024367698 -0.051413808 -0.035363104
-0.059107788 -0.03524915 -0.046916034 -0.05253646 -0.03527087 -0.03773948 -0.050227202 -0.042257916
-0.04007278 -0.03693366 -0.036918737 -0.04386705 -0.04193937 -0.044558197 -0.05586013 -0.04322504
-0.047274016 -0.046193898 -0.07479102 -0.05487447 -0.043842193 -0.061584245 -0.06494043 -0.03344657
-0.051226042 -0.03298893 -0.045582056 -0.036728792 -0.05843008 -0.055843383 -0.033763416 -0.03623274
-0.057023864 -0.044739187 -0.0632966 -0.038776238 -0.05077564 -0.04715939 -0.03802671 -0.045469433
-0.042405244 -0.038026437 -0.051129192 -0.053931538 -0.050147545 -0.03799602 -0.050705053 -0.027116045
-0.056007326 -0.04113856 -0.05439348 -0.045183364 -0.039329235 -0.04167422 -0.04485735 -0.04543301
-0.05458976 -0.04413217 -0.04537934 -0.04771864 -0.040130205 -0.042113774 -0.053044047 -0.043092377
-0.050320152 -0.03576505 -0.06082434 -0.037375934 -0.0316699 -0.047656037 -0.059779447 -0.05619568
-0.03325011 -0.084302604 -0.037229892 -0.038807847 -0.03338996 -0.064773336 -0.05162103 -0.042062547
-0.03415576 -0.049918935 -0.04399083 -0.046557598 -0.0576405 -0.068814486 -0.042249 -0.052410077
-0.062261116 -0.042661212 -0.042814255 -0.04550007 -0.038243897 -0.03349009 -0.036455873 -0.04295838
-0.047175545 -0.044444107 -0.061455037 -0.04058789 -0.046421356 -0.047443375 -0.042339724 -0.031229828
00000000: 5382 5bbd e960 30bd e015 44bd cf6e 66bd
00000010: b02d 62bd 7f2f 81bd 5fcb 7cbd 5744 66bd
00000020: 7535 8dbd 84c4 6fbd 6ee9 2bbd 8a40 67bd
00000030: 2365 22bd 651c 48bd b79e 41bd 0aae 51bd
00000040: 502d 57bd c12b f0bc 826d 1cbd 7382 53bd
00000050: b993 47bd c49e c7bc 4997 52bd e7d8 10bd
00000060: 021b 72bd 6a61 10bd 072b 40bd 7930 57bd
00000070: 3078 10bd b794 1abd 0abb 4dbd a316 2dbd
00000080: 5b23 24bd c047 17bd 1a38 17bd f0ad 33bd
00000090: 9ec8 2bbd a882 36bd 97cd 64bd bd0c 31bd
000000a0: 66a2 41bd d035 3dbd 092c 99bd 0dc4 60bd
000000b0: df93 33bd c33f 7cbd 7dff 84bd 45ff 08bd
000000c0: 66d2 51bd 661f 07bd 40b4 3abd ee70 16bd
000000d0: 6154 6fbd 08bc 64bd 824b 0abd c868 14bd
000000e0: db91 69bd 7040 37bd a6a1 81bd d5d3 1ebd
000000f0: 1efa 4fbd 342a 41bd e5c1 1bbd 283e 3abd
00000100: 1fb1 2dbd 9cc1 1bbd d86c 51bd 51e7 5cbd
00000110: 8367 4dbd b7a1 1bbd 1ab0 4fbd 7822 debc
00000120: f067 65bd e880 28bd b3cb 5ebd 3112 39bd
00000130: b117 21bd 96b2 2abd 57bc 37bd f717 3abd
00000140: 8399 5fbd efc3 34bd b0df 39bd 9f74 43bd
00000150: 925f 24bd 7e7f 2cbd b744 59bd a281 30bd
00000160: 811c 4ebd 607e 12bd f122 79bd 8217 19bd
00000170: 4cb8 01bd fa32 43bd 4bdb 74bd 712d 66bd
00000180: 4431 08bd d8a6 acbd 5f7e 18bd faf4 1ebd
00000190: e9c3 08bd e2a7 84bd 9370 53bd c749 2cbd
000001a0: e9e6 0bbd cc77 4cbd bb2f 34bd 2eb3 3ebd
000001b0: 7218 6cbd 9cee 8cbd 4a0d 2dbd f3ab 56bd
000001c0: 8305 7fbd 86bd 2ebd 005e 2fbd 485e 3abd
000001d0: a2a5 1cbd e82c 09bd c152 15bd 20f5 2fbd
000001e0: 253b 41bd 060b 36bd 47b8 7bbd 7d3f 26bd
000001f0: 5224 3ebd fc53 42bd 6b6c 2dbd b2d5 ffbc

cvae_parameters.dec_00_lin_w f4 [128, 35]
0.015744887 0.003348686 -0.008686574 0.004145481 -0.007942777 0.017830292 -0.006292883 -0.005860336
-0.0023609374 0.00752638 -0.012327989 0.010729612 -0.016616274 -0.0010072334 -0.0014766067 -0.009930092
-0.0037153258 -0.005077096 -0.01233289 0.017824143 -0.009316356 0.0146215735 -0.0063111023 0.009435921
6.5941305e-05 0.0028524306 0.0072968737 -0.0088443635 -0.017104046 -0.0014954843 0.0068131285 0.022675512
0.0024212277 -0.0415111 0.0038817045 -0.009935163 -0.012868893 -0.0042325743 -0.003584646 -0.010359248
0.0057124216 0.0037724965 0.0041410984 0.0034457124 0.016005984 0.0015965372 -0.006708469 0.002032008
0.0061618797 0.004075204 0.008249594 -0.003101612 0.0011610396 0.0032446422 0.006565947 -0.007762555
0.0024596064 -0.002867569 0.014699424 0.0036955148 0.0023591593 0.0038597286 -0.002372768 0.01379834
0.005433044 0.0045595216 -0.0007531466 0.014796896 -0.043274526 -0.005321757 0.006852573 0.004236203
-0.008498653 0.00010572767 0.0053376453 -0.001524532 0.0013259592 -0.017681649 0.0076790364 -0.0012261703
0.0036540271 0.006695384 -0.0017380976 0.002473197 -0.00081781164 -0.0024703182 -0.008458488 0.0035354847
-0.0064206994 0.0029925157 0.0038403058 -0.01315236 -0.008020162 0.006591176 0.003550175 -0.0062218728
-0.0038955493 -0.00090512173 -0.008287518 -0.0005543567 -0.010057591 0.007889349 0.026339151 -0.034987357
-0.005241731 -0.0044893273 -0.005740658 -0.0029510292 0.0021317785 0.021870233 -0.0059679262 -0.010045994
0.005121701 0.009431602 0.016381871 -0.001066545 0.0067391773 0.00976712 0.011776839 -0.018624192
0.008510336 0.0050884737 0.010716823 -0.010244663 -0.025694728 0.008412615 0.0010564266 0.0016082205
-0.0036884416 -0.015142802 0.010051059 -4.3839882e-05 0.0012082012 -0.013108021 0.0033589427 0.0011926434
-0.0063805296 -0.004030642 -0.05350215 -0.003163791 0.0035958753 0.0014637085 -0.0022954256 -0.0051502646
-0.00826386 0.00863122 0.0010008983 0.018353952 0.030625768 0.00320799 -0.0045651565 -0.015566897
0.012375073 -0.00047132128 -0.006508037 -0.012901096 0.011958782 0.012808511 0.0074624317 0.014062814
0.005334752 -0.0018593009 0.005044105 0.00952103 -0.0007177674 0.004698067 0.016732797 -0.012228027
-0.014508989 -0.0037502106 0.011195607 0.0017307056 -0.004464576 -0.05472978 -0.0010892828 0.01251286
-0.013818027 -0.014551975 -0.004515787 -0.00011571508 0.008927645 0.01985175 -0.0068128575 -0.009993457
-0.009954015 0.0031384376 -0.005655073 -0.015199079 0.012161772 -0.0058756815 -0.0055633774 -0.0031823067
-0.01017227 0.00030273516 -0.0031579577 -0.007118411 -0.0047535812 0.004215615 -0.008739287 0.013354254
-0.006443645 0.027135642 0.02584635 0.007274865 -0.010883229 0.0004931578 0.00138503 -0.010147929
-0.04648657 0.010107289 0.0026110352 -0.017462 -0.00027757717 0.0014760012 0.008931255 -0.0018773841
0.0020530038 0.018344503 -0.022907842 -0.0069090594 -0.0064208726 0.00285205 -0.022615401 -0.011534799
-0.015038998 0.024307353 -0.010352008 -0.0037460825 -0.012708999 -0.0013106152 0.0034199588 0.0022871257
-0.0012917805 0.012743992 0.0057305195 0.0068601733 -0.010289195 -0.008373557 -0.006476545 0.005787802
0.010938078 -0.010320951 0.0032742866 -0.0713728 -0.007932676 0.035223074 0.010789101 -0.0025300286
-0.004470789 0.0064086393 0.0057767355 0.0035625994 -0.0032643785 0.00010302877 -0.0043363837 0.003969174
00000000: 6cfb 803c a175 5b3b 2252 0ebc d1d6 873b
00000010: 6c22 02bc d510 923c 8734 cebb 1008 c0bb
00000020: f5b9 1abb da9f f63b 55fb 49bc 41cb 2f3c
00000030: da1e 88bc 2505 84ba b38a c1ba d3b1 22bc
00000040: d37c 73bb c55d a6bb e40f 4abc f003 923c
00000050: a1a3 18bc 538f 6f3c 5dcd cebb 1f99 1a3c
00000060: f849 8a38 d8ef 3a3b 9d1a ef3b f3e7 10bc
00000070: c91d 8cbc 2004 c4ba aa40 df3b ffc1 b93c
00000080: 76ad 1e3b 8b07 2abd 3264 7e3b 18c7 22bc
00000090: 0dd8 52bc 68b1 8abb 61ec 6abb d6b9 29bc
000000a0: 442f bb3b fd3b 773b 0db2 873b 76d1 613b
000000b0: fb1e 833c e642 d13a b7d2 dbbb 702b 053b
000000c0: 98e9 c93b 4a89 853b 4e29 073c 6a44 4bbb
000000d0: 062e 983a 10a4 543b 2827 d73b 085d febb
000000e0: 5931 213b d3ed 3bbb dad5 703c 7330 723b
000000f0: 209c 1a3b 80f3 7c3b 7180 1bbb 6f12 623c
00000100: ad07 b23b 0a68 953b d06e 45ba ae6e 723c
00000110: a140 31bd 2262 aebb 8c8b e03b d9cf 8a3b
00000120: ef3d 0bbc 1cba dd38 6ae7 ae3b ced2 c7ba
00000130: cfcb ad3a 1bd9 90bc 6da0 fb3b 73b7 a0ba
00000140: 6778 6f3b f464 db3b e1d0 e3ba 5c15 223b
00000150: 6962 56ba 10e5 21bb 7895 0abc 97b3 673b
00000160: bb64 d2bb 151e 443b a4ad 7b3b ff7c 57bc
00000170: ff66 03bc cbfa d73b 0eaa 683b dae0 cbbb
00000180: 794c 7fbb b145 6dba 5fc8 07bc 4052 11ba
00000190: 98c8 24bc 5442 013c 34c5 d73c e74e 0fbd
000001a0: d4c2 abbb 351b 93bb 211c bcbb 0e66 41bb
000001b0: 4fb5 0b3b 3429 b33c 988e c3bb f497 24bc
000001c0: f1d3 a73b 0287 1a3c 4633 863c 50cb 8bba
000001d0: 51d4 dc3b 4506 203c a5f3 403c c391 98bc
000001e0: f06e 0b3c 36bd a63b 9d95 2f3c 3bd9 27bc
000001f0: c07d d2bc 11d5 093c cb77 8a3a edca d23a
00000200: c8b9 71bb 8419 78bc 32ad 243c b7e0 37b8
00000210: 815c 9e3a 06c3 56bc b521 5c3b 7952 9c3a
00000220: c313 d1bb 7a13 84bb 1225 5bbd 9b57 4fbb
00000230: c7a8 6b3b e8d9 bf3a da6e 16bb 8dc3 a8bb
00000240: 2465 07bc f669 0d3c 9330 833a 075b 963c
00000250: e4e2 fa3c 243d 523b 4f97 95bb 4c0c 7fbc
00000260: d1c0 4a3c ac1b f7b9 5f41 d5bb 1e5f 53bc
00000270: c4ee 433c cada 513c 6a87 f43b b867 663c
00000280: 25cf ae3b c9b3 f3ba 0549 a53b 18fe 1b3c
00000290: 8e28 3cba 3ef2 993b 3813 893c 1058 48bc
000002a0: 1cb7 6dbc 18c6 75bb c76d 373c d8d8 e23a
000002b0: 944b 92bb 552c 60bd 44c6 8eba bd02 4d3c
000002c0: 0265 62bc 686b 6ebc 2bf9 93bb 0fac f2b8
000002d0: 4245 123c 23a0 a23c 643e dfbb 99bb 23bc
000002e0: 2a16 23bc 3fae 4d3b 314e b9bb 8f05 79bc
000002f0: 2b42 473c ca88 c0bb fe4c b6bb 3f8e 50bb
00000300: 98a9 26bc 6db8 9e39 bdf5 4ebb 8f41 e9bb
00000310: eec3 9bbb 2423 8a3b 3a2f 0fbc cdcb 5a3c
00000320: 3625 d3bb 914b de3c b9bb d33c fe61 ee3b
00000330: 924f 32bc 4247 013a e589 b53a 8043 26bc
00000340: b468 3ebd 0b99 253c e71d 2b3b 780c 8fbc
00000350: c787 91b9 6276 c13a 6654 123c 8f12 f6ba
00000360: b08b 063b 3647 963c 3aa9 bbbc 6465 e2bb
00000370: 2f66 d2bb 75e9 3a3b ef43 b9bc 74fc 3cbc
00000380: 2166 76bc 3720 c73c 789b 29bc d680 75bb
00000390: 6839 50bc f3c8 abba 6321 603b 9ae3 153b
000003a0: f650 a9ba 2dcc 503c 15c7 bb3b 4ecb e03b
000003b0: 0394 28bc 3e31 09bc 3239 d4bb 9aa7 bd3b
000003c0: a035 333c 3519 29bc 6a95 563b e72b 92bd
000003d0: 0ef8 01bc 1246 103d c5c4 303c d6ce 25bb
000003e0: b27f 92bb 90ff d13b c54a bd3b 807a 693b
000003f0: 2fef 55bb 2611 d838 3918 8ebb d80f 823b

cvae_parameters.dec_01_lin_b f4 [128]
0.1163417 0.06475592 -0.008740171 -0.0052912147 0.07231276 -0.007862732 0.08662567 0.07384634
-0.006126062 -0.0020192533 -0.014490124 -0.0034783105 -0.0010922019 0.09463835 0.08225883 -0.009603081
-0.0063826507 0.043380104 0.09003334 -0.014431825 -0.0040517864 0.100095175 0.021058526 -0.007166766
-0.0041984157 0.09167174 -0.010375269 0.10541548 0.06467797 0.12566833 -0.0018780335 0.085214235
-0.009771252 -0.010349218 0.090902515 -0.005808934 -0.0038479564 -0.008117239 0.08530994 0.09008254
0.09649353 -0.006486984 0.09740167 0.06988032 -0.011896134 -0.0050347424 0.108617425 -0.0017095051
-0.011625994 -0.008362092 -0.004541723 0.10606066 0.10282622 -0.00368996 -0.0038223453 0.098437145
-0.015874764 -0.0065140217 -0.007790289 -0.004220941 -0.011245216 -0.013842656 0.083694585 0.13156673
-0.0089305295 -0.016104547 0.07915172 0.07287656 0.08812358 0.09763726 -0.0064126714 -0.0027332727
0.10193751 0.062578 0.065968625 0.07929939 -0.015548449 0.079365134 0.075966395 -0.010346115
-0.0031978902 -0.009279358 -0.0061993278 -0.0015572438 0.08954999 -0.01047054 -0.0054279184 -0.008020598
-0.007713614 -0.01241192 0.09410382 0.12685062 -0.018099025 -0.0042166817 -0.0058487547 0.07041007
-0.00490841 -0.0051177614 -0.002912914 0.10024083 0.10404538 0.04600761 -0.004174291 -0.003365101
-0.0030779978 -0.002925072 -0.010772121 -0.0031798852 -0.0034707098 -0.0063429284 -0.011504695 -0.0026631043
-0.0027367668 -0.005161577 -0.0016999957 0.12520006 0.08558928 -0.005212049 0.11173968 -0.013403504
-0.005063449 -0.013603633 -0.008511904 0.09046506 0.07521398 0.076818176 -0.013656303 -0.0034109403
00000000: 8f44 ee3d c09e 843d ef32 0fbc ed61 adbb
00000010: b618 943d b0d2 00bc cd68 b13d c03c 973d
00000020: 22bd c8bb 7355 04bb fc67 6dbc 5ef4 63bb
00000030: 3728 8fba c0d1 c13d 5177 a83d 3e56 1dbc
00000040: 8e25 d1bb 56af 313d 6663 b83d 7673 6cbc
00000050: d9c4 84bb b3fe cc3d ee82 ac3c 31d7 eabb
00000060: dd92 89bb 65be bb3d 08fd 29bc 12e4 d73d
00000070: e275 843d 33af 003e 5928 f6ba cd84 ae3d
00000080: 9a17 20bc c48f 29bc 192b ba3d df58 bebb
00000090: ff2d 7cbb 2bfe 04bc fab6 ae3d 327d b83d
000000a0: 669e c53d c490 d4bb 877a c73d 6a1d 8f3d
000000b0: 01e8 42bc 7bfa a4bb d072 de3d 7911 e0ba
000000c0: f47a 3ebc 2801 09bc bcd2 94bb 5536 d93d
000000d0: 8e96 d23d 42d3 71bb 5080 7abb 6a99 c93d
000000e0: cb0b 82bc 9373 d5bb ae45 ffbb d24f 8abb
000000f0: db3d 38bc 4fcc 62bc 1168 ab3d 6eb9 063e
00000100: 5b51 12bc afed 83bc 4c1a a23d 4e40 953d
00000110: 237a b43d 0bf6 c73d 6321 d2bb b520 33bb
00000120: 9dc4 d03d e528 803d 8f1a 873d b867 a23d
00000130: ecbe 7ebc 308a a23d 4594 9b3d c082 29bc
00000140: b293 51bb 7308 18bc bb23 cbbb 6e1c ccba
00000150: fc65 b73d a18c 2bbc aedc b1bb d468 03bc
00000160: 7cc2 fcbb 5e5b 4bbc 81b9 c03d 21e5 013e
00000170: 6844 94bc 172c 8abb e9a6 bfbb 2833 903d
00000180: bad6 a0bb e5b2 a7bb 96e6 3ebb 104b cd3d
00000190: bf15 d53d 7a72 3c3d 7ec8 88bb 0789 5cbb
000001a0: 3cb8 49bb 91b2 3fbb 8d7d 30bc 9f65 50bb
000001b0: d974 63bb 57d8 cfbb 307e 3cbc 7a87 2ebb
000001c0: 545b 33bb 7222 a9bb 64d2 deba 7234 003e
000001d0: 6f49 af3d d6c9 aabb c6d7 e43d 5f9a 5bbc
000001e0: 4aeb a5bb c6e1 5ebc 8375 0bbc bf45 b93d
000001f0: ca09 9a3d d952 9d3d b0be 5fbc 158a 5fbb

cvae_parameters.dec_01_lin_w f4 [128, 128]
0.0028187502 0.018603116 -0.007349105 -0.001580066 0.008941495 0.0050359936 0.015880346 0.006676786
0.0059506726 0.00657892 -0.0153833795 0.012410798 -0.004228349 0.009611887 0.017533038 0.01540712
0.0021079665 -0.002434502 0.021676414 0.004116574 -0.010283582 0.011142402 0.00055989984 0.006030757
0.0132216085 0.0064448807 0.0044547888 -0.010294357 0.0054780454 0.011954351 0.0078031295 -0.011053881
-0.009122658 0.020711744 0.0056493967 0.00053348014 0.0016534879 0.0009950491 0.00782555 -0.0012939774
0.02658152 -0.005523748 -0.00079213583 0.015802143 0.007202038 -0.0010254309 0.019388402 0.0015626592
0.0076541724 0.008400892 0.0023408742 0.013823548 0.0031431147 0.019537495 0.015626334 -0.004799509
0.019610528 0.0074293395 -0.012431257 0.0070301765 0.0070059965 0.01132893 -0.0011816572 0.0060669086
0.0046577253 0.015218184 0.008746295 0.0010858801 -0.0043266853 -0.0014756855 0.012655219 -0.008294109
0.014087015 0.018426614 -0.0056157783 -0.0023875218 0.01192551 -0.0051472317 0.015986342 0.02999977
-0.0057874145 0.012607101 -0.014226684 -0.0047650626 0.002192465 0.026838588 -0.0033466124 0.0068777176
0.00074144173 0.014661196 0.008788767 0.0022711551 0.013469174 0.0014938588 0.012601775 0.0044253217
0.0056027467 0.010350244 0.0038459427 0.0021416151 -0.0039477614 0.023533782 -0.0017056573 0.011103565
0.013494203 0.014493649 0.022992937 -0.008204589 0.006227256 0.00086622196 -0.006639727 0.012676135
0.0002951852 -0.0015068768 0.0053436146 0.004317303 0.009682296 0.00854951 -0.0016066114 -0.014045833
0.01167432 0.011499803 -0.00011085957 -0.0029657523 0.021849934 0.0016101601 0.014632308 0.013962566
-0.013556228 0.010645147 -0.0016815839 0.005348993 -0.011255946 -0.012428292 -0.01621814 -0.014050064
-0.0071755205 0.011548366 0.013407576 -0.00689455 -0.018279362 -0.0071840133 -0.006114526 0.0036640519
-0.011236812 -0.002937932 -0.00473625 -0.027634017 0.020230118 -0.0042618336 -0.006997396 0.0104256915
0.0010385978 -0.012683413 -0.016197363 0.007523058 0.0049796556 -0.00047379 -0.023552025 -0.019612145
-0.0036643029 -0.015785364 -0.0008328592 -0.012190314 -0.011170192 -0.019164301 0.0010849983 -0.002650479
-0.020794401 -0.0061781392 0.009770267 0.008406501 -0.0028307363 -0.018598538 -0.0022444353 -0.0050882804
-0.026318802 -0.0014131924 0.0089223785 -0.013426995 0.011049199 0.0037958445 -0.016736938 -0.008785372
-0.013337401 -0.010829012 -0.010704155 0.011980399 0.005045129 0.0128356535 0.008652512 -0.003965254
0.005740709 -0.0063374382 0.0054585 -0.0043011555 -0.009870266 0.0029885364 -0.002861315 -0.0076015145
-0.009555196 0.015950713 0.0031005817 -0.0049113063 0.0017444359 -0.0011668263 -0.0044849874 -0.0056550438
0.007411602 0.0049276887 -0.007666952 -0.015372654 -0.0067676804 -0.016674863 -0.0006188217 -0.009176091
0.009099844 -0.006093144 -0.01734267 -0.0053783576 0.0045483788 -0.010925725 -0.0040029446 -0.015326024
0.016739925 -0.0220094 -0.004503607 -0.011196432 -0.008425915 -0.0029966289 -0.009378769 -0.017867416
-0.007898109 -0.015039171 -0.008917328 -0.005993067 0.008833625 -0.01349495 -0.0074097775 -0.007021763
0.0036681981 -0.0024762254 -0.018611586 -0.013873359 -0.00026330008 -0.0051612947 -0.0049990597 -0.0016880982
-0.0139419 -0.013397354 -0.0030139245 -0.018591573 -0.004103181 -0.00674996 -0.008442477 -0.0019463865
00000000: c8ba 383b 9065 983c c3d0 f0bb 381a cfba
00000010: 597f 123c fa04 a53b 8017 823c f1c8 da3b
00000020: dcfd c23b fb93 d73b 920a 7cbc a956 4b3c
00000030: f68d 8abb 2d7b 1d3c 72a1 8f3c 256e 7c3c
00000040: cf25 0a3b 2a8c 1fbb bc92 b13c 53e4 863b
00000050: 787c 28bc 9f8e 363c 3ec6 123a a89d c53b
00000060: 729f 583c 942f d33b 7af9 913b aaa9 28bc
00000070: 2d81 b33b 2fdc 433c 65b1 ff3b 561b 35bc
00000080: 3377 15bc adab a93c 931e b93b 3fd9 0b3a
00000090: d9b9 d83a 4f6c 823a bc36 003c ad9a a9ba
000000a0: 7dc1 d93c 8f00 b5bb 56a7 4fba 7f73 813c
000000b0: 13ff eb3b c067 86ba 6dd4 9e3c 24d2 cc3a
000000c0: dacf fa3b e5a3 093c 5a69 193b 2a7c 623c
000000d0: b7fc 4d3b 190d a03c cc02 803c 3345 9dbb
000000e0: 42a6 a03c d171 f33b 79ac 4bbc 655d e63b
000000f0: 8f92 e53b fa9c 393c d6e1 9aba ebcc c63b
00000100: d59f 983b b155 793c 9f4c 0f3c 1754 8e3a
00000110: dec6 8dbb ca6b c1ba d657 4f3c 04e4 07bc
00000120: 39cd 663c 69f3 963c 9004 b8bb f877 1cbb
00000130: 3763 433c 1caa a8bb caf5 823c 14c2 f53c
00000140: 5aa4 bdbb 048e 4e3c 0a17 69bc 3e24 9cbb
00000150: 75af 0f3b 99dc db3c d752 5bbb 7a5e e13b
00000160: 505d 423a 8335 703c c3fe 0f3c a9d7 143b
00000170: cfad 5c3c 95cd c33a ad77 4e3c 4a02 913b
00000180: 3f97 b73b 1294 293c 360c 7c3b 575a 0c3b
00000190: 395c 81bb ebc9 c03c 5d90 dfba baeb 353c
000001a0: ca16 5d3c c576 6d3c af5b bc3c 8a6c 06bc
000001b0: 020e cc3b 2c13 633a 1192 d9bb 90af 4f3c
000001c0: 16c3 9a39 6582 c5ba 7d19 af3b 2a78 8d3b
000001d0: 7ea2 1e3c 3e13 0c3c ef94 d2ba 7e20 66bc
000001e0: a645 3f3c ab69 3c3c 477d e8b8 115d 42bb
000001f0: a2fe b23c 020c d33a 59bc 6f3c 3fc3 643c
00000200: f11a 5ebc fc68 2e3c 9868 dcba 9b46 af3b
00000210: dc6a 38bc 09a0 4bbc e8db 84bc 3d32 66bc
00000220: a120 ebbb 5c35 3d3c 73ab 5b3c adeb e1bb
00000230: 9abe 95bc df67 ebbb 5d5c c8bb 9720 703b
00000240: 9b1a 38bc 528a 40bb 8b32 9bbb bc60 e2bc
00000250: a2b9 a53c daa6 8bbb 694a e5bb 85d0 2a3c
00000260: 8f21 883a 17ce 4fbc 55b0 84bc fc83 f63b
00000270: 612c a33b 0467 f8b9 2df0 c0bc a6a9 a0bc
00000280: cd24 70bb 4f50 81bc 3c54 5aba e2b9 47bc
00000290: 2e03 37bc 74fe 9cbc 8036 8e3a a9b3 2dbb
000002a0: 0559 aabc fd71 cabb 7813 203c 6cbb 093c
000002b0: e083 39bb f65b 98bc 6017 13bb 97bb a6bb
000002c0: 879a d7bc de3a b9ba 2b2f 123c e6fc 5bbc
000002d0: b307 353c b4c3 783b e71b 89bc 85f0 0fbc
000002e0: 1d85 5abc 2b6c 31bc 7b60 2fbc 6f49 443c
000002f0: 9c51 a53b a24c 523c 44c3 0d3c f6ee 81bb
00000300: 8f1c bc3b 49aa cfbb 37dd b23b b5f0 8cbb
00000310: e5b6 21bc 52db 433b e684 3bbb 2016 f9bb
00000320: 668d 1cbc 12ab 823c 2133 4b3b 06ef a0bb
00000330: 8ea5 e43a 32f0 98ba cdf6 92bb f24d b9bb
00000340: 06dd f23b 7378 a13b 0e3b fbbb 96dd 7bbc
00000350: 6bc3 ddbb b999 88bc 6c38 22ba 5157 16bc
00000360: 8317 153c ffa8 c7bb 3712 8ebc ef3c b0bb
00000370: 910a 953b d001 33bc 222b 83bb 011a 7bbc
00000380: 2b22 893c 0f4d b4bc fe92 93bb 3d71 37bc
00000390: d90c 0abc 1763 44bb 69a9 19bc b05e 92bc
000003a0: 1267 01bc db66 76bc fc19 12bc 7d61 c4bb
000003b0: e9ba 103c ec19 5dbc b8cd f2bb d116 e6bb
000003c0: 2766 703b 2b48 22bb 5377 98bc 164d 63bc
000003d0: 8a0b 8ab9 1420 a9bb 27cf a3bb 2d43 ddba
000003e0: 916c 64bc 9380 5bbc 4385 45bb 5b4d 98bc
000003f0: fa73 86bb c52e ddbb 5152 0abc e51d ffba

cvae_parameters.enc_00_lin_b f4 [128]
0.013427352 -0.0055428282 -0.0040882844 -0.0035973056 -0.0004491509 -0.0016071422 0.003812494 -0.002793128
-0.005752377 0.0005053678 -0.00023637635 -0.0017004248 0.010725347 0.008121134 -0.0038475974 -0.008472636
-0.0013076687 0.012891541 -0.0058605494 -0.0015244012 -0.0016253315 0.005998414 0.002654856 -0.0011602013
0.0050038104 -0.006402458 -0.002691149 0.008682718 0.013605405 9.403441e-05 -0.0046514557 0.013311472
-0.0039886795 -0.0076396344 -0.0009585606 0.008969958 -0.008458156 -0.0015050754 0.0058585643 -0.0019669947
0.00076880277 0.009038798 -0.009292839 -0.006923123 -0.001927644 0.01233361 -0.001593267 0.0144468
0.011046311 0.01121776 -0.0019853804 0.0099707935 0.012864818 -0.00089715247 6.2945487e-06 0.010276995
-0.005576104 -0.001663106 -0.0001308388 -0.0020076174 -0.00039851584 0.001005694 0.00661995 0.01634991
0.009607797 0.012422824 -0.0018655534 -0.0028946109 0.017324908 -0.002526213 -0.006309046 0.0013017226
-0.000100610654 0.0100823585 -0.0037951656 -0.0044332556 0.016650908 0.013756715 -0.002888881 -0.0034118092
0.00068867626 0.015337335 0.007836815 0.0007266315 -0.0061325575 0.0012455093 -0.009075358 0.0056499145
-0.0050804024 0.009427974 -0.0037345078 0.0060999966 -0.004856909 -0.007517217 -0.0012314008 -0.00058477145
-9.939971e-05 0.0027566606 -0.001804546 0.009265764 -0.004895031 -0.0067778723 0.0011801168 -0.0040453146
-0.0039840117 0.008294679 -0.0012922374 0.013133458 -0.0024411606 0.0021241657 0.00012767212 -0.0027406006
-0.0009047596 0.006684197 -0.0038231919 0.011602832 -0.004743455 -0.0019996143 -0.0026089775 -0.0028143497
-0.005768218 0.008029729 0.011004506 -0.004608649 0.0069501074 -0.0033722825 0.0028639515 -0.0026525212
00000000: 65fe 5b3c 9da0 b5bb 04f7 85bb c6c0 6bbb
00000010: 037c ebb9 bea6 d2ba 09db 793b e90c 37bb
00000020: 707e bcbb a97a 043a cbdb 77b9 cae0 deba
00000030: 5eb9 2f3c 810e 053c f927 7cbb d0d0 0abc
00000040: 1566 abba 0b37 533c da09 c0bb 6bce c7ba
00000050: 1309 d5ba 588e c43b 18fd 2d3b e511 98ba
00000060: 01f7 a33b b6cb d1bb fd5d 30bb f541 0e3c
00000070: 34e9 5e3c 5734 c538 3d6b 98bb 5c18 5a3c
00000080: 78b3 82bb e655 fabb ea47 7bba bbf6 123c
00000090: 1494 0abc f345 c5ba 33f9 bf3b b2e8 00bb
000000a0: 7b89 493a 7717 143c fe40 18bc 5ddb e2bb
000000b0: 00a9 fcba e912 4a3c 2bd5 d0ba 45b2 6c3c
000000c0: 96fb 343c b2ca 373c 281d 02bb 8a5c 233c
000000d0: f5c6 523c e22e 6bba c335 d336 d760 283c
000000e0: c0b7 b6bb 94fc d9ba c631 09b9 3b92 03bb
000000f0: e4ef d0b9 7ed1 833a 2aec d83b 3ff0 853c
00000100: 056a 1d3c 1a89 4b3c 9685 f4ba 83b3 3dbb
00000110: f7ec 8d3c d28e 25bb 1dbc cebb 909e aa3a
00000120: effe d2b8 7a30 253c 50b8 78bb d844 91bb
00000130: 7c67 883c d863 613c 6153 3dbb a998 5fbb
00000140: 4888 343a 7249 7b3c fc65 003c 6a7b 3e3a
00000150: 9ff3 c8bb 5b40 a33a cfb0 14bc eb22 b93b
00000160: 8179 a6bb ca77 1a3c a5be 74bb 7be2 c73b
00000170: b526 9fbb fd52 f6bb f466 a1ba 594b 19ba
00000180: d074 d0b8 17a9 343b 8486 ecba 6ecf 173c
00000190: 7f66 a0bb ea18 debb 26ae 9a3a 8f8e 84bb
000001a0: 508c 82bb 68e6 073c 4b60 a9ba b72d 573c
000001b0: e1fb 1fbb 9635 0b3b b9df 0539 a69b 33bb
000001c0: 642d 6dba 1c07 db3b 848e 7abb ce19 3e3c
000001d0: fc6e 9bbb f60b 03bb 61fb 2abb f470 38bb
000001e0: 5203 bdbb 208f 033c 3e4c 343c 2604 97bb
000001f0: babd e33b 8301 5dbb 22b1 3b3b ecd5 2dbb

cvae_parameters.enc_00_lin_w f4 [128, 123]
-0.01959354 -0.014080912 -0.010996046 -0.0068114097 0.00045917882 -0.0008388573 -0.008311117 -0.024252173
-0.00074781483 -0.014910457 0.0014409372 0.0022689106 0.00023599796 0.009145654 0.00882249 -0.0046345065
-0.012664627 -0.017870855 0.0018408241 0.0030610973 0.0019260064 -0.020499766 0.0006266713 0.013283648
0.008414754 -0.009076422 -0.0028360283 -0.0013395192 0.016475266 0.012811175 0.011189854 -0.0045489706
-0.002620543 0.002080267 -0.008141892 0.0022036217 0.0017217386 0.0031590343 0.0062749814 0.0026784868
-0.0029533205 0.004362402 -0.009802231 0.004009377 -0.0024367059 0.02424305 -0.017202495 -0.019433703
-0.009538255 0.01530044 0.0018803994 0.0060363826 -0.009244581 -0.008213567 0.0052108048 -0.00082343235
-0.0066111395 0.012962432 0.013696027 0.031941332 -0.010839697 -0.013427933 0.016067673 -0.008643405
-0.005601329 0.007427844 0.014761119 0.008387816 -0.018848056 0.020752072 -0.008238408 0.0063827503
-0.010400305 -0.009455577 -0.0074705645 -0.010213114 -0.01666783 0.015105908 0.00023151694 0.010206491
-0.0021949767 0.0023907637 -0.013111116 -0.0027144721 0.010264437 -0.0042756 0.0076630833 0.000114006936
-0.006468182 0.019820645 -0.0201386 -0.0044328906 -0.0152455345 -0.010932374 -0.0032798212 0.0008766211
0.012795933 -0.014780179 -0.0015482173 0.0024550844 -0.030687291 -0.021804435 -0.00321687 0.0024008355
-0.002153288 0.0007401948 0.0046418193 0.0055594267 0.005730334 -0.013281907 0.0106493365 -0.008959549
-0.004039876 -0.018783703 -0.0059291003 -0.0047570667 0.0021252583 -0.0010571348 -0.017015897 -0.0071000303
-0.006226985 0.008790044 0.019217823 -0.00028122356 0.0024378225 0.015540292 0.010729794 0.01743097
-0.0050982516 0.0005035323 -0.004399811 0.009053157 0.012701274 0.011744975 0.022328002 -0.0096754795
0.004468735 0.002094506 0.0007740582 -0.0038584233 0.0015562117 -0.00996644 0.00022743209 0.004254399
0.0014126754 -0.001239108 0.006851113 0.015594353 0.003538039 0.009357256 -0.00031480577 0.0005336571
0.0030720946 -0.0012395388 -0.019759255 0.007916665 -0.006139869 0.009894603 0.0023556943 0.0101187015
0.0087165255 -0.0036897373 0.0017095929 0.005215625 0.013584676 -0.00073098385 0.004552361 0.011964561
2.5304185e-05 0.0067535513 0.0011619068 0.008501708 -0.0068650017 -0.004098833 -0.0029889115 -0.0068697035
0.0037704064 0.0006768384 -0.014867861 0.0034397733 0.0077169766 0.010902575 0.018404275 0.006660772
-0.0065549766 -0.001074074 0.01786756 0.00942721 0.008729066 -0.013317723 -0.006622458 -0.007484793
-0.0015822202 0.00969573 0.001178229 0.00027153405 0.0053789015 0.013360115 0.0009612298 0.016906673
-0.0027027961 -0.0090054665 0.0064477883 0.008359845 0.00947844 -0.0047887797 0.008343432 -0.00024812922
0.014746881 0.0030163617 0.01285937 0.01629277 -0.004596008 0.014128411 -0.00080405263 -0.008451492
0.013925666 0.017812394 -0.0018777434 0.008990976 0.00789268 0.0061404468 -0.007305661 0.0005698323
-0.0015499687 0.014243791 0.006700991 0.0036326174 0.00017775623 0.0050065573 -0.002690304 -0.018037802
0.00340967 -0.009188789 -0.0029836067 0.008240864 -0.008692954 0.011952347 0.013512785 -0.01383632
-0.0124886185 -0.013891001 0.0042840783 -0.010786033 0.008860748 -0.0011059418 0.0075833113 -0.0013777115
0.0013643161 0.010772295 0.01071995 -0.0030234975 -0.0075181043 0.0025033376 0.019821113 0.006156095
00000000: a282 a0bc a0b3 66bc c228 34bc 3f32 dfbb
00000010: f0bd f039 c3e6 5bba 5a2b 08bc 7eac c6bc
00000020: 0109 44ba fd4a 74bc d4dd bc3a 01b2 143b
00000030: 3876 7739 a7d7 153c 358c 103c 0fdd 97bb
00000040: 4c7f 4fbc e665 92bc cf47 f13a b19c 483b
00000050: 0d72 fc3a 20ef a7bc 3347 243a a8a3 593c
00000060: 09de 093c 46b5 14bc a9dc 39bb ce92 afba
00000070: 23f7 863c f6e5 513c a655 373c 880f 95bb
00000080: 6abd 2bbb 1755 083b 9265 05bc a36a 103b
00000090: f6ab e13a cd07 4f3b 5c9e cd3b 8d89 2f3b
000000a0: 7f8c 41bb 7bf2 8e3b 8999 20bc 1861 833b
000000b0: 24b1 1fbb 5c99 c63c 3fec 8cbc 6e33 9fbc
000000c0: 5746 1cbc b2ae 7a3c bc77 f63a d9cc c53b
000000d0: 9576 17bc 3292 06bc 66bf aa3b 9cdb 57ba
000000e0: 42a2 d8bb 6160 543c 4d65 603c ead4 023d
000000f0: fc98 31bc d500 5cbc 5aa0 833c 119d 0dbc
00000100: 5a8b b7bb 4665 f33b 9fd8 713c 0d6d 093c
00000110: 3d67 9abc 4000 aa3c 63fa 06bc 6426 d13b
00000120: 0a66 2abc 90eb 1abc a3cb f4bb e854 27bc
00000130: f98a 88bc c57e 773c 5bc3 7239 2039 273c
00000140: 99d9 0fbb 5cae 1c3b 02d0 56bc 49e5 31bb
00000150: 2b2c 283c 551a 8cbb 9a1a fb3b 0217 ef38
00000160: 0bf3 d3bb e85e a23c b5f9 a4bc c841 91bb
00000170: 68c8 79bc b31d 33bc 45f2 56bb 0ccd 653a
00000180: 08a6 513c 9028 72bc 8ded caba 7be5 203b
00000190: ea63 fbbc 379f b2bc 1fd2 52bb 5657 1d3b
000001a0: 2e1e 0dbb a209 423a 671a 983b da2b b63b
000001b0: 87c5 bb3b 5b9c 59bc 8e7a 2e3c 12cb 12bc
000001c0: f060 84bb 48e0 99bc e648 c2bb 2be1 9bbb
000001d0: eb47 0b3b 8f8f 8aba ec64 8bbc 5fa7 e8bb
000001e0: bc0b ccbb 1e04 103c b26e 9d3c 3071 93b9
000001f0: e0c3 1f3b b59c 7e3c 05cc 2f3c 65cb 8e3c
00000200: 3c0f a7bb 7bff 033a 4a2c 90bb b153 143c
00000210: 0119 503c ff6d 403c 37e9 b63c e785 1ebc
00000220: 776e 923b fb43 093b 2bea 4a3a 9add 7cbb
00000230: cdf9 cb3a 474a 23bc d67a 6e39 7c68 8b3b
00000240: 8529 b93a 9169 a2ba 4d7f e03b 757f 7f3c
00000250: 72de 673b 2d4f 193c 840c a5b9 1fe5 0b3a
00000260: 3255 493b 0578 a2ba 29de a1bc e6b4 013c
00000270: f430 c9bb f91c 223c fe61 1a3b e9c8 253c
00000280: c2cf 0e3c 85cf 71bb 6b14 e03a d5e7 aa3b
00000290: 4392 5e3c 7f9f 3fba f92b 953b 0207 443c
000002a0: 5344 d437 e54c dd3b 1f4b 983a bf4a 0b3c
000002b0: cff3 e0bb 814f 86bb 9de1 43bb 401b e1bb
000002c0: ec18 773b db6d 313a 5498 73bc d26d 613b
000002d0: b1de fc3b b7a0 323c 90c4 963c 9b42 da3b
000002e0: 21cb d6bb f1c7 8cba fd5e 923c 9674 1a3c
000002f0: 5b04 0f3c 9432 5abc 3401 d9bb ff42 f5bb
00000300: 8062 cfba d7da 1e3c ce6e 9a3a af5c 8e39
00000310: 7f41 b03b 62e4 5a3c 0afb 7b3a dd7f 8a3c
00000320: 6521 31bb aa8b 13bc f847 d33b bbf7 083c
00000330: 754b 1b3c 32eb 9cbb e4b2 083c 5717 82b9
00000340: e79c 713c 27ae 453b 1bb0 523c 6a78 853c
00000350: 1c9a 96bb da7a 673c 0fc7 52ba 2078 0abc
00000360: 7a28 643c 4ceb 913c 9d1e f6ba e34e 133c
00000370: 4d50 013c cd35 c93b 5464 efbb cc60 153a
00000380: 5228 cbba ca5e 693c fd93 db3b 3511 6e3b
00000390: 1364 3a39 0c0e a43b d04f 30bb 03c4 93bc
000003a0: c574 5f3b 938c 16bc 9d88 43bb b004 073c
000003b0: e46c 0ebc c7d3 433c ba64 5d3c bbb1 62bc
000003c0: 109d 4cbc 1597 63bc 7461 8c3b e7b7 30bc
000003d0: ac2c 113c 40f5 90ba 6d7d f83b 5494 b4ba
000003e0: dad2 b23a 487e 303c bba2 2f3c df25 46bb
000003f0: 6e5a f6bb 090f 243b e35f a23c 11b9 c93b

cvae_parameters.enc_01_lin_b f4 [128]
0.035630904 0.019087613 0.00361557 0.037895747 0.012588631 0.021178259 -0.0037317784 0.03274091
0.009613903 -0.0010831761 -0.0038163646 -0.0019377798 0.032152556 0.025240725 -0.001581793 -0.0012140047
0.03235496 -0.014660291 -0.006439527 0.027190296 0.02627164 0.016594997 -0.010319436 -0.0017145798
0.004341476 0.022447165 0.0009954051 -0.0006939958 0.00087362475 0.0006041636 0.030629447 -0.0028261894
-0.01588843 -0.008268697 0.03469843 0.033279944 -6.511526e-05 -0.0038075754 0.0212784 -0.004032826
0.0010381088 0.0012360594 0.00025640763 0.006334379 0.02307349 -0.0006608063 0.025613703 0.026408903
0.024937563 0.016323594 -0.0018895786 -0.010214527 0.026724346 0.020135108 0.0031741287 0.033352267
0.017764796 0.022451488 -0.0073701967 -0.00068415585 0.016744314 -0.003561796 0.027825734 -0.01044931
0.026559504 0.026809843 -0.009369028 0.030203266 -0.003474701 0.021600736 -0.0051700966 0.029477144
-0.0029262989 -0.00090258237 0.0010046877 -0.00014940485 0.012562736 -0.0046494636 0.00417282 0.00086125237
-0.008061557 -0.0042822165 0.006641755 0.000108160995 0.029434163 0.028825955 -0.006020692 0.025199069
-0.001736277 -0.012323633 -0.00024093021 0.029713498 0.00049170706 -0.0062331073 0.007549108 0.034389317
-0.0045919106 0.039041374 0.0010459538 -0.000331224 0.03574855 -0.002601731 0.028986165 -0.0035428298
-0.003792296 0.030604988 0.0018202844 -0.0006810683 0.002852633 -0.0054196455 0.036870956 -0.0075756093
-0.0008145002 0.02526527 0.042939335 0.004931849 0.024191877 -0.0065407273 -0.0005337464 -0.005502638
0.007966208 0.02879332 -0.0019287019 -0.0014781931 -0.0065575037 0.025680374 0.017745217 0.029019922
00000000: b6f1 113d a05d 9c3c 33f3 6c3b 9238 1b3d
00000010: 8c40 4e3c 077e ad3c da90 74bb 551b 063d
00000020: a283 1d3c 5cf9 8dba f91b 7abb 1afd fdba
00000030: 66b2 033d a3c5 ce3c 2a54 cfba 3d1f 9fba
00000040: a286 043d b831 70bc ab02 d3bb 2fbe de3c
00000050: 9f37 d73c 3bf2 873c da12 29bc c0bb e0ba
00000060: f142 8e3b 1ee3 b73c 4178 823a 45ed 35ba
00000070: f703 653a bc60 1e3a 9bea fa3c 9737 39bb
00000080: 7428 82bc 6e79 07bc f11f 0e3d 8d50 083d
00000090: 7d8e 88b8 8488 79bb 0a50 ae3c cc25 84bb
000000a0: 2711 883a 4503 a23a 736e 8639 9f90 cf3b
000000b0: 9e04 bd3c f639 2dba d4d3 d13c 7c57 d83c
000000c0: dc49 cc3c 0fb9 853c bdab f7ba d55a 27bc
000000d0: 04ed da3c 62f2 a43c 0b05 503b 639c 083d
000000e0: 7a87 913c 2fec b73c b181 f1bb ec58 33ba
000000f0: 5f2b 893c 056d 69bb cbf2 e33c 9533 2bbc
00000100: 5193 d93c 51a0 db3c 8d80 19bc d76c f73c
00000110: cfb7 63bb 07f4 b03c ea69 a9bb 0d7a f13c
00000120: 26c7 3fbb 479b 6cba baaf 833a 8fa9 1cb9
00000130: efd3 4d3c 875a 98bb 27bc 883b abc5 613a
00000140: 9f14 04bc d651 8cbb 14a3 d93b 7ed4 e238
00000150: ea1f f13c 6924 ec3c 3a49 c5bb 476e ce3c
00000160: ca93 e3ba 10e9 49bc 36a2 7cb9 b969 f33c
00000170: e7e5 003a 183f ccbb 825e f73b d0db 0c3d
00000180: bd77 96bb d9e9 1f3d 6318 893a 22a8 adb9
00000190: 126d 123d ce81 2abb 6574 ed3c d22e 68bb
000001a0: 2b88 78bb 50b7 fa3c 9c96 ee3a b889 32ba
000001b0: 3df3 3a3b 4897 b1bb 0006 173d d13c f8bb
000001c0: 2f84 55ba 1df9 ce3c 28e1 2f3d 599b a13b
000001d0: 0b2e c63c 9953 d6bb 1deb 0bba 794f b4bb
000001e0: b384 023c f8df eb3c 7fcc fcba eebf c1ba
000001f0: 54e0 d6bb a65f d23c 6b5e 913c 30bb ed3c

cvae_parameters.enc_01_lin_w f4 [128, 128]
-0.004608549 0.0017810955 -0.004237408 0.010284156 -0.0015274733 0.02358274 -0.015273837 -0.017333928
-0.0027101454 -9.1172835e-05 0.00469593 0.003818365 -0.010515496 0.009930958 -0.004740297 0.0051873466
-0.020003725 -0.003733083 0.005920438 0.019174915 7.703662e-05 0.002749899 0.0037946012 -0.0072210715
0.015703212 0.005517414 0.010675277 -0.011445392 -0.0033827121 0.014311261 0.0048252116 0.0033850444
2.5558464e-05 0.0019988276 0.007837016 -0.0055919695 0.010010822 -0.013511471 -0.0040908996 0.01641159
-0.016452763 -0.0034726604 0.015569482 0.010133956 -0.00090715673 -0.004866471 0.010183657 -0.0046028807
-0.015307587 0.0039387057 0.004968538 0.0041550286 -0.0017045806 0.0001844401 -0.008428934 -0.008956654
0.002169025 -0.0059245224 0.01558965 0.0009849182 -0.013762903 0.014971823 0.018421864 -0.0062972335
-4.96692e-05 0.009330735 0.008440087 0.012948816 0.007637595 -0.0031043086 0.0060732197 0.010259146
0.01505023 0.006824523 -4.4138575e-05 -0.010885229 0.009588786 0.021219395 -0.0037796325 0.00060905906
-0.0019784833 0.00429308 -0.0072075217 -0.0076401895 -5.0586455e-05 0.0054546003 -0.00394185 0.0069142366
-0.014291169 -0.006615043 -0.0054693692 0.0020642139 0.0028046563 -0.013838438 0.004571964 0.0043426794
-0.0067431275 0.011139524 -0.0073398002 0.013998082 -0.007199997 0.00029880673 0.0028576483 -0.023365563
-0.018752623 -0.0013585434 -0.0052713132 -0.0063007767 -0.01175468 0.010772504 -0.006335004 -3.3884284e-05
-0.0018060154 -0.018463414 -0.0024812026 0.005984276 -0.026935397 -0.00982325 0.0054365834 0.0038390164
0.014147835 0.0067138593 0.006549895 -0.0024694426 -0.016669573 0.0072758766 0.018886631 -0.01370114
-0.007644859 0.0111804055 0.02274243 0.012501113 0.0004983099 0.0073004733 0.014512219 -0.005841323
-0.0044534053 0.006320353 -0.0059031304 0.0035172917 -0.0072374833 0.018786117 -0.0011914272 0.008297702
-0.00070499803 -0.004551139 -0.0006372876 -0.0102098435 0.003989634 0.0017059679 0.005794607 -0.014903166
0.0040437025 0.008041861 -0.0010556139 -0.003594547 0.0058225757 0.003286124 -0.0037261466 0.0076589594
-0.0016930996 -0.0007236453 0.0059424764 -0.0056730276 0.011535662 -0.0114965895 0.009661057 0.006901193
0.014069328 -0.006293431 -0.0008146253 0.005935547 0.009804778 0.01130976 -0.0051189284 -0.0077054035
-0.005502912 -0.008569934 0.014933324 0.0036620537 0.0027199534 0.008824768 -0.012136015 -5.084692e-06
-0.0074221627 -0.0052727778 -0.0011281002 0.001117661 0.0074119405 0.015137376 0.0012697744 -0.009878233
0.010821293 -0.006823992 0.0121604325 0.005516242 -0.0010881677 -0.0067259 -0.025292901 -0.00013585803
0.007193137 0.010612111 -0.009381277 -0.0057291584 0.004846323 -0.0075094053 -0.00075748813 -0.0065044905
0.006776749 0.001736394 -0.0032902427 0.0066681695 0.0018443075 -0.013867375 -0.0087216515 0.0045666634
-0.0063578575 -0.0062583196 0.024650123 -0.0018018545 -0.0154515775 0.007929493 0.0031691357 0.00083418825
0.00570493 -0.0030494875 -0.004469516 -0.0029932673 0.017648028 0.006354743 -0.017389858 -0.003942466
0.0034229066 0.008500081 0.00020812164 -0.0026425708 -0.0026372836 -0.0003919557 0.008073295 -0.007620122
0.012260354 -0.00847665 0.0006643829 -0.0061191525 0.014129319 -0.004143328 -0.0024869947 -0.0077457526
-0.0022616137 -0.004765949 0.0072406763 -0.0005465267 -0.0026953109 0.0014022945 0.004774604 0.002097401
00000000: 5003 97bb a673 e93a f4d9 8abb e07e 283c
00000010: 8035 c8ba 9730 c13c 1e3f 7abc e2ff 8dbc
00000020: b29c 31bb 0b34 bfb8 51e0 993b 893d 7a3b
00000030: 3049 2cbc 75b5 223c 7e54 9bbb 9efa a93b
00000040: dade a3bc bda6 74bb 3c00 c23b b614 9d3c
00000050: b88e a138 a637 343b d8ae 783b bd9e ecbb
00000060: 06a4 803c 6ccb b43b 5be7 2e3c 7485 3bbc
00000070: 7eb0 5dbb c779 6a3c cf1c 9e3b 9fd7 5d3b
00000080: 6266 d637 c3fe 023b d466 003c d73c b7bb
00000090: 6e04 243c 385f 5dbc f40c 86bb 9971 863c
000000a0: f2c7 86bc 9395 63bb 2417 7f3c e408 263c
000000b0: 42ce 6dba eb76 9fbb 5ad9 263c c3d3 96bb
000000c0: accc 7abc 4210 813b 1ecf a23b e826 883b
000000d0: 3c6c dfba 4366 4139 8319 0abc eebe 12bc
000000e0: 3326 0e3b 7f22 c2bb bb6b 7f3c 5f18 813a
000000f0: cd7d 61bc 614c 753c 73e9 963c 0659 cebb
00000100: e653 50b8 f0df 183c 4a48 0a3c 4527 543c
00000110: ca44 fa3b a871 4bbb dc01 c73b fa15 283c
00000120: 3d95 763c 40a0 df3b 6f21 39b8 f657 32bc
00000130: 491a 1d3c 4cd4 ad3c b6b3 77bb 43a9 1f3a
00000140: 71a9 01bb f7ac 8c3b 132d ecbb 8e5a fabb
00000150: cb2c 54b8 81bc b23b a22a 81bb d290 e23b
00000160: 8225 6abc 01c3 d8bb 6538 b3bb c347 073b
00000170: 53ce 373b 9eba 62bc 6ad0 953b 094d 8e3b
00000180: 74f5 dcbb 8d82 363c b582 f0bb 3658 653c
00000190: f4ed ebbb 29a9 9c39 6247 3b3b 2369 bfbc
000001a0: 1a9f 99bc 2711 b2ba fbba acbb bf76 cebb
000001b0: b496 40bc 287f 303c de95 cfbb f91e 0eb8
000001c0: d2b7 ecba 9640 97bc ac9b 22bb bf17 c43b
000001d0: 9fa7 dcbc b2f1 20bc 5e25 b23b 0298 7b3b
000001e0: 52cc 673c efff db3b 80a0 d63b 5fd6 21bb
000001f0: a18e 88bc 7a6a ee3b 23b8 9a3c bf7a 60bc
00000200: ba81 fabb 052e 373c 554e ba3c 78d1 4c3c
00000210: 03a1 023a cf38 ef3b a8c4 6d3c 9268 bfbb
00000220: dfed 91bb f71a cf3b 0c6f c1bb 5d82 663b
00000230: 6928 edbb 58e5 993c aa29 9cba 16f3 073c
00000240: 9ecf 38ba b921 95bb a60f 27ba 3047 27bc
00000250: 7abb 823b c99a df3a b0e0 bd3b 692c 74bc
00000260: 0981 843b 02c2 033c 865c 8aba 7e92 6bbb
00000270: 4ecb be3b 035c 573b 5e32 74bb 02f8 fa3b
00000280: ffea ddba 04b3 3dba 1bb9 c23b cee4 b9bb
00000290: 1300 3d3c 315c 3cbc 6949 1e3c 6723 e23b
000002a0: 0a83 663c 2039 cebb 948c 55ba fa7e c23b
000002b0: 38a4 203c 924c 393c afbc a7bb 9c7d fcbb
000002c0: c651 b4bb e968 0cbc e7aa 743c 11ff 6f3b
000002d0: 3f41 323b c295 103c 23d6 46bc 2c9d aab6
000002e0: 9d35 f3bb 44c7 acbb c3dc 93ba 7b7e 923a
000002f0: dddf f23b c202 783c 8f6e a63a 50d8 21bc
00000300: cb4b 313c cb9b dfbb 8d3c 473c 97c1 b43b
00000310: d9a0 8eba f064 dcbb 0f33 cfbc 1d75 0eb9
00000320: 68b4 eb3b 6bde 2d3c edb3 19bc aabb bbbb
00000330: e7cd 9e3b 7511 f6bb 2b92 46ba 9f23 d5bb
00000340: 7e0f de3b b797 e33a 1da1 57bb a980 da3b
00000350: b1bc f13a fd33 63bc 42e5 0ebc f3a3 953b
00000360: 9355 d0bb 9712 cdbb 0eef c93c 342c ecba
00000370: 9d28 7dbc b4ea 013c 46b1 4f3b 6dad 5a3a
00000380: 6cf0 ba3b e9d9 47bb 0575 92bb b12a 44bb
00000390: 9992 903c 733b d03b 2d75 8ebc cd2f 81bb
000003a0: d852 603b ec43 0b3c 3a3b 5a39 fb2e 2dbb
000003b0: 47d6 2cbb 677f cdb9 da45 043c 37b2 f9bb
000003c0: a7df 483c a6e1 0abc fb29 2e3a 2c83 c8bb
000003d0: a97e 673c c1c4 87bb d9fc 22bb 15d0 fdbb
000003e0: 9537 14bb ae2b 9cbb 3243 ed3b c944 0fba
000003f0: d0a3 30bb 32cd b73a 4874 9c3b 8d74 093b

cvae_parameters.out_lin_b f4 [120]
-0.13123068 -0.0178615 -0.1628714 -0.023913886 -0.12997146 -0.13919577 -0.124136075 -0.0007130279
-0.10227978 -0.08954735 -0.12957321 -0.11941503 -0.05749323 -0.10033872 -0.07688785 -0.12400716
-0.10484607 -0.06450252 0.12752232 -0.21424256 -0.18680745 -0.1767403 -0.017004613 0.008159386
0.005317437 -0.11670582 -0.1902598 -0.1833045 0.0772557 -0.060097262 -0.054220285 0.008906742
-0.110343434 -0.023748964 0.14727281 -0.081586346 -0.09651976 0.040501975 -0.12882635 0.029590147
-0.08227099 -0.083068125 -0.10167586 0.100287996 -0.23697537 0.1464069 -0.27880117 -0.16520649
-0.109111585 0.06652713 -0.2974012 0.14271694 -0.33864173 -0.16898027 0.0124173295 -0.044115864
-0.15358025 0.02706241 -0.3057431 -0.22378145 0.073015146 -0.17042108 -0.07228279 -0.052033655
-0.2640263 -0.15703642 0.18786871 -0.2756955 -0.06359367 -0.1749886 -0.22273712 0.08215602
0.13205156 -0.17756364 0.0028827107 -0.22154741 -0.15034634 0.20260306 0.0019900629 -0.0817366
-0.012827846 -0.1288728 0.0020965484 0.07059969 -0.11374009 -0.026083065 -0.13658653 -0.08777019
0.071175724 -0.07532748 -0.12815759 -0.0885507 -0.22140029 -0.05714571 -0.029835934 -0.17721479
-0.006105577 -0.18364656 -0.16156414 -0.02582028 -0.1439763 -0.14339615 0.0295893 -0.14073588
0.034560006 -0.109057285 -0.21643035 -0.10020442 0.030669702 -0.1278631 0.042361543 -0.17381057
-0.1274969 0.05789637 -0.034823425 -0.01800526 -0.04878795 -0.013098479 -0.11898448 -0.047620077
00000000: 5661 06be 4852 92bc c3c7 26be 0ee7 c3bc
00000010: 3d17 05be 5689 0ebe 0e3b febd 7eea 3aba
00000020: 1078 d1bd 9a64 b7bd d7ae 04be de8f f4bd
00000030: 057e 6bbd 637e cdbd 6177 9dbd 77f7 fdbd
00000040: 89b9 d6bd e619 84bd 3695 023e 6762 5bbe
00000050: 744a 3fbe 69fb 34be 424d 8bbc f2ae 053c
00000060: e53d ae3b 7603 efbd 77d3 42be 2db4 3bbe
00000070: 3d38 9e3d 8c28 76bd 1716 5ebd 95ed 113c
00000080: bdfb e1bd 308d c2bc afce 163e be16 a7bd
00000090: 27ac c5bd 66e5 253d 0eeb 03be 0967 f23c
000000a0: b17d a8bd 9f1f aabd 6f3b d0bd cb63 cd3d
000000b0: aca9 72be b1eb 153e 07bf 8ebe e42b 29be
000000c0: e575 dfbd 603f 883d f844 98be 6424 123e
000000d0: 7362 adbe 2a09 2dbe 0e72 4b3c d6b2 34bd
000000e0: 2444 1dbe fdb1 dd3c 5c8a 9cbe f726 65be
000000f0: f788 953d dd82 2ebe 0009 94bd 3e21 55bd
00000100: 752e 87be 28ce 20be a860 403e f627 8dbe
00000110: 663d 82bd 3630 33be 3315 64be 6a41 a83d
00000120: 8638 073e 3ed3 35be dceb 3c3b 53dd 62be
00000130: 64f4 19be 2d77 4f3e b76b 023b 8565 a7bd
00000140: e32b 52bc 3bf7 03be 3f66 093b 9296 903d
00000150: 90f0 e8bd 27ac d5bc 57dd 0bbe dbc0 b3bd
00000160: 94c4 913d 4b45 9abd be3b 03be 125a b5bd
00000170: c2b6 62be 9f11 6abd 7d6a f4bc cb77 35be
00000180: 4b11 c8bb d80d 3cbe 1271 25be 0d85 d3bc
00000190: 866e 13be 71d6 12be 4265 f23c 111d 10be
000001a0: cb8e 0d3d 6d59 dfbd eb9f 5dbe fa37 cdbd
000001b0: 073f fb3c 8bee 02be 4c83 2d3d 66fb 31be
000001c0: 8c8e 02be be24 6d3d 02a3 0ebd c47f 93bc
000001d0: e0d5 47bd 019b 56bc 23ae f3bd 450d 43bd

cvae_parameters.out_lin_w f4 [120, 128]
-0.055931788 -0.016854065 0.019130046 0.0028508138 -0.029286742 -0.0011204403 -0.032586727 -0.055492908
-0.008444838 -0.016891738 -0.0070672277 -0.0040875627 0.005344805 -0.023720786 -0.038507897 0.0015643904
-0.04988751 -0.036911763 -0.030995842 0.007984287 -0.015198371 -0.027417554 -0.027950488 -0.0486687
-0.032041 -0.034023426 0.0027606755 -0.041493546 -0.035563465 -0.038761046 -0.0130211655 -0.023373187
0.00096781994 0.00088524923 -0.03807993 -0.0021732603 -0.023975443 -0.009383787 -0.04511007 -0.040768243
-0.03168393 -0.00026136707 -0.03134622 -0.017484115 -0.0007841623 0.019991973 -0.039798368 -0.018803038
0.0020628052 0.0055383695 -0.012068262 -0.04540174 -0.03028419 -0.019466117 -0.009292947 -0.04338896
0.0031470635 -0.019354966 -0.016680015 0.0059315534 -0.006853747 -0.005156207 -0.028534694 -0.034837153
-0.007927835 -0.007527803 -0.025578428 -0.03669867 -0.05538381 -0.034232996 -0.008496708 -0.012422792
-0.04199951 -0.06277342 -0.036410388 -0.042827766 0.0038319149 -0.050730225 -0.01713558 -0.019707551
-0.0071148733 0.0014160809 -0.016124833 -0.0490259 -0.037528746 -0.005868347 0.011508186 0.014569251
-0.00953051 0.0020378155 -0.06196518 -0.04138924 -0.007977775 -0.0067349286 -0.0049132137 -0.04022024
0.015229849 0.02119121 -0.011651422 -0.036056213 -0.072496064 -0.03543685 0.0033076436 -0.0148141645
0.0039793616 0.0017136025 0.02499806 -0.027015273 -0.022688959 -0.008779347 0.0071294494 -0.009433261
-0.031220956 0.00632629 -0.01728567 -0.057847824 -0.050295163 -0.019871628 -0.043131497 0.006396866
-0.010336448 -0.0036008647 -0.011751098 -0.03533717 -0.013179439 -0.023821332 0.0021976505 -0.010610737
0.0009786418 -0.001089229 -0.015800059 -0.010082991 -0.0013211938 -0.014003551 0.0053792563 -0.013923651
0.008598713 -0.003710002 -0.01914026 0.0032272313 -0.012583908 -0.0013704349 -0.001614118 0.00015811465
-0.0046412647 0.0033866605 0.0059686927 -0.0045104125 -0.023783194 -0.0046608145 0.0045206263 -0.0062727947
-0.008325074 0.00979536 0.0057529835 0.0008009066 0.014197937 -0.012178828 -0.0018249245 -0.015762307
-0.0010379346 -0.01052535 0.0018798064 -0.03041886 -0.00928613 0.0014349427 0.006773453 0.007851167
0.00605233 -0.010175254 0.0048998315 0.0004757058 -0.0030869104 0.00277247 0.00049893593 -0.015745759
0.0047553903 0.016417714 -0.0074774832 -0.011527721 -0.015568973 0.005547056 2.6670949e-05 0.014470373
0.0044415426 -0.011491254 0.0036661082 -0.007847322 -0.00578336 0.0053448584 0.0024360646 -0.021288699
-0.008423566 0.0055882307 -0.019819435 -0.0161734 0.008910156 0.0017732482 0.012442879 0.011062112
-0.009618695 -0.022057835 -0.0120638525 0.0030910128 0.022603849 -0.0048877317 -0.0009531125 -0.018685786
0.016379047 -0.0036209337 0.0053255227 0.0017717942 0.011883295 0.0077314554 -0.024440192 0.00926461
-0.010005615 -0.009276058 0.01676549 -0.013445226 -0.0015332354 0.00171221 0.0028886748 0.0022756266
-0.005604515 -0.016633306 -0.0009525063 -0.0035185337 -0.011758939 -0.00014715608 0.015342493 0.015313496
-0.017159259 -2.31639e-05 0.0013875315 -0.009223331 0.0013089639 0.011358379 -0.00019835735 -0.0052834484
0.010373885 -0.006956272 0.008554245 -0.0062249247 -0.0057450105 -0.0019403546 0.016854865 0.0044779256
-0.0142899295 0.0115428 0.00465062 0.014645805 0.0033563979 -0.012200882 -0.010673987 -0.0030860445
00000000: bb18 65bd 8911 8abc 9db6 9c3c b8d4 3a3b
00000010: c0ea efbc bddb 92ba a979 05bd 884c 63bd
00000020: 385c 0abc 8b60 8abc 3494 e7bb f6f0 85bb
00000030: 7923 af3b 1852 c2bc 75ba 1dbd 3b0c cd3a
00000040: d856 4cbd ca30 17bd feea fdbc 87d0 023c
00000050: 9702 79bc c79a e0bc 6cf8 e4bc d558 47bd
00000060: 6c3d 03bd 265c 0bbd 73ec 343b 23f5 29bd
00000070: ffaa 11bd e7c3 1ebd ba56 55bc 2079 bfbc
00000080: 4cb5 7d3a 1210 683a b3f9 1bbd 426d 0ebb
00000090: 2668 c4bc 75be 19bc 56c5 38bd 9afc 26bd
000000a0: 02c7 01bd 1808 89b9 e564 00bd d93a 8fbc
000000b0: 3e90 4dba 35c6 a33c 9d03 23bd d408 9abc
000000c0: 2130 073b 367b b53b f6b9 45bc 2df7 39bd
000000d0: 8d16 f8bc 6877 9fbc 7241 18bc 9fb8 31bd
000000e0: f73e 4e3b 4e8e 9ebc 87a4 88bc 7a5d c23b
000000f0: 6695 e0bb 66f5 a8bb 97c1 e9bc 67b1 0ebd
00000100: c0e3 01bc caab f6bb da89 d1bc 5851 16bd
00000110: 22da 62bd e637 0cbd c735 0bbc f788 4bbc
00000120: ae07 2cbd 5a8f 80bd 0f23 15bd 2b6c 2fbd
00000130: dd20 7b3b 7fca 4fbd ea5f 8cbc bb71 a1bc
00000140: e223 e9bb ca9b b93a 3a18 84bc 62cf 48bd
00000150: beb7 19bd 434b c0bb d58c 3c3c deb3 6e3c
00000160: db25 1cbc df8c 053b 33cf 7dbd c487 29bd
00000170: 37b5 02bc adb0 dcbb 06ff a0bb fabd 24bd
00000180: 9e86 793c 3099 ad3c 9be5 3ebc aeaf 13bd
00000190: d178 94bd 3b26 11bd 0dc5 583b 1cb7 72bc
000001a0: 4e65 823b f59a e03a bbc8 cc3c 224f ddbc
000001b0: 32de b9bc 40d7 0fbc 289e e93b f78d 1abc
000001c0: 17c3 ffbc c44c cf3b ad9a 8dbc d7f1 6cbd
000001d0: 4d02 4ebd d3c9 a2bc a7aa 30bd cd9c d13b
000001e0: 355a 29bc 7cfc 6bbb ad87 40bc b5bd 10bd
000001f0: 93ee 57bc f424 c3bc 7506 103b a8d8 2dbc
00000200: c545 803a 76c4 8eba 206f 81bc 2133 25bc
00000210: e82b adba 266f 65bc 7944 b03b 0620 64bc
00000220: 9ee1 0c3c 8123 73bb 09cc 9cbc f57f 533b
00000230: bc2c 4ebc 2aa0 b3ba d090 d3ba 94cb 2539
00000240: c015 98bb bcf2 5d3b 0695 c33b 15cc 93bb
00000250: f9d4 c2bc bfb9 98bb c321 943b 048c cdbb
00000260: e465 08bc b87c 203c 8683 bc3b eff3 513a
00000270: 779e 683c b589 47bc 4e32 efba f41f 81bc
00000280: 4e0b 88ba 8572 2cbc d663 f63a f930 f9bc
00000290: da24 18bc b014 bc3a d8f3 dd3b 2ea2 003c
000002a0: a052 c63b 1cb6 26bc c48e a03b 2768 f939
000002b0: c34d 4abb 54b2 353b 06cb 023a 40fd 80bc
000002c0: 1bd3 9b3b 717e 863c ad05 f5bb c4de 3cbc
000002d0: 0115 7fbc 14c4 b53b 6dbb df37 2515 6d3c
000002e0: 5c8a 913b d045 3cbc 1743 703b 0e92 00bc
000002f0: 5782 bdbb ec23 af3b 62a6 1f3b a365 aebc
00000300: ff02 0abc 7a1d b73b 5e5c a2bc 147e 84bc
00000310: e7fb 113c 566c e83a 38dd 4b3c dc3d 353c
00000320: bb97 1dbc a2b2 b4bc 77a7 45bc 9792 4a3b
00000330: b52b b93c 4429 a0bb 4cda 79ba ef12 99bc
00000340: 5a2d 863c 304d 6dbb b981 ae3b 8c3b e83a
00000350: 27b2 423c 2658 fd3b cc36 c8bc 97ca 173c
00000360: 97ee 23bc 9bfa 17bc c857 893c 5d49 5cbc
00000370: d8f6 c8ba 3c6c e03a ec4f 3d3b ae22 153b
00000380: 14a6 b7bb 9242 88bc 9eb1 79ba 3397 66bb
00000390: 91a8 40bc e94d 1ab9 145f 7b3c 75e5 7a3c
000003a0: 9391 8cbc 1950 c2b7 d5dd b53a 741d 17bc
000003b0: 8a91 ab3a 7f18 3a3c 25fe 4fb9 c720 adbb
000003c0: 3af7 293c 70f1 e3bb 1b27 0c3c 74fa cbbb
000003d0: a440 bcbb 7f53 feba 3713 8a3c 90bb 923b
000003e0: 4f20 6abc 031e 3d3c 3a64 983b f5f4 6f3c
000003f0: 03f7 5b3b 35e6 47bc f2e1 2ebc 3c3f 4abb

cvae_parameters.z_mu_lin_b f4 [32]
-0.0007243651 0.00026220633 -0.00965757 0.00086059177 -0.016607637 -0.009587834 0.002515193 -0.00089166313
-0.0009652107 0.0037949914 -0.0057782168 -0.014460024 0.0042523006 -0.0103782145 0.0033395016 -0.0097165285
0.019958472 -0.0047962684 0.011105941 -0.001723165 0.0030647053 0.00055787957 -0.0013820544 0.0080760615
-0.005175417 -0.01597919 -0.0050102156 0.0020637803 0.0019811268 -0.000400975 -0.00036285273 0.003879067
00000000: 52e3 3dba bd78 8939 c93a 1ebc 5699 613a
00000010: bd0c 88bc 4a16 1dbc f0d5 243b 80be 69ba
00000020: 3206 7dba 64b5 783b 3257 bdbb bde9 6cbc
00000030: e256 8b3b 6309 2abc 8adb 5a3b 1332 1fbc
00000040: f37f a33c 042a 9dbb b1f5 353c d3db e1ba
00000050: 39d9 483b aa3e 123a 0d26 b5ba 7551 043c
00000060: 8b96 a9bb cae6 82bc bc2c a4bb 7d40 073b
00000070: cbd5 013b f439 d2b9 453d beb9 f237 7e3b
