dlpg/24/weights/dlpg_model_weights_200.pth (torch, 313083 bytes, 14 tensors)

cvae_parameters.dec_00_lin_b f4 [128]
0	0xbd5b7517	-0.053578462
1	0xbd2fadc5	-0.04289033
2	0xbd4242ff	-0.047427174
3	0xbd6d8d84	-0.057996288
4	0xbd5d4357	-0.0540193
5	0xbd7fe80d	-0.06247716
6	0xbd81054a	-0.06299837
7	0xbd630e06	-0.055433296
8	0xbd8c1b43	-0.06841137
9	0xbd7c7be7	-0.0616416
10	0xbd2dd8ef	-0.042443212
11	0xbd6981ab	-0.057008427
12	0xbd27888b	-0.040901702
13	0xbd495aaa	-0.04915873
14	0xbd447415	-0.047962267
15	0xbd570cd6	-0.052502476
16	0xbd5d146e	-0.05397456
17	0xbcf3438b	-0.029695293
18	0xbd22a0c8	-0.039704114
19	0xbd50d311	-0.05098254
20	0xbd54ca05	-0.051950473
21	0xbce7f04e	-0.028312828
22	0xbd6c6541	-0.05771375
23	0xbd1a2125	-0.037629265
24	0xbd730927	-0.0593349
25	0xbd3641c1	-0.0444963
26	0xbd430ad1	-0.047617737
27	0xbd56e3a7	-0.0524632
28	0xbd34e98e	-0.044168048
29	0xbd2be3c5	-0.041965265
30	0xbd56ec9b	-0.05247174
31	0xbd37f011	-0.04490668
32	0xbd2c5c3d	-0.042080153
33	0xbd1cf412	-0.0383187
34	0xbd3b21b2	-0.04568643
35	0xbd3bcab0	-0.045847595
36	0xbd36f461	-0.04466665
37	0xbd47f32d	-0.048815895
38	0xbd69e18d	-0.057099868
39	0xbd48f16a	-0.049058355
40	0xbd480fa8	-0.048843056
41	0xbd46d66a	-0.048544325
42	0xbd9afb30	-0.075674415
43	0xbd63e9d5	-0.05564292
44	0xbd345e2a	-0.044035114
45	0xbd7b56af	-0.061361965
46	0xbd8421e7	-0.06451779
47	0xbd20160a	-0.039083518
48	0xbd678111	-0.05651957
49	0xbd1a8891	-0.037727896
50	0xbd3e85ff	-0.046514507
51	0xbd25cf08	-0.040480644
52	0xbd6b45bf	-0.057439562
53	0xbd6a57f8	-0.0572128
54	0xbd1e275e	-0.038611762
55	0xbd216f37	-0.039412703
56	0xbd7305c3	-0.059331667
57	0xbd517507	-0.051136997
58	0xbd85ac81	-0.06527043
59	0xbd1ed5c6	-0.03877809
60	0xbd59e16a	-0.053193487
61	0xbd465679	-0.04842231
62	0xbd2a369f	-0.041555997
63	0xbd3c0d49	-0.045911107
64	0xbd336d35	-0.04380532
65	0xbd21d546	-0.039510034
66	0xbd6206f8	-0.055182427
67	0xbd6681a2	-0.05627597
68	0xbd540ec3	-0.05177189
69	0xbd2e835c	-0.042605743
70	0xbd5cda1c	-0.053918943
71	0xbd13bf6b	-0.036071222
72	0xbd66634e	-0.056247048
73	0xbd2be4f3	-0.04196639
74	0xbd680ec7	-0.056654718
75	0xbd46c6f3	-0.048529577
76	0xbd29894f	-0.041390713
77	0xbd4011d4	-0.046892002
78	0xbd37d8ab	-0.044884365
79	0xbd3b55b5	-0.045736033
80	0xbd6c440a	-0.057682075
81	0xbd4859aa	-0.048913635
82	0xbd3b36b2	-0.04570646
83	0xbd5d8a39	-0.054086898
84	0xbd1fe01a	-0.03903208
85	0xbd344edf	-0.04402053
86	0xbd603014	-0.05473335
87	0xbd38f899	-0.045158956
88	0xbd5155dc	-0.051107273
89	0xbd224f15	-0.0396262
90	0xbd7b5cfb	-0.06136797
91	0xbd323d5f	-0.04351556
92	0xbd032d9d	-0.032025922
93	0xbd4e40d8	-0.05035481
94	0xbd70c945	-0.058785696
95	0xbd68b070	-0.05680889
96	0xbcfb182a	-0.03065117
97	0xbdb10b93	-0.08644786
98	0xbd16dc6c	-0.036831304
99	0xbd2f2914	-0.042763785
100	0xbd0d1265	-0.03444137
101	0xbd8b59a2	-0.068042055
102	0xbd61616d	-0.055024553
103	0xbd2ef4a5	-0.04271378
104	0xbd27e2f3	-0.04098792
105	0xbd53ad44	-0.05167891
106	0xbd36d30b	-0.04463486
107	0xbd49a245	-0.049227018
108	0xbd713d86	-0.058896564
109	0xbd901905	-0.07036022
110	0xbd2a56dc	-0.04158674
111	0xbd572792	-0.05252797
112	0xbd887b38	-0.06664127
113	0xbd49ae32	-0.04923839
114	0xbd2ad1d4	-0.041704014
115	0xbd41e029	-0.047332916
116	0xbd1cf638	-0.03832075
117	0xbd2cafeb	-0.042159956
118	0xbd2461e7	-0.04013243
119	0xbd306608	-0.043066055
120	0xbd4f3bfc	-0.050594315
121	0xbd580fbe	-0.052749388
122	0xbd7f7c91	-0.062374655
123	0xbd262876	-0.04056593
124	0xbd4ed836	-0.050499164
125	0xbd42d138	-0.047562808
126	0xbd315be7	-0.043300536
127	0xbd22c9c6	-0.039743207

cvae_parameters.dec_00_lin_w f4 [128, 35]
0	0x3c89924a	0.016793389
1	0x3b80172c	0.0039090123
2	0xbc0e84c2	-0.008698644
3	0x3ba0ed8e	0.004911131
4	0xbc2ef079	-0.01067745
5	0x3c6ee353	0.0145805655
6	0xbc152864	-0.009103868
7	0xbae98050	-0.0017814729
8	0xbb48069c	-0.0030521518
9	0x3be71cb5	0.0070529827
10	0xbc70dc5f	-0.014700978
11	0x3c446fe3	0.0119895665
12	0xbc9a083e	-0.018802758
13	0xbb674d5c	-0.0035293913
14	0xbb03e86b	-0.0020127546
15	0xbc6722b9	-0.0141074
16	0xbb8588bd	-0.0040751384
17	0xbbc3eb3a	-0.005978969
18	0xbc415652	-0.0118003655
19	0x3c82ac75	0.015951375
20	0xbc25dcb7	-0.010123423
21	0x3c532179	0.0128863985
22	0xbc03c47a	-0.008042449
23	0x3c2d216c	0.01056705
24	0xbb868a70	-0.0041058585
25	0x3bd5259f	0.006504729
26	0x3becb97e	0.007224261
27	0xbbde5e11	-0.006786116
28	0xbc877e23	-0.016539639
29	0x3adfb42c	0.0017067245
30	0x3a008e12	0.00049039826
31	0x3cbc71d3	0.023003494
32	0x3b1ead76	0.0024212277
33	0xbd29fab6	-0.041498862
34	0x3b7e6432	0.0038817045
35	0xbc2a0f1a	-0.010379577
36	0xbc414611	-0.01179649
37	0xbba6cb90	-0.0050901845
38	0xbb519eeb	-0.0031985592
39	0xbc26382e	-0.01014523
40	0x3bae581d	0.0053205625
41	0x3b9cbdb0	0.0047833547
42	0x3b786fce	0.0037908438
43	0x3b50a34b	0.0031835611
44	0x3c860f88	0.016364828
45	0x3a9ef0fc	0.0012126262
46	0xbbe1082e	-0.00686743
47	0x3b080835	0.0020756845
48	0x3bb2f948	0.0054618455
49	0x3b75c4dd	0.0037501373
50	0x3c041cf5	0.0080635445
51	0xbb3fb7bc	-0.0029253801
52	0x3b26de4d	0.0025462091
53	0x3b46fde9	0.0030363745
54	0x3bbff400	0.0058579445
55	0xbc0453a9	-0.008076587
56	0x3b252d4a	0.0025203996
57	0xbb2ff641	-0.002684966
58	0x3c840cfb	0.01611947
59	0x3b61b64d	0.0034440935
60	0x3b3fa2ba	0.002924128
61	0x3ba560bd	0.0050469325
62	0xbb1f96d7	-0.0024351382
63	0x3c698fad	0.014255446
64	0x3ba8ea32	0.0051548714
65	0x3bbbe383	0.0057339086
66	0xba846f42	-0.0010103958
67	0x3c726eae	0.014796896
68	0xbd308da3	-0.043103825
69	0xbbae6222	-0.005321757
70	0x3bdcb195	0.0067350366
71	0x3b9499bb	0.0045349277
72	0xbc095a91	-0.008383409
73	0xb7785200	-1.4801044e-05
74	0x3bb2cf4e	0.0054568416
75	0xbad73e29	-0.0016421723
76	0x3a58f731	0.00082765805
77	0xbc98c442	-0.01864827
78	0x3bfb9609	0.0076777977
79	0xbaf16c65	-0.0018419145
80	0x3b7223d7	0.0036947632
81	0x3bd8af88	0.006612722
82	0xbb0806f2	-0.0020756093
83	0x3b1cfb3f	0.0023953465
84	0xbaab25ee	-0.0013057569
85	0xbb1bf37d	-0.0023796253
86	0xbc0fc277	-0.008774391
87	0x3b732143	0.0037098683
88	0xbbe46aa0	-0.0069707185
89	0x3b5aa293	0.0033361062
90	0x3b89f464	0.004210042
91	0xbc5c0339	-0.013428503
92	0xbc02cdf7	-0.007983676
93	0x3beb2225	0.007175701
94	0x3b6036d9	0.003421238
95	0xbbd22470	-0.006413035
96	0xbb84a36b	-0.0040478013
97	0xba4c4a3c	-0.0007793044
98	0xbc09d049	-0.008411475
99	0xba0f9646	-0.00054774096
100	0xbc254ab5	-0.010088612
101	0x3c054b68	0.008135654
102	0x3cd7c534	0.026339151
103	0xbd0d7be7	-0.03454199
104	0xbbabc2d4	-0.005241731
105	0xbb66e61d	-0.0035232373
106	0xbb861d05	-0.004092815
107	0xbb21f1ed	-0.002471085
108	0x3a8938d1	0.0010469203
109	0x3c951c22	0.018201891
110	0xbb85c5e0	-0.0040824264
111	0xbc0fb477	-0.0087710535
112	0x3bb8003a	0.0056152614
113	0x3c2a6bde	0.010401694
114	0x3c5d3657	0.013501725
115	0xba561ddf	-0.0008167903
116	0x3bf85c22	0.0075793425
117	0x3c0d325b	0.008617963
118	0x3c464635	0.0121017
119	0xbc95ff00	-0.01831007
120	0x3bdeb9b5	0.0067970403
121	0x3ba88855	0.005143205
122	0x3c2772fc	0.0102202855
123	0xbbf7d4cc	-0.007563209
124	0xbcd1c6a1	-0.025607409
125	0x3c096536	0.008385947
126	0x3b0cca05	0.0021482718
127	0x3b566c0d	0.0032718212
128	0xbb809691	-0.003924199
129	0xbc69034d	-0.014221978
130	0x3c237f09	0.009979018
131	0xba0c2a0b	-0.0005346841
132	0x3b11ade8	0.00222289
133	0xbc50c823	-0.012743029
134	0x3b5ab15b	0.0033369872
135	0x3a660028	0.0008773827
136	0xbbafa0d0	-0.0053597465
137	0xbb84137a	-0.004030642
138	0xbd62447d	-0.055241097
139	0xbb4f579b	-0.003163791
140	0x3bad3a18	0.0052864663
141	0x3a90dbab	0.0011051794
142	0x3a8c33a4	0.0010696542
143	0xbb8382a1	-0.004013375
144	0xbc1d9f0d	-0.00962044
145	0x3c553b9d	0.013014701
146	0x3a9c3265	0.0011916874
147	0x3c8f17c5	0.017467389
148	0x3cd8270e	0.02638581
149	0x3b4e4ab9	0.0031477644
150	0xbbedb727	-0.0072544995
151	0xbc87c42d	-0.016573036
152	0x3c511f0e	0.012763752
153	0x39e58ca3	0.00043783066
154	0xbc7b9007	-0.015354163
155	0xbc825685	-0.015910396
156	0x3c921507	0.017832292
157	0x3c403c85	0.011733179
158	0x3be06765	0.006848263
159	0x3c93b826	0.018032145
160	0x3bde8046	0.0067901937
161	0xba6aa8a4	-0.0008951521
162	0x3aff5a22	0.0019481818
163	0x3c4863a0	0.012230784
164	0xbb0ef0f7	-0.0021811107
165	0x3befe1ae	0.0073206043
166	0x3c6a6cd8	0.014308177
167	0xbc3be602	-0.011468412
168	0xbc8bdd68	-0.017073348
169	0xbb0ae6da	-0.0021194727
170	0x3c4a3bee	0.01234339
171	0xbb80b96b	-0.0039283535
172	0xbb924b94	-0.004464576
173	0xbd5b4231	-0.053529922
174	0xba8ec644	-0.0010892828
175	0x3c24fc52	0.0100699235
176	0xbc6a3417	-0.014294646
177	0xbc8511bb	-0.016243806
178	0xbb38a435	-0.0028174047
179	0x39bf6913	0.00036508645
180	0x3c1d2c56	0.00959309
181	0x3ca6b455	0.02034966
182	0xbbd5a4f8	-0.00651991
183	0xbc213760	-0.009839863
184	0xbc18f31b	-0.009335305
185	0x3b45b3e5	0.003016704
186	0xbbe61d2d	-0.007022521
187	0xbc77fc86	-0.01513589
188	0x3c42fb43	0.011900726
189	0xbbd28944	-0.0064250547
190	0xbbdb66e9	-0.0066956175
191	0xbb932f6b	-0.0044917366
192	0xbc2d3997	-0.0105728125
193	0x3a8800fd	0.0010376271
194	0xbb488894	-0.0030598985
195	0xbbfe0041	-0.007751495
196	0xbb9ed67d	-0.0048473463
197	0x3b9dfdef	0.004821531
198	0xbc1937c0	-0.009351671
199	0x3c6c2d1a	0.01441505
200	0xbbc67084	-0.0060558934
201	0x3cd71f76	0.026260119
202	0x3cd994d1	0.026560219
203	0x3c0db8b5	0.008649995
204	0xbc36c0c9	-0.011154362
205	0x3a4a21a7	0.0007710703
206	0x3b0832a1	0.002078213
207	0xbc264380	-0.010147929
208	0xbd3bf1cc	-0.045884892
209	0x3c25990b	0.010107289
210	0x3b7c6cf8	0.00385171
211	0xbc7ccec3	-0.015430155
212	0x39978410	0.0002889936
213	0x3b28627b	0.0025693465
214	0x3bff70f9	0.00779545
215	0xbb420c4e	-0.0029609385
216	0x3b5689ec	0.0032736016
217	0x3c9b3cc0	0.018949866
218	0xbca4e696	-0.020129483
219	0xbbde33d7	-0.006781082
220	0xbbbc2476	-0.005741651
221	0x3b97db1c	0.004634274
222	0xbcb512c7	-0.02210368
223	0xbc478136	-0.012176802
224	0xbc68b9d5	-0.014204462
225	0x3cbfcbb7	0.023412568
226	0xbc3cc810	-0.011522308
227	0xbae69873	-0.0017593041
228	0xbc6e08b8	-0.014528446
229	0xba8be06c	-0.0010671741
230	0x3aec2997	0.0018017766
231	0xba37a9f3	-0.00070062204
232	0xba29a6b4	-0.0006471679
233	0x3c1632f2	0.00916742
234	0x3ba31a2d	0.0049774856
235	0x3b96b469	0.0045991433
236	0xbc12d8fe	-0.008962868
237	0xbc411fac	-0.011787336
238	0xbbe0932e	-0.0068534827
239	0x3b852036	0.0040626777
240	0x3c4b6720	0.012414724
241	0xbc1bef43	-0.009517494
242	0x3b56956a	0.0032742866
243	0xbd94cb7b	-0.07265373
244	0xbc01f80e	-0.007932676
245	0x3d0401f3	0.03222842
246	0x3c4eb692	0.01261677
247	0xbb2cdf3d	-0.0026378178
248	0xbb9b8fd1	-0.004747369
249	0x3aa66913	0.001269611
250	0xb9a89a50	-0.0003215843
251	0x3a9328ed	0.0011227407
252	0xbbb5a38b	-0.0055431775
253	0x3585b335	9.961428e-07
254	0xbbc683d7	-0.006058197
255	0x3b6e62f8	0.0036374908

cvae_parameters.dec_01_lin_b f4 [128]
0	0x3e112f50	0.14178205
1	0x3d5f073f	0.05445027
2	0xbc0e7d2c	-0.0086968355
3	0xbbad61ed	-0.0052912147
4	0x3d950501	0.07276345
5	0xbc00d2b0	-0.007862732
6	0x3ddf53d8	0.10904664
7	0x3da6a761	0.08137394
8	0xbbc87d1b	-0.0061184294
9	0xbb0632b4	-0.0020476999
10	0xbc6d67fc	-0.014490124
11	0xbb64eb81	-0.003493041
12	0xbaf0b57f	-0.0018364637
13	0x3df22ebc	0.1182532
14	0x3d9af0cf	0.07565462
15	0xbc1d563e	-0.009603081
16	0xbbe087eb	-0.00685214
17	0x3d6c44f4	0.057682946
18	0x3de32140	0.11090326
19	0xbc6c7376	-0.014431825
20	0xbb84c4d9	-0.0040517864
21	0x3dd97681	0.10618306
22	0x3c8ef5fb	0.017451277
23	0xbc0fc7f1	-0.008775697
24	0xbb8992dd	-0.0041984157
25	0x3de28f9a	0.11062546
26	0xbc29fd08	-0.010375269
27	0x3e00f289	0.1259252
28	0x3dacdb92	0.08440317
29	0x3e21c782	0.15798762
30	0xbaf53f73	-0.0018710926
31	0x3dc3394e	0.095324144
32	0xbc209ebc	-0.00980347
33	0xbc298fc4	-0.010349218
34	0x3dd6b1b3	0.10483112
35	0xbbbe58df	-0.005808934
36	0xbb943d68	-0.0045239218
37	0xbc02d7d3	-0.007986027
38	0x3d9ff9e3	0.07811334
39	0x3dd2280c	0.102615446
40	0x3df6076e	0.12013136
41	0xbbe01423	-0.006838338
42	0x3dbccc90	0.09218705
43	0x3d863263	0.06552579
44	0xbc42e801	-0.011896134
45	0xbbabff9a	-0.005248976
46	0x3e043c35	0.12913592
47	0xbaf19d41	-0.0018433706
48	0xbc3e7af4	-0.011625994
49	0xbc08f8ad	-0.00836007
50	0xbbbdde31	-0.0057943095
51	0x3e05bbb7	0.13059889
52	0x3dc87fe1	0.09790016
53	0xbb71d342	-0.00368996
54	0xbb7ad7ea	-0.0038275667
55	0x3e0152e3	0.12629275
56	0xbc820bcb	-0.015874764
57	0xbbd7ab24	-0.006581681
58	0xbbffa7a0	-0.007801965
59	0xbb8e222d	-0.00433757
60	0xbc383ddb	-0.011245216
61	0xbc62cc4f	-0.013842656
62	0x3db4ad50	0.08822119
63	0x3e20860d	0.15676136
64	0xbc19c5ad	-0.0093855085
65	0xbc83edaf	-0.016104547
66	0x3d9e04c0	0.0771575
67	0x3d6de755	0.058081944
68	0x3dbbf906	0.09178357
69	0x3de404c4	0.111337215
70	0xbbe086b7	-0.0068519968
71	0xbb3320b5	-0.0027332727
72	0x3e02132a	0.12702623
73	0x3d939cc1	0.07207633
74	0x3da999fd	0.08281324
75	0x3dc863d4	0.09784666
76	0xbc7ebeec	-0.015548449
77	0x3dc78a3c	0.09743163
78	0x3daf06b8	0.085462034
79	0xbc2982c0	-0.010346115
80	0xbb4a3d48	-0.003085928
81	0xbc180873	-0.009279358
82	0xbbcb23bb	-0.0061993278
83	0xbb0158bf	-0.0019736735
84	0x3dc584d0	0.096444726
85	0xbc2b8ca1	-0.01047054
86	0xbbb16c13	-0.005414495
87	0xbc0368d4	-0.008020598
88	0xbbfbd52b	-0.0076853237
89	0xbc4b5b5e	-0.01241192
90	0x3de11cd7	0.10991829
91	0x3e1471fd	0.14496608
92	0xbc944468	-0.018099025
93	0xbb8a2c17	-0.0042166817
94	0xbbbee5bb	-0.005825726
95	0x3d7879ba	0.060662962
96	0xbba0d6ba	-0.00490841
97	0xbba6f09f	-0.0050946022
98	0xbb404a3e	-0.0029341127
99	0x3ddb96ba	0.10722108
100	0x3df2064d	0.11817608
101	0x3d6a42c5	0.057192583
102	0xbb8a8556	-0.0042273207
103	0xbb5f3464	-0.0034058327
104	0xbb4ed83e	-0.0031561996
105	0xbbb4e0fc	-0.0055199843
106	0xbc307d8d	-0.010772121
107	0xbb69d07f	-0.0035677252
108	0xbb6374d9	-0.0034707098
109	0xbbce2a03	-0.0062916293
110	0xbc3c7e30	-0.011504695
111	0xbb7f08c1	-0.003891513
112	0xbb40df0a	-0.0029429817
113	0xbba92272	-0.005161577
114	0xbaded264	-0.0016999957
115	0x3e0b1244	0.13581187
116	0x3dc4f2e2	0.09616639
117	0xbbd2d45b	-0.006434006
118	0x3dfe9c5a	0.124321654
119	0xbc5b9a5f	-0.013403504
120	0xbba5443d	-0.005043535
121	0xbc5ee1c6	-0.013603633
122	0xbc0b7583	-0.008511904
123	0x3de5dc2d	0.11223636
124	0x3de1bc25	0.11022214
125	0x3d9aecaf	0.07564675
126	0xbc5fbeb0	-0.013656303
127	0xbb57b386	-0.00329134

cvae_parameters.dec_01_lin_w f4 [128, 128]
0	0x3b592af8	0.0033137184
1	0x3c9bbf5f	0.019012151
2	0xbbe48c34	-0.0069747213
3	0xbb1293f3	-0.0022366017
4	0x3c177f42	0.009246649
5	0x3b794dbd	0.003804072
6	0x3c81abba	0.015828956
7	0x3c29e4cc	0.010369491
8	0x3bb2d191	0.005457111
9	0x3bdcf94c	0.0067435857
10	0xbc80ea29	-0.015736656
11	0x3c51b8ce	0.0128004085
12	0xbb2a401b	-0.0025978151
13	0x3c132923	0.008981976
14	0x3c7deb1c	0.015497949
15	0x3c878908	0.016544834
16	0x3b589882	0.0033049886
17	0xbb424f95	-0.0029649485
18	0x3cb486ad	0.022036875
19	0x3bb9debb	0.0056723035
20	0xbc268fec	-0.01016615
21	0x3c294181	0.010330559
22	0x3a1492ff	0.0005667656
23	0x3b917c2a	0.0044398503
24	0x3c6a1d85	0.014289265
25	0x3b9fc47e	0.0048757186
26	0x3bc39f28	0.0059699006
27	0xbc22e0c9	-0.009941288
28	0x3b77e396	0.003782486
29	0x3c290f0e	0.010318531
30	0x3c023f0f	0.007949605
31	0xbc46e926	-0.012140548
32	0xbc1b7362	-0.009487959
33	0x3ca85ece	0.020553019
34	0x3b6217b5	0.0034498994
35	0x3a7ada7e	0.0009569301
36	0x3b958405	0.004562857
37	0x3a86dbfe	0.0010288951
38	0x3c028c16	0.007967969
39	0xba5691de	-0.0008185188
40	0x3cd98267	0.026551438
41	0xbb93cb67	-0.0045103314
42	0x3b1e8983	0.002419085
43	0x3c67ece3	0.014155599
44	0x3be5cc1c	0.007012857
45	0x3a68d085	0.00088811695
46	0x3ca034e1	0.019556465
47	0x3b2afb7c	0.0026089838
48	0x3c337e7d	0.01095545
49	0x3c222c4d	0.009898257
50	0x3b68603e	0.0035457755
51	0x3c3e99c8	0.011633344
52	0x3b6c5865	0.003606343
53	0x3c9b4b17	0.018956704
54	0x3c823cbf	0.015898107
55	0xbba2f17a	-0.004972634
56	0x3ca30066	0.01989765
57	0x3c38c0cc	0.011276435
58	0xbc51337a	-0.012768621
59	0x3bfe7437	0.0077653187
60	0x3bbbb005	0.0057277703
61	0x3c341990	0.010992423
62	0x390723b1	0.000128879
63	0x3b82468e	0.003975696
64	0x3bbc49e1	0.0057461117
65	0x3c71b751	0.014753179
66	0x3c16862f	0.009187265
67	0x3ac8f7dd	0.0015332658
68	0xbbb1a632	-0.0054214234
69	0xbb099c48	-0.0020997692
70	0x3c471eea	0.012153367
71	0xbc16686b	-0.009180169
72	0x3c61db9b	0.013785268
73	0x3c937d1a	0.018003989
74	0xbb8e3e4a	-0.0043409215
75	0xba9f72c3	-0.0012164939
76	0x3c304acf	0.010760023
77	0xbbc226e6	-0.005925047
78	0x3c81194e	0.015759137
79	0x3cdedb5a	0.027204204
80	0xbc0991d5	-0.0083965855
81	0x3c58ecaf	0.0132400235
82	0xbc6c3083	-0.014415863
83	0xbb3b173d	-0.0028547787
84	0x3b37e968	0.0028062705
85	0x3cdc2428	0.02687271
86	0xbb3ae49f	-0.0028517616
87	0x3be8eff0	0.007108681
88	0x398ae513	0.00026492085
89	0x3c521c72	0.012824165
90	0x3c428cd3	0.011874395
91	0x3b1354f9	0.0022481068
92	0x3c487771	0.012235508
93	0x3a5c4ca5	0.0008403755
94	0x3c339390	0.010960475
95	0x3b0dda73	0.0021645098
96	0x3bc3ce9d	0.005975558
97	0x3c27a2a3	0.010231647
98	0x3b126a69	0.0022341257
99	0x3b070478	0.0020602029
100	0xbb2f2ba0	-0.0026728883
101	0x3cb9cbb7	0.022680147
102	0xbb327878	-0.002723245
103	0x3c3c421e	0.011490373
104	0x3c66ae76	0.014079681
105	0x3c5d288d	0.013498438
106	0x3cbce15c	0.023056678
107	0xbc1892de	-0.00931236
108	0x3bae2893	0.0053148954
109	0xb9dbf5f1	-0.00041954176
110	0xbbfd3fe6	-0.0077285646
111	0x3c63fecc	0.013915729
112	0x3a565708	0.0008176421
113	0xbb8142ca	-0.0039447295
114	0x3be9c784	0.00713438
115	0x3b062be2	0.0020472934
116	0x3c188b17	0.009310505
117	0x3c232a56	0.009958824
118	0xbb3ebe20	-0.0029105023
119	0xbc69136e	-0.014225824
120	0x3c0b2bb6	0.008494308
121	0x3c70932f	0.014683529
122	0xba2d748c	-0.0006616793
123	0xbb67ac27	-0.0035350414
124	0x3cb00d2a	0.021490652
125	0x3b0c6fa9	0.002142886
126	0x3c433d94	0.011916537
127	0x3c466da3	0.0121111
128	0xbc56db09	-0.0131137455
129	0x3c3383a4	0.010956679
130	0xbac5ba49	-0.0015085425
131	0x3b9f492d	0.004861018
132	0xbc3be1f0	-0.011467442
133	0xbc5be380	-0.013420939
134	0xbc85c15f	-0.016327558
135	0xbc3ccb37	-0.01152306
136	0xbbfde21f	-0.007747903
137	0x3c3a877c	0.011384841
138	0x3c586c9f	0.013209491
139	0xbbe46a4d	-0.00697068
140	0xbc8d82ee	-0.017274346
141	0xbbfa9968	-0.007647682
142	0xbbf961a9	-0.007610519
143	0x3b8d3304	0.00430906
144	0xbc2d3085	-0.01057065
145	0xbb4b725b	-0.0031043503
146	0xbb944cbc	-0.004525749
147	0xbcd77bbe	-0.026304122
148	0x3ca6c9f9	0.02035998
149	0xbb932633	-0.0044906377
150	0xbc163d1c	-0.009169843
151	0x3c21ddb6	0.00987952
152	0x3af0fdf0	0.0018386226
153	0xbc676d73	-0.014125216
154	0xbc830cff	-0.015997408
155	0x3bfbee96	0.007688354
156	0x3b0e2d8e	0.0021694633
157	0xbaf32877	-0.0018551488
158	0xbcc38713	-0.02386812
159	0xbca9c4bf	-0.020723699
160	0xbb86c063	-0.0041122898
161	0xbc838a63	-0.016057199
162	0xbb73ca9b	-0.003719962
163	0xbc42ed15	-0.011897345
164	0xbc227e55	-0.009917815
165	0xbc9d827c	-0.019227259
166	0x3aba03a1	0.0014191755
167	0xbb51234e	-0.0031911912
168	0xbcaa86fa	-0.020816315
169	0xbbc53200	-0.0060179234
170	0x3c427063	0.011867615
171	0x3beacbe7	0.0071654203
172	0xbb4791a4	-0.0030451799
173	0xbc8ff6b2	-0.017573688
174	0xbb120f30	-0.0022286884
175	0xbb99de89	-0.0046957177
176	0xbcc3d29a	-0.023904134
177	0xb7291d86	-1.0080059e-05
178	0x3c19e1a1	0.009392173
179	0xbc7e6257	-0.015526376
180	0x3c3a495c	0.011370029
181	0x3b3b7579	0.0028603955
182	0xbc81ac41	-0.015829207
183	0xbc0ed6be	-0.008718191
184	0xbc574bb2	-0.013140606
185	0xbbeafaf9	-0.0071710316
186	0xbc2b3685	-0.01045001
187	0x3c4af32b	0.012387077
188	0x3b849889	0.004046504
189	0x3c4f18d7	0.0126402
190	0x3c1029a7	0.008798993
191	0xbbacfefe	-0.005279421
192	0x3bc89617	0.0061214077
193	0xbbe59ecc	-0.0070074555
194	0x3bbc36ac	0.005743822
195	0xbb75732e	-0.0037452686
196	0xbc3112a7	-0.01080767
197	0x3b3ae988	0.0028520543
198	0xbb931bf8	-0.004489418
199	0xbbfe08e2	-0.0077525238
200	0xbc234b4b	-0.009966682
201	0x3c7af54a	0.0153172705
202	0x3b8b9a94	0.0042603705
203	0xbb82fbf4	-0.0039973203
204	0x3a6b47a7	0.00089752156
205	0xbb00a6c7	-0.0019630657
206	0xbb96d2b3	-0.004602754
207	0xbc0d7032	-0.0086327065
208	0x3bab6ed9	0.00523172
209	0x3bac4f93	0.0052585094
210	0xbc0025f5	-0.00782155
211	0xbc5ce23d	-0.013481674
212	0xbbebe1bb	-0.00719854
213	0xbc8f8620	-0.01752001
214	0xba1522a3	-0.000568906
215	0xbc002693	-0.007821697
216	0x3c0c38c3	0.008558455
217	0xbc0a8669	-0.008454897
218	0xbc7f4d9f	-0.015582471
219	0xbbc29eb2	-0.005939328
220	0x3b677cff	0.0035322306
221	0xbc44c0cb	-0.012008856
222	0xbba323f1	-0.00497865
223	0xbc89015f	-0.016724287
224	0x3c856f9d	0.016288573
225	0xbcb337ad	-0.021877134
226	0xbbb61b5b	-0.0055574602
227	0xbc2cb68c	-0.010541569
228	0xbbfef9b9	-0.007781234
229	0xbb8aeaba	-0.0042394074
230	0xbc28b2e5	-0.010296558
231	0xbc8c111e	-0.017098006
232	0xbc119c3e	-0.008887349
233	0xbc8ec83e	-0.017429467
234	0xbc1234d3	-0.008923727
235	0xbbdc00f9	-0.006713983
236	0x3c0601df	0.008179157
237	0xbc6b156e	-0.014348371
238	0xbc0b1597	-0.008489034
239	0xbbcfcce1	-0.006341562
240	0x3b6369b0	0.0034700446
241	0xbb87a640	-0.0041396916
242	0xbc8f3011	-0.017478975
243	0xbc7fb214	-0.015606422
244	0xba163bdc	-0.00057309656
245	0xbb622440	-0.003450647
246	0xbbbf82cb	-0.005844449
247	0xbaf0a6fa	-0.001836031
248	0xbc895f3d	-0.016769046
249	0xbc371924	-0.011175428
250	0xbb5f3953	-0.0034061268
251	0xbc9e3107	-0.019310487
252	0xbb8932e2	-0.004186974
253	0xbbd1b047	-0.0063991877
254	0xbc23772d	-0.009977144
255	0xbb89d516	-0.00420631

cvae_parameters.enc_00_lin_b f4 [128]
0	0x3c5bac76	0.013407817
1	0xbbb96342	-0.0056575844
2	0xbb86fc85	-0.004119458
3	0xbb6d144f	-0.0036175435
4	0xb9f9ebeb	-0.00047668754
5	0xbad9375c	-0.0016572285
6	0x3b7a8fe0	0.003823273
7	0xbb37462b	-0.0027965407
8	0xbbbd54e7	-0.0057779434
9	0x39dd0011	0.00042152454
10	0xb9a5b067	-0.00031602682
11	0xbae4f3a4	-0.001746763
12	0x3c2f779b	0.0107096685
13	0x3c04ac72	0.008097755
14	0xbb7d56ee	-0.003865655
15	0xbc0b385b	-0.008497323
16	0xbaae419b	-0.0013294698
17	0x3c531375	0.012883057
18	0xbbc1454c	-0.0058981534
19	0xbac90421	-0.0015336314
20	0xbae36066	-0.0017347455
21	0x3bc4add4	0.0060021672
22	0x3b0ba5aa	0.002130846
23	0xbaaa60ab	-0.001299878
24	0x3ba2a6fd	0.004963754
25	0xbbd339e7	-0.0064461115
26	0xbb317d62	-0.002708279
27	0x3c0dc841	0.008653701
28	0x3c5ed1ef	0.013599857
29	0x388a0953	6.5820896e-05
30	0xbb9a1c71	-0.0047030975
31	0x3c5a7328	0.013333119
32	0xbb82de19	-0.0039937613
33	0xbbfa8396	-0.007645081
34	0xba800d6b	-0.0009769624
35	0x3c1276f5	0.008939494
36	0xbc0b29bd	-0.008493838
37	0xbac8c58d	-0.0015317664
38	0x3bbd180a	0.005770688
39	0xbb022f01	-0.0019864442
40	0x3a3fef72	0.0007321752
41	0x3c13d5dc	0.009023156
42	0xbc192933	-0.009348202
43	0xbbe435be	-0.0069644144
44	0xbb018ddb	-0.001976839
45	0x3c4a0af3	0.012331712
46	0xbad935a0	-0.0016571768
47	0x3c6c9502	0.014439823
48	0x3c34c504	0.0110333
49	0x3c37d004	0.011219028
50	0xbb07663a	-0.0020660297
51	0x3c230f32	0.009952353
52	0x3c5291bb	0.012852128
53	0xba6dfb41	-0.0009078272
54	0xb7abe80e	-2.0492847e-05
55	0x3c27cb6a	0.010241369
56	0xbbb6fc4e	-0.0055842763
57	0xbadbdf84	-0.0016774987
58	0xb94f5fc0	-0.00019776728
59	0xbb0516c2	-0.0020307754
60	0xb9ed9b08	-0.0004531967
61	0x3a7a18c6	0.00095404347
62	0x3bd78aff	0.006577849
63	0x3c85f9ef	0.01635453
64	0x3c1d6a4f	0.0096078655
65	0x3c4b6c2c	0.012415927
66	0xbaf66c69	-0.0018800619
67	0xbb3e6ffc	-0.0029058447
68	0x3c8dc8d8	0.017307684
69	0xbb257b58	-0.002525052
70	0xbbcf3cdf	-0.006324395
71	0x3a7948e3	0.0009509457
72	0xb9326976	-0.0001701469
73	0x3c2527ef	0.010080322
74	0xbb7b0a60	-0.0038305745
75	0xbb94ce19	-0.0045411703
76	0x3c8860ab	0.016647657
77	0x3c6144e1	0.013749332
78	0xbb3df565	-0.0028985378
79	0xbb61daca	-0.0034462684
80	0x3a2f0e49	0.0006677849
81	0x3c7b2ab3	0.0153300045
82	0x3c001f44	0.007819954
83	0x3a3aea39	0.0007130239
84	0xbbcab8a8	-0.0061865635
85	0x3a9d67e2	0.0012009109
86	0xbc168f97	-0.009189508
87	0x3bb88098	0.005630564
88	0xbba748e5	-0.0051051253
89	0x3c1a8a63	0.009432408
90	0xbb75b195	-0.003748988
91	0x3bc7b859	0.006094974
92	0xbb9f1fa1	-0.0048560654
93	0xbbf6d2eb	-0.0075324676
94	0xbaa3a32f	-0.0012484546
95	0xba1c9e4d	-0.00059745164
96	0xb8e2f5d4	-0.00010822309
97	0x3b22d703	0.0024847395
98	0xbaebb6c1	-0.0017983542
99	0x3c175d1f	0.00923851
100	0xbba25cf2	-0.0049549276
101	0xbbdf30ed	-0.0068112523
102	0x3a9cf269	0.0011974099
103	0xbb8497f2	-0.0040464336
104	0xbb82b225	-0.0039885216
105	0x3c075092	0.008258956
106	0xbaabca42	-0.0013106542
107	0x3c56fb3c	0.013121422
108	0xbb23f28c	-0.0025016395
109	0x3b031183	0.0019999451
110	0x387264c0	5.7791127e-05
111	0xbb37657f	-0.002798408
112	0xba78f8d1	-0.0009497526
113	0x3bda5eb2	0.0066641206
114	0xbb7b49e2	-0.0038343598
115	0x3c3e00c7	0.011596865
116	0xbb9b627c	-0.004741965
117	0xbb0516da	-0.002030781
118	0xbb2e44f2	-0.0026591388
119	0xbb404cad	-0.0029342577
120	0xbbbd330b	-0.005773907
121	0x3bffd32e	0.007807157
122	0x3c343b5b	0.01100048
123	0xbb9744d4	-0.0046163592
124	0x3be3cd1c	0.006951941
125	0xbb5eb984	-0.0033985088
126	0x3b19c620	0.002346404
127	0xbb302588	-0.002687784

cvae_parameters.enc_00_lin_w f4 [128, 123]
0	0xbca06c8a	-0.019583005
1	0xbc66b9a1	-0.014082343
2	0xbc33f5d8	-0.010983907
3	0xbbdf4675	-0.006813819
4	0x39f653f8	0.00046983338
5	0xba585793	-0.00082527957
6	0xbc0845bf	-0.00831741
7	0xbcc696cc	-0.024241827
8	0xba4710f1	-0.0007593772
9	0xbc740672	-0.014894115
10	0x3abe4db9	0.0014519013
11	0x3b125ff5	0.0022335027
12	0x3968de1a	0.00022207983
13	0x3c1574b6	0.009122064
14	0x3c10b4e0	0.008832186
15	0xbb95fa98	-0.0045769922
16	0xbc4f230a	-0.012642631
17	0xbc92ef6f	-0.017936436
18	0x3aea8b09	0.0017894219
19	0x3b48c25c	0.0030633425
20	0x3b015645	0.0019735259
21	0xbca7a7c0	-0.020465732
22	0x3a1556c4	0.0005696828
23	0x3c58d167	0.013233519
24	0x3c093125	0.008373533
25	0xbc14191e	-0.0090391915
26	0xbb32e63b	-0.0027297873
27	0xbaacc414	-0.0013180994
28	0x3c85e145	0.016342768
29	0x3c514b60	0.012774318
30	0x3c37cb49	0.011217901
31	0xbb9518b5	-0.0045500644
32	0xbb24736c	-0.002509321
33	0x3b0a3d31	0.0021093602
34	0xbc0795ad	-0.008275432
35	0x3b0e2b16	0.0021693162
36	0x3ae6cc2a	0.0017608453
37	0x3b4a5392	0.0030872566
38	0x3bcee77b	0.0063142157
39	0x3b2e3b89	0.0026585779
40	0xbb431751	-0.0029768536
41	0x3b8f4075	0.0043716975
42	0xbc202c7c	-0.009776231
43	0x3b804f32	0.003915691
44	0xbb1edf04	-0.0024241814
45	0x3cc61ef3	0.02418468
46	0xbc8c3aba	-0.017117847
47	0xbc9ec752	-0.019382153
48	0xbc1b17d8	-0.009466134
49	0x3c7a2ede	0.015269963
50	0x3af1fe86	0.0018462695
51	0x3bc5a146	0.006031188
52	0xbc1657a1	-0.009176166
53	0xbc07a1e2	-0.008278342
54	0x3bac92e1	0.005266533
55	0xba53ac69	-0.00080747023
56	0xbbdc8cde	-0.00673066
57	0x3c547528	0.012967385
58	0x3c609b1c	0.013708856
59	0x3d02313a	0.031785227
60	0xbc31f682	-0.010861995
61	0xbc5bffe2	-0.013427706
62	0x3c82b3ff	0.01595497
63	0xbc0e39e9	-0.008680799
64	0xbbb75fb7	-0.005596127
65	0x3bef7dff	0.007308721
66	0x3c71dc20	0.014761955
67	0x3c08fa50	0.00836046
68	0xbc9a8a74	-0.018864848
69	0x3ca995f7	0.020701392
70	0xbc06efe2	-0.008235903
71	0x3bcfaebc	0.0063379686
72	0xbc287498	-0.010281704
73	0xbc1b7616	-0.009488603
74	0xbbf4f61b	-0.007475627
75	0xbc27fa74	-0.010252584
76	0xbc88dbe0	-0.016706407
77	0x3c76ea3d	0.015070495
78	0x39baf599	0.0003565967
79	0x3c26c9cd	0.010179949
80	0xbb113d55	-0.00221618
81	0x3b169506	0.0022977008
82	0xbc57273f	-0.013131916
83	0xbb398af0	-0.0028311573
84	0x3c29b53e	0.010358153
85	0xbb8b0c45	-0.004243406
86	0x3bfb451b	0.00766815
87	0x37acf1d7	2.0616613e-05
88	0xbbd476f4	-0.006483907
89	0x3ca1198d	0.019665504
90	0xbca49996	-0.020092767
91	0xbb8e8400	-0.0043492317
92	0xbc7a2166	-0.015266752
93	0xbc33fe6f	-0.010985955
94	0xbb5925e1	-0.003313415
95	0x3a5686ea	0.0008183556
96	0x3c51360d	0.012769234
97	0xbc70af6d	-0.014690262
98	0xbadce3b0	-0.0016852524
99	0x3b1eaf0e	0.0024213227
100	0xbcfb6568	-0.030688003
101	0xbcb2a1cc	-0.021805666
102	0xbb56a97d	-0.0032754831
103	0x3b252cbe	0.002520367
104	0xbb157cce	-0.0022809985
105	0x3a4d680e	0.0007835635
106	0x3b995939	0.0046798256
107	0x3bb5d23a	0.0055487426
108	0x3bba3c12	0.0056834305
109	0xbc57efde	-0.013179747
110	0x3c2e3b04	0.010634188
111	0xbc11d5fc	-0.0089011155
112	0xbb833e31	-0.0040052165
113	0xbc99cbf4	-0.01877401
114	0xbbc1a6ed	-0.0059097917
115	0xbb9c241c	-0.0047650468
116	0x3b0c8273	0.0021440058
117	0xba8baae2	-0.0010655785
118	0xbc8b54b0	-0.017008156
119	0xbbe84b1c	-0.007089032
120	0xbbcc0bbc	-0.006226985
121	0x3c0fb233	0.008770513
122	0x3c9d6eb2	0.019217823
123	0xb98049f7	-0.0002446917
124	0x3b1ff0d2	0.0024405015
125	0x3c7f4ca6	0.015582239
126	0x3c2feaed	0.010737163
127	0x3c8f1913	0.017468011
128	0xbba5dcbb	-0.0050617135
129	0x3a123e06	0.00055787
130	0xbb906e95	-0.0044077137
131	0x3c13bb11	0.009016768
132	0x3c501c08	0.012701996
133	0x3c4120bb	0.011787589
134	0x3cb66fd8	0.022270128
135	0xbc1c82ed	-0.0095526995
136	0x3b90e017	0.004421245
137	0x3b081245	0.0020762843
138	0x3a420f11	0.0007402758
139	0xbb7b2795	-0.0038323153
140	0x3ac0fe02	0.0014724138
141	0xbc21bff1	-0.009872423
142	0x39697059	0.00022262464
143	0x3b8c767a	0.0042865844
144	0x3ab6e0fa	0.0013952546
145	0xbaa099b2	-0.0012252836
146	0x3bdfc465	0.006828832
147	0x3c7f6509	0.0155880535
148	0x3b6962d6	0.003561189
149	0x3c19c135	0.009384443
150	0xb991fd60	-0.00027845334
151	0x3a08da2c	0.00052204984
152	0x3b4a3783	0.0030855841
153	0xbaa6f1df	-0.0012736878
154	0xbca1fd30	-0.01977405
155	0x3c02376b	0.007947783
156	0xbbc5c4e5	-0.0060354345
157	0x3c211c43	0.009833398
158	0x3b19eac8	0.0023485888
159	0x3c25a697	0.010110519
160	0x3c0cf1fb	0.0086026145
161	0xbb6e13c7	-0.0036327706
162	0x3aed78d5	0.0018117676
163	0x3ba99a4c	0.0051758643
164	0x3c5e8db9	0.013583594
165	0xba2f70df	-0.00066925393
166	0x3b9169c8	0.004437659
167	0x3c456950	0.012049034
168	0x37848f40	1.5802332e-05
169	0x3bdf0bde	0.0068068346
170	0x3aa02057	0.0012216669
171	0x3c0bd45a	0.008534515
172	0xbbe15697	-0.0068767774
173	0xbb826c94	-0.0039802287
174	0xbb48bfaf	-0.003063183
175	0xbbdde617	-0.0067718136
176	0x3b79a700	0.0038093925
177	0x3a27357c	0.0006378514
178	0xbc734107	-0.014847047
179	0x3b6827c1	0.0035424086
180	0x3bfab91d	0.0076514618
181	0x3c32b431	0.010907219
182	0x3c969161	0.018379869
183	0x3bd7a507	0.006580952
184	0xbbd59c5d	-0.006518884
185	0xba80989a	-0.0009811104
186	0x3c92399d	0.017849738
187	0x3c19d78e	0.009389771
188	0x3c0dda95	0.008658071
189	0xbc5b6c3e	-0.013392506
190	0xbbd6a3d7	-0.006550293
191	0xbbf2d451	-0.007410564
192	0xbacaf3d3	-0.0015484042
193	0x3c1f2aab	0.009714763
194	0x3a92388a	0.0011155766
195	0x399f1bc8	0.00030347542
196	0x3bb12a4f	0.005406655
197	0x3c5a6441	0.013329566
198	0x3a84e6f1	0.0010139627
199	0x3c8b2cfe	0.016989227
200	0xbb314847	-0.0027051137
201	0xbc127157	-0.008938155
202	0x3bd33d4d	0.0064465166
203	0x3c08c20e	0.0083470475
204	0x3c1af312	0.009457367
205	0xbb9b4ab3	-0.0047391295
206	0x3c08a16c	0.008339267
207	0xb947600b	-0.00019013898
208	0x3c72afda	0.014812434
209	0x3b4984d0	0.0030749328
210	0x3c51fa9b	0.012816097
211	0x3c859f0e	0.016311195
212	0xbb972755	-0.004612843
213	0x3c6844d2	0.014176564
214	0xba4039b6	-0.00073328183
215	0xbc094903	-0.008379224
216	0x3c645ea1	0.013938577
217	0x3c923ff3	0.017852759
218	0xbaf1c993	-0.0018446915
219	0x3c13c10d	0.009018195
220	0x3c01e32e	0.007927699
221	0x3bc9cf02	0.0061587105
222	0xbbee9675	-0.0072811195
223	0x3a277b49	0.00063889154
224	0xbac40df9	-0.0014957777
225	0x3c694ea2	0.014239939
226	0x3bdb22c6	0.006687495
227	0x3b71a4f5	0.0036872004
228	0x392f38d9	0.00016710478
229	0x3ba676bd	0.0050800727
230	0xbb2f7c57	-0.0026776993
231	0xbc93d5a4	-0.018046208
232	0x3b614145	0.003437118
233	0xbc157b25	-0.009123598
234	0xbb42ee21	-0.0029743987
235	0x3c07d465	0.008290385
236	0xbc0eacd9	-0.008708202
237	0x3c4352a2	0.011921557
238	0x3c5deed5	0.0135457115
239	0xbc62de10	-0.013846889
240	0xbc4be549	-0.012444803
241	0xbc634511	-0.013871447
242	0x3b8b5f07	0.0042532715
243	0xbc30b7e7	-0.010786033
244	0x3c0f4b5f	0.008745997
245	0xba90f540	-0.0011059418
246	0x3bf8d0b6	0.0075932397
247	0xbab47bf9	-0.0013769857
248	0x3ab4513e	0.0013757122
249	0x3c30869a	0.010774279
250	0x3c2fccef	0.010730012
251	0xbb457f71	-0.0030135775
252	0xbbf61a46	-0.0075104563
253	0x3b2489ab	0.002510647
254	0x3ca24a69	0.019810872
255	0x3bca2ee9	0.006170143

cvae_parameters.enc_01_lin_b f4 [128]
0	0x3d11eee1	0.035628203
1	0x3c9c7080	0.019096613
2	0x3b6c344d	0.0036041916
3	0x3d1b3825	0.03789534
4	0x3c4bf481	0.012448431
5	0x3cad877f	0.021182774
6	0xbb755ea6	-0.0037440448
7	0x3d0675d3	0.03282721
8	0x3c1d83a2	0.009613903
9	0xba906714	-0.0011017048
10	0xbb7a1bf9	-0.0038163646
11	0xbafdfd1a	-0.0019377798
12	0x3d03af0c	0.03214936
13	0x3ccf47be	0.025302764
14	0xbacc8928	-0.0015604841
15	0xba9df646	-0.0012051545
16	0x3d0484f0	0.03235334
17	0xbc7031b8	-0.014660291
18	0xbbd23e75	-0.006416137
19	0x3cdeb44f	0.027185587
20	0x3cd74415	0.026277581
21	0x3c85c285	0.016328106
22	0xbc2912da	-0.010319436
23	0xbae177e7	-0.0017201871
24	0x3b8f113d	0.0043660686
25	0x3cb810d7	0.022468967
26	0x3a827841	0.0009954051
27	0xba35ed45	-0.0006939958
28	0x3a556e78	0.00081417663
29	0x3a1f3611	0.0006073425
30	0x3cfb05dc	0.030642442
31	0xbb393797	-0.0028261894
32	0xbc822874	-0.01588843
33	0xbc07796e	-0.008268697
34	0x3d0e19db	0.034692626
35	0x3d0835ae	0.033254318
36	0xb9698fa4	-0.00022274122
37	0xbb798884	-0.0038075754
38	0x3cae516b	0.021279057
39	0xbb8425cc	-0.004032826
40	0x3a892af5	0.0010465073
41	0x3a872d92	0.0010313264
42	0x39866e73	0.00025640763
43	0x3bcf909f	0.006334379
44	0x3cbcf8fb	0.023067942
45	0xba2d39f6	-0.0006608063
46	0x3cd1eaa4	0.02562458
47	0x3cd83b11	0.026395353
48	0x3cccc1ab	0.024994692
49	0x3c85c9e2	0.016331617
50	0xbaf4d502	-0.0018679204
51	0xbc275ad5	-0.010214527
52	0x3cdb3429	0.02675827
53	0x3ca5019a	0.020142365
54	0x3b4e6ab1	0.0031496699
55	0x3d08ba2e	0.03338068
56	0x3c912724	0.017718859
57	0x3cb80b16	0.022466224
58	0xbbf1a3e4	-0.0073742736
59	0xba393588	-0.0007065167
60	0x3c891bd5	0.016736904
61	0xbb685edd	-0.0035456934
62	0x3ce3c42e	0.027803507
63	0xbc2b3395	-0.01044931
64	0x3cd9a7c1	0.02656925
65	0x3cdbb280	0.026818514
66	0xbc19de2a	-0.009391347
67	0x3cf776b8	0.030207977
68	0xbb6b5291	-0.0035907368
69	0x3cb0f7c0	0.021602511
70	0xbbab4c6a	-0.005227615
71	0x3cf168b1	0.029468866
72	0xbb3fc726	-0.0029262989
73	0xba6c9b47	-0.00090258237
74	0x3a6d7b3b	0.0009059195
75	0xb91ca98f	-0.00014940485
76	0x3c539dce	0.012916042
77	0xbb98638f	-0.00465054
78	0x3b874277	0.0041277963
79	0x3a61c5ab	0.00086125237
80	0xbc04149f	-0.008061557
81	0xbb8c51d6	-0.0042822165
82	0x3bd9a314	0.006641755
83	0x38e2d47e	0.000108160995
84	0x3cf135df	0.029444633
85	0x3cec15ee	0.02881905
86	0xbbc484b7	-0.005997266
87	0x3cce9c91	0.025221141
88	0xbae97afd	-0.0017813143
89	0xbc49e910	-0.012323633
90	0xb97ca236	-0.00024093021
91	0x3cf39343	0.029733306
92	0x3a00e5e7	0.00049170706
93	0xbbcf5d85	-0.006328287
94	0x3bf75e82	0.007549108
95	0x3d0cd738	0.034384936
96	0xbb9677bd	-0.0045919106
97	0x3d20037b	0.03906582
98	0x3a891863	0.0010459538
99	0xb9ada822	-0.000331224
100	0x3d12736a	0.0357546
101	0xbb2dc6fe	-0.0026516314
102	0x3ced87ff	0.028995512
103	0xbb682ed2	-0.0035428298
104	0xbb78b545	-0.0037949842
105	0x3cfae132	0.03062496
106	0x3ae7cc48	0.0017684782
107	0xba344921	-0.0006877352
108	0x3b3af33d	0.002852633
109	0xbbb19748	-0.0054196455
110	0x3d1703d1	0.036868874
111	0xbbf88c8b	-0.0075851134
112	0xba55842f	-0.0008145002
113	0x3ccf1ba7	0.02528174
114	0x3d2fe37e	0.042941563
115	0x3ba19b59	0.004931849
116	0x3cc64918	0.024204776
117	0xbbd7c9f5	-0.0065853545
118	0xba101acc	-0.0005497157
119	0xbbb44f79	-0.005502638
120	0x3c0284b3	0.007966208
121	0x3cebc259	0.028779196
122	0xbafd5621	-0.0019328037
123	0xbac6ea81	-0.0015176089
124	0xbbd7d904	-0.0065871496
125	0x3cd28e54	0.025702633
126	0x3c90780c	0.017635368
127	0x3cede2ab	0.029038748

cvae_parameters.enc_01_lin_w f4 [128, 128]
0	0xbb8fbf60	-0.0043868273
1	0x3ae6eb20	0.001761768
2	0xbb8a966b	-0.004229357
3	0x3c285fbb	0.01027673
4	0xbacde0d5	-0.0015707264
5	0x3cc0d2ad	0.023537958
6	0xbc79fb57	-0.015257678
7	0xbc8e0aa6	-0.017339062
8	0xbb30e87b	-0.0026994038
9	0xb8f58d5b	-0.0001170884
10	0x3b993a92	0.0046761716
11	0x3b7635a0	0.0037568584
12	0xbc30fb05	-0.010802035
13	0x3c2102fa	0.00982737
14	0xbb9aacb5	-0.0047202953
15	0x3ba9452e	0.0051657176
16	0xbca3fc55	-0.020017782
17	0xbb754c23	-0.0037429414
18	0x3bc2a7d5	0.0059404173
19	0x3c9cba04	0.019131668
20	0x38b886bd	8.798901e-05
21	0x3b1fc268	0.002437735
22	0x3b7262a8	0.0036985073
23	0xbbec5cc7	-0.0072132084
24	0x3c80cd5d	0.015722925
25	0x3bb4a56b	0.0055128834
26	0x3c2ebabd	0.010664639
27	0xbc3d0d1d	-0.011538771
28	0xbb5de6f4	-0.0033859583
29	0x3c6a2127	0.014290131
30	0x3b9f64dc	0.0048643183
31	0x3b68031a	0.003540224
32	0x38039f1c	3.1381016e-05
33	0x3b02ee88	0.0019978601
34	0x3c001cc2	0.007819356
35	0xbbb9bcde	-0.0056682667
36	0x3c23b762	0.009992452
37	0xbc5e9782	-0.013585927
38	0xbb80da9f	-0.0039323117
39	0x3c8645fc	0.016390793
40	0xbc871352	-0.016488705
41	0xbb59f420	-0.0033257082
42	0x3c7e897e	0.01553571
43	0x3c259dfb	0.010108466
44	0xba6d92ed	-0.0009062726
45	0xbb9d7cae	-0.0048061227
46	0x3c2593d6	0.010106048
47	0xbb8e7495	-0.0043473938
48	0xbc7a9aaf	-0.0152956685
49	0x3b87d1da	0.0041448893
50	0x3ba2369b	0.004950357
51	0x3b8ab06c	0.004232457
52	0xbae74f61	-0.0017647558
53	0x392cd769	0.00016483445
54	0xbc09d4a7	-0.008412517
55	0xbc13b54e	-0.009015394
56	0x3b0ebb07	0.0021778957
57	0xbbc49025	-0.0059986287
58	0x3c7eccf3	0.015551793
59	0x3a786a55	0.0009476294
60	0xbc6256b3	-0.013814616
61	0x3c748197	0.014923475
62	0x3c9637db	0.01833718
63	0xbbcc71a7	-0.0062391344
64	0xb94bbda5	-0.00019430237
65	0x3c19ed1b	0.009394909
66	0x3c09fc3f	0.008421957
67	0x3c535d46	0.012900656
68	0x3bf75ddf	0.007549032
69	0xbb4c4d0e	-0.0031173858
70	0x3bc7165f	0.006075665
71	0x3c27b1d5	0.01023527
72	0x3c74a995	0.01493301
73	0x3bd57dac	0.0065152254
74	0xb8436ea9	-4.6594683e-05
75	0xbc32e7c7	-0.010919518
76	0x3c1ab5f3	0.009442794
77	0x3cabf070	0.020988673
78	0xbb77743d	-0.0037758492
79	0x3a12992a	0.0005592281
80	0xbb03f20f	-0.0020133292
81	0x3b88e955	0.004178206
82	0xbbe0637f	-0.0068477984
83	0xbbfa3918	-0.0076362006
84	0xb8b2ed8a	-8.5319465e-05
85	0x3bb24489	0.005440299
86	0xbb82d5c0	-0.003992766
87	0x3be36fe8	0.0069408305
88	0xbc69f436	-0.014279416
89	0xbbd73953	-0.006568113
90	0xbbb34600	-0.005470991
91	0x3b0dcb97	0.0021636242
92	0x3b36a525	0.002786943
93	0xbc62b7c1	-0.013837756
94	0x3b966327	0.0045894566
95	0x3b8deb94	0.0043310616
96	0xbbdcfcfc	-0.0067440253
97	0x3c36dd78	0.011161201
98	0xbbf2f906	-0.00741494
99	0x3c65a7ea	0.014017085
100	0xbbed99a0	-0.0072509795
101	0x39998b95	0.0002928643
102	0x3b3ad0ec	0.0028505875
103	0xbcbf5d7f	-0.023360012
104	0xbc99ca3a	-0.018773187
105	0xba83bb8d	-0.0010050401
106	0xbbac6e34	-0.0052621607
107	0xbbc7aa84	-0.006093325
108	0xbc40e2cb	-0.011772822
109	0x3c2da393	0.010598081
110	0xbbcd4787	-0.0062646302
111	0xb8a15154	-7.692227e-05
112	0xbaf44b63	-0.001863819
113	0xbc94354b	-0.018091818
114	0xbb227f23	-0.0024795018
115	0x3bbc57db	0.005747778
116	0xbcdcab8d	-0.02693727
117	0xbc214d4b	-0.009845088
118	0x3bb139dd	0.005408509
119	0x3b7552cc	0.0037433384
120	0x3c6790ae	0.014133615
121	0x3bdc39d8	0.0067207627
122	0x3bd7d122	0.00658621
123	0xbb21d4e9	-0.0024693555
124	0xbc8803ca	-0.01660337
125	0x3beea22d	0.0072825165
126	0x3c9a1f5c	0.018813781
127	0xbc6012c2	-0.013676347
128	0xbbf74870	-0.007546477
129	0x3c36f9da	0.011167968
130	0x3cba2f0e	0.022727516
131	0x3c4c9911	0.012487666
132	0x39eacba3	0.0004478368
133	0x3beeb6a1	0.0072849547
134	0x3c6a0dd3	0.0142855225
135	0xbbbf7fb7	-0.005844082
136	0xbb91c4a9	-0.0044484925
137	0x3bcdfd84	0.006286325
138	0xbbc1dde8	-0.005916346
139	0x3b636985	0.0034700346
140	0xbbea5277	-0.007150944
141	0x3c9a0cb7	0.018804891
142	0xba9b3fbf	-0.0011844559
143	0x3c07a46f	0.00827895
144	0xba3b5b59	-0.0007147096
145	0xbb8fc1b5	-0.0043871053
146	0xba236672	-0.0006233222
147	0xbc2791d6	-0.010227641
148	0x3b823e74	0.00397473
149	0x3ab960b3	0.0014143198
150	0x3bbba7f9	0.005726811
151	0xbc741052	-0.014896469
152	0x3b83169c	0.004000498
153	0x3c03ad3f	0.008036911
154	0xba8b64ac	-0.0010634861
155	0xbb65a34d	-0.0035039962
156	0x3bc4cd38	0.0060059093
157	0x3b55979c	0.0032591587
158	0xbb73a51c	-0.003717727
159	0x3bfcbb06	0.0077127246
160	0xbadd1ac0	-0.0016868934
161	0xba3de06b	-0.0007243219
162	0x3bc2a997	0.005940627
163	0xbbbf40bc	-0.0058365744
164	0x3c3ca705	0.01151443
165	0xbc3cfdae	-0.011535091
166	0x3c18fd0d	0.009337676
167	0x3be1c13b	0.00688949
168	0x3c65cda7	0.014026082
169	0xbbcdb4e0	-0.0062776655
170	0xba5a5ba8	-0.0008329698
171	0x3bc200de	0.0059205135
172	0x3c208759	0.009797894
173	0x3c37ae25	0.011210953
174	0xbba8a702	-0.005146862
175	0xbbf188d9	-0.00737105
176	0xbbb4428b	-0.0055010966
177	0xbc0a93a2	-0.00845805
178	0x3c744c83	0.01491082
179	0x3b6ccdba	0.0036133365
180	0x3b30975b	0.0026945684
181	0x3c105894	0.008810181
182	0xbc46b57c	-0.01212823
183	0xb89123a5	-6.920778e-05
184	0xbbf30345	-0.0074161612
185	0xbbadc90e	-0.0053035086
186	0xba95d689	-0.0011431734
187	0x3a8fd049	0.0010972108
188	0x3bf1bab4	0.007376993
189	0x3c76e0c2	0.015068235
190	0x3a983644	0.0011612852
191	0xbc206b82	-0.009791257
192	0x3c2e6684	0.010644559
193	0xbbdc392d	-0.006720683
194	0x3c46f671	0.012143717
195	0x3bb3e8da	0.0054904046
196	0xba9c45d7	-0.0011922669
197	0xbbdccd35	-0.00673833
198	0xbccf27b6	-0.02528749
199	0xb9682bf5	-0.0002214162
200	0x3bea15f1	0.007143729
201	0x3c2a7416	0.010403654
202	0xbc199110	-0.0093729645
203	0xbbbc6792	-0.005749651
204	0x3b9b8902	0.004746557
205	0xbbedf26a	-0.007261564
206	0xba46fe01	-0.000759095
207	0xbbd5f458	-0.006529372
208	0x3bdd5c20	0.006755367
209	0x3ae7e9b2	0.0017693548
210	0xbb4f4243	-0.0031625188
211	0x3bd9b4dc	0.0066438746
212	0x3aec5cb4	0.0018032999
213	0xbc62d138	-0.013843827
214	0xbc0f680f	-0.008752837
215	0x3b933e5f	0.004493519
216	0xbbd0707b	-0.006361065
217	0xbbc88d20	-0.006120339
218	0x3cc9e1c8	0.024643794
219	0xbae3ee33	-0.0017389714
220	0xbc7d6582	-0.015466096
221	0x3c01bc5a	0.007918442
222	0x3b509cd4	0.0031831758
223	0x3a559c7c	0.0008148623
224	0x3bbac977	0.005700286
225	0xbb4571f2	-0.003012773
226	0xbb946344	-0.004528435
227	0xbb3c80a6	-0.0028763204
228	0x3c9047b9	0.017612325
229	0x3bd004ca	0.006348227
230	0xbc8e6600	-0.017382622
231	0xbb817ddb	-0.0039517707
232	0x3b5e801f	0.0033950878
233	0x3c0d3527	0.00861863
234	0x395757e6	0.00020536743
235	0xbb329abd	-0.0027252876
236	0xbb2cef4b	-0.0026387747
237	0xb9b39c22	-0.00034257869
238	0x3c04e6a0	0.008111626
239	0xbbf9f2da	-0.007627827
240	0x3c483b93	0.012221235
241	0xbc0d596c	-0.008627277
242	0x3a2b9071	0.0006544656
243	0xbbccdcbc	-0.0062518995
244	0x3c677d5a	0.014129007
245	0xbb88e737	-0.0041779536
246	0xbb24fc9f	-0.0025174988
247	0xbbffc2fe	-0.0078052273
248	0xbb1493c4	-0.0022671083
249	0xbb9d3c20	-0.004798427
250	0x3be9e8a4	0.0071383286
251	0xba0f0b31	-0.0005456685
252	0xbb2c00a6	-0.0026245504
253	0x3ab6d513	0.0013948999
254	0x3b9a4bda	0.0047087492
255	0x3b095967	0.002095783

cvae_parameters.out_lin_b f4 [120]
0	0xbe09d0a8	-0.13458502
1	0xbc9d81ae	-0.019226875
2	0xbe1278e0	-0.14303923
3	0xbd1aafcf	-0.03776532
4	0xbe1d659f	-0.15370797
5	0xbdb4652f	-0.08808362
6	0xbe00866b	-0.12551276
7	0x3b4a8442	0.0030901586
8	0xbe1195c5	-0.14217289
9	0xbd8b018f	-0.06787407
10	0xbd67c207	-0.056581523
11	0xbe3ccf53	-0.18438463
12	0xbdb42348	-0.08795792
13	0xbd982330	-0.074285865
14	0xbe2a89d8	-0.16654146
15	0xbdbc3c01	-0.09191132
16	0xbd80340a	-0.06259926
17	0xbde60aef	-0.11232554
18	0x3debcceb	0.115136944
19	0xbe776adb	-0.24161856
20	0xbe940a65	-0.2891418
21	0xbe1b7e76	-0.1518496
22	0xbcc61b3f	-0.024182914
23	0xba0a9503	-0.00052864867
24	0xbd394871	-0.0452351
25	0xbe36718b	-0.1781675
26	0xbe7862dc	-0.24256462
27	0xbda30c93	-0.07961383
28	0x3dca95f0	0.098918796
29	0xb973d086	-0.00023251967
30	0xbe0d1df3	-0.13780956
31	0xbc4cb43f	-0.012494146
32	0xbdc35df3	-0.09539404
33	0x3dc885da	0.09791155
34	0x3e3356a7	0.17513524
35	0xbc88a3ec	-0.016679727
36	0xbde76add	-0.112996794
37	0x3d923cdc	0.07140514
38	0xbd83ab24	-0.06429127
39	0x3d93ac30	0.072105765
40	0xbd881e4a	-0.06646402
41	0xbdb2c354	-0.08728662
42	0xbd84bc1d	-0.06481192
43	0x3de8d257	0.11368244
44	0xbe0e752f	-0.1391189
45	0x3e29aa4d	0.16568871
46	0xbe99021b	-0.2988442
47	0xbe80f7a2	-0.2518893
48	0xbda1f31e	-0.07907699
49	0x3da49b46	0.080374286
50	0xbe605b33	-0.2190979
51	0x3e22ccb2	0.15898398
52	0xbea478a6	-0.32123297
53	0xbe720f3f	-0.23638628
54	0x3cc311f5	0.023812274
55	0xbcf9cfbd	-0.030494565
56	0xbdece47d	-0.11567018
57	0x3cc4c151	0.024017962
58	0xbe911da4	-0.28342927
59	0xbe80ecac	-0.25180566
60	0x3dc3653f	0.095407955
61	0xbe2d6e82	-0.16936687
62	0xbd4f9c3f	-0.050686117
63	0xbdba5286	-0.09097771
64	0xbe854c43	-0.26034746
65	0xbe5b1015	-0.21392854
66	0x3e4daa35	0.2008446
67	0xbe621faa	-0.22082391
68	0xbd42db0f	-0.04757219
69	0xbe4a3686	-0.19747362
70	0xbe24b6cb	-0.16085355
71	0x3b299dd0	0.0025881417
72	0x3db3a872	0.08772363
73	0xbe042042	-0.1290293
74	0x3c973b38	0.018460855
75	0xbe4c1389	-0.19929327
76	0xbd9dc95f	-0.07704424
77	0x3e591cc0	0.21202374
78	0xbd87b243	-0.066257976
79	0xbd113b03	-0.03545667
80	0xbd0c9d19	-0.034329507
81	0xbe37c4ae	-0.17946121
82	0x3d74a3e2	0.059726603
83	0x3e1b20a3	0.15149169
84	0xbe51c5e7	-0.2048565
85	0x3d3994ef	0.04530805
86	0xbe62c846	-0.22146711
87	0xbe140ec5	-0.14458759
88	0x3e1ed9ed	0.1551282
89	0xbd03b261	-0.032152537
90	0xbe47c338	-0.19508064
91	0xbd31f7f0	-0.043449342
92	0xbea8853d	-0.32914153
93	0xbca47dce	-0.02007952
94	0x3cd3ac5f	0.025839029
95	0xbe38cec7	-0.1804763
96	0xbcd71305	-0.026254186
97	0xbe411d04	-0.18858725
98	0xbe67c5da	-0.22634068
99	0x3c61f609	0.0137915695
100	0xbe69f3c5	-0.22846897
101	0xbe381a3e	-0.1797876
102	0x3d39f8fd	0.04540347
103	0xbe20cf6b	-0.15704124
104	0x3d515be4	0.051113024
105	0xbdf0722a	-0.11740525
106	0xbee2d79a	-0.44305116
107	0xbe634c75	-0.22197135
108	0x3d1526a7	0.036413815
109	0xbddd5d6f	-0.10808837
110	0x3da162f1	0.078802
111	0xbe1d173e	-0.15340897
112	0xbe8813b4	-0.26577532
113	0xbd7a8ba5	-0.06116833
114	0xbd5908bf	-0.052986857
115	0xbca2e59e	-0.01988488
116	0xbd083bc5	-0.033260126
117	0xbcc546db	-0.024081638
118	0xbe0cef68	-0.13763201
119	0x37fc5138	3.0078561e-05
