dlpg/20/weights/dlpg_model_weights_300.pth (torch, 363960 bytes, 15 tensors)

VQ.projection.weight f4 [100, 32]
00000000: 9eaf eb3d e53e aa3d fb88 54bd ec8c d53d
00000010: 9681 5bbd e349 e3bd edf1 05be 4fd9 64bc
00000020: 8b29 f43d 4e2f 12be 54ee 0f3e 7a5c d33d
00000030: 1ba0 cabd 6be7 df3d 9453 83bc d93f 63bd
00000040: 1a3e 823d ac91 bd3d 47c4 a83d 5f6f 9cba
00000050: 9181 233e 2984 20be 19d5 11be 4cd9 1f3e
00000060: 6adc a1ba dab0 14be 6a0f 0bbe fd16 04be
00000070: 84a0 293e 78f8 d1bd dd42 96bd 99d3 cc3d
00000080: e64e 253b 016d 34bc e6a6 9e3d 4a22 cabd
00000090: 1ecd 033e bc33 973c 32aa 743d 515c 9a3b
000000a0: 3363 79bd a257 103e c44a e1bc 0061 2abd
000000b0: 8b0e d5bb e505 293d da06 233d af43 6c3d
000000c0: ff89 02bd 8297 a5bc 126c ff3d c0bb 06bd
000000d0: 52e6 02bc 6df5 eebd 1b90 df3d 0c93 b93d
000000e0: b635 793d 0a11 033e dfdf e23d 6d16 153e
000000f0: 7797 bdbd ee3b 99bb 8ae0 2cbe 5e8f ffbc
00000100: 10fa 4abd 9fce d0bd 2d38 243e 146f 15bd
00000110: 3c7a 933b 7d2a 813c ab6a d9bd b0bd 043e
00000120: 22d6 aa3d 402b 333e 372e 953d 99d8 033e
00000130: a28f ca3d 37b0 f53d 6dcb fb3c e80f 813d
00000140: 06fe 14bd bba2 cb3d 71eb a43d e1f1 2cbd
00000150: e059 033e 3a22 0ebe 86ee b4bd 2add 8e3d
00000160: 91bf 34be 89f9 f5ba 8263 acbd 58f0 ed3b
00000170: 805e a53d d558 09bd 8203 2cbe 9358 393d
00000180: 1702 2f3e 1e21 b23d 4635 ce3d 8fd2 c23d
00000190: 9212 c13d 570b 91bd 2b2c a03d 875b 863d
000001a0: 6865 febd a2e6 e5bd fb9b 5bbc c915 fc3d
000001b0: 0450 073e fcb5 eabd d569 003e 35b9 1e3e
000001c0: efd5 013e eeeb 24be caee e8bd 0af4 5f3d
000001d0: 03f2 8a3d 4226 693d 15ba 17be 33cf d53d
000001e0: 2eb2 f1bd 1558 bcba 7570 1fbd 685b e93d
000001f0: 82d2 b9bd 30c5 2e3e b6c0 15be 9de7 6bbd
00000200: 1d7f ecbd af15 aa3d 6a08 173e b7b7 0a3d
00000210: 08bb fcbd a826 3d3d a92f f3bd a2e4 9dbc
00000220: c45b 533d cd8c 92bd 697b b53d f15e 28bd
00000230: a7c2 f93d d024 b5bd f85a 923d e785 e1bc
00000240: d6b8 debd 6007 cd3d 2417 bcbd 26d4 c3bd
00000250: 0099 2c3e 168a 16be df32 c9bd 0218 023e
00000260: 4eb0 4dbd efb2 03be 2e14 a23d 4349 e93d
00000270: 9db1 29be 6d00 373d eec5 ea3d 862d 113e
00000280: b960 95bd 5808 ddbd 28e8 e03c 6e83 283c
00000290: 54c6 f6bd 879b 263e de4d 553d dab4 2d3e
000002a0: 63d9 2d3d 2c5a f6bd 316e b13d 898d f6bd
000002b0: 0cbd c5bd 996f 85bc 377d 303e ec50 03be
000002c0: 36ac 253e 98c2 0e3e 84a5 1c3d 65c1 c4bd
000002d0: 3deb d6bd cfd3 233e 3d4c 2f3e 3f1b 473b
000002e0: 5335 eabc 62b5 ca3d 393b 12be 815a c5bd
000002f0: c025 c23d 7cbe 26bd 362c 113e 0a52 a93b
00000300: d2d7 27be e476 18be fbee ef3d 601b 8abd
00000310: 135a f0bd 4269 1f3e 0d8b d23d 29e2 f9bd
00000320: f7f9 2dbe 2f5c 36bd 7ec7 0ebe 7f41 8abc
00000330: fad4 0e3e 09d0 13be 0620 30be 1588 583d
00000340: 297a f63d 1d84 1fbd f9c4 5f3d 110a 0bbe
00000350: 5e94 aabd 2afe 9dbd d531 b1bd 0a6c bc3d
00000360: 1099 18be f2ff 0fbe 0178 27be 0f6d 223e
00000370: 750d b93d ac6c 1d3e d643 9e3d bea8 fc3d
00000380: 5fdb 053e 0204 783b cf00 35be 379b 603c
00000390: 0b9c f4bc 02c6 9e3c dbc3 52bc 191a 3abb
000003a0: 3f6d b0bd 947c 7f3d 1090 0b3c bf22 aebd
000003b0: c6ef db3d 7efc 27bd fe3e 11be d456 893d
000003c0: 0572 333e f0ce 6b3d 73d0 12be 7c5f 1e3e
000003d0: 0be0 17bd 52de ccbc 6627 9e3d fc93 e1bd
000003e0: 9ee9 1b3e 9a10 963d 45c8 69bc 5f87 7bbc
000003f0: 097c 80bd 5a77 76bd a2a6 64bd 18b5 0b3e
0.11508106 0.083127774 -0.051888447 0.10427269 -0.05359038 -0.11098077 -0.13080569 -0.013967826
0.11921986 -0.14275858 0.14055759 0.10320373 -0.09893819 0.10932811 -0.016031064 -0.05548081
0.06359501 0.092563 0.08240562 -0.0011935047 0.15967394 -0.15675415 -0.14241447 0.15610236
-0.0012349014 -0.14520589 -0.13580099 -0.12899394 0.16565138 -0.1025247 -0.07336972 0.100012966
0.002522403 -0.011012317 0.07746677 -0.09869821 0.12871215 0.018457286 0.059732623 0.004710712
-0.06088562 0.1409593 -0.027501471 -0.041596413 -0.006501978 0.041265387 0.039801456 0.057681736
-0.031869885 -0.020213846 0.12471785 -0.032893896 -0.007989483 -0.11667905 0.10916158 0.0906125
0.06084224 0.12799469 0.11077856 0.14559336 -0.09257405 -0.0046763336 -0.1688253 -0.031196292
-0.049554884 -0.1019566 0.16037054 -0.036482885 0.0045006555 0.01576733 -0.106160484 0.12962985
0.08341624 0.17496967 0.072842054 0.12875594 0.09890677 0.11996501 0.03073665 0.06301862
-0.036375068 0.09943148 0.080527194 -0.04222286 0.12827253 -0.13880244 -0.08834557 0.069757774
-0.17651202 -0.0018766384 -0.08417417 0.007261317 0.08074665 -0.033531982 -0.16798213 0.045250487
0.17090641 0.08697723 0.10068755 0.09512817 0.0942737 -0.07082241 0.07820924 0.06560426
-0.124216855 -0.1122563 -0.013403888 0.12308843 0.13214117 -0.11460492 0.12540372 0.15500338
0.12679265 -0.16105625 -0.113736704 0.054676093 0.06784441 0.05692125 -0.14817078 0.10439911
-0.11801563 -0.0014369512 -0.038925607 0.113943875 -0.09073354 0.17067409 -0.14624295 -0.05759393
-0.115476824 0.08304917 0.14749303 0.03386661 -0.12340361 0.046179444 -0.11874325 -0.01927406
0.051601186 -0.07155762 0.08861429 -0.04110617 0.1219533 -0.08844912 0.07146257 -0.02752967
-0.108750984 0.10011172 -0.09184101 -0.095619485 0.1685524 -0.14701113 -0.09824156 0.12704471
-0.050216965 -0.12861226 0.07914005 0.11390927 -0.1657166 0.04467814 0.11463533 0.14177522
-0.07293839 -0.10792607 0.02745445 0.0102852415 -0.12049547 0.16270266 0.052076213 0.1696352
0.042443644 -0.12028918 0.086635955 -0.120387144 -0.096551985 -0.016288565 0.17235266 -0.12823838
0.16178975 0.13941419 0.038243786 -0.096071996 -0.10494087 0.15998767 0.17118926 0.003038123
-0.02858988 0.09897877 -0.14280404 -0.09636403 0.094798565 -0.040709004 0.14177021 0.0051672505
-0.16390923 -0.14889103 0.11715504 -0.067435026 -0.1173593 0.15567496 0.10280428 -0.1220134
-0.16989885 -0.044521507 -0.13943288 -0.016876934 0.13948432 -0.14434828 -0.17199716 0.052864153
0.12035019 -0.038944352 0.054631207 -0.13578059 -0.0832908 -0.077144936 -0.08652083 0.09200294
-0.14902139 -0.14062479 -0.16354372 0.15861915 0.0903577 0.15373486 0.077277824 0.123368725
0.13071965 0.0037844186 -0.1767609 0.013708881 -0.029859563 0.019381527 -0.012864078 -0.0028396903
-0.08614587 0.062374666 0.008518234 -0.08502721 0.107390925 -0.04101228 -0.14184186 0.06706014
0.17523964 0.057570398 -0.1433733 0.15466112 -0.0370789 -0.025008354 0.077223584 -0.11014554
0.15225837 0.07327385 -0.014268939 -0.015352099 -0.06273658 -0.060172416 -0.055822976 0.136433

VQ.projection.bias f4 [100]
00000000: 8c47 64bd a8d1 1c3d c002 da3d b779 e23d
00000010: 472d 7fbb 930c 09bd fb0a bc3c 69a7 00be
00000020: ffbe 87bd cf4f e4bd 7339 09bd 9a48 b5bd
00000030: ae04 1b3c 749b 963d 7dce 6c3d 5d71 393b
00000040: 4c69 ca3c 3d6a d93d ed56 9c3c 39bc 59bc
00000050: 380f 8e3d 9416 533c cc77 ad3d 30fa 36bb
00000060: d0f7 a8bd bf4c ccbd 5c45 3ebd 2fcd 613d
00000070: 737c 54bd f100 de3d f835 d9bd 69c5 7c3d
00000080: f5c0 d9bd d31c 803c 0600 afbd 725c af3d
00000090: af71 8e3d aaee cf3d 328c 883d a8b9 443b
000000a0: 62e7 a6bd c3e7 dcbd 0234 62bd 15f7 af3d
000000b0: 5375 2bbd 10b8 0b3d d35a efbd db35 e9bd
000000c0: 6165 a63d 4640 91bd 1351 aa3d 379f cdbc
000000d0: 3764 b2bd c8ec de3d a068 41bc c6f5 423d
000000e0: 6fde 943d e63a fcbd d4cf e23d 2aa1 dfbc
000000f0: da58 91bb 555a 3c3c 2dd4 86bc 7a8e 06bd
00000100: b8c8 3cbc fd7f 763d c5fd c53d 4a21 4bbd
00000110: 916c cd3d 33a3 8f3c 68a8 183d 4194 c4bd
00000120: 729d 82bd 4411 2bbc 3620 863d 13b6 eabc
00000130: 5950 e03d f581 87bd b4a0 11bd 05ce cb3d
00000140: 9577 bcbd 43d2 77bd 7928 17bd 6e89 b13d
00000150: bd3e e8bd c4de 8abd d427 babd a04d f33b
00000160: 8c26 e63d 566f bd3c 0163 e33d 146c 8fbc
00000170: 3a7a 7bbd 45be 9dbd 3524 89bd b094 483d
00000180: 33a0 9bbd cc02 a4bc 5c11 efbd 5867 7c3d
-0.055732295 0.03828588 0.10645056 0.110583715 -0.00389369 -0.033459257 0.022954455 -0.12563862
-0.066282265 -0.11148035 -0.033502053 -0.08851738 0.009461565 0.07353869 0.05781411 0.002829633
0.024708413 0.106159665 0.019084418 -0.013289505 0.069364965 0.012883801 0.08470115 -0.002792012
-0.082503915 -0.09975576 -0.046452865 0.05512732 -0.051876497 0.10840023 -0.10605997 0.061711702
-0.10632507 0.015638744 -0.08544926 0.085625544 0.06955277 0.101529434 0.06667365 0.0030017886
-0.081496015 -0.107863925 -0.05522538 0.08592049 -0.041859936 0.034111083 -0.11687245 -0.11387225
0.08124805 -0.07092337 0.08316245 -0.025100334 -0.08710521 0.10885006 -0.01180473 0.04759767
0.07268988 -0.123159215 0.11074796 -0.027298529 -0.0044356408 0.011496146 -0.016458595 -0.03285072
-0.011522464 0.060180653 0.09667543 -0.049592294 0.10030473 0.017533874 0.03726998 -0.0959859
-0.063776866 -0.010441128 0.065491125 -0.028651273 0.10952825 -0.06616584 -0.03555365 0.099514045
-0.09202496 -0.060503256 -0.036903832 0.08668791 -0.113400914 -0.067807704 -0.09089628 0.007425025
0.11237821 0.023124378 0.11102868 -0.01750759 -0.06139586 -0.07702307 -0.06696359 0.048969924
-0.07598915 -0.020020865 -0.11673233 0.061621994

VQ.embedding.weight f4 [100, 32]
00000000: bbb0 cdbb d06e 35bb 54f3 f4b9 45da 0b3c
00000010: 9c9c 8f3b f4bd fa3b 99d9 6b3b 2704 103b
00000020: b03f d9bb faa6 c5bb 9af4 6a3b 8521 a8bb
00000030: 2561 033c d524 263c bfb7 6abb 764d 0fbc
00000040: 8720 9cbb 1689 1f3b 7171 483b e0d0 033b
00000050: ff8d 4a3c 1bd3 1f3b 087d b9bb 203a 003c
00000060: 1cac d53a 293e 69bb 3d9a bcbb 602c 1dbc
00000070: d68d 24bc 6c4f 34bc 7fbe 153c 93e8 b23a
00000080: e5f0 283c 19ab 133c 1762 f9bb d670 8abb
00000090: b8cb 823b 79a7 3d3b 730a 6b3b 7522 a1bb
000000a0: 8e98 2bbc 12be f43b 22b1 12bc 44bb 9c3a
000000b0: 8363 fcbb 7f4d 2b3b 8b99 e73b 1712 1dbc
000000c0: 4889 81bb eb88 dc36 ce1d ba3b 36af ef3a
000000d0: 43ec 0f3c 1153 903b a5ca 82bb b2b4 d33b
000000e0: c701 c9b9 674b c33b 50ca cf3b d93f 1ebc
000000f0: 1154 04bb bddc 2dbc 16cb 53bb 64b1 94bb
00000100: 11c9 af3b f11d ef3a 2188 003c d7da 05bb
00000110: 14d2 9a3a b3fc d83b 041b 5abb 8699 21bc
00000120: e35f 76bb 5b50 b73b 8c46 34bc 5915 573b
00000130: 4e22 c5bb f7c8 153c f22a 60ba a864 02bc
00000140: 5023 af3b e393 12bc 7189 733b 2dea babb
00000150: dc2f e138 b3ad 4c3b 9fc8 3bbc 9f29 813b
00000160: c97f 74bb 597f 903b 64ce 1b3c 20b3 c5ba
00000170: 2cda dabb 3abe 9dbb e42c 0bba fe20 6cbb
00000180: b9a3 6e3c f8c1 f7bb fa9c e4bb 339a 00bc
00000190: 1775 babb 5971 12bc b89d c8ba 7a24 513b
000001a0: fbc4 bebb 6a59 0e3c 33bd e13b 2277 f93a
000001b0: 779d 363c 1562 18bb 09bb 203b b5a0 e23b
000001c0: be69 e13b b59f 5ebb 71e8 0d3c 0d16 01bc
000001d0: 6626 bbba 3e59 123c 1ecc aabb 6af9 c23b
000001e0: c2d0 e0b8 2327 8939 a951 22bb a507 01bc
000001f0: 9872 24bc 88c6 acbb 07cc f23b b7b6 2a3c
00000200: 677b ef3b 1cad 003c 5af6 293b 4a68 c9ba
00000210: ec0d f73b 0af8 77bb 6d72 043a 96ba 083b
00000220: a17b 0b3c a2c3 fab9 3f06 813b 159a 27bc
00000230: 3c56 19ba 3863 1d3c 60bc 0b3c 0084 13bc
00000240: f1e4 fcbb 0c23 d7bb 87a1 223c a3dd e33a
00000250: c505 573c 24f4 133c 833a d3bb 00c3 783b
00000260: 1a0b 133c da01 6b3b afbb 0f3c 952b 08ba
00000270: d6e8 28bc c167 18ba f5d7 fc3b a4da b23b
00000280: f183 103b d911 33bb 4f3c 0abc 7750 d2bb
00000290: f6d3 d7bb 3fc9 4c3a 8fb1 6dbb 0598 dc3a
000002a0: 2e0c a4bb cd6c 7b3b 2121 a4bb 255a ac36
000002b0: a49e a43a 27b1 1f3b 552e 383b bbb4 a4bb
000002c0: 6693 a0bb 7997 0b3c 0af7 b13b 56c4 1ebc
000002d0: c4a7 a6bb c92d 1c3c a3ef 11bc 3fbe 4dba
000002e0: 3120 813b c95c ae3b aae0 fa3b 5bd7 513a
000002f0: 45c3 973b 7bcc a03a d81c 203b f3ab 363b
00000300: 59f3 d53b ddea 173b 3e91 c9bb adab 87ba
00000310: cce9 43bb 1707 84bb 940f 99bb df81 3abb
00000320: 96db 0b3b b1ee 07bc b5bb ccba 23dc deba
00000330: abc7 b43b b6aa df3a c80c c8bb 1791 eabb
00000340: 1502 e538 2972 a0bb 18d8 b43a 5e35 acbb
00000350: 2379 ca3b 1c2f c2bb 9dfc 4bba e254 fbbb
00000360: a5c6 103c 3fc0 05bb b756 a2ba bef6 0bbb
00000370: f7a7 d1bb 3fa2 b8ba fdfe f53b d5ac 4b3b
00000380: 9474 2e3c 27cb a23b d245 003b 8aeb 3cba
00000390: cb0e c3bb 2263 2dbc d080 1f3c e4a0 693b
000003a0: 2d05 c23a 7f98 05bc 5c7c 92bb 03a2 95bb
000003b0: b27d 113c cf1d 133c 8fd2 b93a eeb2 3e3a
000003c0: d7ab d5bb 82f3 143c 4379 1eba 7473 033b
000003d0: 828c c5b9 cc7e 91bb 4516 20ba 79aa ff3b
000003e0: 84ec 3b3c 9130 c23b c19a 083b 1e75 b3bb
000003f0: 1d0e 15bc 0a24 94bb 9875 3a3b afed 913b
-0.0062771714 -0.0027684458 -0.000467206 0.008535926 0.004382683 0.0076520387 0.0035987853 0.0021975131
-0.0066299066 -0.006031868 0.003585136 -0.005130949 0.0080187665 0.010140617 -0.0035815088 -0.0087464955
-0.0047646197 0.0024343184 0.0030585194 0.0020113513 0.012362956 0.0024387303 -0.005660657 0.007826358
0.0016301903 -0.003559003 -0.0057556913 -0.009593099 -0.010043582 -0.011005264 0.009139656 0.0013649635
0.01031134 0.009012961 -0.00761057 -0.004224877 0.0039915703 0.0028938933 0.0035864383 -0.0049174377
-0.010473384 0.007468947 -0.008953365 0.0011957665 -0.0077022924 0.002613872 0.0070678643 -0.0095868325
-0.003953133 6.5724503e-06 0.0056798225 0.001828647 0.0087843565 0.0044044335 -0.0039914423 0.0064607495
-0.00038339032 0.0059599164 0.006341256 -0.009658777 -0.002019171 -0.01061171 -0.0032317094 -0.004537748
0.005364545 0.0018243176 0.007844956 -0.0020424628 0.0011811876 0.006621921 -0.0033280263 -0.009863263
-0.0037593774 0.005594296 -0.011003148 0.003281912 -0.0060160523 0.009142152 -0.0008551321 -0.007958569
0.0053447857 -0.008946392 0.003716078 -0.0057041855 0.000107377506 0.0031231462 -0.011461406 0.003941729
-0.0037307611 0.0044097123 0.009509657 -0.0015083291 -0.00667884 -0.0048139365 -0.00053091184 -0.0036030407
0.014565402 -0.0075609647 -0.006976721 -0.007849264 -0.0056902277 -0.008938157 -0.0015305793 0.003191261
-0.0058218217 0.00868831 0.0068890094 0.0019032697 0.011145941 -0.002325182 0.0024525544 0.0069161304
0.0068790605 -0.0033969705 0.008661375 -0.0078787925 -0.0014278411 0.00893241 -0.005212321 0.0059501426
-0.000107200365 0.00026159835 -0.0024767912 -0.007875358 -0.010037087 -0.00527269 0.007409576 0.010419539
0.007308412 0.0078537725 0.002593419 -0.0015366164 0.0075395014 -0.0037837052 0.0005052451 0.0020863167
0.008513362 -0.00047829474 0.003937512 -0.010229607 -0.0005849337 0.009606175 0.008528799 -0.009003639
-0.0077177216 -0.006565457 0.009926206 0.0017384778 0.013123934 0.009030376 -0.006446184 0.0037958026
0.008974815 0.0035859258 0.008772775 -0.00051944825 -0.010309419 -0.00058138004 0.007716174 0.005458193
0.00220513 -0.002732387 -0.00843723 -0.0064182836 -0.006586547 0.00078119704 -0.0036269163 0.0016829973
-0.0050063347 0.003836441 -0.005008832 5.1364937e-06 0.0012559486 0.0024367066 0.0028103788 -0.0050264276
-0.0049003838 0.008520001 0.0054310607 -0.009690365 -0.005085917 0.0095324 -0.0089072315 -0.0007848478
0.003940605 0.0053211194 0.0076561766 0.0008004808 0.0046314322 0.0012267971 0.0024431255 0.0027873486
0.0065292534 0.002318076 -0.0061513474 -0.0010350846 -0.0029893992 -0.0040291655 -0.0046710465 -0.0028458757
0.00213406 -0.008296655 -0.0015619906 -0.0017002862 0.0055169663 0.0017064426 -0.0061050393 -0.0071584093
0.00010919959 -0.0048964215 0.0013797311 -0.0052553853 0.0061789914 -0.005926026 -0.0007781478 -0.007670031
0.008836423 -0.0020408777 -0.0012385462 -0.0021356787 -0.006398197 -0.0014086439 0.0075072036 0.0031078358
0.010647912 0.0049680653 0.0019572866 -0.0007206729 -0.005952691 -0.010582717 0.009735301 0.0035648877
0.0014802568 -0.008154034 -0.004470391 -0.0045664324 0.008880066 0.008979275 0.0014177131 0.00072745874
-0.006520729 0.00909126 -0.0006045291 0.002005783 -0.00037679455 -0.004440164 -0.0006106834 0.0078023043
0.011469964 0.0059261997 0.0020844194 -0.005476608 -0.009097603 -0.0045208978 0.002845144 0.004453383

cvae_parameters.dec_00_lin_b f4 [128]
00000000: 9003 04bc 82e9 48bc 1fb8 13bc 0000 0000
00000010: 0000 0000 7bcf b4ba e041 cebb 1bf2 a2bb
00000020: 0000 0000 0000 0000 0000 0000 86fb 1cbc
00000030: 0c9d 583e 0000 0000 d5e8 cebb efbd 40bc
00000040: 6335 34bc 0000 0000 eb2e dbbb 0000 0000
00000050: 0000 0000 0000 0000 f6b4 27bc 7e5c a9bb
00000060: 04bf 71ba 3db1 1dbb 0000 0000 0000 0000
00000070: 0000 0000 0000 0000 5151 81bb 0000 0000
00000080: 0000 0000 0000 0000 0000 0000 0000 0000
00000090: 0000 0000 cac3 33bc 0000 0000 5db1 b7bb
000000a0: 0000 0000 dd4e d5bb 0000 0000 0000 0000
000000b0: dd19 5bbc 0000 0000 4b4e 12bc 0000 0000
000000c0: 0000 0000 0000 0000 60c0 91ba 2a50 d5bb
000000d0: 0000 0000 8489 6cba 0000 0000 0ee9 2bbc
000000e0: 0000 0000 f2ae 0bbb 0000 0000 7922 56bc
000000f0: 1440 8ebb 927c 2ebc c6a9 44bb 2ce6 1ebc
00000100: 924d 24bc 0000 0000 0000 0000 6447 aabb
00000110: 3c64 cfba 0000 0000 b790 20bc ef21 2dbb
00000120: 0000 0000 9861 993e d328 3cbb 0000 0000
00000130: 0000 0000 0000 0000 5ee1 39bc e4aa 15bc
00000140: ba44 68bc ebb6 29bc 4bcb b5bb 0000 0000
00000150: 9ff4 a9bc fb51 74bc 0000 0000 f7a7 7fbb
00000160: 0000 0000 7193 68bb 5952 23bc 0000 0000
00000170: f867 b6bb 0000 0000 0000 0000 2e91 25b9
00000180: 0000 0000 bb00 e8b9 e309 7cbb 0000 0000
00000190: 0000 0000 ff2c 95ba 0000 0000 2105 75ba
000001a0: 0000 0000 d3b0 33bb 69bf 00ba 0000 0000
000001b0: 4472 623e 972e 4bbb 0000 0000 3bee a5ba
000001c0: 0000 0000 0000 0000 0000 0000 6ecd 88bb
000001d0: 0000 0000 e495 bfb9 0d1a 11bc e69e c4bb
000001e0: a323 a1bc 44bc 04bb 5d56 d2bb 1880 f6bb
000001f0: e2db 0bbb 6ad1 26bc ba45 3fb9 c4f2 03bc
-0.00805749 -0.012262704 -0.009016066 0.0 0.0 -0.0013794744 -0.006294474 -0.004972709
0.0 0.0 0.0 -0.009581452 0.21153659 0.0 -0.006314377 -0.011764034
-0.0109990565 0.0 -0.0066889427 0.0 0.0 0.0 -0.010236016 -0.0051684966
-0.0009221884 -0.002406194 0.0 0.0 0.0 0.0 -0.0039464612 0.0
0.0 0.0 0.0 0.0 0.0 -0.010971973 0.0 -0.00560586
0.0 -0.0065096454 0.0 0.0 -0.0133728655 0.0 -0.008929799 0.0
0.0 0.0 -0.0011119954 -0.0065098004 0.0 -0.0009023177 0.0 -0.010492576
0.0 -0.0021313992 0.0 -0.013069742 -0.004341135 -0.010649817 -0.003000842 -0.009698432
-0.01002826 0.0 0.0 -0.0051964987 -0.0015822719 0.0 -0.009800128 -0.002641793
0.0 0.2995727 -0.0028710857 0.0 0.0 0.0 -0.011345236 -0.009134982
-0.014176542 -0.010358552 -0.005547916 0.0 -0.020746527 -0.014912124 0.0 -0.0039010027
0.0 -0.0035488273 -0.009968364 0.0 -0.0055665933 0.0 0.0 -0.0001578971
0.0 -0.00044251033 -0.0038458041 0.0 0.0 -0.0011381208 0.0 -0.00093467726
0.0 -0.0027418628 -0.0004911335 0.0 0.22113901 -0.0031003112 0.0 -0.0012659499
0.0 0.0 0.0 -0.0041748798 0.0 -0.00036542036 -0.008856309 -0.0060003875
-0.019670313 -0.0020253817 -0.0064189867 -0.007522594 -0.0021340777 -0.010181764 -0.00018241155 -0.008053485

cvae_parameters.dec_00_lin_w f4 [128, 35]
00000000: 0214 b1bc 36d8 903c 8723 0f3b 346e fa3a
00000010: 373e b43b fcb9 da3b 66ac 303b 629a 0bbc
00000020: e004 3e38 82c1 333c e1c5 713b c097 24bc
00000030: 1157 d6bb 8c94 5d3c ddd4 a63b 37d8 73bc
00000040: 6b91 07bd f968 263c 5625 07bc 1f76 c13b
00000050: 61b7 16bc 810f 55bb 4034 d83a 87c1 ecba
00000060: d403 1abc 9372 96bb e108 bebc b4d6 243c
00000070: 1ec7 04ba 7a8e 7d3b a928 03bc 4c8a 45ba
00000080: e2fa a4ba 94b9 83ba 9449 a2bb 8c41 1abc
00000090: 661c 0e39 a1b1 66bb e71e acbc 1887 24bb
000000a0: 8e48 debb c7f1 71bb cb4d e4bc 220d 933c
000000b0: 62c3 5f3b 5990 513c b433 7b3b f002 42bc
000000c0: 9b54 5bba 7b90 ebbb 6ff7 ffb9 9aad 1f3c
000000d0: a09b 943b 0e97 1ebc 080d 883c fcfb 893c
000000e0: 6ef7 00bc b7be 35bb e221 c33a 43e0 253c
000000f0: e8d5 323c 4e7d a6ba 2d95 ffbb 1054 933b
00000100: 8fa3 2bbc 97c2 603b 260d 19bc ce92 623a
00000110: 0bc1 37bb c540 d5bb 88f2 a03c 5a1a bfbb
00000120: 4175 7abc de75 84bb 658d 993c a5a8 08bb
00000130: 411b 083c 7d85 c03c ba95 b23b 361f 4fbb
00000140: 88b5 0abc 9daa 9e3c 52f0 f3bb b128 fe39
00000150: d7fb 8b3c 091a dabb e859 b43b 2196 5eb8
00000160: ee07 2d3c c0f5 f2bb e7dc 88bc 4354 693c
00000170: 4901 3cbb dfb8 fbbb 960d 513c 22cc 97bc
00000180: 4c48 efba 4859 043c e59d 293c 7f3e dc3b
00000190: 39c5 88ba d80b b73b 2fa9 b53a fa41 b03b
000001a0: ef65 543c a5ea 533b 6106 ee3b b378 a838
000001b0: 82b8 973b 0e83 9dbb 4928 a5bc d49e 123b
000001c0: a0f7 4f3b 9b55 b43b a324 92bc e6d9 f0ba
000001d0: 9710 863c daae 92bb 523b dabb fef6 3d3c
000001e0: 4408 013c 2433 a239 75b4 31bb 1708 10bc
000001f0: d7d3 d4ba 9e67 b53b f0c3 1ebc 9974 d73c
00000200: 4e7f 79bc a1c1 edbb 5e5a bb3a 7392 673b
00000210: d0e2 403b 3f58 a0bc 636e 11bc dd49 b63b
00000220: 07d5 b1ba 0385 753b a791 d6bb 8913 f83b
00000230: 2e7d 543b b754 cbbb b08a c03b 5378 fabb
00000240: 857f ed3b e920 79bb 1793 043c 8f5e c43a
00000250: 6c16 04bc 8373 0fbc cb54 e33a 9212 7fbb
00000260: 909b 053c 7a5d 9e3c 8fd6 373b 4c8d fcbb
00000270: 9d70 063c 8903 1f3b 3f09 863a d124 223c
00000280: bc7d 923b 8653 b2bb 26f2 82bb b932 b1bb
00000290: 1474 89bb 536c 953b 6d54 20bc c621 463a
000002a0: 72f9 a2ba 605f b83b d272 e8b9 4b95 2d3c
000002b0: e79b 153c 6c64 d9bb f882 23bb f7d9 bd3b
000002c0: 4c06 adbb be10 2bbc 40ba 423b b3f0 2bbc
000002d0: d941 dbbb b350 85bb b9f6 f4bb 0b1c 923c
000002e0: 9831 1abc 959d 47bc 5098 23bc 1e43 f3b9
000002f0: 0a11 c03b c12a fcbb 7e1e b7ba 3b86 4abb
00000300: 95f3 53bb a3dc 7bba 2854 27bc 5eb8 3a3a
00000310: 6703 4a3c 7eb7 4c3c 39f1 63bb 32a9 923c
00000320: 9bc6 36bb af41 b13c b5e1 9c3b 063c 3bbc
00000330: 6b51 413b b97c 9fbb a469 3abc 343f 34bb
00000340: d86e aeb8 4e72 3ebc c13c a03c 3458 08bb
00000350: 49de a2ba a541 08bb 9498 993b 8752 8ebc
00000360: 3e25 9dbb 6337 cabb f0fb d7bb 066b 6dbc
00000370: ea50 f1bb daa7 1fbb b90c 753c dd15 2bbc
00000380: ce73 ad3b 7a7f 87bc 2a55 213c e401 023c
00000390: 8428 0b3a d5ed 983c b089 eebb 1c80 af3b
000003a0: 09b8 7dbb 683f a9bb 7fad c73b f4a3 2bbb
000003b0: 9c0b a9bb 8970 f53b 0406 563c f72c f93b
000003c0: 16db 9d3c 5d11 37bb 7a18 17bc e939 653b
000003d0: 9b5e 923c 7e4f 1d3c cc17 64bc f902 1bbc
000003e0: eba6 243c 375e 3cbc fadd bf3c 50c3 d6bb
000003f0: 4208 b03c 48c6 043c cc38 c53c 98ae 923c
-0.021615986 0.017681222 0.0021841244 0.001910633 0.0055005806 0.006675003 0.0026958226 -0.008520694
4.530407e-05 0.010971429 0.0036891627 -0.010045946 -0.006541141 0.013524186 0.0050912932 -0.014883093
-0.033097666 0.010156863 -0.008248648 0.0059039737 -0.009198994 -0.0032510462 0.0016495064 -0.0018063047
-0.009400327 -0.004591295 -0.023197593 0.010060955 -0.0005065071 0.003868966 -0.0080053 -0.00075355615
-0.0012586976 -0.0010049813 -0.004952619 -0.009415042 0.00013552755 -0.003520109 -0.02101083 -0.0025104936
-0.0067835515 -0.0036917792 -0.027869126 0.017950598 0.0034143557 0.012790763 0.0038330378 -0.011841521
-0.0008366794 -0.0071888543 -0.00048821743 0.00974598 0.0045351535 -0.009679569 0.016607776 0.016843788
-0.007871492 -0.0027732083 0.0014887417 0.010124269 0.010915257 -0.0012702139 -0.0077997656 0.004496105
-0.010476007 0.0034295672 -0.009341514 0.00086430914 -0.0028038647 -0.0065079653 0.019646898 -0.005831999
-0.015286745 -0.004042371 0.01874418 -0.0020852473 0.008307279 0.023501152 0.0054499777 -0.0031604297
-0.008466132 0.019368464 -0.00744442 0.00048476973 0.01708786 -0.0066559357 0.0055038817 -5.3068743e-05
0.010560973 -0.0074145496 -0.016706897 0.014241281 -0.002868729 -0.0076819505 0.012759587 -0.018529955
-0.0018255799 0.008077927 0.010352586 0.0067213173 -0.0010434753 0.0055861287 0.0013859625 0.005378959
0.012963756 0.0032335904 0.007263944 8.033346e-05 0.0046301493 -0.0048068827 -0.020160811 0.00223725
0.003173329 0.005503369 -0.017839735 -0.0018375486 0.016365333 -0.0044764103 -0.0066599036 0.011594532
0.007875506 0.0003093715 -0.0027115617 -0.008790991 -0.001623745 0.005536034 -0.00969027 0.026300715
-0.015228106 -0.0072557484 0.0014293899 0.0035335093 0.0029432066 -0.019573329 -0.008876416 0.0055630044
-0.0013567515 0.0037463314 -0.006548125 0.007570688 0.0032423246 -0.006205167 0.005875908 -0.0076437383
0.0072478675 -0.0038014 0.00809171 0.0014981794 -0.008061986 -0.0087555675 0.0017343996 -0.003892098
0.008154765 0.019331682 0.002805147 -0.0077072736 0.00820556 0.0024263582 0.0010226144 0.009896473
0.004470555 -0.0054420857 -0.0039961515 -0.005407658 -0.004194746 0.0045600324 -0.009785754 0.0007558133
-0.001243396 0.005626604 -0.00044336036 0.010594676 0.009131408 -0.0066342857 -0.002494989 0.0057938057
-0.0052802917 -0.010441003 0.0029713064 -0.010494399 -0.0066911993 -0.004068458 -0.0074757007 0.017835638
-0.009411238 -0.012183567 -0.009985045 -0.00046398578 0.005861406 -0.0076955264 -0.0013970879 -0.0030902762
-0.003234123 -0.00096077676 -0.0102129355 0.000712281 0.012329913 0.01249492 -0.003478123 0.017902944
-0.0027889374 0.021637766 0.0047876486 -0.011427885 0.0029497992 -0.004867163 -0.011377726 -0.0027503492
-8.317613e-05 -0.011623932 0.01956022 -0.0020804526 -0.0012425865 -0.002079108 0.004687378 -0.017373336
-0.0047956994 -0.0061711534 -0.0065913126 -0.014490848 -0.007364382 -0.0024361522 0.014956647 -0.010442224
0.005293346 -0.016540278 0.009846965 0.007935021 0.00053084665 0.018668095 -0.007279597 0.005355848
-0.003871443 -0.0051650293 0.0060936804 -0.0026190253 -0.0051588546 0.007490222 0.013062958 0.007604237
0.019269507 -0.0027933933 -0.009222144 0.0034977144 0.017867377 0.009601472 -0.013921689 -0.009461158
0.010049562 -0.011497072 0.023421276 -0.006554045 0.021488313 0.008103915 0.024074934 0.017905518

cvae_parameters.dec_01_lin_b f4 [128]
00000000: 64fd 0cbc 0000 0000 ff80 d23d 6c19 47bb
00000010: 0000 0000 c9ac 903b b056 a03b 210d db3b
00000020: cf2d 2d3d 3e7b fb3c 696d 153b 0000 0000
00000030: e021 be3b 94dc 583c 835d 893b 8d15 8a3d
00000040: dcff c5ba 1d1b b33b 1ecd 663c 1043 c3ba
00000050: 3d8f 29b8 155e 8d3b 0898 293b df5a 613c
00000060: 935c 36b9 245d 0dbc 6d11 843b cab1 15bb
00000070: a5f3 cdbb 0000 0000 beaa 733d 0c90 903b
00000080: 222c 3a3b 5ce4 62bb d5da 4e3c 3296 b33d
00000090: 689c 123b 8028 b6bb ef7a c93a e276 383e
000000a0: 519d e23b a9ea 27bb 610d 0b3c 470b 27bb
000000b0: bdf2 79ba a9b0 5c3d 9828 bcba 4aca 353b
000000c0: 6745 333c 9cba 8c3d 0000 0000 a5ac 143c
000000d0: c014 30bb 1993 923b 1e52 9eba 088e 913c
000000e0: 565d db3b b5a5 03bc b2f2 03bc 4249 e03c
000000f0: bdab 8b3b 1d54 8f3b 48f8 ba3b 0463 383d
00000100: bb41 93b9 d546 0ebb 38e5 4a3b 413e 71ba
00000110: 9858 213d 720a 9d3b c225 e6bb 0000 0000
00000120: 0000 0000 4676 d83c 47fa 013c ebf3 59ba
00000130: 4901 d3bb 3724 153c faca 003e 0000 0000
00000140: 57ae c23b 581c ab3b 1e97 88ba 071a 013c
00000150: 16c6 9d3d 726a b23a 67e9 46bb 7bd8 86bb
00000160: a6a8 bc3a 02ba 8e3b 6891 8f3b 56f8 ccba
00000170: 0d5f f73a cad1 083d 9c8e 74bb 8745 713b
00000180: 2b24 c3bb 1030 a1b9 3d5a b5ba 566d 61b9
00000190: 96d2 be3b 276c 01bb afd7 07bb 86a7 993e
000001a0: bf33 073d 8cbd 383d 375e deba 5b2a 633d
000001b0: b026 353d 4674 3b3c 5e1b e03d 1416 a43d
000001c0: 0000 0000 d3a2 973d 9229 193b f4bc 12bb
000001d0: a4da 9f3b 1e1a 943b 62db 293c e3e8 933d
000001e0: 685d 943d 0000 0000 d6bf e23d 1987 d0ba
000001f0: 3068 dc3b 32f9 b03d b680 4f3c fdfa 613d
-0.008605335 0.0 0.1027851 -0.0030380143 0.0 0.004415129 0.0048931465 0.0066849147
0.042280015 0.030698415 0.002280081 0.0 0.005802378 0.013236184 0.0041920557 0.06742392
-0.0015106159 0.0054658786 0.01408699 -0.0014897306 -4.042614e-05 0.004314194 0.0025877971 0.0137545755
-0.00017391359 -0.0086281635 0.0040303976 -0.0022841566 -0.006285148 0.0 0.059489004 0.004411703
0.0028407653 -0.0034620976 0.012625416 0.08768882 0.0022371057 -0.005559027 0.001537172 0.180141
0.0069157262 -0.0025622046 0.0084870765 -0.00254889 -0.0009534767 0.053879414 -0.001435536 0.0027738982
0.01094184 0.068715304 0.0 0.009074365 -0.0026867837 0.004473102 -0.0012078916 0.017767921
0.006694476 -0.008035113 -0.008053469 0.027378682 0.004262416 0.0043740408 0.005705867 0.045016304
-0.00028086998 -0.00217097 0.003095938 -0.0009202697 0.03939113 0.004792505 -0.007023544 0.0
0.0 0.026423585 0.007933206 -0.00083142397 -0.006439362 0.009102873 0.1257743 0.0
0.005941193 0.0052218847 -0.0010421013 0.007879741 0.077037975 0.0013612045 -0.003035152 -0.004115162
0.0014393523 0.00435567 0.0043813474 -0.0015637975 0.0018872932 0.033403195 -0.0037316447 0.0036815123
-0.0059552393 -0.00030744122 -0.0013836097 -0.00021498403 0.0058234436 -0.0019748302 -0.0020727923 0.30010623
0.033008333 0.04510264 -0.0016965334 0.055460315 0.04422635 0.011441296 0.1094272 0.080120236
0.0 0.07404103 0.0023370725 -0.0022390457 0.004878359 0.004519715 0.010367246 0.07222154
0.07244378 0.0 0.11071746 -0.0015909403 0.0067262873 0.0864128 0.012664964 0.055171

cvae_parameters.dec_01_lin_w f4 [128, 128]
00000000: b6a2 413c d4ba d13b 5e85 22bc 18ef 6bbc
00000010: affb 0b3c b09c 27bc a9b2 05ba 799f d1bc
00000020: f0d7 44ba 709a a83a 973f 33bb 5493 a8bc
00000030: ea78 e63b 9c82 783c bbba 113c 8374 85bc
00000040: fffc bab9 94a1 8e3b 5534 58bb e91c 273b
00000050: cbb4 1dbb b74e 82bb 6b56 08bc d6a0 27bc
00000060: 286e dbbc d76a 0139 2d9e 4a3c 4216 8f3c
00000070: c3c4 1abc 3880 3ebc 9bde 2139 cbe6 30bc
00000080: c22f 113c 12c0 9abc 5734 74bc 994e bbbb
00000090: 8aac 6c3c a823 db3a 5919 a53c bc63 16bb
000000a0: 6bd2 0b3c 121a 15bc 0430 09bc 9b38 14bb
000000b0: 1995 4c3c 8c34 213c f2e8 053b 42f0 263b
000000c0: dc66 cd3b 9fdc 02bb bc8e 0c3b 46b0 25bc
000000d0: 4e4c 59ba 7520 74bc c52f 5abc 35ae b63b
000000e0: 5b41 dcbb 9bc2 cd3b febf 60bc c8bf 85bb
000000f0: a163 76bc abf7 183c 5e81 22bc 1d22 98bb
00000100: 44ca 26bb eb42 d8bb 7742 95ba 0daa 83bb
00000110: 6691 a0bb fbb9 13bc 0e38 16bb 05b6 2a3a
00000120: d3d3 4bbb 3e55 813b dada 3fbb c962 ce3b
00000130: 41ad b8ba 0f5a 26bc 9756 b0bb a9c4 34bc
00000140: 53bd 3239 ba4c 793c 58e4 1abc 7bb4 d93b
00000150: 30b0 173c 6d0d 553c 24d4 27bc 4d01 2fbb
00000160: 3ddc 80ba c236 933c 35bc c7bb 7b36 8dbc
00000170: a39a 433b a148 453a a177 653c b295 95bc
00000180: d02b 36bc 069e d8bc 01c1 9c3b 984c 85bb
00000190: 1346 6b3b e261 1fbc c4b0 36bb 304b 96bb
000001a0: 3e3b bcbb 6046 ff3a c67d f23b 9354 ff3b
000001b0: d8d5 523b 3c57 dabc bc4c d7bb db21 80bb
000001c0: 6ef2 653c 4fe6 f13b 1466 9e39 3a1a 0aba
000001d0: 9d4c 84bc 081c 103b 048c 83bb 7ebf 50bc
000001e0: 5ce8 8bbb 1a3d 2e3b d6b8 31bc 212b 6f3b
000001f0: b852 25bc 2d17 bb3a 1442 283c a31e 8c3c
00000200: 694d 29bc 6ddc a13b 295c 06bc 7038 c639
00000210: e81f 113c 231a 09bc 105d 63bc e1f1 11bb
00000220: 8b2b 04bb 1c79 26ba c488 983b dbfc a1bb
00000230: 54e0 d3bb 1e83 da3b 4192 bbb9 7e6a 88bc
00000240: 0bad 41bc d94f cfba 6ffd 3ebb 95b6 453a
00000250: 5c87 bb3b c34e 073b 3e7a 3d3c 55a0 9fbb
00000260: 1b38 00bc f9c7 3abc 2a85 bbbb 461e 273c
00000270: 6338 f13b dbbd c0bc 9d09 d0bb 1e26 0fbb
00000280: 828e 21bc 0ea6 91ba 62b2 85bc c9c7 e53a
00000290: 6358 7fb7 8be1 923b 612a 49bc bbc0 8a3b
000002a0: e18e ed3c fd2e 1dbc c47a 353b b892 833c
000002b0: b49a d13b 8a81 8abb 528c 21bb 8da7 a03b
000002c0: e72a 333c 8f8b 5c3c 6efe 68bc dec6 2f3c
000002d0: de4d 08bc 5bfc 493c 9761 94bb 826a d5bb
000002e0: 5262 3e3c fbb4 793c 19cd 493b 647b 1ebc
000002f0: 559a 8eba 40ad 6d3a 18f8 fcbb 5e0a ebbb
00000300: 3d7b 363c 003a 2c3c 959f 03bc d56b 3fbb
00000310: 29b9 54bc 19d1 73bc 546a f4ba 065a 923c
00000320: f361 5d3b 525d 1ab9 619b b73b 15c0 39bc
00000330: 2b45 ec3b f7c0 f3bb 2741 863c 132c 55bc
00000340: 6f83 323b 7cbd 01bc 1150 103c 37a2 013b
00000350: 15cf fc3b 18a9 6fbc f765 c2ba 2eae f63b
00000360: a22c 0ebc 8b82 b8ba c7fd 613a fc47 51bc
00000370: 5fe3 11b8 73ec a13b 2bb8 393c 42c3 17bc
00000380: 7d61 14bc 8ebf c1ba 99c9 6dbb 4e5e 563b
00000390: ce3d 103c ab8c 84ba eeb4 92bb 5243 7bbb
000003a0: 5cc7 d63b 4234 f5bb 931c c53a 38dc d7bb
000003b0: ddd9 f3ba b637 883b ea80 fbb8 0437 9fbb
000003c0: 8703 2cbc 05cd 34bc bda0 8cba b9d8 10bc
000003d0: c108 fa3b 87e2 173a d6f0 973b 7870 2f3a
000003e0: e077 8cbc 57bf a13b 94ab 073c a9f7 3cbc
000003f0: 390b a63b e9ce d43c f81c 63bb 3981 e5bb
0.0118185785 0.0064004455 -0.0099194925 -0.014400266 0.008543893 -0.010230228 -0.000510017 -0.025588738
-0.0007508984 0.0012863409 -0.0027351135 -0.020578064 0.007033457 0.015167858 0.008894618 -0.016290909
-0.0003566518 0.0043527577 -0.0032990177 0.002549941 -0.002406406 -0.0039766687 -0.008321385 -0.010231217
-0.026785925 0.000123422 0.012366814 0.017466668 -0.009446326 -0.011627249 0.00015437083 -0.010797213
0.008861484 -0.018890414 -0.014905057 -0.0057161567 0.014445433 0.0016719 0.020153688 -0.002294763
0.008534054 -0.009100454 -0.008373264 -0.0022616747 0.0124867195 0.009839188 0.0020433036 0.0025472795
0.0062683653 -0.0019967926 0.002144738 -0.010112828 -0.00082892634 -0.0149003165 -0.013317053 0.0055749663
-0.006721658 0.0062793023 -0.0137176495 -0.0040817 -0.015038402 0.009336392 -0.009918539 -0.0046427385
-0.002545015 -0.006599774 -0.0011387606 -0.0040180744 -0.0049001453 -0.009016509 -0.0022921595 0.00065121084
-0.00311016 0.0039469292 -0.0029274733 0.006298397 -0.001408972 -0.010153308 -0.005381416 -0.011033216
0.00017045932 0.015216047 -0.009453855 0.0066438294 0.009258315 0.013003689 -0.010243449 -0.0026703656
-0.0009831261 0.017970446 -0.006095434 -0.017237892 0.002984681 0.0007525776 0.014005573 -0.018259857
-0.011118844 -0.026442539 0.00478375 -0.0040679686 0.0035899922 -0.009727927 -0.0027876357 -0.0045866
-0.005744367 0.001947593 0.0074002473 0.0077920645 0.0032170918 -0.026652925 -0.0065704267 -0.003910286
0.0140348505 0.0073821913 0.00030212163 -0.000526819 -0.016149813 0.0021989364 -0.004014494 -0.012740968
-0.0042696428 0.0026586712 -0.010847291 0.0036494213 -0.0100905225 0.0014273875 0.0102696605 0.017104452
-0.010333397 0.004939607 -0.008200684 0.00037807552 0.008857705 -0.008368048 -0.013877168 -0.0022269415
-0.0020167555 -0.0006350444 0.0046549756 -0.004943473 -0.006465951 0.0066684624 -0.00035776387 -0.016652342
-0.011821042 -0.0015816643 -0.0029142757 0.00075421605 0.005722923 0.002064631 0.011564789 -0.004871408
-0.007825877 -0.011400216 -0.0057226615 0.010200089 0.007361458 -0.02352803 -0.0063488022 -0.0021842788
-0.009860637 -0.001111211 -0.016320411 0.0017530854 -1.5219764e-05 0.004482453 -0.01227817 0.004234401
0.028998794 -0.009593722 0.0027691582 0.016061172 0.006396616 -0.004226868 -0.0024650288 0.004902786
0.010935522 0.013461008 -0.014220817 0.010728566 -0.008319346 0.012328233 -0.004528235 -0.006512941
0.011620121 0.015240903 0.0030792414 -0.009672973 -0.0010879735 0.0009066649 -0.007720005 -0.0071728667
0.011137781 0.010511875 -0.008033653 -0.002920856 -0.012983599 -0.014881396 -0.0018647411 0.017865192
0.0033780306 -0.00014721349 0.0056032394 -0.0113373 0.007210394 -0.0074387747 0.016388489 -0.013010996
0.0027238985 -0.007918712 0.008808152 0.0019780525 0.007715116 -0.014627717 -0.0014831413 0.007528088
-0.0086776335 -0.0014076991 0.00086208846 -0.01277351 -3.478245e-05 0.004941517 0.011335413 -0.009262862
-0.009056446 -0.0014781819 -0.0036283492 0.0032710019 0.008803798 -0.0010112723 -0.004477135 -0.0038339687
0.006554527 -0.0074830363 0.0015038423 -0.0065875314 -0.0018604357 0.004157032 -0.00011992625 -0.0048588533
-0.010498888 -0.011035209 -0.0010729056 -0.008840733 0.007630438 0.0005793948 0.004636864 0.00066924794
-0.017147005 0.0049361396 0.0082806535 -0.011533656 0.005067256 0.025977569 -0.0034654718 -0.00700393

cvae_parameters.enc_00_lin_b f4 [128]
00000000: 26d4 83b8 adb3 1c39 913f 81b8 0c0a 93b7
00000010: 57de 02b9 a6bf 0037 9cf0 0ab8 5266 8838
00000020: ef0e a6b7 fcfa c2b7 25aa 25b8 11c0 51b7
00000030: 3fd9 aab8 b62d edb6 7226 aa38 a73a eb36
00000040: 3fc8 d1b7 2d50 d737 5309 acb6 4328 bd36
00000050: 5206 2c38 1b90 06b8 a8de 34b6 ea69 1cb9
00000060: ee6f 74b7 e053 1ab9 1757 52b8 7c7d cd37
00000070: e15f e3b8 cc19 1038 4840 d637 5fc1 2f38
00000080: a526 ca37 c60a 3e38 01b9 d837 e9d7 5b38
00000090: b359 1638 4a6d 4fb9 c58b 36b8 08bb 1d37
000000a0: 5b95 25b6 d0d0 c8b7 4b62 c736 4135 9038
000000b0: 8f38 ab38 b064 8c38 ecb3 1138 235a a8b7
000000c0: 24f8 da37 5434 0c38 e24c 2837 b432 1438
000000d0: 6ea6 05b7 8472 6037 d49d ccb7 d6b7 bdb7
000000e0: 774f c7b6 0533 98b8 b6ee ff36 1542 90b8
000000f0: d57f 99b8 f856 9db8 a137 fbb7 7549 52b7
00000100: 6934 85b8 d79a 5538 d645 0638 ae6c eeb7
00000110: 09c3 9fb8 1391 e236 8c6d b737 23a1 39b7
00000120: c0f0 e337 e30b 65b7 0fdb 3636 9770 7138
00000130: 8328 8a36 baf9 fcb7 6871 08b8 1fec 0b39
00000140: be73 d737 5bc5 8cb6 71f1 11b7 31ce 90b7
00000150: fdcb ecb6 1de5 a6b7 efc6 6738 25ff 54b6
00000160: 506a f637 a43f 4d38 95d0 f5b6 08ad f7b8
00000170: 7b3c d4b7 20e8 5538 a081 9838 7dca 72b8
00000180: 1d11 bbb8 a87f aa38 6211 b837 71e1 3c38
00000190: a5a9 2fb8 0039 0bb8 1024 e4b7 e796 4737
000001a0: 03c4 6cb7 667e b1b8 60e0 bb38 251d c636
000001b0: 5d0f a836 1a97 53b7 f6b2 14b8 68b0 ec36
000001c0: 8fdd 8ab8 f3d3 e4b8 794e 4738 1a23 80b8
000001d0: 5a70 4cb8 29d0 5638 25fe 1238 2369 d8b8
000001e0: 3862 4937 e46e 3538 94bd 28b8 95bf 6ab8
000001f0: 3aa1 5938 3686 c738 d7b4 c837 cef7 0738
-6.2860825e-05 0.00014944254 -6.1630395e-05 -1.7528444e-05 -0.00012480594 7.674016e-06 -3.312585e-05 6.504044e-05
-1.9795696e-05 -2.3243476e-05 -3.9497525e-05 -1.250209e-05 -8.146697e-05 -7.068472e-06 8.113393e-05 7.010374e-06
-2.5007988e-05 2.5667332e-05 -5.127085e-06 5.637326e-06 4.1013882e-05 -3.20823e-05 -2.6951693e-06 -0.00014916775
-1.4569594e-05 -0.0001471783 -5.014901e-05 2.4496338e-05 -0.00010842062 3.43563e-05 2.5540721e-05 4.1903342e-05
2.4098272e-05 4.5309564e-05 2.5835356e-05 5.241475e-05 3.5846326e-05 -0.00019781772 -4.3522352e-05 9.401476e-06
-2.4673852e-06 -2.3939094e-05 5.942105e-06 6.8763744e-05 8.16445e-05 6.694475e-05 3.473826e-05 -2.0069134e-05
2.6103175e-05 3.3427335e-05 1.0031481e-05 3.533317e-05 -7.966168e-06 1.3378103e-05 -2.439219e-05 -2.2616161e-05
-5.939913e-06 -7.257428e-05 7.627382e-06 -6.878764e-05 -7.319419e-05 -7.5025426e-05 -2.9947436e-05 -1.2534078e-05
-6.351696e-05 5.0927363e-05 3.201313e-05 -2.8422419e-05 -7.618039e-05 6.7522137e-06 2.1866312e-05 -1.1064377e-05
2.7172617e-05 -1.3652231e-05 2.7247622e-06 5.7563735e-05 4.1174367e-06 -3.0157029e-05 -3.2530545e-05 0.00013344035
2.5683894e-05 -4.1953003e-06 -8.698888e-06 -1.7262153e-05 -7.0570954e-06 -1.9895431e-05 5.5259963e-05 -3.1738975e-06
2.937499e-05 4.893508e-05 -7.325851e-06 -0.000118101074 -2.5300533e-05 5.099934e-05 7.272069e-05 -5.7885878e-05
-8.9200425e-05 8.1300095e-05 2.1942604e-05 4.503265e-05 -4.1881245e-05 -3.3193268e-05 -2.7196511e-05 1.1896459e-05
-1.4112334e-05 -8.463561e-05 8.958648e-05 5.9042527e-06 5.0085787e-06 -1.2611761e-05 -3.545262e-05 7.0538845e-06
-6.621621e-05 -0.00010911366 4.751838e-05 -6.110054e-05 -4.8742026e-05 5.121544e-05 3.5045803e-05 -0.00010319266
1.2003402e-05 4.3257038e-05 -4.023088e-05 -5.5968372e-05 5.1886986e-05 9.514058e-05 2.3926068e-05 3.2417294e-05

cvae_parameters.enc_00_lin_w f4 [128, 163]
00000000: f072 38bc 03c8 3cbc 8624 24bb d23a 8ebb
00000010: f211 0b3c 40b0 e23b ac39 4fbb 3347 adbc
00000020: f135 533b 18ef 4ebc bf64 653b c9a4 493b
00000030: 6921 9d3a 92bb 4a3c 34f3 363c 43d3 21bb
00000040: 54a3 5dbc 72e1 8abc b1c9 b93b e1e6 013c
00000050: 8b2e c43b f9d2 7ebc eaee 5fbb 67d0 973c
00000060: edcc f53b c9a0 bfbb 6e96 e2ba 6c97 ef3a
00000070: ad98 633c 04f0 813c 22ea 1a3c e92b 0abc
00000080: 0a10 c9bb 4ad9 a839 a344 a1bb e68a 223b
00000090: 39fd 8f3b d7f4 923a d793 d13b 57b4 903b
000000a0: 4c48 86ba 65db 013c 64e0 3dbb 1b45 093a
000000b0: 8e46 ab3b 4c94 bc3c deda 70bc 51eb 81bc
000000c0: ea99 dcbb 77fc 0e3c 74d6 2c3c 56de e83a
000000d0: 4cd7 16bb 6473 80bb 83b9 b13b 5f27 81bb
000000e0: 8f4a 92bb e0c2 f33b 9a24 793c d4b0 0b3d
000000f0: e5c9 7abc 2048 4abc 220b 953c 599f b4bb
00000100: 8d88 babb 8abc 163c 3906 363c 5d45 533c
00000110: e21b 72bc 813c d23c eb0d 9bbb 4bf4 5b3b
00000120: 066e 85bc 68fc b3bb f4fe 9cbb 3ecb a3bb
00000130: 52c5 2ebc 837e 363c bf2f b8ba 1312 043c
00000140: 9cff 72ba 5435 e13b 6035 09bc d8bb 0737
00000150: 02fc 093c 7a40 83bb 3141 2a3c 5600 6b3b
00000160: 7b36 21bb 9f9c bc3c 9819 9abc ceee 02ba
00000170: 6c1c 2bbc e2b2 1cbc 6808 ad39 b3c7 e83b
00000180: 67d0 863c 08da 5ebc a542 623b e73d aa3b
00000190: 3906 d6bc adf5 8abc 5506 16bb b3a1 373b
000001a0: affb 213b f45d 4b3a e0e8 5d3b e0cf 943b
000001b0: b2e2 953b acb8 0dbc 1cd1 ff3b cbcf 17bc
000001c0: 5e43 0fbb 4361 c7bc c846 3fba cbe5 b3b9
000001d0: 98b3 1d3c 700d 653b 3d08 17bc d4fd 13ba
000001e0: 7bff cbbb 9689 97bb 7466 9d3c 7f00 84bb
000001f0: e6de a13a 7ad8 3e3c 0e3a 173c 3138 633c
00000200: 25b0 10bc 101d 89bb 83f0 03bc 4366 b93b
00000210: bcb8 c73b e9ef 983b eec2 9f3c 3e30 2ebc
00000220: 60a7 49ba bbb4 983a 98a8 c2bb fecb 4bbc
00000230: 6fc9 86ba d753 29bc b80f 4dbb 6320 213b
00000240: 2807 2abb 1970 9b3a eaee 1f3b e0c7 3e3c
00000250: a6ff 3c3b d84d 7d3b 69eb 03bb 764a 9aba
00000260: b8ff fb3a daec fcbb 1bad 9bbc 6103 ab3a
00000270: aebd e6bb 5d20 4e3b 3e0f ce3a 4eb2 7c3b
00000280: 0775 1e3c c966 23bc fea8 453b da92 8cba
00000290: 3e81 233c 3393 a3bb b278 f93b 797f ca3b
000002a0: f2d9 4d3b bfdd 0b3b f2cc 9dba fa66 6c3b
000002b0: 7102 4ebb fcc9 30bc 6339 1e3b 65d2 64bc
000002c0: 9321 2dba c20d 6bbb 4df3 7fbc dd35 68bb
000002d0: c516 313c 224d ab3a 3efb 803c c1d1 ff3b
000002e0: 33c5 30bc 1666 ecbb 04df 703c b3b5 343b
000002f0: e27b da3b 0a10 23bc 0ac7 42bc 2301 44bc
00000300: db7b b7bb e9cf ae3b 3137 853b ae6c 813b
00000310: e6eb df3a 1c52 0f3c 97e0 3bbb d25e 273c
00000320: cbe8 42ba 85c8 32bc 8c73 803b 4012 c33b
00000330: 19bc d83b 98c4 45bc 130e c73b ee64 b3bb
00000340: d2e8 3f3c e697 813a 02bf 1d3c a8cc 093c
00000350: 8894 4dbc 1a8f 213c 8a40 a2bb 0348 52bc
00000360: 2899 1c3c c175 523c cb92 dabb e784 b93b
00000370: aedd 3b3b 9337 b3b9 f5f8 2dbc 7e6b 96ba
00000380: 40ad 60bb 57bd 803c 44e5 fa3a f86e 793b
00000390: 5c01 bfba faa7 d03b a617 38bb 87f2 59bc
000003a0: 05ce b9ba 093c afbb f78b abbb 5805 0d3c
000003b0: eb86 11bc 5639 093c ccf7 3c3c f73c 90bc
000003c0: 7803 72bc 74e5 8fbc 860d 453a 8de8 30bc
000003d0: 46e8 6b3c e6b6 92ba 9e33 bd3b 95e3 dcba
000003e0: a15a 27ba 0c11 2a3c 7f6e 143c 0408 9cbb
000003f0: f199 0ebc f64b bc3a bdf4 9b3c 40fb 7f3b
-0.011257872 -0.011522296 -0.0025046184 -0.004340508 0.008488165 0.0069179833 -0.0031620068 -0.021152114
0.0032228197 -0.012630247 0.0035002676 0.0030768386 0.0011988106 0.012373822 0.011166383 -0.0024692572
-0.01352771 -0.016953204 0.0056697954 0.007928581 0.0059869937 -0.0155532295 -0.0034169503 0.018531991
0.0075012357 -0.0058480245 -0.0017287263 0.001827938 0.013891381 0.015861519 0.009455236 -0.008433321
-0.006135945 0.0003220535 -0.004921512 0.0024802028 0.0043942 0.0011211884 0.0063957977 0.0044160294
-0.0010244935 0.007925843 -0.0028972859 0.0005236433 0.0052269166 0.023019932 -0.0147006195 -0.015859278
-0.006732215 0.0087271845 0.0105491765 0.0017766457 -0.002301651 -0.0039200056 0.005423726 -0.003941461
-0.0044644545 0.0074390024 0.01520648 0.034104183 -0.0153069245 -0.0123462975 0.018193785 -0.00551216
-0.0056925477 0.009200225 0.011109882 0.012894955 -0.014777156 0.025663616 -0.0047318838 0.0033562358
-0.016287815 -0.0054927357 -0.004791135 -0.0049985936 -0.010667162 0.011138561 -0.0014052315 0.00806095
-0.0009269656 0.0068728123 -0.008374542 8.090363e-06 0.0084219 -0.004005489 0.010391519 0.0035858355
-0.0024599123 0.023023902 -0.018811032 -0.0004994691 -0.010443788 -0.009564133 0.00033003394 0.007103884
0.016456796 -0.013601787 0.0034524587 0.0051953676 -0.026126014 -0.01696285 -0.0022891958 0.0028019964
0.0024716666 0.00077578356 0.0033860728 0.004541382 0.0045741433 -0.008649986 0.00780691 -0.00926585
-0.0021860222 -0.02433837 -0.0007296619 -0.0003431275 0.009625338 0.0034950636 -0.009218273 -0.00056454283
-0.006225524 -0.004624556 0.019213893 -0.0040283795 0.0012349754 0.011648292 0.00923015 0.013868378
-0.008831059 -0.0041843727 -0.008052948 0.0056579425 0.00609502 0.0046672714 0.01950213 -0.010631619
-0.00076924823 0.0011650542 -0.005940508 -0.012438772 -0.001028342 -0.01033493 -0.0031289887 0.0024585954
-0.0025944207 0.0011858969 0.0024403878 0.011644334 0.0028838902 0.0038651135 -0.002012933 -0.0011771459
0.001922599 -0.0077186646 -0.019003442 0.0013047272 -0.0070416545 0.0031452395 0.0015721095 0.0038558426
0.009671456 -0.009973236 0.0030160542 -0.0010724918 0.009979544 -0.0049919127 0.007613265 0.0061797467
0.0031410423 0.0021341888 -0.0012039228 0.003607212 -0.003143456 -0.010790344 0.0024143092 -0.013966178
-0.0006604429 -0.0035866355 -0.015621972 -0.0035432496 0.010808651 0.0013069252 0.015744802 0.007806987
-0.010789203 -0.007214318 0.014701609 0.0027574121 0.0066676 -0.0099525545 -0.011888275 -0.011963162
-0.0055994815 0.0053348434 0.004065417 0.003949723 0.0017083853 0.008747604 -0.0028667802 0.010215478
-0.00074352016 -0.010912065 0.0039200243 0.0059531033 0.00661422 -0.012070797 0.006074676 -0.0054746782
0.0117132235 0.0009887188 0.009628059 0.00841061 -0.01254762 0.009860778 -0.0049515413 -0.012834552
0.009558 0.0128454575 -0.006670331 0.005661595 0.0028666067 -0.00034182947 -0.010618438 -0.0011476127
-0.0034282953 0.015715284 0.0019141813 0.0038060527 -0.0014572549 0.0063676806 -0.0028090267 -0.013302452
-0.0014175778 -0.005347733 -0.005235191 0.008607231 -0.008882265 0.008375486 0.011533689 -0.017607195
-0.014771335 -0.017565466 0.0007516969 -0.010797632 0.01439864 -0.0011193424 0.0057739755 -0.0016852493
-0.0006384049 0.010380041 0.009059547 -0.0047616977 -0.008703695 0.00143659 0.019037599 0.0039059669

cvae_parameters.enc_01_lin_b f4 [128]
00000000: 1a96 c738 aca2 013a e71d b2b8 5d28 7c3a
00000010: f2f3 c9b8 c6b7 3a39 5263 dd3a 832c fcba
00000020: 85af 9cb9 4dbd 68ba df85 6d37 8e85 07ba
00000030: bc23 4739 ee56 07ba 6edb 763a 7eaf 223b
00000040: 8151 35ba e903 f7b9 7fb7 65ba 35dd a438
00000050: f675 49b8 e8fe b23a 4ea1 40ba bd42 cd3a
00000060: 789b aaba 5495 4bba 8ea5 19b9 8b60 dfb8
00000070: 8178 5bb9 5541 03ba 0471 34b8 2f50 d4b8
00000080: 631b 0b38 4daa 90b8 dc90 10ba 2bb3 b9b6
00000090: 8814 583b 2c24 d6b9 00b4 9b39 f79f 91b8
000000a0: 021b 4d3a ed2c 70b8 9d2e d23a 543b 19b6
000000b0: 3c3b 8939 8306 d9ba bf2d 47b8 2d73 ab38
000000c0: aa86 2939 72ad a439 338d dfb4 eda2 a438
000000d0: dacc 213a 4de4 0b3a 8ca8 8639 64ac 2eba
000000e0: 46ae ea38 a7f2 003b 63e4 2e39 1552 483a
000000f0: 0ac7 58b9 b189 0bba dccd 45b9 de14 1e39
00000100: 71eb 5338 c5a1 583a fae8 33b8 dbec b5b6
00000110: 5755 d3ba 1399 b8b9 eaee 82b9 b99a 2d3a
00000120: 7ffd d739 d35e 2aba 53ad 58ba d12e 1abb
00000130: 78a8 acba 70c4 ea39 d70a c139 2da6 9fb9
00000140: c9f9 09ba b14c 1b39 4f02 67ba 366f 5c39
00000150: 329e 2a3a 7595 a539 adc6 a3b8 c57a d13a
00000160: fd81 38ba adc7 8bb8 a766 f4b9 56e7 5b39
00000170: 4bd5 6639 434b 5bb8 a267 7bb9 90d5 aeb9
00000180: c50a 8f3a 96be 4639 9c18 b038 f384 2f38
00000190: 95e8 223b 77ce 5b3a da08 a3b8 0a62 dc39
000001a0: 9c37 0a3b 3a7a d73a 2565 f03a a983 05b9
000001b0: f5b9 52b8 db2a 213a e1f6 993a a8e0 aab8
000001c0: e9ed 3cba f95c 4e3a 021d 16bb 0635 8038
000001d0: cb4f 6f3a 15ef 9938 89c8 f6b9 11fe 28bb
000001e0: 315b a7ba 8cda 48ba 20aa 0f3a 4df4 fbb9
000001f0: 35ba 1139 56bf fb38 c86d 88b9 bafd 5b3a
9.517018e-05 0.00049451995 -8.493271e-05 0.00096190517 -9.629865e-05 0.00017806803 0.0016890562 -0.001923934
-0.0002988541 -0.00088783057 1.415747e-05 -0.00051697425 0.00018991431 -0.0005162795 0.0009416853 0.002482384
-0.0006916747 -0.00047114425 -0.0008763 7.8613324e-05 -4.8031994e-05 0.001365629 -0.0007348255 0.0015660148
-0.0013016304 -0.0007766087 -0.00014652891 -0.00010651451 -0.00020930359 -0.00050069886 -4.30206e-05 -0.00010123883
3.316569e-05 -6.898176e-05 -0.000551475 -5.5342875e-06 0.0032971222 -0.0004084421 0.00029698014 -6.9439346e-05
0.0007824154 -5.72623e-05 0.001603562 -2.283331e-06 0.0002617481 -0.0016557727 -4.74879e-05 8.1753686e-05
0.00016167262 0.00031409744 -4.1639723e-07 7.850477e-05 0.0006172188 0.00053364487 0.0002568405 -0.00066632614
0.000111904505 0.0019675882 0.00016679014 0.00076416257 -0.00020673513 -0.0005322947 -0.00018864073 0.00015075828
5.0525592e-05 0.00082638516 -4.2893902e-05 -5.421794e-06 -0.0016123456 -0.00035209264 -0.00024973537 0.0006622482
0.00041196865 -0.0006499115 -0.00082655734 -0.002352644 -0.0013172766 0.00044778315 0.00036819905 -0.00030450654
-0.0005263356 0.00014810522 -0.00088122947 0.00021022264 0.0006508558 0.00031582607 -7.809452e-05 0.0015982023
-0.0007038413 -6.665229e-05 -0.0004661579 0.00020971647 0.00022013967 -5.228376e-05 -0.00023975832 -0.00033346983
0.0010913244 0.0001895375 8.396918e-05 4.184707e-05 0.0024857868 0.00083849527 -7.7740944e-05 0.00042034715
0.0021090275 0.0016439625 0.001834069 -0.00012732916 -5.0241088e-05 0.00061480486 0.0011746549 -8.148077e-05
-0.0007207082 0.00078721304 -0.0022905474 6.113392e-05 0.00091290165 7.340141e-05 -0.00047070187 -0.00257862
-0.0012768266 -0.00076619606 0.00054803677 -0.0004805647 0.00013897645 0.00012004252 -0.00026021735 0.0008391995
