dlpg/20/weights/dlpg_model_weights_350.pth (torch, 363960 bytes, 15 tensors)

VQ.projection.weight f4 [100, 32]
00000000: 9bfe 84bd f508 033d d343 1f3e e7e1 0fbe
00000010: 86c5 96bb 7970 333e ac88 9dbd 3e99 0fbd
00000020: 4211 8bbc 0309 b83d e3d6 b23c d219 003e
00000030: 51a4 933c 45e6 a7bd 5bcd 193e efc9 2abe
00000040: 753c 80bd 29f6 273d 438a 6e3d 7ea5 113e
00000050: d0e8 c83c 6b5f af3d a434 c1bc 132e c63b
00000060: 5dbc 543d 3c12 cabd b85f db3d b4a5 1abe
00000070: e97c da3c 6011 2d3e 3d52 62bd 8bc2 2cbe
00000080: 7a3a f23d bbbb d6bd 635f c4bc 16f3 de3c
00000090: 416c 2e3d c3ae d1bc e6f4 253d fa99 013e
000000a0: 3239 02bd 7c95 bbbc 62fe b93d 6a8a 9b3d
000000b0: f936 873c f025 e93c 08bc ae3d 0c88 293e
000000c0: 0efc 64bc ac33 13be 1f12 fdbd 5159 debc
000000d0: c711 a23d 9683 d03d 1799 bebd 53f0 6a3d
000000e0: 6190 0fbe 6230 0a3e abaf 79bd 1f3a b83d
000000f0: 5ca8 913b b154 493c 07c6 293e b689 4b3c
00000100: 77ea 083e 5da2 9b3d fbd4 a63d 1891 1a3e
00000110: ba91 31bd a2d4 95bd 394f c3bb 194e 243d
00000120: c639 e7bd bf01 debc b3d7 28be f950 2ebe
00000130: 33e0 893d 2660 913c 8516 b0bd 05f1 e6bd
00000140: df5c 31be 0b61 2d3e 7311 ab3d 04ba b239
00000150: b26f b9bd e295 6dbd e57b 803d 3f36 253e
00000160: d160 c0bd 78a9 f83d 7259 803d 42f7 973d
00000170: 22bf cbbd 2812 1d3e 01a3 543d 19b0 ba3d
00000180: e8b2 3a3d 4b31 d1bd 147f 2b3e 5663 a03c
00000190: c570 8c3c 9fbf 0e3e 2a8e cc3d a50f e73d
000001a0: 17f7 1d3e 99d3 d13c ec36 fdbd 6bd5 a63d
000001b0: 2ca1 243d 7ddd d6bc 6a0c 3ebd 5cb8 95bd
000001c0: a980 08be 54e8 74bd 76c3 8d3d 9733 a3bd
000001d0: 4abc 013e 677b 4dbd 0979 e2bb 1a8c 2f3e
000001e0: 3425 20be b94c 103e e9e4 07be 3d0e 163c
000001f0: 8865 b6bd 0bef 65bd d126 c13d b415 833d
00000200: 9c8c 0f3e f55d cbbd 246d 99bd ac0e c1bc
00000210: 7604 f73d a53e f4bd 887e 20be e006 853d
00000220: b5cc 6dbd bab1 0cbd 4c67 253e 0e73 babc
00000230: 7ec2 30be 6eaa d3bd 9078 323d f2c5 81bc
00000240: 8073 93bd 1334 1bbd 4cec bdbd 7e5e d63d
00000250: ecd0 2b3e acaf bbbd 0d2d f13d 9fdc 81bd
00000260: eea8 d63d 0e6c 003e d398 4bbd 472a 5f3d
00000270: 88d3 8a3d 7f65 e13d 5774 453d 34df 5a3d
00000280: e783 0bbd c3d0 0c3e 9d69 cb3d 15c8 913d
00000290: cf77 8bbd 3fde a2bd c857 d2bd 6342 00bd
000002a0: 445f 083e 0b9c cd3d 7df1 25bd e02a bdbc
000002b0: 92d9 b0bd 66c7 2e3e 97fb 1c3e 05d1 b6bd
000002c0: 14b4 29bd 3755 11be 18f2 1b3e 5e93 05be
000002d0: f56d b1bd 6ab6 ce3d 95fe cfbd df1e ffbd
000002e0: 8f1d 963d 904d 2bbe 8a8a 2bbe f336 a63d
000002f0: 610c 0ebd efcd 063e 8632 97bd db9e 42bd
00000300: f7fc f4bc c54f c13d 7625 0fbe 608b 1cbe
00000310: dfab 7dbd 90d3 cfbd 74c3 46bd 3e25 29be
00000320: aa2e b1bc 2895 95bd b5d7 c6bd 7c96 ea3c
00000330: 6da0 9b3c 4a6e 5e3d 0d3e e33d bfee c0bd
00000340: 5dc5 8cbd f27f 153d f7ee bb3c d8a0 213e
00000350: 340c b83d 9337 1e3d 337b aebd 8669 c83d
00000360: cde5 1e3e 2c5a 2b3e dce6 9c3d d7fa 89bc
00000370: cd60 e43d 2a9f 96bd 86cb 19be cf51 e93d
00000380: be74 d03d b764 bf3d 745e 103e 6215 21be
00000390: 8a0c db3d d532 193d 8b63 33bd 4473 de3d
000003a0: b6cf 0dbe 0cd6 1cbd ac64 dcbd ea6f 27be
000003b0: c1e4 073e 39f3 ef3d 5bab dfbd e278 13bd
000003c0: e882 f03d c7e7 243e 894a b63c 2368 76bd
000003d0: c74e cfbc 656d d43d 40ca a03d 81eb b03d
000003e0: 3dd3 9b3d 97d4 83bc 385f 12be 5b67 013e
000003f0: 4b0c 7dbd df2b d4bc 554f 133e 64ef dbbd
-0.06493875 0.031990964 0.15553217 -0.14051019 -0.0046011833 0.17523374 -0.07692084 -0.035058253
-0.016976003 0.08986094 0.021830982 0.1250985 0.018022688 -0.08198217 0.15019743 -0.16678594
-0.06261531 0.04100624 0.058237325 0.14223287 0.024525076 0.085631214 -0.023584671 0.006047973
0.05193745 -0.09866759 0.10711616 -0.15102273 0.02667089 0.1690116 -0.05525421 -0.16871087
0.1182756 -0.104850255 -0.023971265 0.027215522 0.042583708 -0.025596028 0.040516756 0.12656394
-0.031792827 -0.022898428 0.09081723 0.0759476 0.016505705 0.028460473 0.08531958 0.16555804
-0.01397611 -0.1437518 -0.12356972 -0.027142199 0.07913547 0.10181348 -0.09306543 0.057358097
-0.1401992 0.13495019 -0.060958546 0.08995461 0.004445119 0.012288258 0.16579448 0.01242297
0.13370691 0.07599328 0.081460916 0.15094411 -0.043351866 -0.07315947 -0.005960372 0.040113542
-0.11290316 -0.027100442 -0.16488533 -0.17023076 0.06732216 0.017746042 -0.08598045 -0.112764396
-0.17320584 0.1693155 0.083529375 0.00034089398 -0.09054507 -0.058004268 0.06273631 0.16133974
-0.09393466 0.121416986 0.0626706 0.074202076 -0.09948565 0.15338957 0.051913265 0.09115619
0.045580775 -0.1021448 0.16747695 0.019578617 0.017143616 0.13940285 0.09988053 0.11282281
0.15426289 0.025613593 -0.12363991 0.08146175 0.040192768 -0.02622866 -0.046398558 -0.073105544
-0.1333033 -0.059791878 0.06922047 -0.07968824 0.12669483 -0.050166514 -0.006911401 0.17143288
-0.15639192 0.14091767 -0.13270916 0.009158668 -0.08906084 -0.056136172 0.09431232 0.06400624
0.14018482 -0.0993003 -0.0749152 -0.023566566 0.12061398 -0.11926011 -0.15673268 0.06495452
-0.058056552 -0.03434918 0.16152686 -0.02275994 -0.17261693 -0.10335241 0.04357201 -0.015841458
-0.07199764 -0.03789146 -0.09273586 0.10467242 0.16778916 -0.09164366 0.11776171 -0.06340908
0.104814395 0.1254122 -0.04970629 0.05448368 0.06778628 0.11005687 0.048206653 0.05343552
-0.03406134 0.13751511 0.099322535 0.07118241 -0.06809961 -0.07952546 -0.10270649 -0.03131331
0.13317591 0.100395285 -0.040513504 -0.023091733 -0.08635248 0.17068252 0.15330349 -0.08926586
-0.0414315 -0.14192663 0.1522907 -0.13044497 -0.08663551 0.100933865 -0.101559795 -0.1245706
0.073298566 -0.16728806 -0.16752067 0.081159495 -0.034679774 0.13164495 -0.073826835 -0.047514778
-0.02990578 0.09439043 -0.13979134 -0.15287542 -0.061931487 -0.10147774 -0.048526242 -0.16518113
-0.021628696 -0.0730384 -0.097091116 0.02863621 0.018997395 0.0543044 0.110958196 -0.09420537
-0.068735816 0.03649897 0.022941096 0.15784013 0.089867026 0.03862722 -0.08519592 0.09785752
0.1551735 0.16733617 0.076612204 -0.016843243 0.11151276 -0.07354577 -0.15019044 0.11392557
0.10178517 0.09345382 0.14098531 -0.15730813 0.10695751 0.037401993 -0.043796103 0.10861829
-0.13848767 -0.03829007 -0.10761389 -0.16351286 0.13270856 0.11716313 -0.10921355 -0.036003955
0.117437184 0.16104041 0.022252338 -0.060157906 -0.025306119 0.10372428 0.07851076 0.08638669
0.0760865 -0.016092582 -0.14294136 0.12637083 -0.0617793 -0.025899826 0.14385732 -0.107390195

VQ.projection.bias f4 [100]
00000000: 83f4 ff3c ec6d db3d 33ff e2bc c0ab d1bd
00000010: 549e 473d 4369 633d f1a9 c03c f2e3 98bd
00000020: 0742 77bd 1198 d1bc d693 83bb 93c6 a6bd
00000030: 661a e7bd e92e bb3d c5e0 a53d ff06 aa3d
00000040: a95e c3bd 92db 023d 8c46 febd b41b 773d
00000050: e31a 13bc 33f7 d63b e969 c2bc de9d 3fbd
00000060: 1cc9 213d 7b2d 8dbd 0bbd 153d 7845 a1bd
00000070: 796e a83c 738a 00bd e321 08bd 281e f6bd
00000080: 0581 a53c 0d3b c83d 1f49 b3bd fb8c a53b
00000090: 8e22 87bd 8897 0dbd b4fe 6d3d b60c 193d
000000a0: a6f4 c63d 5696 5e3d 2f33 3abd dee7 8e3d
000000b0: 70da 31ba ad2a cebd 8bce a53d 70c0 afbd
000000c0: 870b b53d 365b 943d 7db3 843d c042 37bd
000000d0: af22 593d a52a 64bb 8ca0 1ebc 2db1 d63c
000000e0: 8765 68bd 0b60 803d f84c 53bc be35 863d
000000f0: 67d3 a4bd 4cac c83d 7851 94bd 7a14 063d
00000100: 39be 6d3c ea45 f43c c389 903c 7c45 9bbd
00000110: 953f e33d cf40 35bc 2ed6 e43c bf9d b6bd
00000120: 99e4 db3d 5605 3b3d 8fbc 223d 2180 1cbd
00000130: a1f2 afbc 6df5 bf3d e6b7 bd3c 22fe cd3d
00000140: d2bd 2bbc 2aaa bebd b506 14bc c38c e838
00000150: 75b1 cd3b 296c bebd 461b 27bd 5075 9ebd
00000160: b26c 5ebc 530c 9dbc f452 85bd 55e3 ca3d
00000170: 1ffb 0dbd 612a 33bb be2b b7bd 372a f03c
00000180: 61c2 803c 8531 a53c 0c2e 9c3b 00de 29bd
0.031244522 0.10714325 -0.02770958 -0.10237837 0.048734978 0.055520307 0.023518534 -0.07465352
-0.060365703 -0.025585206 -0.004015426 -0.08143344 -0.11284332 0.09139807 0.08099512 0.08302116
-0.09539539 0.03194768 -0.124157995 0.060329154 -0.008978578 0.00656023 -0.023732143 -0.046781413
0.039498433 -0.0689344 0.03655724 -0.07874578 0.02056049 -0.031382035 -0.033235442 -0.120174706
0.020203123 0.09776888 -0.08754181 0.0050522066 -0.06598388 -0.03456834 0.058104232 0.037365638
0.09714632 0.05434259 -0.04545897 0.06977819 -0.0006784564 -0.100667335 0.080960356 -0.085816264
0.08840089 0.072439596 0.06479547 -0.044741392 0.053011592 -0.0034815457 -0.009681832 0.02620753
-0.05673745 0.06268319 -0.012896769 0.06553219 -0.08048134 0.09798488 -0.072421014 0.03273437
0.014510685 0.029818494 0.017643815 -0.075816125 0.11096112 -0.011062815 0.02793416 -0.089168064
0.10736961 0.045659386 0.039730605 -0.03820813 -0.021478 0.09372983 0.023158979 0.100582376
-0.010482268 -0.093098 -0.009034802 0.00011088841 0.006277258 -0.09297974 -0.040797494 -0.07737219
-0.01357572 -0.019170916 -0.06509963 0.099066414 -0.034663316 -0.0027338492 -0.0894389 0.029317005
0.015717687 0.020165214 0.0047662314 -0.04147148

VQ.embedding.weight f4 [100, 32]
00000000: d294 5d3d faa3 1f3d 070e 9c3c e378 68bd
00000010: ae7a 0abd 8166 37bd 72de 2b3d de53 0dbd
00000020: 77ce 1dbd 1f82 42bd 6ed3 d93c b7ee 01bd
00000030: b592 db3c cf3b 323d 54e6 2cbd e42a 333d
00000040: fa0c 023d 5d9b 413d f459 3f3d 437c 4fbd
00000050: d061 313d 3714 1e3d a5e4 233d d378 0f3d
00000060: 820f 283d 332b 2abd 34d7 1c3d fce4 4b3d
00000070: 4279 37bd 7800 47bd d214 f1bc 0814 223d
00000080: a37c 783d 03b9 0a3d 2110 1e3d 81e9 4ebd
00000090: 6dbe 06bd 3873 4cbd c6cf 563d b850 dabc
000000a0: f10e 5cbd 4fb0 67bd 229f 2f3d e0b9 17bd
000000b0: 79d5 063d 6882 2f3d 6818 71bd e0aa 4e3d
000000c0: df3c ec3c 2560 473d e88e 453d 5ff1 37bd
000000d0: 949b 473d 2d06 613d a381 0e3d c477 6c3d
000000e0: 28ce 163d 1511 28bd da6b 253d 06c6 593d
000000f0: b2bb 46bd dd31 47bd 42dd d7bc b5d4 533d
00000100: 11cd 3d3d 4b5d 9f3c 005a c03c fb25 44bd
00000110: 04c2 26bd 1597 fcbc b066 693d b143 90bc
00000120: ed9f 53bd 1608 41bd c39b 523d e828 29bd
00000130: 055b dd3c 78af 1d3d c0c9 7fbd a2dc 5a3d
00000140: e0e3 c13c 384b 773d 6975 543d 784c 53bd
00000150: 2d6f 573d 5dd5 523d db51 f43c aab7 433d
00000160: 32c5 1b3d 1efd 50bc 169d 4d3d 0666 3b3d
00000170: 8ec1 eabc 10e5 43bd c2a2 91bc c9ce 173d
00000180: 7285 523d 302e 2a3d 9f87 f03c d5cb 7cbd
00000190: 006c 48bd 1098 59bd 6202 8a3d d7cf 18bd
000001a0: 5983 65bd 266c 37bd 3d83 5b3d 83d8 3bbd
000001b0: af54 153d 29a3 2f3d 12cb 70bd ae52 893d
000001c0: a63d 1c3d 7e83 503d 21f8 543d e096 5cbd
000001d0: 22dd 4f3d a7de 533d c90d 503d f6be 413d
000001e0: fa35 5f3d f89f cfbc 29a2 6a3d 5d4d 223d
000001f0: 48e1 1ebd b44c 86bd 403f e2bc abb5 403d
00000200: 07e5 4d3d 37b8 b53c 6b1f 9f3c 1044 57bd
00000210: 2ca4 cfbc 67f9 1fbd 9099 693d 6213 acbc
00000220: 5cc9 4dbd fd46 1abd 8437 363d 2156 0abd
00000230: b0ee 153d d81c 243d 2bc2 5abd 643a 373d
00000240: be9b e93c b73d 433d cdc9 533d 8b2e 29bd
00000250: cfd3 643d bc8c 533d 0372 033d 5f05 4f3d
00000260: 22a7 d83c 2004 dbbc 6683 343d 8e19 1a3d
00000270: 107f 1dbd 026f 2ebd 497e 19bd 20a8 3e3d
00000280: a061 3e3d 5890 bd3c d091 823c 3676 8dbd
00000290: 31bf 32bd 4450 19bd 283f 703d a825 11bd
000002a0: 71bd 3dbd a975 56bd b693 303d 47dc f0bc
000002b0: 4a47 c93c 59fc 483d 28e4 88bd 6e6a 773d
000002c0: 658b e43c 3245 523d 564b 353d 51a6 5fbd
000002d0: 3ea7 653d 0f3f 813d 13bb 453d df6d 643d
000002e0: 1eeb 103d 5c63 dcbc adef 723d c67c 563d
000002f0: 4e47 0fbd efba 7cbd b754 e7bc 24b4 663d
00000300: 18dc 033d 4dd4 cc3c 8c05 d43c 8762 37bd
00000310: 38d6 e1bc c018 e8bc 127d 3f3d 724d fabc
00000320: 26f6 1cbd b404 14bd a554 353d 2807 20bd
00000330: 31e9 b43c eb9a 2f3d 4e78 69bd 46fe 643d
00000340: e805 a13c 6146 133d 4481 3d3d b8ca 34bd
00000350: e9e2 153d 2e20 213d 450b 1a3d 4cb4 0b3d
00000360: 609d 033d 10b9 a7bc 3dcc 1f3d ffa9 323d
00000370: b29d bebc f834 1cbd 5e0e 06bd 0ea8 023d
00000380: b13c 543d d04b a03c 8718 623c 2c76 3fbd
00000390: 4111 eebc 99ff 21bd 9447 793d 290b dabc
000003a0: 73d4 0fbd cfe6 63bd a0e3 6a3d e2aa 28bd
000003b0: 20c3 9a3c 3e10 563d 3e89 68bd 4f0e 4b3d
000003c0: 752c 383c 6433 4d3d 56cc 453d 3f8b 28bd
000003d0: 6ff8 783d 71ca 3a3d 0bf7 093d 6748 4c3d
000003e0: 3462 ff3c 6283 01bd cac4 413d 01f6 273d
000003f0: ea98 e2bc db83 60bd 4713 d7bc 0867 283d
0.054097004 0.03897474 0.019049658 -0.05675591 -0.033808403 -0.04477549 0.041960187 -0.03450381
-0.03852698 -0.047487374 0.026590075 -0.031721797 0.026803354 0.04351407 -0.042211846 0.043742076
0.031750657 0.047267307 0.046716645 -0.050655615 0.043306172 0.038593497 0.040012974 0.035027336
0.041030414 -0.041545104 0.03829117 0.049778923 -0.044793375 -0.04858443 -0.029428873 0.039569885
0.060665738 0.033867847 0.0385896 -0.050515655 -0.032896448 -0.04991457 0.052444242 -0.026649818
-0.053725187 -0.056564625 0.04287637 -0.0370425 0.032918427 0.042848974 -0.058861166 0.050455928
0.02883762 0.048675675 0.04823199 -0.044907924 0.048732355 0.05493753 0.0347916 0.057731405
0.0368177 -0.041031916 0.04038606 0.053167365 -0.048518844 -0.048631538 -0.026350621 0.051716525
0.046338145 0.019453665 0.023480415 -0.047887783 -0.04071237 -0.03083376 0.056982696 -0.017610403
-0.05166619 -0.047126852 0.051418077 -0.041298777 0.02702094 0.03849742 -0.062448263 0.053433068
0.02366823 0.06037447 0.051869784 -0.0515866 0.05259626 0.05147301 0.029824188 0.047782578
0.038029857 -0.01275566 0.050198637 0.045751594 -0.028656747 -0.047825873 -0.017777804 0.03706244
0.051396795 0.041547954 0.029361544 -0.061717827 -0.04893112 -0.053123534 0.06738736 -0.037307587
-0.056033466 -0.044780873 0.053591955 -0.04586078 0.036457714 0.04288021 -0.058787413 0.06705223
0.03814473 0.05090665 0.051994447 -0.053854823 0.050747998 0.05172601 0.050794397 0.047301255
0.054494835 -0.025344834 0.057283554 0.03962456 -0.038789064 -0.06557599 -0.02761805 0.047048252
0.050267246 0.022182567 0.019424161 -0.052555144 -0.025346838 -0.039056208 0.057031214 -0.021005336
-0.05024086 -0.037665356 0.044486538 -0.033773545 0.036604583 0.04006657 -0.05340783 0.04473342
0.028516646 0.047666278 0.051706124 -0.041304152 0.05586606 0.051647887 0.032091152 0.05054223
0.026446883 -0.026735365 0.044070624 0.037622027 -0.038451254 -0.042586334 -0.03747395 0.046547055
0.04647982 0.023140118 0.01593867 -0.069073126 -0.043639366 -0.037430063 0.05865398 -0.035436302
-0.046323244 -0.052358303 0.043109618 -0.029401911 0.024570126 0.049068782 -0.06684142 0.060404234
0.0278985 0.05133552 0.0442613 -0.05460197 0.056067698 0.063108556 0.04827411 0.055768844
0.035380475 -0.026902847 0.059310604 0.052365087 -0.03498011 -0.06170171 -0.028238637 0.05632414
0.03219232 0.025003577 0.025881551 -0.044771697 -0.027567968 -0.028332114 0.046750136 -0.030554507
-0.038320683 -0.036137298 0.044270176 -0.039069325 0.02208385 0.04287235 -0.056999497 0.055906557
0.019656137 0.03595579 0.046265855 -0.04413864 0.03659335 0.03933733 0.037608404 0.03410749
0.032132506 -0.020473987 0.039013136 0.043619152 -0.023268554 -0.038136452 -0.032728545 0.03189855
0.051815692 0.0195674 0.013799793 -0.046743557 -0.029060962 -0.039550398 0.060859278 -0.02661665
-0.035114717 -0.055640038 0.057345986 -0.04117859 0.018891871 0.052261584 -0.05677151 0.049574193
0.011241068 0.050097838 0.048290573 -0.04114842 0.0607838 0.04560322 0.033682864 0.049873736
0.031174757 -0.031619437 0.047306813 0.041006092 -0.027660806 -0.054813247 -0.02625431 0.041113883

cvae_parameters.dec_00_lin_b f4 [128]
00000000: 3ccc 7a3c feb0 063c 1991 743c 0000 0000
00000010: 0000 0000 e114 9cbb 506c af3b cda0 b33b
00000020: 0000 0000 0000 0000 0000 0000 566c 23bc
00000030: dd4c 593c 0000 0000 6337 953c c557 bbbb
00000040: 0b1b 9d3b 0000 0000 0eca b5bb 0000 0000
00000050: 0000 0000 0000 0000 2d89 bf3b cfcd 773d
00000060: 4229 e63b 00a6 30bb 0000 0000 0000 0000
00000070: 0000 0000 0000 0000 4404 16bc 0000 0000
00000080: 0000 0000 54f7 51b7 e157 bcba 0000 0000
00000090: 0000 0000 6ac3 4b3c 0000 0000 0ab8 03bb
000000a0: 0000 0000 a6b3 7b3c 0568 8cbb 0000 0000
000000b0: d8c4 aa3c 0000 0000 bfb8 0d3c 0000 0000
000000c0: 0000 0000 0000 0000 d696 00bb 6fab b73b
000000d0: 0000 0000 2aeb 8dba 0000 0000 0247 723c
000000e0: 0000 0000 bffb 613d 0000 0000 f6d9 f2bb
000000f0: 07b9 fd3d b0ad ffbb 7751 49bb e8be b7bb
00000100: e638 f4bb 0000 0000 0000 0000 c1aa 9c3c
00000110: 9938 b9ba 0000 0000 bfd6 78bb 9ac1 84bb
00000120: 0000 0000 3dd4 533c 5e5a 013d 0000 0000
00000130: 0000 0000 0000 0000 748c b63c 533c 433c
00000140: 59bf d3ba e1a6 1bbc 69f6 933b d239 293d
00000150: faf2 e1bb a19c 8eb9 0000 0000 526c 95bb
00000160: 0000 0000 e7f7 9c3c ee0b 463d 0000 0000
00000170: 7238 8f3b 0000 0000 0000 0000 f8ba 09b9
00000180: 0000 0000 f069 a3b9 2640 8c3c 0000 0000
00000190: 0000 0000 f2c9 bdbb 0000 0000 b92d 913b
000001a0: e059 c2b9 9f74 ae3c 0000 0000 0000 0000
000001b0: d4b8 e83c eb3b 6dbb aca7 4cba 419a 6a3c
000001c0: 0000 0000 0000 0000 0000 0000 8a01 24bb
000001d0: 0000 0000 0b82 86bb 06b6 17bb 141a c0bb
000001e0: 5f47 98ba e9f3 843c 834d 943c 3cc1 8e3c
000001f0: 965d 79bb 8fb7 113c 0000 0000 8511 b03b
0.015307482 0.008220909 0.014927172 0.0 0.0 -0.004763231 0.005353488 0.0054818154
0.0 0.0 0.0 -0.00997456 0.013262955 0.0 0.018214887 -0.00571725
0.0047944835 0.0 -0.0055477684 0.0 0.0 0.0 0.00584521 0.06049901
0.0070239613 -0.0026954412 0.0 0.0 0.0 0.0 -0.00915629 0.0
0.0 -1.2514956e-05 -0.0014369452 0.0 0.0 0.012436727 0.0 -0.002009871
0.0 0.015362656 -0.004284861 0.0 0.020845816 0.0 0.008650004 0.0
0.0 0.0 -0.0019621155 0.0056051533 0.0 -0.0010827531 0.0 0.014787437
0.0 0.055171724 0.0 -0.007411237 0.12388807 -0.0078026876 -0.0030718723 -0.0056074746
-0.007453072 0.0 0.0 0.01912439 -0.0014131247 0.0 -0.0037969796 -0.0040513994
0.0 0.0129290195 0.03158032 0.0 0.0 0.0 0.02228377 0.011916238
-0.0016155049 -0.009500236 0.0045154584 0.041314907 -0.00689542 -0.00027201048 0.0 -0.004560032
0.0 0.019161178 0.04835122 0.0 0.0043707425 0.0 0.0 -0.0001313499
0.0 -0.00031168712 0.017120432 0.0 0.0 -0.005791896 0.0 0.0044304994
-0.00037069526 0.021295844 0.0 0.0 0.028408445 -0.0036199044 -0.00078069675 0.014319004
0.0 0.0 0.0 -0.0025025331 0.0 -0.004104858 -0.0023149266 -0.0058624838
-0.001161795 0.016229587 0.018103367 0.017426126 -0.0038050166 0.008893861 0.0 0.0053731822

cvae_parameters.dec_00_lin_w f4 [128, 35]
00000000: ee5e a0bd aa2b 95bc 3345 e2bc 8888 8d3d
00000010: f6e4 683d 90a4 5a3d 3f97 8dbd 28a1 dc3c
00000020: 2e56 5c3d f1fb 9f3d 7e60 8fbd 3b10 253d
00000030: d595 1fbd 0161 1fbd 1c12 a33d 0edc adbd
00000040: 1fbc 7dbd 72b7 7bbd e24d 79bd 2f61 823d
00000050: 3534 89bd 474b 8fbd e1c2 5ebd ceb6 93bd
00000060: 004c 74bd 6f5f 253d 29c4 a8bd 6ba2 2dbd
00000070: 35b1 173d 6fd3 923d b940 123d 030c 6dbd
00000080: e2fa a4ba af1f b73c 9449 a2bb 4e14 72bd
00000090: f984 04bd b292 fcbc 0201 1b3d b018 2e3d
000000a0: c151 123d 58c9 86bd 57d0 773b 8dcd 853d
000000b0: 489c 733d 07b6 4cbd beae 433d 6323 2abd
000000c0: 4f10 4abd 6243 6b3d 84fa 76bd 4b0e 8cbc
000000d0: 69c0 6dbd a23a 63bd 0532 8d3d 09a7 10bd
000000e0: 2aa0 86bd 0022 4fbd 4935 6dbd 28c0 13bd
000000f0: 00a5 453d 00cf 5dbd da60 5dbd 1464 263d
00000100: 2169 463d 6ade 273d 7ebd 79bd ce92 623a
00000110: aad7 903c c540 d5bb f799 7fbd ef79 86bd
00000120: 480d 73bd a7c5 a83d 564a b43d 30e5 8b3d
00000130: 4a5e a0bd f600 9f3d 28c0 ab3d 3699 a23d
00000140: 9a00 c1bd 396c be3d 1ceb 7fbd 114a 99bd
00000150: 8bcd d13d 7c9d bebd 2870 26bd d656 adbd
00000160: 86f8 85bd f66a 903d 3740 c8bd 2a00 91bd
00000170: 8e9a 9ebd aa59 bfbd 14ff 62bd 4bad 323d
00000180: c859 a3bd 809f 8abd 63c6 953d d953 c33d
00000190: 3138 703d 98cc 90bd 2fa9 b53a 0c27 f03c
000001a0: ef65 543c a5ea 533b 6106 ee3b b378 a838
000001b0: 82b8 973b 0e83 9dbb 4928 a5bc d49e 123b
000001c0: a0f7 4f3b 9b55 b43b a324 92bc e6d9 f0ba
000001d0: 9710 863c daae 92bb 523b dabb fef6 3d3c
000001e0: 4408 013c 2433 a239 75b4 31bb 1708 10bc
000001f0: d7d3 d4ba 9e67 b53b f0c3 1ebc 9974 d73c
00000200: 4e7f 79bc a1c1 edbb 5e5a bb3a 7392 673b
00000210: d0e2 403b 3f58 a0bc 636e 11bc dd49 b63b
00000220: 07d5 b1ba 0385 753b a791 d6bb 8913 f83b
00000230: 2e7d 543b b754 cbbb b08a c03b 5378 fabb
00000240: 857f ed3b e920 79bb 1793 043c 8f5e c43a
00000250: 6c16 04bc 8373 0fbc cb54 e33a 9212 7fbb
00000260: 909b 053c 7a5d 9e3c 8fd6 373b 4c8d fcbb
00000270: 9d70 063c 8903 1f3b 3f09 863a d124 223c
00000280: bc7d 923b 8653 b2bb 26f2 82bb b932 b1bb
00000290: 1474 89bb 536c 953b 6d54 20bc c621 463a
000002a0: 72f9 a2ba 605f b83b d272 e8b9 4b95 2d3c
000002b0: e79b 153c 6c64 d9bb f882 23bb 1712 aabc
000002c0: 7c61 efbc 1d58 d9bc 288f f73c 66ee 253c
000002d0: 7e11 7d3c f463 00bd 4469 793c 0620 383d
000002e0: 3f47 913c 543e 1ebd a977 5e3c 23a9 b9bc
000002f0: 04af 93bc 0c31 a03c ab79 ecbc d292 e2bc
00000300: 6c0f f9bc c658 eebc 345a 8a3c ea3e d6bc
00000310: 1cf8 7bbc ed85 4fbc 2555 fabc e756 89ba
00000320: 5032 b33c 00f5 26bb b90b a1bc dd21 403c
00000330: 3627 fb3c ef40 aa3c 08da 18bd 343f 34bb
00000340: eae6 62bb 4e72 3ebc e2f2 2abd 148c 18bd
00000350: 6018 cdbc 0ff2 8b3d 2cb0 473d 44e8 dc3c
00000360: cf6b a2bd f68c f13c 90da 3c3d 1b07 4f3d
00000370: 0482 a2bd 54f7 3a3d 85c8 86bc 4232 83bd
00000380: 1512 a63d 9831 afbd eae3 9fbc 3bbf 86bd
00000390: b96a 5abd b0e5 9f3d eae9 8fbd dc15 82bd
000003a0: 90b8 62bd 2447 9bbd b3d2 21bd b0de 1b3d
000003b0: 3103 82bd d588 33bd 209a 503d 0100 a23d
000003c0: 8ae1 743d 13f7 73bd 7a18 17bc a1fa 773c
000003d0: 9b5e 923c 5340 e3bc 92ee 03bd b45b c3bc
000003e0: 57ab 743d c2c6 bf3c 11f7 633d 936b 7abd
000003f0: b204 223d 4fce 333d 9a66 933d 4eab 24bd
-0.078306064 -0.018209297 -0.027620887 0.06910807 0.05685898 0.053379595 -0.069136135 0.026932314
0.053793125 0.07811726 -0.07000826 0.04029868 -0.03896125 -0.03891087 0.079624385 -0.08489238
-0.061946984 -0.061454244 -0.06086529 0.063661925 -0.06699411 -0.0699678 -0.05438507 -0.072126016
-0.05964279 0.040374216 -0.082405396 -0.042391222 0.037034232 0.07169234 0.035706256 -0.057872783
-0.0012586976 0.022353975 -0.004952619 -0.059101395 -0.032353375 -0.030831669 0.037842758 0.042504013
0.035722498 -0.06581372 0.003781339 0.06533346 0.059475213 -0.049978282 0.04777407 -0.041537654
-0.04933196 0.057437308 -0.060297504 -0.01709666 -0.058044825 -0.05547584 0.06894306 -0.035315547
-0.065735176 -0.050569534 -0.057912145 -0.036071926 0.04825306 -0.05415249 -0.054047443 0.040622786
0.048440102 0.040983595 -0.06097173 0.00086430914 0.017680962 -0.0065079653 -0.06240269 -0.06566226
-0.059338838 0.08240824 0.08803241 0.068308234 -0.07830484 0.07763855 0.0838626 0.07939379
-0.09423943 0.092979856 -0.062480077 -0.0748483 0.10244282 -0.093073815 -0.040634304 -0.08463828
-0.06541543 0.07051651 -0.09777873 -0.070801094 -0.07744323 -0.09343274 -0.055419043 0.043622296
-0.07976109 -0.067687035 0.0731323 0.09537477 0.05864734 -0.07070273 0.0013859625 0.029315494
0.012963756 0.0032335904 0.007263944 8.033346e-05 0.0046301493 -0.0048068827 -0.020160811 0.00223725
0.003173329 0.005503369 -0.017839735 -0.0018375486 0.016365333 -0.0044764103 -0.0066599036 0.011594532
0.007875506 0.0003093715 -0.0027115617 -0.008790991 -0.001623745 0.005536034 -0.00969027 0.026300715
-0.015228106 -0.0072557484 0.0014293899 0.0035335093 0.0029432066 -0.019573329 -0.008876416 0.0055630044
-0.0013567515 0.0037463314 -0.006548125 0.007570688 0.0032423246 -0.006205167 0.005875908 -0.0076437383
0.0072478675 -0.0038014 0.00809171 0.0014981794 -0.008061986 -0.0087555675 0.0017343996 -0.003892098
0.008154765 0.019331682 0.002805147 -0.0077072736 0.00820556 0.0024263582 0.0010226144 0.009896473
0.004470555 -0.0054420857 -0.0039961515 -0.005407658 -0.004194746 0.0045600324 -0.009785754 0.0007558133
-0.001243396 0.005626604 -0.00044336036 0.010594676 0.009131408 -0.0066342857 -0.002494989 -0.020760579
-0.029221289 -0.026531273 0.03021963 0.010127639 0.015446065 -0.031345323 0.015222851 0.044952415
0.017734168 -0.03863366 0.013578334 -0.022663658 -0.01802779 0.019554637 -0.02886661 -0.0276579
-0.030402862 -0.029095065 0.016888715 -0.026153047 -0.015378978 -0.012666208 -0.030558178 -0.001047817
0.021874577 -0.0025475621 -0.01965891 0.011726824 0.030658346 0.020782916 -0.037317306 -0.0027503492
-0.0034622499 -0.011623932 -0.041735537 -0.037242964 -0.025036037 0.068332784 0.048751995 0.026966222
-0.07930719 0.02948616 0.046106875 0.050543886 -0.07934955 0.045646027 -0.016453037 -0.0640607
0.081089176 -0.08554381 -0.019517858 -0.06579443 -0.053324435 0.07807481 -0.070270374 -0.063518256
-0.055351794 -0.07581928 -0.03950758 0.03805417 -0.06348265 -0.043831665 0.050928235 0.07910157
0.059785403 -0.0595618 -0.009222144 0.015135438 0.017867377 -0.027740633 -0.03220994 -0.023847438
0.059733715 0.023410205 0.055655543 -0.061137747 0.03955526 0.043897923 0.07197304 -0.04020243

cvae_parameters.dec_01_lin_b f4 [128]
00000000: a08e d9bb ea80 98ba e5ce 293e d71c ebb8
00000010: 58b5 9fbb ddad 63ba 1e98 773d da2a 43ba
00000020: 425d f0bb 72ff 16bb ea47 75ba 883a 99bc
00000030: ef3b cfbb b040 e4bb 8660 443e e8a2 c9ba
00000040: 9808 0db9 2295 00bc 290e 31bc 20dc 3a3d
00000050: c64b 06bd bc3a 093a 4a8d ffb9 ed6a 90ba
00000060: 541b 41ba ff2c 47bc 58ad 8fba a2d7 1d3e
00000070: aa92 33ba c761 08bc 0ac3 c8bb 3693 10bc
00000080: b370 1fb9 8b1c 07bc 9868 67bb 4a1c 76bb
00000090: 73e4 cdba 7f4c 5bbc fa4b a6ba deaf 233e
000000a0: 6064 95ba b90d 8eba 3250 d3bc 1f45 31bb
000000b0: f2bd 0abb bbb9 f5bc 7cb9 f2bb db99 3c3e
000000c0: 8e21 eabb a297 faba 2e25 8cbb 8575 393e
000000d0: a35e 8cbb a087 14ba 7cb0 e63c 951b f03d
000000e0: 3065 b4b9 fbb9 24bc 62b9 11bb a781 93bb
000000f0: ca2c 93b9 46f2 03bc 3da5 2abc ff78 ceba
00000100: 44e0 e9ba 7a2c e4ba c05c 273c 0000 0000
00000110: e685 7abc 9ead 43ba b479 d1ba 4b2a 86bb
00000120: 3ad9 85b9 5563 9aba 579e 75bc fe94 16bd
00000130: ed92 30bb 4844 32bb cebf 08bb adee 08bc
00000140: 6bce 99ba 0f22 1ebc 30d8 eebb 8ab5 d43d
00000150: 009f 26ba d58f 82ba 94b5 95bc 0000 0000
00000160: 4db7 1a3c a622 36bb 87f4 443e f2b6 48bc
00000170: 5582 abba b9be cfb9 0d35 023b 2632 093a
00000180: 8402 04bb 425e caba 67ee ab3d 05c7 d2ba
00000190: fbba 283e ead6 3d3e e363 2fbc 019f 07bc
000001a0: 46b6 c5bb e7f0 1db9 cefb 73bc 70bd b1b8
000001b0: affb 91bb 937a d93d d2d3 0cbb dc39 b33d
000001c0: c019 0dbb dee9 9cb9 f47c f3b9 b55a bdbb
000001d0: 62a6 02bc 2aa3 c3ba ed63 0d3e c4dd 1ebb
000001e0: 0000 0000 8cba d7ba 20db eaba c4bb e3ba
000001f0: 9124 67bb 2007 36ba 1469 06bc 3a1c 64b9
-0.0066393167 -0.0011635099 0.1658283 -0.00011211045 -0.004873913 -0.00086852704 0.060447805 -0.0007445045
-0.007335336 -0.002304044 -0.00093567243 -0.018704668 -0.0063242833 -0.006965719 0.19177446 -0.0015383633
-0.0001345001 -0.007848056 -0.010806599 0.045620084 -0.032787107 0.00052348874 -0.0004874266 -0.0011018194
-0.0007366438 -0.012156724 -0.0010961695 0.15414289 -0.0006850163 -0.008324093 -0.006126766 -0.00882416
-0.00015205405 -0.008246551 -0.0035310145 -0.0037553483 -0.0015708342 -0.013384937 -0.0012687438 0.15985057
-0.0011397712 -0.001083783 -0.025795076 -0.0027049256 -0.0021170345 -0.02999579 -0.0074073654 0.18418066
-0.0071451133 -0.0019118676 -0.004276893 0.18111236 -0.0042837425 -0.00056659617 0.028160326 0.11724011
-0.00034407666 -0.010054107 -0.002223574 -0.0045015397 -0.00028071395 -0.008053368 -0.010415372 -0.0015752612
-0.0017843326 -0.0017408275 0.010214984 0.0 -0.015290713 -0.00074645306 -0.0015981705 -0.004094397
-0.00025529583 -0.0011778871 -0.014991364 -0.036763184 -0.0026943043 -0.0027201343 -0.0020866278 -0.008357686
-0.0011734491 -0.009651675 -0.007288955 0.10386188 -0.00063560903 -0.0009961078 -0.01827506 0.0
0.009443116 -0.0027791648 0.19233905 -0.012250649 -0.0013085107 -0.00039624216 0.0019868047 0.0005233608
-0.00201431 -0.0015439468 0.08395081 -0.0016081041 0.16477577 0.18539014 -0.010704967 -0.008277656
-0.0060336916 -0.0001506243 -0.014891578 -8.475303e-05 -0.004455052 0.10619082 -0.002148856 0.0875127
-0.002153024 -0.00029928883 -0.0004644167 -0.0057786354 -0.007974239 -0.0014925946 0.1380765 -0.002424107
0.0 -0.0016458794 -0.0017918088 -0.0017374684 -0.0035269598 -0.0006943811 -0.0082037635 -0.0002175429

cvae_parameters.dec_01_lin_w f4 [128, 128]
00000000: e957 4d3c 5974 bfbc 1c9c 99bb 18ef 6bbc
00000010: affb 0b3c 0d52 15be b68d 8cbc b05a 54bd
00000020: f0d7 44ba 709a a83a 973f 33bb 43ac 03bd
00000030: c6e4 383c 9c82 783c a1f2 bdbc 4e30 2bbd
00000040: aad4 ebbc 94a1 8e3b dc46 13bd e91c 273b
00000050: cbb4 1dbb b74e 82bb 8981 1fbd c831 01bd
00000060: e20e 7dbd f57c ac39 2d9e 4a3c 4216 8f3c
00000070: c3c4 1abc 3880 3ebc 0773 ba3a cbe6 30bc
00000080: c22f 113c 12c0 9abc 9819 74bc 994e bbbb
00000090: 8aac 6c3c c133 bebc 5919 a53c 3aa8 ddbc
000000a0: 6bd2 0b3c 44fc f1bc d36f 09be 9b38 14bb
000000b0: b0b6 21bd 8c34 213c 8d1b 04bd 42f0 263b
000000c0: dc66 cd3b 9fdc 02bb 2804 0f3b 9a98 2cbd
000000d0: 4e4c 59ba f9f6 73bc c52f 5abc 86ae 2b3b
000000e0: 5b41 dcbb 128b b93d febf 60bc bb0d 50b9
000000f0: 4f5d 54bd fe35 b0bc 19ef 1fbc 7bf0 0ebb
00000100: 2b12 b9bc eb42 d8bb 7742 95ba e97b 7cbd
00000110: 55e1 c3ba fbb9 13bc 67e3 ccbc 4760 be3a
00000120: d3d3 4bbb 7f8b a4bc d3e8 69bd c962 ce3b
00000130: 41ad b8ba 0f5a 26bc 5713 5d3b 02c1 30bd
00000140: 79a2 9cbc 2f88 6cbc e37b 0fbd ab92 543d
00000150: b64a 05bc 7dba 56bc 24d4 27bc d71c cfbc
00000160: 3ddc 80ba e736 a3bc 4562 7f3c 7b36 8dbc
00000170: aa77 f8bc a148 453a a177 653c 8593 95bc
00000180: d02b 36bc 699c d8bc b59d fbbc 984c 85bb
00000190: 1346 6b3b ce4a 1fbc c4b0 36bb ca49 c3bd
000001a0: 9a3d bcbb a368 2dbd f07d f23b 9354 ff3b
000001b0: f4c9 48bd 77a4 d1bc 314d d7bb de4b 6bbd
000001c0: 6ef2 653c 4fe6 f13b 1466 9e39 46d8 80b8
000001d0: 9d4c 84bc 6c3b afbc e8f0 2ebb 062f 46bc
000001e0: 0cad 1bbd e987 0abd caed 05bd e178 ecbc
000001f0: ce74 24bc 2c37 edbc 1442 283c d04b 6abc
00000200: a726 1cbd cc50 98bb 22e3 00bd 7038 c639
00000210: e81f 113c 2495 cdbd b29f 83bd f666 f6bb
00000220: 8b2b 04bb 1c79 26ba c488 983b dbfc a1bb
00000230: 975b bfbc 1e83 da3b c8eb 9bbc 7e6a 88bc
00000240: 6682 8fbd d94f cfba 6ffd 3ebb 95b6 453a
00000250: 5c87 bb3b c34e 073b f4d4 0b3c 8e4f 90bc
00000260: c9b3 34bd f9c7 3abc 2a85 bbbb 461e 273c
00000270: 6338 f13b dbbd c0bc e67d c4bb 1e26 0fbb
00000280: 828e 21bc 0ea6 91ba dbb2 85bc c9c7 e53a
00000290: 6358 7fb7 ec9c 3abc 612a 49bc e036 703b
000002a0: e18e ed3c 4338 febc 040a 7abd b892 833c
000002b0: e480 fa3c 8a81 8abb ea3c 21bc 8da7 a03b
000002c0: e72a 333c 8f8b 5c3c 7e06 69bc 7f82 1a3c
000002d0: de4d 08bc 5bfc 493c 9761 94bb 084c e6bc
000002e0: 5262 3e3c 4c80 49bd 19cd 493b 647b 1ebc
000002f0: fb72 ccbd 40ad 6d3a 18f8 fcbb 350d ebbb
00000300: ed78 363c 003a 2c3c 959f 03bc ece9 7c3b
00000310: 29b9 54bc 19d1 73bc 546a f4ba f34b 923c
00000320: f361 5d3b 60c2 32bc f59e 043d 15c0 39bc
00000330: 2b45 ec3b f7c0 f3bb 93c8 a1bb cd4e 11bd
00000340: 7ecc d834 7cbd 01bc f8c8 c23b ce2d 033d
00000350: d208 21bd ee91 f3bc f765 c2ba 2eae f63b
00000360: a22c 0ebc 8a27 93bc 5a01 d23c fc47 51bc
00000370: 6c48 11ba 73ec a13b 2bb8 393c 42c3 17bc
00000380: 7d61 14bc 8ebf c1ba 49a6 aebc 4e5e 563b
00000390: ce3d 103c 31ca e1ba eeb4 92bb 24d6 7ebc
000003a0: a3c3 d63b abaf d0bc 931c c53a 38dc d7bb
000003b0: 2312 d13c b637 883b 0b94 fbb8 db8e 0dbd
000003c0: 8703 2cbc 05cd 34bc bda0 8cba b9d8 10bc
000003d0: c108 fa3b 87e2 173a d6f0 973b 7870 2f3a
000003e0: 48ea 95bd cada 6ebc af95 9cbb 8b5e 04bd
000003f0: e60b a63b dcf9 ae3c f81c 63bb 92f5 0dbc
0.012533166 -0.023370909 -0.004687799 -0.014400266 0.008543893 -0.14582081 -0.017157417 -0.0518443
-0.0007508984 0.0012863409 -0.0027351135 -0.032146703 0.011285013 0.015167858 -0.023186984 -0.041794114
-0.02878793 0.0043527577 -0.03595625 0.002549941 -0.002406406 -0.0039766687 -0.038941894 -0.031541616
-0.06178177 0.00032899497 0.012366814 0.017466668 -0.009446326 -0.011627249 0.0014224955 -0.010797213
0.008861484 -0.018890414 -0.01489868 -0.0057161567 0.014445433 -0.023218038 0.020153688 -0.027057756
0.008534054 -0.029539235 -0.13421564 -0.0022616747 -0.039480865 0.009839188 -0.032252837 0.0025472795
0.0062683653 -0.0019967926 0.0021822546 -0.04213772 -0.00082892634 -0.014890426 -0.013317053 0.0026196553
-0.006721658 0.09059729 -0.0137176495 -0.00019841541 -0.0518468 -0.02151012 -0.009761595 -0.0021810818
-0.022591671 -0.006599774 -0.0011387606 -0.061641607 -0.0014944474 -0.009016509 -0.025010778 0.0014524542
-0.00311016 -0.020086048 -0.057106804 0.006298397 -0.001408972 -0.010153308 0.0033733451 -0.043152817
-0.019120442 -0.014436766 -0.035030257 0.051897686 -0.008135488 -0.013105986 -0.010243449 -0.025282307
-0.0009831261 -0.01992364 0.015587394 -0.017237892 -0.030330498 0.0007525776 0.014005573 -0.01825882
-0.011118844 -0.02644177 -0.030714849 -0.0040679686 0.0035899922 -0.009722425 -0.0027876357 -0.095355585
-0.005744648 -0.042336117 0.007400267 0.0077920645 -0.049020723 -0.025591118 -0.006570481 -0.0574454
0.0140348505 0.0073821913 0.00030212163 -6.1438e-05 -0.016149813 -0.02139064 -0.0026693884 -0.012096172
-0.038006827 -0.03382102 -0.032697476 -0.028866233 -0.010037614 -0.028956972 0.0102696605 -0.014300302
-0.0381228 -0.0046483036 -0.03146661 0.00037807552 0.008857705 -0.10038212 -0.06426944 -0.007519598
-0.0020167555 -0.0006350444 0.0046549756 -0.004943473 -0.023359103 0.0066684624 -0.019033328 -0.016652342
-0.070072934 -0.0015816643 -0.0029142757 0.00075421605 0.005722923 0.002064631 0.008534659 -0.01761606
-0.04411677 -0.011400216 -0.0057226615 0.010200089 0.007361458 -0.02352803 -0.0059964536 -0.0021842788
-0.009860637 -0.001111211 -0.016320636 0.0017530854 -1.5219764e-05 -0.011389952 -0.01227817 0.0036653802
0.028998794 -0.031032687 -0.061044708 0.016061172 0.030579038 -0.004226868 -0.009841183 0.004902786
0.010935522 0.013461008 -0.014222739 0.009430527 -0.008319346 0.012328233 -0.004528235 -0.028112426
0.011620121 -0.04919462 0.0030792414 -0.009672973 -0.09982868 0.0009066649 -0.007720005 -0.0071732053
0.011137229 0.010511875 -0.008033653 0.0038591577 -0.012983599 -0.014881396 -0.0018647411 0.017858481
0.0033780306 -0.0109106 0.032378156 -0.0113373 0.007210394 -0.0074387747 -0.0049372404 -0.03547554
4.0381923e-07 -0.007918712 0.0059443675 0.032026105 -0.039315052 -0.02973267 -0.0014831413 0.007528088
-0.0086776335 -0.01796319 0.02563541 -0.01277351 -0.0005542103 0.004941517 0.011335413 -0.009262862
-0.009056446 -0.0014781819 -0.021319525 0.0032710019 0.008803798 -0.0017226395 -0.004477135 -0.015553985
0.0065540834 -0.02547439 0.0015038423 -0.0065875314 0.025521344 0.004157032 -0.00011996188 -0.034560066
-0.010498888 -0.011035209 -0.0010729056 -0.008840733 0.007630438 0.0005793948 0.004636864 0.00066924794
-0.07320076 -0.014578531 -0.004778586 -0.032316726 0.0050673364 0.021359377 -0.0034654718 -0.008664506

cvae_parameters.enc_00_lin_b f4 [128]
00000000: 3d0f d736 5f56 8538 13f0 0936 f426 5338
00000010: 886d 9eb8 cce4 acb8 1945 ffb7 4e12 bab7
00000020: 480d 3338 ec52 05b8 a325 2cb9 2a83 72b8
00000030: d1de 80b8 f42b 0eb7 ea3e 4db8 5083 2439
00000040: ad9e 02b9 11b5 9bb8 a179 5cb8 4c75 0638
00000050: e081 1c39 fbcf fe38 16a1 0db8 2fab 8c38
00000060: 64c4 b4b8 f8fa 77b8 615f 6638 5bcc f5b8
00000070: 3d8b 63b8 ddea 6a38 01f4 1639 1d42 7e38
00000080: 70d2 3438 c742 4838 1799 1237 f35e 5eb7
00000090: 5161 c536 b0ac 55b9 25d6 0e39 82bd a238
000000a0: 0b9c 96b7 51f7 fbb8 731b 0838 989a 3fb8
000000b0: f4d3 a438 7cd6 34b9 ceea ef38 bcdd bfb9
000000c0: db9f 9639 a077 1db7 c588 31b8 99bb 93b8
000000d0: c781 6538 40e3 4c38 13fb acb6 17c0 c6b8
000000e0: 46b6 ffb7 9e3c 66b8 c6d4 0739 fd98 02b9
000000f0: d040 1fb8 6ebc df38 45e0 09b9 2b09 0538
00000100: 6424 fb38 df38 e638 84bf 8637 f7a6 5bb7
00000110: d975 cf38 92d4 7038 fb39 1bb9 304d bd37
00000120: 9b16 e8b7 4079 3538 2b44 ce37 b225 33b9
00000130: f237 dcb8 6ec8 e4b8 a11e 80b7 1761 1738
00000140: d227 42b9 888d 9ab7 3281 4ab7 5961 97b7
00000150: e9d4 95b8 6da8 ebb8 0798 e0b8 cbdd 3a38
00000160: 9a15 e037 0180 2a38 72bf 9d38 5d29 4fb9
00000170: 5902 56b9 740c 1c39 a6f1 25b6 1d5c e0b6
00000180: 5c18 12b9 3a12 4339 c6c0 b338 94f6 0db9
00000190: 0adb 7438 27a3 29b6 1022 b8b8 a9fc e637
000001a0: bdce 9639 aa01 d2b8 eeba 7038 752b a8b7
000001b0: f8bc b7b8 1867 13b8 0972 6c38 d7fd b338
000001c0: a821 4bb6 dc1c 6638 36e2 c9b7 e2e3 6d37
000001d0: abe7 8238 297d 4e39 78f7 6b38 062a f0b7
000001e0: f1dc c037 8e6c 83b6 2129 10b9 65df 0a39
000001f0: daa8 1239 5fa0 1a39 c1f1 3eb9 422d b9b8
6.4092733e-06 6.358022e-05 2.0554332e-06 5.0342598e-05 -7.554429e-05 -8.244216e-05 -3.0430545e-05 -2.2181452e-05
4.2689295e-05 -3.1786898e-05 -0.00016417219 -5.7819452e-05 -6.1450184e-05 -8.474093e-06 -4.8934402e-05 0.00015689177
-0.00012456877 -7.424702e-05 -5.2565363e-05 3.205733e-05 0.00014925702 0.00012150403 -3.3767043e-05 6.707606e-05
-8.6196495e-05 -5.9123122e-05 5.49251e-05 -0.000117205745 -5.4250693e-05 5.600868e-05 0.00014396013 6.0619892e-05
4.311133e-05 4.7745907e-05 8.737922e-06 -1.3254338e-05 5.8823866e-06 -0.00020377594 0.0001362195 7.7600605e-05
-1.7954057e-05 -0.00012014679 3.245049e-05 -4.5681925e-05 7.859609e-05 -0.0001724604 0.00011440144 -0.00036595564
0.0002872933 -9.385782e-06 -4.2327465e-05 -7.044449e-05 5.471872e-05 4.8849033e-05 -5.1552283e-06 -9.477155e-05
-3.0483247e-05 -5.4892727e-05 0.00012953868 -0.00012454759 -3.7968915e-05 0.000106685664 -0.00013148885 3.171821e-05
0.00011975391 0.00010977848 1.6063226e-05 -1.3092292e-05 9.89248e-05 5.741843e-05 -0.00014803551 2.2566499e-05
-2.7667082e-05 4.3266686e-05 2.4588857e-05 -0.00017084813 -0.00010500838 -0.0001090922 -1.5273052e-05 3.6091627e-05
-0.00018516116 -1.8424136e-05 -1.2070219e-05 -1.8045934e-05 -7.144531e-05 -0.00011237045 -0.0001070947 4.4552417e-05
2.671294e-05 4.065037e-05 7.522003e-05 -0.00019756467 -0.00020409505 0.00014881958 -2.4727574e-06 -6.6864436e-06
-0.0001393272 0.00018603439 8.571292e-05 -0.00013538665 5.837813e-05 -2.527793e-06 -8.780148e-05 2.753579e-05
0.00028764262 -0.0001001389 5.739455e-05 -2.0047397e-05 -8.761318e-05 -3.5143545e-05 5.637299e-05 8.5826665e-05
-3.0268948e-06 5.486315e-05 -2.4066405e-05 1.4179359e-05 6.2420346e-05 0.00019692317 5.625884e-05 -2.8629798e-05
2.2991067e-05 -3.9167417e-06 -0.00013748232 0.00013243927 0.00013986547 0.00014746327 -0.00018209872 -8.829917e-05

cvae_parameters.enc_00_lin_w f4 [128, 163]
00000000: 7c84 39bc 4d2a 3dbc 4ce6 28bb 3ce2 8dbb
00000010: b0bc 0a3c 38f6 e33b 3e94 4ebb b7c0 acbc
00000020: 6e17 523b d4b1 4ebc f653 613b 032a 4c3b
00000030: ff02 973a 9729 4c3c 385e 373c 9a67 22bb
00000040: 3f81 5dbc eecc 89bc 2251 ba3b 72a2 033c
00000050: a481 c03b 08fa 7bbc dd5d 5bbb 361b 973c
00000060: 07e5 f63b 3026 bbbb 73de f7ba fcbe ff3a
00000070: 863a 603c 401a 843c 6a25 1b3c f2ca 09bc
00000080: fec3 c8bb d2c8 9039 cb3f aabb ae3d 2a3b
00000090: 4306 893b 2f40 b43a f1f0 d03b 663b 943b
000000a0: 684d 84ba 9f9f ff3b 7156 42bb 90d4 053a
000000b0: d671 a43b 6e04 be3c 3145 6fbc 6dfc 80bc
000000c0: 305d dbbb ce19 0d3c d6e4 2c3c 9cca e63a
000000d0: 0b40 20bb 562e 79bb ccb2 b83b 6822 81bb
000000e0: 5889 94bb 286d f03b 6554 773c 400d 0c3d
000000f0: ee57 7cbc 0734 49bc ed71 963c c4f3 b2bb
00000100: 8638 bbbb 694b 143c 138f 343c 7d88 553c
00000110: 623a 72bc 1613 d23c 1895 99bb 2a96 613b
00000120: 0738 85bc 036c b9bb 1b62 9cbb fa8a a5bb
00000130: d189 2dbc 58cc 343c d77c c5ba 8eeb 053c
00000140: ad72 7cba b402 d93b 8d0a 0bbc 6fde 4ab9
00000150: 746a 0b3c b200 86bb 1024 283c af42 743b
00000160: a27b 21bb 3b9c ba3c 9e72 9bbc a9a5 49ba
00000170: 3647 2abc 8b25 1dbc f922 9639 5995 ef3b
00000180: 69f1 863c 1502 62bc 0932 5c3b 4556 a43b
00000190: 6d47 d6bc c1d3 89bc 126d 14bb 9486 493b
000001a0: 9676 233b 19da 163a 6a9f 533b ff84 8f3b
000001b0: 099e 933b 6b4e 09bc 5147 003c c79d 12bc
000001c0: f4bf 10bb d26a c8bc 4393 75ba 65eb f9b9
000001d0: b698 1d3c cac4 733b 030e 19bc 9661 a9b9
000001e0: bbbe cfbb c402 9cbb 7b3b 9b3c 9196 89bb
000001f0: efbc b53a 3957 3d3c e756 143c 0cc4 643c
00000200: 14c2 12bc 305d 89bb 0fb8 06bc 8c2c b53b
00000210: 4e48 cd3b 233e 913b 9f16 9f3c b60b 2ebc
00000220: 05f6 62ba 6de1 9f3a 995a c7bb 350d 4cbc
00000230: 5516 86ba 248b 2abc 7980 50bb 9e67 203b
00000240: 3a0b 2ebb 8395 9f3a 841c 173b e325 3f3c
00000250: a406 3b3b c6b0 7d3b f49a 04bb 7600 91ba
00000260: 005b f33a b3db fdbb 183a 9cbc f862 ac3a
00000270: b48b e7bb 8c7c 503b 3254 cf3a ee39 803b
00000280: 0775 1e3c 0946 22bc fea8 453b 8c99 94ba
00000290: 6a1e 233c 1048 a5bb 45a3 f93b 1f75 ca3b
000002a0: d448 4e3b 6225 0d3b 1218 95ba b528 683b
000002b0: 97d1 4ebb 5017 32bc d5db 203b ba2f 66bc
000002c0: 8a65 25ba bb89 66bb 9760 7fbc 2d59 70bb
000002d0: cabe 313c c32b a63a 98e0 813c 3681 f93b
000002e0: ebf8 2ebc 4dd6 e7bb bdde 703c fba8 2b3b
000002f0: dc7d dc3b 948f 25bc 0258 40bc ca08 46bc
00000300: 0980 b2bb ddb7 b23b 76d4 883b db25 793b
00000310: 0d8c d43a ced8 0b3c 3d8a 35bb 85d9 263c
00000320: 73e6 22ba e6c4 31bc 730f 873b 4fcf be3b
00000330: 0a41 d53b 6c8a 46bc c240 c73b 6434 b6bb
00000340: 827b 403c 0a5d 903a affb 203c 60e5 083c
00000350: 4fae 4ebc 7d04 233c dbc3 a0bb e472 54bc
00000360: a233 1b3c adbd 543c 1e4d d5bb d184 b73b
00000370: 867a 363b aa42 abb9 ddc0 2cbc bc88 a5ba
00000380: c82f 65bb 5592 813c d7b3 0a3b 104b 783b
00000390: b1ca c4ba 9c0d cf3b cc2e 35bb 06c9 59bc
000003a0: 9697 bbba 4d6c adbb fe75 a5bb 0b72 0c3c
000003b0: 8abe 11bc 9386 0a3c 20a5 3b3c f88f 8fbc
000003c0: 1f91 73bc 94f6 8fbc 3b43 6d3a 798c 32bc
000003d0: c9e3 693c f847 91ba 838d b73b 9d0a dcba
000003e0: 1ca6 44ba 9c0d 2a3c 238d 163c eb18 9ebb
000003f0: be55 10bc 024a af3a 5b31 9a3c 3c66 7a3b
-0.011323091 -0.01154573 -0.0025772033 -0.0043299478 0.008467838 0.006956842 -0.0031521465 -0.021087987
0.0032057422 -0.01261564 0.003438232 0.003115297 0.0011521279 0.012461088 0.011191897 -0.002478099
-0.013519584 -0.01682135 0.0056859413 0.008034335 0.0058748294 -0.015379436 -0.0033472695 0.018445592
0.0075346264 -0.0057113394 -0.00189109 0.0019511874 0.013685828 0.016125798 0.009469369 -0.008410202
-0.0061268797 0.00027615443 -0.005195593 0.0025976705 0.0041816547 0.0013752038 0.0063763787 0.0045236824
-0.001009387 0.0078010107 -0.0029653574 0.00051052216 0.005018453 0.023195472 -0.014603899 -0.015745366
-0.0066944584 0.008612109 0.010552606 0.001760799 -0.0024452235 -0.0038022003 0.0056365486 -0.003940869
-0.004532974 0.007337231 0.015095805 0.034192324 -0.015401823 -0.012280471 0.01836487 -0.005461188
-0.005713525 0.009051182 0.01102044 0.01303303 -0.014784427 0.025643867 -0.004686963 0.003442178
-0.016262067 -0.005658628 -0.0047724373 -0.0050519677 -0.01059194 0.0110350475 -0.0015067112 0.008173836
-0.0009630125 0.0066226367 -0.008486402 -0.00019347084 0.008509267 -0.0040894384 0.010262504 0.0037271192
-0.0024640341 0.022779575 -0.018975552 -0.0007692227 -0.010392955 -0.0095914705 0.00028636286 0.007311505
0.016472535 -0.013794442 0.003359916 0.005015167 -0.026157105 -0.016824605 -0.0022648019 0.003075038
0.002494251 0.0005754545 0.0032291063 0.004379868 0.0045049232 -0.008380513 0.007829503 -0.00894875
-0.002208707 -0.024464998 -0.0009367952 -0.00047668364 0.009618929 0.0037196153 -0.00934172 -0.000323069
-0.0063398755 -0.004761072 0.018949261 -0.004198857 0.0013865511 0.01155644 0.009053922 0.013962757
-0.008957405 -0.004192017 -0.008222594 0.005528992 0.006264723 0.004432456 0.019419966 -0.010622909
-0.00086578756 0.001219792 -0.006083798 -0.012454321 -0.0010230044 -0.01040915 -0.0031814857 0.0024475823
-0.0026556985 0.0012175295 0.0023057768 0.011666748 0.0028537894 0.0038710102 -0.002023396 -0.001106276
0.0018566549 -0.0077471375 -0.01907067 0.0013152054 -0.0070662145 0.0031812517 0.0015817939 0.0039131558
0.009671456 -0.009904393 0.0030160542 -0.0011337264 0.009955982 -0.005043991 0.00761834 0.0061785127
0.0031476514 0.0021537174 -0.0011374971 0.0035424654 -0.003155803 -0.010869816 0.0024545093 -0.014049465
-0.0006309381 -0.0035177309 -0.015586994 -0.0036674247 0.01084871 0.0012677837 0.015854165 0.00761428
-0.010679464 -0.007075107 0.014701542 0.002619325 0.006728871 -0.0101050325 -0.011739733 -0.012087056
-0.005447392 0.005454047 0.004175718 0.0038016948 0.0016216055 0.008535577 -0.0027700805 0.010183697
-0.0006214149 -0.010850167 0.0041217147 0.005823053 0.0065079974 -0.012117963 0.006080718 -0.0055604447
0.011748197 0.0011014056 0.009825631 0.0083554685 -0.012614801 0.009949801 -0.0049061603 -0.012966845
0.009472759 0.012984675 -0.006509437 0.0056005497 0.0027844026 -0.0003266533 -0.010544029 -0.0012629251
-0.0034971107 0.015816847 0.0021164322 0.0037886538 -0.001501402 0.006318761 -0.0027646301 -0.013292557
-0.0014312144 -0.0052924515 -0.005049466 0.008572112 -0.008895526 0.008454937 0.011452943 -0.017524704
-0.0148661425 -0.017573632 0.00090508506 -0.010897749 0.0142755 -0.001108407 0.0056015863 -0.0016787831
-0.0007501559 0.010379221 0.009188923 -0.004824748 -0.008809505 0.0013373496 0.018822363 0.003820791

cvae_parameters.enc_01_lin_b f4 [128]
00000000: a065 663a 7feb a537 f69d b2b9 b9d1 ea3a
00000010: d18f 22ba 8b06 d5ba 7630 a13a 11be 85ba
00000020: 3040 a23a 008a eb37 5b0d 15ba 1d2a 483a
00000030: ed45 01ba ea6f bdb9 3c28 503a 755a c83a
00000040: 03f3 43ba a49a d1ba 678e 07bb 8c1c 67ba
00000050: 3498 d73a 1196 38b9 cd11 3a3a 50aa 663a
00000060: 63b3 aaba 0e52 16ba b81d ceb9 d903 9e3a
00000070: 0266 91b9 f571 d1ba 30f5 c9b8 14db 8fba
00000080: 8bf3 183b dc74 cf38 fe22 14ba 33bc 8db9
00000090: 4b5e 923b 5d0e b639 b2e0 b139 9753 1e3a
000000a0: 2162 26b8 0530 03ba fa7c 533a 5462 6c39
000000b0: 9df9 ce39 dd05 dfba b1ed e839 0e19 363a
000000c0: 31cd 1b3a 7a7f 8c3a 65ae 0c3a 5c06 b8ba
000000d0: f594 1a3b b25b 3d3a 7429 adba b621 e3ba
000000e0: d3b7 b0b9 0e30 2ab9 66f4 b1b9 41f3 2aba
000000f0: db21 f639 c8eb 73b9 b581 1bbb 82a3 0039
00000100: 5548 b03a 354d 05b9 fc1d 0e3a 2074 13ba
00000110: b5e1 8bba b4b8 39ba 9c7f 9cba fa83 53ba
00000120: 3e3d ab37 dff9 0db7 daa6 5aba 1e64 5b3a
00000130: 77e2 88b8 48e3 b939 8499 0dba 0255 9238
00000140: 9caa 63ba 6bad beba c40b 013b 980f 0c3a
00000150: 8f1d 0039 7078 e3b9 e452 dbba b03e 5839
00000160: 4f5e 83b9 beab 033b 0f70 0cb9 540c 69ba
00000170: 3b24 feb9 cc89 d3b8 5a4a f2ba 7393 c13a
00000180: 1593 073a f993 c4b6 4aa4 8cb9 ffef 20ba
00000190: e554 89b9 e8b5 3d3a aad2 12ba 82df 3b3a
000001a0: 25ad 093a d095 993a 21eb 44b9 71f2 1f3a
000001b0: c9a4 92bb 90e7 9037 80a7 10ba 2bb9 f8b9
000001c0: 3b77 2d3a 75b3 6fba 8bee 26ba 6b47 1739
000001d0: a4ad e9ba acc5 32b9 c4f3 32ba 6ffe c3ba
000001e0: 94f9 2eba 096f d0ba 28a2 61ba 96cb 0d3b
000001f0: 6cf1 103a 236e e23a f356 54ba 8259 c8ba
0.0008788947 1.9779194e-05 -0.00034068496 0.0017915285 -0.000620124 -0.001625256 0.0012297768 -0.0010203739
0.0012378749 2.8078444e-05 -0.0005685889 0.000763567 -0.0004931379 -0.00036132272 0.00079405657 0.0015285747
-0.0007474871 -0.0015991521 -0.0020684244 -0.00088162045 0.0016448558 -0.00017603512 0.00070979894 0.0008799182
-0.0013023432 -0.0005734273 -0.00039313524 0.001205559 -0.00027732557 -0.0015979396 -9.6300966e-05 -0.0010975325
0.0023338522 9.892296e-05 -0.0005650966 -0.00027033835 0.004466807 0.00034724447 0.00033927482 0.00060396775
-3.9668874e-05 -0.0005004409 0.0008067634 0.00022543344 0.00039477358 -0.0017015297 0.00044427582 0.00069464825
0.00059433567 0.0010719143 0.0005366563 -0.0014039981 0.002358732 0.00072234415 -0.0013211207 -0.0017328772
-0.00033706296 -0.00016230365 -0.00033942162 -0.0006521233 0.00046946 -0.00023262121 -0.0023728434 0.00012267943
0.0013449291 -0.0001271263 0.0005421338 -0.0005624909 -0.0010672124 -0.0007084713 -0.0011939886 -0.0008068677
2.0413307e-05 -8.462433e-06 -0.0008340903 0.00083691056 -6.527168e-05 0.00035455287 -0.0005401599 6.9776564e-05
-0.00086847856 -0.0014547532 0.001969085 0.00053429 0.00012218043 -0.00043386547 -0.0016733077 0.00020622718
-0.00025056532 0.002009138 -0.00013393186 -0.00088900817 -0.0004847365 -0.00010086931 -0.0018485293 0.0014768675
0.0005171758 -5.8584815e-06 -0.00026825286 -0.0006139278 -0.00026193928 0.0007236884 -0.00056008494 0.0007166789
0.0005251936 0.0011717621 -0.00018779609 0.0006101495 -0.0044752103 1.7273967e-05 -0.00055181235 -0.00047440207
0.0006617193 -0.00091438676 -0.0006367943 0.00014427087 -0.0017828238 -0.00017049041 -0.0006826485 -0.0014953146
-0.0006674763 -0.0015902232 -0.0008607232 0.002163624 0.0005529139 0.0017275255 -0.00081001146 -0.0015285464
