dlpg/20/weights/dlpg_model_weights_250.pth (torch, 363960 bytes, 15 tensors)

VQ.projection.weight f4 [100, 32]
00000000: 1e8a eb3d 6519 aa3d 7b31 54bd 6cb2 d53d
00000010: 11ed 5abd e349 e3bd 6dfe 05be be64 64bc
00000020: 8b29 f43d ce22 12be d4e1 0f3e 7379 d33d
00000030: 1bd2 cabd ebc1 df3d 96d0 83bc 594c 63bd
00000040: 1a0c 823d 2c85 bd3d 4779 a83d 2764 aaba
00000050: 118e 233e a977 20be 19d5 11be cce5 1f3e
00000060: 28d7 a3ba dab0 14be ea1b 0bbe 6711 04be
00000070: 84a0 293e f8d2 d1bd 5d36 96bd 19c7 cc3d
00000080: 066d 2a3b 3813 33bc 1c7a 9e3d ca47 cabd
00000090: 9ea7 033e bc4c 973c 31dc 743d 1065 993b
000000a0: b26f 79bd 224b 103e fad9 e0bc 849f 2abd
000000b0: 87d4 d1bb d750 293d 9849 233d 2f50 6c3d
000000c0: 381c 02bd 9c76 a5bc 10b7 ff3d 5f47 06bd
000000d0: 1e64 03bc 6d0e efbd 9b83 df3d 417e b93d
000000e0: 5242 793d 0a11 033e 12f0 e23d fa09 153e
000000f0: 7797 bdbd 90e5 9bbb 09ed 2cbe df50 ffbc
00000100: 1019 4abd 7d53 d0bd adf9 233e 1450 16bd
00000110: bc54 863b 9b6a 813c 6224 d9bd b0a4 043e
00000120: a2c9 aa3d c005 333e 3779 953d 99a6 033e
00000130: 971e cb3d 3714 f63d a044 fd3c 681c 813d
00000140: 08d2 13bd bbbb cb3d 7fbd a53d cbad 2bbd
00000150: e040 033e ba47 0ebe 3c0c b5bd 2aab 8e3d
00000160: 11b3 34be 727f f2ba 8231 acbd 10ae eb3b
00000170: 0052 a53d 9545 0abd 821c 2cbe 13b0 393d
00000180: 9740 2f3e 1e9e b23d 46b8 cd3d f461 c23d
00000190: 6d36 c03d d7fe 90bd 2b77 a03d 8729 863d
000001a0: e871 febd a231 e6bd 8c07 59bc 75b4 fb3d
000001b0: 049b 073e f351 eabd d59b 003e b5c5 1e3e
000001c0: ef20 023e 6edf 24be 0414 e8bd 4547 613d
000001d0: 03c0 8a3d 4290 683d 95c6 17be 339d d53d
000001e0: 2e99 f1bd 91b7 b8ba 5500 1fbd e835 e93d
000001f0: 02df b9bd b086 2e3e b6d9 15be eb8d 6bbd
00000200: 9e8b ecbd 2e09 aa3d c514 173e b6d0 0a3d
00000210: 0da2 fcbd a726 3d3d 1d3c f3bd 3acc 9dbc
00000220: c45b 533d 4e80 92bd e96e b53d 1a46 28bd
00000230: 25b6 f93d 5031 b5bd 784e 923d 3192 e1bc
00000240: 5dc5 debd 6007 cd3d 1f30 bcbd 13e6 c3bd
00000250: 0099 2c3e 168a 16be df32 c9bd 0218 023e
00000260: 50b0 4dbd efb2 03be 1214 a23d 4349 e93d
00000270: 9db1 29be 6f19 373d efc5 ea3d 862d 113e
00000280: b979 95bd 5821 ddbd f864 e13c b862 293c
00000290: 5494 f6bd 879b 263e 5e28 553d dab4 2d3e
000002a0: 63d9 2d3d a64d f6bd 3155 b13d 8974 f6bd
000002b0: 8ce2 c5bd 99d3 85bc b770 303e ec50 03be
000002c0: b09f 253e 98c2 0e3e 8441 1c3d e5e6 c4bd
000002d0: bdde d6bd 4fe0 233e 3d4c 2f3e c5b7 483b
000002e0: 534e eabc 62b5 ca3d 8c47 12be 014e c5bd
000002f0: c025 c23d fc7f 26bd 362c 113e bea5 a83b
00000300: c3d7 27be 1476 18be 79e2 ef3d e227 8abd
00000310: 1173 f0bd 4269 1f3e 8697 d23d 2ce2 f9bd
00000320: f7f9 2dbe b568 36bd 7cc7 0ebe 0867 8abc
00000330: 7ae1 0e3e 04d0 13be 0320 30be 1688 583d
00000340: af86 f63d 1a84 1fbd 0ceb 5f3d 90fd 0abe
00000350: 6094 aabd aa0a 9ebd d631 b1bd 046c bc3d
00000360: 1099 18be f2ff 0fbe 0178 27be 0f6d 223e
00000370: 750d b93d 736c 1d3e d443 9e3d c1a8 fc3d
00000380: 5fa9 053e 3186 6b3b cfce 34be 2c87 633c
00000390: bcdf f1bc 6f8b 9e3c a18e 54bc f6a0 35bb
000003a0: bf60 b0bd 94f9 7f3d 0582 093c bfd7 adbd
000003b0: 6c76 db3d 489f 28bd 7e64 11be 544a 893d
000003c0: 8533 333e 70a9 6b3d f327 13be 9520 1e3e
000003d0: 0c95 17bd 21f0 cbbc 6640 9e3d 1767 e1bd
000003e0: 1edd 1b3e 1a04 963d 9f1e 6bbc d499 7abc
000003f0: 896f 80bd abb1 75bd 2168 64bd 83a7 0b3e
0.11500953 0.08305625 -0.051805 0.10434422 -0.05344874 -0.11098077 -0.13085337 -0.013940034
0.11921986 -0.1427109 0.1405099 0.10325899 -0.09903356 0.10925659 -0.016090672 -0.055492733
0.063499644 0.09253916 0.08226257 -0.0012999818 0.15972163 -0.15670647 -0.14241447 0.15615004
-0.0012500035 -0.14520589 -0.13584867 -0.12897263 0.16565138 -0.10245317 -0.07334588 0.09998912
0.0026004924 -0.010929875 0.07738134 -0.09876974 0.1285691 0.018469207 0.059780303 0.004681237
-0.060897537 0.14091161 -0.02744769 -0.041656032 -0.006403509 0.04133686 0.039865106 0.057693657
-0.031765193 -0.020198159 0.12486088 -0.03278291 -0.008019475 -0.116726734 0.109137736 0.09057284
0.060854264 0.12799469 0.11080946 0.14554587 -0.09257405 -0.0047575906 -0.16887297 -0.031166492
-0.049340308 -0.10172174 0.16013213 -0.036697462 0.0040994566 0.015797904 -0.106026426 0.12953448
0.0833924 0.17482662 0.072985105 0.1285652 0.09917944 0.120155744 0.030916512 0.06304246
-0.036088973 0.09947916 0.08092784 -0.04191379 0.12817717 -0.13894549 -0.08840224 0.06966241
-0.17646433 -0.0018501116 -0.0840788 0.0071923807 0.08072281 -0.033757765 -0.1680775 0.045333933
0.17114483 0.08721565 0.10044913 0.09491339 0.09385381 -0.07079857 0.078352295 0.065508895
-0.1242407 -0.112399355 -0.013246428 0.12290279 0.13242728 -0.11441412 0.12559445 0.15505107
0.12707876 -0.16100857 -0.11331943 0.05499961 0.067749046 0.0567782 -0.14821847 0.10430374
-0.11796795 -0.0014092793 -0.038818676 0.11387235 -0.090757385 0.17043567 -0.14633831 -0.05750839
-0.11550067 0.08302532 0.14754017 0.03389045 -0.12335596 0.04617944 -0.118767 -0.019262422
0.051601186 -0.071533784 0.08859045 -0.04108248 0.121929444 -0.08847296 0.07143873 -0.02753553
-0.10877488 0.10011172 -0.09188866 -0.095653675 0.1685524 -0.14701113 -0.09824156 0.12704471
-0.050216973 -0.12861226 0.07913984 0.11390927 -0.1657166 0.04470199 0.11463534 0.14177522
-0.072986074 -0.107973754 0.027513966 0.010338478 -0.1204001 0.16270266 0.05204045 0.1696352
0.042443644 -0.12026529 0.08658827 -0.12033946 -0.09662351 -0.01633625 0.17230497 -0.12823838
0.16174197 0.13941419 0.038148418 -0.09614352 -0.10491703 0.16003536 0.17118926 0.0030627113
-0.028601801 0.09897877 -0.14285105 -0.09634019 0.094798565 -0.0406494 0.14177021 0.005146711
-0.163909 -0.14888793 0.11713118 -0.06745888 -0.11740697 0.15567496 0.10282807 -0.12201342
-0.16989885 -0.04453345 -0.13943285 -0.016894832 0.139532 -0.1443482 -0.17199712 0.052864157
0.120374076 -0.03894434 0.054667518 -0.13573289 -0.083290815 -0.07716878 -0.086520836 0.0920029
-0.14902139 -0.14062479 -0.16354372 0.15861915 0.0903577 0.15373401 0.07727781 0.12336875
0.13052891 0.0035938139 -0.17657016 0.013887208 -0.02952563 0.019353596 -0.0129734585 -0.0027714348
-0.08612203 0.062493876 0.0083928155 -0.08488416 0.107159466 -0.041167527 -0.14198491 0.0670363
0.17500122 0.057534635 -0.14370708 0.15442117 -0.037007377 -0.024894776 0.07727127 -0.11005991
0.15221068 0.07325001 -0.014350562 -0.015295465 -0.06271274 -0.05998389 -0.055763368 0.1363812

VQ.projection.bias f4 [100]
00000000: 608d 6ebd a092 273d 1aed e83d 9309 f23d
00000010: 34f9 9abb 0e5e 10bd 4e23 c23c 0cdc 06be
00000020: 721c 90bd 8674 efbd 1d2b 09bd 6e96 bbbd
00000030: ec5c 2f3c 8d27 a13d 8785 733d 77a0 833b
00000040: 0cac d53c 72c0 e43d 809f 9e3c 0b00 60bc
00000050: 70f8 943d 9cc3 753c cefe b83d a3bc daba
00000060: 632f b1bd c0e8 d6bd 9d64 4bbd 9002 6a3d
00000070: fc57 5bbd ba54 ef3d db85 e5bd 7af2 823d
00000080: 2d98 e5bd a037 943c 8261 b6bd 24e9 b83d
00000090: f0f1 953d 85ce dd3d cf0f 8f3d 0ce5 7b3b
000000a0: 27c3 afbd 1d0d ecbd f23f 72bd 6a8d bb3d
000000b0: 2b75 32bd 2316 153d 0cd8 fdbd 52af f5bd
000000c0: c0f3 b53d cd7e 98bd ed68 b43d eb65 d2bc
000000d0: f487 bfbd c578 ec3d 44f1 47bc d4ae 493d
000000e0: c14e 9d3d 75e6 03be 4e56 f43d 20b8 e4bc
000000f0: ea49 cdbb 7b37 473c 753e 97bc 6a8f 0bbd
00000100: 38e3 49bc 7304 803d b0a5 cf3d d0fc 5abd
00000110: cc8d d93d 6ca9 933c 56cc 223d 3ee3 cfbd
00000120: 3dca 8bbd dc97 33bc 3e95 8a3d 47f9 01bd
00000130: cb02 f03d 1433 8fbd defa 1abd 1f25 dc3d
00000140: 7866 c3bd 3916 84bd 9c0b 1bbd 4c85 bb3d
00000150: b81b f3bd 1cfe 93bd 59a0 c7bd 8ec5 e93b
00000160: 7ec4 f63d c990 c03c e58b f03d b8a1 9abc
00000170: ad5c 85bd 07c2 a6bd 985a 90bd 9240 533d
00000180: 1b84 a5bd 97e3 b8bc c387 fabd 45be 823d
-0.058240294 0.040911317 0.113733485 0.118182324 -0.0047294144 -0.035245948 0.023698475 -0.13169879
-0.070366755 -0.11692147 -0.03348838 -0.091595516 0.010703307 0.07868872 0.059453513 0.0040169316
0.026083015 0.111695185 0.019363165 -0.013671885 0.07273948 0.01500025 0.09032975 -0.0016688298
-0.086516164 -0.10493612 -0.0496565 0.05713135 -0.053550705 0.11686082 -0.112071715 0.06393905
-0.11210666 0.01809293 -0.08905317 0.09028843 0.073215365 0.10830406 0.06985437 0.0038436083
-0.08582144 -0.11525939 -0.059143014 0.09157832 -0.04356877 0.036398064 -0.12394723 -0.1199633
0.08884382 -0.0744606 0.088090755 -0.025683364 -0.09352103 0.115464725 -0.012203518 0.049238995
0.07681037 -0.12880881 0.11930524 -0.027919829 -0.0062649148 0.012159224 -0.018462399 -0.034072317
-0.01232224 0.062508486 0.10139024 -0.053463757 0.10622749 0.018025123 0.03974565 -0.10150765
-0.06825683 -0.010961499 0.06766747 -0.03173187 0.11719283 -0.06992164 -0.0378369 0.10749268
-0.09541029 -0.06449551 -0.03785287 0.09156284 -0.11870521 -0.07226202 -0.09747381 0.007134146
0.12049197 0.023506539 0.11745433 -0.018875942 -0.06511817 -0.081424765 -0.070485294 0.05157525
-0.08081838 -0.02256946 -0.12232926 0.06383947

VQ.embedding.weight f4 [100, 32]
00000000: db68 cfbb 57fa 38bb 2363 deb9 8ea0 0b3c
00000010: ec98 8e3b 3bc3 fa3b f9a6 673b 0265 0f3b
00000020: 1674 d9bb e617 c6bb 4a22 6b3b dd08 a9bb
00000030: 80cb 023c 43a7 253c cc68 6abb 7b94 0fbc
00000040: 7dee 9abb 859a 1e3b 1ac7 453b 0134 023b
00000050: 7d30 4a3c 0afd 1a3b 53d2 b7bb bb20 ff3b
00000060: 2aac d13a 5fd0 6cbb 9198 bdbb e050 1dbc
00000070: 050a 24bc 83d5 33bc f368 153c 1568 ae3a
00000080: e306 2a3c 27ec 143c 347e fbbb 5708 8abb
00000090: 6f4c 843b 48af 3d3b bb4b 703b 408b a0bb
000000a0: f774 2bbc c679 f53b b2a7 12bc 941a a33a
000000b0: 1eb9 fabb 703f 2e3b 49bb e73b 2992 1cbc
000000c0: a32e 83bb 7594 1038 78ad bb3b add1 f33a
000000d0: 7b57 103c df9c 933b 7f10 85bb 6872 d53b
000000e0: 1f89 b9b9 a8ad c53b 936b d13b ff00 1ebc
000000f0: 22d6 06bb c295 2ebc 2869 53bb b34c 93bb
00000100: 45d6 b13b 143f f83a 462c ff3b 5202 05bb
00000110: 424a a03a fefc d83b a02a 55bb 6259 21bc
00000120: dedd 75bb fbf7 b73b 3144 34bc d2d8 593b
00000130: 3aa2 c3bb 4e71 163c fae4 5fba f7f8 01bc
00000140: 4fa4 ad3b b930 12bc 1586 763b 18f4 b9bb
00000150: 299f 0a39 6fb7 523b 51d3 3cbc 89c7 823b
00000160: d885 72bb 4db3 923b 1c85 1c3c 8d03 c4ba
00000170: 3f0a dcbb 3d0a 9fbb 336a 08ba ce83 69bb
00000180: 9a94 703c a187 f3bb c21a e8bb f326 00bc
00000190: 76e5 b7bb 9b6c 12bc 0ad9 b5ba b2f5 523b
000001a0: d84e bebb 25f8 0e3c 57c3 e13b fddc 013b
000001b0: c9fc 373c f3a2 13bb 6b98 203b 0a0b e43b
000001c0: e4a6 de3b 3cce 5bbb 3857 0f3c 4d23 00bc
000001d0: d522 b5ba 5f2a 153c 0ba9 aebb 3805 c63b
000001e0: 8063 44b8 6245 ca39 2e44 1dbb 01a3 00bc
000001f0: 798a 25bc 2317 afbb 9895 f33b b4fc 2b3c
00000200: 85da f03b a678 013c fb49 273b 3364 c8ba
00000210: 4904 f83b 63f4 77bb 74bc 113a a07c 093b
00000220: 3092 0b3c 3b46 f3b9 b312 813b c517 27bc
00000230: 50ef 10ba 24db 1d3c 2cc8 0b3c 8631 13bc
00000240: 60f0 fdbb ca8e d6bb ca1f 233c 6e6e e63a
00000250: fd49 573c 12fe 143c 65ab d4bb 0cfa 7a3b
00000260: fa58 133c f907 6e3b 0641 103c efac 05ba
00000270: bd4d 29bc 08c6 1fba 88f1 fc3b 00b9 b33b
00000280: 3f9b 0f3b dcfe 33bb fc0d 0abc 586f d2bb
00000290: 8616 d8bb 84eb 4c3a 4bd1 6ebb a54b dc3a
000002a0: 3f1b a4bb 3e39 7b3b 1b18 a4bb c05e b3b5
000002b0: 515e a33a 0a2b 1f3b d647 383b 90dd a4bb
000002c0: 2640 a0bb e68a 0b3c 329a b13b 06de 1ebc
000002d0: 0ddd a6bb dadb 1b3c e7b6 11bc c09e 50ba
000002e0: 9cd9 803b efe0 ad3b 909d fa3b 3250 513a
000002f0: ea0c 983b edd6 a13a 47b0 1f3b 0319 363b
00000300: b2af d53b 1d4f 173b e04f c9bb 8ed7 87ba
00000310: 3545 44bb 8205 84bb 795f 99bb 3aa6 3abb
00000320: 6ec9 0b3b e1f8 07bc 89bb ccba e594 dfba
00000330: 6a91 b43b 2fec de3a a312 c8bb 5cb6 eabb
00000340: a871 f238 408c a0bb 8917 b43a 2653 acbb
00000350: 2d5b ca3b 9b95 c2bb adba 49ba ae8c fbbb
00000360: 05b8 103c c85d 06bb d934 a3ba 4712 0cbb
00000370: 767b d1bb 92da b7ba 2bf6 f53b 9f5d 4b3b
00000380: 346d 2f3c bff1 a43b 336e f93a e25d 39ba
00000390: f5bf c1bb a45e 2dbc 05ae 203c 8696 6a3b
000003a0: 60ee c23a 4446 05bc a272 92bb d548 94bb
000003b0: f52e 123c 14b7 133c 74cc b93a 1277 443a
000003c0: 9611 d7bb d952 153c 5a1b 13ba 7563 053b
000003d0: 9fe3 b9b9 0fa6 8ebb a7a8 2fba 1d9a 003c
000003e0: ad68 3c3c 323a c43b f630 0b3b b20a b3bb
000003f0: 4b97 15bc b84d 95bb 5616 3b3b 8636 933b
-0.0063296384 -0.0028225386 -0.00042417002 0.008522166 0.004351726 0.007652668 0.0035347326 0.0021880274
-0.006636153 -0.0060453294 0.0035878592 -0.0051585273 0.0079830885 0.010110679 -0.003576803 -0.008763428
-0.004728137 0.0024200988 0.0030178488 0.0019867423 0.012340662 0.0023649358 -0.0056097894 0.007785884
0.0015996743 -0.003613494 -0.0057860096 -0.009601802 -0.0100121545 -0.010976198 0.00911926 0.0013306165
0.0103776185 0.009089506 -0.0076749567 -0.00421242 0.004037432 0.0028943587 0.0036666233 -0.0048994124
-0.010464898 0.007491323 -0.0089511145 0.0012443834 -0.007651462 0.0026588105 0.0070718867 -0.009556332
-0.0040033623 3.4470537e-05 0.005727466 0.0018601917 0.0088099195 0.0045047845 -0.0040608044 0.0065138824
-0.00035388113 0.0060326643 0.0063909977 -0.009643792 -0.002057441 -0.010655822 -0.0032258723 -0.0044952272
0.0054271542 0.0018939697 0.00778726 -0.0020295572 0.0012229162 0.006621956 -0.0032526627 -0.009847971
-0.0037516276 0.0056142784 -0.011002586 0.0033240807 -0.0059702666 0.009182287 -0.0008540895 -0.007932893
0.005299128 -0.008922749 0.003761654 -0.00567485 0.00013219997 0.0032152792 -0.011524991 0.0039910716
-0.0037006047 0.0044769407 0.00955322 -0.0014954671 -0.0067150886 -0.0048535154 -0.0005203813 -0.003563154
0.014683867 -0.0074319397 -0.007083268 -0.007821786 -0.0056120707 -0.008937026 -0.0013873887 0.0032189903
-0.0058077388 0.008726154 0.0068897414 0.0019815557 0.011229702 -0.0022527545 0.002450491 0.006959324
0.0067947973 -0.0033539673 0.008748822 -0.007820916 -0.0013819585 0.00910434 -0.00533021 0.0060431026
-4.6822708e-05 0.00038580137 -0.0023996937 -0.007851363 -0.010103815 -0.0053433343 0.0074336044 0.010497261
0.0073502683 0.0079023 0.0025526274 -0.0015288651 0.00756887 -0.0037834875 0.0005559393 0.0020978823
0.008518741 -0.00046400898 0.0039389967 -0.010198538 -0.00055288244 0.009634767 0.008531611 -0.008983975
-0.007749602 -0.0065477835 0.00995631 0.0017580518 0.013140199 0.009093778 -0.0064901584 0.0038296012
0.008993382 0.003632067 0.008804565 -0.00050993165 -0.010333476 -0.00060948776 0.0077192225 0.0054847
0.0021912602 -0.002746514 -0.008426186 -0.0064219646 -0.006594482 0.0007817077 -0.0036440666 0.0016807212
-0.005008131 0.003833368 -0.0050077564 -1.3364115e-06 0.0012464022 0.0024287128 0.002811899 -0.005031295
-0.0048904596 0.008517003 0.005419993 -0.009696489 -0.0050922693 0.009512866 -0.008893705 -0.0007958226
0.003932191 0.005306355 0.0076481774 0.00079846673 0.0046402114 0.0012347378 0.0024366544 0.0027785904
0.0065211887 0.0023087927 -0.006143555 -0.0010363923 -0.0029948477 -0.004028977 -0.0046805707 -0.0028480426
0.0021329778 -0.008299083 -0.0015619855 -0.0017057924 0.005510499 0.0017007644 -0.0061057373 -0.007162852
0.00011560629 -0.0048995316 0.0013739924 -0.0052589355 0.00617542 -0.0059382445 -0.00076953584 -0.0076766824
0.008832936 -0.0020502675 -0.0012451663 -0.0021373199 -0.0063928915 -0.0014026931 0.007506152 0.0031031144
0.010707188 0.005033701 0.0019030034 -0.00070711796 -0.0059127756 -0.010581646 0.0098071145 0.0035795285
0.0014872067 -0.008134428 -0.0044692317 -0.004525284 0.008922328 0.009015817 0.0014175312 0.00074945495
-0.0065633757 0.009113991 -0.00056116807 0.002035347 -0.0003545554 -0.004353292 -0.00067008514 0.0078492435
0.011499566 0.0059883827 0.00212389 -0.0054639215 -0.009130309 -0.004556384 0.0028547249 0.0044925837

cvae_parameters.dec_00_lin_b f4 [128]
00000000: 9003 04bc 82e9 48bc 1fb8 13bc 0000 0000
00000010: 0000 0000 7bcf b4ba e041 cebb 1bf2 a2bb
00000020: 0000 0000 0000 0000 0000 0000 86fb 1cbc
00000030: cf5f 283e 0000 0000 d5e8 cebb efbd 40bc
00000040: 6335 34bc 0000 0000 eb2e dbbb 0000 0000
00000050: 0000 0000 0000 0000 f6b4 27bc 7e5c a9bb
00000060: 04bf 71ba 3db1 1dbb 0000 0000 0000 0000
00000070: 0000 0000 0000 0000 5151 81bb 0000 0000
00000080: 0000 0000 0000 0000 0000 0000 0000 0000
00000090: 0000 0000 cac3 33bc 0000 0000 5db1 b7bb
000000a0: 0000 0000 dd4e d5bb 0000 0000 0000 0000
000000b0: dd19 5bbc 0000 0000 4b4e 12bc 0000 0000
000000c0: 0000 0000 0000 0000 cf30 93ba 2a50 d5bb
000000d0: 0000 0000 8489 6cba 0000 0000 0ee9 2bbc
000000e0: 0000 0000 f2ae 0bbb 0000 0000 7922 56bc
000000f0: 1440 8ebb 927c 2ebc c6a9 44bb 2ce6 1ebc
00000100: 924d 24bc 0000 0000 0000 0000 6447 aabb
00000110: 3c64 cfba 0000 0000 b790 20bc ef21 2dbb
00000120: 0000 0000 8e5c 7a3e d328 3cbb 0000 0000
00000130: 0000 0000 0000 0000 5ee1 39bc e4aa 15bc
00000140: ba44 68bc ebb6 29bc 4bcb b5bb 0000 0000
00000150: 9ff4 a9bc fb51 74bc 0000 0000 f7a7 7fbb
00000160: 0000 0000 7193 68bb 5952 23bc 0000 0000
00000170: f867 b6bb 0000 0000 0000 0000 2e91 25b9
00000180: 0000 0000 bb00 e8b9 e309 7cbb 0000 0000
00000190: 0000 0000 ff2c 95ba 0000 0000 2105 75ba
000001a0: 0000 0000 d3b0 33bb 69bf 00ba 0000 0000
000001b0: 8824 333e 972e 4bbb 0000 0000 3bee a5ba
000001c0: 0000 0000 0000 0000 0000 0000 6ecd 88bb
000001d0: 0000 0000 e495 bfb9 0d1a 11bc e69e c4bb
000001e0: a323 a1bc 44bc 04bb 5d56 d2bb 1880 f6bb
000001f0: e2db 0bbb 6ad1 26bc ba45 3fb9 c4f2 03bc
-0.00805749 -0.012262704 -0.009016066 0.0 0.0 -0.0013794744 -0.006294474 -0.004972709
0.0 0.0 0.0 -0.009581452 0.16442798 0.0 -0.006314377 -0.011764034
-0.0109990565 0.0 -0.0066889427 0.0 0.0 0.0 -0.010236016 -0.0051684966
-0.0009221884 -0.002406194 0.0 0.0 0.0 0.0 -0.0039464612 0.0
0.0 0.0 0.0 0.0 0.0 -0.010971973 0.0 -0.00560586
0.0 -0.0065096454 0.0 0.0 -0.0133728655 0.0 -0.008929799 0.0
0.0 0.0 -0.0011229756 -0.0065098004 0.0 -0.0009023177 0.0 -0.010492576
0.0 -0.0021313992 0.0 -0.013069742 -0.004341135 -0.010649817 -0.003000842 -0.009698432
-0.01002826 0.0 0.0 -0.0051964987 -0.0015822719 0.0 -0.009800128 -0.002641793
0.0 0.2444937 -0.0028710857 0.0 0.0 0.0 -0.011345236 -0.009134982
-0.014176542 -0.010358552 -0.005547916 0.0 -0.020746527 -0.014912124 0.0 -0.0039010027
0.0 -0.0035488273 -0.009968364 0.0 -0.0055665933 0.0 0.0 -0.0001578971
0.0 -0.00044251033 -0.0038458041 0.0 0.0 -0.0011381208 0.0 -0.00093467726
0.0 -0.0027418628 -0.0004911335 0.0 0.17494404 -0.0031003112 0.0 -0.0012659499
0.0 0.0 0.0 -0.0041748798 0.0 -0.00036542036 -0.008856309 -0.0060003875
-0.019670313 -0.0020253817 -0.0064189867 -0.007522594 -0.0021340777 -0.010181764 -0.00018241155 -0.008053485

cvae_parameters.dec_00_lin_w f4 [128, 35]
00000000: 0214 b1bc 36d8 903c 8723 0f3b 346e fa3a
00000010: 373e b43b fcb9 da3b 66ac 303b 629a 0bbc
00000020: e004 3e38 82c1 333c e1c5 713b c097 24bc
00000030: 1157 d6bb 8c94 5d3c ddd4 a63b 37d8 73bc
00000040: 6b91 07bd f968 263c 5625 07bc 1f76 c13b
00000050: 61b7 16bc 810f 55bb 4034 d83a 87c1 ecba
00000060: d403 1abc 9372 96bb e108 bebc b4d6 243c
00000070: 1ec7 04ba 7a8e 7d3b a928 03bc 4c8a 45ba
00000080: e2fa a4ba 94b9 83ba 9449 a2bb 8c41 1abc
00000090: 661c 0e39 a1b1 66bb e71e acbc 1887 24bb
000000a0: 8e48 debb c7f1 71bb cb4d e4bc 220d 933c
000000b0: 62c3 5f3b 5990 513c b433 7b3b f002 42bc
000000c0: 9b54 5bba 7b90 ebbb 6ff7 ffb9 9aad 1f3c
000000d0: a09b 943b 0e97 1ebc 080d 883c fcfb 893c
000000e0: 6ef7 00bc b7be 35bb e221 c33a 43e0 253c
000000f0: e8d5 323c 4e7d a6ba 2d95 ffbb 1054 933b
00000100: 8fa3 2bbc 97c2 603b 260d 19bc ce92 623a
00000110: 0bc1 37bb c540 d5bb 88f2 a03c 5a1a bfbb
00000120: 4175 7abc de75 84bb 658d 993c a5a8 08bb
00000130: 411b 083c 7d85 c03c ba95 b23b 361f 4fbb
00000140: 88b5 0abc 9daa 9e3c 52f0 f3bb b128 fe39
00000150: d7fb 8b3c 091a dabb e859 b43b 2196 5eb8
00000160: ee07 2d3c c0f5 f2bb e7dc 88bc 4354 693c
00000170: 4901 3cbb dfb8 fbbb 960d 513c 22cc 97bc
00000180: 4c48 efba 4859 043c e59d 293c 7f3e dc3b
00000190: 39c5 88ba d80b b73b 2fa9 b53a fa41 b03b
000001a0: ef65 543c a5ea 533b 6106 ee3b b378 a838
000001b0: 82b8 973b 0e83 9dbb 4928 a5bc d49e 123b
000001c0: a0f7 4f3b 9b55 b43b a324 92bc e6d9 f0ba
000001d0: 9710 863c daae 92bb 523b dabb fef6 3d3c
000001e0: 4408 013c 2433 a239 75b4 31bb 1708 10bc
000001f0: d7d3 d4ba 9e67 b53b f0c3 1ebc 9974 d73c
00000200: 4e7f 79bc a1c1 edbb 5e5a bb3a 7392 673b
00000210: d0e2 403b 3f58 a0bc 636e 11bc dd49 b63b
00000220: 07d5 b1ba 0385 753b a791 d6bb 8913 f83b
00000230: 2e7d 543b b754 cbbb b08a c03b 5378 fabb
00000240: 857f ed3b e920 79bb 1793 043c 8f5e c43a
00000250: 6c16 04bc 8373 0fbc cb54 e33a 9212 7fbb
00000260: 909b 053c 7a5d 9e3c 8fd6 373b 4c8d fcbb
00000270: 9d70 063c 8903 1f3b 3f09 863a d124 223c
00000280: bc7d 923b 8653 b2bb 26f2 82bb b932 b1bb
00000290: 1474 89bb 536c 953b 6d54 20bc c621 463a
000002a0: 72f9 a2ba 605f b83b d272 e8b9 4b95 2d3c
000002b0: e79b 153c 6c64 d9bb f882 23bb f7d9 bd3b
000002c0: 4c06 adbb be10 2bbc 40ba 423b b3f0 2bbc
000002d0: d941 dbbb b350 85bb b9f6 f4bb 0b1c 923c
000002e0: 9831 1abc 959d 47bc 5098 23bc 1e43 f3b9
000002f0: 0a11 c03b c12a fcbb 7e1e b7ba 3b86 4abb
00000300: 95f3 53bb a3dc 7bba 2854 27bc 5eb8 3a3a
00000310: 6703 4a3c 7eb7 4c3c 39f1 63bb 32a9 923c
00000320: 9bc6 36bb af41 b13c b5e1 9c3b 063c 3bbc
00000330: 6b51 413b b97c 9fbb a469 3abc 343f 34bb
00000340: d86e aeb8 4e72 3ebc c13c a03c 3458 08bb
00000350: 49de a2ba a541 08bb 9498 993b 8752 8ebc
00000360: 3e25 9dbb 6337 cabb f0fb d7bb 066b 6dbc
00000370: ea50 f1bb daa7 1fbb b90c 753c dd15 2bbc
00000380: ce73 ad3b 7a7f 87bc 2a55 213c e401 023c
00000390: 8428 0b3a d5ed 983c b089 eebb 1c80 af3b
000003a0: 09b8 7dbb 683f a9bb 7fad c73b f4a3 2bbb
000003b0: 9c0b a9bb 8970 f53b 0406 563c f72c f93b
000003c0: 16db 9d3c 5d11 37bb 7a18 17bc e939 653b
000003d0: 9b5e 923c 7e4f 1d3c cc17 64bc f902 1bbc
000003e0: eba6 243c 375e 3cbc fadd bf3c 50c3 d6bb
000003f0: 4208 b03c 48c6 043c cc38 c53c 98ae 923c
-0.021615986 0.017681222 0.0021841244 0.001910633 0.0055005806 0.006675003 0.0026958226 -0.008520694
4.530407e-05 0.010971429 0.0036891627 -0.010045946 -0.006541141 0.013524186 0.0050912932 -0.014883093
-0.033097666 0.010156863 -0.008248648 0.0059039737 -0.009198994 -0.0032510462 0.0016495064 -0.0018063047
-0.009400327 -0.004591295 -0.023197593 0.010060955 -0.0005065071 0.003868966 -0.0080053 -0.00075355615
-0.0012586976 -0.0010049813 -0.004952619 -0.009415042 0.00013552755 -0.003520109 -0.02101083 -0.0025104936
-0.0067835515 -0.0036917792 -0.027869126 0.017950598 0.0034143557 0.012790763 0.0038330378 -0.011841521
-0.0008366794 -0.0071888543 -0.00048821743 0.00974598 0.0045351535 -0.009679569 0.016607776 0.016843788
-0.007871492 -0.0027732083 0.0014887417 0.010124269 0.010915257 -0.0012702139 -0.0077997656 0.004496105
-0.010476007 0.0034295672 -0.009341514 0.00086430914 -0.0028038647 -0.0065079653 0.019646898 -0.005831999
-0.015286745 -0.004042371 0.01874418 -0.0020852473 0.008307279 0.023501152 0.0054499777 -0.0031604297
-0.008466132 0.019368464 -0.00744442 0.00048476973 0.01708786 -0.0066559357 0.0055038817 -5.3068743e-05
0.010560973 -0.0074145496 -0.016706897 0.014241281 -0.002868729 -0.0076819505 0.012759587 -0.018529955
-0.0018255799 0.008077927 0.010352586 0.0067213173 -0.0010434753 0.0055861287 0.0013859625 0.005378959
0.012963756 0.0032335904 0.007263944 8.033346e-05 0.0046301493 -0.0048068827 -0.020160811 0.00223725
0.003173329 0.005503369 -0.017839735 -0.0018375486 0.016365333 -0.0044764103 -0.0066599036 0.011594532
0.007875506 0.0003093715 -0.0027115617 -0.008790991 -0.001623745 0.005536034 -0.00969027 0.026300715
-0.015228106 -0.0072557484 0.0014293899 0.0035335093 0.0029432066 -0.019573329 -0.008876416 0.0055630044
-0.0013567515 0.0037463314 -0.006548125 0.007570688 0.0032423246 -0.006205167 0.005875908 -0.0076437383
0.0072478675 -0.0038014 0.00809171 0.0014981794 -0.008061986 -0.0087555675 0.0017343996 -0.003892098
0.008154765 0.019331682 0.002805147 -0.0077072736 0.00820556 0.0024263582 0.0010226144 0.009896473
0.004470555 -0.0054420857 -0.0039961515 -0.005407658 -0.004194746 0.0045600324 -0.009785754 0.0007558133
-0.001243396 0.005626604 -0.00044336036 0.010594676 0.009131408 -0.0066342857 -0.002494989 0.0057938057
-0.0052802917 -0.010441003 0.0029713064 -0.010494399 -0.0066911993 -0.004068458 -0.0074757007 0.017835638
-0.009411238 -0.012183567 -0.009985045 -0.00046398578 0.005861406 -0.0076955264 -0.0013970879 -0.0030902762
-0.003234123 -0.00096077676 -0.0102129355 0.000712281 0.012329913 0.01249492 -0.003478123 0.017902944
-0.0027889374 0.021637766 0.0047876486 -0.011427885 0.0029497992 -0.004867163 -0.011377726 -0.0027503492
-8.317613e-05 -0.011623932 0.01956022 -0.0020804526 -0.0012425865 -0.002079108 0.004687378 -0.017373336
-0.0047956994 -0.0061711534 -0.0065913126 -0.014490848 -0.007364382 -0.0024361522 0.014956647 -0.010442224
0.005293346 -0.016540278 0.009846965 0.007935021 0.00053084665 0.018668095 -0.007279597 0.005355848
-0.003871443 -0.0051650293 0.0060936804 -0.0026190253 -0.0051588546 0.007490222 0.013062958 0.007604237
0.019269507 -0.0027933933 -0.009222144 0.0034977144 0.017867377 0.009601472 -0.013921689 -0.009461158
0.010049562 -0.011497072 0.023421276 -0.006554045 0.021488313 0.008103915 0.024074934 0.017905518

cvae_parameters.dec_01_lin_b f4 [128]
00000000: 64fd 0cbc 0000 0000 ff80 d23d 6c19 47bb
00000010: 0000 0000 c9ac 903b b056 a03b 210d db3b
00000020: cf2d 2d3d 3e7b fb3c 696d 153b 0000 0000
00000030: e021 be3b 94dc 583c 835d 893b 8d15 8a3d
00000040: dcff c5ba 1d1b b33b 1ecd 663c 1043 c3ba
00000050: 3d8f 29b8 155e 8d3b 0898 293b df5a 613c
00000060: 935c 36b9 245d 0dbc 6d11 843b cab1 15bb
00000070: a5f3 cdbb 0000 0000 beaa 733d 0c90 903b
00000080: 222c 3a3b 5ce4 62bb d5da 4e3c b3a8 d43d
00000090: 689c 123b 8028 b6bb ef7a c93a a0e2 0b3e
000000a0: 519d e23b a9ea 27bb 610d 0b3c 470b 27bb
000000b0: bdf2 79ba a9b0 5c3d 9828 bcba 4aca 353b
000000c0: 6745 333c 9cba 8c3d 0000 0000 a5ac 143c
000000d0: c014 30bb 1993 923b 1e52 9eba 088e 913c
000000e0: 565d db3b b5a5 03bc b2f2 03bc 4249 e03c
000000f0: bdab 8b3b 1d54 8f3b 48f8 ba3b 0463 383d
00000100: bb41 93b9 d546 0ebb 38e5 4a3b 413e 71ba
00000110: 9858 213d 720a 9d3b c225 e6bb 0000 0000
00000120: 0000 0000 4676 d83c 47fa 013c ebf3 59ba
00000130: 4901 d3bb 3724 153c 54a6 353e 0000 0000
00000140: 57ae c23b 581c ab3b 1e97 88ba 071a 013c
00000150: 16c6 9d3d 726a b23a 67e9 46bb 7bd8 86bb
00000160: a6a8 bc3a 02ba 8e3b 6891 8f3b 56f8 ccba
00000170: 0d5f f73a cad1 083d 9c8e 74bb 8745 713b
00000180: 2b24 c3bb 1030 a1b9 3d5a b5ba 566d 61b9
00000190: 96d2 be3b 276c 01bb afd7 07bb c20c 613e
000001a0: bf33 073d 8cbd 383d 375e deba 5b2a 633d
000001b0: b026 353d 4674 3b3c 5e1b e03d cd7e 043e
000001c0: 0000 0000 d3a2 973d 9229 193b f4bc 12bb
000001d0: a4da 9f3b 1e1a 943b 62db 293c e3e8 933d
000001e0: 685d 943d 0000 0000 d6bf e23d 1987 d0ba
000001f0: 3068 dc3b 32f9 b03d b680 4f3c fdfa 613d
-0.008605335 0.0 0.1027851 -0.0030380143 0.0 0.004415129 0.0048931465 0.0066849147
0.042280015 0.030698415 0.002280081 0.0 0.005802378 0.013236184 0.0041920557 0.06742392
-0.0015106159 0.0054658786 0.01408699 -0.0014897306 -4.042614e-05 0.004314194 0.0025877971 0.0137545755
-0.00017391359 -0.0086281635 0.0040303976 -0.0022841566 -0.006285148 0.0 0.059489004 0.004411703
0.0028407653 -0.0034620976 0.012625416 0.10383739 0.0022371057 -0.005559027 0.001537172 0.1366067
0.0069157262 -0.0025622046 0.0084870765 -0.00254889 -0.0009534767 0.053879414 -0.001435536 0.0027738982
0.01094184 0.068715304 0.0 0.009074365 -0.0026867837 0.004473102 -0.0012078916 0.017767921
0.006694476 -0.008035113 -0.008053469 0.027378682 0.004262416 0.0043740408 0.005705867 0.045016304
-0.00028086998 -0.00217097 0.003095938 -0.0009202697 0.03939113 0.004792505 -0.007023544 0.0
0.0 0.026423585 0.007933206 -0.00083142397 -0.006439362 0.009102873 0.1773923 0.0
0.005941193 0.0052218847 -0.0010421013 0.007879741 0.077037975 0.0013612045 -0.003035152 -0.004115162
0.0014393523 0.00435567 0.0043813474 -0.0015637975 0.0018872932 0.033403195 -0.0037316447 0.0036815123
-0.0059552393 -0.00030744122 -0.0013836097 -0.00021498403 0.0058234436 -0.0019748302 -0.0020727923 0.21977523
0.033008333 0.04510264 -0.0016965334 0.055460315 0.04422635 0.011441296 0.1094272 0.12938996
0.0 0.07404103 0.0023370725 -0.0022390457 0.004878359 0.004519715 0.010367246 0.07222154
0.07244378 0.0 0.11071746 -0.0015909403 0.0067262873 0.0864128 0.012664964 0.055171

cvae_parameters.dec_01_lin_w f4 [128, 128]
00000000: b6a2 413c d4ba d13b 5e85 22bc 18ef 6bbc
00000010: affb 0b3c b09c 27bc a9b2 05ba 799f d1bc
00000020: f0d7 44ba 709a a83a 973f 33bb 5493 a8bc
00000030: ea78 e63b 9c82 783c bbba 113c 8374 85bc
00000040: fffc bab9 94a1 8e3b 5534 58bb e91c 273b
00000050: cbb4 1dbb b74e 82bb 6b56 08bc d6a0 27bc
00000060: 286e dbbc d76a 0139 2d9e 4a3c 4216 8f3c
00000070: c3c4 1abc 3880 3ebc 9bde 2139 cbe6 30bc
00000080: c22f 113c 12c0 9abc 5734 74bc 994e bbbb
00000090: 8aac 6c3c a823 db3a 5919 a53c bc63 16bb
000000a0: 6bd2 0b3c 121a 15bc 0430 09bc 9b38 14bb
000000b0: 1995 4c3c 8c34 213c f2e8 053b 42f0 263b
000000c0: dc66 cd3b 9fdc 02bb bc8e 0c3b 46b0 25bc
000000d0: 4e4c 59ba 7520 74bc c52f 5abc 35ae b63b
000000e0: 5b41 dcbb 9bc2 cd3b febf 60bc c8bf 85bb
000000f0: a163 76bc abf7 183c 5e81 22bc 1d22 98bb
00000100: 44ca 26bb eb42 d8bb 7742 95ba 0daa 83bb
00000110: 6691 a0bb fbb9 13bc 0e38 16bb 05b6 2a3a
00000120: d3d3 4bbb 3e55 813b dada 3fbb c962 ce3b
00000130: 41ad b8ba 0f5a 26bc 9756 b0bb a9c4 34bc
00000140: 53bd 3239 ba4c 793c 58e4 1abc 7bb4 d93b
00000150: 30b0 173c 6d0d 553c 24d4 27bc 4d01 2fbb
00000160: 3ddc 80ba c236 933c 35bc c7bb 7b36 8dbc
00000170: a39a 433b a148 453a a177 653c b295 95bc
00000180: d02b 36bc 069e d8bc 01c1 9c3b 984c 85bb
00000190: 1346 6b3b e261 1fbc c4b0 36bb 304b 96bb
000001a0: 3e3b bcbb 6046 ff3a c67d f23b 9354 ff3b
000001b0: d8d5 523b 3c57 dabc bc4c d7bb db21 80bb
000001c0: 6ef2 653c 4fe6 f13b 1466 9e39 3a1a 0aba
000001d0: 9d4c 84bc 081c 103b 048c 83bb 7ebf 50bc
000001e0: 5ce8 8bbb 1a3d 2e3b d6b8 31bc 212b 6f3b
000001f0: b852 25bc 2d17 bb3a 1442 283c a31e 8c3c
00000200: 694d 29bc 6ddc a13b 295c 06bc 7038 c639
00000210: e81f 113c 231a 09bc 105d 63bc e1f1 11bb
00000220: 8b2b 04bb 1c79 26ba c488 983b dbfc a1bb
00000230: 54e0 d3bb 1e83 da3b 4192 bbb9 7e6a 88bc
00000240: 0bad 41bc d94f cfba 6ffd 3ebb 95b6 453a
00000250: 5c87 bb3b c34e 073b 3e7a 3d3c 55a0 9fbb
00000260: 1b38 00bc f9c7 3abc 2a85 bbbb 461e 273c
00000270: 6338 f13b dbbd c0bc 9d09 d0bb 1e26 0fbb
00000280: 828e 21bc 0ea6 91ba 62b2 85bc c9c7 e53a
00000290: 6358 7fb7 8be1 923b 612a 49bc bbc0 8a3b
000002a0: e18e ed3c fd2e 1dbc c47a 353b b892 833c
000002b0: b49a d13b 8a81 8abb 528c 21bb 8da7 a03b
000002c0: e72a 333c 8f8b 5c3c 6efe 68bc dec6 2f3c
000002d0: de4d 08bc 5bfc 493c 9761 94bb 826a d5bb
000002e0: 5262 3e3c fbb4 793c 19cd 493b 647b 1ebc
000002f0: 559a 8eba 40ad 6d3a 18f8 fcbb 5e0a ebbb
00000300: 3d7b 363c 003a 2c3c 959f 03bc d56b 3fbb
00000310: 29b9 54bc 19d1 73bc 546a f4ba 065a 923c
00000320: f361 5d3b 525d 1ab9 619b b73b 15c0 39bc
00000330: 2b45 ec3b f7c0 f3bb 2741 863c 132c 55bc
00000340: 6f83 323b 7cbd 01bc 1150 103c 37a2 013b
00000350: 15cf fc3b 18a9 6fbc f765 c2ba 2eae f63b
00000360: a22c 0ebc 8b82 b8ba c7fd 613a fc47 51bc
00000370: 5fe3 11b8 73ec a13b 2bb8 393c 42c3 17bc
00000380: 7d61 14bc 8ebf c1ba 99c9 6dbb 4e5e 563b
00000390: ce3d 103c ab8c 84ba eeb4 92bb 5243 7bbb
000003a0: 5cc7 d63b 4234 f5bb 931c c53a 38dc d7bb
000003b0: ddd9 f3ba b637 883b ea80 fbb8 0437 9fbb
000003c0: 8703 2cbc 05cd 34bc bda0 8cba b9d8 10bc
000003d0: c108 fa3b 87e2 173a d6f0 973b 7870 2f3a
000003e0: e077 8cbc 57bf a13b 94ab 073c a9f7 3cbc
000003f0: 390b a63b e9ce d43c f81c 63bb 3981 e5bb
0.0118185785 0.0064004455 -0.0099194925 -0.014400266 0.008543893 -0.010230228 -0.000510017 -0.025588738
-0.0007508984 0.0012863409 -0.0027351135 -0.020578064 0.007033457 0.015167858 0.008894618 -0.016290909
-0.0003566518 0.0043527577 -0.0032990177 0.002549941 -0.002406406 -0.0039766687 -0.008321385 -0.010231217
-0.026785925 0.000123422 0.012366814 0.017466668 -0.009446326 -0.011627249 0.00015437083 -0.010797213
0.008861484 -0.018890414 -0.014905057 -0.0057161567 0.014445433 0.0016719 0.020153688 -0.002294763
0.008534054 -0.009100454 -0.008373264 -0.0022616747 0.0124867195 0.009839188 0.0020433036 0.0025472795
0.0062683653 -0.0019967926 0.002144738 -0.010112828 -0.00082892634 -0.0149003165 -0.013317053 0.0055749663
-0.006721658 0.0062793023 -0.0137176495 -0.0040817 -0.015038402 0.009336392 -0.009918539 -0.0046427385
-0.002545015 -0.006599774 -0.0011387606 -0.0040180744 -0.0049001453 -0.009016509 -0.0022921595 0.00065121084
-0.00311016 0.0039469292 -0.0029274733 0.006298397 -0.001408972 -0.010153308 -0.005381416 -0.011033216
0.00017045932 0.015216047 -0.009453855 0.0066438294 0.009258315 0.013003689 -0.010243449 -0.0026703656
-0.0009831261 0.017970446 -0.006095434 -0.017237892 0.002984681 0.0007525776 0.014005573 -0.018259857
-0.011118844 -0.026442539 0.00478375 -0.0040679686 0.0035899922 -0.009727927 -0.0027876357 -0.0045866
-0.005744367 0.001947593 0.0074002473 0.0077920645 0.0032170918 -0.026652925 -0.0065704267 -0.003910286
0.0140348505 0.0073821913 0.00030212163 -0.000526819 -0.016149813 0.0021989364 -0.004014494 -0.012740968
-0.0042696428 0.0026586712 -0.010847291 0.0036494213 -0.0100905225 0.0014273875 0.0102696605 0.017104452
-0.010333397 0.004939607 -0.008200684 0.00037807552 0.008857705 -0.008368048 -0.013877168 -0.0022269415
-0.0020167555 -0.0006350444 0.0046549756 -0.004943473 -0.006465951 0.0066684624 -0.00035776387 -0.016652342
-0.011821042 -0.0015816643 -0.0029142757 0.00075421605 0.005722923 0.002064631 0.011564789 -0.004871408
-0.007825877 -0.011400216 -0.0057226615 0.010200089 0.007361458 -0.02352803 -0.0063488022 -0.0021842788
-0.009860637 -0.001111211 -0.016320411 0.0017530854 -1.5219764e-05 0.004482453 -0.01227817 0.004234401
0.028998794 -0.009593722 0.0027691582 0.016061172 0.006396616 -0.004226868 -0.0024650288 0.004902786
0.010935522 0.013461008 -0.014220817 0.010728566 -0.008319346 0.012328233 -0.004528235 -0.006512941
0.011620121 0.015240903 0.0030792414 -0.009672973 -0.0010879735 0.0009066649 -0.007720005 -0.0071728667
0.011137781 0.010511875 -0.008033653 -0.002920856 -0.012983599 -0.014881396 -0.0018647411 0.017865192
0.0033780306 -0.00014721349 0.0056032394 -0.0113373 0.007210394 -0.0074387747 0.016388489 -0.013010996
0.0027238985 -0.007918712 0.008808152 0.0019780525 0.007715116 -0.014627717 -0.0014831413 0.007528088
-0.0086776335 -0.0014076991 0.00086208846 -0.01277351 -3.478245e-05 0.004941517 0.011335413 -0.009262862
-0.009056446 -0.0014781819 -0.0036283492 0.0032710019 0.008803798 -0.0010112723 -0.004477135 -0.0038339687
0.006554527 -0.0074830363 0.0015038423 -0.0065875314 -0.0018604357 0.004157032 -0.00011992625 -0.0048588533
-0.010498888 -0.011035209 -0.0010729056 -0.008840733 0.007630438 0.0005793948 0.004636864 0.00066924794
-0.017147005 0.0049361396 0.0082806535 -0.011533656 0.005067256 0.025977569 -0.0034654718 -0.00700393

cvae_parameters.enc_00_lin_b f4 [128]
00000000: 6c50 6bb8 3c78 f938 d8d0 77b8 b115 80b7
00000010: 45e0 e9b8 f85a c236 67f8 e8b7 6876 4f38
00000020: a281 21b7 4f0d b8b7 5d64 1fb8 7232 29b7
00000030: 4cc5 92b8 abc0 e3b6 ba8d 8c38 327c 0637
00000040: 19c6 a7b7 7142 b237 bfec 36b6 74cc 9134
00000050: 15f2 3438 13d9 03b8 e9aa 9db6 4980 04b9
00000060: 9f70 4db7 09d1 03b9 e6c6 36b8 84df c437
00000070: 4784 bdb8 a070 1238 0193 d437 b097 2c38
00000080: 1e21 e137 5182 3338 0cc5 9e37 eb5f 3f38
00000090: f695 0838 8de7 2fb9 034d 28b8 6fef 2737
000000a0: de53 3d36 6276 abb7 28cd c636 c25b 5238
000000b0: 0601 9738 79fb 8838 08df ef37 55a6 83b7
000000c0: 22d3 ce37 804d 0a38 3ad3 2d35 ecdd 1138
000000d0: c921 f5b6 1f21 1e37 fc1a b4b7 ef0d a3b7
000000e0: 5061 b9b6 d1bb 93b8 b20c f336 1f22 66b8
000000f0: 7be6 77b8 598b 7ab8 815e e6b7 f401 51b7
00000100: 1026 67b8 b7df 2a38 b6b0 b637 36f9 cab7
00000110: c235 8bb8 26af a136 ba07 a237 d8bf 39b7
00000120: 2fbf 9837 9aa6 65b7 18b9 3436 630b 5d38
00000130: eb54 8936 41af 89b7 356f 0db8 912f 0439
00000140: fa4e a237 03ad 72b6 5fd8 e4b6 01db 70b7
00000150: b0a3 e7b6 ac40 16b7 bbb8 2138 9364 35b6
00000160: b332 cc37 c76d 3138 ce10 e434 73f2 ebb8
00000170: 7d33 a4b7 f3c8 5038 b2aa 8138 a93a 6fb8
00000180: b4c5 a7b8 9351 9e38 63f9 a537 c580 2238
00000190: af04 2eb8 0d77 03b8 9410 e0b7 1151 5837
000001a0: c375 8db7 5738 88b8 7e4b 9138 4515 9536
000001b0: 17d7 b5b2 b6f5 49b7 b27d 15b8 a234 9eb6
000001c0: 8d70 86b8 736b a1b8 7591 4638 8feb 6bb8
000001d0: e153 4ab8 c767 2738 a767 1238 0180 beb8
000001e0: 4e13 4837 dc26 1338 fe4d 27b8 ce53 47b8
000001f0: 1377 2f38 084d b338 8a33 ac37 b492 0538
-5.6103265e-05 0.00011895641 -5.908389e-05 -1.526889e-05 -0.00011152079 5.7922407e-06 -2.7772227e-05 4.946292e-05
-9.62653e-06 -2.1940707e-05 -3.8002025e-05 -1.008493e-05 -6.998572e-05 -6.7875567e-06 6.702119e-05 8.015939e-06
-2.0000198e-05 2.1250193e-05 -2.7257918e-06 2.7157114e-07 4.31408e-05 -3.1435e-05 -4.698861e-06 -0.00012636291
-1.2245174e-05 -0.00012571005 -4.357742e-05 2.3469103e-05 -9.036861e-05 3.4914003e-05 2.5340823e-05 4.1149266e-05
2.6837512e-05 4.2798292e-05 1.8926825e-05 4.562728e-05 3.256459e-05 -0.0001677556 -4.0126044e-05 1.0009723e-05
2.8212012e-06 -2.0439915e-05 5.924743e-06 5.0153358e-05 7.200432e-05 6.531826e-05 2.8594877e-05 -1.5693871e-05
2.465543e-05 3.297394e-05 6.47549e-07 3.4777375e-05 -7.305502e-06 9.4252455e-06 -2.1470238e-05 -1.9437603e-05
-5.5247583e-06 -7.04449e-05 7.2434423e-06 -5.486805e-05 -5.910404e-05 -5.9734422e-05 -2.7462143e-05 -1.24578255e-05
-5.511014e-05 4.073951e-05 2.1778378e-05 -2.4196324e-05 -6.63805e-05 4.818564e-06 1.9315503e-05 -1.1071526e-05
1.8208839e-05 -1.3688254e-05 2.692983e-06 5.270111e-05 4.092804e-06 -1.6413282e-05 -3.372059e-05 0.00012606221
1.9348681e-05 -3.6161516e-06 -6.8201184e-06 -1.4356106e-05 -6.903392e-06 -8.955754e-06 3.8557435e-05 -2.7029644e-06
2.4342304e-05 4.2302327e-05 4.2480536e-07 -0.00011250833 -1.95743e-05 4.9778213e-05 6.182994e-05 -5.7036672e-05
-8.0000056e-05 7.5492215e-05 1.9785663e-05 3.8743736e-05 -4.1489195e-05 -3.134371e-05 -2.67106e-05 1.2893478e-05
-1.6863347e-05 -6.4954795e-05 6.9282e-05 4.443022e-06 -2.1168985e-08 -1.2037743e-05 -3.564143e-05 -4.714894e-06
-6.410582e-05 -7.697092e-05 4.7342346e-05 -5.6247747e-05 -4.823867e-05 3.9912553e-05 3.4905646e-05 -9.0837486e-05
1.1925424e-05 3.508372e-05 -3.988854e-05 -4.7523346e-05 4.1834148e-05 8.549733e-05 2.0527998e-05 3.18463e-05

cvae_parameters.enc_00_lin_w f4 [128, 163]
00000000: f072 38bc 03c8 3cbc aa28 24bb d23a 8ebb
00000010: f211 0b3c 40b0 e23b df37 4fbb 3347 adbc
00000020: 6236 533b 18ef 4ebc b164 653b 14b1 493b
00000030: 4d1c 9d3a 92bb 4a3c 34f3 363c 33dc 21bb
00000040: 54a3 5dbc 72e1 8abc 91c5 b93b 7fe9 013c
00000050: 662e c43b 8dd2 7ebc 7bec 5fbb 67d0 973c
00000060: f3cd f53b e79e bfbb 28bd e2ba dfb8 ef3a
00000070: 6a99 633c 04f0 813c 22ea 1a3c ee2b 0abc
00000080: f511 c9bb 10c9 a839 de50 a1bb 839f 223b
00000090: 9bff 8f3b 94ed 923a 739a d13b 04b2 903b
000000a0: e85c 86ba 24db 013c bef1 3dbb 1069 093a
000000b0: 8d46 ab3b 4c94 bc3c 9dd8 70bc 51eb 81bc
000000c0: 239a dcbb 72fa 0e3c 68d5 2c3c cacb e83a
000000d0: 67d7 16bb de6f 80bb 84bb b13b e92e 81bb
000000e0: 4042 92bb 47bd f33b 4122 793c d4b0 0b3d
000000f0: e5c9 7abc 7145 4abc 220b 953c b29e b4bb
00000100: a881 babb 8abc 163c 9502 363c d848 533c
00000110: e21b 72bc 813c d23c 3d11 9bbb c7f7 5b3b
00000120: 066e 85bc 87fd b3bb bf0b 9dbb cec0 a3bb
00000130: 52c5 2ebc e07e 363c ba58 b8ba 6410 043c
00000140: 7951 73ba 0636 e13b be38 09bc f6ed 1237
00000150: 43fc 093c 9648 83bb fd40 2a3c 17f5 6a3b
00000160: 5649 21bb 3c9d bc3c 9819 9abc 82b5 02ba
00000170: ed1c 2bbc 52b8 1cbc f228 ad39 fdc7 e83b
00000180: e3ce 863c 0ad6 5ebc a928 623b d145 aa3b
00000190: 3906 d6bc adf5 8abc 64ec 15bb 339a 373b
000001a0: 98e7 213b 8973 4b3a d7c9 5d3b fcd1 943b
000001b0: 4ee2 953b ecbd 0dbc 3cdf ff3b fdd0 17bc
000001c0: 864b 0fbb cb61 c7bc 9e78 3fba d4db b3b9
000001d0: 98b3 1d3c c5ed 643b cb03 17bc e3f7 13ba
000001e0: b2ff cbbb 2e97 97bb 7466 9d3c 2b02 84bb
000001f0: 0cf9 a13a 6ed6 3e3c cf3b 173c ee3a 633c
00000200: 52b0 10bc a220 89bb fbed 03bc 685d b93b
00000210: c7c4 c73b 46f0 983b eec2 9f3c eb2f 2ebc
00000220: 17b8 49ba 71b3 983a ffa4 c2bb 3ecd 4bbc
00000230: caa6 86ba 4856 29bc bf14 4dbb 451e 213b
00000240: 2209 2abb 6a61 9b3a a7ea 1f3b e0c7 3e3c
00000250: 7002 3d3b 0047 7d3b 47eb 03bb f55f 9aba
00000260: 28fe fb3a 45ef fcbb 1bad 9bbc b60b ab3a
00000270: 2cbe e6bb 081d 4e3b 3c12 ce3a a5ae 7c3b
00000280: 0775 1e3c f84a 23bc fea8 453b 3c7c 8cba
00000290: be8d 233c 8d86 a3bb 736d f93b 3f89 ca3b
000002a0: b3f5 4d3b 0cda 0b3b 0f96 9dba 5457 6c3b
000002b0: 30fc 4dbb bbc8 30bc a6ff 1d3b e4d1 64bc
000002c0: e3ef 2cba 47f5 6abb cde6 7fbc 044c 68bb
000002d0: 3b10 313c b8ac ab3a 44ef 803c bfc6 ff3b
000002e0: 5ec7 30bc fc60 ecbb 20ed 703c 379f 343b
000002f0: 3365 da3b f2fb 22bc 25d6 42bc ae14 44bc
00000300: 7979 b7bb 4ec5 ae3b bd4f 853b 1f6d 813b
00000310: 16fa df3a 706d 0f3c e737 3cbb bc55 273c
00000320: ba87 42ba f9d1 32bc bd8a 803b 9f24 c33b
00000330: bcce d83b 66ab 45bc 5bfb c63b e45b b3bb
00000340: 82ee 3f3c c75b 813a 58ce 1d3c 7ece 093c
00000350: 737e 4dbc eaa8 213c 3d22 a2bb 7648 52bc
00000360: aa93 1c3c a77b 523c 1a6f dabb b25d b93b
00000370: 9d1b 3c3b 41f0 afb9 4cf1 2dbc d0b2 96ba
00000380: a6be 60bb 61bf 803c e7b4 fa3a 4f36 793b
00000390: 8cf3 beba 26e1 d03b e95b 38bb 34f7 59bc
000003a0: e5cf b9ba d527 afbb be98 abbb d514 0d3c
000003b0: f47d 11bc c055 093c 72e0 3c3c 8b42 90bc
000003c0: fe05 72bc f4d8 8fbc 4c01 463a 22d3 30bc
000003d0: 3deb 6b3c d2ff 91ba 5716 bd3b 6305 ddba
000003e0: 9522 26ba 0527 2a3c d47e 143c 7adc 9bbb
000003f0: 3ca3 0ebc c6b0 bc3a 7dea 9b3c fd18 803b
-0.011257872 -0.011522296 -0.0025048652 -0.004340508 0.008488165 0.0069179833 -0.0031618995 -0.021152114
0.003222846 -0.012630247 0.0035002644 0.0030775713 0.0011986584 0.012373822 0.011166383 -0.00246979
-0.01352771 -0.016953204 0.0056693037 0.007929205 0.0059869764 -0.015553129 -0.0034168053 0.018531991
0.0075013577 -0.0058478 -0.0017298805 0.0018289349 0.013891557 0.015861519 0.009455236 -0.008433325
-0.006136174 0.0003219326 -0.00492297 0.0024814315 0.004394484 0.001120972 0.0063965856 0.0044157524
-0.0010251077 0.007925782 -0.00289832 0.0005241791 0.005226916 0.023019932 -0.014700082 -0.015859278
-0.0067322417 0.008726703 0.010548927 0.0017760929 -0.0023016573 -0.0039195856 0.005423965 -0.0039423597
-0.004463464 0.007438335 0.015205921 0.034104183 -0.0153069245 -0.012345658 0.018193785 -0.005512082
-0.0056917258 0.009200225 0.011109014 0.012895785 -0.014777156 0.025663616 -0.0047322796 0.0033564435
-0.016287815 -0.0054928693 -0.00479266 -0.0049973493 -0.010667162 0.011138648 -0.0014064529 0.008060548
-0.0009281855 0.006872895 -0.008375345 8.757683e-06 0.00842196 -0.0040064557 0.010391471 0.0035851651
-0.0024610362 0.023024194 -0.018811032 -0.0004986153 -0.010443908 -0.00956543 0.00033027638 0.0071039186
0.016456073 -0.013600836 0.0034509099 0.005196311 -0.026126014 -0.01696285 -0.0022876495 0.0028015494
0.002470469 0.00077610515 0.003384223 0.0045416337 0.0045740968 -0.008651238 0.007808594 -0.009266135
-0.0021865084 -0.024338624 -0.0007304045 -0.00034305325 0.009625338 0.003493176 -0.009217213 -0.0005644543
-0.0062255496 -0.0046261763 0.019213893 -0.0040285788 0.0012357547 0.011647804 0.009230568 0.01386903
-0.008831101 -0.0041847983 -0.008052344 0.005656887 0.0060964557 0.0046673147 0.01950213 -0.010631542
-0.0007694973 0.0011650157 -0.005940079 -0.01243907 -0.0010273096 -0.010335512 -0.0031292883 0.0024584692
-0.0025945385 0.0011854593 0.0024401338 0.011644334 0.0028840564 0.0038647056 -0.002012925 -0.0011777865
0.0019225525 -0.007718953 -0.019003442 0.0013049755 -0.007041713 0.003145041 0.0015721987 0.0038556245
0.009671456 -0.009966604 0.0030160542 -0.0010718177 0.009982524 -0.004990405 0.0076119243 0.006180912
0.0031426966 0.0021339683 -0.001202287 0.0036062794 -0.0031430833 -0.010790045 0.0024108677 -0.013966057
-0.0006597025 -0.0035851763 -0.015618992 -0.00354457 0.010807092 0.0013097739 0.01573909 0.007805675
-0.01078972 -0.00721371 0.0147049725 0.002756072 0.006664896 -0.009947764 -0.011891876 -0.011967821
-0.0055991975 0.005333579 0.0040683434 0.003949776 0.0017088081 0.008754119 -0.0028719844 0.010213312
-0.00074207375 -0.010914319 0.003922789 0.0059552933 0.0066164415 -0.01206479 0.0060724444 -0.0054736007
0.01171458 0.0009869271 0.009631716 0.008411048 -0.012542355 0.009866932 -0.004947929 -0.012834659
0.00955669 0.012846864 -0.0066660764 0.0056569213 0.0028702982 -0.00033557604 -0.010616612 -0.0011497382
-0.0034293323 0.015716257 0.00191274 0.0038026755 -0.0014568432 0.006374496 -0.0028130955 -0.013303567
-0.0014176337 -0.0053453245 -0.005236714 0.008610924 -0.008880127 0.008382261 0.011528121 -0.017609855
-0.014771936 -0.017559506 0.0007553294 -0.0107925255 0.014399347 -0.0011138862 0.0057704854 -0.0016862567
-0.00063375506 0.01038528 0.009063441 -0.0047565075 -0.00870591 0.0014395944 0.019032711 0.003909229

cvae_parameters.enc_01_lin_b f4 [128]
00000000: c9e9 bf38 eebb cf39 e662 a7b8 51ff 503a
00000010: 882a c6b8 9940 1539 ba8d c13a 8476 ddba
00000020: 8b7a 9cb9 f518 49ba f239 6337 bb56 cab9
00000030: fc20 4539 39a1 f5b9 4db5 543a ac5a 043b
00000040: 1349 14ba dfdc ebb9 80e4 46ba 1a9d a338
00000050: 5cd7 dfb7 b69f 943a 4a07 25ba 0144 a63a
00000060: c765 93ba 013b 3aba 7f46 0eb9 1429 ddb8
00000070: fa2e 4cb9 2c45 02ba 3338 f0b7 89dc e9b8
00000080: c1d8 0b38 6ad2 f8b8 cc52 dfb9 2bb3 b9b6
00000090: 71eb 3c3b ec00 c0b9 801f 7139 a3c4 90b8
000000a0: 8e16 323a f75c 6fb8 709f a73a 7f07 d1b5
000000b0: 9c16 7c39 df88 beba 59fb 57b8 fc2d 9b38
000000c0: bfd9 1739 eb51 8939 fbc3 5db5 261e 8536
000000d0: 1924 033a 7e03 e639 69fd 6639 a59b 13ba
000000e0: c1e6 8c38 d951 d33a a5d4 1839 1b7a 303a
000000f0: db6d 58b9 645c e8b9 d804 3cb9 1197 1639
00000100: 5111 5238 d69f 2a3a d77d 33b8 a6b3 b5b6
00000110: fb42 c0ba dbc0 b2b9 5aac 81b9 d557 183a
00000120: c4cd c739 f913 16ba 3cdf 44ba 814c 0fbb
00000130: 6b24 a3ba 383f d439 e42e bb39 019f 8cb9
00000140: 2b8d e9b9 092f bd38 9abb 3dba b160 3c39
00000150: ed94 0f3a 9c32 8439 4198 60b8 88be bb3a
00000160: a346 22ba 703d 6db8 ab87 f1b9 3e8e 5139
00000170: 08bb 6639 60cd 09b8 ea32 3ab9 5f36 aab9
00000180: 4f04 843a cf27 4639 638d a838 c876 9137
00000190: 4914 0e3b b565 3a3a b927 a3b8 6ca7 d939
000001a0: 5fe4 f23a 9009 c13a eb02 d53a 5d14 f3b8
000001b0: de59 c1b7 2dd9 0e3a 5bd2 843a 2fa5 dab8
000001c0: 8ca5 25ba cf9d 313a c26e 0abb f155 7e38
000001d0: 1808 593a f284 3038 2cb9 e7b9 1d33 1cbb
000001e0: 6ffe 9eba b812 2bba 7149 ec39 a1d8 e1b9
000001f0: 6782 0f39 f8a4 ee38 9494 86b9 a579 443a
9.1511356e-05 0.00039622135 -7.981602e-05 0.00079726154 -9.449298e-05 0.00014233812 0.0014766969 -0.0016896282
-0.0002984594 -0.00076712604 1.3543746e-05 -0.00038593062 0.00018799672 -0.00046850162 0.0008114174 0.0020195646
-0.0005656641 -0.00044987255 -0.000758715 7.801708e-05 -2.6683956e-05 0.0011339101 -0.00062953366 0.0012685062
-0.0011245542 -0.0007104129 -0.00013568437 -0.000105457526 -0.00019472456 -0.0004969414 -2.86364e-05 -0.00011151384
3.334205e-05 -0.00011864754 -0.00042595563 -5.5342875e-06 0.0028826857 -0.0003662178 0.00022995286 -6.9030815e-05
0.0006793522 -5.706862e-05 0.0012788605 -1.5573895e-06 0.00024041015 -0.001453664 -5.149408e-05 7.399541e-05
0.00014481599 0.0002619171 -8.2614105e-07 3.9672186e-06 0.00050026324 0.0004387162 0.00022028912 -0.0005630798
6.7187015e-05 0.0016122415 0.00014575066 0.00067320623 -0.0002064029 -0.00044319325 -0.00017930882 0.00014361391
5.008403e-05 0.0006508803 -4.2794123e-05 -5.415134e-06 -0.0014668399 -0.00034094494 -0.0002473321 0.0005811428
0.00038109545 -0.0005725022 -0.0007510071 -0.0021865668 -0.0012446766 0.00040482893 0.00035702356 -0.00026821348
-0.00044546401 9.020983e-05 -0.00072377326 0.00017965098 0.0005477209 0.0002521471 -5.354756e-05 0.001432375
-0.0006190335 -5.656242e-05 -0.00046068183 0.00019984783 0.00022004184 -3.2854616e-05 -0.00017757309 -0.00032465436
0.0010072085 0.00018897581 8.0371996e-05 1.7340659e-05 0.0021679571 0.00071104924 -7.7798446e-05 0.00041514204
0.0018531195 0.0014727581 0.001625148 -0.00011590936 -2.304924e-05 0.0005449232 0.0010133492 -0.00010425818
-0.0006318919 0.00067755295 -0.0021123146 6.063836e-05 0.0008279099 4.2085485e-05 -0.00044197717 -0.0023834177
-0.001213027 -0.00065259216 0.00045068146 -0.00043076745 0.00013686121 0.00011379452 -0.0002566917 0.0007494933
