dlpg/21/weights/dlpg_model_weights_250.pth (torch, 313083 bytes, 14 tensors)

cvae_parameters.dec_00_lin_b f4 [128]
0.18217523 -0.058454525 -0.058182422 0.06355105 0.16907285 -0.0847316 -0.048655044 -0.06816308
-0.067230865 0.17710052 -0.066975236 -0.05580281 -0.049231157 -0.057230376 -0.04654182 -0.02078983
-0.057753988 0.25300297 -0.049983576 -0.069086045 -0.06166162 -0.0386586 0.27990216 -0.056461163
-0.06321057 -0.0660526 -0.052165866 -0.06599305 -0.08046621 -0.05756165 -0.06538751 -0.062180705
-0.045040704 -0.047950473 -0.07314152 -0.07603266 -0.07304217 0.10259797 -0.05451258 -0.08079086
-0.054965 -0.06486772 -0.073279254 -0.011877223 -0.028585974 0.034418806 -0.056175966 -0.06078872
-0.044709947 -0.047252856 -0.06595451 -0.055297576 -0.07888863 -0.07741098 -0.06889702 -0.06647507
-0.06398222 -0.0573888 -0.05333665 -0.06569544 -0.044608854 -0.057518438 -0.0816136 -0.07388937
-0.07758215 -0.043394834 -0.079744466 -0.065782815 0.19381118 -0.07868339 0.19240013 -0.060272805
-0.06647109 -0.011911364 -0.072674386 -0.071575396 -0.06162602 -0.057727713 -0.030410303 -0.021757066
-0.05961977 -0.062502876 -0.05152079 -0.053189315 -0.061362457 -0.051099606 0.10553473 -0.07513065
-0.06963586 -0.03862234 -0.08306927 -0.07146121 -0.04258492 0.18577528 -0.05004547 -0.068692006
0.13578647 -0.069012165 -0.047865517 -0.05878066 -0.053222068 -0.07436337 -0.014878572 -0.06120655
-0.056726113 -0.08104793 -0.020545963 0.17040701 -0.058030225 -0.039949086 -0.058445774 -0.06673432
-0.05873037 -0.04533109 -0.030044891 0.03608262 -0.047976587 -0.063037135 -0.023784628 -0.092843235
0.04452337 -0.05776499 -0.030847874 -0.05181526 -0.063141145 -0.06577184 -0.056478914 -0.05611425
00000000: 258c 3a3e 036e 6fbd b150 6ebd 0e27 823d
00000010: 6f21 2d3e c387 adbd 834a 47bd 1699 8bbd
00000020: 56b0 89bd d759 353e 502a 89bd 7d91 64bd
00000030: 9ca6 49bd 666a 6abd a3a2 3ebd 6f4f aabc
00000040: 728f 6cbd 9b89 813e 94bb 4cbd fc7c 8dbd
00000050: e590 7cbd 7b58 1ebd 564f 8f3e d243 67bd
00000060: 8b74 81bd 9646 87bd e0ab 55bd 5d27 87bd
00000070: 78cb a4bd c4c5 6bbd e3e9 85bd 32b1 7ebd
00000080: 9a7c 38bd b767 44bd 39cb 95bd 03b7 9bbd
00000090: 2297 95bd e21e d23d 9548 5fbd ae75 a5bd
000000a0: fb22 61bd 5ed9 84bd 6f13 96bd af98 42bc
000000b0: 222d eabc bcfa 0c3d c518 66bd 98fd 78bd
000000c0: c721 37bd 368c 41bd 2813 87bd b67f 62bd
000000d0: 5d90 a1bd a689 9ebd e119 8dbd 1524 88bd
000000e0: 1c09 83bd 8510 6bbd 8877 5abd 558b 86bd
000000f0: c6b7 36bd 7498 6bbd 0825 a7bd 4f53 97bd
00000100: 64e3 9ebd c8be 31bd 1151 a3bd 24b9 86bd
00000110: 7076 463e c224 a1bd 8a04 453e 9ee0 76bd
00000120: ff21 88bd e227 43bc 4fd6 94bd 1f96 92bd
00000130: 916b 7cbd e573 6cbd 071f f9bc e03b b2bc
00000140: dc33 74bd 8201 80bd 7707 53bd 0add 59bd
00000150: 3357 7bbd d24d 51bd 9822 d83d 19de 99bd
00000160: 3f9d 8ebd 7532 1ebd 3920 aabd 415a 92bd
00000170: 866d 2ebd e03b 3e3e 7bfc 4cbd 65ae 8cbd
00000180: 9c0b 0b3e 4056 8dbd a20e 44bd fdc3 70bd
00000190: 62ff 59bd d34b 98bd 41c5 73bc b8b3 7abd
000001a0: a459 68bd 75fc a5bd 0250 a8bc 2d7f 2e3e
000001b0: 1ab1 6dbd a7a1 23bd d664 6fbd 01ac 88bd
000001c0: 428f 70bd 18ad 39bd b420 f6bc 5fcb 133d
000001d0: 1983 44bd 9d19 81bd fbd7 c2bc 9824 bebd
000001e0: 235e 363d fb9a 6cbd aeb4 fcbc 3d3c 54bd
000001f0: 2550 81bd 63b3 86bd 6f56 67bd 0ed8 65bd

cvae_parameters.dec_00_lin_w f4 [128, 35]
0.015208569 0.002871715 0.009710081 -0.017623106 -0.03232152 0.031258058 0.017362772 -0.04938005
-0.009591357 -0.0005109322 -0.00023908092 0.044493105 -0.04531093 -0.008294369 0.0045584757 -0.022821428
0.01028341 -0.013822775 -0.012343025 0.00060968014 -0.029574439 0.005264309 0.025307668 0.010614648
-0.035912413 0.0019489923 0.013334038 -0.014193421 0.024965294 0.0080291135 -0.008606618 0.043986183
0.0024212277 0.19423279 0.0038817045 -0.0070459144 0.009421165 -0.011891627 0.008433592 -0.0005804589
0.008833463 0.002022197 -0.0018713963 0.019877361 -0.012793305 0.011967557 0.010182046 0.005970777
-0.007380413 -0.00490697 0.020898804 -0.0007437189 0.014223216 -0.0004682867 0.013143203 -0.01802023
-0.002376034 -0.021296049 0.019659169 0.0008478882 0.00083854585 -0.0062910635 0.0038846803 0.014411896
-0.012947524 0.009636817 -0.0044480423 0.014796896 -0.058652017 -0.005321757 -0.011364441 -0.0029174406
-0.006687384 -0.012200392 0.014288691 -0.0069222143 -0.012554729 -0.01973529 0.00737403 0.0020724374
0.0016166954 -0.0055460576 -0.0062221303 0.011817572 0.0021382503 0.005976998 -0.005574266 -0.020417107
-0.007053953 -0.0060722344 0.018325811 -0.004851688 0.0054718973 0.008729643 0.008285927 -0.008772671
-0.014538046 0.006880155 -0.016980119 -0.0073110904 0.021367729 -0.0016957463 0.026339151 -0.0453113
-0.005241731 -0.026350806 -0.03480387 -0.019524606 0.004158609 -0.010109252 -0.012435289 0.009462073
-0.016440848 0.007499199 -0.023720559 -0.013775802 -0.009095305 0.016166365 0.031455822 0.0074069104
0.00050659524 0.012416071 -0.0021329934 0.0042387317 -0.020396851 0.0049570026 -0.024722554 0.04808746
-0.0050802096 -0.038814694 -0.0052131442 -0.03176762 -0.009111278 -0.00954512 -0.001199265 0.007537409
-0.024796763 -0.004030642 0.06629637 -0.003163791 -0.018961372 -0.014166089 -0.004168765 -0.012580057
-0.013107741 -0.0058736033 -0.028757274 0.03407986 -0.023148982 0.017855695 0.028843977 -0.045204103
-0.0034682588 0.0031578224 -0.018682418 -0.017895129 -0.025484223 0.035141576 0.013569534 0.00967405
0.025661323 -0.00043553577 0.007029825 -0.03595869 0.05680014 -0.040057734 0.005571583 -0.047937416
0.0030105808 -0.022222908 -0.022301389 -0.0133106345 -0.004464576 0.16955559 -0.0010892828 0.026638832
0.013010102 -0.014769644 -0.008040124 0.0020810897 0.010971768 -0.00750767 -0.0010979058 0.017535174
0.0025974112 0.0024034504 0.0065674377 -0.03440453 0.023525845 -0.0076134442 0.017488891 0.009338013
-0.015974963 0.001556691 -0.009135656 0.03617209 -0.023001406 -0.018878423 -0.029471472 0.060477857
-0.016309367 -0.010086632 0.020720446 0.0030728816 0.023982042 -0.005172311 -0.017750869 -0.010147929
-0.0681346 0.010107289 0.020336851 -0.019081717 -0.01100157 -0.022356506 -0.009973077 -0.00012750055
-0.0051895273 0.042546052 0.01562619 -0.016118828 0.0017483684 0.013142725 0.0043848576 0.007655573
-0.011937908 -0.016257456 -0.0061915745 -0.01887976 0.016498242 0.0066624847 -0.02679908 0.046043687
-0.0065624784 0.033705335 0.034394637 -0.002267706 -0.042954497 -0.011618254 -0.006706796 0.023160094
0.02557078 0.030098135 0.0032742866 -0.05831357 -0.007932676 -0.007962828 0.006689982 -0.005118506
0.0049136663 -0.0075276913 -0.0032326842 -0.006690311 -0.018611621 0.0053943703 0.006026591 -0.0019611546
00000000: 5d2d 793c 6233 3c3b 0817 1f3c 555e 90bc
00000010: 9263 04bd 7308 003d 5f3c 8e3c bc42 4abd
00000020: 1125 1dbc 14f0 05ba ccb1 7ab9 673e 363d
00000030: f497 39bd 1be5 07bc 445f 953b 01f4 babc
00000040: bf7b 283c ec78 62bc 663a 4abc f1d2 1f3a
00000050: 1846 f2bc 3980 ac3b 0752 cf3c 10e9 2d3c
00000060: e518 13bd 5475 ff3a 0277 5a3c 868b 68bc
00000070: 0484 cc3c 8b8c 033c c602 0dbc db2a 343d
00000080: 76ad 1e3b f6e4 463e 3264 7e3b 6ae1 e6bb
00000090: 3b5b 1a3c 19d5 42bc 0c2d 0a3c f029 18ba
000000a0: 3bba 103c d686 043b a449 f5ba d9d5 a23c
000000b0: 039b 51bc 9213 443c 99d2 263c 82a6 c33b
000000c0: 64d7 f1bb a6ca a0bb f833 ab3c 21f6 42ba
000000d0: 7e08 693c 6084 f5b9 9756 573c 299f 93bc
000000e0: 3cb7 1bbb 0d75 aebc 440c a13c d044 5e3a
000000f0: dcd1 5b3a 4425 cebb 1f96 7e3b df1f 6c3c
00000100: da21 54bc bde3 1d3c e2c0 91bb ae6e 723c
00000110: 193d 70bd 2262 aebb ec31 3abc 8832 3fbb
00000120: d821 dbbb 27e4 47bc 1d1b 6a3c bed3 e2bb
00000130: 5ab2 4dbc e7ab a1bc d9a1 f13b bbd1 073b
00000140: 4ce7 d33a b4bb b5bb 03e3 cbbb 7d9e 413c
00000150: e321 0c3b b1da c33b 55a8 b6bb c741 a7bc
00000160: d924 e7bb 98f9 c6bb 0320 963c e9fa 9ebb
00000170: 9a4d b33b c706 0f3c b2c1 073c 40bb 0fbc
00000180: fc30 6ebc ec72 e13b e419 8bbc df91 efbb
00000190: 600b af3c ce43 deba 34c5 d73c 5798 39bd
000001a0: d4c2 abbb a5dd d7bc 818e 0ebd 11f2 9fbc
000001b0: f144 883b 47a1 25bc 62bd 4bbc d006 1b3c
000001c0: f5ae 86bc d7bb f53b 9e51 c2bc e7b3 61bc
000001d0: 7904 15bc 536f 843c d2d7 003d abb5 f23b
000001e0: 08cd 043a c76c 4b3c b1c9 0bbb 0fe5 8a3b
000001f0: 4c17 a7bc 5a6e a23b f486 cabc 5bf7 443d
00000200: e377 a6bb 28fc 1ebd 06d3 aabb c41e 02bd
00000210: 7847 15bc 2363 1cbc a830 9dba 5ffc f63b
00000220: 9522 cbbc 7a13 84bb 64c6 873d 9b57 4fbb
00000230: e154 9bbc e218 68bc 239a 88bb 951c 4ebc
00000240: dac1 56bc 5b77 c0bb 6094 ebbc 5397 0b3d
00000250: efa2 bdbc 1b46 923c 344a ec3c f027 39bd
00000260: ba4b 63bb 78f3 4e3b df0b 99bc ce98 92bc
00000270: 4ac4 d0bc 9df0 0f3d c052 5e3c e87f 1e3c
00000280: b237 d23c 9f58 e4b9 725a e63b 6b49 13bd
00000290: 43a7 683d 9413 24bd d391 b63b 065a 44bd
000002a0: 2a4d 453b d10c b6bc 67b1 b6bc d914 5abc
000002b0: 944b 92bb fb9f 2d3e 44c6 8eba ae39 da3c
000002c0: 5328 553c 60fc 71bc b9ba 03bc e462 083b
000002d0: eec2 333c e702 f6bb 9be7 8fba eda5 8f3c
000002e0: 5439 2a3b 3583 1d3b a933 d73b c4eb 0cbd
000002f0: 46b9 c03c 337a f9bb dd44 8f3c 77fe 183c
00000300: eddd 82bc e209 cc3a b8ad 15bc 2f29 143d
00000310: 726d bcbc eca6 9abc 286e f1bc a1b7 773d
00000320: 399b 85bc 6742 25bc edbd a93c 6662 493b
00000330: fd75 c43c 7d7c a9bb 456a 91bc 8043 26bc
00000340: 278a 8bbd 0b99 253c 7899 a63c 4351 9cbc
00000350: ee3f 34bc fe24 b7bc 1e66 23bc abb1 05b9
00000360: e90c aabb c544 2e3d 7f02 803c a20b 84bc
00000370: 8229 e53a 9654 573c daae 8f3b 9adb fa3b
00000380: 3797 43bc 5b2e 85bc b1e2 cabb baa9 9abc
00000390: 5227 873c f950 da3b bf89 dbbc 4e98 3c3d
000003a0: 0f0a d7bb 9b0e 0a3d 64e1 0c3d cb9d 14bb
000003b0: 0ef1 2fbd 7d5a 3ebc afc4 dbbb 3dba bd3c
000003c0: d079 d13c 5d90 f63c 6a95 563b 36da 6ebd
000003d0: 0ef8 01bc 8576 02bc a337 db3b 24b9 a7bb
000003e0: d202 a13b daaa f6bb 71db 53bb 653a dbbb
000003f0: 6677 98bc 42c3 b03b b67a c53b b786 00bb

cvae_parameters.dec_01_lin_b f4 [128]
0.025226045 0.24120314 -0.008297977 -0.015999854 0.035085626 0.001679507 -0.004936232 0.045206726
0.034707334 0.01507692 -0.0029666054 0.031916816 -0.010899063 0.080697514 0.059629276 -0.023808902
0.031846542 -0.018889861 0.21397103 -0.011861668 0.06451194 0.2640468 0.022117836 0.0008328921
0.010491629 -0.0008480831 -0.0033370377 0.2305029 0.035386574 0.022089437 -0.004300119 0.026262064
-0.0009882953 0.03348264 0.089048326 0.0060570333 0.03942351 0.02533224 0.018691378 0.033994287
0.041098304 -0.0020181476 -0.001956298 0.013370027 0.023608614 0.07905829 -0.0027923856 -0.0091117425
-0.01171597 0.032552596 0.0511769 0.06834792 -0.0047649364 -0.016203832 -0.010711107 0.2129698
0.034361403 0.07001743 0.020929448 0.06466705 0.039963156 0.012437438 -0.012637513 0.0010248265
-0.004313382 -0.0071427072 0.0011299435 0.009937148 0.03656719 -0.0017758893 -0.015772954 0.04176768
0.03892752 -0.00096157397 0.052651573 0.004365049 -0.017760057 -0.008186959 0.23318261 0.017842954
0.009391673 0.027636318 -0.020035775 0.033710007 0.29912233 -0.011584285 0.002316614 -0.0047457633
0.030975543 0.011150562 0.095525816 0.025896411 0.42834276 -0.0149187865 0.025008028 -0.012752833
-0.0058893245 0.020646097 0.05895869 0.049480174 -0.025201758 0.022095276 -0.0012894464 -0.010173361
-0.001316584 0.02407212 -0.004685643 0.033741776 0.0042300113 0.020011526 -0.0046203877 0.020235218
0.024043739 0.060079966 -0.010870134 0.042797495 0.0004894672 0.010771776 0.17035682 0.17242806
-0.0047435565 -0.006804979 -0.0016187768 0.014413833 0.08939297 -0.0017517441 -0.018390968 -0.004136113
00000000: daa6 ce3c f5fd 763e 3df4 07bc 2012 83bc
00000010: f2b5 0f3d e722 dc3a 1ec0 a1bb b02a 393d
00000020: 4729 0e3d 3005 773c 616b 42bb 35bb 023d
00000030: fc91 32bc bd44 a53d d43d 743d e30a c3bc
00000040: 8571 023d e9be 9abc 391b 5b3e 7157 42bc
00000050: d61e 843d 2431 873e 7730 b53c 7156 5a3a
00000060: 15e5 2b3c e551 5eba 34b2 5abb f408 6c3e
00000070: 83f1 103d e8f4 b43c 03e8 8cbb 8a23 d73c
00000080: b089 81ba 1825 093d f85e b63d 147a c63b
00000090: 8c7a 213d 8f85 cf3c a91e 993c 983d 0b3d
000000a0: b256 283d e642 04bb 3c35 00bb f50d 5b3c
000000b0: da66 c13c 50e9 a13d 7500 37bb 6b49 15bc
000000c0: 57f4 3fbc df55 053d de9e 513d fff9 8b3d
000000d0: 2f23 9cbb e6bd 84bc a47d 2fbc c114 5a3e
000000e0: 8bbe 0c3d 4c65 8f3d 3c74 ab3c 2970 843d
000000f0: 68b0 233d 65c6 4b3c 920d 4fbc 7953 863a
00000100: 4557 8dbb 5f0d eabb 9d1a 943a 6bcf 223c
00000110: 7ac7 153d f5c4 e8ba 4836 81bc 9614 2b3d
00000120: 7772 1f3d 2312 7cba 2da9 573d af08 8f3b
00000130: 8a7d 91bc 9822 06bc 6cc7 6e3e 632b 923c
00000140: 88df 193c 8f65 e23c 1122 a4bc 8113 0a3d
00000150: 9026 993e 03cc 3dbc 55d2 173b 5982 9bbb
00000160: 6cc0 fd3c d9b0 363c 0aa3 c33d b624 d43c
00000170: be4f db3e ed6d 74bc a3dd cc3c 42f1 50bc
00000180: 3cfb c0bb 0122 a93c ab7e 713d b9ab 4a3d
00000190: eb73 cebc 2701 b53c a402 a9ba 2bae 26bc
000001a0: 3a91 acba e532 c53c 068a 99bb d134 0a3d
000001b0: e89b 8a3b 36ef a33c 9f66 97bb 54c4 a53c
000001c0: 60f7 c43c 6916 763d a618 32bc 6d4c 2f3d
000001d0: 964f 003a 1a7c 303c 0572 2e3e fb90 303e
000001e0: d66f 9bbb 4dfc debb 232d d4ba ff27 6c3c
000001f0: a913 b73d c79a e5ba a8a8 96bc 3b88 87bb

cvae_parameters.dec_01_lin_w f4 [128, 128]
-0.023748105 -0.008785998 -0.015878713 -0.025764784 0.0011171577 -0.014247991 0.011503868 0.008155622
-0.01642739 0.0006215542 -0.031879444 0.0033949192 -0.0035136994 0.008984017 0.005616397 0.014769949
0.000120985365 -0.033129208 0.024088345 -0.009278527 -0.005108405 0.009682614 -0.033648275 -0.024713606
-0.00692828 -0.016416801 0.0069016027 -0.018565442 -0.008247851 0.0049782037 0.0041012596 -0.00717425
-0.015687397 0.023714233 0.00093721756 -0.01875834 -0.0076853484 -0.047312476 0.0054869587 -0.008528874
0.022667946 -0.016111288 -0.0047145304 -0.012043212 -0.020631619 -0.0025673865 -0.01085606 -0.006534369
0.002491099 0.0073243766 -0.00647103 0.0045469245 -0.0152818775 0.0026243583 -0.0023514964 -0.012251786
-0.016453588 -0.014273646 -0.013453979 0.0046293694 0.009163927 -0.023897238 -0.012372628 0.008208139
0.006781495 0.011267651 0.00032795078 0.0028320856 -0.039654814 -0.013812345 -0.026873281 -0.036285345
0.012372485 0.008926687 -0.013607768 -0.010239673 -0.029386828 -0.015470168 -0.012795163 0.017899353
-0.012063109 -0.024354888 -0.05073456 -0.001964037 -0.025861023 0.01945086 -0.03238795 -0.0112336
-0.0067500416 -0.0012163946 0.012457393 -0.0007575641 -0.012003496 -0.02933777 -0.029962054 -0.021450657
0.00027046032 0.0008131461 0.003410746 -0.006071545 -0.0069789276 0.019247567 -0.036573734 -0.011396468
0.0023419398 -0.002941404 0.021527007 -0.052056234 -0.014820398 -0.00967087 -0.010192675 0.0033280335
-0.005492985 -0.0015629638 -0.013420161 -0.041148715 0.005336056 0.008785951 -0.0118995 -0.018735366
-0.010801157 -0.00066702004 -0.0251422 -0.011543961 0.002731248 -0.014071591 0.0070200614 -0.011420402
0.04588296 -0.007830226 -0.0035721827 0.01774678 0.031666894 0.005413642 -0.014163996 -0.0024592017
0.0039476985 0.06710148 0.017113635 -0.0017137426 -0.013804666 0.00450245 -0.009263436 0.0051890854
-0.0129858125 0.07769819 -0.0033247771 -0.0152451 0.02216439 -0.007971447 0.073242895 -0.00590936
-0.0009329741 0.0026386012 -0.015917918 -0.0031002627 -0.0042318217 0.009169808 -0.015437107 -0.021115862
0.0017297259 -0.0031577144 -0.0066184266 -0.017624708 -0.00951648 0.026188124 0.015027708 -0.00923121
-0.01782306 -0.0021388629 0.00063875545 0.018821042 0.0095241 0.000120511155 -0.01602598 0.0047892123
-0.016370827 -0.0052608987 -0.0025337387 -0.018502256 0.013019998 0.0064406525 -0.008791501 0.004651682
-0.014976943 -0.0059299055 0.0063893804 0.014225066 0.0012475641 0.012366239 0.008283227 0.014565823
0.0059836563 -0.002561561 0.014547758 -0.0014356629 0.050561856 0.0045684977 0.035777528 -0.0037741207
-0.009729612 0.013602786 -0.005503213 -0.0006617626 0.0021841652 0.009987341 0.0044534868 0.008535415
0.002433905 -0.0145083275 -0.0010400161 -0.0141269555 -0.021203298 -0.002659131 0.02849755 -0.0015357488
0.010263136 -0.0033393446 -0.0012768826 -0.011343095 0.0090652155 0.04303424 -0.011672381 -0.018616077
0.025483774 -0.011476254 0.005211237 0.007151688 0.0002898478 -0.0025894982 -0.00064113084 -0.027785115
-0.003905646 -0.009894648 -0.018390251 0.027882611 0.0009997113 -0.01617322 0.009054935 0.005233424
0.0084895855 0.0031840436 -0.0014968858 -0.0060592643 -0.00040817377 -0.007879418 0.0017609278 -0.017500184
-0.0034852882 -0.006117786 -0.01505565 -0.028446786 -0.0026355234 -0.01059766 -0.01522041 0.0044102315
00000000: 638b c2bc 26f3 0fbc 1314 82bc ab10 d3bc
00000010: 986d 923a 6870 69bc b87a 3c3c 289f 053c
00000020: bc92 86bc ccef 223a 0594 02bd 4b7d 5e3b
00000030: 1846 66bb b331 133c c109 b83b a8fd 713c
00000040: 86b9 fd38 7eb2 07bd ec54 c53c f704 18bc
00000050: 6864 a7bb d4a3 1e3c c6d2 09bd 3074 cabc
00000060: a006 e3bb 877c 86bc d726 e23b 8e16 98bc
00000070: ff21 07bc 3320 a33b dc63 863b f915 ebbb
00000080: db82 80bc 5a44 c23c 9baf 753a 17ab 99bc
00000090: 60d5 fbbb baca 41bd f2cb b33b b1bc 0bbc
000000a0: 21b2 b93c d2fb 83bc 597c 9abb e450 45bc
000000b0: a403 a9bc 9941 28bb 9edd 31bc 431e d6bb
000000c0: b541 233b 5301 f03b ef0a d4bb 5efe 943b
000000d0: d760 7abc 6dfd 2b3b 901b 1abb b7bb 48bc
000000e0: adc9 86bc 03dc 69bc 146e 5cbc f7b1 973b
000000f0: 4c24 163c 24c4 c3bc 90b6 4abc 6e7b 063c
00000100: 4e37 de3b f49b 383c cff0 ab39 839a 393b
00000110: 166d 22bd 2d4d 62bc 5b25 dcbc f19f 14bd
00000120: f7b5 4a3c 3d41 123c 1ef3 5ebc 4dc4 27bc
00000130: a5bc f0bc 9676 7dbc cea2 51bc aaa1 923c
00000140: 59a4 45bc e783 c7bc 0bcf 4fbd 13b7 00bb
00000150: 7fda d3bc 6957 9f3c 3aa9 04bd 220d 38bc
00000160: 742f ddbb 6e6f 9fba 181a 4c3c 4497 46ba
00000170: 50aa 44bc c355 f0bc fb72 f5bc 4ab9 afbc
00000180: 92cc 8d39 5029 553a d386 5f3b d0f3 c6bb
00000190: 7daf e4bb 13ad 9d3c 57ce 15bd 40b8 3abc
000001a0: 3b7b 193b 92c4 40bb 6859 b03c eb38 55bd
000001b0: 41d1 72bc 9272 1ebc 2dff 26bc 231b 5a3b
000001c0: 7ffe b3bb 5ddc ccba 3ce0 5bbc 8e8b 28bd
000001d0: 15da ae3b f3f2 0f3c 1ff6 42bc e97a 99bc
000001e0: 56f7 30bc f5da 2eba 04f7 cdbc e222 3dbc
000001f0: bdfe 323b 888c 66bc 8b08 e63b a31c 3bbc
00000200: c5ef 3b3d 594a 00bc 481b 6abb b261 913c
00000210: 25b5 013d ec64 b13b 1b10 68bc 8f2a 21bb
00000220: b25b 813b 806c 893d e531 8c3c a99f e0ba
00000230: f72c 62bc 4a89 933b abc5 17bc 3409 aa3b
00000240: 72c2 54bc 3b20 9f3d 81e4 59bb 95c6 79bc
00000250: 1892 b53c ac9a 02bc 5f00 963d 4ea3 c1bb
00000260: d592 74ba 62ec 2c3b 4b66 82bc c72d 4bbb
00000270: 18ab 8abb f63c 163c ebeb 7cbc 2cfb acbc
00000280: f8b7 e23a a8f1 4ebb 63df d8bb b161 90bc
00000290: 03eb 1bbc 7a88 d63c c736 763c 803e 17bc
000002a0: aa01 92bc 2a2c 0cbb 2772 273a 962e 9a3c
000002b0: f90a 1c3c efba fc38 ea48 83bc d3ee 9c3b
000002c0: 1d1c 86bc 9e63 acbb 150d 26bb 0b92 97bc
000002d0: d451 553c 1c0c d33b 3a0a 10bc 236d 983b
000002e0: da61 75bc a74f c2bb 025e d13b 4010 693c
000002f0: 4e85 a33a c49b 4a3c 5fb6 073c 7da5 6e3c
00000300: 8c12 c43b dddf 27bb b859 6e3c da2c bcba
00000310: f319 4f3d 56b3 953b 758b 123d 3d57 77bb
00000320: f368 1fbc 38de 5e3c 4c54 b4bb 237a 2dba
00000330: 3624 0f3b f2a1 233c 8eee 913b 20d8 0b3c
00000340: 2682 1f3b 56b4 6dbc 2651 88ba bf74 67bc
00000350: 8ab2 adbc d144 2ebb b273 e93c 2e4b c9ba
00000360: b626 283c e8d8 5abb 125d a7ba 64d8 39bc
00000370: 4586 143c ac44 303d 843d 3fbc be80 98bc
00000380: 59c3 d03c e606 3cbc 06c3 aa3b b558 ea3b
00000390: b7f6 9739 92b4 29bb 9011 28ba 9c9d e3bc
000003a0: def5 7fbb 291d 22bc 27a7 96bc 136a e43c
000003b0: bf08 833a b37d 84bc 265b 143c 247d ab3b
000003c0: e717 0b3c 63ab 503b 2733 c4ba cb8c c6bb
000003d0: 2800 d6b9 ad18 01bc efce e63a 8c5c 8fbc
000003e0: 6f69 64bb b577 c8bb f9ab 76bc 3c09 e9bc
000003f0: bfb8 2cbb cfa1 2dbc 075f 79bc b483 903b

cvae_parameters.enc_00_lin_b f4 [128]
-0.0025048347 -0.009715436 -0.0051729307 -0.0065661087 -0.0087070735 0.00232133 0.014500326 -0.004156088
0.0150413355 -0.0009744711 0.0030437992 -0.0036598197 -0.006252467 0.017303795 -0.006103062 -0.012846849
0.009339708 -0.009206511 0.001295552 -0.0057159835 0.009431351 0.013601558 -0.0031061198 0.0011988851
0.012259265 -0.008318518 -0.0029791926 -0.008806704 -0.0042207185 0.01145905 0.0155124795 0.008415954
-0.0045520095 0.01329891 0.015681809 -0.00059175235 0.011270923 -0.005329519 0.017107064 -0.007010485
0.0057502487 0.009796807 -0.012799278 0.011465532 -0.0041694776 0.016137587 -0.0048322827 -0.0116769625
0.010378449 -0.002158131 -0.00950159 -0.0069257906 0.0053856275 -0.0031449974 -0.0021565184 0.00040311055
0.010285991 0.00922718 -0.0067200325 -0.0031195288 -0.0019455852 0.013250209 -0.0053600227 -0.004125752
0.014389059 0.011365798 -0.0032912719 0.010718717 0.018910883 0.0060287993 -0.012382128 0.00072222407
0.0068752114 -0.0024277077 -0.004194734 -0.0011696842 0.014462593 -0.005851027 -0.0023328094 -0.008042432
-0.005489902 0.016303245 -0.0018738273 -0.0065000467 0.017480893 0.011170698 0.014315656 0.011276396
-0.0005333726 -0.008256465 -0.006668865 -0.0027919018 -0.006477513 0.014485457 0.010597382 0.01630765
-0.0036809177 0.008990032 -0.0041341027 0.0133927325 0.009110315 0.002158895 0.00586416 -0.012542501
-0.0013823778 -0.0034740507 -0.0020621808 0.008213958 -0.0027459306 -0.00427962 -0.0022726264 -0.0072735376
0.010251511 0.012505763 -0.009830052 0.0032021145 -0.009166387 -0.007906208 0.0045080967 -0.0022538593
0.0014292651 -0.0073137833 0.003240397 -0.0010106291 0.0143147865 -0.005399068 -0.008276579 0.008316968
00000000: 2728 24bb 7e2d 1fbc b081 a9bb 8328 d7bb
00000010: 1da8 0ebc 7421 183b c692 6d3c cb2f 88bb
00000020: ef6f 763c a673 7fba 7a7a 473b 96d9 6fbb
00000030: 7fe1 ccbb b0c0 8d3c 32fc c7bb 977b 52bc
00000040: 9305 193c e8d6 16bc 83cf a93a 254d bbbb
00000050: f485 1a3c 12d9 5e3c 0b90 4bbb e923 9d3a
00000060: 16db 483c 654a 08bc 8f3e 43bb fe49 10bc
00000070: f44d 8abb bdbe 3b3c 0e28 7e3c 12e3 093c
00000080: 0629 95bb ace3 593c 2377 803c d41f 1bba
00000090: ada9 383c 3fa3 aebb 1d24 8c3c 36b8 e5bb
000000a0: 956c bc3b c982 203c 10b4 51bc edd9 3b3c
000000b0: 1da0 88bb f932 843c 2058 9ebb bb50 3fbc
000000c0: 5f0a 2a3c 6e6f 0dbb 8fac 1bbc bef1 e2bb
000000d0: eb79 b03b 4d1c 4ebb 6054 0dbb 9558 d339
000000e0: 9386 283c 992d 173c b833 dcbb 0271 4cbb
000000f0: 0203 ffba 6817 593c 21a3 afbb 5131 87bb
00000100: 16c0 6b3c 9d37 3a3c 61b2 57bb 8f9d 2f3c
00000110: ffea 9a3c 3c8d c53b 69de 4abc a353 3d3a
00000120: 7449 e13b 2d1a 1fbb fb73 89bb 1750 99ba
00000130: 83f4 6c3c f9b9 bfbb 0ce2 18bb 68c4 03bc
00000140: a3e4 b3bb 628e 853c 369b f5ba 58fe d4bb
00000150: 1734 8f3c 4e05 373c 378c 6a3c a2c0 383c
00000160: 07d2 0bba 2046 07bc 7f86 dabb 57f8 36bb
00000170: 5141 d4bb 6954 6d3c a4a0 2d3c 9f97 853c
00000180: 8d3b 71bb ed4a 133c 5e77 87bb 316d 5b3c
00000190: 6e43 153c 3f7c 0d3b 2428 c03b 107f 4dbc
000001a0: e730 b5ba e6ac 63bb a725 07bb d693 063c
000001b0: 12f5 33bb 0e3c 8cbb 58f0 14bb db56 eebb
000001c0: f4f5 273c f9e4 4c3c 3a0e 21bc 91da 513b
000001d0: 9d2e 16bc 0a89 01bc a8b8 933b 7cb5 13bb
000001e0: 2e56 bb3a 76a8 efbb d75c 543b 1677 84ba
000001f0: 9188 6a3c aaea b0bb 7d9a 07bc e443 083c

cvae_parameters.enc_00_lin_w f4 [128, 123]
-0.011663506 -0.009107646 -0.0006528998 -0.0033847245 0.011546231 0.006600194 -0.0037133556 -0.018239751
0.008125449 -0.00913386 0.009592652 0.005796275 0.00031506948 0.018524323 0.015380101 0.0017395384
-0.0068385545 -0.014443665 0.005622606 0.012498827 0.008257563 -0.011528366 -0.0037092667 0.018636117
0.008225881 -0.003483002 -0.0031671356 0.004238316 0.013968501 0.017038696 0.010851449 -0.005622417
-0.005511759 0.002146698 -0.004057818 0.0063029826 0.0041765887 0.0019856836 0.007870813 0.005356786
0.0014309768 0.012467748 -0.0048222844 -0.00047804904 0.0070666457 0.022057839 -0.010517435 -0.012195579
-0.0024838669 0.0073146606 0.0151582975 0.00015225535 0.002833929 -0.0028597007 0.00977274 -0.0050503607
0.0006318417 0.0069386447 0.018797694 0.033591334 -0.014412196 -0.009332223 0.023404656 -0.005972658
-0.0036306751 0.009069309 0.011156126 0.016888814 -0.011274515 0.02616708 -0.0027165248 0.004127476
-0.01679002 -0.003626367 -0.005555914 -0.005006606 -0.0070475116 0.008463294 -0.00013656725 0.009613599
-0.001025603 0.005587727 -0.0040463465 -0.0034999403 0.011618361 -0.0023782721 0.012520989 0.004538422
0.0036318693 0.022303281 -0.016369537 0.0011510688 -0.0074568326 -0.008213792 0.00325035 0.008231384
0.015610149 -0.011680312 0.004819361 0.005433586 -0.02963491 -0.01541562 -0.002515932 0.0056574675
0.005211749 0.0032029 0.0029197652 0.0027709748 0.0073020984 -0.006245953 0.012408105 -0.00731023
0.0008075842 -0.026084526 -0.001526685 0.0008801686 0.010433693 0.004582578 -0.007759372 -0.00078273634
-0.006226985 -0.00714218 0.019217823 -0.0021992668 0.0036705413 0.016545717 0.010419844 0.021301623
-0.006809899 -0.0035460677 -0.0033255045 0.0074381246 0.0093642995 0.0101770405 0.021142472 -0.010870691
0.0062538874 -0.00042650072 -0.0043442897 -0.009947615 0.0016361427 -0.0063237026 0.00066191645 0.003954287
-0.0028268949 0.0054746377 0.0029670978 0.016179953 0.0032711728 0.008212617 0.0013534632 0.0021347601
0.0062505 -0.0031545851 -0.015898637 0.0064981114 -0.003265392 0.005418415 0.010478741 0.004316698
0.014515554 0.0013133341 0.007216404 0.0037119843 0.019966867 -0.0028088575 0.010252453 0.0161781
0.004998893 0.007261795 0.0077180504 0.0077246143 0.0020356644 -0.0020981675 0.0005711472 -0.0061047883
0.001889081 -0.0018289404 -0.007035029 0.0073513514 0.0074947127 0.007215778 0.014272291 0.010561254
-0.006973518 -0.002087807 0.014956465 0.006623151 0.006841143 -0.007681307 -0.008959705 -0.008332791
-0.0039847605 0.012236495 0.0074245133 0.006922572 0.0063010682 0.012590084 -0.007730778 0.013612089
-0.0067110974 -0.00700357 0.009922201 0.0072653065 -0.000664527 -0.008104535 -0.0006947975 -0.002098378
0.016674908 0.006189266 0.004494857 0.01593054 -0.013029918 0.015193786 -0.0034556885 -0.0047286693
0.008251737 0.020732913 -0.0029267962 0.012521279 0.0065589305 0.0028472808 -0.009770719 0.0002805673
-0.0011671024 0.021393966 0.007846053 0.0043795668 0.0048076147 0.007830412 0.003136117 -0.007296439
0.0031690411 0.00081838196 0.0020843453 0.013342106 -0.00050827616 0.008378976 0.017804153 -0.013835777
-0.010843868 -0.013038746 0.0009995848 -0.010786033 0.0046878452 -0.0011059418 0.0070002666 -0.00051532476
0.0014289082 0.0109193 0.011082668 -0.0035222499 -0.0070069707 0.0028127637 0.019762699 0.007832545
00000000: 4a18 3fbc 3c38 15bc 5d27 2bba 41d2 5dbb
00000010: 672c 3d3c 7146 d83b c55b 73bb 886b 95bc
00000020: 9a20 053c 2fa6 15bc 802a 1d3c aeee bd3b
00000030: e92f a539 52c0 973c d2fc 7b3c 3901 e43a
00000040: f415 e0bb 1fa5 6cbc d63d b83b e1c7 4c3c
00000050: bb4a 073c 79e1 3cbc 2b17 73bb c5aa 983c
00000060: d8c5 063c 1443 64bb b88f 4fbb 92e1 8a3b
00000070: 24dc 643c bc94 8b3c 47ca 313c 413c b8bb
00000080: fc9b b4bb 9eaf 0c3b 72f7 84bb 4089 ce3b
00000090: c4db 883b 3e22 023b 95f4 003c fa87 af3b
000000a0: 9d8f bb3a 8645 4c3c 4104 9ebb a8a2 fab9
000000b0: 528f e73b a4b2 b43c 5251 2cbc f7cf 47bc
000000c0: 5fc8 22bb d2af ef3b 825a 783c bca6 1f39
000000d0: 70b9 393b d169 3bbb d81d 203c 7f7d a5bb
000000e0: 2ea2 253a 925d e33b 9ffd 993c 1197 093d
000000f0: 2221 6cbc 2ee6 18bc 1fbb bf3c 49b6 c3bb
00000100: 9ff0 6dbb 7097 143c 2fc8 363c 695a 8a3c
00000110: beb8 38bc 585c d63c b907 32bb c73f 873b
00000120: 398b 89bc 58a8 6dbb 620e b6bb 750e a4bb
00000130: d0ee e6bb a1a9 0a3c 7e33 0fb9 5b82 1d3c
00000140: 876d 86ba 4019 b73b 3797 84bb 415f 65bb
00000150: f05a 3e3c c9dc 1bbb d624 4d3c 0bb7 943b
00000160: a804 6e3b 5fb5 b63c 6819 86bc 76df 963a
00000170: 7258 f4bb 2493 06bc d303 553b eddc 063c
00000180: b6c1 7f3c c85e 3fbc bbeb 9d3b 390c b23b
00000190: e9c4 f2bc cc91 7cbc 56e2 24bb 4762 b93b
000001a0: 52c7 aa3b bfe7 513b 8859 3f3b 3e99 353b
000001b0: 7146 ef3b daaa ccbb 5d4b 4b3c a78a efbb
000001c0: 0fb4 533a 37af d5bc 0c1b c8ba 1dbb 663a
000001d0: 15f2 2a3c 7329 963b 5442 febb 8c30 4dba
000001e0: bc0b ccbb f308 eabb b26e 9d3c 9321 10bb
000001f0: 778d 703b e28a 873c feb7 2a3c be80 ae3c
00000200: 9325 dfbb 2565 68bb b5f0 59bb 83bb f33b
00000210: b86c 193c 9abd 263c fa32 ad3c fc1a 32bc
00000220: 69ed cc3b f59b dfb9 8b5a 8ebb 52fb 22bc
00000230: d773 d63a 1037 cfbb 7684 2d3a f792 813b
00000240: 6d43 39bb 9764 b33b a473 423b d28b 843c
00000250: 2c61 563b 368e 063c b066 b13a 55e7 0b3b
00000260: ffd0 cc3b 28bd 4ebb dc3d 82bc 1cee d43b
00000270: 3000 56bb f68c b13b 06af 2b3c 1673 8d3b
00000280: a5d2 6d3c 2e24 ac3a 9677 ec3b c344 733b
00000290: 8e91 a33c cf14 38bb e8f9 273c ef87 843c
000002a0: c1cd a33b 5af4 ed3b b3e7 fc3b c31e fd3b
000002b0: c868 053b 6981 09bb 0ab9 153a ad0a c8bb
000002c0: 0a9b f73a 0eb9 efba 1a86 e6bb 9be3 f03b
000002d0: 3596 f53b 5572 ec3b 54d6 693c 1c09 2d3c
000002e0: 1c82 e4bb 97d3 08bb f60b 753c 0407 d93b
000002f0: ab2b e03b 79b3 fbbb bacb 12bc 4286 08bc
00000300: 9892 82bb 947b 483c 5549 f33b bed6 e23b
00000310: 3179 ce3b a446 4e3c 7752 fdbb 3d05 5f3c
00000320: c4e8 dbbb 347e e5bb ba90 223c cf11 ee3b
00000330: a733 2eba e2c8 04bc 1223 36ba f184 09bb
00000340: d199 883c 54cf ca3b 9849 933b c480 823c
00000350: 707b 55bc 5bef 783c d578 62bb f4f2 9abb
00000360: 4b32 073c 12d8 a93c 7ecf 3fbb 0d26 4d3c
00000370: 4cec d63b 7299 3a3b 5e15 20bc 1b19 9339
00000380: 75f9 98ba 6642 af3c bb8c 003c 7882 8f3b
00000390: 3289 9d3b 214b 003c 5087 4d3b f716 efbb
000003a0: b0af 4f3b af88 563a 8399 083b d998 5a3c
000003b0: d63d 05ba f947 093c 04da 913c 74af 62bc
000003c0: 7baa 31bc 77a0 55bc 8004 833a e7b7 30bc
000003d0: 7f9c 993b 40f5 90ba 7e62 e53b dc16 07ba
000003e0: 344a bb3a dde6 323c 1494 353c 8cd5 66bb
000003f0: bb9a e5bb 5856 383b 62e5 a13c 1354 003c

cvae_parameters.enc_01_lin_b f4 [128]
-0.0038735736 0.03230158 -0.001248133 0.00021609102 0.024775025 0.022103854 0.0046213507 -0.0020961142
0.011713348 0.00052395044 -0.006936959 0.021061186 -0.0015226379 0.031965803 0.024600277 0.000823118
-0.00681802 -0.0049117687 0.023058988 0.03903344 -0.0005061991 0.025423307 -0.012483191 -0.003353313
0.035221625 0.02364644 0.0006566776 -0.0038495702 0.008793283 0.022267764 -0.0034295802 -0.00227695
-0.013654513 -0.006159514 -0.009372168 -0.003287093 -0.0035108374 0.026619632 0.024909541 0.039438214
-0.004216222 0.028595436 0.039528318 -0.0030583618 0.0025493752 0.025384333 0.039314907 0.019579869
0.034243066 -0.0076769697 -0.0012173433 -0.0047070724 0.03175131 0.008728661 0.03394271 -0.00765302
0.031040028 0.016846204 0.016936269 0.035664093 0.02687319 -0.005052994 -0.011971051 0.027913425
0.023945104 -0.013674583 -0.008083668 0.025487278 0.038253024 0.02359175 0.032457054 0.028412623
-0.0034744907 -0.0039070197 0.0029179938 -0.0020645992 -0.00677532 0.028185325 0.0041092746 -0.0015418959
0.023045594 -0.005095586 -0.00017795076 0.040832896 -0.003390791 0.0013605006 0.029317632 0.034703404
-0.002214933 0.027767252 0.004544016 0.00019220472 -0.0067393463 0.03970813 0.0015961535 0.019333476
-0.005276913 -0.004151467 0.0053372034 0.0022654645 -0.0067070588 0.020775614 0.01705981 0.028013047
-0.0030291965 0.033125583 0.0031414698 -0.001116645 0.005501155 0.03638906 -0.0039723464 0.01845216
0.021509185 0.024493413 0.048553623 -0.0070610335 0.0049390737 -0.0032252437 -0.0066993833 -0.006780879
0.043033954 0.023271298 0.026202671 -0.006127697 0.023842521 -0.0076691364 0.031152628 0.018419113
00000000: c8db 7dbb a94e 043d 6598 a3ba 7e96 6239
00000010: fef4 ca3c 2413 b53c b36e 973b f65e 09bb
00000020: 58e9 3f3c b859 093a 6e4f e3bb 8288 ac3c
00000030: 4093 c7ba 93ee 023d 8586 c93c 84c6 573a
00000040: b269 dfbb e7f2 a0bb 34e6 bc3c 87e1 1f3d
00000050: 72b2 04ba 8a44 d03c 4c86 4cbc 42c3 5bbb
00000060: 8d44 103d 2eb6 c13c e324 2c3a 1249 7cbb
00000070: b411 103c e36a b63c cfc2 60bb e238 15bb
00000080: 2eb7 5fbc c0d5 c9bb b98d 19bc 456c 57bb
00000090: 1416 66bb 6a11 da3c 180f cc3c f789 213d
000000a0: 3c28 8abb fa40 ea3c 72e8 213d cc6e 48bb
000000b0: 6b13 273b cef2 cf3c ab08 213d f665 a03c
000000c0: 7542 0c3d 178f fbbb 438f 9fba c93d 9abb
000000d0: a90d 023d a802 0f3c 8307 0b3d 2fc6 fabb
000000e0: a847 fe3c 0d01 8a3c eebd 8a3c 8314 123d
000000f0: 2a25 dc3c 9693 a5bb 3a22 44bc b2aa e43c
00000100: 8628 c43c 5c0b 60bc 5c71 04bc b2ca d03c
00000110: 34af 1c3d 7c43 c13c b0f1 043d 97c1 e83c
00000120: 48b4 63bb 7506 80bb d03b 3f3b 3a4e 07bb
00000130: 8103 debb e9e4 e63c 18a7 863b 7119 caba
00000140: 1dca bc3c e0f8 a6bb 4b98 3ab9 6540 273d
00000150: 0838 5ebb d352 b23a 882b f03c 2825 0e3d
00000160: 6928 11bb 2678 e33c f8e5 943b 908a 4939
00000170: bcd5 dcbb fea4 223d 0636 d13a 3d61 9e3c
00000180: f4e9 acbb 0709 88bb b5e3 ae3b 3078 143b
00000190: e3c6 dbbb 9f31 aa3c 04c1 8b3c 9e7b e53c
000001a0: 7c85 46bb b1ae 073d 1ee1 4d3b 645c 92ba
000001b0: 0843 b43b b20c 153d 752a 82bb fc28 973c
000001c0: 0834 b03c 69a6 c83c 2ae0 463d 3e60 e7bb
000001d0: f4d7 a13b 9c5e 53bb 8086 dbbb 2332 debb
000001e0: 5f44 303d 73a3 be3c fca6 d63c d9ca c8bb
000001f0: 6451 c33c 614d fbbb cc33 ff3c aee3 963c

cvae_parameters.enc_01_lin_w f4 [128, 128]
-0.008479792 -0.002419132 -0.005312763 0.011160741 -0.0016135959 0.024676854 -0.016118404 -0.018261839
-0.006283622 -0.00201631 0.0032920467 0.0036138135 -0.011916198 0.010179432 -0.006679114 -0.0017633996
-0.024042979 -0.0030645628 0.0025662251 0.019228775 -0.0017168616 0.0007204023 0.0013848183 -0.007572671
0.010593424 0.00030436015 0.008737654 -0.013913561 -0.0034966234 0.0128668165 0.0025076396 0.0046193325
-0.0012934996 -0.0025630312 0.0057251183 -0.004319585 0.0016543177 -0.01791914 -0.0035658758 0.016699335
-0.017402839 -0.0056607206 0.005227521 0.0012419285 -0.0010723846 -0.008982835 0.008634709 -0.0075996155
-0.013618556 -0.0010700548 0.0036092834 0.008088961 0.000571643 0.0002925865 -0.008740258 -0.0113284895
-0.0019008269 -0.0066604703 0.011319754 -0.00077650795 -0.013530246 0.015080381 0.021637252 -0.006701781
-0.0058937813 0.0072074407 0.0077187023 0.008895375 0.011588564 -0.0073375166 0.0012768669 0.00966458
0.010379092 0.0050584357 -0.0014364462 -0.016346825 0.012148661 0.02047021 -0.0032306875 -0.0015878337
-0.005632454 0.0027482598 -0.009090321 -0.009248541 -0.005911583 0.0052984427 -0.012702323 0.007669736
-0.016172616 -0.009231575 -0.0066452892 -0.0025835338 0.0013945472 -0.01854595 0.0061098807 0.0030587772
-0.0069230306 0.010432509 -0.010213376 0.012671564 -0.015167237 -0.004391847 0.0017208356 -0.0248612
-0.021519184 -0.0043840827 -0.0056643966 -0.009216871 -0.014207562 0.013468634 -0.007901846 -0.0015172649
-0.0034238326 -0.025556494 -0.0044170576 0.005432353 -0.028535258 -0.011249923 0.0020228787 0.0017711185
0.011917596 0.0055389493 0.004837152 -0.0058900467 -0.020215105 0.0065422268 0.021083064 -0.0151041
-0.007448126 0.01421938 0.024867475 0.015654702 0.0050155316 0.008191938 0.014638883 -0.004024386
-0.0054701827 0.007489442 -0.0045921667 0.0074619707 -0.006646951 0.020595122 0.0009008289 0.014279448
-0.0023653768 -0.0022599678 0.0014204618 -0.007393773 0.0044877804 0.004076677 0.008825596 -0.01375048
0.005987651 0.010056205 0.0010661312 -0.001934808 0.0051798658 0.0023768009 0.000102522696 0.0052436986
-0.00021681799 0.0008898505 0.0036497517 -0.0032146475 0.008698903 -0.006879354 0.014932218 0.009026907
0.013619001 -0.0064289356 -0.0024154775 0.004931317 0.011434451 0.008120583 -0.0053758817 -0.0059858426
-0.0051440573 -0.009448078 0.017988162 0.011063642 0.0075738654 0.0104258 -0.008238324 -0.0010627676
-0.0056743873 -0.008045856 0.0036585324 0.0039125043 0.0074336426 0.016333412 0.0044950987 -0.011192895
0.009064996 -0.006030747 0.011293178 0.008041035 0.0037537417 -0.004620831 -0.018448377 0.003303665
0.010234607 0.012018433 -0.0064786035 -0.009690744 0.006680861 -0.010485593 0.0059110257 -0.0041438024
0.010418636 0.0025503277 -0.0019840978 0.009214288 0.0025124883 -0.008894237 -0.0066190683 0.0070358273
-0.0052576456 -0.003357715 0.026874026 0.0031358213 -0.011691337 0.0062164613 0.0058064735 -0.00094030437
0.004881922 -0.00057316804 -0.0023333312 0.0004361942 0.013444089 0.0045840014 -0.013622868 0.003976985
-0.00016765314 0.010979523 0.0040324954 -0.00025638257 5.1552794e-05 0.0048866607 0.012387647 -0.0038033598
0.011366294 -0.0070387325 0.003542878 -0.002177658 0.019520132 0.0003856067 -0.0016359278 -0.010968307
-0.0004476092 0.0026926042 0.011454986 -0.0004032205 0.0011388648 0.0031299042 0.011505901 0.005273438
00000000: d3ee 0abc 4d8a 1ebb b016 aebb 8adb 363c
00000010: 4b7f d3ba 1d27 ca3c be0a 84bc da99 95bc
00000020: d7e6 cdbb 1224 04bb 61bf 573b bbd5 6c3b
00000030: 283c 43bc a2c7 263c 78dc dabb df21 e7ba
00000040: c8f5 c4bc d5d6 48bb 1d2e 283b aa85 9d3c
00000050: 5108 e1ba 61d9 3c3a cb82 b53a 2b24 f8bb
00000060: 0a90 2d3c 8792 9f39 6128 0f3c b4f5 63bc
00000070: 9b27 65bb 57cf 523c 3657 243b c55d 973b
00000080: a58a a9ba 87f8 27bb c699 bb3b 4e8b 8dbb
00000090: b1d5 d83a 29cb 92bc 78b1 69bb 0bcd 883c
000000a0: 6690 8ebc 917d b9bb a04b ab3b 35c8 a23a
000000b0: 428f 8cba be2c 13bc 9878 0d3c 3206 f9bb
000000c0: 5d20 5fbc 1541 8cba ba89 6c3b 9087 043c
000000d0: 50da 153a 4c66 9939 4d33 0fbc 219b 39bc
000000e0: 2b25 f9ba 1340 dabb 7d76 393c 918e 4bba
000000f0: f7ad 5dbc b413 773c 9b40 b13c 9d9a dbbb
00000100: 9f20 c1bb 652c ec3b 2bed fc3b e8bd 113c
00000110: f6dd 3d3c 8d6f f0bb 8b5c a73a 3058 1e3c
00000120: 110d 2a3c 3cc1 a53b 2347 bcba c7e9 85bc
00000130: 2d0b 473c 24b1 a73c f1b9 53bb dc1e d0ba
00000140: 7390 b8bb 261c 343b 92ef 14bc 3187 17bc
00000150: f4b5 c1bb 8f9e ad3b 671d 50bc 6952 fb3b
00000160: 6f7c 84bc 0840 17bc bac0 d9bb 8150 29bb
00000170: 3dc9 b63a aded 97bc 6535 c83b c475 483b
00000180: 97da e2bb 1ded 2a3c 0156 27bc 649c 4f3c
00000190: 0180 78bc 7ce9 8fbb a98d e13a b7a9 cbbc
000001a0: 0049 b0bc 5aa8 8fbb 679c b9bb 5c02 17bc
000001b0: d6c6 68bc 8cab 5c3c bf76 01bc f6de c6ba
000001c0: 6162 60bb da5b d1bc f7bc 90bb e101 b23b
000001d0: c6c2 e9bc 9951 38bc 4692 043b e024 e83a
000001e0: 0542 433c 1380 b53b f980 9e3b 4b01 c1bb
000001f0: 269a a5bc 2d60 d63b 64b6 ac3c 3077 77bc
00000200: 690f f4bb 67f8 683c e0b6 cb3c 4a3e 803c
00000210: 5459 a43b 7a37 063c edd7 6f3c ffde 83bb
00000220: 383f b3bb fe69 f53b e379 96bb 8c83 f43b
00000230: abce d9bb 1ab7 a83c 9b25 6c3a 59f4 693c
00000240: 7004 1bbb f81b 14bb ca2e ba3a 7747 f2bb
00000250: 3b0e 933b a595 853b 3c99 103c b149 61bc
00000260: 0f34 c43b c8c2 243c 6dbd 8b3a 6299 fdba
00000270: ddbb a93b 1ac4 1b3b 7401 d738 55d3 ab3b
00000280: a359 63b9 db44 693a ac30 6f3b d6ac 52bb
00000290: d885 0e3c 346c e1bb 43a6 743c 98e5 133c
000002a0: 3b22 5f3c d2a9 d2bb fd4c 1ebb e396 a13b
000002b0: 9057 3b3c 320c 053c 2a28 b0bb e324 c4bb
000002c0: 7b8f a8bb 1dcc 1abc e95b 933c 4744 353c
000002d0: 302e f83b fad0 2a3c 09fa 06bc 904c 8bba
000002e0: 36f0 b9bb c4d2 03bc fdc3 6f3b 7734 803b
000002f0: ea95 f33b a6cd 853c 9f4b 933b 6762 37bc
00000300: 5985 143c 939d c5bb 0607 393c 8cbe 033c
00000310: 5601 763b 576a 97bb 0d21 97bc 4d82 583b
00000320: 0eaf 273c f6e8 443c 774a d4bb edc5 1ebc
00000330: 20eb da3b c4cb 2bbc 47b1 c13b bcc8 87bb
00000340: edb2 2a3c 6623 273b a307 02bb 86f7 163c
00000350: 8fa8 243b 22b9 11bc c5e4 d8bb cc8c e63b
00000360: 5448 acbb 1c0d 5cbb eb26 dc3c 5a82 4d3b
00000370: 068d 3fbc 75b3 cb3b 3b44 be3b c27e 76ba
00000380: 88f8 9f3b a840 16ba cdea 18bb ffb0 e439
00000390: 9944 5c3c 6435 963b 7332 5fbc 5e51 823b
000003a0: 0ccc 2fb9 75e3 333c 0623 843b 166b 86b9
000003b0: 643a 5838 4820 a03b 8ff5 4a3c ca41 79bb
000003c0: b139 3a3c 2ba5 e6bb a12f 683b 0ab7 0ebb
000003d0: afe8 9f3c 412b ca39 a16c d6ba 6ab4 33bc
000003e0: 17ad eab9 6776 303b b2ad 3b3c 5767 d3b9
000003f0: f645 953a 141f 4d3b 3f83 3c3c cecc ac3b

cvae_parameters.out_lin_b f4 [120]
-0.095678754 -0.20418514 -0.19869034 -0.117346026 -0.21066852 -0.12358444 -0.12045738 -0.119274065
-0.18023902 -0.21814315 -0.14041305 0.051292054 -0.12631346 -0.07382963 -0.19977976 -0.19565223
-0.04975812 0.007499078 -0.09949125 -0.03937152 -0.19887896 -0.13519418 -0.12068603 -0.11706109
-0.16322298 -0.11223898 -0.26536262 -0.13534631 -0.099101335 -0.21300241 -0.27847108 -0.15496795
-0.29037067 -0.20716922 0.019301359 -0.27746248 -0.24876575 -0.22710177 -0.29079157 -0.18417804
0.08116177 -0.20396148 -0.22362603 -0.27487847 -0.23440336 0.0040309457 -0.041342925 -0.17601837
-0.17602766 -0.33035815 -0.15935855 -0.02598358 -0.22546361 -0.2502291 0.10438824 -0.29816937
-0.22235505 0.031060414 -0.3600103 -0.2269121 0.21124905 -0.30390066 -0.2629166 0.0140958205
-0.37198123 -0.18055083 0.08907496 -0.2319947 -0.2190724 -0.08801835 -0.23061514 -0.10616034
0.010736254 -0.15863092 -0.18113323 -0.10274229 -0.08237847 -0.02460471 0.07658961 -0.17621833
-0.1673943 -0.024988495 -0.0949126 -0.120033905 0.048347164 -0.123660244 -0.1640003 0.04519908
-0.18101056 -0.13514964 0.025926104 -0.2087353 -0.13228592 -0.07617262 -0.23236942 -0.15588091
0.035888348 -0.33593577 -0.09815952 -0.16018151 -0.26777077 -0.20350377 0.055134762 -0.19302076
-0.07014966 -0.21255715 -0.14900397 -0.09597552 -0.073237374 -0.060853124 -0.18711744 -0.11341649
-0.13160968 -0.090662286 -0.087462984 -0.16359667 -0.15085481 -0.068597935 -0.19446151 -0.10634173
00000000: 39f3 c3bd e915 51be 7b75 4bbe 1d53 f0bd
00000010: 7db9 57be d719 fdbd 5cb2 f6bd f645 f4bd
00000020: 9490 38be eb60 5fbe 70c8 0fbe 9e17 523d
00000030: 5158 01be fd33 97bd 1193 4cbe 0f59 48be
00000040: 2ccf 4bbd d3ba f53b 12c2 cbbd 0844 21bd
00000050: eda6 4bbe 5870 0abe 3d2a f7bd babd efbd
00000060: ed23 27be 8ddd e5bd 9cdd 87be 3998 0abe
00000070: a4f5 cabd 4e1d 5abe c393 8ebe ebaf 1ebe
00000080: 77ab 94be 2b24 54be e21d 9e3c 900f 8ebe
00000090: 73bc 7ebe 5e8d 68be a2e2 94be 2b99 3cbe
000000a0: 2438 a63d 47db 50be 39fe 64be dfbc 8cbe
000000b0: 6f07 70be 0616 843b 3357 29bd 293e 34be
000000c0: 9840 34be b424 a9be e32e 23be 84db d4bc
000000d0: efdf 66be 071e 80be 80c9 d53d a8a9 98be
000000e0: 0bb1 63be 6972 fe3c 4553 b8be a55b 68be
000000f0: ac51 583e de98 9bbe 019d 86be 28f2 663c
00000100: 5374 bebe 51e2 38be ef6c b63d 0590 6dbe
00000110: 8454 60be f742 b4bd 6026 6cbe 986a d9bd
00000120: 1de7 2f3c 2570 22be fd7a 39be 8d6a d2bd
00000130: 0bb6 a8bd d18f c9bc 03db 9c3d 9472 34be
00000140: 6969 2bbe acb4 ccbc 8a61 c2bd 56d4 f5bd
00000150: ad07 463d 9541 fdbd b2ef 27be ac22 393d
00000160: d55a 39be ab64 0abe fb62 d43c b5be 55be
00000170: f675 07be 6400 9cbd 40f2 6dbe 3f9f 1fbe
00000180: a9ff 123d c6ff abbe dc07 c9bd 9f06 24be
00000190: 4019 89be 4b63 50be fdd4 613d 3ca7 45be
000001a0: a0aa 8fbd 95a8 59be 7f94 18be d08e c4bd
000001b0: 7afd 95bd 2041 79bd b79b 3fbe e846 e8bd
000001c0: b0c4 06be 26ad b9bd cb1f b3bd e385 27be
000001d0: af79 1abe 137d 8cbd eb20 47be b1c9 d9bd

cvae_parameters.out_lin_w f4 [120, 128]
-0.043796323 -0.013113957 0.01920309 0.00851571 -0.02166264 0.014056724 0.007612763 -0.053990953
-0.0407133 -0.025475685 0.007726624 -0.02713812 0.014031893 -0.07947183 -0.013803495 0.0014374242
-0.035959247 -0.0014877275 -0.0016201378 0.008063134 -0.038976952 -0.05966814 -0.0147035755 -0.018665817
-0.034064274 -0.002576345 0.0011951537 -0.026563331 -0.039236195 -0.03744443 -0.008453122 -0.022836573
-0.0097949365 -0.0020961785 -0.030768665 -0.00883885 0.027666444 -0.008608978 -0.038308803 -0.03969294
-0.012590233 -0.0067832223 -0.0053142854 -0.016558604 -0.04166952 -0.003207256 0.0016874865 0.002027293
0.0020569446 0.0011283978 0.01679922 -0.06335859 -0.01498871 -0.016138982 -0.003597663 -0.010188809
0.0014732966 -0.012360564 -0.010766118 0.0046499753 -0.005446526 -0.009281158 0.008821266 -0.01151097
0.0027796547 -0.007910114 0.0012824265 -0.023062725 -0.0345204 -0.015445612 -0.0047583557 -0.03617985
-0.032939307 -0.043213468 -0.008220011 -0.011163037 0.0040567257 -0.023556475 -0.026212046 -0.011700067
0.00815151 0.023946926 -0.01139412 -0.031350046 -0.0128354095 -0.00602121 0.011264439 0.004043799
-0.00649928 0.002742032 -0.023581352 -0.02535632 -0.004854315 0.015779462 -0.025078095 0.006008695
0.03282399 0.028101305 -0.015935333 -0.0221214 -0.020237157 -0.02166117 -0.0039189495 -0.005590629
0.024500256 0.0066794404 0.027013082 0.016033575 0.0050947405 -0.039442383 0.0020751855 -0.013222491
-0.014975903 0.014461153 0.0005141197 -0.043375622 -0.019505281 -0.019841809 -0.04088778 -0.008268117
-0.006694747 -0.0055129565 -0.032969967 0.011768715 -0.01804554 0.0033612312 0.0024211549 -0.0027142218
-0.028797358 -0.03553778 -0.01594685 -0.010421264 -0.05474138 -0.028137332 -0.0093077235 -0.043487452
0.02423295 -0.0219355 -0.0315018 0.0148293795 -0.012765656 0.031509347 -0.051713057 -0.00016479321
-0.0040438566 0.0033979912 -0.044208735 -0.00479064 -0.025836248 0.0057447297 -0.041574724 -0.039121557
-0.014349628 1.2329178e-06 0.006258989 -0.03385963 -0.012366141 -0.032144744 -0.004508624 -0.046419226
0.0028849244 -0.04167353 -0.0266646 -0.055859707 -0.07440402 -0.039097518 -0.025944823 -0.022355692
-0.018688848 -0.02173963 -0.006315208 -0.016414775 0.026133621 -0.02696959 -0.04988075 -0.017515732
0.004273485 0.0022196507 -0.042890713 -0.036559064 -0.04127006 0.005741641 0.00057853246 -0.02440505
-0.0024227463 -0.0167773 -0.0012342335 -0.05735509 -0.013389713 -0.020106435 -0.030800361 0.0041153524
-0.003931732 0.0059395093 -0.027813401 -0.0063863345 -0.039718 0.0029775416 0.012141708 -0.022708425
-0.054722197 -0.04161386 -0.016056605 -0.02385636 0.022102166 -0.0050117597 -0.03352208 -0.057951424
0.03889832 -0.01755663 0.0037107547 -0.020530263 -0.0042597405 0.007098324 -0.048121307 0.010220719
0.00069445313 -0.03194989 -0.0069304393 -0.040197052 -0.009735116 0.0034864584 -0.023248048 -0.0393294
-0.0462367 -0.040268023 -0.0052370005 -0.021042567 -0.059385933 -0.01541428 0.012447858 0.011062253
-0.02836465 -0.04430205 -0.03731777 -0.08871519 -0.054710522 0.033584487 -0.0191619 -0.04368413
0.0016609277 -0.009417084 0.00815958 -0.016755188 -0.051736236 -0.042073887 -0.02432046 -0.013102998
-0.01982054 -0.027744394 0.009517129 -0.0339529 -0.054774936 -0.012244683 -0.011019801 -0.002806175
00000000: c663 33bd ecdb 56bc cc4f 9d3c 7a85 0b3c
00000010: d975 b1bc 2c4e 663c 7c74 f93b 9e25 5dbd
00000020: fdc2 26bd 62b2 d0bc 9f2f fd3b c350 debc
00000030: 06e6 653c 20c2 a2bd 0e28 62bc f467 bc3a
00000040: 014a 13bd daff c2ba ce5a d4ba 3c1b 043c
00000050: 4ca6 1fbd 9466 74bd 44e7 70bc 0ee9 98bc
00000060: fb86 0bbd e6d7 28bb b4a6 9c3a 589b d9bc
00000070: 22b6 20bd 555f 19bd f77e 0abc c413 bbbc
00000080: f17a 20bc 0a60 09bb 910e fcbc d3d0 10bc
00000090: bda4 e23c ac0c 0dbc b1e9 1cbd 1095 22bd
000000a0: 4447 4ebc cb45 debb 7523 aebb e9a5 87bc
000000b0: a9ad 2abd d430 52bb a72e dd3a 55dc 043b
000000c0: cecd 063b bfe6 933a 859e 893c 26c2 81bd
000000d0: 3593 75bc e635 84bc c5c6 6bbb f6ee 26bc
000000e0: a11b c13a f783 4abc 5f64 30bc d25e 983b
000000f0: c678 b2bb 0010 18bc 1287 103c 8298 3cbc
00000100: de2a 363b 6c99 01bc 1817 a83a 0aee bcbc
00000110: 4365 0dbd 980f 7dbc fbeb 9bbb 5331 14bd
00000120: 5eeb 06bd 9b00 31bd 3aad 06bc 2ce5 36bc
00000130: 48ee 843b 82f9 c0bc a5ba d6bc a3b1 3fbc
00000140: e98d 053c 582c c43c 67ae 3abc e868 00bd
00000150: 9c4b 52bc 924d c5bb 7b8e 383c d881 843b
00000160: eaf7 d4bb aab3 333b ae2d c1bc 0fb8 cfbc
00000170: f210 9fbb ee43 813c 9470 cdbc 96e4 c43b
00000180: 7372 063d b534 e63c d18a 82bc f037 b5bc
00000190: 65c8 a5bc c472 b1bc 886a 80bb 9831 b7bb
000001a0: c3b4 c83c 35df da3b 8a4a dd3c d858 833c
000001b0: c8f1 a63b 568e 21bd d6ff 073b 26a3 58bc
000001c0: 7d5d 75bc 79ee 6c3c fdc5 063a a3aa 31bd
000001d0: 8ac9 9fbc 4a8b a2bc f279 27bd ff76 07bc
000001e0: 9c5f dbbb 08a6 b4bb 840b 07bd 92d1 403c
000001f0: 3ed4 93bc 1a48 5c3b 3dac 1e3b 16e1 31bb
00000200: 70e8 ebbc 1090 11bd f8a2 82bc f3bd 2abc
00000210: 7f38 60bd 4380 e6bc 6c7f 18bc e61f 32bd
00000220: 2e84 c63c 14b2 b3bc 0808 01bd edf6 723c
00000230: 0b27 51bc f20f 013d 12d1 53bd 57cc 2cb9
00000240: 5482 84bb d5b0 5e3b 3814 35bd cdfa 9cbb
00000250: 8aa6 d3bc 493e bc3b 424a 2abd ed3d 20bd
00000260: b41a 6bbc bc7a a535 3518 cd3b 65b0 0abd
00000270: 5b9b 4abc 35aa 03bd 14bd 93bb 1622 3ebd
00000280: 0011 3d3b ddb1 2abd b86f dabc 26cd 64bd
00000290: 2361 98bd b824 20bd 3d8a d4bc 4923 b7bc
000002a0: 5b19 99bc 4f17 b2bc ceef cebb 4778 86bc
000002b0: 2d16 d63c 54ef dcbc c24f 4cbd 277d 8fbc
000002c0: 9708 8c3b 8f77 113b 2cae 2fbd f5be 15bd
000002d0: cb0a 29bd 6024 bc3b a8a8 173a 19ed c7bc
000002e0: f0c6 1ebb 8c70 89bc 01c6 a1ba 2ced 6abd
000002f0: 8760 5bbc 40b6 a4bc 0a51 fcbc 14da 863b
00000300: c2d5 80bb 37a0 c23b eed8 e3bc 7544 d1bb
00000310: 57af 22bd dc22 433b 04ee 463c 0507 babc
00000320: 6224 60bd 4b73 2abd 2489 83bc 6a6e c3bc
00000330: 9a0f b53c b039 a4bb 734e 09bd 795e 6dbd
00000340: d853 1f3d ecd2 8fbc 2230 733b 152f a8bc
00000350: 4b95 8bbb 0f99 e83b d91a 45bd cd74 273c
00000360: f60b 363a e3dd 02bd bd18 e3bb aaa5 24bd
00000370: 0980 1fbc 117d 643b b172 bebc dd17 21bd
00000380: b262 3dbd 15f0 24bd 259b abbb 7661 acbc
00000390: aa3e 73bd 2d8c 7cbc 1af2 4b3c 743e 353c
000003a0: fc5c e8bc 1176 35bd 85da 18bd 4fb0 b5bd
000003b0: 2418 60bd e38f 093d 6bf9 9cbc 21ee 32bd
000003c0: 7cb3 d93a 1d4a 1abc c2af 053c 2d42 89bc
000003d0: 60e9 53bd ab55 2cbd b43b c7bc f5ad 56bc
000003e0: af5e a2bc 3648 e3bc bbed 1b3c 3212 0bbd
000003f0: af5b 60bd ec9d 48bc 658c 34bc cee7 37bb

cvae_parameters.z_mu_lin_b f4 [32]
-0.005388123 -0.0030587958 0.0014713147 0.014330759 -0.021039497 0.00521429 0.0039711953 0.0026533697
-0.00619579 -0.00056251814 0.016882867 -0.0017965968 -0.011137018 -0.028635584 0.001143184 -0.0001802431
0.012087342 -0.0023398271 0.010038178 -0.00075732585 -0.0062609 -0.0023502996 -0.0009576124 0.008132385
-0.02225715 0.0026642627 0.00079305464 0.01851995 0.002189693 0.008906092 -0.012291197 -0.0005008033
00000000: da8e b0bb 1476 48bb 21d9 c03a 8fcb 6a3c
00000010: 065b acbc a3dc aa3b cd20 823b 28e4 2d3b
00000020: 0e06 cbbb f475 13ba f04d 8a3c c97b ebba
00000030: 0a78 36bc 2c95 eabc e4d6 953a a4ff 3cb9
00000040: fd09 463c c957 19bb 2c77 243c 4787 46ba
00000050: 3c28 cdbb 7c07 1abb 4808 7bba b23d 053c
00000060: a054 b6bc e99a 2e3b ffe4 4f3a 26b7 973c
00000070: f480 0f3b dbea 113c 0461 49bc 5748 03ba
