dlpg/21/weights/dlpg_model_weights_300.pth (torch, 313083 bytes, 14 tensors)

cvae_parameters.dec_00_lin_b f4 [128]
000000 4c 91 41 3e 08 78 6b bd 49 02 6e bd c2 cc 85 3d
       0.18903083 -0.057487518 -0.058107648 0.06533195
000010 1b 71 32 3e 2a 79 b0 bd e2 ec 51 bd 59 e8 8a bd
       0.17425959 -0.0861686 -0.0512513 -0.06782598
000020 a1 dd 8b bd 0d 9c 3b 3e 89 93 89 bd 8f 99 63 bd
       -0.06829382 0.18321247 -0.06717593 -0.055566367
000030 4d 42 48 bd 43 56 6a bd d7 fc 3f bd 0f 0e b2 bc
       -0.048891354 -0.05721117 -0.046871986 -0.02173522
000040 d7 6a 6d bd f8 f3 86 3e b3 11 4e bd fa e3 8c bd
       -0.05796322 0.26358008 -0.050309848 -0.068794206
000050 c9 d7 7b bd c3 6e 1d bd 10 f5 94 3e 04 a5 6b bd
       -0.061485086 -0.03843571 0.29093218 -0.057530418
000060 b3 69 83 bd 39 b3 87 bd e0 a5 57 bd 66 32 8e bd
       -0.06416645 -0.06625981 -0.052648425 -0.069432065
000070 41 73 a5 bd e2 cd 6b bd 4f 31 86 bd 91 25 81 bd
       -0.080786236 -0.057569392 -0.065523736 -0.06305993
000080 8e 06 39 bd d5 d0 46 bd 89 70 96 bd 40 31 9c bd
       -0.045172267 -0.048539 -0.07345683 -0.07626581
000090 0a 6a 93 bd 50 02 d9 3d 6f cc 61 bd ae 39 a5 bd
       -0.0719796 0.10596144 -0.055126604 -0.08067642
0000a0 79 45 60 bd 91 c6 85 bd 15 3c 96 bd 8f a5 5a bc
       -0.054753754 -0.06532014 -0.073356785 -0.013345136
0000b0 c7 ce eb bc 8e 66 06 3d ff 22 69 bd 05 3c 78 bd
       -0.028785123 0.032812648 -0.05691814 -0.060604114
0000c0 de f6 31 bd 40 6d 42 bd 2b cf 86 bd ff 64 69 bd
       -0.04344832 -0.04746747 -0.06582483 -0.056981083
0000d0 0c 6b a6 bd a8 99 a2 bd 78 90 8d bd f0 fd 8e bd
       -0.08125886 -0.07939464 -0.06912321 -0.069820285
0000e0 b6 af 84 bd 4c d4 6e bd 4f 0a 5f bd 3c 0f 87 bd
       -0.06478827 -0.05830793 -0.05445319 -0.065947026
0000f0 5d 9b 36 bd e8 85 6e bd c5 9b a9 bd ae 3d 97 bd
       -0.04458176 -0.05823317 -0.08281664 -0.07384811
000100 96 b6 9b bd db ec 31 bd 3d 9e a4 bd 60 4e 87 bd
       -0.07603185 -0.043438774 -0.08037994 -0.06606746
000110 99 19 4e 3e e2 25 9f bd bb d0 4c 3e eb c2 76 bd
       0.20126952 -0.077708974 0.200015 -0.060244482
000120 f2 1b 88 bd 4a 43 7d bc 58 cf 94 bd 5a f9 93 bd
       -0.06645955 -0.0154579375 -0.0726611 -0.072252944
000130 c3 ae 7e bd ac b8 6c bd a7 52 01 bd aa e3 c1 bc
       -0.062178385 -0.057793304 -0.031572964 -0.023668129
000140 0f 31 74 bd 5d 6c 84 bd 50 91 47 bd 7b 82 59 bd
       -0.0596171 -0.06465981 -0.048722565 -0.05310295
000150 50 57 7a bd 69 c4 53 bd 0d 92 de 3d e8 0c 9a bd
       -0.061118424 -0.051700983 0.10867701 -0.07521993
000160 6f 0e 90 bd 85 51 24 bd 66 c0 aa bd d0 90 92 bd
       -0.07034003 -0.040116806 -0.08337478 -0.07156527
000170 53 dc 31 bd 06 b9 45 3e 82 2e 61 bd d4 26 8e bd
       -0.04342301 0.19308862 -0.054975994 -0.069409996
000180 cc 47 10 3e ff 06 8e bd 54 2f 43 bd 5c 32 6d bd
       0.14089888 -0.06934928 -0.047652557 -0.057909355
000190 98 00 53 bd 81 ae 98 bd 48 a2 80 bc e2 dd 7d bd
       -0.051514238 -0.07455159 -0.015702382 -0.061979182
0001a0 6d e7 6b bd 22 7c a9 bd b3 6e ab bc 69 fb 33 3e
       -0.05759375 -0.082756296 -0.020926809 0.17576374
0001b0 28 96 6b bd f5 45 2b bd d2 ab 6d bd db b3 88 bd
       -0.057516247 -0.041814763 -0.05802519 -0.0667493
0001c0 5e b6 75 bd c1 94 3a bd d9 02 06 bd fb de 23 3d
       -0.059988372 -0.04555202 -0.03271756 0.040007573
0001d0 e7 33 45 bd 63 db 81 bd 96 a3 d0 bc 25 e0 c0 bd
       -0.0481452 -0.06340673 -0.025468629 -0.09417752
0001e0 a7 69 34 3d c4 34 6e bd 5f 92 ff bc dd f9 54 bd
       0.04404607 -0.05815579 -0.031197725 -0.0519961
0001f0 a2 f5 8b bd 97 c7 87 bd 13 06 67 bd cf 1b 6b bd
       -0.0683396 -0.066298656 -0.056402277 -0.057399567

cvae_parameters.dec_00_lin_w f4 [128, 35]
000000 75 cc 65 3c 22 9e 10 3b ae 05 2f 3c 73 af a2 bc
       0.014025797 0.002206691 0.0106825065 -0.019859051
000010 b7 57 02 bd 69 fc d0 3c 5f 03 9a 3c 04 da 44 bd
       -0.031821933 0.025510984 0.018800436 -0.04805948
000020 96 53 15 bc 19 a9 bc 39 92 c8 86 bb 25 9a 2c 3d
       -0.009114167 0.00035984142 -0.0041132653 0.04213919
000030 1d 03 2a bd d0 69 12 bc a7 2e f6 b9 d9 f3 c0 bc
       -0.041506875 -0.0089363605 -0.00046955535 -0.023553776
000040 01 5f 10 3c c9 26 76 bc 59 a7 38 bc 4b 5d 47 ba
       0.008811713 -0.015023896 -0.011270368 -0.00076051493
000050 81 bd ea bc bc ba d5 3b 10 f4 c8 3c cd b4 3c 3c
       -0.028654816 0.0065225046 0.02453044 0.011517716
000060 23 7f 01 bd ff 61 a8 3a da f5 65 3c b1 6b 25 bc
       -0.031615388 0.0012846588 0.014035666 -0.010096476
000070 a4 23 d3 3c 27 a4 37 3c 15 6c d3 bb 7c 73 34 3d
       0.02577383 0.011208571 -0.0064520934 0.044055447
000080 76 ad 1e 3b e8 ea 4d 3e 32 64 7e 3b c4 42 08 bc
       0.0024212277 0.20109141 0.0038817045 -0.008316699
000090 20 cf 0d 3c 03 99 2a bc 30 24 1d 3c 27 21 7d ba
       0.0086553395 -0.010412457 0.009591147 -0.0009656124
0000a0 43 d2 02 3c f0 45 b6 3b af 24 a9 b8 4e 4b 9d 3c
       0.007984701 0.0055625364 -8.065381e-05 0.019200947
0000b0 42 82 75 bc a6 a4 5a 3c 95 95 27 3c 94 14 fd 3b
       -0.014984669 0.013344919 0.010228534 0.0077234004
0000c0 34 d0 09 bc 04 a0 04 bb 6b 00 b8 3c a6 9f e2 ba
       -0.008411456 -0.0020236978 0.022461137 -0.0017290011
0000d0 fb b5 65 3c 84 fe aa 3a 43 e1 6c 3c 9a cc a0 bc
       0.014020438 0.0013045822 0.014458003 -0.019628812
0000e0 34 b0 92 ba 5d c8 b7 bc e7 0b ac 3c df bb ee 39
       -0.0011191429 -0.022434408 0.02100177 0.00045534872
0000f0 f9 89 9e 3b f8 77 b4 bb 84 50 aa 3b fe 98 7b 3c
       0.004838225 -0.0055074655 0.0051975865 0.0153563
000100 d7 43 52 bc ae cb f3 3b 99 c2 9c bb ae 6e 72 3c
       -0.012833557 0.007440052 -0.00478394 0.014796896
000110 27 47 6c bd 22 62 ae bb 26 e1 3a bc 07 56 47 bb
       -0.057685044 -0.005321757 -0.011406219 -0.0030416267
000120 ab 46 ea bb c6 a4 45 bc 89 9d 5d 3c 61 35 c4 bb
       -0.0071495376 -0.012063211 0.013526329 -0.0059878086
000130 c2 d3 50 bc 15 2c 9f bc 4f 9a eb 3b 36 0c 0f 3a
       -0.0127457995 -0.0194302 0.007190026 0.00054568367
000140 ef d0 da 39 1a c3 b9 bb 5a 3a d0 bb 03 09 30 3c
       0.00041735868 -0.00566901 -0.0063546123 0.010744336
000150 71 c9 0c 3b 5e dc b5 3b f9 74 cf bb 77 ba a6 bc
       0.0021482373 0.0055499515 -0.006331083 -0.020352585
000160 a0 18 c4 bb 42 72 c0 bb 33 ea a7 3c 3e 11 7a bb
       -0.005984381 -0.0058729956 0.020497417 -0.003815725
000170 6c 6a 9e 3b 0b 9f 29 3c be b8 04 3c aa 86 06 bc
       0.004834464 0.01035286 0.008100687 -0.008210817
000180 9f 71 6c bc cb 72 cd 3b 74 56 8a bc b7 43 ee bb
       -0.014431386 0.006269788 -0.016886927 -0.007271256
000190 33 41 b8 3c 5f 9a 82 ba 34 c5 d7 3c f8 49 39 bd
       0.022492027 -0.0009964219 0.026339151 -0.045236558
0001a0 d4 c2 ab bb 99 b3 cc bc f0 49 ed bc ef 46 99 bc
       -0.005241731 -0.024987983 -0.02896592 -0.018710582
0001b0 f5 99 e2 3b 7d 3b ec bb 54 33 87 bc 61 48 0d 3c
       0.0069153258 -0.00720924 -0.016503967 0.0086232135
0001c0 ab 63 66 bc ba 9e f6 3b 5f af a4 bc 69 a0 a4 bc
       -0.014061849 0.007526246 -0.020103155 -0.02009602
0001d0 97 c2 22 bc 2a c9 38 3c b5 88 c4 3c 5c 99 69 3b
       -0.009934089 0.01127843 0.023990968 0.0035644388
0001e0 76 a4 79 3a 95 48 10 3c 27 64 1f bb f3 d2 af 3b
       0.0009523103 0.008806367 -0.002432117 0.0053657233
0001f0 e2 1a b2 bc 73 0e 25 3c 6f ac a5 bc 3a 80 1f 3d
       -0.021741334 0.010074246 -0.020223824 0.038940646
000200 fc ca ac bb c4 47 12 bd b8 8a 2a ba 4a 3b e6 bc
       -0.005273221 -0.035712972 -0.0006505656 -0.028104443
000210 dc 73 69 bb 97 2c 45 bc a0 f7 72 ba 35 c3 fb 3b
       -0.0035622036 -0.012034557 -0.00092684664 0.0076831826
000220 b6 72 84 bc 7a 13 84 bb cc 6c 8b 3d 9b 57 4f bb
       -0.01616798 -0.004030642 0.06807861 -0.003163791
000230 fa a8 b3 bc ac 8d 7b bc 80 c2 84 bb 2e 56 70 bc
       -0.02193116 -0.015353601 -0.0040515065 -0.014668984
000240 09 75 6f bc f6 95 04 bc c4 41 cd bc a2 f5 04 3d
       -0.014615306 -0.008092394 -0.025055774 0.032460816
000250 c1 dc 9a bc 42 83 87 3c 44 ce e6 3c f5 52 32 bd
       -0.018904092 0.01654208 0.028174527 -0.043536145
000260 6e 33 c0 bb 31 4c 21 3b d3 c1 b7 bc e8 06 88 bc
       -0.005865506 0.0024612064 -0.02243129 -0.016604856
000270 4f c9 cc bc 6b 80 06 3d a6 88 81 3c 9a a3 11 3c
       -0.024998335 0.032837313 0.01581223 0.008889103
000280 fe 94 c7 3c d7 4e 45 ba ba 98 1e 3c f5 89 07 bd
       0.024363037 -0.00075267017 0.009679968 -0.03309055
000290 74 77 61 3d 27 0b 1b bd 71 c8 03 3c c9 26 31 bd
       0.05504556 -0.037852433 0.008043394 -0.04324988
0002a0 aa b5 29 3a bf 09 92 bc 82 8b b6 bc 6f f4 7e bc
       0.00064739084 -0.017826913 -0.02228332 -0.015561207
0002b0 94 4b 92 bb c2 ef 32 3e 44 c6 8e ba 96 11 d6 3c
       -0.004464576 0.17474273 -0.0010892828 0.026131433
0002c0 c7 a3 2a 3c 7c 4c 71 bc b0 0a f6 bb 8f 32 b6 3a
       0.010415024 -0.014727708 -0.0075085983 0.0013900566
0002d0 31 13 40 3c 77 a5 f3 bb 37 97 41 39 74 54 86 3c
       0.011723326 -0.0074354964 0.00018462246 0.016397692
0002e0 ef 3c 4b 3b f8 16 6d 3b bd 08 c5 3b ff eb 12 bd
       0.003101166 0.003617702 0.0060130046 -0.035869595
0002f0 b7 8a ad 3c c6 a9 17 bc dd f6 97 3c bc ba 12 3c
       0.021184308 -0.009256786 0.01855033 0.008955654
000300 21 60 8a bc da b8 83 3b f8 c7 11 bc e8 49 07 3d
       -0.016891541 0.0040198388 -0.008897774 0.033029467
000310 97 dd bb bc c8 e9 96 bc e4 9e db bc df 82 75 3d
       -0.02293281 -0.018422022 -0.026809163 0.05993926
000320 42 86 86 bc da b8 2f bc 69 89 9c 3c e8 ea 31 3b
       -0.016421441 -0.010725224 0.019108491 0.0027148072
000330 7a 34 c7 3c 91 5d 85 bb 58 48 88 bc 80 43 26 bc
       0.024317015 -0.004069992 -0.016636059 -0.010147929
000340 c8 7b 8e bd 0b 99 25 3c 12 6d 9b 3c d3 d2 a3 bc
       -0.06957203 0.010107289 0.018972907 -0.01999799
000350 c2 c1 34 bc 3e e1 b2 bc 1d f3 01 bc 23 98 f4 39
       -0.011032524 -0.02183592 -0.007931498 0.00046652657
000360 c8 4e a4 bb 26 42 2a 3d d7 7d 7d 3c f2 39 8a bc
       -0.0050142743 0.04156699 0.015471897 -0.016873334
000370 64 10 31 3b 5a 11 48 3c 3c 3a ad 3b 85 82 ec 3b
       0.0027017826 0.012211168 0.005286483 0.0072177076
000380 91 69 4b bc c1 c6 7c bc bb f5 d9 bb 5d 34 9e bc
       -0.012415306 -0.015428246 -0.006651608 -0.019312078
000390 fb 06 80 3c 49 43 d8 3b b4 84 de bc f9 d2 34 3d
       0.015628329 0.006599818 -0.027162887 0.04414651
0003a0 fa 83 ba bb 83 61 01 3d 91 d5 09 3d c9 1a f9 ba
       -0.0056920024 0.031587135 0.03365094 -0.0019005175
0003b0 dd 92 2d bd 5d bd 39 bc 70 27 ca bb 8c 3e b1 3c
       -0.042376388 -0.011336652 -0.006169252 0.02163627
0003c0 a2 05 c7 3c aa 6c e3 3c 6a 95 56 3b fc 7c 79 bd
       0.024294678 0.027761776 0.0032742866 -0.06091021
0003d0 0e f8 01 bc 6b 10 14 bc 7b b1 0e 3c c8 ea a6 bb
       -0.007932676 -0.0090371175 0.008709307 -0.005093906
0003e0 fe 1c 6a 3b 47 b1 da bb c6 4a 3a bb 94 9f ea bb
       0.0035722847 -0.006673965 -0.0028425916 -0.0071601365
0003f0 2c 24 98 bc d8 b2 d0 3b cb f4 b3 3b 80 fd 33 bb
       -0.018571936 0.006368976 0.005491828 -0.002746433

cvae_parameters.dec_01_lin_b f4 [128]
000000 da a6 ce 3c c7 be 84 3e 3d f4 07 bc 20 12 83 bc
       0.025226045 0.25926802 -0.008297977 -0.015999854
000010 f2 b5 0f 3d e7 22 dc 3a 1e c0 a1 bb b0 2a 39 3d
       0.035085626 0.001679507 -0.004936232 0.045206726
000020 47 29 0e 3d 30 05 77 3c 61 6b 42 bb 35 bb 02 3d
       0.034707334 0.01507692 -0.0029666054 0.031916816
000030 fc 91 32 bc bd 44 a5 3d d4 3d 74 3d e3 0a c3 bc
       -0.010899063 0.080697514 0.059629276 -0.023808902
000040 85 71 02 3d c7 4e 9a bc a5 c9 72 3e 10 46 43 bc
       0.031846542 -0.018836392 0.23709734 -0.01191856
000050 d6 1e 84 3d fb 24 8e 3e 77 30 b5 3c 71 56 5a 3a
       0.06451194 0.2776259 0.022117836 0.0008328921
000060 15 e5 2b 3c e5 51 5e ba 34 b2 5a bb 5d e2 7b 3e
       0.010491629 -0.0008480831 -0.0033370377 0.2459807
000070 83 f1 10 3d e8 f4 b4 3c 03 e8 8c bb 8a 23 d7 3c
       0.035386574 0.022089437 -0.004300119 0.026262064
000080 b0 89 81 ba 18 25 09 3d f8 5e b6 3d 14 7a c6 3b
       -0.0009882953 0.03348264 0.089048326 0.0060570333
000090 8c 7a 21 3d 8f 85 cf 3c a9 1e 99 3c 98 3d 0b 3d
       0.03942351 0.02533224 0.018691378 0.033994287
0000a0 b2 56 28 3d e6 42 04 bb 3c 35 00 bb f5 0d 5b 3c
       0.041098304 -0.0020181476 -0.001956298 0.013370027
0000b0 da 66 c1 3c 50 e9 a1 3d 75 00 37 bb 6b 49 15 bc
       0.023608614 0.07905829 -0.0027923856 -0.0091117425
0000c0 57 f4 3f bc df 55 05 3d de 9e 51 3d ff f9 8b 3d
       -0.01171597 0.032552596 0.0511769 0.06834792
0000d0 2f 23 9c bb e6 bd 84 bc a4 7d 2f bc dc 05 73 3e
       -0.0047649364 -0.016203832 -0.010711107 0.23732704
0000e0 8b be 0c 3d 4c 65 8f 3d 3c 74 ab 3c 29 70 84 3d
       0.034361403 0.07001743 0.020929448 0.06466705
0000f0 68 b0 23 3d 65 c6 4b 3c 92 0d 4f bc 79 53 86 3a
       0.039963156 0.012437438 -0.012637513 0.0010248265
000100 45 57 8d bb 5f 0d ea bb 9d 1a 94 3a 6b cf 22 3c
       -0.004313382 -0.0071427072 0.0011299435 0.009937148
000110 7a c7 15 3d f5 c4 e8 ba 48 36 81 bc 96 14 2b 3d
       0.03656719 -0.0017758893 -0.015772954 0.04176768
000120 77 72 1f 3d 23 12 7c ba 2d a9 57 3d af 08 8f 3b
       0.03892752 -0.00096157397 0.052651573 0.004365049
000130 b6 a1 91 bc 98 22 06 bc 6c c7 6e 3e 63 2b 92 3c
       -0.017777305 -0.008186959 0.23318261 0.017842954
000140 88 df 19 3c 8f 65 e2 3c 4c 36 a4 bc 81 13 0a 3d
       0.009391673 0.027636318 -0.020045422 0.033710007
000150 be 25 96 3e 03 cc 3d bc 55 d2 17 3b 59 82 9b bb
       0.2932567 -0.011584285 0.002316614 -0.0047457633
000160 6c c0 fd 3c d9 b0 36 3c 0a a3 c3 3d b6 24 d4 3c
       0.030975543 0.011150562 0.095525816 0.025896411
000170 df 60 ec 3e af 56 71 bc a3 dd cc 3c 42 f1 50 bc
       0.46167657 -0.01473014 0.025008028 -0.012752833
000180 3c fb c0 bb 01 22 a9 3c ab 7e 71 3d b9 ab 4a 3d
       -0.0058893245 0.020646097 0.05895869 0.049480174
000190 eb 73 ce bc 27 01 b5 3c a4 02 a9 ba 2b ae 26 bc
       -0.025201758 0.022095276 -0.0012894464 -0.010173361
0001a0 3a 91 ac ba e5 32 c5 3c 06 8a 99 bb d1 34 0a 3d
       -0.001316584 0.02407212 -0.004685643 0.033741776
0001b0 e8 9b 8a 3b 36 ef a3 3c 9f 66 97 bb 54 c4 a5 3c
       0.0042300113 0.020011526 -0.0046203877 0.020235218
0001c0 60 f7 c4 3c 69 16 76 3d 9f a2 32 bc 6d 4c 2f 3d
       0.024043739 0.060079966 -0.01090303 0.042797495
0001d0 96 4f 00 3a 1a 7c 30 3c 05 72 2e 3e fb 90 30 3e
       0.0004894672 0.010771776 0.17035682 0.17242806
0001e0 d6 6f 9b bb 4d fc de bb 23 2d d4 ba ff 27 6c 3c
       -0.0047435565 -0.006804979 -0.0016187768 0.014413833
0001f0 a9 13 b7 3d c7 9a e5 ba a8 a8 96 bc 3b 88 87 bb
       0.08939297 -0.0017517441 -0.018390968 -0.004136113

cvae_parameters.dec_01_lin_w f4 [128, 128]
000000 63 8b c2 bc 26 f3 0f bc 13 14 82 bc ab 10 d3 bc
       -0.023748105 -0.008785998 -0.015878713 -0.025764784
000010 98 6d 92 3a 68 70 69 bc b8 7a 3c 3c 28 9f 05 3c
       0.0011171577 -0.014247991 0.011503868 0.008155622
000020 bc 92 86 bc cc ef 22 3a 05 94 02 bd 4b 7d 5e 3b
       -0.01642739 0.0006215542 -0.031879444 0.0033949192
000030 18 46 66 bb b3 31 13 3c c1 09 b8 3b a8 fd 71 3c
       -0.0035136994 0.008984017 0.005616397 0.014769949
000040 86 b9 fd 38 7e b2 07 bd ec 54 c5 3c f7 04 18 bc
       0.000120985365 -0.033129208 0.024088345 -0.009278527
000050 68 64 a7 bb d4 a3 1e 3c c6 d2 09 bd 30 74 ca bc
       -0.005108405 0.009682614 -0.033648275 -0.024713606
000060 a0 06 e3 bb 87 7c 86 bc d7 26 e2 3b 8e 16 98 bc
       -0.00692828 -0.016416801 0.0069016027 -0.018565442
000070 ff 21 07 bc 33 20 a3 3b dc 63 86 3b f9 15 eb bb
       -0.008247851 0.0049782037 0.0041012596 -0.00717425
000080 db 82 80 bc 5a 44 c2 3c 9b af 75 3a 17 ab 99 bc
       -0.015687397 0.023714233 0.00093721756 -0.01875834
000090 60 d5 fb bb ba ca 41 bd f2 cb b3 3b b1 bc 0b bc
       -0.0076853484 -0.047312476 0.0054869587 -0.008528874
0000a0 21 b2 b9 3c d2 fb 83 bc 59 7c 9a bb e4 50 45 bc
       0.022667946 -0.016111288 -0.0047145304 -0.012043212
0000b0 a4 03 a9 bc 99 41 28 bb 9e dd 31 bc 43 1e d6 bb
       -0.020631619 -0.0025673865 -0.01085606 -0.006534369
0000c0 b5 41 23 3b 53 01 f0 3b ef 0a d4 bb 5e fe 94 3b
       0.002491099 0.0073243766 -0.00647103 0.0045469245
0000d0 d7 60 7a bc 6d fd 2b 3b 90 1b 1a bb b7 bb 48 bc
       -0.0152818775 0.0026243583 -0.0023514964 -0.012251786
0000e0 ad c9 86 bc 03 dc 69 bc 14 6e 5c bc f7 b1 97 3b
       -0.016453588 -0.014273646 -0.013453979 0.0046293694
0000f0 4c 24 16 3c 24 c4 c3 bc 90 b6 4a bc 6e 7b 06 3c
       0.009163927 -0.023897238 -0.012372628 0.008208139
000100 4e 37 de 3b f4 9b 38 3c cf f0 ab 39 83 9a 39 3b
       0.006781495 0.011267651 0.00032795078 0.0028320856
000110 16 6d 22 bd 2d 4d 62 bc 5b 25 dc bc f1 9f 14 bd
       -0.039654814 -0.013812345 -0.026873281 -0.036285345
000120 f7 b5 4a 3c 3d 41 12 3c 1e f3 5e bc 4d c4 27 bc
       0.012372485 0.008926687 -0.013607768 -0.010239673
000130 a5 bc f0 bc 96 76 7d bc ce a2 51 bc aa a1 92 3c
       -0.029386828 -0.015470168 -0.012795163 0.017899353
000140 59 a4 45 bc e7 83 c7 bc 0b cf 4f bd 13 b7 00 bb
       -0.012063109 -0.024354888 -0.05073456 -0.001964037
000150 7f da d3 bc 69 57 9f 3c 3a a9 04 bd 22 0d 38 bc
       -0.025861023 0.01945086 -0.03238795 -0.0112336
000160 74 2f dd bb 6e 6f 9f ba 18 1a 4c 3c 44 97 46 ba
       -0.0067500416 -0.0012163946 0.012457393 -0.0007575641
000170 50 aa 44 bc c3 55 f0 bc fb 72 f5 bc 4a b9 af bc
       -0.012003496 -0.02933777 -0.029962054 -0.021450657
000180 92 cc 8d 39 50 29 55 3a d3 86 5f 3b d0 f3 c6 bb
       0.00027046032 0.0008131461 0.003410746 -0.006071545
000190 7d af e4 bb 13 ad 9d 3c 57 ce 15 bd 40 b8 3a bc
       -0.0069789276 0.019247567 -0.036573734 -0.011396468
0001a0 3b 7b 19 3b 92 c4 40 bb 68 59 b0 3c eb 38 55 bd
       0.0023419398 -0.002941404 0.021527007 -0.052056234
0001b0 41 d1 72 bc 92 72 1e bc 2d ff 26 bc 23 1b 5a 3b
       -0.014820398 -0.00967087 -0.010192675 0.0033280335
0001c0 7f fe b3 bb 5d dc cc ba 3c e0 5b bc 8e 8b 28 bd
       -0.005492985 -0.0015629638 -0.013420161 -0.041148715
0001d0 15 da ae 3b f3 f2 0f 3c 1f f6 42 bc e9 7a 99 bc
       0.005336056 0.008785951 -0.0118995 -0.018735366
0001e0 56 f7 30 bc f5 da 2e ba 04 f7 cd bc e2 22 3d bc
       -0.010801157 -0.00066702004 -0.0251422 -0.011543961
0001f0 bd fe 32 3b 88 8c 66 bc 8b 08 e6 3b a3 1c 3b bc
       0.002731248 -0.014071591 0.0070200614 -0.011420402
000200 1d 6f 1f 3d aa a8 0d bc a9 4e 83 bb 89 c1 08 3c
       0.038924325 -0.00864617 -0.0040071798 0.008346924
000210 ea b0 bd 3c 33 c9 15 3b 2b 03 90 bc ed 1b 52 bb
       0.023155648 0.002285552 -0.017579636 -0.0032060102
000220 61 dd 80 3b 66 4f 55 3d d8 cb 8b 3c 6d 96 a7 ba
       0.0039326404 0.052077673 0.017064974 -0.0012785919
000230 c6 84 55 bc bb e7 91 3b b6 65 21 bc 8c a5 94 3b
       -0.013032144 0.0044526733 -0.00985091 0.0045363363
000240 bf bc 4f bc 2e 65 83 3d 50 09 04 bc 90 dd 75 bc
       -0.012679278 0.06415783 -0.008058861 -0.015006438
000250 e4 f8 b5 3c 4b 65 02 bc 27 15 81 3d cb b7 cf bb
       0.022213407 -0.00795872 0.063028626 -0.0063390485
000260 c5 d3 17 3b b8 ba 97 3b 3e a2 8a bc d0 f6 03 bb
       0.0023166996 0.004630413 -0.016923066 -0.0020136125
000270 b2 80 3b bb 33 70 05 3c c1 d9 81 bc 58 c9 a0 bc
       -0.0028610644 0.008144426 -0.015850903 -0.019627258
000280 10 b3 e9 3a b3 c0 ad bb 75 84 e8 bb 96 1a 8d bc
       0.0017829854 -0.0053025126 -0.0070958682 -0.017224591
000290 d0 e2 31 bc 4c 5f c0 3c f3 65 72 3c 6c 00 0a bc
       -0.010857299 0.023482941 0.014794814 -0.008422952
0002a0 63 c8 8e bc cf 80 ee ba a4 6d f9 39 0c 65 82 3c
       -0.017429536 -0.0018196347 0.0004757467 0.015917324
0002b0 d0 49 d6 3b 8e 66 b2 3a 28 9d 84 bc eb 6f 8e 3b
       0.006539561 0.0013610886 -0.01618822 0.0043468378
0002c0 f4 f7 73 bc 2b 20 b2 bb 9a aa 2d b8 0c c7 99 bc
       -0.01489066 -0.0054359636 -4.14053e-05 -0.01877167
0002d0 ac aa 6f 3c 7f 71 03 3c 18 95 1f bc fe 4d bb 3b
       0.014628094 0.008022665 -0.009740137 0.0057160845
0002e0 2a fc 73 bc af 80 bc bb f9 46 b0 3b 2c 2b 68 3c
       -0.014891664 -0.005752645 0.0053795543 0.014170449
0002f0 b0 e9 c3 3a 69 cd 31 3c 35 e8 be 3b db dd 60 3c
       0.0014946964 0.010852196 0.005826021 0.013724769
000300 07 f9 cd 3b 03 1e 24 bb 06 32 6d 3c 30 ee c7 ba
       0.00628579 -0.0025042302 0.014477259 -0.001525348
000310 fd 3c 21 3d 51 ff 8d 3b ff 04 c8 3c 35 ac 89 bb
       0.039364804 0.0043334146 0.024416445 -0.004201437
000320 7d f6 21 bc 5d e7 58 3c 15 32 b4 bb 5f 33 22 bb
       -0.009885428 0.013238755 -0.0054991343 -0.0024749858
000330 cb 17 29 3b f3 a0 fe 3b e8 62 82 3b 21 51 9d 3b
       0.0025801535 0.0077706515 0.0039790757 0.004800931
000340 61 67 21 3b 7b 11 5b bc 01 5e 51 39 53 34 68 bc
       0.002462827 -0.013370867 0.00019966812 -0.014172631
000350 49 88 b0 bc cc ae 5b bb 17 72 93 3c 42 fd 31 bb
       -0.02154936 -0.0033520935 0.017998738 -0.002715901
000360 6c c5 2e 3c ac 39 b6 bb 87 67 39 bb 76 c5 4d bc
       0.010667186 -0.0055610742 -0.0028290467 -0.012559285
000370 1f 1a 00 3c 9f 4f 06 3d 8d 10 31 bc ee e3 8a bc
       0.007818728 0.032790776 -0.010807169 -0.016954388
000380 cb 77 92 3c 8d af 78 bc 2e 80 90 3b bc 83 f5 3b
       0.017879387 -0.015178573 0.0044098115 0.0074925106
000390 41 8c 57 ba 6b 3a 53 bb 52 14 49 b7 7d 60 de bc
       -0.00082224986 -0.0032230865 -1.1985265e-05 -0.027145619
0003a0 04 2c eb bb 34 bc 0a bc c4 5f 9c bc b5 5a 6f 3c
       -0.007176878 -0.008467723 -0.019088633 0.014609029
0003b0 f9 82 71 3a 03 d5 22 bc 3b 0b 1e 3c c9 39 02 3c
       0.0009212937 -0.009938481 0.009646232 0.007948347
0003c0 77 44 0c 3c 97 51 10 3b 31 ee 54 bb c1 e5 54 bc
       0.008561245 0.0022021288 -0.0032490606 -0.012994231
0003d0 92 64 a1 b9 be 04 03 bc c1 88 21 39 f7 b6 87 bc
       -0.00030783244 -0.007996736 0.00015405101 -0.016566737
0003e0 01 32 47 bb b3 39 b3 bb 43 cb 7e bc 93 be e8 bc
       -0.0030394795 -0.005469525 -0.015551391 -0.028411185
0003f0 af 55 e1 39 1d 2a 2c bc 78 95 7d bc 21 db 3f 3b
       0.00042979183 -0.010508087 -0.015477531 0.0029274898

cvae_parameters.enc_00_lin_b f4 [128]
000000 d6 d5 23 bb d3 5d 1f bc 30 98 a9 bb 01 6a d7 bb
       -0.0024999282 -0.009726959 -0.005175613 -0.006573916
000010 df b2 0e bc e1 c1 17 3b d5 89 6d 3c 38 1a 88 bb
       -0.008709638 0.0023156332 0.014498194 -0.004153516
000020 9b 52 76 3c ac 16 7f ba 26 52 47 3b ac 7b 70 bb
       0.015034343 -0.00097308564 0.0030413955 -0.0036694808
000030 5c e5 cc bb e0 ba 8d 3c ff 02 c8 bb 00 8a 52 bc
       -0.0062529277 0.017301023 -0.006103873 -0.012850285
000040 3f d7 18 3c dc c7 16 bc 2d 40 b1 3a f8 57 bb bb
       0.009328662 -0.009202924 0.0013523154 -0.005717274
000050 a2 4d 1a 3c 29 d0 5e 3c 28 3b 4b bb 48 e2 2b 3a
       0.009417923 0.013599434 -0.0031010602 0.0006556851
000060 33 b5 47 3c ae 4d 08 bc 37 10 43 bb 19 4b 10 bc
       0.012189197 -0.0083193015 -0.0029764303 -0.008806967
000070 2b 67 8a bb d3 b8 3b 3c 12 2d 7e 3c ca d6 09 3c
       -0.0042237244 0.01145764 0.015513675 0.008413026
000080 e5 51 95 bb 6c c2 5a 3c 11 6f 80 3c 07 67 1c ba
       -0.0045568817 0.013352018 0.01567796 -0.000596628
000090 7e a7 38 3c ae 98 ae bb 4c 20 8c 3c 3d ce e5 bb
       0.011270402 -0.0053282594 0.017105244 -0.007013111
0000a0 13 63 bc 3b 55 64 20 3c 38 b3 51 bc c6 bd 3b 3c
       0.0057491153 0.009789546 -0.012799077 0.01145882
0000b0 c5 b5 88 bb e7 2a 84 3c 56 74 9e bb 6d 5e 3f bc
       -0.0041720592 0.016133739 -0.0048356457 -0.011680228
0000c0 86 73 29 3c 0a 2f 12 bb b7 b4 1b bc c1 16 e3 bb
       0.010342484 -0.002230587 -0.009503535 -0.0069302027
0000d0 33 30 ab 3b 0f 6b 4e bb 0d 33 0d bb 6f 6a cc 39
       0.0052242517 -0.0031496917 -0.0021545321 0.0003898921
0000e0 31 75 28 3c 71 2d 17 3c d4 7e dc bb 5a 2d 4c bb
       0.010281847 0.009227143 -0.0067289863 -0.0031154961
0000f0 2e cb fe ba dc b5 58 3c 16 ce af bb 95 5f 87 bb
       -0.0019439214 0.013226952 -0.0053651435 -0.0041312673
000100 fb a7 6b 3c 73 23 3a 3c 9c e4 57 bb 0b 84 2f 3c
       0.014383311 0.011360991 -0.0032942658 0.010712634
000110 ea df 9a 3c 57 7e c5 3b b7 e2 4a bc 66 d3 3c 3a
       0.018905599 0.006027024 -0.012383155 0.00072031317
000120 d5 c9 df 3b a6 86 1f bb 8f a8 89 bb 85 81 99 ba
       0.00682948 -0.0024341731 -0.004201002 -0.0011711573
000130 85 d1 6c 3c cc e5 bf bb 23 c5 18 bb 6b 21 04 bc
       0.01445425 -0.0058562513 -0.0023310862 -0.008064608
000140 76 d9 b3 bb 19 87 85 3c db 0f 0f bb 82 ee d4 bb
       -0.00548857 0.016299771 -0.002182952 -0.006498159
000150 d5 25 8f 3c 77 fb 36 3c 89 6f 6a 3c 5e a7 38 3c
       0.017474094 0.011168352 0.014308819 0.011270372
000160 7f 62 0c ba cc 51 07 bc 88 9e da bb 45 50 37 bb
       -0.0005355253 -0.008259248 -0.0066717304 -0.0027971428
000170 6c 36 d4 bb e0 27 6d 3c 5e 7d 2d 3c d3 83 85 3c
       -0.006476214 0.014474839 0.010588972 0.01629821
000180 b9 d4 71 bb d0 25 13 3c b7 9e 87 bb 57 69 5b 3c
       -0.0036900474 0.008981183 -0.0041387933 0.013391814
000190 45 2c 15 3c 00 5c 0d 3b 1c d3 bf 3b f2 77 4d bc
       0.009104793 0.002156973 0.0058540236 -0.012540804
0001a0 8c 69 b5 ba 89 14 64 bb 4d d6 07 bb 2b 8b 06 3c
       -0.001384066 -0.003480228 -0.0020727098 0.008211891
0001b0 42 6e 34 bb 3d 36 8c bb 6f 01 15 bb fe 4d ee bb
       -0.002753154 -0.0042789266 -0.002273645 -0.007272481
0001c0 55 52 29 3c f8 dc 4c 3c 25 31 21 bc 60 71 51 3b
       0.010334571 0.012503855 -0.009838377 0.0031958446
0001d0 55 45 16 bc c9 8c 01 bc 2c a5 93 3b 9a c9 13 bb
       -0.0091718035 -0.007907101 0.004505774 -0.0022550584
0001e0 1f 9c b9 3a 4d 9f ef bb 65 02 54 3b b4 33 86 ba
       0.0014160908 -0.0073126913 0.003235006 -0.0010238797
0001f0 85 8f 6a 3c 76 c7 b0 bb a3 cb 07 bc a5 45 08 3c
       0.014316444 -0.0053948713 -0.008288297 0.008317386

cvae_parameters.enc_00_lin_w f4 [128, 123]
000000 7b 22 3f bc 6d 35 15 bc 1a 9b 2c ba 1c ab 5d bb
       -0.011665936 -0.009106976 -0.0006584391 -0.0033823913
000010 f8 12 3d 3c e7 31 d8 3b 55 aa 73 bb 8e 60 95 bc
       0.011540167 0.0065977457 -0.0037180383 -0.018234517
000020 fb 08 05 3c 4c b7 15 bc c8 10 1d 3c 51 c2 bd 3b
       0.008119817 -0.00913794 0.0095865205 0.0057909866
000030 1c c5 a0 39 af d2 97 3c 9f ef 7b 3c bc ea e3 3a
       0.00030664436 0.018533079 0.015376954 0.0017388682
000040 80 4a e0 bb 4d a8 6c bc b4 0d b8 3b 70 d5 4c 3c
       -0.0068448186 -0.014444423 0.005616868 0.012502059
000050 65 42 07 3c 7b e3 3c bc fb 71 73 bb c6 ad 98 3c
       0.008255576 -0.011528845 -0.0037146795 0.01863755
000060 47 d0 06 3c 70 76 64 bb 63 b1 4f bb 64 d5 8a 3b
       0.008228368 -0.0034860633 -0.0031691424 0.004236864
000070 ec d4 64 3c 8f 96 8b 3c 89 f7 31 3c 70 4c b8 bb
       0.01396678 0.017039565 0.01086224 -0.0056243464
000080 29 a2 b4 bb 0a 61 0c 3b f4 fc 84 bb 3a c4 ce 3b
       -0.005512495 0.0021420144 -0.0040584747 0.006310013
000090 9e 0e 89 3b 35 51 02 3b a3 06 01 3c a3 47 af 3b
       0.0041826507 0.001988483 0.0078751175 0.005349116
0000a0 c7 ab bb 3a 92 6e 4c 3c af 12 9e bb 8b 9d fa b9
       0.0014318161 0.012477534 -0.0048240046 -0.00047801094
0000b0 4d af e7 3b 96 a9 b4 3c 0b 48 2c bc 77 b9 47 bc
       0.007070458 0.022053521 -0.010515223 -0.012190214
0000c0 25 96 22 bb b5 ad ef 3b be 55 78 3c 9a 53 21 39
       -0.0024808731 0.0073144087 0.015157161 0.000153853
0000d0 81 ad 39 3b 9c 92 3b bb 42 1c 20 3c 7f 7b a5 bb
       0.0028332176 -0.0028621322 0.009772362 -0.0050501223
0000e0 78 ff 25 3a 5b 9d e3 3b 8d 04 9a 3c 20 90 09 3d
       0.00063323183 0.0069462485 0.018800998 0.033584714
0000f0 b3 35 6c bc 64 f0 18 bc 15 be bf 3c 2c 9a c3 bb
       -0.0144171 -0.009334657 0.023406068 -0.0059693065
000100 48 79 6d bb 6c 8f 14 3c 20 c4 36 3c 45 58 8a 3c
       -0.003623562 0.009067398 0.011155158 0.016887793
000110 cb b6 38 bc de 57 d6 3c 90 bd 31 bb ef 47 87 3b
       -0.01127405 0.026164945 -0.0027121045 0.004128448
000120 fe 8b 89 bc 78 1b 6e bb a8 24 b6 bb 4c f6 a3 bb
       -0.016790386 -0.003633229 -0.005558569 -0.005003726
000130 42 28 e7 bb e1 aa 0a 3c f9 1a 12 b9 7f 49 1d 3c
       -0.0070543597 0.008463592 -0.00013933693 0.009600042
000140 ee 08 87 ba 4f 67 b7 3b de cf 84 bb 66 34 65 bb
       -0.0010302344 0.005597032 -0.0040531 -0.003497386
000150 ce 4e 3e 3c 88 5f 1c bb 6e 1c 4d 3c dc f3 94 3b
       0.011615468 -0.0023860652 0.012518985 0.004545672
000160 84 ee 6d 3b 64 b9 b6 3c 66 19 86 bc e1 c1 96 3a
       0.0036305496 0.022305198 -0.016369533 0.0011501872
000170 06 5d f4 bb 2d 90 06 bc dc e4 54 3b db e3 06 3c
       -0.0074573783 -0.008213085 0.0032485044 0.008233036
000180 ca e0 7f 3c df 77 3f bc 0e a4 9d 3b d2 eb b1 3b
       0.015617559 -0.011686294 0.0048108166 0.0054297233
000190 8e d0 f2 bc af 8d 7c bc f0 97 24 bb e0 41 b9 3b
       -0.029640462 -0.015414639 -0.0025114976 0.005653605
0001a0 ea 67 aa 3b f9 17 52 3b f0 f0 3e 3b c5 bd 35 3b
       0.005200376 0.0032057746 0.002913531 0.002773152
0001b0 91 17 ef 3b 42 9d cc bb aa 41 4b 3c 19 7d ef bb
       0.0072965105 -0.0062443325 0.012405792 -0.007308614
0001c0 08 c7 52 3a a3 a8 d5 bc a9 23 c8 ba df f1 66 3a
       0.0008040522 -0.026081389 -0.0015269417 0.00088098453
0001d0 38 ea 2a 3c 08 2b 96 3b 85 54 fe bb fa 41 4d ba
       0.010431819 0.0045827664 -0.0077615404 -0.00078299607
0001e0 bc 0b cc bb d4 df e9 bb b2 6e 9d 3c 71 ef 0f bb
       -0.006226985 -0.007137278 0.019217823 -0.0021962787
0001f0 16 86 70 3b d0 96 87 3c b0 b4 2a 3c c1 88 ae 3c
       0.0036701015 0.016551405 0.010419056 0.021305444
000200 7b 0c df bb ef 7e 67 bb 40 4c 5a bb c4 27 f4 3b
       -0.0068069077 -0.003532346 -0.0033309609 0.0074510295
000210 90 9b 19 3c 89 bf 26 3c 5c 31 ad 3c ae cd 31 bc
       0.009375468 0.0101775015 0.0211417 -0.0108522605
000220 32 cd cc 3b 86 24 d9 b9 bd cf 8d bb 46 e6 22 bc
       0.006250047 -0.00041416677 -0.004327743 -0.009942597
000230 78 55 d5 3a 82 ea ce bb 03 34 2d 3a 22 d3 81 3b
       0.0016276082 -0.0063145766 0.00066071766 0.0039619366
000240 ec 21 38 bb ed c7 b3 3b 17 e6 41 3b 0a 7f 84 3c
       -0.002809639 0.0054864795 0.0029586607 0.016173858
000250 fb d8 56 3b 6d 8a 06 3c 3d 84 b1 3a a3 e8 0b 3b
       0.003278314 0.008211714 0.0013543438 0.002134838
000260 64 bc cc 3b 8d ff 4e bb 27 21 82 bc e2 fe d4 3b
       0.006248044 -0.0031585426 -0.015884949 0.006500111
000270 ac c8 55 bb d6 51 b1 3b 10 aa 2b 3c 04 bf 8d 3b
       -0.003262083 0.005411367 0.010477558 0.0043257494
000280 13 09 6e 3c a2 c0 ac 3a ed 08 ed 3b d0 05 73 3b
       0.014528531 0.0013179968 0.00723373 0.0037082322
000290 4f 8b a3 3c ca 72 37 bb 04 15 28 3c 2f 8c 84 3c
       0.019963888 -0.0027992004 0.010258917 0.016180126
0002a0 0f 29 a4 3b f3 f4 ed 3b e3 d5 fc 3b 44 f9 fc 3b
       0.0050097774 0.0072618662 0.007715927 0.0077201445
0002b0 b4 c5 05 3b 69 30 09 bb 52 33 15 3a cb d8 c7 bb
       0.002041203 -0.0020933396 0.0005691546 -0.006098842
0002c0 12 1c f8 3a 21 2e f1 ba 12 3e e6 bb 99 1f f1 3b
       0.0018929264 -0.0018400588 -0.0070264423 0.007358503
0002d0 e2 52 f5 3b 0b 9e ec 3b 7b e3 69 3c 5b ee 2c 3c
       0.007486687 0.0072209886 0.014275427 0.010554875
0002e0 55 10 e4 bb 6b 04 08 bb 22 00 75 3c 00 f5 d8 3b
       -0.0069599547 -0.0020754586 0.014953645 0.006621003
0002f0 90 22 e0 3b 27 b1 fb bb aa a7 12 bc ad 61 08 bc
       0.0068400577 -0.0076810303 -0.008951107 -0.008324069
000300 cb 8a 82 bb c0 71 48 3c 5e 51 f3 3b ed 16 e3 3b
       -0.0039838306 0.012234151 0.007425471 0.006930223
000310 b6 3d ce 3b a8 3c 4e 3c 4c 51 fd bb 90 11 5f 3c
       0.0062939776 0.012587704 -0.0077306386 0.013615027
000320 f0 92 db bb f1 69 e5 bb 4f 6f 22 3c bb d4 ed 3b
       -0.006700866 -0.0070011546 0.009914233 0.0072580255
000330 3d 46 2e ba a5 b9 04 bc 6c e2 31 ba 93 b6 09 bb
       -0.00066480396 -0.008100902 -0.00067857536 -0.0021013364
000340 9c 99 88 3c d5 8d ca 3b 3a 57 93 3b 6b 90 82 3c
       0.01667481 0.0061814585 0.004496482 0.015938004
000350 3e 48 55 bc 7e f6 78 3c cc 17 62 bb 64 e3 9a bb
       -0.013017712 0.015195487 -0.0034499047 -0.004726814
000360 52 43 07 3c f5 e3 a9 3c 34 9e 3f bb 21 0e 4d 3c
       0.0082557965 0.020738581 -0.0029238584 0.012515576
000370 50 28 d7 3b ec 57 3b 3b 38 21 20 bc 33 e2 94 39
       0.006566085 0.002858634 -0.009773545 0.0002839729
000380 b7 c2 98 ba 81 30 af 3c 58 a1 00 3c 78 bc 8f 3b
       -0.0011654709 0.021385433 0.007850967 0.004386481
000390 b5 33 9d 3b 6f 49 00 3c 58 1b 4e 3b 8c dd ee bb
       0.0047974237 0.007830008 0.0031449404 -0.007289594
0003a0 9b e7 4f 3b 17 d2 56 3a 47 32 08 3b b7 91 5a 3c
       0.003172374 0.0008194758 0.002078192 0.013340405
0003b0 e9 fd 03 ba 71 4d 09 3c 9f de 91 3c 2b a3 62 bc
       -0.0005035089 0.00838028 0.01780635 -0.013832848
0003c0 59 a1 31 bc 12 a1 55 bc 7a 30 83 3a e7 b7 30 bc
       -0.010841691 -0.01303889 0.0010008954 -0.010786033
0003d0 e6 3b 99 3b 40 f5 90 ba e0 5e e5 3b 77 ec 06 ba
       0.00467633 -0.0011059418 0.0069998354 -0.00051469303
0003e0 dd 45 bb 3a 9e ea 32 3c 54 95 35 3c c9 dc 66 bb
       0.0014287789 0.010920195 0.011082966 -0.0035226813
0003f0 59 9d e5 bb 1e 72 38 3b 73 e1 a1 3c 89 53 00 3c
       -0.0070072827 0.002814419 0.019760823 0.007832416

cvae_parameters.enc_01_lin_b f4 [128]
000000 b5 91 7e bb 1f 40 04 3d 65 98 a3 ba 7e 96 62 39
       -0.0038844172 0.032287713 -0.001248133 0.00021609102
000010 00 fe ca 3c f1 02 b5 3c b3 6e 97 3b f6 5e 09 bb
       0.02477932 0.02209613 0.0046213507 -0.0020961142
000020 58 e9 3f 3c b8 59 09 3a 6e 4f e3 bb cf a9 ac 3c
       0.011713348 0.00052395044 -0.006936959 0.021077065
000030 f9 51 c8 ba 93 f8 02 3d 19 f3 c9 3c 84 c6 57 3a
       -0.0015283219 0.03197534 0.02465205 0.000823118
000040 b2 69 df bb e7 f2 a0 bb 03 e4 bc 3c 48 d7 1f 3d
       -0.00681802 -0.0049117687 0.023057943 0.039023668
000050 a1 24 05 ba da 55 d0 3c 4c 86 4c bc ef fe 5c bb
       -0.00050790055 0.025431562 -0.012483191 -0.0033721288
000060 89 39 10 3d c0 d4 c1 3c e3 24 2c 3a 12 49 7c bb
       0.03521112 0.023661017 0.0006566776 -0.0038495702
000070 b4 11 10 3c e6 63 b6 3c cf c2 60 bb e2 38 15 bb
       0.008793283 0.022264432 -0.0034295802 -0.00227695
000080 2e b7 5f bc c0 d5 c9 bb b9 8d 19 bc 79 95 57 bb
       -0.013654513 -0.006159514 -0.009372168 -0.003289549
000090 14 16 66 bb ff 0e da 3c 30 e4 cb 3c 14 83 21 3d
       -0.0035108374 0.026618479 0.024889082 0.039431646
0000a0 3c 28 8a bb ce 32 ea 3c 8f d5 21 3d cc 6e 48 bb
       -0.004216222 0.028588679 0.039510306 -0.0030583618
0000b0 ba d2 26 3b 20 11 d0 3c 6c f3 20 3d b8 6c a0 3c
       0.0025455193 0.02539879 0.039294645 0.019583091
0000c0 49 3e 0c 3d 27 94 fb bb 43 8f 9f ba c9 3d 9a bb
       0.034239087 -0.0076775732 -0.0012173433 -0.0047070724
0000d0 58 1d 02 3d a8 02 0f 3c 82 16 0b 3d 2f c6 fa bb
       0.031766266 0.008728661 0.033957012 -0.00765302
0000e0 54 3b fe 3c 38 f2 89 3c 6b d9 8a 3c b4 23 12 3d
       0.03103415 0.016839132 0.016949376 0.03567858
0000f0 d0 e9 db 3c 0e 71 a5 bb 3a 22 44 bc 13 86 e4 3c
       0.026844889 -0.0050488776 -0.011971051 0.027895963
000100 29 f5 c3 3c 5c 0b 60 bc 5c 71 04 bc 40 4b d1 3c
       0.023920612 -0.013674583 -0.008083668 0.025548577
000110 b2 b2 1c 3d db 22 c1 3c 90 e8 04 3d fd 9b e8 3c
       0.038256355 0.02357619 0.03244835 0.028394694
000120 7d 14 63 bb 75 06 80 bb d0 3b 3f 3b 3a 4e 07 bb
       -0.0034649663 -0.0039070197 0.0029179938 -0.0020645992
000130 81 03 de bb 0e d9 e6 3c 8f 69 85 3b 71 19 ca ba
       -0.00677532 0.028179672 0.0040714215 -0.0015418959
000140 92 c2 bc 3c e0 f8 a6 bb 4b 98 3a b9 cd 3d 27 3d
       0.023041997 -0.005095586 -0.00017795076 0.040830422
000150 27 77 5d bb d3 52 b2 3a f2 31 f0 3c f9 0b 0e 3d
       -0.0033792944 0.0013605006 0.02932069 0.034679387
000160 69 28 11 bb bc 6e e3 3c f8 e5 94 3b 90 8a 49 39
       -0.002214933 0.027762763 0.004544016 0.00019220472
000170 d6 e8 dd bb 89 a6 22 3d 06 36 d1 3a 5c 6f 9e 3c
       -0.006772141 0.0397096 0.0015961535 0.01934021
000180 f4 e9 ac bb 07 09 88 bb b5 e3 ae 3b 30 78 14 3b
       -0.005276913 -0.004151467 0.0053372034 0.0022654645
000190 e3 c6 db bb 34 48 aa 3c 55 ce 8b 3c b3 96 e5 3c
       -0.0067070588 0.020786382 0.01706616 0.02802596
0001a0 7c 85 46 bb 10 b1 07 3d 1e e1 4d 3b 80 6a 91 ba
       -0.0030291965 0.033127844 0.0031414698 -0.0011094362
0001b0 08 43 b4 3b c7 00 15 3d 99 3c 82 bb 98 31 97 3c
       0.005501155 0.036377694 -0.003974509 0.018456265
0001c0 9e 71 b1 3c 26 97 c8 3c 07 e8 46 3d 3e 60 e7 bb
       0.021660622 0.024486136 0.048561122 -0.0070610335
0001d0 f4 d7 a1 3b 9c 5e 53 bb 80 86 db bb 23 32 de bb
       0.0049390737 -0.0032252437 -0.0066993833 -0.006780879
0001e0 5a 4e 30 3d 6c 9f be 3c 93 9a d6 3c d9 ca c8 bb
       0.043043472 0.023269378 0.026196754 -0.006127697
0001f0 f2 3c c3 3c 61 4d fb bb 25 35 ff 3c f1 e0 96 3c
       0.023832772 -0.0076691364 0.031153271 0.018417807

cvae_parameters.enc_01_lin_w f4 [128, 128]
000000 d3 ee 0a bc 4d 8a 1e bb b0 16 ae bb 8a db 36 3c
       -0.008479792 -0.002419132 -0.005312763 0.011160741
000010 4b 7f d3 ba 1d 27 ca 3c 6a 0c 84 bc da 99 95 bc
       -0.0016135959 0.024676854 -0.0161192 -0.018261839
000020 8e e9 cd bb 12 24 04 bb 61 bf 57 3b bb d5 6c 3b
       -0.0062839454 -0.00201631 0.0032920467 0.0036138135
000030 28 3c 43 bc af bd 26 3c 78 dc da bb df 21 e7 ba
       -0.011916198 0.01017706 -0.006679114 -0.0017633996
000040 2e f6 c4 bc d5 d6 48 bb f9 27 28 3b aa 85 9d 3c
       -0.024043169 -0.0030645628 0.0025658591 0.019228775
000050 3a 25 e1 ba 61 d9 3c 3a cb 82 b5 3a 2b 24 f8 bb
       -0.0017177232 0.0007204023 0.0013848183 -0.007572671
000060 e9 8e 2d 3c 87 92 9f 39 61 28 0f 3c b4 f5 63 bc
       0.0105931545 0.00030436015 0.008737654 -0.013913561
000070 9b 27 65 bb 57 cf 52 3c 87 53 24 3b fd 47 97 3b
       -0.0034966234 0.0128668165 0.00250742 0.004616736
000080 a5 8a a9 ba 7c fc 27 bb e3 92 bb 3b 07 8d 8d bb
       -0.0012934996 -0.002563267 0.0057242974 -0.0043197903
000090 ff a2 d8 3a 29 cb 92 bc 78 b1 69 bb 0b cd 88 3c
       0.0016528069 -0.01791914 -0.0035658758 0.016699335
0000a0 17 92 8e bc 91 7d b9 bb a0 4b ab 3b 35 c8 a2 3a
       -0.017403645 -0.0056607206 0.005227521 0.0012419285
0000b0 42 8f 8c ba be 2c 13 bc 98 78 0d 3c 32 06 f9 bb
       -0.0010723846 -0.008982835 0.008634709 -0.0075996155
0000c0 5d 23 5f bc 15 41 8c ba ba 89 6c 3b 90 87 04 3c
       -0.013619271 -0.0010700548 0.0036092834 0.008088961
0000d0 8b b1 15 3a 4c 66 99 39 4d 33 0f bc 47 9f 39 bc
       0.0005710355 0.0002925865 -0.008740258 -0.011329479
0000e0 2d 2f f9 ba 13 40 da bb 7d 76 39 3c 91 8e 4b ba
       -0.0019011252 -0.0066604703 0.011319754 -0.00077650795
0000f0 f7 ad 5d bc 32 11 77 3c 9b 40 b1 3c d5 9c db bb
       -0.013530246 0.015079783 0.021637252 -0.0067020454
000100 ef 21 c1 bb c5 20 ec 3b 2b ed fc 3b 69 bb 11 3c
       -0.005893938 0.007206055 0.0077187023 0.00889478
000110 30 d4 3d 3c fa 73 f0 bb 8b 5c a7 3a 30 58 1e 3c
       0.011586234 -0.0073380442 0.0012768669 0.00966458
000120 18 09 2a 3c 3c c1 a5 3b 23 47 bc ba c7 e9 85 bc
       0.010378145 0.0050584357 -0.0014364462 -0.016346825
000130 79 03 47 3c 24 b1 a7 3c f1 b9 53 bb dc 1e d0 ba
       0.012146824 0.02047021 -0.0032306875 -0.0015878337
000140 73 90 b8 bb 6d 14 34 3b 92 ef 14 bc a8 88 17 bc
       -0.005632454 0.0027477995 -0.009090321 -0.00924889
000150 29 bc c1 bb 5b 9b ad 3b 45 22 50 bc 1c 42 fb 3b
       -0.005912323 0.005298061 -0.012703483 0.007667793
000160 6f 7c 84 bc 08 40 17 bc ba c0 d9 bb 1c 54 29 bb
       -0.016172616 -0.009231575 -0.0066452892 -0.0025837487
000170 3d c9 b6 3a 22 ee 97 bc 65 35 c8 3b 47 6b 48 3b
       0.0013945472 -0.018546168 0.0061098807 0.003058152
000180 97 da e2 bb cd e8 2a 3c 52 58 27 bc d8 92 4f 3c
       -0.0069230306 0.010431481 -0.010213928 0.012669288
000190 01 80 78 bc 7c e9 8f bb 3e 7c e1 3a b7 a9 cb bc
       -0.015167237 -0.004391847 0.0017203165 -0.0248612
0001a0 00 49 b0 bc 6c b8 8f bb 69 9d b9 bb 5c 02 17 bc
       -0.021519184 -0.0043859985 -0.0056645167 -0.009216871
0001b0 de c7 68 bc 8c ab 5c 3c bf 76 01 bc f6 de c6 ba
       -0.014207808 0.013468634 -0.007901846 -0.0015172649
0001c0 61 62 60 bb f2 5c d1 bc f7 bc 90 bb 78 01 b2 3b
       -0.0034238326 -0.025557015 -0.0044170576 0.005432304
0001d0 03 c3 e9 bc 99 51 38 bc 46 92 04 3b e0 24 e8 3a
       -0.028535372 -0.011249923 0.0020228787 0.0017711185
0001e0 84 3d 43 3c 44 7c b5 3b f9 80 9e 3b 4b 01 c1 bb
       0.011916522 0.0055384953 0.004837152 -0.0058900467
0001f0 26 9a a5 bc f3 5f d6 3b 64 b6 ac 3c 30 77 77 bc
       -0.020215105 0.0065421998 0.021083064 -0.0151041
000200 d4 16 f4 bb ce f9 68 3c c3 b7 cb 3c 0e 3e 80 3c
       -0.0074490104 0.014219714 0.024867898 0.01565459
000210 5d 59 a4 3b 1d 29 06 3c 53 a5 6e 3c e5 e4 83 bb
       0.0050155357 0.008188513 0.014565784 -0.004025089
000220 c1 cf b3 bb 82 6b f5 3b 75 93 96 bb 62 86 f4 3b
       -0.0054874127 0.0074896226 -0.004595215 0.0074623087
000230 0b d4 d9 bb 78 a9 a8 3c 23 92 6c 3a 6e f4 69 3c
       -0.006647592 0.020588621 0.00090244616 0.014279468
000240 1c b0 19 bb d9 19 14 bb b4 84 bc 3a 74 36 f2 bb
       -0.0023450917 -0.0022598414 0.001438281 -0.007391745
000250 5b c8 90 3b 0b e1 84 3b 16 b0 10 3c 8d 91 5f bc
       0.0044184155 0.0040551475 0.008831045 -0.013645542
000260 c1 1c c4 3b cb c3 24 3c 9d e4 8b 3a 47 8e fd ba
       0.005984873 0.010056446 0.001067299 -0.001934477
000270 ac c1 a9 3b 29 83 1a 3b 1d 8a ea 38 f2 6d ab 3b
       0.005180558 0.0023576713 0.00011183715 0.0052316124
000280 b4 6e 61 b9 bd 06 6b 3a 22 d9 6f 3b cc ef 52 bb
       -0.00021498912 0.00089655427 0.0036597927 -0.0032186387
000290 b5 80 0d 3c b2 68 e1 bb cf dc 73 3c 19 d7 13 3c
       0.008636643 -0.0068789357 0.014884188 0.009023451
0002a0 3f 2a 5f 3c 36 b1 d3 bb d0 56 1e bb b1 0b a1 3b
       0.013620912 -0.006460334 -0.002416063 0.004914724
0002b0 d8 4a 3b 3c b8 25 03 3c 3a 10 b0 bb 0b 15 c4 bb
       0.011431418 0.008004598 -0.005373028 -0.005983954
0002c0 c1 e1 a7 bb 02 e9 19 bc 1b 5c 93 3c a8 42 35 3c
       -0.0051233475 -0.009393932 0.017988255 0.011063255
0002d0 d3 9f f7 3b a8 cf 2a 3c fc fa 06 bc 27 fe 89 ba
       0.0075568943 0.010425486 -0.00823855 -0.0010528014
0002e0 51 44 b9 bb 9f 0a 05 bc bb 2c 6f 3b 2f 53 80 3b
       -0.005653896 -0.008120208 0.0036495167 0.0039161663
0002f0 40 c8 f3 3b 72 ec 84 3c 4b 24 93 3b 5c 1e 37 bc
       0.007439643 0.016226027 0.0044904104 -0.011176672
000300 b8 02 12 3c 25 94 c8 bb c8 07 39 3c 6f 56 04 3c
       0.008911781 -0.006121176 0.011293359 0.008077248
000310 1d e0 74 3b 46 96 96 bb 6c 20 97 bc 0d 68 58 3b
       0.0037365027 -0.0045955507 -0.018448077 0.0033021003
000320 b4 50 26 3c af f1 44 3c 55 35 d4 bb c1 a5 1e bc
       0.010151077 0.0120205125 -0.0064760842 -0.0096830735
000330 d7 e0 d7 3b 84 b2 2b bc 2b c2 c1 3b b5 d6 87 bb
       0.0065880823 -0.010479573 0.005913039 -0.004145468
000340 d0 c4 2a 3c 87 a1 23 3b cf 4c ff ba 2b 0b 17 3c
       0.0104229 0.0024968104 -0.0019477847 0.009218971
000350 5e df 26 3b 69 0a 11 bc 8f 98 d8 bb 68 16 e5 3b
       0.0025462727 -0.00885258 -0.0066099833 0.0069911964
000360 ad 2a ac bb 8b f5 5b bb eb 21 dc 3c da d7 4d 3b
       -0.005254111 -0.0033563103 0.026871642 0.0031409175
000370 b7 7a 3f bc 55 c3 c9 3b 54 64 be 3b 61 bc 84 ba
       -0.011686972 0.0061573186 0.0058103 -0.0010126942
000380 09 e9 9f 3b 13 82 0e ba e4 38 19 bb cc a7 ff 39
       0.004880075 -0.00054362527 -0.0023379857 0.0004876241
000390 52 94 5b 3c 39 30 95 3b ec d5 5e bc f8 51 82 3b
       0.013402062 0.0045528677 -0.013600808 0.0039770566
0003a0 af f6 2d b9 b7 f8 33 3c 0e 1e 84 3b 63 77 3c b9
       -0.00016590462 0.010984591 0.004031903 -0.00017973552
0003b0 a8 ed 62 38 33 4d a0 3b e1 ff 4a 3c 14 62 79 bb
       5.4103934e-05 0.0048920154 0.012390108 -0.0038052844
0003c0 0c 5b 3a 3c 54 61 e8 bb 98 c4 67 3b 6b 35 0e bb
       0.011374246 -0.0070916805 0.0035364982 -0.002169932
0003d0 04 e1 9f 3c b0 c3 c9 39 5c 7b d4 ba 23 a8 33 bc
       0.019516475 0.00038483506 -0.001621108 -0.01096538
0003e0 e8 39 db b9 65 7a 30 3b 73 b7 3b 3c 95 67 cc b9
       -0.0004181408 0.0026928422 0.011457312 -0.00038987087
0003f0 97 b5 8a 3a 95 ff 4c 3b 03 92 3c 3c 1a e0 ab 3b
       0.0010582682 0.0031280268 0.011509421 0.005245221

cvae_parameters.out_lin_b f4 [120]
000000 52 9c bb bd 03 67 4e be 51 b6 44 be cd dd f0 bd
       -0.09160675 -0.20156483 -0.19210173 -0.11761055
000010 ba c4 5f be 69 55 e2 bd 53 44 18 be b9 67 03 be
       -0.21852389 -0.11051447 -0.14869814 -0.12832536
000020 e2 1e 52 be 4b d3 6e be 44 28 03 be 35 ef 81 3b
       -0.20519593 -0.2332279 -0.12808329 0.0039652833
000030 86 de 1e be ca f1 b2 bd 12 e1 6c be e9 64 66 be
       -0.15514573 -0.08737524 -0.23132733 -0.22499432
000040 ef cf 95 bd cf d3 4f bd 8b e9 3d bd 4e c0 fa bd
       -0.07315051 -0.050739106 -0.046365302 -0.122437105
000050 15 89 63 be dd 8a 32 be 7d 70 48 be d4 26 f3 bd
       -0.22220261 -0.17435785 -0.19574161 -0.1187264
000060 05 ba ee bd 24 98 5e be 3f 3d 97 be ac e3 28 be
       -0.11656574 -0.21737725 -0.29538915 -0.164931
000070 d5 e0 f8 bd 85 06 45 be 11 4f 9c be d3 51 40 be
       -0.12152258 -0.19240768 -0.30529073 -0.18781213
000080 58 d7 9a be 8a a8 4a be 20 a4 7c 3d 4d 08 94 be
       -0.3024242 -0.19790855 0.06167996 -0.28912583
000090 15 be 9a be e9 14 47 be 7d b5 9c be 2d 12 33 be
       -0.30223146 -0.1944157 -0.30607215 -0.17487402
0000a0 f7 2e 04 3e dd 53 5e be e3 5e 87 be 37 77 78 be
       0.1290854 -0.21711679 -0.2643958 -0.24264227
0000b0 3b 23 88 be f3 7b 86 bc 01 db 3a 3c 67 79 32 be
       -0.2658938 -0.016416525 0.011404754 -0.17429124
0000c0 9e e4 56 be 28 33 a9 be a3 15 3f be a1 6f 35 bd
       -0.20985648 -0.33046842 -0.18660598 -0.04429591
0000d0 22 55 0e be da 9a 74 be 3a 7e c0 3d 48 30 9b be
       -0.13899663 -0.23887196 0.09399076 -0.30310273
0000e0 f3 10 8e be b4 69 ed 3c fd fe a2 be ec e3 7d be
       -0.27747306 0.028981067 -0.31835166 -0.24793977
0000f0 95 56 7a 3e 32 d9 aa be 93 31 9a be b9 a8 c5 bc
       0.24447091 -0.33368832 -0.30115947 -0.024128305
000100 d7 91 d1 be 28 f6 77 be 27 fa c6 3d 27 8e 82 be
       -0.4093158 -0.24214995 0.097156815 -0.2549908
000110 d2 46 5b be 7f 1a 17 be 43 f6 6b be 5d 40 12 be
       -0.21413735 -0.14756201 -0.2304316 -0.14282365
000120 de dd 8e bd 0f 70 22 be 90 c7 16 be db 30 d7 bd
       -0.069759116 -0.1586306 -0.14724565 -0.10507365
000130 68 66 0f bd 39 ad 09 bd 0d 21 9a 3b 64 d5 34 be
       -0.03500977 -0.033612464 0.004703647 -0.17659527
000140 08 40 c3 bd 9d ee d4 bc 90 93 a6 bd 01 26 db bd
       -0.09533697 -0.025992686 -0.08133614 -0.10700608
000150 74 4b c4 3a c6 11 fe bd 71 22 cd bd 3c 5b 35 3d
       0.00149761 -0.12405734 -0.10016335 0.04427646
000160 aa d9 2b be ae 0a 0c be 76 f8 2e 3c e2 73 54 be
       -0.16782251 -0.13675949 0.010679355 -0.20747331
000170 80 f5 14 be 14 b2 71 bd 0c c3 52 be fb 46 2c be
       -0.14546776 -0.05900772 -0.20582217 -0.16823952
000180 c7 77 79 3d fc eb 9e be 03 88 1f be 02 51 10 be
       0.060905244 -0.31039417 -0.15579228 -0.14093402
000190 eb de 82 be 81 78 58 be cb af 4f 3d dd 87 21 be
       -0.25560698 -0.21139719 0.05070476 -0.15774484
0001a0 2f 87 c7 bd 5c cd 3e be 47 b6 e7 bd 38 44 b4 bd
       -0.09742581 -0.18633026 -0.113140635 -0.08802074
0001b0 32 a8 b8 bd fc 7b 58 bd 2b 37 43 be 3d f7 83 bd
       -0.09016456 -0.052852616 -0.19064014 -0.06443641
0001c0 02 39 c6 bd 50 33 a1 bd 11 0f b0 bd 6b c2 26 be
       -0.09678842 -0.07871115 -0.08596624 -0.16285102
0001d0 b4 fe 14 be fd 50 96 bd 24 99 4e be b8 0d bd bd
       -0.14550287 -0.07339666 -0.20175606 -0.09231132
