dlpg/21/weights/dlpg_model_weights_200.pth (torch, 313083 bytes, 14 tensors)

cvae_parameters.dec_00_lin_b f4 [128]
000000 d4 51 1b 3e 9c 62 6f bd cf 80 6c bd d1 e9 55 3d
       0.15167934 -0.05844365 -0.05774003 0.052224938
000010 7a 34 0c 3e d5 01 ae bd 1d 73 3a bd 7a 8e 87 bd
       0.13691893 -0.08496443 -0.045519937 -0.06618972
000020 f6 33 86 bd f2 64 1a 3e 0d 5c 82 bd d6 5e 64 bd
       -0.065528795 0.1507757 -0.063652135 -0.055754505
000030 9d 9e 4a bd e0 4d 6b bd b1 a9 3c bd fa 41 98 bc
       -0.04946767 -0.057447314 -0.046060268 -0.018586148
000040 73 c7 6b bd 71 27 61 3e 55 21 45 bd d9 76 8d bd
       -0.057563256 0.21987702 -0.04812749 -0.06907434
000050 6b 0d 7d bd 10 32 1e bd 43 c1 79 3e 31 95 59 bd
       -0.061780374 -0.038621962 0.2439013 -0.053120796
000060 c7 23 79 bd c5 e0 7b bd 73 83 56 bd 09 84 83 bd
       -0.060825136 -0.061493654 -0.052371453 -0.06421668
000070 8b 74 a1 bd f1 d3 5b bd 36 6e 88 bd 0b dd 7d bd
       -0.07883557 -0.05366892 -0.06661646 -0.06197838
000080 18 01 39 bd 47 5d 40 bd 3c dc 94 bd 23 2d 99 bd
       -0.04516706 -0.046963956 -0.07268569 -0.07479312
000090 13 8f 96 bd 96 47 aa 3d c8 68 54 bd e7 82 a5 bd
       -0.07351508 0.08314435 -0.05185774 -0.08081608
0000a0 92 c5 61 bd c2 df 84 bd a6 b7 96 bd 00 21 19 bc
       -0.05512006 -0.06487991 -0.07359247 -0.009346247
0000b0 4a 4b dd bc 8a fe 02 3d 88 47 59 bd 6f 1a 7a bd
       -0.02701344 0.03198103 -0.053046733 -0.061060365
0000c0 4a 52 35 bd 5e e7 3c bd bc b3 8a bd 8b 9a 59 bd
       -0.04426793 -0.046119086 -0.06772563 -0.0531259
0000d0 94 34 9e bd 2c de 99 bd 92 c3 8b bd 71 a0 80 bd
       -0.07724872 -0.07513079 -0.068244115 -0.06280602
0000e0 d5 c2 7c bd 65 b1 6a bd d9 16 56 bd 1f 79 86 bd
       -0.061709244 -0.057298083 -0.052267883 -0.06566071
0000f0 49 22 38 bd 5d f4 64 bd f6 4c a6 bd 19 d2 93 bd
       -0.044954572 -0.055897105 -0.08120148 -0.07217807
000100 74 08 9c bd ac ee 31 bd f4 7c a1 bd 8e b8 86 bd
       -0.076188 -0.043440506 -0.07885161 -0.0657817
000110 5d 49 29 3e ce 1e 9e bd c9 12 26 3e e3 1f 78 bd
       0.16531892 -0.07720719 0.16218103 -0.060577285
000120 54 d7 87 bd 82 25 12 bc b2 ae 94 bd bf ab 92 bd
       -0.066328675 -0.008920075 -0.07259883 -0.07161664
000130 9c 48 73 bd 56 a1 6e bd e2 e1 ff bc 32 42 93 bc
       -0.059395418 -0.05825933 -0.031235639 -0.0179759
000140 d6 48 74 bd ff 83 80 bd 0f c5 48 bd c1 b2 59 bd
       -0.059639774 -0.06275176 -0.049016055 -0.05314899
000150 07 e0 7b bd 48 a2 50 bd 50 ce ad 3d 9a 90 9a bd
       -0.061492946 -0.050936013 0.084866166 -0.07547112
000160 6c 32 8e bd f8 f9 1f bd f9 f0 a7 bd 06 5a 91 bd
       -0.06943211 -0.03905675 -0.08200259 -0.07097249
000170 09 78 1e bd 0e e5 20 3e 70 43 38 bd 4e 3f 88 bd
       -0.038688693 0.15712377 -0.04498619 -0.066526994
000180 f5 f0 e1 3d 08 e5 88 bd ba 2d 40 bd 08 21 6f bd
       0.11032287 -0.06684309 -0.04691861 -0.05838111
000190 61 5b 54 bd 1d c0 97 bd 17 13 6f bc 47 41 80 bd
       -0.05184496 -0.074096896 -0.014591954 -0.06262451
0001a0 a4 f0 65 bd 35 7a a0 bd a2 c0 a0 bc 71 79 15 3e
       -0.056137696 -0.07835809 -0.019623104 0.14597107
0001b0 84 5c 6a bd 24 e2 11 bd 7c ad 6f bd 82 e9 86 bd
       -0.057217136 -0.035616055 -0.058515057 -0.06587507
0001c0 e8 24 79 bd fc ff 38 bd 69 2e d9 bc 27 ee e2 3c
       -0.060826212 -0.045166 -0.026511388 0.02770145
0001d0 a8 17 41 bd 64 2a 81 bd c5 c4 b5 bc 44 b7 b3 bd
       -0.0471417 -0.063069135 -0.022188554 -0.087751895
0001e0 7a cc 13 3d a9 f7 67 bd 47 e3 eb bc 4a b2 52 bd
       0.036083676 -0.05663267 -0.028794898 -0.05143956
0001f0 21 15 7f bd 7e 46 86 bd ae bd 67 bd c8 1d 6c bd
       -0.06227601 -0.06556414 -0.056577377 -0.05764559

cvae_parameters.dec_00_lin_w f4 [128, 35]
000000 be c5 88 3c e2 18 11 3b 3b f4 5d 3c c3 49 8d bc
       0.016695853 0.0022140075 0.013546999 -0.017247086
000010 ce 8d 20 bd bb 07 17 3d 0f 72 b0 3c 3a bb 4e bd
       -0.039197735 0.036872607 0.021538762 -0.050471522
000020 7f ce 26 bc a9 a7 57 ba b6 9c 60 bb ee db 3f 3d
       -0.010181068 -0.00082265824 -0.0034273094 0.0468406
000030 b6 83 3f bd 51 cd ff bb be 27 37 3a a1 ac ad bc
       -0.04675647 -0.007806458 0.0006986818 -0.02120048
000040 dd 6f 64 3c af 1d ae bc f8 16 6b bc ee 05 3b bb
       0.013942686 -0.021254389 -0.014348738 -0.002853747
000050 74 13 13 bd 1d d9 05 3c 24 8e e9 3c 55 d1 75 3c
       -0.035907224 0.00816944 0.02851016 0.015003522
000060 58 11 1f bd 90 47 b6 3b 7c 2a 8f 3c 2a b4 45 bc
       -0.0388349 0.00556273 0.017476313 -0.01206688
000070 9c 4f e6 3c 0a ce 21 3c c4 32 12 bc 32 60 54 3d
       0.028114133 0.009875784 -0.008923236 0.05184955
000080 76 ad 1e 3b d9 a9 27 3e 32 64 7e 3b 34 ca ba bb
       0.0024212277 0.16373385 0.0038817045 -0.005700374
000090 1c 17 19 3c 6a 28 4b bc b2 10 fd 3b cb b9 1f ba
       0.009343889 -0.012399772 0.0077229375 -0.0006093054
0000a0 f3 7d 11 3c 8a fb 3d 3b 8b 8a 26 bb 34 fa aa 3c
       0.008880126 0.002898904 -0.0025412168 0.02087126
0000b0 eb 27 31 bc 29 af 67 3c e1 d3 33 3c 51 17 ec 3b
       -0.01081274 0.0141408825 0.010975809 0.007204928
0000c0 f5 97 cd bb 05 5b 2c bb 4d 49 b1 3c 58 24 2a ba
       -0.006274218 -0.002629937 0.021641398 -0.0006490401
0000d0 74 4c 59 3c fb 82 0a 37 f6 68 65 3c 41 be 94 bc
       0.013262857 8.255937e-06 0.014002075 -0.018157126
0000e0 df 81 e6 ba 77 16 96 bc 04 1f 94 3c 6c 70 1a 3b
       -0.0017586312 -0.018321259 0.018081196 0.0023565544
0000f0 b3 0d d4 38 32 d5 d2 bb f9 eb 24 3b bb 2a 77 3c
       0.000101114994 -0.0064341063 0.0025165065 0.015085871
000100 fc f0 4b bc 01 c2 29 3c c5 cc 63 bb ae 6e 72 3c
       -0.012447592 0.010361196 -0.0034759503 0.014796896
000110 56 31 70 bd 22 62 ae bb e2 59 3c bc 53 4e 8a bb
       -0.0586408 -0.005321757 -0.011496039 -0.0042207628
000120 ac 2f 06 bc e1 12 41 bc 02 2d 68 3c 92 93 bb bb
       -0.008190077 -0.011784286 0.014170887 -0.005724379
000130 da f4 49 bc 11 28 a1 bc 18 ee 0b 3c 7f b2 2d 3b
       -0.012326444 -0.019672425 0.008540653 0.0026504097
000140 17 b4 e3 3a 26 f3 d2 bb fd 30 c7 bb e7 99 47 3c
       0.0017372397 -0.006437677 -0.006078838 0.012182689
000150 c1 92 02 3b 11 9a c2 3b 39 44 9b bb 4f 25 ae bc
       0.0019923898 0.0059387763 -0.0047383574 -0.021258024
000160 e6 d2 f5 bb e3 7e c8 bb 23 3d 95 3c 86 31 86 bb
       -0.0075019477 -0.0061186417 0.018217629 -0.004095259
000170 51 5e ac 3b 61 97 18 3c ca f7 20 3c 31 c6 1c bc
       0.005260267 0.009313435 0.0098247025 -0.009568737
000180 bf 4c 6d bc ba 6e dd 3b 23 b7 85 bc 17 e9 fc bb
       -0.01448363 0.0067575844 -0.016322678 -0.007718216
000190 27 2f b2 3c 2f f1 ef ba 34 c5 d7 3c 76 c8 37 bd
       0.021751 -0.0018306131 0.026339151 -0.04486891
0001a0 d4 c2 ab bb cf 54 04 bd 8d 13 25 bd 36 6e 89 bc
       -0.005241731 -0.032307442 -0.04030185 -0.016776185
0001b0 02 57 0c 3c f7 93 a5 bc 96 e7 6d bc 71 ee 2d 3c
       0.008565666 -0.020212157 -0.014520546 0.010615931
0001c0 af e5 a7 bc 8c 45 f0 3b 84 de ce bc 1c 9e 38 bc
       -0.020495264 0.0073325094 -0.025252588 -0.011268165
0001d0 36 77 cf bb da b0 a0 3c 15 8d 26 3d 67 d7 26 3c
       -0.0063313497 0.01961558 0.04066189 0.010183192
0001e0 6f b7 89 3b 57 c5 11 3c c7 22 2a bb 34 57 ed 3b
       0.004202775 0.008897147 -0.002596067 0.0072430614
0001f0 89 a5 e0 bc ac f7 3b 3c 31 3a bc bc ff 54 55 3d
       -0.027422683 0.011472624 -0.022976967 0.05208301
000200 cf 5c 01 b9 3a 5b 16 bd a3 db 0e bc b5 5d 0e bd
       -0.00012336973 -0.036708094 -0.008719358 -0.034757335
000210 c7 74 02 bc 92 0c 3a bc 6e 88 74 bb ad ad 44 3c
       -0.007962412 -0.011355536 -0.0037312764 0.012004298
000220 eb 56 03 bd 7a 13 84 bb 7e 25 61 3d 9b 57 4f bb
       -0.032065313 -0.004030642 0.054967396 -0.003163791
000230 eb 2e c0 bc 02 fa 9b bc 2d ea c7 ba 7a ee a6 bc
       -0.023459872 -0.019040111 -0.0015252285 -0.020377386
000240 2b 2d b2 bc 2c 0e 78 bc 48 38 f5 bc 77 7e 2b 3d
       -0.021750053 -0.015140098 -0.029934064 0.041868653
000250 4e b4 86 bc c1 f7 f4 3c a2 e9 dd 3c f1 1a 5b bd
       -0.016443398 0.029903295 0.027088944 -0.05349249
000260 b8 9c e4 ba 37 71 85 3b 12 6b cd bc d0 b3 c5 bc
       -0.0017441725 0.004072334 -0.02507547 -0.024133593
000270 18 7f fc bc 41 6f 34 3d ad a1 8f 3c 07 8f 02 3c
       -0.030822322 0.044051412 0.017533148 0.007968671
000280 9a ee cf 3c 44 a2 31 3a e9 8f 5b 3c 53 71 1c bd
       0.025382329 0.00067761936 0.01340101 -0.038194012
000290 24 34 7d 3d 86 01 5d bd 8d 76 c0 3b 98 1c 6e bd
       0.061817303 -0.05395653 0.0058735074 -0.058132738
0002a0 14 63 a3 b9 38 31 96 bc fc a8 f3 bc 18 bb 8b bc
       -0.00031163602 -0.018334016 -0.029743664 -0.017056987
0002b0 94 4b 92 bb ae b3 0c 3e 44 c6 8e ba 6e 86 e7 3c
       -0.004464576 0.13740417 -0.0010892828 0.028262343
0002c0 5c e0 4f 3c e4 cf 6f bc 7e 92 1f bc 0d 69 48 3b
       0.012687769 -0.014636967 -0.009739516 0.0030580193
0002d0 d8 19 21 3c fa c4 ea bb fb e0 bc bb 38 9e 9b 3c
       0.009832822 -0.0071645947 -0.0057641244 0.018996343
0002e0 bd 31 e7 3a 49 93 7d 3b ff ef cc 3b 4c c9 10 bd
       0.0017638725 0.0038692525 0.0062541957 -0.03534822
0002f0 05 7e bd 3c c9 58 10 bc da ab 85 3c 94 7a 00 3c
       0.02313138 -0.0088102305 0.016317297 0.007841725
000300 0b 6a 68 bc f1 73 2d 3a de 83 11 bc 8a 6c 11 3d
       -0.014185439 0.0006616703 -0.008881537 0.0355039
000310 e3 6c b9 bc 37 f4 5d bc dd f1 f8 bc 20 68 74 3d
       -0.022634929 -0.013546995 -0.030388767 0.059669614
000320 f9 75 96 bc 35 06 6b bc ad 7c ad 3c 13 0f 74 3b
       -0.0183668 -0.014344742 0.021177614 0.003724043
000330 96 95 b7 3c cf 64 bf bb 81 61 a1 bc 80 43 26 bc
       0.022410195 -0.0058408747 -0.019699814 -0.010147929
000340 7b 04 8c bd 0b 99 25 3c 48 72 92 3c 72 2d 8d bc
       -0.06836792 0.010107289 0.01787676 -0.017233584
000350 b5 48 49 bc 09 da d1 bc ab a6 4a bc 4d 80 10 ba
       -0.012285401 -0.025616663 -0.012368838 -0.00055122824
000360 c8 92 bc bb 76 b2 31 3d ad 72 98 3c af 19 84 bc
       -0.0057548024 0.043383084 0.01860937 -0.016125528
000370 a2 2f 93 ba ad c7 75 3c 19 64 b4 3a d7 18 ef 3b
       -0.0011229406 0.01500122 0.0013762742 0.0072966623
000380 e0 b0 32 bc 95 90 93 bc 54 70 93 bb ef 28 ab bc
       -0.010906428 -0.018013278 -0.0044994745 -0.020893542
000390 61 b8 96 3c 37 cb f0 3b 92 d1 fd bc 0d 13 40 3d
       0.018398466 0.007348444 -0.03098372 0.04689317
0003a0 bd 98 76 bb e1 06 18 3d 4a fd 0e 3d 28 f4 53 3b
       -0.003762766 0.037115935 0.034909524 0.0032341573
0003b0 e9 e0 34 bd 26 d2 52 bc 1d 23 cb bb b9 27 ae 3c
       -0.044159804 -0.012867486 -0.006199254 0.021259176
0003c0 69 a0 ca 3c 05 04 00 3d 6a 95 56 3b 62 02 62 bd
       0.024734693 0.031253833 0.0032742866 -0.055178054
0003d0 0e f8 01 bc 29 0c 20 bc 2b 6b 02 3c e9 b8 8b bb
       -0.007932676 -0.009768524 0.007960121 -0.0042639864
0003e0 5d 77 80 3b 19 f5 01 bc 43 8b 77 bb b2 f8 f7 bb
       0.003920479 -0.007931971 -0.0037772215 -0.0075674886
0003f0 2a 7f a8 bc 27 92 00 3c 23 1a c9 3b 06 19 31 bb
       -0.020568449 0.007847345 0.006137149 -0.0027022972

cvae_parameters.dec_01_lin_b f4 [128]
000000 da a6 ce 3c 70 76 49 3e 3d f4 07 bc 20 12 83 bc
       0.025226045 0.19674087 -0.008297977 -0.015999854
000010 f2 b5 0f 3d e7 22 dc 3a 1e c0 a1 bb b0 2a 39 3d
       0.035085626 0.001679507 -0.004936232 0.045206726
000020 47 29 0e 3d 30 05 77 3c 61 6b 42 bb 35 bb 02 3d
       0.034707334 0.01507692 -0.0029666054 0.031916816
000030 38 88 31 bc bd 44 a5 3d d4 3d 74 3d e3 0a c3 bc
       -0.0108357 0.080697514 0.059629276 -0.023808902
000040 85 71 02 3d 8f 25 9a bc 6c 34 36 3e 51 0c 3f bc
       0.031846542 -0.018816737 0.17793435 -0.011660651
000050 d6 1e 84 3d 0e 87 53 3e 77 30 b5 3c 71 56 5a 3a
       0.06451194 0.20656988 0.022117836 0.0008328921
000060 15 e5 2b 3c e5 51 5e ba 34 b2 5a bb e1 58 48 3e
       0.010491629 -0.0008480831 -0.0033370377 0.19565155
000070 83 f1 10 3d e8 f4 b4 3c 03 e8 8c bb 8a 23 d7 3c
       0.035386574 0.022089437 -0.004300119 0.026262064
000080 b0 89 81 ba 18 25 09 3d f8 5e b6 3d 14 7a c6 3b
       -0.0009882953 0.03348264 0.089048326 0.0060570333
000090 8c 7a 21 3d 8f 85 cf 3c a9 1e 99 3c 98 3d 0b 3d
       0.03942351 0.02533224 0.018691378 0.033994287
0000a0 b2 56 28 3d e6 42 04 bb 3c 35 00 bb f5 0d 5b 3c
       0.041098304 -0.0020181476 -0.001956298 0.013370027
0000b0 da 66 c1 3c 50 e9 a1 3d 75 00 37 bb 6b 49 15 bc
       0.023608614 0.07905829 -0.0027923856 -0.0091117425
0000c0 57 f4 3f bc df 55 05 3d de 9e 51 3d ff f9 8b 3d
       -0.01171597 0.032552596 0.0511769 0.06834792
0000d0 ed 48 95 bb e6 bd 84 bc a4 7d 2f bc d3 5a 2d 3e
       -0.0045558126 -0.016203832 -0.010711107 0.16929178
0000e0 8b be 0c 3d 4c 65 8f 3d 3c 74 ab 3c 29 70 84 3d
       0.034361403 0.07001743 0.020929448 0.06466705
0000f0 68 b0 23 3d 65 c6 4b 3c 92 0d 4f bc 79 53 86 3a
       0.039963156 0.012437438 -0.012637513 0.0010248265
000100 45 57 8d bb 5f 0d ea bb 9d 1a 94 3a 6b cf 22 3c
       -0.004313382 -0.0071427072 0.0011299435 0.009937148
000110 7a c7 15 3d f5 c4 e8 ba 48 36 81 bc 96 14 2b 3d
       0.03656719 -0.0017758893 -0.015772954 0.04176768
000120 77 72 1f 3d 23 12 7c ba 2d a9 57 3d af 08 8f 3b
       0.03892752 -0.00096157397 0.052651573 0.004365049
000130 57 43 8f bc 98 22 06 bc c5 27 6f 3e 63 2b 92 3c
       -0.017488165 -0.008186959 0.23355015 0.017842954
000140 88 df 19 3c 8f 65 e2 3c a2 72 a4 bc 81 13 0a 3d
       0.009391673 0.027636318 -0.020074192 0.033710007
000150 71 c4 86 3e 27 d5 3d bc 55 d2 17 3b 59 82 9b bb
       0.26321748 -0.011586464 0.002316614 -0.0047457633
000160 6c c0 fd 3c d9 b0 36 3c 0a a3 c3 3d b6 24 d4 3c
       0.030975543 0.011150562 0.095525816 0.025896411
000170 27 76 b3 3e e4 97 6d bc a3 dd cc 3c 42 f1 50 bc
       0.3505108 -0.014501546 0.025008028 -0.012752833
000180 3c fb c0 bb 01 22 a9 3c fc dc 76 3d b9 ab 4a 3d
       -0.0058893245 0.020646097 0.06026934 0.049480174
000190 eb 73 ce bc 27 01 b5 3c a4 02 a9 ba 2b ae 26 bc
       -0.025201758 0.022095276 -0.0012894464 -0.010173361
0001a0 3a 91 ac ba e5 32 c5 3c 06 8a 99 bb d1 34 0a 3d
       -0.001316584 0.02407212 -0.004685643 0.033741776
0001b0 e8 9b 8a 3b 36 ef a3 3c 9f 66 97 bb 54 c4 a5 3c
       0.0042300113 0.020011526 -0.0046203877 0.020235218
0001c0 60 f7 c4 3c 69 16 76 3d 2f 2b 31 bc 6d 4c 2f 3d
       0.024043739 0.060079966 -0.010813518 0.042797495
0001d0 96 4f 00 3a 1a 7c 30 3c 05 72 2e 3e fb 90 30 3e
       0.0004894672 0.010771776 0.17035682 0.17242806
0001e0 d6 6f 9b bb 4d fc de bb 23 2d d4 ba ff 27 6c 3c
       -0.0047435565 -0.006804979 -0.0016187768 0.014413833
0001f0 a9 13 b7 3d c7 9a e5 ba 65 db 96 bc 3b 88 87 bb
       0.08939297 -0.0017517441 -0.018415162 -0.004136113

cvae_parameters.dec_01_lin_w f4 [128, 128]
000000 63 8b c2 bc 26 f3 0f bc 13 14 82 bc ab 10 d3 bc
       -0.023748105 -0.008785998 -0.015878713 -0.025764784
000010 98 6d 92 3a 68 70 69 bc b8 7a 3c 3c 28 9f 05 3c
       0.0011171577 -0.014247991 0.011503868 0.008155622
000020 bc 92 86 bc cc ef 22 3a 05 94 02 bd 4b 7d 5e 3b
       -0.01642739 0.0006215542 -0.031879444 0.0033949192
000030 18 46 66 bb b3 31 13 3c c1 09 b8 3b a8 fd 71 3c
       -0.0035136994 0.008984017 0.005616397 0.014769949
000040 86 b9 fd 38 7e b2 07 bd ec 54 c5 3c f7 04 18 bc
       0.000120985365 -0.033129208 0.024088345 -0.009278527
000050 68 64 a7 bb d4 a3 1e 3c c6 d2 09 bd 30 74 ca bc
       -0.005108405 0.009682614 -0.033648275 -0.024713606
000060 a0 06 e3 bb 87 7c 86 bc d7 26 e2 3b 8e 16 98 bc
       -0.00692828 -0.016416801 0.0069016027 -0.018565442
000070 ff 21 07 bc 33 20 a3 3b dc 63 86 3b f9 15 eb bb
       -0.008247851 0.0049782037 0.0041012596 -0.00717425
000080 db 82 80 bc 5a 44 c2 3c 9b af 75 3a 17 ab 99 bc
       -0.015687397 0.023714233 0.00093721756 -0.01875834
000090 60 d5 fb bb ba ca 41 bd f2 cb b3 3b b1 bc 0b bc
       -0.0076853484 -0.047312476 0.0054869587 -0.008528874
0000a0 21 b2 b9 3c d2 fb 83 bc 59 7c 9a bb e4 50 45 bc
       0.022667946 -0.016111288 -0.0047145304 -0.012043212
0000b0 a4 03 a9 bc 99 41 28 bb 9e dd 31 bc 43 1e d6 bb
       -0.020631619 -0.0025673865 -0.01085606 -0.006534369
0000c0 b5 41 23 3b 53 01 f0 3b ef 0a d4 bb 5e fe 94 3b
       0.002491099 0.0073243766 -0.00647103 0.0045469245
0000d0 d7 60 7a bc 6d fd 2b 3b 90 1b 1a bb b7 bb 48 bc
       -0.0152818775 0.0026243583 -0.0023514964 -0.012251786
0000e0 ad c9 86 bc 03 dc 69 bc 14 6e 5c bc f7 b1 97 3b
       -0.016453588 -0.014273646 -0.013453979 0.0046293694
0000f0 4c 24 16 3c 24 c4 c3 bc 90 b6 4a bc 6e 7b 06 3c
       0.009163927 -0.023897238 -0.012372628 0.008208139
000100 4e 37 de 3b f4 9b 38 3c cf f0 ab 39 83 9a 39 3b
       0.006781495 0.011267651 0.00032795078 0.0028320856
000110 16 6d 22 bd 2d 4d 62 bc 5b 25 dc bc f1 9f 14 bd
       -0.039654814 -0.013812345 -0.026873281 -0.036285345
000120 f7 b5 4a 3c 3d 41 12 3c 1e f3 5e bc 4d c4 27 bc
       0.012372485 0.008926687 -0.013607768 -0.010239673
000130 a5 bc f0 bc 96 76 7d bc ce a2 51 bc aa a1 92 3c
       -0.029386828 -0.015470168 -0.012795163 0.017899353
000140 59 a4 45 bc e7 83 c7 bc 0b cf 4f bd 13 b7 00 bb
       -0.012063109 -0.024354888 -0.05073456 -0.001964037
000150 7f da d3 bc 69 57 9f 3c 3a a9 04 bd 22 0d 38 bc
       -0.025861023 0.01945086 -0.03238795 -0.0112336
000160 74 2f dd bb 6e 6f 9f ba 18 1a 4c 3c 44 97 46 ba
       -0.0067500416 -0.0012163946 0.012457393 -0.0007575641
000170 50 aa 44 bc c3 55 f0 bc fb 72 f5 bc 4a b9 af bc
       -0.012003496 -0.02933777 -0.029962054 -0.021450657
000180 92 cc 8d 39 50 29 55 3a d3 86 5f 3b d0 f3 c6 bb
       0.00027046032 0.0008131461 0.003410746 -0.006071545
000190 7d af e4 bb 13 ad 9d 3c 57 ce 15 bd 40 b8 3a bc
       -0.0069789276 0.019247567 -0.036573734 -0.011396468
0001a0 3b 7b 19 3b 92 c4 40 bb 68 59 b0 3c eb 38 55 bd
       0.0023419398 -0.002941404 0.021527007 -0.052056234
0001b0 41 d1 72 bc 92 72 1e bc 2d ff 26 bc 23 1b 5a 3b
       -0.014820398 -0.00967087 -0.010192675 0.0033280335
0001c0 7f fe b3 bb 5d dc cc ba 3c e0 5b bc 8e 8b 28 bd
       -0.005492985 -0.0015629638 -0.013420161 -0.041148715
0001d0 15 da ae 3b f3 f2 0f 3c 1f f6 42 bc e9 7a 99 bc
       0.005336056 0.008785951 -0.0118995 -0.018735366
0001e0 56 f7 30 bc f5 da 2e ba 04 f7 cd bc e2 22 3d bc
       -0.010801157 -0.00066702004 -0.0251422 -0.011543961
0001f0 bd fe 32 3b 88 8c 66 bc 8b 08 e6 3b a3 1c 3b bc
       0.002731248 -0.014071591 0.0070200614 -0.011420402
000200 2a 6a 2c 3d 1c fe fb bb 83 2e 7f bb 62 d5 b0 3c
       0.042093433 -0.0076902043 -0.0038937635 0.021586124
000210 6d 9c e7 3c b0 ad 02 3c 1b f8 07 bc b8 3f b9 ba
       0.028272832 0.007975981 -0.008298899 -0.001413337
000220 79 d4 59 3b 5a 02 85 3d ad 85 82 3c cc ae 41 ba
       0.0033238216 0.06494589 0.015932882 -0.00073884125
000230 f3 7e 4d bc d3 c5 95 3b d6 9f 14 bc 38 47 48 3c
       -0.012542474 0.0045707016 -0.009071311 0.012224011
000240 60 d3 51 bc 9a 07 9c 3d 4f 0c 47 bb f5 06 6b bc
       -0.012806743 0.076186374 -0.0030372327 -0.01434492
000250 0c 62 b4 3c 4d 9d 02 bc ae 77 8d 3d db 83 04 bc
       0.022019409 -0.007972074 0.06907593 -0.008088077
000260 6e f9 2f ba e6 f8 2b ba f0 44 81 bc 25 39 40 bb
       -0.0006712888 -0.0006560221 -0.015779942 -0.0029330936
000270 d2 02 43 bb 4d dc 33 3c 23 d7 8c bc 9d 9f b3 bc
       -0.002975632 0.010977817 -0.017192429 -0.021926695
000280 0f 03 e9 3a fa 1e 14 bb b9 99 dd bb cd 57 91 bc
       0.0017777401 -0.0022601471 -0.00676271 -0.017742062
000290 7f e8 c6 bb bb b2 d1 3c fc 06 79 3c 79 a3 36 bc
       -0.006070196 0.02559792 0.015199419 -0.011147373
0002a0 97 ad 93 bc 14 5b 1d bb aa 10 31 3a 51 42 b0 3c
       -0.01802711 -0.0024010586 0.00067544973 0.021515997
0002b0 93 bf 08 3c c4 4b cb 3a 07 e8 94 bc 75 5c ad 3b
       0.008346456 0.0015510251 -0.018177046 0.0052905628
0002c0 5e 02 59 bc 2e 04 91 bb 4d 24 11 3b 27 88 96 bc
       -0.013245193 -0.004425547 0.002214688 -0.01837547
0002d0 ca e6 52 3c 43 3e ce 3b e3 6a 0b bc fb 81 a7 3b
       0.012872407 0.0062940433 -0.0085093705 0.0051119304
0002e0 4c fb 7b bc 3f 1c c8 bb 8e d7 20 3c 19 f4 6c 3c
       -0.015379738 -0.006106883 0.009817017 0.014462494
0002f0 ca 71 ad 3a bd b5 0d 3c 0c 62 02 3c 79 31 73 3c
       0.0013232764 0.008649287 0.0079579465 0.014843338
000300 9d be d6 3b 7b 83 23 bb ad fe 5c 3c 97 34 d7 ba
       0.0065534846 -0.0024950195 0.013488454 -0.0016418871
000310 d6 63 4c 3d 0f e4 16 3b e6 aa 11 3d e0 f2 48 bb
       0.0498999 0.0023024117 0.035563372 -0.0030662343
000320 05 9d 0f bc 8e 26 8a 3c 78 d1 b0 bb 48 4b 31 ba
       -0.008765464 0.016864087 -0.0053960644 -0.0006763232
000330 42 7f d6 3a 1d bc 61 3c 62 28 be 3b b8 1a 89 3c
       0.001636483 0.01377776 0.005803154 0.016736373
000340 61 3f 1e 3b 6e 3c 72 bc 77 07 a4 bb b7 8f 66 bc
       0.0024146663 -0.014784915 -0.0050057727 -0.01407235
000350 09 bb aa bc 0f 21 0b bb 97 b4 06 3d 3a e6 76 ba
       -0.020841138 -0.0021229421 0.032887068 -0.00094184617
000360 11 42 1a 3c cc 50 ce ba 2e 8e 4e 3a 55 93 4a bc
       0.0094151655 -0.0015740632 0.0007879463 -0.012364228
000370 e2 6a 36 3c 53 22 2f 3d 7b dc 48 bc 83 81 9d bc
       0.011133881 0.042757344 -0.012259598 -0.019226795
000380 24 ae ce 3c 79 95 26 bc 17 52 b5 3b 6a 77 01 3c
       0.025229521 -0.010167473 0.0055334675 0.007902006
000390 f1 52 86 ba c1 18 37 bb 2e 34 dd bb bb a7 c8 bc
       -0.0010248107 -0.0027938338 -0.006750605 -0.024494043
0003a0 f4 6c b9 ba 2a ea 32 bc ba 37 95 bc 5a 1e 9f 3c
       -0.001414685 -0.010920087 -0.018215049 0.019423652
0003b0 cd e0 ad 3a 2f c7 7e bc 17 02 21 3c 32 a2 8b 3b
       0.0013265848 -0.015550419 0.009827158 0.0042612785
0003c0 b7 77 f5 3b e5 cb 63 3b 6f bd 4c 3a 24 b8 6b bb
       0.0074910778 0.0034758982 0.000781021 -0.003596791
0003d0 30 0b c6 38 a7 ec ee bb 98 e7 29 3c 7c 78 a0 bc
       9.4434596e-05 -0.0072913948 0.010370158 -0.019588701
0003e0 2d f4 af 3b 28 7f 2f bc 94 ec 1f bc d4 1a e9 bc
       0.005369684 -0.010711469 -0.009760994 -0.028455175
0003f0 de c6 55 bb 05 95 1e bc c5 31 72 bc a7 5e 3a 3b
       -0.0032619755 -0.009679084 -0.014782374 0.0028437765

cvae_parameters.enc_00_lin_b f4 [128]
000000 9f 10 24 bb 1a 5d 1e bc 6a 6b a9 bb 17 2a d6 bb
       -0.002503432 -0.009665752 -0.0051702755 -0.006535779
000010 ba 23 0e bc 57 07 1a 3b 63 9a 6d 3c cc e2 87 bb
       -0.00867551 0.002350291 0.014502141 -0.0041469093
000020 11 a0 76 3c 65 76 7b ba 3c ef 48 3b 6f aa 6f bb
       0.015052811 -0.00095925323 0.0030660173 -0.0036570092
000030 7b 26 cd bb 27 c4 8d 3c 17 ef c7 bb 2a c9 51 bc
       -0.0062606907 0.017305447 -0.0061015 -0.012804309
000040 7d 54 19 3c 48 6a 16 bc c1 4d a2 3a ab 31 bb bb
       0.0093585225 -0.009180613 0.0012382792 -0.005712708
000050 86 a5 1a 3c cb e9 5e 3c 2c 03 4a bb 1a 1d bd 3a
       0.009438878 0.013605545 -0.0030824644 0.0014428229
000060 4d f2 48 3c 90 67 08 bc 13 e1 41 bb 3c 31 10 bc
       0.0122648 -0.0083254725 -0.0029583618 -0.008800801
000070 1e 94 8a bb a6 c5 3b 3c b8 2c 7e 3c d0 ef 09 3c
       -0.0042290827 0.011460697 0.0155135915 0.008418992
000080 e2 39 95 bb b5 97 5a 3c ce 92 80 3c 51 15 1a ba
       -0.0045540193 0.013341834 0.015695002 -0.000587781
000090 8f ac 38 3c e6 70 ae bb ed 2d 8c 3c be 30 e5 bb
       0.01127161 -0.005323517 0.017111743 -0.006994336
0000a0 39 9d bc 3b 7c 9e 20 3c 91 bb 51 bc 08 00 3c 3c
       0.005756047 0.009803411 -0.012801067 0.011474617
0000b0 8d c0 87 bb 91 47 84 3c ee 70 9e bb 98 25 3f bc
       -0.004142827 0.016147407 -0.0048352396 -0.011666678
0000c0 7e c4 2a 3c c6 2d 09 bb e5 cc 1a bc ae 3d e2 bb
       0.010422824 -0.0020931824 -0.009448265 -0.0069043254
0000d0 82 70 b2 3b 70 1e 4d bb a5 11 0c bb 9c 20 cf 39
       0.005445541 -0.003129866 -0.0021372822 0.00039506413
0000e0 9e 7a 28 3c 58 4d 17 3c 97 92 db bb a5 65 4b bb
       0.01028314 0.009234749 -0.0067008245 -0.0031035927
0000f0 1d aa fc ba 98 c5 5a 3c 17 4d ae bb a9 d1 86 bb
       -0.0019276772 0.013352774 -0.0053192484 -0.004114349
000100 cd e1 6b 3c fb 4d 3a 3c ea 49 57 bb 22 ac 2f 3c
       0.014397097 0.011371131 -0.0032850453 0.010722192
000110 b3 dc 9a 3c 55 7b c5 3b 57 c1 4a bc a5 6d 38 3a
       0.018904066 0.006026665 -0.012375197 0.0007035381
000120 fb a3 e1 3b 18 53 1f bb b4 37 89 bb 89 69 98 ba
       0.006886003 -0.0024311002 -0.0041875485 -0.0011628132
000130 9e 0d 6d 3c 5c e5 bf bb 98 4d 17 bb 52 c8 03 bc
       0.014468579 -0.005856199 -0.002308702 -0.008043366
000140 1f 0d b3 bb 23 9c 85 3c 69 8c dd ba e0 c0 d4 bb
       -0.0054642106 0.016309803 -0.0016902807 -0.006492719
000150 db 26 8f 3c 66 0a 37 3c cd 8e 6a 3c 8e b8 38 3c
       0.017474582 0.011171913 0.014316273 0.01127447
000160 b1 02 07 ba f1 40 07 bc 27 8d d9 bb 9b 06 35 bb
       -0.00051502424 -0.008255229 -0.006639141 -0.0027622345
000170 73 16 d4 bb c7 51 6d 3c 28 54 2d 3c ad 98 85 3c
       -0.0064724027 0.014484829 0.010579146 0.016308153
000180 2b b3 6f bb 80 73 13 3c a3 30 87 bb e0 96 5b 3c
       -0.0036575298 0.008999705 -0.004125671 0.013402671
000190 f7 6b 15 3c 3f 1f 11 3b 4b b2 c1 3b e6 1b 4d bc
       0.009119979 0.0022143868 0.0059111468 -0.012518859
0001a0 bd 9c b5 ba b2 8b 62 bb 88 00 06 bb 2d a6 06 3c
       -0.0013855916 -0.0034568128 -0.0020447094 0.00821833
0001b0 59 5a 30 bb 4d c7 8b bb 3e 4d 13 bb da a7 ed bb
       -0.002690932 -0.004265702 -0.002247646 -0.0072526755
0001c0 97 96 29 3c fc e5 4c 3c e2 5a 20 bc 3f ef 54 3b
       0.010350845 0.012506004 -0.009787293 0.0032491235
0001d0 55 a9 15 bc a9 59 01 bc f1 04 94 3b c4 45 13 bb
       -0.00913461 -0.007894912 0.0045171906 -0.0022472003
0001e0 4b da c3 3a d9 02 ee bb 10 54 55 3b 3e 9f 86 ba
       0.0014942376 -0.007263523 0.0032551326 -0.0010270847
0001f0 22 a2 6a 3c 4e f1 af bb 26 81 07 bc b7 3f 0b 3c
       0.014320882 -0.005369342 -0.0082705375 0.0084990775

cvae_parameters.enc_00_lin_w f4 [128, 123]
000000 63 1b 3f bc c6 36 15 bc e3 4d 2b ba ad ca 5d bb
       -0.011664244 -0.009107297 -0.00065347383 -0.0033842728
000010 5c 28 3d 3c 24 40 d8 3b 41 47 73 bb ae 6b 95 bc
       0.011545267 0.006599443 -0.0037121328 -0.018239822
000020 47 f7 04 3c 4a 9d 15 bc c5 3b 1d 3c 9d ae bd 3b
       0.008115596 -0.009131739 0.00959677 0.005788638
000030 e4 02 a6 39 7e ca 97 3c 44 d5 7b 3c 3a d9 e3 3a
       0.0003166414 0.018529173 0.015370671 0.0017383464
000040 27 34 e0 bb b6 c3 6c bc e5 1d b8 3b bc e2 4c 3c
       -0.0068421545 -0.014450958 0.005618798 0.01250523
000050 80 49 07 3c e1 f3 3c bc c0 72 73 bb 35 a5 98 3c
       0.00825727 -0.011532755 -0.0037147254 0.018633464
000060 1c c9 06 3c a3 82 64 bb ed d0 4f bb d3 f2 8a 3b
       0.008226659 -0.0034867905 -0.0031710223 0.0042403727
000070 27 da 64 3c b0 94 8b 3c ce e3 31 3c 4a 7b b8 bb
       0.013968027 0.017038673 0.0108575355 -0.0056299316
000080 92 e4 b4 bb 12 2b 0d 3b a9 2a 85 bb 9b 90 ce 3b
       -0.0055204118 0.0021540564 -0.0040639234 0.0063038594
000090 b8 09 89 3b cd 9f 01 3b 7f e8 00 3c a8 b5 af 3b
       0.004182067 0.0019779087 0.007867931 0.0053622313
0000a0 c3 5b ba 3a b1 1e 4c 3c aa 0b 9e bb d6 a8 fb b9
       0.0014218021 0.012458489 -0.004823168 -0.00048000243
0000b0 eb 8b e7 3b 84 b7 b4 3c b2 64 2c bc 4f 00 48 bc
       0.00706624 0.022060163 -0.0105220545 -0.012207105
0000c0 e3 09 23 bb 45 91 ef 3b 38 59 78 3c a2 0a 1e 39
       -0.002487772 0.0073110186 0.01515799 0.00015072015
0000d0 75 0d 3a 3b 35 51 3b bb 2a 1d 20 3c 1a b0 a5 bb
       0.0028389369 -0.0028582339 0.009772578 -0.0050563933
0000e0 ea 12 26 3a 23 3b e3 3b f9 04 9a 3c 2a 9a 09 3d
       0.0006335216 0.00693454 0.0188012 0.033594288
0000f0 1e 08 6c bc 40 fc 18 bc c8 b7 bf 3c e9 cb c3 bb
       -0.014406232 -0.009337485 0.023403063 -0.0059752357
000100 e3 fe 6d bb 6f 8b 14 3c 76 d7 36 3c 5a 53 8a 3c
       -0.0036315254 0.009066447 0.011159768 0.016885448
000110 5d c3 38 bc 6b 59 d6 3c ff 26 32 bb 98 3c 87 3b
       -0.011277047 0.026165685 -0.0027183888 0.0041270964
000120 72 90 89 bc 1b b3 6d bb ef 45 b6 bb b1 00 a4 bb
       -0.01679251 -0.0036270085 -0.005562536 -0.0050049652
000130 f0 2a e7 bb bd a1 0a 3c c3 57 13 b9 b8 69 1d 3c
       -0.007054679 0.008461413 -0.00014051706 0.009607725
000140 c8 b6 87 ba 00 fc b6 3b 41 ea 84 bb 2c df 65 bb
       -0.0010354156 0.00558424 -0.0040562456 -0.0035075648
000150 57 40 3e 3c 73 61 1c bb 00 24 4d 3c b2 90 94 3b
       0.0116120195 -0.0023861795 0.01252079 0.0045338506
000160 9a 74 6d 3b e3 a4 b6 3c 2c 1d 86 bc 7a 72 96 3a
       0.003623283 0.022295421 -0.016371332 0.0011478208
000170 2a 57 f4 bb cf 94 06 bc 65 d7 54 3b 8e d4 06 3c
       -0.00745668 -0.00821419 0.0032477018 0.008229388
000180 e7 c4 7f 3c d6 81 3f bc e0 a2 9d 3b a4 df b1 3b
       0.01561091 -0.01168867 0.004810676 0.0054282714
000190 66 cc f2 bc 56 7c 7c bc 3b 10 25 bb 1b d8 b8 3b
       -0.02963848 -0.015410503 -0.0025186676 0.005640996
0001a0 ba 70 aa 3b e9 25 51 3b 18 c0 3e 3b 01 fd 35 3b
       0.0052014263 0.0031913465 0.0029106196 0.002776921
0001b0 e1 44 ef 3b 14 e7 cc bb 4b 2d 4b 3c 1f dd ef bb
       0.007301912 -0.0062531326 0.012400935 -0.007320061
0001c0 38 ab 53 3a d7 b4 d5 bc b8 0c c8 ba d5 fd 66 3a
       0.0008074525 -0.026087208 -0.001526258 0.00088116276
0001d0 53 ef 2a 3c 87 2d 96 3b e1 44 fe bb b0 13 4d ba
       0.010433036 0.004583064 -0.007759676 -0.0007823063
0001e0 bc 0b cc bb 35 fd e9 bb b2 6e 9d 3c 22 ea 0f bb
       -0.006226985 -0.0071407803 0.019217823 -0.0021959622
0001f0 19 74 6f 3b 63 84 87 3c 1b 74 2a 3c f7 70 ae 3c
       0.0036537705 0.01654262 0.010403658 0.0212941
000200 d5 09 df bb 48 38 6a bb 5b 14 5c bb 1a ce f3 3b
       -0.006806592 -0.0035739113 -0.0033581469 0.0074403407
000210 43 77 19 3c 16 0a 26 3c e4 a1 ad 3c ec 87 32 bc
       0.009366813 0.010134241 0.02119536 -0.010896664
000220 9f 31 cb 3b 55 14 e9 b9 d3 54 8e bb 36 67 23 bc
       0.0062009837 -0.00044456372 -0.004343608 -0.009973338
000230 26 1b dc 3a fe 39 cf bb 03 da 22 3a 69 26 81 3b
       0.0016792759 -0.006324052 0.0006212296 0.0039413464
000240 f1 0a 3b bb 06 80 b3 3b f2 36 42 3b fd 8b 84 3c
       -0.0028540457 0.005477908 0.00296348 0.016180033
000250 35 1c 56 3b 35 70 06 3c cf 0d b1 3a 13 4b 0b 3b
       0.0032670621 0.008205463 0.0013508144 0.0021254465
000260 88 0e cd 3b 16 50 4f bb 09 2b 82 bc 8e c2 d4 3b
       0.006257836 -0.0031633428 -0.015889661 0.0064929193
000270 5a 2c 54 bb 51 e0 b1 3b 59 31 2c 3c cb 72 8d 3b
       -0.0032375068 0.005428352 0.010509812 0.004316663
000280 13 47 6e 3c cb bf ac 3a 2f df ec 3b 3c 67 73 3b
       0.014543313 0.0013179717 0.007228754 0.003714039
000290 5d f3 a3 3c 12 24 37 bb 08 3a 28 3c d6 92 84 3c
       0.020013506 -0.0027945084 0.010267742 0.016183298
0002a0 90 76 a3 3b 15 2f ed 3b fe d4 fd 3b c2 e3 fc 3b
       0.004988499 0.0072382786 0.007746338 0.0077175805
0002b0 7b 13 03 3b 49 90 09 bb ea 95 12 3a dc de c7 bb
       0.0020000625 -0.0020990542 0.0005591797 -0.006099565
0002c0 58 98 f7 3a 9d b2 f4 ba b2 2e e8 bb a1 3e f1 3b
       0.0018890006 -0.0018668954 -0.0070856446 0.0073622023
0002d0 2f 6e f6 3b 0d ec ec 3b c6 e9 69 3c ae 67 2c 3c
       0.007520459 0.007230288 0.014276927 0.010522766
0002e0 09 a6 e5 bb d9 57 09 bb 19 65 75 3c 34 a7 d9 3b
       -0.0070083183 -0.0020956902 0.014977717 0.0066422466
0002f0 f7 a2 e0 3b f3 39 fc bb f8 0b 13 bc 2a d9 08 bc
       0.0068553644 -0.007697338 -0.008975022 -0.008352557
000300 8c ee 82 bb be 7f 48 3c 0d 27 f3 3b 75 88 e2 3b
       -0.003995722 0.012237487 0.0074204267 0.0069132396
000310 98 c6 cd 3b d0 71 4e 3c ee 11 fd bb 62 c2 5e 3c
       0.0062797777 0.012600377 -0.0077230847 0.013596149
000320 64 04 dc bb 43 fd e5 bb d9 2d 22 3c b0 59 ef 3b
       -0.0067143906 -0.0070187165 0.009898626 0.0073043928
000330 b2 f9 2c ba 9e eb 04 bc 71 81 36 ba c3 4c 0a bb
       -0.0006598487 -0.008112816 -0.00069620373 -0.0021102882
000340 16 6d 88 3c f7 8c cb 3b c6 84 92 3b a4 88 82 3c
       0.016653579 0.0062118727 0.0044713942 0.015934296
000350 72 9c 55 bc 86 da 78 3c 33 04 63 bb 07 2b 9b bb
       -0.013037788 0.015188819 -0.0034639954 -0.004735354
000360 d3 e7 06 3c e7 cb a9 3c e7 19 40 bb 20 1c 4d 3c
       0.008233982 0.020727111 -0.0029312314 0.012518913
000370 8e 2f d7 3b 3d 14 3a 3b 50 9a 1f bc b4 3c 90 39
       0.0065669483 0.002839341 -0.009741381 0.00027511048
000380 94 86 9a ba 85 61 af 3c 47 de 00 3c b0 3b 8f 3b
       -0.0011789375 0.021408806 0.007865495 0.004371129
000390 2f 6c 9f 3b 9f c6 00 3c cd 5a 4d 3b e0 d6 ee bb
       0.0048651914 0.007859855 0.003133464 -0.0072887987
0003a0 2b 1f 50 3b cb fc 53 3a 8e 89 0a 3b be fa 5a 3c
       0.0031756859 0.00080866803 0.0021139118 0.013365446
0003b0 f6 fc 00 ba ba 2f 09 3c 9f d2 91 3c b2 ec 62 bc
       -0.00049205066 0.008373195 0.017800627 -0.013850378
0003c0 ad be 31 bc ed e0 55 bc 7c 42 82 3a e7 b7 30 bc
       -0.010848683 -0.013054115 0.0009938027 -0.010786033
0003d0 53 3d 9b 3b 40 f5 90 ba 81 6d e5 3b ed a0 07 ba
       0.004737535 -0.0011059418 0.0070015793 -0.0005173821
0003e0 bb 54 bb 3a 64 df 32 3c 99 8e 35 3c 5c bf 66 bb
       0.001429222 0.010917518 0.011081361 -0.0035209274
0003f0 c7 a8 e5 bb 32 05 38 3b b4 ed a1 3c d6 34 00 3c
       -0.007008645 0.0028079269 0.019766666 0.007825097

cvae_parameters.enc_01_lin_b f4 [128]
000000 dc e1 7d bb e4 79 04 3d 65 98 a3 ba b1 a5 82 39
       -0.003873936 0.032342806 -0.001248133 0.00024918982
000010 ac 15 cb 3c 8b 91 b4 3c b3 6e 97 3b f6 5e 09 bb
       0.024790607 0.022042057 0.0046213507 -0.0020961142
000020 dd f1 3f 3c cd 3e 14 3a f0 9e e3 bb 6e 71 ac 3c
       0.01171538 0.000565511 -0.006946437 0.021050181
000030 68 72 b6 ba 8e 06 03 3d be fd c8 3c 84 c6 57 3a
       -0.0013919594 0.031988673 0.024535056 0.000823118
000040 48 cf de bb e7 f2 a0 bb ed 02 bd 3c bf 13 20 3d
       -0.006799612 -0.0049117687 0.023072684 0.03908133
000050 b0 61 f6 b9 27 73 d0 3c 15 1a 4d bc 6e b8 5b bb
       -0.0004699356 0.025445534 -0.0125184255 -0.0033526677
000060 d4 70 10 3d 53 7d c1 3c 2f 6b 26 3a ab be 7c bb
       0.03526385 0.02361933 0.0006348369 -0.0038565795
000070 b4 11 10 3c 4b 9a b6 3c cf c2 60 bb e2 38 15 bb
       0.008793283 0.02229037 -0.0034295802 -0.00227695
000080 2e b7 5f bc c0 d5 c9 bb 81 8a 19 bc c3 92 57 bb
       -0.013654513 -0.006159514 -0.009371401 -0.0032893873
000090 3c b2 64 bb 63 45 da 3c 1f 6b cc 3c e8 bb 21 3d
       -0.0034896275 0.026644414 0.024953423 0.039485842
0000a0 3c 28 8a bb 9a 76 ea 3c 49 0f 22 3d cc 6e 48 bb
       -0.004216222 0.028621007 0.03956536 -0.0030583618
0000b0 70 34 28 3b bf fd cf 3c f9 47 21 3d c8 96 a0 3c
       0.002566602 0.02538955 0.03937528 0.019603148
0000c0 f2 6b 0c 3d c9 b6 fa bb 43 8f 9f ba c9 3d 9a bb
       0.034282632 -0.007651184 -0.0012173433 -0.0047070724
0000d0 f5 1b 02 3d a8 02 0f 3c 70 16 0b 3d ac c1 f9 bb
       0.031764943 0.008728661 0.033956945 -0.0076219644
0000e0 4d 82 fe 3c 9f 38 8a 3c 85 d5 8a 3c 13 34 12 3d
       0.031067992 0.016872702 0.016947517 0.035694193
0000f0 b4 8c dc 3c 18 51 a5 bb 08 b1 43 bc 6a f2 e4 3c
       0.026922561 -0.0050450675 -0.011944063 0.027947623
000100 b3 7f c4 3c d3 12 60 bc 65 de 03 bc b5 8e d0 3c
       0.023986673 -0.013676363 -0.008048628 0.025458673
000110 5c d7 1c 3d 09 96 c1 3c 1e 16 05 3d 4f 30 e9 3c
       0.03829132 0.023631113 0.032491796 0.028465418
000120 c0 33 5e bb 75 06 80 bb 7b 4a 40 3b 8e f8 06 bb
       -0.0033905357 -0.0039070197 0.0029341269 -0.0020594927
000130 7c 56 dd bb 6d 19 e7 3c 9e 3b 87 3b d0 d8 c9 ba
       -0.0067546945 0.028210366 0.00412698 -0.0015399698
000140 a8 f9 bc 3c e0 f8 a6 bb 4b 98 3a b9 e3 6c 27 3d
       0.023068264 -0.005095586 -0.00017795076 0.040875327
000150 de ec 5a bb 64 2d b3 3a e2 65 f0 3c eb 5e 0e 3d
       -0.0033405344 0.0013670144 0.029345457 0.03475849
000160 69 28 11 bb ad b1 e3 3c f8 e5 94 3b da 8c 80 39
       -0.002214933 0.027794683 0.004544016 0.00024519005
000170 57 0f dc bb 16 d2 22 3d 06 36 d1 3a 40 6a 9e 3c
       -0.006715696 0.039751135 0.0015961535 0.019337773
000180 f4 e9 ac bb c4 be 86 bb b5 e3 ae 3b 30 78 14 3b
       -0.005276913 -0.0041120965 0.0053372034 0.0022654645
000190 e3 c6 db bb 25 cc a9 3c 8a 09 89 3c 71 ab e5 3c
       -0.0067070588 0.020727227 0.016728181 0.028035851
0001a0 f1 35 46 bb 7f d5 07 3d 1e e1 4d 3b e0 6b 8d ba
       -0.0030244554 0.03316259 0.0031414698 -0.0010789596
0001b0 99 5b b5 3b 25 34 15 3d 4b 0d 7e bb 1c 3b 97 3c
       0.005534601 0.036426682 -0.0038765247 0.018460803
0001c0 71 b5 af 3c c9 ec c8 3c a5 f9 46 3d 1a 5a e5 bb
       0.021448823 0.02452697 0.048577923 -0.0069992663
0001d0 f4 d7 a1 3b 83 13 53 bb 3c 4a db bb 0e b3 dc bb
       0.0049390737 -0.0032207675 -0.006692199 -0.006735212
0001e0 f9 5c 30 3d 50 dd be 3c 94 d4 d6 3c d9 ca c8 bb
       0.043057416 0.02329889 0.026224412 -0.006127697
0001f0 f7 93 c3 3c 21 de fb bb 2c 58 ff 3c 28 05 97 3c
       0.023874266 -0.007686392 0.031169973 0.018435076

cvae_parameters.enc_01_lin_w f4 [128, 128]
000000 79 ee 0a bc 63 8a 1e bb b0 16 ae bb b6 d9 36 3c
       -0.008479708 -0.0024191372 -0.005312763 0.011160305
000010 e7 78 d3 ba f4 27 ca 3c 8d 0b 84 bc da 99 95 bc
       -0.0016134054 0.024677254 -0.01611879 -0.018261839
000020 3d ed cd bb 12 24 04 bb 61 bf 57 3b aa d5 6c 3b
       -0.0062843845 -0.00201631 0.0032920467 0.0036138096
000030 d0 3b 43 bc 65 c9 26 3c 7b dc da bb df 21 e7 ba
       -0.011916116 0.010179852 -0.0066791154 -0.0017633996
000040 7f f6 c4 bc d5 d6 48 bb f0 35 28 3b 95 85 9d 3c
       -0.02404332 -0.0030645628 0.0025666915 0.019228736
000050 d6 0b e1 ba ea d3 3c 3a 97 81 b5 3a 2b 24 f8 bb
       -0.0017169665 0.00072032085 0.0013847825 -0.007572671
000060 c7 8f 2d 3c 09 91 9f 39 61 28 0f 3c b4 f5 63 bc
       0.010593361 0.00030434903 0.008737654 -0.013913561
000070 bc 27 65 bb cb cd 52 3c 76 57 24 3b 1a 59 97 3b
       -0.003496631 0.012866448 0.0025076545 0.004618776
000080 bc 8b a9 ba 75 e8 27 bb c2 9b bb 3b 5e 8b 8d bb
       -0.0012935321 -0.0025620733 0.005725355 -0.0043195924
000090 7c b9 d8 3a 2f cb 92 bc e5 c0 69 bb 00 cd 88 3c
       0.0016534771 -0.017919151 -0.0035667953 0.016699314
0000a0 67 8f 8e bc 03 7e b9 bb 85 4b ab 3b 66 c3 a2 3a
       -0.017402364 -0.0056607737 0.0052275085 0.0012417852
0000b0 42 8f 8c ba cc 2c 13 bc 8e 78 0d 3c 32 06 f9 bb
       -0.0010723846 -0.008982848 0.0086346995 -0.0075996155
0000c0 85 1f 5f bc 34 3a 8c ba ae 8b 6c 3b 51 87 04 3c
       -0.013618355 -0.0010698498 0.0036093998 0.008088903
0000d0 04 e2 15 3a 49 88 99 39 4d 33 0f bc 5d 9a 39 bc
       0.0005717578 0.00029283974 -0.008740258 -0.011328307
0000e0 fb 2f f9 ba ae 3d da bb 68 76 39 3c c9 8e 4b ba
       -0.0019011492 -0.006660185 0.011319734 -0.0007765112
0000f0 a9 ab 5d bc c5 12 77 3c 9a 40 b1 3c 9d 9a db bb
       -0.0135296965 0.015080159 0.02163725 -0.006701781
000100 9d 1d c1 bb ff 29 ec 3b e5 f0 fc 3b 6b be 11 3c
       -0.0058934228 0.0072071548 0.0077191466 0.008895497
000110 7a dd 3d 3c ad 6f f0 bb 80 5c a7 3a a5 57 1e 3c
       0.011588449 -0.0073375315 0.0012768656 0.009664451
000120 50 0d 2a 3c 68 bf a5 3b 43 47 bc ba c7 e9 85 bc
       0.0103791505 0.005058218 -0.0014364499 -0.016346825
000130 20 08 47 3c 24 b1 a7 3c 1d ba 53 bb 36 1f d0 ba
       0.012147933 0.02047021 -0.0032306977 -0.0015878442
000140 97 90 b8 bb 0d 1b 34 3b cd f1 14 bc 31 87 17 bc
       -0.005632471 0.0027481944 -0.009090853 -0.009248541
000150 f4 b5 c1 bb 02 9e ad 3b 7a 1c 50 bc 15 50 fb 3b
       -0.005911583 0.005298377 -0.012702102 0.0076694586
000160 6f 7c 84 bc 08 40 17 bc ba c0 d9 bb 5f 52 29 bb
       -0.016172616 -0.009231575 -0.0066452892 -0.002583645
000170 3d c9 b6 3a 0b ef 97 bc 8e 34 c8 3b dd 6f 48 3b
       0.0013945472 -0.018546602 0.0061097806 0.0030584254
000180 97 da e2 bb a7 eb 2a 3c b9 55 27 bc b7 99 4f 3c
       -0.0069230306 0.01043216 -0.010213309 0.012670926
000190 83 80 78 bc e7 ec 8f bb a9 8d e1 3a bc a9 cb bc
       -0.015167358 -0.0043922546 0.0017208356 -0.02486121
0001a0 00 49 b0 bc a5 a3 8f bb 7c 9c b9 bb 05 04 17 bc
       -0.021519184 -0.0043835216 -0.0056644063 -0.009217267
0001b0 d6 c6 68 bc 32 ab 5c 3c 15 76 01 bc f6 de c6 ba
       -0.014207562 0.0134685505 -0.007901688 -0.0015172649
0001c0 d1 62 60 bb 1d 5c d1 bc 03 bd 90 bb 3a 02 b2 3b
       -0.0034238587 -0.025556618 -0.004417063 0.0054323943
0001d0 c9 c2 e9 bc 99 51 38 bc 7b 97 04 3b 40 24 e8 3a
       -0.028535264 -0.011249923 0.002023189 0.0017710999
0001e0 74 43 43 3c 13 80 b5 3b c4 82 9e 3b b5 ff c0 bb
       0.011917938 0.0055389493 0.004837366 -0.0058898577
0001f0 f9 9a a5 bc c5 61 d6 3b 5e b6 ac 3c 0e 77 77 bc
       -0.020215498 0.0065424168 0.021083053 -0.015104068
000200 5b f5 f3 bb d4 5d 69 3c 9c f5 cb 3c e1 78 80 3c
       -0.00744502 0.014243562 0.02489739 0.01568264
000210 8c 50 a5 3b 59 f4 06 3c 45 ba 6f 3c bf 8a 83 bb
       0.0050450023 0.008236968 0.014631812 -0.0040143426
000220 59 57 b6 bb ab 3c f6 3b 1a 0a 96 bb 55 f8 f4 3b
       -0.005564612 0.0075145564 -0.004578841 0.0074758925
000230 8f f6 d9 bb 71 1c a9 3c 48 de 6f 3a 7c 65 6a 3c
       -0.0066517065 0.020643445 0.0009150249 0.014306422
000240 e3 ba 1d bb de bd 11 bb 78 18 bf 3a 07 61 f2 bb
       -0.0024067692 -0.0022238414 0.0014579436 -0.0073968205
000250 07 f6 95 3b 44 e0 85 3b bd 02 11 3c 38 9c 61 bc
       0.004576448 0.0040855724 0.0088507505 -0.013770156
000260 ad 12 c6 3b 49 de 24 3c 7a 79 8d 3a f6 33 fc ba
       0.006044707 0.010062763 0.0010793649 -0.001924156
000270 b9 cc a9 3b 82 87 19 3b 1d a9 0e 39 38 83 ae 3b
       0.0051818755 0.0023426716 0.00013605175 0.005325701
000280 80 1e 61 b9 d0 f2 72 3a 8d 2b 69 3b 43 8a 51 bb
       -0.00021469034 0.0009267749 0.0035578937 -0.003197328
000290 fb ec 0d 3c 8b be e1 bb f7 e4 74 3c 57 fe 13 3c
       0.008662458 -0.0068891696 0.014947168 0.009032807
0002a0 c7 60 5f 3c 12 87 d4 bb 4f 1e 1e bb 6d 26 a0 3b
       0.013633913 -0.006485828 -0.0024126952 0.004887393
0002b0 3a 02 3c 3c c4 32 05 3c 60 fe af bb 2e d6 c3 bb
       0.01147514 0.008129779 -0.0053709 -0.00597646
0002c0 aa e9 a6 bb 8c a1 1b bc b9 87 93 3c 76 94 35 3c
       -0.005093773 -0.009498965 0.018009054 0.011082759
0002d0 24 3c f9 3b 34 25 2b 3c 2b 8b 06 bc 34 c2 86 ba
       0.0076060463 0.010445882 -0.008211891 -0.0010281266
0002e0 ff 6b bc bb 97 98 02 bc 1b e1 70 3b 4f 4f 80 3b
       -0.005750179 -0.007970951 0.0036755267 0.0039157043
0002f0 00 bb f3 3b 3c 71 87 3c 65 db 93 3b 08 1d 37 bc
       0.0074380636 0.016533487 0.004512238 -0.011176355
000300 e6 05 17 3c 82 40 c3 bb 03 3b 39 3c 2c 6a 02 3c
       0.009217715 -0.0059586177 0.011305573 0.007959884
000310 2f 4a 76 3b 02 ab 98 bb b1 23 97 bc d2 48 59 3b
       0.0037580838 -0.0046590576 -0.018449636 0.0033154977
000320 af 8d 29 3c 24 b3 45 3c b6 ee d3 bb c6 6c 1e bc
       0.010348721 0.012066636 -0.0064676655 -0.009669488
000330 b6 81 db 3b c3 9c 2b bc e6 2a c3 3b 6e 7d 87 bb
       0.0066988124 -0.010474387 0.0059560416 -0.0041348254
000340 9b f3 2a 3c 6f c3 27 3b d6 dc 02 bb 6f 54 17 3c
       0.010434057 0.0025598665 -0.0019968054 0.009236439
000350 4c b7 1f 3b 36 70 13 bc 25 bc d9 bb 1c 66 e8 3b
       0.0024370728 -0.008998921 -0.006644743 0.0070922505
000360 e9 d5 aa bb b7 bd 5b bb ef 40 dc 3c e9 66 4d 3b
       -0.0052134884 -0.0033529827 0.026886432 0.0031341857
000370 8c 86 3f bc 30 d8 cc 3b ee 60 bf 3b 68 1e 5d ba
       -0.011689793 0.0062513575 0.0058404123 -0.0008435012
000380 ce 3d a0 3b c4 22 14 ba 30 65 18 bb 9c 05 cb 39
       0.00489018 -0.00056509324 -0.0023253672 0.00038723357
000390 fc 3d 5d 3c 8f 9c 95 3b b5 fa 5e bc 40 6f 82 3b
       0.013503548 0.0045657824 -0.013609578 0.003980547
0003a0 29 0b 36 b9 46 5f 34 3c 2b 76 84 3b bd 5c ac b9
       -0.0001736103 0.011009043 0.004042407 -0.00032875492
0003b0 5b 18 a2 38 45 aa a0 3b fd 21 4b 3c 00 27 78 bb
       7.7292985e-05 0.00490311 0.01239824 -0.0037865043
0003c0 3e e9 3a 3c ab 51 e5 bb 79 2d 69 3b 43 7d 0e bb
       0.011408148 -0.006998261 0.0035580082 -0.0021742142
0003d0 67 2f a0 3c cf ed d7 39 82 a4 d4 ba 5f 7c 33 bc
       0.019553853 0.00041185177 -0.0016223344 -0.010954945
0003e0 74 9f 0a ba 76 ee 32 3b 5c bd 3b 3c 07 78 ca b9
       -0.00052880426 0.0027302778 0.011458721 -0.0003861787
0003f0 92 01 9c 3a 66 5a 4f 3b 7d cf 3c 3c 19 06 ae 3b
       0.0011902323 0.0031639575 0.011524078 0.0053107855

cvae_parameters.out_lin_b f4 [120]
000000 29 56 bc bd a9 b5 39 be c6 cc 4e be 91 97 05 be
       -0.09196121 -0.18135704 -0.20195302 -0.13046099
000010 b6 09 4d be da aa 00 be a2 34 0d be 87 fc 1b be
       -0.20023236 -0.12565175 -0.13789609 -0.1523305
000020 67 3a 38 be aa 08 43 be 4d e5 29 be 14 8f 48 3d
       -0.17991029 -0.19046274 -0.16591378 0.048964575
000030 4a fe 03 be 0a 25 dd bd 59 7a 51 be 23 bd 37 be
       -0.12889972 -0.1079808 -0.20456828 -0.17943244
000040 83 dc 6d bd 4c 11 c6 3c f8 ba f2 bd d2 1d 87 bc
       -0.058071624 0.02417817 -0.11852068 -0.016493712
000050 bf 02 29 be d1 d8 04 be 89 31 16 be 94 bc 48 bd
       -0.16504954 -0.12973334 -0.14667334 -0.049007967
000060 9a 96 27 be 14 87 8e bd ac c2 37 be be 38 17 be
       -0.16366044 -0.06959358 -0.17945355 -0.14767739
000070 4c de e1 bd 0b 00 1a be bb 99 86 be f4 64 1e be
       -0.11028728 -0.15039079 -0.26289162 -0.15468198
000080 5a 62 61 be 41 9e 88 be f4 81 4c bd 4c 64 5d be
       -0.22010174 -0.26683238 -0.04992862 -0.21620291
000090 69 67 44 be 4b df 84 be 4c bb 76 be 7c e8 7e be
       -0.19180073 -0.2595161 -0.24094886 -0.24893373
0000a0 9c ab 47 bd 51 54 2d be f2 94 0c be 6c a9 88 be
       -0.048747644 -0.16926695 -0.13728693 -0.2669176
0000b0 c9 6e 59 be ab 32 32 bd 94 70 e0 bd 3d ac 3a be
       -0.21233667 -0.043505352 -0.109589726 -0.18229766
0000c0 4b 57 ac bd da de 8f be a4 f8 1e be 95 47 bd bd
       -0.08415087 -0.2809971 -0.15524536 -0.09242169
0000d0 56 2c 81 be 04 9f 83 be 5c e7 e1 3d a1 13 6b be
       -0.25229138 -0.25707257 0.110304564 -0.22956707
0000e0 34 9f 57 be b9 45 1b bb 5f f3 c0 be 02 54 36 be
       -0.21056825 -0.002369268 -0.37685677 -0.17805484
0000f0 eb b0 f3 3d 23 4d 57 be 34 01 8d be 46 1a 8e 3d
       0.11898979 -0.21025519 -0.2753998 0.06938605
000100 31 79 d1 be 3b 29 eb bd 7b 55 15 3d 56 2b 62 be
       -0.40912774 -0.114824735 0.036458474 -0.22086844
000110 ad b6 71 be d3 11 47 bd 77 17 a0 be ea f4 0a be
       -0.23604842 -0.048600983 -0.31267902 -0.1356999
000120 94 cd d8 3a d6 7a 6f be e1 81 13 be 93 cf 35 be
       0.0016540759 -0.23386702 -0.14405014 -0.17754965
000130 03 35 36 be 22 33 9d bd 83 cb 20 3d b8 41 70 be
       -0.1779366 -0.076757684 0.039256584 -0.2346257
000140 42 ff 0f be b7 71 ed bd dd fe 1e be 86 03 b3 bd
       -0.14062217 -0.11593955 -0.1552691 -0.087409064
000150 8a c7 71 bb 8a 94 0f be 90 7e 1d be bc 51 4d bc
       -0.0036892616 -0.14021507 -0.15380311 -0.012531694
000160 fa bc 5b be 7d fb 0f bd 03 bc cc b9 07 eb 65 be
       -0.21458808 -0.035151947 -0.00039049992 -0.22452937
000170 9e 76 05 be 39 bf 0c be ce a6 83 be 92 95 8e bd
       -0.1303353 -0.1374482 -0.257132 -0.06962122
000180 df d7 cf 3b 55 26 98 be fd f5 09 be 94 10 2e be
       0.0063428725 -0.29716745 -0.13472743 -0.16998512
000190 cb f4 95 be 77 dc 1e be a4 a8 5a 3d b6 e6 2a be
       -0.29288325 -0.15513788 0.053383484 -0.16689572
0001a0 0e 8f 09 be 33 73 1b be 4c 37 3c be a8 36 ad bd
       -0.13433477 -0.15180664 -0.18380469 -0.084576905
0001b0 e9 02 4a bd 6a fa 83 bd 5e 41 50 be 77 98 a9 bd
       -0.04931918 -0.06444247 -0.20337436 -0.082810335
0001c0 5b c9 2d be 89 bf 93 bd 90 4c af bd 1e 81 10 be
       -0.16971342 -0.07214267 -0.08559525 -0.14111754
0001d0 4f 0f 21 be 8a 49 aa bd 05 e6 38 be d6 62 db bd
       -0.15728496 -0.08314808 -0.18056495 -0.10712211
