dlpg/14/weights/dlpg_model_weights_100.pth (torch, 354171 bytes, 14 tensors)

cvae_parameters.dec_00_lin_b f4 [128]
000000 fb 22 4f be 28 97 2c be e0 b6 03 be b9 a8 12 be
       -0.20228188 -0.16854537 -0.1286273 -0.14322175
000010 17 2d 3c be 7a 11 2a be 75 e8 1c be a8 0e 4c 3e
       -0.18376575 -0.1660823 -0.1532305 0.19927466
000020 f4 a7 04 be ef 21 42 bb 11 ef cb bd 0d 6b 4e be
       -0.12954694 -0.0029622277 -0.09957708 -0.20158024
000030 17 b5 aa bd 3a 4a 9b bd d6 c4 c3 3c 64 5d 2a be
       -0.083353214 -0.07582517 0.02389757 -0.16637188
000040 44 39 2e be 94 8f ad 3d 46 e0 88 bd 3d a9 42 be
       -0.17014033 0.08474651 -0.06683402 -0.19009872
000050 8d b5 87 bd 85 f4 8c be 99 3c db 3d b1 e2 17 be
       -0.06626425 -0.27530304 0.107049175 -0.1483257
000060 da 96 56 3d ed 49 20 be 79 4b 2a be aa 2f 13 be
       0.052389957 -0.156532 -0.16630353 -0.14373651
000070 23 93 14 be 2f be ab bd e8 65 55 3e 55 6e eb bd
       -0.14509253 -0.08385884 0.20839655 -0.114956535
000080 7c 59 40 be 7c c3 4f be 06 9e 70 be 67 be 7a be
       -0.18784136 -0.20289415 -0.23497781 -0.24486695
000090 f2 81 70 be 7f c8 e7 bd 60 ad 89 be 69 b0 4c be
       -0.2348707 -0.113175385 -0.26890087 -0.1998917
0000a0 94 30 5a be ca e8 49 be af b3 6a be 09 04 43 be
       -0.21307594 -0.19717708 -0.22920106 -0.19044508
0000b0 1b 1b 56 be a9 45 d0 bd 12 32 1d 3e b4 a9 60 be
       -0.20908777 -0.101695366 0.15351132 -0.21939737
0000c0 59 ca aa 3e d3 2e 18 be c1 26 09 be 75 98 56 be
       0.33357504 -0.14861612 -0.1339369 -0.20956595
0000d0 1f e5 2e be 8c b7 28 be 42 ec 06 be 2b e6 60 3e
       -0.1707959 -0.16476268 -0.13176063 0.21962802
0000e0 22 bd 42 be 3c f2 21 be 50 0e 55 be 8a a7 13 be
       -0.19017461 -0.15815061 -0.20806241 -0.1441938
0000f0 ed ed a6 bd cf 70 68 be 0b 23 78 bd 7b b4 8f bd
       -0.081508495 -0.22699283 -0.060580295 -0.07016846
000100 fe ae 82 bd 79 26 54 be 41 83 a8 bd 7f 3f e5 bd
       -0.06381033 -0.20717801 -0.0822816 -0.111937515
000110 34 c9 0f be 40 97 3b be 0d b6 30 be a8 87 42 be
       -0.14041597 -0.18319416 -0.17256947 -0.18997061
000120 20 2f 41 be 37 3a 6b be 36 4c 16 be bb 2d 88 bd
       -0.18865633 -0.22971426 -0.1467751 -0.066493474
000130 03 d2 3a be 5d 3c bc 3e a5 fa 08 be 91 63 55 be
       -0.18244176 0.36764804 -0.13376863 -0.20838763
000140 92 20 5d be 75 7a 5d be c4 09 4f be b1 de 76 be
       -0.21594456 -0.21628745 -0.20218569 -0.24108388
000150 60 95 09 3d 2f 54 b2 bd 32 19 fa bd 68 62 08 be
       0.03358972 -0.08707463 -0.12211837 -0.13318789
000160 0d 7c d5 bd 9f c3 37 be 03 ab 3d be cb 76 ca bd
       -0.104240514 -0.17945717 -0.18522267 -0.09885939
000170 e6 b9 43 be 0a 4d 12 be e8 df d7 bd 65 b3 4b bd
       -0.19113883 -0.142872 -0.105407536 -0.04973163
000180 d8 b1 50 be 76 8e 02 be 98 53 29 be 0b 49 20 3e
       -0.20380342 -0.12749657 -0.16535795 0.15652864
000190 b2 85 1f be c4 e2 67 be 8e c8 80 bc 09 6d 59 be
       -0.15578344 -0.22645098 -0.015720632 -0.21233
0001a0 ba e7 51 bc e0 d5 2e be a7 0d 3e be 80 9c f9 bc
       -0.012811596 -0.17073774 -0.18559895 -0.030470133
0001b0 3a 94 a4 bd 3d 11 18 3d 01 5d 13 be e0 7e 82 3e
       -0.080360845 0.037125815 -0.14390947 0.25487423
0001c0 b7 69 5d be 84 13 29 be 9f 94 63 be 4c 00 e6 bd
       -0.21622358 -0.16511351 -0.22224663 -0.112305254
0001d0 20 c3 50 be fd 18 16 be d2 d8 38 bd 0b 3b f8 bd
       -0.20386934 -0.1465797 -0.04512865 -0.121206366
0001e0 3a 93 29 be 7d 3d 04 be 98 7c 01 3c b4 d7 d1 bd
       -0.16560069 -0.12914081 0.007903241 -0.1024622
0001f0 a7 49 17 be b2 73 b3 bd 7e 13 44 be 61 33 31 bd
       -0.1477419 -0.087623015 -0.1914806 -0.04326189

cvae_parameters.dec_00_lin_w f4 [128, 35]
000000 f1 d7 fb 3b a1 14 3e 3d 04 4d 15 bc 64 3a a3 3c
       0.0076856543 0.046406392 -0.0091126 0.019925304
000010 57 54 b4 3d 4d 2d 91 3b a3 58 6c bd 71 27 a5 bc
       0.08805149 0.004430449 -0.057701718 -0.020160409
000020 cd b4 27 3d 95 62 84 3d 88 0c 91 3d 5e 08 16 3d
       0.04094391 0.064641155 0.07082468 0.036629073
000030 3b 63 88 bd 35 dc 82 3c 40 fb 92 3c 75 87 10 3d
       -0.06659552 0.015974144 0.017942071 0.035285432
000040 30 08 37 3d f6 52 9e bd a2 02 05 bd c1 00 76 3d
       0.044685543 -0.07730667 -0.032473214 0.060059313
000050 45 1a 00 3d fc 6c bb 3b 76 dd bd 3c d2 b6 08 bd
       0.031275053 0.005719779 0.02317689 -0.033377476
000060 43 5b af 3c 74 a2 86 3c 92 93 3c 3c 4f 8c a9 3c
       0.021405822 0.016434886 0.011509793 0.020696787
000070 1f a8 00 3d b7 33 f6 3c 13 20 cb 3c b4 a1 3a 3c
       0.031410333 0.030053956 0.024795568 0.011391092
000080 78 6e b9 b9 94 e6 55 be bb b5 8d 3a af 38 70 bd
       -0.00035368255 -0.2088874 0.0010811606 -0.058647808
000090 43 d2 9c bc a2 aa 1b 3b d4 bf 70 bc 34 11 56 bc
       -0.01914323 0.0023752828 -0.014694173 -0.013065625
0000a0 c4 8a c9 3c aa fc af 3a 8c 73 02 3d 5c cd 33 bd
       0.024602301 0.001342674 0.031848475 -0.043897018
0000b0 e9 0c a5 bc d2 0f dc 3c 3a da a7 3b 39 f4 c4 bd
       -0.020147758 0.026863012 0.00512245 -0.09616894
0000c0 33 c9 a7 3c 2c 31 83 bd 47 35 12 3d 8b e0 d0 3c
       0.020481681 -0.06405863 0.03569534 0.025497695
0000d0 b6 75 d4 bc 0b e6 d5 bc 6b a1 83 3a 23 db 89 bd
       -0.025935035 -0.02611067 0.0010042613 -0.0673125
0000e0 e9 8a 49 3c 56 b4 ae bc 18 3e 42 3a c2 f6 16 bd
       0.012301185 -0.021326225 0.00074097654 -0.03685642
0000f0 f0 26 48 3c d2 5d 21 3c 6c 50 20 3c 7f 04 02 bd
       0.012216315 0.009849029 0.009784799 -0.03174257
000100 5d 0f 83 3c cd 80 27 bb fe b7 88 bd cb 85 7e 3b
       0.015998537 -0.002555895 -0.06675719 0.003883707
000110 e4 4c 22 be b0 95 4a 3b b8 57 e9 3d 35 b3 4a 3d
       -0.15849644 0.0030911975 0.11393684 0.04948731
000120 0b ac 7e bd f0 01 1e bc 4f 1b 27 3d 55 91 a9 bd
       -0.06217579 -0.009644017 0.040797528 -0.08279673
000130 bf 65 92 bc 79 3e 8c bd 81 0e 2a 3d 8c 95 76 3d
       -0.017870782 -0.06847853 0.04151774 0.060201213
000140 a4 21 5b bd 40 03 dc 3c 58 9c bd 3d c6 c5 13 bd
       -0.05349888 0.026857018 0.09258336 -0.036077283
000150 4a c1 87 3d d2 f7 6a bb 8f 5d 33 bc 47 a4 f1 3c
       0.06628664 -0.0035853279 -0.010947599 0.029497279
000160 bf bb 63 3d 21 ee e2 3d be 6e de 3d 5e 9f fb 3c
       0.05559897 0.11080576 0.10860966 0.03071564
000170 a8 ef 89 3d a1 e2 25 bd 39 6e 95 3d 51 c4 89 bc
       0.06735164 -0.040499333 0.07296414 -0.016817244
000180 a6 2f dd 3c 6b 67 d1 bd 6f 91 88 3d 7b a0 8c bc
       0.02700026 -0.102248035 0.06668364 -0.017166367
000190 b3 10 08 bd ab f8 a5 3d a5 c9 10 3c 09 0e f5 bd
       -0.03321905 0.0810407 0.008837138 -0.119655676
0001a0 d7 07 2c bb 51 36 a0 bd 61 02 ec bb 8a d9 20 3d
       -0.002624979 -0.0782286 -0.007202432 0.03926996
0001b0 a3 31 b2 3c 67 c4 b2 3d 32 40 b9 3d 48 6f 69 bd
       0.021752184 0.08728867 0.090454474 -0.05699089
0001c0 7b ad 04 bd e1 51 76 3d ad c1 3b bd b0 fe 9f 3d
       -0.032392006 0.06013668 -0.045839 0.0781225
0001d0 32 99 a2 3d 14 e9 40 3c c8 99 cd bc 39 98 6b bd
       0.07939376 0.01177432 -0.025097743 -0.057518218
0001e0 48 79 5b bc 48 0b 50 bd 27 29 19 bd 03 89 53 bc
       -0.013395615 -0.05079201 -0.03739276 -0.012911084
0001f0 3c af ab bd c7 ce a9 bd 89 53 81 3b 4f 61 97 3d
       -0.08383033 -0.08291393 0.0039467257 0.07391607
000200 a0 03 73 bc 56 1e c2 bd 00 92 96 3d 5c f5 91 bc
       -0.014832407 -0.09478442 0.07352066 -0.017817192
000210 9e af 03 bc b8 da 8a 3d 9a f8 1c 3b 8e 67 87 bd
       -0.008037476 0.067799985 0.002395189 -0.06611548
000220 1b 5c d4 bc 62 12 c4 3c 70 ce 0e be f6 c4 16 3c
       -0.025922826 0.023934547 -0.13945937 0.009202233
000230 cf 2e 8f bd ea 23 74 bd ef 5f b7 3d f0 26 47 3d
       -0.0699135 -0.059604563 0.08953845 0.048621118
000240 01 00 45 3d 1c b7 15 3d ae 97 b7 bd 9e 3e 2b bd
       0.048095707 0.03655158 -0.089644775 -0.041807763
000250 0e 76 e9 3c 52 88 09 3d b3 b8 8a 3d 51 c5 41 bc
       0.028498676 0.03357727 0.0677351 -0.011826829
000260 f2 da ad bc f2 10 9d 3d e0 4a af bd e8 dd f5 3c
       -0.021222565 0.07669248 -0.08559203 0.03001304
000270 e9 e3 49 bc fa c4 73 bc 54 f5 26 3d ae cd 2d 3c
       -0.012322404 -0.014878506 0.040761307 0.01060812
000280 1d 46 c3 3c a4 0b 9d bc 45 0e f2 bc 43 89 ce 3a
       0.023837144 -0.01917059 -0.02954782 0.001575746
000290 76 6a 17 bd 19 00 28 3d aa 5a ab 3c ed e6 54 bc
       -0.036966763 0.041015718 0.020917255 -0.01299451
0002a0 8b c7 83 3d 8f 8a 90 3c 2c f6 99 bd 38 1e b1 3c
       0.06434544 0.017644195 -0.07517657 0.021620855
0002b0 8f c6 29 3b ae 09 38 be b9 21 30 bb ba 88 e2 bd
       0.0025905704 -0.17972443 -0.002687557 -0.11061235
0002c0 30 da 2b 3c 90 b0 68 3d 8b d0 af 3d b0 f1 84 bd
       0.010489032 0.056809008 0.08584698 -0.06491411
0002d0 8d fb 00 3e 0e 03 9e 3d be 6b ce 3d 7c 49 a5 bd
       0.12595959 0.077154264 0.10079144 -0.08070657
0002e0 c0 3f 28 bd cb bf 51 3d 7b 25 94 bd ef fc cf bd
       -0.04107642 0.0512083 -0.07233711 -0.10155665
0002f0 3b 4f 24 3d f2 11 99 bd 38 4c b5 3c 55 a8 e9 bb
       0.040114623 -0.07474126 0.02213107 -0.0071306624
000300 c2 14 20 3d 0b 6e 16 bd ae 62 f6 bd c4 d6 c2 bd
       0.039082296 -0.03672604 -0.120305404 -0.095136195
000310 71 8a ad bd 07 b8 77 bd 5f 00 ea 3b f9 27 af bd
       -0.08473671 -0.060478237 0.0071411575 -0.08552546
000320 a2 7d 33 bd 74 db af bb a1 2c a9 bc 4b 6b 29 bd
       -0.043820985 -0.005366737 -0.020651164 -0.04136209
000330 c7 85 3f bc 9f 50 c4 bd d0 9c ee bb c6 85 fe 3b
       -0.01168961 -0.0958569 -0.007281877 0.007767412
000340 5a 0c 1f be e6 ba ef bb 7b 77 23 bd 0f 4d fb bc
       -0.15532055 -0.007315981 -0.039908867 -0.030676393
000350 45 d6 e1 3c 62 9f d8 3c a2 05 05 3d 28 54 01 3d
       0.027567992 0.026443187 0.032476075 0.0315744
000360 27 b7 d2 ba 28 7e fe bc 73 a2 a5 3c d1 ac 4a 3c
       -0.0016076312 -0.031066015 0.020219063 0.012370304
000370 c4 6e 65 3d d0 f5 9f bb fd 3e b0 3c 2a 5a 0c 3c
       0.056013837 -0.004881598 0.02151441 0.008566419
000380 85 d4 81 bd a2 3b e9 3b 0f 31 7e bc b4 f4 1f bb
       -0.06339363 0.0071177045 -0.015514626 -0.002440733
000390 1d d1 ae 3c cc ad 98 bc 3f 4b 96 3a 2d bc ea bc
       0.021339947 -0.01863756 0.0011466517 -0.028654182
0003a0 96 40 df 3c 19 85 ed bc f1 c7 96 bd ab 38 53 3c
       0.027252477 -0.02899413 -0.073623545 0.012891929
0003b0 ce 3f 3a bc 41 c6 0b bc 71 c2 ad 3c f6 09 73 3c
       -0.011367751 -0.008531154 0.021210881 0.014833918
0003c0 3b 71 6b bd 0b 5a 39 bd 18 6f 98 3b 2c 6b 2c be
       -0.057481032 -0.045251887 0.0046519153 -0.16837758
0003d0 19 18 9e 3c 8f da 9c 3d eb 93 db 3d 29 5c d5 bc
       0.0192986 0.07658874 0.107215725 -0.026044922
0003e0 3f 22 dc 3c c5 2b 85 bc 53 6b af bd ae 63 b9 3b
       0.026871799 -0.016256223 -0.08565392 0.0056576347
0003f0 33 5a fd 3c b1 44 bc 3b 49 19 b4 3d 3e ea b6 3a
       0.0309268 0.0057454933 0.08793885 0.0013955308

cvae_parameters.dec_01_lin_b f4 [128]
000000 1e f4 fa bd d2 6f f2 3c 21 69 8c bd 71 38 37 bd
       -0.12253593 0.029594336 -0.06855989 -0.04473156
000010 59 c8 15 3d f3 c8 d5 bd 36 39 37 3e 58 6a 74 bb
       0.03656802 -0.10438719 0.17892918 -0.003729483
000020 5e fb ab 3c d1 20 e7 3c d4 89 08 be 8f c4 a2 3c
       0.020993885 0.02821389 -0.13333827 0.019869117
000030 03 1b 00 3d 82 a6 7c be 6a 4e 29 be 4d db 77 3d
       0.03127576 -0.24672893 -0.16533819 0.060511876
000040 7b df b4 bd e5 07 5d 3e e2 8f 35 3d 54 e9 03 bd
       -0.08831688 0.21585043 0.04432667 -0.03220494
000050 ad ce 95 3c 44 11 98 3d 86 92 f1 3c 67 f3 60 3d
       0.018287027 0.07425168 0.029488813 0.054919627
000060 ef 07 de 3d 52 55 7b 3c 5f 95 a9 3c c7 aa a9 3c
       0.10841357 0.015340166 0.020701109 0.020711316
000070 86 25 31 3c 63 43 87 3d d7 e3 91 3c f4 63 b6 bd
       0.010812169 0.0660465 0.017808838 -0.08905783
000080 9f ae c8 bc d7 d4 b8 3c 68 de 50 3e 49 9d 61 bd
       -0.024497328 0.022562427 0.20397341 -0.05508164
000090 ce 84 37 bd 46 30 48 3d d0 b7 9e 3c f8 d0 2f bd
       -0.044804387 0.048874162 0.019374758 -0.042923898
0000a0 06 ce f2 3c 30 f6 8f bd 0a 8a 09 be 68 21 5e 3d
       0.029639255 -0.070293784 -0.13431564 0.054231077
0000b0 83 5a fd 3c 22 f2 a0 bc 6c 2e a4 bd fc 28 d8 3c
       0.030926948 -0.019646708 -0.08016667 0.02638673
0000c0 50 01 c3 3c 10 8a 9f bd 8a 1a 31 3d a9 e7 aa bd
       0.023804337 -0.07790005 0.0432382 -0.08344967
0000d0 80 63 f7 bd 52 bf 13 3d 8f b3 41 bb ad 7d 2c bd
       -0.12079525 0.03607113 -0.0029556488 -0.04211204
0000e0 4c 4c aa 3c 58 10 21 ba d7 54 b4 3c c8 38 cd 3d
       0.020788334 -0.0006144098 0.022013111 0.10020596
0000f0 bb cb 92 3c 74 d8 91 3e d5 04 af bc 0f 3e c5 3c
       0.017919412 0.28485453 -0.021364609 0.024077443
000100 34 45 bd 3c e8 a5 10 bc 26 3a 69 bd 27 5f a8 bc
       0.023104288 -0.008828618 -0.05694022 -0.020553185
000110 b8 bb 2b bc c3 48 56 bb 01 5f 5f 3a f0 ec 16 3e
       -0.010481767 -0.0032697178 0.00085209316 0.14738822
000120 e1 74 ee b8 f7 f4 37 3d 51 58 09 be c0 63 e6 3c
       -0.00011370495 0.04491135 -0.13412596 0.028123736
000130 c5 75 0d 3d 34 dd e4 3d f7 ed 2d be f4 c6 f1 3c
       0.034536142 0.11175004 -0.16985308 0.029513814
000140 c7 ff 09 3d 50 40 63 3d 53 5e 16 bc 78 f1 84 3e
       0.033691194 0.055481255 -0.009177762 0.25965476
000150 51 5a 92 3c ce b0 35 be 2e 9c 76 bd cf 88 95 3b
       0.017865332 -0.17743227 -0.06020754 0.004563428
000160 9c f5 3e 3c 92 d6 c9 3c f1 a5 81 3a e8 fd de 3c
       0.0116552375 0.024638448 0.0009891373 0.027220681
000170 6c f5 b6 bb 58 e2 90 3d f6 e2 d3 bd 1d f1 aa bd
       -0.005583456 0.07074422 -0.10346024 -0.0834677
000180 db 35 b4 3c d4 f2 b2 bd 14 57 08 3d b8 26 24 be
       0.021998337 -0.08737722 0.03328617 -0.16030395
000190 0d 3b 0d be c6 d2 8f 3c 5a 2a ae bc 43 cb b4 bd
       -0.13792057 0.01755656 -0.02126043 -0.088278316
0001a0 02 8e a1 bc 0d c6 fb bd 85 0c 18 bc 17 db 97 3c
       -0.019721035 -0.122936346 -0.009280329 0.018537087
0001b0 99 a3 15 3d 67 c9 41 3d fd bc be 3c 1a 64 8f bd
       0.036532972 0.047311213 0.023283476 -0.07001515
0001c0 d6 51 03 bc 3f a7 9e bd 68 54 03 3d 7e 92 21 3d
       -0.008015117 -0.077467434 0.032062918 0.039446346
0001d0 cc 5b 9a 3c ef 93 36 3d e0 78 86 bd 57 2f d2 bd
       0.0188426 0.044574674 -0.06566024 -0.102629356
0001e0 16 07 f4 bd 2f cc 03 be 08 1b f7 bc 73 11 93 bd
       -0.11915414 -0.12870859 -0.030164257 -0.071810625
0001f0 29 cd b1 bc ea 81 85 be 58 f8 45 3c 13 0e 66 3d
       -0.021704273 -0.2607568 0.012083136 0.056165766

cvae_parameters.dec_01_lin_w f4 [128, 128]
000000 f7 66 9d bd 18 ce 60 3d 26 e3 9f 3c ab 3d 9d bd
       -0.076856546 0.054884046 0.019517493 -0.07677778
000010 1b b4 a8 bd bc 8a 46 3d 58 9c ee bc a4 15 a4 bc
       -0.082374774 0.04847215 -0.029127285 -0.02002985
000020 8c d7 45 3c 38 66 bc bd 81 0c ad 3c 6c 9f 97 3c
       0.012075316 -0.09199184 0.021124126 0.018508635
000030 63 44 a5 bd 9b 8f 20 bd 66 f3 cf bd dd 99 3a be
       -0.08069684 -0.039199453 -0.101538464 -0.18222757
000040 c3 a3 c9 3c 5d 8d 23 be 6c 87 d1 bc 29 da ca bd
       0.02461422 -0.15971895 -0.02557727 -0.09904892
000050 2a 87 81 bd 29 e5 aa 3b 33 f5 d9 bd 8f 84 66 bd
       -0.063246086 0.0052153063 -0.10642471 -0.05627876
000060 94 f1 ad bc 26 ef be bd 22 c0 d9 bc ff 5c 61 bd
       -0.021233357 -0.09322958 -0.026580874 -0.05502033
000070 3e a4 85 3d f9 d9 b0 3c e5 0a 40 bd 61 4b 40 bd
       0.06525467 0.021588312 -0.04688539 -0.046946887
000080 2f 44 2a bd 6c 93 81 3c 5d ab 12 be 63 35 32 be
       -0.04156893 0.015817367 -0.14323182 -0.17403178
000090 03 73 14 bd 1d aa c4 3b 60 21 21 be 95 29 e4 bc
       -0.036242496 0.0060017244 -0.15735388 -0.02785186
0000a0 79 b8 23 be 0e 2a 8a bd b4 71 b0 3b 15 15 a8 bd
       -0.1598834 -0.067463025 0.005384648 -0.08207146
0000b0 2f 90 a0 bd 2d 2a 3d 3d b0 f0 2e be d2 66 c1 3d
       -0.07840001 0.0461828 -0.17084002 0.094434395
0000c0 6c 17 f2 bc dd 90 21 bd e4 99 9b bd f7 e7 0c bd
       -0.029552184 -0.039444793 -0.07597712 -0.034400906
0000d0 d0 c1 32 bd 59 a5 1b 3c 67 69 99 bc ee de fb bc
       -0.043641865 0.009499871 -0.018727018 -0.03074595
0000e0 b1 1e 8c bc 55 18 fc 3c 8d 3a 34 bd 05 8c 0c bc
       -0.017104479 0.030773321 -0.04400115 -0.008578305
0000f0 b0 f8 98 bb 8e 8b 16 3d 45 40 87 bc 2c 59 8a bc
       -0.0046683177 0.036754183 -0.016510138 -0.016888224
000100 7a 60 8b 3c 7b 3b df bb 48 5c c3 bc 0d ac cb 3a
       0.017013777 -0.0068125105 -0.023847714 0.0015538946
000110 87 4b 24 bd 42 42 33 3d 37 fb 93 bc 07 c5 6d bd
       -0.04011109 0.04376436 -0.018064125 -0.058049228
000120 36 aa 7b bd ae 6e 17 3d d6 2e ca bc e7 a3 94 3d
       -0.061441623 0.036970787 -0.024680536 0.072578244
000130 37 61 db bc 6a 9e 0a 3d 38 f2 28 bd 77 c7 a3 bc
       -0.026779754 0.03384248 -0.041246623 -0.019992573
000140 93 bc a3 bb e9 0a 88 bd e1 44 08 bd 7a d9 76 bd
       -0.004996845 -0.06642706 -0.033268813 -0.060265996
000150 f8 9b 0e 3d 4c 8e b2 bc 60 e7 8b bd 5d a5 f8 bb
       0.034816712 -0.021796368 -0.06831241 -0.007588072
000160 c8 79 ae 3d 94 8f 08 bd 73 e4 60 bd ea 52 34 3d
       0.08519322 -0.03334005 -0.054905366 0.044024386
000170 fa c5 ac bc c1 57 7e bd 13 8a 0f 3b be 8e 2d be
       -0.021090496 -0.062095407 0.0021902367 -0.16948983
000180 d6 3a 6b bc fd e7 1f 3c 77 28 00 3c ef 1a ad bd
       -0.014357289 0.0097599 0.007822148 -0.08452403
000190 b1 cd e9 bc 0e 64 b9 bc 15 65 09 bd 17 68 ac bb
       -0.028540464 -0.022630718 -0.033543665 -0.005261432
0001a0 37 3c ca bd 2d 04 76 bd 82 2e 40 bd 3e 29 b0 3d
       -0.09874766 -0.060062576 -0.046919353 0.08601616
0001b0 7d 2b 9c 3c 41 dd cd bd 96 cb 24 bd 6f c3 cf 3c
       0.019063706 -0.100519665 -0.040233217 0.025361745
0001c0 ec 95 ba 3b 80 d3 a0 bd 61 83 c6 3a 4c 67 05 bd
       0.0056941416 -0.078528404 0.0015145355 -0.032569215
0001d0 3e 16 f7 bd bc 9b 25 bd 4a 0f 44 bb 57 f8 4e bc
       -0.12064789 -0.040431723 -0.002991634 -0.012632451
0001e0 ff 75 93 bd 46 62 e7 3c 75 ca d5 bc b7 a0 0c be
       -0.0720024 0.028245103 -0.026097516 -0.13733183
0001f0 26 f6 90 3d e3 69 94 bd 4c b0 00 3d 6b 1b 27 3d
       0.07078199 -0.07246759 0.03141813 0.040797632
000200 2d d4 23 bc 22 ee 6d bc cf 9e 5a bc ff 11 08 bd
       -0.009999317 -0.014522107 -0.013343527 -0.033220287
000210 b3 9f 3f bb d7 89 61 3b cc 59 db bb cd 70 cc bc
       -0.0029239475 0.0034414434 -0.006694054 -0.024956131
000220 0f bc a8 bb 56 20 5d bc 4a 72 80 bc 26 dd a0 ba
       -0.0051493715 -0.013496479 -0.015679497 -0.0012272939
000230 d4 17 b0 bc 61 af c4 bc 69 20 93 bc fd 3c 10 bc
       -0.021495737 -0.024009408 -0.01795979 -0.008803603
000240 ae 62 ac bc 8e 16 da bc 04 a8 07 bd 6e 91 93 bb
       -0.021043148 -0.026622083 -0.033119217 -0.0045034206
000250 92 1a b8 bc 3a 54 c0 bb 9e 29 e7 bc ac 17 40 bc
       -0.022473607 -0.0058694156 -0.028218087 -0.011724394
000260 45 20 95 bc 32 01 bd bb 5e 24 1a 3a 65 50 3b bc
       -0.018203864 -0.0057679648 0.0005880053 -0.011432742
000270 87 75 61 bc 89 4d 94 bb f0 fa 10 bc 49 dd 75 bc
       -0.013760931 -0.0045258445 -0.008848891 -0.015006372
000280 ca 4a 81 bb d7 9a 75 bc 02 47 dd bb 79 5d 59 bc
       -0.003945683 -0.01499053 -0.0067528496 -0.0132669145
000290 db fb b2 bc 58 54 7f 3c 7d e5 7f bc d5 57 63 bc
       -0.02184861 0.015584074 -0.015618679 -0.013875921
0002a0 5f 31 0a bc 84 61 a0 bc 40 85 de bb 9f f8 25 3a
       -0.008434623 -0.01957775 -0.006790787 0.0006331298
0002b0 90 63 74 bb 43 b7 57 bb f3 4e ae 3a 1c 92 53 bc
       -0.003729079 -0.003291563 0.0013298675 -0.012913253
0002c0 9e e9 be bc 80 f2 72 3c 10 28 a2 3a ae af 21 bc
       -0.023304757 0.014828324 0.0012371559 -0.009868545
0002d0 cf 34 63 ba c8 e1 64 ba ea d9 0a 3c 9e de f4 bc
       -0.0008667232 -0.0008731154 0.008474806 -0.029891308
0002e0 b0 4d d6 ba 18 62 dc bb 50 e2 65 bc 5e 45 86 bc
       -0.0016350057 -0.006725561 -0.014031008 -0.016390499
0002f0 aa 36 ad bb 88 92 7f 3b 9e ef 2a bc 59 3d 3c bb
       -0.0052860575 0.0038997252 -0.010433106 -0.002872309
000300 d6 f9 a2 bb 08 53 a5 bc 6e f1 5c bc d7 81 68 3a
       -0.0049736304 -0.020181194 -0.013485296 0.00088694453
000310 84 1d 90 bc 23 40 38 bb 68 69 6c bc 9d 6f e7 3b
       -0.0175922 -0.00281144 -0.014429428 0.007062866
000320 80 3f 8d bc 5c 51 c3 bc 85 a2 26 bc 43 c4 bb bc
       -0.017242193 -0.023842506 -0.010170584 -0.022920733
000330 0e 7f 0f bb af a6 6b bc 42 df 61 3a 35 fc d2 bb
       -0.00218958 -0.014383002 0.0008616337 -0.006438757
000340 c7 fd 93 bc 4b a3 98 bc 9e 24 d4 3a 85 6f 2f bc
       -0.018065346 -0.018632552 0.0016185229 -0.010707741
000350 43 9d 60 bc 4b 4d c2 bc 47 ee 69 bc 5c 99 a2 bc
       -0.013709369 -0.023718497 -0.014278001 -0.019848518
000360 4d 98 ce 3a 87 c4 08 bc 56 99 34 bc d4 02 8b bc
       0.0015761942 -0.008347637 -0.011022886 -0.016969122
000370 53 04 7d bb c4 be cc bc a0 4e c7 ba 68 b5 c8 bc
       -0.0038607314 -0.024993308 -0.0015205927 -0.024500564
000380 72 9f ce 39 46 fa 25 bc 96 97 a4 ba 0e 2d db bc
       0.00039410178 -0.010130471 -0.0012557383 -0.026754882
000390 70 49 bd bc dd 5f 59 bc 93 e2 72 3b c3 43 cc 3b
       -0.023106307 -0.0132674845 0.0037061318 0.0062336638
0003a0 d1 7c a7 bc 7c dc c8 3a bb b6 67 bc 52 b1 0f bc
       -0.02044526 0.0015324499 -0.014142687 -0.008770304
0003b0 22 26 89 bc c5 87 6d bc a6 56 57 3c eb 36 05 bc
       -0.016741816 -0.014497702 0.013143217 -0.008130769
0003c0 d9 1c 66 bc 4e 73 80 3b b6 1c b4 bb d6 0f 91 bc
       -0.014044964 0.0039199954 -0.0054965867 -0.017707746
0003d0 61 aa ed bb a1 4b ad bc 41 23 91 bc 87 3e 0b bc
       -0.0072529768 -0.021154227 -0.017717006 -0.008498794
0003e0 4e c4 c1 3b db 27 84 bc 04 ef 98 bc f7 6f b1 bc
       0.005913294 -0.016132286 -0.018668659 -0.021659834
0003f0 a4 8f c0 bc 3a 11 d2 3b b6 1a be bb a6 fd 41 bb
       -0.023505993 0.006410745 -0.005801524 -0.002960065

cvae_parameters.enc_00_lin_b f4 [128]
000000 65 d7 b4 3d b0 c6 82 bc 42 82 97 bd b6 f2 9d bd
       0.08830146 -0.015963882 -0.073978916 -0.07712309
000010 ed 25 eb bd 2a ee 84 3d b6 29 bd bc f2 7f e4 bd
       -0.11481843 0.06490739 -0.023091178 -0.11157216
000020 b0 1f b9 bd cf ea 1a be 77 fe ce bd ad 13 d4 bd
       -0.09039247 -0.15128635 -0.10107129 -0.10355315
000030 8c 18 0b be 76 a5 0c be 02 aa d4 bd 04 3a 73 3c
       -0.13583583 -0.13734993 -0.10383989 0.014845375
000040 28 bd e6 bd e1 f7 8e 3c ea 3c 27 3c 05 e3 2c bd
       -0.112665474 0.017452182 0.010207394 -0.04220869
000050 27 62 06 be d4 a7 2f bd aa 9e da bd 3c 9a 24 be
       -0.1312338 -0.042884663 -0.10674794 -0.1607446
000060 2d f4 b8 bd 12 45 04 be f2 12 be bd ba 9c ae bc
       -0.09030948 -0.12916973 -0.09280957 -0.021314967
000070 7b 14 0e 3e fd 2a a0 bd 3c 30 04 be 64 df d3 bd
       0.13875 -0.07820699 -0.12909025 -0.10345343
000080 8c 8a eb bd bb 20 98 3d da 33 c4 bd ed 35 17 be
       -0.11501035 0.07428118 -0.095802024 -0.14766665
000090 8c ca 08 be c1 31 e9 bd 3e f3 41 be b1 a0 18 be
       -0.13358516 -0.11386443 -0.18940446 -0.14905049
0000a0 d8 af d1 bd 74 2b ee bd 2a 3f 8c bd 93 84 a8 bd
       -0.10238618 -0.11629382 -0.06847985 -0.082284115
0000b0 68 5e f4 bd be 2f c9 bd cf b4 f8 bd 1e 84 02 be
       -0.11932069 -0.09823559 -0.121438615 -0.12745711
0000c0 b0 07 b3 bd a3 8f 9b bd 36 e6 06 be 85 4c f4 bd
       -0.08741701 -0.07595756 -0.13173756 -0.119286574
0000d0 c3 06 05 be c9 69 0a bd 10 d3 3d be a8 a6 f7 bd
       -0.1299086 -0.03379229 -0.18537545 -0.12092334
0000e0 11 3e 06 be 18 38 fe bd a1 bb e7 bd 7b cf b7 bd
       -0.13109614 -0.12413043 -0.11315084 -0.08975121
0000f0 09 d7 df bd 5c 4d d9 bd da 4c cd bd e6 72 a1 3d
       -0.109296866 -0.10610458 -0.10024424 0.07883243
000100 ad 41 b7 bd eb bd 42 bd c6 45 3b bd a5 9e db bd
       -0.089480735 -0.0475444 -0.045720838 -0.107236184
000110 1e 61 df bd 4e 67 bb bd 27 4b c0 bd cb 7c aa bd
       -0.109071955 -0.09150563 -0.09389334 -0.083245836
000120 72 d5 ae bd 7f 06 11 bd c0 e1 db bd 6b 14 17 3e
       -0.08536805 -0.035406586 -0.10736418 0.14753883
000130 b9 27 a7 bd f7 bc d1 bd 9f 48 c0 bd ba 68 ba bd
       -0.08161873 -0.1024112 -0.093888514 -0.09102006
000140 6d 6e e7 bd d1 64 06 be 09 a1 b7 bd c8 4d 9a bd
       -0.11300359 -0.13124396 -0.08966262 -0.07534367
000150 51 8d 19 be bd e6 1f bd 8a 5a ff bd 46 e9 d4 bd
       -0.14995314 -0.03903841 -0.12468441 -0.10396056
000160 da 3a 00 be 82 9f c9 bd f8 46 e1 bd 1c c7 a6 bd
       -0.1252245 -0.09844877 -0.10999864 -0.08143446
000170 1c ae f4 3d 92 18 de bc 80 ec ce 3d 82 90 ee bd
       0.11947271 -0.027111325 0.101037025 -0.116486564
000180 a9 a7 2d be 61 d3 0d be ce c1 17 bd db e7 42 bd
       -0.16958489 -0.13850166 -0.03705006 -0.047584396
000190 35 23 8e 3a 19 f1 86 bd 07 09 f5 bd 30 48 07 bd
       0.0010844233 -0.065889545 -0.119646125 -0.033027828
0001a0 71 b8 23 be 0e cb 45 be 75 03 0c be 5a fd 04 be
       -0.15988328 -0.1931574 -0.13673194 -0.12987271
0001b0 63 38 f8 bd bf 2f 1e be b9 61 df bd 1e c1 ec bd
       -0.1212013 -0.15447901 -0.10907311 -0.11560272
0001c0 26 bc e4 bd 8c 64 fe bd ef 0b 1e bd 9a 32 dd bd
       -0.11168699 -0.124215215 -0.0385856 -0.10800667
0001d0 25 62 c5 bd 78 84 fc bd 82 38 d6 bd 6d 0a f5 bd
       -0.0963786 -0.12329954 -0.10459997 -0.11964879
0001e0 f9 a8 c5 bd e1 77 c8 bd 40 f8 cc bd 9f 11 12 be
       -0.096513696 -0.0978849 -0.100082874 -0.14264534
0001f0 9f 98 1e bd e6 6c 0d bd 2b 53 12 be 1b 73 b4 bd
       -0.03871977 -0.03452768 -0.14289539 -0.08811017

cvae_parameters.enc_00_lin_w f4 [128, 163]
000000 34 c8 7b bd 2f 11 46 3d ef f3 1b bd 1a ff 80 3d
       -0.061470225 0.04835623 -0.03807443 0.06298657
000010 e5 23 fb 3c 29 17 e2 bb 56 19 62 bd 6f 35 8d 3d
       0.030656764 -0.0068997336 -0.055199943 0.06894957
000020 c6 7a 3c 3c ce 64 86 3d 89 d8 d1 bb dd 1d 0f 3d
       0.011503881 0.06562196 -0.006403987 0.03494059
000030 11 9f 84 3c 34 95 b2 3d a0 98 6d 3d 01 5d 2d bc
       0.01618913 0.087198645 0.058006883 -0.010581256
000040 c9 7a fc bb 4b 7e 2a bc 56 55 26 3d 48 ff 95 bd
       -0.007705067 -0.010406087 0.040608726 -0.07324082
000050 48 fa 74 3d 23 0f 0c bc 06 00 ad 3d ea dc 04 bc
       0.059809 -0.008548531 0.0844727 -0.008109311
000060 5e aa aa bc f9 17 c2 bc 2f 27 a7 3d cb 27 3b be
       -0.02083319 -0.023693072 0.081617706 -0.18276899
000070 7c 33 f7 3b 3a f5 60 3d 73 b2 59 3d 9c a0 a1 bd
       0.007543979 0.054921366 0.053148698 -0.07891962
000080 ae f7 94 3d 5c e2 2c bd 61 c0 ba bb b7 92 0d bd
       0.07273804 -0.04220806 -0.005699203 -0.034563746
000090 f8 52 ea 3c 02 5a cd 3d 3d 91 31 bd 8c 5b 3a 3c
       0.028604016 0.10026933 -0.0433514 0.011374366
0000a0 62 e3 12 3e 7e c5 ac bc d2 d9 ae bd 02 2a 8f bc
       0.14344552 -0.021090265 -0.0853764 -0.017476086
0000b0 48 89 b1 3d 13 49 5f 3d 8a 8c 5c bd 7e 28 a8 3d
       0.086687624 0.05451305 -0.053844966 0.08210848
0000c0 f0 a5 97 3d 99 2e 82 3c 96 f2 c2 bd 1b 50 4e bd
       0.07404697 0.01589136 -0.09518926 -0.050369363
0000d0 37 12 2b 3d 3d 13 a2 ba d7 1f a2 bb 36 69 74 3c
       0.041765418 -0.0012365353 -0.0049476433 0.014917662
0000e0 e0 63 ce bc 45 5a 83 3d c5 97 8b bc 9a ec 0f 3d
       -0.025194108 0.06413702 -0.017040143 0.03513775
0000f0 f1 dd 01 bc 88 1b 9c 3a e3 d3 81 3c 23 6c 85 3c
       -0.00792645 0.001191006 0.015848106 0.016286915
000100 fc a7 75 bc 07 14 1f bd d2 50 05 3e 15 26 b7 bc
       -0.014993664 -0.03883746 0.13019112 -0.022357026
000110 98 0c 72 bd b8 df ac 3d b7 09 12 bd a0 62 9b bc
       -0.05909404 0.084411085 -0.035653796 -0.018967927
000120 12 a1 ee bc 29 21 04 be 26 0a 02 3e b9 02 ce bd
       -0.029129539 -0.12903275 0.12699184 -0.10059113
000130 f0 27 05 3d da f7 83 3b 36 56 09 bd 72 70 b5 3d
       0.03250879 0.004027349 -0.033529483 0.08859338
000140 a0 e3 02 3c e4 97 c7 bc b7 49 0a 3d b0 04 07 be
       0.00798884 -0.02436442 0.033761706 -0.13185382
000150 cd 77 3a 3d 81 60 3a bc b6 ca 7c bd ae bc dc 3d
       0.045524407 -0.011375547 -0.061716758 0.10778175
000160 33 cf be 3d 10 0a aa bc 42 66 8d bc c8 8b fb bd
       0.09316864 -0.020756751 -0.017260674 -0.122825205
000170 2c 20 bd 3c 22 ba d4 3c 23 c1 52 bd ef 4b ad 3d
       0.02308663 0.025967661 -0.05145372 0.08461749
000180 12 22 24 3e c3 e5 21 3b 96 60 94 3d fd cb c1 bd
       0.16028622 0.00247036 0.07244985 -0.09462736
000190 0c c4 09 be 70 b1 3a bd 3c ea 04 bd 66 9a 5d bc
       -0.13453692 -0.045579374 -0.032449946 -0.013525581
0001a0 99 16 2c 3d 01 b4 9a 3d 98 b9 9a 3c 01 6f b7 bc
       0.04201374 0.07553864 0.018887326 -0.022391798
0001b0 ca 19 13 bd af 94 03 bd 02 d0 8a bd 66 cf 59 bd
       -0.035913266 -0.032124218 -0.067779556 -0.053176306
0001c0 a0 5d c5 3c c7 09 d6 bc 4b e0 1a bd cf b3 f3 3c
       0.024092495 -0.02612771 -0.03781156 0.029748825
0001d0 1d 0a 99 bd ad 4d 04 3d e2 23 1b 3c 36 41 08 bd
       -0.07472632 0.03230064 0.009469004 -0.033265315
0001e0 09 e9 78 3d de 04 b0 bc a9 5f fe bc 54 40 03 3d
       0.060769115 -0.021486696 -0.031051474 0.03204377
0001f0 40 df f5 bd 3e 91 bf 3b 97 b9 0e 3d 3c e5 45 3d
       -0.12005472 0.0058461716 0.03484496 0.048314318
000200 0c 3c 79 3d 77 af a3 3c 19 92 68 bd 82 a6 96 3c
       0.06084828 0.01998113 -0.056779955 0.018389944
000210 b7 96 46 bc 13 28 99 3c 10 4d 20 3d 9c 39 92 bb
       -0.012120894 0.018695867 0.039135993 -0.004462434
000220 83 83 9a 3d 0b 93 a1 3b 7a 3e 1e bd 20 5f 1d 3c
       0.07544615 0.004930859 -0.0386338 0.009605199
000230 39 e1 8e 3d 24 4d 6d 3d e5 56 57 bc 25 85 ba 3c
       0.069765516 0.057934895 -0.013143276 0.022768566
000240 d9 1b fb 3c 04 03 a6 3b dd e7 fa bc 7a 13 ce 3d
       0.030652927 0.0050662775 -0.03062814 0.100623086
000250 1b 93 2e 3d 39 78 27 bc 0a b7 0c bd 06 14 92 3d
       0.04262076 -0.010221534 -0.034354247 0.071327254
000260 16 bc 43 bd 02 02 22 3d e0 63 55 bd 6a 2b 8a 3d
       -0.047786795 0.039552696 -0.0520972 0.06746562
000270 8d 19 c1 3a 07 13 51 bc 18 00 4b bd d9 4c c4 3d
       0.0014732346 -0.012760884 -0.049560636 0.0958497
000280 07 75 1e 3c dc 8c a0 3d fe a8 45 3b ad d9 62 bb
       0.009671456 0.07839367 0.0030160542 -0.0034614608
000290 a9 e8 7a 3c 1d 24 87 3b 3c da 4b 3c 63 96 12 3d
       0.01531426 0.004124178 0.012442168 0.03578795
0002a0 d8 5d a8 bc cb 51 1c 3b 1f 29 a4 3c bf f6 c6 3d
       -0.02055256 0.0023852463 0.02003914 0.09715032
0002b0 b6 19 50 3c f3 e8 63 3d 04 98 89 bc 1c 7f c2 3c
       0.012701442 0.05564208 -0.01679612 0.023742251
0002c0 10 76 c7 3c 8f f2 b0 3c 42 73 0f bd 71 20 44 3d
       0.024348289 0.021600036 -0.035022028 0.0478825
0002d0 04 9a 0d 3c 43 5b 28 3d d0 47 93 ba 6f e3 9a 3d
       0.008642677 0.04110266 -0.0011236612 0.07562911
0002e0 81 12 27 bc c5 60 aa 3d 5a 4e 02 3d dd af 95 3d
       -0.010197283 0.083192386 0.031813003 0.07308934
0002f0 78 47 38 3d e0 44 6c 3d 1f 2b 9f bd 44 88 52 bd
       0.044990033 0.05768287 -0.077718966 -0.051399484
000300 21 b7 7b 3d fd 52 14 3d 87 a4 0d bd e1 4e 9f 3d
       0.061453942 0.036211956 -0.034580734 0.07778717
000310 03 54 4d 3c 11 da 2d 3d 10 51 1c 3d 64 5f cf bc
       0.012532237 0.042444292 0.038163245 -0.02531404
000320 a6 35 96 3d 1a f9 f0 bd c5 a4 13 3c 62 06 87 3d
       0.073344514 -0.11766262 0.009011452 0.06593014
000330 66 47 07 3d 42 6b b4 3c f7 98 55 bc ec 2c 21 3d
       0.033027075 0.0220238 -0.013036958 0.03934948
000340 e9 df 92 3c b8 81 b0 bd 4f 6d 48 3d 25 9e 1c b9
       0.017929034 -0.08618492 0.04893237 -0.00014936233
000350 d9 43 44 3d 1b c0 0c 3d 8f 42 b9 bd 65 6d 52 3d
       0.047916267 0.034362894 -0.09045898 0.051373858
000360 0d 90 47 3c 62 5a 2c bc f4 ac 07 bd 08 4c 31 3d
       0.0121803405 -0.010519596 -0.033123925 0.0432854
000370 11 81 8b 3d e0 4c dc 3c b2 41 28 bd bc b6 50 bc
       0.06811727 0.026892126 -0.041078277 -0.01273888
000380 68 02 a6 bc 98 23 d8 3d 12 29 8a bc 9f fe 92 3d
       -0.02026482 0.10553664 -0.016865287 0.07177471
000390 41 46 95 bc 5c 6b 14 bd d3 dc 59 bc c5 10 0c be
       -0.018221976 -0.0362352 -0.0132972775 -0.13678272
0003a0 fb ef de 3a a1 8a 49 3d 45 07 9a bc 15 64 b4 3d
       0.0017008776 0.049204472 -0.018802295 0.08808152
0003b0 e4 c6 73 bd 3b 35 20 3c 78 7b db bd c4 0e 27 bd
       -0.05951585 0.009778316 -0.10716909 -0.040785566
0003c0 a4 a3 01 bd 07 2e c5 bc 04 ab 3a 3d 69 f3 f8 3c
       -0.0316502 -0.0240698 0.04557325 0.030389505
0003d0 ee 5c be bb 93 99 9f 3d 9c 96 d1 bd 97 c0 93 bd
       -0.005809418 0.07792964 -0.102338046 -0.07214468
0003e0 85 28 6e bd ac 04 f4 bd ad 4b a5 3c 67 a7 37 3d
       -0.05814411 -0.119149536 0.020177687 0.04483738
0003f0 0e 94 b8 bd 0b f9 6c 3d 3d 48 8c bd 7e 5e d6 bd
       -0.09012614 0.057854693 -0.06849716 -0.10467242

cvae_parameters.enc_01_lin_b f4 [128]
000000 c3 ad 21 3e 5f 84 24 bd bc 78 d3 bc 2b 56 0b bc
       0.15788941 -0.0401653 -0.025814407 -0.008504431
000010 99 a6 0f bd 29 79 05 bc bf 8a 9e bc 4c 1e 74 bd
       -0.03507099 -0.008146563 -0.019353269 -0.059599206
000020 95 03 9c bc dc 1f 6a bc 84 ed 25 bd 81 0b 32 3b
       -0.019044677 -0.014289822 -0.040509716 0.0027167501
000030 e6 f1 b9 bd ae 9d 67 bd 8c cc e6 bc 6c d7 5d bd
       -0.090793416 -0.05654686 -0.028173707 -0.05416052
000040 ef 5d e4 bb de 4a 68 bb f1 6c a8 bc 1c e2 7c bc
       -0.0069692056 -0.0035445015 -0.02055976 -0.015434768
000050 9c 05 9c bc 96 bd 4f bd de 8e 5f bd 86 26 fe 3b
       -0.019045644 -0.050717913 -0.05457961 0.007756057
000060 97 8f 87 bc 23 66 5b bc d6 6d 8b bc e5 b6 7f bd
       -0.016547961 -0.0133910505 -0.017020147 -0.06243028
000070 5c 90 ce bd b2 cd 87 bc e9 33 78 bd d4 de 97 bc
       -0.10086128 -0.016577575 -0.06059638 -0.01853887
000080 39 4b 9f bd 93 ef 62 bd 1f bf ac bd 89 6c c5 3d
       -0.077780195 -0.055404257 -0.08434891 0.09639842
000090 c1 05 ea bc 6b ca 3c bd 0e a5 27 3a f4 ba 1d 3e
       -0.028567197 -0.04609148 0.00063951395 0.15403348
0000a0 41 85 3c bc db 6b 03 bd 06 2b 60 bd 73 d0 24 3e
       -0.01150638 -0.03208528 -0.05472853 0.16095142
0000b0 68 76 05 3a d6 e5 57 bc b2 b4 80 bd fc 26 8e bd
       0.0005091191 -0.013177356 -0.06284465 -0.069410294
0000c0 4c 95 ba bd fe f6 4b bc cf 00 07 3e 87 40 96 bd
       -0.09110507 -0.012449024 0.13183902 -0.07336526
0000d0 c5 9b 83 bb 90 91 6c bd 6a d8 db bd e2 18 9a bc
       -0.004016372 -0.057756007 -0.10734637 -0.018810693
0000e0 7c 00 64 bb b6 de 1e bd 10 a1 09 bb ed 9f 56 bc
       -0.0034790328 -0.038786612 -0.0021000542 -0.013099653
0000f0 a0 be 7e bd 90 1b b2 bc 92 41 2a bd 43 f1 cd 3d
       -0.062193513 -0.021741658 -0.04156644 0.10055783
000100 da 02 43 bd 8f 11 83 bd 46 a0 03 3e 99 12 23 3e
       -0.04761014 -0.063998334 0.12854108 0.15925063
000110 d5 50 7d bd 4f 0f a7 bc cf b9 99 bd fa bb db bd
       -0.061844666 -0.020393042 -0.07506143 -0.10729213
000120 04 02 fa bc fd 74 b3 bd a6 d7 49 bd 21 c4 89 bd
       -0.03051854 -0.08762548 -0.049277924 -0.06726862
000130 a2 59 b8 bc 7f a9 e8 bc f7 2b 5a bd f6 fa 49 bd
       -0.022503678 -0.028401135 -0.053264584 -0.0493116
000140 62 3a 6a bd f4 ad ba bb 91 53 f5 bc 34 89 e5 3b
       -0.057184584 -0.0056970064 -0.029947074 0.0070048813
000150 77 1d 5d bd 61 b1 e2 bd 01 ea 7f bc 66 0e 3c bd
       -0.053983178 -0.110689886 -0.015619756 -0.04591217
000160 a4 0a 5d bc 8c a0 07 3e fd cc ae bc df 07 a9 bc
       -0.013491306 0.13244838 -0.02133798 -0.020633636
000170 88 cb a6 bd 6a 72 0d bc b9 f2 8f bc 38 ee 20 3e
       -0.08144289 -0.0086332355 -0.017571794 0.15715873
000180 fe 21 97 bd db c1 7f bd e0 00 b2 bd 06 2a 07 3c
       -0.0737953 -0.062440734 -0.08691573 0.008249765
000190 03 49 30 bd cb 97 f8 bc e9 2e cb bd f8 30 36 bd
       -0.04303838 -0.030345818 -0.09921057 -0.044480294
0001a0 69 62 96 bd 2f 02 a9 bc 2f ef ef bc 3c 8a 0a 3e
       -0.07342989 -0.020630924 -0.029288856 0.13529295
0001b0 58 b5 91 bd 54 1f d1 bc 4c 02 c5 bc dc f7 af bd
       -0.07114667 -0.025527634 -0.024048947 -0.08592197
0001c0 e1 7d 08 bc 84 3f c4 bd 48 d8 30 bd f3 57 cc ba
       -0.008330793 -0.09582427 -0.043175012 -0.0015590176
0001d0 d1 23 25 3e 74 d2 b6 bd d1 da b8 bc b3 8b 94 bd
       0.16126944 -0.089268595 -0.022565277 -0.07253208
0001e0 d2 1b 57 bd 78 ff e5 bc 71 a8 84 bb 51 8f 30 bd
       -0.052516766 -0.028075919 -0.0040484 -0.043105427
0001f0 90 14 96 bc 4e 1b cd bd 61 a0 b2 bd f1 5e e5 bc
       -0.018320352 -0.100149736 -0.08721996 -0.027999373

cvae_parameters.enc_01_lin_w f4 [128, 128]
000000 f1 43 d1 3b 8e 0b a5 3c dc 4f 7e 3c f0 db 5a 3c
       0.006386273 0.020147111 0.01552197 0.013358101
000010 56 9d 89 bc 28 5a 49 3c 08 91 a8 3b 71 a6 4e 3d
       -0.016798656 0.012289561 0.005144242 0.0504517
000020 62 8b 1c 3d 6c e2 c1 3b c2 57 9d bb a4 0e 31 3c
       0.038218863 0.005916884 -0.0048017213 0.010806713
000030 26 47 ba ba 2a 59 8b 3c 59 ed 7e 3c 2e 5e 16 bb
       -0.0014211878 0.01701029 0.015559518 -0.002294432
000040 8c d4 dd 3b 70 d1 37 3b 8f b1 af ba 6a d5 d2 3b
       0.0067697223 0.0028048418 -0.0013404357 0.0064341323
000050 35 64 20 bb 9b 4b c5 ba ca 06 27 bc f1 a9 77 3c
       -0.002447379 -0.0015052439 -0.01019449 0.015116201
000060 b4 ef ab 3b 89 6a 92 3b 80 0f 30 3c 1a 1e a6 3b
       0.0052470807 0.0044682664 0.010745883 0.0050695064
000070 9d e0 80 3c 3f 94 fb bb b6 51 c3 bb c3 fe 3f 3c
       0.015732104 -0.0076775844 -0.0059606684 0.011718455
000080 d4 cd 47 3c 3a 55 a5 bc 92 52 af 3c 97 23 0e 3d
       0.012195069 -0.02018224 0.021401677 0.03470191
000090 f1 ac 4a bc 16 59 5e 3c 16 de da 3c f6 17 9e 3c
       -0.012370334 0.013571044 0.026717227 0.019298535
0000a0 01 49 86 bc aa 36 9e 3c c8 41 3e 3c cd 54 1d bc
       -0.016392233 0.019313175 0.011612363 -0.009602738
0000b0 81 2e b0 bb 93 53 00 3c 98 aa 3f ba 49 de 6b 3c
       -0.0053766374 0.007832426 -0.0007311492 0.014396259
0000c0 87 58 8b 3b 81 d8 2d bc b1 a1 b7 bc f2 5b 0f bb
       0.0042524966 -0.010610701 -0.022415968 -0.0021874872
0000d0 e2 10 c3 3b 6d 80 1a 3c 29 30 2e 3c d8 42 4a bc
       0.0059529403 0.009430033 0.010631599 -0.012345038
0000e0 da 00 b9 3c 77 ea fc 3a 9f 94 29 bb 4f 05 dd 3b
       0.022583414 0.001929595 -0.0025875939 0.0067450176
0000f0 e0 e1 45 3c 0e cb 57 3a bc 19 3d 3c 47 0f 58 3c
       0.012077779 0.00082318566 0.01154178 0.013187236
000100 6d 22 ec 3c d6 fc 10 bc 91 0e 49 3c a3 36 4d 3b
       0.02882501 -0.008849343 0.012271539 0.0031313084
000110 94 01 f4 3b ff b9 13 bb 79 5f ad 3b 15 7f 5a bc
       0.007446477 -0.0022541282 0.0052909222 -0.013335963
000120 2a f4 00 bc f7 e5 8a 3c 29 45 9b bb 68 2c d6 3c
       -0.007870713 0.016955359 -0.004738469 0.026144221
000130 4e 20 34 bc 7c 16 6d 3c f8 81 81 3b 19 f1 41 3c
       -0.01099403 0.014470693 0.003952261 0.011837267
000140 6a c3 ab 38 91 56 0a bc 35 aa e7 3b c3 ce 1a 3c
       8.190314e-05 -0.008443491 0.007069851 0.00944871
000150 8d 2f c9 38 2d 1b ff 3a ad af 1d 3c 54 e0 9e bb
       9.593284e-05 0.0019463055 0.009624404 -0.0048485193
000160 17 37 05 bc ed 35 1d 3c da c2 23 3c d1 91 6a 3c
       -0.00813081 0.009595376 0.009995187 0.014316992
000170 c5 42 93 3c 94 05 4b 3c 9f 85 ac 3c c5 8c 4c 3c
       0.017976174 0.012391467 0.02105981 0.012484734
000180 00 8c 81 3c a3 c0 00 3d 52 ee c9 bb 41 e4 6f bc
       0.015813828 0.031433713 -0.006162443 -0.014641822
000190 15 da 88 3c 9c bf 83 3c af 94 b5 bc 12 b1 e1 bb
       0.016705552 0.016082577 -0.022165624 -0.0068875635
0001a0 12 d4 83 3c 37 40 cd 3b c2 64 91 3c c4 aa fd bc
       0.016092334 0.0062637585 0.01774824 -0.030965216
0001b0 68 3b 90 3c 86 97 fd 3b d5 a9 b3 3b ee ca 57 3c
       0.017606452 0.0077390103 0.005482892 0.013170941
0001c0 cd 4d 93 bc 32 1c 94 bc 53 4b e8 3a a3 1f e5 3c
       -0.017981434 -0.01807985 0.0017722644 0.027969187
0001d0 17 90 09 3b 20 b0 19 3b 52 8b 29 bb 08 76 c5 3c
       0.0020990425 0.0023450926 -0.0025870395 0.024104133
0001e0 a6 49 12 ba 5d 7d 96 bc 05 3e 20 3c a5 ff 68 3b
       -0.00055804325 -0.018370325 0.009780412 0.0035552767
0001f0 f3 6a 89 3c 25 60 b6 3c 46 7c c6 3c 97 12 95 3c
       0.01677463 0.022262642 0.02422918 0.01819734
000200 21 2a ae 3c 47 7d a7 bc 93 76 7d bc f6 31 5a 3c
       0.021260323 -0.02044548 -0.015470165 0.013317576
000210 e6 14 08 bc 62 57 fc bb 17 e9 5d bc 6d bc 88 bd
       -0.008305764 -0.0077008465 -0.0135443425 -0.06676564
000220 0e b1 63 3c 39 c6 b7 bc b7 a9 a7 bc d2 53 00 3d
       0.013897194 -0.022433387 -0.020466669 0.031329937
000230 a9 d9 14 bc 26 4f 04 3d 35 12 73 bd c8 d7 58 bc
       -0.009085097 0.032302044 -0.059343535 -0.01323504
000240 ea 3c 0b 3c f0 65 86 bd a5 16 5d bd f2 44 0b 3d
       0.00849841 -0.06562412 -0.053976674 0.0340013
000250 cf f7 84 3c c3 21 c8 3b 0b 50 6f 3b 4e 79 44 bc
       0.016231446 0.0061075403 0.0036516215 -0.011991812
000260 53 f9 8c bc e5 5e dc 3c 30 26 1a bb 6c ca 9f 3c
       -0.01720873 0.026900718 -0.0023521297 0.019505702
000270 56 eb 88 bc 98 7b b1 bb a8 ca 1a 3d 4a a4 98 3c
       -0.01671378 -0.005416345 0.037790924 0.018633027
000280 41 46 b3 bc 6d 6c 49 bd 10 44 bc ba 3f 04 96 3b
       -0.021884086 -0.04917567 -0.0014363546 0.004578143
000290 e0 f4 5d 3d 9b 8a 87 3c 9b 22 69 3c 5f c6 1c bd
       0.05418861 0.016545584 0.014229442 -0.03827512
0002a0 3e d0 88 3c ee 7f ba bc ad 3b 57 3c 05 23 1a 3b
       0.01670086 -0.02276608 0.013136786 0.0023519408
0002b0 73 1c cd 3c 0b 47 42 3b 09 bc 71 bd 0d 28 20 bb
       0.02503798 0.0029644396 -0.059017215 -0.0024437935
0002c0 02 d6 14 bd 05 8a 1b 3c f2 3c 06 3d 2a ea 51 bc
       -0.036336906 0.009493356 0.032772966 -0.012812177
0002d0 db 0b 96 3c 69 eb d1 bb 7a f0 3a bc 77 8d 86 3c
       0.0183162 -0.006406237 -0.011409873 0.016424878
0002e0 23 73 20 bb 51 e5 31 bc 99 05 90 3b d5 d0 16 3d
       -0.002448269 -0.010857896 0.0043951985 0.03682025
0002f0 a0 f8 c9 3b be f7 7e 3c be 8f 81 bc 20 35 85 bd
       0.0061636716 0.015561996 -0.015815612 -0.065042734
000300 a8 5f ea 3c 67 52 01 bd 26 d8 05 bd 06 55 87 3d
       0.028610066 -0.031572726 -0.03267684 0.06608014
000310 9f 96 92 3c 51 26 a8 3c ea 53 4c bc 3d 08 12 bc
       0.017894087 0.020526083 -0.012471179 -0.008913097
000320 01 e8 96 3c 5a c1 a6 bb d4 f1 58 bc 2e ec 51 bd
       0.018421175 -0.0050889673 -0.01324125 -0.05125063
000330 7e bc 3f 3c 03 f6 61 bc 0c 99 02 bd 3f 40 d6 3c
       0.011702655 -0.013791564 -0.031884238 0.026153682
000340 ca 84 ea bb da 7e ed 3b 01 ed 0a bd 63 c0 bb bc
       -0.007156943 0.007247788 -0.03391743 -0.022918886
000350 c2 89 24 bd a6 37 60 bc e8 99 b9 bc bc 6b 96 bc
       -0.04017044 -0.013685143 -0.022656396 -0.018361919
000360 3f c2 5d 3c 71 ec b8 3c 32 1b 9d 3c d5 3c 24 3c
       0.013535081 0.022573682 0.019178007 0.010024269
000370 1d a4 83 bd 42 b1 02 bc 46 ad ed ba 55 14 96 3c
       -0.064277865 -0.007976832 -0.0018133305 0.018320242
000380 23 25 01 3c 56 68 57 3c 2c 3f 4d bc 66 c8 9a bc
       0.007882389 0.013147434 -0.012527268 -0.018894386
000390 b9 dd d4 3c 5c 56 a8 bc 2b 4c d6 bb b7 54 84 bd
       0.025984632 -0.020548992 -0.0065398416 -0.064614706
0003a0 58 fa 12 bc d0 0c 18 3d f6 64 27 3b 56 3d 6c 3c
       -0.008970819 0.037121594 0.0025542355 0.0144189205
0003b0 bb cc 8c bc e2 6d 3f 3d b5 94 ed bc b9 ab 88 bb
       -0.017187467 0.04673565 -0.029001573 -0.0041708616
0003c0 89 79 b8 3a 78 40 16 3d 63 24 05 bd 80 5f 59 bc
       0.0014074306 0.036682576 -0.032505404 -0.013267398
0003d0 fe 42 1f bc 51 cb cb 3b 19 0d fa 3c e1 66 ef 3c
       -0.009720562 0.0062193056 0.030523824 0.029223861
0003e0 7d 25 40 3d f0 3c cb 3b 85 03 8e 3c fe 17 e0 3c
       0.04691075 0.0062023327 0.017335663 0.02735519
0003f0 64 15 a0 3b 37 bd 27 3c 1a 20 a0 3b 77 a7 29 3c
       0.0048853625 0.010237983 0.0048866393 0.010354868

cvae_parameters.out_lin_b f4 [160]
000000 a3 e7 9c be 96 37 af 3e ce 6e 83 be 1a 5d f3 3e
       -0.30645475 0.34222096 -0.25670475 0.47531968
000010 be a0 60 bd 77 a3 86 3d 20 8a 9a be 04 34 1e 3f
       -0.054840796 0.06574147 -0.30183506 0.6179812
000020 a0 74 a7 be cc e2 7d 3e d2 33 33 be 13 18 d4 3e
       -0.32706165 0.24793547 -0.17500237 0.41424617
000030 ed db d8 3c e5 4e 7c 3d b9 33 35 be 2b 4c 0f 3f
       0.026472056 0.061598677 -0.17695512 0.559756
000040 d2 dd 83 be df 01 32 3e 3f 89 aa bd b7 78 9f 3e
       -0.25755173 0.17383526 -0.08326959 0.31146786
000050 2f af 0b 3e 70 04 8e 3d c8 6a c7 3a e4 a4 a8 3e
       0.13641046 0.0693444 0.0015214318 0.32938302
000060 c6 9a 21 be 4b b0 80 3d 64 6c d5 bd 29 d5 31 3e
       -0.15781698 0.06283625 -0.104210645 0.1736647
000070 69 e2 20 bd 10 6f 0b 3d 65 c7 94 3c a8 ea 89 3e
       -0.03927842 0.034041464 0.018161485 0.2693684
000080 3a 77 25 be be 9d 88 3d 39 47 93 bd ba a8 60 3d
       -0.16158763 0.06670712 -0.07191319 0.05484841
000090 37 0f cd bd 6b 94 a0 bd d2 1e e2 bd 75 e7 9b 3e
       -0.100126676 -0.078408085 -0.11041035 0.30450025
0000a0 26 fa 38 be d5 82 22 3e 3e 0f 78 bd 01 65 e9 3d
       -0.18064174 0.15870221 -0.06056141 0.11396218
0000b0 d3 60 a5 bd a2 0a 1c bd 71 1e f4 bd 92 47 9e 3e
       -0.080751084 -0.038096078 -0.11919869 0.3091398
0000c0 62 81 64 be 6f 72 96 3e 26 e1 c7 bd 93 64 20 3e
       -0.2231498 0.2938418 -0.097597405 0.15663366
0000d0 54 c0 68 bd 15 9e 33 bd 64 9d 35 be cc 4a 8e 3e
       -0.056824043 -0.04385193 -0.17735821 0.2779144
0000e0 87 34 7b be 10 64 96 3e c5 9b d7 bd cf f6 14 3e
       -0.24531756 0.29373217 -0.105277576 0.14547275
0000f0 8c 7a 42 bd ba 5d 29 bc 34 dd bb bd bf 23 46 3e
       -0.04748015 -0.010337288 -0.091730505 0.19349574
000100 2d 41 03 be 57 37 9a 3e 7f be b4 bd d9 04 3e 3e
       -0.12817831 0.30120346 -0.08825397 0.18556537
000110 b9 51 8b 3d 15 07 82 bc 53 9d 55 bc af e4 14 3e
       0.06802697 -0.015872518 -0.013037997 0.14540361
000120 27 b7 e9 bc 2c b3 8d 3e d1 ae 20 bd 7e e2 57 3e
       -0.028529717 0.2767576 -0.039229218 0.21082494
000130 0d ab f3 bb 3e 81 1b bd de cc 14 bd 3d 31 36 3e
       -0.0074361623 -0.03796505 -0.03632819 0.1779222
000140 a8 1e bc bc c1 81 8a 3e e9 b3 4c bd 60 d7 80 3e
       -0.022963837 0.2705212 -0.049976263 0.25164318
000150 fc 88 b1 bc 7e ed 0a 3d 35 3f fb bd 90 1b 8b 3e
       -0.021671765 0.033917896 -0.12267915 0.27169466
000160 a3 08 e1 bd 3b 13 73 3e 7b 4b 90 bc 17 ee 87 3e
       -0.109879754 0.23737805 -0.017614117 0.26548836
000170 c0 21 ad 3d 8c db 68 3d b8 5b 27 be 6f e2 7f 3e
       0.08453703 0.05685 -0.16343582 0.24988721
000180 4b 0b 90 be bf af e7 3d a2 c7 d3 bd ac 40 38 3e
       -0.28133616 0.11312818 -0.10340811 0.1799342
000190 f8 2a 09 bd ff ff 7d 3d 07 03 37 be ce 8e 86 3e
       -0.033488244 0.062011715 -0.17872249 0.26280826
0001a0 ea c4 9a be 67 da 09 3d bc 56 18 be c0 98 c2 3d
       -0.30228359 0.03365555 -0.14876837 0.09501791
0001b0 8a 26 1f be 37 31 82 3c 78 ce 8d bd 0c ad 80 3e
       -0.15542045 0.015892608 -0.069241464 0.25132024
0001c0 44 31 28 be 5a b1 88 3e 06 53 9a be d8 c9 a5 3d
       -0.16425043 0.26697809 -0.30141467 0.08095139
0001d0 a7 c9 d9 bd 1e 02 07 3e 16 74 1a bd 5c 3c 2e 3e
       -0.10634165 0.13184401 -0.037708364 0.17015213
0001e0 66 d6 b5 bd 38 d4 93 3e 4f 0a 8d be 25 61 42 3e
       -0.08878784 0.28872848 -0.27546927 0.1898237
0001f0 33 c7 0e bd 78 7e 38 3e 14 2f 4b be 56 dd 21 3e
       -0.03485794 0.18016994 -0.19842178 0.15807089
000200 e3 42 8e be 66 c5 44 3e ed d5 48 be 51 9e ac 3e
       -0.27785406 0.19215927 -0.19612856 0.33714536
000210 42 68 7d 3d 1d 30 02 3e dc 84 ab be 96 09 98 3e
       0.061867006 0.12713666 -0.334998 0.29694813
000220 6f 23 6a be b3 97 c2 3d fa 26 d1 bd 9c af a6 3e
       -0.2286508 0.095015906 -0.10212512 0.32555854
000230 48 77 97 3c 3d 8a 04 3c 48 1d 5a be 15 90 d8 3e
       0.018489495 0.008089599 -0.21300232 0.42297426
000240 59 4b 84 be 97 6c 73 3e 35 0e 49 be fd db cc 3e
       -0.25838736 0.23771892 -0.19634326 0.40011588
000250 07 e4 0e bd 70 93 96 3c f2 38 67 be 6f 47 15 3f
       -0.034885433 0.01838085 -0.22580317 0.58312124
000260 45 30 a3 be f7 22 b0 3e 37 61 84 be b9 a7 f2 3e
       -0.31872764 0.34401676 -0.2585542 0.47393587
000270 c5 2b 6f bd a0 3a 7b 3d 49 ac 9c be a1 8a 21 3f
       -0.05839135 0.061335206 -0.30600193 0.63102156
