dlpg/19/weights/dlpg_model_weights_300.pth (torch, 363960 bytes, 15 tensors)

VQ.projection.weight f4 [100, 32]
0	0x3db43f74	0.08801165
1	0xbde43e93	-0.111447476
2	0x3da857e8	0.08219892
3	0x3debcfa2	0.11514212
4	0x3e04a55e	0.12953708
5	0x3e096801	0.1341858
6	0x3da2b90d	0.07945452
7	0xbdd41d8d	-0.10357199
8	0x3d509c63	0.050930392
9	0xbda16b7b	-0.078818284
10	0xbdfe17c5	-0.124068774
11	0x3d13a98f	0.036050376
12	0x3d72105d	0.059097636
13	0xbddbcfc6	-0.10732989
14	0x3e2307f9	0.1592101
15	0x3e239a28	0.15976775
16	0x3dad34fe	0.08457373
17	0x3d9118d6	0.07084815
18	0xbe1d222e	-0.1534507
19	0xbd9c28c2	-0.076249614
20	0x3dd69f9e	0.10479663
21	0x3e287235	0.16449817
22	0x3d3c0a74	0.045908406
23	0x3dbdb4a9	0.09262974
24	0x3e2d3deb	0.16918151
25	0x3d1cdaa6	0.038294457
26	0x3e07f3d0	0.13276601
27	0x3d175f52	0.03695614
28	0xbda290cd	-0.07937775
29	0x3e1a388b	0.15060632
30	0xbddd328d	-0.108006574
31	0x3de4f923	0.111803316
32	0xbc0c4bd4	-0.008563001
33	0xbe02049b	-0.1269707
34	0x3d90a454	0.07062593
35	0x3cd0b07d	0.025474781
36	0xbd002c32	-0.031292148
37	0xbca1ac5d	-0.01973551
38	0xbe208f4e	-0.15679666
39	0x3d16e621	0.03684056
40	0xbde05fed	-0.109557964
41	0x3dbed2d5	0.09317557
42	0xbdcb7aac	-0.09935507
43	0x3e045999	0.12924804
44	0x3d00183d	0.031273115
45	0x3d15e237	0.03659269
46	0x3cc51a95	0.024060527
47	0x3e1204fd	0.14259715
48	0xbe082b1b	-0.13297693
49	0x3d06c369	0.0329012
50	0x3d9f9d0e	0.07793628
51	0x3cea484b	0.028598925
52	0xbbbad5d0	-0.005701758
53	0x3d53ebed	0.05173867
54	0x3e281e58	0.16417825
55	0x3c339741	0.010961355
56	0xbd88e31d	-0.066839434
57	0xbe260a4c	-0.16214865
58	0x3c6b39f0	0.014357075
59	0x3d922205	0.07135395
60	0xbd76091a	-0.060067274
61	0xbda28757	-0.0793597
62	0xbb302bdc	-0.002688161
63	0x3d8bee07	0.068325095
64	0x3c695199	0.014240646
65	0x3d095ea6	0.03353753
66	0xbdae4907	-0.085100226
67	0xbd964884	-0.0733805
68	0x3a717202	0.0009210409
69	0xbb1944c2	-0.002338693
70	0xbe2d9a6f	-0.16953443
71	0xbe321a75	-0.17392905
72	0x3c91888c	0.017765306
73	0x3e1c9b13	0.15293531
74	0xbd7431fe	-0.05961799
75	0x3d873198	0.06601256
76	0xbd1329b6	-0.03592845
77	0xbced3818	-0.028957412
78	0xbe0a16f1	-0.13485314
79	0x3b8062a5	0.0039180093
80	0xbe34c382	-0.17652705
81	0xbd918ee1	-0.0710733
82	0xbb36db95	-0.0027901877
83	0xba4bf275	-0.00077799644
84	0x3d2dcf2f	0.042433914
85	0x3e14c517	0.14528309
86	0xbd338f97	-0.04383811
87	0xbe0c820d	-0.13721485
88	0x3bd0d442	0.0063729594
89	0xbcde5ee1	-0.027144851
90	0xbc653d63	-0.0139916865
91	0x3dfccd17	0.12343805
92	0xbe2ad894	-0.1668418
93	0x3dc58829	0.09645111
94	0xbe279704	-0.16366202
95	0xbdda2b23	-0.10652759
96	0x3e07d967	0.13266526
97	0xbbd4aa54	-0.0064900313
98	0xbd8f7e9b	-0.0700657
99	0x3b8eaf75	0.004354412
100	0xbddb35a1	-0.10703588
101	0x3dc5e581	0.09662915
102	0x3e23194f	0.15927623
103	0xbd9553c5	-0.072913684
104	0x3e0a7905	0.13522728
105	0xbdb50fc9	-0.088409014
106	0x3dbf91de	0.09353994
107	0x3de98d1d	0.11403868
108	0xbcf2dfe0	-0.029647768
109	0xbdb80f1c	-0.08987257
110	0x3e0d3fba	0.13793841
111	0xbe26739f	-0.16255043
112	0x3de7000b	0.11279305
113	0xbd87e416	-0.06635301
114	0x3e00860e	0.12551138
115	0x3de60349	0.11231095
116	0xbe1b0080	-0.1513691
117	0x3d8e2af8	0.069417894
118	0x3dc17e37	0.09447902
119	0xbde0dd48	-0.10979706
120	0xbd91bf06	-0.07116513
121	0xbe232420	-0.1593175
122	0xbe1a3fcd	-0.150634
123	0xbcfe1735	-0.031016925
124	0xbe218cec	-0.15776414
125	0xbe28154f	-0.16414379
126	0x3ccdcc69	0.025121884
127	0x3dc18683	0.09449484
128	0xbd54d5c9	-0.051961694
129	0x3d97031d	0.07373641
130	0x3caab3cd	0.020837689
131	0xbe09f653	-0.13472871
132	0xbda05b44	-0.078299075
133	0x3e293b63	0.1652656
134	0xbddd9d8f	-0.108210675
135	0xbe316650	-0.17324185
136	0x3dc5b044	0.096527606
137	0x3d8a5962	0.0675533
138	0xbb390f5d	-0.0028237917
139	0xbd6e6e65	-0.05821075
140	0xbde13970	-0.109972835
141	0xbc88b473	-0.016687607
142	0xbc61e43a	-0.013787324
143	0x3e3363dd	0.17518564
144	0xbc4c1a4d	-0.0124574425
145	0xbd9dc2e4	-0.07703188
146	0x3db46aec	0.08809456
147	0x3dfa37d1	0.122176774
148	0xbd99ca6d	-0.07509313
149	0x3d9c4286	0.07629876
150	0x3d0b58af	0.034020122
151	0xbe044c57	-0.12919746
152	0xbe1b2adc	-0.15153068
153	0xbdd4ab82	-0.10384275
154	0xbd7b388f	-0.061333235
155	0xbb80a629	-0.003926058
156	0x3ca3eec0	0.020011306
157	0x3ded654c	0.115915865
158	0xbd917129	-0.07101662
159	0xbe132cfd	-0.1437263
160	0x3ca1af3b	0.019736877
161	0x3e2d00da	0.16894856
162	0x3e2ebde1	0.1706462
163	0x3d839f39	0.06426854
164	0xbac7b180	-0.0015235394
165	0xbd8f1a2b	-0.06987413
166	0x3a9696d7	0.0011489046
167	0x3dc66042	0.096863285
168	0xbc88d93e	-0.016705152
169	0xbe091917	-0.13388477
170	0xbdd4346d	-0.10361562
171	0x3e06f712	0.13180187
172	0x3e2ff9f1	0.17185189
173	0xbe241bd7	-0.16026245
174	0xbda4b3a3	-0.080420755
175	0x3dc07003	0.093963645
176	0xbda85b7d	-0.08220575
177	0xbd960524	-0.07325199
178	0xbcb3aea8	-0.021933869
179	0x3decef2a	0.115690544
180	0x3e1eceb1	0.15508534
181	0xbe17e64a	-0.14833942
182	0xbb0abc90	-0.002116952
183	0xbc89a389	-0.016801612
184	0xbce2f91b	-0.027706673
185	0x3de5b64f	0.11216413
186	0xbd9de4c6	-0.07709651
187	0x3c321e05	0.010871415
188	0xbd915b72	-0.0709752
189	0x3e13d224	0.14435631
190	0xbdf6f4b9	-0.12058396
191	0x3e1d5a68	0.15366518
192	0xbe179c59	-0.14805736
193	0xbe17237d	-0.14759631
194	0x3e221344	0.15827662
195	0xbdc92074	-0.09820643
196	0x3b27914a	0.0025568777
197	0xbdaaf49e	-0.08347438
198	0xbccdd90f	-0.025127916
199	0xbe06c442	-0.13160804
200	0x3e051eeb	0.13000076
201	0xbe2c338d	-0.1681654
202	0x3db1dfd2	0.086852685
203	0x3cc21eb0	0.023696274
204	0x3c82b281	0.015954258
205	0x3dc0e375	0.09418384
206	0xbdb8d5f6	-0.09025185
207	0x3db63eab	0.08898672
208	0x3dc7772e	0.097395286
209	0xbe132796	-0.1437057
210	0x3ddfa3c7	0.1091991
211	0x3da6cfb0	0.08145082
212	0xbd82bb04	-0.06383327
213	0xbc17097e	-0.009218572
214	0xbe17398b	-0.14768045
215	0xbc1113cc	-0.008854818
216	0x3dd1bc69	0.102410145
217	0xbc2cf51e	-0.010556487
218	0x3de39f4a	0.11114366
219	0x3d053ff9	0.032531712
220	0xbdc68036	-0.09692423
221	0x3e0675c1	0.13130857
222	0xbd89013b	-0.06689688
223	0x3dd0ab5e	0.10188936
224	0x3d0ec799	0.03485832
225	0xbe0f3a37	-0.13987051
226	0xbe27b021	-0.16375782
227	0xbdb7d0ca	-0.0897537
228	0xbe2ef596	-0.17085871
229	0xbdae36a1	-0.085065134
230	0xbe0d0e9e	-0.13775107
231	0x3e25a519	0.16176261
232	0xbdc96829	-0.0983432
233	0xbe24cf10	-0.16094613
234	0xbe291bd8	-0.16514528
235	0xbda1d5a6	-0.07902078
236	0x3e2f196d	0.17099543
237	0x3dd12540	0.10212183
238	0x3e300b4a	0.17191806
239	0xbd66b445	-0.056324262
240	0xbc48fd2b	-0.012267391
241	0x3e333c8d	0.17503567
242	0xbe0d20d4	-0.13782054
243	0xbc1e8117	-0.009674332
244	0x3dc75479	0.09732909
245	0x3e2ed29f	0.17072533
246	0xbda53d00	-0.080682755
247	0x3e1bcb79	0.15214337
248	0x3cd5b117	0.02608542
249	0xbda47203	-0.080295585
250	0xbd95eda9	-0.07320721
251	0xbddf9271	-0.10916603
252	0x3d3552a1	0.044268254
253	0x3e17c0e9	0.14819683
254	0xbe04d5d9	-0.12972201
255	0xbce6ec66	-0.028188895

VQ.projection.bias f4 [100]
0	0xbda69a66	-0.08134918
1	0xbcbd55d0	-0.023112208
2	0x3c00ce13	0.007861632
3	0xbd5b978e	-0.05361133
4	0xbddf99cd	-0.10918007
5	0x3d9efae6	0.07762699
6	0x3dd08214	0.101810604
7	0xbd7bb044	-0.061447397
8	0xbbb0769b	-0.0053852326
9	0x3d644cf1	0.05573744
10	0xbcf2fbaf	-0.029661028
11	0x3c742b7e	0.0149029475
12	0xbdc06508	-0.0939427
13	0x3d8e0010	0.06933606
14	0xbdd71871	-0.10502709
15	0xbd02b350	-0.031909287
16	0x3ddbba2b	0.10728868
17	0x3e122d6a	0.14275137
18	0x3dba7d3d	0.091059186
19	0x3df13d3b	0.11779257
20	0xbdc95393	-0.09830394
21	0xbd20a0e8	-0.039215952
22	0xbd6eaf50	-0.05827266
23	0xbdbb88fb	-0.09156986
24	0x3dfebc1a	0.12438221
25	0xbcfbf33c	-0.030755632
26	0x3da4bf9e	0.080443606
27	0xbd07ec4a	-0.033184327
28	0x3da95b2a	0.08269341
29	0xbdcbc46f	-0.09949576
30	0xbd6bf009	-0.057601962
31	0xbe1b0ee6	-0.15142402
32	0xbdbb5c9a	-0.09148522
33	0x3ce23f43	0.027618056
34	0xbc4c9dd8	-0.012488805
35	0x3d1aa68a	0.03775648
36	0x3c3b153b	0.011418636
37	0x3d12a986	0.0358062
38	0xbdfd9798	-0.1238243
39	0x3db7cfc4	0.08975175
40	0xbd77fac1	-0.060541872
41	0xbc0cf914	-0.008604307
42	0x3dc9fed6	0.09863059
43	0xbc3ccdce	-0.011523677
44	0xbcaab480	-0.020838022
45	0x3d5ff4d1	0.054676834
46	0xbe11ec29	-0.14250244
47	0x3d2a3760	0.041556716
48	0x3adbc11f	0.0016765929
49	0x3d8ad2ac	0.06778464
50	0x3de9f3b9	0.114234395
51	0xbc116c39	-0.0088759
52	0xbe0806ba	-0.13283816
53	0x3cfb43c0	0.030671954
54	0xbc34951d	-0.0110218795
55	0xbb6f891d	-0.0036550232
56	0xbcb0dbf1	-0.021589251
57	0xbd7d2b03	-0.061808597
58	0xbd4772e0	-0.048693538
59	0x3deb585c	0.114914626
60	0x3a9967ab	0.0011703869
61	0x3da2fa06	0.079578444
62	0xbd5ffe6e	-0.054686002
63	0x3c2e655c	0.010644283
64	0xbce9aa0b	-0.028523466
65	0xbdc5763c	-0.09641692
66	0x3d87e010	0.066345334
67	0x3de1cf91	0.11025918
68	0x3de714ac	0.1128324
69	0xbd70dbe7	-0.058803465
70	0xbdd18506	-0.1023045
71	0xbdb60da6	-0.08889322
72	0xbddcbe27	-0.10778456
73	0x3cba97e7	0.02277751
74	0xb6d6d0e1	-6.4020137e-06
75	0x3d38bb07	0.04510024
76	0xbb779909	-0.0037780425
77	0xbd77d014	-0.060501173
78	0x3dac3309	0.08408172
79	0x3cb5e43b	0.022203555
80	0x3dbbd401	0.09171296
81	0xbd06a11c	-0.03286849
82	0x3d8f42ab	0.06995138
83	0xbdab3de0	-0.08361411
84	0x3e0051f9	0.1253127
85	0xbdc8e8d5	-0.09810034
86	0x3cad7ceb	0.02117773
87	0x3d32c37b	0.043643456
88	0x3d127fff	0.035766598
89	0x3e089a8e	0.13340208
90	0xbdd78b42	-0.10524608
91	0xbc5cd294	-0.01347794
92	0x3d9a2d27	0.075281434
93	0x3d9adf55	0.075621285
94	0x3da842bb	0.08215853
95	0xbdd833c5	-0.10556749
96	0xbdc5774d	-0.096418954
97	0xbd88fbc3	-0.06688645
98	0xbd92ed8a	-0.07174213
99	0xbdca6abc	-0.09883639

VQ.embedding.weight f4 [100, 32]
0	0x3f50f6e0	0.816267
1	0x3cdce2f5	0.02696369
2	0xbe69a04b	-0.22815053
3	0x3f197fb7	0.599605
4	0xbf5b7306	-0.85722387
5	0xbe781a0a	-0.24228683
6	0xbf44b330	-0.7683592
7	0x3e8dca45	0.27693382
8	0xbea20d0a	-0.31650573
9	0xbf7523c1	-0.9575768
10	0x3ed55d5d	0.41672793
11	0x3dd5041d	0.10401175
12	0x3fbcf7e2	1.4763148
13	0xbebd9ea6	-0.37035102
14	0x3f63fd81	0.8905869
15	0x3f68ed5a	0.9098717
16	0x3f1dd5f9	0.6165462
17	0xbdc3aea5	-0.09554795
18	0xbf6734c3	-0.90314883
19	0x3ff9e8a0	1.9524117
20	0x3fb47ce4	1.4100614
21	0xbfdaaa6f	-1.7083262
22	0xbee70a98	-0.4512527
23	0xbf06715a	-0.5251671
24	0xbd015761	-0.03157747
25	0x3efc1fa9	0.49242905
26	0xbf1d8a3b	-0.6153905
27	0x3f52609e	0.82178676
28	0x3f241ddc	0.6410806
29	0xbebc4208	-0.36769128
30	0x3f67db23	0.9056875
31	0x3f586a39	0.8453708
32	0x3f275628	0.6536584
33	0x3f28383c	0.65710807
34	0x3ec0b0d5	0.37634912
35	0xbfe4a2bd	-1.7862164
36	0xbf8486d3	-1.0353645
37	0x3f81a129	1.0127307
38	0x3f837de4	1.0272794
39	0x3f57be2a	0.8427454
40	0x3f8a06b1	1.0783292
41	0x3f72c866	0.94837034
42	0x3eff703f	0.49890324
43	0x4018ac83	2.3855293
44	0x3f20a967	0.6275849
45	0xbd9bb46b	-0.07602771
46	0x3f2ecabd	0.68278104
47	0x3f9590a3	1.1684765
48	0x3cf33cdd	0.029692108
49	0x3d5580e3	0.05212487
50	0xbddf558f	-0.10904991
51	0x3f8c1b7f	1.0945891
52	0xbf038e87	-0.51389354
53	0xbfba88a7	-1.4572953
54	0xbe907955	-0.2821757
55	0x3f400b1d	0.7501696
56	0xbd9f205f	-0.07769846
57	0xbacd0cab	-0.0015644034
58	0x3f3fbe40	0.74899673
59	0x3e3cc8b3	0.18435936
60	0xbeba716f	-0.36414668
61	0xbf45eefe	-0.773178
62	0xbfb6041b	-1.4220003
63	0x3eb517fa	0.35369855
64	0x3f91bf64	1.1386533
65	0x4005ad94	2.0887194
66	0x3f277f75	0.6542886
67	0x3e2a0af3	0.1660574
68	0xbfbe70b2	-1.4878142
69	0xbf197cfd	-0.5995634
70	0x3e147c07	0.14500438
71	0x3ef7e460	0.48416424
72	0x3e60d16d	0.2195489
73	0xbfa3668c	-1.276567
74	0xbf15d25d	-0.58524114
75	0x3fb384e9	1.4024936
76	0xbe187a04	-0.14890295
77	0xbf031484	-0.5120318
78	0xbf43ccaa	-0.7648417
79	0xbf1f9674	-0.6233895
80	0x3f13747c	0.57599616
81	0xbfe53ec8	-1.7909784
82	0xbe0eb4b9	-0.13936128
83	0xbf3a133d	-0.72685605
84	0xbecd95bd	-0.40153304
85	0x3e13fa65	0.14450987
86	0xbfd356a9	-1.6510822
87	0x3f8eb90a	1.115022
88	0x3ea9a1d9	0.33131292
89	0xbd0f8c21	-0.035045747
90	0x3f5dfc9e	0.8671359
91	0xbfc91b52	-1.5711462
92	0xbefc832e	-0.49318832
93	0xbf90e824	-1.1320844
94	0x400fb3e4	2.2453547
95	0xbf5ce901	-0.86293036
96	0xbea8626d	-0.32887593
97	0xbea15cdb	-0.31516156
98	0x3ec0e11b	0.37671742
99	0x3f85af35	1.0444094
100	0xbfe8681c	-1.8156772
101	0xbec06c54	-0.37582648
102	0xbf218333	-0.6309082
103	0x3f9db435	1.232062
104	0xbd125e92	-0.03573472
105	0xbe9fd2d2	-0.3121553
106	0x3f5b3d80	0.85640717
107	0x3f14151d	0.57844716
108	0xbfe4732b	-1.7847646
109	0xbfd9e054	-1.7021585
110	0xbecabfb9	-0.39599398
111	0x3f9ef4cf	1.241846
112	0xbe5fea6c	-0.21866769
113	0xbe7a51a5	-0.24445207
114	0xbecd067b	-0.40044007
115	0x3ff30628	1.8986254
116	0xbf17a3d0	-0.59234333
117	0xbee41006	-0.44543475
118	0xbe9fdd54	-0.31223547
119	0xbe7df81b	-0.24801676
120	0x3f89cd2d	1.076574
121	0x3f156810	0.5836191
122	0xbfb87675	-1.441115
123	0xbdd523fe	-0.104072556
124	0xbd8d96af	-0.06913506
125	0xbd151852	-0.036400147
126	0xbf83c220	-1.0293617
127	0x4001fc13	2.0310104
128	0xbfa05e9d	-1.2528874
129	0x3eddbaf8	0.43306708
130	0x3f5cb28e	0.8620995
131	0x3dfa1609	0.12211234
132	0xbfaddd1c	-1.3583102
133	0x3f37bcb5	0.7177232
134	0x3f8588bb	1.0432352
135	0x40496ed6	3.14739
136	0xbec27a41	-0.37983897
137	0xbf1c59f9	-0.6107479
138	0x3f403645	0.7508281
139	0xbf860cf3	-1.0472702
140	0xbbf34f49	-0.007425223
141	0xbf0c311c	-0.54762435
142	0xbe3cdb38	-0.18443
143	0xbfb9a90d	-1.4504715
144	0x3f028556	0.50984704
145	0x3d718adc	0.058970317
146	0x3efc1863	0.49237356
147	0xc00b0da3	-2.1727073
148	0xbf63ccdd	-0.8898447
149	0xbfaf7175	-1.3706499
150	0xbdfa82dc	-0.12231991
151	0xbf238543	-0.63875216
152	0x3f9b7e94	1.2148004
153	0xbfd04a55	-1.6272684
154	0xbd184a22	-0.037180074
155	0xbf27b69c	-0.65513015
156	0x40332db0	2.7996635
157	0x3e855fad	0.26049557
158	0x3f15bb68	0.58489084
159	0x3f1827dd	0.59435827
160	0x3e6ef19d	0.23334356
161	0x3ef2142f	0.47281024
162	0x3f2d7e9e	0.6777133
163	0xbfc9b187	-1.5757302
164	0xbdf0cafa	-0.11757465
165	0xbf59c46f	-0.8506536
166	0xbec72a3a	-0.38899404
167	0xbe9afe26	-0.30272025
168	0x3eff158b	0.49821123
169	0xbf904407	-1.127076
170	0x3eb5cf2f	0.3550963
171	0x3fe3431b	1.7754854
172	0x3d3f0c73	0.046642732
173	0x3f3788e6	0.71693265
174	0xbe1f1473	-0.15535145
175	0x4025d3c3	2.59105
176	0x3f2cdb3c	0.67522025
177	0x3fd61610	1.6725483
178	0x3eed4118	0.46338725
179	0x3f6f2d97	0.9342894
180	0x3d8c96d8	0.06864709
181	0x3e2b4c66	0.16728362
182	0xbfa68063	-1.300793
183	0xbf96b832	-1.1774962
184	0xbf85833f	-1.0430678
185	0x3ea4326e	0.32069725
186	0x3e435e13	0.19078855
187	0xbe95d065	-0.29260555
188	0xbf649413	-0.89288443
189	0xbf8bade2	-1.091244
190	0x4017ef91	2.373997
191	0xbf33ca85	-0.70230895
192	0xbdc888f4	-0.09791747
193	0x3f1ea63f	0.6197242
194	0xbfd996b8	-1.6999121
195	0xbfa62554	-1.2980142
196	0xc03d010a	-2.9531884
197	0xbf628822	-0.8848897
198	0x3f60dfab	0.8784129
199	0xbf3a79b3	-0.7284195
200	0xbe01466f	-0.12624525
201	0xbf4544d7	-0.77058166
202	0xbc8e081f	-0.017337857
203	0xc00cfb18	-2.2028255
204	0x401d8c8d	2.4617035
205	0x3f4a1dad	0.7895153
206	0x3f603753	0.8758442
207	0x3d3a1456	0.04542955
208	0x3fe930d8	1.8218031
209	0xbf9214d6	-1.1412609
210	0xbf3a1c20	-0.72699165
211	0xbfee0de0	-1.8597984
212	0x3f885106	1.0649726
213	0x3f7ba18c	0.98293376
214	0x3f526118	0.82179403
215	0xbe87fd08	-0.26560235
216	0xbe0f0c28	-0.13969481
217	0xbdc1e48c	-0.0946742
218	0x3fa51338	1.289649
219	0x3f987391	1.1910268
220	0x3fa9769e	1.3239324
221	0xbf368718	-0.71299887
222	0xbe530513	-0.20607404
223	0xbd43fd8e	-0.04784923
224	0xbe56f606	-0.20992288
225	0x3fc05690	1.5026417
226	0xbfab43c6	-1.3380058
227	0x3e6871cd	0.22699662
228	0xbfdefdb1	-1.742117
229	0xbf2d6cfe	-0.67744434
230	0x3feeb5e3	1.8649257
231	0x3fc13988	1.5095682
232	0xc0096ca1	-2.1472552
233	0xbfe0bf7e	-1.7558439
234	0x3f3ea98d	0.74477464
235	0xbe19c9e3	-0.1501842
236	0xbe8d1b2e	-0.275598
237	0x3e9e798a	0.30952102
238	0x3f25763c	0.64633536
239	0x3f731dae	0.9496716
240	0x3f34bf29	0.7060419
241	0xbf5478d9	-0.829969
242	0xc003cc2f	-2.0593374
243	0x3f35391e	0.7079028
244	0xbff97bcf	-1.9490908
245	0x3f042ac0	0.5162773
246	0x3e13b153	0.14423113
247	0xbf4625d2	-0.7740146
248	0xbf9998b5	-1.1999727
249	0xbd99ade9	-0.07503874
250	0xbf282aaf	-0.6569013
251	0x3f62d7c0	0.8861046
252	0x4000f99e	2.0152354
253	0x3f9bd472	1.2174208
254	0xbf2aaadc	-0.6666696
255	0x3e8f063a	0.27934438

cvae_parameters.dec_00_lin_b f4 [128]
0	0xbd0f90fd	-0.03505038
1	0xbd81fa0c	-0.06346521
2	0xbd2814e9	-0.041035566
3	0xbcc41acb	-0.023938557
4	0xbccc558f	-0.024943141
5	0xbcc1a79e	-0.023639496
6	0xbd03325b	-0.032030445
7	0xbd1ec533	-0.038762283
8	0xbd1b21dc	-0.037874088
9	0xbc76c6cd	-0.015062046
10	0xbcb78845	-0.022403846
11	0xbcf84e3f	-0.030310748
12	0xbd11e20d	-0.03561597
13	0xbcdaf105	-0.026726255
14	0xbcffacdf	-0.031210361
15	0xbcfd56bc	-0.030925147
16	0xbcf946ef	-0.030429332
17	0xbc93c1cf	-0.018036751
18	0xbcc3f0ab	-0.02391847
19	0xbc8e229b	-0.017350486
20	0xbce14cb6	-0.027502399
21	0xbc4390a9	-0.011936345
22	0xbd00073c	-0.0312569
23	0xbd4ee565	-0.050511736
24	0xbd1cf1b8	-0.03831646
25	0xbcb00ce3	-0.02149052
26	0xbcab47fa	-0.020908345
27	0xbd09f803	-0.033683788
28	0xbcd2196b	-0.025646886
29	0xbc83c903	-0.01608706
30	0xbd0651d6	-0.03279289
31	0xbcedfeb0	-0.029052109
32	0xbc8fdf83	-0.017562633
33	0xbcf1b07d	-0.029503101
34	0xbd1ea9ac	-0.03873603
35	0xbc8cddd5	-0.017195622
36	0xbcddf8af	-0.02709612
37	0xbd15094f	-0.03638583
38	0xbc9eb624	-0.01937396
39	0xbcf8d786	-0.030376207
40	0xbd3123f4	-0.04324718
41	0xbd0b0492	-0.033939905
42	0xbca6289e	-0.02028304
43	0xbcadfbbb	-0.021238199
44	0xbc72b618	-0.014813922
45	0x3e1ef0ec	0.15521592
46	0xbcd44fa0	-0.025916874
47	0xbc990ea6	-0.018683743
48	0xbc8b3283	-0.01699186
49	0xbcf55b94	-0.029950894
50	0xbcc24785	-0.023715744
51	0xbd0aa362	-0.03384722
52	0xbcd46f08	-0.02593185
53	0xbcc31e04	-0.023818024
54	0xbcbdeb69	-0.023183541
55	0xbd058810	-0.032600462
56	0xbcd88ff6	-0.026435833
57	0xbd0086b7	-0.031378474
58	0xbd2d47d7	-0.04230484
59	0xbd2c0d96	-0.042005144
60	0xbd07f374	-0.03319116
61	0xbd02b119	-0.031907175
62	0xbcc887ac	-0.024478756
63	0xbd0cfcc3	-0.03442074
64	0xbd3371c7	-0.04380968
65	0xbcf6d290	-0.0301297
66	0xbcb37ea0	-0.021910965
67	0xbd13f678	-0.036123723
68	0xbcb93de2	-0.022612516
69	0xbc86a6f8	-0.016437039
70	0xbcf73dbf	-0.03018081
71	0xbd1275e4	-0.03575696
72	0xbca55d12	-0.020185981
73	0xbd1f0cb4	-0.038830474
74	0xbcdac444	-0.026704915
75	0xbd2e21df	-0.04251277
76	0xbce076d8	-0.02740042
77	0xbd20c8e3	-0.03925408
78	0xbd087797	-0.033317175
79	0xbd1f9c0c	-0.038967177
80	0xbd387069	-0.045029078
81	0xbcdc4710	-0.026889354
82	0xbd39e6d0	-0.045386136
83	0xbcf66b5e	-0.030080494
84	0xbd2ddd47	-0.042447355
85	0xbd10caa8	-0.035349518
86	0xbd33bcb9	-0.04388115
87	0xbca7720c	-0.020440124
88	0xbd415679	-0.047201607
89	0xbd03210e	-0.032013945
90	0xbcf22cd6	-0.029562395
91	0xbd0c2504	-0.03421499
92	0xbd0753a9	-0.03303877
93	0xbcf0668e	-0.029345777
94	0x3e9da320	0.30788517
95	0xbcd6cf88	-0.026222005
96	0xbcd86c79	-0.026418911
97	0xbcb6dc5e	-0.022321876
98	0xbcdfb7dd	-0.027309353
99	0xbd225828	-0.039634854
100	0xbcc2a49e	-0.023760136
101	0xbcdd7627	-0.027033878
102	0xbd0b48a2	-0.034004815
103	0xbca32295	-0.019913951
104	0xbcd1d308	-0.025613323
105	0xbcd2db2a	-0.025739271
106	0xbd1a6e12	-0.037702627
107	0xbcda4e06	-0.026648533
108	0xbcdf78d6	-0.027279299
109	0xbcab64e0	-0.020922124
110	0xbcc2e7ac	-0.02379211
111	0xbcb8f835	-0.022579292
112	0xbce8f00f	-0.028434781
113	0xbca1445a	-0.019685913
114	0xbcc9ee25	-0.024649689
115	0xbd240348	-0.04004219
116	0xbd178a8f	-0.036997374
117	0xbd5a7cf7	-0.053341832
118	0xbce0a331	-0.027421566
119	0xbd2c2ec7	-0.042036798
120	0xbd1f39ea	-0.03887359
121	0xbcdf0566	-0.027224254
122	0xbd0729cf	-0.032998856
123	0xbd331fb6	-0.043731414
124	0xbcf3f352	-0.02977911
125	0xbd1cbfb4	-0.03826876
126	0xbca7b050	-0.020469815
127	0xbd42bb7d	-0.047542084

cvae_parameters.dec_00_lin_w f4 [128, 35]
0	0xbc0aacec	-0.008464079
1	0x3b08aec6	0.0020856126
2	0x3caf5603	0.021403318
3	0x3b489c01	0.0030610564
4	0x3c71fdd3	0.014769989
5	0x3cab0902	0.020878319
6	0xbc9d8346	-0.019227635
7	0x3bbef557	0.0058275866
8	0x3cc06ac4	0.02348841
9	0x3bf6c04f	0.007530249
10	0xbbc669a9	-0.006055076
11	0xbb85c63e	-0.00408247
12	0xbc804729	-0.015658932
13	0x3c792d60	0.015208572
14	0xbca560ab	-0.020187696
15	0xbc2c6eb4	-0.010524441
16	0x3ab938d1	0.0014131312
17	0x3d3a6978	0.04551074
18	0x3cd84e6a	0.026404578
19	0xbcb50e1c	-0.022101454
20	0x3c99b96a	0.01876517
21	0xbcc04828	-0.023471907
22	0xbc44f869	-0.012022116
23	0xbc90bf34	-0.017669298
24	0xbcc4fb81	-0.024045708
25	0x3bba9c59	0.0056949076
26	0x3c489e1e	0.012244729
27	0xbca13ef6	-0.019683342
28	0xbc8f678c	-0.01750543
29	0x3c80fd3d	0.015745753
30	0x3b389fcf	0.0028171425
31	0x3c23b87b	0.009992714
32	0xbaa4fae2	-0.0012586976
33	0xbce58a63	-0.02802009
34	0xbba24994	-0.004952619
35	0xbc2dd6c4	-0.010610286
36	0xbd078581	-0.033086304
37	0x3d5698b9	0.05239174
38	0xbcbfeac1	-0.02342737
39	0x3d427421	0.04747403
40	0x3cd671f9	0.026177393
41	0x3bd228ba	0.0064135464
42	0xbd4441aa	-0.047914185
43	0x3d6fa6e4	0.05850877
44	0xbc4b3210	-0.012402073
45	0x3c980371	0.018556328
46	0xbcc1a75b	-0.023639372
47	0xbd027a8e	-0.03185516
48	0xbb94e9bd	-0.0045444653
49	0xbd1e2ea1	-0.038618688
50	0x3bed1410	0.0072350577
51	0x3d549899	0.05190334
52	0x3d608e2b	0.054823082
53	0x3b6f15a6	0.003648141
54	0xbd050dcc	-0.03248386
55	0x3bd5567d	0.0065105543
56	0xbd1d6e0e	-0.038435034
57	0x3c1bfa5f	0.009520142
58	0xbbb5eda4	-0.0055520106
59	0xbd4d594d	-0.050133992
60	0x3d45e3a8	0.048312813
61	0x3c78dbc6	0.015189117
62	0xbd65be0f	-0.056089457
63	0xbc1b26a5	-0.009469663
64	0x3babc33a	0.0052417787
65	0xbc47895c	-0.012178745
66	0xbc17c46c	-0.009263139
67	0x3a6292ce	0.00086430914
68	0xbd5d1c7d	-0.053982247
69	0xbbd540c5	-0.0065079653
70	0x3cac7688	0.021052614
71	0xbcc06f0e	-0.023490455
72	0x3cd130a7	0.025535895
73	0xb7bc5ad7	-2.2453647e-05
74	0x3cb2a8dd	0.021809036
75	0x3ca210e7	0.01978345
76	0xbced8fe2	-0.028999273
77	0x3d1cdb9c	0.038295373
78	0x3ce8981a	0.02839284
79	0x3c54eeec	0.012996417
80	0xbcbbb0cb	-0.02291145
81	0x3c7f6d66	0.015590047
82	0xbd09db8b	-0.033656638
83	0xbb909f18	-0.0044134967
84	0xbcb6b342	-0.022302274
85	0xbc8a62f9	-0.016892897
86	0x3c9de42e	0.019273844
87	0x3d4e7d53	0.050412487
88	0x3cf28a5b	0.029606989
89	0xbd4d73ca	-0.050159253
90	0x3ce2dfd2	0.027694616
91	0xbcdb26e6	-0.026751947
92	0xbc7d279f	-0.015451341
93	0xbcda5e02	-0.026656155
94	0xbba269ce	-0.0049564606
95	0x3ab823af	0.001404872
96	0x3cdb06c1	0.026736619
97	0xbcdddf0a	-0.027083892
98	0xbc5e14de	-0.01355478
99	0x3bdc633f	0.0067256982
100	0x3c0db699	0.008649492
101	0xbafe433c	-0.00193987
102	0x3ab5a92f	0.0013859625
103	0xbcda689c	-0.02666121
104	0x3c5465ef	0.012963756
105	0x3ba1b9af	0.0049354653
106	0xba778b6c	-0.0009443078
107	0x3be9dca3	0.0071368976
108	0x3a8fe465	0.0010978101
109	0x3cabd260	0.020974338
110	0x3c4985f1	0.0123000005
111	0xbc921037	-0.017829997
112	0x3a8be0ba	0.0010671832
113	0x3ccb77e7	0.024837447
114	0x3a29d6e3	0.0006478859
115	0xbbdad88c	-0.0066786464
116	0xba8c1117	-0.0010686246
117	0xbc662582	-0.0140470285
118	0xbb9a09de	-0.0047008833
119	0xbc2cfd69	-0.010558465
120	0xbba4ad0e	-0.0050255125
121	0x3c0984da	0.008393491
122	0x3c92f9ba	0.017941345
123	0x3c9b7e9b	0.018981269
124	0xbbd8704c	-0.0066051837
125	0x3c540753	0.012941199
126	0xbca963e8	-0.020677522
127	0x3cc3c7c0	0.02389896
128	0xbcc0aac1	-0.023518922
129	0xbc7997b4	-0.015233923
130	0x3c0892a3	0.008335742
131	0x3cc541ca	0.024079222
132	0xbc8313d3	-0.016000664
133	0xbcb0bc2a	-0.021574099
134	0xbc0875d0	-0.00832887
135	0x3c49242e	0.012276692
136	0x3c69a9cb	0.014261673
137	0x3b758503	0.0037463314
138	0xbcf9b290	-0.030480653
139	0x3bf81389	0.007570688
140	0x3c4f9e23	0.01267198
141	0xbc7654fb	-0.015034909
142	0x3bc0f6b1	0.005888783
143	0xbac4b86a	-0.0015008573
144	0x3d047b8c	0.032344386
145	0x3c936e0f	0.017996816
146	0xbc4fabf2	-0.012675272
147	0xbb768641	-0.0037616643
148	0x3c7614c7	0.015019602
149	0x3c9422fe	0.018083092
150	0xbc37d6c1	-0.011220635
151	0xbbf6ba6b	-0.007529547
152	0xbc1f1d92	-0.00971164
153	0x3cad231e	0.02113491
154	0xbca8a1a4	-0.020584889
155	0xbc556d88	-0.013026603
156	0x3c9003dd	0.017579967
157	0x3c9783e6	0.018495511
158	0x3ce4752a	0.0278879
159	0xbb831012	-0.0039997185
160	0x3c3bb5fa	0.011456961
161	0xbc633a05	-0.013868813
162	0xbbf8d719	-0.007594001
163	0xbc31dc46	-0.01085574
164	0xbca49af4	-0.020093419
165	0x3c8797a0	0.016551793
166	0x3cb4ea3a	0.022084344
167	0xbc2be1e3	-0.010490867
168	0xbb803bcd	-0.003913379
169	0x3b2d8ff4	0.0026483508
170	0x3ba1f1e3	0.004942165
171	0x3c4c011d	0.012451437
172	0x3c159be7	0.009131408
173	0xbd0156e4	-0.031577006
174	0xbb2382f8	-0.002494989
175	0x3c084f50	0.008319691
176	0xbb8e34e7	-0.0043398025
177	0x3a03bf86	0.00050257926
178	0x3cad49a7	0.021153284
179	0xbb13b56f	-0.0022538563
180	0x3c72c994	0.014818568
181	0xbc934c72	-0.017980788
182	0xbb6dbc85	-0.0036275696
183	0x3cde6c2f	0.027151195
184	0x3bb0b520	0.0053926855
185	0xbc5d26eb	-0.013498048
186	0xbcb77cc0	-0.022398353
187	0xbc803dd2	-0.015654478
188	0x3c730032	0.01483159
189	0xbc6caa97	-0.014444969
190	0xbc0bbfa1	-0.008529575
191	0x3bf669ed	0.0075199516
192	0x3cccbc6d	0.024992192
193	0x3c8935a0	0.016749203
194	0xbced7313	-0.028985536
195	0x3b88b0c8	0.0041714646
196	0xbc4d9187	-0.012546903
197	0xbbd88d9d	-0.0066086785
198	0xbcaeb071	-0.021324368
199	0xbbe67e9b	-0.0070341355
200	0xbc098238	-0.008392863
201	0x3d1599ec	0.036523744
202	0xbb57745d	-0.0032875754
203	0xbc8bc083	-0.01705957
204	0x3a0df5c3	0.00054153445
205	0x3a0033cc	0.0004890531
206	0x3baf142d	0.0053429813
207	0xbb343f34	-0.0027503492
208	0xbcb70aff	-0.02234411
209	0xbc3e724e	-0.011623932
210	0x3c3f04bc	0.011658844
211	0xbcc9350b	-0.024561426
212	0x3c835f48	0.016036645
213	0x3c7df4b0	0.015500233
214	0x3c9fe297	0.019517226
215	0xbbe1c563	-0.0068899854
216	0xbca3456e	-0.019930568
217	0x3c8ee8d6	0.01744501
218	0x3cb36e60	0.021903217
219	0xbc11b38a	-0.008892903
220	0xbc42ddd7	-0.011893711
221	0xbbdd2ca2	-0.0067497054
222	0xbb14fe1a	-0.0022734464
223	0xbc3f9834	-0.011694003
224	0xbc608b63	-0.013705107
225	0xbc3c4612	-0.011491315
226	0x3cd06687	0.025439514
227	0x3d4c81b1	0.04992837
228	0x3cc2beb6	0.023772579
229	0xbcbe0378	-0.023195013
230	0x3c9b380d	0.018947626
231	0xbd140112	-0.036133833
232	0xbca9c7b6	-0.020725112
233	0xbc9c7d13	-0.019102609
234	0xbc5811b5	-0.013187815
235	0x3c965b04	0.018353947
236	0x3ce6671a	0.028125335
237	0xbcc721eb	-0.024308166
238	0xbb2383e9	-0.002495045
239	0x3c48e0e5	0.01226065
240	0x3c3dd043	0.011585298
241	0x3c24c7b8	0.010057382
242	0xbc17187a	-0.009222144
243	0xbcb62645	-0.022235045
244	0x3c925e9b	0.017867377
245	0x3ca2adbf	0.01985824
246	0xbc46326b	-0.0120969815
247	0xbb4ebe05	-0.0031546366
248	0x3c7ee4a8	0.015557446
249	0x3c1304ba	0.008973295
250	0x3cd1c96f	0.025608746
251	0xbd025c38	-0.031826228
252	0x3bf35d0d	0.007426864
253	0x3d0df6e8	0.034659296
254	0x3c2f9252	0.010716038
255	0x3b8b6716	0.004254232

cvae_parameters.dec_01_lin_b f4 [128]
0	0x3e81c24d	0.25343552
1	0x3d1286a3	0.03577293
2	0x3d8fb000	0.07015991
3	0x3cef7d70	0.029234618
4	0x3b93cf9b	0.0045108325
5	0xbc0ff165	-0.00878558
6	0xbc226920	-0.009912759
7	0x3bfbcad0	0.0076840892
8	0x3e2d6b6a	0.16935506
9	0xbbfcd5b6	-0.007715906
10	0xbc12df9a	-0.008964444
11	0xbc35a188	-0.011085875
12	0xbc08387c	-0.008314248
13	0xbb1b6757	-0.0023712718
14	0xbc2e8781	-0.010652424
15	0x3ccb4382	0.024812464
16	0xbc67bd77	-0.014144293
17	0x3c275257	0.010212502
18	0xb9f13238	-0.00046004518
19	0xbc08ae24	-0.0083423
20	0x3d004fb7	0.031326022
21	0x3d18f50f	0.03734308
22	0xbc171908	-0.0092222765
23	0x3b82b111	0.003988393
24	0x3e11f4cf	0.14253543
25	0x3c380328	0.011231221
26	0x3df95c93	0.1217586
27	0x3c8b50f5	0.017006377
28	0xbb09396a	-0.0020938762
29	0xbb3ce816	-0.0028824857
30	0xbbcb7000	-0.00620842
31	0x3daa7635	0.083233275
32	0xbb257b69	-0.002525056
33	0xbb8e9754	-0.004351536
34	0xbb6e6022	-0.0036373218
35	0xbc8a68df	-0.01689571
36	0xbc2f4c3c	-0.010699328
37	0x3cfeb863	0.031093782
38	0x3dafeda0	0.08590245
39	0x3c16cdb2	0.009204315
40	0xbba36b09	-0.004987125
41	0x3c759c11	0.014990822
42	0xbbe12fcb	-0.0068721524
43	0x3d21a30d	0.039462138
44	0xbb0b623a	-0.0021268264
45	0xbbe379c6	-0.0069420068
46	0x3cc75557	0.024332685
47	0x3da17ddf	0.07885336
48	0x3da453c7	0.08023792
49	0x3d08592a	0.03328816
50	0xba808a49	-0.0009806837
51	0xbacebc3b	-0.001577265
52	0xbc22aea3	-0.009929332
53	0x3db85f90	0.09002602
54	0x3c322e2e	0.010875268
55	0xbc1ca503	-0.009560826
56	0x3e0bfc2c	0.13670415
57	0x3dfe25d4	0.12409559
58	0xbb85cfc6	-0.0040836064
59	0xbc386de8	-0.011256672
60	0x3e2d6979	0.16934766
61	0x3be50179	0.006988701
62	0xbb139eb2	-0.002252501
63	0xbc13247e	-0.008980868
64	0xb9d54474	-0.00040677527
65	0x3b57b13c	0.0032912036
66	0x3cc330ab	0.023826918
67	0x3e41aa39	0.18912591
68	0xbc08009d	-0.0083009275
69	0x3e4e37e2	0.20138505
70	0xbb7a2397	-0.0038168186
71	0x3e9593fb	0.29214463
72	0xbb5070e4	-0.003180557
73	0xbc09517c	-0.008381244
74	0xbb880d41	-0.0041519706
75	0x3e85f9b7	0.2616708
76	0x3dbde252	0.09271683
77	0xbc177b71	-0.009245739
78	0x3d87c07b	0.066285096
79	0xbba74439	-0.0051045683
80	0xbc143257	-0.009045205
81	0xbb507848	-0.0031809974
82	0xbc75a445	-0.014992778
83	0xbbe94f34	-0.0071200375
84	0xba6fe8dd	-0.0009151826
85	0x3b410900	0.0029454827
86	0xbbb96700	-0.0056580305
87	0xbba6981f	-0.005084052
88	0xbbd5eec0	-0.0065287054
89	0xbbb5f942	-0.0055533955
90	0xbbe51933	-0.0069915294
91	0x3d03e160	0.032197356
92	0x3b6f57c3	0.0036520816
93	0x3e0673bf	0.13130091
94	0x3d0bb9f9	0.034112904
95	0xbc5bb268	-0.013409235
96	0xbb3f8a9d	-0.0029226907
97	0x3e5c453b	0.21510784
98	0xbbcca754	-0.006245533
99	0xbb621f77	-0.0034503618
100	0xbc845378	-0.016153082
101	0xbba4ae3f	-0.0050256546
102	0xbc0f402a	-0.008743325
103	0xbaa95273	-0.0012918249
104	0xbc501f5e	-0.012702791
105	0xbc5788fc	-0.013155218
106	0x3d79e6f0	0.061011255
107	0x3e5f2d95	0.21794732
108	0x3c2dcee3	0.010608408
109	0x3bdf9685	0.0068233632
110	0x3e0dd6d1	0.13851477
111	0xbc45fc9b	-0.012084152
112	0xbb96e317	-0.004604708
113	0xbc897dba	-0.016783584
114	0x3dc0a3c1	0.094062336
115	0x3e225530	0.15852809
116	0xbc227b80	-0.00991714
117	0x3ca3de56	0.020003479
118	0xbc328a89	-0.010897287
119	0xbbbbf4f0	-0.005735986
120	0x37f843b1	2.9595425e-05
121	0xbb8db072	-0.0043240124
122	0x3a8ec80a	0.0010893357
123	0xbbbf8f6f	-0.005845956
124	0xbbf78404	-0.0075535793
125	0x3ddc9f70	0.10772598
126	0xbb92b879	-0.0044775573
127	0xbd00b2f4	-0.031420663

cvae_parameters.dec_01_lin_w f4 [128, 128]
0	0x3c5cfddc	0.013488259
1	0x3c21a682	0.009866359
2	0xbc0155d3	-0.007893997
3	0xbc5dd9a2	-0.013540657
4	0x3c03c689	0.00804294
5	0xbc1336b2	-0.008985208
6	0x3983267b	0.00025014937
7	0xbcc009a7	-0.023442103
8	0x39e11a19	0.00042934789
9	0x3b86d454	0.004114667
10	0xbb02d768	-0.0019964818
11	0xbca061d0	-0.01957789
12	0x3c23ff16	0.010009548
13	0x3c781772	0.015142309
14	0x3c1ef99a	0.009703064
15	0xbc46f545	-0.012143438
16	0x3a1aa6fe	0.00058995176
17	0x3ba29e5a	0.0049627246
18	0xb9819c1c	-0.00024721108
19	0x3b68776c	0.0035471572
20	0xbb0a5dde	-0.0021113078
21	0xbaf1f05e	-0.0018458476
22	0xbbb46977	-0.0055057365
23	0xbc247880	-0.010038495
24	0xbcdaed2a	-0.026724417
25	0x38f26b39	0.00011559431
26	0x3c48e5b8	0.0122618005
27	0x3c95aef7	0.018271906
28	0xbc026467	-0.007958508
29	0xbc3c9db6	-0.011512211
30	0x3a9d6a6b	0.0012009864
31	0xbc307c8a	-0.01077188
32	0x3c13d134	0.009022046
33	0xbc934ac2	-0.017979983
34	0xbc7909eb	-0.0152001185
35	0xbb649745	-0.0034880203
36	0x3c809279	0.015694844
37	0x3ad8d58e	0.0016543136
38	0x3cb4f947	0.022091521
39	0xba0373ff	-0.0005014538
40	0x3c1edcb2	0.009696173
41	0xbba409fe	-0.005006074
42	0xbbfc8837	-0.0077066678
43	0xbaf83195	-0.0018935675
44	0x3ca9b78e	0.020717409
45	0x3de91553	0.113810204
46	0x3b6f9e1a	0.0036562742
47	0x3b23e311	0.0025007168
48	0x3bdf9e2a	0.0068242745
49	0xba85f91c	-0.0010221335
50	0x3b023200	0.0019866228
51	0xbbeb5d74	-0.0071827713
52	0xba30a664	-0.00067386613
53	0xbc5ae400	-0.0133600235
54	0xbc453220	-0.0120358765
55	0x3c03e35a	0.00804981
56	0xbbcafa2e	-0.0061943745
57	0x3bf25a46	0.0073960153
58	0xbc4c9a31	-0.012487934
59	0xbaa460ad	-0.0012541019
60	0xbc4c89ff	-0.012484073
61	0x3c144054	0.00904854
62	0xbc24a777	-0.010049692
63	0xbaf478b0	-0.001865169
64	0xbb0340a8	-0.0020027552
65	0xbbab5033	-0.0052280664
66	0xb9fa0560	-0.0004768772
67	0xbb235ed9	-0.002492836
68	0x3a03f409	0.00050336175
69	0xbc030eac	-0.0079991035
70	0xb6ae3e4c	-5.1928564e-06
71	0x3a24bf51	0.0006284612
72	0xbb200a65	-0.0024420258
73	0x3bfe5336	0.0077613844
74	0xba9cba65	-0.0011957405
75	0x3bea96c0	0.007159084
76	0xb94aa682	-0.0001932625
77	0xbc1ef7ed	-0.009702665
78	0xbb7442e6	-0.003727132
79	0xbc2727fd	-0.010202405
80	0xb9791e8e	-0.00023757873
81	0x3c9a15cd	0.018809224
82	0xbc191d7d	-0.009345409
83	0x3beda846	0.007252726
84	0x3c3e1b48	0.011603184
85	0x3c604c70	0.013690099
86	0xbc27dae3	-0.010245058
87	0xbb0a786c	-0.0021128906
88	0x3a0558ea	0.00050867966
89	0x3c97939a	0.018503
90	0xbb8cb902	-0.0042945156
91	0xbc7ab339	-0.015301519
92	0x3b937319	0.0044998047
93	0x3a94109d	0.0011296455
94	0x3e3fe4b1	0.18739583
95	0xbc98096a	-0.018559176
96	0xbc2c4be7	-0.010516143
97	0xbcd2321a	-0.025658656
98	0x3b9082a6	0.0044101058
99	0xbb19d540	-0.0023473054
100	0x3b9242cd	0.0044635297
101	0xbc134f16	-0.0089910235
102	0x3b336220	0.002737172
103	0xbb5f7560	-0.003409706
104	0xbb7d5d53	-0.0038660362
105	0x3b4f2e98	0.0031613465
106	0x3c3fa01e	0.01169589
107	0x3c0d110f	0.008610024
108	0x3b8aec7b	0.0042396164
109	0xbcc80615	-0.024416963
110	0xbbcca805	-0.0062456154
111	0xbb7e0d0a	-0.0038765096
112	0x3c731c1e	0.014838247
113	0x3bfb10d5	0.0076619186
114	0x3a7a487f	0.0009547546
115	0x399d6617	0.00030021436
116	0xbc854032	-0.016265962
117	0x3ae7d879	0.0017688415
118	0xbade8c21	-0.0016979018
119	0xbc33aa61	-0.010965914
120	0xbb02fa17	-0.001998549
121	0x3b4875f6	0.0030587888
122	0xbc0a0431	-0.008423851
123	0x3c090d66	0.008365011
124	0xbc08ee49	-0.008357593
125	0x3b8a900d	0.004228598
126	0x3c4e08d9	0.012575352
127	0x3c8f1418	0.017465636
128	0xbc30de56	-0.0107951965
129	0x3c7a2692	0.015267985
130	0xbc14207d	-0.009040949
131	0xbb35f6f3	-0.0027765601
132	0x3bade7ce	0.0053071743
133	0xbbe88ab2	-0.007096612
134	0xbc67dbb0	-0.014151499
135	0x3b2ff1cb	0.0026847
136	0xbc21f8cd	-0.009885979
137	0xb93d4397	-0.00018049624
138	0xba6adf10	-0.00089596305
139	0xbbd54e69	-0.0065095914
140	0xbc3ca84e	-0.011514736
141	0x3c0032e4	0.007824633
142	0xb72ecccc	-1.0418891e-05
143	0xbc953251	-0.01821247
144	0xbc74ac2a	-0.014933625
145	0xbabdb42c	-0.0014473251
146	0xbc230421	-0.009949715
147	0xbae76ce1	-0.001765635
148	0x3b954df5	0.0045564123
149	0x3b05a078	0.0020389836
150	0x3ba37e09	0.00498939
151	0xbb41f79d	-0.0029597052
152	0xbc51467b	-0.0127731515
153	0xbc1ed3f1	-0.009694085
154	0xbbb3d7fa	-0.005488393
155	0x3c0dbc18	0.008650802
156	0x3be26d4a	0.006910001
157	0xbca201e0	-0.019776285
158	0xbc585fee	-0.013206465
159	0x3a4a0c7a	0.00077075476
160	0xbc2cfd08	-0.010558374
161	0xbb7800a8	-0.0037842188
162	0xbcbbc476	-0.022920828
163	0xb9d60a82	-0.0004082509
164	0x3a71558e	0.0009206169
165	0x3bf1b6c1	0.0073765223
166	0xbcc5dac8	-0.024152175
167	0x3b36b915	0.0027881314
168	0x3cde9ca0	0.027174294
169	0xbc77eb20	-0.015131742
170	0xba0507cc	-0.0005074709
171	0x3c242fd5	0.01002117
172	0xb9ae8791	-0.0003328887
173	0xbd227a2d	-0.039667297
174	0xbb8a2d91	-0.0042168577
175	0x3bcc471b	0.0062340624
176	0x3c5d3400	0.013501167
177	0x3c469a4b	0.012121747
178	0xbc45a7ce	-0.012063934
179	0x3c0a4395	0.008438964
180	0xbc024da6	-0.007953083
181	0x3bbc0df9	0.0057389704
182	0xbb6b5f5f	-0.0035915
183	0xbc14621e	-0.009056596
184	0x3bd144d3	0.0063863783
185	0x3c8e68e7	0.017384006
186	0xbbfb8109	-0.0076752943
187	0xbc384a5f	-0.0112482
188	0xbab77e4d	-0.0013999433
189	0x3ac51428	0.0015035914
190	0xbbeefc35	-0.007293249
191	0xbc0a2c56	-0.008433422
192	0x3be18b6b	0.006883075
193	0x3be5306e	0.0069942987
194	0xbc2f12c6	-0.010685628
195	0xbbae7a57	-0.0053246426
196	0xbc2cee45	-0.010554855
197	0xbc8952da	-0.01676314
198	0xbb196d3b	-0.0023411054
199	0x3c9395cd	0.018015767
200	0x3a9c460e	0.0011922733
201	0xbb0007ad	-0.0019535825
202	0x3bae15f6	0.0053126765
203	0xbc606e30	-0.013698146
204	0xbb7b2235	-0.003831995
205	0xbbb208c8	-0.0054331757
206	0x3c5cd47c	0.013478395
207	0xbc2ee78f	-0.010675325
208	0x3bd9f91e	0.0066520115
209	0xbc8d9b6f	-0.01728603
210	0x3bb8294e	0.0056201583
211	0xbb0678a8	-0.0020518694
212	0x3c2a44e1	0.010392399
213	0xbc976e44	-0.018485196
214	0x3b64fd29	0.0034940934
215	0x3bf497e2	0.007464395
216	0xbb99330a	-0.004675274
217	0xbc17a73b	-0.009256179
218	0x3a25d702	0.0006326289
219	0xbc3461a8	-0.011009611
220	0xba84803f	-0.0010109021
221	0x3bb45177	0.0055028754
222	0xbd65abdd	-0.056072105
223	0xbc0ce941	-0.008600534
224	0xbc1bbf39	-0.00950604
225	0xbb7cdeb8	-0.00385849
226	0xbbe83fd3	-0.0070876866
227	0x3b457a76	0.0030132807
228	0x3b967f81	0.0045928364
229	0xba992f3c	-0.001168705
230	0xbb632877	-0.003466157
231	0xbbdac419	-0.0066762087
232	0x3ab36242	0.0013685899
233	0xbc1b347f	-0.009472965
234	0xbb9c4ef1	-0.0047701527
235	0xbc05133b	-0.008122261
236	0xbae39202	-0.0017362239
237	0x3bd0c233	0.0063708066
238	0xb986bedc	-0.00025700673
239	0xbbc7cd9b	-0.006097508
240	0xbc49b8b0	-0.012312099
241	0xbc27ec2d	-0.01024918
242	0xbb8e97c5	-0.0043515884
243	0xbc1412fe	-0.009037731
244	0x3bd4a146	0.006488952
245	0x3aba721d	0.0014224682
246	0x388a9b8d	6.6093264e-05
247	0x3b8fe029	0.0043907356
248	0xbc72dddf	-0.014823406
249	0x3b8417e4	0.0040311683
250	0x3b563a22	0.0032688458
251	0xbc8cd3f5	-0.017190913
252	0x3b770ea8	0.0037697945
253	0x3ca6cef1	0.02036235
254	0xbc6bd15b	-0.014393176
255	0xbbf5b09f	-0.0074978615

cvae_parameters.enc_00_lin_b f4 [128]
0	0xb94e29b4	-0.00019661227
1	0xb8821a3b	-6.203769e-05
2	0xb82fe825	-4.1939453e-05
3	0xb8f0a0dc	-0.00011474054
4	0x390f012b	0.00013637978
5	0x370e750b	8.491111e-06
6	0x383df8dc	4.529288e-05
7	0xb7a3bc75	-1.9518871e-05
8	0xb91f00b9	-0.00015163691
9	0xb88feabc	-6.862494e-05
10	0xb757d22e	-1.2863935e-05
11	0x3905bb12	0.00012753558
12	0x361afa57	2.3093505e-06
13	0x368eb3ea	4.2528745e-06
14	0xb8bc5ecb	-8.982195e-05
15	0x398f8a4f	0.00027378133
16	0x3919577e	0.0001462381
17	0xb849866c	-4.8047325e-05
18	0x36e3fc17	6.7944743e-06
19	0xb7266bb4	-9.919448e-06
20	0xb8a415ac	-7.824166e-05
21	0xb85940d5	-5.179721e-05
22	0xb87efc7f	-6.0793474e-05
23	0x3969f560	0.00022312021
24	0x38227d6b	3.8740614e-05
25	0x3928462e	0.00016047872
26	0x38a45b76	7.837165e-05
27	0x382310a5	3.887773e-05
28	0x391f769f	0.00015207611
29	0xb97cf5ee	-0.00024124209
30	0xb83f1934	-4.556142e-05
31	0xb8cb61ec	-9.698034e-05
32	0xb8848c89	-6.320427e-05
33	0xb94d4a99	-0.00019578113
34	0x38f8887d	0.000118509844
35	0x383e6963	4.539768e-05
36	0x397fc0a0	0.00024390453
37	0xb8d343fe	-0.000100739286
38	0x38915903	6.9307185e-05
39	0x3905d280	0.00012762286
40	0xb910f02a	-0.00013822378
41	0xb8a7b2e6	-7.996503e-05
42	0xb6b6a836	-5.443605e-06
43	0x399215ae	0.00027863443
44	0x399c963b	0.0002986657
45	0x37d48dc1	2.5338379e-05
46	0x388e8164	6.7951885e-05
47	0xb998448a	-0.00029042765
48	0xb94382d0	-0.0001864538
49	0xb9476340	-0.00019015092
50	0xb96b59e4	-0.00022444833
51	0x3988f68e	0.0002612364
52	0x3922a8db	0.00015512427
53	0xb8d7042b	-0.00010252775
54	0x374cf3c9	1.2216108e-05
55	0x38eb7466	0.00011227354
56	0xb9121279	-0.00013930527
57	0x39aab89a	0.00032562466
58	0xb8849f10	-6.323878e-05
59	0x37c12356	2.3023847e-05
60	0xb8f0cb07	-0.000114819086
61	0x3976863f	0.00023510399
62	0xb9492db5	-0.00019185881
63	0x39a823f3	0.0003207024
64	0xb680841f	-3.830078e-06
65	0x3857dbae	5.1464587e-05
66	0x3961c18c	0.00021529774
67	0xb93609db	-0.00017360544
68	0x389a7d16	7.366591e-05
69	0x3876ae32	5.8813202e-05
70	0xb90da9cd	-0.00013510064
71	0x36ab87b3	5.1119946e-06
72	0xb8a66120	-7.933588e-05
73	0xb96336d7	-0.00021668836
74	0x3962b53e	0.00021620558
75	0xb8392437	-4.4141165e-05
76	0x385c7ba8	5.256725e-05
77	0xb82a42c6	-4.0593346e-05
78	0xb9877a8b	-0.00025840508
79	0x38eb5949	0.00011222304
80	0x37d8f356	2.5862519e-05
81	0x37c2d84d	2.3227325e-05
82	0xb81fb7b8	-3.8079655e-05
83	0xb9bd4747	-0.00036101995
84	0xb8924b15	-6.9758076e-05
85	0xb5b8990b	-1.375361e-06
86	0xb96a67c5	-0.00022354636
87	0xb91045cd	-0.00013758913
88	0xb8453c06	-4.702436e-05
89	0x399908d2	0.00029189006
90	0xb9a04d5a	-0.0003057521
91	0x3874eaca	5.8392798e-05
92	0x3891c060	6.9499714e-05
93	0xb92b435d	-0.00016332926
94	0x39116d98	0.00013869104
95	0x38fc3e33	0.00012027882
96	0x38906969	6.886089e-05
97	0x38d5b265	0.0001018986
98	0xb842e07c	-4.646227e-05
99	0xb7d85285	-2.5787633e-05
100	0xb9895fda	-0.0002620209
101	0xb94798c8	-0.00019035034
102	0x387e859f	6.0682763e-05
103	0xb71e92e3	-9.451734e-06
104	0x3960b484	0.00021429552
105	0x385bf644	5.244302e-05
106	0x372d2401	1.0319986e-05
107	0xb8e6fd80	-0.00011014473
108	0x38645e57	5.4447297e-05
109	0x39df9db5	0.00042651375
110	0x39201526	0.00015266667
111	0xb80be0fd	-3.334972e-05
112	0x39b48974	0.00034434686
113	0xb6ba9bd8	-5.5613746e-06
114	0xb90e81cd	-0.0001359053
115	0x3892baa5	6.996588e-05
116	0xb70e3e2c	-8.478335e-06
117	0x3898dcb5	7.289035e-05
118	0xb952f3a9	-0.00020117931
119	0xb8d51dd1	-0.00010162185
120	0xb9114350	-0.00013853353
121	0x38c15dca	9.220427e-05
122	0x37ebd05b	2.8111206e-05
123	0xb9a46a50	-0.00031359727
124	0x39a9a3ce	0.00032356236
125	0xb7a98064	-2.0206156e-05
126	0x38432a9d	4.653131e-05
127	0xb95deeb2	-0.00021165123

cvae_parameters.enc_00_lin_w f4 [128, 163]
0	0xbc376333	-0.0111930845
1	0xbc3deb3e	-0.011591731
2	0xbb209a25	-0.002450594
3	0xbb91579b	-0.004435492
4	0x3c0b4797	0.008500955
5	0x3be27353	0.0069107204
6	0xbb4b3a81	-0.0031010213
7	0xbcae5a85	-0.021283397
8	0x3b590148	0.0033112336
9	0xbc4fcf25	-0.012683664
10	0x3b68b31e	0.0035507153
11	0x3b46fc0f	0.003036264
12	0x3aa3b169	0.0012488785
13	0x3c4bad58	0.012431465
14	0x3c375bb5	0.011191298
15	0xbb2ff1b9	-0.0026846959
16	0xbc5e0c8a	-0.013552794
17	0xbc8aed12	-0.016958747
18	0x3bbf21a3	0.005832867
19	0x3c04ab9b	0.008097555
20	0x3bc8a056	0.006122629
21	0xbc7b685e	-0.015344707
22	0xbb6038de	-0.0034213583
23	0x3c95a13c	0.01826536
24	0x3beff665	0.0073230737
25	0xbbc3ef89	-0.0059794826
26	0xbaae21de	-0.001328524
27	0x3ae7d12a	0.0017686237
28	0x3c676f4f	0.014125659
29	0x3c83850e	0.016054656
30	0x3c197de9	0.009368398
31	0xbc097c63	-0.0083914725
32	0xbbcc0ca3	-0.0062270924
33	0xb8dcd746	-0.00010530515
34	0xbb960a5b	-0.004578871
35	0x3b10eada	0.0022112639
36	0x3b97070c	0.0046089943
37	0x3a9cbd58	0.0011958284
38	0x3bd1fbbb	0.0064081824
39	0x3b942340	0.0045208037
40	0xba59cdee	-0.0008308579
41	0x3bf535d4	0.0074832235
42	0xbb2644cd	-0.0025370598
43	0x39f01669	0.00045793064
44	0x3bad33b8	0.0052857064
45	0x3cbcc08b	0.02304103
46	0xbc6ffa0b	-0.014647017
47	0xbc82e66c	-0.015979014
48	0xbbd26f08	-0.0064219274
49	0x3c0802c9	0.008301445
50	0x3c3336f9	0.0109383995
51	0x3ae7f600	0.0017697215
52	0xbb1bdaee	-0.0023781615
53	0xbb75eac2	-0.003752396
54	0x3bada6d1	0.005299427
55	0xbb8bf986	-0.004271689
56	0xbb8d4b98	-0.00431199
57	0x3bdf0b43	0.0068067624
58	0x3c7cdcb1	0.015433476
59	0x3d0b181a	0.033958532
60	0xbc7a9f26	-0.015296733
61	0xbc450397	-0.012024782
62	0x3c94be0e	0.018157031
63	0xbbbf8fa3	-0.0058459803
64	0xbbb285f9	-0.0054480997
65	0x3c0a3da8	0.008437552
66	0x3c3a6825	0.011377369
67	0x3c4f19bb	0.012640412
68	0xbc6e5b68	-0.01454816
69	0x3cd460a7	0.025924994
70	0xbb9957cb	-0.004679655
71	0x3b4cbf7e	0.0031242068
72	0xbc820431	-0.01587114
73	0xbbcc0d18	-0.006227147
74	0xbb96945c	-0.0045953225
75	0xbbad938d	-0.0052971304
76	0xbc2e7a87	-0.01064933
77	0x3c392f3d	0.011302766
78	0xbac6427c	-0.0015126015
79	0x3c033658	0.008008562
80	0xb9f881d6	-0.0004739898
81	0x3bd41fd0	0.006473519
82	0xbc041b78	-0.00806319
83	0xb9a993b6	-0.00032344245
84	0x3c06c826	0.00822643
85	0xbb82d113	-0.0039922087
86	0x3c2428fc	0.010019537
87	0x3b7e93b8	0.0038845371
88	0xbb084c6b	-0.0020797502
89	0x3cbce5e2	0.023058835
90	0xbc968b12	-0.01837686
91	0xba49e7a5	-0.0007702059
92	0xbc2bd173	-0.010486948
93	0xbc1dd1c5	-0.0096325325
94	0xb980e2bb	-0.0002458299
95	0x3bf4b283	0.0074675693
96	0x3c8b4a6f	0.017003266
97	0xbc599332	-0.013279723
98	0x3b727af0	0.0036999546
99	0x3ba9ad1b	0.0051781065
100	0xbcd473a3	-0.025934046
101	0xbc8ada9e	-0.016949948
102	0xbb313b32	-0.002704334
103	0x3b30c753	0.0026974275
104	0x3b39ddb4	0.0028360905
105	0x3a735b7d	0.0009283347
106	0x3b758767	0.003746474
107	0x3b919a7e	0.0044434657
108	0x3b9d09db	0.0047924346
109	0xbc0c2c72	-0.008555518
110	0x3bfde5ff	0.007748365
111	0xbc1a6372	-0.009423124
112	0xbb063954	-0.0020480948
113	0xbcc975d1	-0.024592312
114	0xb9ac352a	-0.00032846007
115	0xb9ebf4d3	-0.000450051
116	0x3c1ec597	0.009690664
117	0x3b57f5b5	0.003295285
118	0xbc151661	-0.009099574
119	0xba1075c2	-0.00055107113
120	0xbbcae68c	-0.006192034
121	0xbba9b24b	-0.005178725
122	0x3c9e6f40	0.019340158
123	0xbb818b47	-0.0039533707
124	0x3a817158	0.0009875698
125	0x3c38c74a	0.011277983
126	0x3c150a0c	0.009096634
127	0x3c644dbe	0.013934551
128	0xbc1340fa	-0.00898766
129	0xbb953220	-0.0045530945
130	0xbc04f07d	-0.0081139775
131	0x3bbcc912	0.005761274
132	0x3bb9b889	0.0056677503
133	0x3b9cb85a	0.0047827186
134	0x3c9c2011	0.01905826
135	0xbc2da776	-0.010599008
136	0xba7bb756	-0.00096022093
137	0x3a952d7f	0.0011381357
138	0xbbc53516	-0.006018291
139	0xbc4ad288	-0.012379296
140	0xba9c6486	-0.0011931814
141	0xbc2203aa	-0.009888569
142	0xbb6257be	-0.0034537162
143	0x3b1680bf	0.0022964922
144	0xbb292672	-0.0025810269
145	0x3a9b44a0	0.0011846013
146	0x3b21063c	0.0024570366
147	0x3c3e49c3	0.011614266
148	0x3b3c3fdc	0.0028724587
149	0x3b83d12b	0.0040227375
150	0xbb092cd2	-0.0020931256
151	0xbab3ed35	-0.0013727309
152	0x3b01eaf1	0.0019823874
153	0xbbff2cfe	-0.007787346
154	0xbc9b2e79	-0.018943058
155	0x3a9f22a5	0.0012141062
156	0xbbe67c8e	-0.007033891
157	0x3b4d6889	0.0031342825
158	0x3ad5faed	0.0016325392
159	0x3b741b1f	0.003724761
160	0x3c1e7507	0.009671456
161	0xbc259997	-0.010107419
162	0x3b45a8fe	0.0030160542
163	0xba86b509	-0.0010277341
164	0x3c22e59a	0.009942437
165	0xbba227c5	-0.0049485886
166	0x3bf73187	0.007543746
167	0x3bcacb92	0.0061888183
168	0x3b4df2e1	0.0031425285
169	0x3b0e2730	0.0021690838
170	0xbaa90cbf	-0.0012897475
171	0x3b76df18	0.0037669595
172	0xbb57d794	-0.003293489
173	0xbc32f7c1	-0.010923327
174	0x3b1e93d4	0.0024197
175	0xbc62a54c	-0.013833355
176	0xba1d6fbb	-0.0006005724
177	0xbb652ff2	-0.0034971205
178	0xbc8175e0	-0.015803277
179	0xbb5a4319	-0.0033304153
180	0x3c2bebdf	0.010493248
181	0x3a7377bc	0.0009287556
182	0x3c80a9db	0.015705993
183	0x3c037a37	0.008024744
184	0xbc2d86f7	-0.01059126
185	0xbbeeff69	-0.007293631
186	0x3c6c49ae	0.0144218635
187	0x3b36edfc	0.0027912846
188	0x3bd56c5c	0.0065131616
189	0xbc26bf33	-0.010177421
190	0xbc45edb7	-0.012080601
191	0xbc419f4b	-0.011817764
192	0xbbb33804	-0.005469324
193	0x3ba44daa	0.005014141
194	0x3b77816b	0.0037766348
195	0x3b77a379	0.0037786646
196	0x3afcd1a3	0.0019288551
197	0x3c0f19f2	0.008734213
198	0xbb417fc2	-0.0029525612
199	0x3c294bcc	0.010333013
200	0xba242a2b	-0.0006262387
201	0xbc370e8c	-0.011172902
202	0x3b6a7446	0.003577487
203	0x3bb446d3	0.005501607
204	0x3be623a4	0.0070232917
205	0xbc47bf1b	-0.012191559
206	0x3bc27f9f	0.005935624
207	0xbbafde72	-0.0053670937
208	0x3c43e069	0.011955359
209	0x3a5c706c	0.0008409086
210	0x3c14aa88	0.009073861
211	0x3c022d92	0.007945435
212	0xbc49934b	-0.012303184
213	0x3c1edd41	0.009696306
214	0xbba90dad	-0.005159101
215	0xbc4d5c9a	-0.012534285
216	0x3c1f0462	0.009705635
217	0x3c52c8cb	0.012865256
218	0xbbf53045	-0.007482561
219	0x3bb3a209	0.0054819626
220	0x3b2a1587	0.0025952773
221	0xb9b44131	-0.00034380847
222	0xbc305c2f	-0.010764166
223	0xba35177c	-0.00069081015
224	0xbb68ecb8	-0.0035541486
225	0x3c82e62a	0.015978891
226	0x3a9b1536	0.0011831883
227	0x3b87e08c	0.004146641
228	0xbb06b157	-0.002055248
229	0x3bcdb2f2	0.0062774355
230	0xbb424970	-0.0029645823
231	0xbc542940	-0.012949288
232	0xbad2b87b	-0.0016076708
233	0xbb9e75f8	-0.0048358403
234	0xbbb61a1e	-0.0055573126
235	0x3c124745	0.008928125
236	0xbc193d90	-0.009353057
237	0x3c03e539	0.008050256
238	0x3c37794d	0.011198354
239	0xbc8dd17f	-0.01731181
240	0xbc70864d	-0.014680457
241	0xbc8e3861	-0.017360868
242	0x39aa027a	0.00032426772
243	0xbc330c20	-0.010928184
244	0x3c6498fb	0.013952489
245	0xbae715e3	-0.0017630424
246	0x3bb18904	0.005417945
247	0xbab81797	-0.0014045116
248	0xb9d4e02f	-0.0004060282
249	0x3c24c7d1	0.010057406
250	0x3c0b586a	0.008504966
251	0xbba8dea9	-0.0051534963
252	0xbc170b92	-0.009219067
253	0x3a3a0b4e	0.00070970214
254	0x3c9bcb01	0.019017698
255	0x3b83e2c8	0.004024837
