dlpg/12/weights/dlpg_model_weights_100.pth (torch, 354171 bytes, 14 tensors)

cvae_parameters.dec_00_lin_b f4 [128]
00000000: 5840 60be 7024 69be c748 2abe 4dc1 c9bd
00000010: ed98 eebd 88ce 4ebe 8ea5 1ebe 2f73 2bbe
00000020: 4b55 3dbe 744b 4abe 013a 12be bc97 5cbe
00000030: f537 febd 863e 67be 3480 89be f1f6 82be
00000040: 7fa3 50be e92d 49be 45e1 f6bd 8a8c 58be
00000050: 3971 4cbe b72b dcbd dd2a 6abe 7cc8 71be
00000060: 3ca8 5cbe 77cc aebd 9b85 63be d600 fbbd
00000070: 92bf 01be ef65 18be d197 44be 5731 04be
00000080: 7c59 7ebe 1ce2 53be b213 12be ad45 d4bd
00000090: 5900 82be 5871 4bbd 7f2f 09be 551f 73be
000000a0: 30e0 68be 861d fabd dc25 69be 5b75 13be
000000b0: b276 68be 1e4b 21be 0cb4 47be 739b 14be
000000c0: d5db 1fbe 7122 50be c8d3 f8bd 8d18 89be
000000d0: a3db ddbd 0212 ccbd 684f 69be b1bf 3ebe
000000e0: 78aa 73be 8370 77be 3ecb 09be 1518 c8bd
000000f0: dbe8 02be 1362 01be acbc 73be 96d2 05be
00000100: 5e11 0bbe cb5d 7abe 1658 61be 3a68 84be
00000110: 67c1 5fbe 6178 babd 3b02 56be 8285 4dbe
00000120: 6ec4 1fbe e343 2abe 8f10 d5bd 6c96 adbd
00000130: 7a8b 3dbe 7551 cbbd 60ca 0bbe 8163 12be
00000140: 9a91 edbd f5ab 60be 2cae 34be 9c27 02be
00000150: 63c4 debd dd8b bfbd e153 05be f997 24be
00000160: 9d90 7cbe 5959 dfbd 0a76 3dbe 784e 82be
00000170: 9333 6fbe 0201 32be c09e c1bd 78be 65be
00000180: 8fa6 3bbe 39f3 32be 0d64 ebbd af1e 75be
00000190: e22b 4ebe 76f0 d3bd 1541 a4bd 33a6 61be
000001a0: 1bb6 00be 8417 71be 57a1 31be b49b 3abe
000001b0: 1ede 43be 226d 27be 7a1e 4fbe 10d9 27be
000001c0: afd4 7ebe ef61 73be 8855 80be 4f62 fabd
000001d0: 9bfd a7bd 1562 6dbe 9b69 0bbe d38f 5ebe
000001e0: 5ffe 71be e775 59be 1a15 eebd 798d 31be
000001f0: 8ce6 4ebe 8e18 45be f162 14be b4bc 1cbe
-0.21899545 -0.22767806 -0.16629325 -0.09851322 -0.11650262 -0.20195973 -0.15492842 -0.16743158
-0.18489568 -0.19755346 -0.14279939 -0.21542257 -0.12413017 -0.22582445 -0.26855624 -0.25579026
-0.20374869 -0.1964642 -0.120546855 -0.21147361 -0.19965066 -0.107505254 -0.22867914 -0.23611635
-0.21548551 -0.08535092 -0.22218935 -0.12256019 -0.12670735 -0.14882635 -0.19198538 -0.12909447
-0.24838823 -0.20691723 -0.14265326 -0.10364852 -0.2539089 -0.04966864 -0.13397025 -0.23742421
-0.2274177 -0.122126624 -0.22768348 -0.14400236 -0.22701529 -0.15751311 -0.19502276 -0.14512424
-0.15611203 -0.20325638 -0.12149769 -0.26776543 -0.10832908 -0.09964372 -0.22784197 -0.18627812
-0.23795497 -0.24164014 -0.13456437 -0.09770218 -0.1278414 -0.12635069 -0.23802441 -0.13068613
-0.13580844 -0.24449842 -0.22006258 -0.2586077 -0.21851121 -0.09104992 -0.20899288 -0.2007046
-0.15602276 -0.16627459 -0.10403549 -0.08475956 -0.18510237 -0.09927646 -0.13651419 -0.1429577
-0.11600037 -0.21940596 -0.17644566 -0.12710422 -0.108773015 -0.09352849 -0.13020279 -0.16073598
-0.2466454 -0.109057136 -0.1850206 -0.25450492 -0.23359518 -0.17383197 -0.09454107 -0.2243594
-0.18325256 -0.17475595 -0.114936925 -0.23937486 -0.20133927 -0.10348599 -0.08020226 -0.22036056
-0.12569468 -0.23544127 -0.17346703 -0.18223459 -0.191277 -0.16350225 -0.2022647 -0.16391397
-0.2488582 -0.23767827 -0.25065255 -0.12225782 -0.08202668 -0.23181947 -0.13614504 -0.21734552
-0.23632191 -0.21236382 -0.116251186 -0.17339124 -0.20205134 -0.19247648 -0.14490868 -0.1530636

cvae_parameters.dec_00_lin_w f4 [128, 35]
00000000: 07d8 0abd 9c72 2dbd 68ab 13bd fd48 ecbc
00000010: e061 2b3c 2531 6dbc cc0a 64bc 29e4 24bb
00000020: 5367 0f3d f767 b5bd 8bb8 8ebd 6c97 12bc
00000030: 0559 2abb 2044 4bbd 2112 22bd 4508 413d
00000040: eb59 80bd a5b2 3b3d a963 a1bc c615 9fbd
00000050: cbf1 4cbd 050b 58bd 383b 6b3d 8c11 8c3b
00000060: 7ca2 183c 7ec6 ccba 3824 71bd df23 48bc
00000070: 1e2e 3abd f80f 02bd 1eb4 933d 2167 d9bd
00000080: 786e b9b9 6b02 67be bbb5 8d3a 0181 2ebc
00000090: 8b9c ab3c eb6b 16bc 62b2 163a 7109 793c
000000a0: 367d 7c3a f914 74bc 7b8c 5b3d e744 cc3c
000000b0: 6fc8 b5bc cd26 ffbb 1695 ef3b bb33 8bbc
000000c0: 9cd2 063c 8868 01bd 61d4 c83b d8a7 19bd
000000d0: 56cd 06bc 094f e3bb 8bb8 d2bc ca93 1f3d
000000e0: 8b84 1f3c 1fbd 813b 33d1 343c c91e 183b
000000f0: 0f4a 8b3c b993 a839 e32d a5bb 3ff1 c63c
00000100: f29e 943b 6543 a53c c7b4 b93c cb85 7e3b
00000110: 99d9 5ebe b095 4a3b af5d f73b d16f 8bbc
00000120: 9458 283c 3491 62bb 52dd 893b 4f18 25bc
00000130: 20ba c63b 9f4a ee3a 9da1 10bc df89 c5bc
00000140: 31c0 a83c 9f4f 62ba 8672 d03a 07d1 7fbc
00000150: a89b 7cb8 33f2 c93b f74b 86bc 41a1 613b
00000160: 8ead e83a 0622 b53b 80c1 903c 9dc1 0cbb
00000170: d22c 483c d1dd 843c a982 413c 621f 8bbb
00000180: 5590 5fba f6b0 003c 94f2 1abc 3d18 03bc
00000190: e013 bc3c 4f2c 213c a5c9 103c f612 21be
000001a0: d707 2cbb a166 833b e892 b2bb 9422 7c39
000001b0: 780d 10bb 660b 403c 813d 73bc d75d 6dbb
000001c0: be9e 9cba 59cc d13b 89c7 8cbc d600 f53b
000001d0: fc80 02bc ebe3 143c 1a60 cc3b aebf 35bb
000001e0: 3c9d a2bb 4ff5 46ba 6b04 433c 28c9 03bc
000001f0: bcf1 1a3a ffc4 1f3c 2df6 5c3b 85d7 74bb
00000200: 48ff cdba 58ab 01bb e2bb a6b9 a47e f839
00000210: 9f4c 773b f9fd 0f3c 172d 0cbc 92e5 973b
00000220: 74b0 8fbb 6212 c43c f913 c2bd f6c4 163c
00000230: bcb7 563b c1b3 7abb c9b4 db3a ac19 893b
00000240: e080 45bb 639b 66bb d319 783c a0fa 24bc
00000250: 7def 6cbb 3888 3e3c 8d1e 8f3c e1a2 8c3b
00000260: 6e76 41bc 751c f2bb 7d27 81ba b5ec abb8
00000270: f139 63bc 7a8c e73b 489e 2fbb d7ef 273a
00000280: 2000 6b3b a10a 90bb ebfd 70bc cf01 d9bb
00000290: ea47 113c 2949 c8bb 7bfa 673c 5772 a73b
000002a0: 1183 f3bb 95a6 29bb 2a66 833c 8f03 883a
000002b0: 8fc6 293b ea53 e6bd b921 30bb 67fe 62bd
000002c0: 4545 103c b34e 9cbc b3df a13b 6d70 4fbc
000002d0: 5c80 73bd c8b5 36bc f881 af3c f23f 1e3d
000002e0: 7d3e 323d b1c3 6a3c ab49 50bd 02df af3c
000002f0: f4bf b4bd e1be 7dbc bc83 913d e9e1 da3c
00000300: b791 bf3b cf7c 7fbc dd4f 3d3b ca40 d8bc
00000310: badf 563a 2397 cabc c12e 14bd 41c5 2c3c
00000320: 4f07 3dbc f251 8fbd b034 f13c e55a 033d
00000330: 8e14 5f3d 72fe 883c 3019 2abd c685 fe3b
00000340: 8dd6 43be e6ba efbb 81f2 8fbc 0341 81bb
00000350: 25b6 9b3b 3aab 713b b2c4 ad3c c257 afbb
00000360: 00d0 603a 9672 903b e979 ae3b 5e1a a1ba
00000370: 82ae 703c 0663 133c 03f6 453b 892a 87bb
00000380: 086d 0c3c 97be 813c 21ad d8bc a97d 97bc
00000390: 1b42 92bc 5c88 213b add6 25bc fa85 153c
000003a0: 1d63 30bc 8466 663c 2366 9c3b 9b26 573b
000003b0: ea03 8a3b d091 71bc e919 633c 0b12 3bbb
000003c0: 0ee4 3b3b a285 123c 186f 983b e526 2ebe
000003d0: 1918 9e3c 7341 643c c447 923c 436e 87bb
000003e0: 5a75 b239 a1a1 5abc 9bc2 8a3a dd8c 62bc
000003f0: 864f 54bc c2a0 6b3b 5a51 723c e7c3 94bc
-0.033897426 -0.04234563 -0.036052138 -0.028843397 0.010460347 -0.014477049 -0.01391859 -0.0025160408
0.035010647 -0.0885772 -0.069687925 -0.008947235 -0.0025993001 -0.049625516 -0.03956807 0.047127027
-0.062671505 0.045824666 -0.019700842 -0.07767825 -0.05003528 -0.052744884 0.057429522 0.0042745527
0.009316083 -0.001562312 -0.05887243 -0.012215584 -0.045454137 -0.03175351 0.07212089 -0.106153734
-0.00035368255 -0.22559516 0.0010811606 -0.010650874 0.020948669 -0.009181003 0.0005748627 0.015200005
0.0009631695 -0.014897578 0.05360077 0.024935199 -0.0221903 -0.007786608 0.0073114736 -0.01699244
0.008228924 -0.03159383 0.006128833 -0.037513584 -0.008227667 -0.006936912 -0.025722763 0.038959302
0.009736191 0.0039593126 0.011036205 0.0023211709 0.017003087 0.0003215352 -0.0050408705 0.024284957
0.0045355493 0.020173738 0.02266921 0.003883707 -0.21762694 0.0030911975 0.0075490098 -0.017021092
0.010275025 -0.003457141 0.0042072916 -0.010076596 0.0060646683 0.0018180198 -0.008827594 -0.024113594
0.020599457 -0.000863308 0.0015903271 -0.015613801 -6.0226448e-05 0.0061629056 -0.016393645 0.003442839
0.0017751919 0.0055277376 0.017670393 -0.0021477707 0.012217717 0.016219052 0.011810937 -0.0042456845
-0.0008528282 0.007854691 -0.009457249 -0.008001384 0.022958696 0.009837224 0.008837138 -0.1572989
-0.002624979 0.004010037 -0.0054496415 0.00024045474 -0.0021980684 0.011721468 -0.014846207 -0.0036219263
-0.0011949164 0.006402534 -0.01718499 0.0074769063 -0.007965323 0.009087543 0.006237042 -0.0027732658
-0.0049625915 -0.00075896544 0.011902909 -0.008043565 0.0005910655 0.009751557 0.0033716068 -0.0037359905
-0.0015716339 -0.0019785967 -0.0003180197 0.000473966 0.0037734879 0.008788579 -0.008555672 0.004635521
-0.0043850485 0.023934547 -0.09476466 0.009202233 0.0032763323 -0.0038254114 0.0016762252 0.0041839685
-0.003013663 -0.0035187833 0.015142876 -0.010069519 -0.0036153488 0.011629157 0.017470622 0.0042918776
-0.011808021 -0.0073886462 -0.0009853687 -8.1980055e-05 -0.013868795 0.0070663067 -0.0026797224 0.00064062834
0.0035858229 -0.0043957983 -0.014708976 -0.00662253 0.008867243 -0.006112237 0.01415884 0.005110066
-0.007431396 -0.0025886644 0.016039927 0.0010377037 0.0025905704 -0.11246474 -0.002687557 -0.0554184
0.008805578 -0.019080495 0.004939997 -0.012661082 -0.059448585 -0.011151738 0.021424279 0.0386352
0.043516625 0.014328883 -0.050851505 0.021468643 -0.08825675 -0.015487404 0.071052045 0.02671905
0.005846228 -0.0155937215 0.0028886714 -0.026398081 0.000819679 -0.02473027 -0.0361774 0.010545076
-0.011537387 -0.06998052 0.029444069 0.032069106 0.05446296 0.016722891 -0.041527927 0.007767412
-0.19124813 -0.007315981 -0.01757169 -0.0039445176 0.004751938 0.003687574 0.021211956 -0.0053510377
0.0008575916 0.004408191 0.0053245914 -0.0012291183 0.014690043 0.008995777 0.003020645 -0.0041249436
0.008570917 0.01583795 -0.026449742 -0.018492537 -0.017853787 0.0024647927 -0.0101219835 0.009126181
-0.010765818 0.014062528 0.004772918 0.0032829407 0.0042118924 -0.014744237 0.013861158 -0.002854469
0.0028669867 0.008942993 0.0046519153 -0.17007025 0.0192986 0.01393162 0.017856486 -0.0041330173
0.0003403824 -0.013344199 0.0010586561 -0.01382753 -0.012958413 0.0035953973 0.014789904 -0.01815982

cvae_parameters.dec_01_lin_b f4 [128]
00000000: d958 bfbb a3a4 113d 3a09 23bc fad7 ac3d
00000010: e7bb 1bbc f371 fb3d 1f6e bd3d 608a 0a3e
00000020: 07db eb3c cfc5 843d 7c25 213e 9d50 7abc
00000030: e354 ccbb f8c7 89bc b54f 51bc da73 84bc
00000040: c0f8 883d dce0 233e cfd5 1a3d de1e 7fbc
00000050: a47c 4bbc 59aa b23d d6d5 0bbc 5423 b03c
00000060: 2e97 cf3d 8986 f5bb b361 7fbc ff6d 15bc
00000070: ea6a 8a3d 66c0 63bc 9428 acbc fce4 89bc
00000080: 559a ed3d bf79 883c 7f2a 2ebc 1b22 5bbb
00000090: cc22 4bbc b54b adbb f545 8c3d 3d64 bbbc
000000a0: 7778 25bc 4e66 303d 8966 a53d 1a96 39bc
000000b0: 5290 b53d d122 e3bc 6922 8cbc b3d1 f4bb
000000c0: c398 71bc 5fa1 ed3c 92db 473d 1b8e b8bc
000000d0: 4d1e b83d 4b22 cb3d b164 2d3e dd66 e2bb
000000e0: fd57 a43c a634 903d d057 6ebc 0220 683d
000000f0: f3ec 88bc 97d6 4a3c 4fed 4abc 2129 8d3d
00000100: ad7b aabb cb86 bbbc 4eea d33d 825f cebc
00000110: bbeb f73c e80e 7cbb 2d7b 95bc ea32 6dbc
00000120: 1eae 5cbc 96a4 7fbc 67fb 87bc b9a8 8dbc
00000130: d19d f73d 9d4e 6e3c e34d 35bc 3157 db3d
00000140: d6da 81bc 2130 dabb dfd8 693d 5e73 07bc
00000150: a167 0abc 2a06 ae3d 2ebc 33bc 8501 b33d
00000160: 005b 04bc 2b04 373d c0ca 2abc 69a2 90bc
00000170: 1e14 24bc 46a1 663d b22a 19bc da9d 8dbc
00000180: c49c b6bc 4214 963d 0840 083d 5b8d 3a3d
00000190: b5bb a4bb c5b6 a6bc 4e04 033e 52a7 703d
000001a0: d249 b0bb 2b3d 46bc 6aa4 f3bc 808e 8fbc
000001b0: fb2b edbb e619 863d 8a38 53bc c01d a43d
000001c0: 7980 3bbc 865f 34bc 1f9f afbc a9ac 39bc
000001d0: c81c 993d 6a63 c13c 0da1 48bc 7a8e d0bc
000001e0: 210d 8ebc e38f 6cbc b1df 3fbc b740 9abc
000001f0: b1bd 0b3e 8dc9 483e 32b9 68bc ddb2 c73d
-0.005839449 0.0355574 -0.00995093 0.08439632 -0.009505249 0.122775935 0.092495196 0.13529348
0.028790964 0.064830415 0.15736955 -0.015278009 -0.006235705 -0.016818985 -0.012775351 -0.016168524
0.0668807 0.16003746 0.03780156 -0.015571324 -0.012419853 0.087238975 -0.008534869 0.02150122
0.10136257 -0.0074928445 -0.015587258 -0.009120463 0.067586735 -0.013900852 -0.021015443 -0.016832821
0.11601702 0.016659616 -0.010630249 -0.0033437076 -0.012398433 -0.005288566 0.06849281 -0.022874946
-0.010099522 0.043066315 0.08076198 -0.011327291 0.088654175 -0.027726563 -0.017106252 -0.007471287
-0.014745894 0.029007612 0.048793383 -0.022528699 0.089901544 0.0991865 0.16932942 -0.006909235
0.020061487 0.07041292 -0.014547303 0.05667115 -0.016714549 0.012380264 -0.01238568 0.0689261
-0.0052027316 -0.022891423 0.103474244 -0.025192026 0.030263772 -0.0038461033 -0.018247211 -0.014477471
-0.013469247 -0.015603205 -0.01659937 -0.017292367 0.12090648 0.01454511 -0.011065933 0.1070999
-0.01585142 -0.0066585694 0.05709159 -0.008267252 -0.008447559 0.084972695 -0.0109701585 0.08740524
-0.008078337 0.04468171 -0.010424316 -0.017655568 -0.010014562 0.056306146 -0.009348558 -0.017287184
-0.022291549 0.073280826 0.03326419 0.045544963 -0.0050272592 -0.020350823 0.12794611 0.05875332
-0.005379894 -0.0120995445 -0.029741485 -0.017524004 -0.007237909 0.065479085 -0.012891898 0.08013487
-0.0114442045 -0.011009103 -0.02143818 -0.011332669 0.07476193 0.023606975 -0.012245429 -0.025458563
-0.017340245 -0.014438602 -0.011711047 -0.018829687 0.1364658 0.19608136 -0.01420431 0.09750912

cvae_parameters.dec_01_lin_w f4 [128, 128]
00000000: 92dd 5aba 5491 efbc 8abd 47bc b2bc 273c
00000010: 2bc8 47bc 835d 7dbc 75e0 043c 9eb1 8abb
00000020: 352d bcbc 4978 c2bc 2c34 863b ada7 a93c
00000030: fcc8 18bc 9109 4dbd 89dc 1abd 1b2c 47ba
00000040: 773e eabc 0f34 37bd f779 fd3c f5c7 5e3b
00000050: e37e 0fbd ce8b 313c f75b a8bc 896a 9cbc
00000060: 7864 3a3b 9aef 1fbc 1589 22bd de8f 5dbc
00000070: a323 3ebc 3d5c 9abc 0991 cabd 36ff 07bb
00000080: 2c9e d83c e896 84bd 717d cc3c a357 2fbc
00000090: 810b 53bd 9349 4fbd 6d48 813c eaba ba3c
000000a0: 15f0 12bd 1725 de3a bb02 38bd 544d 7abd
000000b0: 4820 1fbc 3e72 543c 1513 08bb b5e0 623c
000000c0: c766 0abb f2c6 0fbd c22b bf3c 4020 863c
000000d0: 6969 bf3b 0ee7 813c 8c21 b9bc a0e8 50bc
000000e0: dc40 acbc 81e1 f8bc 37c1 d03b edc5 753c
000000f0: 79d0 39bc 4f7c 8b3c c0e8 2639 d332 29bc
00000100: 1c0f 8d3c 55f9 bdbc 1503 49bd 5eda 3eba
00000110: 86f5 8b3c 6f1a b83c aad1 7f3c 7888 1abd
00000120: 0bc5 ecbb b75e 133c 1f15 4b3c 3a6c 383c
00000130: 17ee d83c 2d66 113d 36fc bc3b ecf7 233c
00000140: e180 683b 5cb1 edbc 587f cf3c 3e5b 183c
00000150: 7eaa 9a3c 7c78 cbbb 6d6a 913c 0f8e 803c
00000160: 7299 44bd 640a cd3c d462 06bd 280c 88bd
00000170: 49a0 37bd 7838 c93b 6bbb ce3b c109 623c
00000180: a5b2 ebbb 720c 36bd 1120 113d a55c 0fbc
00000190: 3c22 03bd 9950 05bc 31e5 c23a 3048 27bd
000001a0: 18d8 96bc 564e 3ebc 7975 293d d064 a8bb
000001b0: a791 b03b 2706 7dbd eae6 24bd 5f48 27bc
000001c0: c1d9 8a3a 98b9 eebc 0635 50bd ab02 7e3c
000001d0: 61cd 05bc 624f a3bc 48af 0d3b e169 9abb
000001e0: c7ae c9bc 62c8 983b 1e02 b1bb 565c a3bc
000001f0: 12f4 d4bc aa09 4abd 1811 0cbc 81d2 2dbc
00000200: 033c 663b 15ed ca3b 7e48 c53b 49dc f53b
00000210: f2ad 483c f1cf d93b a1ec a3bb deb9 63bb
00000220: 93b9 53bb 67c0 433c 5362 4a3c f5b9 673c
00000230: ed5f 623c 0f69 f5bb 97c6 733c 95a4 183c
00000240: 4947 f5bb 73e4 50bc 4180 a5bb f6a1 1bbb
00000250: b373 543c 12e5 ca3c 2cc4 863b 9811 e33b
00000260: edbf 8338 93f8 9a3c b522 363d 5476 623c
00000270: 917a 2f3c bbad 993c 50a2 11bc 5d3c ef3a
00000280: dbce c73c 1bfc abba 8464 893c a483 2abb
00000290: ac0d 1a3b 21b8 813b 5272 853c 107f de3a
000002a0: 8cce 023d e66e b0bb 5dc7 d03b a98a 0f3d
000002b0: 7213 cd3c 4c2e b73c cf1f 363d 861c 203c
000002c0: 7bf8 7cbc 2772 83bb 6ab5 9a3c cef9 673c
000002d0: 6584 cb3c bff1 063c 4ea6 f23c 03a6 883b
000002e0: 2277 063c 409e 923c 8b7b a2bb 5a91 2dbc
000002f0: b39d b93c 33a9 8b3c 48cf 96bb a21d 673c
00000300: 63cf c73c 5322 a03a 3564 91bb 7628 993b
00000310: ad15 5a3c e6d7 803c f136 92bc b5a5 a23b
00000320: ca4d 6a3b 544e fd3a a50c 4b3c e283 ed3b
00000330: d579 213c 58ce f83c 1a55 df3b 4f67 a93c
00000340: 485b 6c3c cc3b 81bb e749 6d3c 9e3d 013d
00000350: bdb5 a63c fd8e 3a3c 2f34 103d 1225 3cbb
00000360: ccc1 8f3c bceb 2c3b e277 943c b1fe 3b39
00000370: 0e4e 393d aa6d 25ba 307f f03c e813 743b
00000380: d601 f53c 83e1 9c3c b328 003d c283 733b
00000390: d3dc 5c3b 23ab 5c3b 1884 8f3c b762 4c3d
000003a0: fa4c 963a 7e6a c93c 3190 973b 53f6 ce3c
000003b0: fbd1 363c 2d60 373c 8c01 5c3d f99f c83c
000003c0: 91d0 973c 0549 953c 56df 33bc 03e9 543b
000003d0: b792 863c 3e40 753a b061 933c db34 8dbc
000003e0: 9742 d13c fcd1 793c 99c5 8f3b df4e b73c
000003f0: 9153 f6bb 14b4 863c cbf1 ed3a 8377 30bc
-0.00083490566 -0.029244103 -0.012191186 0.01023786 -0.01219372 -0.015464189 0.008110155 -0.0042325994
-0.022970775 -0.023738997 0.004095575 0.020709837 -0.009325262 -0.05005795 -0.037807975 -0.000759782
-0.028594239 -0.04472738 0.030941946 0.0033993695 -0.035033118 0.010836555 -0.020551665 -0.019093769
0.0028441232 -0.009761715 -0.039681513 -0.01352307 -0.011605176 -0.01884281 -0.098909445 -0.0020751483
0.02644261 -0.064740956 0.024962159 -0.010702047 -0.051524643 -0.050607275 0.015781606 0.022794206
-0.03587349 0.001694831 -0.04492448 -0.061108902 -0.009712286 0.012966691 -0.0020763327 0.01384752
-0.002111839 -0.03510184 0.023336295 0.0163728 0.0058414233 0.015857246 -0.022599004 -0.012750775
-0.021027021 -0.030380966 0.0063706893 0.015000802 -0.011341208 0.017027048 0.000159177 -0.010327059
0.017219119 -0.02319018 -0.049075205 -0.0007280464 0.017084848 0.022473542 0.015613953 -0.037727803
-0.007225638 0.00899475 0.012395172 0.011256272 0.026480718 0.035497833 0.0057673706 0.01000784
0.0035477208 -0.029015236 0.025329277 0.009299098 0.018880125 -0.006209431 0.017750943 0.015692739
-0.0479979 0.025029369 -0.032809094 -0.066429436 -0.044830594 0.006140765 0.006308963 0.013796271
-0.007192927 -0.044445463 0.03543097 -0.0087501155 -0.03201507 -0.008136892 0.001486933 -0.040840328
-0.018413588 -0.011615356 0.041371796 -0.005138971 0.005388457 -0.061773445 -0.04025928 -0.010210126
0.001059346 -0.029141232 -0.050831817 0.015503566 -0.008166642 -0.019935314 0.0021619368 -0.004712329
-0.024619473 0.0046625594 -0.0054018637 -0.01994149 -0.025995288 -0.049325623 -0.008548997 -0.01060927
0.0035130985 0.006192813 0.0060206046 0.0075030667 0.012248503 0.006647103 -0.0050025736 -0.0034748237
-0.0032306656 0.011947728 0.012352544 0.014143457 0.013816816 -0.0074893306 0.0148788905 0.009316583
-0.0074853045 -0.012749779 -0.0050506894 -0.002374766 0.012967038 0.024767432 0.004112741 0.0069295876
6.282316e-05 0.018917358 0.044466693 0.013822157 0.010710374 0.018759599 -0.008888796 0.0018252243
0.024390629 -0.0013121398 0.016771562 -0.0026018405 0.0023506684 0.0039587175 0.016289864 0.0016975123
0.03193526 -0.005384314 0.006371422 0.035044346 0.025033686 0.022360943 0.04446393 0.0097724255
-0.015440102 -0.0040114108 0.018885333 0.014158679 0.024843404 0.008236348 0.029620316 0.0041701808
0.008207114 0.017897725 -0.004958575 -0.010593737 0.022658205 0.017048454 -0.0046023466 0.014106186
0.024390882 0.0012217261 -0.0044369944 0.004674013 0.013310832 0.015727948 -0.017848464 0.0049636015
0.0035751932 0.0019325712 0.012393151 0.0072483877 0.009855707 0.03037183 0.006815565 0.020679144
0.01442606 -0.003943896 0.014482952 0.031552903 0.020350331 0.01138663 0.035206016 -0.002870862
0.017548464 0.0026385626 0.01812357 0.0001792859 0.045240454 -0.00063105917 0.029357523 0.003724331
0.029908102 0.019150501 0.031288814 0.0037157391 0.0033700957 0.0033671341 0.017519042 0.04989883
0.0011467033 0.024586912 0.0046253433 0.02526394 0.011158462 0.011192364 0.053712413 0.024490343
0.01853207 0.018223295 -0.01097854 0.0032487519 0.016427381 0.0009355581 0.017990917 -0.017237118
0.025544448 0.015247818 0.004387569 0.022376476 -0.007517286 0.01644329 0.0018153725 -0.010770681

cvae_parameters.enc_00_lin_b f4 [128]
00000000: 866a 15bc 471e f0bb d8b6 6ebc 66dc 78bc
00000010: 6b05 68bc 0aaf c7bb 771c 963c 16db c9bc
00000020: a5c6 7fbc eee3 70bc 09d1 67bc 3b6b 6bbc
00000030: 6de0 35bc 0623 68bc f94c 8bbc 16d4 0bbc
00000040: 13f6 15bc a200 84bc e8b6 03bc 57cc c0bc
00000050: 2301 0fbd 99cb 8abc a9de a0bb 07cc 30bc
00000060: 08b3 c3bb 3811 a6bc 9870 b7bc d36b 7dbc
00000070: d0b4 79bc 8136 9bbc 1d3f 4ebc 2b83 3ebc
00000080: 9d8a 05bd 3bcd 03bc 25b3 92bc f0c7 7abc
00000090: 7bde 0cbc 645b 10bc 46ac 81bc 9180 78bc
000000a0: bcc4 7fbc c4d0 05bc 9532 bcbc 23f4 d2bb
000000b0: 9450 bcbc 8338 e3bb 5e29 adbc 75ff b5bc
000000c0: ee00 08bc fb45 87bc 5b7e 38bc 4c29 13bc
000000d0: cf23 87bc 9dd4 45bc 818f 48bc f504 11bd
000000e0: 60a6 8bbc f29b 3abc 3688 c4bc b191 6ebc
000000f0: ac13 57bc 2985 22bc 3ec9 5cbc a57e 1abc
00000100: 811b 4fbc be3a 83bc 7f81 05bc 06a7 11bc
00000110: ab67 b0bc b43a d5bc 5b4b 13bc 39cb 4dbc
00000120: 070e 51bc 0010 39bc e63f 16bd a343 fdbb
00000130: 41d7 cabc d42a b3bc 6ade f1bb 4b19 37bc
00000140: 5fc9 4fbc d5a4 02bc 54e2 b0bc b9b6 01bc
00000150: ef85 66bc ea64 42bc 9234 b0bc 01b0 2dbc
00000160: 23c8 99bc 34cb 87bc 2728 80bc f536 74bc
00000170: a95c 4fbc 77af 26bc 64ea c2bc f324 69bc
00000180: ef49 54bc 063f 13bc 6382 09bc 7a28 8ebc
00000190: 0347 59bd 17fb 50bc e2bf 12bb 3238 5cbc
000001a0: 9981 3abc 9184 04bc d7b8 a3bc a670 70bc
000001b0: ca0e 87bc 44b7 30bc 9994 74bc 54a0 55bc
000001c0: 5ee1 7ebc f5b9 9bbc 6939 05bd 538a acbc
000001d0: 627e 30bc f45d 10bc 9dc0 9bbc 55d3 16bc
000001e0: 21eb 64bc f684 76bc b87a 89bc cf7f 1abc
000001f0: 941c 09bc 1445 8abc f3f6 28bc dbdb 75bc
-0.009119635 -0.007327828 -0.014569961 -0.015189266 -0.014161448 -0.0060938643 0.01832412 -0.024640601
-0.015611325 -0.01470278 -0.014148959 -0.014368827 -0.011100871 -0.0141685065 -0.017004477 -0.008534452
-0.009152907 -0.016113583 -0.008039214 -0.023534937 -0.034913193 -0.016942786 -0.0049093557 -0.010790831
-0.00597227 -0.020271882 -0.022392556 -0.015467602 -0.015240863 -0.018946888 -0.01258829 -0.011627953
-0.032602895 -0.008044536 -0.017907688 -0.015306458 -0.008597965 -0.008810852 -0.015829217 -0.015167371
-0.01561087 -0.008167449 -0.022973338 -0.006437795 -0.022987641 -0.006934227 -0.02113789 -0.022216538
-0.008301003 -0.016512861 -0.011260594 -0.008982014 -0.016496567 -0.012074617 -0.012241245 -0.035405118
-0.017047107 -0.011389719 -0.023990732 -0.014561103 -0.013127249 -0.009919443 -0.013475714 -0.0094296085
-0.012640835 -0.016019221 -0.00814855 -0.008889919 -0.021533808 -0.026028968 -0.008990134 -0.012560659
-0.012759692 -0.011295319 -0.036682032 -0.00772901 -0.024760844 -0.021871008 -0.00738125 -0.011175464
-0.012682288 -0.007973869 -0.021592297 -0.0079171 -0.014070018 -0.01186488 -0.021509442 -0.010601045
-0.01877219 -0.016576387 -0.015644146 -0.014905681 -0.012656369 -0.01017367 -0.023793407 -0.014230001
-0.01295708 -0.008987194 -0.008392903 -0.017353285 -0.053046238 -0.012755177 -0.0022392203 -0.013441132
-0.011383438 -0.008088247 -0.0199856 -0.014675295 -0.016486544 -0.010785881 -0.014928007 -0.0130387135
-0.015556661 -0.01900957 -0.032525454 -0.021062052 -0.0107723195 -0.008811463 -0.019012744 -0.009205659
-0.013972075 -0.015046349 -0.01678215 -0.009429886 -0.00836863 -0.016878642 -0.0103127835 -0.015006031

cvae_parameters.enc_00_lin_w f4 [128, 163]
00000000: d7fd a4bc 15a2 a8bc 7a2e 3bbc 23d1 5bbc
00000010: 6492 02ba 4720 09bb 3595 45bc 3ac9 f7bc
00000020: 9fe0 afbb c64c b2bc 4c1b 9bbb a921 c2bb
00000030: d020 e9bb 2a38 873b 1280 1a3b 37c3 3bbc
00000040: 6219 aebc 3961 d5bc d0ea d2ba 25e4 01ba
00000050: 12d0 49bb 4a2b 96bc 4913 c8bb b3f1 1c3c
00000060: 8442 9a3a b773 7abc 49cb 1cbc cf1f d2bb
00000070: 17da a43b 7064 033c 444f 4a3c 2e61 91bc
00000080: 501b 5abc e91d 03bc a42b 5fbc 2580 bfbb
00000090: d408 8dbb e3fa 04bc bcfe 953b 3667 a6bb
000000a0: 6a29 17bc c591 3cba 245d 38bc e48e 03bc
000000b0: 6296 4abb a10a 733c f0e6 bfbc 4cc4 c6bc
000000c0: f01a 6dbc 38ed f8b8 5bda ff3a 4eea ecbb
000000d0: b1a6 20bc 7e4f 41bc 09ef 42bb 0b73 3ebc
000000e0: fa5d d3bb 8bc6 36ba 4ba4 d53b 237c cd3c
000000f0: 97e8 bfbc e0cf a8bc 2045 243c 31c0 59bc
00000100: ec7c 57bc c945 583a f718 fc3a ec41 8a3b
00000110: f75d a0bc 481e 8d3c bd4f 52bc 67ff aabb
00000120: 700b b8bc 267c 7dbc cc94 34bc 8580 56bc
00000130: 3633 dcbb 1989 923b 38f0 1cbc 185a 0239
00000140: 46b6 af3b aa80 8e3b 9ba8 7ebc c0d4 ffbb
00000150: 9080 8f3c 51b7 00ba 8666 fd3a 619f 05bb
00000160: ba2a 24bc 6bba 703c 0f3f dbbc 8efa 14bc
00000170: 858e 60bc f093 c5bb 760a 15bb 610b 66ba
00000180: 1448 013c f5e5 b7bc 58c6 81bb cad2 85ba
00000190: bd76 07bd 1a69 86bc e095 e8bb f470 babb
000001a0: d351 d4bb af02 e5bb e554 8dbb 48a3 62bb
000001b0: 1b1f 69bb 306c 41bc 93bc 62ba 60ab 90bc
000001c0: cb49 ae3b f371 fcbc d172 24bc 4bf0 08bc
000001d0: d006 a03a 0e06 cbbb ada5 90bc 80df 0ebc
000001e0: 1ded a13a bc40 f0bb d09b 223c 6072 33bc
000001f0: ff63 f7bb 04d5 593b d00f 033a bd61 af3b
00000200: 277d 4cbc cf1b bdbb f458 89bc f565 afba
00000210: 8bc0 d93b 3fa0 59bb bf7b 623c 22e4 9dbc
00000220: d609 0ebc e4fa edbb 8776 59bc 5b0d aebc
00000230: 8ad5 0ebc 0f95 94bc ea87 44bc 40d7 a8bb
00000240: 64f0 36bc 52fa ffbb 8509 cdbb 0051 2b3b
00000250: 92fd c0bb b2fb 9dbb afd3 31bc 4e53 21bc
00000260: e611 e4bb 097d 89bc 35bd e4bc cda3 febb
00000270: ae4d 83bc 6031 c0bb 3a0b f0bb e1c0 abbb
00000280: 0775 1e3c d1e5 9bbc fea8 453b 9221 f1bb
00000290: 4f37 4a3b 260d 3abc c602 213a 054d c6b9
000002a0: 86d5 66bb f248 89bb c84c 08bc 4d9d 8ebb
000002b0: 8f40 30bc 73ef 87bc 88b4 a2bb 5fd2 a6bc
000002c0: 60da e6bb a1f1 ecbb 2c29 b9bc c24f 41bc
000002d0: ff4c 303b 4b21 88bb b096 0e3c c96d 8e3b
000002e0: ca0a 9dbc d1eb 2ebc 3def 023c 8586 003b
000002f0: 5604 8f3a 4fad 9cbc 2318 8cbc f686 47bc
00000300: 47f7 49bc 6b19 c33a c692 dfb9 5796 4e3b
00000310: 425c ecba c648 9e3a e9ed c3bb 084b 283c
00000320: 1b57 b7bb 95f4 81bc 4af6 ccb9 f979 483b
00000330: 477d 683b c41d 9dbc be50 d839 d4c8 12bc
00000340: d455 ff3b f738 63bb c92a bc3b 4d0f 1d3b
00000350: 7189 4cbc 0b55 153b b578 40bc 222c 94bc
00000360: af38 5c3b 3380 113c 3815 1fbc 8998 cc3b
00000370: e4ea 493c 8429 00bc 827c 90bc ae39 aebb
00000380: 3be1 2fbc ba70 893c ee6e b2ba 3ffb 1c3c
00000390: f742 abbb 7caf 25bb 5780 12bc 651e 8bbc
000003a0: dca6 bebb dabc 28bb 5943 13bc 6298 ec3b
000003b0: faf6 5fbc b9ac 0e3b 6bb7 ac3b 6b99 c3bc
000003c0: c2b2 a3bc e526 8cbc 7c75 86bb 358a 8abc
000003d0: 3185 f53b e7e7 90bb 4d47 dbba e474 22bc
000003e0: a8b8 22bc 414d 043c c766 4a3b dad1 2bbc
000003f0: 28ff 8abc 265b b8ba b175 253c 2ee6 60bb
-0.020140572 -0.0205851 -0.011424655 -0.013416561 -0.00049809203 -0.002092378 -0.0120594995 -0.03024732
-0.005367353 -0.021765124 -0.0047334787 -0.0059244228 -0.0071145073 0.0041265683 0.002357487 -0.011460117
-0.021252338 -0.026047336 -0.0016091708 -0.00049549557 -0.0030794186 -0.018331189 -0.0061058146 0.00957911
0.0011769091 -0.015286378 -0.009569951 -0.0064124833 0.005030881 0.008019552 0.012348 -0.017746534
-0.013312176 -0.008002737 -0.013621245 -0.0058441334 -0.004304031 -0.008116457 0.004577486 -0.0050782217
-0.0092261825 -0.0007193352 -0.011252675 -0.008029673 -0.003091239 0.014834077 -0.02342555 -0.024263524
-0.014471754 -0.00011869747 0.0019520031 -0.0072300797 -0.009805367 -0.011798738 -0.0029744527 -0.011624108
-0.006450412 -0.0006972334 0.0065198294 0.025083607 -0.023426337 -0.020606935 0.010026246 -0.013290451
-0.013152342 0.0008250145 0.0019233514 0.0042192843 -0.019576056 0.017226353 -0.012836394 -0.0052184346
-0.022466391 -0.015471494 -0.011021804 -0.013092165 -0.006719972 0.0044719097 -0.009578757 0.00012431329
0.005362305 0.004348834 -0.015543128 -0.007807344 0.017517358 -0.0004910129 0.0019332923 -0.0020389187
-0.010019952 0.014692883 -0.026763467 -0.00909294 -0.013705854 -0.0060295984 -0.002274183 -0.00087754993
0.00789072 -0.02244852 -0.003960412 -0.0010209915 -0.033072222 -0.016407538 -0.0070979446 -0.0056897346
-0.006479481 -0.0069888453 -0.0043130987 -0.0034582186 -0.0035571519 -0.011805579 -0.00086493156 -0.017659843
0.0053188554 -0.030816054 -0.01003714 -0.008358072 0.0012209062 -0.00619579 -0.017657125 -0.008720279
0.001235399 -0.0073319357 0.009924844 -0.010952562 -0.0075497623 0.003323854 0.00049996097 0.0053522275
-0.0124810105 -0.0057711373 -0.016766049 -0.0013381826 0.0066452674 -0.0033207086 0.013823449 -0.019273821
-0.008669337 -0.0072625745 -0.013272888 -0.021246603 -0.008717904 -0.018137483 -0.011995295 -0.005152613
-0.011165712 -0.007811823 -0.0062572383 0.002614081 -0.005889603 -0.004821264 -0.010853692 -0.009846522
-0.0069601415 -0.016783254 -0.027922252 -0.0077709914 -0.016028251 -0.005865261 -0.007325557 -0.005241499
0.009671456 -0.019030483 0.0030160542 -0.007358738 0.003085572 -0.011355674 0.0006142076 -0.00037822887
-0.0035222485 -0.004189604 -0.008319087 -0.004352248 -0.0107575795 -0.01659367 -0.0049653687 -0.020363985
-0.0070450753 -0.007230953 -0.02260264 -0.011798801 0.0026901362 -0.0041543595 0.008702919 0.0043465835
-0.019170184 -0.01067634 0.007991609 0.001961143 0.0010911326 -0.019125609 -0.017101353 -0.012178173
-0.012327022 0.0014884894 -0.0004264323 0.0031522715 -0.0018032866 0.0012076132 -0.005979289 0.010271795
-0.0055951006 -0.015863696 -0.00039093412 0.003059028 0.0035475062 -0.019179232 0.00041258888 -0.008959014
0.007792214 -0.0034671405 0.005742405 0.0023965419 -0.01248394 0.0022786285 -0.011747529 -0.01808745
0.0033603122 0.008880663 -0.009709649 0.0062437695 0.012324069 -0.007822398 -0.017637495 -0.0053169345
-0.0107348515 0.016777385 -0.0013613382 0.009581386 -0.0052264887 -0.0025281599 -0.008941731 -0.016982267
-0.005818231 -0.002574733 -0.008988225 0.007220314 -0.013669724 0.0021770431 0.0052708886 -0.023876866
-0.0199827 -0.01710839 -0.0041033607 -0.016911605 0.0074926843 -0.004422176 -0.0016729623 -0.009915564
-0.009931721 0.008075059 0.0030884014 -0.010487044 -0.016967371 -0.001406525 0.010098861 -0.0034316885

cvae_parameters.enc_01_lin_b f4 [128]
00000000: e55d 8dbc 08a1 bfbc f07a 74bc d2e0 b5bc
00000010: 5255 b6bc 093d 62bc f04b 43bc 2aa7 02bc
00000020: ddd6 50bc 9bce 22bc 33ae f9bb 6605 37bc
00000030: aa8b 77bc 0e9e febb bcdb 7bbc 652d b3bc
00000040: d610 99bc 93a1 88bc 7d5e 00bc 9c1f 62bc
00000050: eb2f 22bc 04fd e4bc dae4 70bc 9c6a c1bc
00000060: 6a85 86bc bdef 92bc f08c cdbc a96d 7dbc
00000070: 92ef bbbc a03e 23bc f53a b5bc 3cb3 79bc
00000080: 4acb 8bbc 3d77 36bc bd91 8fbc 92f9 95bc
00000090: 7f87 38bc 6eae cdbb 4351 c5bc 54d8 6dbc
000000a0: f1f2 afbc 5d4a a6bc d1c0 93bc 56d1 9abc
000000b0: 98ab 96bc e0af 90bc 9a41 8bbc 45f7 b3bc
000000c0: c5ad 74bc 8e1d 0abc c29e 14bc b9b9 55bc
000000d0: e527 c3bb e4a1 58bc dd52 8bbc ceec 79bc
000000e0: b741 bdbc 737b 8abc 4ded 69bc 4bf5 84bc
000000f0: 8760 88bc d785 b1bc a4f8 80bc 6eb4 a6bc
00000100: 1b9a 53bc b260 12bc 7d2b 75bc a831 48bc
00000110: 1bdf 99bc 2865 96bc 06dd 80bc 3155 64bc
00000120: 9700 a5bc ec3a 9bbc fca1 59bc c1fd 56bc
00000130: 0668 4ebc 507f 4cbc 73fe 0fbc a06e e1bb
00000140: 34e5 afbc 7248 eebc 4c20 ffbc 5063 99bc
00000150: 8686 9bbc b35b 4fbc 02a3 91bc 3e93 dcbc
00000160: d096 82bc 0dbf 90bc c5b0 bbbc 0d94 60bc
00000170: b6d0 61bc 62c3 92bc b9dd 37bc e71e a3bc
00000180: cb9d 11bd ee96 6cbc f9b4 86bc 164a a4bc
00000190: b5b1 bbbc 5d3f 4bbc 34cd 50bc 23b5 29bc
000001a0: c45a a5bc 6dc4 68bc 7a4b 87bc 4f99 8ebc
000001b0: f268 c2bc e15b 61bc 5672 96bc bb75 0cbc
000001c0: 0809 95bc e187 80bc b764 cebc 67c8 e0bc
000001d0: 384e 87bc e233 4dbc 2bd5 d7bc 739c 43bc
000001e0: f8f6 97bc 716c 92bc 0612 84bc 4615 43bc
000001f0: 28bf c7bc 189f 3ebc 6ad3 c0bc 8801 e4bc
-0.017256686 -0.023392215 -0.014921889 -0.02220193 -0.02225748 -0.013808497 -0.01191996 -0.007974425
-0.01274654 -0.009936954 -0.007619643 -0.011170721 -0.015108982 -0.0077703064 -0.015372213 -0.021872232
-0.018684786 -0.016678607 -0.007835028 -0.013801482 -0.00989912 -0.027952679 -0.014703 -0.023610406
-0.016421039 -0.017936582 -0.025091618 -0.01546804 -0.022941384 -0.009963661 -0.02212284 -0.015240487
-0.01706471 -0.011136827 -0.017525548 -0.018307481 -0.011262774 -0.006276897 -0.0240866 -0.014516909
-0.021478148 -0.020299131 -0.018036278 -0.018898647 -0.01839237 -0.017661989 -0.016999055 -0.021968493
-0.014934008 -0.008429898 -0.009071054 -0.013044768 -0.0059556835 -0.0132221915 -0.017007286 -0.015254213
-0.023102624 -0.016904568 -0.014277768 -0.016230246 -0.01664759 -0.021670265 -0.015743561 -0.020349707
-0.01291516 -0.008934187 -0.014963982 -0.01221887 -0.018783143 -0.018358782 -0.015730392 -0.013936327
-0.020141883 -0.018948995 -0.013283249 -0.013122023 -0.012598043 -0.012481526 -0.008788693 -0.0068796426
-0.021471597 -0.029087279 -0.03114333 -0.018724114 -0.018985044 -0.01265614 -0.017777923 -0.02692568
-0.015941054 -0.017669225 -0.022911439 -0.013707173 -0.013782671 -0.017915431 -0.011222296 -0.019912196
-0.035550874 -0.014440281 -0.016443716 -0.020054858 -0.022911886 -0.012405244 -0.012744237 -0.010358128
-0.020184882 -0.014206988 -0.016515482 -0.017407088 -0.023731682 -0.013754816 -0.018365066 -0.008572991
-0.018192783 -0.015689792 -0.025194509 -0.02743931 -0.01651679 -0.012524577 -0.026346764 -0.011939156
-0.018550381 -0.017873975 -0.016121875 -0.011906927 -0.024383143 -0.011634611 -0.02353831 -0.027832761

cvae_parameters.enc_01_lin_w f4 [128, 128]
00000000: c86e 033a 70d0 39bb 61fa 33bb d363 81b8
00000010: 3604 84bc 2116 be3a dc55 88bc 558a 183b
00000020: 1e69 cc3b 2428 63bb ef63 7abc da2a 21bc
00000030: 5ab9 253a 71a3 19bc 9e76 2c3c 4fa8 c5bc
00000040: b619 cdbb d34b 63bc 46cf 4d3c 61d8 9dbc
00000050: 313a abbc 3461 5a3b dc79 afbb e48f 89bb
00000060: eecd 153a ff84 80bc d621 05ba 0853 43bc
00000070: 12a2 09bd a70e c3bc 4c43 b1ba 8b21 6d3c
00000080: 6c5a 453a 620f b7bc b799 0ebc 4271 b93b
00000090: ef9d 26bc 320c 96bb 175f 2f3c d7d1 263b
000000a0: e03a 21bc b717 ab3b ad94 3b3b e0ec d4bc
000000b0: a590 93bb 1f84 a7bb 1e37 36bc 7c11 21bc
000000c0: e0aa b6bb 9d4f a8bc d6f9 5abc e04b 773c
000000d0: 311c c0bb c3ab e4bb 8c55 05bc 1bd6 aebc
000000e0: 7441 77bb 3203 1b38 b02b a5bc f7d7 53bc
000000f0: 41bf 313b 877c 563b da73 b3ba f22e 9ebc
00000100: 4b51 1ebb 29e5 07bd 5472 81bc baab b8bb
00000110: f171 48ba 0738 a0bc 3642 d23b 0fa8 8dbc
00000120: 286a 9fbc b8ba 29bc 8a81 06bc 5671 42bc
00000130: 40a4 04bd 6739 c8bb 5367 83bc 074f e5bb
00000140: 8a4d 43bc dd5e 27bc 5fe5 f83a 7480 abbc
00000150: 1285 e0ba 7283 c23b 9b88 98bb 37cb 37bc
00000160: 651d 38bc b736 3a3c bf53 8cbb 7233 74bb
00000170: 8b7a f9bb 3ed9 f83b c077 04bc b1c7 e03b
00000180: 62c6 ee3b 34d8 193c 681b 94b9 f222 c5bc
00000190: 6ed7 6e3a f3c4 40bb d06e bd3a 9fee 3bbc
000001a0: 65d7 dfbb 8de2 573c 792f 37bb 91cf d7bc
000001b0: 1dc2 cc3b bb8a 63bc 52ff 16b9 b358 2fbb
000001c0: dea0 16bc 97ca 06bd b1c7 67bc b2c7 81bc
000001d0: 3596 ac3b b2be 853b 1650 c7bb a23a 4e3c
000001e0: 2482 53b9 c2b5 47bc 4b16 17bb ad32 3cba
000001f0: 09d1 c9b9 8867 12bc 5cf6 3dbc 3447 36bc
00000200: 4e4b c1ba b409 163c b8e2 abbb 7f50 20bc
00000210: ff66 243a 82c8 d63a 0579 71bc ef31 ecbb
00000220: 6ff2 a33b a02f 14bc 82ba fabb 3f8a f83b
00000230: 83b7 0a3b 4381 413c 92e2 913b 2795 c3bb
00000240: d432 71bb b179 e2bc 9d7c a3bc a81e 41bb
00000250: 3e4a 25bb 7718 01bc e8c7 813c e64b 89bc
00000260: 2e65 89bb d214 8cbc f119 b1bc cef4 613c
00000270: 0de6 c0bc e12a 1b3c b382 07bc 3bcd 003c
00000280: a3f9 78bc a74a edbb f12a f73b b34f 47bb
00000290: 976c 95bc 2e3e ac3c 2d5f 48bb 7712 60bc
000002a0: d927 343c 86b4 47bc 7de0 703b f992 97bc
000002b0: d433 b13b 138f 32bb 0165 4cbb aa61 63bc
000002c0: 5e5f ad3b 3c9e b4bb d442 0e3c 1b44 07bc
000002d0: 7f5f 173a 2435 2dbb 6dc7 c2bb b1d2 7dbc
000002e0: 90a7 b43b eb26 89bc 683c a0bc 4d28 aabb
000002f0: 63ef 443c c404 3dba 4198 6fbc e2de e5bb
00000300: f686 e9ba 3dd4 123c c01b b93b 92d1 173c
00000310: 0c12 b7b9 bc64 893b 6722 dcbb 6970 03ba
00000320: 8634 31b9 4226 ad3b e76a c3bc 4ecd 5f37
00000330: ce6b 2f3b 522c 8abb 3298 3e3c f26e 863c
00000340: 7674 c1ba 99e1 9b3c f591 afbc 8b1f bbbb
00000350: 0a5f 87bc b6e5 8e3b 3731 c3bb 7700 2cbc
00000360: ad45 7b3b b891 72bc 6eab 66bb df2e 4bbc
00000370: c533 6ebb 5ed3 15bc 1082 83bb 3a56 a13b
00000380: ef92 f23b c3a7 bcbb 4c86 d53b 48cf a3bc
00000390: 9545 a03a 536e 6bbc 36f4 85bc d0da b0bc
000003a0: 5a3b 623c 88fb 613c ce05 b9bc 18ee a6bc
000003b0: 76a6 65bc 71ab 68bc 69cd 73bc c518 db3b
000003c0: 01f2 6abc 3154 0e3c b459 dfbc fe98 4fbc
000003d0: 76da 24bc 5ecf 5b3c 56c7 dcbb bfc0 233c
000003e0: bc62 cbbb 5cf0 0f3c e883 eabb fa4d 3d3c
000003f0: eee9 573b 7eda 463c 04a3 78bb 5f5c 043b
0.0005013761 -0.0028352998 -0.002746247 -6.169793e-05 -0.01611529 0.0014502445 -0.016642503 0.0023275812
0.006238117 -0.0034661377 -0.015282615 -0.009836877 0.000632187 -0.009377346 0.010526327 -0.024128107
-0.0062591685 -0.013873058 0.012561625 -0.019268217 -0.020901771 0.0033322098 -0.005355103 -0.0041980613
0.0005714585 -0.015688417 -0.00050785893 -0.011921652 -0.033601828 -0.023810698 -0.0013524084 0.014473329
0.00075284275 -0.022346202 -0.008703641 0.0056592533 -0.01016949 -0.0045790905 0.0107038235 0.0025454664
-0.009840697 0.005221333 0.0028622553 -0.025991857 -0.004503327 -0.0051121856 -0.011121539 -0.009830829
-0.005574569 -0.020545775 -0.01336523 0.015093774 -0.0058627357 -0.0069784834 -0.008138072 -0.021342328
-0.0037728222 3.6957856e-05 -0.020162433 -0.012929908 0.0027122053 0.0032728033 -0.0013691143 -0.019309495
-0.002415734 -0.03317753 -0.015801586 -0.005635706 -0.0007646373 -0.019557966 0.0064165844 -0.01729205
-0.019459799 -0.010359459 -0.008209595 -0.011867842 -0.032383204 -0.0061103585 -0.01604048 -0.006997946
-0.011920342 -0.010215488 0.0018989256 -0.020935275 -0.0017129502 0.0059360797 -0.0046549565 -0.011217884
-0.011237477 0.011365584 -0.0042824442 -0.003726211 -0.007613485 0.0075942567 -0.008085191 0.0068597426
0.0072868327 0.009389926 -0.0002824918 -0.024064515 0.0009111081 -0.0029414266 0.001445258 -0.011470466
-0.006831097 0.0131765725 -0.002795188 -0.026344093 0.006248726 -0.013888056 -0.00014400229 -0.002675575
-0.009193627 -0.03290805 -0.014146731 -0.015842292 0.0052669295 0.0040815705 -0.006082545 0.012587221
-0.00020171009 -0.0121893305 -0.002305406 -0.0007179182 -0.0003849345 -0.008935817 -0.011594381 -0.011125375
-0.0014747174 0.009157587 -0.005245533 -0.009784817 0.0006271451 0.001638666 -0.014738326 -0.007208101
0.0050032656 -0.009044558 -0.007651628 0.0075848396 0.002116651 0.011810604 0.004452058 -0.005968708
-0.0036803978 -0.027645918 -0.019956881 -0.0029467735 -0.0025221254 -0.007879368 0.015842393 -0.016759824
-0.0041929698 -0.017099772 -0.021618815 0.013791276 -0.023547197 0.009470672 -0.008270907 0.007861431
-0.015196237 -0.0072415653 0.007542961 -0.0030412495 -0.018240256 0.021025743 -0.0030574307 -0.013676277
0.010995829 -0.012189036 0.00367549 -0.0185027 0.0054077897 -0.0027245923 -0.0031188133 -0.013878265
0.0052909097 -0.005512027 0.008682925 -0.008255984 0.0005774423 -0.002642938 -0.0059441836 -0.015492127
0.005513139 -0.01674219 -0.019560054 -0.0051927925 0.012019965 -0.0007210488 -0.0146237025 -0.007015095
-0.0017816711 0.008961734 0.00564906 0.009266274 -0.00034917926 0.0041929167 -0.0067179683 -0.0005014004
-0.00016899602 0.0052841017 -0.023854686 1.3339637e-05 0.0026767137 -0.004216709 0.011632966 0.016410325
-0.001475944 0.019028472 -0.021431902 -0.0057105473 -0.01652481 0.00436088 -0.0059567946 -0.010498158
0.003834109 -0.01480525 -0.0035197395 -0.012401312 -0.0036346775 -0.009144632 -0.0040133074 0.004923609
0.0074027698 -0.0057573034 0.0065162536 -0.0199963 0.0012227768 -0.014369565 -0.0163518 -0.021588713
0.013808096 0.01379288 -0.022585776 -0.020377204 -0.014016738 -0.014201031 -0.014880517 0.0066863024
-0.014339925 0.008687065 -0.027264453 -0.0126707535 -0.010061851 0.013416139 -0.00673763 0.009994685
-0.0062068384 0.0087853335 -0.0071568377 0.011554236 0.003294583 0.012137054 -0.0037938962 0.002019666

cvae_parameters.out_lin_b f4 [160]
00000000: 7a00 403e 8bc9 8f3e d8dd 4a3e 338b 983e
00000010: cab5 6e3e b5be 763e ec3a 443e 8600 a33e
00000020: 0152 043e 3432 5b3e 6739 fd3d 30a7 5b3e
00000030: d4e7 4f3e 0859 583e c8dc 033e 0fe7 a43e
00000040: 3d12 ac3d 4e62 413e b339 c43d 7816 e73d
00000050: dda2 473e c907 463e 31b5 0b3e 093c 903e
00000060: b9f7 b43d 33b6 3f3e 7f99 9a3d ba63 0e3e
00000070: 74b9 eb3d dbea 533e d19e d03d dfb7 4e3e
00000080: 6706 2b3e 0cb4 463e 0873 d43d b955 1f3e
00000090: f89d b53d 5226 3b3e 5a3c a13d f624 4c3e
000000a0: 521e e63d 07fa 453e b84a 233e c6d4 3f3e
000000b0: 24b6 8a3d 8e6d 553e 8e18 fd3d 810a 6f3e
000000c0: 7854 bb3d 78f8 323e 8207 5f3e 29ef 7a3e
000000d0: bdca 9f3d 4ce9 363e 9404 fd3d 08a9 793e
000000e0: 3658 b03d 2cdc 533e 3271 423e 5f48 7e3e
000000f0: 6abc fe3d e1ad 083e 6f5c 8c3d 348f 303e
00000100: 7d34 833d 7f92 623e 0c3d 223e 80cb 873e
00000110: f597 243e 61d9 383d 9026 a03d 4c1b 033e
00000120: 5c83 aa3d 1975 403e 43b8 b73d 9682 813e
00000130: 16b4 113e 67b4 643d 5630 f53d c6da cd3d
00000140: 1903 c23d ce8b 0f3e a620 493d 6a38 893e
00000150: e5ed 153e 63d4 aa3d 7889 043e 22ee 083e
00000160: 7e55 003e 2b9e 993d 852e 253d 8044 503e
00000170: 11bf 1e3e 0779 0a3e 600a 963d ee17 393e
00000180: 5e7e f03d 3587 7e3d ce54 893d 4bf9 083e
00000190: b1ee 073e 6713 413e ba97 6c3d 274a 453e
000001a0: f3a5 b23d b02c ea3d f732 8e3d 21ea bf3d
000001b0: 6078 fe3d 471c 363e fee5 a53d d778 4c3e
000001c0: df8a a03d c23f 2b3e d115 d23d e122 293e
000001d0: 2bd6 083e 9c76 2c3e f8af 9e3d 0f2b 793e
000001e0: 6edc a33d 2f9f 0f3e ece0 153e 5876 473e
000001f0: 63af 2e3e fda4 133e 9fbd 693d dade 8a3e
00000200: 16e7 433d d82f 2d3e eb87 203e e1e8 5c3e
00000210: 8e6d 403e 6431 473d 9364 9b3d c034 8e3e
00000220: 14f4 e23d 975c 413e 39f5 273e 69b8 3e3e
00000230: 8a62 2a3e a539 cb3d 3eaa fa3d 674c 983e
00000240: 20ac 113e 3bf4 673e 92f9 263e 8142 713e
00000250: aa97 343e 9f26 393e c75b 0d3e dc99 9e3e
00000260: 3fd7 3a3e 7132 8d3e bd55 4a3e 9fee 963e
00000270: b130 6b3e bfa3 7b3e d8b3 3f3e 3544 a43e
0.18750182 0.28083453 0.19811189 0.297937 0.23311535 0.24096186 0.19163102 0.31836337
0.12921907 0.2140587 0.12364464 0.21450496 0.20303279 0.21127713 0.1287719 0.32207534
0.08401916 0.18885157 0.09581318 0.112835824 0.19495721 0.19338907 0.13643338 0.28170803
0.08836312 0.18721847 0.07548808 0.1390523 0.11509982 0.20695059 0.10186542 0.20187329
0.16701661 0.1940462 0.10373503 0.15560044 0.08868021 0.18276337 0.07872839 0.19935974
0.11236252 0.19333659 0.15946472 0.1873351 0.06773022 0.20842573 0.12358199 0.2334385
0.091469705 0.17477596 0.21780208 0.24505295 0.07802341 0.17862433 0.12354389 0.24380887
0.08610575 0.20689458 0.18988493 0.24832295 0.12438281 0.1334758 0.06853568 0.17242128
0.06406496 0.22126196 0.158436 0.26522446 0.16073592 0.045129184 0.07819855 0.12803382
0.08325836 0.18794669 0.08970692 0.25294942 0.14228854 0.055836108 0.1197211 0.10051493
0.09473247 0.14018175 0.0491034 0.26800853 0.14641531 0.08341291 0.12943065 0.1337209
0.12532613 0.07500871 0.040327568 0.2033863 0.15502574 0.13522731 0.073261976 0.18075535
0.11742853 0.062140662 0.06705628 0.13376348 0.13274647 0.18855058 0.057761885 0.19266568
0.087230586 0.11434305 0.069433145 0.093708284 0.124253035 0.17784224 0.08100508 0.19967972
0.078389876 0.1672354 0.102580674 0.16517211 0.13362949 0.16842121 0.07748407 0.24332832
0.08001028 0.14025567 0.14636582 0.19478738 0.17059092 0.14418407 0.057065602 0.27123147
0.047827803 0.16912782 0.15676849 0.21573211 0.18791792 0.048631087 0.075875424 0.2777462
0.110817105 0.18882976 0.16402139 0.18625034 0.16639152 0.09923104 0.12239502 0.2974579
0.14225817 0.2265176 0.16306141 0.23560525 0.1763598 0.18081139 0.13804542 0.3097676
0.18246172 0.27577546 0.19759269 0.29478928 0.22967793 0.24574183 0.18720949 0.32083288

cvae_parameters.out_lin_w f4 [160, 128]
00000000: 59ea 2a3d 7167 293d 5f09 3f3b 1c2f 873d
00000010: 4850 c13b 7f70 533c ac75 ff3c a723 503c
00000020: 549b 343d 5add 5b3b ec50 813c 70c6 793c
00000030: 8669 f93c a7ef 9f3c 7f1b 7b3c c69b e13a
00000040: 680a 1a3d 382e e93c f440 303d 5748 253c
00000050: fffb bf3c 5e19 8e3d d76f 0c3d 3a65 2e3d
00000060: 446b 813d 9fb8 283c daa8 503d 5a83 593d
00000070: e9bd c83c 1320 b53c 7ec5 653d 35b2 22bb
00000080: d401 3f3d 7612 1739 d87e 173d c67c df3c
00000090: 9afe 083d a3eb ea3c 839d 763d 04a3 0f3d
000000a0: 2ae8 cb3b 1354 593c 7fe8 463c 25d7 fe3c
000000b0: dc10 363d 9f30 e4bb 35b6 2a3d 53b2 4b3d
000000c0: 2e6a 743c 80ad 363d 958f 203d f89d 20bc
000000d0: 9454 593c a009 6d3d 21d2 793d cea2 49bc
000000e0: 0c01 293d e37f 8e3d 6d5c e33c 92ab 443d
000000f0: c0c8 893c 7948 243d e7c8 793c 0983 363d
00000100: 4094 8d3d 2db1 a43c c6fc 863c b115 eabb
00000110: 176d 303d 47f5 a33c 1018 073d da10 423c
00000120: 471e 973c a76d f13c ec80 cc3a 168f 0bbc
00000130: b3fd 923d ca20 d93c 4395 2b3b ef62 e23c
00000140: f04e 5c3d c089 363d 6ce1 8a3d 7db7 ae3c
00000150: f567 a33b fbb1 4c3d d05d bc3c 86c0 5b3d
00000160: b1be 903c cb2a 5b3d 23f7 b13b 3621 24bb
00000170: c3d5 f13c ae75 323d c0f7 d33c 3b1b fd3a
00000180: ab24 afbb 610b 933c f9b8 0d3d e500 4d3d
00000190: b000 5a3c b0a4 563c ed67 b43d a0b9 073d
000001a0: 1e12 d83b cd17 363b 3568 163d f91a 113c
000001b0: d743 3b3d f620 163d 96b4 ee3c 9be9 153d
000001c0: 24b5 063d 6848 303d 042b 103d e076 333c
000001d0: d3a2 503d 9285 3c3d 352f 3b3d c1b5 2f3d
000001e0: 4fe2 153d a8ba 623b c83b dd3c 1d9b 803b
000001f0: 2bf2 8a3c b3af 003d a7ca 2d3c 5041 2c3d
00000200: a694 ea3d 9ca5 c23d 6743 1fbc 1338 043e
00000210: e5dd 01bb 3c14 af3d 1a74 d03d f7e2 0b3d
00000220: 6715 f63d 41e1 ea3c 0553 a53d 9604 5c3d
00000230: 6888 6a3d 2006 4c3c d0fa e73b 5867 53bb
00000240: 5c42 063e 2f76 ba3d 03fd f53d d371 533d
00000250: 9d39 c33d 68c0 f63d c276 853d 346b ac3d
00000260: 40e4 033e ee41 c63c b1ef eb3d aee8 bf3d
00000270: d532 d23d 7c50 d13d e576 ef3d 87ee 96ba
00000280: d946 d13d 1b17 853d 3c86 613d 349e 903d
00000290: 1493 873d 3eb8 963d 02a9 e03d 9725 d03d
000002a0: a3fd 263c 499d 10bc 733a 4b3d 20f9 bb3d
000002b0: a33e ee3d 20e8 333d 2a70 d43d c950 953d
000002c0: ae25 b53d 8848 d93d 6887 063e 5daa 45bd
000002d0: 2b3b ef3c ed73 fc3d 68ff 153e 7c3d 8d3c
000002e0: b6ef c43d db79 f93d dcd8 ac3d 8bcd fc3d
000002f0: 875d ca3d 4512 d03d fbe6 8c3c a224 883d
00000300: 56c6 3d3c 09b1 a23d a5f0 433d df5d 33bb
00000310: 9e87 d83d 4825 103c ba1f 9c3d d553 6d3d
00000320: 9d81 a43d 8363 963d 8276 bebb 9673 82bc
00000330: 5365 183e d6e3 9e3d b152 bf3c fe01 913d
00000340: f073 b33d 18ff e23d 40ec 1c3e 8602 8e3c
00000350: 7bfb faba 6764 803d f49b c63d 7f07 fd3d
00000360: 0ea7 a03d 0ff9 ea3d 39e3 283c 6433 303d
00000370: 0a09 9f3d e003 b23d 9543 ae3d 0179 1e3c
00000380: 5135 813d 279f 903d e7c1 da3d c0f4 c83d
00000390: 9c2f 763d 7cab 833d 7e98 1f3e 939d 6e3d
000003a0: cd04 933c eeef 3b3c 34c2 0c3e 2098 79bc
000003b0: f639 cf3d 36eb d43d 563b 803d 1949 c63d
000003c0: c1e9 e73d 4d23 c33d e347 c93d fae9 9ebc
000003d0: 6971 f13d 13d2 bc3d 6c33 b73d 6e40 683d
000003e0: 4f53 d53d 82f3 653d b6a5 d03d cffd c03b
000003f0: f5e6 993d 66cd a03d cc09 9c3d 854a 883d
0.041727398 0.041358415 0.0029149873 0.06600782 0.005899463 0.012905239 0.03118404 0.012703813
0.044093445 0.0033548684 0.015785657 0.015245065 0.030445825 0.019523455 0.01532638 0.0017212562
0.03760758 0.028464422 0.043030694 0.010088048 0.02343559 0.06938432 0.034286346 0.042577006
0.063192874 0.010297923 0.05094228 0.053103782 0.024504619 0.02211002 0.056096546 -0.0024825458
0.046632603 0.0001440736 0.036986202 0.027281176 0.033445932 0.028676813 0.06020881 0.035067573
0.0062227445 0.013264674 0.012140392 0.031108448 0.044449672 -0.006963804 0.041677672 0.04973061
0.014917893 0.044599056 0.03919943 -0.009803288 0.013264794 0.057870507 0.06099141 -0.012306882
0.041260764 0.06957986 0.027754033 0.048015185 0.016819358 0.040108178 0.015245653 0.04455856
0.06913042 0.020104015 0.016477954 -0.007143699 0.043072786 0.020014418 0.032981932 0.011844838
0.018447055 0.029471232 0.0015602387 -0.008518001 0.071772955 0.026504893 0.0026181496 0.027635066
0.05378622 0.044564962 0.06781277 0.021327728 0.004986758 0.049974423 0.022993952 0.0536504
0.017669054 0.053507607 0.0054310723 -0.002504421 0.029520875 0.04356926 0.025874972 0.0019310483
-0.0053449473 0.017949762 0.03460023 0.05004968 0.013305828 0.013100788 0.08808885 0.03313601
0.0065939566 0.0027785182 0.036720473 0.008856528 0.045718994 0.036652528 0.029138844 0.036599737
0.032887593 0.043037802 0.035197273 0.010953635 0.05093653 0.04602582 0.045699317 0.042897943
0.036592778 0.003459612 0.027006045 0.003924741 0.016961178 0.03141756 0.010607398 0.042054474
0.11454134 0.09504244 -0.00972066 0.12912016 -0.0019816097 0.08548781 0.101783946 0.034151997
0.12015801 0.028671863 0.08072475 0.05371531 0.057258993 0.012452632 0.0070794597 -0.0032257643
0.13111252 0.09104573 0.12011149 0.051622223 0.09532473 0.12048417 0.06516792 0.08418885
0.12880039 0.02420136 0.11520327 0.09370552 0.10263602 0.10220429 0.11692599 -0.0011515178
0.10218591 0.06498548 0.055059657 0.07061425 0.0661985 0.0735936 0.10969736 0.1016342
0.010192308 -0.008826562 0.04961629 0.09178376 0.11633041 0.043922544 0.10372956 0.07290799
0.088450775 0.10609537 0.13137591 -0.048258174 0.029203018 0.123267986 0.14648211 0.017241232
0.09616034 0.12181445 0.084398 0.12343892 0.0988112 0.10159735 0.017199984 0.06647612
0.0115829315 0.07943923 0.04783692 -0.0027369184 0.10572742 0.008797951 0.07623239 0.057941277
0.08032534 0.07343199 -0.005812467 -0.015924256 0.14882402 0.077583 0.02335486 0.07080458
0.08762348 0.110838115 0.15324497 0.017335188 -0.0019148433 0.0626915 0.096977144 0.123549454
0.07844363 0.114732854 0.01030808 0.04301776 0.07765396 0.08692145 0.08508984 0.009672404
0.063089974 0.07061606 0.10681515 0.09812307 0.060103998 0.064291924 0.15585515 0.058255743
0.017946625 0.011470778 0.13745958 -0.015234023 0.10118477 0.103964254 0.062613174 0.09681911
0.11323882 0.095282175 0.098281644 -0.019398678 0.117892094 0.09219756 0.08945355 0.05670207
0.104162805 0.05614043 0.10187857 0.0058896313 0.07514755 0.07851677 0.07619056 0.066548385

cvae_parameters.z_mu_lin_b f4 [32]
00000000: 1576 ffb8 b5b7 58b8 9c1c 3fb9 4542 0d39
00000010: 7d14 afb9 5e5d e6b8 85ac b637 3e39 bdb8
00000020: 5909 de39 0e03 51b6 f001 59b7 0ac4 c2b8
00000030: dd83 bb38 0aa8 5b37 e8ee 0f37 53cd c138
00000040: a9e9 66b8 6b7d 2639 1c2c 51b8 ac32 0eb9
00000050: 97f1 0138 0a9a 0038 982b 4539 36d4 b738
00000060: 5b7c 5538 5d2d 2539 f19c cc36 7d72 30b9
00000070: 7ace 3539 9c61 3639 b703 7c36 6fb9 ccb8
-0.00012181342 -5.1669504e-05 -0.00018225837 0.00013471495 -0.00033393866 -0.000109846456 2.1776426e-05 -9.0228845e-05
0.00042350104 -3.1145205e-06 -1.2934659e-05 -9.287156e-05 8.941416e-05 1.3092542e-05 8.579089e-06 9.241202e-05
-5.5053886e-05 0.00015877715 -4.9870563e-05 -0.00013561052 3.0980995e-05 3.066104e-05 0.00018803624 8.765647e-05
5.0898972e-05 0.00015752525 6.097944e-06 -0.00016827318 0.00017338424 0.00017393235 3.7553089e-06 -9.762018e-05
